checkpoints/baseline_kd_d3/best_model.pt (torch, 256725 bytes, 142 tensors)

embedder.feature_projections.0.weight f4 [32, 1]
000000 c6 60 00 3d 64 cd 93 be de 8c 9a bf bb 6c 1e bf
       0.03134229 -0.28867638 -1.2074239 -0.6188466
000010 55 90 5b bf 7e 63 48 3e 50 1e f9 3d 8b fc 86 bf
       -0.8576711 0.19569203 0.12163985 -1.054582
000020 b8 85 99 bf 4f 3f bc be c6 e0 53 3f f6 54 35 3f
       -1.1993933 -0.3676705 0.8276485 0.70832765
000030 a0 68 25 bf a9 85 a2 3f cf 76 4c 3f e7 63 82 bf
       -0.6461277 1.269704 0.7986879 -1.0186738
000040 68 f4 89 bf 42 d8 46 bf af 5a 8a 3f 07 7b b8 3e
       -1.0777712 -0.77673733 1.0808924 0.36031362
000050 68 7d af be 56 26 86 bf 40 72 62 3f 02 bd 58 bf
       -0.34275365 -1.0480449 0.8845558 -0.84663403
000060 2b e2 cb bd a5 25 bb bc 9d 0a 0e bf 2b 93 cb bc
       -0.099552475 -0.022845099 -0.55484945 -0.024850449
000070 5e a1 7f bf bf 21 9b bd 4e 56 75 3f 88 0f 0f 3f
       -0.998556 -0.07574796 0.95834816 0.55883074

embedder.feature_projections.0.bias f4 [32]
000000 4d 7a e2 bd 21 cb 90 3e d5 61 02 bf b6 db 4d be
       -0.11058483 0.28279975 -0.5093053 -0.20103344
000010 e9 e8 29 bf 56 46 b1 bb 55 88 29 3f 9a 91 6e be
       -0.6637102 -0.005409996 0.6622365 -0.2329773
000020 e5 b2 6a 3f 4a 7b c2 3d da 2e 7e be aa 54 48 3f
       0.9167922 0.09496172 -0.2482256 0.7825419
000030 87 16 4e 3f f7 cd 11 bf 19 85 01 bf bc d7 9c 3d
       0.80503124 -0.569549 -0.50593716 0.076583356
000040 a0 59 4c bf 80 c0 01 bf 18 de 63 bf 9a 5d f6 3e
       -0.79824257 -0.50684357 -0.89010763 0.48118287
000050 bf e8 ed bd 6e de fb be f0 65 3c bf 18 56 52 3e
       -0.116166584 -0.49193138 -0.73593044 0.20540655
000060 84 ce 23 bf f5 6d 10 3f 5c 47 15 bf f6 4b 67 bf
       -0.6398699 0.5641778 -0.5831201 -0.9035028
000070 f3 14 c8 3d 11 3f c8 3e 2b 21 0c bf 11 78 ef be
       0.09769621 0.39110616 -0.5473811 -0.4677129

embedder.feature_projections.1.weight f4 [32, 1]
000000 1a 15 b4 be 91 d3 5a 3d 5e da 35 bf 11 ae d6 be
       -0.3517235 0.05342442 -0.71036327 -0.41929677
000010 8e 0d 33 bf 3e d6 41 be 36 19 26 be 96 fe 19 be
       -0.6994256 -0.18929383 -0.16220555 -0.15038523
000020 80 4f 32 3e cb 48 66 3f 73 c7 f3 be 74 59 24 3f
       0.1741314 0.89954823 -0.47613105 0.64198995
000030 d6 8c 3e be 9e 29 39 3e 04 ae 41 3f 66 0a 8f be
       -0.18608412 0.18082282 0.7565615 -0.2793762
000040 79 38 52 be 99 f6 3b 3e 97 1c af be e4 a0 0e bf
       -0.20529355 0.18355788 -0.342015 -0.5571425
000050 3a 59 df 3e 8a 64 43 3e d6 78 1b 3f 98 c0 92 be
       0.43622762 0.19081321 0.60731256 -0.28662562
000060 ec 62 23 3f 71 b2 f6 be 4b f2 07 3f 6a ac c0 3e
       0.6382282 -0.48183015 0.53104085 0.37631541
000070 3a 2b 21 3e 6a fa c7 be 75 0b 02 3e 0e 0d dc be
       0.15739146 -0.39058238 0.12699683 -0.4297871

embedder.feature_projections.1.bias f4 [32]
000000 a4 0c 65 bf bc 59 5e bf 1f 25 43 3f 09 fb e3 be
       -0.89472413 -0.86855674 0.7622852 -0.44527462
000010 a2 9e e1 be 2f 3b 59 be 8b f9 19 bf 32 c7 f0 be
       -0.4406634 -0.21213983 -0.601464 -0.47026974
000020 82 22 66 bd 98 03 3d be 91 e7 76 bd 2f 33 25 be
       -0.056185253 -0.18458402 -0.060279433 -0.16132806
000030 1d 37 50 bf 15 fb ae 3e 91 a3 12 bf 9f 55 34 bf
       -0.81334096 0.34175935 -0.5728083 -0.7044315
000040 de 05 91 3d 4b f7 25 3e a2 8a 51 bf ec 4e 3b 3f
       0.07081197 0.16207616 -0.8185216 0.731673
000050 f9 b2 25 3f 0d f8 67 3f ee 83 3f bf a8 81 15 bf
       0.64726216 0.9061287 -0.74810684 -0.58400965
000060 08 74 06 3f 5b 47 6b 3f c7 75 d7 be 78 b1 d3 3e
       0.525208 0.91905755 -0.42082044 0.41346335
000070 8b 59 34 3f ac 3f 3f bf d7 5f 2e bf ed c3 c7 3e
       0.7044913 -0.7470653 -0.6811499 0.39016667

embedder.stabilizer_embedding.weight f4 [8, 32]
000000 10 b7 37 be af 3a 2e bf 66 65 80 3f e8 27 a9 3e
       -0.17940927 -0.68058294 1.0030944 0.3303826
000010 b4 1f 28 bf 9c cd c5 be 28 17 07 40 50 7a 95 3d
       -0.65673375 -0.3863343 2.1107883 0.0729872
000020 9b 99 0a 3f 6e bf c0 3e cd db fe bf 5a 77 cc 3d
       0.54140633 0.3764605 -1.9910828 0.09983702
000030 fa a2 07 c0 ed 10 42 3f fb 56 fa be db 08 07 3c
       -2.1193223 0.75807077 -0.48894486 0.008241857
000040 7c 66 29 be 92 12 ab bf 20 3a 21 3f 94 b7 48 be
       -0.16543001 -1.3365042 0.62979317 -0.1960128
000050 9a 17 9d be 5f 2e cd bf 42 b1 41 3f 62 e1 b3 bc
       -0.3068207 -1.6029776 0.756611 -0.021958057
000060 34 ce da 3e 79 34 2d be 59 54 6b 3e 1e 12 d4 be
       0.42735445 -0.16914548 0.22981395 -0.41420072
000070 22 c7 12 3e 6d 40 1d 40 3a 9c 32 3f 86 9c 4a bf
       0.14333776 2.4570572 0.6976963 -0.79145086
000080 20 74 95 3e 85 fc 3d 3f 7b ca c7 3e 40 44 c0 3f
       0.2919016 0.7421344 0.39021668 1.5020828
000090 61 6c c7 3f 9a de 04 3f 43 b6 a3 bf f6 e1 b3 be
       1.557995 0.51902163 -1.2789997 -0.35133332
0000a0 77 26 65 3e 02 fb a6 be 00 be 13 c0 2b 75 53 3f
       0.22377954 -0.3261338 -2.3084717 0.8260066
0000b0 cc c3 80 3e c1 f8 58 3e 8d 4a c0 3f cf 0b 6b 3f
       0.2514938 0.21188642 1.5022751 0.91814893
0000c0 25 b1 53 bf f5 23 b0 be d2 65 04 bf 0d c4 80 3f
       -0.82692176 -0.34402433 -0.51717865 1.005983
0000d0 a9 1c 8e 3f 6b 02 a6 bf e4 9b ce be da 1d e6 bf
       1.1102496 -1.2969488 -0.4035331 -1.797786
0000e0 4f bd e8 3d c3 7c e1 ba 38 2d 5c 3f 2d 31 4a be
       0.11364233 -0.001720332 0.860065 -0.19745322
0000f0 01 4b 88 bd 5e d7 12 bf 44 9e 21 be 0e 14 0a 40
       -0.06654931 -0.57359874 -0.1578303 2.157474
000100 d2 f2 b2 bf 49 5c e0 be e9 3d 97 3e 43 20 4b 3f
       -1.3980353 -0.43820408 0.2953942 0.793461
000110 59 6e 6c 3f c7 18 18 bf 62 dc df 3e 12 3f 9a 3e
       0.9235588 -0.5941281 0.43722826 0.30126244
000120 ad e2 2c bf c6 43 a1 be b5 b7 a6 be 31 2e 5f 3f
       -0.6753338 -0.3149702 -0.32562032 0.8717986
000130 c4 e1 81 be 86 12 a3 bf c2 80 f0 3d 12 5f b4 3f
       -0.25367558 -1.2740028 0.117433086 1.4091513
000140 26 1e c7 3d 96 df 10 3f 50 85 8d bf 33 01 91 bf
       0.09722547 0.56591165 -1.1056309 -1.1328491
000150 3f 87 a4 bf f4 e8 0f 40 23 a9 9c 3f 36 a6 4c 3e
       -1.2853774 2.2485933 1.2239116 0.1998528
000160 71 e7 01 3f d5 3b c5 3f ff fc 3e bf c1 4a 0c 3f
       0.50743777 1.5408884 -0.7460479 0.54801565
000170 39 88 d2 3e c0 54 a3 bf d3 5c e8 3f ef 7b 77 3c
       0.41119555 -1.2760239 1.8153328 0.015105232
000180 17 33 9a 3e 95 85 10 3f 9c 9b af 3f 49 fd da be
       0.30117103 0.5645383 1.3719363 -0.42771366
000190 ae 84 ab be 5a 4c 30 3f 99 96 fb bf ad d0 0d bf
       -0.33499664 0.68866503 -1.9655334 -0.5539654
0001a0 9c 98 6d bd 68 f1 28 bf b2 69 8b 3f c6 7f a6 3f
       -0.058006868 -0.65993357 1.0891631 1.3007743
0001b0 6a e8 0a 40 88 ab 82 bf fe 1c eb bf c7 6a 9e bf
       2.1704354 -1.0208597 -1.8368223 -1.2376336
0001c0 9b e3 38 3c 35 6e 54 bb d8 2e d9 3f e9 3e 75 3f
       0.011284734 -0.0032414321 1.696742 0.9579912
0001d0 33 08 4e 3e aa 79 5b 3e 68 af 45 3e dd 56 b8 be
       0.20120315 0.2143313 0.19305193 -0.3600377
0001e0 54 f4 0f bf 87 5c 2d c0 88 67 a0 bf 1b 05 d0 3e
       -0.5623219 -2.7087724 -1.2531595 0.40628895
0001f0 e8 27 f1 be 15 0c a6 3e 2a 6a 8c bf 20 98 9b 3f
       -0.4710076 0.32431093 -1.0969899 1.21558
000200 f4 18 b4 3f bd 4c 4e 3f 77 b2 88 3e 00 d2 e1 be
       1.4070115 0.80585843 0.26698658 -0.4410553
000210 24 b8 b2 3f 61 ed c2 be 22 a2 9a bf 64 77 0f 40
       1.3962445 -0.3807173 -1.2080729 2.241662
000220 e8 ec 0f 3e 61 d4 5e bf ad 54 01 bf c3 71 2d 3e
       0.14055216 -0.87042814 -0.5051983 0.16937928
000230 90 d9 80 3e 9e 3c b5 3f 90 61 c0 3e 66 d6 b8 bf
       0.25165987 1.4159124 0.37574434 -1.4440429
000240 6d f8 f0 be 8b fa 7f be 73 5b 9c bf ca 0c 6a bf
       -0.47064534 -0.24997918 -1.2215408 -0.91425765
000250 4c 9b 10 bf 99 ff ce bf d6 ab 7c 3e a2 ab 20 bf
       -0.56486964 -1.6171752 0.24674925 -0.6276189
000260 78 d7 48 bf aa 61 a8 be aa d1 78 bf be 52 aa be
       -0.7845378 -0.32887012 -0.9719492 -0.33266252
000270 7c 9e 15 40 8e 59 25 3f 2c 1b 48 bf a2 f6 9f 3d
       2.337798 0.64589775 -0.7816646 0.07810713
000280 4d bd 6b be 38 47 ba 3e ed ec 0c 3f c1 b4 88 3f
       -0.23021431 0.3638246 0.5504902 1.0680162
000290 a3 90 2f 3f 4a af 50 3f 33 0e 18 3f 18 60 c2 3e
       0.68580073 0.8151747 0.59396666 0.3796394
0002a0 c6 b1 ec 3f 3e bc 82 3e 2e 96 94 bd 45 2e ed bf
       1.8491752 0.25534242 -0.07255207 -1.8529745
0002b0 c4 b5 bc bf f4 9d 03 40 e8 44 ae 3f 32 7b ec be
       -1.474297 2.0565157 1.3614779 -0.4618774
0002c0 69 a1 db 3c b1 de 45 3f f2 60 8b bf eb 14 a8 3e
       0.026810365 0.77292925 -1.088896 0.3282846
0002d0 01 f4 4a bf 93 e3 d1 3e 0b d1 a4 3e 7d cb e0 3f
       -0.7927857 0.40993938 0.32190737 1.75621
0002e0 e4 7f bd 3e dd e1 57 3e d9 d2 63 bf d2 f9 21 be
       0.37011635 0.21082254 -0.88993603 -0.15817955
0002f0 3f 79 be 3e 26 68 c4 bf 0c 63 47 3f 9d d1 38 be
       0.37201878 -1.5344284 0.7788551 -0.18048711
000300 fb 4b d0 bf 08 eb 2c c0 c7 cf b1 3f 6e aa a1 3f
       -1.6273187 -2.7018452 1.3891534 1.2630136
000310 4b 7b 01 3f 35 01 6a bf a0 a2 04 bf 32 1c d1 3f
       0.50578755 -0.9140809 -0.51810646 1.633673
000320 73 5a 8a 3e 75 c1 09 3c a3 c4 a3 3f bb cf d6 3d
       0.27022132 0.00840794 1.2794384 0.1048884
000330 a7 85 5c 3f 56 6c 60 bf 4a da e1 3f e3 db 7d be
       0.8614144 -0.8766531 1.7644742 -0.24790911
000340 cd 65 19 c0 6e ee af bf 7b 3e a0 be e1 a5 1a c0
       -2.3968384 -1.3744638 -0.3129767 -2.4163744
000350 f5 a7 8f 3f 69 fa a9 3d 3b 86 2a bf f9 c8 4b 3f
       1.1223131 0.08299715 -0.6661107 0.79603535
000360 c9 c0 20 bf 52 9d bb 3e b6 db bc 3f ac 01 fd bf
       -0.62794167 0.36643463 1.475455 -1.9766135
000370 f1 a0 5f 3f d5 1d 15 bf d8 c0 dc 3e fb 36 ea 3f
       0.8735495 -0.58248645 0.43115878 1.8298029
000380 1d dc 0b 40 17 c2 08 3f d5 86 f3 3e ce 68 b3 3e
       2.1853096 0.5342116 0.47563806 0.35040897
000390 b9 72 88 bf 20 2b b5 bf 54 48 8a bf 5c bc ab be
       -1.066001 -1.4153786 -1.0803323 -0.33542144
0003a0 f9 89 a5 3f 3e 29 a8 bf 17 57 61 3f d6 0f fa bd
       1.2932731 -1.3137586 0.88023514 -0.12210052
0003b0 1d 03 cf 3e a0 da bf bf 6b 8e bb 3e d3 a2 3d bf
       0.40432063 -1.4988594 0.36632094 -0.74076575
0003c0 c8 34 0d c0 ce ae 5a 3e ef ab a8 3e 29 1e 75 bf
       -2.2063465 0.21355745 0.32943675 -0.95749146
0003d0 ec 27 b3 bf ca 12 71 3f 1b 14 97 3e 2e c2 0a bf
       -1.3996558 0.94169295 0.29507527 -0.54202545
0003e0 d6 c0 ad bf 2d d1 ba be 26 ba d4 bf a7 25 30 3c
       -1.3574474 -0.36487713 -1.6619308 0.0107511645
0003f0 35 c1 b1 3f 76 19 8b 3f cf 57 1a 3f 4e a1 88 be
       1.3887087 1.0867145 0.60290235 -0.26685566

embedder.res_block.0.weight f4 [32]
000000 4a ce 62 3f b5 2d 7b 3f ca 9d 8f 3f 34 b7 84 3f
       0.8859602 0.9811662 1.1220028 1.0368409
000010 c9 4f 8f 3f a6 10 7a 3f d2 c4 80 3f 67 a6 9b 3f
       1.1196223 0.97681653 1.0060065 1.2160157
000020 db 68 86 3f e8 28 85 3f 49 fb 8d 3f f0 d0 77 3f
       1.0500749 1.0403109 1.1092311 0.9680319
000030 28 9d 71 3f 79 bf 85 3f 53 94 7d 3f db 04 88 3f
       0.94380426 1.0449058 0.9905445 1.0626482
000040 0a e1 7a 3f 8d 3a 91 3f 67 d0 8e 3f 06 1d 73 3f
       0.9799963 1.1345993 1.1157349 0.9496616
000050 9d 10 7c 3f f7 e8 87 3f c8 21 a0 3f 49 4c 66 3f
       0.9846285 1.061797 1.2510309 0.8996015
000060 27 cf 81 3f 45 12 79 3f 7b 7d 86 3f 41 1e 88 3f
       1.0141343 0.972935 1.0507044 1.0634233
000070 f7 1a 68 3f 3e 70 6c 3f ec 0d 95 3f 7a 4a 80 3f
       0.90666145 0.9235877 1.1644874 1.0022728

embedder.res_block.0.bias f4 [32]
000000 a5 e7 86 3d 05 24 fa bb 42 0c a3 bb 0c d2 86 3b
       0.065871514 -0.0076336884 -0.0049758265 0.004114395
000010 c8 d4 e7 bb 7e 74 9f bb b3 cd 16 bc 26 ff f9 bb
       -0.007074926 -0.004866182 -0.009204316 -0.007629293
000020 8a 30 49 bd 57 15 26 39 83 cf c6 3c 58 5e 07 bd
       -0.049118556 0.00015838943 0.024268871 -0.033048958
000030 b7 4a ef 3c 9c 88 1b 3d ca 44 aa bc 23 c7 e6 ba
       0.029210432 0.037972078 -0.020784754 -0.0017606955
000040 53 91 25 3d f4 76 88 bb a9 6e 3e 3d 1b 48 19 bd
       0.040421795 -0.004164571 0.046492252 -0.03742228
000050 db 5a ca bc f3 2c 54 bc 46 58 07 3d fd e9 48 3c
       -0.024701526 -0.01295017 0.03304317 0.012262818
000060 c5 03 02 bd fc 36 1e bd fe ef 51 3c 1d 27 d3 3c
       -0.031741876 -0.038626656 0.012813566 0.025775487
000070 26 dc a2 bd 9e 0d 94 3c ed c6 d6 3c ed e4 4d bd
       -0.07952146 0.0180729 0.026217902 -0.05026715

embedder.res_block.1.weight f4 [32, 32]
000000 0c 83 a7 3d 19 09 e5 3d 39 57 bb bd c3 02 8f 3d
       0.08179292 0.11183376 -0.09147496 0.06982949
000010 49 c6 be bd 57 05 54 bb 08 06 8f 3d 0f fe 9f be
       -0.09315164 -0.0032351816 0.06983572 -0.3124852
000020 63 09 b9 bd d6 27 88 bd ce f2 ba 3d 42 06 0a bb
       -0.090349935 -0.06648223 0.091283426 -0.002106086
000030 73 1f ed bd 20 dd 34 3e 31 30 4a 3e c2 db 55 be
       -0.11578264 0.17662477 0.19744946 -0.20884612
000040 64 84 6b 3d ed e5 e2 bd ca 2a 5f 3e 6a 5a 71 3e
       0.057499304 -0.11079011 0.21793666 0.23569646
000050 dc 7c d7 bd 21 7e 33 bd 03 bd a5 3e ee f6 59 bc
       -0.10521862 -0.043821458 0.32370767 -0.0133035015
000060 0f c7 29 be a7 74 12 be 63 35 a2 bc ad b8 35 3e
       -0.16579841 -0.14302312 -0.019800847 0.1774623
000070 a7 a4 8b 3d 67 c0 0b 3c 79 89 58 3e cb b7 85 3d
       0.06818514 0.008529759 0.21146192 0.06529196
000080 d8 ac 9a bd ef 27 5e 3d bf 3a 69 be 50 4e 8a 3c
       -0.075524986 0.054237302 -0.22776316 0.016883045
000090 ac 45 e4 bb 9a 6d 60 bd 8e 30 d6 3d 32 e1 9f bd
       -0.0069663133 -0.054792024 0.1045848 -0.078066245
0000a0 48 21 84 be 52 d1 3c be 55 91 15 3e aa a8 25 3e
       -0.25806642 -0.18439224 0.14606221 0.16177621
0000b0 da 77 5a bb 17 e8 25 3d 17 3c d9 3d b7 20 e7 bc
       -0.0033335597 0.04050454 0.10607164 -0.028213842
0000c0 bd 3d 7e bc 13 d5 48 be 63 c3 5a 3e e0 ed de 3d
       -0.015517649 -0.19612531 0.21363597 0.10885215
0000d0 1d 32 16 3e ec 4b 98 be 72 e6 ca bd 70 51 e3 3d
       0.14667554 -0.29745424 -0.09907235 0.11099517
0000e0 ea 13 1a 3d 0d b5 13 be a3 00 3d 3d 22 88 ca bc
       0.037616648 -0.14424534 0.046143185 -0.024723116
0000f0 34 50 e7 3d e5 c5 83 bd 5b ee cc bd d8 6c cd 3c
       0.112945944 -0.0643423 -0.100064 0.025076315
000100 69 d5 aa 3d 7a d4 40 3d 27 fa c3 3d d6 6b 63 bd
       0.08341486 0.047077633 0.09569197 -0.055522762
000110 11 be 8a 3d 2d d7 d0 3c 7c 37 43 3e a6 8f d4 bd
       0.067745335 0.025493229 0.19064134 -0.10378961
000120 91 42 c0 3d 4e 3a c1 bd 35 51 f0 bc 93 c7 3b be
       0.093876965 -0.09434949 -0.029335598 -0.1833785
000130 da 1e 9f bc 6f 23 12 be ff c9 85 bd 21 9f bb bd
       -0.01942389 -0.1427133 -0.06532668 -0.09161211
000140 42 a2 88 3d 8e c7 5c 3d a5 a4 05 3d b3 6a 1e be
       0.06671573 0.053901248 0.03262772 -0.1547039
000150 3d 53 81 bd 25 f5 b5 bd 86 bb e0 3d 95 2f 05 3e
       -0.063147046 -0.08884648 0.10973267 0.13006432
000160 da 22 0a be e7 eb 24 be 42 51 23 bd 47 61 83 3d
       -0.13489857 -0.16105615 -0.039872415 0.064150386
000170 59 e4 d3 bd f2 68 81 3b 43 f3 a2 bd 3b 69 c5 bd
       -0.10346288 0.003949278 -0.07956555 -0.09639212
000180 68 7a ea 3d ac d2 bd 3c 82 c8 c7 be f5 71 d6 bd
       0.114491284 0.023171745 -0.39020163 -0.10470954
000190 ea 75 8c bd e4 45 82 3e 96 45 35 be 20 f8 a8 bd
       -0.06858428 0.25443947 -0.17702326 -0.08250451
0001a0 87 e2 5c be bd 5b 1f 3b ae e4 0c bc c5 85 96 3d
       -0.21570788 0.0024316155 -0.008599443 0.07349733
0001b0 b4 e0 20 bd bf 54 aa 3d 65 ef 69 3d 2c 13 db 3d
       -0.039276794 0.08316945 0.05711307 0.10697016
0001c0 8e 1f 31 be ae ac 46 bd 15 5d 43 3d ba 1a c7 bb
       -0.17297193 -0.048504524 0.04769619 -0.006076184
0001d0 cd ee 9f 3b 63 06 01 bd 93 13 81 3d 2b 4d 0a be
       0.004880762 -0.03150023 0.063025616 -0.13506
0001e0 49 fe 19 3b db f5 89 be 13 ce 3c 3e ad 37 77 3e
       0.0023497513 -0.26945385 0.18437986 0.24142332
0001f0 d8 13 62 be 5c 08 65 be 14 e7 1f 3e bd 10 f2 3d
       -0.22077882 -0.2236647 0.15615493 0.11819599
000200 46 b1 94 bb de 58 76 bd 07 26 17 3e c4 d3 29 be
       -0.004537734 -0.060143344 0.147606 -0.16584688
000210 32 57 12 be 77 aa 9e 3d 78 34 20 be ca 4f 8c 3d
       -0.14291075 0.07747357 -0.15645015 0.06851156
000220 dd 1c 3b be 07 43 bf bd bc 15 71 3c 60 d3 bf bd
       -0.18272729 -0.09338956 0.014714655 -0.093664885
000230 f7 ce b6 bd 1d 84 c6 bd 88 26 7c bd 1c f6 3b 3e
       -0.08926194 -0.09693167 -0.061560184 0.18355602
000240 14 ca 48 3e 1f 47 f0 bd 8f fe 2b be 41 32 ad bd
       0.19608337 -0.11732315 -0.16796325 -0.08456851
000250 47 ec 04 bd 36 fe 6a bd 6b fb a7 3d ee 06 1f bc
       -0.032451894 -0.05737134 0.08202251 -0.009706242
000260 36 d0 9b ba 77 a0 26 be 76 cf 7d 3c c5 a2 34 3e
       -0.0011887613 -0.1627215 0.015491357 0.17640217
000270 4c 35 4b 3d 79 78 ab 3d 58 7f 90 bd 16 9d 13 be
       0.049611375 0.08372588 -0.07055539 -0.14415392
000280 aa d5 68 bd 96 74 25 bc a5 12 a0 bd e3 92 e1 3d
       -0.05684439 -0.010098597 -0.07816056 0.110143445
000290 50 3d 26 3d a4 66 16 3b 3e 23 8e 3d 15 25 b7 3c
       0.040585816 0.0022949362 0.06940316 0.02235655
0002a0 7e cc a1 3d 46 f2 c7 bc ce 2c 1b bd 16 0d 5b 3c
       0.07900332 -0.024407517 -0.037884526 0.013369819
0002b0 32 c2 c2 3c 69 d8 b6 bd 51 cf 55 3e f2 c5 25 3e
       0.02377424 -0.08927996 0.20879866 0.16188791
0002c0 80 2b 12 be e7 a8 2c 3d 67 33 e4 3d e5 20 de 3d
       -0.14274406 0.042153265 0.11142617 0.10846118
0002d0 ac 06 17 bd ce f7 00 3e 13 28 cf 3d 50 3a ee bd
       -0.036871597 0.1259453 0.101150654 -0.11632216
0002e0 85 25 1a 3c 01 f2 41 bc db 08 83 bd cf 62 9b bb
       0.009408359 -0.011837483 -0.063981734 -0.0047420035
0002f0 2e 80 5c bc 04 ee 90 bd a2 39 14 bc 93 7a 6a bc
       -0.013458295 -0.07076648 -0.009046944 -0.0143114505
000300 7b 64 c2 bd b3 87 03 be f8 2b 0f 3e 0f 53 10 3d
       -0.094918214 -0.12844734 0.13981616 0.03523546
000310 2e b5 01 be b9 7e f9 3d bf 20 56 bd ec b6 db 3d
       -0.12666771 0.121823736 -0.052277323 0.10728249
000320 e7 e2 28 be 06 83 16 bc 3a 40 6e 3e 8d 76 04 3e
       -0.16492806 -0.009186512 0.23266688 0.12935849
000330 83 fa 9a 3d 92 5b 82 bd b5 55 d3 bc 05 7d dc bd
       0.075673126 -0.06365122 -0.025797704 -0.10766033
000340 82 7d 01 be 81 3a 46 be 42 8a 21 3c ad e2 13 be
       -0.12645534 -0.19358255 0.009859623 -0.14441939
000350 b6 25 18 3e 54 14 16 be 36 64 3c 3e 9e 68 c3 3d
       0.14858136 -0.14656192 0.18397602 0.095414385
000360 a0 32 ea bd 93 73 c7 3d c2 e0 d2 3c 22 ab 12 be
       -0.11435437 0.09738841 0.025741939 -0.14323094
000370 c7 67 96 3c 67 b3 18 bd 72 29 11 3e 42 91 ea bc
       0.018360032 -0.037280466 0.14175966 -0.028633717
000380 6c 0b 45 3e 84 0d 66 bd 11 87 85 3d 36 f7 cb bc
       0.19242638 -0.056165233 0.065199025 -0.024898153
000390 cc c4 2d 3e 26 26 66 3c 26 4a 25 be 97 05 a9 bd
       0.16969603 0.014047181 -0.16141567 -0.08253019
0003a0 e9 bb 80 3d a2 82 44 bd 9a 11 3d bd 58 7d fb bd
       0.06285841 -0.047976144 -0.046159364 -0.12279767
0003b0 c8 8f e4 bc db 67 e3 3c c6 3c 61 3d eb ab 8d bb
       -0.027900591 0.027759483 0.0549896 -0.0043234727
0003c0 7e c8 40 3e 18 2e 19 be 5d e1 36 3e 36 c7 1e be
       0.18826482 -0.1495899 0.17859407 -0.1550568
0003d0 53 ea 9c bb 8a 25 03 be db 0e 65 3d 16 af 92 3d
       -0.004788676 -0.12807289 0.05592237 0.07162301
0003e0 55 ec 14 be d4 85 af bd 3c 03 cd bc 39 c2 c5 3d
       -0.14543279 -0.085704476 -0.025025956 0.09656186
0003f0 db 0d a9 3d 54 d2 15 be 66 7c fd 3d 68 a0 c7 3d
       0.08254596 -0.14631015 0.12377243 0.09747392

embedder.res_block.1.bias f4 [32]
000000 c4 9d c8 3d 75 70 62 bd ab 76 69 3d 2e 3e 73 bd
       0.097957164 -0.05528303 0.056997936 -0.05938547
000010 07 64 a5 bd 9a 60 07 be 5c f7 4c bd da 20 0d bd
       -0.08075719 -0.13220444 -0.050040588 -0.034455158
000020 6e 13 43 be 4f 83 1f 3e 46 4f d0 bd e2 1f f9 bd
       -0.1905038 0.15577434 -0.1017137 -0.12164284
000030 5f c9 9e 3d 45 8f b1 bd 8a 1a 36 bd 41 79 08 3e
       0.07753252 -0.086699046 -0.044458903 0.13327505
000040 54 57 49 3a b2 96 a4 3b 8c c4 11 3d 5b ef e1 bc
       0.00076805544 0.005022847 0.035587832 -0.027579954
000050 a6 00 9f bd ee f6 0e be 41 cb 24 3c 03 c7 0b bd
       -0.077637956 -0.13961384 0.010058225 -0.03412534
000060 52 06 aa bb 26 72 30 be 82 a5 03 3e 41 97 22 3e
       -0.0051887417 -0.17231044 0.12856105 0.15878011
000070 64 6e ed bd f3 ba e5 bd 07 45 12 bd 05 ea c6 3d
       -0.11593321 -0.11217298 -0.03571036 0.097126044

embedder.res_block.3.weight f4 [32, 32]
000000 05 bb 20 be 50 7c 86 bc 32 ba 10 3e 8f f0 1f 3e
       -0.15696342 -0.016416699 0.14133528 0.1561911
000010 d6 79 2e 3d 13 3e c0 3d d5 61 d2 3d 1c 3b 2e 3e
       0.04259666 0.0938684 0.10272566 0.17014736
000020 5c 59 fc bd 72 fe bb bd 36 d4 1a be 01 a3 8c be
       -0.123217314 -0.09179391 -0.15120015 -0.27468112
000030 b6 47 d5 bd 8f 3b 80 3e 88 e5 1b be cb 71 72 3d
       -0.104140684 0.2504544 -0.15224278 0.059190553
000040 6c 98 0b 3e 0b 8b 84 3c 70 6b 43 be aa 7a 85 3e
       0.13632363 0.016179582 -0.19083953 0.26070148
000050 1f c2 94 3d 26 57 fc bd 7b 2e a4 3d 69 53 33 be
       0.07263588 -0.1232131 0.08016678 -0.17512287
000060 79 50 19 3d 6e 4b c6 3d 00 7d 48 3d f8 6a f7 3d
       0.03743026 0.09682356 0.048947334 0.120809495
000070 44 e4 47 3e 61 ee e1 3c 3e 4f 43 bd e2 26 1b 3e
       0.1952067 0.027579488 -0.047682993 0.15151551
000080 11 bd 4f bc 9c 76 9f 3c 4d 94 a9 bd a1 51 47 bc
       -0.012679354 0.019465737 -0.08280239 -0.012165458
000090 91 5c 0e 3e 94 cd 8e bd 7d 5a 9c 3d 18 7d 23 be
       0.13902499 -0.06972805 0.07634447 -0.15965688
0000a0 48 90 0a 3e 6a b1 b5 3c d5 77 98 3c 5d 22 64 be
       0.13531601 0.022179324 0.018611828 -0.22278734
0000b0 37 00 b3 bc a5 16 97 3d b0 9c ce 3c 7b 5f a1 bd
       -0.021850688 0.07377366 0.025221199 -0.078795396
0000c0 8d 11 2f 3e 4b 1c aa 3d 42 14 94 3d 5d f3 39 be
       0.17096539 0.08306178 0.07230426 -0.18159242
0000d0 9e f7 23 3e 25 ae 43 3e 93 7c 11 be 09 02 76 be
       0.16012427 0.191094 -0.14207678 -0.24024214
0000e0 48 cd e8 3c 13 f1 30 be ea f9 ff 3d 6f 70 46 bc
       0.028418198 -0.17279463 0.12498839 -0.012111767
0000f0 b2 06 9f 3d 67 ee 2d 3e b4 b4 b0 3d bf 8a 3f 3e
       0.07764949 0.16985475 0.086282164 0.18705271
000100 d6 36 24 bd 55 c4 25 be 62 ba 79 3d 19 be 11 bd
       -0.040091358 -0.16188176 0.060968764 -0.035581682
000110 d0 3a ce 3d 0e a7 11 3e 85 2e a4 bd 1d dd 08 3e
       0.10069811 0.14223883 -0.080166854 0.13365598
000120 1a cc bf 3d b6 40 9d bd 92 76 da bd 6e 3c 2f be
       0.09365101 -0.07678358 -0.10667147 -0.17112896
000130 04 9a e9 3d 07 db d3 3d bf 6c 37 be 26 d3 05 bc
       0.11406329 0.103445105 -0.17912577 -0.0081680175
000140 04 c7 c9 3d 16 a1 82 3c 6e 97 2d be 89 59 e1 bd
       0.09852412 0.015945952 -0.16952297 -0.110034056
000150 c5 02 82 3e 72 96 03 be e4 73 50 bd e8 e3 48 be
       0.25392738 -0.12850359 -0.050891772 -0.1961819
000160 2e 57 1c 3d 33 9b e3 3d 5a 8a 22 3d bc 9b bc 3d
       0.03816908 0.11113586 0.039682724 0.092093915
000170 f0 7a f6 3d de 6a 89 bc ba bd 94 bd c6 57 37 3e
       0.12035167 -0.016774591 -0.0726275 0.17904577
000180 e6 c0 2a be f1 61 11 3e cf 90 29 3e ca 54 5f 3e
       -0.16675147 0.14197518 0.16559146 0.21809688
000190 98 1b 66 bc cc 76 b3 bd 12 07 b1 bc e6 16 83 bd
       -0.014044665 -0.08762893 -0.021609817 -0.06400852
0001a0 2f c0 da 3b 96 57 88 3b 09 20 83 bd df d0 f3 be
       0.006675742 0.0041608317 -0.064025946 -0.47620293
0001b0 dd 66 06 3e 7e 2e 62 3a de 3e bc be 85 ad f6 bd
       0.13125177 0.00086281437 -0.36766714 -0.12044815
0001c0 d8 18 8b 3e 4a f8 5f 3d bd 3f 3e be 61 23 13 be
       0.27167392 0.054680146 -0.18579002 -0.14368965
0001d0 c1 dc 3c bd 1b 72 5f bd 2a 28 04 be 3d 27 21 be
       -0.046108965 -0.05455218 -0.12905946 -0.15737624
0001e0 bc 8f 46 bc 6a ee a8 3d 2d 32 82 bd 8a 8f 09 be
       -0.01211923 0.08248599 -0.063572265 -0.13433662
0001f0 41 54 ec bd 8e b1 a4 bc b7 70 42 bb ec e5 66 3e
       -0.11539508 -0.020104196 -0.0029669234 0.22548646
000200 29 7b c9 bd 6f 47 a6 bd f8 a4 55 bc 8c 0c 8a 3e
       -0.09837944 -0.081190936 -0.01303982 0.26962698
000210 b5 fd 84 ba 05 50 6d bd e8 6f ea bd 4f eb b9 bc
       -0.0010146411 -0.05793764 -0.11447126 -0.022695212
000220 1b 07 eb 3d 3f 1d 15 bd c5 29 b4 bd 58 f8 56 be
       0.11475965 -0.036404844 -0.087970294 -0.20993173
000230 ec 4f a5 bc c1 05 49 3c 60 7a bf be 01 86 7f 3d
       -0.020179711 0.012269438 -0.37398052 0.062383655
000240 6d 32 a1 3e fd b5 5a be 4d 22 88 3d 43 3f 72 bd
       0.31483784 -0.21358486 0.06647167 -0.059142362
000250 d2 77 eb 3d 71 46 bc bd 79 e4 12 be 73 0f 1f bd
       0.11497463 -0.09193123 -0.14344968 -0.038833093
000260 ab 6a 87 3d 4e 9b a5 bd 22 ef 2f bd 44 23 42 bd
       0.06612142 -0.08086263 -0.042952664 -0.047396913
000270 6e 5b 84 3d 2f ca 77 3c 5e 19 a8 bd 69 d8 a5 3d
       0.06462751 0.015123888 -0.082079634 0.080979176
000280 6f c7 2a 3d de 86 86 3d 9b 0c ff 3d a6 3a 01 3e
       0.0416941 0.065686926 0.12453576 0.12620029
000290 70 d0 00 be f9 3b 93 bd 2a c8 3a bc a5 8a 66 3d
       -0.12579513 -0.07189173 -0.011400262 0.056284565
0002a0 76 36 ec bd a4 11 65 3d e9 31 37 bd c7 04 96 bd
       -0.11533825 0.055925027 -0.044725332 -0.0732513
0002b0 bb cd a5 3d 5d b8 b4 3c 5e 13 46 bd 7c 2f 2e bd
       0.080958806 0.022060568 -0.048358314 -0.042525753
0002c0 0a 55 30 bd cf 18 83 3e 74 4e 2f 3e 3b b4 92 3d
       -0.04304985 0.25604865 0.17119771 0.071632825
0002d0 ba d1 0a bd e4 20 9c bd c0 eb 7c bd d9 74 2f 3c
       -0.033891417 -0.07623461 -0.061748266 0.010709011
0002e0 a1 fa eb bd ac c7 39 be 66 19 f8 3d 54 e2 20 be
       -0.11522413 -0.18142575 0.12114219 -0.15711337
0002f0 88 0d bc bd 3a 4f b8 bc c3 d4 70 3d 09 23 d5 bd
       -0.091822684 -0.022498716 0.058796655 -0.10407073
000300 10 b6 1e 3e b0 80 38 bd 9a a6 2b be bb 78 5c be
       0.15499139 -0.0450446 -0.16762772 -0.2153043
000310 44 63 98 3c 31 b0 ab bd e2 fa 1b bd 6a 28 c9 39
       0.018602021 -0.08383215 -0.038081057 0.00038367818
000320 f4 d9 07 3e 26 c8 10 be 96 9e b7 3c 4a ce 82 3d
       0.13266736 -0.1413885 0.022414487 0.06387003
000330 ca d3 d5 3d 32 cb 92 bd 13 e6 ed 3d 32 ef d9 bc
       0.10440786 -0.07167663 0.11616149 -0.026603315
000340 6a b7 2a 3e f4 4a 24 3c 3e 93 60 bd 5b bc 32 3e
       0.1667153 0.010027636 -0.05482792 0.17454664
000350 2f 08 dd 3c 9a 77 42 3d 2e 2a ae bd 4b 4c 58 bd
       0.026981441 0.047477342 -0.08504139 -0.052807134
000360 cd 13 c9 bd 73 a1 ad bd d3 dd c0 3d 55 82 13 bc
       -0.0981823 -0.084780596 0.094173096 -0.009003242
000370 d0 44 f8 3d c7 09 76 3d 14 31 05 3b 52 4f 99 bd
       0.121225 0.06006792 0.0020323442 -0.07485832
000380 aa e2 4b 3c 2c a4 2e be 3c 79 a6 3c 15 80 81 3e
       0.012444178 -0.17054814 0.02032148 0.2529303
000390 1a 76 2e bd cd cc 9b 3d 74 b5 f3 bd 3c 8e 25 bd
       -0.0425931 0.07607422 -0.11899844 -0.04041885
0003a0 1e 0e 29 bc 9b 62 9c bd a3 5f b5 bd 20 0f 73 be
       -0.010318307 -0.07635995 -0.08856132 -0.23736238
0003b0 00 12 b6 bd 91 a0 46 3d 88 d3 9f be 09 9e 2d 3d
       -0.08890152 0.04849297 -0.31216073 0.042387042
0003c0 65 6b 0a 3e 6b b4 18 be 2f bb f0 bd 07 b1 5d be
       0.1351753 -0.14912574 -0.117544524 -0.21649562
0003d0 a9 e6 ce bc 9b af 2c bd 12 75 3c be 09 64 11 be
       -0.025256472 -0.042159658 -0.18404034 -0.14198317
0003e0 cb 63 19 3c 84 b7 13 3d 3a be c0 bd 2b d0 fe 3d
       0.009362171 0.036063686 -0.09411283 0.12442049
0003f0 99 73 02 be d2 8d 92 3d f4 15 17 be c3 cd 2b 3e
       -0.1273941 0.07155956 -0.14754468 0.1677771

embedder.res_block.3.bias f4 [32]
000000 d0 56 77 bd 3f 7e 0a bd 37 33 e6 3c f0 8b ea bc
       -0.060385525 -0.033811804 0.028100593 -0.02863118
000010 13 c0 b4 bb 6d 02 02 3e 0b 42 f7 3d 1c ba f3 bc
       -0.005516061 0.12696238 0.120731436 -0.02975183
000020 e4 5b 99 bc 9d 25 ee 3d 4b 57 ae 3c 44 6d e2 3d
       -0.018720575 0.11628268 0.021281859 0.11055997
000030 06 5b 87 bd 15 d5 f4 bd 21 89 19 3e 9a fd ff 3d
       -0.06609158 -0.11954705 0.14993717 0.124995425
000040 b7 b8 61 3e 2d 9e dc 3d 42 a1 99 bd a4 a2 27 3c
       0.2204312 0.10772357 -0.075014606 0.010231648
000050 0a 85 96 bd 66 e5 05 be 66 76 ee bd f4 80 53 bd
       -0.07349594 -0.1307579 -0.116436765 -0.05163665
000060 24 09 20 3e 84 16 f2 bd 50 8c 9a bd 83 dc 0f be
       0.15628487 -0.11820701 -0.07546294 -0.14048962
000070 1f ac 4e bb 12 5a 1a 3e b2 0e 0a be 98 b1 8c bd
       -0.0031535698 0.15073422 -0.13482168 -0.06869811

cnn_blocks.0.proj_in.weight f4 [16, 32]
000000 1c b4 37 3e 4f 9f 8e bc 8a 13 05 be 4b 32 fb bd
       0.179398 -0.017409949 -0.12995735 -0.12265452
000010 b1 a3 8e bc 57 38 1d bd 3c d0 28 bd 1c 2a 5a 3e
       -0.017412039 -0.038383808 -0.041214213 0.21305126
000020 c3 71 0b 3e d7 2b b2 bb f0 33 1e 3e 21 30 22 3e
       0.13617615 -0.005437355 0.154495 0.15838672
000030 93 32 05 3d 02 6e ac 3d 3f 1e 93 3c f4 d6 f9 3c
       0.032518934 0.0841942 0.017958758 0.030498005
000040 1b 10 f7 bd 58 3a f1 bd 13 aa 05 bc 97 0e 43 3e
       -0.12063619 -0.11778706 -0.008158225 0.19048534
000050 b4 63 90 3d ab 0f 9f bd 67 08 ea 3c e7 0d 2e 3d
       0.07050267 -0.0776666 0.02856846 0.042493727
000060 33 2a 22 3e a1 73 ea bd 98 a0 2b be 77 f7 08 3e
       0.1583641 -0.11447836 -0.1676048 0.1337565
000070 fa b9 b6 bd 04 50 16 bd eb 3f e3 bd 61 42 22 be
       -0.08922191 -0.036697403 -0.11096176 -0.15845634
000080 36 53 1c 3c f8 c6 76 bd 17 53 16 3e d4 c0 f2 bc
       0.009541323 -0.060248345 0.14680134 -0.029632963
000090 a8 8b fd bc 16 bd cc 3d 6b 95 60 be de c7 7a be
       -0.030950382 0.09997003 -0.21931998 -0.24490306
0000a0 0f 9c d5 bd 74 16 66 3e e5 78 b2 3b a6 38 40 be
       -0.104301564 0.22469503 0.0054465407 -0.1877161
0000b0 66 75 08 3d 4b 0a 46 3e b4 2b ae bb fe 6c 65 3e
       0.033315085 0.19339864 -0.0053152684 0.22404858
0000c0 af c6 38 bc be 0b 0a 3e b0 ea 16 3e d2 93 56 be
       -0.011277839 0.13481042 0.14737964 -0.20954826
0000d0 0b 46 02 3e a8 f7 41 3e 14 4f 4d be 14 4a 47 3e
       0.12722032 0.1894213 -0.20049697 0.19461852
0000e0 08 f3 67 3c 42 62 fd bd be 80 fe 3b 8c e2 b1 bd
       0.014157064 -0.12372257 0.007766812 -0.086857885
0000f0 27 43 34 3e 1d ce 17 be 8a ed b7 3d ab 69 96 bb
       0.17603742 -0.1482472 0.08980854 -0.0045902333
000100 2c 05 5c 3d 58 01 7c 3e a2 56 9b 3d bc 0c 3b bd
       0.05371587 0.24609888 0.07584883 -0.04566644
000110 a7 a3 aa 3c 40 cd 09 bd bc c1 9b 3d 1b 22 02 bd
       0.020829989 -0.033643007 0.07605311 -0.031770807
000120 4f 3c 04 be 34 af d7 3c 24 62 54 bd 58 57 88 bd
       -0.12913631 0.02632866 -0.051851407 -0.066572845
000130 48 4d e0 3d 4e d5 d1 bd 38 7c 12 bd 60 07 d8 bd
       0.1095224 -0.10245763 -0.035762995 -0.10548282
000140 e5 4f 35 3e 9f eb 4d 3e 54 e0 15 bd 7a 37 fe bd
       0.17706259 0.20109414 -0.03659089 -0.12412925
000150 9d c3 66 3d 8a 91 b7 bc 3b d6 c7 bd 77 d1 cf 3d
       0.056338895 -0.022408266 -0.09757658 0.10147374
000160 6f fb a8 3c 7c 76 05 3e f8 36 56 be 06 ab 11 be
       0.020627705 0.1303348 -0.20919406 -0.14225397
000170 43 b6 4b be 83 90 bf 3d e7 94 93 bd 5f 92 6c be
       -0.19893746 0.09353735 -0.07206135 -0.23102711
000180 b4 8a f7 3d db b0 ba bd 09 2c 02 be 2a cc 9f ba
       0.120870024 -0.09115764 -0.1271211 -0.0012191583
000190 95 59 05 be ac aa ac 3d 97 6a 51 bc 2c f3 65 3c
       -0.13022454 0.084309906 -0.012781761 0.0140350275
0001a0 79 6a 07 3e db 42 b4 bd 90 ff 17 3e 98 f1 9a 3d
       0.1322421 -0.08801814 0.14843583 0.075656116
0001b0 77 af af 3d fb 1a 34 3d 07 7f 9e 3d 60 1c bd 3d
       0.08578389 0.043971043 0.07739072 0.09233928
0001c0 b1 9e 00 be da c6 fd 3d 6f 34 02 3e 14 68 61 bc
       -0.12560536 0.123914436 0.12715314 -0.013757724
0001d0 5f 8b 03 3e 68 e5 b8 3d 5f 16 db 3d 5c 29 bb 3d
       0.12846135 0.09028131 0.10697626 0.09138748
0001e0 a0 ee 88 3c ed cd f3 3d 18 c7 a5 3d 40 c2 80 bd
       0.016715348 0.119045116 0.08094615 -0.0628705
0001f0 1e f6 32 bc ee 2c 34 3e 64 1b d9 bc 0e 85 10 3e
       -0.010922937 0.17595264 -0.026502319 0.14113256
000200 31 a6 2c 3e e0 0b cb 3d 4d 1a f6 3c c2 63 66 3d
       0.16860272 0.09914374 0.030041838 0.05624748
000210 9e 5d 5f 3d b2 6c 62 bd 0e 53 0a be 9e 49 6f 3d
       0.05453264 -0.05527944 -0.13508245 0.058419816
000220 b1 96 cc 3d 93 2e d6 bd ae da 2f 3e cb b3 ed bd
       0.099896796 -0.10458102 0.17173263 -0.116065584
000230 4b 1c d3 3d 87 d4 32 3d aa 52 02 bb f0 a8 62 3c
       0.10308131 0.043659713 -0.0019885697 0.013834223
000240 be 8b 92 bd 7c cd 36 bd 15 14 87 bd 71 3b 3e 3d
       -0.0715556 -0.04462956 -0.06595627 0.046443406
000250 1a 26 01 be 00 19 f5 bd 1c 3b 23 bd 13 38 0e 3e
       -0.12612191 -0.11967659 -0.039851293 0.13888578
000260 01 f1 d6 3d 74 5f 08 3d 5e 26 27 3e d3 5a 16 3e
       0.104951866 0.033294156 0.1632323 0.14683084
000270 3d 7e c4 bd d3 46 2b 3c ef be b9 3d db 00 db bc
       -0.095943905 0.0104538975 0.09069621 -0.026733806
000280 9a 8b 30 be dc d1 a3 bd 2a cd 13 be e2 0f ed 3d
       -0.17240754 -0.07999012 -0.14433733 0.11575295
000290 f5 cf 03 be 93 94 09 3e 98 95 15 be 42 0e 18 be
       -0.12872298 0.13435583 -0.14607847 -0.14849189
0002a0 fd c3 5e 3e 34 54 fe bd 6d ce 0c be bb 0a 7e bd
       0.21754451 -0.12418404 -0.1375062 -0.062021952
0002b0 6d 67 d0 bd 06 4c 4e 3e 58 4d f9 bb 22 16 1f bd
       -0.10175977 0.20146188 -0.007608097 -0.038839467
0002c0 fd f6 fa 3d e6 94 29 bd 7e 78 9e bc 63 62 3f 3e
       0.122541405 -0.041401766 -0.019344565 0.18689875
0002d0 a1 3c c1 bc 5f 3a 1a bd 65 2b 0c 3e 6b db 3d 3d
       -0.02358848 -0.037653323 0.13688429 0.04635183
0002e0 00 51 44 be 95 db 33 be 17 7e a2 bc e3 8b 09 bd
       -0.19171524 -0.17564233 -0.019835515 -0.033580672
0002f0 81 b7 c5 bd fb 19 19 3e f3 44 e8 3c f6 e7 07 3e
       -0.09654141 0.14951317 0.02835319 0.1327208
000300 34 d9 2b 3d 20 4d 1a be f7 b9 77 bd df ff 9d bd
       0.041955188 -0.15068483 -0.060480084 -0.07714819
000310 b8 3a 33 be b3 53 c4 3d d6 14 2e be d9 a6 0e 3e
       -0.17502868 0.09586277 -0.17000136 0.13930835
000320 f6 46 3c bd 13 e6 01 3e c2 9e 50 bb ed 9d 4c be
       -0.04596611 0.12685423 -0.0031832908 -0.19982119
000330 99 b8 c4 3d e0 90 2b be 6e e6 64 3e 25 d7 cd 3b
       0.09605522 -0.16754484 0.22353527 0.0062817507
000340 b9 ed d6 bd 87 db 3c 3e eb 3b 62 bc 91 a9 84 bd
       -0.10494561 0.18443118 -0.013808231 -0.06477655
000350 53 67 00 be f8 4b 6d bd 4b 56 ab bd bf 61 56 bd
       -0.12539415 -0.057933778 -0.083660685 -0.05233931
000360 d0 cc a6 bc 74 73 ef bd 25 c1 11 be d3 6c 34 3d
       -0.020361334 -0.11691943 -0.14233835 0.044049095
000370 84 cb 23 3e 27 f3 8e 3d a0 5e f4 bd 96 cd e6 3c
       0.15995604 0.069799714 -0.11932111 0.028174203
000380 43 99 f0 3d 18 30 92 bd 9f 8b 1b bd c8 5a 2e 3d
       0.11747982 -0.071380794 -0.03797495 0.042567044
000390 7e 72 21 bd 47 81 67 3d 30 cc d2 3d 67 c2 98 3b
       -0.03941583 0.056519773 0.10292852 0.0046618464
0003a0 15 62 14 be e1 a8 8e bd 13 94 c3 bd 87 17 19 3e
       -0.1449054 -0.06965805 -0.09549727 0.14950381
0003b0 ea 31 0a 3d 36 78 02 be c0 e5 31 3b 28 05 25 3d
       0.033739008 -0.1274117 0.0027144998 0.04028812
0003c0 12 55 7c bd e6 a0 10 ba eb 48 9f bd 1b d8 e1 3c
       -0.061604567 -0.000551714 -0.0777758 0.027568867
0003d0 ce 8c b3 bc 18 c8 eb 3c 8a 90 6c 3e e2 79 ad 3d
       -0.021917727 0.028781936 0.23102012 0.08470513
0003e0 9b 3e 13 3e e6 5c 90 bb 27 31 b7 3d 44 8a ea 3d
       0.14379351 -0.0044056056 0.08944922 0.11452153
0003f0 07 8f 58 3e f6 39 9d 3d 39 36 d4 bd 90 72 7e 3e
       0.2114831 0.07677071 -0.10361905 0.2484839

cnn_blocks.0.proj_in.bias f4 [16]
000000 dd 94 07 3e 0c b3 9c bd 23 55 da bd a2 9b 65 3d
       0.1324038 -0.07651338 -0.1066077 0.056056626
000010 18 72 97 3d 6a 3f d5 bc 34 20 0f be 96 67 ae 3d
       0.073948085 -0.026031215 -0.13977128 0.08515851
000020 a3 68 dd bc a2 82 f5 bd 2d a3 2d be 9c 78 94 3c
       -0.027027434 -0.11987807 -0.16956778 0.018123917
000030 ea d1 0d 3d 74 1e 22 bd db a4 91 3c f0 db bf bd
       0.034624018 -0.039579824 0.017778805 -0.093681216

cnn_blocks.0.convs.0.weight f4 [16, 16, 3, 3]
000000 76 8d 05 bd da e8 ed 3c d6 8f 83 bd 69 18 8d bd
       -0.03260561 0.029041696 -0.06423919 -0.068894215
000010 b9 d3 85 bc da 37 ed bd 33 c1 dd bd d2 5d aa 3c
       -0.016336309 -0.115829185 -0.108278655 0.02079669
000020 3c aa b7 bd 28 1d 6d 3d 28 fb 59 3d 27 5c b7 3d
       -0.089680165 0.057889134 0.053218037 0.089531235
000030 75 e9 4e bd 52 fd 5e 3d 84 1d 0c bd 1c 91 c9 bd
       -0.05051561 0.054440804 -0.034207836 -0.098421305
000040 e6 da 05 3e 9b 4f 02 3e b8 2b 4f 3d 32 48 78 bd
       0.13071784 0.1272568 0.050578803 -0.060615726
000050 c1 04 51 bc bc 96 27 3d 77 2a 35 3d 42 94 80 3d
       -0.012757481 0.040915236 0.04422995 0.06278278
000060 8b 91 53 3e f0 ec 99 3c 85 3c c3 3b f4 11 bf bd
       0.20660989 0.018789738 0.005958142 -0.09329596
000070 aa 1c 83 bd 66 f3 a0 bd cd a2 e9 bb b1 0d 82 bc
       -0.064019516 -0.078589246 -0.007130003 -0.01587567
000080 7b f5 09 3d a1 9b b4 3d a4 f2 83 3d 58 7c 6f bd
       0.033681374 0.08818746 0.064427644 -0.058468193
000090 8a 07 3a be 1e 8b b7 3d a8 2f 71 bd 9d 48 d3 3d
       -0.18166938 0.089620814 -0.05888334 0.10316584
0000a0 e6 d8 e6 3c 6f c5 83 3d 86 83 42 bc b5 32 08 be
       0.028179597 0.06434142 -0.011872178 -0.13300593
0000b0 b3 94 42 3c 93 3f 8b 3d ff af 9c 3d 55 16 9e 3d
       0.011876273 0.06799235 0.07650756 0.07719103
0000c0 72 37 67 bc bd e7 2d bd bd e0 c4 3c 1b 47 0d be
       -0.01411234 -0.04245733 0.024032945 -0.13796656
0000d0 0d 9f 0f 3d 3f d9 80 3b 7d d8 b9 3d fa bd d4 3c
       0.035063792 0.0039321478 0.09074495 0.025969494
0000e0 18 ce f1 3c 59 29 8e bc b8 5f ff bd 1b 14 f4 bd
       0.029517218 -0.0173537 -0.12469429 -0.11917897
0000f0 4c dd f3 bc c0 4f 04 be f0 9d d8 bd c2 97 2b bd
       -0.029768609 -0.12921047 -0.10576999 -0.041892774
000100 00 0d 81 3c 32 63 5a bd 18 0e 4d bd 70 17 4e bc
       0.01575327 -0.053317256 -0.05006227 -0.01257883
000110 b0 85 8b bd eb 5e 9f 3c a8 99 23 3e 44 5b 17 be
       -0.06812608 0.01945444 0.15976584 -0.14780909
000120 2e c8 cb bd 3c c7 77 3c 4a 46 2b bd 89 75 bd bd
       -0.099502906 0.015123185 -0.04181508 -0.09250934
000130 85 76 96 3c 96 2d 31 bd 1c 7f c4 3c 84 c3 d4 3d
       0.018367061 -0.043256365 0.023986392 0.10388854
000140 99 26 e3 3d 88 c7 6a bd af 0a af 3d e3 32 bb bb
       0.11091346 -0.057319194 0.085469596 -0.0057128533
000150 68 a0 83 bc f8 17 f0 3c 40 c6 04 bc 14 13 2f bd
       -0.016067699 0.029308304 -0.008103907 -0.042742804
000160 f9 8b f5 bd ab 48 5f bd cc 46 29 3d 6d 45 c1 bd
       -0.11989588 -0.05451266 0.041327283 -0.0943707
000170 5c b4 9d bd 08 87 94 bc 61 77 ce 3d 3b 3b 64 bd
       -0.077004164 -0.018130794 0.100813635 -0.05572055
000180 54 04 00 bd 27 08 6e 3c 4f 9e ca 3b 61 42 9b 3d
       -0.031254128 0.014528311 0.0061834226 0.0758102
000190 ca 95 95 bd 84 d6 0b be 92 cc ac bd 05 71 0a 3e
       -0.073039606 -0.1365605 -0.08437456 0.13519676
0001a0 7d ed e2 bd ad 01 21 bd 06 79 46 3d 92 53 0f 3e
       -0.110804535 -0.03930824 0.04845526 0.13996723
0001b0 54 e6 e8 3b a3 d0 03 3e 36 48 1f 3d 44 c7 f4 3c
       0.0071075354 0.12872557 0.038887225 0.029880174
0001c0 ce cd 7c bd 7d ba 28 bd 37 da 2e bd 89 91 23 bd
       -0.06171971 -0.041193474 -0.042688575 -0.039933715
0001d0 0d 82 12 bd 36 9b be bc a0 b0 02 bd b9 2f a6 3b
       -0.035768557 -0.02326737 -0.031906724 0.005071607
0001e0 77 e8 41 bd 47 16 26 bb b2 19 47 3d 54 10 1b bd
       -0.047340836 -0.0025342868 0.04860849 -0.03785737
0001f0 30 07 48 bd 53 1a 82 3d 21 39 1b 3e 99 2d c7 bd
       -0.04883498 0.06352677 0.15158512 -0.09725494
000200 f9 59 14 bd 16 59 fc bb 11 6d 81 bd 42 e9 2d bd
       -0.036218617 -0.0077010496 -0.06319631 -0.04245878
000210 d6 30 f2 bd 50 2e a7 3d ee 59 e2 bd ee b9 07 bd
       -0.11825721 0.0816313 -0.11052309 -0.0331363
000220 50 89 48 bd b7 23 b6 bd 6a 73 82 3d 30 55 19 bd
       -0.048959076 -0.08893531 0.0636967 -0.037434757
000230 f8 3d 30 bd 61 95 eb bd 63 7d 8b bb a3 f8 04 be
       -0.043027848 -0.11503101 -0.0042568906 -0.12985472
000240 f5 89 fb 3d 0a b5 93 3c 00 d4 ca bd 24 c6 83 3d
       0.122821726 0.018030662 -0.09903717 0.06434277
000250 9c 44 38 be 9b 65 58 3d a7 30 e5 bd 38 48 20 3d
       -0.17994922 0.052831274 -0.1119092 0.039131373
000260 ff 71 d1 bd 88 ba f7 bd ea fc 9a bd 18 e3 e2 3d
       -0.10226821 -0.12096125 -0.07567771 0.11078471
000270 26 ec 82 bd 72 a0 11 3d 19 8a 67 3d 7b 96 ef bc
       -0.06392698 0.035553403 0.056528185 -0.02924656
000280 0d fa e5 bd 8b 6e e6 bc 17 89 84 bb 73 f8 0a be
       -0.11229334 -0.028128883 -0.0040446627 -0.13571338
000290 f0 6e 62 bb e6 a3 28 bc 2b 8c 40 bd dc a0 96 bd
       -0.0034550987 -0.010292983 -0.047008675 -0.073549
0002a0 ca 8a 60 3e b1 af 9f bc 89 70 47 3d 7b d3 b0 3d
       0.21927944 -0.019492956 0.048691306 0.08634087
0002b0 70 e9 a7 bb 30 10 34 bc 08 83 52 3d 61 cf b6 3d
       -0.0051242635 -0.0109901875 0.051394492 0.08926273
0002c0 74 f9 b5 3d 95 b8 23 3e 90 b0 02 3e 8b 71 22 bc
       0.0888547 0.15988381 0.12762666 -0.009914766
0002d0 28 8e 15 3b 73 70 73 3d 8d 10 94 bc f3 e1 aa bd
       0.0022820327 0.05943341 -0.018074298 -0.08343878
0002e0 60 12 f7 bd 0f 42 97 bd 77 c2 9b 3d 66 41 b0 bd
       -0.12064052 -0.073856466 0.076054506 -0.08606224
0002f0 3e 10 a9 3b e9 9b 6a bd 54 82 9e 3d d2 2e c5 bd
       0.005159407 -0.057277594 0.07739702 -0.09628071
000300 9a b6 49 bb ed 6e 52 3d d2 e6 11 bc 29 79 16 be
       -0.0030779005 0.05137532 -0.0089051295 -0.14694656
000310 2d 11 76 bd 98 cf b7 bc e7 6f c8 3d 7f 51 aa bd
       -0.060074974 -0.022437856 0.09786969 -0.083163254
000320 5d 10 80 3d 12 d0 9f bc fb d4 d7 bc 02 fe 9e 3d
       0.06253121 -0.019508395 -0.026346674 0.07763292
000330 59 30 c4 3b 84 d2 46 bd 56 9a b2 bd 0d 1c 9a 3d
       0.005987209 -0.048540607 -0.087208435 0.075248815
000340 51 33 03 bd 43 7d 75 bd f3 f6 6b bd ed 19 71 3b
       -0.03203136 -0.059933912 -0.057608556 0.0036789135
000350 19 89 f4 3c ac 71 ba bd 21 f6 18 bc eb 67 b1 3d
       0.02985053 -0.091037124 -0.009336025 0.08662399
000360 9c fd 64 3c 0f d3 6b 3d 66 e7 fa bc f2 a8 a2 bd
       0.013976481 0.057574328 -0.030627917 -0.0794238
000370 22 f6 67 bd 2f 6e 12 3c 06 60 f7 3d 56 07 c9 bd
       -0.056631215 0.008937403 0.12078862 -0.09815852
000380 ab d5 ca bb 89 55 0b ba 66 ab 9d bd b4 d8 de bd
       -0.006190022 -0.0005315175 -0.07698707 -0.108811766
000390 9a 31 74 bd 3b 0d 57 3c 47 b0 37 3e b8 13 18 3e
       -0.059617616 0.013125713 0.17938338 0.14851272
0003a0 4c f9 2c bc e6 ba 5a bc da f1 12 3c f0 42 f0 bd
       -0.010557484 -0.013350224 0.008968795 -0.11731517
0003b0 de 03 af 3d 7f fc 92 bb aa 18 49 3d 06 ce 87 bc
       0.085456595 -0.0044856663 0.049095787 -0.016577732
0003c0 e1 ac c2 3d 96 29 42 3e d6 3a 8e bd e4 00 69 bd
       0.0950563 0.18961176 -0.06944816 -0.056885615
0003d0 4a 58 cc bd 3d 89 b6 3d 1b ef ab bd 7b c4 1a bc
       -0.09977777 0.08912895 -0.08395215 -0.009446259
0003e0 9a 9b a2 bd 85 b6 69 bd db 1e 30 3d c3 77 71 bd
       -0.07939835 -0.05705883 0.042998176 -0.058952104
0003f0 b1 46 03 3c 81 68 58 3d 60 c6 c3 bd 51 a1 b5 3c
       0.00801246 0.052834038 -0.095593214 0.022171648

cnn_blocks.0.convs.0.bias f4 [16]
000000 4a 85 8a 3d c3 01 68 bd ab 92 51 bc 76 ec 8e bd
       0.06763704 -0.056642305 -0.012791316 -0.06978695
000010 2b 08 e7 3d 1b 9a b8 3d 36 93 79 3d dc 99 8b 3d
       0.11280855 0.09013768 0.060931407 0.06816456
000020 73 22 94 3c 76 a8 35 3d 5d 4b 64 3c b4 c6 52 3d
       0.018082833 0.04435011 0.013933984 0.05145903
000030 5f 55 14 bb b6 51 6f 3c 62 d8 9c bd f9 18 6a 3d
       -0.0022633893 0.014606884 -0.07658459 0.057152722

cnn_blocks.0.convs.1.weight f4 [16, 16, 3, 3]
000000 d7 3f af 3d a3 5d 5b 3d c0 67 1f bc 92 ee f7 3c
       0.08557098 0.053556096 -0.009729326 0.030265126
000010 a3 06 1d be 16 b6 c2 bd 8d 5f fb 3d 35 0f 96 bd
       -0.15334563 -0.095073864 0.12274084 -0.07327119
000020 f7 3f d3 3d 11 69 c6 3d a7 12 9d bc 28 6b 51 bc
       0.10314935 0.096880086 -0.019173933 -0.012781896
000030 2c 8a a3 bd 4a 7d d8 3d 93 e6 24 3d 78 79 17 3d
       -0.079853386 0.10570772 0.040258955 0.036981076
000040 4f bc 92 3d 74 91 ef bc 34 28 a7 3d 7a 53 5a 3c
       0.07164823 -0.029244162 0.08161965 0.013325566
000050 ff 10 c1 3d ff 17 9b bc c1 11 56 3d d5 ef 67 3d
       0.0942707 -0.01893234 0.052263025 0.056625206
000060 3d b6 6d 3c c7 92 56 3d 54 cf 24 bd da 63 50 3c
       0.014508781 0.05238607 -0.040236786 0.012719119
000070 64 6c c8 bd fd f5 8e bd b7 e3 b3 bd e9 8a 7e bd
       -0.09786299 -0.06980512 -0.087836675 -0.062144194
000080 80 64 94 3d 7e bf 01 bd 78 17 26 be b3 28 6f bd
       0.07245731 -0.03167676 -0.1621989 -0.058388423
000090 98 f2 8a bd 34 64 c0 bd eb f5 ad bd 31 3d 1d 3c
       -0.06784552 -0.09394112 -0.08494171 0.009597109
0000a0 03 49 61 3b fe ff 28 3d 61 de 0f 3e 6f b4 25 bd
       0.0034375794 0.04125976 0.14049675 -0.040455278
0000b0 08 a9 07 bd 6e 92 01 3e 85 d6 b4 3d 00 9c d6 bd
       -0.033120185 0.12653515 0.08829979 -0.104789734
0000c0 cb 15 be bd f9 dc 87 bd 74 47 27 3d ae c0 0e bd
       -0.092815004 -0.06633944 0.040839627 -0.034851722
0000d0 4e d5 9c 3d 3d 7c 16 3e 20 f4 fd 3c 6b 64 46 3b
       0.07657872 0.1469583 0.031000197 0.0030272256
0000e0 b6 64 12 3c 23 fa 81 3d cd 11 e7 bc d2 e1 46 3c
       0.008935144 0.06346538 -0.02820673 0.012138801
0000f0 59 1a 1a be fe 60 76 3a 04 d5 61 3d 7b 8e 22 be
       -0.15049113 0.0009398608 0.05513479 -0.15874664
000100 7c 31 54 bd 10 be 3e 3d fa 8c df bd dd 20 33 bd
       -0.051805004 0.046567976 -0.10915561 -0.043732513
000110 b1 bf 05 3c 13 d0 7e 3d a5 ab 90 3c d2 5e 05 bd
       0.008163379 0.062210154 0.017659971 -0.03256113
000120 e8 a9 c7 3d 2f 2c 05 3e 17 fa b5 3d 5d ca 8c bd
       0.09749204 0.13005136 0.088855915 -0.06874535
000130 32 83 49 bd d7 ff c5 3d b6 ac 73 3d 4c e1 ea 3c
       -0.049197383 0.09667938 0.05949088 0.028671883
000140 4a 12 9d bd e7 f9 dd bd 0a 62 8f bd 9e 04 31 3d
       -0.07669504 -0.10838681 -0.07001121 0.043217294
000150 4f 57 72 3d b6 99 17 bd 40 01 d4 bd aa f5 cc 3b
       0.059165295 -0.037011825 -0.10351801 0.0062548714
000160 91 37 38 bb 37 9a 28 3d c6 61 0b 3e f5 19 51 3d
       -0.0028109292 0.041162696 0.13611516 0.051050145
000170 9a 46 d3 3b db 90 84 bc b1 63 0e 3c fa cb d7 bd
       0.0064476253 -0.016182354 0.0086907605 -0.10536952
000180 f5 ec c3 bd 1c 96 34 be f3 3d 35 bd 2d cd e8 3d
       -0.0956668 -0.17635387 -0.044248533 0.11367259
000190 fb d0 00 3d fc 21 8e 3d bf 08 d3 bd 20 1b cb bd
       0.0314493 0.06940076 -0.103044026 -0.09917283
0001a0 2e 25 ff bd 60 51 1d 3e 64 dd e2 3c cf 02 3e bc
       -0.12458263 0.15363073 0.027693458 -0.011597349
0001b0 ca d2 d8 39 71 db aa bb af 7f e4 3b 61 aa 20 3d
       0.0004135578 -0.0052141477 0.006973229 0.039224986
0001c0 e1 4e e6 bd ef 4a ec bd e6 fc c4 bd 8a 6f 8d 3d
       -0.11245514 -0.1153773 -0.09618549 0.0690604
0001d0 ae ec 5d bd ce a5 f3 bc 41 2c 10 3d 52 bd 1f bd
       -0.054180793 -0.029742148 0.035198454 -0.03899891
0001e0 27 18 3c 3d 1b df 81 bd 9d b8 de bc 34 bc 39 bd
       0.04592147 -0.06341382 -0.02718764 -0.0453455
0001f0 72 2e 3c 3d 45 1b c7 3c 7d af 5d 3d 97 3c 89 3d
       0.04594273 0.024304995 0.054122437 0.0670101
000200 e4 8b a9 3c 30 b8 33 be 0d ac 76 3d 8c e6 d7 bc
       0.020696588 -0.1755073 0.060222674 -0.02635505
000210 00 fc e8 3d 12 a3 ac 3d 51 8e c8 3d c7 8f d5 bd
       0.1137619 0.08429541 0.0979277 -0.10427814
000220 55 31 76 bd 43 4a 1f bd a3 b2 03 be e6 4b 2d 3d
       -0.06010564 -0.03888918 -0.12861113 0.04230871
000230 60 59 a8 3d 06 27 d7 bb 45 29 1e 3e c5 9b a8 3c
       0.08220172 -0.0065659313 0.1544543 0.02058209
000240 f4 71 0c bd 82 e6 3d 3c c5 54 8d 3c 9e e2 8e 3d
       -0.03428836 0.011590602 0.017252335 0.069768175
000250 22 1c e1 bd 96 ee 15 bc 40 02 b1 3c 8d 5e e4 bc
       -0.10991694 -0.009151122 0.021607518 -0.027877117
000260 16 cf 1e 3d 82 dc c9 3d 52 58 1a be 14 63 9e 3d
       0.03877171 0.09856512 -0.15072754 0.077337414
000270 45 c0 9b 3c 68 dd e7 bc b7 b0 de bc 78 5d 48 3d
       0.01901258 -0.028303817 -0.027183874 0.048917264
000280 6a ec 13 3d b7 ef eb bc 74 1c ba bb 63 41 bd bb
       0.036114134 -0.028800828 -0.0056796614 -0.005775617
000290 12 5a 2d 3d d3 1b e0 bd a4 79 68 bd 3a dc 9c bc
       0.042322226 -0.10942807 -0.05675663 -0.019147981
0002a0 66 e6 45 be 19 c7 b8 bd 80 30 44 bd 92 5b 9e bc
       -0.19326171 -0.0902235 -0.047897816 -0.019330774
0002b0 74 7d 7b bc 6d c8 4a 3c 35 a5 de 3c 2a 84 ad bd
       -0.015349735 0.012376887 0.027178386 -0.08472474
0002c0 64 27 14 bd bb 3b 76 3d 4b 0e 23 be a1 2d 0f 3d
       -0.03617038 0.060115557 -0.15923421 0.034955624
0002d0 82 eb f3 3d 9c 2f e4 3b 66 8f 19 be e7 1b 30 3d
       0.11910154 0.0069636833 -0.14996108 0.04299536
0002e0 ba 49 3e bd 8b b7 b2 3d 31 4d 04 bc 28 b6 c4 bc
       -0.04645703 0.08726414 -0.0080750445 -0.02401264
0002f0 d0 55 1e be c8 75 bb 3c a4 c8 51 bd b6 55 9f 3c
       -0.15462422 0.02288331 -0.051216736 0.01945005
000300 e5 a4 1c be 55 9d 46 bd c9 21 35 be f0 0b 0d be
       -0.15297277 -0.048489887 -0.1768867 -0.13774085
000310 36 09 c8 bc a2 fc ad 3c 0d 34 19 3c c5 f9 f3 3d
       -0.024418455 0.021238629 0.009350789 0.11912874
000320 a5 a0 9c bd 61 7f 02 3d 72 70 0d 3e 38 cd f7 3c
       -0.07647828 0.03185976 0.13812426 0.030249223
000330 46 24 0d bd ec b6 87 3d 37 3e 9f 3d 3f f6 16 be
       -0.03445842 0.066266865 0.077755384 -0.14742373
000340 06 be c8 3c b4 1a 94 3d b2 4a bb bd fe 9f ad bd
       0.024504673 0.07231656 -0.091451064 -0.08477782
000350 e7 41 c4 3d 5b 49 d2 bc b8 bf 81 3d 42 23 0e be
       0.095828824 -0.025669744 0.063353956 -0.13880637
000360 0b c5 32 bd ca c6 5a 3c cb 15 bf bd f2 f1 f1 3c
       -0.043644946 0.013353059 -0.093303286 0.029534314
000370 7d 8e f9 bc a7 a3 49 3e d5 f3 b5 bd c1 17 61 bd
       -0.030463452 0.19691335 -0.08884398 -0.054954294
000380 97 96 c7 ba e4 c7 2a bc fb e9 65 bd f4 96 84 bc
       -0.0015227374 -0.010423634 -0.056131344 -0.016185261
000390 53 08 6d 3d ab 16 d4 bb 95 be 0e be ad d4 8f 3d
       0.057869267 -0.006472429 -0.13939889 0.070229866
0003a0 f2 f4 b1 bd 8b 03 d7 3c 33 b2 b1 3b 68 0f ed bc
       -0.08689298 0.026246807 0.0054228543 -0.02893801
0003b0 7e 17 e0 bd d9 ab 3e 3d 1c 6a 36 3d 5c 21 83 bd
       -0.10941981 0.046550605 0.044534788 -0.06402847
0003c0 24 20 eb 3d 24 2a c4 3b 74 4c 4e bd 89 27 38 3c
       0.1148074 0.005986469 -0.05036588 0.011239895
0003d0 e6 46 1f bc 19 a2 e6 bc 93 f9 a5 bd 8f b2 2a 3d
       -0.009721493 -0.028153466 -0.08104243 0.041674193
0003e0 55 ef 91 3c 41 95 ff 3c 26 1c 86 3c 0b 39 32 3d
       0.017814318 0.0311991 0.016370844 0.04351143
0003f0 63 c9 7d 3d 23 b5 e5 3b ca da da bc 60 c1 89 3c
       0.061959635 0.0070101186 -0.026715655 0.016815841
