checkpoints/abl_stage2_response_only/best_model.pt (torch, 256789 bytes, 142 tensors)

embedder.feature_projections.0.weight f4 [32, 1]
0.5039661 -0.28085706 -0.87346965 -0.7510396 -0.76977944 0.18855946 0.20621903 0.90166223
-1.2912309 -0.6737558 1.0827546 -0.33393478 0.36896223 -1.3372531 -0.8611888 -0.86316514
-0.06350999 0.9357901 0.06924471 0.74519384 0.92089075 -0.0012232608 -0.0029531084 1.0870701
0.28072733 -0.5632698 -1.0723054 0.6727235 -1.1679627 0.96561825 -0.84534574 0.6246591
00000000: ec03 013f 7fcc 8fbe b59b 5fbf 2244 40bf
00000010: 4410 45bf bb15 413e 152b 533e 56d3 663f
00000020: 0e47 a5bf 437b 2cbf b497 8a3f 80f9 aabe
00000030: 9ee8 bc3e 1c2b abbf df76 5cbf 64f8 5cbf
00000040: 8711 82bd f18f 6f3f 2cd0 8d3d 06c5 3e3f
00000050: 7fbf 6b3f d255 a0ba f088 41bb 1d25 8b3f
00000060: 7ebb 8f3e 7332 10bf 4e41 89bf 9b37 2c3f
00000070: cd7f 95bf c232 773f 9468 58bf a9e9 1f3f

embedder.feature_projections.0.bias f4 [32]
0.23666741 0.4753489 -0.93250537 0.061932947 -0.8865866 -0.025720118 0.71651936 -0.02849983
-0.29258382 0.13724396 -0.37371388 0.99341923 -0.7079056 0.22603545 -0.5898537 0.40501127
0.3661601 0.40408117 0.7989274 0.5375865 0.25071564 -0.32386005 -0.7174521 -0.6633671
-0.8480765 -0.9392364 0.6348551 -0.22037856 0.9494875 0.4269345 0.22362949 -0.1467195
00000000: f158 723e ee60 f33e acb8 6ebf 67ad 7d3d
00000010: 57f7 62bf ffb2 d2bc d06d 373f 7a78 e9bc
00000020: 8ccd 95be ae89 0c3e 6d57 bfbe b950 7e3f
00000030: 4d39 35bf d675 673e a700 17bf a35d cf3e
00000040: 5679 bb3e bae3 ce3e 8286 4c3f 459f 093f
00000050: cd5d 803e fcd0 a5be f1aa 37bf 6dd2 29bf
00000060: 8b1b 59bf cc71 70bf dd85 223f ebaa 61be
00000070: 9d11 733f 2997 da3e 21ff 643e a33d 16be

embedder.feature_projections.1.weight f4 [32, 1]
-0.8959569 -0.5938554 0.1333852 -0.23593397 -0.6097316 0.5406643 0.725817 0.14024708
0.34469664 -0.6886428 -0.36707357 -0.24661805 0.24422087 0.03594484 -0.6243983 -0.3413885
0.16019899 0.53482115 -0.93796515 -0.11730129 -0.34803504 0.15527064 -0.33637348 0.6305012
0.2998585 0.12695284 -0.17606436 -0.6677535 -0.048004657 -0.8390077 -0.018780328 0.13502112
00000000: 6e5d 65bf e806 18bf 2196 083e ad98 71be
00000010: 5f17 1cbf fa68 0a3f 25cf 393f ee9c 0f3e
00000020: 147c b03e e54a 30bf 11f1 bbbe 7189 7cbe
00000030: 0915 7a3e e63a 133d 91d8 1fbf 79ca aebe
00000040: 340b 243e 0aea 083f 7c1e 70bf a93b f0bd
00000050: a631 b2be 44ff 1e3e 2539 acbe 8768 213f
00000060: 0e87 993e edff 013e 374a 34be e5f1 2abf
00000070: 88a0 44bd 35c9 56bf 34d9 99bc fa42 0a3e

embedder.feature_projections.1.bias f4 [32]
0.44756 0.21444184 -0.086097814 0.46360886 0.7617642 0.5578378 0.56080174 -0.07823071
-0.6021254 0.33849826 -0.868977 -0.5093726 0.5598443 -0.43808067 0.24719934 -0.8724916
0.5997409 -0.4618274 0.84076405 -0.37092605 0.352528 0.2485963 0.09566038 -0.7475948
0.14376962 0.5938209 -0.07045696 0.10202972 -0.5316985 0.3128263 -0.022071144 0.8007332
00000000: 9626 e53e a496 5b3e 0d54 b0bd 245e ed3e
00000010: fb02 433f 75ce 0e3f b490 0f3f 6c37 a0bd
00000020: e424 1abf a54f ad3e 4775 5ebf 3e66 02bf
00000030: f551 0f3f 1c4c e0be d321 7d3e 9c5b 5fbf
00000040: 9f88 193f a474 ecbe 503c 573f 05ea bdbe
00000050: 8d7e b43e 0790 7e3e 97e9 c33d 5f62 3fbf
00000060: 5838 133e a604 183f bd4b 90bd f5f4 d03d
00000070: 651d 08bf c52a a03e 8bce b4bc dafc 4c3f

embedder.stabilizer_embedding.weight f4 [8, 32]
0.0028158834 1.6686851 0.8402131 0.2053419 -0.49209177 -2.8380659 -0.19306494 1.3974725
-0.14330907 0.82010514 -1.0883596 -1.65832 0.38630813 1.218249 1.0993911 -0.20553333
0.9563528 0.35792133 -0.9642318 -0.15991692 -1.6130869 1.8540925 1.0163583 -0.61336327
0.30981588 0.27247968 -0.9820198 0.40737247 -1.1513615 -1.5204257 -0.3900287 1.090469
1.5430541 -0.473471 -0.016741605 -2.3395412 -0.20232366 0.28463954 1.1791362 -0.6238529
-1.1241271 0.47921342 -0.42739013 2.2620285 0.46060607 1.4986653 2.3685944 -1.3131415
0.13354959 1.0297765 -0.018716708 -0.72737813 -0.36225 -0.8236728 -0.81971496 2.0380116
0.73722327 -0.4065411 -1.3764346 2.1707852 -1.2599359 -1.2043525 0.1973117 0.08829139
0.5444953 2.3061078 1.061451 0.27906528 -0.49388885 0.15005046 0.4241622 0.5971371
-0.5057241 -1.2093897 -1.5219996 0.66007733 1.7983813 -0.73721 -0.6363056 1.2487557
1.1415398 -0.14454398 -1.2468889 -0.64076114 1.0598551 1.1995225 -0.2923222 -3.13676
0.4379298 -0.27748185 1.2645508 0.19539906 -0.23645897 2.2078412 0.6872949 0.565218
1.3563734 -1.4415133 -1.5249153 1.7987688 -1.4794111 0.82717943 0.88365793 1.1050234
0.55438614 1.5218327 -0.17843795 -1.1392657 -0.6260701 -0.14817668 -2.1801226 -1.5313392
-0.44402575 -1.607126 -0.19022101 -0.55800235 0.4629922 0.5759191 -1.3837945 -0.29843244
0.27033755 -0.3659832 1.1275525 0.5693752 1.0625049 -1.0030571 -1.97492 0.62177974
1.7903252 -0.2451 1.4769548 -0.00036717136 -1.4814676 -0.7832271 -0.83330345 0.14879104
0.97764856 0.5528245 -0.00017942568 -0.48359147 0.17897984 -0.6428693 -1.7968644 -0.22055997
0.85102206 0.7610931 1.8566133 1.6892731 0.3015418 -0.78194946 0.1452445 0.08230021
-1.4530978 -0.4916494 -0.32002965 -1.74672 -0.4143024 -0.88309175 -0.1649485 -0.56747746
-0.1620149 0.99000186 -1.148053 1.4024899 -1.7446187 -0.8889998 -1.0638278 1.6661308
-0.007655058 0.23170416 -0.44626522 0.8129346 -0.12781394 1.1325239 0.01206749 -0.2229353
-3.2703798 0.84321964 -0.009757266 -0.57520175 -0.95309067 -0.62739503 -0.23348956 -0.243983
-0.32563084 0.22741678 -0.3420462 0.2313407 0.59610635 1.835719 -0.72731066 0.15950683
-0.6126172 -0.78470683 0.9210764 1.3609021 -0.6861618 -0.67461467 -1.6618276 -1.3710759
-0.7715566 -1.4860051 0.5897916 -0.11507797 -0.8496519 -0.57409173 -0.012603506 -0.43040568
0.26059204 -0.31271717 0.10305292 2.3654847 -1.5074275 0.3059979 1.268854 -1.584364
0.37662828 0.6979379 -1.8639989 0.62921333 -2.2263618 0.7918831 1.8392645 -0.4804598
1.0215806 -0.45516643 -2.1547072 -0.23114446 -0.7300684 -0.06880371 -1.6462483 -0.2999048
0.6593004 0.7660491 -0.18982762 1.6283259 0.035333168 -0.5173646 -0.4961862 -1.2147752
-0.83041567 -0.98712873 1.4310255 -1.4715652 -1.8868735 -0.95207995 -0.5880703 -0.6883089
0.8964857 -0.92649543 -0.9339636 1.8025501 -0.024318723 0.62775934 0.41704336 -0.6934438
00000000: af8a 383b 7997 d53f 3518 573f 2645 523e
00000010: 74f3 fbbe dfa2 35c0 d1b2 45be 61e0 b23f
00000020: 9dbf 12be 69f2 513f 5e4f 8bbf d443 d4bf
00000030: 2eca c53e 95ef 9b3f d9b8 8c3f 5477 52be
00000040: 89d3 743f 7741 b73e e5d7 76bf 43c1 23be
00000050: a279 cebf e752 ed3f 0718 823f 6005 1dbf
00000060: 30a0 9e3e 7582 8b3e a665 7bbf 2093 d03e
00000070: d05f 93bf 4f9d c2bf d7b1 c7be 7d94 8b3f
00000080: cc82 c53f ca6a f2be b125 89bc 0bbb 15c0
00000090: ef2d 4fbe 46bc 913e efed 963f d3b4 1fbf
000000a0: 66e3 8fbf 765b f53e e1d2 dabe 13c5 1040
000000b0: 8fd4 eb3e 44d4 bf3f 0d97 1740 0515 a8bf
000000c0: 39c1 083e b7cf 833f c853 99bc 7435 3abf
000000d0: d578 b9be 38dc 52bf d7d8 51bf c86e 0240
000000e0: aaba 3c3f 2826 d0be 022f b0bf 25ee 0a40
000000f0: 9445 a1bf 3928 9abf 140c 4a3e 1ed2 b43d
00000100: 0b64 0b3f 4597 1340 a0dd 873f a5e1 8e3e
00000110: 00df fcbe d4a6 193e ca2b d93e fadd 183f
00000120: 2277 01bf 48cd 9abf e2d0 c2bf d4fa 283f
00000130: 5c31 e63f cbb9 3cbf ece4 22bf 3ad7 9f3f
00000140: fa1d 923f 5603 14be 0e9a 9fbf ec08 24bf
00000150: 55a9 873f f489 993f 41ab 95be adc0 48c0
00000160: 5638 e03e 1a12 8ebe cddc a13f b116 483e
00000170: 4d22 72be 454d 0d40 8ff2 2f3f 20b2 103f
00000180: a59d ad3f 8283 b8bf 6d30 c3bf 0e3e e63f
00000190: 585d bdbf 08c2 533f 6837 623f 6871 8d3f
000001a0: 40ec 0d3f 6acb c23f 70b8 36be 75d3 91bf
000001b0: 2146 20bf a1bb 17be 2187 0bc0 ec02 c4bf
000001c0: 5857 e3be 4eb6 cdbf 4cc9 42be 3ed9 0ebf
000001d0: 500d ed3e 6f6f 133f 2e20 b1bf 23cc 98be
000001e0: af69 8a3e 2662 bbbe a453 903f 93c2 113f
000001f0: 2900 883f 2d64 80bf 2eca fcbf f52c 1f3f
00000200: 6029 e53f 7ffb 7abe db0c bd3f e880 c0b9
00000210: bba0 bdbf 9281 48bf 6053 55bf ae5c 183e
00000220: 2d47 7a3f e885 0d3f 3724 3cb9 4d99 f7be
00000230: 7e46 373e 1593 24bf a7ff e5bf 79da 61be
00000240: 95dc 593f ffd6 423f 81a5 ed3f 1a3a d83f
00000250: b063 9a3e d72d 48bf f9ba 143e 038d a83d
00000260: 1cff b9bf 78b9 fbbe edda a3be 8594 dfbf
00000270: 721f d4be 4d12 62bf 42e8 28be 3446 11bf
00000280: 3ce7 25be c370 7d3f 67f3 92bf ca84 b33f
00000290: aa4f dfbf 7e95 63bf 822b 88bf c643 d53f
000002a0: 48d7 fabb db43 6d3e e07c e4be 7b1c 503f
000002b0: a8e1 02be 8bf6 903f b9b6 453c 2749 64be
000002c0: e74d 51c0 3edd 573f f1dc 1fbc 6c40 13bf
000002d0: c0fd 73bf f69c 20bf e317 6fbe aed6 79be
000002e0: 16b9 a6be f2df 683e ae20 afbe 94e4 6c3e
000002f0: 6d9a 183f d7f8 ea3f 0831 3abf c255 233e
00000300: 7bd4 1cbf 8ce2 48bf aacb 6b3f 0a32 ae3f
00000310: 4da8 2fbf 8cb3 2cbf c4b6 d4bf 6a7f afbf
00000320: bc84 45bf 6a35 bebf 95fc 163f 00ae ebbd
00000330: c982 59bf adf7 12bf f07e 4ebc 225e dcbe
00000340: 526c 853e 771c a0be 690d d33d 1a64 1740
00000350: 62f3 c0bf c2ab 9c3e cf69 a23f 71cc cabf
00000360: 6cd5 c03e 0fac 323f 8497 eebf 2014 213f
00000370: b67c 0ec0 dab8 4a3f 056d eb3f d4fe f5be
00000380: 27c3 823f 930b e9be b9e6 09c0 22b1 6cbe
00000390: c3e5 3abf f6e8 8cbd 44b8 d2bf 1f8d 99be
000003a0: e9c7 283f cb1b 443f 2c62 42be fc6c d03f
000003b0: 83b9 103d 0272 04bf 1e0c febe c17d 9bbf
000003c0: 1f96 54bf 78b4 7cbf d82b b73f 405c bcbf
000003d0: 1285 f1bf 83bb 73bf c68b 16bf 0335 30bf
000003e0: 1680 653f ce2e 6dbf 3d18 6fbf f6b9 e63f
000003f0: 0f38 c7bc d6b4 203f b586 d53e 8885 31bf

embedder.res_block.0.weight f4 [32]
0.9248755 1.0019414 0.98854315 0.9938446 0.91100574 1.0281148 1.0305659 1.1389676
1.0553496 0.98415935 1.087726 0.998988 1.0034238 1.1993753 1.0341543 0.93658257
0.9826728 1.1425776 0.9984316 1.0802833 1.103437 1.05094 0.9003515 0.99761164
1.0453484 1.0130081 1.0398796 1.066278 1.0962745 1.0584742 1.1296239 0.9913298
00000000: a4c4 6c3f 9e3f 803f 2a11 7d3f 9a6c 7e3f
00000010: ac37 693f 4499 833f 95e9 833f b1c9 913f
00000020: b215 873f def1 7b3f 9b3a 8b3f adbd 7f3f
00000030: 3170 803f 2185 993f 2b5f 843f e0c3 6f3f
00000040: 7290 7b3f fc3f 923f 3799 7f3f b946 8a3f
00000050: 6c3d 8d3f 3485 863f 707d 663f 7a63 7f3f
00000060: facd 853f 40aa 813f c61a 853f cc7b 883f
00000070: b952 8c3f 157c 873f 8497 903f cac7 7d3f

embedder.res_block.0.bias f4 [32]
-0.12389973 -0.011271427 0.06409805 0.018121988 0.071947075 -0.025999857 -0.028725322 -0.055338655
0.035163146 0.021264782 0.014231807 -0.033148058 -0.024882168 0.02726264 0.0059869415 0.0781762
0.018063096 -0.016532855 0.0067282384 -0.006528435 -0.034652002 -0.0017233337 0.1048646 0.013883934
0.014588254 0.046148606 0.0441365 -0.056171954 0.042341962 -0.051214978 0.035887018 -0.08905421
00000000: 24bf fdbd cbab 38bc d745 833d 9074 943c
00000010: fd58 933d a7fd d4bc 5e51 ebbc c9aa 62bd
00000020: 3b07 103d 7b33 ae3c 862c 693c 42c6 07bd
00000030: b0d5 cbbc e655 df3c 1b2e c43b d81a a03d
00000040: 0ff9 933c e96f 87bc 8e78 dc3b 7bec d5bb
00000050: 42ef 0dbd 7ce1 e1ba 40c3 d63d 7179 633c
00000060: 9203 6f3c 5206 3d3d 7ac8 343d 9014 66bd
00000070: c46e 2d3d ccc6 51bd 44fe 123d 0e62 b6bd

embedder.res_block.1.weight f4 [32, 32]
0.0953243 -0.15312682 0.177413 -0.012435979 -0.07806379 -0.19338709 0.04184873 -0.054622516
0.1693469 0.14775589 0.08617366 -0.16278969 0.047723692 -0.13133723 0.11867202 -0.052522816
-0.085755855 -0.03183893 -0.0027044904 0.10602713 -0.054578148 -0.112907894 -0.0870575 -0.098913714
0.14463891 0.10612689 -0.07580743 0.08069166 0.10888597 0.009694533 -0.04226542 0.1605577
0.098076895 -0.028063977 -0.047433853 0.04820284 0.12794556 0.045981813 0.094906494 0.08247664
0.2602095 -0.08950719 -0.08228888 0.09773207 -0.13656174 0.0051359255 -0.03501383 0.10162565
-0.088015854 0.14925463 -0.0071940324 0.098980986 -0.0030907758 -0.084586404 -0.07363718 -0.046698026
-0.15519074 0.15247533 0.05662314 -0.08856095 0.04899758 -0.13659528 -0.05807635 0.09178883
0.17059733 -0.11495024 -0.17905915 0.09146755 0.008069372 -0.113440216 0.17003131 0.011358576
-0.04830111 0.053242084 0.22204858 0.005474453 0.13605091 -0.14136018 -0.11765548 -0.037213907
-0.01828991 0.08924846 0.011482331 -0.049176157 0.24517749 0.22577035 0.16651462 0.07985431
0.065911785 -0.15180515 -0.017122459 0.19034973 -0.23881984 0.11566232 -0.36081484 0.14895591
0.109285645 -0.22244926 -0.0121983485 -0.031428922 0.08666425 0.061146047 0.020147717 0.12830298
-0.12863904 0.008507482 0.10737482 0.117989294 0.07976052 -0.29812533 -0.033160564 0.070807666
-0.11727528 -0.11981679 -0.11510045 0.22129862 0.011386896 0.06477269 0.05092738 0.11807354
-0.08400562 -0.12302317 -0.16884945 0.07859277 0.08838214 0.13601016 -0.18526968 -0.0056734406
0.11063283 -0.05590196 0.012605902 0.06439445 -0.17090349 0.0886656 0.041105617 -0.040624466
0.020595646 -0.023578992 -0.09255353 0.11357666 -0.05866574 0.06378508 0.036301754 0.18162991
0.15544891 -0.059593823 0.07038192 0.024359213 -0.09134202 0.024695 0.020907314 -0.09827651
-0.14425641 -0.034902316 -0.01987228 -0.15698114 0.17607853 -0.11928023 0.18402326 0.13917583
0.031210493 -0.011019841 -0.22371836 0.00023194624 0.09684744 0.1825837 -0.091513306 -0.0031792435
-0.24949194 -0.06865351 0.15704907 -0.15033017 0.16826102 -0.32338926 -0.19442722 0.017069625
-0.16042653 0.13269213 0.07727531 0.026166966 0.22888601 0.006521377 0.010179065 0.1570792
0.16663298 -0.06936921 -0.15205973 0.008505713 0.08451263 0.18407659 0.011911159 -0.008773584
0.06392063 0.0838324 0.14145464 0.015371016 0.08185118 -0.10355219 -0.00030306555 -0.04392523
0.11671744 -0.052725017 -0.1622071 -0.13026269 -0.038277578 0.17714444 0.27987987 -0.07205883
0.025573362 -0.2488349 -0.07631559 -0.06909634 -0.12001808 0.074333146 -0.016559424 -0.05073626
-0.07922163 0.13625741 -0.038530093 -0.12621602 -0.1202701 -0.07857653 -0.010979383 -0.045779187
-0.07439607 -0.10701057 -0.0729088 -0.20281038 0.21433067 0.18430082 -0.2619135 -0.33541754
0.17568852 0.26056933 -0.14798126 0.008867979 -0.08251659 0.058735844 -0.017041631 0.12153009
-0.071574576 -0.16705562 0.16572824 -0.20943864 -0.103337795 -0.11549 0.046288945 -0.16964988
0.21663044 0.05633573 0.096930146 0.07347863 0.25155327 0.13532947 0.14716841 -0.21164745
00000000: 6339 c33d 47cd 1cbe c1ab 353e 47c0 4bbc
00000010: e9df 9fbd 4407 46be 9369 2b3d dcbb 5fbd
00000020: 4669 2d3e 524d 173e d17b b03d 57b2 26be
00000030: eb79 433d 447d 06be 510a f33d 2a22 57bd
00000040: c4a0 afbd 8a69 02bd d23d 31bb c024 d93d
00000050: 568d 5fbd 413c e7bd 344b b2bd 4693 cabd
00000060: 391c 143e 0e59 d93d ed40 9bbd ab41 a53d
00000070: 9cff de3d d2d5 1e3c 811e 2dbd 3d69 243e
00000080: 8adc c83d 6de6 e5bc 004a 42bd 5770 453d
00000090: 2904 033e 6d57 3c3d 565e c23d 83e9 a83d
000000a0: 2e3a 853e 8c4f b7bd 1387 a8bd c027 c83d
000000b0: d7d6 0bbe 444b a83b a96a 0fbd 1c21 d03d
000000c0: a841 b4bd 35d6 183e ebbb ebbb 8bb6 ca3d
000000d0: 9d8e 4abb a33b adbd 17cf 96bd 6e46 3fbd
000000e0: 52ea 1ebe 7e22 1c3e aaed 673d 715f b5bd
000000f0: b0b1 483d a2df 0bbe 77e1 6dbd c8fb bb3d
00000100: 11b1 2e3e 086b ebbd 485b 37be 5753 bb3d
00000110: 6635 043c 5853 e8bd b01c 2e3e 5219 3a3c
00000120: 62d7 45bd 5f14 5a3d b460 633e 0a63 b33b
00000130: ee50 0b3e b9c0 10be 5bf5 f0bd 9c6d 18bd
00000140: b9d4 95bc e6c7 b63d 6320 3c3c f06c 49bd
00000150: cf0f 7b3e 5830 673e cf82 2a3e a88a a33d
00000160: c2fc 863d cf72 1bbe 6644 8cbc 0aeb 423e
00000170: 308d 74be 5ee0 ec3d b9bc b8be e687 183e
00000180: 27d1 df3d bdc9 63be 95db 47bc 9dbb 00bd
00000190: 077d b13d 4774 7a3d d30c a53c db61 033e
000001a0: f4b9 03be f762 0b3c 54e7 db3d 5fa4 f13d
000001b0: 7c59 a33d e2a3 98be 5fd3 07bd 9c03 913d
000001c0: 062e f0bd 8162 f5bd c9b9 ebbd 1b9c 623e
000001d0: 1a90 3a3c 8ba7 843d 3a99 503d 8ad0 f13d
000001e0: 230b acbd 92f3 fbbd dfe6 2cbe 3ff5 a03d
000001f0: b201 b53d 3f46 0b3e 56b7 3dbe 45e8 b9bb
00000200: 7793 e23d 74f9 64bd fc88 4e3c 3de1 833d
00000210: 5301 2fbe 4f96 b53d 5d5e 283d d765 26bd
00000220: 33b8 a83c bb28 c1bc b58c bdbd e19a e83d
00000230: 7d4b 70bd c1a1 823d 26b1 143d 31fd 393e
00000240: 002e 1f3e a718 74bd 6524 903d f98c c73c
00000250: 8611 bbbd 2b4d ca3c d145 ab3c 3245 c9bd
00000260: f4b7 13be bbf5 0ebd 31cb a2bc aabf 20be
00000270: ee4d 343e 3149 f4bd 9870 3c3e 1c84 0e3e
00000280: 26ad ff3c 908c 34bc 6d16 65be 9836 7339
00000290: f357 c63d 39f7 3a3e 546b bbbd db5a 50bb
000002a0: d17a 7fbe 369a 8cbd 79d1 203e 27f0 19be
000002b0: 9e4c 2c3e 4793 a5be ee17 47be 99d5 8b3c
000002c0: da46 24be 72e0 073e 8542 9e3d 1b5c d63c
000002d0: 1861 6a3e 46b1 d53b 18c6 263c 5fd9 203e
000002e0: d6a1 2a3e 7211 8ebd 8cb5 1bbe 8c5b 0b3c
000002f0: f514 ad3d 937e 3c3e 0627 433c 14bf 0fbc
00000300: d2e8 823d 52b0 ab3d 7cd9 103e b7d6 7b3c
00000310: 97a1 a73d 2c13 d4bd c5e4 9eb9 f1ea 33bd
00000320: 8e09 ef3d 30f6 57bd 9e19 26be 9563 05be
00000330: f3c8 1cbd 5a65 353e 6a4c 8f3e 9493 93bd
00000340: 3a7f d13c 93ce 7ebe 594b 9cbd 6282 8dbd
00000350: 0acc f5bd fa3b 983d a1a7 87bc d3d0 4fbd
00000360: f33e a2bd 1087 0b3e bbd1 1dbd c63e 01be
00000370: 2c50 f6bd bbec a0bd dfe2 33bc f582 3bbd
00000380: f75c 98bd 5c28 dbbd 3551 95bd 86ad 4fbe
00000390: 8079 5b3e 5bb9 3c3e 8719 86be d9bb abbe
000003a0: b1e7 333e 5869 853e 6688 17be 004b 113c
000003b0: 75fe a8bd ff94 703d e49a 8bbc c5e4 f83d
000003c0: b195 92bd a110 2bbe aab4 293e 1577 56be
000003d0: c4a2 d3bd 0586 ecbd 7a99 3d3d b3b8 2dbe
000003e0: 5fd4 5d3e 4bc0 663d 5083 c63d f77b 963d
000003f0: 97cb 803e cf93 0a3e 51b3 163e 1cba 58be

embedder.res_block.1.bias f4 [32]
-0.18829879 0.12134435 -0.12988786 0.13833013 0.15092804 -0.16303891 -0.008979716 0.051135782
-0.049951565 0.082157865 -0.059765473 0.08259756 0.015228708 -0.15923865 0.1351699 0.14248946
0.088621706 -0.06251201 0.12611327 -0.042909797 0.08442586 -0.13401733 0.0246819 -0.1339264
-0.17327206 0.08596528 -0.11601169 0.024821669 -0.13542226 -0.025916317 0.13037138 0.1731433
00000000: 66d1 40be 6383 f83d 5301 05be 6aa6 0d3e
00000010: e18c 1a3e acf3 26be a91f 13bc c173 513d
00000020: 039a 4cbd 6242 a83d a4cc 74bd e928 a93d
00000030: d581 793c 750f 23be fa69 0a3e c2e8 113e
00000040: 4c7f b53d 4c06 80bd d623 013e 2fc2 2fbd
00000050: 77e7 ac3d d73b 09be b231 ca3c 0124 09be
00000060: 3b6e 31be 910e b03d 8997 edbd d056 cb3c
00000070: 22ac 0abe 754e d4bc 1380 053e 7a4c 313e

embedder.res_block.3.weight f4 [32, 32]
0.1207401 0.012624918 -0.20511454 -0.18832834 -0.07042245 -0.07068152 -0.11651998 -0.18976764
-0.09051955 0.046112053 0.032342676 -0.1818233 -0.2599833 -0.095320955 -0.009560744 0.0074115004
-0.01766484 0.08671937 -0.005137185 0.026382575 0.17665076 0.15733056 0.2796548 -0.2422281
0.07252213 -0.06563928 -0.12532066 0.011200273 -0.03438958 0.014206619 -0.015075893 -0.1860723
-0.15820348 0.16957861 -0.077178136 0.09907841 -0.14573893 -0.18132706 -0.04930923 -0.11005781
-0.15593345 -0.20357153 -0.023548584 0.018068103 -0.043833878 -0.11717032 0.055759016 0.13889696
-0.09270808 -0.075967126 0.08574173 0.103647575 0.06906304 -0.16135016 -0.09060325 0.040965233
-0.05550046 -0.11416718 0.0919915 -0.07241973 0.08599438 -0.24155584 -0.06935857 0.08212274
-0.06252955 0.16551301 -0.07826498 -0.010267266 0.18911448 -0.063720606 -0.20106012 -0.1391292
0.2000239 0.10733868 -0.095111676 -0.12967016 -0.087458245 0.1337662 -0.10428598 -0.084281914
0.17430648 0.08957445 -0.016518934 0.111845605 -0.07642486 -0.12459393 -0.16574956 -0.0842798
0.13676694 0.03637392 -0.084696144 0.07928721 -0.11139675 -0.12826295 0.03864348 0.13852534
-0.0047354726 0.18711127 -0.1256424 -0.07738296 0.078656286 -0.31781143 -0.11206193 0.07669758
0.17336683 0.07371264 0.04859272 0.13487211 0.020333897 -0.19672263 0.0073591764 0.09642587
0.17557383 0.07395322 0.19286716 -0.00020714919 0.094523504 -0.06835027 0.33570763 -0.35826716
0.08366429 -0.084759325 0.051396932 0.22796862 0.15251176 0.050980136 0.17244384 0.14397049
0.11775283 0.039154947 -0.17974722 0.072183415 0.1634069 -0.048798073 0.2226316 -0.08670554
-0.22905006 0.03385224 -0.12403535 0.1557475 -0.056440435 -0.14902017 0.08848964 -0.0322839
0.051592752 0.06895348 -0.2210369 -0.0922663 0.10394367 -0.065792985 -0.16205823 -0.23304561
-0.17211765 -0.13411075 0.1523347 -0.13608429 0.079968125 0.16088982 0.06427982 0.10757559
0.046530914 0.06548286 0.0830442 -0.061895233 -0.0071623605 0.055204637 -0.19435261 -0.034007303
-0.1409712 -0.20859605 0.15683657 -0.03895247 -0.1699199 -0.061187904 -0.12605047 -0.06296879
-0.08620623 0.18675697 -0.01605044 0.017125582 0.031509418 0.049506303 0.047848243 -0.048896194
-0.07285894 0.081239894 -0.13079645 0.14183722 0.09762894 -0.16946079 0.05365344 -0.06516213
-0.12996992 0.1358572 0.18505831 0.14290778 -0.1789942 -0.0304546 -0.25617725 -0.22028534
0.109388486 0.03523997 0.13041855 0.10774687 0.0021506182 -0.008087744 0.13500862 -0.060292207
-0.043388866 -0.065820634 0.22140782 -0.005321755 -0.069864936 -0.038633395 0.118664816 -0.03508703
0.07343227 0.07581375 -0.041580223 -0.022134984 -0.05408459 0.12123455 0.134765 -0.05512732
0.11103255 0.0973326 0.06802614 -0.13929603 -0.149759 0.12597844 -0.17696188 -0.11739667
0.030209385 -0.11206249 0.027503451 0.08314202 -0.06574023 -0.00106057 0.0031763597 0.012542998
0.09665516 -0.051620144 0.010965018 -0.073426194 0.14428711 0.013754331 -0.10457395 0.099655196
0.0084530655 -0.058695294 -0.02949079 0.013778084 -0.003503554 0.05181827 -0.1041709 0.04711665
00000000: 9646 f73d bed8 4e3c 8c09 52be 25d9 40be
00000010: a539 90bd 79c1 90bd 07a2 eebd 7352 42be
00000020: 5062 b9bd fedf 3c3d c179 043d e32f 3abe
00000030: 881c 85be a237 c3bd aba4 1cbc 2cdc f23b
00000040: dbb5 90bc ed99 b13d d555 a8bb 4520 d83c
00000050: f0e3 343e 431b 213e ea2e 8f3e a50a 78be
00000060: 7c86 943d e36d 86bd 0f54 00be 5a81 373c
00000070: 17dc 0cbd e1c2 683c e100 77bc bd89 3ebe
00000080: 1800 22be 04a6 2d3e 920f 9ebd 9fe9 ca3d
00000090: 963c 15be cdad 39be 7af8 49bd fd65 e1bd
000000a0: 05ad 1fbe 0e75 50be f6e8 c0bc 8f03 943c
000000b0: 278b 33bd fef6 efbd 9163 643d 013b 0e3e
000000c0: bcdd bdbd a794 9bbd 5c99 af3d 2e45 d43d
000000d0: ec70 8d3d fa38 25be 328e b9bd 29cb 273d
000000e0: 7354 63bd 7cd0 e9bd 0a66 bc3d cc50 94bd
000000f0: d21d b03d 6a5a 77be de0b 8ebd f82f a83d
00000100: 7e0f 80bd 3e7c 293e 6449 a0bd 0938 28bc
00000110: 3aa7 413e f37f 82bd b4e2 4dbe e377 0ebe
00000120: 11d3 4c3e 62d4 db3d e9c9 c2bd 41c8 04be
00000130: 4f1d b3bd 02fa 083e e393 d5bd ff9b acbd
00000140: 667d 323e cf72 b73d b752 87bc 4f0f e53d
00000150: a384 9cbd 1a2b ffbd 41ba 29be e39a acbd
00000160: a20c 0c3e d2fc 143d 2c75 adbd 5561 a23d
00000170: fb23 e4bd 5d57 03be a048 1e3d 96d9 0d3e
00000180: 062c 9bbb 199a 3f3e 67a8 00be f57a 9ebd
00000190: 8c16 a13d 2eb8 a2be ba80 e5bd 9f13 9d3d
000001a0: 1387 313e a7f6 963d 2909 473d ea1b 0a3e
000001b0: 4693 a63c a871 49be 3f25 f13b ed7a c53d
000001c0: a0c9 333e c974 973d f87e 453e 3036 59b9
000001d0: 8a95 c13d 3afb 8bbd dfe1 ab3e cb6e b7be
000001e0: 2f58 ab3d 4c96 adbd 9785 523d 9b70 693e
000001f0: 0b2c 1c3e 8cd0 503d 1e95 303e 006d 133e
00000200: 6528 f13d f060 203d a80f 38be e6d4 933d
00000210: 2354 273e 7de0 47bd 8af9 633e ad92 b1bd
00000220: 198c 6abe a5a8 0a3d 3f06 febd 467c 1f3e
00000230: 162e 67bd be98 18be 0e3a b53d 1f3c 04bd
00000240: ec52 533d 7b37 8d3d 7f57 62be 1df6 bcbd
00000250: 6be0 d43d 79be 86bd 98f2 25be 82a3 6ebe
00000260: 9c3f 30be 5454 09be a1fd 1b3e ae59 0bbe
00000270: 54c6 a33d 4dc0 243e 23a5 833d 9750 dc3d
00000280: 3397 3e3d e11b 863d 1413 aa3d db85 7dbd
00000290: 3cb2 eabb 421e 623d 5f04 47be 3e4b 0bbd
000002a0: c15a 10be 349a 55be c499 203e a08c 1fbd
000002b0: 7bff 2dbe 2ba0 7abd 6013 01be c8f5 80bd
000002c0: e48c b0bd 383d 3f3e 367c 83bc f34a 8c3c
000002d0: 0510 013d 1fc7 4a3d 85fc 433d 6047 48bd
000002e0: 1137 95bd 1a61 a63d 81ef 05be c73d 113e
000002f0: aff1 c73d 2187 2dbe b6c3 5b3d b973 85bd
00000300: d616 05be 261e 0b3e ed7f 3d3e 6b56 123e
00000310: 414a 37be ed7b f9bc aa29 83be 7b92 61be
00000320: 1207 e03d c957 103d 718c 053e 64aa dc3d
00000330: 63f1 0c3b 7582 04bc b33f 0a3e f6f4 76bd
00000340: 86b8 31bd f8cc 86bd bbb8 623e 1e62 aebb
00000350: 5915 8fbd 0d3e 1ebd 8a06 f33d 6bb7 0fbd
00000360: a863 963d 3d44 9b3d 0650 2abd 6d54 b5bc
00000370: ce87 5dbd d249 f83d d6ff 093e 2fcd 61bd
00000380: 0965 e33d 5056 c73d 4a51 8b3d 9ea3 0ebe
00000390: 6c5a 19be 7e00 013e 7f35 35be aa6d f0bd
000003a0: ac79 f73c 0581 e5bd eb4e e13c 5d46 aa3d
000003b0: d0a2 86bd d302 8bba 792a 503b 2681 4d3c
000003c0: 24f3 c53d a56f 53bd 9ea6 333c 7960 96bd
000003d0: 00c0 133e d859 613c de2a d6bd 0618 cc3d
000003e0: ba7e 0a3c 7a6a 70bd ab96 f1bc 79bd 613c
000003f0: e29b 65bb 653f 543d 8e57 d5bd 63fd 403d

embedder.res_block.3.bias f4 [32]
-0.018939432 -0.15727662 -0.08159091 0.042377967 -0.06227973 0.15614313 0.109843075 -0.08134985
0.14834894 0.03538898 -0.07928597 0.067019224 -0.0077240365 0.15468623 -0.036051754 0.022177517
-0.15228158 0.18883267 -0.115940824 -0.14850171 -0.06278993 -0.12466549 0.09175191 0.17735796
-0.16598178 -0.14969221 0.1897841 0.10902582 0.17582567 0.09764396 -0.08755187 0.09382737
00000000: de26 9bbc 1f0d 21be 2319 a7bd 8594 2d3d
00000010: 0819 7fbd fce3 1f3e 68f5 e03d c09a a6bd
00000020: c9e8 173e 09f4 103d af60 a2bd 6041 893d
00000030: ea19 fdbb 1166 1e3e 01ab 13bd a0ad b53c
00000040: b4ef 1bbe 5a5d 413e 6272 edbd d510 18be
00000050: 0298 80bd 9f50 ffbd 6de8 bb3d 539d 353e
00000060: 21f7 29be ea48 19be c356 423e ee48 df3d
00000070: a50b 343e 8ef9 c73d 654e b3bd 9028 c03d

cnn_blocks.0.proj_in.weight f4 [16, 32]
-0.1781846 -0.023582915 0.026473917 0.037798624 -0.07006366 0.035218414 -0.0016970879 -0.19377257
0.030021198 -0.1378235 0.10534251 0.15318088 0.08468709 -0.07789484 0.028967049 0.098471105
0.1051436 -0.16624603 0.010914237 -0.14984223 0.14720099 -0.07136102 -0.20343521 -0.06885101
-0.057847086 -0.030484986 0.11437415 -0.01313196 -0.16077046 -0.088775314 0.0781342 -0.22726049
0.09153939 0.21645404 0.10064098 -0.11755481 0.11606077 0.024238925 0.10645319 -0.038940057
0.09548154 -0.034047622 -0.051328998 -0.10292804 0.07918663 -0.03318861 -0.023080217 -0.059625775
-0.024350444 0.10555191 -0.035414036 -0.08447938 -0.010393999 0.14277646 -0.15518707 0.1578608
-0.042233855 -0.2706315 -0.07550813 0.22460364 0.12500757 0.102452956 -0.035829026 -0.05483651
0.13475432 -0.012628716 -0.06288652 -0.019927656 0.10716745 0.12266283 0.105751365 -0.11414537
-0.057413377 -0.11514321 -0.024477638 0.14111507 -0.16422342 0.11402218 0.032185964 0.16671243
0.0007500105 0.0008624662 0.04168537 0.032092016 0.09113521 0.020351058 -0.13629414 -0.19726701
0.08064932 0.13060163 -0.12908736 0.090557545 -0.026665265 -0.09552395 0.23775625 0.16896474
0.11939498 -0.13948476 0.004087172 0.15442298 -0.16646282 -0.17993803 0.013540919 -0.1624686
0.011758833 -0.06879164 -0.08398007 -0.04625755 0.16289622 0.054680254 -0.16290145 -0.14695056
0.03147944 0.0898848 0.010556845 -0.05672794 0.15191095 0.072798125 0.09508467 0.019433198
0.05839086 -0.09540336 0.048407212 -0.16946754 0.10905018 -0.10814016 -0.042006247 -0.020297533
-0.030596895 -0.009313798 0.20158082 -0.18613091 0.019385817 0.1002152 0.06251022 -0.13380815
-0.0055880984 -0.27365384 0.0036385832 0.19498344 0.034464136 0.052249335 -0.17860167 -0.12503079
0.14075299 0.010940772 0.12542298 0.08124594 -0.017653858 0.07733724 -0.06708408 -0.08743727
0.13391715 -0.1822023 0.0065656393 0.09253787 0.030701566 0.03909252 -0.11171363 0.13049702
0.079610184 0.22083646 0.015315624 0.05375524 -0.052555226 -0.17115325 -0.15858516 0.18894996
0.12162708 -0.052158747 -0.08431681 0.13886647 0.14709947 0.094687976 -0.032626256 -0.04720111
0.18257919 -0.11761273 -0.047419686 0.13943936 -0.110258795 0.11657153 -0.0667228 0.08571041
0.061894618 0.061247226 -0.12842458 -0.008977392 -0.043378297 -0.06710044 -0.12774004 -0.13663948
0.06752886 0.0155294435 -0.075617395 0.13035099 -0.12378186 -0.03840327 -0.1475243 -0.08447854
-0.17705078 0.075524084 -0.06518038 -0.16113873 -0.091714546 0.06718619 -0.010037731 -0.036797
0.16834213 0.07943492 0.03925079 -0.17704257 0.047667958 0.05648266 0.07028385 -0.13064243
0.13179013 0.015653739 -0.062489633 0.107007794 -0.01066498 0.009558236 -0.0007350939 0.074717924
0.2513933 -0.14155701 0.055667587 0.12130679 -0.1353922 -0.03603891 0.14093488 -0.2032665
-0.00020001017 0.16336213 -0.20619558 -0.024464091 -0.11774943 -0.025764221 -0.1388194 0.05921054
-0.001721951 -0.13796706 0.08621699 0.19640434 0.05306713 0.11329269 0.033934046 0.13057686
0.03895664 0.15717557 -0.026773354 0.06464354 0.11097265 -0.2268935 0.16850819 -0.17074312
00000000: 0676 36be f530 c1bc d4df d83c bbd2 1a3d
00000010: 897d 8fbd 2f41 103d d270 deba 516c 46be
00000020: 04ef f53c 9b21 0dbe d0bd d73d 73db 1c3e
00000030: 6d70 ad3d 5487 9fbd 4e4c ed3c 38ab c93d
00000040: 8755 d73d 663c 2abe a1d1 323c 3e70 19be
00000050: dbbb 163e ba25 92bd 5251 50be c201 8dbd
00000060: 11f1 6cbd a6bb f9bc ff3c ea3d 6f27 57bc
00000070: 03a1 24be d5cf b5bd d304 a03d f9b6 68be
00000080: 0179 bb3d 21a6 5d3e dc1c ce3d 94c0 f0bd
00000090: 45b1 ed3d b690 c63c 2104 da3d 9c7f 1fbd
000000a0: d38b c33d 8575 0bbd 5b3e 52bd f0cb d2bd
000000b0: 9a2c a23d c8f0 07bd b912 bdbc 283a 74bd
000000c0: 957a c7bc 9a2b d83d 4f0e 11bd 8603 adbd
000000d0: 974b 2abc fe33 123e 5ce9 1ebe 43a6 213e
000000e0: 68fd 2cbd 3690 8abe 02a4 9abd 7ffe 653e
000000f0: fc01 003e dbd2 d13d 75c1 12bd 409c 60bd
00000100: 09fd 093e ade8 4ebc a6ca 80bd 533f a3bc
00000110: 9c7a db3d a636 fb3d 2c94 d83d 0cc5 e9bd
00000120: 4a2a 6bbd 34d0 ebbd 5485 c8bc 7880 103e
00000130: 2f2a 28be 7684 e93d 6ed5 033d aab6 2a3e
00000140: 5a9c 443a 2017 623a 47be 2a3d eb72 033d
00000150: 19a5 ba3d 43b7 a63c b190 0bbe 5d00 4abe
00000160: 782b a53d 6fbc 053e 7a2f 04be 3c76 b93d
00000170: 1d71 dabc 10a2 c3bd 6076 733e 1805 2d3e
00000180: 5b85 f43d 18d5 0ebe afed 853b 0f21 1e3e
00000190: 3b75 2abe ad41 38be bbda 5d3c 2b5e 26be
000001a0: 1fa8 403c a2e2 8cbd befd abbd 8f78 3dbd
000001b0: 44ce 263e 67f8 5f3d a3cf 26be 357a 16be
000001c0: 96f0 003d 8615 b83d 9ef6 2c3c 8e5b 68bd
000001d0: 8b8e 1b3e 2f17 953d c0bb c23d 5f32 9f3c
000001e0: 412b 6f3d d662 c3bd a446 463d e688 2dbe
000001f0: b355 df3d 9778 ddbd be0e 2cbd 0347 a6bc
00000200: 57a6 fabc e698 18bc 346b 4e3e 1a99 3ebe
00000210: 01cf 9e3c a03d cd3d 5c05 803d 0105 09be
00000220: 5e1c b7bb 5b1c 8cbe 4c75 6e3b bda9 473e
00000230: 442a 0d3d 6603 563d 5be3 36be 1208 00be
00000240: 8d21 103e ec40 333c e26e 003e 4564 a63d
00000250: d39e 90bc fd62 9e3d 6163 89bd 5012 b3bd
00000260: 9421 093e 3d93 3abe 9324 d73b 7f84 bd3d
00000270: da81 fb3c 7a1f 203d 1eca e4bd 03a1 053e
00000280: aa0a a33d f422 623e 62ee 7a3c 742e 5c3d
00000290: 2644 57bd cc42 2fbe 2664 22be 197c 413e
000002a0: 9e17 f93d 69a4 55bd 4bae acbd 0333 0e3e
000002b0: 3ea1 163e c5eb c13d 1ca3 05bd f355 41bd
000002c0: 0af6 3a3e f1de f0bd 253b 42bd 31c9 0e3e
000002d0: 5dcf e1bd 0ebd ee3d f7a5 88bd f088 af3d
000002e0: 3685 7d3d 5fde 7a3d bc81 03be e915 13bc
000002f0: 71ad 31bd f56b 89bd 49ce 02be 38eb 0bbe
00000300: 924c 8a3d 356f 7e3c 4bdd 9abd bb7a 053e
00000310: 5881 fdbd bf4c 1dbd 9c10 17be 1603 adbd
00000320: cd4c 35be 5fac 9a3d 4b7d 85bd 8d01 25be
00000330: d6d4 bbbd ea98 893d 4c75 24bc 73b8 16bd
00000340: e161 2c3e c6ae a23d 70c5 203d a64a 35be
00000350: 7a3f 433d 5d5a 673d fbf0 8f3d 21c7 05be
00000360: fef3 063e 453c 803c 21f5 7fbd e726 db3d
00000370: 2bbc 2ebc 269a 1c3c 51b3 40ba b605 993d
00000380: 9fb6 803e 52f4 10be b203 643d b26f f83d
00000390: 41a4 0abe 899d 13bd 3c51 103e 1825 50be
000003a0: d2b9 51b9 6748 273e ef24 53be eb68 c8bc
000003b0: 9d26 f1bd 7d0f d3bc ac26 0ebe c086 723d
000003c0: 16b3 e1ba 3d47 0dbe 8992 b03d 381e 493e
000003d0: eb5c 593d ff05 e83d 6dfe 0a3d f1b5 053e
000003e0: ff90 1f3d a2f2 203e cb53 dbbc d563 843d
000003f0: a145 e33d c556 68be 698d 2c3e 49d7 2ebe

cnn_blocks.0.proj_in.bias f4 [16]
0.01128487 -0.09719346 0.019512406 -0.18407568 -0.24740343 -0.13580933 -0.023874696 -0.0712513
-0.040887635 0.018446552 0.08867212 0.012421303 0.12479639 0.06084543 0.09512193 0.06647339
00000000: 2de4 383c 5d0d c7bd 7bd8 9f3c 567e 3cbe
00000010: 5357 7dbe 9a11 0bbe de94 c3bc 34ec 91bd
00000020: cb79 27bd 391d 973c ba99 b53d b982 4b3c
00000030: 4095 ff3d 0f39 793d 49cf c23d 3323 883d

cnn_blocks.0.convs.0.weight f4 [16, 16, 3, 3]
0.010069635 0.0440311 -0.048418928 -0.041770656 0.085115306 0.009077538 -0.054177057 -0.027408034
-0.04991968 0.07179855 -0.06769789 0.024118124 0.029296912 0.011072282 0.013086264 -0.05635143
-0.09789828 0.13400032 0.15993336 0.09285897 -0.013048401 -0.14132413 -0.038792547 0.0034360823
-0.12842444 -0.07228796 -0.0028104817 0.102212906 0.094346836 -0.10836667 0.061289273 -0.08786051
-0.075547546 -0.050834652 -0.020972911 0.035612192 0.07869719 -0.0118500665 -0.02237146 -0.010782008
0.15740013 0.05690677 -0.07516657 -0.028707597 0.09445218 0.10793804 -0.06543472 -0.052295722
-0.0013984077 0.068632856 -0.06475912 0.0051717027 -0.034164496 0.037199896 0.07309434 0.09057835
-0.10507243 0.058837634 -0.060337134 -0.14588958 -0.011296156 0.012829646 0.016436296 0.01644254
0.1180276 0.044781394 0.040483885 -0.14071517 -0.031179652 -0.10214078 -0.11395047 -0.0066986494
0.03693061 0.09418416 -0.086337455 0.07416075 -0.17564712 0.038519893 -0.0723895 0.07350448
0.016352965 0.0016734761 0.08648075 0.09033439 -0.027892679 0.11666615 0.081292205 0.05276677
-0.100773126 -0.05423854 -0.033647772 -0.11866329 0.057167757 0.063590646 0.022246508 -0.0028218683
-0.0420943 -0.07136489 0.054431226 -0.020130955 0.031481717 0.17212556 -0.07670344 0.010494416
0.0018860808 0.029750906 0.05107058 -0.24124044 -0.032252308 -0.12006663 -0.03249669 -0.0068174023
-0.07952651 0.024331143 -0.12397458 -0.026599113 0.0698387 0.048330434 -0.06693572 -0.005258484
-0.045233686 0.026457122 -0.0039243754 0.0110775065 -0.14288534 -0.08212774 0.04493545 -0.047070824
-0.08709229 0.018610585 0.016517038 -0.033417728 -0.010203097 -0.17099261 0.042203344 0.068138435
-0.042824518 0.032167893 -0.11201435 0.21022281 -0.061293144 0.008658658 -0.103574984 0.05888045
-0.023935288 -0.06330361 -0.040961266 -0.011059506 0.14683947 -0.044831492 -0.040598772 0.006734077
-0.07585559 -0.028649336 0.010928519 -0.10919931 0.0024112477 0.023936808 0.076179594 0.03208196
-0.13811728 0.0016607095 0.04370798 0.18405385 -0.046744812 0.027665203 -0.07893085 0.06972088
0.1128099 0.06793344 -0.115889035 -0.0624574 -0.027683621 -0.09817173 0.10370961 0.033813354
-0.05994777 0.0052144965 -0.057447 -0.044313252 -0.11373977 0.047362987 -0.088216975 -0.003430921
0.050150927 0.024273492 0.17041796 -0.06558066 0.028647425 0.027817009 -0.075336754 0.029621415
-0.13835624 0.0040724524 -0.05893263 0.03983049 -0.11427659 0.02260419 -0.15304051 -0.0322182
0.12880397 -0.100434326 0.13490035 -0.084029 -0.013092833 -0.14044325 -0.08033605 -0.049705047
0.09636081 -0.03658402 -0.018112466 -0.039047226 0.08039435 -0.2159283 -0.15222326 -0.05225393
0.031944934 0.05333932 -0.011663258 -0.010465375 -0.08988238 -0.10514194 -0.16778865 0.07127602
-0.018726919 -0.06975925 0.062216144 -0.07668098 0.082740605 0.020364799 0.079709895 0.063042276
0.020689663 -0.00623864 0.084246054 0.1559676 -0.008203036 -0.022236591 0.115911245 0.05979092
0.057540964 0.030709805 0.010909709 -0.02140495 -0.045203067 0.05597576 0.031737167 -0.08326562
0.08136656 -0.09953773 -0.025136497 0.04462615 0.02899299 -0.04456222 0.0038058623 0.055159424
00000000: 1cfb 243c f459 343d ed52 46bd b517 2bbd
00000010: ef50 ae3d f4b9 143c c3e8 5dbd d086 e0bc
00000020: 9478 4cbd 1e0b 933d 31a5 8abd 5f93 c53c
00000030: 1400 f03c 8468 353c c567 563c c2d0 66bd
00000040: e57e c8bd 6137 093e 92c5 233e d82c be3d
00000050: f6c8 55bc 46b7 10be efe4 1ebd e52f 613b
00000060: b281 03be b60b 94bd 0f30 38bb 0055 d13d
00000070: ea38 c13d 58ef ddbd 760a 7b3d 36f0 b3bd
00000080: acb8 9abd ff37 50bd 62cf abbc 17de 113d
00000090: fe2b a13d c826 42bc 5a44 b7bc 05a7 30bc
000000a0: 802d 213e 1317 693d eef0 99bd 322c ebbc
000000b0: 2570 c13d 9e0e dd3d a302 86bd 0a34 56bd
000000c0: c74a b7ba 628f 8c3d 6ea0 84bd 6377 a93b
000000d0: 12f0 0bbd eb5e 183d 7cb2 953d 2481 b93d
000000e0: 3730 d7bd bbff 703d 1224 77bd 1464 15be
000000f0: 8313 39bc 6f33 523c 69a5 863c 81b2 863c
00000100: 74b8 f13d b26c 373d 6ed2 253d a317 10be
00000110: 786c ffbc 2f2f d1bd dd5e e9bd 5880 dbbb
00000120: 8d44 173d a0e3 c03d b1d1 b0bd 97e1 973d
00000130: d7dc 33be 09c7 1d3d f240 94bd 8489 963d
00000140: a7f6 853c 8a58 db3a d21c b13d 3d01 b93d
00000150: 307f e4bc aaee ee3d 877c a63d f821 583d
00000160: 2462 cebd 3b29 5ebd 3fd2 09bd bd05 f3bd
00000170: bd28 6a3d d03b 823d 4f3e b63c 18ef 38bb
00000180: 136b 2cbd c127 92bd 47f3 5e3d ace9 a4bc
00000190: f9f2 003d af41 303e b116 9dbd c5f0 2b3c
000001a0: 5f36 f73a 2cb8 f33c 622f 513d bc07 77be
000001b0: ff1a 04bd 7ee5 f5bd 401b 05bd 8464 dfbb
000001c0: cbde a2bd 1b52 c73c 62e6 fdbd 62e6 d9bc
000001d0: 9807 8f3d 22f6 453d 9815 89bd 5c4f acbb
000001e0: f546 39bd 9bbc d83c 0c98 80bb 6e7e 353c
000001f0: 8950 12be 9732 a8bd 3c0e 383d 56cd 40bd
00000200: 715d b2bd 3a75 983c bd4e 873c 07e1 08bd
00000210: e42a 27bc b018 2fbe 6add 2c3d 2a8c 8b3d
00000220: c368 2fbd 7bc2 033d c867 e5bd a644 573e
00000230: 850e 7bbd 0bdd 0d3c 1f1f d4bd a02c 713d
00000240: f013 c4bc 53a5 81bd 00c7 27bd ee32 35bc
00000250: 165d 163e 3aa1 37bd e64a 26bd 88a9 dc3b
00000260: 2d5a 9bbd 03b2 eabc 880d 333c e3a3 dfbd
00000270: 0606 1e3b 2017 c43c 0c04 9c3d 6068 033d
00000280: 9e6e 0dbe 2aac d93a 2407 333d 9d78 3c3e
00000290: 7d77 3fbd 23a2 e23c 7fa6 a1bd d2c9 8e3d
000002a0: e008 e73d b020 8b3d 3b57 edbd 55d3 7fbd
000002b0: c3c8 e2bc 430e c9bd b465 d43d df7f 0a3d
000002c0: cb8b 75bd 5ede aa3b 8c4d 6bbd d081 35bd
000002d0: 66f0 e8bd b1ff 413d 1aab b4bd 4dd9 60bb
000002e0: 0f6b 4d3d 34d9 c63c 0c82 2e3e 274f 86bd
000002f0: 01ae ea3c 7fe0 e33c 284a 9abd 9ca8 f23c
00000300: 42ad 0dbe 3572 853b 5763 71bd 4c25 233d
00000310: d809 eabd 6c2c b93c a7b6 1cbe 3bf7 03bd
00000320: 30e5 033e 83b0 cdbd 5123 0a3e 6517 acbd
00000330: 5283 56bc 5bd0 0fbe 3a87 a4bd 8597 4bbd
00000340: d158 c53d 20d9 15bd 9860 94bc fcef 1fbd
00000350: cba5 a43d 4f1c 5dbe 6ae0 1bbe 3808 56bd
00000360: b1d8 023d 557a 5a3d 4017 3fbc f776 2bbc
00000370: 4114 b8bd a854 d7bd cad0 2bbe 29f9 913d
00000380: 3269 99bc f0dd 8ebd 5bd6 7e3d eb0a 9dbd
00000390: e873 a93d 14d4 a63c f13e a33d 4f1c 813d
000003a0: 5e7d a93c 816d ccbb 3289 ac3d f8b5 1f3e
000003b0: 0766 06bc 8329 b6bc e062 ed3d 53e7 743d
000003c0: 13b0 6b3d 2193 fb3c a3be 323c 6f59 afbc
000003d0: da26 39bd d746 653d d5fe 013d 2a87 aabd
000003e0: 83a3 a63d 70da cbbd 0eeb cdbc e9c9 363d
000003f0: b582 ed3c e086 36bd c66b 793b d9ee 613d

cnn_blocks.0.convs.0.bias f4 [16]
0.04053547 -0.07657482 0.010751158 -0.10792199 0.013688044 -0.019866971 -0.08313741 0.09568624
-0.03623908 0.07336455 0.070321165 -0.046683714 -0.092937514 0.06656623 0.028632846 0.01876393
00000000: 8508 263d 42d3 9cbd a025 303c 3406 ddbd
00000010: d143 603c 0fc0 a2bc f243 aabd 26f7 c33d
00000020: 6e6f 14bd 2740 963d 8b04 903d 6c37 3fbd
00000030: 0656 bebd e053 883d 6e8f ea3c d0b6 993c

cnn_blocks.0.convs.1.weight f4 [16, 16, 3, 3]
0.10187592 0.0241596 0.030350678 0.037631676 -0.07185682 -0.09191749 -0.06804961 0.081433
0.004764828 -0.11433817 0.12753543 -0.020991806 0.060411498 0.0363158 -0.03666744 0.09069927
0.11316582 -0.06362095 -0.095867544 -0.01863839 0.02132417 0.08444744 0.027462175 0.10155623
-0.04676035 -0.08257877 0.15511551 -0.02391852 0.0569205 -0.07296253 0.12763728 -0.0020862254
-0.04101219 0.079775244 -0.01154024 -0.080770224 -0.0854663 -0.0071495925 -0.020053783 -0.084860474
-0.06175653 -0.03627028 -0.03080459 0.0011350337 0.08961804 -0.04259826 -0.05801834 0.09776175
-0.013354134 -0.034495875 -0.030333526 -0.18323934 -0.19958065 2.9287781e-05 -0.040397484 -0.06920722
0.021862028 -0.011280777 0.050081465 -0.024546562 0.07805846 -0.05829745 0.07638731 0.0015751628
0.06913878 -0.021467507 -0.00057943945 -0.018078247 -0.07762046 0.04360685 0.04333453 -0.079457566
-0.086205676 -0.049962036 -0.05628095 -0.09341337 -0.07356617 0.12267706 0.016422745 -0.04779058
-0.07530678 -0.1266741 0.109108046 -0.046155702 -0.0517808 -0.11763189 -0.12370036 -0.051973585
0.035030756 -0.015700366 0.087332904 0.074723534 -0.042741362 -0.27863127 -0.10597867 0.030142697
0.020830736 0.095030904 0.035011716 -0.0037063775 0.16748537 0.062339097 -0.04175739 -0.045989823
-0.07251933 -0.057033658 0.010924489 0.14118749 -0.052737948 -0.18086691 0.033053834 -0.035450507
0.058542263 0.011266119 0.065284036 0.017692985 -0.024722468 0.10489933 0.023916451 -0.0031040732
-0.062748276 -0.11299993 0.0047217044 -0.050258335 -0.022437701 -0.17090417 0.0012118611 -0.0031853572
0.14162314 -0.004342712 0.048372086 -0.03499089 0.10641415 0.058663107 0.016094383 -0.026868515
-0.031683445 -0.031098083 -0.033503365 0.01905473 0.051268212 -0.07861195 -0.097637564 0.124009684
-0.23441301 0.0683473 -0.060253263 -0.09773561 0.055725884 0.12973706 0.0660407 0.18798293
0.04457335 0.09717775 -0.011078945 -0.028376728 -0.015515139 -0.03388836 -0.06467752 0.027444763
0.023576828 0.0523906 0.045454327 -0.062954 -0.0790101 0.11394541 -0.0011017756 -0.022037402
-0.017822389 -0.17215863 -0.048370242 -0.016541805 -0.017393136 -0.013538782 -0.07255886 0.02862135
0.04505882 0.04262526 -0.03593968 -0.013372957 -0.16623825 -0.106445625 0.033577632 -0.05134658
0.086187854 0.04656523 -0.037799764 -0.06803239 -0.08556937 0.06029328 0.020365981 0.057327762
0.06598044 -0.019154893 -0.12453484 -0.018752752 -0.052480992 -0.056615576 0.042468697 0.008643709
-0.1673982 -0.0046416703 0.03917801 -0.03268819 -0.08316217 -0.0044903145 0.026981307 0.035602376
-0.07449535 -0.04059567 -0.12535809 -0.019157123 0.039782535 0.09717867 0.074591495 0.07567836
-0.19611377 -0.06212682 -0.035830185 0.10361269 -0.025543908 0.15855297 -0.017907495 0.025801063
0.06972852 -0.16475421 -0.0385139 -0.077327006 0.027614595 0.05215538 -0.022094723 0.015503114
0.009308339 0.0031826997 0.056440134 0.16319828 0.13071623 -0.0013663837 -0.06811923 0.03942315
0.14061645 -0.05715817 0.104610935 -0.032142494 0.11496371 0.031111136 0.010356322 0.016344089
0.09355366 0.11514669 0.013845065 -0.020803157 -0.039753918 -0.083775245 -0.016523551 -0.041420102
00000000: 53a4 d03d 5aea c53c fca1 f83c ac23 1a3d
00000010: ab29 93bd 3d3f bcbd 985d 8bbd 58c6 a63d
00000020: 4622 9c3b 212a eabd a698 023e 02f7 abbc
00000030: 0c72 773d e0bf 143d 9930 16bd 8ac0 b93d
00000040: 7bc3 e73d b34b 82bd 3456 c4bd 89af 98bc
00000050: 07b0 ae3c c8f2 ac3d 5bf8 e03c b6fc cf3d
00000060: c887 3fbd 0f1f a9bd 9ad6 1e3e c6f0 c3bc
00000070: 7825 693d 616d 95bd 59b3 023e 0eb9 08bb
00000080: 66fc 27bd 3461 a33d 4613 3dbc dc6a a5bd
00000090: f508 afbd 2147 eabb d547 a4bc 54cb adbd
000000a0: 6af4 7cbd 2590 14bd e859 fcbc 69c5 943a
000000b0: aa89 b73d 837b 2ebd a4a4 6dbd 5037 c83d
000000c0: 4ccb 5abc 8c4b 0dbd 047e f8bc 18a3 3bbe
000000d0: df5e 4cbe 08af f537 d577 25bd 84bc 8dbd
000000e0: ff17 b33c 02d3 38bc 3922 4d3d df15 c9bc
000000f0: 1ddd 9f3d 4fc9 6ebd f370 9c3d b175 ce3a
00000100: a298 8d3d a0dc afbc 86e5 17ba d518 94bc
00000110: 7af7 9ebd 199d 323d 8c7f 313d a6ba a2bd
00000120: 9a8c b0bd fea4 4cbd da86 66bd 824f bfbd
00000130: dca9 96bd 1c3e fb3d fe88 863c 0ec0 43bd
00000140: 713a 9abd dbb6 01be 0a74 df3d c30d 3dbd
00000150: 1b18 54bd fde8 f0bd 9d56 fdbd 41e2 54bd
00000160: 697c 0f3d 0e9e 80bc 98db b23d a708 993d
00000170: 9111 2fbd c2a8 8ebe 580b d9bd d1ed f63c
00000180: 38a5 aa3c 909f c23d 7268 0f3d b2e6 72bb
00000190: 4981 2b3e 4857 7f3d cc09 2bbd d35f 3cbd
000001a0: 0485 94bd 209c 69bd a1fc 323c 7493 103e
000001b0: bf03 58bd 2d35 39be 7563 073d 8d34 11bd
000001c0: 03ca 6f3d 8795 383c a3b3 853d e1f0 903c
000001d0: c686 cabc 76d5 d63d 6fec c33c b56d 4bbb
000001e0: 2b82 80bd 826c e7bd 87b8 9a3b afdb 4dbd
000001f0: 45cf b7bc 8101 2fbe 50d7 9e3a 6dc1 50bb
00000200: a805 113e 4f4d 8ebb cf21 463d 9c52 0fbd
00000210: a9ef d93d ba48 703d 5ed8 833c 5c1b dcbc
00000220: 80c6 01bd 68c1 febc d33a 09bd aa18 9c3c
00000230: 9efe 513d 4dff a0bd 34f6 c7bd caf8 fd3d
00000240: f709 70be abf9 8b3d 20cc 76bd 9c29 c8bd
00000250: d340 643d cbd9 043e 5940 873d 997e 403e
00000260: 8c92 363d 2105 c73d 7784 35bc 5076 e8bc
00000270: 3633 7ebc 85ce 0abd a675 84bd d7d3 e03c
00000280: 3124 c13c 8797 563d 512e 3a3d 07ee 80bd
00000290: 0cd0 a1bd 365c e93d 7469 90ba c887 b4bc
000002a0: 4200 92bc 5a4a 30be e01f 46bd ae82 87bc
000002b0: 0d7c 8ebc c4d1 5dbc bd99 94bd 5277 ea3c
000002c0: 998f 383d d397 2e3d 7c35 13bd 3f1a 5bbc
000002d0: 5c3a 2abe 2a00 dabd b388 093d cb50 52bd
000002e0: 4283 b03d 2fbb 3e3d edd3 1abd 9154 8bbd
000002f0: fe3e afbd 16f6 763d 8fd6 a63c 84d0 6a3d
00000300: c120 873d b9ea 9cbc 1f0c ffbd 5f9f 99bc
00000310: 4ff6 56bd bce5 67bd a8f3 2d3d 589e 0d3c
00000320: 6f6a 2bbe 2719 98bb 1f79 203d 0de4 05bd
00000330: ee50 aabd 7d23 93bb e707 dd3c ccd3 113d
00000340: 0591 98bd a547 26bd df5d 00be 66ef 9cbc
00000350: 03f3 223d 9c05 c73d 6dc3 983d 42fd 9a3d
00000360: 0cd2 48be b178 7ebd acc2 12bd e432 d43d
00000370: 7541 d1bc b65b 223e bdb2 92bc c05c d33c
00000380: d4cd 8e3d 54b5 28be c0c0 1dbd 9f5d 9ebd
00000390: 0138 e23c e1a0 553d feff b4bc c600 7e3c
000003a0: 0182 183c d794 503b c52d 673d 731d 273e
000003b0: 7ada 053e 3b18 b3ba 1882 8bbd 2b7a 213d
000003c0: c2fd 0f3e af1e 6abd 423e d63d d9a7 03bd
000003d0: 1872 eb3d c8dc fe3c 90ad 293c 0ae4 853c
000003e0: 1099 bf3d 07d2 eb3d 69d6 623c 626b aabc
000003f0: 01d5 22bd 5b92 abbd 665c 87bc 20a8 29bd

cnn_blocks.0.convs.1.bias f4 [16]
0.0005758527 -0.06380829 -0.08993847 -0.08157751 -0.0769593 -0.008617981 -0.08224522 -0.06278645
0.010601455 -0.060879067 -0.052662008 0.00029025887 -0.061004367 0.0488519 -0.045694035 -0.020221738
00000000: d2f4 163a ecad 82bd a931 b8bd 1c12 a7bd
00000010: d69c 9dbd 6f32 0dbc 2f70 a8bd 2f96 80bd
00000020: bab1 2d3c 545c 79bd 1eb4 57bd e32d 9839
00000030: b7df 79bd ee18 483d ab29 3bbd 0fa8 a5bc

cnn_blocks.0.norms.0.weight f4 [16]
1.0145586 0.89369386 1.0094839 0.97212267 0.9501141 0.92937785 0.9651004 0.95647347
0.97902423 1.0008882 0.9430676 1.02293 0.9785879 1.022423 1.0401022 1.0995309
00000000: 0edd 813f 1fc9 643f c536 813f 08dd 783f
00000010: ad3a 733f b5eb 6d3f d210 773f 72db 743f
00000020: 55a1 7a3f 1b1d 803f e16c 713f 5fef 823f
00000030: bd84 7a3f c2de 823f 1222 853f 6ebd 8c3f

cnn_blocks.0.norms.0.bias f4 [16]
-0.08230472 -0.14193857 -0.080669746 -0.029800577 -0.09288228 -0.07324215 -0.05816948 -0.051692106
-0.06756584 -0.12016452 -0.07515141 -0.07488997 -0.044457186 -0.030246323 -0.0007778339 -0.100097746
00000000: 618f a8bd 5858 11be 2e36 a5bd 5720 f4bc
00000010: 1139 bebd fbff 95bd 1f43 6ebd 1abb 53bd
00000020: f65f 8abd d118 f6bd fce8 99bd ea5f 99bd
00000030: bd18 36bd 23c7 f7bc 8de7 4bba 0c00 cdbd

cnn_blocks.0.norms.0.running_mean f4 [16]
-0.015302034 -0.13894472 -0.08130579 0.0020960495 0.07885482 -0.05447444 -0.060484607 0.14813305
-0.098651245 0.107525975 0.11687403 -0.042741876 -0.19849564 0.1213814 0.02727125 0.010406746
00000000: 62b5 7abc 8647 0ebe a683 a6bd e05d 093b
00000010: a37e a13d 9720 5fbd b5be 77bd 31b0 173e
00000020: aa09 cabd 9436 dc3d a75b ef3d 1b12 2fbd
00000030: 7142 4bbe d096 f83d f567 df3c 0e81 2a3c

cnn_blocks.0.norms.0.running_var f4 [16]
0.07016149 0.062784865 0.057933435 0.07004494 0.07227554 0.05334918 0.04156856 0.06598914
0.06344755 0.05494196 0.06980194 0.06247132 0.043636844 0.052135836 0.055252053 0.04512319
00000000: d4b0 8f3d 5a95 803d 9c4b 6d3d b973 8f3d
00000010: 3305 943d ab84 5a3d cb43 2a3d 5025 873d
00000020: caf0 813d d20a 613d 52f4 8e3d ede1 7f3d
00000030: 8cbc 323d 638c 553d fa4f 623d 18d3 383d

cnn_blocks.0.norms.1.weight f4 [16]
1.0173982 1.1550032 1.1391686 1.1086833 1.0381085 1.0779139 1.1514728 1.1403959
1.0612527 1.0707555 1.1484123 1.0942025 1.0520364 1.1610408 1.1197644 1.0917474
00000000: 1b3a 823f 25d7 933f 47d0 913f 56e9 8d3f
00000010: bde0 843f 15f9 893f 7663 933f 7ef8 913f
00000020: 21d7 873f 840e 893f 2dff 923f d40e 8c3f
00000030: 21a9 863f fc9c 943f 7154 8f3f 61be 8b3f

cnn_blocks.0.norms.1.bias f4 [16]
-0.018134257 -0.04653551 0.049412295 -0.0013752234 -0.004439988 0.043379873 0.009280481 0.008635851
0.033126317 -0.043429684 -0.07290281 -0.023958571 -0.004832601 -0.03758547 0.033297412 -0.0034085494
00000000: 4b8e 94bc 059c 3ebd 8c64 4a3d d740 b4ba
00000010: 527d 91bb 18af 313d 290d 183c 627d 0d3c
00000020: 76af 073d 53e3 31bd 124e 95bd c444 c4bc
00000030: cc5a 9ebb 39f3 19bd de62 083d f861 5fbb

cnn_blocks.0.norms.1.running_mean f4 [16]
-0.20514895 0.04761093 -0.12007007 -0.15593854 -0.0740223 -0.049931843 0.055473026 0.046320237
0.041516956 0.06216752 0.041328557 -0.08611855 0.01972133 0.19396532 0.2124998 -0.20469755
00000000: 9112 52be ae03 433d 4ce7 f5bd 5aae 1fbe
00000010: 0199 97bd 5585 4cbd af37 633d 4aba 3d3d
00000020: af0d 2a3d 5fa3 7e3d 2248 293d ec5e b0bd
00000030: a08e a13c d89e 463e 8c99 593e 3c9c 51be

cnn_blocks.0.norms.1.running_var f4 [16]
0.09987318 0.06642288 0.09687618 0.07432177 0.16578081 0.117514655 0.15732913 0.16947068
0.17479882 0.12471612 0.12490694 0.30035138 0.087784156 0.06434756 0.11597767 0.098466545
00000000: 4f8a cc3d b808 883d 0567 c63d 0336 983d
00000010: 72c2 293e 86ab f03d e31a 213e b989 2d3e
00000020: 76fe 323e 2a6b ff3d 36cf ff3d a8c7 993e
00000030: 2ec8 b33d a7c8 833d b385 ed3d d4a8 c93d
