checkpoints/abl_cnn_rnn/best_model.pt (torch, 327585 bytes, 150 tensors)

embedder.feature_projections.0.weight f4 [32, 1]
000000 7d 1d 7f bf ac 36 96 3f 66 05 64 3f 33 f2 70 3f
       -0.9965437 1.1735435 0.8907074 0.94119567
000010 43 ae b1 3e 19 76 53 bf 09 9d b5 be de 9d 7c bd
       0.34703264 -0.8260208 -0.3547137 -0.06167399
000020 bf f8 a9 3d 01 8f 61 bf 93 ee a8 be b7 f5 24 3f
       0.08299398 -0.8810883 -0.32994518 0.6443743
000030 35 dd 13 3f 3e 49 b4 bf c0 6f 02 3e 27 30 a4 3e
       0.5775941 -1.4084852 0.12737942 0.32067987
000040 6f 57 76 bf d4 da cc 3e eb 8c 87 bf 52 76 a9 be
       -0.96227163 0.40010703 -1.058988 -0.33098084
000050 bf d0 3d 3f ac e4 64 bc e4 21 cd 3d eb 6a 36 bf
       0.74146646 -0.013970535 0.1001623 -0.71256894
000060 54 6c 3b 3f 25 96 23 3f c3 77 79 bf 02 8b 3d 3f
       0.7321217 0.6390098 -0.97448367 0.74040234
000070 df 4f a1 3f 28 b8 dc 3e ca a3 88 3f 79 bf 05 bf
       1.26025 0.4310925 1.0674984 -0.5224529

embedder.feature_projections.0.bias f4 [32]
000000 db ab d3 3d 85 45 f2 3e 0f 54 f4 be c4 60 50 3e
       0.10335513 0.47318664 -0.47720382 0.20349413
000010 7b 4d 01 3f de 04 0e bd 11 d9 20 3f bd ac 46 3f
       0.5050885 -0.03467261 0.6283122 0.7760733
000020 cd a0 23 3c bd aa f6 3d 33 ea 6d 3f 9a 68 14 3f
       0.009987068 0.120442845 0.92935485 0.5797211
000030 cf c9 0b bf 43 6b 2f 3f dc b9 31 bf d5 fb 63 3f
       -0.5460481 0.68523043 -0.69424224 0.8905614
000040 e1 07 6f 3f a4 b6 70 3f 46 fc 6f 3e 89 44 4b 3f
       0.933714 0.9402869 0.23436078 0.7940145
000050 75 c4 71 bf 06 3b f3 be 54 b5 b8 3c a3 9e e1 3e
       -0.94440395 -0.4750597 0.022547401 0.44066343
000060 7f 0b ab bc dc a1 0e be 10 03 1d bf 29 25 be 3e
       -0.020879505 -0.13928932 -0.613328 0.37137726
000070 5d 46 70 bf 97 de 6b bf 70 cf a8 be c4 68 32 3f
       -0.93857366 -0.9213652 -0.32970762 0.6969111

embedder.feature_projections.1.weight f4 [32, 1]
000000 7e 3b 1e bf 8a c9 e3 3e 7f 2d ff 3c 3f 82 4d bf
       -0.6180953 0.444897 0.031149624 -0.80276865
000010 bc fd 96 3e f0 d6 5e 3f 4b c5 f4 3e a8 64 30 3f
       0.2949046 0.8704672 0.47806773 0.6890359
000020 02 f4 4d bd e9 fa 5d bf 1d 92 77 3c 84 48 a3 be
       -0.050281532 -0.86710984 0.01511052 -0.31891263
000030 d1 98 43 3f 15 5f 42 bf e2 e9 93 bd fc 84 0a 3e
       0.76405054 -0.75926334 -0.07222344 0.13527292
000040 8b 8c b6 3e ad 00 44 3f 66 52 65 3f c1 d0 27 3f
       0.356541 0.7656353 0.89578855 0.6555291
000050 b6 3f 39 bf 1c 2a 99 3c ef 2e ef 3e c6 60 20 3f
       -0.7236284 0.018696837 0.46715495 0.62647665
000060 a5 af b8 be 31 9e 3e be 84 8e 12 3f 4e fe a5 3d
       -0.36071506 -0.18615033 0.5724871 0.081051454
000070 df 88 f8 be c9 1b 11 3f 9a ff 25 bf ca 41 39 bf
       -0.48541924 0.5668302 -0.6484314 -0.7236601

embedder.feature_projections.1.bias f4 [32]
000000 5f bd f2 be 9b bc 1b bf 3b 0c 61 3f ba 7e 55 bf
       -0.47410104 -0.60834664 0.8790929 -0.83396494
000010 69 b9 04 bf 12 2e 10 3e a2 a8 d8 3e 3a 83 6c 3e
       -0.51845413 0.14080074 0.42316157 0.23096934
000020 d9 e1 01 3e c0 95 2c 3f 43 9d 56 bf 40 38 e8 be
       0.1268381 0.67416 -0.8383371 -0.45355415
000030 5b 9d 87 bd 55 e3 36 3e 84 15 79 bf 91 db 68 bf
       -0.0662181 0.17860158 -0.97298455 -0.9096003
000040 a9 2a b7 bd 38 ca 05 3f be fb 26 bf 1d 3b 11 3f
       -0.08943684 0.52261686 -0.6522788 0.56730825
000050 c3 63 e3 3e ca 19 ee bc 02 d8 12 3f 67 d0 b9 be
       0.4441205 -0.029065032 0.5736085 -0.3629181
000060 aa af 4e 3f 6b b9 a3 3d 68 7c 53 3f 5a 48 34 bd
       0.8073679 0.0799435 0.82611704 -0.044014312
000070 b9 54 5a be 53 56 36 3d f9 15 78 3f aa 3a 66 bf
       -0.21321382 0.04451592 0.9690853 -0.89933264

embedder.stabilizer_embedding.weight f4 [8, 32]
000000 cf 4f 82 bf 82 fa 81 3e 3f 5a 95 be 88 2c 85 3e
       -1.0180606 0.25386435 -0.29170415 0.26010537
000010 86 8f d4 3d 92 e8 b1 be e6 22 e4 3f 09 3d 98 3f
       0.103789374 -0.3474775 1.782315 1.1893626
000020 df 4f a5 be c5 0b 1a bf b3 46 92 bf 2f 8a ab bf
       -0.322875 -0.6017421 -1.1427826 -1.3401545
000030 de 87 8f bf fb 30 2a 3f 97 57 c0 3f 20 75 c4 bf
       -1.1213338 0.6648099 1.502673 -1.5348244
000040 11 70 d9 bf 24 f4 ac 3f 3c 9b 0b bf 60 9e 9b 3e
       -1.6987325 1.3512006 -0.54533744 0.30394268
000050 ff 38 8c 3e 7f e7 5b 3f 9c d0 2f bf 57 e2 27 3f
       0.27387235 0.8590011 -0.6867769 0.6557974
000060 73 86 ca bd 56 68 b1 3f 1a 71 8e bf 3b 19 21 3e
       -0.098889254 1.3859966 -1.1128266 0.15732281
000070 e7 61 6d be f5 f6 c0 3e 22 db 1a 3f 59 cd 4d 3f
       -0.23181878 0.37688413 0.6049062 0.8039146
000080 55 2c 25 bf 7a e8 87 3f f0 c4 2d bf c1 e8 ed bf
       -0.6452077 1.0617821 -0.6787863 -1.8586656
000090 ef 13 d9 bf f7 84 4f 3f 0a 49 a9 bf f6 38 84 3e
       -1.6959208 0.81062263 -1.3225415 0.25824708
0000a0 6a 08 11 bf fd 32 5b bd f1 f2 21 3e 5b 27 40 bf
       -0.56653464 -0.053515423 0.15815331 -0.7506005
0000b0 92 5d 16 c0 7d e8 81 3f ca b3 ec bf 87 ab ab 3e
       -2.349461 1.0149075 -1.8492367 0.33529302
0000c0 46 67 2c bd 9b 72 c2 3f ef 0c d8 3f b9 dc 48 3e
       -0.042090677 1.5191225 1.6878947 0.19615449
0000d0 97 d2 ee be a4 8c 9c be c3 ac 71 3f 66 ea a7 3f
       -0.46645042 -0.3057605 0.9440424 1.3118408
0000e0 07 28 de be 9b 7f c5 bf f0 70 17 bf e7 53 0d be
       -0.43389913 -1.5429567 -0.59156704 -0.13801537
0000f0 8c 1e 31 3f d5 d9 3f bf 04 50 89 3f 41 4e 1e 3f
       0.69187236 -0.7494176 1.0727544 0.61838156
000100 e8 be 8e 3f bd 1e af 3f ad dc 9b be a1 1e 8b 3e
       1.115201 1.3681256 -0.304418 0.27171806
000110 c7 c3 a2 3f 78 62 94 bf d0 a7 d6 be 6b 29 ef be
       1.2715997 -1.159255 -0.41924906 -0.46711287
000120 b2 1e dd 3e b1 65 cb be 14 53 81 be ff 40 52 bf
       0.4318748 -0.39726022 -0.25258696 -0.82130426
000130 b4 78 c8 be ee 5d 04 3f e5 fc 1e 3f d9 45 ca bf
       -0.3915459 0.51705825 0.62104636 -1.5802566
000140 bb a2 5d bf e9 7f ad bf ea f3 be bf 72 c8 1e be
       -0.8657643 -1.355466 -1.4918187 -0.15506151
000150 01 43 08 c0 e4 b9 16 3e f5 7b b6 be 48 c6 e5 bf
       -2.1290896 0.14719349 -0.35641447 -1.7951136
000160 ff b9 38 be b2 6a 02 bf b8 81 96 3e d4 46 17 3e
       -0.18039702 -0.50944054 0.29395843 0.14773113
000170 4b 0f 59 3d 6c 71 4b bf f6 a3 e1 3d aa ed 28 40
       0.0529931 -0.79469943 0.11017601 2.6395059
000180 8a 05 9d 3f 01 46 a2 bf 59 5e ea 3e 5e 2e a4 3e
       1.2267315 -1.2677613 0.45775107 0.32066625
000190 ff 18 9c be 23 d9 bc be 6d 18 32 be 64 b4 a4 bf
       -0.3048782 -0.36884412 -0.1739213 -1.2867551
0001a0 92 20 23 3f 9b a3 5e bf 71 f1 86 3f 4a dd 94 3d
       0.63721573 -0.8696839 1.0542432 0.0726877
0001b0 ac a8 2b be 24 38 0b bf 9c 35 d8 3d 59 03 55 3f
       -0.16763562 -0.5438254 0.105571 0.83208233
0001c0 0b 1e 06 bf 18 48 db 3f 60 44 72 3e 19 18 ed bd
       -0.5238959 1.7131376 0.23658895 -0.11576862
0001d0 4a 62 21 c0 dc 31 bd 3d 9d 1f 8f bf 57 69 91 bf
       -2.521624 0.092380255 -1.1181523 -1.1360272
0001e0 8f 33 43 bc 02 98 c9 bf e1 6f c0 bf cb 77 09 bf
       -0.011914148 -1.5749514 -1.5034143 -0.53698415
0001f0 7f 04 7c 3f f0 5a 17 bf fd 77 19 bd a6 38 9c 3f
       0.9844436 -0.59123135 -0.037467945 1.2204788
000200 5f 7b 6e bf 33 f8 e8 3f c8 b5 83 bf e0 d4 99 be
       -0.93157 1.8200744 -1.028985 -0.30045223
000210 33 1f eb be 8e df 38 3e ee 7b ea be d0 b2 78 3f
       -0.4592224 0.1805403 -0.45797676 0.97147846
000220 b7 82 85 be 8c bf f7 3e 45 6f 5b bd b5 de 8f bf
       -0.2607629 0.48388326 -0.05357291 -1.123984
000230 a9 9f 71 3e 07 ec 90 3e 7e cd 39 bf 77 33 55 40
       0.23596062 0.28305075 -0.7257918 3.3312662
000240 e2 04 7d be 2f 65 fe be 59 1b b9 be 5b cc 5d bd
       -0.24708894 -0.49686572 -0.36153677 -0.054149967
000250 19 19 60 3e e0 0b 23 bf 43 1a 83 b9 1e f1 3b bf
       0.21884574 -0.63689995 -0.00025005834 -0.7341479
000260 79 0a 0a c0 1f 1e 84 3f 53 40 43 bd 51 1a b6 3e
       -2.1568892 1.0321692 -0.047668766 0.35566953
000270 4a 5a 6f bf 4b 73 85 bf 52 59 13 bf c6 32 bc bd
       -0.93497145 -1.042581 -0.57558167 -0.09189372
000280 82 36 81 3f 26 1f ea bd 56 75 91 3f 1c 6e 59 bf
       1.009476 -0.11431722 1.1363933 -0.8493364
000290 13 c3 1a 3e a7 89 45 bf c1 3a c1 3f 93 23 96 be
       0.15113477 -0.77163166 1.5096055 -0.29324016
0002a0 32 18 3c bd b7 a2 5f bd 0b 44 60 bf 73 3d c1 be
       -0.045921512 -0.054598536 -0.87603825 -0.37742195
0002b0 55 82 37 bf 75 f2 14 bf bf 1b ff 3d 01 76 37 3f
       -0.71683246 -0.5818246 0.12456464 0.71664435
0002c0 e4 3b 95 3f 30 d5 42 bf 47 13 36 3f de 13 2f bf
       1.1658902 -0.7610655 0.71123165 -0.6838969
0002d0 3f 3e 85 3e 5e aa 4c bf 90 5a 87 be d7 49 2a bf
       0.26024053 -0.7994746 -0.2643628 -0.6651892
0002e0 41 4d d3 3f d6 26 30 bc e7 4f d2 bf 8b 47 2f 3e
       1.6507951 -0.010751447 -1.6430634 0.17117135
0002f0 68 ff 02 bf b5 20 da bf dc 8a e0 be 40 2b 23 bf
       -0.5117097 -1.7041231 -0.4385594 -0.6373787
000300 ce 08 81 bf 26 ff b4 be 7d 01 db 3e 77 05 d9 be
       -1.0080812 -0.35350913 0.42774573 -0.42386982
000310 d2 18 1d bf 6d 43 60 3e f3 eb c6 bf 22 3f ce be
       -0.61366 0.21900721 -1.5540756 -0.40282542
000320 e4 e7 a7 3f d9 e5 78 bf 69 25 e6 3f f7 43 5d 3f
       1.3117642 -0.9722572 1.7980167 0.8643183
000330 7d e9 55 3f 48 d8 44 3f 12 2e df 3e db e1 23 bf
       0.835594 0.7689252 0.43589836 -0.64016503
000340 c6 72 44 3f 25 39 03 bf 79 38 80 3e 25 f6 80 bf
       0.7673763 -0.5125907 0.25043085 -1.0075117
000350 b3 76 f0 3f ef ff 1a 3f 75 b4 04 40 83 8f 93 bf
       1.8786224 0.60546774 2.0735142 -1.1528171
000360 3e ca e0 be 49 95 02 3f cd a0 e8 be da f9 0a 3f
       -0.439043 0.5100904 -0.4543518 0.54287493
000370 e9 d3 41 3d 1c ff cc be c4 32 93 3e 9f 69 e9 3e
       0.047321234 -0.40038383 0.2874967 0.45588395
000380 b4 bd 59 3f 24 c9 b5 be d6 92 d8 bd ea c4 be bf
       0.8505509 -0.3550502 -0.10574882 -1.4903843
000390 51 79 ee be f8 4f cd bf 13 b6 d7 3d c5 db 35 c0
       -0.46576932 -1.604003 0.10532775 -2.8415387
0003a0 ab 38 eb 3e eb 62 e7 3e 98 8a 5c 3f 25 4a cf bf
       0.45941672 0.45192656 0.8614898 -1.6194502
0003b0 31 8f 7e 3e b1 f3 b9 3f cc 77 ad 3f c1 2d 0f 3f
       0.2485931 1.4527494 1.3552184 0.5592919
0003c0 54 ed 57 be 4e 7a 60 bd 85 60 d4 3e 98 64 f6 be
       -0.21086627 -0.05480414 0.4147989 -0.48123622
0003d0 f7 bf 2b bf 5c 04 3c bf c4 ac 3e bf 7f 34 d8 bf
       -0.6708979 -0.7344415 -0.7448237 -1.689102
0003e0 0e eb 05 3e 30 a8 24 3f 28 60 37 bf 05 f1 72 3d
       0.13077947 0.64319134 -0.716311 0.059311885
0003f0 5f 7c 1e bf 0d 60 66 3f c8 86 7f be 06 cc af be
       -0.61908525 0.8999031 -0.24953759 -0.34335345

embedder.res_block.0.weight f4 [32]
000000 55 17 85 3f 57 f2 98 3f 15 a8 79 3f f5 db 83 3f
       1.0397745 1.1948956 0.975221 1.03015
000010 34 e6 90 3f 1e 89 93 3f 0f 75 81 3f a2 4a 7d 3f
       1.1320252 1.152622 1.0113848 0.98942006
000020 e1 f2 82 3f 2e 79 95 3f d0 03 81 3f 93 a0 8a 3f
       1.0230371 1.1677606 1.0079288 1.0830253
000030 b0 36 8a 3f ce ee 92 3f 71 00 73 3f 4e 3c 80 3f
       1.0797939 1.1479127 0.9492255 1.0018404
000040 17 7f 8c 3f ce 56 78 3f 83 01 8d 3f f1 a8 7a 3f
       1.0976285 0.97007453 1.1016086 0.97914034
000050 49 44 87 3f c1 4b 85 3f e8 66 6e 3f 2c 2d 8d 3f
       1.0567714 1.0413743 0.9312577 1.102941
000060 ef 3c 8a 3f a0 b2 98 3f de 48 85 3f cb 6a 8c 3f
       1.0799845 1.1929512 1.0412862 1.0970091
000070 fb e5 87 3f 46 0f 85 3f d1 88 82 3f ae b2 8d 3f
       1.061706 1.0395286 1.0198003 1.1070154

embedder.res_block.0.bias f4 [32]
000000 1c 25 9a 3c 36 83 c8 bc fb 89 40 bd 2e b0 8c 3b
       0.018816523 -0.024476629 -0.04700659 0.004293463
000010 e7 54 1d bc a8 10 6e bb 0a c8 3f bd aa ac 9f bc
       -0.009602762 -0.0036325846 -0.04682163 -0.019491512
000020 20 52 5b bd 1f 1c 8f 3c 2b e1 40 bc 90 09 cd 3b
       -0.053545117 0.017469464 -0.011772434 0.0062572435
000030 ad b7 8e bc a4 c4 6e 3c f4 8e 4d 3d bc 38 f5 bb
       -0.017421568 0.01457325 0.05018516 -0.00748357
000040 04 37 92 bb 9e 20 46 bd 4f ad 90 3c 50 ce c0 bc
       -0.004462125 -0.04837095 0.017660765 -0.023535877
000050 57 bf 22 bc 4e fa c2 3c 36 82 d6 bc 76 59 be 3c
       -0.009933314 0.023800995 -0.026185136 0.023236018
000060 b1 70 56 3b 7f f3 99 bc d1 fa 20 3d 1d 28 28 bc
       0.0032720978 -0.018792866 0.039301697 -0.01026347
000070 14 dc 0f 3d 80 25 47 3d 2e e3 13 bd 68 fa fe bb
       0.035121992 0.048619747 -0.036105327 -0.0077813156

embedder.res_block.1.weight f4 [32, 32]
000000 de 8c 47 be db 18 53 3d 05 64 59 bd de 2c 92 3d
       -0.1948733 0.051537376 -0.0530739 0.07137464
000010 1b 24 a7 bd be 5c 48 be 15 f8 10 be fe f6 a0 bd
       -0.081611834 -0.19566628 -0.14157136 -0.0785961
000020 7c 13 98 3d 6e 4c 7a be 37 01 97 3d 6c f9 cd bd
       0.07425591 -0.24443218 0.073732786 -0.10057339
000030 5b 3b 2c bd e3 97 84 be 54 da e0 bd 20 e6 7e bd
       -0.042048793 -0.2589713 -0.10979143 -0.062231183
000040 08 9c 9c bd 07 83 63 3d 6e e7 08 be d9 4e d2 3d
       -0.07646948 0.05554488 -0.13369533 0.10268945
000050 cd 45 b2 3d 2a 70 ba bd c0 0b 8f bd c2 6c 5c be
       0.0870472 -0.09103425 -0.06984663 -0.21525863
000060 30 e2 62 3e 73 d5 c2 bd 80 49 76 be 40 ba 5a 3e
       0.22156596 -0.095133685 -0.24051476 0.21360111
000070 dd a3 00 3e 91 ea 14 3e 87 7d 48 3d 6c c9 59 be
       0.12562509 0.14542605 0.048947837 -0.21268243
000080 0e c8 43 3e 1f 8a 94 bc 80 31 29 bc 28 8c f2 3d
       0.19119284 -0.018132268 -0.010326743 0.11843139
000090 36 1e d8 bd 2b 84 15 be f1 48 a9 3d 44 66 89 3d
       -0.10552637 -0.146012 0.082658656 0.06708959
0000a0 ad e7 34 3d 6e 6b 34 3e d0 27 10 be 55 b5 2e be
       0.044166256 0.17619106 -0.14077687 -0.1706136
0000b0 fa 3d 82 3d 29 c8 82 bd a5 5f af 3d 46 1b f3 bd
       0.06359477 -0.06385834 0.085631646 -0.11870436
0000c0 f7 4e da bd 74 9a 70 bc 3d 71 97 bc 17 fa 51 3d
       -0.106595926 -0.014685262 -0.018486613 0.051263895
0000d0 fd 3c ce 3c e4 8e 9d 3d 15 5e 3b 3e 0f f3 c4 bd
       0.025175566 0.0769327 0.18297608 -0.09616672
0000e0 70 86 6c 3d 89 04 f4 bc 12 8e 14 3d 43 bd 11 bb
       0.057745397 -0.029787319 0.0362683 -0.0022238053
0000f0 aa 6c d0 3d 47 74 0b 3d a2 f6 37 3e 3e 74 33 3e
       0.10176976 0.034046438 0.17965177 0.17524812
000100 58 b3 93 bb eb fc 07 be 93 0e 53 bc 0b b5 52 bc
       -0.0045074634 -0.13280074 -0.012881893 -0.012860547
000110 ac 32 80 bd 4f 6b 15 bd c4 8e 43 be c2 16 f9 3b
       -0.06259665 -0.03647929 -0.1909743 0.00760159
000120 83 ea 37 bd ef b5 06 3d cc 36 21 be bd 48 34 3e
       -0.044901382 0.03288835 -0.1574356 0.17605872
000130 f5 ec 8e 3d 93 e4 43 be 82 29 36 3e 32 d2 ec 3d
       0.0697879 -0.19130163 0.17789271 0.11563529
000140 c2 7e 6d 3d ff 5c fc bc c2 52 92 bd b5 81 0c bd
       0.057982214 -0.030806063 -0.07144691 -0.034303386
000150 ab 04 b6 bc b2 2c 20 bd 12 bc 33 be e2 4f a2 bb
       -0.022219023 -0.039105125 -0.17552212 -0.0049533704
000160 77 c4 16 be 5c 24 94 bd 50 bc 4f 3d 2f 08 f0 3c
       -0.14723383 -0.072334975 0.0507167 0.029300777
000170 70 33 27 3d be 26 1b be 04 24 16 bd 40 39 54 bd
       0.04082054 -0.15151498 -0.03665544 -0.05181241
000180 9d 92 7f bd 24 35 74 3e 43 b7 56 bd e9 7a a5 ba
       -0.06239568 0.23848397 -0.052420866 -0.0012625131
000190 08 3b 8c 3e b3 47 73 be 5c 0b e0 bb 7c ec 34 be
       0.27388787 -0.2375782 -0.0068372916 -0.17668337
0001a0 77 b6 2b be 9e d5 a5 3d 50 3a 2c 3d e9 7e 16 be
       -0.16768824 0.08097385 0.0420478 -0.1469685
0001b0 30 7c 2f 3e 36 fc 72 be 60 25 1b 3e ad 1f 48 3e
       0.17137218 -0.23729023 0.15150976 0.19543333
0001c0 bf 2f 60 be 20 7e 0f 3e 36 0d 84 be d7 cd 19 3c
       -0.21893214 0.14012957 -0.2579133 0.009387455
0001d0 64 ee e3 bd 4e 57 88 be 92 17 a3 bd 6b 86 c0 bd
       -0.11129454 -0.26629108 -0.0796348 -0.09400638
0001e0 7b f4 6b 3e 17 f8 14 3e 0a ec 8c bd db ea 9f 3e
       0.2304248 0.14547764 -0.068809584 0.31233868
0001f0 46 ed 0f 3e be 0c f3 3d 8d 9f 88 3d 7b 4f 41 be
       0.14055356 0.11867665 0.06671057 -0.18877976
000200 3d b2 5d 3d 2f 58 07 be 86 7c f8 3c c8 f5 dc 3d
       0.05412506 -0.13217233 0.030332815 0.107890666
000210 a6 cc bf 3d d6 1b c9 bc 29 f8 18 3e 73 e9 64 be
       0.093652055 -0.024549406 0.14938416 -0.22354679
000220 d1 f3 0e 3e 9d 15 43 3e c5 aa 12 3e 7b 3e 85 bd
       0.13960196 0.19051214 0.14322956 -0.06506058
000230 a4 ae 0a 3e e0 5f 5b bd eb 38 66 bd fd 47 c8 3d
       0.13543183 -0.05355823 -0.056206625 0.09779356
000240 09 ac 25 3d 3b 93 58 be f3 3e bc bd eb 10 12 3d
       0.04044727 -0.21149914 -0.09191694 0.035660665
000250 fd 11 95 bd 5f 7c 6a 3c 53 d8 0a be b8 2e c8 3c
       -0.072788216 0.014311879 -0.13559084 0.02443634
000260 03 11 a6 3d c2 61 05 3e 1b e0 ce 3d 72 b7 ce 3d
       0.081087135 0.13025573 0.101013385 0.10093583
000270 c6 81 0c bd 71 da 9b bc ec 7d b5 3d 80 24 3d 3d
       -0.03430345 -0.01902506 0.08861908 0.046177387
000280 3d 7a a5 3d 5e f0 a4 3e c9 a8 92 3e 63 b5 0e be
       0.08079956 0.32214636 0.28644398 -0.13936381
000290 ef bd b6 3d a8 55 bc be 16 48 89 bb dc 4d 09 3d
       0.08922946 -0.367841 -0.0041895015 0.033521518
0002a0 e5 f8 53 be e0 43 82 be 67 d4 9b 3c 04 cc 99 3d
       -0.20700414 -0.2544241 0.01902218 0.07509616
0002b0 9f 4c 86 bc b2 a1 ac be 24 27 6e 3d ad 78 0b 3d
       -0.016393958 -0.33717114 0.058142796 0.034050632
0002c0 5c 0f 50 be 0d e1 99 3c 74 3b 6f be 00 23 16 3e
       -0.20318359 0.01878407 -0.23362523 0.14661789
0002d0 8c ed d0 3d ec 84 58 be 25 15 40 bc 25 99 1f be
       0.102015585 -0.21144456 -0.011723791 -0.15585764
0002e0 21 85 b8 3d c7 00 8b 3e 7f 1d 19 3d 38 b2 a0 bc
       0.09009767 0.2714903 0.037381645 -0.019616231
0002f0 26 5e c1 3d 2b 99 85 3e 51 71 24 3d 16 10 16 be
       0.094417855 0.2609342 0.04014713 -0.14654574
000300 37 c6 da 3c ad af 4d 3e 75 64 1e 3d bc ce e9 bd
       0.026705844 0.20086546 0.038670022 -0.114163846
000310 3e 36 86 3c d4 fe 8b be d0 96 11 be ee 70 11 3c
       0.016383287 -0.27342856 -0.14217687 0.008877022
000320 56 b6 01 3d 9b d8 22 be 80 eb 84 3c 53 79 37 be
       0.03166803 -0.15902941 0.016225576 -0.17917375
000330 40 bc 07 bd 2b 94 02 bd f3 de 2c be a1 e3 22 3d
       -0.033138514 -0.031879585 -0.16881923 0.039767865
000340 14 91 aa bc 54 03 fa bd ee a6 1f bd fc e2 e2 3d
       -0.020821132 -0.12207666 -0.038977556 0.1107845
000350 7e 66 99 bc 66 50 5e 3d d7 79 88 bc 64 b6 35 be
       -0.01872563 0.054275893 -0.01665966 -0.17745358
000360 28 59 85 3c 61 b5 4e 3e 12 56 02 3e 04 41 85 3e
       0.016277865 0.20186378 0.12728146 0.26026165
000370 49 34 d2 3d f2 a7 03 bd a7 88 b8 3d b9 7e 4e be
       0.10263879 -0.032142587 0.09010439 -0.20165528
000380 0f 7f 9b 3d 9e 4e 4a be 90 6a 33 be e4 97 06 be
       0.07592594 -0.19756553 -0.17521119 -0.13143879
000390 a4 a1 c5 3d 54 3b c6 3d d6 2f 37 3e 93 d0 2b 3e
       0.09649971 0.09679285 0.17889342 0.16778784
0003a0 a9 56 a2 bd cf ad 51 3d d7 2c 95 bd 64 95 14 be
       -0.07926685 0.051191147 -0.07283943 -0.14510113
0003b0 70 dd 9e bc fb 49 0d 3e 32 e8 e2 3d 5a e7 c4 3d
       -0.019392699 0.13797753 0.11079444 0.09614439
0003c0 7e fc 17 3e c5 3c 63 3d 78 3c 27 3e 35 a1 25 3e
       0.14842412 0.055477876 0.16331661 0.16174777
0003d0 b1 0d f7 bd f5 bf e2 3c e4 43 07 39 2b 9c 1a bd
       -0.12063158 0.027679423 0.00012899895 -0.03774659
0003e0 23 b0 39 3d 46 b9 0e be 86 2c fa 3d 04 a2 64 bc
       0.045333993 -0.13937864 0.122155234 -0.013954643
0003f0 f4 24 0a be ff 91 c4 3c 5b f8 d2 3d a9 21 d8 3d
       -0.13490659 0.023995398 0.10301276 0.10553295

embedder.res_block.1.bias f4 [32]
000000 0e b1 4e bc 35 6d ae bd 14 89 db 3b 03 4a c9 bd
       -0.012615455 -0.08516923 0.0066996906 -0.0982857
000010 8c bb 25 be 61 b3 fa 3c f1 b5 08 3d f7 bf 1b 3d
       -0.16184825 0.030603113 0.033376638 0.03802487
000020 b6 67 23 3e 16 ac d1 bd 8f ed 0a bd 64 63 5e bd
       0.15957531 -0.10237901 -0.03391796 -0.054294005
000030 3e c0 28 3d 80 57 c5 3d 0a 0b 2a 3e 2c 05 1f bd
       0.04119896 0.0963583 0.16605774 -0.03882329
000040 93 7f 24 3c 6a 3c b7 bd 5e e3 be 3d 03 63 f8 3d
       0.010040182 -0.0894707 0.093207106 0.1212826
000050 a8 3b 7b 3c 97 cd 21 be 9c 17 db bc ab 03 ac bd
       0.015334047 -0.15801083 -0.026744656 -0.08399137
000060 62 ad 13 3d ec 1d 00 be 98 e0 32 3d 63 2b 0c be
       0.036054023 -0.12511414 0.04367122 -0.13688426
000070 59 79 9a 3d 28 d6 03 be 0e 76 8e 3d 01 4b 02 be
       0.075426765 -0.12874663 0.06956111 -0.12723924

embedder.res_block.3.weight f4 [32, 32]
000000 26 1e 41 be d6 74 c5 3d e4 1e e4 bd b7 cb c5 be
       -0.18859157 0.09641425 -0.111387044 -0.38631985
000010 de 29 9d 3d 6c 3c b5 bd 29 7f e9 bd 98 ea 9f 3e
       0.07674001 -0.08849415 -0.11401207 0.31233668
000020 a1 0d d4 bd 53 5b dc 3d 61 e0 8a bd 45 bd 58 be
       -0.10354162 0.10759606 -0.06781078 -0.2116595
000030 48 57 e2 3c 25 e8 32 3e 60 d4 04 be ed 11 6d 3e
       0.02762951 0.17471369 -0.1297164 0.2315137
000040 a6 19 73 bd 52 c7 49 3e 8c 00 7f 3e a3 0f 63 3d
       -0.059350632 0.19704941 0.24902552 0.055434834
000050 6e fa 09 3d 8e e9 75 be bc 4f 2d 3e 11 67 7e 3e
       0.033686094 -0.24014875 0.16924948 0.24844004
000060 76 9c 17 3d 64 78 83 bc a1 a4 e7 bd ce 21 aa bd
       0.037014447 -0.016048618 -0.11310697 -0.08307229
000070 7b 3c 47 3e f3 3b a2 3d 14 b4 0b bd 07 4c 82 3e
       0.19456665 0.07921591 -0.034107283 0.2544863
000080 4e 34 e2 3d 60 31 e0 3d 1d 89 c8 bc aa 1b 91 3e
       0.110451326 0.109469175 -0.024479443 0.28341419
000090 a6 05 02 3e 1d 8a c0 3d 78 cc 51 3e 27 2c 58 3d
       0.12697467 0.09401343 0.20488155 0.052776482
0000a0 09 01 ae bd 11 7d ed 3d 02 1e 5a be 01 33 63 bd
       -0.08496291 0.1159612 -0.2130051 -0.055468563
0000b0 23 ce 0b 3e ca 3e 63 be 28 01 c9 bd 72 77 19 3d
       0.13652854 -0.22191921 -0.09814674 0.037467428
0000c0 40 94 d1 3d f5 b9 af bd e2 0b c3 3d 92 f8 55 be
       0.102333546 -0.0858039 0.09523751 -0.20895603
0000d0 6b 0a 1d 3e a8 1c 75 3e 8c fb c1 bd d1 22 b7 bd
       0.15336005 0.23936713 -0.09471807 -0.089421876
0000e0 89 28 99 bc 87 91 36 3e 30 9e 2b be 46 5a d0 bd
       -0.018696086 0.17828952 -0.16759562 -0.10173468
0000f0 9f a0 bf 3d 62 e7 e7 3b 74 42 40 bd a4 96 4e 3d
       0.09356808 0.0070771435 -0.046938375 0.05043663
000100 9d d3 6b bd b3 77 37 bd 55 d8 73 bd b3 78 40 3e
       -0.057574857 -0.04479189 -0.059532482 0.18796043
000110 de b5 4b be 78 91 49 bd e1 01 87 3d ff 36 0d bd
       -0.19893596 -0.049210995 0.06592155 -0.034476276
000120 f1 4c 21 be 99 f5 c5 bd b7 29 d8 3c 01 59 43 be
       -0.15752007 -0.09665985 0.026387079 -0.19076921
000130 c7 f9 fb 3d c8 cb 92 3d cf c3 11 3e 73 86 fd bd
       0.123035006 0.071677744 0.14234851 -0.1237916
000140 e1 b3 0c 3d 70 a5 57 3e 79 3d b3 3d d2 20 a1 bd
       0.034351233 0.21059203 0.08751959 -0.07867588
000150 52 bc cd 3c 43 bf 1a 3e 49 a2 8b 3d 25 4b 0d 3e
       0.025114212 0.15112023 0.06818063 0.13798197
000160 79 fe 70 be 3e 16 41 3d 2c 74 bb bd fd 7b 2f 3e
       -0.23534574 0.047140352 -0.091530174 0.17137142
000170 5b c5 1a 3e 8d 71 c9 bb 2c ef 45 be b0 ea 02 3e
       0.15114348 -0.0061475695 -0.19329518 0.12784839
000180 30 e7 6f 3c 42 58 fd 3d 18 85 de bd 09 1d 15 be
       0.014642522 0.123703495 -0.10865229 -0.14561857
000190 59 c1 29 3e b3 25 ad 3d da c8 42 3e cd 6a 09 3d
       0.16577663 0.08454456 0.19021931 0.03354912
0001a0 34 a6 72 3d f6 bb e8 bd 03 d8 27 bd f2 4c 72 3e
       0.059240535 -0.11363976 -0.04097749 0.23662165
0001b0 c2 4d 2f be d6 36 c4 bd 9c 42 63 3e 3f 16 71 3e
       -0.17119506 -0.095807716 0.22193378 0.23543642
0001c0 43 40 63 bd 50 cf c1 bd c6 f5 e2 3c 29 18 4d 3e
       -0.055481207 -0.0946337 0.027705085 0.20028748
0001d0 a3 03 e0 ba 5c cd ce bd ed 8f c4 3d bd 4f 41 bc
       -0.0017090928 -0.10097763 0.09597764 -0.011798796
0001e0 80 54 6d 3d 74 cd d3 bd 4d 59 2f 3e 69 03 6a 3d
       0.057941914 -0.103419214 0.1712391 0.05713216
0001f0 17 ca 1a be 9f 6e 67 bd e1 9b 55 bc 68 cc 4e 3c
       -0.15116154 -0.05650198 -0.013037653 0.012621976
000200 3d 7e 0e 3e 65 72 ac bd 0c cd 00 be 55 b3 1e 3d
       0.13915344 -0.084202565 -0.12578219 0.038745243
000210 f2 63 ff bd 72 61 ae 3c 64 11 12 3e 50 6a b9 3d
       -0.12470235 0.0212867 0.14264446 0.090534806
000220 fa c9 a6 3d e4 c5 1a bd e6 3b 85 3d dc c8 82 3e
       0.08143993 -0.03778638 0.06505565 0.2554387
000230 3a 98 01 bc 07 43 3f bc ea 90 34 be 51 b9 d0 be
       -0.007909829 -0.011673695 -0.17633405 -0.40766385
000240 2c 3c 8c 3d 3b 71 b8 3d 25 35 18 3d 22 ce 4a be
       0.068474144 0.09005972 0.037160058 -0.19805196
000250 7e 78 fb bd ef 5f 0e 3e ac fe 07 be 69 b5 81 be
       -0.122788414 0.13903783 -0.13280743 -0.25333717
000260 41 8f 3f be 33 b7 bd bc 64 04 bc 3c b5 fc 02 bd
       -0.18706991 -0.023158645 0.022951312 -0.03197928
000270 b8 b8 12 be 73 34 89 bd af 37 74 be c6 18 ed bd
       -0.14328277 -0.06699457 -0.23849367 -0.11576991
000280 8a 69 d4 3c e6 56 96 3d 6b 8b 1e 3e ed c1 4d be
       0.025929231 0.07340793 0.15482871 -0.20093508
000290 27 4b 6e bd 05 3f 2f bd e0 df 03 be 73 a0 bb 3d
       -0.05817714 -0.04278471 -0.1287837 0.09161463
0002a0 79 d2 a1 3d f3 ee 82 bd 9b 26 74 bd ed b5 65 be
       0.079014726 -0.06393232 -0.05960713 -0.2243268
0002b0 64 9f 08 3e bc f5 8f bc c1 e0 92 3c 86 c7 ab 3e
       0.13342053 -0.01757323 0.017929437 0.33550662
0002c0 ab 07 f9 3d cc e0 12 bd a6 68 4e be ce 4b 11 3e
       0.12159666 -0.035858914 -0.20157108 0.14189073
0002d0 c3 8b 29 3e 46 4e a4 bb 79 59 01 3e 37 d8 13 3e
       0.16557221 -0.0050142137 0.12631787 0.14437948
0002e0 de 12 04 be 29 28 df be 2e cd 68 3d db a2 2a 3e
       -0.12897822 -0.43585327 0.0568363 0.16663687
0002f0 0d a4 ab bd b9 a0 25 be 5b 79 75 3e dd 02 05 3e
       -0.083808996 -0.16174592 0.23972075 0.12989374
000300 df ab 37 3e a4 7c f7 3b 4c 86 6b 3c 71 16 20 bb
       0.17936657 0.0075527 0.014375281 -0.0024427439
000310 41 10 3d 3e c9 5a 54 3e 88 9a e6 3d 8b 4a 6d bd
       0.18463232 0.20737757 0.11259943 -0.057932418
000320 84 3f fb bc ea 91 02 3e 06 79 e7 bd a2 b7 96 3d
       -0.030669935 0.12750974 -0.1130238 0.07359244
000330 3f 94 88 3d 27 70 29 3d d4 e6 0a be 1f 30 46 bd
       0.06668901 0.041366722 -0.13564616 -0.048385736
000340 66 0e cc 3c 77 ee 09 bd cb 1d b3 bd 91 03 f2 3d
       0.02490921 -0.033674683 -0.08745917 0.118170865
000350 3d 20 c4 3c cf 3c d0 3d d1 e6 eb bd a0 61 e7 bc
       0.023941154 0.10167848 -0.11518634 -0.028244793
000360 5a bb d1 bc 6e 08 3c 3e da cb 03 3d f6 ad d6 3d
       -0.025602031 0.1836259 0.03217683 0.10482399
000370 35 68 b2 3d 51 ee b1 bd 9b 88 9a 3d 25 96 a4 3d
       0.08711282 -0.08688033 0.07545587 0.0803645
000380 e5 0a 4a 3e f4 76 49 3e dd 2a 27 be be 13 bb bb
       0.19730718 0.19674283 -0.16324945 -0.0057091406
000390 b7 90 c1 3b d2 b8 87 3e 82 f2 d9 3c 57 b5 47 3d
       0.005907144 0.26508194 0.026604895 0.048756924
0003a0 74 27 f3 3d 84 65 72 3e 7c 04 69 3d a5 55 8e 3e
       0.118727595 0.23671538 0.056889042 0.27799717
0003b0 96 49 28 3e 0c ad a1 3d 5f 20 e7 3d 1a 17 f6 bd
       0.16434321 0.07894334 0.11285471 -0.12016125
0003c0 e5 73 dd 3d f6 2f 8a ba 55 58 cb bd ee 32 45 bd
       0.10813121 -0.0010542858 -0.099289574 -0.048144273
0003d0 7d 26 28 3d c5 b9 32 3e 01 f1 e1 bd c1 e6 81 3d
       0.04105233 0.17453678 -0.11032296 0.06342841
0003e0 18 5f b1 3c 0d de bf 3d 3c 54 f8 bd d2 24 e4 3c
       0.02165179 0.09368525 -0.121254414 0.027849589
0003f0 d1 ac 9f 3d 41 64 1a be f5 2a 21 bd e3 3e d5 3b
       0.07796634 -0.15077306 -0.039347608 0.006507741

embedder.res_block.3.bias f4 [32]
000000 c7 c4 14 3e 0f 8f 29 be e1 0f d1 3d 9c d8 43 3c
       0.1452819 -0.16558479 0.10208107 0.011953499
000010 99 17 46 3d f8 a2 18 bd 0a c1 df bd 4b d1 2f 3e
       0.04836235 -0.037264794 -0.10925491 0.17169683
000020 b5 17 41 3d 54 08 cb bc 5a 91 00 3e 2d 64 80 3d
       0.04714175 -0.024784245 0.12555447 0.06269107
000030 b6 d6 f0 bd a4 eb 52 3d 85 06 3e 3c 98 f0 e8 bc
       -0.11759703 0.051494256 0.011598234 -0.028435037
000040 5e 47 25 be a9 7b 5e bb 8e bd 91 bd 02 5b 12 be
       -0.16140506 -0.003394822 -0.07116233 -0.14292529
000050 e2 fe f8 3d b6 2b 28 3e a8 6e 12 bd a0 d8 56 bd
       0.1215799 0.16422924 -0.03575006 -0.052452683
000060 cd 5b 14 be 00 0f ac 3c 0a 4f e9 bd 1b 8d 92 bd
       -0.14488144 0.021003246 -0.11392029 -0.0715582
000070 8e 89 41 3e 0a 6f 10 be d7 0f 6e 3d 31 1e 5d 3d
       0.18900129 -0.14104858 0.058120575 0.05398387

cnn_blocks.0.proj_in.weight f4 [16, 32]
000000 fd 25 22 3c a0 10 12 be ce 25 a6 3c 5a ac d7 bd
       0.009896752 -0.14264154 0.020281699 -0.1053092
000010 45 29 60 3c d0 ac a5 bd 67 30 99 3d 53 52 ce bd
       0.013681714 -0.08089602 0.07479935 -0.10074296
000020 e1 ab 47 3d c1 ea ff 3c 48 19 2b 3e 95 4d 31 be
       0.0487479 0.03123987 0.16708863 -0.17314751
000030 67 ac 9e bd 9b 12 21 be 02 4a 43 bc 0a e6 b4 3d
       -0.07747727 -0.15729754 -0.0119195 0.08832939
000040 67 01 36 3e 7a d7 f4 3d 0e b8 26 be b1 ff 47 bd
       0.17773972 0.119551614 -0.16281149 -0.04882783
000050 78 2d 6c bc bf 02 69 be 8a 77 ce 3d 5d b5 35 3d
       -0.0144151375 -0.22754954 0.10081394 0.044362415
000060 8b f1 2f bc 7d cc 28 bd f9 85 ea 3d e2 44 0f bc
       -0.010738741 -0.04121064 0.114513345 -0.00874445
000070 f0 fe 14 be e0 db a8 ba a7 c6 e7 3d 33 dc e5 bd
       -0.14550376 -0.0012882911 0.11317187 -0.1122364
000080 dd 6f 72 bd bb e9 57 3e 23 4f a5 3d 1a 13 a8 3d
       -0.059188712 0.21085255 0.08071735 0.08206768
000090 68 3f 86 bd c6 c3 07 3e 24 bd ac bd d8 49 d4 b9
       -0.065550625 0.13258275 -0.08434513 -0.0004049081
0000a0 49 fc 32 be 6a b5 09 3e fa ff f3 3c b3 37 12 3e
       -0.17479052 0.1344811 0.029785145 0.1427906
0000b0 c1 5f d2 bd 37 0f 2e 3e 0e 72 30 bc e5 3f ec bd
       -0.1027217 0.16997992 -0.01076938 -0.115356244
0000c0 7c 5b b3 3b 8f 61 0f 3e c0 56 10 3e 02 1b 32 3d
       0.0054735523 0.1400206 0.14095592 0.043482788
0000d0 c7 b3 09 3e f9 00 e4 bc b5 9c ed 3d 92 13 09 be
       0.13447486 -0.027832495 0.11602155 -0.13386372
0000e0 79 66 89 3d a1 5f 74 bc 50 58 f0 39 f3 33 0f be
       0.06708998 -0.014915378 0.00045842165 -0.13984661
0000f0 0d 3e 88 3d bf 5e d6 bd 09 e9 c4 3d 5a ca ab 3d
       0.0665246 -0.1046729 0.096147604 0.08388205
000100 10 5a 09 3d e2 de 2f bd cb d3 15 3e 24 d4 94 3d
       0.033533156 -0.042937167 0.14631574 0.07267025
000110 c6 28 70 3e d0 0b 2d 3e 90 2a ca 3c 7c b0 4b 3b
       0.23453054 0.16899037 0.024678499 0.0031080535
000120 96 b5 86 3c 4b 35 c5 bd 72 5b 10 3e fb 19 38 bd
       0.016444009 -0.096293055 0.14097384 -0.044946652
000130 01 71 a8 3d 10 8d 38 be 98 34 72 bd 5a 42 82 ba
       0.08224679 -0.18022561 -0.05913219 -0.0009937987
000140 45 7c 38 3d f3 0e 2d 3c b7 1c 37 be 0c bc a5 39
       0.045040388 0.010562646 -0.17882048 0.00031611358
000150 27 d3 04 be 62 15 d2 3d d8 d1 36 3c 10 5a 84 3c
       -0.12971173 0.10257985 0.011158429 0.016156226
000160 00 32 07 be d1 cf 6b 3d 65 4c 00 3e b6 93 3a bd
       -0.13202667 0.057571236 0.12529142 -0.045551024
000170 9c d1 a5 bd 4f 6f 0e 3e f6 1d 50 bb e4 c4 0a 3e
       -0.080966204 0.13909648 -0.003175614 0.1355167
000180 1e b8 15 3e c6 46 f5 bd 03 eb ff bd ec 3f 14 be
       0.14621016 -0.119763896 -0.12495997 -0.1447751
000190 36 fe e3 bd 08 de 55 3d 75 7f 25 be 09 86 2f be
       -0.11132471 0.0522137 -0.16161902 -0.17140974
0001a0 67 fe 20 be be 49 26 bd 0d b9 3d bd 64 a7 bd 3c
       -0.15722047 -0.04059767 -0.046319056 0.023151107
0001b0 c6 e4 3d bc f1 34 a0 bd be ac a6 bb f8 77 8a 3d
       -0.011590188 -0.07822598 -0.0050865104 0.067611635
0001c0 25 a3 39 be 76 e3 48 3d 2f b2 12 be 06 de c6 3a
       -0.18128641 0.04904505 -0.14325784 0.0015172369
0001d0 b5 63 8c 3c ff ca 5e 3c 21 8e 57 bd 56 9c b3 3c
       0.017137388 0.013598203 -0.05262578 0.021925133
0001e0 cc e8 1d 3c 2d 4b 0c bd d6 f5 63 3e a7 75 9b bc
       0.009638023 -0.03425138 0.22261748 -0.018977
0001f0 19 1b f7 bd 25 78 cb bd 19 65 05 3e 12 df f7 bd
       -0.12065715 -0.09935025 0.13026847 -0.12103094
000200 bf b2 45 be 1f 14 d8 3d 5b 9d fb 3d ab 80 a5 3d
       -0.19306467 0.10550713 0.122858725 0.08081182
000210 fb ac 0c be 89 36 16 be 77 ea 76 3d 72 16 03 3e
       -0.13737862 -0.14669241 0.060282197 0.12801531
000220 f5 75 b9 3d fb 63 56 3c b3 17 77 3d 13 dc af bd
       0.09055702 0.013085361 0.060325336 -0.08586898
000230 22 1d fc 3d b9 f7 e0 3d c6 73 65 3d e5 eb 1d 3e
       0.12310244 0.10984749 0.056018613 0.15422018
000240 c3 e8 1f be c8 dd 4d 3d ec 3d de bd 9f 6c 6c 3b
       -0.15616135 0.050260335 -0.108516544 0.0036075485
000250 0b 8c 9a 3d 9e 6b cd bb 1f e2 04 3e c0 a0 d6 bd
       0.07546242 -0.0062689325 0.12976883 -0.104798794
000260 c6 c9 b4 3d 44 db cc bc de 9a 9f bd de 30 09 3e
       0.08827548 -0.025006898 -0.077932104 0.13397548
000270 31 14 a2 bd e1 c6 df 3d 92 55 8e be 3f f0 83 bd
       -0.079140075 0.10926605 -0.2779966 -0.06442308
000280 d4 20 6d be 42 a7 89 3d 51 d3 5b bc 7b 4d 1f 3e
       -0.23157054 0.06721355 -0.013417081 0.155569
000290 1f fb 26 3e 90 ed b1 bd a5 60 ad 3d 1f 4b 05 3e
       0.16306733 -0.086878896 0.08465699 0.13016938
0002a0 c2 dd 90 bd dd ce 0f bd 12 5c 69 3b 9b 8e 24 3e
       -0.07073547 -0.03510939 0.0035607857 0.16070025
0002b0 6b 10 a8 bc 46 a0 3a be d4 63 1f 3e ae da 53 be
       -0.020515641 -0.18225202 0.15565425 -0.20688888
0002c0 28 71 d5 3d bf 49 26 3c 68 cf 82 bd 9f 54 02 3e
       0.104219735 0.010149418 -0.06387216 0.12727593
0002d0 13 cc 87 3d e7 a0 be bd 47 9a 22 3d b3 61 33 bd
       0.06630721 -0.093080334 0.03969791 -0.043794345
0002e0 f7 e8 5d bd 5a 8d 01 3d 96 50 97 3c eb 95 1b 3e
       -0.05417725 0.031628944 0.018471044 0.15193908
0002f0 b1 a8 0b be 34 08 b4 bd 08 cb 12 3e ed 69 2b be
       -0.1363857 -0.08790627 0.14335263 -0.16739626
000300 bb 68 69 bd 6e a4 0d 3d 21 8c c1 3c 67 ae 26 3e
       -0.056984644 0.03458064 0.023626389 0.16277467
000310 03 68 d9 3d 55 2c 18 3d 58 05 9f bd 4a f2 44 3c
       0.10615542 0.037151653 -0.07764691 0.012020657
000320 8f 54 c9 3a db 9f 0b be 78 f7 90 bd 2d b8 c6 3d
       0.0015360283 -0.13635199 -0.07078451 0.097030975
000330 cd 3a 64 bc ad 52 fa 3d 40 95 c7 bd 31 50 ed 3d
       -0.013930035 0.122228004 -0.09745264 0.11587561
000340 3d fb cc 3d 19 a0 30 3e 78 f6 00 be 55 7b e4 3d
       0.100088574 0.17248572 -0.1259402 0.11156336
000350 87 6e c3 3c 1a 12 ad bd 5c c2 6a bd a1 37 4a 3e
       0.023856414 -0.08450718 -0.05731426 0.19747783
000360 12 f0 1b 3d 9f d4 2c 3e 0c b7 90 3d 51 fa 7a 3c
       0.038070746 0.16877984 0.070661634 0.015318469
000370 81 30 91 bd 1e 1e 02 bd 57 9e 8d be cb 6a 31 3d
       -0.070893295 -0.031767003 -0.27659866 0.043314736
000380 1c 3f 8d 3d 40 75 a4 3d 30 40 85 3d 70 42 2e 3e
       0.06896803 0.08030176 0.065063834 0.17017531
000390 50 85 91 3b 41 cf 48 3e 24 20 85 bd f2 36 05 3e
       0.004440941 0.19610311 -0.06500271 0.13009241
0003a0 9e 40 b0 bd c1 8c 12 be 1c 9c cd bd f9 c6 fc bc
       -0.08606075 -0.14311506 -0.10039541 -0.030856596
0003b0 26 4c 43 be 84 b4 4b 3c 6f 72 15 3e 42 05 53 3e
       -0.19072017 0.012433175 0.14594434 0.20607474
0003c0 3c 26 f2 bd 36 37 ba 3d 14 7b ca 3d 5a 3a e9 3c
       -0.11823699 0.09092562 0.098867565 0.028470207
0003d0 15 78 2f be 4e d1 11 3d c9 4e c0 bd 61 eb 0b 3d
       -0.17135651 0.0356 -0.09390027 0.03416002
0003e0 c3 1c b8 bd e4 5f 2e be 30 d2 b9 3d 55 f3 3d 3e
       -0.08989861 -0.17028767 0.09073293 0.18549855
0003f0 0c 1f 7a 3d 2a 29 da 3d 25 98 03 3e c4 96 cc 3c
       0.061064765 0.10652383 0.12851007 0.024974234

cnn_blocks.0.proj_in.bias f4 [16]
000000 7e 63 24 be 72 1c 01 bc 26 33 6f 3d 8d 76 2e 3e
       -0.16053578 -0.007880317 0.05839839 0.17037411
000010 57 4a 25 3e 3d d1 18 3e f7 10 45 be 4e 44 59 bb
       0.1614164 0.14923568 -0.19244753 -0.0033152285
000020 15 78 81 3c a6 ab b5 3d 45 17 b4 bd 17 88 57 bc
       0.01580433 0.0887063 -0.08793501 -0.013155005
000030 7a 90 2b 3e bc ea 83 bd 93 dd f3 bd e2 00 39 3d
       0.16754332 -0.064412564 -0.11907496 0.045166858

cnn_blocks.0.convs.0.weight f4 [16, 16, 3, 3]
000000 69 92 e3 bc 96 34 e9 3b d8 7d 80 3d d2 de 61 bd
       -0.027779775 0.0071168644 0.06274003 -0.05514414
000010 ab f5 80 3d c4 c8 e3 3d a0 07 63 bd 6f 73 aa 3d
       0.062968574 0.111222774 -0.055427194 0.083227985
000020 a2 ef 36 bc 49 db b1 bd 83 b4 31 be 78 a5 a0 bc
       -0.011165531 -0.086844034 -0.17354016 -0.019610152
000030 1c cc a2 3c 78 15 79 bd a6 25 be bd 14 86 4b bd
       0.019872718 -0.06081149 -0.092845246 -0.049688414
000040 99 59 6e bd 0c d7 ef bd e4 4e e1 bd 74 38 9f bc
       -0.058190916 -0.11710939 -0.11001375 -0.019436099
000050 c6 29 5e bd c3 aa 55 bd 5f ae e9 bd b1 e8 c9 bc
       -0.054239057 -0.052164804 -0.11410212 -0.024647089
000060 d9 18 e4 3b 08 f2 81 bd 56 f1 06 3d 02 c8 9e 3d
       0.00696097 -0.06344992 0.032945 0.07752992
000070 42 77 5a bd 5c bb 0d be 14 e8 0b 3c 1c d8 59 bd
       -0.05333639 -0.13841003 0.008539218 -0.053184614
000080 50 df 16 3c c8 c8 bf 3d 1f 17 bc 3d ea f4 88 bd
       0.009208515 0.09364468 0.091840975 -0.06687339
000090 aa 4a 84 bd b8 33 77 3c 26 59 c5 3d 13 30 83 3d
       -0.064595535 0.015088014 0.09636144 0.06405654
0000a0 93 e3 32 bc 2c fd b5 3d 92 c4 de bc 72 0c 84 bc
       -0.010918516 0.08886179 -0.027193341 -0.016119216
0000b0 c3 df 34 3e b5 72 2a bd 7a 6c 85 3d d4 09 2d 3c
       0.17663483 -0.0416133 0.06514831 0.010561425
0000c0 3e ed f0 bc bf 32 a0 bd 6d ef d4 3d 65 65 82 3c
       -0.02941 -0.07822179 0.10397229 0.01591749
0000d0 d1 ca 0f bd 53 c0 29 bd 53 17 94 3d e6 5b 52 bb
       -0.03510553 -0.04144318 0.07231011 -0.0032098233
0000e0 04 0f 96 3c 37 c2 c0 3d 37 d7 a9 b9 b4 fa be 3d
       0.018317707 0.094120435 -0.0003239454 0.093251616
0000f0 80 3e c0 bd 46 cc 39 bb fc ad 4b 3c 95 93 c6 3d
       -0.09386921 -0.0028350516 0.012431618 0.09696118
000100 07 b1 dd 3d 67 6f e3 3d db c4 88 bd 43 66 8e bd
       0.10824781 0.11105233 -0.06678172 -0.069530986
000110 06 f8 91 3d 58 e1 1a 3d 3b 9c c4 bc fb f2 6a 3c
       0.07127385 0.03781256 -0.024000278 0.014340158
000120 f7 f1 65 bc 9d af 61 bd f5 2d c5 bd 07 4e 13 3e
       -0.01403474 -0.05509912 -0.09627906 0.14385234
000130 0a f1 9c bd aa 45 2e bd 74 3c 39 bd 7e dd bb 3d
       -0.07663162 -0.042546906 -0.04522367 0.09173106
000140 18 b9 14 bd c6 6e 38 3d e6 18 83 3d 4a e0 8b bb
       -0.03630933 0.045027517 0.064012334 -0.0042686807
000150 24 ca c5 bc 99 47 61 3d 2d b0 07 bd 7f ba 3c 3c
       -0.02414424 0.05499992 -0.033127 0.0115190735
000160 12 9a d3 bd b3 87 91 3d 2f 33 98 bd 1a 07 35 3e
       -0.10332121 0.07105961 -0.074316375 0.1767849
000170 c1 62 83 bd c2 3b 90 bd d6 2b eb 3c 50 4c fc 3c
       -0.0641532 -0.07042648 0.028707426 0.030798107
000180 7b 59 04 3e 52 38 97 3d e5 32 a5 3d 62 93 4c 3a
       0.12924759 0.07383789 0.08066348 0.0007803944
000190 b7 d3 24 3d d1 cb ec 3c 0c c9 58 bd 34 ab ae bd
       0.04024097 0.028905781 -0.05292611 -0.08528748
0001a0 80 05 e0 3b 38 c1 36 3c 2f 4a 99 bd ca 2f b2 bd
       0.006836593 0.011154465 -0.074848525 -0.08700521
0001b0 b4 1a 15 be c8 e1 de bd 74 fa 41 be 14 ea 03 bc
       -0.14560968 -0.10882908 -0.18943197 -0.008051414
0001c0 ca 3c eb bd e1 70 36 bd 94 13 8a 3d 6c d6 0b bd
       -0.11486204 -0.044541243 0.067420155 -0.034140036
0001d0 66 8e 46 bd 86 a1 9a bc 0d ea 90 3c c2 6c 10 bd
       -0.048475645 -0.018875849 0.01768973 -0.03525997
0001e0 1d 18 fc 3c 02 a5 89 bc f0 1d 11 3b 36 91 f5 3c
       0.030773217 -0.016802315 0.0022143088 0.029976469
0001f0 5c 93 d9 bd e6 46 a4 3c 5f 3e 22 3d 9d 4e 95 bc
       -0.1062381 0.020053338 0.039610263 -0.018225962
000200 47 d2 f6 3d 3b d9 83 bc 3b 64 24 3e 0f df c1 3d
       0.12051826 -0.016094794 0.1605386 0.09466373
000210 a2 e6 d8 3c 13 93 0d 3c 98 70 59 bd 5a 6e 15 bd
       0.026477162 0.008641022 -0.053085893 -0.036482193
000220 e4 ce b9 3c 95 3e 77 bd b0 eb ac 3d 4f e6 4f bd
       0.022681661 -0.060362417 0.08443391 -0.05075675
000230 91 06 9c 3c 5c 46 b8 bb 5b 4d 09 3d ca 95 ca bc
       0.0190461 -0.005623622 0.033521038 -0.024729628
000240 b4 01 c6 bd 0c f7 bd bd 92 8e 1c bd 92 1f a2 bd
       -0.096682936 -0.09275636 -0.038221903 -0.07916178
000250 00 f1 37 bd e0 d3 51 bc dd 8b 13 3d 19 54 59 bb
       -0.04490757 -0.012806863 0.036022056 -0.0033161698
000260 3f e4 66 bd d8 24 2e be 06 02 9a bd 04 f5 2c bd
       -0.056370016 -0.17006242 -0.07519917 -0.042225853
000270 ae dc 12 be d4 00 1f be 9f cf 30 3d e7 02 47 3c
       -0.14341995 -0.1552766 0.043166753 0.012146688
000280 46 80 da ba bd ad ff 3b 8f c1 2a bd 30 a9 1e 3d
       -0.0016670309 0.0078026936 -0.041688498 0.03873557
000290 4b 4a 57 39 03 0a d9 3d 28 a0 87 3d 53 c3 37 3d
       0.00020531674 0.10597613 0.06622344 0.04486401
0002a0 63 af 90 3d 1b 9c 06 be 66 da b1 bd dc 74 30 be
       0.07064702 -0.13145487 -0.08684234 -0.17232078
0002b0 3b fb f7 3d 37 e1 e9 3d ca e0 0a 3d 29 27 c1 3c
       0.12108465 0.114199094 0.03390578 0.023578243
0002c0 d4 68 0f be 04 bc b3 3c 36 d2 a6 bb b4 3e 7b bd
       -0.14004833 0.021940239 -0.005090977 -0.061339095
0002d0 36 69 27 bc 62 15 15 bd cf b6 85 bd 5b 4e 01 bd
       -0.010217955 -0.036397345 -0.065290086 -0.031568866
0002e0 fb f0 76 bd 4a 5d 0e be a5 e1 eb bd fe 7c d4 bc
       -0.06028841 -0.13902774 -0.11517648 -0.025938507
0002f0 ea 5b c7 bd bf fb 18 3d 33 29 21 bd 7e 8e 90 bb
       -0.09734328 0.03734946 -0.03934593 -0.0044115176
000300 e8 f9 3e 3d e9 f2 17 3d 34 e4 9f bc 2f 04 33 be
       0.046625048 0.03709689 -0.019517995 -0.17482065
000310 a1 06 e5 bc 46 9a 01 be 7a 3f d8 3c 71 65 9f bd
       -0.027957262 -0.12656507 0.026397455 -0.0778302
000320 61 9b 2a 3c 2d 69 ca 3b 0e 46 11 bd c0 ac 82 bc
       0.010413022 0.0061770887 -0.0354672 -0.015951514
000330 9d 9c f4 3d 34 f2 52 3d e5 fa cc bd 52 aa 9f 3c
       0.11943934 0.051500514 -0.10008792 0.019490395
000340 ca 82 ec 3d 9b 34 0c be b1 80 97 bd 51 5d 35 3e
       0.115483835 -0.13691942 -0.07397593 0.17711379
000350 aa 49 26 3d 0b 53 ae 3c ff a5 c5 ba 15 f1 e1 bd
       0.040597595 0.021279832 -0.0015079378 -0.11032311
000360 34 32 0e bc 33 9e 2c bd 69 39 3c 3d f0 90 06 3e
       -0.008678962 -0.042143058 0.045953188 0.13141227
000370 86 4d 19 3d 35 c3 b5 bd b4 b3 1b 3e 77 9c 26 3d
       0.037427448 -0.088751234 0.1520527 0.04067656
000380 13 66 fd 3d ad f1 79 3d de 5d b9 3d 3c 74 33 bd
       0.12372985 0.061021496 0.09051107 -0.04381202
000390 95 5c 01 3d 2c 32 07 be 85 a0 0d be 47 6e 12 3d
       0.031582434 -0.13202733 -0.13830765 0.0357497
0003a0 64 fb 2d 3d f5 9a a9 bd 60 4f a9 bc c8 ce 0f bd
       0.042476073 -0.08281509 -0.020667732 -0.03510931
0003b0 bd 55 72 bd 81 c2 05 bd a5 41 e3 3d 70 92 73 3d
       -0.059163798 -0.032656197 0.11096505 0.059465826
0003c0 52 f6 4e 3d 3d ab 91 bd 47 90 e2 bc 8e c6 7c 3b
       0.050527878 -0.07112739 -0.027656687 0.0038570496
0003d0 b1 1d ac bc 8c 3e 0a 3d 3d 63 78 3c 43 0e b1 3c
       -0.021010252 0.033751056 0.015160379 0.021613246
0003e0 03 ef c6 3d f6 71 cb 3d 07 e3 a5 3b a6 e7 b8 3d
       0.097135566 0.09933846 0.005062464 0.090285584
0003f0 08 eb 3f 3d 44 70 08 bd 2e 52 a3 bc 6d 7f 38 3c
       0.046855003 -0.03331019 -0.019936647 0.011260849

cnn_blocks.0.convs.0.bias f4 [16]
000000 ac 84 9d 3d c0 86 cf bc 40 d3 67 3d 8a eb 66 3c
       0.07691321 -0.025332808 0.056597948 0.014094243
000010 20 39 83 3d 75 fc 1b bd 5b c8 4b bd e0 1d d9 3b
       0.0640738 -0.03808256 -0.04975162 0.006625876
000020 91 3b 88 bd 4b d7 c1 bc 2a 39 47 3d d4 38 4a 3c
       -0.066519864 -0.02366223 0.0486385 0.01234265
000030 9a 76 6f 3d 53 b6 80 bb aa 78 14 bb b8 c0 ed 3c
       0.058462717 -0.0039279847 -0.002265493 0.02902256

cnn_blocks.0.convs.1.weight f4 [16, 16, 3, 3]
000000 eb b3 0f be f4 86 1c bd 3d 58 73 3d 35 f3 00 ba
       -0.14033477 -0.03821464 0.059410322 -0.0004919053
000010 d2 ec 8b bd 89 e7 0c 3d fb ea 9f bd 2a 1b ca 3d
       -0.06832279 0.034400497 -0.07808491 0.098684624
000020 62 0d bd 3d 12 50 14 3e 24 02 84 ba 89 a3 a0 3d
       0.09231068 0.1448367 -0.0010071439 0.07843692
000030 62 4d a5 bd ca c8 cd 3d a1 b0 bf 3d 6d cf 9d ba
       -0.080714 0.10048063 0.09359861 -0.0012039967
000040 3a 98 2a 3d 25 bd 1d 3e 96 ab c6 bc 5b 1d e9 bd
       0.04164908 0.15404184 -0.02425174 -0.11382552
000050 7c 7c 05 be e3 73 2e bd ab db d7 bd 02 f5 8c 3c
       -0.13035768 -0.042590987 -0.10539945 0.017206673
000060 ec 49 d2 bd 72 1e b6 3c f5 7d 91 3d 68 2f 52 3c
       -0.10268006 0.022231314 0.071041025 0.012828685
000070 78 ab c6 3c e6 f9 7a 3b 5d 93 85 bd b4 ac 45 3d
       0.024251685 0.0038295924 -0.06522248 0.048260406
000080 96 17 c2 3d 0b 8a 0b bc b3 18 ec 3d f3 51 1a bc
       0.09477155 -0.008516799 0.115281485 -0.009418952
000090 ed 37 38 bd fc ae dd bd 8a 66 2d bd 77 04 26 bd
       -0.04497521 -0.10824391 -0.042334117 -0.0405316
0000a0 12 d9 23 bd 8d d1 84 bd 7f d6 12 3d f9 56 0e be
       -0.040001936 -0.06485281 0.03584909 -0.13900365
0000b0 20 8a 52 bd e7 28 aa 3c 05 96 f3 3d f1 e4 29 3d
       -0.051401258 0.020771457 0.11893848 0.0414781
0000c0 72 d4 00 3e 6f db de 3d a7 b3 61 3d f3 1d 82 b9
       0.12581041 0.108816974 0.05510297 -0.00024817846
0000d0 a9 bc 38 3d ce 73 1b bb 90 8c 2d 3e 3b df f7 3d
       0.045101795 -0.0023720148 0.16948152 0.12103125
0000e0 97 2b ce 3d 85 4c 9c bd bb 7b a9 3d 14 50 c4 3c
       0.10066908 -0.076317824 0.08275553 0.023963965
0000f0 cc 4d 67 bd 15 35 15 3d b3 28 31 3c a1 68 9b 3d
       -0.056470677 0.036427576 0.010812926 0.07588316
000100 d7 ae c8 3d 02 da 0f be a0 c4 6b bc 44 28 4f bd
       0.09798973 -0.14048007 -0.014390141 -0.05057551
000110 85 67 21 3b c1 21 b5 3d 31 32 19 bc 71 14 d3 bd
       0.0024628353 0.08844329 -0.0093503455 -0.10306633
000120 ed 5e de bd 08 06 4f bc 60 52 8c 3d f2 9a 3e bc
       -0.108579494 -0.012635715 0.06851649 -0.0116336215
000130 54 d6 c7 3d 78 78 79 3c 06 c4 07 3d 37 9b dc 3c
       0.09757677 0.015226476 0.033145927 0.026929481
000140 71 ad 0f 3d 6c f5 5b 3d a7 a4 ff bc 14 fa 06 3e
       0.035077516 0.05370085 -0.031206442 0.13181335
000150 cf 63 02 3c 76 8c db 3b b4 0b a5 bc cb 81 18 bd
       0.007958367 0.006700094 -0.020147182 -0.037233155
000160 63 9f ba bc 88 82 9b 3d 5f e3 4c be 20 83 30 be
       -0.02278108 0.07593256 -0.2000861 -0.1723752
000170 7f b8 79 bd 38 2b 88 3d 45 36 41 bd 08 c3 c9 bd
       -0.060966965 0.06648868 -0.047170896 -0.098516524
000180 23 45 57 bd bf d0 01 3d 2b 72 05 bd 5b 94 18 bd
       -0.05255617 0.031693216 -0.032579582 -0.037250858
000190 6b 47 ab 3d 07 a2 7e bd e9 6b 76 bd 0d 19 05 bd
       0.08363231 -0.06216624 -0.060161505 -0.032494593
0001a0 2a d6 de 3d a0 bb c6 bc 75 17 fa bd dc 0d 4d bd
       0.10880692 -0.024259388 -0.12211505 -0.050062045
0001b0 82 41 a2 3d b5 13 bd bd a3 6c c5 bd 41 1e 92 3a
       0.07922651 -0.092322744 -0.096398614 0.0011147932
0001c0 5c e2 f4 bd 75 87 d1 bd db ac d1 3c dd 8a e1 bc
       -0.11957237 -0.102309145 0.02559512 -0.027532035
0001d0 11 91 f9 bd eb 74 8d bd 2c 57 64 3d 31 05 cb bd
       -0.12185872 -0.06907066 0.055747196 -0.099130996
0001e0 c3 15 81 bd 7b c9 07 3d 84 f8 4c 3d 57 da b3 3c
       -0.06302979 0.03315113 0.05004169 0.021954698
0001f0 bf b7 88 bc e2 38 37 bd 5f 54 bc 3c af ce c5 3c
       -0.01668918 -0.044731982 0.02298945 0.024146406
000200 6b 8e fc bd df 58 48 3d 5f 80 1b 3c 3d 5b e5 bc
       -0.123318516 0.04891288 0.009491055 -0.027997607
000210 d2 f2 df 3d 7c 2f 26 3d 51 05 82 3d d8 5d 8b 3d
       0.10934986 0.04057263 0.0634867 0.06805009
000220 f7 99 cd 3d 24 99 fd 3b 58 4a 91 bd 8e e5 90 bc
       0.10039132 0.007739203 -0.07094258 -0.017687585
000230 04 d3 9e 3c 53 0e fb bd 2e 88 70 bd 6a 71 46 bd
       0.01938773 -0.122585915 -0.05872362 -0.048448004
000240 27 76 c2 bd 76 02 03 be 00 03 92 3d dd 8f 09 be
       -0.09495192 -0.12793908 0.071294785 -0.13433786
000250 46 02 a8 bd 0e d1 7f bd c2 02 80 3d ea 7f 4e 3d
       -0.082035586 -0.06245523 0.06250526 0.050414957
000260 1f c8 08 bd 74 39 4b bd 67 18 91 3d 62 3a 98 3e
       -0.033393975 -0.04961534 0.070847325 0.29732043
000270 8e 26 15 bd d2 df 2c be c2 93 e6 3c 57 bd a4 bd
       -0.03641372 -0.16882256 0.028146628 -0.08043926
000280 fc cc e1 3d d2 d3 87 3d da b3 91 bd d4 2e 15 bc
       0.11025426 0.066321984 -0.07114382 -0.009105403
000290 8e d0 10 bd 4e 24 bb bc f0 bf 5b 3d 97 e2 90 3d
       -0.035355143 -0.02284446 0.053649843 0.070744686
0002a0 97 a8 21 bd 72 0e 96 3d 9b 0e 84 bc 56 45 82 bd
       -0.03946742 0.07326974 -0.016120246 -0.06360881
0002b0 f3 aa 8e 3d 40 ff a5 bd b8 7d e1 bd 42 c5 ab 3b
       0.069662 -0.08105326 -0.11010307 0.005242021
0002c0 d8 23 b4 bc 0e 69 09 3d 05 53 02 be 41 85 a3 bd
       -0.021989748 0.033547454 -0.12726982 -0.079844005
0002d0 57 11 cf 3d 27 81 79 3d 24 e9 6c be 05 47 54 bd
       0.10110729 0.060914185 -0.23135811 -0.051825542
0002e0 1a be 0f 3d 00 f2 32 bd 28 d1 ed bd e3 72 d9 bc
       0.035093404 -0.04368782 -0.11612159 -0.02654404
0002f0 db 5d a3 bd f1 30 82 bd ed 77 50 3c 52 5c aa bc
       -0.07976886 -0.06356991 0.012723905 -0.020795975
000300 c0 7c 08 bd b8 13 9f 3c bc a9 e2 bb a8 d8 46 3e
       -0.033322096 0.019418582 -0.0069172066 0.19418585
000310 3f 80 33 ba 5d 3e ad 3d a4 40 e0 bb 13 18 8f bd
       -0.0006847418 0.084591605 -0.0068436433 -0.06987014
000320 1c ad d3 3d 7f 4e a6 3d f7 42 53 3d 24 cf 1a 3c
       0.10335752 0.08120441 0.051577535 0.0094488
000330 39 dc bc 3d 40 c4 e7 3d 97 bb f1 bc 3d e0 bb bd
       0.09221692 0.113167286 -0.029508395 -0.091736294
000340 fd f5 8e bd 2d 7b 9e bd 6a 51 0d 3e b9 80 86 3d
       -0.06980512 -0.07738338 0.13800588 0.06567521
000350 a4 dd b4 3d b9 e6 af bc 43 ce 8c 3d 0a 80 80 3d
       0.08831337 -0.021472322 0.06875279 0.062744215
000360 73 04 26 bd 64 02 7a bd aa 0e 47 bd 88 19 02 bd
       -0.040531587 -0.061037436 -0.04859797 -0.03176263
000370 1e 51 41 3d d2 fa a0 bd cd 47 9b bd c6 b3 9b 3c
       0.0471965 -0.0786034 -0.07582054 0.019006621
000380 50 f6 85 3c 11 65 25 be fa 76 8a 3d 00 95 46 3e
       0.016352803 -0.16151835 0.06760974 0.19392776
000390 85 b6 b9 3d 48 20 36 3b 55 e1 6b bd ef d8 63 bc
       0.09068016 0.0027790237 -0.05758794 -0.0139067015
0003a0 e6 5f 18 bb 95 41 fd 3c a4 8c 31 3d 19 78 e9 3b
       -0.002325052 0.030915061 0.043347016 0.0071249125
0003b0 6f 7d ea bc 27 91 79 bd 84 1b 4f bd f4 3c 2d bd
       -0.028624265 -0.060929444 -0.05056335 -0.042294458
0003c0 74 11 11 be 72 d6 cf bd fe ae e0 3c 7b 73 5b bd
       -0.14166814 -0.10148324 0.027427193 -0.053576928
0003d0 71 17 ea bd 16 22 80 bd 8b a3 9a bd 85 77 13 be
       -0.11430252 -0.062565014 -0.075507246 -0.14401062
0003e0 cf 2e 48 bc 69 3d be bd 94 68 41 bd dd 5d ea bc
       -0.012218191 -0.09289057 -0.047218874 -0.02860921
0003f0 d3 3d a7 3d 5b 64 14 3d 1d 4f e0 3d d8 9f 9a bc
       0.08166089 0.03622852 0.1095259 -0.018875048

cnn_blocks.0.convs.1.bias f4 [16]
000000 68 51 07 bd 5d e8 83 3d 5c a0 7a bc bc 23 6c 3d
       -0.03303662 0.06440804 -0.015297022 0.057651266
000010 c4 f7 9f bd 20 d8 a7 3d 71 d2 c0 bd 63 92 56 bd
       -0.078109294 0.081955194 -0.094151385 -0.0523857
000020 e8 8b 1e 3d 1e 99 1b 3d 56 14 8a bd d4 a8 af 3a
       0.038707644 0.03798782 -0.0674216 0.0013401755
000030 aa f5 1f 3c e6 a1 9c bd a8 34 57 3b 10 43 89 bd
       0.009763161 -0.07648067 0.0032837782 -0.06702244
