checkpoints/abl_cnn_rnn/best_model.pt (torch, 327585 bytes, 150 tensors)

embedder.feature_projections.0.weight f4 [32, 1]
-1.0223641 0.22727636 -0.86515427 0.83007383 0.52529234 -0.7140652 0.5013462 0.86799395
-0.6613589 0.7439358 -1.0030249 -0.7238861 -1.1016417 0.77466524 -0.8684488 -0.17258322
-0.013695194 0.4441316 0.34329587 -0.75363487 -0.89294124 -0.3519744 -1.0760949 0.12883048
-0.2529269 0.5971387 -0.35048267 1.0119418 0.92551893 -0.4662562 1.2330773 -0.66095823
00000000: d4dc 82bf 22bb 683e c07a 5dbf b87f 543f
00000010: 8f79 063f facc 36bf 3958 003f da34 5e3f
00000020: d14e 29bf 9472 3e3f 1f63 80bf 9950 39bf
00000030: 9802 8dbf 7650 463f a952 5ebf a8b9 30be
00000040: cf61 60bc 3865 e33e 7ac4 af3e 37ee 40bf
00000050: cc97 64bf fd35 b4be 7abd 89bf 23ec 033e
00000060: a27f 81be 15de 183f 7772 b3be 4f87 813f
00000070: cfee 6c3f 22b9 eebe 7ad5 9d3f 8f34 29bf

embedder.feature_projections.0.bias f4 [32]
0.43295893 -0.19675778 0.61562115 -0.22171158 -0.13306326 0.8591281 -0.34652823 -0.44070658
0.12822655 0.13077274 0.08553166 -0.84008986 0.9245548 0.7544813 0.4784273 0.7720748
0.6272847 -0.4797112 0.7904995 0.013980741 0.78726137 -0.6634127 -0.063411355 -0.39735314
-0.19463173 0.006215219 0.3614266 0.70166147 0.29376414 0.6154033 -0.82014716 -0.34720263
00000000: cbac dd3e df7a 49be 5999 1d3f 5c08 63be
00000010: bc41 08be d2ef 5b3f 266c b1be 4ba4 e1be
00000020: d24d 033e 4ae9 053e 392b af3d 2110 57bf
00000030: a0af 6c3f b025 413f 6cf4 f43e b2a6 453f
00000040: bb95 203f b59c f5be 2d5e 4a3f 7a0f 653c
00000050: f689 493f 6ad5 29bf d0dd 81bd df71 cbbe
00000060: 8a4d 47be 09a9 cb3b e80c b93e 16a0 333f
00000070: 4168 963e 128b 1d3f 2af5 51bf 8bc4 b1be

embedder.feature_projections.1.weight f4 [32, 1]
-0.13379811 -0.5138694 -0.4658178 -0.6008315 -0.51388496 0.4839725 0.8524757 0.2152682
0.7728024 0.40579754 0.56204224 0.57914436 -0.3164303 -0.66078264 -0.09905891 -0.27896053
-0.49974436 0.090005115 -0.5336163 -0.8544312 0.12745965 0.67939144 0.09134673 0.3960152
0.40698734 0.262534 -0.78708833 0.10090784 -0.2109284 0.5940103 0.32775697 -0.50453764
00000000: 5f02 09be f28c 03bf ac7f eebe 18d0 19bf
00000010: f78d 03bf 3ecb f73e d93b 5a3f 446f 5c3e
00000020: 61d6 453f b2c4 cf3e 00e2 0f3f ce42 143f
00000030: 2703 a2be 0d29 29bf 66df cabd ead3 8ebe
00000040: 7ede ffbe 9a54 b83d 149b 08bf 01bc 5abf
00000050: c884 023e 99ec 2d3f ff13 bb3d 81c2 ca3e
00000060: a560 d03e db6a 863e 9f7e 49bf c5a8 ce3d
00000070: 9dfd 57be 0f11 183f c3cf a73e 6129 01bf

embedder.feature_projections.1.bias f4 [32]
-0.05275323 0.68610746 -0.83209854 0.3510445 -0.79722387 0.28053772 0.9005751 0.2814579
0.42141336 -0.6862472 0.42094538 0.54131186 -0.7332951 -0.68198323 0.99345666 -0.2609134
0.07312013 0.19267973 0.7177703 0.63125557 0.5350212 0.090970695 -0.65940714 -0.0626972
-0.19172454 -0.82436407 -0.6378781 -0.8963479 -0.16599864 0.15823701 -0.4643709 0.9406652
00000000: c513 58bd bda4 2f3f 6904 55bf 1bbc b33e
00000010: dd16 4cbf a4a2 8f3e 178c 663f 401b 903e
00000020: 7ec3 d73e e6ad 2fbf 2786 d73e 6a93 0a3f
00000030: 3ab9 3bbf 7496 2ebf 2d53 7e3f 7196 85be
00000040: 02c0 953d d64d 453e cbbf 373f f799 213f
00000050: 26f7 083f d84e ba3d e8ce 28bf 6467 80bd
00000060: 7053 44be 8609 53bf fb4b 23bf 0e77 65bf
00000070: 8cfb 29be e208 223e 06c2 edbe 6fcf 703f

embedder.stabilizer_embedding.weight f4 [8, 32]
-0.24159938 1.0770377 1.559025 -0.2376185 -0.6474601 -0.21754974 -2.3734822 -0.75744456
0.002035848 0.43013635 -1.0264117 0.60167134 2.297093 0.3728102 -1.4591789 1.4782919
-0.28780434 -0.77545255 -0.54889125 -1.3429842 0.21031272 -0.2686022 1.0741323 1.0829028
1.1498256 2.2267792 1.0292699 -0.37866262 -1.7665312 0.8758457 1.1080004 1.119149
-0.06108407 0.10579603 -1.6702112 0.99260527 1.4694775 1.4189101 -1.1037031 -0.53771466
-1.4908376 1.1129308 0.3234169 0.58713675 -0.29281208 0.3195693 0.28212094 0.8890311
0.8132943 0.44434455 -0.95432574 -1.1526299 -1.9840336 -1.3802558 1.509533 -1.0143032
-0.049561393 -0.80128276 -0.4388096 0.8077075 -0.44923124 -0.76729995 1.2841947 2.6090822
-0.1927775 -0.82015854 -0.44726214 -0.03208225 0.92019105 0.7299597 0.6354908 0.6963836
0.18451968 0.71695524 0.9043384 2.5571275 -0.055803776 -1.2235018 0.63613915 -0.32435852
0.6851311 -1.0298642 -0.64728576 -0.34292462 0.15063599 0.48815027 0.9182924 -0.6534776
-0.15599254 -1.4028105 -1.0381039 -0.22218008 0.396037 0.3316649 0.5146506 0.13348925
1.0900863 -0.900255 0.5809228 0.4333343 0.41167906 0.94086415 -1.523895 -1.25042
0.056501552 -0.5560012 -0.36270663 -0.1060523 -0.9272199 0.18234299 -1.5087311 -0.129204
0.17671272 -1.2861286 0.37680775 0.46173283 -2.2570777 -0.81508833 -0.14681378 -1.0968474
-0.095362574 -0.009219262 -0.87509346 -0.65467316 -0.21422167 1.681815 -1.5722615 -1.0525439
-1.7781051 -0.2333197 0.42413855 -0.9796084 -1.0635204 0.6501348 -0.9137543 0.25746498
0.37779018 -0.5669208 1.1887993 0.55678785 -0.29911938 -0.13017291 -0.7758889 0.14487332
1.0395554 0.5791027 1.4524381 -1.4117198 -0.6215551 0.53680795 1.7228419 -0.3982763
0.4134396 0.13129467 -0.62365896 -1.6596676 0.24869592 -0.7619077 0.7840438 0.3213264
1.7989801 -0.6590692 -0.14611228 -0.8098998 1.3630936 0.782561 -1.4789789 0.15220857
-0.44776347 -1.5586727 -0.09580215 0.14279814 1.1137061 0.5207938 -1.1355991 -0.75905687
-1.2666278 3.2388394 -0.84846765 1.6732146 0.7334434 -0.93139094 0.866221 -1.3722174
0.5819604 -1.6036564 -1.3327771 0.19216463 0.638942 0.12035447 -0.16853233 -0.56236136
0.17198761 -1.7868754 -0.519902 -0.6719492 -0.36480096 -0.78632164 -0.13827407 0.132092
-0.4422388 -0.59624344 1.3931085 -0.34291562 0.19837278 0.2998694 -0.49573976 0.6434666
0.57238907 0.12176674 -0.29233986 2.1327212 0.69804865 0.44572276 -0.091129944 -0.033877034
-0.34556338 0.5419667 0.26117557 -0.9761774 1.0587772 0.69093966 0.19747095 -0.9568489
0.86714375 0.9116206 -0.45343727 0.03174754 -0.39145163 -0.3776835 -1.1533965 0.65073633
-0.30682218 0.7083925 0.4034452 -1.5634907 1.3290333 0.3635779 -2.8726978 -0.1608472
-0.6332724 0.96381724 -0.642064 1.3473376 -2.04905 0.32089534 -0.28549975 -0.84008574
-1.0066241 -0.8029795 0.21786761 -0.10026687 0.8086833 -0.32854968 0.19825828 -1.4567533
00000000: d465 77be 5fdc 893f 228e c73f 4452 73be
00000010: f2bf 25bf 5cc5 5ebe 22e7 17c0 e3e7 41bf
00000020: dd6b 053b d53a dc3e 7561 83bf 2207 1a3f
00000030: 9203 1340 fbe0 be3e 60c6 babf ab38 bd3f
00000040: 175b 93be 0f84 46bf 2384 0cbf e8e6 abbf
00000050: 385c 573e 3a86 89be 2b7d 893f 8f9c 8a3f
00000060: 7c2d 933f 8d83 0e40 1ebf 833f 11e0 c1be
00000070: b21d e2bf 6c37 603f f5d2 8d3f 4640 8f3f
00000080: 4a33 7abd 97ab d83d 7bc9 d5bf 611b 7e3f
00000090: d717 bc3f d99e b53f 2546 8dbf aba7 09bf
000000a0: c4d3 bebf 8474 8e3f e696 a53e 984e 163f
000000b0: 77eb 95be 969e a33e 2872 903e 8b97 633f
000000c0: 0e34 503f 2181 e33e b14e 74bf 6089 93bf
000000d0: d0f4 fdbf 39ac b0bf 6138 c13f b0d4 81bf
000000e0: e300 4bbd de20 4dbf a7ab e0be ebc5 4e3f
000000f0: a301 e6be c56d 44bf 7e60 a43f 34fb 2640
00000100: 7767 45be e9f5 51bf 8bff e4be ad68 03bd
00000110: a491 6b3f a4de 3a3f 86af 223f 3246 323f
00000120: baf2 3c3e 618a 373f b982 673f faa7 2340
00000130: 8092 64bd b59b 9cbf 04da 223f 5212 a6be
00000140: c064 2f3f 97d2 83bf 85b4 25bf d193 afbe
00000150: 5240 1a3e d5ee f93e 3615 6b3f 4f4a 27bf
00000160: 82bc 1fbe 4b8f b3bf 97e0 84bf 2d83 63be
00000170: 5dc5 ca3e fbcf a93e 24c0 033f 68b1 083e
00000180: f387 8b3f 1d77 66bf 5bb7 143f fedd dd3e
00000190: 99c7 d23e 79dc 703f fe0e c3bf c30d a0bf
000001a0: 2c6e 673d 1856 0ebf afb4 b9be f331 d9bd
000001b0: 495e 6dbf 1fb8 3a3e 1a1e c1bf 0e4e 04be
000001c0: 2ef4 343e dd9f a4bf f2ec c03e 3f68 ec3e
000001d0: f673 10c0 a1a9 50bf 5a56 16be 7f65 8cbf
000001e0: 744d c3bd 630c 17bc 2006 60bf a998 27bf
000001f0: ed5c 5bbe b745 d73f dd3f c9bf c2b9 86bf
00000200: f398 e3bf 5ceb 6ebe b028 d93e 9ec7 7abf
00000210: 7021 88bf 3c6f 263f cdeb 69bf 73d2 833e
00000220: b76d c13e b921 11bf 932a 983f a689 0e3f
00000230: 2d26 99be 0c4c 05be a8a0 46bf ac59 143e
00000240: 2710 853f 1340 143f 7ee9 b93f 3cb3 b4bf
00000250: 3c1e 1fbf 3f6c 093f 1586 dc3f dfea cbbe
00000260: 5bae d33e 1c72 063e 1da8 1fbf fd6f d4bf
00000270: 25aa 7e3e 620c 43bf 18b7 483f e584 a43e
00000280: fb44 e63f c2b8 28bf 759e 15be 9855 4fbf
00000290: da79 ae3f eb55 483f 2e4f bdbf 90dc 1b3e
000002a0: 4141 e5be 9682 c7bf eb33 c4bd ad39 123e
000002b0: ec8d 8e3f be52 053f 505b 91bf 8d51 42bf
000002c0: dc20 a2bf 2549 4f40 2d35 59bf e52b d63f
000002d0: f2c2 3b3f a36f 6ebf a9c0 5d3f d2a4 afbf
000002e0: 5bfb 143f 9d44 cdbf 7198 aabf cec6 443e
000002f0: b491 233f 687c f63d bd93 2cbe eaf6 0fbf
00000300: 851d 303e 55b8 e4bf 4c18 05bf dd04 2cbf
00000310: 31c7 babe 604c 49bf b897 0dbe 2043 073e
00000320: 206d e2be 69a3 18bf 6151 b23f a392 afbe
00000330: 3c22 4b3e 7b88 993e 9ad1 fdbe 3aba 243f
00000340: 1788 123f d760 f93d 92ad 95be 817e 0840
00000350: 51b3 323f c635 e43e 56a2 babd a5c2 0abd
00000360: afed b0be 54be 0a3f ceb8 853e c3e6 79bf
00000370: 0386 873f 6ce1 303f d335 4a3e 0df4 74bf
00000380: 22fd 5d3f f85f 693f ee28 e8be b509 023d
00000390: 596c c8be bb5f c1be 7fa2 93bf a896 263f
000003a0: cc17 9dbe 3659 353f 5f90 ce3e 7720 c8bf
000003b0: c31d aa3f e226 ba3e 48da 37c0 21b5 24be
000003c0: 241e 22bf babc 763f 4e5e 24bf 8f75 ac3f
000003d0: a323 03c0 654c a43e 062d 92be dc0f 57bf
000003e0: 0fd9 80bf 1190 4dbf b018 5f3e b758 cdbd
000003f0: de05 4f3f aa37 a8be 3804 4b3e e476 babf

embedder.res_block.0.weight f4 [32]
1.0142691 1.0224382 1.0082799 1.0304329 0.96199906 0.94792926 1.0469854 1.128631
1.0975475 1.0534967 1.099202 1.0451136 1.1105708 1.0898013 1.0508218 0.98596007
1.0593971 1.0602837 0.9907587 1.0503011 1.0581442 0.9991472 1.1281271 0.97295135
1.0335922 1.0192422 1.0177627 1.0767434 1.0132335 0.99611557 1.1162293 1.0843383
00000000: 92d3 813f 41df 823f 510f 813f 3ae5 833f
00000010: 9245 763f 7eab 723f 9e03 863f fb76 903f
00000020: 707c 8c3f fbd8 863f a7b2 8c3f 48c6 853f
00000030: 2f27 8e3f 9c7e 8b3f 5481 863f e167 7c3f
00000040: 539a 873f 60b7 873f 5da2 7d3f 4470 863f
00000050: 4571 873f 1cc8 7f3f 7866 903f 5713 793f
00000060: c04c 843f 8776 823f 0c46 823f bad2 893f
00000070: a3b1 813f 6e01 7f3f 9ae0 8e3f 99cb 8a3f

embedder.res_block.0.bias f4 [32]
0.0038649137 -0.036107875 -0.028667131 0.04900947 0.03104282 -0.04362812 0.018166434 0.022124505
-0.005401121 0.027282815 -0.023306359 0.050971683 0.0006055399 -0.015985802 -0.0020837095 -0.023073997
0.018563554 0.002729457 -0.065007746 -0.0042264014 -0.010175507 0.013162424 -0.016621338 0.02284235
0.009176697 0.013199733 -0.010549738 0.017806802 -0.0034569376 0.014020699 -0.0020756398 0.024630817
00000000: 7e4a 7d3b dae5 13bd 55d7 eabc 27be 483d
00000010: 834d fe3c 66b3 32bd c6d1 943c 733e b53c
00000020: e3fb b0bb 3680 df3c faec bebc afc7 503d
00000030: 18bd 1e3a a8f4 82bc d88e 08bb ae05 bdbc
00000040: 9812 983c b1e0 323b c822 85bd a07d 8abb
00000050: 2bb7 26bc 35a7 573c 7929 88bc e11f bb3c
00000060: db59 163c b143 583c cfd8 2cbc 92df 913c
00000070: ca8d 62bb 13b7 653c 7507 08bb 91c6 c93c

embedder.res_block.1.weight f4 [32, 32]
0.14332387 0.07652649 0.12969969 -0.14122456 -0.14070673 -0.16521029 0.029393487 -0.15718429
-0.22511509 -0.117004566 0.18261442 -0.07830155 -0.14628163 0.030508477 0.13434881 0.10203164
-0.06890075 -0.17411344 -0.1169557 0.10988377 0.10392128 0.020261582 0.036676113 0.0029235983
-0.024693113 -0.023159165 0.05905163 -0.110214785 0.12358713 -0.06135716 0.024508866 -0.044269335
0.0063996087 -0.04460712 -0.09572426 0.111833915 -0.08614711 0.010606158 -0.15736264 -0.08969726
-0.01750977 -0.14343809 0.039411273 0.062115967 -0.008532517 -0.17821395 0.119394824 0.20504394
-0.16457349 0.030935997 -0.040800557 0.11913352 0.19352567 -0.028488496 -0.033721443 0.13200676
-0.08070861 -0.08484417 -0.06553462 -0.17897595 -0.07968772 -0.09516754 0.07387464 0.19547594
-0.213598 0.21475291 0.07119616 -0.04821103 0.06961657 0.06397794 0.16690204 0.03866211
0.16718112 0.15713696 -0.14363465 0.17527963 0.043965667 -0.013942687 -0.25601712 -0.022935754
-0.09240048 -0.26395854 0.14274947 -0.1608134 -0.027234763 0.16647713 0.08200973 0.27139515
-0.0864744 0.057194047 -0.20877188 0.104966804 0.123867296 0.07795888 0.2852954 -0.27570993
-0.050094496 0.17769425 0.13939849 0.096649356 -0.1724794 -0.13956253 -0.10668607 -0.0745376
0.0019417435 -0.007932645 0.20787457 -0.1878617 0.2338838 -0.051567994 -0.019285737 -0.113134384
-0.16995728 0.00050937245 0.08816934 0.15874833 -0.15776637 -0.012432035 0.003080597 -0.16888486
0.11506831 -0.026421688 0.06171887 0.103387736 -0.15323815 -0.0782283 0.02272485 -0.15057659
0.18459259 0.21454121 0.0043404857 -0.15086521 0.06609439 0.106840976 0.17502353 -0.025144072
0.004084828 0.07964908 0.18031323 0.012667338 0.05474367 0.03707906 0.1756139 0.10617342
-0.16116321 0.024626888 -0.034484953 0.15689273 -0.15077129 -0.037279844 0.03201611 0.067145474
-0.10768573 -0.13040654 0.14997117 -0.107997514 0.10450123 0.07221295 0.01707457 -0.06607787
0.12721652 0.18495013 0.07143096 -0.064494126 -0.107583344 0.09905254 -0.1847993 -0.13086863
-0.10717228 0.05221756 0.19233537 -0.054799374 0.23194605 -0.054557312 0.0034906475 -0.033080515
-0.2206646 0.10283501 0.019730736 0.008261854 -0.16369332 0.17432712 0.080225594 -0.15278818
-0.1344773 0.021889422 -0.01592042 -0.14883924 -0.010417474 -0.1415589 0.058694687 -0.09707775
-0.11322535 -0.12528189 -0.098280706 -0.048943907 0.178206 -0.0010842248 -0.06478846 -0.08378108
-0.12874958 0.17037007 0.016870396 -0.047647476 0.095551945 -0.05570066 -0.04526224 0.14558716
-0.042216327 0.06528927 -0.12021635 -0.13435562 -0.18000783 -0.19100176 0.27049002 0.010854221
-0.12281845 -0.12860338 0.08013363 0.16619813 0.09249131 -0.0040897783 -0.0333903 0.139488
-0.21288735 0.15909214 0.035449542 0.28345558 -0.13876428 0.16475575 0.1958905 0.079112045
0.10423208 0.34925276 -0.2820673 0.07013862 -0.2853238 0.22173627 -0.053950746 0.15742058
0.19304441 -0.18298692 0.25422424 -0.09279055 0.012966824 -0.12610468 -0.24586874 0.07132785
-0.074428424 0.1959191 -0.0263873 0.21891792 -0.042637832 -0.039033163 0.26099947 -0.18545511
00000000: 7ec3 123e ecb9 9c3d ffcf 043e 2c9d 10be
00000010: 6d15 10be e32c 29be 9cca f03c ebf4 20be
00000020: 9284 66be 17a0 efbd 46ff 3a3e 905c a0bd
00000030: daca 15be eaec f93c bc92 093e f7f5 d03d
00000040: d61b 8dbd cb4a 32be 7886 efbd be0a e13d
00000050: aed4 d43d 9efb a53c b139 163d d799 3f3b
00000060: 3649 cabc 4ab8 bdbc 1fe0 713d 4ab8 e1bd
00000070: 401b fd3d a551 7bbd d1c6 c83c c353 35bd
00000080: cfb3 d13b f5b5 36bd 150b c4bd 2e09 e53d
00000090: e56d b0bd 73c5 2d3c ac23 21be 32b3 b7bd
000000a0: a670 8fbc 6fe1 12be b76d 213d 506d 7e3d
000000b0: f8cb 0bbc b87d 36be 4685 f43d 0af7 513e
000000c0: f485 28be 7d6d fd3c 7c1e 27bd 46fc f33d
000000d0: 982b 463e b560 e9bc 7f1f 0abd c82c 073e
000000e0: 8e4a a5bd c8c2 adbd 0437 86bd 7945 37be
000000f0: 5133 a3bd 33e7 c2bd 964b 973d d82a 483e
00000100: 6fb9 5abe 30e8 5b3e 4bcf 913d ee78 45bd
00000110: 2293 8e3d de06 833d 5ee8 2a3e 295c 1e3d
00000120: 8731 2b3e 83e8 203e f614 13be 817c 333e
00000130: 5815 343d de6f 64bc ad14 83be c3e3 bbbc
00000140: 763c bdbd 9325 87be eb2c 123e 45ac 24be
00000150: 701b dfbc fb78 2a3e b8f4 a73d 4ef4 8a3e
00000160: 7d19 b1bd 4e44 6a3d 4cc8 55be d6f8 d63d
00000170: 23ae fd3d e8a8 9f3d 3d12 923e da29 8dbe
00000180: e32f 4dbd 7bf5 353e 7abe 0e3e 19f0 c53d
00000190: 719e 30be 7be9 0ebe 3a7e dabd 2ba7 98bd
000001a0: 1a82 fe3a edf7 01bc 12dd 543e d15e 40be
000001b0: 3c7f 6f3e f638 53bd 1ffd 9dbc 00b3 e7bd
000001c0: 4809 2ebe 6887 053a 2092 b43d ec8e 223e
000001d0: 828d 21be bcaf 4bbc d7e3 493b 27f0 2cbe
000001e0: efa8 eb3d 4c72 d8bc edcc 7c3d f3bc d33d
000001f0: 76ea 1cbe 2936 a0bd 7729 ba3c c030 1abe
00000200: d705 3d3e b1b0 5b3e a23a 8e3b 697c 1abe
00000210: 7f5c 873d 71cf da3d 5e39 333e f1fa cdbc
00000220: 05da 853b 0f1f a33d 08a4 383e ab8a 4f3c
00000230: e63a 603d 36e0 173d 21d4 333e 7371 d93d
00000240: f807 25be 54be c93c 1840 0dbd 7da8 203e
00000250: ca63 1abe c0b2 18bd 5323 033d 9183 893d
00000260: 568a dcbd 4b89 05be 0b92 193e cd2d ddbd
00000270: be04 d63d 62e4 933d f8df 8b3c d653 87bd
00000280: 0c45 023e 9163 3d3e 654a 923d 7f15 84bd
00000290: a854 dcbd 0fdc ca3d 073c 3dbe 6d02 06be
000002a0: 247d dbbd 15e2 553d 90f3 443e 4f75 60bd
000002b0: 4483 6d3e 7d77 5fbd 59c3 643b 6f7f 07bd
000002c0: e7f5 61be 299b d23d 5aa2 a13c ba5c 073c
000002d0: 399f 27be cf82 323e 514d a43d 8174 1cbe
000002e0: 6bb4 09be 7251 b33c 8a6b 82bc 5069 18be
000002f0: 0eae 2abc d1f4 10be d769 703d b3d0 c6bd
00000300: b1e2 e7bd e549 00be 6547 c9bd 6879 48bd
00000310: a27b 363e 8c1c 8eba d0af 84bd 6a95 abbd
00000320: eed6 03be 7e75 2e3e c933 8a3c 002a 43bd
00000330: bdb0 c33d 6026 64bd e664 39bd cd14 153e
00000340: 07eb 2cbd 61b6 853d fd33 f6bd 8594 09be
00000350: f953 38be f795 43be ab7d 8a3e e7d5 313c
00000360: 3d88 fbbd 9bb0 03be 1a1d a43d d82f 2a3e
00000370: 156c bd3d 8c03 86bb 44c4 08bd f1d5 0e3e
00000380: 24ff 59be 0de9 223e 8a33 113d 1721 913e
00000390: 3918 0ebe bbb5 283e 8597 483e 7f05 a23d
000003a0: a177 d53d 42d1 b23e 206b 90be d6a4 8f3d
000003b0: f615 92be d50e 633e 75fb 5cbd dc32 213e
000003c0: 6fad 453e ec60 3bbe ae29 823e f908 bebd
000003d0: cd72 543c 9621 01be 04c5 7bbe 5614 923d
000003e0: ee6d 98bd 049f 483e 2e2a d8bc 052c 603e
000003f0: 02a5 2ebd 3de1 1fbd b9a1 853e f2e7 3dbe

embedder.res_block.1.bias f4 [32]
-0.095776156 0.05816175 -0.12954938 0.11043756 0.051744003 0.13737366 0.08471164 -0.09357546
0.09676322 0.028763155 -0.0607745 -0.051409267 -0.022042647 -0.046339925 0.15104775 0.14698498
0.14072448 0.069641255 -0.09554528 0.10163256 -0.16794685 0.15720841 -0.022737669 0.16836491
0.076255925 -0.091897584 0.07316613 0.15411334 -0.09935242 -0.13730843 0.15305054 0.034882396
00000000: 4a26 c4bd 043b 6e3d 98a8 04be 162d e23d
00000010: 85f1 533d aeab 0c3e 4c7d ad3d 7ea4 bfbd
00000020: cc2b c63d b5a0 eb3c afee 78bd 8692 52bd
00000030: c892 b4bc efce 3dbd 43ac 1a3e 3b83 163e
00000040: 141a 103e 13a0 8e3d 3ead c3bd bb24 d03d
00000050: 42fa 2bbe 3efb 203e 5944 babc da67 2c3e
00000060: 112c 9c3d cd34 bcbd 20d8 953d e3cf 1d3e
00000070: 4879 cbbd 959a 0cbe 48b9 1c3e d8e0 0e3d

embedder.res_block.3.weight f4 [32, 32]
-0.064888015 0.030239018 -0.42132267 -0.10048174 -0.11846134 0.101857014 -0.13053231 -0.020167517
0.02496785 -0.21488751 -0.086895026 -0.053304806 -0.103694744 -0.06557461 -0.052095406 0.09699266
-0.038876116 0.063703164 0.118915886 0.17609636 0.09272469 -0.1485043 0.004011421 0.05862921
-0.037386548 -0.17890713 0.14727692 0.08659151 -0.1879558 0.069634914 0.17757332 0.06630239
-0.10798514 -0.09973361 0.2747908 -0.014457953 0.029501522 0.08029636 -0.0964607 0.019372195
0.026759824 0.065257974 0.05626152 0.14177 -0.027671374 0.02787551 -0.055763822 0.037948787
-0.15919825 -0.0915293 0.050924852 -0.065698355 -0.15891221 0.05051919 0.19240361 0.021750843
-0.122517675 -0.1063145 -0.10122093 0.07377511 -0.021632582 0.15763395 0.046999056 0.22680414
-0.08815612 0.14629067 0.13025254 0.12678826 -0.14578752 -0.15109347 0.009494714 -0.22439067
0.093187444 0.023461923 0.038188726 -0.052791774 0.088843055 -0.0129802255 0.092868544 0.08696747
-0.13823058 0.13145593 0.06633386 0.0403011 -0.028479384 -0.046017364 -0.088061616 -0.10644278
-0.15426242 0.17376444 -0.014192376 0.1511053 0.24821952 -0.14311938 0.13224266 -0.04659905
0.21345803 -0.09621993 -0.021132382 -0.20944825 -0.049832154 -0.21635194 -0.073905304 0.0044401507
0.19555861 0.2791275 -0.015826426 0.10255505 -6.0187303e-05 0.24658893 0.090470925 -0.028500553
-0.05142862 -0.055161603 -0.056106403 0.10991409 -0.018291116 -0.16535398 0.015375785 0.14988884
-0.06175566 -0.10835749 -0.14405051 0.15238275 -0.021433974 -0.10203907 -0.05686023 0.20317529
0.12473264 0.13265274 -0.08386386 0.09895561 -0.14627317 0.109839834 -0.1687825 0.042952247
0.059592422 0.014234976 -0.18838969 0.1471222 0.12577632 0.045204077 -0.1164378 -0.03608371
0.028770283 -0.18673004 -0.11950279 -0.03576724 0.04751863 0.12123512 0.04441478 0.010356232
-0.12726523 0.113688976 0.030268414 -0.13439767 0.08026064 0.12718064 -0.04411849 -0.10193462
-0.041530553 -0.009186679 0.11098349 -0.044184756 -0.078991465 -0.08534893 0.09746946 0.08354436
-0.10549946 -0.094611876 0.09220875 -0.05856676 -0.06002146 -0.16749756 0.1389906 -0.13159907
0.0043036146 0.048527367 -0.2096646 0.03702931 -0.010550977 -0.14902721 0.24196465 -0.12903467
0.14574689 -0.06950528 0.03953659 0.12283444 0.05568049 -0.07838894 -0.08088106 -0.28472936
0.08527452 -0.13929981 0.009380236 -0.20913942 0.09220637 -0.07021993 -0.14122887 0.23023163
-0.0869827 -0.089998886 0.17244738 -0.08870301 0.032493565 0.12972973 -0.21107335 -0.1430998
0.09117726 0.17160805 0.11927956 -0.044560667 -0.03695651 0.08940784 0.2578982 0.055940937
-0.050490323 -0.16588111 0.007629565 -0.05317293 0.04055055 -0.19958939 -0.07697715 -0.10976424
0.02279822 -0.031189103 -0.15591364 0.053934466 -0.14940965 -0.07167072 -0.020280333 0.19083878
0.05335016 0.20102559 -0.0999568 0.031674225 -0.079528034 -0.13967401 -0.18633474 0.0652536
0.10587803 -0.16600482 -0.16829148 0.18556851 -0.062190212 0.031138023 0.029773632 0.14129125
0.07872121 -0.07259903 0.022962192 -0.021223819 0.10360484 0.031781506 -0.003822623 0.14744727
00000000: 02e4 84bd d1b7 f73c 9bb7 d7be 5fc9 cdbd
00000010: dc9b f2bd 699a d03d 43aa 05be 5936 a5bc
00000020: 6089 cc3c 790b 5cbe 05f6 b1bd 2456 5abd
00000030: e95d d4bd fb4b 86bd fe61 55bd 16a4 c63d
00000040: 903c 1fbd ce76 823d 2c8a f33d 9b52 343e
00000050: 71e6 bd3d 8311 18be 3d72 833b 2f25 703d
00000060: a322 19bd 6e33 37be c3cf 163e e456 b13d
00000070: 7c77 40be c09c 8e3d c8d5 353e 8cc9 873d
00000080: 5027 ddbd 2341 ccbd 61b1 8c3e 0de1 6cbc
00000090: 2dad f13c 6b72 a43d 308d c5bd 70b2 9e3c
000000a0: 6b37 db3c f9a5 853d 7b72 663d 282c 113e
000000b0: 14af e2bc 2e5b e43c 9b68 64bd 3070 1b3d
000000c0: de04 23be b773 bbbd 9496 503d dc8c 86bd
000000d0: e2b9 22be 36ed 4e3d 7405 453e d32e b23c
000000e0: 8cea fabd 6bbb d9bd eb4c cfbd 6817 973d
000000f0: d036 b1bc cb6a 213e 1582 403d 583f 683e
00000100: 328b b4bd 39cd 153e ec60 053e c8d4 013e
00000110: 5349 15be 3fb8 1abe b88f 1b3c abc6 65be
00000120: 0fd9 be3d 3833 c03c c86b 1c3d 303c 58bd
00000130: 59f3 b53d 03ab 54bc dd31 be3d 001c b23d
00000140: 518c 0dbe 629c 063e 0cda 873d c412 253d
00000150: 994d e9bc b47c 3cbd a659 b4bd acfe d9bd
00000160: f8f6 1dbe 4eef 313e 2487 68bc 59bb 1a3e
00000170: 422d 7e3e e38d 12be 9f6a 073e a5de 3ebd
00000180: be94 5a3e f40e c5bd d11d adbc 9a79 56be
00000190: cd1c 4cbd 5d8b 5dbe aa5b 97bd af7e 913b
000001a0: 8440 483e cde9 8e3e 6ca6 81bc 6208 d23d
000001b0: a071 7cb8 cf81 7c3e d248 b93d fe79 e9bc
000001c0: d1a6 52bd 22f1 61bd d4cf 65bd a31a e13d
000001d0: 40d7 95bc 8e52 29be b7ea 7b3c 767c 193e
000001e0: 81f3 7cbd 88ea ddbd fa81 13be 390a 1c3e
000001f0: 4d96 afbc dcf9 d0bd 46e6 68bd 2f0d 503e
00000200: d473 ff3d 1fd6 073e d1c0 abbd 3da9 ca3d
00000210: a2c8 15be b5f3 e03d 52d5 2cbe b2ee 2f3d
00000220: 2f17 743d d139 693c 3ae9 40be 34a7 163e
00000230: 82cb 003e e927 393d f176 eebd 83cc 13bd
00000240: a8af eb3c 2936 3fbe e1bd f4bd ab80 12bd
00000250: e5a2 423d 1e4a f83d 46ec 353d 2fad 293c
00000260: d151 02be c4d5 e83d 77f5 f73c 8b9f 09be
00000270: b15f a43d a43b 023e 97b5 34bd 19c3 d0bd
00000280: f11b 2abd b983 16bc 504b e33d 13fb 34bd
00000290: 47c6 a1bd 6bcb aebd 119e c73d 4e19 ab3d
000002a0: 1a10 d8bd dfc3 c1bd f1d7 bc3d b3e3 6fbd
000002b0: 10d9 75bd 7b84 2bbe 8d53 0e3e e8c1 06be
000002c0: 5605 8d3b a2c4 463d 51b2 56be 0cac 173d
000002d0: 01de 2cbc 979a 18be 95c5 773e aa21 04be
000002e0: ac3e 153e c958 8ebd 1ff1 213d 9f90 fb3d
000002f0: 3a11 643d 618a a0bd f8a4 a5bd 0cc8 91be
00000300: 68a4 ae3d 9ca4 0ebe 90af 193c a528 56be
00000310: b1d6 bc3d 77cf 8fbd 4d9e 10be d7c1 6b3e
00000320: fc23 b2bd 5651 b8bd 0c96 303e eca9 b5bd
00000330: f917 053d dfd7 043e 9d23 58be c188 12be
00000340: 25bb ba3d 05ba 2f3e d848 f43d 3f85 36bd
00000350: b65f 17bd 751b b73d 3c0b 843e 5322 653d
00000360: f1ce 4ebd bddc 29be 6e01 fa3b dccb 59bd
00000370: 5518 263d 2961 4cbe 32a6 9dbd 13cc e0bd
00000380: 55c3 ba3c 4a80 ffbc d3a7 1fbe 63ea 5c3d
00000390: d8fe 18be 19c8 92bd f122 a6bc 3e6b 433e
000003a0: b385 5a3d a7d9 4d3e 27b6 ccbd d5bc 013d
000003b0: 98df a2bd b406 0fbe 89ce 3ebe aea3 853d
000003c0: 95d6 d83d 2bfd 29be 9a54 2cbe ac05 3e3e
000003d0: 2abb 7ebd 2b15 ff3c d5e7 f33c a7ae 103e
000003e0: 9638 a13d cdae 94bd 351b bc3c 93dd adbc
000003f0: c62e d43d 532d 023d f984 7abb 6bfc 163e

embedder.res_block.3.bias f4 [32]
-0.15505102 0.13127454 0.0045557474 -0.09802584 0.13444814 0.08657987 0.118467785 0.04864202
-0.06678803 -0.025915133 -0.10114841 0.1498579 -0.015152398 -0.14747047 0.13651764 0.06776923
-0.08932842 -0.095231704 -0.13332477 -0.024249092 -0.11880748 0.10123545 -0.12914157 -0.099517874
-0.2033489 -0.07359665 0.013816017 0.046409342 -0.048354045 0.012447502 0.066358864 -0.020720951
00000000: b2c5 1ebe d56c 063e 6148 953b c6c1 c8bd
00000010: c6ac 093e c950 b13d 3d9f f23d db3c 473d
00000020: 2ac8 88bd f94b d4bc e626 cfbd 5974 193e
00000030: c341 78bc 8002 17be 48cb 0b3e 98ca 8a3d
00000040: d2f1 b6bd d708 c3bd 4a86 08be 08a6 c6bc
00000050: 5651 f3bd 8854 cf3d b03d 04be 07d0 cbbd
00000060: b23a 50be d7b9 96bd 935c 623c b917 3e3d
00000070: e40e 46bd 9cf0 4b3c 28e7 873d fcbe a9bc

cnn_blocks.0.proj_in.weight f4 [16, 32]
-0.013686192 -0.027490314 0.09218553 0.08854441 0.015815765 0.14755864 -0.11929489 -0.15207176
0.117008805 -0.0619666 -0.1255153 0.17170544 0.087372564 0.008614173 0.0071422793 0.018641716
0.10700181 0.041061107 0.09739832 0.070291996 -0.070028 -0.025965557 0.09430795 0.069896296
0.0067365207 0.1198566 0.0049744714 0.11564924 0.08743334 0.028836785 0.16675307 0.07201508
0.12910129 -0.011673147 0.10005857 -0.15182418 0.14258066 -0.072512396 -0.03768987 -0.12117957
-0.12902546 0.007333073 -0.036740255 -0.009132095 -0.0146875465 -0.057128895 -0.12274956 -0.12591304
-0.039722737 -0.17228425 -0.038739655 -0.050538126 -0.0015415333 -0.10575074 -0.122903585 0.08531509
-0.10665735 -0.16683893 0.13104886 0.10511113 0.0081608975 0.05220694 0.1559123 0.108227916
-0.08761302 -0.14644754 0.0072942725 0.047666214 -0.047386277 0.07737602 -0.026713207 0.1456885
-0.120203815 -0.06636716 -0.18104479 -0.030231314 -0.014842863 -0.1882386 -0.058856834 0.049854904
0.1620096 -0.098700725 0.035140645 -0.066837825 -0.06409252 -0.07210749 -0.07999964 0.051882718
0.014293606 0.04220271 0.05501267 -0.11791506 -0.17991014 -0.17117395 0.007203131 0.16193469
0.13201234 0.11589981 0.10920172 -0.08723363 0.13297246 -0.12728693 -0.041220948 -0.07449462
-0.1480079 0.003645562 -0.07595976 -0.12269581 -0.0053244913 0.16118215 -0.0055330773 -0.16167428
0.1524883 0.019634381 0.08417807 -0.024199618 0.08872802 0.13100483 0.10153159 0.17737481
-0.10439867 0.15219805 0.09396899 -0.062535636 0.011299945 0.02316395 -0.10161343 -0.086121656
0.005251304 0.15521242 -0.009980045 -0.09625534 -0.1865709 -0.045979716 -0.11040593 -0.088532984
-0.18577538 0.020768024 0.17056398 -0.08232424 0.17899606 0.14845315 0.14086363 0.03206363
-0.1263278 0.021546666 -0.20704204 -0.23653334 -0.06029161 0.018732345 -0.09370095 -0.073005125
0.1607025 -0.13061093 0.085658036 0.10769083 -0.01349915 0.040750958 0.18646602 0.10976992
-0.029517487 -0.17740268 0.086564355 -0.09144727 -0.020077834 -0.1562747 0.0077218767 -0.07077971
-0.07736389 0.014668203 0.058388967 -0.025013782 0.07247414 0.09361224 -0.09903917 -0.117110044
-0.004940992 0.013912813 0.027891183 -0.17743264 -0.037904173 -0.13378765 0.117885634 -0.055949852
-0.1465795 -0.19437604 -0.0756796 0.087565094 -0.017782336 -0.111108534 0.121412955 -0.09074005
-0.14479458 -0.14380817 0.14066102 -0.024247615 0.004072818 -0.055981256 0.031056503 0.062048316
-0.08284978 0.13034973 0.11880871 0.039028414 0.010403752 0.11561367 0.20008059 -0.12243804
-0.15573055 -0.080266826 0.018870268 0.15806748 0.057896852 -0.0058103874 -0.14146338 -0.04938013
0.045151703 -0.14156814 0.14752424 -0.0045485613 -0.0822063 -0.09466258 -0.06202514 -0.11698526
0.053679913 0.025303148 -0.19485156 -0.080093354 0.12894878 -0.13654904 -0.05693137 -0.15914267
-0.0814835 -0.1322613 0.11597603 0.19630626 0.06747943 -0.13401549 -0.11969971 -0.17100419
-0.15125246 0.11353564 -0.024792176 -0.15499444 0.0034570675 0.120520696 0.19779927 -0.104882106
0.1415421 0.119513 0.11464926 0.11772957 -0.03741078 0.084970936 0.07945853 0.122538164
00000000: 0d3c 60bc 5e33 e1bc c4cb bc3d c656 b53d
00000010: 1090 813c 9d19 173e e150 f4bd b3b8 1bbe
00000020: 50a2 ef3d b1d0 7dbd 1587 00be 8dd3 2f3e
00000030: 63f0 b23d 7622 0d3c c809 ea3b 83b6 983c
00000040: c423 db3d b12f 283d c578 c73d 40f5 8f3d
00000050: d76a 8fbd b8b5 d4bc 8724 c13d ca25 8f3d
00000060: 08be dc3b 6177 f53d e400 a33b 82d9 ec3d
00000070: 4010 b33d 1f3b ec3c 51c1 2a3e a47c 933d
00000080: 2133 043e ba40 3fbc 82eb cc3d cc77 1bbe
00000090: aa00 123e 6181 94bd b160 1abd ff2c f8bd
000000a0: 401f 04be 464a f03b f37c 16bd c89e 15bc
000000b0: 09a4 70bc fdff 69bd 1f64 fbbd 59ef 00be
000000c0: 4fb4 22bd 486b 30be 79ad 1ebd 1101 4fbd
000000d0: 460d caba d893 d8bd e0b4 fbbd aeb9 ae3d
000000e0: 2b6f dabd d3d7 2abe ac31 063e 8144 d73d
000000f0: 49b5 053c f2d6 553d 79a7 1f3e 99a6 dd3d
00000100: 746e b3bd 58f6 15be cb04 ef3b a63d 433d
00000110: 1d18 42bd 5277 9e3d a8d5 dabc 5e2f 153e
00000120: 6b2d f6bd 81eb 87bd ce63 39be a9a7 f7bc
00000130: 7b2f 73bc 9fc1 40be dd13 71bd a834 4c3d
00000140: d8e5 253e 9b23 cabd a3ef 0f3d 45e2 88bd
00000150: f042 83bd 17ad 93bd dad6 a3bd f982 543d
00000160: bb2f 6a3c c0dc 2c3d f754 613d 737d f1bd
00000170: 5d3a 38be 3948 2fbe 3e08 ec3b 35d2 253e
00000180: 3e2e 073e e15c ed3d 27a5 df3d 8ca7 b2bd
00000190: ef29 083e 8157 02be 4cd7 28bd a390 98bd
000001a0: 628f 17be 62ea 6e3b ca90 9bbd f147 fbbd
000001b0: 1279 aebb ef0c 253e d14e b5bb f18d 25be
000001c0: e525 1c3e 48d8 a03c 8d65 ac3d 473e c6bc
000001d0: 09b7 b53d 2126 063e cbef cf3d bea1 353e
000001e0: f8ce d5bd ced9 1b3e d072 c03d af12 80bd
000001f0: 6823 393c 53c2 bd3c b41a d0bd 8d60 b0bd
00000200: 2113 ac3b 01f0 1e3e 5883 23bc 8521 c5bd
00000210: 710c 3fbe 3a55 3cbd 811c e2bd c850 b5bd
00000220: e73b 3ebe b421 aa3c 53a8 2e3e 9c99 a8bd
00000230: be4a 373e 1a04 183e 8e3e 103e 2755 033d
00000240: 135c 01be a282 b03c d402 54be cc35 72be
00000250: 56f4 76bd 9374 993c 49e6 bfbd b683 95bd
00000260: 328f 243e dfbe 05be 7b6d af3d 038d dc3d
00000270: 8a2b 5dbc 7aea 263d f3f0 3e3e 0dcf e03d
00000280: a8ce f1bc 0ca9 35be a748 b13d b548 bbbd
00000290: 457a a4bc 7a06 20be cc07 fd3b f4f4 90bd
000002a0: f670 9ebd e752 703c 4529 6f3d b4e9 ccbc
000002b0: 526d 943d c6b7 bf3d 0cd5 cabd 64d7 efbd
000002c0: 0ce8 a1bb 91f2 633c 0d7c e43c e7b0 35be
000002d0: 6841 1bbd a1ff 08be 066e f13d ac2b 65bd
000002e0: f018 16be 830a 47be e8fd 9abd 5455 b33d
000002f0: 43ac 91bc df8c e3bd 5ba7 f83d ebd5 b9bd
00000300: 0845 14be 7342 13be 7109 103e efa2 c6bc
00000310: 4675 853b 9a4c 65bd 356a fe3c 6026 7e3d
00000320: 25ad a9bd 667a 053e fb51 f33d 42dc 1f3d
00000330: 8074 2a3c dcc6 ec3d ede1 4c3e ccc0 fabd
00000340: d477 1fbe ef62 a4bd d295 9a3c 71dc 213e
00000350: 4025 6d3d 1065 bebb c7db 10be d242 4abd
00000360: fef0 383d 3df7 10be 9810 173e 190c 95bb
00000370: c75b a8bd 74de c1bd 130e 7ebd f895 efbd
00000380: 78df 5b3d 8c48 cf3c 2b87 47be fc07 a4bd
00000390: 260b 043e 83d3 0bbe de30 69bd 4cf6 22be
000003a0: d2e0 a6bd 826f 07be d784 ed3d 8204 493e
000003b0: a832 8a3d 5b3b 09be 1f25 f5bd b91b 2fbe
000003c0: ede1 1abe 6085 e83d f618 cbbc ddb6 1ebe
000003d0: f88f 623b 8ed3 f63d e48b 4a3e 6ecc d6bd
000003e0: 6af0 103e 3bc3 f43d 3bcd ea3d 331c f13d
000003f0: 0c3c 19bd 3e05 ae3d 27bb a23d 4af5 fa3d

cnn_blocks.0.proj_in.bias f4 [16]
-0.09853556 0.14453532 -0.022194225 0.038840547 -0.027081046 0.088130854 -0.15606345 0.045121346
0.1312916 0.02149173 -0.115612715 0.07849876 -0.12970425 -0.03810622 0.123954445 -0.13309003
00000000: 03cd c9bd 1101 143e aad0 b5bc 4417 1f3d
00000010: 12d9 ddbc f37d b43d 19cf 1fbe 29d1 383d
00000020: 4e71 063e 6d0f b03c 5cc6 ecbd f5c3 a03d
00000030: 31d1 04be 4515 1cbd d4db fd3d c148 08be

cnn_blocks.0.convs.0.weight f4 [16, 16, 3, 3]
-0.06428913 -0.020058088 0.10438406 0.012721102 -0.014808534 -0.05808205 -0.04395669 -0.020243544
0.01659117 0.019471781 0.0053868536 -0.017939402 0.054587666 -0.057562828 0.024195135 0.09900486
-0.07628584 0.020866483 -0.18921825 -0.09926718 0.039250173 -0.0051109944 -0.095271975 -0.04294971
0.011715129 -0.05739912 -0.07530341 0.020448176 0.025981955 0.032334585 0.033964053 0.054780073
0.0423601 -0.03388304 0.06165027 0.027913066 0.16366339 0.04338686 -0.041631166 0.028444234
0.10682696 -0.017019035 0.07938546 0.090455204 0.06304558 -0.02606959 0.026958194 -0.0899679
-0.0076642395 0.11616064 -0.043295007 -0.02743965 0.031465314 0.081373654 0.019788623 -0.03770713
-0.06710415 0.009855166 -0.010853278 -0.051626857 0.02307995 -0.056221828 0.06263107 0.13391702
0.015739322 -0.005176897 -0.0072970367 -0.016594188 0.062303834 -0.085322805 0.03702083 0.035523314
0.16532719 -0.0030459224 0.051129907 0.07907546 0.034712188 0.020654533 0.1003756 0.094852835
-0.02289102 0.107545316 -0.04394485 0.12059122 -0.044012994 -0.028022446 -0.037692267 0.05739337
-0.0071306536 0.07085593 0.024264736 0.030520596 0.09759227 -0.013460254 -0.07896428 0.0093178665
-0.013466565 -0.09972495 -0.052362498 -0.0154516185 -0.0950137 -0.020328207 -0.04716422 -0.008179242
0.02798041 -0.047537927 0.098287895 0.1501058 0.124879345 -0.00026926072 0.02432297 -0.049478278
0.0949268 0.036452875 -0.023722839 -0.049481925 -0.12826297 -0.086848035 -0.056627493 -0.0770811
0.09125591 0.03131508 -0.06815845 -0.018769875 0.0992346 0.015286737 0.025250452 -7.110718e-05
-0.035040975 -0.048934277 -0.003570561 -0.033704318 -0.06262411 0.014002291 0.028666588 -0.024483394
-0.0040993933 -0.07781182 -0.03499769 0.01115206 -0.060749266 0.040737364 0.06615389 0.1369871
-0.0430728 -0.043576106 0.04954924 0.007435382 0.019553984 0.05917094 -0.021963958 -0.057745147
-0.07969619 -0.018097771 -0.01208923 -0.050149743 0.013481842 0.019500427 0.071535885 -0.09134522
-0.088174276 -0.12420404 -0.0021029226 -0.111739226 0.05155843 -0.007975251 0.11914979 0.0057955245
0.010031007 0.03200771 -0.07217433 0.042674534 0.0492947 -0.09775962 0.029112939 -0.05110307
-0.00775613 -0.028511602 -0.03725091 -0.07436298 0.13510726 0.0009454845 -0.04408775 0.07704447
0.028617978 -0.036965687 -0.04666796 -0.04239828 -0.018862199 0.010569203 0.07533334 -0.0052739326
0.0016734042 0.04512999 0.061734993 -0.024669657 0.0058256323 0.015964389 0.05076084 0.04694462
-0.037378415 -0.06988683 0.15137902 -0.0967824 -0.032239445 -0.01747927 0.035762742 0.008790155
-0.014817632 0.06765451 -0.014480532 -0.08262264 0.007965895 0.06408303 -0.055224456 -0.013251167
0.16919085 0.010208919 0.072086014 0.072818115 -0.14240573 0.046192117 0.07713905 0.022888426
-0.012243783 0.101868935 -0.014271564 0.13864957 -0.0008212332 -0.009231332 0.08731924 -0.0045638205
0.008174754 0.112911865 -0.019623792 0.03266802 -0.14640576 0.08855696 -0.06617765 -0.069023676
0.009929129 -0.080319375 0.017209355 0.0561402 -0.02381842 0.030081442 -0.04357401 -0.00030724725
-0.025454517 -0.001974617 0.07030626 0.048581313 0.0979777 0.04275408 -0.0396486 -0.0083771935
00000000: 05aa 83bd dc50 a4bc 4fc7 d53d 2b6c 503c
00000010: 7e9f 72bc 72e7 6dbd ee0b 34bd cad5 a5bc
00000020: 35ea 873c 4983 9f3c 3484 b03b a7f5 92bc
00000030: 5197 5f3d 00c7 6bbd e034 c63c 0fc3 ca3d
00000040: c03b 9cbd 30f0 aa3c 6ec2 41be 974c cbbd
00000050: cac4 203d 217a a7bb f41d c3bd 09ec 2fbd
00000060: d0f0 3f3c 571b 6bbd ad38 9abd ef82 a73c
00000070: 1cd8 d43c 4571 043d e41d 0b3d 1261 603d
00000080: c981 2d3d f1c8 0abd fe84 7c3d f1a9 e43c
00000090: 6097 273e 6cb6 313d 7185 2abd e203 e93c
000000a0: 18c8 da3d 816b 8bbc d894 a23d 9440 b93d
000000b0: 0b1e 813d e58f d5bc 6ed7 dc3c 1741 b8bd
000000c0: 4d24 fbbb a1e5 ed3d 1b56 31bd 1ec9 e0bc
000000d0: c6e1 003d 3ba7 a63d c01b a23c cb72 1abd
000000e0: e76d 89bd 9077 213c f3d1 31bc af76 53bd
000000f0: 2a12 bd3c dc48 66bd b844 803d 8b21 093e
00000100: c0ef 803c f6a2 a9bb fb1b efbb 89f0 87bc
00000110: 4e32 7f3d b9bd aebd 27a3 173d e580 113d
00000120: 884b 293e 199e 47bb 986d 513d 51f2 a13d
00000130: 5e2e 0e3d b233 a93c b991 cd3d 3442 c23d
00000140: f385 bbbc b840 dc3d 84ff 33bd 88f8 f63d
00000150: f846 34bd 548f e5bc 3563 1abd 4f15 6b3d
00000160: 42a8 e9bb ea1c 913d d7c6 c63c 5406 fa3c
00000170: 75de c73d 6688 5cbc 06b8 a1bd f7a9 183c
00000180: dea2 5cbc 983c ccbd 0f7a 56bd c928 7dbc
00000190: 8b96 c2bd 5787 a6bc 452f 41bd 3a02 06bc
000001a0: 2c37 e53c 21b7 42bd 2a4b c93d 56b5 193e
000001b0: bec0 ff3d 902b 8db9 f740 c73c bca9 4abd
000001c0: fb68 c23d 9c4f 153d 6656 c2bc 8fad 4abd
000001d0: 5e57 03be 62dd b1bd 3bf2 67bd b2dc 9dbd
000001e0: 61e4 ba3d 3e44 003d a896 8bbd 48c3 99bc
000001f0: 833b cb3d 3975 7a3c 09da ce3c 601f 95b8
00000200: 2087 0fbd 4f6f 48bd 1300 6abb 8a0d 0abd
00000210: 1241 80bd dd69 653c 31d6 ea3c 6691 c8bc
00000220: 3454 86bb ce5b 9fbd bd59 0fbd 21b7 363c
00000230: 39d4 78bd 39dc 263d b17b 873d 5946 0c3e
00000240: 1b6d 30bd dc7c 32bd 25f4 4a3d 81a4 f33b
00000250: ad2f a03c 3a5d 723d c2ed b3bc 2d86 6cbd
00000260: c237 a3bd c741 94bc e811 46bc d169 4dbd
00000270: f2e2 5c3c 5cbf 9f3c 6881 923d 3413 bbbd
00000280: b794 b4bd b05e febd 30d1 09bb 89d7 e4bd
00000290: ef2e 533d a1aa 02bc ce04 f43d 62e8 bd3b
000002a0: 1859 243c 841a 033d 23d0 93bd 7ecb 2e3d
000002b0: 3de9 493d 3236 c8bd 427e ee3c 7451 51bd
000002c0: 2227 febb 2a91 e9bc 6994 18bd 9e4b 98bd
000002d0: 8f59 0a3e 64da 773a 5b95 34bd 7ec9 9d3d
000002e0: 4070 ea3c 5569 17bd e726 3fbd d2a9 2dbd
000002f0: e684 9abc 732a 2d3c 5e48 9a3d f4d0 acbb
00000300: 2156 db3a 39da 383d d5dd 7c3d 0518 cabc
00000310: f2e4 be3b c0c7 823c 99ea 4f3d 0049 403d
00000320: 1c1a 19bd d420 8fbd 1a03 1b3e da35 c6bd
00000330: 820d 04bd b030 8fbc f47b 123d 9504 103c
00000340: a7c5 72bc 738e 8a3d c13f 6dbc 0f36 a9bd
00000350: 6383 023c f73d 833d 0a33 62bd 6c1b 59bc
00000360: 5e40 2d3e 4f43 273c d5a1 933d aa21 953d
00000370: cfd2 11be f233 3d3d 14fb 9d3d 8280 bb3c
00000380: 269a 48bc a9a0 d03d 47d3 69bc 27fa 0d3e
00000390: 0748 57ba 033f 17bc 6ed4 b23d 1a8c 95bb
000003a0: 67ef 053c 563e e73d 13c2 a0bc e7ce 053d
000003b0: 64eb 15be 5a5d b53d 2688 87bd 495c 8dbd
000003c0: c9ad 223c 7c7e a4bd a2fa 8c3c 44f3 653d
000003d0: d91e c3bc 5b6d f63c a97a 32bd 0716 a1b9
000003e0: fe85 d0bc 9368 01bb bafc 8f3d 33fd 463d
000003f0: 88a8 c83d e71e 2f3d 9266 22bd 7f40 09bc

cnn_blocks.0.convs.0.bias f4 [16]
-0.09398571 0.06512016 0.022326382 0.0036877552 -0.06384124 -0.022014447 0.037033986 0.10007403
0.06270994 -0.09230543 0.025066292 -0.048701234 0.024922365 0.019529415 0.04695933 -0.044459492
00000000: 947b c0bd b85d 853d d1e5 b63c 44ae 713b
00000010: 32bf 82bd a457 b4bc f3b0 173d 9df3 cc3d
00000020: 126e 803d a10a bdbd d357 cd3c f27a 47bd
00000030: fd29 cc3c 27fc 9f3c 6d58 403d 281b 36bd

cnn_blocks.0.convs.1.weight f4 [16, 16, 3, 3]
-0.007725069 0.016435193 0.061862875 0.1577977 -0.09407243 0.037010085 -0.10605314 -0.0052469303
-0.05220477 0.023978174 0.12095576 0.02460693 0.008095655 0.08430705 0.010754856 0.021559913
-0.03997495 0.09044579 0.041309312 -0.0354929 -0.14777945 -0.054635525 -0.12686186 -0.03544939
0.0041176793 -0.064004414 0.07605011 -0.053270098 0.014354927 0.103952646 -0.021372413 0.0012789374
0.07766841 0.026444 -0.04077262 -0.026707536 -0.028656317 -0.11686553 -0.034313306 0.06956569
0.059910703 -0.039974622 -0.045735564 -0.01876665 0.00961569 -0.05770223 -0.03304324 -0.06433864
0.026483506 -0.013072939 0.04338891 -0.0005673689 -0.14157666 -0.013653559 0.168059 0.10741008
0.067254744 0.08544388 0.08923248 -0.02989086 0.07501122 -0.0009551031 0.06808729 0.053731177
-0.02060815 0.10333542 0.054820344 0.106499396 0.015339087 0.046288535 -0.0947911 -0.14921774
0.09584023 0.14915343 -0.0930084 -0.039440304 0.03174689 0.102086395 -0.21056743 0.12673703
-0.014090208 -0.0018317804 -0.05209364 0.03725443 -0.016370984 -0.022338042 -0.09238728 -0.05274761
-0.047725674 -0.013406347 -0.07891896 -0.108526215 0.01014806 0.012398882 -0.14952098 0.0009160221
0.0125297215 0.066897325 -0.074936666 -0.011152287 0.007993418 0.001273162 0.0028472312 0.09905217
-0.12704137 0.01603241 0.02831018 0.07819228 -0.037581302 -0.04860437 -0.012672707 0.045142133
-0.028453616 0.012403697 -0.032577522 -0.08377343 0.14725983 0.044937752 -0.039464094 -0.053982515
-0.048533224 -0.041832212 -0.16559005 0.06705496 -0.084704004 -0.092382774 -0.06941916 0.058284897
0.05216183 -0.14379683 -0.08041347 0.0064093717 -0.081850834 -0.03660884 0.0026799715 -0.017649952
-0.030274736 0.009166335 0.0064655477 -0.018204095 -0.032506246 0.0212133 0.08526688 0.11444485
0.02179202 -0.050268438 -0.051708244 -0.022299109 0.031191163 -0.031755682 -0.12196887 -0.064354934
-0.03056964 0.07826321 0.015001582 -0.021124883 0.019212268 -0.105317876 -0.047350552 -0.018704655
-0.0022992648 -0.058256134 -0.07361362 -0.034007374 -0.057097126 0.04195114 0.042756196 -0.06571105
0.049288727 -0.035291817 -0.10853211 0.09671296 0.05220742 -0.005809005 -0.04223668 -0.095461644
-0.06535923 0.09245261 0.009603086 0.01936197 -0.10665227 0.05581528 0.023227626 0.007293369
0.09681261 -0.00687123 0.05182321 0.06468309 -0.0047183842 -0.0804268 -0.013759838 -0.018084629
-0.009766107 0.101644754 0.07485424 0.00073998055 0.024067627 -0.101081446 0.03333872 -0.041959256
-0.0350502 -0.0919188 0.09391791 0.08474127 0.011681696 0.02527533 0.03702883 0.043730974
0.037278365 -0.008263664 -0.030130573 -0.101184696 -0.0619847 0.03299532 -0.23112293 0.14295079
0.010705744 8.5262865e-05 0.060642976 0.0051481617 -0.031316515 0.049551975 0.0946681 0.00058553554
-0.028006453 0.033515777 -0.088032454 -0.11783951 -0.13008189 -0.12883782 -0.11346203 -0.030418226
0.089102544 0.09697398 -0.07000382 -0.08523134 -0.10478101 0.06277214 0.055158366 0.011392783
0.04859843 -0.06806028 0.052548606 -0.05103145 -0.078369066 0.038469035 0.01132339 0.017489472
0.03289409 -0.09944686 -0.15363936 0.050231162 0.014273648 0.08685093 -0.043694805 0.00847741
00000000: 9322 fdbb 19a3 863c ed63 7d3d b895 213e
00000010: 0ca9 c0bd e397 173d 6332 d9bd 71ee abbb
00000020: abd4 55bd e06d c43c a7b7 f73d 7994 c93c
00000030: a3a3 043c 2da9 ac3d 2335 303c 6a9e b03c
00000040: c6bc 23bd a43b b93d f433 293d 0161 11bd
00000050: 7f53 17be 80c9 5fbd 13e8 01be 6133 11bd
00000060: 99ed 863b bf14 83bd 29c0 9b3d bf31 5abd
00000070: ee30 6b3c 20e5 d43d 3315 afbc 05a2 a73a
00000080: 9e10 9f3d 16a1 d83c 3101 27bd c3c9 dabc
00000090: a7c0 eabc 3257 efbd 1c8c 0cbd 7578 8e3d
000000a0: ed64 753d 6ebc 23bd 3755 3bbd 85bc 99bc
000000b0: 218b 1d3c 2c59 6cbd 5958 07bd fac3 83bd
000000c0: f0f3 d83c e12f 56bc 92b8 313d 7bbb 14ba
000000d0: 79f9 10be 2db3 5fbc a917 2c3e d1f9 db3d
000000e0: dbbc 893d 33fd ae3d 85bf b63d addd f4bc
000000f0: 7c9f 993d e25f 7aba 5971 8b3d 3915 5c3d
00000100: 6cd2 a8bc 85a1 d33d 4c8b 603d 5b1c da3d
00000110: cb50 7b3c 0c99 3d3d d621 c2bd 89cc 18be
00000120: e247 c43d adbb 183e 307b bebd 288c 21bd
00000130: 0709 023d ac12 d13d fd9e 57be 5ac7 013e
00000140: 9eda 66bc 5a18 f0ba 2460 55bd 1a98 183d
00000150: 711c 86bc 45fe b6bc 8b35 bdbd e10d 58bd
00000160: ff7b 43bd 4ba6 5bbc 44a0 a1bd fe42 debd
00000170: 0c44 263c ae24 4b3c 071c 19be 3421 703a
00000180: 7649 4d3c 7701 893d 6578 99bd 15b8 36bc
00000190: d3f6 023c 3ae0 a63a 9d98 3a3b dddb ca3d
000001a0: 2217 02be 6756 833c c0ea e73c 4623 a03d
000001b0: daee 19bd 6015 47bd 30a1 4fbc f5e6 383d
000001c0: 8f17 e9bc e038 4b3c 0270 05bd 6791 abbd
000001d0: 48cb 163e a610 383d 1aa5 21bd c51c 5dbd
000001e0: c6ca 46bd 4158 2bbd 7090 29be 1c54 893d
000001f0: 4b79 adbd 2e33 bdbd a22b 8ebd 25bc 6e3d
00000200: a5a7 553d 7a3f 13be d1af a4bd b505 d23b
00000210: 69a1 a7bd 27f3 15bd 76a2 2f3b a296 90bc
00000220: b902 f8bc 652e 163c f2dc d33b c120 95bc
00000230: 4525 05bd 84c7 ad3c 67a0 ae3d 1062 ea3d
00000240: 2e85 b23c 47e6 4dbd 06cc 53bd 9fac b6bc
00000250: 9c84 ff3c 3f12 02bd d1ca f9bd 85cc 83bd
00000260: 2f6d fabc 7648 a03d 32c9 753c 170e adbc
00000270: 0c63 9d3c e6b0 d7bd a7f2 41bd 813a 99bc
00000280: 43af 16bb fc9d 6ebd bdc2 96bd 514b 0bbd
00000290: adde 69bd f5d4 2b3d 1f21 2f3d 8493 86bd
000002a0: fae2 493d 278e 10bd 1546 debd 7211 c63d
000002b0: 73d7 553d 7759 bebb 5e00 2dbd 6581 c3bd
000002c0: 0fdb 85bd cb57 bd3d 4356 1d3c fe9c 9e3c
000002d0: 816c dabd 909e 643d dd47 be3c 37fd ee3b
000002e0: b145 c63d 0e28 e1bb 9344 543d 9178 843d
000002f0: ad9c 9abb ceb6 a4bd f270 61bc 3726 94bc
00000300: 0602 20bc 202b d03d 2e4d 993d 41fb 413a
00000310: 7929 c53c ca03 cfbd 2f8e 083d 78dd 2bbd
00000320: cc90 0fbd ec3f bcbd 0858 c03d d58c ad3d
00000330: 9664 3f3c 350e cf3c 8bab 173d 401f 333d
00000340: 33b1 183d 5264 07bc 64d4 f6bc ec39 cfbd
00000350: abe3 7dbd 1a26 073d 7dab 6cbe b161 123e
00000360: 2567 2f3c 27cf b238 c564 783d e9b1 a83b
00000370: bf45 00bd 03f7 4a3d 59e1 c13d a07e 193a
00000380: ca6d e5bc d747 093d 5c4a b4bd d755 f1bd
00000390: 3034 05be 10ee 03be c85e e8bd a52f f9bc
000003a0: 657b b63d 4b9a c63d 2a5e 8fbd c58d aebd
000003b0: 6d97 d6bd ae8e 803d bded 613d cca8 3a3c
000003c0: 260f 473d 3063 8bbd 353d 573d 5b06 51bd
000003d0: f67f a0bd b591 1d3d bd85 393c 1546 8f3c
000003e0: f4bb 063d ccaa cbbd a353 1dbe 31bf 4d3d
000003f0: 05dc 693c e6de b13d 53f9 32bd d6e4 0a3c

cnn_blocks.0.convs.1.bias f4 [16]
0.03607009 0.053023364 -0.07671245 -0.07932142 -0.0010787933 -0.01227342 -0.007936807 -0.037422013
0.004787374 0.014657409 -0.0561417 -0.039966803 -0.012075154 -0.055213172 0.06423135 -0.016295513
00000000: 3bbe 133d 072f 593d 6b1b 9dbd 4573 a2bd
00000010: 4c66 8dba 7416 49bc 6209 02bc d347 19bd
00000020: 67df 9c3b a125 703c d7f4 65bd 3bb4 23bd
00000030: ded6 45bc 3527 62bd ba8b 833d 2b7e 85bc

cnn_blocks.0.norms.0.weight f4 [16]
1.0098671 1.0694224 0.9829747 0.9874483 0.95644164 0.91775966 0.97455645 1.0042175
0.97420824 1.0120075 0.96292835 1.0511689 0.95529157 0.9577108 1.0016087 1.0030861
00000000: 5343 813f d5e2 883f 3ba4 7b3f 69c9 7c3f
00000010: 5cd9 743f 4cf2 6a3f 887c 793f 338a 803f
00000020: b665 793f 7689 813f 7982 763f b48c 863f
00000030: fd8d 743f 892c 753f b734 803f 2065 803f

cnn_blocks.0.norms.0.bias f4 [16]
0.0045671156 -0.11431964 -0.08433458 -0.03968141 -0.019485665 -0.082587436 -0.097246654 0.047403358
-0.011449953 0.04620607 -0.059923064 -0.11304314 -0.112017766 -0.06781464 -0.005962451 -0.06349883
00000000: bea7 953b 6a20 eabd 9cb7 acbd f988 22bd
00000010: 67a0 9fbc 9a23 a9bd 4129 c7bd 062a 423d
00000020: 9598 3bbc 9342 3d3d e371 75bd 2983 e7bd
00000030: 9269 e5bd 67e2 8abd aa60 c3bb ad0b 82bd

cnn_blocks.0.norms.0.running_mean f4 [16]
3.348163e-05 0.059848845 0.020040784 -0.08248287 -0.21663353 -0.0023682578 0.035952523 0.20374182
0.097461686 -0.089857824 -0.049485266 -0.027598506 -0.033625223 0.07426566 0.14463289 -0.039621823
00000000: a06e 0c38 1024 753d 922c a43c c7ec a8bd
00000010: 2ed5 5dbe c634 1bbb f442 133d b2a1 503e
00000020: fe99 c73d 6107 b8bd 10b1 4abd 4316 e2bc
00000030: 9aba 09bd 9818 983d a51a 143e 7e4a 22bd

cnn_blocks.0.norms.0.running_var f4 [16]
0.046314277 0.031229747 0.036773693 0.02759917 0.033321645 0.021934813 0.030040003 0.042995203
0.034134302 0.03702197 0.03106931 0.024948228 0.02656749 0.031028656 0.03936778 0.028381381
00000000: 0ab4 3d3d 87d5 ff3c 03a0 163d a817 e23c
00000010: 477c 083d a3b0 b33c 7416 f63c bd1b 303d
00000020: 69d0 0b3d 59a4 173d 1185 fe3c 3a60 cc3c
00000030: 11a4 d93c cf2f fe3c 1c40 213d 1280 e83c

cnn_blocks.0.norms.1.weight f4 [16]
1.138241 1.1469542 1.086672 1.1270332 1.0878813 1.0794971 1.0935305 1.1011842
1.0910659 1.0824391 1.0326724 1.0274943 1.1727891 1.0635339 1.1005614 1.1677241
00000000: e2b1 913f 65cf 923f 1118 8b3f a042 903f
00000010: b23f 8b3f f62c 8a3f cff8 8b3f 9bf3 8c3f
00000020: 0ca8 8b3f 5d8d 8a3f 9c2e 843f ef84 833f
00000030: f41d 963f e121 883f 32df 8c3f fc77 953f

cnn_blocks.0.norms.1.bias f4 [16]
0.050010767 -0.065544985 -0.03984281 -0.016901737 -0.010817247 0.0054624346 -0.01817973 0.071472645
-0.0036821119 0.0809396 -0.02194987 -0.056900315 0.046997786 -0.008159936 0.09885476 0.022832498
00000000: 17d8 4c3d 733c 86bd 3732 23bd 8375 8abc
00000010: d33a 31bc 39fe b23b a8ed 94bc 4060 923d
00000020: 964f 71bb a9c3 a53d 37d0 b3bc 4e10 69bd
00000030: c080 403d 41b1 05bc 5d74 ca3d 380b bb3c

cnn_blocks.0.norms.1.running_mean f4 [16]
-0.010820956 -0.13871612 -0.103267774 -0.03423482 -0.076875076 -0.13267633 -0.119664446 -0.30105162
-0.14653906 -0.108134 -0.0071530216 0.055185415 0.045809157 -0.42435598 0.15072733 0.25692675
00000000: 614a 31bc 990b 0ebe 0e7e d3bd d039 0cbd
00000010: ae70 9dbd 4edc 07be a212 f5bd 7023 9abe
00000020: 560e 16be 5c75 ddbd e563 eabb 1a0a 623d
00000030: 62a2 3b3d 3045 d9be 4458 1a3e e78b 833e

cnn_blocks.0.norms.1.running_var f4 [16]
0.09028036 0.08763646 0.057035334 0.091190636 0.082684614 0.053238865 0.085272714 0.1281939
0.0872661 0.14018004 0.057072364 0.085713975 0.10317533 0.06983004 0.075874254 0.10829001
00000000: e9e4 b83d bf7a b33d e29d 693d 28c2 ba3d
00000010: 8d56 a93d ff10 5a3d 76a3 ae3d 4345 033e
00000020: 92b8 b23d 5b8b 0f3e b6c4 693d cf8a af3d
00000030: 964d d33d 0d03 8f3d f663 9b3d 27c7 dd3d
