checkpoints/abl_cnn_rnn/best_model.pt (torch, 327585 bytes, 150 tensors)

embedder.feature_projections.0.weight f4 [32, 1]
00000000: 6c5d 6d3f adde 573f 1aa4 2c3b 71be d1be
00000010: 75f2 643f d2bc 723f 82cb e4bd 5007 1f3f
00000020: ad86 593f b21b 223e 4224 a9bf 1e93 f83e
00000030: ec9b 693f b990 783f 35ac 9bbf 30bc 5e3f
00000040: 20f4 9dbe c71a 41bf 9cce e6be 36e0 803e
00000050: 3f71 68bf 1886 8bbf 4a21 b43b 331f 9e3f
00000060: 78a2 92bf 42a3 cfbd 4af7 243f d330 6e3e
00000070: fa4c 64be 4266 60bf 06f8 a33e 23c6 a3bf
0.92720675 0.8432415 0.002634293 -0.40965608 0.8943246 0.94819367 -0.111716285 0.62120533
0.84971124 0.15830877 -1.321419 0.48549742 0.9125354 0.9709583 -1.2161928 0.870059
-0.30850315 -0.75431484 -0.45079505 0.2517106 -0.907978 -1.0900297 0.0054971324 1.2353271
-1.1455832 -0.10138561 0.64439833 0.23260812 -0.22294989 -0.87656033 0.32025164 -1.2794842

embedder.feature_projections.0.bias f4 [32]
00000000: c2c1 253f 8a12 58be 7380 493f 2630 ffbd
00000010: 665a f43e 144a bbbe b700 2f3f 882e 2abf
00000020: 3035 07bf 5666 58be 8eea 34bf ce84 61bf
00000030: 8d6c 1d3f 39f2 c33e 39cd 1bbe 5d3e 533f
00000040: 51e4 243f 8531 52bf 25af febe b4c7 0ebf
00000050: 2e5c 33bf da49 b8be 0103 02bf d905 52bf
00000060: 66ff f13e ce59 49be 19f6 0c3d 60a1 0a3f
00000070: 976b 8f3e 7377 2bbe f243 693f 038e afbe
0.64748776 -0.21100822 0.7871162 -0.124603555 0.4772522 -0.36579955 0.68360466 -0.6647725
-0.5281553 -0.21132788 -0.706704 -0.8809327 0.6149376 0.3827074 -0.15215005 0.82517034
0.64410883 -0.8210681 -0.49743 -0.5577347 -0.7006253 -0.35993844 -0.50785834 -0.8204017
0.47265166 -0.19663164 0.034414385 0.5415249 0.28011772 -0.16744785 0.911193 -0.34288034

embedder.feature_projections.1.weight f4 [32, 1]
00000000: bcc1 28bd ea91 f5be 3832 7a3e b8d1 023f
00000010: 74c9 40bf 48c6 a03d 2f82 05be de23 04bf
00000020: 4dd4 413f 9237 7dbe 4f68 19bf 3a1a debd
00000030: 1201 903e a876 c93e cf48 f73d 187a 64bd
00000040: 7592 4d3f 9a3e 1dbf a276 1abf 5d49 d5be
00000050: 9361 24bf 9862 0bbf 255e 3c3f 3bb9 f3be
00000060: c0f4 4fbe f3a1 4fbe 13ec 3cbf 1c6a 023f
00000070: 9f94 85be efef e0be 8309 5bbd fc3e 9bbe
-0.041200384 -0.47962886 0.2443322 0.51101255 -0.75307393 0.07850319 -0.13037942 -0.5161723
0.7571457 -0.2472823 -0.5992479 -0.10844846 0.28125817 0.3934834 0.12074434 -0.0557805
0.803016 -0.6142365 -0.6033727 -0.41657534 -0.64211386 -0.5444732 0.73581153 -0.47602257
-0.20308208 -0.20276622 -0.7379772 0.5094316 -0.2608995 -0.43933055 -0.053475868 -0.3032149

embedder.feature_projections.1.bias f4 [32]
00000000: 8274 e03e bd29 3f3d ace3 2dbe 435f 383f
00000010: 5c67 b53e fb70 35bf bb41 393f bccc 4abe
00000020: 743c 533f 6429 033f 1c59 523f 2010 fcbe
00000030: acaf 3bbf 6a56 513f e2f8 303f 535a 16bf
00000040: 359b bfbe 89a0 5fbf 20df 7d3f 60ed 2abf
00000050: 8a01 60bf 51a5 6cbd 3dcb 51bf eff3 5bbf
00000060: 7155 60bf 5786 563f c053 723f 33d5 dc3d
00000070: 752c 2b3e 6bb9 90be 72c5 23bf aa7d 383f
0.43838888 0.046670664 -0.16981381 0.7202036 0.3543042 -0.7087552 0.7236592 -0.19804662
0.8251412 0.5123503 0.8216722 -0.49231052 -0.7331493 0.8177248 0.69129765 -0.58731574
-0.374231 -0.8735433 0.99168587 -0.66768456 -0.8750235 -0.057774846 -0.8195074 -0.8591909
-0.87630373 0.83798736 0.9465904 0.10782852 0.16716178 -0.28266463 -0.6397315 0.7206675

embedder.stabilizer_embedding.weight f4 [8, 32]
00000000: 424d 29c0 32b0 8a3c 2cb5 7ebf 1e9a 7e3f
00000010: 01e7 b2be 0d7f 18bf 00e6 f13f 9970 963e
00000020: 3439 0a3f 586e b2bf 8813 9dbf b806 26be
00000030: 0f76 8f3f 5864 acbf d16b 453f 5359 3dbf
00000040: 232d 863f 896f 83bf adc4 563e ea94 093e
00000050: 5181 0440 04a7 3dbe 1111 fabf 0459 4abf
00000060: 531a 2f3f fa0c c0bd 33a0 323f 1cfa a63f
00000070: 74c4 84bf 05ad b7bf 6d76 dc3f a0f8 593f
00000080: c56f 9a3d e690 fcbe a0b6 483f 3d81 3ebe
00000090: f04c 22bf 5f4e 4e3f 82e4 23c0 9413 57bf
000000a0: 3381 2abf e533 cc3f 90d6 4e3f 0283 fcbe
000000b0: 1f6b aebf 617d 7b3e ab09 7f3e 02c9 53bf
000000c0: 657f f33e a7a6 793e 58e6 8b3f 7d85 00c0
000000d0: 3dc8 203f 720e a9bf b882 1bbe 31a7 e1bf
000000e0: 4bdb 88be 2868 663e f256 153f 654f 8dbf
000000f0: 3a07 843f 5907 1c40 8713 0dc0 5c06 08bf
00000100: 9b2f f0bd 2d03 373f 91f9 623f 24bb ba3f
00000110: b26c 8bbe fdff 623f 7a27 ec3d cb84 213f
00000120: 1e33 42bf 3810 1b3f a013 dfbe b3e2 6b3f
00000130: 1d6c 0d3f 7f3e 00c0 0697 39bf 6cd8 1940
00000140: 23c7 5abf 638b 9b3e 5126 933f d13c dabf
00000150: 28ca e33f 8004 58bf 6f21 2f3f ab12 613e
00000160: f871 733f ec70 093f bbd3 aa3e 8fb6 c6bf
00000170: c65f a53f 73e8 3bbc 7166 8b3c ace1 613f
00000180: 7165 753e 3ed5 b4bf 6b97 f2be e0cd 853f
00000190: b8e9 48be 4449 9bbf ad6a 063d 3f73 9d3f
000001a0: 9c51 0fbe e474 4dbe 61c0 abbf f128 cdbf
000001b0: d51d 60be 8b61 953f f818 533f 6224 94be
000001c0: 1848 d0bd 9b26 5ebf 3123 04be 6a44 ab3f
000001d0: 3670 703e 2507 aa3e ef39 c9be 68f8 9abf
000001e0: 655e b0bf 3370 ab3f 8976 c33d e5ad 0e3f
000001f0: 7aaf b23d 12ad 143f b3ec 3cbf b34a 1e3f
00000200: 2be6 f03d ee92 b83f e90e 6a3f c810 86bf
00000210: 97b1 893f 5b08 26bf 229e 79bf f185 543f
00000220: cbaf 873e 94a7 2bbf 3609 51bf 153a dabf
00000230: 8618 883e 3692 8e3f b5d4 213f 6b44 91bf
00000240: d340 0b3f 07f4 adbe 07da fa3e 5059 813f
00000250: d22f b53b e45a ad3f 939c 8fbf ae97 f8be
00000260: 5cfc 553f 24d6 f93f 90b8 54bf 7e9a 09bf
00000270: c9f6 843e 17d5 a53e b7ed d83f fbac c1bf
00000280: f7dd bbbf ff7c 8c3f 8c68 63bf 369d 09bf
00000290: 4a0a a03e ac97 14bf 2787 a3bf d6e6 d63f
000002a0: cf93 04bf bcbb 0abf eb45 b43e ea53 dfbf
000002b0: 8c4f 9cbb 6875 d0bf e6ae d6be 2ee8 8e3f
000002c0: 9d78 2e3d 85df 94bf 4b35 afbf fc8a 71be
000002d0: 011e b63e cb8f 883f a25d 8f3e 149f 7cbf
000002e0: 547f 8dbd 5516 4ebe fba6 d0be 2c87 c93e
000002f0: bf79 513f 66e7 bbbf 238c 88bf 9252 0abf
00000300: 921d a73f c24f 0a40 df24 04bf 012c 503f
00000310: 1cea 26bf 61be 1b3f 2a9a 513f 4801 dd3f
00000320: 66f2 d23d 54a0 7dbf 9372 c1be 2530 963f
00000330: 5dc2 783f a508 333e b768 603f d22a 573f
00000340: 435a 23bf 5f23 92bf dde6 a9be af31 cabf
00000350: ddf1 ae3e 6d54 a53f 0709 6cbf 6cb1 90bf
00000360: d382 2a40 b409 52bf 5046 12bf 755e 7c3f
00000370: f5e0 d8bf 07df f2be 24c1 d73f ad19 233f
00000380: 4cb7 dcbe 705f 283f 5a1a 403f bffe c63f
00000390: 81fb 513d 4149 dcbf 5e92 acbf f419 86bf
000003a0: 265a 07bf a65a 4ebe 6088 393f e9df b73d
000003b0: 90ab 95bf f34e efbf 2f48 56bf efd4 b53e
000003c0: ec1a 52c0 5122 c13f 3937 64bf 5768 44bf
000003d0: c2a4 08be a880 e63e e86b c6bf d547 28bf
000003e0: 0c9a 6a3f 9053 b73f 2705 583c 3c5b 47be
000003f0: be1a 123f 84a0 84bf 189c 243d 04f0 963e
-2.6453404 0.01692972 -0.99495196 0.99453914 -0.34941867 -0.59568864 1.8898315 0.2938278
0.53993535 -1.3939924 -1.2271585 -0.162135 1.1207904 -1.3468122 0.7711764 -0.7396442
1.0482525 -1.0268413 0.20973463 0.13435712 2.0703928 -0.18520743 -1.9536458 -0.7904208
0.6839954 -0.09377475 0.69775695 1.3045077 -1.0372453 -1.4349676 1.7223641 0.85144997
0.075408496 -0.493293 0.78403664 -0.18603988 -0.6339865 0.80588335 -2.560822 -0.8401425
-0.6660339 1.5953337 0.80796146 -0.493187 -1.3626441 0.24559547 0.24906032 -0.8272859
0.47558132 0.24379979 1.092967 -2.0081475 0.6280554 -1.3207533 -0.15186584 -1.7629148
-0.26729807 0.2250067 0.58335793 -1.1039854 1.0314705 2.4379485 -2.2043169 -0.53134704
-0.1172783 0.7148922 0.8866206 1.4588361 -0.27231365 0.8867186 0.11530967 0.6309325
-0.7585925 0.6057162 -0.4356966 0.9214279 0.5524309 -2.0038145 -0.7249607 2.4038343
-0.8546011 0.3037978 1.1496068 -1.704981 1.7796068 -0.84381866 0.6841039 0.21979778
0.9509578 0.5368793 0.33364663 -1.5524462 1.2919853 -0.011468994 0.017016621 0.8823497
0.23964478 -1.4127576 -0.47381148 1.0453453 -0.19620407 -1.2131734 0.032816578 1.2300795
-0.13995975 -0.20064121 -1.3418084 -1.6028119 -0.2188638 1.1670393 0.82459974 -0.28934008
-0.10170001 -0.8677766 -0.1290405 1.3380253 0.23480305 0.33208576 -0.39302012 -1.2107058
-1.3778807 1.3393615 0.09544093 0.5573409 0.08724876 0.58076584 -0.73798674 0.6183273
0.11762651 1.4419839 0.91429 -1.0473871 1.0757321 -0.648565 -0.97506917 0.8301688
0.26501307 -0.6705258 -0.8165468 -1.7048975 0.2658121 1.113837 0.6321519 -1.1349005
0.5439579 -0.3397524 0.48994467 1.0105381 0.0055293823 1.3543363 -1.1219658 -0.48553222
0.83588195 1.9518476 -0.8309412 -0.5375136 0.25969532 0.32389137 1.6947545 -1.5130914
-1.4677113 1.0975646 -0.888314 -0.5375551 0.3125785 -0.5804393 -1.277562 1.6789196
-0.5178804 -0.5419271 0.35209593 -1.7447484 -0.004770225 -1.628583 -0.41930312 1.1164606
0.042595495 -1.1630713 -1.3688139 -0.23588175 0.35569766 1.0668882 0.28001124 -0.98680234
-0.069090515 -0.20125706 -0.40752396 0.3936094 0.81826395 -1.4679992 -1.0667766 -0.5403224
1.3055899 2.161118 -0.5161876 0.81317145 -0.6520097 0.6083737 0.8187586 1.7266016
0.1030014 -0.99072766 -0.37782726 1.1733443 0.97171575 0.17483766 0.8765978 0.84049714
-0.63809603 -1.1417044 -0.33183947 -1.5796412 0.34168902 1.291639 -0.92201275 -1.1304145
2.6642349 -0.82046056 -0.5713854 0.9858163 -1.6943651 -0.4743578 1.6855817 0.63711053
-0.43108594 0.65770626 0.7504021 1.5546492 0.051265243 -1.7209855 -1.3482168 -1.047667
-0.5287193 -0.20151767 0.72473717 0.08978254 -1.1692982 -1.8695968 -0.83703893 0.35514018
-3.2828932 1.5088598 -0.89146763 -0.7672171 -0.133441 0.45020032 -1.550168 -0.65734607
0.91641307 1.4322376 0.013184822 -0.19468397 0.57072055 -1.0361485 0.040187925 0.29479992

embedder.res_block.0.weight f4 [32]
00000000: 24ef 8b3f 9faf 883f 7b47 673f 7aef 5f3f
00000010: b7ef 753f e0a0 843f ab26 6d3f df5c 833f
00000020: 21f5 943f 3d6d 803f add9 9e3f 04fb 823f
00000030: ac53 863f 322f 7b3f 6ed6 a83f 940b 7a3f
00000040: 466b 893f 65d2 7a3f 9529 943f addc 853f
00000050: b34e 6f3f 38a0 8d3f 6a8e 7c3f 75ea 873f
00000060: 9196 a33f 3cf3 773f 3c0d 893f 4d4b 8a3f
00000070: d205 723f f503 8d3f 244a 8d3f b486 983f
1.0932355 1.0678595 0.90343446 0.8747479 0.960689 1.0361595 0.9263713 1.0262717
1.1637307 1.0033337 1.2410179 1.0232854 1.0494285 0.9811889 1.3190439 0.97673917
1.0735862 0.97977287 1.157519 1.045797 0.9347946 1.106452 0.98654807 1.0618426
1.2780324 0.9685552 1.0707164 1.080423 0.9454013 1.1016833 1.1038251 1.1916108

embedder.res_block.0.bias f4 [32]
00000000: 2565 0abd 17cf 30bd f177 f8bc ef5c ffbd
00000010: 9b94 a0bd ec40 063c e8b1 adbd 7094 b8bb
00000020: 79fa 10bd 0e84 27bd 9f0c 9c3c 4a5f 5c3c
00000030: 15b3 24bb 007a 3cbd c05f 37b6 7ee2 c9bd
00000040: c255 b93b 177d 413d 8924 a43c cc61 e43c
00000050: e194 5c3d 5853 383d f994 253d 0e1b 553d
00000060: f582 463c bffd 54bc c1a3 ebbc 9150 27bd
00000070: e981 9bbc 1823 413d 0763 69bc 4de9 fe3c
-0.033787865 -0.043166246 -0.03033063 -0.124688976 -0.07840844 0.0081941895 -0.084811985 -0.0056329295
-0.03539512 -0.04089742 0.019048987 0.013450453 -0.0025131155 -0.046014786 -2.7324859e-06 -0.09857653
0.005655975 0.047238436 0.020036953 0.027878664 0.05385292 0.045001358 0.040425275 0.052027754
0.0121161835 -0.012999951 -0.028764607 -0.04084832 -0.018982844 0.04715261 -0.014244801 0.031117106

embedder.res_block.1.weight f4 [32, 32]
00000000: 7e63 4bbc 740e a03d dea7 96bd 9bf0 9cbd
00000010: 0e52 bc3d 511e 9ebc 2576 d0bd 054e f73d
00000020: 5cde ae3d 23b9 503e 99e7 14bd 2d6a 613d
00000030: b14f 9fbd 7176 bdbd 4232 dcbd c729 f73d
00000040: aa00 8a3c f1f2 8ebd 2bb7 39be 869e b3bd
00000050: 627e 03bd 63bf 2dbe d5e5 ccbd 884f 143a
00000060: bd9e 37be eca0 c83d 4860 aa3d a223 4b3d
00000070: 1e35 2abe e717 3d3e 08da e6bd 8f54 85be
00000080: eed6 c13d e654 40bd 75eb cabb 3888 1cbd
00000090: 7a27 b9bc 473a 803d 80b6 cc3d 6aac 9b3c
000000a0: daf9 a1bd d5c0 17be 87ef da3d 28d2 08bc
000000b0: 62a9 1dbe a94e aabd b297 453e e7d5 3a3c
000000c0: 5504 ba3d 583e 47bd 45b7 05be b4bc 35be
000000d0: e03f d6bd 69fe ccbd 2578 743b 34a8 273e
000000e0: 8720 e43d eba8 33be c63f dbbd 8373 bfbd
000000f0: 0a40 ad3d 9bec 5b3c 14dc 9abc 7c99 8abd
00000100: c797 02bc 23de debd 4e38 3e3d a39b c0bd
00000110: 6726 fabd 0794 27be b7c5 48bd ccd4 2f3c
00000120: 51cf ef3d 9b4e c1bd 0ff8 823e 7aba c9bd
00000130: f2ff a9bd 36b3 2dbe a34a a73e 67dc 11bc
00000140: 851a f5bc 38b7 f4bd c731 17be de9f 4f3d
00000150: 1eed 293e 3a62 f03d 4a84 963b 14c4 e7bd
00000160: 1c13 38bd c2e7 0b3e dc9f f4bc 34c7 fd3d
00000170: e16e 9b3d 91b0 c1bd d30f f13d 37ef 853e
00000180: 5b08 7dbd 4242 dbbc c62a 47bc 6214 0d3d
00000190: c152 0fbe b59f 22be a02c de3c aff5 e8bd
000001a0: 2917 89bc b5f2 1fbe 774b 29bd 6683 56be
000001b0: 6e7f f23d fc43 363e cba6 b53d a943 cabc
000001c0: 39e7 8b3e 192a 02bc 583b c23d ce23 53be
000001d0: 099d 8cbe 01f2 033e 3c61 1a3e 8414 8dbd
000001e0: e741 72bc e2c5 b33d 607b 6abe ba6d b8bc
000001f0: 56d3 543d 61e4 053e 9094 393e 2a68 eabd
00000200: 8194 6d3d 66ff 66bd 1a0c 0a3e eff4 f93d
00000210: 8470 0bbd 52aa 97bd fbdb 243e 603f 7c3b
00000220: 4195 77bd bf29 253e be62 0bbd 3786 3bbd
00000230: f2e8 033e 9e2c 363e f238 063e 14cf cd3d
00000240: b1ad 8fbd d533 193e d1ce 293e 70cd 0d3e
00000250: fd1f 3e3e 3957 b03d 6049 d53d 1e8d 283e
00000260: 4756 223e a48d 45bd a762 a6bd 984b 28be
00000270: 5405 263e f15b 05bc 29a3 13ba b092 32be
00000280: 5aae 863d 08b7 e7bd fb01 7b3c ad7a b03c
00000290: 845b e33d dbb1 213e ac69 183d e0eb fb3d
000002a0: 84b8 12be 2f45 3cbd 9e74 18bd 1a0a 01be
000002b0: 623e 86bd 696e 2e3e 8cab a6bd 06d8 0b3e
000002c0: d7e3 e0bd 463f 56bd 21b9 09bd 49bc c53c
000002d0: bee6 dfbd abde cbbb bd22 543c a74a 03bd
000002e0: e1a7 b73d a02a 0ebe 88f7 24be 45af acbd
000002f0: 9318 c3bc 5e52 073d 06be bc3d 9fb3 e8bc
00000300: dfc9 223e a574 e93d ed5f a13d 5b9d 34be
00000310: 02c1 043e 74eb 663c de12 d23d b1a2 9b3e
00000320: f35b 103e f79e 0bbd 76d4 4abe 61b9 dcbd
00000330: d126 823e 4a41 93bd b76f 4fbd dd93 0e3e
00000340: 1855 cfbd 2af4 613b 5fa8 6abe bda3 80bd
00000350: 5d6b dbbd 992e fa3c 7243 f2ba 5bf3 40bd
00000360: 3e79 6a3c c69f 12bd a516 2cbd b3d8 d33d
00000370: d971 003c 79ed dd3c dff0 053e 1ab8 fbbd
00000380: 089e 1e3e 275f a3bc 62f9 f4bd cc23 f43d
00000390: d0c3 b4bd 6cab 193e 51e2 b23b d791 97bc
000003a0: 965d d4bd 9d3a 9dbc c39a 173d bda2 d13d
000003b0: 5787 523d da8d 8b3d 1a0e 4dbc 44fc 083d
000003c0: 5140 e63d 411f 123e 9f0b dbbc e7ce 863d
000003d0: d965 133d 21be 9eba aab4 233e c274 4abd
000003e0: 3613 0abe 2c1d 13be 6ad3 21be 62cb 12be
000003f0: a9ba febd 78f6 42bd 9b9e 76bd a90e 8e3c
-0.0124138575 0.07815257 -0.07356237 -0.07663079 0.09195338 -0.019301565 -0.10178784 0.12075428
0.085385054 0.20383124 -0.03635368 0.055032898 -0.07778872 -0.092511065 -0.107517734 0.12068515
0.01684602 -0.06979931 -0.1813628 -0.0877047 -0.03210295 -0.1696754 -0.100047745 0.0005657603
-0.17931648 0.097963184 0.083191454 0.04959453 -0.16621825 0.1846615 -0.11272055 -0.26041076
0.09464823 -0.046955965 -0.0061926194 -0.038215846 -0.022601832 0.062611155 0.099957466 0.019003112
-0.079089835 -0.14819653 0.106902175 -0.008350886 -0.15396646 -0.083157845 0.19296148 0.011403537
0.090828575 -0.04864344 -0.13058193 -0.17747766 -0.10461402 -0.100094624 0.0037303057 0.16372758
0.111390166 -0.17544906 -0.10705523 -0.09348204 0.0845948 0.01342311 -0.01890377 -0.06767556
-0.007970757 -0.10882213 0.046440415 -0.09404685 -0.12214356 -0.16365062 -0.04901668 0.010731887
0.11709464 -0.09438821 0.2557988 -0.09850021 -0.08300771 -0.16962895 0.3267413 -0.008902646
-0.029919872 -0.11949009 -0.14765082 0.05068957 0.1659436 0.11737485 0.004593407 -0.11316696
-0.0449401 0.13662627 -0.029861383 0.123915106 0.07589508 -0.094575055 0.11770596 0.2615907
-0.061775547 -0.026764993 -0.012156194 0.034443267 -0.13996412 -0.15881236 0.027120888 -0.113749854
-0.016734676 -0.15619929 -0.041331735 -0.20948562 0.118407115 0.17799371 0.08869704 -0.024690466
0.27324846 -0.007944607 0.09483975 -0.20619127 -0.27463558 0.12885286 0.15076154 -0.06888679
-0.01478622 0.087779775 -0.22898626 -0.02251326 0.05195936 0.13075401 0.18123078 -0.11445649
0.058002952 -0.05639591 0.13481179 0.122049205 -0.03404285 -0.07405533 0.16099541 0.0038489923
-0.060445074 0.16129206 -0.034029715 -0.045782294 0.1288183 0.17790458 0.1310766 0.10049263
-0.07015551 0.14961179 0.165828 0.138479 0.1856689 0.086103864 0.10414386 0.16460082
0.15853225 -0.048230782 -0.08124285 -0.16435087 0.1621297 -0.008139596 -0.0005631918 -0.1743877
0.06576224 -0.11314207 0.015320296 0.021542871 0.111014396 0.15790503 0.03721015 0.12300849
-0.143282 -0.045964416 -0.03722059 -0.1260151 -0.06554867 0.17034306 -0.08138189 0.13656625
-0.10980957 -0.052306436 -0.03362382 0.024137633 -0.109326825 -0.0062216124 0.012947735 -0.032053616
0.08967567 -0.13883448 -0.1611005 -0.084318675 -0.023815429 0.033037536 0.092159316 -0.028405963
0.1589732 0.11399201 0.078796245 -0.17638151 0.12964252 0.014094222 0.10257505 0.3039756
0.14097576 -0.034087148 -0.1980761 -0.10777546 0.2542024 -0.07190187 -0.05064365 0.13923593
-0.10123652 0.0034477809 -0.22915791 -0.062812306 -0.10713837 0.030539798 -0.0018483235 -0.04710708
0.014311133 -0.035796903 -0.042013783 0.103440665 0.007839643 0.027090775 0.13080166 -0.12290974
0.15489972 -0.019942833 -0.119616285 0.1192089 -0.08826411 0.15006799 0.005459108 -0.018502159
-0.103694126 -0.019192988 0.037012827 0.10236118 0.0513986 0.068141654 -0.012515569 0.033443704
0.11242736 0.14269735 -0.02673894 0.06582432 0.0359858 -0.0012111106 0.15986887 -0.049427755
-0.13483891 -0.14366597 -0.15803304 -0.14335397 -0.12437946 -0.047598332 -0.06020985 0.017340975

embedder.res_block.1.bias f4 [32]
00000000: 1e9a dcba aa68 b63d 0d02 e23d e4ca d53d
00000010: 4ab8 b4bd e2c3 25bd 485a 38be 8d68 aebd
00000020: d20c e93d 9c04 143e 2950 26be 8768 f9bd
00000030: 952b 1ebe d6cf b83d 6a39 2d3e e842 94bd
00000040: 203a 3cbd 9552 01bd 9b36 26be 5af5 b6bd
00000050: ab63 be3d 68b2 e43d 384d 003e 4424 d23d
00000060: de41 1f3e 2dd8 6b3d d5eb 34be c0f6 c1bd
00000070: 0840 e5bb 5fef 473d c2e3 f3bd f5e3 3ebd
-0.0016830598 0.08906682 0.110355474 0.10439089 -0.08824213 -0.04047001 -0.1800319 -0.08516035
0.113793984 0.14454883 -0.16241516 -0.1217814 -0.15446313 0.090240166 0.16916433 -0.07239324
-0.04595387 -0.031572897 -0.16231768 -0.08933516 0.09296354 0.11166841 0.12529457 0.10260823
0.1555247 0.05757921 -0.17668088 -0.09470892 -0.0069961585 0.048812266 -0.11908676 -0.046604116

embedder.res_block.3.weight f4 [32, 32]
00000000: 3818 3e3d c8a6 223d 3b94 7abe 285d 83bd
00000010: 23ee 223e e82b e83b f39a c03d 6c2a 26be
00000020: cb2c 4c3d 4233 35bd 24b6 3e3d bdde e43d
00000030: 097b 7d3c 5674 55be f4f0 3f3e 06a7 f0bd
00000040: 684d 2abe c8c1 44be ec23 94bd 98b2 30be
00000050: 101f ce3d 9c95 7bbd ba70 53be 7b73 023e
00000060: 2f16 b43d 47fa b43d 987c b63d f01f bbbe
00000070: c1bb 08be fd6e dc3c 4ac1 8c3c 3e42 a63d
00000080: 6574 d23d 430d 91bd 696e da3c a25e af3d
00000090: 46a8 7d3d d3ac b6bd 9ed2 5fbd bf15 06be
000000a0: 5a0b 1ebc 9afe eebd 56aa 32be 813d 1fbe
000000b0: 3b76 143e bf5d 1b3e a8de 14be 5652 0e3e
000000c0: ee6c 47be 53f7 61bc d470 a73d 3291 0fbe
000000d0: e278 ffbc b7e0 6ebd 9832 263e 2449 8ebe
000000e0: f294 99bc 2daa 8a3d 5bcc 3b3d 2296 0d3e
000000f0: a597 46bd 395e 06be 6eb8 183e 9784 123e
00000100: 403c 49be c7e0 03bd c99c a8bc bac0 f2bd
00000110: 418f 3bbd 2aca 42bd 37cd bcbd e59b 03bd
00000120: fb39 25be 1676 f1bd 57a9 e33d 6e79 943d
00000130: 475c 1cbe 6f9c 46be 3dea 50bd ea60 c83d
00000140: a76a 48be 079a d0bd 1475 7b3d 7837 b03c
00000150: bf62 adbc 1d74 30bb 2e49 1d3e 6df7 16be
00000160: baea 033e 5cd0 dcbd 4999 7d3e 5fdf 063e
00000170: 0f63 15be fe6e 73bd 7e86 3ebd f117 37be
00000180: b6eb 71be e6e6 a33d dbd4 a2bd 4a3e 1ebd
00000190: 71c3 adbc 457f 8e3d dd06 823d d934 383d
000001a0: 9dbc ca3c 80a7 91bd 73d6 b63d 5330 b33e
000001b0: fa1f 643d 6ef6 0fbc c0a6 063e 149c 503e
000001c0: 083e 62be 29fc 36bc b27a e5bd f8d8 983d
000001d0: 8f66 443d ac96 3c3e 7652 3fbe 5a49 e43d
000001e0: a74e 173c 41ce ae3c 6d1c 9a3e 25bd 1ebd
000001f0: 1c45 073e 29aa eebd 8d63 a4bd 2dcb d1bc
00000200: 7532 183e 1e41 57be 0cac aa3c d20b 0ebe
00000210: 44eb 3fbe a0aa 6b3d 3e48 f2bc 113e 2abe
00000220: 2ddf 3dbd 87c5 17bb 5c56 09bd faa4 0c3e
00000230: 04d8 d63d 8adc f9bd 8ae6 85be 6ac2 d0bc
00000240: 6549 a0bc 6cf6 f53c 50ff 553c f147 683d
00000250: b094 a53d a67a 28be 75dc 34be 1812 73be
00000260: 08d9 33be 57ce 4b3e 9185 623d 63d2 063e
00000270: 973c 7bbd 6a42 e7bd 6b27 863d b2d2 5cbb
00000280: 69e9 3fbd 0a28 20be 252f 1cbe bb95 ba3d
00000290: fb7b b1bd 69fc 62bc 1e26 043e 4eb5 89bd
000002a0: 1fde 623e 721f fcbc bc7e 973d 2d33 f83c
000002b0: 8599 ec3c 8139 053d e240 1f3d 61c2 bfbd
000002c0: eef2 3d3e 2fa1 31be 8694 32be d9e3 e4bd
000002d0: 3c9d a7bc be01 18be b0e3 dbbd a6cb 1ebe
000002e0: 21ef dfbc a8b1 a23e 4114 003e 3fae 41be
000002f0: b2fe e93d 7abc 093e 3ad3 063e c328 d8ba
00000300: 2108 babc 2016 9cbd 43ef 7b3d 2f5f 363d
00000310: 07c5 aebd 117c 923d 87e6 b53d 3147 0abe
00000320: 9770 f13d 6f4e 2f3d 3cb2 593d 6e9c 14be
00000330: 5d93 ca3d b9ce 893c 6b96 0d3d 9eca 02be
00000340: 7b74 7c3d 64d8 16bd 6d3f e5bd 631a f73d
00000350: aeb4 843d 9f80 adbd 7142 f73c 75b2 f1bd
00000360: c365 f5bd 6c54 51be bff2 10bd cd7a 12be
00000370: fe2d 223e 072f 3dbd 87aa 7cbc a5e5 85be
00000380: 8c0c 063e 6f02 283e cf74 043e 0aa0 6a3d
00000390: 44bf 2dbd b29e 473e 628a 3e3e e8ba f03d
000003a0: 6dec 913a 05f8 023e ba47 f63c e775 933c
000003b0: 5bf9 3abe 121d a03e 5f03 113e 0aa2 683e
000003c0: d193 c6bd 3396 6f3c d17d 5b3e ae1a f0bd
000003d0: 29d5 133e 6848 a73e 6ab2 56bd f77d 8bbd
000003e0: 7838 82bd 4fb8 fb3d 2265 273e eda3 413e
000003f0: 77ce 66bc 825b 3b3e 7a57 f43b 1dae 1f3e
0.046409816 0.039709836 -0.24470608 -0.064142525 0.15911154 0.007085312 0.09404554 -0.1622712
0.049847405 -0.044238336 0.04656042 0.111752965 0.015471228 -0.2084516 0.1874426 -0.11750607
-0.1663109 -0.19214547 -0.07233414 -0.17255628 0.100645185 -0.061421975 -0.2064847 0.12739365
0.08793294 0.08836799 0.08910483 -0.36547804 -0.13352872 0.026908392 0.017182011 0.081181034
0.10276107 -0.070826076 0.026663976 0.08562972 0.061928056 -0.08919682 -0.05464422 -0.13094233
-0.009646261 -0.11669655 -0.1744779 -0.15550806 0.14498226 0.1517248 -0.14538062 0.13898596
-0.19475147 -0.013791877 0.08175817 -0.14020231 -0.031185571 -0.058319774 0.16230237 -0.27790177
-0.01874778 0.0677074 0.045849185 0.13826802 -0.048484463 -0.1312188 0.14914104 0.14308392
-0.1965189 -0.032196786 -0.020582573 -0.11853166 -0.045790914 -0.04755608 -0.09218829 -0.032131094
-0.16135399 -0.11790101 0.111162834 0.072497234 -0.15269576 -0.19395612 -0.051004637 0.0978411
-0.19571935 -0.101856284 0.06139095 0.021510825 -0.02116525 -0.0026924678 0.15359947 -0.14742823
0.1288251 -0.10781929 0.24765505 0.13171147 -0.14588569 -0.059432022 -0.04651498 -0.17880227
-0.23625073 0.08003025 -0.07950755 -0.038633622 -0.021211358 0.069578685 0.06348965 0.044972274
0.024748141 -0.07112026 0.08927622 0.34997806 0.055694558 -0.008786781 0.13149548 0.20372039
-0.22093976 -0.011168518 -0.11205043 0.074632585 0.04794937 0.18416852 -0.186838 0.11146803
0.009235061 0.021338584 0.30099812 -0.0387546 0.13209957 -0.11653549 -0.080268 -0.025609577
0.14862998 -0.21020934 0.020833991 -0.13871697 -0.1874209 0.057535768 -0.029575463 -0.16625239
-0.046355415 -0.0023158507 -0.033529624 0.13734809 0.104904205 -0.122002676 -0.2615245 -0.025483329
-0.019566247 0.03002473 0.0130613595 0.056709234 0.080850005 -0.16453037 -0.17662223 -0.23737371
-0.1756326 0.19902931 0.05530316 0.13166194 -0.06133708 -0.11291964 0.06550487 -0.003369492
-0.046853457 -0.15640274 -0.15252359 0.0911059 -0.086662255 -0.013854125 0.12905166 -0.06724034
0.22155045 -0.030776713 0.073972195 0.03029784 0.028881798 0.032525543 0.038880236 -0.09363247
0.18549702 -0.17346643 -0.1743947 -0.11176271 -0.020460717 -0.14844415 -0.10736787 -0.15507373
-0.027335705 0.31776166 0.12507726 -0.18914126 0.114255324 0.13450804 0.13166514 -0.001649164
-0.022708954 -0.076214075 0.061507475 0.044524368 -0.08533674 0.0715257 0.0888186 -0.1350372
0.11789053 0.04279941 0.053148493 -0.14512798 0.098913886 0.016822206 0.034567278 -0.12772605
0.061634522 -0.03682746 -0.11193738 0.1206558 0.064797744 -0.08471798 0.030183049 -0.11801616
-0.119823 -0.2044236 -0.03538775 -0.14304657 0.15837857 -0.046187427 -0.015421516 -0.26151767
0.13090724 0.16407178 0.12935184 0.05728153 -0.042418733 0.19494131 0.18607476 0.117543995
0.0011133082 0.12789924 0.030063499 0.018000556 -0.18259184 0.3127218 0.14161442 0.22718063
-0.096961625 0.014623213 0.21434714 -0.11723839 0.14436783 0.3267243 -0.052416243 -0.06811135
-0.06358427 0.122910134 0.16347173 0.18910189 -0.014087311 0.18296626 0.007456717 0.15593763

embedder.res_block.3.bias f4 [32]
00000000: db62 fd3d c261 00be 3c8d 893d b9d1 b13d
00000010: a7cc 1c3e 0282 55bd e306 123c db4a 423d
00000020: 794e dabc cfbd a53b 2986 503c 3c1c 383e
00000030: 1176 87bd 6d68 40be b871 f1bd 63a3 d7bd
00000040: a6eb d4bd 3bd1 0f3d 5fc8 0ebe b789 703d
00000050: ab22 f3bd fd61 58bd c1a4 ed3d 511b 3d3d
00000060: c640 4b3e 662c 1fbe 36f9 59bc 6dc3 673d
00000070: 5eb0 9abd 37ae afbd 1951 89bd d7f9 0d3e
0.12372371 -0.12537292 0.067163914 0.086825795 0.15312444 -0.05212594 0.008912775 0.04743467
-0.026648747 0.0050580273 0.012727299 0.1797952 -0.06614316 -0.18789835 -0.11789268 -0.105292104
-0.10396509 0.035111647 -0.13943623 0.058725085 -0.11871847 -0.052827824 0.1160369 0.04616863
0.19848928 -0.1554428 -0.013304045 0.056582857 -0.075531706 -0.08578151 -0.06704921 0.13864838

cnn_blocks.0.proj_in.weight f4 [16, 32]
00000000: ebe7 4abe 428b 2dbe 79be 03be 6740 b3bd
00000010: 188a 673d d372 cabc 0369 0ebe c687 7cbd
00000020: baee 76bd 39c1 f7bd 7067 343e 773c f23d
00000030: c1fc ad3d 6d13 333d 524b ce3d eb4e 0dbe
00000040: b105 9e3d 78b6 ecbd 5d2e a6bd 0812 323d
00000050: 4c33 11be fa63 05be 0e51 f9bb d587 533e
00000060: fd3c 52bc 85af a2bd 7f82 743c 8df9 683e
00000070: bd64 85bd 68ba 1a3e 82bf cfbd 3517 373e
00000080: 8fe5 e5bd 460b 67bc 9334 2dbc d0d4 313e
00000090: 6d1a f13d 20b3 de3c 1374 8dbd abbf 96bd
000000a0: 52da 20be 029a 223d 54b8 c9bd cdb6 30be
000000b0: 7c4c 1a3e 0117 f73c 7823 1dbe dcc2 36be
000000c0: 4096 8dbd 2179 383e aa6f 213e 2e92 e33d
000000d0: 2f69 38be 82fd a03d 8144 013e a8cb 4cbd
000000e0: b4e5 4ebd a21f 14be 9d4b e2bc d1c5 503d
000000f0: ef5b 46bd 464c 0bbc bb45 3fbd b167 19be
00000100: c309 1d3e 8c26 5a3d d5f4 d73d 55ac 50bb
00000110: 923e 273d 1495 6bbc 4ec9 52be b7db 0f3e
00000120: ce4e 94bd 7fbe 35bc 67f6 733b 4ef1 fc3d
00000130: 8f2e 80bd b43c 1e3e 06ba 1bbe a0ae a23d
00000140: fa49 7c3d b427 b33c 4e87 c03c 4bfa 94bc
00000150: 7ee6 bf3d 7794 08be 905a 1d3e 4a9b 553d
00000160: 5ba1 b9bb 3ca6 e3bc f47b 6ebd eff4 5c3d
00000170: f570 e3bd 9f09 de3d 336e 9b3d 45d1 0b3e
00000180: a092 fc3d 5788 30be d30e 89bd 284a b23d
00000190: b445 38be 52fc 02bd e634 4fbc e41e 25be
000001a0: cce7 f3bc f1e6 f8bd d402 ea3c 8860 15be
000001b0: a96b 5b3e c64a f6bd f431 863c 31fa 6e3d
000001c0: ca2b 04be f7e8 22bd fbc0 e6bd e2c5 fbbd
000001d0: 6290 66be e0a0 9d3d fdac af3d 64e0 f23d
000001e0: ca58 21bd 55ae 023c 2b21 7cbd 3e3f 103e
000001f0: 95fd 10be 2e3e 44be d986 efbd 531d 0e3e
00000200: 7f1e ec3d 4252 953d 7c04 36be 8a79 edbd
00000210: 7848 2c3d 3dcf 80bd 9698 223d 1ba4 193d
00000220: b328 03be 1c67 613d 4b1d 2f3c 5801 cfbd
00000230: 7a73 173c 9a1c 6bbd dddf a3bc fdcc 7f3d
00000240: 9a81 09bd 254b f4bd abc9 c4bd cfbd 113e
00000250: 6a77 b7bd e1ba c13d 6aae 6e3d c0db 1b3e
00000260: 1383 86bd 2a52 aebc 4d8f 0d3e c422 013d
00000270: f500 7bbb 9b54 8bbc 70d2 ecbc c0b1 cdbd
00000280: 9ed3 1a3d e1b2 55bd c574 013e a1d4 3d3e
00000290: 7093 4abe 07d1 f93d e14e 233e 51e0 433e
000002a0: da22 65be eaa9 7b3d 6bba 863c 6e08 60be
000002b0: 9154 0c3e d56f 2ebe 0649 993d ecec 0c3e
000002c0: 9e96 e6bd 01af 163e 6c9e 57bd 3574 83bb
000002d0: 963a f63d bf47 7bbb ef8e 00be fadc 0abb
000002e0: 839c 24bd 3639 3b3b 46a8 503d f636 003e
000002f0: a6af 45be 63bb 4abc 8450 2e3d b53d 8bbd
00000300: 3578 80bd 0329 87bd 679e 69bd 0c2e 8ebd
00000310: 4a5d 49bd 8956 b63d 0c46 823d 5afb 733d
00000320: bff7 33bd 9090 3c3e 5f10 7c3d 5395 303e
00000330: 6b07 05be 2387 3f3d b606 933d 669c 2e3e
00000340: a5bb 353c ea60 c2bc 232d 4dbc 49c8 23be
00000350: 78c5 8d3d 6c8c 223d 87bf 923d a81d a83d
00000360: f3f2 9d3d 7c92 83bb d137 35bc 424a 10be
00000370: e6e8 573d 5a82 2abe 501a 013d f968 23bc
00000380: 2a8e ad3c 350c 5a3e 3592 cdbd cd35 2e3d
00000390: 2d3e f93d d652 0bbd 7055 053e f340 043c
000003a0: 5dab f6bd fea9 a33d 2574 2a3e 37ff aa3d
000003b0: 3c12 293e 8ddf 9fbd 5da8 babd 30af ffbc
000003c0: 80f1 08be b0a4 75bd 4e7f 0f3e c6d0 7ebd
000003d0: cd7d 11be 0515 753d 687d d3bd 08ac 4a3d
000003e0: 197f aebd 2bed c73c 414b 29be 99a0 e33c
000003f0: 4eed 2cbd 54a6 09be 5ffb 1bbe 0ac7 94bc
-0.19815032 -0.16947654 -0.12865628 -0.08752518 0.05652818 -0.024712956 -0.13907246 -0.06165292
-0.06028626 -0.12097401 0.17617583 0.11827939 0.084954746 0.043719698 0.1007296 -0.13799636
0.07715929 -0.11558241 -0.08114312 0.043474227 -0.14179724 -0.1302642 -0.0076085394 0.20657285
-0.012831924 -0.07943634 0.014923691 0.22751446 -0.06513355 0.15110171 -0.10143949 0.17879947
-0.112254255 -0.014101809 -0.010571617 0.17366338 0.117726184 0.027185023 -0.06906905 -0.073607765
-0.15708283 0.039697655 -0.09849611 -0.17257233 0.15068239 0.030162336 -0.15345562 -0.1784777
-0.069134235 0.18014957 0.15765253 0.11111866 -0.18008874 0.07860853 0.12623788 -0.04999891
-0.05051203 -0.14465192 -0.027623946 0.050969902 -0.04842752 -0.008502072 -0.04669736 -0.14980961
0.15335755 0.053259417 0.10544745 -0.0031841 0.040831156 -0.014378805 -0.20584604 0.14048658
-0.07241593 -0.011092781 0.0037225725 0.12350713 -0.0625888 0.15452844 -0.15207681 0.07943463
0.061593987 0.021869518 0.023502018 -0.018185755 0.09370135 -0.13337885 0.15366578 0.05215005
-0.005664987 -0.027789228 -0.05822368 0.053944524 -0.11105529 0.10841679 0.07589378 0.13654049
0.12332654 -0.1723951 -0.066922806 0.087055504 -0.1799534 -0.031978913 -0.012646889 -0.16125065
-0.029773615 -0.121534236 0.028565802 -0.14587605 0.21427788 -0.12025981 0.016381241 0.05834407
-0.12907329 -0.039772954 -0.11267277 -0.122936025 -0.22516015 0.076967 0.08577917 0.11859205
-0.039391316 0.007976134 -0.06155507 0.14086625 -0.14159234 -0.19164345 -0.11695642 0.13878374
0.11529254 0.0729108 -0.17775148 -0.11595447 0.0420613 -0.062895276 0.0396963 0.03751002
-0.12808494 0.055029973 0.010688136 -0.10107678 0.00924384 -0.057400323 -0.020004207 0.06245135
-0.033570863 -0.11928395 -0.096087776 0.14232562 -0.08958323 0.094594724 0.058271803 0.15220547
-0.06567969 -0.021279413 0.13824196 0.031527296 -0.003830013 -0.017008116 -0.028908938 -0.10043669
0.03779947 -0.052172545 0.126422 0.18538143 -0.19782805 0.12198072 0.15948059 0.19128539
-0.22376576 0.06144134 0.016446313 -0.21878216 0.13704135 -0.17034848 0.07484631 0.13762254
-0.11259197 0.14715196 -0.052641317 -0.0040116557 0.12022893 -0.0038342325 -0.12554525 -0.0021188841
-0.040188324 0.0028568036 0.050941728 0.12520966 -0.19305286 -0.012373778 0.042557254 -0.06798879
-0.06272928 -0.06599619 -0.05703583 -0.069423765 -0.049161233 0.08903224 0.06361017 0.05956588
-0.04393744 0.18414521 0.06153905 0.17244463 -0.12991111 0.046759736 0.071790144 0.17051849
0.011092101 -0.023727853 -0.012522968 -0.15994371 0.0692243 0.039684698 0.07165437 0.082087815
0.077123545 -0.004015265 -0.011060671 -0.14090827 0.052712344 -0.16651288 0.031519234 -0.009973758
0.021185953 0.21293719 -0.100376524 0.042531777 0.12170062 -0.034014545 0.13020873 0.008072126
-0.12044404 0.07991408 0.16645868 0.083494596 0.16510862 -0.07806311 -0.09114144 -0.031211466
-0.13373375 -0.05997151 0.14013407 -0.06221082 -0.14208145 0.0598345 -0.10326654 0.049480468
-0.08520336 0.024405083 -0.16532613 0.02778654 -0.0422185 -0.13442355 -0.15232609 -0.018161315

cnn_blocks.0.proj_in.bias f4 [16]
00000000: 2932 f63d 30eb 47bd 56f5 083e 0158 2abe
00000010: 0c3e 223e cf33 82bd f3e1 b73d 8be5 63bc
00000020: 0c48 76bd 3d69 2ebe 1d46 7a3c 3fb0 ef3d
00000030: 465b 0fbe 802c 673d 64e9 9abd 2a87 c93d
0.12021286 -0.048808277 0.13374838 -0.16635133 0.15843982 -0.06357538 0.08978643 -0.013909708
-0.060127303 -0.17032333 0.015275505 0.11703538 -0.13999662 0.056438923 -0.07564047 0.098402336

cnn_blocks.0.convs.0.weight f4 [16, 16, 3, 3]
00000000: cf28 5b3d 96fc 163d cc20 f63c 760f 223b
00000010: ae30 313d bbfb aa3c d066 423c 1d97 a13d
00000020: b287 823d 2348 acbd 1560 663d b353 243d
00000030: 1e1a 323d 1f47 eebb d63d 7abd 2427 6bbc
00000040: bc9d 82bd 6c3e 63bd aded 583d aa6e 8a3d
00000050: 84b2 053b 6c0b 343d 55ac 333d fb21 983d
00000060: 04f5 b83d fd53 febc 58af 16bd ce73 6b3d
00000070: e168 64bd 1b32 8f3c e1f6 88bc 0e94 6fbd
00000080: 1585 423c 49b1 f1bd 66e5 8f3d 75e3 21bd
00000090: 7ef1 6abb d22d 18bc fd9f e03c 35d4 9cbd
000000a0: 9fe8 19be f28a 8f3b 7a19 643d 31f9 0b3e
000000b0: b6a9 7ebd 7802 613c 05d9 d93c f708 6fbd
000000c0: 8b6b c73c 0276 7ebd 85f5 0c3d 608c 953c
000000d0: 82aa 4d3d 222f 823c 2d6a 2c3d e5c5 3d3d
000000e0: 3336 18be a82e 87bd 1110 983d 29a7 883d
000000f0: 4da5 e3bd 239d 13be e29f ea3d 7459 19be
00000100: f2ca bcbd 087b 68be a619 f4bc e4d7 88bb
00000110: 7fd7 763d 07fe a8bd 6b5f 6a3b 5ab4 0b3d
00000120: 67a1 85bd 5726 313d 316b d33d 3c02 80bd
00000130: 3543 f53d daf5 d9bc 2651 c83c 4377 bbbc
00000140: d223 8e3c 12aa 923d 2f47 65bd 119a a93d
00000150: 2c09 d8bd b597 a33d c569 ae3d 2a5a 4cbd
00000160: 57cc 003d e26b 4ebd 160f b1bc 7257 11bd
00000170: fadd 33be 1a8c a4bd 4370 a8bd 45bb 713c
00000180: 145b a93d 571a da3d 4358 8dbc d46d ecbc
00000190: fa6f 123e 576e 573e 46d7 47bd 2d5e 3dbd
000001a0: 8651 0c3c f79d 433d 39d9 b4bd bf31 123d
000001b0: 9bd0 3cbe 6ea1 bfbc b343 c2bc 1fb3 503d
000001c0: d32d 413d 05a6 6d3d 2c37 90bb 5c8a 5ebd
000001d0: ab71 233d 0569 5bbd 32ed 4a3d c234 fdbd
000001e0: ec98 dd3c c05e b3bd 1b25 db3d 4aa6 97bc
000001f0: 7801 94bd 3218 33be 9621 d1bc d1c1 75bd
00000200: 5261 843c 2835 283d a75b 83bd 4050 01bd
00000210: f403 63bd 5061 c83b 87d8 ff3c d936 b5bd
00000220: 2675 173e 7bc1 e8bd ac49 a03d ce26 a2bd
00000230: 0e16 dd3c 3eb9 c9bd 7896 063c 8cef 653e
00000240: 6611 de3c 2f24 73bd 139d 7b3d 5235 0cbe
00000250: 481a 1ebe 6263 293e c3ae 43bc 8ea8 353b
00000260: bfcb 6dbd f24b a33c f6cc 0d3b 9db4 ac3d
00000270: 84d0 cebd 9bff f0bd b727 0abc 49f1 333d
00000280: ed0f bc3d dcbd 373d 4263 8d3d 8080 12be
00000290: 4582 9e3c e00e c2bd 6cae 84bc 4ae2 d53d
000002a0: 5d9c 0bbe 60ac 05bd f752 5cbd 2aab 21bd
000002b0: 6de9 393e f87d a0bb 4fed c83d ff46 66bd
000002c0: ec6e 4ebb 7207 c23d 4ac9 dc3c 89a3 9dbd
000002d0: 19f8 393d 2056 b9bc 9511 d53d 102a 0b3d
000002e0: a936 57bd 1df5 423d 9861 6a3a d76a 7ebd
000002f0: 7e9f a03a f3a7 d1bd 00ca 693d 3693 4d3e
00000300: 234c 803d 8f4f 20be c7b6 f63d dc52 70bd
00000310: 2bc2 2fbd 21eb cebd 9eb6 b2bd e5c0 373c
00000320: faef 6b3d e493 1c3e f720 5dbc 2a64 c73c
00000330: e7d7 5f3c 2465 823b dd7f 8c3b 6054 8cbc
00000340: 0472 a93d eedf 9a3d 73b2 163d 8568 b6bd
00000350: 4c19 953c 1e5a b13d 9c3c 043e 0c3e f43d
00000360: f971 3dbc fc51 3cbd 9f6c 953d b121 f43d
00000370: c603 8abd 536f c03d 0acb 8dbd e8a3 0b3d
00000380: 65dc 92bd 61c0 f13d 2902 90bd afbc 6e3c
00000390: b513 a43d 6adf cf3b afe2 523a 6d64 6b3d
000003a0: 325f 5d3d d079 bebd 0a39 833d 7663 493a
000003b0: 0def 89bd b271 27be 5dac 34bc e9f2 fc3c
000003c0: 06b8 cc3d a7d1 22be 1b79 9f3c 11de d13d
000003d0: d2df c33b 2afe 77bd 208b 0e3d 5bd8 87bd
000003e0: e4cb 32bd 3ab8 af3c d300 0ebc 5867 bcbd
000003f0: 9709 1b3d 02c0 0dbc 9d17 19be 7b25 b83d
0.053505715 0.03686198 0.030044936 0.0024728454 0.043259315 0.020871988 0.011865333 0.07890151
0.06373538 -0.084121965 0.056243975 0.040118884 0.04348194 -0.007271662 -0.061094128 -0.014352594
-0.06377742 -0.055479452 0.05296104 0.06759389 0.0020400593 0.043956205 0.04386552 0.07428356
0.09031108 -0.031045908 -0.036788315 0.057483487 -0.055764083 0.017479947 -0.016719284 -0.058490805
0.01187255 -0.118013926 0.07026176 -0.03952356 -0.0035849507 -0.009288268 0.027420038 -0.07657663
-0.15030144 0.0043805772 0.05568836 0.13669278 -0.062173568 0.013733499 0.02659274 -0.05835816
0.024343273 -0.06212426 0.034413833 0.018255413 0.050211437 0.015891615 0.042093445 0.046331305
-0.14864425 -0.06600696 0.074249394 0.06672508 -0.11115513 -0.14415412 0.114562765 -0.1497553
-0.09218396 -0.22703183 -0.029797386 -0.004176127 0.060264107 -0.08251577 0.003576244 0.034107544
-0.06524926 0.043249454 0.103231795 -0.06250426 0.11975709 -0.026606489 0.024452757 -0.022884017
0.017351065 0.071613446 -0.05597609 0.08281339 -0.105486244 0.0798792 0.08516268 -0.049890675
0.031444874 -0.050395854 -0.021613639 -0.035483785 -0.17565146 -0.08034535 -0.08224537 0.014754121
0.08269325 0.10649555 -0.017254 -0.028860964 0.14300528 0.21038185 -0.048789285 -0.04623239
0.008564359 0.04775807 -0.088304944 0.035691973 -0.18438952 -0.023392405 -0.023713922 0.050952073
0.047162842 0.058019657 -0.0044011083 -0.05433117 0.039903324 -0.05356695 0.049542613 -0.123635784
0.027050458 -0.087583065 0.10700437 -0.01851191 -0.07226843 -0.17489699 -0.02552871 -0.05999929
0.016159687 0.04106632 -0.06413966 -0.031570673 -0.055423692 0.006115116 0.031231178 -0.08848352
0.14790782 -0.113650285 0.07826552 -0.07917558 0.026988056 -0.09849785 0.0082145855 0.22454661
0.027107906 -0.05936068 0.061429095 -0.13692215 -0.15439713 0.16541818 -0.011943522 0.0027718875
-0.058055636 0.019933674 0.0021637059 0.08432887 -0.10098365 -0.11767503 -0.00843232 0.04393128
0.09182725 0.0448588 0.069036976 -0.14306831 0.019349227 -0.094754934 -0.016196452 0.10443552
-0.13633867 -0.032635093 -0.05379006 -0.039469875 0.18155451 -0.004897829 0.09810888 -0.05622005
-0.003149922 0.09474076 0.02695145 -0.076972075 0.04540262 -0.022624075 0.10403744 0.03397566
-0.052542362 0.04759704 0.0008940934 -0.06211361 0.0012254564 -0.10237112 0.057077408 0.20075688
0.06264522 -0.15655349 0.12046581 -0.05867277 -0.042909782 -0.10103441 -0.08726238 0.011215423
0.057601906 0.15290791 -0.013496629 0.024339754 0.013662315 0.003979342 0.0042877034 -0.017130077
0.082737 0.075622424 0.036791276 -0.08906654 0.018200539 0.086597666 0.12913746 0.11925897
-0.011562818 -0.045976624 0.072961085 0.119204886 -0.06739001 0.093962334 -0.06923492 0.03409186
-0.07170943 0.118042715 -0.07031662 0.014571353 0.08011571 0.0063437717 0.0008044643 0.05746882
0.054045863 -0.09300578 0.06407364 0.00076823623 -0.067350484 -0.16351965 -0.011027423 0.030877547
0.09996037 -0.15900289 0.019466927 0.10247434 0.005977609 -0.060545124 0.03480065 -0.066330634
-0.043651477 0.02145015 -0.008667189 -0.09199399 0.037850942 -0.008651735 -0.14950414 0.08991524

cnn_blocks.0.convs.0.bias f4 [16]
00000000: a376 8d3d 217a a73d 2909 583c 533a d53d
00000010: 1648 643d 1106 23bb 0103 a23d ad33 bdbc
00000020: f2d1 063d afe8 67bd 782e b83d 2a10 25bd
00000030: 7d97 babd 94da 82bd b7aa 37bd f5c0 ad3c
0.06907394 0.08177591 0.013185778 0.10411515 0.05573281 -0.0024875442 0.07910729 -0.02309593
0.032915063 -0.05661839 0.08993238 -0.04029862 -0.09110925 -0.06389347 -0.04484054 0.021210173

cnn_blocks.0.convs.1.weight f4 [16, 16, 3, 3]
00000000: 9116 9b3b f34f ff3d 9f8c 283e 782b b13d
00000010: 1a71 b8bd cb6b cdbd 34fe c5bd 2fea c2bd
00000020: e17f f4bc 5b1b 403d 596a d33d ee14 8e3d
00000030: 75c4 423d 9598 8fbc 8a02 ddbd 7318 9c3d
00000040: 0ca1 ccbd 92e9 053d 83a3 7dbd b22c 163e
00000050: 6cf3 dbbb 2ab3 1bbd 6a7c 493d 96b8 d73d
00000060: 6303 b0bd 959c a0bd 61f7 71bd 1758 85bd
00000070: 874e 323d 3ed6 29be 1b09 673c bb6f 973d
00000080: ed04 13be 28ce 723d 67a8 7a3c c5ee d4bc
00000090: ab8e a23d a26c 793d 3043 f73b e0b7 093e
000000a0: 4476 003e 3cc7 1cbd 5475 90bd 6e92 5bbd
000000b0: 25f8 9f3c 7d40 d9bc 0273 33bd 941f 863d
000000c0: 5b08 2cbb ab94 47bd 935b 813d baed 03bd
000000d0: 6f79 d33c be54 323d ab51 363d f80c babc
000000e0: 455c 7a3d 0313 7cbd f6cc 7b3c 8a0c ae3d
000000f0: b629 833c 74ed acbc d7ff 64be dfff 1ebd
00000100: d256 b4bc ec6f f2bd e64d 983d 9d01 213d
00000110: a41b a43d 23af 93bd f02c 62bd 436a 253c
00000120: f9df a43d 2cad 513a b1d6 303d 263f 5bbc
00000130: 3f1a 70bc 20c2 8dbc efa1 98bc a600 633c
00000140: fbb3 873d 9f5f 8d3c 671d 213c aeee 313c
00000150: 9d74 bf3d ec3b d33d 3168 27be edb1 25bd
00000160: 6580 163d c8fe eabc c51f fe3c 0d42 f73c
00000170: cced 9e3c 9dc8 af3d 7b88 433d 3914 f9bc
00000180: a92d f1bd 1a93 8e3d 88c9 6fbd 2087 283b
00000190: 4af0 9fbc 22df 9b3d 7eb3 7d3c 812a febc
000001a0: 6e68 cabd ad2e 9e3c 5b79 66bc d758 9c3d
000001b0: 0648 cabb 4af0 1d3e 2c6d 8e3d cf51 853d
000001c0: 2185 03bd 2cca f73c 1fbe 203e 8d70 a03d
000001d0: 4675 85bc 413a 833c a995 95bd 63b3 bebd
000001e0: b676 61bd 13dd a53d fa60 e8bd 00d7 bc3d
000001f0: a0c2 423e 6f23 0d3d 0f21 74bd f97b 1cbd
00000200: 4089 2e3a 5b2a 9abc 7439 a83c b912 eebd
00000210: f63f 94bd ce53 c2bd e262 eb3d b143 a13d
00000220: eadf 163d 4fdd 36bd b60f 81ba f116 4abd
00000230: b031 c4bd eae3 71bd a372 213e e7f3 e7bc
00000240: c509 5d3c 61b7 d73d 4dd1 6a3c fcb6 7abd
00000250: 5271 f938 daab cebd 5a06 233e e9a1 25be
00000260: b6cc 85bd 72b4 73bb 1b27 553d 762b b33d
00000270: 0513 6f3d a53e 9d3b 4721 913d 1222 ef3d
00000280: f6fa b63d 2bc2 88bd d904 83bd f379 133c
00000290: 79fc 4cbd cb06 023d 5626 57bd e1c5 23bd
000002a0: 7bd6 bfbd ae50 2fbd 8104 09be b238 acbb
000002b0: 3e94 a53d 7b29 043d efd5 60bd 9310 f53c
000002c0: bf9f 2f3c 89d4 1d3d 434b abbc f699 be3d
000002d0: 6c22 043e f8cb b33d 51fb e83c a6f4 d23c
000002e0: 3ba6 e23d b890 cc3d 4ac5 09bd 439d 56bd
000002f0: 8ee9 30be 25d3 ddbd 8173 3a3d a4fc 623a
00000300: 42f4 d63d da9f c0bd 8e5d 03bd 5412 86bc
00000310: 973a c6bd 380f 123c 1991 c83b 223c 6c3d
00000320: cdfa a2bc 4a4a ac3c f47e 89bd 2cab c7bd
00000330: 0fbe 023e 4b72 efbc f3bc 46ba 9e71 cabc
00000340: 19da 52bd 2dac bf3b aace b8bd 7727 873e
00000350: fc54 c8bd 9e7f 3c3d 2a3e 723d dc55 b339
00000360: b76a 2a3e 7556 f3bb 837c 573d 50a2 a0bd
00000370: 63f8 e4bc b3bd 353d e7b9 dbbc 7c13 7cbd
00000380: 5d69 7f3d 118a e93d bbfb d3bd 5f37 a53d
00000390: 35a0 e33d 9f1f bb3d 76a4 0a3e 6648 b93d
000003a0: f6d6 13be e228 de3c 8898 1fbd bea7 c33d
000003b0: 6a14 c6bd 7467 83bd 3070 c1bc 4b48 e93c
000003c0: 29c7 763c d4ac 9fbc 2a25 d7bc 4882 b8bd
000003d0: f3a3 25bc 791c cabc 7058 933d 9b06 a93b
000003e0: 8904 213c 4b7b 4cbe bbc5 44be 1dfe 123d
000003f0: 7434 d039 21e5 213d 0ab2 913b 8423 2bbd
0.0047329147 0.12466421 0.16459893 0.08650869 -0.090059474 -0.100303255 -0.09667626 -0.09517323
-0.029846134 0.04690109 0.103230186 0.06937586 0.047550637 -0.017528811 -0.107915 0.07621851
-0.09991655 0.032693453 -0.061923515 0.14665487 -0.0067123678 -0.03801266 0.049190916 0.10533254
-0.08594396 -0.07842366 -0.05907381 -0.065109424 0.04353192 -0.16585633 0.014101292 0.07394358
-0.14357348 0.059278637 0.015298939 -0.02599276 0.07937368 0.060894616 0.007545851 0.13449049
0.12545115 -0.038275942 -0.070536286 -0.053606443 0.019527504 -0.026520008 -0.043810852 0.06548992
-0.0026250097 -0.048725765 0.063162945 -0.032209136 0.02581474 0.043537848 0.04451148 -0.022711262
0.06112315 -0.06154157 0.015368691 0.084984854 0.0160111 -0.02110932 -0.2236322 -0.038818236
-0.022014055 -0.11837754 0.07436733 0.03930818 0.080130845 -0.07211139 -0.055218637 0.010096136
0.08050532 0.0007998522 0.043173496 -0.013381755 -0.014654695 -0.01730448 -0.018631903 0.013855135
0.066261254 0.01725751 0.00983367 0.010860128 0.09348414 0.103141636 -0.1634834 -0.040452886
0.03674354 -0.028685942 0.031021008 0.030182863 0.0194005 0.08583186 0.04773758 -0.03040515
-0.11776287 0.06961651 -0.058541805 0.0025715306 -0.019523758 0.076109186 0.015484689 -0.031026127
-0.098832 0.019309366 -0.014067019 0.07634132 -0.0061731366 0.15423694 0.06954417 0.065097444
-0.032109383 0.03024777 0.15697525 0.07833967 -0.016291272 0.016018989 -0.07303936 -0.09311559
-0.055044852 0.08098807 -0.11346622 0.092206955 0.19019556 0.03445762 -0.05960184 -0.038204167
0.0006658025 -0.018819025 0.020535208 -0.11624665 -0.07238762 -0.09488641 0.1149347 0.07874239
0.036834635 -0.04464465 -0.0009846601 -0.049338285 -0.0957979 -0.059055246 0.15766387 -0.028314544
0.013491099 0.105330236 0.014332128 -0.061209664 0.00011894353 -0.10091372 0.15920392 -0.16175045
-0.06533186 -0.0037186411 0.052039247 0.08748524 0.058367748 0.0047987276 0.07086425 0.1167642
0.08934586 -0.066776596 -0.06397409 0.009001243 -0.050045464 0.03174476 -0.052526794 -0.039983634
-0.09367081 -0.04280155 -0.13380624 -0.005255782 0.080849156 0.03226612 -0.054891523 0.02991513
0.010719239 0.038532767 -0.020909911 0.093067095 0.12903756 0.08779138 0.02844015 0.025751423
0.11066862 0.099885404 -0.033635415 -0.05239607 -0.17276594 -0.10831288 0.04552031 0.0008658862
0.10495807 -0.09405489 -0.032071643 -0.016366161 -0.09679144 0.008914761 0.0061208126 0.057674535
-0.019894982 0.021031518 -0.067136675 -0.09749445 0.12767814 -0.029229304 -0.0007581256 -0.02471238
-0.051477525 0.0058493824 -0.09023793 0.26397297 -0.097818345 0.046020143 0.059141316 0.0003420551
0.16642271 -0.007426078 0.052608978 -0.07843459 -0.027950471 0.044370364 -0.026822044 -0.06154202
0.06235634 0.11403287 -0.10350748 0.08067202 0.111145414 0.091368906 0.135393 0.09047012
-0.1443747 0.027119104 -0.038963825 0.09553479 -0.096718624 -0.064162165 -0.023613065 0.028476855
0.015062132 -0.01949159 -0.026262838 -0.09009224 -0.010109889 -0.02467178 0.071946025 0.005158258
0.009827741 -0.19968908 -0.19216053 0.035886873 0.00039711932 0.039525155 0.0044462727 -0.041781917

cnn_blocks.0.convs.1.bias f4 [16]
00000000: 0d42 803c 5ed0 7fbd 8a59 2f3d 6f6d 033d
00000010: 5079 333d f659 e5bc 7dbf 68bd 34e5 963c
00000020: aa09 27bd c92d 493c a074 d6bc 170b 173c
00000030: 9197 8d3c 3883 cd3c cbe8 91bd 96b4 f93b
0.015656495 -0.062454574 0.04281 0.032086786 0.043816864 -0.027996998 -0.056823242 0.01841984
-0.0407807 0.012278982 -0.026178658 0.009218953 0.017284187 0.025086984 -0.0712448 0.0076204045

cnn_blocks.0.norms.0.weight f4 [16]
00000000: 31df 6d3f 640b 743f e9f6 7e3f 02dc 6d3f
00000010: 3aac 753f f92e 7c3f 15f2 633f 6fb0 823f
00000020: 63be 803f c875 7f3f c30e 763f 1da9 7a3f
00000030: 1b1b 803f 28af 893f f841 643f b67c 803f
0.9291869 0.9532988 0.99595505 0.9291383 0.9596592 0.98509175 0.8904126 1.0210093
1.0058101 0.99789095 0.96116275 0.97914296 1.0008272 1.0756578 0.8916316 1.0038059

cnn_blocks.0.norms.0.bias f4 [16]
00000000: acf0 41bd 7dd7 71bd 02ee ebbc 9dc4 cabd
00000010: 665c edbd 06c9 11bd df21 06be 1042 06be
00000020: 4676 03bc 2a62 83bd e393 b7bd 197d abbc
00000030: 3475 8cbd c858 01be c0ff 0fbe 2ff7 1a3c
-0.047348663 -0.059043396 -0.028800014 -0.09900782 -0.11589889 -0.0355921 -0.13098858 -0.13111138
-0.008023804 -0.06415208 -0.08963754 -0.020933675 -0.06858292 -0.12631524 -0.14062405 0.009458347

cnn_blocks.0.norms.0.running_mean f4 [16]
00000000: 89c8 9c3d 27ac 2abd ba7f 62bd 5c4a 2d3e
00000010: f76d adbd b22c 3dbd 9a60 b93d c3e3 67bd
00000020: 3e66 643d 01be febd 72ff 3dbd 43fe 26bd
00000030: 0abe a5be 394e 0dbe a390 eebc 7e73 bf3d
0.076554365 -0.041668084 -0.05529759 0.16922897 -0.0846824 -0.046185203 0.090516284 -0.056613695
0.05576157 -0.12438584 -0.04638619 -0.040769827 -0.3237155 -0.13799371 -0.029121703 0.093482

cnn_blocks.0.norms.0.running_var f4 [16]
00000000: be07 453d 2805 1e3d 8b8f 3e3d 4487 563d
00000010: ec19 3a3d f3a8 2d3d 69b2 513d aaeb 243d
00000020: 7ec1 793d ba63 153d ee75 1a3d 6b4d ff3c
00000030: 1f55 333d 6e47 4c3d 6521 3e3d 1951 803d
0.048103087 0.038579136 0.046523612 0.052375093 0.045434877 0.04239745 0.051195536 0.04026381
0.060975544 0.03647206 0.037710123 0.031164845 0.04378235 0.04987281 0.046418566 0.06265468

cnn_blocks.0.norms.1.weight f4 [16]
00000000: 7eb4 8f3f 2975 973f c3dc 8f3f 72f0 ac3f
00000010: 8c93 923f ade4 933f 109e 8e3f 7ee7 913f
00000020: 2339 9d3f be2a 8c3f 8c04 863f d29d 9a3f
00000030: 03d1 963f f706 983f 43d0 933f f730 9e3f
1.1226957 1.183263 1.1239246 1.3510878 1.1451278 1.1554161 1.1141987 1.1398771
1.2283062 1.0950544 1.0470138 1.2079413 1.1782535 1.1877126 1.1547931 1.2358693

cnn_blocks.0.norms.1.bias f4 [16]
00000000: 53a6 8ebd b0d9 d1bc eaaf 363d 83ac 80be
00000010: b09d debc f72b 1e3d 0784 983c 148a 093d
00000020: c880 c13d 673a 3bbd 8d73 febc ed38 4cbd
00000030: d403 423d 70e7 d03d d5bc 15bc 9816 ce3d
-0.069653176 -0.025616497 0.04460136 -0.25131616 -0.0271748 0.038616147 0.018617643 0.033578947
0.09448391 -0.045709994 -0.031060958 -0.049858976 0.047366932 0.10200393 -0.009139259 0.10062903

cnn_blocks.0.norms.1.running_mean f4 [16]
00000000: 5e58 993d 0782 b13d 5182 4c3e 8d98 c43d
00000010: 393c 773e 1ad1 cb3d 2b4b 063c e80c 64be
00000020: 165c aabe 725e 303e c2ce a5bd 0b86 dd3d
00000030: f341 9b3c 72f7 33be 40ca 36bd 0123 9bbe
0.07487558 0.08667379 0.19971587 0.09599409 0.24144067 0.09951992 0.008196632 -0.22270548
-0.3327338 0.17223528 -0.080960765 0.10816582 0.018952345 -0.17574862 -0.044626474 -0.30300143

cnn_blocks.0.norms.1.running_var f4 [16]
00000000: 91fe e63d abe8 d33d e775 b83d 5eeb d43d
00000010: 4e26 a53d 9e67 c73d e8bf b73d b138 f73d
00000020: c4fb f23d 4143 a03d b3c0 b93d 2373 b83d
00000030: a01a 983d a41b c23d cd06 6f3d 8d17 f33d
0.112790234 0.10347112 0.09006863 0.10396455 0.08063947 0.0973656 0.0897215 0.1207136
0.11864427 0.07825328 0.090699576 0.090063356 0.07426953 0.09477928 0.058356095 0.11869726
