checkpoints/abl_cnn_rnn/best_model.pt (torch, 327585 bytes, 150 tensors)

embedder.feature_projections.0.weight f4 [32, 1]
0.89114255 -0.037486482 -0.7376471 -1.1897666 -0.19378205 0.7146572 0.32371014 -0.15921055
0.8001726 -0.6472348 -1.0903254 -0.050133828 -0.7877083 -0.2854009 -0.5764076 -1.1616131
-0.009730234 1.1345581 1.5667148 0.5652993 -0.06437108 0.11214783 -1.0865394 -1.0928171
0.7660093 -0.57065964 -0.16098414 -0.12870522 -0.25941285 0.7133343 -1.0550835 -0.7953622
00000000: eb21 643f 6d8b 19bd 71d6 3cbf 464a 98bf
00000010: cd6e 46be c6f3 363f 56bd a53e 1708 23be
00000020: 1dd8 4c3f 2eb1 25bf c88f 8bbf 2159 4dbd
00000030: 40a7 49bf 1120 92be 738f 13bf bdaf 94bf
00000040: 8f6b 1fbc 3339 913f 1c8a c83f 74b7 103f
00000050: fcd4 83bd c3ad e53d b913 8bbf 6ee1 8bbf
00000060: 2f19 443f c016 12bf 07d9 24be 4dcb 03be
00000070: c3d1 84be 149d 363f fa0c 87bf db9c 4bbf

embedder.feature_projections.0.bias f4 [32]
0.09531387 0.24143155 -0.7243461 -0.50424284 0.86567014 0.8480556 0.18258645 0.6223743
-0.3898428 -0.35890332 -0.52278775 -0.3733368 -0.6218725 -0.32834774 -0.90766484 -0.7165317
-0.13016891 -0.2974468 0.19360138 -0.3453749 -0.594422 -0.66077554 -0.9659959 0.7224371
-0.37836435 0.44845447 -0.7782456 0.6064175 0.5012157 -0.70141196 0.3796603 -0.09933866
00000000: eb33 c33d d539 773e bf6e 39bf 0f16 01bf
00000010: 8f9c 5d3f 2c1a 593f f1f7 3a3e ec53 1f3f
00000020: 7a99 c7be 2dc2 b7be 6bd5 05bf 0026 bfbe
00000030: 0933 1fbf 321d a8be b95c 68bf 9f6e 37bf
00000040: 004b 05be f24a 98be 713f 463e fbd4 b0be
00000050: 0a2c 18bf 9628 29bf 824b 77bf a3f1 383f
00000060: f9b8 c1be d39b e53e 1b3b 47bf 2d3e 1b3f
00000070: ac4f 003f bc8f 33bf d662 c23e 1172 cbbd

embedder.feature_projections.1.weight f4 [32, 1]
-0.23325078 0.119099416 0.428124 -0.5341497 -0.5378638 -0.20005402 0.44445518 0.56395257
-0.39282706 -0.24614598 -0.042230945 -0.69803196 -0.7560781 0.034741286 -0.6736048 -0.29998526
-0.9073916 0.6371234 0.583817 -0.28664374 0.008137359 -0.04241299 -0.61444753 0.82853365
0.20002054 -0.5871647 0.43850905 -0.5055283 0.024657119 -0.6268995 -0.13442701 -0.055060323
00000000: 4bd9 6ebe 65ea f33d 1233 db3e 09be 08bf
00000010: 71b1 09bf f6da 4cbe a18f e33e 325f 103f
00000020: a120 c9be b10d 7cbe 5bfa 2cbd 39b2 32bf
00000030: 568e 41bf e14c 0e3d 5d71 2cbf ab97 99be
00000040: d14a 68bf 851a 233f 0875 153f f8c2 92be
00000050: 8f52 053c 3eb9 2dbd 6f4c 1dbf c81a 543f
00000060: 2fd2 4c3e 6d50 16bf 4284 e03e 4d6a 01bf
00000070: bafd c93c 7c7c 20bf 3ca7 09be ef86 61bd

embedder.feature_projections.1.bias f4 [32]
0.59234947 -0.68058944 0.870946 0.5093691 -0.91886336 0.2505554 0.57670933 -0.5162015
-0.13581623 0.94727665 -0.29219267 -0.11936706 0.47810093 -0.72179085 0.56402177 0.85817593
0.8879805 0.27440584 0.268464 -0.2280785 0.68345404 0.95096433 0.21795793 -0.09530022
-0.83801854 0.10585995 -0.16773257 0.80993205 0.27772158 0.95148945 0.79009 -0.63346857
00000000: 37a4 173f 1c3b 2ebf 51f6 5e3f 0366 023f
00000010: a13a 6bbf cc48 803e 39a3 133f c825 04bf
00000020: 6913 0bbe b980 723f 479a 95be b876 f4bd
00000030: a5c9 f43e 49c7 38bf bb63 103f 6bb1 5b3f
00000040: b152 633f ec7e 8c3e 1d74 893e 698d 69be
00000050: d8f6 2e3f 6672 733f 5d30 5f3e c32c c3bd
00000060: 6288 56bf 1acd d83d 16c2 2bbe b557 4f3f
00000070: 8631 8e3e d094 733f 5743 4a3f ff2a 22bf

embedder.stabilizer_embedding.weight f4 [8, 32]
-0.004061083 0.18322833 -0.40956205 -0.38421884 -0.8733978 0.90837276 1.5668968 0.7267223
-0.2956634 0.15623268 -0.5757036 -1.3455695 0.4552377 0.35916188 -0.32697842 -1.2665064
1.2237934 -2.101071 0.39717695 -0.700385 -0.32071432 -0.422079 0.7268066 1.373508
-0.097547226 1.7276182 -0.68261886 0.29702598 -0.8009709 0.702815 1.0507953 -0.48218584
1.0909852 -1.4705629 0.3156327 0.108887605 0.41330394 -1.3153677 -1.952446 -0.16597585
1.7165396 -0.0942081 -0.37316108 0.08699277 1.1138614 1.7079455 0.5433604 -1.4716884
-0.3045043 -0.6567639 -0.3843994 -0.23086601 -1.1065086 0.74040395 -0.499654 -0.8971265
-2.081116 -1.0604131 -0.574791 -1.6811464 1.2321935 0.3674152 1.0839958 -0.39724016
-1.2360519 -0.27489442 0.77510506 -0.79316515 0.5347173 0.19438481 -0.4400268 -0.9012905
0.37880218 -1.6931683 -0.13877803 0.25942326 0.54498327 1.3302052 1.5020145 0.37117258
-0.69289935 0.5040344 -0.19575384 0.006659634 1.1575323 -0.9748782 -0.63308513 -0.46649036
0.34818494 0.06442766 0.7574241 -0.9273966 -0.7194288 -0.43627536 -0.66335344 -0.5645751
0.33352315 1.5027505 0.051642224 1.9148853 -0.24402846 -0.9241217 0.45846835 0.36008647
-0.45500568 2.3065727 -0.92225397 2.1558502 2.3308456 1.352961 0.63350374 -1.8170948
-2.495421 -0.041462634 -1.3962077 -0.50154185 -0.0800125 0.34923798 0.37831524 0.96553266
1.6305543 -2.2727218 -0.96903443 -0.40779275 1.6510302 -0.15097259 -1.0402533 -1.6385227
0.08147539 -0.01966313 0.77157533 -1.1178353 -1.1714699 0.086957365 0.24128911 0.4755898
0.09127748 -1.4963324 2.2981265 0.558092 -0.8274083 0.8015073 -0.84096783 1.9129086
1.0320802 2.45209 -0.58802223 -1.5835822 -1.0370505 -0.096539065 1.6911902 -0.0968629
0.70400095 0.22109848 -1.3245596 -2.1200602 -1.408975 1.707733 3.016152 -1.384842
0.525644 -1.1448126 -0.68106204 0.84225285 1.5202954 0.5350378 -0.97768795 0.9392144
0.96829367 -0.11896474 -0.625144 1.0565269 1.7736512 0.62866443 0.76665276 0.0025189314
1.236627 -0.008716667 -0.35263923 -0.9507042 -0.38410473 0.21800157 0.74529064 -0.045928195
-0.7409802 0.4533513 0.13875978 -0.041889817 1.6637293 -0.93123436 -1.2283965 -2.0971594
1.543802 0.32481584 -1.7354231 -0.7630854 -0.6809014 -0.75252 -0.98014003 -1.7567669
0.7641701 0.13116395 -1.0682057 -0.12856644 -0.17391726 0.60503423 0.50912637 0.7707934
-1.0516961 1.1984919 -0.9015724 -0.6247437 0.7474379 1.0867172 -1.4092655 -0.73130107
1.6615413 0.43427488 -0.46678543 -0.22239928 -0.5874254 -1.510697 0.853014 -0.5600686
0.47462028 0.65529305 1.6222712 -1.4176656 -0.833071 -1.9102281 -0.31760028 -1.3317894
-0.22103578 -0.56327385 2.5010884 0.52213764 -0.046089694 0.47210047 -0.5576284 -0.48613694
0.43940014 -1.2588558 -0.9094953 -1.546667 1.133354 -0.85578656 -0.19002223 -1.4666628
-1.221784 0.5124315 -1.1655858 0.66165406 1.3800339 -1.1711853 0.38880923 -0.8331772
00000000: d512 85bb 35a0 3b3e 1eb2 d1be 55b8 c4be
00000010: 0097 5fbf 1e8b 683f 1390 c83f 790a 3a3f
00000020: 3161 97be 76fb 1f3e 5061 13bf 9f3b acbf
00000030: ea14 e93e 11e4 b73e b769 a7be e21c a2bf
00000040: 43a5 9c3f f277 06c0 c75a cb3e 6e4c 33bf
00000050: ab34 a4be bd1a d8be ff0f 3a3f 1ccf af3f
00000060: d7c6 c7bd 9822 dd3f 1cc0 2ebf ca13 983e
00000070: 6e0c 4dbf afeb 333f 7680 863f 10e1 f6be
00000080: 67a5 8b3f 683b bcbf 9c9a a13e 7700 df3d
00000090: 939c d33e f85d a8bf c0e9 f9bf 93f5 29be
000000a0: 92b7 db3f 2df0 c0bd f80e bfbe 4429 b23d
000000b0: 0393 8e3f f59d da3f ab19 0b3f 4960 bcbf
000000c0: fde7 9bbe ae21 28bf 00d0 c4be 2468 6cbe
000000d0: 13a2 8dbf 1d8b 3d3f a6d2 ffbe 15aa 65bf
000000e0: 0131 05c0 9ebb 87bf 8125 13bf ce2f d7bf
000000f0: 84b8 9d3f d81d bc3e 60c0 8a3f 1063 cbbe
00000100: f336 9ebf f6be 8cbe 496d 463f df0c 4bbf
00000110: 3ce3 083f d00c 473e 314b e1be f9ba 66bf
00000120: 5cf2 c13e bdb9 d8bf d41b 0ebe 20d3 843e
00000130: 0684 0b3f 2a44 aa3f 0342 c03f 550a be3e
00000140: da61 31bf 6608 013f b273 48be 0f39 da3b
00000150: 052a 943f 9e91 79bf de11 22bf d3d7 eebe
00000160: 4c45 b23e a6f2 833d 8ce6 413f dd69 6dbf
00000170: 7c2c 38bf 7c5f dfbe 88d1 29bf fe87 10bf
00000180: 8cc3 aa3e 215a c03f cc86 533d f61a f53f
00000190: 99e2 79be 3d93 6cbf 5dbc ea3e 415d b83e
000001a0: 81f6 e8be e39e 1340 d618 6cbf 73f9 0940
000001b0: 932c 1540 d32d ad3f 4d2d 223f 9096 e8bf
000001c0: fab4 1fc0 b9d4 29bd efb6 b2bf 0c65 00bf
000001d0: 98dd a3bd 52cf b23e 89b2 c13e 262d 773f
000001e0: 01b6 d03f 4674 11c0 a412 78bf 36ca d0be
000001f0: f554 d33f 8f98 1abe 0527 85bf 1dbb d1bf
00000200: 92dc a63d 9314 a1bc f685 453f 3a15 8fbf
00000210: baf2 95bf b416 b23d 7e14 773e 8280 f33e
00000220: b0ef ba3d d287 bfbf 8114 1340 1edf 0e3f
00000230: 08d1 53bf 952f 4d3f ab49 57bf 30da f43f
00000240: 341b 843f 0bef 1c40 a088 16bf d2b2 cabf
00000250: 12be 84bf 46b6 c5bd ec78 d83f 0e60 c6bd
00000260: 6839 343f a467 623e 2b8b a9bf 11af 07c0
00000270: 4b59 b4bf ff96 da3f a208 4140 8142 b1bf
00000280: 9b90 063f 3889 92bf 155a 2ebf e29d 573f
00000290: 0a99 c23f 3df8 083f c249 7abf 5b70 703f
000002a0: 18e2 773f c9a3 f3bd 7009 20bf 463c 873f
000002b0: 0107 e33f 27f0 203f 5b43 443f a814 253b
000002c0: cb49 9e3f 5ad0 0ebc 218d b4be 5a61 73bf
000002d0: 60a9 c4be ce3b 5f3e 5ecb 3e3f 341f 3cbd
000002e0: e1b0 3dbf a91d e83e 0b17 0e3e a894 2bbd
000002f0: 15f5 d43f 6065 6ebf 193c 9dbf dc37 06c0
00000300: 4e9b c53f 434e a63e 5822 debf 9159 43bf
00000310: 8e4f 2ebf 27a5 40bf 75ea 7abf bddd e0bf
00000320: a7a0 433f d84f 063e f7ba 88bf eca6 03be
00000330: 5e17 32be 86e3 1a3f 1b56 023f b752 453f
00000340: fa9d 86bf 2f68 993f 73cd 66bf 34ef 1fbf
00000350: 1758 3f3f 8d19 8b3f d062 b4bf 8c36 3bbf
00000360: 63ad d43f 4759 de3e 80fe eebe a3bc 63be
00000370: 8361 16bf 855e c1bf 205f 5a3f a860 0fbf
00000380: 6e01 f33e 49c1 273f 95a6 cf3f 1176 b5bf
00000390: 2444 55bf 5b82 f4bf 819c a2be 1378 aabf
000003a0: 3457 62be b732 10bf d511 2040 d0aa 053f
000003b0: 8cc8 3cbd 27b7 f13e bcc0 0ebf f1e6 f8be
000003c0: 0ef9 e03e 3022 a1bf afd4 68bf 2ff9 c5bf
000003d0: be11 913f d414 5bbf 3095 42be 9bbb bbbf
000003e0: 6b63 9cbf b62e 033f ea31 95bf 2962 293f
000003f0: f3a4 b03f 66e9 95bf 0112 c73e 1a4b 55bf

embedder.res_block.0.weight f4 [32]
1.0288227 1.0622472 1.0562214 0.99174637 1.058651 1.033407 1.0139339 1.0938041
1.0922252 1.0105801 0.9805213 1.0413501 1.0238544 1.0841881 1.0529166 1.1529785
1.0597541 1.1039258 1.197541 1.0137559 0.9833356 1.05055 0.9539542 1.1880932
1.0505787 0.92909265 0.97364515 0.95854837 1.0057666 1.1697453 1.153237 1.0543859
00000000: 76b0 833f b7f7 873f 4332 873f 17e3 7d3f
00000010: e081 873f ae46 843f 96c8 813f c601 8c3f
00000020: 09ce 8b3f b05a 813f 7203 7b3f f64a 853f
00000030: a90d 833f adc6 8a3f f9c5 863f cd94 933f
00000040: 06a6 873f 714d 8d3f 0649 993f c1c2 813f
00000050: e2bb 7b3f 6c78 863f 5836 743f 7013 983f
00000060: 5d79 863f 04d9 6d3f cf40 793f 6d63 753f
00000070: f6bc 803f 37ba 953f 459d 933f 1ef6 863f

embedder.res_block.0.bias f4 [32]
-0.022809768 0.030709468 -0.015092879 0.013870497 -0.026417183 -0.015096755 -0.06318727 -0.022881832
0.009469627 -0.03201814 0.016660282 0.04825825 -0.005045914 0.06943301 -0.003113168 0.018024413
-0.007917644 -0.017845128 -0.010736958 0.050167907 0.018270642 -0.015044524 0.10894577 -0.02670415
0.05419999 -0.029839974 0.049940933 -0.017985882 0.005164072 -0.004469727 -0.037011284 0.03433298
00000000: 8ddb babc 6c92 fb3c 1f48 77bc 1541 633c
00000010: d968 d8bc 6158 77bc 5468 81bd ae72 bbbc
00000020: 7f26 1b3c 7425 03bd 257b 883c 71aa 453d
00000030: 3258 a5bb e532 8e3d 4b06 4cbb efa7 933c
00000040: 02b9 01bc f22f 92bc 11ea 2fbc dd7c 4d3d
00000050: 50ac 953c 4f7d 76bc f61e df3d a9c2 dabc
00000060: cf00 5e3d f672 f4bc dd8e 4c3d 2157 93bc
00000070: 6037 a93b ca76 92bb 2599 17bd bda0 0c3d

embedder.res_block.1.weight f4 [32, 32]
0.10482379 0.08236978 0.101859175 0.11922175 0.16983365 0.019977659 -0.15644944 0.18676357
0.09025173 -0.16208507 0.19261561 0.16213998 0.011515294 -0.17061022 -0.12021081 0.29165283
0.17819409 -0.2866631 -0.341137 0.04716011 -0.058286767 -0.09918151 -0.11141416 0.2133204
0.04566381 0.090281226 0.08320743 0.0643059 0.20727511 -0.17436476 -0.01643827 -0.13869531
0.1720926 0.07088588 0.027922394 0.12400064 0.02305051 0.16224702 0.18077649 0.086213805
0.19934204 0.105025075 0.04051 -0.09139659 -0.21915787 -0.06977504 -0.09108687 0.028336056
0.15104963 0.11607246 0.17434369 -0.10140159 -0.17796028 -0.11003418 -0.15447594 -0.02916929
0.13989262 0.07698891 -0.12891638 0.078936726 -0.07605651 0.19704019 0.06707586 0.002130222
-0.03738899 -0.117837936 -0.09194597 0.0252202 0.15138724 -0.23205201 -0.06771589 -0.14669478
0.16315733 0.26278466 0.014957752 -0.013744755 0.044451557 -0.04687938 0.2523111 0.19446893
0.061202783 0.013290715 -0.1598629 0.17158015 -0.16906965 0.20704304 -0.19329228 0.16061439
-0.13465448 0.040194456 -0.0095618665 0.0029540868 0.10186505 -0.12697266 0.22324856 0.15719533
0.0017577902 0.17123471 -0.07352443 -0.16852494 0.05302264 -0.048254527 -0.07698383 -0.07579683
0.18260098 0.012875964 -0.05127842 -0.016308323 -0.19703345 -0.03489571 0.14083359 -0.1865064
-0.10272197 0.18861677 0.14071207 0.1057072 0.1872701 -0.07625947 0.09071504 0.01471088
0.0827464 -0.13304943 0.29548895 0.0835074 -0.23231345 -0.025542084 -0.024602104 0.09533261
-0.0432043 0.050128505 0.079898246 0.1142489 0.16032806 -0.13721775 -0.108809605 0.0041309414
0.07497818 0.07035942 0.07268653 -0.095660575 -0.106092826 -0.1045628 -0.04520293 0.072331905
-0.051295865 -0.007266434 -0.053043924 -0.14561783 -0.11280479 -0.016239988 0.0025463891 0.112376645
-0.075734586 0.071235776 -0.10481571 -0.12847872 0.026720466 -0.07187563 -0.17259225 0.18655862
0.053207193 0.11498622 0.16100034 -0.047183163 -0.12366066 0.159575 -0.09292938 0.063875
-0.07145804 0.1310155 -0.0673176 -0.1406369 -0.14107482 -0.10760634 -0.07741721 0.19953652
-0.12460618 -0.08258295 -0.11832407 -0.17597835 0.16307262 0.02782746 0.06954521 0.23571882
0.0055753198 -0.060383756 0.07246569 0.08047604 0.051703222 -0.17133528 0.001204497 0.09694482
-0.19228618 -0.08531699 0.114898145 0.05388849 0.037024207 0.121472664 -0.064393006 -0.018160043
-0.1263197 0.17738189 0.115427464 -0.15812677 0.07869136 -0.09887443 -0.07611496 0.02073663
0.17473336 -0.17922592 -0.035284556 -0.23261553 0.08013619 0.014753035 0.09165897 0.14189424
-0.06426317 -0.107439294 0.16707249 -0.09218928 0.18207014 -0.35413024 -0.079518706 -0.046272125
-0.04466464 -0.107782684 -0.17285992 -0.11432224 -0.15710145 0.0054626577 -0.020054946 -0.12519142
-0.0003905931 0.10087993 0.060806103 0.18275788 0.12957461 -0.028241515 0.04868133 0.13590088
-0.031616144 -0.007115078 -0.033089597 0.026990952 0.06322478 -0.07784987 0.18174222 0.10841306
0.067642376 0.14340019 0.18347862 0.10074905 -0.16352457 0.17575383 -0.12635773 0.11891926
00000000: dbad d63d 7db1 a83d 8b9b d03d 882a f43d
00000010: dfe8 2d3e 30a8 a33c 4834 20be f33e 3f3e
00000020: e6d5 b83d a1f9 25be 073d 453e 0608 263e
00000030: a5aa 3c3c 72b4 2ebe 1631 f6bd 8553 953e
00000040: 8378 363e 81c5 92be 82a9 aebe f62a 413d
00000050: 1bbe 6ebd ad1f cbbd 1b2d e4bd aa70 5a3e
00000060: fa09 3b3d 5de5 b83d a868 aa3d d0b2 833d
00000070: ed3f 543e ad8c 32be 8da9 86bc 2506 0ebe
00000080: 0b39 303e 9e2c 913d 81bd e43c 0cf4 fd3d
00000090: 6cd4 bc3c 1524 263e 791d 393e dd90 b03d
000000a0: 5220 4c3e 6317 d73d d0ed 253d 232e bbbd
000000b0: ec6a 60be 37e6 8ebd c18b babd 0421 e83c
000000c0: c1ac 1a3e 66b7 ed3d 2787 323e a3ab cfbd
000000d0: 383b 36be 9a59 e1bd f12e 1ebe 6ff4 eebc
000000e0: 0340 0f3e 5dac 9d3d a802 04be 94a9 a13d
000000f0: 84c3 9bbd e7c4 493e 125f 893d 329b 0b3b
00000100: 3325 19bd 0455 f1bd 2b4e bcbd 989a ce3c
00000110: 4205 1b3e 0b9f 6dbe a1ae 8abd 2837 16be
00000120: b712 273e b68b 863e 5c11 753c ae31 61bc
00000130: d612 363d 9804 40bd ec2e 813e dd22 473e
00000140: c5af 7a3d 4dc1 593c 1ab3 23be b5b2 2f3e
00000150: 9820 2dbe 1703 543e 69ee 45be 1978 243e
00000160: dde2 09be f1a2 243d 60a9 1cbc 5a99 413b
00000170: a09e d03d 1f05 02be 459b 643e d0f7 203e
00000180: a765 e63a 2758 2f3e fa93 96bd cd91 2cbe
00000190: 452e 593d 8aa6 45bd b3a9 9dbd 5e3b 9bbd
000001a0: c0fb 3a3e b5f5 523c 5209 52bd 0899 85bc
000001b0: 23c3 49be ceee 0ebd ae36 103e 89fb 3ebe
000001c0: e55f d2bd c124 413e d316 103e 047d d83d
000001d0: bcc3 3f3e ed2d 9cbd cfc8 b93d e705 713c
000001e0: f276 a93d 1c3e 08be 544a 973e ed05 ab3d
000001f0: 94e3 6dbe a23d d1bc 5a8a c9bc be3d c33d
00000200: fef6 30bd 8c53 4d3d b1a1 a33d 54fb e93d
00000210: 0a2d 243e cf82 0cbe 92d7 debd d95c 873b
00000220: 298e 993d 9918 903d addc 943d b1e9 c3bd
00000230: 3247 d9bd 0525 d6bd b526 39bd c022 943d
00000240: 9d1b 52bd 441b eebb 9644 59bd d71c 15be
00000250: 3306 e7bd b909 85bc 52e1 263b ba25 e63d
00000260: bc1a 9bbd 10e4 913d 9ea9 d6bd ed8f 03be
00000270: e1e4 da3c 8833 93bd 06bc 30be 3909 3f3e
00000280: c9ef 593d e57d eb3d 46dd 243e 2243 41bd
00000290: cd41 fdbd a167 233e c251 bebd e5d0 823d
000002a0: 9858 92bd ed28 063e cfdd 89bd 1f03 10be
000002b0: eb75 10be b660 dcbd ea8c 9ebd 4d53 4c3e
000002c0: 8631 ffbd 4021 a9bd e453 f2bd ab33 34be
000002d0: 82fc 263e 6af6 e33c b86d 8e3d 4660 713e
000002e0: 2cb1 b63b f554 77bd e468 943d 9fd0 a43d
000002f0: c2c6 533d 8472 2fbe 36e0 9d3a 018b c63d
00000300: abe6 44be adba aebd b84f eb3d 2dba 5c3d
00000310: b2a6 173d a9c6 f83d 7be0 83bd 5fc4 94bc
00000320: f459 01be 99a3 353e 3c65 ec3d fceb 21be
00000330: f028 a13d ad7e cabd 29e2 9bbd dddf a93c
00000340: 4ded 323e 0087 37be 8a86 10bd c432 6ebe
00000350: 711e a43d b7b6 713c b3b7 bb3d b94c 113e
00000360: 699c 83bd 2209 dcbd 0d15 2b3e bccd bcbd
00000370: 9870 3a3e 8f50 b5be b4da a2bd d787 3dbd
00000380: 45f2 36bd 2bbd dcbd 3102 31be c721 eabd
00000390: 34df 20be 1800 b33b 454a a4bc 2e32 00be
000003a0: 85c8 ccb9 239a ce3d d20f 793d e224 3b3e
000003b0: 35af 043e c05a e7bc 1366 473d 9a29 0b3e
000003c0: ee7f 01bd 9a25 e9bb f588 07bd 211c dd3c
000003d0: fe7b 813d c16f 9fbd a21a 3a3e ab07 de3d
000003e0: 1688 8a3d 80d7 123e d2e1 3b3e 8555 ce3d
000003f0: fc72 27be d0f8 333e ec63 01be f18b f33d

embedder.res_block.1.bias f4 [32]
0.08622393 -0.16521263 -0.009861518 0.029046224 0.11502509 -0.15192793 -0.13049422 -0.035466928
-0.036011107 -0.11545931 0.008703457 -0.1550227 0.10713805 0.15641375 -0.1880621 -0.08528799
-0.1329506 -0.11075654 0.19473626 0.15929814 0.10402273 0.04210794 -0.023122028 0.051638924
-0.0009410018 0.024915535 -0.09581934 -0.0035657804 0.080126956 0.102503106 -0.16343105 -0.0044450266
00000000: 2c96 b03d 802d 29be 3492 21bc 59f2 ed3c
00000010: 4692 eb3d ff92 1bbe 47a0 05be c545 11bd
00000020: 6280 13bd ee75 ecbd f298 0e3c 45be 1ebe
00000030: 326b db3d ed2a 203e 5a93 40be 78ab aebd
00000040: 3424 08be 53d4 e2bd f168 473e 0d1f 233e
00000050: de09 d53d 6079 2c3d 686a bdbc 5683 533d
00000060: 90ad 76ba aa1b cc3c ee3c c4bd deaf 69bb
00000070: 9a19 a43d 26ed d13d 785a 27be 96a7 91bb

embedder.res_block.3.weight f4 [32, 32]
-0.34030795 0.12596926 0.038438816 -0.06838058 -0.109236784 0.12736242 -0.23232913 -0.042721063
-0.07386928 0.08821283 0.029961994 -0.16114978 -0.09468007 0.0144158285 0.050748117 -0.21311484
0.17849492 -0.07084469 -0.08623665 0.105900705 0.11575006 -0.10455429 0.025891036 -0.2368098
-0.06282847 -0.023303788 -0.1207825 0.0037160604 0.04263504 -0.07154207 0.027662411 0.0588864
-0.041787352 0.070589125 -0.15988804 0.07527106 -0.09238165 -0.13922821 -0.17288177 0.025050858
0.14838466 0.025604809 0.04482517 -0.072533935 0.18381113 -0.11018894 0.028906455 0.22107805
0.13565198 0.044352565 -0.18101205 -0.1646435 -0.19719729 -0.090873934 -0.09214393 -0.011802269
-0.02019349 0.45309505 -0.12326285 0.0953965 -0.0526061 0.09962674 0.060157895 0.23773913
-0.12873204 -0.16088173 -0.08735628 0.123200476 -0.017053755 -0.026068967 -0.0368687 -0.10349516
0.014541308 -7.157236e-06 -0.12384314 -0.07606851 -0.038883157 0.058308307 -0.039614365 -0.14235896
-0.1751038 0.19845334 0.26589826 0.10255592 0.25623792 -0.15352735 0.05719635 0.1515203
0.015464084 -0.23397346 0.029031338 0.07236059 -0.1824619 -0.04581176 0.073207416 0.012509536
0.21469681 -0.19965334 -0.1551542 0.043070253 -0.11212535 0.06694828 0.05676947 0.016820898
0.10501195 -0.048186015 -0.07686952 0.09539564 0.15050325 -0.25223297 0.0926258 0.14787444
-0.2856354 -0.06959388 -0.2504702 -0.05193751 -0.027523994 -0.03342975 -0.18740825 -0.14236961
0.18051109 0.24061877 0.17758164 0.14329009 0.14428756 -0.13221739 0.019651035 -0.01879431
-0.11027088 -0.047212828 0.13896702 -0.1533112 0.17174149 -0.10643239 -0.13192138 -0.13105209
0.11411576 -0.06455943 0.09063902 0.042656437 -0.0135953175 -0.079653315 -0.097250365 -0.088096164
-0.15845369 0.19699912 0.08522271 0.16568409 0.07674105 -0.18036373 -0.10327006 -0.17826624
0.044497464 0.05290728 -0.12155457 -0.17070606 0.059460938 -0.15059842 -0.050184924 -0.03183571
0.022158327 -0.13291244 0.065281786 0.080905646 -0.1600068 -0.079505496 0.010086968 -0.0894899
-0.029061858 -0.2588806 -0.10271268 0.044738404 -0.115027785 0.18717578 0.027208503 0.21912321
-0.017616674 0.043440837 -0.014700495 -0.20257957 -0.100919396 0.13471556 -0.13525699 -0.042422492
0.08261907 0.08951824 -0.036822416 0.27484545 0.014276433 -0.083099134 -0.1325587 0.0143655315
0.11656843 -0.09039462 -0.101940535 0.046069045 -0.09393821 0.09200253 0.062388573 -0.0552871
-0.3079311 0.16301903 -0.08940042 -0.017507115 0.42894143 0.0040879413 0.07583363 -0.33280313
-0.028574934 0.18772508 0.18759415 0.14309664 0.2463045 -0.04149396 0.17416552 -0.034173302
0.16029516 0.13771243 0.10991237 0.13925722 -0.019283673 0.1096865 -0.055940233 0.05589977
0.030666271 0.03208243 -0.0016032475 0.045913905 -0.09564183 -0.11310986 0.072973415 0.15014808
-0.1603232 0.006844062 -0.08036693 -0.04107604 0.07865547 0.060752224 0.044074487 0.15041131
0.1502371 0.08653751 0.1488874 -0.13996512 0.014505315 0.13410416 0.15447363 0.27199706
-0.043232538 0.124312505 0.09525254 -0.026656743 0.12570548 0.10497027 -0.15423538 0.21201444
00000000: d83c aebe 16fe 003e 0572 1d3d 1e0b 8cbd
00000010: 89b7 dfbd 4b6b 023e b0e7 6dbe 48fc 2ebd
00000020: c748 97bd eea8 b43d db72 f53c 7304 25be
00000030: a0e7 c1bd 5e30 6c3c 42dd 4f3d c73a 5abe
00000040: 5fc7 363e 0517 91bd d79c b0bd 78e2 d83d
00000050: 5e0e ed3d 8f20 d6bd 7019 d43c 457e 72be
00000060: 36ac 80bd 96e7 bebc d15c f7bd 2689 733b
00000070: 14a2 2e3d a684 92bd 489c e23c de32 713d
00000080: 3729 2bbd 0891 903d b1b9 23be b727 9a3d
00000090: 9732 bdbd d791 0ebe eb07 31be 7537 cd3c
000000a0: 26f2 173e 2dc1 d13c 999a 373d ac8c 94bd
000000b0: fc38 3c3e bdaa e1bd 3bcd ec3c 4962 623e
000000c0: 5ae8 0a3e 09ab 353d 395b 39be 4e98 28be
000000d0: 16ee 49be 1d1c babd f5b5 bcbd 4e5e 41bc
000000e0: d16c a5bc 13fc e73e 3c71 fcbd 3d5f c33d
000000f0: 7e79 57bd 1b09 cc3d 2068 763d e371 733e
00000100: 55d2 03be 2ebe 24be d9e7 b2bd 8850 fc3d
00000110: 51b4 8bbc 968e d5bc a203 17bd 45f5 d3bd
00000120: ab3e 6e3c 3028 f0b6 79a1 fdbd cfc9 9bbd
00000130: f243 1fbd b1d4 6e3d ac42 22bd 8cc6 11be
00000140: 694e 33be 5a37 4b3e d123 883e d708 d23d
00000150: 9e31 833e 4636 1dbe b846 6a3d 2328 1b3e
00000160: 125d 7d3c bd96 6fbe 21d3 ed3c ca31 943d
00000170: 4bd7 3abe 1da5 3bbd c5ed 953d ccf4 4c3c
00000180: 7bd9 5b3e ed71 4cbe bee0 1ebe 6f6a 303d
00000190: faa1 e5bd 2e1c 893d 1b87 683d fbcb 893c
000001a0: 8110 d73d b35e 45bd c46d 9dbd ca5e c33d
000001b0: 861d 1a3e ae24 81be 98b2 bd3d 666c 173e
000001c0: ce3e 92be 3c87 8ebd a13d 80be 6dbc 54bd
000001d0: 007a e1bc a2ed 08bd f3e7 3fbe 57c9 11be
000001e0: e6d7 383e c464 763e f6d7 353e a3ba 123e
000001f0: 1ec0 133e ff63 07be 35fb a03c 86f6 99bc
00000200: b3d5 e1bd 3d62 41bd 5f4d 0e3e 9cfd 1cbe
00000210: 00dd 2f3e 3af9 d9bd 6616 07be 8532 06be
00000220: 86b5 e93d bc37 84bd f3a0 b93d 84b8 2e3d
00000230: e5be 5ebc 4721 a3bd 332b c7bd c36b b4bd
00000240: af41 22be 23ba 493e 3f89 ae3d 17a9 293e
00000250: 692a 9d3d 45b1 38be 417f d3bd 6d8b 36be
00000260: f942 363d 4eb5 583d 9af1 f8bd 92cd 2ebe
00000270: 508d 733d 7936 1abe b58e 4dbd 2966 02bd
00000280: 6185 b53c 331a 08be 75b2 853d dcb1 a53d
00000290: d3d8 23be c7d3 a2bd cf43 253c 7b46 b7bd
000002a0: 2213 eebc ff8b 84be 075b d2bd 9e3f 373d
000002b0: b093 ebbd 02ab 3f3e 5ee4 de3c d661 603e
000002c0: d850 90bc 05ef 313d 58da 70bc 0571 4fbe
000002d0: d4ae cebd e0f2 093e cf80 0abe 35c3 2dbd
000002e0: 3034 a93d 5755 b73d 1ad3 16bd 8bb8 8c3e
000002f0: b3e7 693c e12f aabd 78bd 07be 685d 6b3c
00000300: 6ebb ee3d d120 b9bd 33c6 d0bd e5b2 3c3d
00000310: ad62 c0bd d36b bc3d 298b 7f3d ba74 62bd
00000320: 25a9 9dbe 76ee 263e 9117 b7bd 156b 8fbc
00000330: 369e db3e 23f4 853b aa4e 9b3d 2c65 aabe
00000340: fb15 eabc 013b 403e ae18 403e ed87 123e
00000350: 3f37 7c3e 92f5 29bd 7258 323e 4ef9 0bbd
00000360: 6a24 243e 7d04 0d3e bd19 e13d 7299 0e3e
00000370: cbf8 9dbc 51a3 e03d 9621 65bd 28f7 643d
00000380: d537 fb3c de68 033d 0f24 d2ba 3810 3c3d
00000390: dddf c3bd 24a6 e7bd 1673 953d 6bc0 193e
000003a0: c42b 24be 2744 e03b 6b97 a4bd 5a3f 28bd
000003b0: 1e16 a13d 53d7 783d 7387 343d 6c05 1a3e
000003c0: c1d7 193e 943a b13d f075 183e 0453 0fbe
000003d0: b3a7 6d3c 9a52 093e 562e 1e3e 3343 8b3e
000003e0: 9a14 31bd 8e97 fe3d c413 c33d 3e5f dabc
000003f0: f0b8 003e a7fa d63d e1ef 1dbe 501a 593e

embedder.res_block.3.bias f4 [32]
0.03371059 -0.09361802 0.13628972 0.038918715 -0.00025068628 0.116715774 0.069036305 0.111919
0.09471466 -0.19390936 -0.0628767 0.03756644 0.18044168 -0.053628955 -0.07472461 0.15190658
0.15190333 -0.16951449 0.12466263 -0.044844482 -0.010732814 0.10222579 0.1778114 0.09027197
-0.058651283 0.10909475 -0.14136626 0.047280893 0.10826573 0.14099146 0.11407751 0.05099215
00000000: 1e14 0a3d ceba bfbd 888f 0b3e 3b69 1f3d
00000010: 8b6e 83b9 ae08 ef3d e862 8d3d ca35 e53d
00000020: c2f9 c13d 2d90 46be 80c5 80bd 44df 193d
00000030: b4c5 383e 09aa 5bbd 3709 99bd 668d 1b3e
00000040: 8c8c 1b3e 3595 2dbe 1f4f ff3d d9ae 37bd
00000050: afd8 2fbc c15b d13d 3114 363e 83e0 b83d
00000060: 543c 70bd 116d df3d 51c2 10be 9ca9 413d
00000070: 6cba dd3d 1160 103e 78a1 e93d 25dd 503d

cnn_blocks.0.proj_in.weight f4 [16, 32]
0.037951104 0.053094994 -0.06860587 0.011787345 0.110955305 -0.057036757 -0.14513353 -0.14272201
-0.07010601 0.121152505 -0.16514964 0.077973016 0.041026637 -0.13204297 0.15478119 -0.070728555
-0.051953353 0.12310932 0.17329282 -0.0015823935 0.09998875 0.1753096 -0.11734132 0.04388499
-0.0050909785 -0.004324172 0.11580181 0.106139705 -0.01906138 0.091874585 0.039699808 0.03992439
-0.12891023 -0.16395244 0.17638183 0.09801646 -0.030072795 -0.0069148596 -0.040653408 -0.08622503
-0.05488106 0.047286987 -0.14375576 0.05521653 0.054728225 0.26738566 -0.119101115 0.026198847
0.07798037 0.0015257396 0.11736208 -0.18992072 0.21858738 0.0529379 -0.0044969143 0.084641926
-0.12436968 -0.076937094 0.02240835 -0.12245745 -0.023959588 0.20924282 0.17375778 -0.24236774
0.027161466 0.13088842 0.04286668 0.016173191 -0.15004767 0.035934273 -0.16161785 -0.09558857
0.1707098 -0.07693798 0.06779494 -0.01902896 -0.14719123 0.052554667 -0.07465916 0.14123364
-0.21797933 -0.107130006 0.01991135 0.100755595 -0.11190673 0.06388039 -0.06404937 0.09916736
-0.07513937 -0.070999056 0.017505 0.058893755 -0.15905717 -0.11500988 -0.18245894 0.17101735
0.049401127 0.076684944 0.15640576 0.031135777 -0.122892104 0.091520235 0.09126506 0.12745023
-0.09668381 0.17044297 -0.14913078 -0.05743166 0.050048083 0.0119519625 -0.057409965 -0.057294674
-0.09124894 0.13388357 -0.19005293 -0.023237951 -0.08362136 0.12538074 -0.10698614 0.09025463
0.20950657 -0.04765981 -0.015163686 -0.08773803 -0.08397442 -0.093444005 0.17231752 -0.13625018
0.03259378 -0.16413851 -0.082864024 -0.20783815 -0.055255122 0.13429509 0.048910495 -0.25244942
0.08503813 0.016996883 -0.05996959 0.20276894 0.15711215 -0.11109732 0.08421278 0.07636822
-0.12023529 -0.013660097 0.24461155 -0.124514915 -0.09939242 -0.12295028 -0.072845414 -0.11258376
0.12864843 -0.05530924 -0.09749313 0.019498808 0.1825442 0.01604189 0.0338685 -0.24299102
0.21168748 -0.18175927 -0.07367541 0.2480542 -0.061909474 0.08168403 0.07546387 -0.048100784
-0.0019419682 -0.1267034 -0.10512639 -0.020311816 0.09775173 0.066621974 -0.0068867607 0.16184849
-0.07767223 0.1577546 0.10055755 -0.12825619 0.15871188 -0.07462952 0.11877505 -0.092326075
-0.0019838875 0.10035183 0.028921975 -0.10068685 -0.10180842 -0.19440892 -0.07224157 0.09242075
0.12864174 -0.084039256 0.17499186 0.09065423 -0.08905438 -0.23087302 0.07367671 -0.14274532
-0.115665704 0.13440014 -0.08574073 -0.14326812 0.09594104 -0.06607592 -0.19202979 -0.1497423
-0.057224523 -0.08801435 0.08410456 0.010825997 0.0053201457 -0.012117215 -0.13469914 0.12594219
-0.038941186 -0.18303952 -0.041101553 0.124353796 -0.1597079 0.056290783 -0.17387654 -0.047254715
-0.118403815 -0.027410593 0.014113161 -0.07422545 0.011178762 -0.0011873066 -0.07387842 0.015951784
-0.079817384 0.106385194 0.06661874 0.029785948 -0.06848704 0.17345583 -0.007344033 0.04401946
0.08821737 -0.04258245 0.18030554 0.14012678 0.08466997 -0.014382235 -0.17757118 0.120924674
0.05609124 0.006095153 0.098859176 -0.016092338 -0.019066675 -0.005533661 0.15006539 0.11846951
00000000: 9e72 1b3d 237a 593d 3c81 8cbd b51f 413c
00000010: 893c e33d 609f 69bd e29d 14be b825 12be
00000020: bd93 8fbd ce1e f83d fd1c 29be 51b0 9f3d
00000030: 8c0b 283d 4636 07be f67e 1e3e 22da 90bd
00000040: 0acd 54bd bd20 fc3d ac73 313e 5168 cfba
00000050: e7c6 cc3d 5c84 333e a550 f0bd bfc0 333d
00000060: 39d2 a6bb c9b1 8dbb 8029 ed3d c65f d93d
00000070: 9c26 9cbc be28 bc3d 449c 223d c287 233d
00000080: 0b01 04be 26e3 27be 709d 343e dbbc c83d
00000090: 395b f6bc 0c96 e2bb 3084 26bd c096 b0bd
000000a0: f6ca 60bd 00b0 413d b634 13be ba2a 623d
000000b0: b42a 603d c6e6 883e 49eb f3bd f79e d63c
000000c0: 2cb4 9f3d 53fb c73a 885b f03d 947a 42be
000000d0: 5fd5 5f3e 69d5 583d da5a 93bb bf58 ad3d
000000e0: 88b5 febd 3291 9dbd b791 b73c f9ca fabd
000000f0: e646 c4bc c043 563e 8fed 313e 402f 78be
00000100: b981 de3c 9d07 063e f994 2f3d a47d 843c
00000110: 19a6 19be d12f 133d 267f 25be f1c3 c3bd
00000120: 8dce 2e3e a991 9dbd 13d8 8a3d 9fe2 9bbc
00000130: 4cb9 16be 9043 573d e7e6 98bd 8d9f 103e
00000140: f935 5fbe fa66 dbbd 211d a33c f358 ce3d
00000150: 5b2f e5bd b9d3 823d 512c 83bd 4218 cb3d
00000160: ace2 99bd f467 91bd a566 8f3c 943a 713d
00000170: e2df 22be 4d8a ebbd 84d6 3abe 2c1f 2f3e
00000180: d658 4a3d ff0c 9d3d d528 203e 7510 ff3c
00000190: dbae fbbd f66e bb3d 2de9 ba3d 5082 023e
000001a0: 2902 c6bd 9a88 2e3e bdb5 18be 763d 6bbd
000001b0: 38ff 4c3d 2ad2 433c b626 6bbd d2ad 6abd
000001c0: b9e0 babd c618 093e 3c9d 42be 845d bebc
000001d0: ad41 abbd cf63 003e 8d1b dbbd 6bd7 b83d
000001e0: e488 563e ef36 43bd 1c71 78bc ffaf b3bd
000001f0: c8fa abbd 925f bfbd 0174 303e 2b85 0bbe
00000200: 0e81 053d ed13 28be 9db4 a9bd 86d3 54be
00000210: 3253 62bd a784 093e 5f56 483d 0d41 81be
00000220: 7928 ae3d 0c3d 8b3c aca2 75bd a9a2 4f3e
00000230: 02e2 203e fe86 e3bd c077 ac3d f166 9c3d
00000240: eb3d f6bd 99ce 5fbc 737b 7a3e ad01 ffbd
00000250: 418e cbbd 5bcd fbbd fa2f 95bd 5092 e6bd
00000260: 6abc 033e f18b 62bd 7aaa c7bd f7bb 9f3c
00000270: deec 3a3e 486a 833c b2b9 0a3d a3d2 78be
00000280: 9ac4 583e 1a1f 3abe 22e3 96bd ec01 7e3e
00000290: ca94 7dbd f549 a73d cd8c 9a3d 5405 45bd
000002a0: a489 feba 89be 01be 814c d7bd f764 a6bc
000002b0: 0f32 c83d 1a71 883d 56aa e1bb 9cbb 253e
000002c0: 9e12 9fbd 6c8a 213e 1ef1 cd3d 9755 03be
000002d0: 5e85 223e 5dd7 98bd 5540 f33d 7415 bdbd
000002e0: 1c04 02bb 4385 cd3d c7ed ec3c e834 cebd
000002f0: ef80 d0bd 2213 47be 63f3 93bd 1747 bd3d
00000300: a9ba 033e c61c acbd 1131 333e eda8 b93d
00000310: 2562 b6bd fa69 6cbe d1e3 963d d42b 12be
00000320: 24e2 ecbd 31a0 093e d698 afbd e1b4 12be
00000330: bc7c c43d d052 87bd 75a3 44be 0c56 19be
00000340: 4364 6abd de40 b4bd 033f ac3d 865f 313c
00000350: 9e54 ae3b 4987 46bc 92ee 09be fdf6 003e
00000360: cb80 1fbd b66e 3bbe 1a5a 28bd 34ad fe3d
00000370: 788a 23be 2a91 663d b10c 32be 298e 41bd
00000380: b37d f2bd 2e8c e0bc e33a 673c 8303 98bd
00000390: 2027 373c 669f 9bba 924d 97bd 51ad 823c
000003a0: 4c77 a3bd 7be0 d93d 686f 883d a901 f43c
000003b0: ef42 8cbd 689e 313e 37a6 f0bb c04d 343d
000003c0: 4fab b43d ef6a 2ebd 04a2 383e 657d 0f3e
000003d0: 7367 ad3d 77a3 6bbc 38d5 35be 5ba7 f73d
000003e0: eebf 653d d9b9 c73b ae76 ca3d 14d4 83bc
000003f0: b731 9cbc b753 b5bb beaa 193e 24a0 f23d

cnn_blocks.0.proj_in.bias f4 [16]
-0.081924856 -0.06335755 -0.053553887 -0.02167933 -0.0069399076 -0.12228605 0.04532143 0.047077376
0.09080935 -0.07074531 -0.08381212 0.043409903 0.14703901 -0.10336307 0.02638734 0.027271124
00000000: 38c8 a7bd 9ac1 81bd 525b 5bbd da98 b1bc
00000010: 2a68 e3bb 1c71 fabd f7a2 393d 35d4 403d
00000020: 41fa b93d ebe2 90bd b0a5 abbd 95ce 313d
00000030: 6591 163e 04b0 d3bd 432a d83c b167 df3c

cnn_blocks.0.convs.0.weight f4 [16, 16, 3, 3]
0.00042384103 -0.04957957 -0.09856878 -0.018250817 0.05266608 0.08041803 -0.08100634 0.06666194
-0.08998927 0.068922564 0.028329508 0.0038697436 0.008519433 0.04815282 0.14396212 0.073089294
-0.06252841 0.024413748 -0.06043296 0.005113712 -0.074522145 -0.013846783 -0.027480591 -0.00248107
0.057703894 0.0816587 0.1157101 -0.031341687 -0.06842168 0.00079230685 0.06445497 -0.19282052
-0.03627276 0.004338507 0.03769528 0.08141759 -0.009685148 -0.18537593 0.018598715 -0.16797419
-0.06614603 0.040090468 -0.12534134 -0.0482615 0.06436849 -0.025434095 0.06962947 0.041942075
-0.069490865 0.047572326 -0.001033872 -0.054284353 -0.024876377 -0.028966004 -0.07850984 -0.067359574
-0.087019734 -0.06773605 0.026413038 -0.0815258 -0.0096304 0.1376049 -0.024479143 -0.0007716735
0.06941651 0.03956586 -0.08934965 0.035058714 0.059445392 0.12839596 0.02951969 0.007596743
-0.086139314 0.035010483 -0.066465646 -0.0106147425 -0.06277889 -0.038567144 -0.13123778 0.04701839
-0.052847143 0.027381368 0.023761354 0.059104554 0.14913861 -0.01805394 0.020934803 0.015152288
-0.1312842 -0.029926762 -0.0143164685 0.10288404 -0.001540199 0.1376527 -0.051739633 0.027493699
-0.09676641 -0.05115803 -0.029776681 -0.044846334 0.022860873 0.0276345 -0.024860619 0.10312596
0.076465 0.041745372 0.08882172 -0.01671564 0.09615205 0.07922066 -0.020024953 0.028620658
-0.04055633 0.0056364876 -0.053869806 0.05932943 0.03575132 -0.044662703 -0.061206564 -0.033552874
-0.04652232 -0.047897656 0.057255946 0.07005677 -0.050858 0.030856518 -0.066931896 0.05176265
-0.04302137 0.108026035 -0.04306862 -0.17809775 0.06785151 0.0021686556 -0.054560952 -0.02078562
0.029467849 0.09713705 0.05631256 -0.060737077 0.018019142 -0.037609093 0.054430168 0.03995234
-0.007433373 0.04532772 -0.076575466 0.09449944 -0.11121364 0.049301915 -0.001136402 0.053331807
0.17255436 0.032688793 0.04990461 -0.02735352 -0.07058314 -0.059991244 -0.026029667 -0.066227704
-0.025010327 -0.094717905 0.040522847 -0.07281841 0.023677489 -0.032187995 -0.0061110985 0.0115421
-0.09221583 0.028682584 0.10227561 -0.07739038 -0.016719185 0.016305258 -0.16527925 0.04504601
-0.016097821 -0.12874146 -0.025533086 -0.050067883 -0.018177636 -0.04497006 0.05246757 0.0045677107
0.082821846 0.11361158 -0.05600642 0.16448657 0.025834478 -0.01890962 0.014128604 -0.0710625
-0.032588463 0.039711136 0.021002064 -0.056044266 -0.08025605 -0.0120295435 0.045539495 0.076289035
0.0055966782 0.14632562 -0.04619735 -0.08918362 -0.09674597 -0.011835244 -0.0074361474 0.061933532
0.10781024 -0.07422262 0.023552299 -0.05304162 -0.15794355 -0.052968606 -0.10069148 -0.043040153
0.060653847 0.0647085 -0.0027603894 0.08839874 0.0850191 0.016551787 0.013841377 0.026980205
0.15476891 -0.08931454 0.02688758 -0.09093578 0.022094242 -0.08222081 -0.0016456799 0.036281206
-0.1395471 -0.14155181 -0.00015048748 -0.065224536 0.06962148 0.035881035 -0.047373317 0.032183036
-0.0044189896 0.08934547 0.0460079 0.12008454 -0.017160933 0.13174807 0.04754232 -0.047461204
-0.0048393393 0.06120376 0.045376647 -0.120456 0.006395508 -0.13868076 -0.060833223 -0.0017534398
00000000: fb36 de39 f213 4bbd 6ede c9bd bd82 95bc
00000010: 63b8 573d 35b2 a43d a7e6 a5bd 0e86 883d
00000020: 4b4c b8bd 4627 8d3d 4913 e83c 869b 7d3b
00000030: 1895 0b3c e43b 453d ce6a 133e d7af 953d
00000040: e50e 80bd 57ff c73c 8d88 77bd ed90 a73b
00000050: 119f 98bd 9edd 62bc fa1e e1bc 7399 22bb
00000060: eb5a 6c3d ad3c a73d 6bf9 ec3d 2460 00bd
00000070: aa20 8cbd d0b2 4f3a f800 843d be72 45be
00000080: bf92 14bd 092a 8e3b 5e66 1a3d 44be a63d
00000090: 74ae 1ebc 30d3 3dbe 555c 983c 6d01 2cbe
000000a0: 9277 87bd e735 243d 7b59 00be daad 45bd
000000b0: a0d3 833d 2a5b d0bc e599 8e3d 74cb 2b3d
000000c0: 3a51 8ebd 33db 423d fd82 87ba 4559 5ebd
000000d0: 8bc9 cbbc 1d4a edbc c4c9 a0bd d1f3 89bd
000000e0: 6737 b2bd 33b9 8abd 2860 d83c 00f7 a6bd
000000f0: d3c8 1dbc 4de8 0c3e 7c88 c8bc 224a 4aba
00000100: 3e2a 8e3d d00f 223d f3fc b6bd ba99 0f3d
00000110: 037d 733d 3b7a 033e 47d3 f13c 19ee f83b
00000120: cf69 b0bd 2767 0f3d 241f 88bd 75e9 2dbc
00000130: 3892 80bd 95f8 1dbd 3263 06be 5b96 403d
00000140: 3f76 58bd e44e e03c 2ca7 c23c 9e17 723d
00000150: cbb7 183e dbe5 93bc 777f ab3c 4d41 783c
00000160: 5e6f 06be f828 f5bc 9f8f 6abc deb4 d23d
00000170: 81e0 c9ba d4f4 0c3e f0ec 53bd 773a e13c
00000180: 782d c6bd 158b 51bd 3aee f3bc cab0 37bd
00000190: ba46 bb3c bf61 e23c 7fa8 cbbc b433 d33d
000001a0: af99 9c3d 32fd 2a3d 29e8 b53d 3def 88bc
000001b0: 5eeb c43d 713e a23d 5f0b a4bc df75 ea3c
000001c0: 651e 26bd 49b2 b83b 96a6 5cbd 6b03 733d
000001d0: fa6f 123d 3df0 36bd bcb3 7abd bd6e 09bd
000001e0: 308e 3ebd 5530 44bd 3685 6a3d ed79 8f3d
000001f0: 7a50 50bd cfc6 fc3c 9713 89bd 1305 543d
00000200: 2d37 30bd c13c dd3d b968 30bd 425f 36be
00000210: bcf5 8a3d 0120 0e3b 4e7b 5fbd 9b46 aabc
00000220: 8f66 f13c caef c63d 00a8 663d 71c7 78bd
00000230: e19c 933c fe0b 1abd 2bf2 5e3d 11a5 233d
00000240: a793 f3bb 8fa9 393d 99d3 9cbd ec88 c13d
00000250: fac3 e3bd cef0 493d 53f3 94ba 7472 5a3d
00000260: 17b2 303e afe4 053d c768 4c3d 7d14 e0bc
00000270: e58d 90bd 61b9 75bd 2b3c d5bc 64a2 87bd
00000280: 75e2 ccbc 76fb c1bd 49fb 253d d221 95bd
00000290: 4bf7 c13c 8fd7 03bd 9c3f c8bb 141b 3d3c
000002a0: a7db bcbd bdf7 ea3c e075 d13d d97e 9ebd
000002b0: acf6 88bc 9b92 853c f73e 29be 2a82 383d
000002c0: 94df 83bc cdd4 03be c32a d1bc fb13 4dbd
000002d0: 44e9 94bc 8732 38bd 3ce8 563d bcac 953b
000002e0: 809e a93d 30ad e83d fd66 65bd 2b6f 283e
000002f0: d4a2 d33c 59e8 9abc a97b 673c 3789 91bd
00000300: 7b7b 05bd 25a8 223d 850c ac3c ac8e 65bd
00000310: 495d a4bd 9017 45bc 9f87 3a3d 6d3d 9c3d
00000320: 5764 b73b 62d6 153e 6f39 3dbd e7a5 b6bd
00000330: c022 c6bd 9ce8 41bc edaa f3bb 04ae 7d3d
00000340: 9dcb dc3d 0702 98bd c0f0 c03c 2b42 59bd
00000350: f4bb 21be 9cf5 58bd 5637 cebd df4a 30bd
00000360: 2b70 783d e485 843d a6e7 34bb 660a b53d
00000370: 7e1e ae3d 9d97 873c f1c6 623c 9705 dd3c
00000380: be7b 1e3e 8bea b6bd 5843 dc3c 8a3c babd
00000390: fcfe b43c 6263 a8bd dbb3 d7ba 9a9b 143d
000003a0: 6fe5 0ebe f5f2 10be 2dcc 1db9 7194 85bd
000003b0: b595 8e3d fef7 123d 860a 42bd 5cd2 033d
000003c0: 2ccd 90bb c2fa b63d c872 3c3d e2ee f53d
000003d0: 1695 8cbc f7e8 063e bcbb 423d ae66 42bd
000003e0: 5293 9ebb cbb0 7a3d dddc 393d a3b1 f6bd
000003f0: 6991 d13b 5402 0ebe 422c 79bd add3 e5ba

cnn_blocks.0.convs.0.bias f4 [16]
-0.072552234 -0.047524896 0.051823925 0.025195478 0.014896086 0.05354148 0.07231414 0.02170943
0.080341116 0.013726209 0.012869722 -0.078850135 -0.06398779 0.03385203 -0.040804867 -0.027131075
00000000: 4496 94bd 77a9 42bd 5345 543d bf66 ce3c
00000010: b70e 743c 504e 5b3d 7019 943d f9d7 b13c
00000020: e289 a43d e5e3 603c 87db 523c 2e7c a1bd
00000030: 080c 83bd 6da8 0a3d 0123 27bd fd41 debc

cnn_blocks.0.convs.1.weight f4 [16, 16, 3, 3]
-0.08262586 0.06968519 -0.0097169755 0.005369732 -0.02602094 -0.031607457 0.20182543 -0.110240445
0.004745894 -0.03863428 -0.16365205 -0.15819535 -0.02783816 -0.06747202 -0.08717828 0.04277222
-0.06839511 -0.015959524 -0.035302777 0.10029601 -0.015150385 0.0487978 0.020363765 0.042774823
-0.013843547 -0.10542206 0.13163151 -0.043759227 0.05992529 0.023217827 -0.07432196 0.046049822
0.09473856 -0.101111285 0.0002615494 0.12718727 0.04901223 0.07853945 0.0038965624 0.019451397
0.07491423 -0.033335816 -0.22909835 0.026467562 -0.117537096 0.046326507 0.015846724 0.00185742
-0.031223333 0.06081476 -0.0014633797 0.067836896 0.033371072 0.05790287 -0.09738502 -0.09569821
-0.043730985 -0.007601995 -0.023078952 -0.02281925 0.054378837 -0.04494857 -0.18800907 0.025039498
-0.060692474 -0.0048648776 -0.010834653 -0.033154577 -0.04575016 -0.066993594 0.02554498 0.05498943
0.03371293 -0.015457294 0.035946753 -0.049387593 -0.1089761 -0.016285002 -0.010604688 -0.13550946
-0.13942726 0.015340566 -0.14129238 0.052139238 0.07790204 -0.08671322 0.06204532 -0.16387475
-0.1447024 -0.093120046 -0.12269764 0.0011778701 0.08555093 -0.13639663 0.09691476 -0.09427724
-0.014754276 0.037388563 0.1310671 -0.045324475 -0.13193777 0.013534667 -0.0106792515 -0.013880032
0.012361928 -0.11186962 -0.013757798 0.023539696 0.15737773 0.13671713 0.07998224 0.10213146
0.070328824 0.0975236 -0.12382676 -0.12576684 -0.10575878 0.09949025 -0.064311855 -0.09521286
0.061774142 -0.052495755 0.10495836 0.029068712 -0.028466757 -0.00038772024 -0.06841882 0.044487853
-0.0041067214 0.057370685 -0.017309928 0.026226446 0.041789796 -0.05576566 -0.0062653143 -0.035507645
0.007304433 -0.02933404 0.06797291 0.014860448 0.094704404 0.1242141 -0.10320219 -0.12190336
-0.04235816 0.051050387 0.063561864 0.15963592 0.026093597 0.015990408 0.08088128 -0.11328572
-0.11709661 0.2626749 0.08111049 0.0034122441 0.07858966 -0.021588564 0.005542825 -0.06380237
0.06363551 0.13906354 0.11481913 -0.12358709 0.048664905 0.08462149 -0.06752503 0.14966868
0.03703793 0.06548069 0.10350546 0.0009911231 -0.0046206163 0.014829565 0.07099566 -0.00096644607
0.036773853 0.012023466 -0.00016069398 -0.023817675 -0.021294594 -0.051611844 0.02371657 -0.0024762198
-0.036252975 -0.09799374 0.1266295 0.02288256 -0.059336115 0.009959581 0.008546675 0.053302296
0.058137447 -0.07290032 0.07534881 0.040062107 -0.13828366 -0.0017524257 -0.13100255 0.115624286
0.07641896 0.024937408 0.06491003 -0.09840754 -0.07922729 -0.009734262 -0.078226045 -0.050711654
-0.04350085 -0.021887299 0.02922734 0.034278855 -0.09242242 0.034671366 0.03254032 -0.062484656
0.0928129 0.013275591 -0.041136578 -0.11845856 0.13111433 0.05377442 0.061744876 -0.10529751
0.15721543 -0.026590303 -0.017979303 0.029492926 -0.07849546 -0.11267693 0.06326463 -0.029570507
0.08264587 -0.09181456 -0.020371303 0.024620436 0.015670206 0.1197941 0.10539309 0.008948459
-0.001970344 0.1369809 0.15900369 0.04723126 -0.086907275 0.09362337 0.0065217093 0.09717023
0.06957376 0.093223125 0.056525804 0.24427208 -0.028606303 -0.08637248 0.07211622 0.003028942
00000000: bf37 a9bd 1cb7 8e3d f333 1fbc 94f4 af3b
00000010: de29 d5bc d276 01bd 53ab 4e3e bec5 e1bd
00000020: 7283 9b3b fb3e 1ebd 6794 27be f6fd 21be
00000030: da0c e4bc c52e 8abd 878a b2bd ec31 2f3d
00000040: bc12 8cbd 8cbd 82bc a599 10bd ff67 cd3d
00000050: 5239 78bc 34e0 473d e9d1 a63c a734 2f3d
00000060: 0bd0 62bc 85e7 d7bd 69ca 063e e03c 33bd
00000070: 3974 753d 5033 be3c 1d36 98bd bd9e 3c3d
00000080: 4a06 c23d 6f13 cfbd 9120 8939 613d 023e
00000090: 0cc1 483d 4bd9 a03d 785d 7f3b 8958 9f3c
000000a0: a26c 993d 238b 08bd c298 6abe 80d2 d83c
000000b0: 4ab7 f0bd ddc0 3d3d fdd0 813c ac74 f33a
000000c0: 13c8 ffbc e618 793d e0ce bfba 12ee 8a3d
000000d0: 1bb0 083d 8f2b 6d3d cc71 c7bd 6cfd c3bd
000000e0: 431f 33bd 281a f9bb 1210 bdbc 70ef babc
000000f0: 58bc 5e3d fe1b 38bd 7385 40be a21f cd3c
00000100: ac98 78bd 8d69 9fbb d483 31bc 18cd 07bd
00000110: 8564 3bbd f033 89bd b543 d13c 993c 613d
00000120: 9216 0a3d 9740 7dbc e73c 133d a54a 4abd
00000130: dd2e dfbd 2068 85bc 49bf 2dbc fec2 0abe
00000140: 05c6 0ebe ff56 7b3c f3ae 10be f48f 553d
00000150: 1b8b 9f3d b396 b1bd 3c23 7e3d c8ce 27be
00000160: de2c 14be b9b5 bebd e648 fbbd c362 9a3a
00000170: 5335 af3d 8fab 0bbe 3f7b c63d 6d14 c1bd
00000180: ebbb 71bc c024 193d 7436 063e 28a6 39bd
00000190: b21a 07be 82c0 5d3c 07f8 2ebc 1369 63bc
000001a0: af89 4a3c e61b e5bd 6368 61bc 52d6 c03c
000001b0: a127 213e 93ff 0b3e bbcd a33d 4d2a d13d
000001c0: 8f08 903d 74ba c73d e298 fdbd 06c9 00be
000001d0: 0f98 d8bd 8bc1 cb3d efb5 83bd f6fe c2bd
000001e0: e206 7d3d ca05 57bd 69f4 d63d 8221 ee3c
000001f0: 1e33 e9bc ee46 cbb9 2b1f 8cbd e538 363d
00000200: ad91 86bb 86fd 6a3d 8dcd 8dbc d8d8 d63c
00000210: c72b 2b3d 886a 64bd 444d cdbb 7770 11bd
00000220: 065a ef3b f14d f0bc 6235 8b3d 3d79 733c
00000230: 62f4 c13d f663 fe3d ab5b d3bd 78a8 f9bd
00000240: c07f 2dbd 361a 513d b92c 823d 9977 233e
00000250: 3dc2 d53c 51fe 823c 16a5 a53d 5802 e8bd
00000260: 59d0 efbd 537d 863e 421d a63d f59f 5f3b
00000270: 9ef3 a03d 80da b0bc 96a0 b53b d1aa 82bd
00000280: 5653 823d ac66 0e3e 4b26 eb3d 3a1b fdbd
00000290: da54 473d 084e ad3d 904a 8abd bf42 193e
000002a0: 16b5 173d bd1a 863d acfa d33d 93e8 813a
000002b0: 8a68 97bb b4f7 723c 2c66 913d 1959 7dba
000002c0: 2ea0 163d 12fe 443c f67f 28b9 491d c3bc
000002d0: 0072 aebc f166 53bd 4149 c23c 1348 22bb
000002e0: 007e 14bd f1b0 c8bd 2aab 013e 3574 bb3c
000002f0: 6d0a 73bd 832d 233c 5a07 0c3c 8253 5a3d
00000300: 8821 6e3d c34c 95bd 7a50 9a3d 2a18 243d
00000310: 3b9a 0dbe a6b1 e5ba 8825 06be 6dcc ec3d
00000320: 8b81 9c3d 8949 cc3c 8def 843d e489 c9bd
00000330: eb41 a2bd 747c 1fbc fa34 a0bd 06b7 4fbd
00000340: f32d 32bd fe4c b3bc 2d6e ef3c fc67 0c3d
00000350: f747 bdbd 9003 0e3d 0049 053d e9ef 7fbd
00000360: b114 be3d dd81 593c d47e 28bd 679a f2bd
00000370: d642 063e 9142 5c3d 32e8 7c3d 39a6 d7bd
00000380: 15fd 203e e8d3 d9bc 5549 93bc 269b f13c
00000390: 3ac2 a0bd 2ac3 e6bd e390 813d d93d f2bc
000003a0: 3d42 a93d 4609 bcbd b8e1 a6bc ccb0 c93c
000003b0: ce5e 803c 9c56 f53d 55d8 d73d 8f9c 123c
000003c0: e320 01bb b944 0c3e ddd1 223e 9175 413d
000003d0: 71fc b1bd 9cbd bf3d 10b4 d53b 2f01 c73d
000003e0: b07c 8e3d c4eb be3d 9a87 673d 7622 7a3e
000003f0: c457 eabc 0ee4 b0bd abb1 933d 3781 463b

cnn_blocks.0.convs.1.bias f4 [16]
-0.052364945 0.0014135883 -0.009167565 -0.008059247 0.00231246 0.057289258 0.05457656 0.07322293
-0.034318116 0.011311836 0.067048945 -0.0041287793 -0.07301419 0.06972427 0.086310185 0.05374092
00000000: a07c 56bd 2748 b93a 8e33 16bc ef0a 04bc
00000010: a48c 173b 24a8 6a3d ac8b 5f3d e7f5 953d
00000020: 2791 0cbd 4755 393c f550 893d b64a 87bb
00000030: 7788 95bd 99cb 8e3d 65c3 b03d 701f 5c3d

cnn_blocks.0.norms.0.weight f4 [16]
0.9478086 0.85974157 0.9809164 0.9532001 0.8896692 0.9958532 0.9250444 1.0868703
1.0419321 1.0301021 0.96031946 0.9533334 1.026006 0.9189064 1.0401456 1.0910286
00000000: 96a3 723f 0618 5c3f 561d 7b3f ec04 743f
00000010: 5cc1 633f 3cf0 7e3f b6cf 6c3f 911e 8b3f
00000020: 085e 853f 63da 833f 7fd7 753f a80d 743f
00000030: 2a54 833f 733d 6b3f 7e23 853f d3a6 8b3f

cnn_blocks.0.norms.0.bias f4 [16]
-0.07842607 -0.06914071 -0.009900983 -0.15099457 -0.1413685 -0.05799122 -0.099071786 -0.04073557
-0.022163868 -0.064858414 -0.07119177 -0.13202356 -0.051383324 -0.060864445 -0.06620879 -0.020081064
00000000: d99d a0bd a599 8dbd bc37 22bc 529e 1abe
00000010: e7c2 10be 3488 6dbd 26e6 cabd 57da 26bd
00000020: 0091 b5bc 7dd4 84bd fecc 91bd 2f31 07be
00000030: 5277 52bd ff4c 79bd 7998 87bd 0b81 a4bc

cnn_blocks.0.norms.0.running_mean f4 [16]
0.007618729 -0.0493009 0.06478371 -0.011791291 -0.017402664 0.05512886 -0.020325834 -0.050285637
0.16248392 0.04679001 -0.047984086 -0.09521598 -0.16981561 -0.039747585 -0.06603996 -0.15754162
00000000: 88a6 f93b beef 49bd 52ad 843d 4230 41bc
00000010: 0890 8ebc cdce 613d 5d82 a6bc 50f8 4dbd
00000020: 2f62 263e e2a6 3f3d f68a 44bd 9900 c3bd
00000030: 25e4 2dbe 5dce 22bd f53f 87bd 9752 21be

cnn_blocks.0.norms.0.running_var f4 [16]
0.03867432 0.03717762 0.047361538 0.04391733 0.046091363 0.04917883 0.030433044 0.05195943
0.04872249 0.033889093 0.057800576 0.04632868 0.046620395 0.03859247 0.04854883 0.039716523
00000000: f768 1e3d 8f47 183d 2cfe 413d a9e2 333d
00000010: 4cca 3c3d be6f 493d b84e f93c 69d3 543d
00000020: 3c91 473d 4acf 0a3d 4cc0 6c3d 24c3 3d3d
00000030: 07f5 3e3d 2313 1e3d 23db 463d cbad 223d

cnn_blocks.0.norms.1.weight f4 [16]
1.0638288 1.1385243 1.0275159 1.1394696 1.1035333 1.16469 1.2043749 1.0955048
1.1910037 1.0999523 1.1227318 1.2683259 1.1787335 1.1715988 1.095033 1.1005844
00000000: 8b2b 883f 2abb 913f a485 833f 24da 913f
00000010: 9440 8d3f 9014 953f f528 9a3f 8039 8c3f
00000020: cf72 983f 3dcb 8c3f adb5 8f3f 8158 a23f
00000030: bde0 963f f3f6 953f 0b2a 8c3f f3df 8c3f

cnn_blocks.0.norms.1.bias f4 [16]
0.014917786 -0.08432227 0.020632057 0.04327774 -0.026119007 0.097850345 0.008905101 -0.05203281
0.11208595 0.11533127 0.020290367 -0.06473091 -0.001138952 0.0053669913 0.011271251 0.011504839
00000000: bb69 743c 27b1 acbd 8f04 a93c 0044 313d
00000010: 87f7 d5bc c365 c83d b3e6 113c 5b20 55bd
00000020: 528d e53d cd32 ec3d fc37 a63c a491 84bd
00000030: e348 95ba 96dd af3b 0eab 383c cb7e 3c3c

cnn_blocks.0.norms.1.running_mean f4 [16]
-0.148122 0.36661062 -0.07049738 0.33349195 0.114354886 0.026894381 -0.05878817 0.37113255
-0.036691833 0.11547633 0.2143821 0.21713589 -0.06454019 0.20096008 0.0024444687 -0.28022143
00000000: 4bad 17be 63b4 bb3e ee60 90bd 75bf aa3e
00000010: e532 ea3d 9b51 dc3c ddcb 70bd 1605 be3e
00000020: 2d4a 16bd db7e ec3d fb86 5b3e df58 5e3e
00000030: a62d 84bd 7bc8 4d3e 6133 203b 2f79 8fbe

cnn_blocks.0.norms.1.running_var f4 [16]
0.08653541 0.07121248 0.116673544 0.08765872 0.052138828 0.10338866 0.09395236 0.08101876
0.08488122 0.13508253 0.11460558 0.09974938 0.07007671 0.081833854 0.06465647 0.08241549
00000000: 7a39 b13d d9d7 913d 8af2 ee3d 6a86 b33d
00000010: 868f 553d 6fbd d33d 186a c03d 2aed a53d
00000020: 34d6 ad3d 1353 0a3e 55b6 ea3d 6749 cc3d
00000030: 6184 8f3d 8298 a73d 9d6a 843d 74c9 a83d
