checkpoints/abl_cnn_rnn/final_model.pt (torch, 86258 bytes, 50 tensors)

embedder.feature_projections.0.weight f4 [32, 1]
-0.9904371 1.1783575 0.894438 0.9504417 0.34755546 -0.82092977 -0.36132511 -0.04988402
0.081353806 -0.88452 -0.33969846 0.6426594 0.58480424 -1.411092 0.12778781 0.3125177
-0.96343243 0.3960044 -1.0670927 -0.3375673 0.7377708 -0.011582646 0.0982473 -0.7074395
0.7307805 0.6379834 -0.96719944 0.7468359 1.2651199 0.43637106 1.0640068 -0.52411324
00000000: 498d 7dbf 6bd4 963f e4f9 643f 2650 733f
00000010: caf2 b13e 7428 52bf 9bff b8be 3053 4cbd
00000020: d39c a63d e76f 62bf f5ec adbe 5485 243f
00000030: bbb5 153f aa9e b4bf cfda 023e 5202 a03e
00000040: 82a3 76bf 17c1 ca3e 7e96 88bf 9fd5 acbe
00000050: 8cde 3c3f 23c5 3dbc e135 c93d c11a 35bf
00000060: 6e14 3b3f e152 233f 629a 77bf a330 3f3f
00000070: 73ef a13f 076c df3e 6031 883f 492c 06bf

embedder.feature_projections.0.bias f4 [32]
0.103167355 0.47293094 -0.4752794 0.20620629 0.5029055 -0.03179178 0.62952083 0.77699894
0.009462511 0.12048484 0.92537504 0.5833208 -0.54481995 0.68359256 -0.6924843 0.89106447
0.92388713 0.93674135 0.23239179 0.7900271 -0.94178826 -0.46771225 0.021375785 0.44138256
-0.025230026 -0.13645566 -0.6123907 0.3691716 -0.9380521 -0.9213468 -0.33253336 0.70211625
00000000: 6849 d33d 0124 f23e d257 f3be be27 533e
00000010: 6abe 003f 1938 02bd 4728 213f 67e9 463f
00000020: a608 1b3c c1c0 f63d 61e5 6c3f 8354 153f
00000030: 5279 0bbf ecff 2e3f a746 31bf cd1c 643f
00000040: de83 6c3f 48ce 6f3f 1df8 6d3e 373f 4a3f
00000050: 0919 71bf fb77 efbe 451c af3c e5fc e13e
00000060: 33af cebc 08bb 0bbe a3c5 1cbf 0f04 bd3e
00000070: 2f24 70bf 62dd 6bbf d041 aabe e4bd 333f

embedder.feature_projections.1.weight f4 [32, 1]
-0.60075086 0.44019002 0.044010922 -0.78569055 0.3040239 0.86440706 0.46230525 0.68544954
-0.053480264 -0.85505575 0.022415796 -0.30995068 0.75603193 -0.760354 -0.060877144 0.13191114
0.35836574 0.7557099 0.86721534 0.65142334 -0.72693545 0.021213656 0.4574402 0.6153288
-0.3510996 -0.18987514 0.5813092 0.08246123 -0.48838744 0.5626802 -0.63308585 -0.70493984
00000000: cfca 19bf 9660 e13e cc44 343d 0423 49bf
00000010: 05a9 9b3e c849 5d3f 46b3 ec3e 9f79 2f3f
00000020: 1f0e 5bbd efe4 5abf 55a1 b73c dbb1 9ebe
00000030: 4f8b 413f 8fa6 42bf 505a 79bd b713 073e
00000040: b77b b73e 3476 413f d301 5e3f aec3 263f
00000050: 7118 3abf 43c8 ad3c 9a35 ea3e 3086 1d3f
00000060: 54c3 b3be a16e 42be aed0 143f 6fe1 a83d
00000070: eb0d fabe cf0b 103f ea11 22bf f076 34bf

embedder.feature_projections.1.bias f4 [32]
-0.47425726 -0.60853094 0.8809414 -0.8311907 -0.5205364 0.14366549 0.42439568 0.231933
0.12630141 0.6741595 -0.8422162 -0.44988164 -0.06503421 0.1770023 -0.97122663 -0.9089965
-0.09920565 0.51907134 -0.654184 0.5633208 0.44665927 -0.021742757 0.5723874 -0.3621486
0.8029664 0.08275836 0.8269536 -0.046192247 -0.21273015 0.044481993 0.96618587 -0.89402676
00000000: d9d1 f2be afc8 1bbf 6085 613f eac8 54bf
00000010: e041 05bf 0c1d 133e 644a d93e d87f 6d3e
00000020: 2855 013e b895 2c3f 7b9b 57bf e356 e6be
00000030: a830 85bd 1740 353e 4fa2 78bf ffb3 68bf
00000040: 552c cbbd dce1 043f 9a78 27bf cb35 103f
00000050: 86b0 e43e de1d b2bc fb87 123f 8b6b b9be
00000060: 358f 4d3f 377d a93d 3bb3 533f 1534 3dbd
00000070: efd5 59be c032 363d f557 773f f0de 64bf

embedder.stabilizer_embedding.weight f4 [8, 32]
-1.0176864 0.24935068 -0.2847408 0.26167822 0.09624293 -0.34042287 1.7909956 1.1790272
-0.32184952 -0.6021737 -1.1529359 -1.3393996 -1.1103803 0.6661876 1.5123311 -1.5366478
-1.697404 1.3547524 -0.5368975 0.28755775 0.28198868 0.86019313 -0.6773842 0.66173214
-0.103048354 1.389971 -1.1141161 0.1514144 -0.22948985 0.37460387 0.60329753 0.8127913
-0.6360168 1.0645086 -0.6819858 -1.859538 -1.6987548 0.8135384 -1.3248967 0.25745445
-0.57723135 -0.04809342 0.14859049 -0.7637461 -2.343785 1.0129462 -1.8496795 0.3183588
-0.03913688 1.5168558 1.6850904 0.1750917 -0.47516125 -0.31602454 0.93692243 1.3130065
-0.425246 -1.538247 -0.58536977 -0.13214785 0.69711626 -0.74592155 1.0708414 0.60194314
1.1185768 1.372259 -0.2997307 0.27285308 1.2739736 -1.1649059 -0.4195411 -0.45745462
0.43113622 -0.39891204 -0.24991289 -0.81995696 -0.38396445 0.513718 0.6243518 -1.583018
-0.8667533 -1.3551522 -1.4917464 -0.14874193 -2.1323547 0.15037642 -0.3570034 -1.8017079
-0.18726228 -0.517264 0.2993411 0.14225969 0.049797803 -0.7962496 0.11411422 2.644389
1.2333825 -1.285988 0.46571344 0.31694862 -0.30751744 -0.37820733 -0.16684176 -1.2859026
0.6542176 -0.8753676 1.0870533 0.084706955 -0.1717947 -0.54215974 0.10389623 0.8431409
-0.51897347 1.7169716 0.2383073 -0.10537568 -2.5227017 0.09730599 -1.1159403 -1.1295298
-0.021135358 -1.5877739 -1.5080981 -0.54245573 0.98245025 -0.5958351 -0.03994201 1.2313001
-0.93381804 1.815965 -1.0292823 -0.29698712 -0.45922464 0.18545522 -0.45204762 0.9822929
-0.25900513 0.47981873 -0.05445903 -1.1162882 0.23140082 0.28829002 -0.72049546 3.329641
-0.25543287 -0.50811106 -0.35918394 -0.047228254 0.22274476 -0.6362309 -0.0033091507 -0.7217917
-2.1650467 1.030425 -0.047349475 0.3538042 -0.9433658 -1.0452949 -0.58299667 -0.08579991
1.0053569 -0.11327538 1.1234401 -0.8441333 0.1501041 -0.77256674 1.5018978 -0.28540432
-0.04456969 -0.05623922 -0.88135993 -0.38436896 -0.72197014 -0.58106184 0.12199775 0.7210473
1.1623552 -0.77021456 0.7024444 -0.68130404 0.26075464 -0.7895817 -0.25949734 -0.6655178
1.6497163 -0.0075343186 -1.6406924 0.17418005 -0.5167726 -1.7017366 -0.4379407 -0.6394042
-1.0126407 -0.3541344 0.43343222 -0.4255377 -0.62485635 0.2268584 -1.5489032 -0.41146502
1.3126887 -0.970073 1.7955272 0.8757201 0.8295416 0.7653147 0.42926183 -0.63191605
0.7502849 -0.5094688 0.24409842 -1.008022 1.88579 0.6194067 2.074812 -1.1625773
-0.4391116 0.51901215 -0.45772713 0.5402573 0.051810373 -0.3980672 0.2882748 0.46558693
0.8472198 -0.34532976 -0.107561514 -1.488902 -0.44874558 -1.6025145 0.09870611 -2.8448036
0.4477143 0.4568257 0.85651124 -1.6197605 0.24871773 1.449315 1.3529254 0.55383736
-0.2135375 -0.053970005 0.4123165 -0.48133397 -0.67287076 -0.7584469 -0.757746 -1.6892642
0.13692296 0.64693433 -0.7195497 0.06141945 -0.61057025 0.90194094 -0.24823819 -0.34805918
00000000: 8c43 82bf c955 7f3e 8cc9 91be b0fa 853e
00000010: 031b c53d e84b aebe 583f e53f 5dea 963f
00000020: 76c9 a4be 0e28 1abf 6793 93bf 7271 abbf
00000030: f120 8ebf 458b 2a3f 1194 c13f e0b0 c4bf
00000040: 8944 d9bf 8768 ad3f 1d72 09bf c53a 933e
00000050: d260 903e 9e35 5c3f 0d69 2dbf 4767 293f
00000060: 040b d3bd 92ea b13f 5b9b 8ebf 600c 1b3e
00000070: 63ff 6abe 14cc bf3e b571 1a3f 1713 503f
00000080: ffd1 22bf d141 883f 9f96 2ebf 5705 eebf
00000090: cc70 d9bf 0d44 503f 3796 a9bf 12d1 833e
000000a0: 6fc5 13bf 9bfd 44bd 1b28 183e dd84 43bf
000000b0: 9300 16c0 39a8 813f 4cc2 ecbf edff a23e
000000c0: fe4d 20bd 5528 c23f 0bb1 d73f 3d4b 333e
000000d0: 5648 f3be f8cd a1be 26da 6f3f 9910 a83f
000000e0: d8b9 d9be 47e5 c4bf cbda 15bf c451 07be
000000f0: 3676 323f b7f4 3ebf 5511 893f f218 1a3f
00000100: 862d 8f3f 2fa6 af3f 4d76 99be 66b3 8b3e
00000110: 9111 a33f a31b 95bf 17ce d6be 7e37 eabe
00000120: e3bd dc3e 333e ccbe 2ae9 7fbe b3e8 51bf
00000130: fd96 c4be 0683 033f 85d5 1f3f 55a0 cabf
00000140: 8be3 5dbf a175 adbf 8cf1 bebf ce4f 18be
00000150: 8078 08c0 47fc 193e 26c9 b6be 5d9e e6bf
00000160: afc1 3fbe 6a6b 04bf 3d43 993e 86ac 113e
00000170: c8f8 4b3d 04d7 4bbf b7b4 e93d ab3d 2940
00000180: 7adf 9d3f 419b a4bf fe71 ee3e 1747 a23e
00000190: ed72 9dbe 64a4 c1be 91d8 2abe 7598 a4bf
000001a0: ce7a 273f 1718 60bf 9024 8b3f d77a ad3d
000001b0: f3ea 2fbe fbca 0abf 8cc7 d43d 15d8 573f
000001c0: 72db 04bf bac5 db3f d406 743e 34cf d7bd
000001d0: f273 21c0 5d48 c73d 22d7 8ebf 6f94 90bf
000001e0: 0f24 adbc 2d3c cbbf 5c09 c1bf 61de 0abf
000001f0: dc81 7b3f a688 18bf 3c9a 23bd 3e9b 9d3f
00000200: b30e 6fbf 8b71 e83f 86bf 83bf b20e 98be
00000210: 7e1f ebbe f9e7 3d3e c972 e7be 8c77 7b3f
00000220: 529c 84be cdaa f53e 6f10 5fbd 88e2 8ebf
00000230: 56f4 6c3e c09a 933e 6472 38bf d718 5540
00000240: 19c8 82be 9113 02bf f5e6 b7be 6a72 41bd
00000250: 3417 643e 07e0 22bf 56de 58bb 57c7 38bf
00000260: 2090 0ac0 f7e4 833f 86f1 41bd d325 b53e
00000270: 6c80 71bf 39cc 85bf 453f 15bf ddb7 afbd
00000280: 89af 803f ecfc e7bd e3cc 8f3f 1f19 58bf
00000290: e4b4 193e efc6 45bf 303e c03f 8420 92be
000002a0: b58e 36bd 195b 66bd cea0 61bf 02cc c4be
000002b0: 09d3 38bf 78c0 14bf f5d9 f93d 8e96 383f
000002c0: 0ec8 943f c82c 45bf 65d3 333f f169 2ebf
000002d0: a281 853e 0722 4abf d6dc 84be 605f 2abf
000002e0: e729 d33f 72e2 f6bb 3502 d2bf 415c 323e
000002f0: 364b 04bf 81d2 d9bf c339 e0be feaf 23bf
00000300: 369e 81bf 1b51 b5be d4ea dd3e 14e0 d9be
00000310: 96f6 1fbf 924d 683e 7642 c6bf 8bab d2be
00000320: 2f06 a83f b456 78bf d6d3 e53f 312f 603f
00000330: d75c 543f aaeb 433f 35c8 db3e 40c5 21bf
00000340: ac12 403f 8c6c 02bf f0f4 793e dd06 81bf
00000350: 9161 f13f 7091 1e3f b8c9 0440 55cf 94bf
00000360: 3cd3 e0be fbdd 043f 365b eabe 4d4e 0a3f
00000370: 1d37 543d 77cf cbbe c198 933e 6961 ee3e
00000380: 66e3 583f 10cf b0be 3649 dcbd 5794 bebf
00000390: fbc1 e5be 321f cdbf 6e26 ca3d 4311 36c0
000003a0: cf3a e53e 0fe5 e93e 5244 5b3f 5054 cfbf
000003b0: dcaf 7e3e 2783 b93f a92c ad3f 49c8 0d3f
000003c0: 93a9 5abe a70f 5dbd 261b d33e 6871 f6be
000003d0: 4241 2cbf 9329 42bf a4fb 41bf cf39 d8bf
000003e0: 8835 0c3e 7d9d 253f 6934 38bf f692 7b3d
000003f0: 554e 1cbf 9ae5 663f 2732 7ebe d034 b2be

embedder.res_block.0.weight f4 [32]
1.0382935 1.193787 0.97809446 1.0327624 1.1318785 1.1541096 1.0094649 0.99472225
1.0265453 1.1726245 1.0141898 1.0907815 1.0930767 1.1449168 0.94469243 1.0006578
1.0965453 0.9660799 1.1028298 0.9784902 1.0634961 1.0417651 0.92877775 1.1016159
1.0865327 1.2019376 1.0454093 1.097701 1.0603112 1.041963 1.0223602 1.1115276
00000000: cde6 843f 03ce 983f 6664 7a3f 8f31 843f
00000010: 65e1 903f ddb9 933f 2536 813f 1ea6 7e3f
00000020: d665 833f 8f18 963f f9d0 813f ba9e 8b3f
00000030: f0e9 8b3f a28c 923f 5dd7 713f 8e15 803f
00000040: 995b 8c3f 0351 773f 8729 8d3f 557e 7a3f
00000050: a420 883f 8f58 853f 61c4 6d3f c001 8d3f
00000060: 8113 8b3f 17d9 993f f9cf 853f 7781 8c3f
00000070: 47b8 873f 0b5f 853f b3dc 823f 8946 8e3f

embedder.res_block.0.bias f4 [32]
0.020538613 -0.025402127 -0.046544585 0.0083847325 -0.011551217 -0.0013063165 -0.047724806 -0.020348968
-0.051849533 0.017025452 -0.011823595 0.009783276 -0.016031155 0.013798362 0.052973896 -0.009448433
-0.0047337753 -0.05442142 0.017584853 -0.027129618 -0.007623489 0.027089953 -0.028082969 0.024278115
6.298025e-05 -0.019613506 0.040578097 -0.012172806 0.036353383 0.048779935 -0.038584057 -0.004309848
00000000: 9840 a83c 1f18 d0bc 89a5 3ebd 1e60 093c
00000010: 5141 3dbc b538 abba 167b 43bd e1b2 a6bc
00000020: 2d60 54bd f678 8b3c c0b7 41bc 094a 203c
00000030: c553 83bc 8612 623c 28fb 583d 9acd 1abc
00000040: c91d 9bbb ffe8 5ebd 1c0e 903c ef3e debc
00000050: 76ce f9bb c0eb dd3c 410e e6bc e6e2 c63c
00000060: 4414 8438 81ac a0bc 3835 263d 7370 47bc
00000070: 49e7 143d 78cd 473d 510a 1ebd a039 8dbb

embedder.res_block.1.weight f4 [32, 32]
-0.19325736 0.040410914 -0.04866329 0.06807578 -0.08608125 -0.19548275 -0.13763556 -0.085833445
0.0763434 -0.24691488 0.07552665 -0.09712918 -0.04208684 -0.25746757 -0.1056199 -0.068988696
-0.071311414 0.055994723 -0.12480393 0.09880632 0.09040516 -0.08857114 -0.06933861 -0.2133359
0.22794539 -0.09479925 -0.2455836 0.20953938 0.12313198 0.14677727 0.04555524 -0.21686503
0.19885683 -0.013744978 -0.022416532 0.10671678 -0.09670324 -0.14261541 0.08474558 0.07258934
0.048942633 0.18240762 -0.1411054 -0.1774152 0.05930281 -0.05443063 0.07764508 -0.12799865
-0.09749907 -0.018452838 -0.021103382 0.0584198 0.01451447 0.07827665 0.19250448 -0.098715074
0.053533573 -0.038741358 0.054398276 -0.0031839237 0.09048789 0.023524381 0.1747949 0.18709044
-0.00450707 -0.13278815 -0.012881106 -0.01285976 -0.06259035 -0.036476143 -0.1909617 0.0076011964
-0.044898234 0.0328852 -0.157423 0.17604613 0.0697816 -0.19128904 0.17788012 0.115628995
0.057979066 -0.030804489 -0.071440615 -0.034300238 -0.022217449 -0.039101977 -0.17550953 -0.004952977
-0.14722124 -0.07232868 0.05071355 0.029299203 0.04081739 -0.15150239 -0.036652293 -0.051809262
-0.055233628 0.23564763 -0.049193304 -0.0073857903 0.27816272 -0.24155766 -0.0032743418 -0.18522431
-0.16202866 0.08098056 0.048445277 -0.15188704 0.18521495 -0.23685516 0.15886782 0.19464083
-0.20967032 0.13609827 -0.25110152 0.008289522 -0.11368252 -0.27021688 -0.08230185 -0.09804525
0.23367466 0.14823605 -0.06334359 0.31222573 0.13701755 0.12661724 0.05512909 -0.19467665
0.05304803 -0.12658192 0.034335334 0.101829246 0.09950187 -0.027272033 0.15473759 -0.22220655
0.1449928 0.18848847 0.1453978 -0.07135731 0.13558556 -0.051140558 -0.061593916 0.096836545
0.044005375 -0.20521457 -0.09332532 0.044414263 -0.08056027 0.010126404 -0.12717234 0.019426465
0.084347546 0.12909923 0.101806305 0.106600754 -0.04051977 -0.02109004 0.09020155 0.04637094
0.07937855 0.32549566 0.289412 -0.14319173 0.091729976 -0.37045047 -0.0050960165 0.03315342
-0.20345385 -0.25701207 0.018554294 0.07635363 -0.015551055 -0.33684406 0.05768375 0.02972438
-0.1984806 0.015609299 -0.23435763 0.1451355 0.10474121 -0.21301736 -0.0014521063 -0.15891632
0.09354722 0.27297956 0.03869252 -0.015730275 0.092766285 0.25900745 0.040977344 -0.14708759
0.029845228 0.201276 0.039691463 -0.11629671 0.017649105 -0.27448237 -0.14282562 0.0036477037
0.029695338 -0.16020681 0.01538506 -0.1802742 -0.03257622 -0.033357833 -0.16582817 0.03640283
-0.020467512 -0.12378916 -0.034215797 0.10908926 -0.019786231 0.05386857 -0.017344225 -0.17471269
0.01856706 0.1961337 0.12872627 0.2586357 0.10568219 -0.027054744 0.089819886 -0.20312774
0.07060055 -0.18723884 -0.17936249 -0.13568236 0.08863361 0.10012318 0.17570649 0.1684088
-0.09370491 0.05816099 -0.07977548 -0.15029907 -0.022106953 0.13932984 0.10758628 0.103468984
0.15023868 0.051847644 0.16954882 0.15970108 -0.11254572 0.023217151 0.008380031 -0.028379064
0.044181403 -0.13397494 0.12531754 -0.009834311 -0.13492529 0.026131969 0.10401347 0.098399326
00000000: 42e5 45be ea85 253d 2853 47bd 516b 8b3d
00000010: 5e4b b0bd a12c 48be 56f0 0cbe 72c9 afbd
00000020: ee59 9c3d 41d7 7cbe b7ad 9a3d aaeb c6bd
00000030: 4063 2cbd cad2 83be 3f4f d8bd f249 8dbd
00000040: b80b 92bd b95a 653d 3499 ffbd f85a ca3d
00000050: 5726 b93d c964 b5bd 6701 8ebd ba74 5abe
00000060: 846a 693e 1c26 c2bd 447a 7bbe 7e91 563e
00000070: 9f2c fc3d c84c 163e 2298 3a3d de11 5ebe
00000080: 20a1 4b3e 9e32 61bc e0a2 b7bc 548e da3d
00000090: 590c c6bd c609 12be 178f ad3d b8a9 943d
000000a0: 1278 483d 10c9 3a3e ef7d 10be 55ac 35be
000000b0: 81e7 723d a7f2 5ebd 6204 9f3d 1412 03be
000000c0: 98ad c7bd 682a 97bc 00e1 acbc 9a49 6f3d
000000d0: 19ce 6d3c 824f a03d e51f 453e 212b cabd
000000e0: 0546 5b3d 42af 1ebd bad0 5e3d 60a9 50bb
000000f0: b751 b93d 34b6 c03c 6ffd 323e a394 3f3e
00000100: 0bb0 93bb 9ef9 07be 460b 53bc beb1 52bc
00000110: 5f2f 80bd 0268 15bd 778b 43be 7513 f93b
00000120: 36e7 37bd a2b2 063d 7f33 21be 7045 343e
00000130: a8e9 8e3d 46e1 43be 3526 363e e5ce ec3d
00000140: 757b 6d3d b259 fcbc 754f 92bd 687e 0cbd
00000150: 5e01 b6bc 6529 20bd c5b8 33be 954c a2bb
00000160: 2ac1 16be 0f21 94bd 03b9 4f3d e204 f03c
00000170: 2330 273d 7123 1bbe b720 16bd f335 54bd
00000180: a83c 62bd 9d4d 713e eb7e 49bd 8004 f2bb
00000190: 586b 8e3e e45a 77be 5796 56bb 71ab 3dbe
000001a0: d7ea 25be 23d9 a53d 8e6e 463d 4788 1bbe
000001b0: fda8 3d3e 298a 72be 3fae 223e ed4f 473e
000001c0: d1b3 56be 585d 0b3e 6190 80be c6d0 073c
000001d0: 62d2 e8bd de59 8abe df8d a8bd f3cb c8bd
000001e0: 6948 6f3e 31cb 173e 49ba 81bd 0ddc 9f3e
000001f0: 544e 0c3e f3a7 013e 0acf 613d 5159 47be
00000200: e448 593d b19e 01be 35a3 0c3d da8b d03d
00000210: a3c7 cb3d 9969 dfbc 8873 1e3e 1d8a 63be
00000220: fe78 143e 1f03 413e 29e3 143e c823 92bd
00000230: f1d6 0a3e c378 51bd e749 7cbd 3d52 c63d
00000240: fb3e 343d c523 52be 5821 bfbd bbeb 353d
00000250: c8fc a4bd 38e9 253c 7739 02be 4024 9f3c
00000260: 68be ac3d 9732 043e d37f d03d 7f51 da3d
00000270: 0ff8 25bd 05c5 acbc 97bb b83d 74ef 3d3d
00000280: 3991 a23d 5ea7 a63e cf2d 943e daa0 12be
00000290: eddc bb3d afab bdbe 7cfc a6bb e1cb 073d
000002a0: 3556 50be 1697 83be 2dff 973c 4b5f 9c3d
000002b0: dac9 7ebc d376 acbe cc45 6c3d 8b80 f33c
000002c0: 803e 4bbe 25be 7f3c 72fb 6fbe 679e 143e
000002d0: 8f82 d63d 3921 5abe 9a54 beba f6ba 22be
000002e0: af95 bf3d fac3 8b3e 0c7c 1e3d c7dc 80bc
000002f0: 40fc bd3d a09c 843e dcd7 273d 219e 16be
00000300: fb7d f43c 4c1b 4e3e 8493 223d f82c eebd
00000310: db94 903c f488 8cbe e140 12be 500e 6f3b
00000320: a343 f33c 410d 24be 9e11 7c3c cd99 38be
00000330: a46e 05bd 39a2 08bd dcce 29be 221b 153d
00000340: 7cab a7bc 2c85 fdbd dd25 0cbd 316a df3d
00000350: bc16 a2bc 4aa5 5c3d 7a15 8ebc e2e7 32be
00000360: f219 983c 46d7 483e d2d0 033e e66b 843e
00000370: e76f d83d e9a1 ddbc 7df3 b73d b800 50be
00000380: 0597 903d 8abb 3fbe cdaa 37be 51f0 0abe
00000390: 8a85 b53d 620d cd3d 67ec 333e 5b73 2c3e
000003a0: 5ce8 bfbd 383a 6e3d 5461 a3bd 00e8 19be
000003b0: a419 b5bc 7bac 0e3e 3256 dc3d 8ce7 d33d
000003c0: 2bd8 193e 325e 543d 359e 2d3e ae88 233e
000003d0: 5f7e e6bd e531 be3c 664c 093c 367b e8bc
000003e0: 8ff7 343d ba30 09be 3e53 003e 1720 21bc
000003f0: db29 0abe b612 d63c 0405 d53d 9685 c93d

embedder.res_block.1.bias f4 [32]
-0.013549071 -0.08200247 0.006699297 -0.10077423 -0.1559302 0.03040331 0.03086083 0.037027765
0.16102742 -0.10152618 -0.035256013 -0.05404169 0.04413058 0.09496059 0.16684058 -0.038321413
0.010534354 -0.09007685 0.09257561 0.12007926 0.014569842 -0.16084293 -0.024729718 -0.08134316
0.0348089 -0.12453548 0.044068296 -0.13687167 0.0773592 -0.13512574 0.068769865 -0.12824485
00000000: ecfc 5dbc e9f0 a7bd c785 db3b b862 cebd
00000010: 2bac 1fbe 5d10 f93c dacf fc3c 6daa 173d
00000020: 5fe4 243e f5ec cfbd 9c68 10bd d25a 5dbd
00000030: 44c2 343d b37a c23d 42d8 2a3e eaf6 1cbd
00000040: 4898 2c3c 367a b8bd 4898 bd3d 1dec f53d
00000050: 59b6 6e3c 02b4 24be fa95 cabc 3e97 a6bd
00000060: c793 0e3d 750c ffbd f580 343d 1628 0cbe
00000070: 806e 9e3d 675e 0abe 37d7 8c3d 9e52 03be

embedder.res_block.3.weight f4 [32, 32]
-0.1835777 0.093318045 -0.11138075 -0.37976947 0.07696741 -0.0826649 -0.116615854 0.31017122
-0.10984043 0.10668642 -0.07420307 -0.20447516 0.021939037 0.17282578 -0.12977958 0.23809236
-0.055676818 0.19732234 0.24613422 0.05359083 0.035172895 -0.24259232 0.17352444 0.23351723
0.03798395 -0.011717012 -0.10695376 -0.083065994 0.2012252 0.07098117 -0.030418472 0.25310725
0.11315978 0.11344535 -0.02447787 0.29286414 0.13566688 0.09954072 0.21384516 0.053456225
-0.09350475 0.103916764 -0.2091405 -0.06839927 0.13842589 -0.22929265 -0.09269102 0.028910745
0.105329365 -0.0840911 0.09877498 -0.20504425 0.15514316 0.24462841 -0.09521935 -0.09246423
-0.008487988 0.17321801 -0.17418018 -0.10172839 0.090124175 0.012858176 -0.049704753 0.0524724
-0.05515145 -0.052050967 -0.059529334 0.18654105 -0.19779487 -0.046704832 0.06850367 -0.030718595
-0.14896844 -0.08659573 0.025234556 -0.18062386 0.12029498 0.065067455 0.14698021 -0.108641416
0.036423944 0.21470508 0.08853333 -0.07891069 0.017298639 0.15266356 0.07810932 0.14133486
-0.2270041 0.042993557 -0.07891115 0.17135882 0.16264515 -0.016018726 -0.19561177 0.124607936
0.015396767 0.12165534 -0.108646 -0.15616663 0.15212084 0.07884436 0.19410253 0.030577596
0.057101298 -0.11303175 -0.038782936 0.2615461 -0.16874503 -0.10045984 0.23262489 0.22197904
-0.062059805 -0.09346534 0.025467636 0.19357587 -0.008705468 -0.10193442 0.08970049 -0.021510672
0.06303062 -0.090225 0.16623195 0.05712901 -0.1607899 -0.05845723 -0.026569126 -0.005834262
0.13757531 -0.080862716 -0.1257696 0.037595943 -0.11237007 0.016859462 0.14256907 0.090355776
0.08069436 -0.035771262 0.06416691 0.26647565 -0.002156685 -0.01724565 -0.17803296 -0.42780933
0.060530327 0.09500193 0.03665979 -0.2019631 -0.12766916 0.1353156 -0.133485 -0.26707742
-0.18076801 -0.013956124 0.016271004 -0.031976134 -0.15107694 -0.06148034 -0.2467658 -0.11693958
0.030910267 0.060802985 0.15481612 -0.20548454 -0.062591396 -0.039030027 -0.12073946 0.092482515
0.07707665 -0.06407429 -0.05227039 -0.21906836 0.13701843 -0.018780714 0.019120913 0.363896
0.12510782 -0.04120063 -0.19968958 0.14454545 0.17069007 -0.0018199856 0.12164363 0.18076408
-0.13646492 -0.45210147 0.073464885 0.16662428 -0.07732511 -0.15386365 0.23823303 0.13287222
0.17918852 0.0068392395 0.014374494 -0.005566397 0.1882112 0.20684475 0.1094832 -0.05562641
-0.022134257 0.1354393 -0.11523542 0.0637116 0.07040647 0.038233917 -0.14126177 -0.028361494
0.02675319 -0.036243718 -0.086942516 0.121090434 0.037507534 0.10419194 -0.1094243 -0.012097459
-0.023203522 0.18311936 0.037064172 0.104817696 0.09516042 -0.09209611 0.09144767 0.08701481
0.20236258 0.20222434 -0.16323686 0.0031817262 0.008728049 0.26814774 0.03208372 0.0459493
0.11413241 0.24671511 0.056044627 0.29442856 0.16912107 0.078753114 0.11818028 -0.13312156
0.10915944 -6.367506e-05 -0.09941849 -0.04971928 0.035841215 0.18307132 -0.120170236 0.036758818
0.02387933 0.11339969 -0.1274372 0.027848015 0.07186866 -0.15302041 -0.043784108 0.0008705318
00000000: cbfb 3bbe 881d bf3d 971b e4bd 2571 c2be
00000010: 17a1 9d3d 374c a9bd 4bd4 eebd c3ce 9e3e
00000020: 05f4 e0bd 697e da3d c7f7 97bd f061 51be
00000030: 7fb9 b33c 3ef9 303e f0e4 04be 7cce 733e
00000040: 600d 64bd de0e 4a3e 9c0a 7c3e 0f82 5b3d
00000050: 7411 103d 1f6a 78be 64b0 313e 241f 6f3e
00000060: 0f95 1b3d b6f8 3fbc 930a dbbd 811e aabd
00000070: fb0d 4e3e 935e 913d 2930 f9bc 4697 813e
00000080: 51c0 e73d 0956 e83d d085 c8bc 4af2 953e
00000090: 42ec 0a3e 01dc cb3d 3afa 5a3e eaf4 5a3d
000000a0: 6b7f bfbd 50d2 d43d ed28 56be eb14 8cbd
000000b0: 84bf 0d3e b1cb 6abe cad4 bdbd 3ad6 ec3c
000000c0: ecb6 d73d f437 acbd 894a ca3d 1ff7 51be
000000d0: d9dd 1e3e df7f 7a3e 5d02 c3bd e35d bdbd
000000e0: 3411 0bbc 1060 313e 4a5c 32be f956 d0bd
000000f0: 0693 b83d 19ab 523c 3697 4bbd 4ded 563d
00000100: 7de6 61bd 6533 55bd 08d5 73bd 9e04 3f3e
00000110: bd8a 4abe 914d 3fbd a74b 8c3d 90a5 fbbc
00000120: 2f8b 18be 1a59 b1bd b3b8 ce3c 76f5 38be
00000130: 375d f63d 1642 853d fb81 163e 647f debd
00000140: 4631 153d a6db 5b3e f650 b53d ee9b a1bd
00000150: e0b5 8d3c d653 1c3e c7f7 9f3d 16ba 103e
00000160: c373 68be 031a 303d 2b9c a1bd b078 2f3e
00000170: 738c 263e b439 83bc 744e 48be 7232 ff3d
00000180: b942 7c3c 6f26 f93d cb81 debd 25ea 1fbe
00000190: 91c5 1b3e 2779 a13d d0c2 463e de7d fa3c
000001a0: 0de3 693d 317d e7bd dbda 1ebd 5fe9 853e
000001b0: 7fcb 2cbe e3bd cdbd 3835 6e3e 794e 633e
000001c0: 6c32 7ebd c26a bfbd 81a1 d03c c138 463e
000001d0: 61a1 0ebc fec2 d0bd e4b4 b73d 2637 b0bc
000001e0: 3316 813d e3c7 b8bd b538 2a3e 1c00 6a3d
000001f0: 1ca6 24be d970 6fbd 7fa7 d9bc 562d bfbb
00000200: 8be0 0c3e 5a9b a5bd bfc9 00be 34fe 193d
00000210: 4722 e6bd db1c 8a3c a0fd 113e 730c b93d
00000220: 1643 a53d e384 12bd f169 833d 7f6f 883e
00000230: 2c57 0dbb c046 8dbc 464e 36be d309 dbbe
00000240: a6ee 773d 5f90 c23d 9328 163d 6acf 4ebe
00000250: b4bb 02be 2c90 0a3e 4bb0 08be 5fbe 88be
00000260: 401b 39be 3aa8 64bc c54a 853c 68f9 02bd
00000270: eab3 1abe cfd2 7bbd 2db0 7cbe 057e efbd
00000280: 8737 fd3c 8d0c 793d 1e88 1e3e 8a6a 52be
00000290: eb2f 80bd f3dd 1fbd 4046 f7bd 7967 bd3d
000002a0: 5dda 9d3d 6239 83bd 7a19 56bd 7553 60be
000002b0: 8f4e 0c3e 03da 99bc 76a3 9c3c 9450 ba3e
000002c0: 441c 003e fec1 28bd 6d7b 4cbe b903 143e
000002d0: 61c9 2e3e 958c eeba 4c20 f93d 381a 393e
000002e0: 76bd 0bbe d879 e7be c274 963d 8e9f 2a3e
000002f0: a15c 9ebd 6f8e 1dbe 5cf3 733e a80f 083e
00000300: 327d 373e b31b e03b ff82 6b3c 5366 b6bb
00000310: 70ba 403e 1ccf 533e ba38 e03d 85d8 63bd
00000320: e752 b5bc 9ab0 0a3e 8c00 ecbd 3a7b 823d
00000330: 4431 903d 2b9b 1c3d eda6 10be 5d56 e8bc
00000340: 8229 db3c 4b74 14bd eb0e b2bd 43fe f73d
00000350: 80a1 193d 9562 d53d d919 e0bd 6c34 46bc
00000360: 5015 bebc a483 3b3e 9ad0 173d a9aa d63d
00000370: 77e3 c23d e39c bcbd ea48 bb3d d234 b23d
00000380: 2338 4f3e e613 4f3e 9027 27be 8284 503b
00000390: 1700 0f3c a94a 893e 386a 033d 5535 3c3d
000003a0: 41be e93d e3a2 7c3e 0d8f 653d 57bf 963e
000003b0: 132e 2d3e 5049 a13d 8108 f23d 0551 08be
000003c0: fc8e df3d 4a89 85b8 ec9b cbbd 72a6 4bbd
000003d0: 3dce 123d 0c77 3b3e d01b f6bd 6a90 163d
000003e0: 969e c33c 193e e83d e67e 02be 8521 e43c
000003f0: e02f 933d 62b1 1cbe f756 33bd 6634 643a

embedder.res_block.3.bias f4 [32]
0.14404257 -0.16527249 0.104793705 0.009912664 0.046446234 -0.03485178 -0.10684449 0.17265104
0.045882795 -0.024098434 0.121891096 0.06403902 -0.11661365 0.050381728 0.011954259 -0.026429249
-0.16956264 -0.005051536 -0.07008358 -0.14548244 0.1243105 0.16832952 -0.035283975 -0.051786166
-0.14795426 0.027719209 -0.11333393 -0.07248889 0.18740265 -0.14044482 0.055182423 0.05368168
00000000: e57f 133e 313d 29be 159e d63d ba68 223c
00000010: 683e 3e3d bdc0 0ebd 49d1 dabd 6fcb 303e
00000020: 99ef 3b3d 146a c5bc 0aa2 f93d e426 833d
00000030: 23d3 eebd 125d 4e3d ccdb 433c 2782 d8bc
00000040: d4a1 2dbe 5b87 a5bb fb87 8fbd 59f9 14be
00000050: 8196 fe3d 935e 2c3e ee85 10bd bb1d 54bd
00000060: 5281 17be 6513 e33c 9f1b e8bd 0e75 94bd
00000070: 7be6 3f3e c4d0 0fbe f706 623d 52e1 5b3d

cnn_blocks.0.proj_in.weight f4 [16, 32]
0.015869653 -0.13684578 0.019420752 -0.10308969 0.009233462 -0.079140335 0.07518534 -0.100566134
0.044076793 0.029493578 0.16268249 -0.18037912 -0.07998446 -0.1539805 -0.016941098 0.09100988
0.17587475 0.11384417 -0.16486466 -0.05333989 -0.018838938 -0.22071779 0.0986798 0.044851474
-0.008028641 -0.04310035 0.11403555 -0.0040701577 -0.1549576 0.0048111477 0.11754871 -0.109811835
-0.06406386 0.21412244 0.08375637 0.08275528 -0.063930534 0.13201936 -0.08368007 -0.0010035224
-0.17702137 0.13533558 0.03314958 0.14827171 -0.089227825 0.173653 -0.0134179285 -0.113216855
0.0010294833 0.14192086 0.13785654 0.038215008 0.14090115 -0.026011724 0.120849565 -0.1310516
0.06546047 -0.001524714 0.009299927 -0.13066241 0.068769015 -0.10072541 0.09932185 0.08484826
0.04064085 -0.03828388 0.14855888 0.07300992 0.23339675 0.16415948 0.034941923 0.0068976786
0.023580354 -0.096558265 0.14084314 -0.03864358 0.079395354 -0.19170871 -0.056928318 0.0021143872
0.0466702 0.01582711 -0.17296241 0.0028372894 -0.13463862 0.10424027 0.011377956 0.011369233
-0.12946807 0.05377808 0.13199183 -0.04976357 -0.08498737 0.1364596 -0.006904445 0.13265577
0.14391261 -0.12664153 -0.11938859 -0.14300449 -0.10310873 0.057429507 -0.1613907 -0.17696293
-0.15797414 -0.038990755 -0.045290142 0.02753004 -0.008242076 -0.07225899 -0.0019559811 0.06897358
-0.17619716 0.04347573 -0.14418101 0.005300352 0.016887492 0.015361947 -0.05313218 0.0111119365
0.019502958 -0.03475421 0.22938156 -0.024160106 -0.11900994 -0.100631095 0.13421865 -0.12543477
-0.1901509 0.11254662 0.1292376 0.07338546 -0.14212973 -0.15121366 0.05874242 0.13119204
0.08605329 0.008688083 0.06139048 -0.09109929 0.116524525 0.10202228 0.062695526 0.15211414
-0.1557146 0.057256225 -0.10340356 -0.00061278295 0.07928555 -0.0046143844 0.13707219 -0.10333409
0.087705635 -0.02462898 -0.07210429 0.13931851 -0.07326327 0.10793114 -0.27674374 -0.067198396
-0.23792472 0.056690805 -0.019093126 0.15837422 0.16390713 -0.08438709 0.076946005 0.12599057
-0.07855359 -0.03496635 -1.7675817e-05 0.15827814 -0.022202041 -0.19057962 0.15347894 -0.19963683
0.102045655 -0.0013040729 -0.05377098 0.12818317 0.06558585 -0.095316164 0.041444954 -0.03767598
-0.0662798 0.035086453 0.0152097065 0.15494394 -0.13784778 -0.09070707 0.13554822 -0.16340065
-0.051267155 0.037407387 0.034514003 0.16957907 0.1055207 0.039844874 -0.07651775 0.018615758
-0.01014638 -0.1363858 -0.06764215 0.103740364 -0.000174868 0.12644286 -0.10080224 0.11441356
0.097993344 0.17675075 -0.12785338 0.113396056 0.017637406 -0.08154851 -0.06328989 0.19230612
0.031901427 0.1552356 0.06804152 0.011434444 -0.06799257 -0.029114004 -0.27177247 0.04440482
0.066919215 0.07574345 0.058461387 0.17747949 -0.0016626562 0.19423848 -0.070182696 0.12349563
-0.09179533 -0.13482988 -0.10011595 -0.03439009 -0.19916715 -0.0005410449 0.15038252 0.20619822
-0.11861802 0.0851532 0.092614226 0.022606894 -0.18554932 0.022678722 -0.08904817 0.035780407
-0.08167882 -0.18187079 0.08633421 0.20112464 0.06473513 0.10500044 0.11298511 0.030281084
00000000: 1301 823c 4d21 0cbe 4518 9f3c b020 d3bd
00000010: f247 173c 5414 a2bd c6fa 993d 9ef5 cdbd
00000020: de89 343d 849c f13c 3d96 263e 4eb5 38be
00000030: e4ce a3bd 10ad 1dbe 0fc8 8abc 6363 ba3d
00000040: 8318 343e 2227 e93d 48d2 28be ee7a 5abd
00000050: 1e54 9abc d803 62be a318 ca3d 2eb6 373d
00000060: 908a 03bc fe89 30bd 788b e93d f55e 85bb
00000070: 35ad 1ebe d5a6 9d3b 61bd f03d 07e5 e0bd
00000080: ea33 83bd ea42 5b3e 7688 ab3d 9a7b a93d
00000090: 03ee 82bd 1530 073e 7560 abbd a088 83ba
000000a0: 1745 35be 6995 0a3e dbc7 073d 8ad4 173e
000000b0: 14bd b6bd 18d2 313e dfd6 5bbc 3dde e7bd
000000c0: baef 863a b453 113e 442a 0d3e 5787 1c3d
000000d0: 6448 103e 8a16 d5bc fa7f f73d 6432 06be
000000e0: 2410 863d ead8 c7ba b95e 183c 5ecc 05be
000000f0: c5d6 8c3d 2049 cebd 4169 cb3d edc4 ad3d
00000100: 0577 263d 8fcf 1cbd d21f 183e 3a86 953d
00000110: 8fff 6e3e 6c19 283e 431f 0f3d ec05 e23b
00000120: 962b c13c 57c0 c5bd 2f39 103e bb48 1ebd
00000130: 089a a23d 4a4f 44be ab2d 69bd 8891 0a3b
00000140: 4029 3f3d dba7 813c 0f1d 31be d1f1 393b
00000150: b5de 09be ec7b d53d 9b6a 3a3c 0546 3a3c
00000160: 4793 04be 6746 5c3d de28 073e e3d4 4bbd
00000170: dc0d aebd 11bc 0b3e af3e e2bb ead6 073e
00000180: d45d 133e 51ae 01be 0182 f4bd c56f 12be
00000190: ab2a d3bd 343b 6b3d 9b43 25be c535 35be
000001a0: f9c3 21be c5b4 1fbd 2882 39bd ae86 e13c
000001b0: c609 07bc 85fc 93bd eb2f 00bb 0542 8d3d
000001c0: 076d 34be 9b13 323d 30a4 13be 93ae ad3b
000001d0: a357 8a3c adb0 7b3c 21a1 59bd d70e 363c
000001e0: abc4 9f3c 6e5a 0ebd 00e3 6a3e 6aeb c5bc
000001f0: 7cbb f3bd ad17 cebd 9d70 093e f971 00be
00000200: ebb6 42be d87e e63d dd56 043e 1e4b 963d
00000210: 758a 11be c1d7 1abe e49b 703d 3557 063e
00000220: b53c b03d 7658 0e3c 9574 7b3d 4492 babd
00000230: 69a4 ee3d 0ff1 d03d 8366 803d cfc3 1b3e
00000240: a673 1fbe 8185 6a3d 3fc5 d3bd 2ba3 20ba
00000250: 7660 a23d 4334 97bb a75c 0c3e d3a0 d3bd
00000260: 039f b33d b7c2 c9bc 6aab 93bd 83a9 0e3e
00000270: 0e0b 96bd 000b dd3d 5bb1 8dbe 509f 89bd
00000280: 8aa2 73be 9e34 683d 3069 9cbc da2c 223e
00000290: 45d7 273e 23d3 acbd de95 9d3d ac03 013e
000002a0: b4e0 a0bd e038 0fbd 8746 94b7 aa13 223e
000002b0: 0ee1 b5bc 4e27 43be 9529 1d3e 996d 4cbe
000002c0: 50fd d03d 6ded aaba f63e 5cbd 7342 033e
000002d0: e051 863d 1f35 c3bd 2fc2 293d 2152 1abd
000002e0: b4bd 87bd d0b6 0f3d 2232 793c a0a9 1e3e
000002f0: f827 0dbe a1c4 b9bd 27cd 0a3e 8052 27be
00000300: 82fd 51bd 7d38 193d 8e5e 0d3d 23a6 2d3e
00000310: 3d1b d83d 6134 233d 57b5 9cbd 1380 983c
00000320: 013d 26bc b8a8 0bbe f887 8abd d475 d43d
00000330: c55c 37b9 3d7a 013e 6871 cebd a851 ea3d
00000340: bcb0 c83d 26fe 343e ffeb 02be 313c e83d
00000350: 527c 903c e802 a7bd 219e 81bd e5eb 443e
00000360: 12ab 023d 15f6 1e3e 5a59 8b3d 8957 3b3c
00000370: b03f 8bbd 7e80 eebc c325 8bbe d4e1 353d
00000380: f10c 893d 621f 9b3d 3575 6f3d 2fbd 353e
00000390: 7ced d9ba 74e6 463e f2bb 8fbd 47eb fc3d
000003a0: 31ff bbbd d810 0abe 9709 cdbd 9fdc 0cbd
000003b0: 79f2 4bbe e9d4 0dba e0fd 193e a025 533e
000003c0: 01ee f2bd cd64 ae3d 87ac bd3d 1832 b93c
000003d0: a400 3ebe bac8 b93c e35e b6bd 7a8e 123d
000003e0: 3a47 a7bd 563c 3abe fecf b03d 9ef3 4d3e
000003f0: da93 843d 780a d73d bd64 e73d 0910 f83c

cnn_blocks.0.proj_in.bias f4 [16]
-0.16097367 -0.008292833 0.057697337 0.17018914 0.15650135 0.14774442 -0.19597478 -0.00072259735
0.013335802 0.08844103 -0.08835211 -0.008716996 0.170296 -0.06091931 -0.12265046 0.045691546
00000000: 48d6 24be aade 07bc 0b54 6c3d 1046 2e3e
00000010: e441 203e 504a 173e 9dad 48be b06c 3dba
00000020: 687e 5a3c 9220 b53d f3f1 b4bd bbd1 0ebc
00000030: 1362 2e3e 8786 79bd 2a30 fbbd 0f27 3b3d

cnn_blocks.0.convs.0.weight f4 [16, 16, 3, 3]
-0.02478351 0.004842138 0.07282451 -0.058943797 0.07149336 0.09557869 -0.060639746 0.07404606
-0.0067883404 -0.1008057 -0.18278286 -0.040120017 0.016149545 -0.06038319 -0.094339475 -0.054290667
-0.05187698 -0.10698207 -0.11371144 -0.022340419 -0.05854639 -0.061650567 -0.10685623 -0.028044533
-0.0006953606 -0.053819045 0.029005308 0.06658396 -0.049635526 -0.13815545 0.0038409946 -0.05379865
0.012811666 0.08583264 0.08459878 -0.070194386 -0.06282898 0.013033468 0.11617716 0.059572116
-0.014465056 0.083671704 -0.021449361 -0.021149736 0.17016618 -0.04324233 0.07364995 0.016961383
-0.03466575 -0.07933337 0.101970226 0.017012794 -0.035132904 -0.05153219 0.06356102 0.003768485
0.022534458 0.09975344 -0.0007823147 0.09115714 -0.08180926 0.009117318 0.009267555 0.09002039
0.11481251 0.11353469 -0.078555025 -0.05172937 0.06990981 0.034717586 -0.016335422 0.019958759
-0.008204119 -0.07455993 -0.10932183 0.13900676 -0.071132414 -0.03594137 -0.03867422 0.1019186
-0.037346624 0.056181565 0.067174055 -0.0011966012 -0.021084998 0.0516226 -0.033494413 0.01414274
-0.119650185 0.088925175 -0.07827975 0.1860569 -0.04409623 -0.074971095 0.026648624 0.025577657
0.14006509 0.07355274 0.07997518 0.004846332 0.044258915 0.024371173 -0.033826564 -0.081505746
0.011852582 0.008766232 -0.07225398 -0.089385614 -0.14791492 -0.12693496 -0.2028556 -0.0054188836
-0.12248384 -0.045862958 0.0613036 -0.045234792 -0.05840268 -0.032901283 0.02074447 -0.042622782
0.024886854 -0.022677498 0.006623828 0.0312963 -0.11357394 0.01603841 0.025684102 -0.019510228
0.12247391 -0.0055884672 0.15440285 0.10086813 0.032872703 -0.0035372484 -0.054478697 -0.023845898
0.023664638 -0.062432513 0.075085126 -0.048913967 0.018213281 -0.015829008 0.03546285 -0.029838398
-0.10340821 -0.09703613 -0.04485545 -0.077335864 -0.046602968 -0.000795761 0.044482645 -0.007867942
-0.06826552 -0.16262388 -0.08311276 -0.043016307 -0.14268677 -0.16893542 0.040982287 0.028520437
0.008756993 -0.011282073 -0.049278513 0.034988765 -0.002302687 0.103482015 0.06980819 0.028027225
0.07481877 -0.11757463 -0.076451056 -0.18861517 0.11829558 0.12055536 0.02335111 0.022709807
-0.14487506 0.0005342155 0.0025861512 -0.057954278 -0.005982465 -0.020719083 -0.057459533 -0.040696163
-0.054089654 -0.1385366 -0.104461305 -0.030215291 -0.088454716 0.046501804 -0.023176843 -0.0055023246
0.049750827 0.035256688 -0.026294405 -0.16922057 -0.018974017 -0.12443875 0.023030318 -0.07953551
0.013487688 0.008680315 -0.03795123 -0.011889604 0.13419314 0.058442954 -0.10062411 0.024268335
0.11843318 -0.14325137 -0.068580754 0.17337033 0.049974106 0.013285109 0.0010130192 -0.1252102
-0.008573896 -0.049703434 0.05454999 0.11933198 0.03248125 -0.096253656 0.16094255 0.04539501
0.1182989 0.06308762 0.09730619 -0.034733295 0.027143814 -0.1392243 -0.13577613 0.049863886
0.042678814 -0.10015898 -0.012302482 -0.03733674 -0.057274744 -0.030034406 0.11685681 0.04682051
0.057021514 -0.07125926 -0.017766226 0.013963681 -0.034030728 0.028750926 0.012626047 0.019408263
0.10232057 0.08357099 -0.0033188222 0.10371681 0.04524319 -0.026853804 -0.016005976 0.015190306
00000000: ca06 cbbc ccaa 9e3b 0425 953d 0d6f 71bd
00000010: 1c6b 923d c3be c33d 6261 78bd 76a5 973d
00000020: ba70 debb 3873 cebd 6e2b 3bbe e354 24bd
00000030: 0d4c 843c 5d54 77bd 0e35 c1bd e45f 5ebd
00000040: f57c 54bd 6a19 dbbd 8be1 e8bd 4103 b7bc
00000050: 57ce 6fbd 4e85 7cbd 70d7 dabd a6bd e5bc
00000060: dc48 36ba 5c71 5cbd 8a9c ed3c 2c5d 883d
00000070: 9f4e 4bbd 9f78 0dbe 32b9 7b3b f95b 5cbd
00000080: 06e8 513c 06c9 af3d 2042 ad3d 13c2 8fbd
00000090: 7bac 80bd 548a 553c 4aee ed3d e401 743d
000000a0: d8fe 6cbc 125c ab3d 92b6 afbc 3642 adbc
000000b0: 0b40 2e3e df1e 31bd c9d5 963d 99f2 8a3c
000000c0: acfd 0dbd 8979 a2bd c4d5 d03d 6a5e 8b3c
000000d0: 85e7 0fbd 6b13 53bd 482c 823d b0f8 763b
000000e0: 2f9a b83c 884b cc3d 4014 4dba 98b0 ba3d
000000f0: 9d8b a7bd ce60 153c f1d6 173c 9c5c b83d
00000100: d222 eb3d e084 e83d 75e1 a0bd 2de2 53bd
00000110: e02c 8f3d 0734 0e3d ddd1 85bc 8d80 a33c
00000120: 926a 06bc e0b2 98bd 20e4 dfbd ca57 0e3e
00000130: dfad 91bd 4237 13bd dc68 1ebd b3ba d03d
00000140: c6f8 18bd a41e 663d 8d92 893d 46d7 9cba
00000150: 72ba acbc 3872 533d 7031 09bd f3b6 673c
00000160: 280b f5bd 671e b63d 2251 a0bd b385 3e3e
00000170: 409e 34bd 728a 99bd 374e da3c 3c88 d13c
00000180: 396d 0f3e d2a2 963d 07ca a33d fbcd 9e3b
00000190: d648 353d 0ea6 c73c b98d 0abd 7cec a6bd
000001a0: 5531 423c 3ea0 0f3c e5f9 93bd ce0f b7bd
000001b0: 0277 17be 3dfb 01be 61b9 4fbe e490 b1bb
000001c0: cfd8 fabd ccda 3bbd 7c19 7b3d 1e48 39bd
000001d0: a637 6fbd 7fc3 06bd 4ff0 a93c 3a95 2ebd
000001e0: 84df cb3c 29c6 b9bc b20c d93b 8d30 003d
000001f0: 7499 e8bd fc62 833c 7767 d23c ead3 9fbc
00000200: 9ad3 fa3d 761f b7bb c81b 1e3e f393 ce3d
00000210: 87a5 063d 2ed1 67bb 0e25 5fbd 7958 c3bc
00000220: 58dc c13c 3cb9 7fbd 3bc6 993d 035a 48bd
00000230: 0534 953c d6ab 81bc 7e41 113d a86f f4bc
00000240: afc7 d3bd e1ba c6bd 59ba 37bd 4462 9ebd
00000250: c1e2 3ebd 9e9a 50ba 6f33 363d 8ae8 00bc
00000260: cbce 8bbd e086 26be 0637 aabd de31 30bd
00000270: 7b1c 12be 68fd 2cbe 0bdd 273d b1a3 e93c
00000280: 7e79 0f3c 72d8 38bc 44d8 49bd 6150 0f3d
00000290: ade8 16bb 61ee d33d 99f7 8e3d 5a99 e53c
000002a0: 953a 993d f8ca f0bd 5f92 9cbd 5624 41be
000002b0: f444 f23d bbe5 f63d d44a bf3c eb09 ba3c
000002c0: 215a 14be 980a 0c3a 6b7c 293b 7761 6dbd
000002d0: 8e08 c4bb 11bb a9bc b05a 6bbd 05b1 26bd
000002e0: 1d8d 5dbd 8adc 0dbe cfef d5bd 0f86 f7bc
000002f0: bf27 b5bd ad78 3e3d 5ddd bdbc d84c b4bb
00000300: 86c7 4b3d 5169 103d 5d67 d7bc 2848 2dbe
00000310: 666f 9bbc bed9 febd 14aa bc3c 83e3 a2bd
00000320: 77fb 5c3c e137 0e3c c072 1bbd 9dcc 42bc
00000330: ed69 093e e161 6f3d 0314 cebd 63ce c63c
00000340: 188d f23d 7db0 12be 1174 8cbd fe87 313e
00000350: a6b1 4c3d c9a9 593c 49c7 843a 1a37 00be
00000360: 8779 0cbc d495 4bbd cf6f 5f3d 5364 f43d
00000370: 0f0b 053d a320 c5bd 20ce 243e 1ef0 393d
00000380: b246 f23d 1534 813d 7848 c73d 8044 0ebd
00000390: b45c de3c d190 0ebe e608 0bbe 133e 4c3d
000003a0: fbcf 2e3d 2720 cdbd 5990 49bc 69ee 18bd
000003b0: ec98 6abd b70a f6bc a052 ef3d ddc6 3f3d
000003c0: 648f 693d 60f0 91bd 7a8a 91bc ecc7 643c
000003d0: ce63 0bbd 1087 eb3c 7bdd 4e3c 14fe 9e3c
000003e0: 728d d13d 4427 ab3d 9980 59bb 7b69 d43d
000003f0: ec50 393d 82fc dbbc f71e 83bc c3e0 783c

cnn_blocks.0.convs.0.bias f4 [16]
0.079200506 -0.026756976 0.053670824 0.017076224 0.061330847 -0.03974472 -0.048378054 0.013052067
-0.0683275 -0.025990175 0.047808684 0.013902133 0.05554814 -0.0023601053 -0.000948425 0.027858524
00000000: e033 a23d 7231 dbbc f0d5 5b3d 70e3 8b3c
00000010: 0e36 7b3d 5ccb 22bd 1128 46bd 56d8 553c
00000020: 4aef 8bbd 59e9 d4bc 0ad3 433d c6c5 633c
00000030: 7286 633d ffab 1abb b99f 78ba 8f37 e43c

cnn_blocks.0.convs.1.weight f4 [16, 16, 3, 3]
-0.1485875 -0.040175736 0.0563294 -0.010456367 -0.06598697 0.017277837 -0.0698708 0.09930959
0.09293595 0.13171864 0.0024015675 0.099135935 -0.09378222 0.0897254 0.09183312 0.009212321
0.048208952 0.15726423 -0.034617983 -0.13436377 -0.16809136 -0.0082344515 -0.09936343 0.011396993
-0.09294449 0.020659178 0.07794473 0.004519283 0.04133273 0.0027745306 -0.05836918 0.04864222
0.099416494 0.0034600338 0.12907892 -0.011144529 -0.033894714 -0.11232069 -0.017956126 -0.048942536
-0.04587322 -0.078050844 0.023194905 -0.13904677 -0.08049999 0.032718208 0.12251156 0.02787621
0.120215364 0.11146025 0.040415186 0.0087110195 0.040697023 -0.0012128155 0.17717126 0.11608602
0.09120342 -0.08690492 0.08331568 0.02510436 -0.026215449 0.02358535 0.006325936 0.07246404
0.10688033 -0.1389786 -0.017444434 -0.04649535 0.016451368 0.09792262 -0.001604756 -0.11746745
-0.11163223 -0.014656292 0.069683574 -0.010248397 0.10218221 0.010495428 0.03363885 0.024464382
0.034490377 0.04407921 -0.017731406 0.13680215 0.011541939 0.0063609653 -0.0132067185 -0.040275715
-0.017617993 0.07457584 -0.2063776 -0.181131 -0.060317535 0.059838105 -0.054726373 -0.079847135
-0.058211643 0.024142008 -0.043746687 -0.040335298 0.07209127 -0.06542418 -0.055548 -0.031204881
0.11067803 -0.028038288 -0.119843684 -0.042252406 0.06793141 -0.09477417 -0.10228875 -0.00812511
-0.11236172 -0.1039181 0.03632058 -0.045542587 -0.1316943 -0.08820005 0.045285176 -0.10039835
-0.063318014 0.04341566 0.06520124 0.023770582 -0.032854494 -0.06699953 0.02735405 0.027971929
-0.119043745 0.048907004 0.012828269 -0.030625768 0.09945036 0.033147328 0.06864685 0.0714511
0.109865695 0.008411356 -0.06028018 -0.014042789 0.01642983 -0.14813188 -0.058148578 -0.04824754
-0.10689526 -0.12268086 0.07458812 -0.1396856 -0.08135888 -0.06649306 0.062838435 0.048965536
-0.01994373 -0.0748745 0.08368808 0.30717584 -0.037045356 -0.16868074 0.038922243 -0.08358894
0.10661586 0.065976195 -0.08730382 0.023274938 0.0049389866 -0.020028232 0.061454937 0.065381356
-0.03690964 0.07540365 -0.014860087 -0.07461743 0.08668368 -0.090069026 -0.09879595 0.0015254795
-0.01722527 0.042463195 -0.13697435 -0.10135822 0.09606985 0.04193751 -0.25365302 -0.053791184
0.022634873 -0.065467104 -0.08621485 -0.025915118 -0.08126073 -0.061300498 0.016943209 -0.02255831
-0.026302062 0.030434059 -0.015937971 0.21342911 -0.00039180295 0.071973816 -0.011421651 -0.06382301
0.09272586 0.07549559 0.050141737 0.0046782964 0.09481442 0.11724335 -0.014844229 -0.10265217
-0.04491437 -0.065581 0.15167844 0.06549117 0.08389239 -0.023802346 0.054826975 0.06392309
-0.04614491 -0.071179055 -0.05463587 -0.030910479 0.05010967 -0.0794017 -0.08695125 0.032982588
0.015680976 -0.17911695 0.068266355 0.18971676 0.09037938 -0.011335125 -0.040870983 -0.024614923
0.0035087508 0.0297064 0.046615012 0.011062251 -0.020657534 -0.07160851 -0.05194155 -0.028344719
-0.11259918 -0.09904709 0.024322605 -0.04509804 -0.108879685 -0.07341673 -0.07233743 -0.14771342
-0.024143204 -0.08276556 -0.05396305 -0.030010322 0.07937264 0.039127015 0.10927625 -0.021239733
00000000: 5227 18be 508f 24bd a8b9 663d 2f51 2bbc
00000010: 2d24 87bd 408a 8d3c 6c18 8fbd d462 cb3d
00000020: 3455 be3d 40e1 063e 9e63 1d3b c807 cb3d
00000030: e410 c0bd f3c1 b73d 0113 bc3d 46ef 163c
00000040: c076 453d e009 213e 96cb 0dbd a896 09be
00000050: 2420 2cbe cbe9 06bc 0e7f cbbd 74ba 3a3c
00000060: ae59 bebd 703d a93c 7da1 9f3d 7e16 943b
00000070: 824c 293d e6d4 353b 8514 6fbd 113d 473d
00000080: e09a cb3d bcc1 623b 442d 043e 8b97 36bc
00000090: 2fd5 0abd 6408 e6bd ba18 93bc f877 48bd
000000a0: 8fe5 3bbd 1fd9 9fbd 3e03 be3c 4762 0ebe
000000b0: 2edd a4bd 8703 063d 57e7 fa3d a65c e43c
000000c0: 7933 f63d 4645 e43d 658a 253d aab8 0e3c
000000d0: ecb1 263d 56f7 9eba 626c 353e 82be ed3d
000000e0: dcc8 ba3d 35fb b1bd 69a1 aa3d a9a7 cd3c
000000f0: c8c1 d6bc 1036 c13c cc49 cf3b 0768 943d
00000100: 13e4 da3d 6850 0ebe a1e7 8ebc e871 3ebd
00000110: 05c5 863c a88b c83d ad56 d2ba c692 f0bd
00000120: 709f e4bd f220 70bc 43b6 8e3d e4e8 27bc
00000130: e844 d13d 04f5 2b3c e4c8 093d 8769 c83c
00000140: c845 0d3d 678c 343d 7441 91bc dd15 0c3e
00000150: 671a 3d3c a56f d03b fe60 58bc 26f8 24bd
00000160: 9c53 90bc 38bb 983d a654 53be 687a 39be
00000170: 850f 77bd cd18 753d c328 60bd e586 a3bd
00000180: 556f 6ebd 76c5 c53c ba2f 33bd a036 25bd
00000190: 96a4 933d 1dfd 85bd 4d86 63bd 61a1 ffbc
000001a0: 2aab e23d 8db0 e5bc 9b70 f5bd dc10 2dbd
000001b0: a01f 8b3d f618 c2bd c47c d1bd 2e1f 05bc
000001c0: e71d e6bd 03d3 d4bd e3c4 143d dd8a 3abd
000001d0: dfda 06be 3aa2 b4bd f37c 393d a69d cdbd
000001e0: e0ac 81bd 9ed4 313d 3a88 853d 86ba c23c
000001f0: 6f92 06bd 0d37 89bd 9a15 e03c 6325 e53c
00000200: 35cd f3bd b652 483d a92d 523c e4e2 fabc
00000210: a1ac cb3d 7ec5 073d b896 8c3d f454 923d
00000220: 4401 e13d c9cf 093c 5ae8 76bd ba13 66bc
00000230: da97 863c e2af 17be 342d 6ebd 369f 45bd
00000240: e7eb dabd 1a40 fbbd a8c1 983d be09 0fbe
00000250: 7c9f a6bd 832d 88bd 70b1 803d 1690 483d
00000260: 0961 a3bc cd57 99bd a864 ab3d 2746 9d3e
00000270: dfbc 17bd a5ba 2cbe ee6c 1f3d ae30 abbd
00000280: 6a59 da3d 871e 873d 58cc b2bd 15ab be3c
00000290: 39d7 a13b 3f12 a4bc 2cb8 7b3d a9e6 853d
000002a0: 902e 17bd 3b6d 9a3d b977 73bc 06d1 98bd
000002b0: 3787 b13d 1c76 b8bd 8855 cabd 99f2 c73a
000002c0: 021c 8dbc e3ed 2d3d 0143 0cbe e694 cfbd
000002d0: 45c0 c43d abc6 2b3d cfde 81be 2554 5cbd
000002e0: c56c b93c 9e13 86bd 6991 b0bd f14b d4bc
000002f0: 076c a6bd 3b16 7bbd 7ccc 8a3c 34cc b8bc
00000300: 6c77 d7bc d950 f93c 5990 82bc 298d 5a3e
00000310: e76a cdb9 0267 933d e021 3bbc a3b5 82bd
00000320: 0ee7 bd3d 6f9d 9a3d 6c61 4d3d 654c 993b
00000330: 102e c23d 481d f03d 3635 73bc 4d3b d2bd
00000340: 21f8 37bd 554f 86bd 9851 1b3e 3c20 863d
00000350: c6cf ab3d 23fd c2bc 4092 603d 1cea 823d
00000360: 7202 3dbd 53c6 91bd ddc9 5fbd f937 fdbc
00000370: cc3f 4d3d 5c9d a2bd 7f13 b2bd c018 073d
00000380: 6475 803c 6f6a 37be 3bcf 8b3d 1c45 423e
00000390: d318 b93d f6b6 39bc 5568 27bd 3ca5 c9bc
000003a0: 12f3 653b d65a f33c 62ef 3e3d 723e 353c
000003b0: fd39 a9bc 7ca7 92bd aac0 54bd 2f33 e8bc
000003c0: 669a e6bd 33d9 cabd 3340 c73c b9b8 38bd
000003d0: 50fc debd 835b 96bd a625 94bd 3042 17be
000003e0: f8c7 c5bc fd80 a9bd 5c08 5dbd 35d8 f5bc
000003f0: 1f8e a23d a643 203d 3acc df3d f3fe adbc

cnn_blocks.0.convs.1.bias f4 [16]
-0.032986525 0.060983676 -0.016867427 0.058253065 -0.077351086 0.082052305 -0.09345807 -0.053436175
0.040679257 0.03909766 -0.06414757 0.0014933513 0.010211813 -0.07660839 0.0042170966 -0.0651851
00000000: e11c 07bd 05ca 793d 8f2d 8abc c49a 6e3d
00000010: 3f6a 9ebd 0a0b a83d f266 bfbd e4df 5abd
00000020: 4b9f 263d de24 203d cd5f 83bd 8ebc c33a
00000030: 734f 273c dce4 9cbd 922f 8a3b c47f 85bd

cnn_blocks.0.norms.0.weight f4 [16]
1.0052356 0.9314358 0.91177773 0.9838555 0.98357594 0.9541801 1.0151776 0.96252996
1.0207995 0.9985128 1.0713384 1.0688897 0.97252315 0.8656665 0.9843097 0.99508226
00000000: 8fab 803f 9472 6e3f 446a 693f f4dd 7b3f
00000010: a2cb 7b3f 2645 743f 57f1 813f 5d68 763f
00000020: 8fa9 823f 899e 7f3f 9e21 893f 61d1 883f
00000030: 47f7 783f 529c 5d3f b8fb 7b3f b6bd 7e3f

cnn_blocks.0.norms.0.bias f4 [16]
-0.102190085 -0.135722 -0.09936236 -0.118869714 -0.027504839 -0.09199828 -0.059485998 -0.13139205
-0.19517158 -0.06277631 -0.06991148 0.015441657 -0.032628275 -0.25766867 -0.08075735 -0.01556805
00000000: 0949 d1bd b5fa 0abe 7e7e cbbd f771 f3bd
00000010: d451 e1bc 9869 bcbd 97a7 73bd a38b 06be
00000020: 0fdb 47be de90 80bd c02d 8fbd 01ff 7c3c
00000030: 3aa5 05bd 26ed 83be 1c64 a5bd 2211 7fbc

cnn_blocks.0.norms.0.running_mean f4 [16]
-0.09515704 0.008864354 0.123647965 -0.100045994 0.024746241 -0.14498521 0.07515323 0.10817799
-0.1636467 -0.07383154 0.020642515 0.02066006 -0.031161774 -0.1489664 -0.1145794 0.05288953
00000000: b2e1 c2bd cc3b 113c 253b fd3d eae4 ccbd
00000010: a1b8 ca3c 0177 14be f0e9 993d 6c8c dd3d
00000020: 0093 27be fe34 97bd 7e1a a93c 493f a93c
00000030: fa46 ffbc a68a 18be 9ba8 eabd b1a2 583d

cnn_blocks.0.norms.0.running_var f4 [16]
0.043932714 0.024542054 0.06497758 0.04972614 0.05270394 0.060257558 0.03396941 0.028264899
0.046799112 0.04085428 0.02586278 0.05391852 0.029022466 0.025576293 0.04111813 0.032363713
00000000: caf2 333d 6b0c c93c f712 853d a3ad 4b3d
00000010: 16e0 573d a1d0 763d 8223 0b3d ca8b e73c
00000020: 6db0 3f3d d156 273d 2ede d33c abd9 5c3d
00000030: 86c0 ed3c 6085 d13c 7c6b 283d d08f 043d

cnn_blocks.0.norms.1.weight f4 [16]
1.0954509 1.1166842 1.0864135 1.2060483 1.1246835 1.0425483 1.1605831 1.1229753
1.314983 1.0487338 1.0733744 1.0712254 1.1765956 1.1220202 1.0372368 1.0252627
00000000: bc37 8c3f 82ef 8e3f 990f 8b3f ca5f 9a3f
00000010: a1f5 8f3f 3972 853f fd8d 943f a8bd 8f3f
00000020: 5d51 a83f e93c 863f 5564 893f ea1d 893f
00000030: af9a 963f 5c9e 8f3f 2dc4 843f cf3b 833f

cnn_blocks.0.norms.1.bias f4 [16]
-0.051960867 0.05113708 -0.016440554 -0.017521687 -0.09267205 -0.024529664 -0.031657543 0.028084928
0.011614582 0.0096954405 -0.03415299 -0.0559791 -0.059035294 -0.0043692966 0.0005081287 -0.022529397
00000000: ebd4 54bd 1d75 513d 57ae 86bc a489 8fbc
00000010: d8ca bdbd 6ff2 c8bc 57ab 01bd 5d12 e63c
00000020: 164b 3e3c a0d9 1e3c 01e4 0bbd 574a 65bd
00000030: fece 71bd 512c 8fbb f133 053a 928f b8bc

cnn_blocks.0.norms.1.running_mean f4 [16]
-0.11910944 -0.12320402 0.094610706 -0.4725153 0.1230015 0.4163828 0.057982948 -0.29192555
0.16149797 0.3339756 -0.27498335 0.24467367 -0.17254676 -0.13257936 0.03861039 -0.18069357
00000000: a6ef f3bd 6452 fcbd 42c3 c13d 87ed f1be
00000010: 36e8 fb3d 2030 d53e 877f 6d3d 4477 95be
00000020: b95f 253e dafe aa3e 9eca 8cbe bc8b 7a3e
00000030: 19b0 30be e2c2 07be ee25 1e3d bc07 39be

cnn_blocks.0.norms.1.running_var f4 [16]
0.08496869 0.097474694 0.08952852 0.057296727 0.118136704 0.15555295 0.09416232 0.10764976
0.10616754 0.110527545 0.083982065 0.16735348 0.089480974 0.088396 0.12186585 0.071929745
00000000: 1104 ae3d d0a0 c73d bb5a b73d f9af 6a3d
00000010: a8f1 f13d 4649 1f3e 2dd8 c03d 7a77 dc3d
00000020: 5e6e d93d 445c e23d cafe ab3d b65e 2b3e
00000030: cd41 b73d f608 b53d ce94 f93d e74f 933d
