checkpoints/abl_cnn_rnn/final_model.pt (torch, 86258 bytes, 50 tensors)

embedder.feature_projections.0.weight f4 [32, 1]
00000000: 4383 9d3d 1d13 01bf 7a13 efbe 9126 8b3f
00000010: a0f2 1cbf 2bc2 943f 7a0b 22bf 2202 513f
00000020: cd46 b53e a340 24bd fb30 78bf f46a edbd
00000030: 1e02 3abf 745a 5b3f ea15 09bf ef8a 213f
00000040: 543d ff3e c543 8a3f 3de8 4dbe 818c b83e
00000050: b0f4 ed3e bba1 563f c744 0bbc 7db2 f83e
00000060: 53a3 94bf 615a 8bbf 7e93 6bbf 688c 83bf
00000070: 9075 45bf c176 d4be a383 a53f c0b6 ae3e
0.07691052 -0.5041979 -0.46694547 1.0871145 -0.61307716 1.1621755 -0.6329876 0.8164388
0.3540558 -0.040100705 -0.9694974 -0.11592665 -0.7265948 0.85684896 -0.53549063 0.6310262
0.49851477 1.0801932 -0.20108123 0.36044696 0.46475744 0.8384053 -0.0085002845 0.48573676
-1.1612343 -1.0886956 -0.9202193 -1.0277224 -0.7713251 -0.41496852 1.2930797 0.34123802

embedder.feature_projections.0.bias f4 [32]
00000000: c541 6cbe c0fe 4cbf e0c0 09bf 0025 bc3e
00000010: faa7 d7be 842d 533f d457 953e 89cc 503f
00000020: 2e2d 473f 5009 1cbf 3827 443f 71d3 90be
00000030: be78 77be f81a 753e bb00 173f 2cea feb9
00000040: 2639 92be 1870 cc3e 17a5 53be b0ff 4bbf
00000050: dd5a 603f 421e 273f d6aa 0e3e f483 73bf
00000060: ebdf d13e 0d83 cfbe c002 693f a806 21be
00000070: dc67 3d3e fbf4 d2be d880 4cbe 952a 183f
-0.23071964 -0.8007622 -0.5380993 0.3674698 -0.42120343 0.82491326 0.2916857 0.81562096
0.77803314 -0.6095171 0.76622343 -0.28286317 -0.24167153 0.23936069 0.5898549 -0.00048621127
-0.28559226 0.3992927 -0.20668446 -0.79687023 0.87638646 0.65280545 0.13932356 -0.9512322
0.40991148 -0.4052967 0.9101982 -0.15725195 0.1849665 -0.4120253 -0.19971025 0.59439975

embedder.feature_projections.1.weight f4 [32, 1]
00000000: 946e 2c3d 8e37 e5be 540a 58bf a2f4 1ebf
00000010: 4e7f 2ebf 5d58 eebe 85b0 10bf aff5 3b3f
00000020: 8f7e 07bf 758e 213f 09ab 1abe 5bc5 94be
00000030: 0663 ea3e 6154 56bf 664a 663f 0601 ffbe
00000040: a357 efbe 0e12 453f 6660 d33b 2cd3 4e3e
00000050: 17d8 c4be a320 8d3e 912c 163f 7517 273f
00000060: 44c2 8c3d debc e6be 15e9 f4be 1479 0a3f
00000070: 14ce df3e 8324 e3be fbf9 0bbf 767c f83e
0.042097643 -0.44768947 -0.8439076 -0.6209203 -0.68163 -0.4655179 -0.5651935 0.7342176
-0.5292749 0.63108 -0.15104307 -0.2905682 0.45778674 -0.837225 0.89957273 -0.49805468
-0.4674655 0.76980674 0.0064507006 0.20197743 -0.38446113 0.27563962 0.5866175 0.6527017
0.06872991 -0.4506597 -0.47834077 0.54091 0.43711913 -0.44363794 -0.54678315 0.48532456

embedder.feature_projections.1.bias f4 [32]
00000000: e99d de3e 3896 69be 9caa 2ebf 8fd7 76bf
00000010: 5b1b 2cbe 7ecf 27be 708a 9d3e 7d65 4ebf
00000020: e06e 2abf a232 c03e 56f8 22bd 1b47 6e3d
00000030: 3c32 70bf 3557 4e3f 115c 44be 63be 433f
00000040: 563b f23e 07a5 2ebf ec71 493f 2a1e b3be
00000050: 9995 5fbf 1b35 853e f66c 15bf f2ab 27bf
00000060: 7aa8 073e 00fe 083f 6671 af3e 14d9 04bf
00000070: 6f0e dabe c310 633e f6b9 963e af98 8fbd
0.4347985 -0.2281121 -0.6822908 -0.96422666 -0.1680731 -0.16387746 0.30769682 -0.8062361
-0.6657543 0.3753863 -0.039787613 0.05817328 -0.9382665 0.8060182 -0.19175746 0.7646238
0.47310895 -0.6822056 0.78689456 -0.3498395 -0.8733764 0.2601708 -0.58369386 -0.6549674
0.13247862 0.53512573 0.34266204 -0.51893735 -0.42589137 0.22174363 0.29438752 -0.07011544

embedder.stabilizer_embedding.weight f4 [8, 32]
00000000: 4197 893f 1c91 893f 4d16 5f3e 8cff 6cbf
00000010: a534 cebe 64af 14bf bd01 443c bb41 64bf
00000020: ece2 1340 ed41 a9be 3443 023f 48b2 39be
00000030: d4ab 9f3f 4df1 0d3f d6df 193f 2cd0 0740
00000040: 7e8a b0bf 00a7 0a40 a4db 60bf 1c33 b0be
00000050: 6af2 bb3e b2d4 88bf 66e3 c9bf f265 be3e
00000060: b328 a43f 76a4 69bf 9fd5 2bbf b2d7 ba3e
00000070: 3529 103f a6b4 f63e 9b16 35be ec85 a43f
00000080: ee02 d7bf 9611 81be 466f fd3e fe07 a3bf
00000090: 9d0f d43e bcd4 0a3f be03 4b3f 13d2 b83f
000000a0: 1be8 493f b799 823d baff 3bc0 fe4d 2040
000000b0: e0f6 0dc0 e466 0e3f 3188 c0be 33f0 c6be
000000c0: 6720 0dbf 3824 19bd 044f a63f cceb db3f
000000d0: 7fed cd3e cf44 91bf 5c67 573f bf31 2dbf
000000e0: ebb3 a2bf 03cc d23d 8aae 4bbf 43ba 883f
000000f0: 43cf 20bf f2f7 693f 1f20 d33e cb88 413f
00000100: edae bf3f 3576 2cbe c89e b93d 6327 b7bf
00000110: 8fb8 b6bf 2fbd 59bf 4f1f 483e 9942 28c0
00000120: 1258 273f 2583 5b3f 6930 643f 3fa3 b5bf
00000130: b0ed 953e 7040 5cbf 09e7 443e 1d3f 25be
00000140: c488 22c0 d169 76bf 899a e7bf 31ae 243d
00000150: 3e49 b53f fc60 db3f 9aef 263f 1965 4d3e
00000160: 7fa3 193f 248b e53e 6e72 0f3f 7962 acbf
00000170: 9acc 7abf 4906 be3e 003a 2d3d 970d 653e
00000180: 2e00 523f 2e02 ce3f d64a b83d 1ff8 383e
00000190: d1aa 803e 377a 3bbd 4b8c 95bf 7cf2 273f
000001a0: d41d 5cbb ee8f fc3d a6e8 3540 db74 393f
000001b0: 0d33 a73f 1dae 4a3f 1b9d 943f bc6e 2cbf
000001c0: 55b1 a03f 6e1a e9bf 58cc 003f 7725 f23c
000001d0: ac14 bf3f 1ab4 8ebf b066 823e 3e2f 1b3f
000001e0: 4f00 9ebe 6f64 babf 3347 443f dcd7 cabc
000001f0: a5df c03f f2dd 873f 34b8 b3be 9a5f ba3f
00000200: ac49 babd b1b6 50bf cab5 bbbe 0668 1abf
00000210: c4c7 d03d 2745 243f 1d12 463e cb8e 3abe
00000220: 0d5c 9dbe 1432 80bf 0548 ebbf 25be eabf
00000230: e8ef 2f40 e2a4 3c3f 462c 06bf 053e 0c3e
00000240: 7701 183f b104 c7bd aa02 f6be c57e 243e
00000250: fbe2 7b3f 3a1b b7be 8bb2 dbbe 9c77 983e
00000260: bc05 643f e917 8c3f e599 aabf a201 1abe
00000270: 8f44 9bbf 8139 1b3f faea 02bf 37d3 a93f
00000280: 15a7 ba3f 8f29 0f3f d313 263e 0740 dabf
00000290: fbc3 103e 4665 a83f 7a2b be3f 3a82 83bf
000002a0: d4b9 38bf 9e6a 5c3f d6ab 92bf 4031 683f
000002b0: dafb 3e3f e589 cb3f 9eaa 8b3e bea5 b5be
000002c0: 1216 15bf a6d7 1d3f 1be1 6b3f 1563 00bd
000002d0: e7df abbe 6901 e6bf 8d87 d7be 7440 783e
000002e0: 1132 e23f 57c3 bb3e 181c 983c 1ca8 acbe
000002f0: a08b 00c0 f6fd debe d826 8ebf 132a 1940
00000300: c321 0b3f c3d7 5bbe da59 f0be 019a 5cbe
00000310: e269 dc3e ad57 b6be 2948 c93f 8116 a4bc
00000320: 6778 bebf cb12 bebf 916a 9f3f 1b4b 7d3f
00000330: ebb8 1940 d1e7 96bf adfd a43e ccfa 16be
00000340: 0f46 4d3e c75f 70bf 3b86 d4bd f3a6 79be
00000350: 2a7c 28bf 8b14 debd 325c aa3c 3530 f43e
00000360: 69a4 313d 27a9 d63e a434 483f 69bf 7e3f
00000370: 027a c93e 7a1e 9ebe 5d13 3a3f 80dc bdbf
00000380: ede6 bebf baad cc3f 90ae 76be c5ee bd3e
00000390: 9ad2 ad3f 449a 993e 0b36 65bf 6951 623e
000003a0: d387 2740 e594 613f 66b3 dcbe 7b0b 4b3e
000003b0: a9ec 1abf 2692 663e c10c 25bf 14bd 9c3d
000003c0: ecea 9abd 86d1 43bf 846e 133e 433a 04bf
000003d0: 26d3 15bf 4663 c8bf 7bad 16be bbe8 633e
000003e0: 7409 5abf 6739 923f bc82 343f 83d0 013f
000003f0: c9c2 4f3e 56b6 aa3e 316b 1dbf 1cae c5bf
1.0749284 1.0747409 0.21785851 -0.92577434 -0.4027454 -0.58080125 0.011963305 -0.89162797
2.3107252 -0.3305811 0.50883794 -0.18134415 1.2474313 0.5544632 0.6010717 2.1220808
-1.3792264 2.1664429 -0.87835145 -0.34413993 0.36708385 -1.068991 -1.5772521 0.37187153
1.282492 -0.9126657 -0.67122835 0.36492687 0.56312877 0.481847 -0.17684405 1.285337
-1.6797769 -0.2520873 0.49498957 -1.2736814 0.41418162 0.54230857 0.79302585 1.443911
0.7886979 0.06376975 -2.9374833 2.5047603 -2.218193 0.5562575 -0.37603906 -0.38855132
-0.5512757 -0.037388057 1.2992864 1.7181334 0.40220258 -1.1349124 0.8414209 -0.6765403
-1.2711157 0.102928184 -0.795632 1.0681843 -0.62816256 0.9139396 0.41235444 0.75599355
1.4975258 -0.16841967 0.09063488 -1.4308895 -1.4275073 -0.85054296 0.19543193 -2.6290648
0.6536876 0.85746986 0.8913637 -1.4190444 0.29282904 -0.86035824 0.19228758 -0.16137357
-2.5395975 -0.96255213 -1.8094035 0.040205184 1.4162977 1.7138972 0.6520935 0.20058097
0.600151 0.44832718 0.5603398 -1.3467551 -0.9796845 0.3711417 0.04229164 0.22368465
0.82031524 1.6094415 0.08998649 0.180634 0.25130323 -0.04577085 -1.1683439 0.65604377
-0.0033587115 0.1233214 2.8423247 0.7244393 1.3062454 0.79171926 1.1610445 -0.6735647
1.2554117 -1.8211191 0.50311804 0.02955888 1.4928184 -1.1148713 0.2546897 0.6061896
-0.3085961 -1.45619 0.7667114 -0.024761133 1.5068251 1.0614607 -0.35101473 1.4560425
-0.09096083 -0.81528765 -0.36662132 -0.6031498 0.10194352 0.6416802 0.19342847 -0.18218534
-0.30734292 -1.0015283 -1.8381354 -1.8339278 2.7490177 0.7368909 -0.52411306 0.13695534
0.59377235 -0.09717692 -0.48048908 0.16063984 0.9839322 -0.3576296 -0.42909655 0.29778755
0.8907125 1.0944797 -1.3328215 -0.15039685 -1.2130297 0.6063462 -0.51139796 1.3267583
1.4582239 0.5592279 0.162185 -1.705079 0.1413726 1.3155906 1.4857018 -1.0274117
-0.7215855 0.86100185 -1.145869 0.9070015 0.74603045 1.5901457 0.27278608 -0.35478014
-0.582368 0.6165718 0.9214036 -0.031344492 -0.3356926 -1.796918 -0.42095605 0.24243337
1.7671529 0.3667247 0.018568084 -0.33722007 -2.008522 -0.43553132 -1.1105604 2.393193
0.5434839 -0.21469025 -0.4694355 -0.21543123 0.43049532 -0.35613766 1.5725147 -0.020030262
-1.4880494 -1.4849485 1.2454396 0.98942727 2.4019115 -1.1789495 0.3222479 -0.14744109
0.20046256 -0.93896145 -0.10377165 -0.24380092 -0.6581446 -0.10843762 0.020795915 0.4769303
0.043369684 0.41925928 0.78205323 0.9951082 0.39350897 -0.30882627 0.72685796 -1.4832916
-1.4914223 1.5990517 -0.24090028 0.3709623 1.3579895 0.30000508 -0.8953559 0.22101368
2.617665 0.8811782 -0.4310562 0.19828598 -0.60517365 0.22516689 -0.64472586 0.07653251
-0.07564339 -0.7649158 0.14397627 -0.516514 -0.5852531 -1.5655296 -0.14714615 0.22256748
-0.85170674 1.1423768 0.70511985 0.5070879 0.20289148 0.33342236 -0.61491686 -1.5443759

embedder.res_block.0.weight f4 [32]
00000000: 466e 7e3f e4eb 803f b1ca 6f3f 2bc8 823f
00000010: 22c6 6e3f 6887 8c3f b8ac 903f f4cb 8a3f
00000020: 6d43 813f 864c a33f fbd7 863f a92c 843f
00000030: 2624 8d3f 61fa 833f 3f16 773f ff06 693f
00000040: 543a 723f 6330 863f 077f 853f 8368 783f
00000050: 140d 903f a7cd 873f 994b 863f c89f 843f
00000060: 9276 933f 2b11 a43f 4d09 903f 83b8 9e3f
00000070: d7ea 773f e042 8e3f 3022 9f3f 54a6 7c3f
0.99387014 1.0071988 0.9366866 1.0217336 0.93271077 1.0978823 1.130271 1.0843492
1.0098702 1.2757728 1.0534662 1.0326129 1.1026657 1.0310785 0.9651832 0.910263
0.9462025 1.0483516 1.0429391 0.9703447 1.1253991 1.0609635 1.049182 1.0361261
1.152056 1.2817739 1.1252838 1.2400059 0.9684271 1.1114159 1.2432308 0.98691297

embedder.res_block.0.bias f4 [32]
00000000: 5f0b 8bbd eaa4 ad3c 3c75 d93d 8dd3 4a3d
00000010: 10cb 7f3d 241c 82bd 8870 293d 9305 9eba
00000020: a04a db3c e57c 8d3c 122e eb3b c842 573d
00000030: a710 f83b 755f 12bc 1d4f c9bd d690 ffbd
00000040: 268e c23c c566 a5bc d217 82bc 8382 773d
00000050: 05f5 8d3b a8db 30bc 8244 023d 2a4b 41bc
00000060: 68f3 91bc 923c 373c ca74 013d fbd1 833d
00000070: 5950 d93c 410e 573d 0fd7 763b 7dee 88bd
-0.06789278 0.021196801 0.10618064 0.049518157 0.062449515 -0.06353024 0.041367084 -0.0012056105
0.026768982 0.017271468 0.007177123 0.052553922 0.0075703445 -0.008933892 -0.09829543 -0.12478797
0.023749422 -0.020190606 -0.015880499 0.0604272 0.004332187 -0.010794558 0.031803615 -0.011797706
-0.01781626 0.011183875 0.03160552 0.06436535 0.02652757 0.052503828 0.0037664806 -0.06686113

embedder.res_block.1.weight f4 [32, 32]
00000000: c493 81bd d01d 01be 7623 a03b 9967 4d3d
00000010: 017d a23c 36e9 353d c80f 8abd 9945 723d
00000020: 0ed0 203e 7874 d9bd e7f5 31bd ca1b 06be
00000030: 22c3 56be ddfd b23d ddbe 74bd 2ecc 6e3e
00000040: 5fd6 b63d ac39 22bd b7ab 53be dac3 063d
00000050: 8cb6 723e 7a08 463e 5a74 1f3e 97f0 073c
00000060: 3627 a1be eaf4 64be 3628 babd ac01 14bb
00000070: a04a bcbd 3348 6fbd d71c b43e 252d a23d
00000080: c6ad ebbd cc3d 133d 18d6 40be 1d74 5c3d
00000090: 6a06 bd3d 74db 58be 9c64 193e 58c2 45be
000000a0: 37c2 90be 0bdb 20bc ec70 0b3e 33f8 8a3c
000000b0: 7820 433e e0f6 37be 14a2 963c 03e9 e3bd
000000c0: 9016 1a3d a39e 98bd 332b 70bd 83a7 29be
000000d0: ec58 2cbe ca2b bbbd a76d 00be fb30 86bc
000000e0: fae8 1b3d 2977 613e bd82 ac3d 6071 a63e
000000f0: 2ec5 a43d 3b02 663d 1ae9 20bd 3b72 06bd
00000100: 3b8a 473d bac7 2e3e 94a4 1f3e 6073 29be
00000110: 136d 9bbd 94cc 1fbd 9f3e 9cbd deb6 823d
00000120: 773a 90bc 7b02 273d 8321 3f3d da0d be3b
00000130: c7d3 2e3e 7331 183d 59ac c7bd 1de3 c7bd
00000140: a756 fe3c 8300 1fbe 7ce9 1f3d 6bc2 1c3e
00000150: dd3e 87bd 18b5 893d 17a3 ac3d ed04 283e
00000160: b0a3 06be b343 d13d aa42 2dbe c282 85bc
00000170: b6ca 173e b651 03be bbd1 8ebd 6e86 c9bd
00000180: fd99 1bbd da30 863d 139d 373e 98a3 c93d
00000190: 1d9e 1fbd e2b6 1cbe 4355 e43d a042 58be
000001a0: 96ae 6cbd bb12 de3b 2a0a e8bb d296 4e3e
000001b0: 04ca 9c3d 3997 0cbe ebfc 9ebc db64 a5bd
000001c0: e11f 053e 83ff cabd 0d1d 24ba a644 4b3e
000001d0: c182 d93c 0ba3 d9bd 9e0e b0bd a64f cd3d
000001e0: 80dd 2fbe 61ee 04be 43a2 493c fdb8 803a
000001f0: 48f9 f23d 3921 f13d 019c 71bc 67ef cabc
00000200: 2dc7 f7bd 71c9 b9bc 09b6 09bd 532f 24be
00000210: 441d 5cbe 024b cfbd 2bae 1e3d 83f6 19be
00000220: 2143 e5bd fe71 53bd 71ea 133e 783a 943d
00000230: 75ee 0cbe 5b57 af3d d635 d23d 8a8f 9bbd
00000240: eeff 21be 90d4 733c 024c de3c 66dc 97bc
00000250: d0ab 383e 9466 14be 5571 ea3c b948 193e
00000260: 218a 41bd 4cd2 2f3d 38c5 9d3d 83aa 18be
00000270: bfa3 ad3b c260 803d a61c 41be c363 b73d
00000280: 0339 803c 8e48 6abc 16cd e6bc 3e1f 3abe
00000290: f81d 69bd ba38 d9bd 017c 063e 5fd2 6d3e
000002a0: aeef 1b3e cbfd ba3c 9e5f 2dbd 172a 1c3d
000002b0: 362a 84be d6e4 bbbd cb5e 19bd 969e 31be
000002c0: 9cf3 94bc 7601 2fbe 1ca3 c83c f43a 0e3e
000002d0: b7cd 483e 8f8f c5bd 5d37 553e 17b1 1ebd
000002e0: f3d6 59bb aea7 c1bd 21cb 503e 3ef2 123e
000002f0: 58d9 533e a7a7 8e3e cebe 84be 6cd3 353c
00000300: 230f 213e 1201 e4bc 74ac 193e 1de5 363d
00000310: f2af 18be 8db1 1abf dd05 07bd df01 53bd
00000320: 2b6b 0e3e f443 8a3c f5ef 403e 333b 3bbe
00000330: 838d 07bc 1496 b6bd 7dcf de3d b6d5 2b3c
00000340: d7f4 5abe f6f5 ccbc 723e cebd 87e8 1f3d
00000350: 0771 3ebe 20e9 98bc 6a6b 8dbd 987e 00be
00000360: 3c8d 3d3e 802b 343e e7af febd 6c96 633e
00000370: 77d6 c23d 08c0 64bb bb33 d1be 6060 193e
00000380: b1de 9b3d e4d5 23be 6488 9bbd 1e68 f23d
00000390: a166 013c d003 68bd d91a 3d3e 70ff af3d
000003a0: c291 96bc 4775 7abe 091d c03d 0156 fa3d
000003b0: 8ca7 cc3d f178 3cbe c691 1c3e b541 01be
000003c0: 642d f5bd 2928 92bd 8bfd a0bd 02c7 b03d
000003d0: b29c aa3d 3a91 b93a b454 a03d 4cee 20be
000003e0: 497b 39bb 46dc 163e 0371 233e 135a 613e
000003f0: 2203 633e 19d0 f2bd 06d3 d9bd 00a4 85be
-0.06327012 -0.12609029 0.00488704 0.050147627 0.019834997 0.04441186 -0.06741291 0.059148405
0.15704367 -0.10617918 -0.0434474 -0.13096538 -0.20972875 0.08739827 -0.059752334 0.23320076
0.08927607 -0.03960578 -0.20670973 0.032901622 0.23702449 0.19339171 0.15571728 0.008297107
-0.31475228 -0.22359052 -0.09089701 -0.0022584004 -0.09193921 -0.058418464 0.35178253 0.07918767
-0.11507754 0.035947606 -0.1883167 0.05382167 0.09229739 -0.21177465 0.14979786 -0.19312418
-0.28273174 -0.009817849 0.13617295 0.016964054 0.19055355 -0.17965269 0.018387832 -0.11128428
0.037619174 -0.074521326 -0.058634948 -0.16567807 -0.16830796 -0.091392115 -0.12541829 -0.016380778
0.03806398 0.22018112 0.08423374 0.32508373 0.080454215 0.05615447 -0.039284803 -0.032823782
0.04871581 0.17068377 0.15590125 -0.16547918 -0.07589164 -0.03901346 -0.076291315 0.063825354
-0.017606003 0.04077385 0.04666282 0.005799991 0.17072974 0.037156533 -0.097496696 -0.09760115
0.031047178 -0.15527539 0.039041027 0.1530854 -0.06603787 0.06723994 0.084295444 0.16408129
-0.1314838 0.10217991 -0.16919962 -0.016297702 0.14823422 -0.12824139 -0.06973597 -0.098400936
-0.03798865 0.065522864 0.17931013 0.09845656 -0.038969148 -0.1530414 0.11149075 -0.21119165
-0.057783686 0.006777135 -0.00708129 0.20174721 0.07655719 -0.13729562 -0.01940771 -0.08075877
0.13000442 -0.09912016 -0.00062604324 0.19850406 0.026551606 -0.10626801 -0.08596538 0.10024957
-0.1717434 -0.1298156 0.012306753 0.0009820756 0.11863953 0.11773915 -0.014746667 -0.024772359
-0.12098537 -0.022679063 -0.033620868 -0.16033678 -0.21495539 -0.101217285 0.03874032 -0.15035443
-0.111944444 -0.051622383 0.14444901 0.072377145 -0.13762839 0.085615836 0.10264175 -0.07595737
-0.15820286 0.014882222 0.027135853 -0.018537711 0.18034291 -0.14492255 0.028618494 0.14969148
-0.04725087 0.042925164 0.07703632 -0.14908795 0.005299061 0.06268455 -0.18858585 0.08954575
0.015652185 -0.014299525 -0.028173964 -0.1817598 -0.056913346 -0.10606523 0.13133241 0.23224781
0.1522815 0.022826096 -0.042327516 0.038126078 -0.25813454 -0.09174506 -0.037443917 -0.17345652
-0.018182568 -0.17090401 0.02449184 0.13889676 0.19609724 -0.09646522 0.208219 -0.038743105
-0.0033239692 -0.094558105 0.20389988 0.1435022 0.20688379 0.27862284 -0.25926822 0.01109777
0.1572843 -0.027832542 0.15007192 0.044652093 -0.14910868 -0.6042717 -0.032964576 -0.051515456
0.13908069 0.016878106 0.18841536 -0.18284301 -0.008273485 -0.08915344 0.10879419 0.010487964
-0.21382461 -0.025019627 -0.10070504 0.039040115 -0.18597804 -0.01866585 -0.06905253 -0.12548292
0.18510908 0.17594719 -0.124358945 0.2222535 0.09513562 -0.0034904499 -0.4085978 0.1497817
0.076108344 -0.15999562 -0.07594374 0.11836265 0.007898004 -0.05664426 0.18467273 0.08593643
-0.01838005 -0.244588 0.09380538 0.12223435 0.099928945 -0.1840551 0.15289983 -0.12622721
-0.11971548 -0.07136566 -0.078608595 0.08631708 0.083306685 0.0014157661 0.07828656 -0.15715903
-0.0028302243 0.14732465 0.1596108 0.22007017 0.22169164 -0.11856098 -0.10635953 -0.26101685

embedder.res_block.1.bias f4 [32]
00000000: 075d 5abd a9b4 033d da04 8f3d 0cbd 793d
00000010: a236 e6bd 2bae 693e 6d50 d23d 69ef 39bd
00000020: 929f 9abc cc3d 09be 8653 98bb a42c 7dbd
00000030: 2298 2f3e 0717 e8bd 42e4 b93b eabf a93c
00000040: f4d8 b23d 674a f83d 9559 68bd 7628 0cbe
00000050: 561b 9a3d e2e9 a4bd b7fa 9f3c bd3c dbbd
00000060: 4515 01bd f6bc 23be d183 293e fb30 3d3d
00000070: ed56 b03c 430c 013d 8e7d 143d 3725 4cbe
-0.053311374 0.032154713 0.06983347 0.060971305 -0.11240889 0.22820346 0.10269246 -0.045394335
-0.018874917 -0.1340248 -0.0046486286 -0.06181015 0.17147878 -0.11332517 0.0056729624 0.020721395
0.08732787 0.12123566 -0.056726057 -0.1368731 0.07524745 -0.08052422 0.01952873 -0.10704944
-0.031514425 -0.15990052 0.1655419 0.04618929 0.021525824 0.031505834 0.03625255 -0.19936071

embedder.res_block.3.weight f4 [32, 32]
00000000: 391a df3c 6061 96bd 7840 dc3d f85c babd
00000010: e6bf 4d3b 2958 b3bd 67a0 0abe a190 df3d
00000020: 8caa 3ebd 5fca 143d dc25 203b 5f66 57be
00000030: 3fc4 b13d 760c 6f3d 058d 57bd 6449 19be
00000040: 1ca2 2fbd 122d 96bd 6b06 c5bd f13b 503d
00000050: 7b76 733d ca43 31be 8931 fcbd 969b b93c
00000060: 5319 bd3c ee04 233e 37d9 0dbe 3b0a 903d
00000070: daff 68be f73a 03be 6485 de3d 0028 02be
00000080: d4c2 663e 98d5 94bd 1a60 f73d 246e 2a3e
00000090: 9776 6d3d b917 233e 1865 21be 9d29 59be
000000a0: 0fec f0bc df1b a9bc 795f 813e 3e57 0c3e
000000b0: a08a 153e 8a1c 18be 2341 093e 024d 6fbc
000000c0: 0df0 31be d74d 9fbc 9db2 5ebe 2457 713e
000000d0: 94c3 093e fb43 efbc 7274 103e 3a08 0cbe
000000e0: 52cb b23c 50ae 06be 8d9b 913c 8e5c 13be
000000f0: 15d4 b73d 7f19 6d3d 192c aebd 617c fdbd
00000100: 351e f6bb d16a 20be 081e 8f3c ec6e 12be
00000110: 5761 2d3e f72d 3cbc 4f8b 093e 652d a5bd
00000120: 607f aebe dada 80be 1ebf a2bd 1fef 48bd
00000130: ce86 953d 756b cbbc 8d29 0dbd 41d0 a93d
00000140: a906 59bd 59ed 383e 344a 923d 4c00 f7bc
00000150: 1b41 823d 3d30 c7bb 4481 fc3d 765a 1d3e
00000160: 3a01 3c3b cdfd 8c3d c4bf 42be 06b8 cebd
00000170: f330 73bc 7bd1 693e 4789 0abe 9906 583d
00000180: d453 0ebe 2f6e 813c 9703 2d3e 4937 1ebe
00000190: 257d 133e 0049 05be 4403 c5bb 500f 95bc
000001a0: 5db7 8fbe 2424 77bd d82d 9eba 96f2 003e
000001b0: 0fdc 39be 7485 d8bb 21f5 fabd 54a5 213d
000001c0: 9d8e b33d 2f7b a4bd 5cc7 1abe 380d 393e
000001d0: 441c 7dbd 6b97 02be d0f8 50bd 6d9b 2b3e
000001e0: 94c8 893d 7143 0abe b7de 06be 2d99 263d
000001f0: 6253 9a3e 72ec 0d3e 8a88 d23d 3333 af3e
00000200: b568 b4be 3b14 6cbd 6182 40bd 3a2c f6bd
00000210: 5a7a 963a 76a7 a13d 743b 733d e83d 913d
00000220: edb8 23bc 3fb2 88be 84af 8cbe 5011 60bd
00000230: f5e4 0ebe 9a8f 0fbe 211b 21bd 4a83 963d
00000240: df73 8fbe 6b8c 633d 7832 273e e4ef 90bd
00000250: 4992 6cbe 39dc d43d b851 cc3c d63c bebb
00000260: d5de 06be 0075 11be 7a3b 6ebe b278 7fbe
00000270: cbae 10be 07e3 4fbd 0eb3 a9bd 6fde 7abe
00000280: 1f52 493e 000f 01be 1d34 d03d 3d3a df3d
00000290: 4790 53bd 1be6 7b3d 8fcd eabd 2c1e 0fbe
000002a0: 4788 99bd a3d9 99bc b64e 813e ee2d a33d
000002b0: 17e4 80bd 77b8 1ebe de64 273e 8bfa f93c
000002c0: 56b4 273d e2a8 30bd 2f70 0b3e 3b21 47be
000002d0: 5000 17be 86be 62be efbf c5bd 1ba7 edbd
000002e0: 252f f23d 2209 923d 605f 62bd 9a59 153e
000002f0: 854e 173e a2ff ff3d 7a03 a2bc 474c 483e
00000300: f88d f0bc a060 0dbe 7b40 b53b 4356 853c
00000310: 7106 05be 03d3 ecbd f4e2 17be df93 ffbd
00000320: df47 0b3e 724f 0f3d d817 95be 03c6 4abe
00000330: 81ae 39be b700 74be b9a3 1ebe a589 3a3d
00000340: 7c9c b8bd 6c22 11be 054f b23c 18ff 14bd
00000350: 5bd4 943d fb0b 403e 1b5f 273c 18cd bdbd
00000360: 5acb 9fbd f92d 19bd 4884 d43d 46af 94be
00000370: d271 8abd 779d 2bbe a225 b83d 559e 51be
00000380: 5ecd 713d 0115 f93d 37ee adbd d84e d9bd
00000390: f7c8 643d 9469 c53d 5966 70be 22e8 633c
000003a0: ddb8 4fbd a942 993d 02d4 903d e732 a73d
000003b0: 1ccb 2c3e ae77 1cbd b0e9 51bd c316 26be
000003c0: fd21 103e e28d 1bbe b437 0bbd 3143 aabd
000003d0: 753a 8dbd a2f2 823d 942a 5fbc 75cd 0e3e
000003e0: 3dba 10bd 34f7 5c3d 97d9 223e 7ded a6bc
000003f0: 43f2 be3d b436 b1bd f4f1 6dbe f4ab 253e
0.027234184 -0.073427916 0.10754484 -0.09099764 0.0031394898 -0.087570496 -0.13537751 0.10916258
-0.046549365 0.03632581 0.0024436628 -0.21035145 0.08680009 0.058361493 -0.05262472 -0.14969403
-0.04287921 -0.07332815 -0.09620365 0.050838415 0.059439164 -0.17311016 -0.123141356 0.022657197
0.023083365 0.1591985 -0.13852392 0.07033201 -0.2275385 -0.12815462 0.10865286 -0.12710571
0.22535259 -0.07267302 0.12078877 0.16643578 0.057974424 0.15927018 -0.1576122 -0.2120728
-0.029409437 -0.020643173 0.25268152 0.13705155 0.14603662 -0.14854637 0.13403754 -0.014605762
-0.17376728 -0.019446297 -0.21747823 0.23568398 0.13453513 -0.02920722 0.1410692 -0.13675013
0.021825466 -0.13152432 0.017774368 -0.14390776 0.08975998 0.057885643 -0.08504505 -0.12377239
-0.007510925 -0.15665747 0.017470375 -0.14300126 0.16931663 -0.011485568 0.13432048 -0.08065299
-0.34081554 -0.2516697 -0.07946609 -0.04905617 0.073011026 -0.024831513 -0.034463454 0.082916744
-0.052984867 0.18059291 0.071430594 -0.030151509 0.06360074 -0.0060787485 0.12329343 0.1536654
0.0028687255 0.06884346 -0.19018465 -0.100936934 -0.014843213 0.22833817 -0.1352893 0.052740667
-0.13899165 0.01579961 0.168959 -0.15450777 0.14403208 -0.13016129 -0.006012352 -0.018195778
-0.28069583 -0.0603372 -0.0012068106 0.12592539 -0.18150352 -0.0066077057 -0.12253786 0.03946431
0.08767436 -0.08031308 -0.15115112 0.18071449 -0.061794534 -0.12753074 -0.051018536 0.16758509
0.0672771 -0.1350229 -0.13170896 0.040673424 0.3014174 0.13859728 0.10279949 0.3421875
-0.35236135 -0.05763648 -0.04699934 -0.12020154 0.0011480555 0.07893269 0.05938287 0.07091886
-0.00999282 -0.2669849 -0.27477658 -0.05470401 -0.13954528 -0.14019623 -0.039332513 0.0734926
-0.2801809 0.055553835 0.16327846 -0.070770055 -0.23102678 0.10393567 0.02494131 -0.005805592
-0.13170941 -0.14204788 -0.23264876 -0.24948385 -0.14129178 -0.05075362 -0.08286105 -0.24498914
0.19660233 -0.12603378 0.1016619 0.1089978 -0.051651265 0.061498743 -0.114649884 -0.13976353
-0.07496696 -0.018780535 0.25255364 0.07967745 -0.06293505 -0.15500055 0.16347072 0.030514976
0.040943466 -0.04312981 0.13617013 -0.1944627 -0.14746213 -0.22142991 -0.09655749 -0.116041385
0.11825398 0.07130648 -0.055266738 0.14584962 0.14776047 0.1249993 -0.019777048 0.19560347
-0.029364571 -0.13806391 0.0055313683 0.016276484 -0.12990738 -0.11563685 -0.1483267 -0.12479376
0.13601635 0.034987874 -0.29119754 -0.19802098 -0.18132974 -0.23828398 -0.15492143 0.045541424
-0.09014222 -0.14173287 0.021766195 -0.03637609 0.07267066 0.1875457 0.010215546 -0.09267634
-0.07802458 -0.03739736 0.10376793 -0.29039973 -0.06759991 -0.16759287 0.08991553 -0.20470555
0.059033744 0.12162209 -0.084927015 -0.106107414 0.055855718 0.09639278 -0.23476543 0.013910325
-0.05071341 0.074834175 0.07071687 0.08164006 0.16874355 -0.038200073 -0.051248252 -0.1621962
0.14075466 -0.15190843 -0.03398867 -0.08313597 -0.068959154 0.06393935 -0.013620991 0.13945563
-0.03533386 0.05394669 0.15903316 -0.020376915 0.093235515 -0.08653012 -0.23236829 0.16178876

embedder.res_block.3.bias f4 [32]
00000000: 022b 253d 3492 093d bdde 7fbd 9b9d 4bbd
00000010: aa6f 5d3b 2ffe adbd d9b5 20be 7b1b a73d
00000020: 7087 363e 039e 87bd 6a52 0cbe fabc 0b3e
00000030: e994 443d 2f1b 233c 1f82 da3d f05a 23be
00000040: 1a79 81bc 36d8 94bc 899e 9d3d b6d2 12be
00000050: 7e0b 21be 29ea 15be b0cc e9bd 4afd f2bd
00000060: 962e 17be 7099 37be 690a 61bd 2548 373e
00000070: bfc8 053e d3ed ae3b 8fbc a53d 3466 613d
0.04032422 0.033586696 -0.06246828 -0.04971085 0.003378848 -0.08495747 -0.1569437 0.08159538
0.17825103 -0.06621935 -0.13703313 0.13646308 0.047993574 0.009955212 0.1066935 -0.15952659
-0.015804816 -0.018169504 0.07696254 -0.14338192 -0.1572704 -0.14640106 -0.11415994 -0.11864717
-0.14763865 -0.17929626 -0.05494157 0.17898615 0.1306486 0.0053384094 0.08092605 0.05502911

cnn_blocks.0.proj_in.weight f4 [16, 32]
00000000: 50b5 aa3d 481f 683c 9e44 033e cae3 ce3d
00000010: c24a fa3d 5e66 273e e1b3 e7bd d158 21ba
00000020: 8486 7ebd a888 3abd 1b9e fcbd b616 3d3e
00000030: 81a9 1ebd e8ce 2d3e 65cf e3bd 137c 01be
00000040: f6d1 943d 77a9 b43d c1c6 083d f514 3b3e
00000050: e2af 9d3d 8068 823c 6515 04be 0c5a 093e
00000060: a6d4 1b3e 0518 483c 5afa a6bd 51bd ab3d
00000070: 1d7a 863c 56e7 313d a801 e6bd 2e91 273e
00000080: b6ac dabd f9a0 f6bc bc32 c33c fd33 3c3e
00000090: 832f dfbd 6672 cbbd 4c1f 81ba 14fc c9bc
000000a0: 9867 e73d 792a 8fbc fbaf 00bd 4d3a 26be
000000b0: a96e acbd 35dd 553e c42c 7bb7 8ef7 033e
000000c0: 3786 6d3c f75d 4f3d 83a9 52bd 87bf 27be
000000d0: f6f9 23bd 19b5 82bd 5266 05be 827e bd3c
000000e0: 7bfa 00be 45b9 853e ae71 43bc b4db f0bb
000000f0: 0824 20bc 6078 e23d 9169 f73c bddc 0bbd
00000100: a792 6ebc 8479 cc3d da55 94bd cb1a fd3d
00000110: 326b 603d 7a24 ba3b 1ea5 533d 1729 2bbd
00000120: 2fca 873d daa4 5abe f5a2 fa3b 07cf 9cbd
00000130: dce4 0e3c 4c0a 743e ea7b c03d 5e9b fe3d
00000140: b6e8 9a3d 9548 093e c483 263e 2034 8dbb
00000150: 8ae3 1b3d 67d7 23be 06bf fbbd 7899 b5bd
00000160: dfea cb3d f997 e93d be41 52be e046 87bc
00000170: ffa2 903c 266a 19bd 945c c9bd 5dd8 0bbc
00000180: b513 aa3c 48ee b63d 6ba9 1dbd 5a92 543e
00000190: 0318 793d 5f85 dabb 464b 803d a6f2 7cbe
000001a0: 0f48 42be 0d02 37bc efb1 c63d b558 233c
000001b0: 8c07 003e 2fc9 163e ac9f b43d f984 9abd
000001c0: 2d01 f63c be25 36be 7277 78bc 3bfb 1f3e
000001d0: 121d 113e 8639 b5bd ed27 513e e802 06be
000001e0: c3bf 0cbd 89fe a13d f129 85bd 6d56 2e3d
000001f0: 2fc2 d63d f248 c13c 58d9 323d b041 94bc
00000200: 1a85 793d ec4f ba3d 7b8a 353e 9343 31be
00000210: 38fa adbc 3942 dd3c b2df 3c3d 956e 90bd
00000220: 1305 403d b66e 89bc 0e5b d5bd 792c a1bb
00000230: a626 1cbd 41dc c8bc 8467 d1bd 6623 a33d
00000240: 7cee 13be d95e a33c c280 00bd 4584 dbbd
00000250: bf4a fc3b 1ed8 883d cae3 ac3d 4606 1fbe
00000260: b5ee 1f3e 1f7e f0bd f143 dcbd 9b56 8bbd
00000270: a4fa 183e f016 83bd 0ee0 56bd cf86 503d
00000280: 9ac2 233e 96e3 3b3d e20b 4abd e770 573d
00000290: 467c 1d3e 8e83 393e e9af 03be 4583 17be
000002a0: e455 a2be eede 3d3e f8ee 9ebd 3890 683e
000002b0: a468 f93d 6364 343e 044e 413d 4e66 ad3d
000002c0: de11 89bd 44df 113e 1dcc fbbd e3a9 0ebd
000002d0: 1341 e5bd ec6e 34be 984d 79bc 39b1 603e
000002e0: 12ec 323d b41b 273e 32d6 f83d 25d8 0cbe
000002f0: 4bca 32be 76f8 13bd cb71 e03c 3065 7f3c
00000300: 646c e93d 3013 d1bd e270 72bd 5597 03be
00000310: 2192 1dbe b17a 033e 4412 163e 3b57 0d3d
00000320: 222b 5bbd 45e2 d63d bdaf 713d b228 4ebd
00000330: fb71 09be feea 08be ac8d f9bd 6833 a8bd
00000340: e847 0a3e 5c23 2cbe 952e 20be abba 7c3b
00000350: 98fb a9bc ec33 41bd ac49 d43d cbc3 1a3d
00000360: 390a b43d 2461 1bbe ae44 a83d aac2 75be
00000370: 3bdf 3bbd 239c 783e fb73 453e 7296 46bd
00000380: c29a 993c 51a1 4fbd f808 17be c225 febd
00000390: 9a38 203d e082 a4bd 65c5 e33d f1ef 173e
000003a0: 8400 823d 4f24 0d3e 5c3b 0abd 3298 293e
000003b0: 3267 cd3d 33ea 7ebc cacc ddbd fabb f4bd
000003c0: c8a2 da3d 2ee8 83be d4c6 0c3d 1524 ae3d
000003d0: d133 2e3e 4974 47bd 00ff 293e dd5b b23e
000003e0: 3729 15bd 2193 0c3d 7b72 0cbd ffc8 dabd
000003f0: 2995 4abe 5980 343e 0510 38bd 19fb c93d
0.08335364 0.014167614 0.12819144 0.10102041 0.1222129 0.16347644 -0.11313606 -0.0006154897
-0.062140003 -0.04554048 -0.12334844 0.18465695 -0.03873587 0.1697346 -0.11123542 -0.12644987
0.07266609 0.08821385 0.03339267 0.18269713 0.076995626 0.01591897 -0.12898786 0.13413256
0.15217838 0.012212758 -0.081532195 0.083857186 0.01641565 0.04343351 -0.11230785 0.16363975
-0.10677473 -0.030106055 0.023827903 0.18379207 -0.10897734 -0.09933929 -0.0009851246 -0.024656333
0.11299056 -0.017476307 -0.031417828 -0.16233177 -0.08419544 0.20885165 -1.4971189e-05 0.12887403
0.014497331 0.05062672 -0.05143119 -0.16381656 -0.040033303 -0.06382198 -0.13027313 0.023131613
-0.1259555 0.26117912 -0.011928959 -0.0073504094 -0.0097742155 0.11058116 0.030201705 -0.03414606
-0.014561332 0.09984115 -0.072429374 0.12358626 0.05478973 0.005680618 0.05167114 -0.041787233
0.0663036 -0.21351948 0.0076488205 -0.07656675 0.0087215565 0.23832053 0.09398635 0.12431978
0.07563917 0.13406594 0.16261202 -0.0043091923 0.038058795 -0.16000138 -0.12292294 -0.088671625
0.099569075 0.114059396 -0.20532891 -0.016513288 0.017655848 -0.037454747 -0.09832111 -0.008535472
0.02076135 0.08932167 -0.038491648 0.20758954 0.060813915 -0.006668731 0.06264357 -0.24701938
-0.189728 -0.011169923 0.09701907 0.00996988 0.12502879 0.14725183 0.088195175 -0.07544894
0.030029858 -0.17787835 -0.015165197 0.1562318 0.14171246 -0.08848862 0.20425387 -0.13087046
-0.034362566 0.07909877 -0.0650214 0.04256289 0.10486256 0.023594353 0.043664306 -0.018097728
0.06091795 0.09097275 0.17728607 -0.17310934 -0.021237478 0.027009116 0.04611177 -0.07052342
0.04687984 -0.016776424 -0.10417758 -0.0049186316 -0.038122796 -0.024519088 -0.10224822 0.07965736
-0.14446443 0.019942688 -0.031372793 -0.10718588 0.00769934 0.06681846 0.08441885 -0.15529737
0.15618403 -0.11742806 -0.10755146 -0.06803628 0.14939362 -0.06400859 -0.05245977 0.050909813
0.15992203 0.04587134 -0.04932774 0.052597906 0.15379438 0.1811659 -0.12860073 -0.14796169
-0.31706154 0.18542072 -0.077604234 0.22711265 0.12178162 0.1761642 0.047193542 0.08466779
-0.06692861 0.14245325 -0.12294791 -0.034829985 -0.111940525 -0.17620438 -0.015216254 0.21942605
0.043682165 0.16319162 0.121502295 -0.13754328 -0.17459981 -0.036125623 0.02739801 0.01558809
0.11397627 -0.10208738 -0.059189685 -0.12850697 -0.15387775 0.12839772 0.14655405 0.034507018
-0.05350793 0.10492376 0.059005488 -0.05033178 -0.13422386 -0.13370892 -0.12185225 -0.0821293
0.13503993 -0.16810364 -0.1564277 0.0038563411 -0.020749852 -0.047168657 0.10365614 0.03778438
0.08791012 -0.15173775 0.082162246 -0.2400004 -0.045867186 0.24278311 0.19282524 -0.04848332
0.018750552 -0.050690953 -0.14749515 -0.124095455 0.03911648 -0.08032775 0.111216344 0.14837624
0.063477546 0.13783382 -0.033748016 0.16561964 0.100294486 -0.015558767 -0.10830076 -0.11949916
0.10675579 -0.25763077 0.034369305 0.08502976 0.17011954 -0.048694883 0.16601181 0.3483571
-0.03641626 0.03432 -0.034288865 -0.10682868 -0.19783463 0.17627086 -0.044937152 0.09862346

cnn_blocks.0.proj_in.bias f4 [16]
00000000: f9b5 44bd 5abf 973d 4cc4 b23d 7d8c ffbd
00000010: de21 4fbe 0231 6bbd 939e 12bb 6704 91bd
00000020: f6cc 3ebe 7804 08bd 4632 2a3e 8908 ce3d
00000030: 2d76 dabd a665 59be d049 f33d 933d 123d
-0.048025105 0.07409544 0.08728847 -0.12477968 -0.20227763 -0.057419784 -0.002237235 -0.07080918
-0.18632874 -0.033207387 0.1662074 0.10060222 -0.106670715 -0.21230182 0.11879313 0.035703253

cnn_blocks.0.convs.0.weight f4 [16, 16, 3, 3]
00000000: 1547 0dbd f6f0 473d 35ee 3dbd 5935 1ebe
00000010: 8afd 17bd 8787 a6bd 582c fb3b 90f0 53bd
00000020: be24 653d 0f9f 23bd 5d90 15bc 25a8 afbc
00000030: e22d 9abd 5182 1c3d f1ab aebd 14b0 cdbd
00000040: d74e ca3d 0f62 f7bd dcd2 f03d 65a3 8d3d
00000050: 4110 d5bc 1879 3d3c d000 89bc 59a2 6dbc
00000060: 55a1 44bc 6875 8d3c d549 903d 8bfa 1b3e
00000070: c3b1 a03d 73dc adbc 76c0 d63c 44da 0bbe
00000080: 05fa 00bb fc23 983c 30b9 853d 85ab 4dba
00000090: 7384 77bb 85f8 863b a2d3 463d 0403 b4bd
000000a0: c6e2 913d 1c05 4dbd d90f cc3c dcf8 94bc
000000b0: 1ada c53c 4165 ff3b a5b1 a8bd a490 c5bd
000000c0: 1e75 e6bb d7a8 ff3c 24fd d9bc 6806 ad3c
000000d0: 7594 923c 51dd e23d b3b6 ca3c a035 53bc
000000e0: 7022 e6bd bf67 833d 1b4b 103e 4a38 9b3d
000000f0: b18b 9d3d 1525 53bd b68c 22be 9849 863d
00000100: 2072 15bd 9af1 4bbd cdc4 423d 925b c4bc
00000110: 82ac 5f3d 1b7d 1ebd 66be 693c d804 173c
00000120: 9f6d 3bbd 5a8f 893d aefa ca3c e675 f5bc
00000130: c662 acbc e79a 20bd 1be7 da3d 0ed5 fbbb
00000140: cf7a 41bd daf7 d7bc da09 d63d 8288 18bc
00000150: 52ea 1ebe 1e4c 85bd f9fa 5bbd 2138 4d3d
00000160: 4c94 213e 9009 a93d 1aa3 e13d 2a6b a1bc
00000170: 8ec6 5c3d 11a2 403d 8a90 d23d dbbe cc3d
00000180: 084f c1bc 9171 49bd d36f db3d 8724 113e
00000190: 4789 ff3c dac4 833d c9b6 dc3c b3db 403d
000001a0: fb81 80bb a9ed 7cbc ba54 d73b b955 413c
000001b0: 90aa 743d 25e3 eb3d d7b0 fd3c 3e8d 8bbd
000001c0: 00aa adbd f7c4 87bd 7c3b 1cbe bbc2 fc3c
000001d0: ead5 2cbc 712c 8bbd de85 cf3d ea0d d5bd
000001e0: 7c12 fa3c 414e c8bd f4a6 06bd 5e12 683d
000001f0: 17e9 6fbc 93b4 e13d 60f1 1b3d 1143 8e3c
00000200: dcb3 413d 8d00 e2bc a708 e53b f2b1 093e
00000210: d9ae 07bd cdb6 a0bb d2e4 a4bd 121a 6fbd
00000220: c0d1 01be 9cfd 94bd 40e9 3c3d 9e3b 6a3d
00000230: 0993 b33d f801 1c3d 7a52 22be f0a9 97bd
00000240: 086a c63d 2027 c4bc 9abd d03d 6aff 7f3c
00000250: 10ba 3bbe 48d0 c5bd 4cf3 30be bb46 d53d
00000260: a645 99bd 8632 4fbd b1d5 f1bd 04f3 46be
00000270: 55ae 13bc a819 10be 6f2e 9abd db6b 673d
00000280: 352b 4abe 30ea 7fbc ca5a d03d 9f89 c53d
00000290: 6691 68bc 0484 533d 6361 a5bd dfa7 84bc
000002a0: b099 96bd 9f2b c5bd 7a7d 693c e425 bcbb
000002b0: 4336 df3c 109c 6bbd ecfd 65bc 5c50 ecbd
000002c0: fc8b 26bd 7c88 27bd 52b2 c8bc aa77 e53d
000002d0: 81d2 0bbd 25ba d63c 7414 bebc 1bed 06bd
000002e0: f051 80bb dfdd 033d 9227 463d 3642 873d
000002f0: 1115 083e b0c6 143e 2c1e 8d3b 96c0 cabc
00000300: 39b6 95bd 5491 c4bc b544 513d d247 4ebd
00000310: 31d0 a93d 12ae 563d b57e 0ebd f532 9f3b
00000320: 3cd6 8e3c 9c30 7bbd cae3 8b3c 553d e9bc
00000330: 8bb3 0f3e 058f 5e3d acf8 66bd ab9d 17be
00000340: 5002 bdbd 688f 96bd 008d 65bd 9736 f33d
00000350: 569d b83c 0a63 8f3d 0ced 15bd d0b1 bc3d
00000360: b0d4 9dbc 7b5a fabc 902f fc3d b143 95bc
00000370: 7ec2 79bd 2fcd 933c 88a8 a83d 5885 a03d
00000380: 5ae3 643d 3c0e a7bc 0b5c 17bd 9291 adbd
00000390: c2c1 a23d be0d 1cbd 0f6e 043d 7236 a63d
000003a0: cefe 783d 2018 5f3d 27b2 ec3d 4016 243d
000003b0: 2c9c 2a3d 9957 0fbd bad7 cb3c 9a5c b8bd
000003c0: 4cec 40bd 6551 3e3d 84c1 5ebd e02c a83c
000003d0: 5dae 013d d6bf 123d 2316 a43c ca21 88bd
000003e0: 4265 14bd 304d aabd 3078 cdbd dd5d efbd
000003f0: 8b19 d63d 8871 0c3d 7bbf 633d 1485 17bd
-0.034491617 0.048813783 -0.04636975 -0.15450038 -0.037107028 -0.081313185 0.0076651983 -0.05174309
0.055943243 -0.039946612 -0.009128657 -0.021442482 -0.07528283 0.038210217 -0.08528889 -0.1004335
0.09878319 -0.1207925 0.11758968 0.06915931 -0.026008727 0.0115645155 -0.01672402 -0.014504039
-0.012001355 0.017267898 0.07045332 0.15232293 0.07846405 -0.021223282 0.02621482 -0.1365748
-0.0019680273 0.018571846 0.06529462 -0.0007845688 -0.0037768155 0.0041189813 0.048541673 -0.08789638
0.07123332 -0.0500537 0.0249099 -0.018185072 0.02415185 0.007794053 -0.08237008 -0.09646729
-0.0070330044 0.031208439 -0.026609965 0.021121219 0.017893055 0.11077369 0.02474532 -0.012891203
-0.11237037 0.06416272 0.1409115 0.07579096 0.0769266 -0.051549036 -0.1587399 0.06557006
-0.03648579 -0.049790956 0.047550965 -0.023969445 0.054607876 -0.03869353 0.014266586 0.009217463
-0.04575884 0.06716795 0.024777737 -0.029963445 -0.021043193 -0.039210226 0.10688611 -0.00768531
-0.04723626 -0.026363302 0.10451098 -0.00930989 -0.15519074 -0.06508659 -0.053706143 0.050102357
0.15779227 0.08253777 0.11017437 -0.01970442 0.053900294 0.04702956 0.10281475 0.0999734
-0.023597255 -0.04918057 0.10714688 0.1417409 0.031193389 0.06434031 0.026942628 0.04708452
-0.003921745 -0.015437522 0.0065713795 0.011800223 0.059732974 0.11517934 0.030968113 -0.06814049
-0.084796906 -0.06629365 -0.15257066 0.030854573 -0.010549048 -0.06795586 0.10132955 -0.104030445
0.030526392 -0.09780551 -0.032874063 0.05665814 -0.014642975 0.1102077 0.03807199 0.017365964
0.047290668 -0.027588153 0.006989557 0.13446787 -0.033125732 -0.004904604 -0.080514565 -0.058374472
-0.1267767 -0.07274935 0.046120882 0.05718576 0.08768279 0.038087815 -0.15851775 -0.0740546
0.096881926 -0.023944438 0.10192414 0.01562486 -0.18332696 -0.09658867 -0.1728031 0.104138814
-0.074839875 -0.050585292 -0.118083365 -0.1942864 -0.009013732 -0.14072287 -0.07528388 0.056499343
-0.19743045 -0.0156197995 0.10173567 0.0964539 -0.014194822 0.05163957 -0.08075216 -0.016193328
-0.07353532 -0.09627461 0.014251107 -0.0057418216 0.027247554 -0.05752188 -0.0140375905 -0.11538765
-0.040660843 -0.040901646 -0.024499092 0.11204465 -0.0341363 0.026211808 -0.023203112 -0.032940965
-0.0039160177 0.032194015 0.04837758 0.066044256 0.13289286 0.14528918 0.0043065753 -0.024750035
-0.07310147 -0.02399508 0.051090915 -0.050361462 0.082916625 0.0524121 -0.034788806 0.0048583695
0.01743614 -0.061325654 0.017076392 -0.028471628 0.14033334 0.054335613 -0.056389496 -0.1480624
-0.09228957 -0.07351571 -0.05604267 0.118756466 0.022535961 0.07001312 -0.03660302 0.092136025
-0.019266456 -0.030560723 0.12313759 -0.018220754 -0.060976498 0.018042175 0.0823527 0.07837933
0.05588088 -0.02039253 -0.036953013 -0.08475031 0.079471126 -0.038099043 0.032331523 0.08115853
0.060789876 0.054466367 0.11557417 0.04006028 0.041652843 -0.03499565 0.02488314 -0.09002037
-0.04710035 0.046464343 -0.05438377 0.02052921 0.031660426 0.03582748 0.020030087 -0.0664707
-0.03622938 -0.083155036 -0.100326896 -0.11687825 0.10454091 0.03428796 0.055602532 -0.036992148

cnn_blocks.0.convs.0.bias f4 [16]
00000000: 939e 2f3c 2327 acbd 536a 493d 77f6 cebd
00000010: 9ebc 153d 61da a73d 1350 883d a60c acbd
00000020: f3ce 6c3d c5d5 833d df6f 64bd a397 2d3a
00000030: 0c36 983c c3fd c1bd 2d0f 9d3c c94d 673d
0.010718959 -0.08405902 0.049173664 -0.10105603 0.036556832 0.08195949 0.06655898 -0.0840085
0.05781455 0.06437258 -0.05577075 0.0006622022 0.018580459 -0.09472229 0.019172275 0.056470666

cnn_blocks.0.convs.1.weight f4 [16, 16, 3, 3]
00000000: 1c35 d13d 1112 553c 98f7 17bd 5b0d 963d
00000010: 7e3d a4bd dd85 6abd 526b 02be 20b4 4a3c
00000020: ea54 96bd faba ddbc a88b bdbc f1a9 523c
00000030: 39cf 423d 9b15 1e3c 8aae 0ebd 9a1e 72bd
00000040: c283 c53b 70f0 1d3d ae50 613c 3959 eabb
00000050: 9c55 073d 59b3 2fbe 5747 063b 561d a43c
00000060: 30cf 05be 4130 91bc 6a49 0cbe d85d cf3c
00000070: f719 3cbd d51e c5bc b202 78bd 865b 0abe
00000080: cb0b a5bd 4766 153e f928 79be a9f0 0ebd
00000090: e97a 1a3d 81bd 1abd 5c05 02bd 4957 44bd
000000a0: 7131 78bd 3233 003e a081 e93d e00c 12bd
000000b0: aa0c de3d fc15 ca3d 3936 d63c c01b 8c3c
000000c0: c7d6 003e d4e1 08bd 8fb5 33bc e02f 213d
000000d0: 220a 06be 57fa aebd f0a4 9abd a916 4c3d
000000e0: e0eb a23d d9a1 623d 8304 70bd 5f97 92bd
000000f0: b413 5c3c 6fc6 a0bc 2ff1 493e 30ba 343d
00000100: 4a57 ce3c 346f 073c 2c9f d5bd d7af f6bb
00000110: 12b0 83bd 02d1 68bd 51c7 7abe 82c2 27bd
00000120: 802b fa3c db83 07bd 95ab fa3b 0152 a9bc
00000130: 9fd6 48bc fab5 9e3d 7226 c6bd fefd 113c
00000140: ffa0 da3d f390 52be 8e01 303c 386a d8bc
00000150: b756 3dbd b560 2ebc 25b9 893d 8717 7c3d
00000160: 9bc2 1dbd a985 2f3b 3199 b13b 04b2 503d
00000170: c18e 083d 33ee 9bbd 6727 22bd 86b7 cdbc
00000180: 689d 3ebd c4f9 203e 5cfb 14be baf8 a6bb
00000190: 0685 7fbc 3789 903d b426 003e acd2 863d
000001a0: 0006 103d eb12 963d 2e57 0cbd 9709 05be
000001b0: c19f 9cbd 49f9 8f3d eb65 843d dc52 303c
000001c0: 2cb8 fe3d 20b9 e33d 9952 70bd 5cf7 e9bc
000001d0: 736e 8c3d ec79 12bc 83ac 3c3c e833 92bd
000001e0: 8553 32bd 0627 883c 497e 72b8 632a 4a3d
000001f0: 9411 923e 0ed2 613e 4187 29bd 1c9a 5dbd
00000200: e9fb 673d d76a c83d 3bb5 b0b9 9bba bfbd
00000210: 763e ecbd c976 bb3c 1d23 60bd 76ae cbbd
00000220: f335 203d d443 9abc 3758 e03b 2a18 f53d
00000230: a27b d73d 7be7 3cbd 5e8a b43d b7e0 0e3d
00000240: df94 6a3d 1488 633c 5ec8 41bc 5d98 bf3d
00000250: 6d38 293e 5248 443e 141f 273c 63a6 05bd
00000260: 5b0e 28bd e1ba 5e3d bd5c 593d 0c0c 763b
00000270: 77d5 163e 414a 08be 6441 f43d d20e 16bd
00000280: 6e15 22bb 4e1f bfbb 926c 4d3d afb4 6bbd
00000290: b0fb 0c3d 09d2 1fbb ca5b a33c 73e8 10bd
000002a0: b8a9 c73d 1a41 183c c21d eebd a300 a63c
000002b0: 37c5 12bd 95fd cd3d d167 793d a211 d8bc
000002c0: 1712 1d3d 8554 09bd c4b8 0ebe 756d a1bd
000002d0: 80a5 11be 0537 be3b 43c5 d43c 9efd 8dbd
000002e0: 84e3 5ebd 0287 bebd 55c1 f13d baee 543d
000002f0: c80f 223d 7a1b ab3d a36d 343c fe70 0d3e
00000300: e87d febb be5b 813d 709f a3bc 6270 0cbe
00000310: 8589 6abd e8d6 b5bb ec61 56bb 8a41 223c
00000320: 8c46 07bd 9acc 133d 8723 c6bc c2cb 0abe
00000330: afbb 5fbd 74e7 17bd c9f9 e639 19a4 a63c
00000340: 87ab a0bd 73d2 49bd 0630 36bc bb44 8fbd
00000350: 4c23 973d e491 62bc f011 bf3b 0b24 83bd
00000360: 39ef 953d 41ff acbd dc66 fd3d 9188 493d
00000370: 77b8 463c 2cbf a53d 68ae 1c3d 0a95 193d
00000380: f49c a33b 676f 45bd 1b26 82bd c94e 9a3c
00000390: 9f5e f4bd 7d6a d4bd 4ad1 21be dda3 debd
000003a0: 4d56 83bc 1bb2 9bbd aadc c43c 2a18 0ebd
000003b0: bc20 893d a2b0 883d 8ed6 0a3d 243f ae3a
000003c0: c6a7 2cbd 5f83 90bd 9359 be3d 43ab b8bc
000003d0: 4446 f8bc 7c19 c5bd ec99 6fbd 3762 8f3d
000003e0: d776 dcbc c1b3 993d a79a d53d b36a e73d
000003f0: ce85 a4bd 18aa 01be 1e63 c7bd b430 603d
0.10215208 0.013004796 -0.03710136 0.07326766 -0.08019541 -0.05725657 -0.12736252 0.012372047
-0.07340415 -0.027066696 -0.023137882 0.0128579 0.047560904 0.009648706 -0.034834422 -0.059111215
0.0060276696 0.038559377 0.013752146 -0.0071517495 0.033040628 -0.1715826 0.00204893 0.02003352
-0.13067317 -0.017723205 -0.1369988 0.025313303 -0.0459232 -0.024062553 -0.060549445 -0.13511476
-0.0805889 0.14589797 -0.24332036 -0.03489748 0.037714873 -0.03777838 -0.031743392 -0.047934804
-0.060594026 0.1251953 0.11401677 -0.03565681 0.10842259 0.098674744 0.026148902 0.017103076
0.12581931 -0.03341849 -0.01096858 0.039352298 -0.13089803 -0.08543842 -0.075509906 0.049826298
0.07955146 0.05533013 -0.058598053 -0.07157778 0.013432432 -0.01962587 0.1972091 0.044122875
0.025188107 0.008266259 -0.1043075 -0.007528286 -0.06430067 -0.05683995 -0.24490096 -0.04095698
0.03053832 -0.03308473 0.0076498487 -0.020668985 -0.012258201 0.07749553 -0.096753016 0.008910654
0.10675239 -0.20563106 0.010742558 -0.026417837 -0.046225276 -0.010643174 0.06724767 0.061545875
-0.03851567 0.0026782549 0.005419873 0.05095102 0.033339266 -0.07613792 -0.03958836 -0.025111925
-0.046536833 0.15720278 -0.14549011 -0.0050955685 -0.01559568 0.07057422 0.12514764 0.06583151
0.035161972 0.07327827 -0.03426283 -0.1299194 -0.07647658 0.07029969 0.06464752 0.010761943
0.12437472 0.11119294 -0.05867252 -0.028560333 0.06857004 -0.008940201 0.011515739 -0.071388066
-0.04353668 0.01662017 -5.781491e-05 0.04935683 0.28529036 0.22052786 -0.041388754 -0.05410205
0.056636725 0.09786003 -0.00033704363 -0.09361764 -0.11535351 0.02288379 -0.054720987 -0.09945385
0.03911395 -0.018831171 0.0068464535 0.119674996 0.10521628 -0.046119194 0.08815454 0.034882274
0.05727088 0.013887424 -0.011827556 0.09355233 0.16525431 0.19168213 0.010200281 -0.032629382
-0.041029315 0.05437744 0.053066958 0.0037543802 0.14729868 -0.13309576 0.11926535 -0.036635228
-0.0024732011 -0.005832589 0.05015237 -0.05754536 0.034419715 -0.0024386665 0.01994123 -0.03537793
0.09749168 0.009292865 -0.116267696 0.020263975 -0.03583261 0.100581326 0.060890023 -0.026375595
0.03834733 -0.03352787 -0.1393767 -0.078822054 -0.1422329 0.0058048987 0.025972968 -0.06933139
-0.054416195 -0.093030944 0.11804453 0.05198548 0.03956583 0.0835485 0.011012468 0.13812634
-0.007766474 0.063163266 -0.019973487 -0.13714746 -0.057260055 -0.0055493005 -0.0032712175 0.009903321
-0.033026263 0.036083795 -0.024186863 -0.1355429 -0.05462235 -0.037085965 0.00044055123 0.02034192
-0.07845216 -0.049272966 -0.011119848 -0.06995531 0.07379779 -0.013828728 0.0058309957 -0.06403359
0.07321019 -0.08447123 0.123731345 0.049202505 0.012128941 0.08093104 0.038252264 0.03749565
0.0049930755 -0.048201945 -0.06354924 0.018836396 -0.1193211 -0.103718735 -0.15802494 -0.10871098
-0.016032362 -0.0760233 0.024031002 -0.034691013 0.06695697 0.06674315 0.03389602 0.0013293964
-0.04215219 -0.07056307 0.09294429 -0.022542601 -0.030306943 -0.096240014 -0.0584964 0.07001155
-0.026912136 0.075049885 0.10429888 0.11299648 -0.08033334 -0.12662542 -0.09735702 0.054733947

cnn_blocks.0.convs.1.bias f4 [16]
00000000: 9809 9bbd 2850 34ba b189 85bd 6ad4 cabc
00000010: 2f5c b33c adc2 81bd 459a 45bd 38a5 35bd
00000020: d601 24bd 511e 19bd f96d 8e3b 8406 ba3a
00000030: 714d dabc d4be 6d3c 1d15 e23c c1fa b8bc
-0.07570189 -0.0006878399 -0.06520403 -0.02475949 0.021894543 -0.063359596 -0.048242826 -0.044347018
-0.040040813 -0.037382428 0.004346606 0.0014192616 -0.026648255 0.014510829 0.027597958 -0.022580506

cnn_blocks.0.norms.0.weight f4 [16]
00000000: 419a 833f 4aaa 803f ce7c 823f c4f4 803f
00000010: f2fa 6d3f bdcd 7b3f d66e 833f 1ea7 7f3f
00000020: 657b 7b3f 3e47 833f e201 7d3f d69d 833f
00000030: d98e 6f3f c99c 623f 97ca 873f c90d 773f
1.028145 1.0051968 1.0194337 1.0074697 0.9296104 0.98360807 1.02682 0.99864376
0.9823516 1.0256116 0.98831 1.0282543 0.93577343 0.88520485 1.06087 0.9650541

cnn_blocks.0.norms.0.bias f4 [16]
00000000: 436e 6bbd e31e 57bd f18e 2e3d 6b83 8f3d
00000010: a83e 983c be21 f9bd b281 463c 0e49 5abb
00000020: 5cac 083d 8557 d8bd 3bee edbb 2664 a7bd
00000030: 07ba d9bc 7c5f 32be ea45 e83c d038 56bd
-0.0574782 -0.05251969 0.04261679 0.07007488 0.018584564 -0.12164639 0.012115883 -0.0033307704
0.0333675 -0.10563568 -0.0072610653 -0.08173399 -0.026577963 -0.17419237 0.02835365 -0.052300274

cnn_blocks.0.norms.0.running_mean f4 [16]
00000000: 6f70 c93b 8562 b0bd 9f6a 593e 6b53 03be
00000010: 8cc8 793d 61b1 033d 0454 013e 5592 b5bd
00000020: def1 963b 8ed8 fa3b 9fdb 09be 34ec 03bd
00000030: e958 283d d52e 983b 9a10 ad3d f9fa a93d
0.0061474363 -0.08612541 0.21232079 -0.1282479 0.060982272 0.032151584 0.12629706 -0.08865801
0.0046064695 0.00765521 -0.13462685 -0.032207683 0.041100416 0.0046442547 0.08450432 0.08299822

cnn_blocks.0.norms.0.running_var f4 [16]
00000000: b95d 043d 3146 533d 7893 173d 7837 193d
00000010: d506 333d 1ef9 db3c 2dd3 2b3d 6904 283d
00000020: 13fb 2c3d 1498 4c3d 8046 fd3c 205f fd3c
00000030: c9f8 d53c 683c 023d 87d6 843d cae5 713d
0.032315943 0.05158061 0.03700587 0.037406415 0.043707687 0.026852187 0.04194944 0.04101983
0.04223163 0.04994972 0.030917406 0.030929148 0.026119607 0.03179589 0.0648623 0.059057035

cnn_blocks.0.norms.1.weight f4 [16]
00000000: 8aa7 8a3f dfc2 8e3f fe35 823f 2028 863f
00000010: 7ba9 9b3f f224 843f e85d 873f 1b9d 823f
00000020: 983d a93f 3c7c 883f b833 813f 73f3 953f
00000030: 3ab9 913f 0066 8a3f 1287 8f3f 2b9f 943f
1.0832379 1.115322 1.0172727 1.0480995 1.2161096 1.0323775 1.0575533 1.0204195
1.3221922 1.0662913 1.0093908 1.171492 1.1384652 1.0812378 1.1213095 1.1611074

cnn_blocks.0.norms.1.bias f4 [16]
00000000: 64ed ecbc 5819 3f3b 06da 313c 1c54 34bd
00000010: a2d7 dfbd e681 0b3d 2f90 5c39 c960 2dbc
00000020: c2c2 13be 0338 093c 3385 283b a438 e1bd
00000030: ab48 00bc 1a8e 7cbd ee82 d13d b90f ebbd
-0.02892179 0.0029159393 0.0108552035 -0.044025525 -0.109298006 0.034059428 0.00021034548 -0.010582157
-0.14429763 0.008375171 0.0025714159 -0.109971315 -0.007829825 -0.061658956 0.10230051 -0.11477608

cnn_blocks.0.norms.1.running_mean f4 [16]
00000000: 0cc9 b8bd 72f4 72bc 4961 65be a490 71bd
00000010: 0d98 283e b33c bbbe 7e00 123e 7b8b 5abe
00000020: 1a90 abbe 4cc2 3c3d 634c 3a3d bed6 0cbd
00000030: 1054 9cbd 5b33 18bd 98d4 263d 9927 d03d
-0.09022722 -0.014828788 -0.22400393 -0.05897583 0.16464253 -0.36569747 0.14258 -0.2134227
-0.33508378 0.046083733 0.045483004 -0.03438448 -0.07633221 -0.03715835 0.04073009 0.10163803

cnn_blocks.0.norms.1.running_var f4 [16]
00000000: 5042 a43d 4658 6f3d 604c 033e 0927 a93d
00000010: 5f10 eb3d be57 1d3e 70f6 f13d 163e c93d
00000020: 0126 ef3d e9ca d53d 75b1 093e 5ec4 c03d
00000030: 2464 a83d 9eb4 ba3d 4243 113e 14e8 503e
0.080204606 0.058433793 0.12822104 0.082593985 0.11477732 0.15365502 0.11814582 0.09826295
0.116771705 0.10439093 0.134466 0.09412454 0.08222225 0.09116481 0.14185813 0.20401031
