checkpoints/abl_rnn_only/best_model.pt (torch, 292187 bytes, 146 tensors)

embedder.feature_projections.0.weight f4 [32, 1]
000000 af c1 71 be 3e 35 1e 3f db 34 18 3f 29 16 3d 3f
       -0.2360904 0.6179999 0.5945565 0.7386194
000010 78 f1 65 bf 36 6d 7a 3f bb e5 9f 3e 33 ac 54 bf
       -0.8982158 0.9782289 0.31229958 -0.83075255
000020 ff 92 0c 3f 87 fc fa 3e 7a 5d 9e 3e 81 cf 1a 3f
       0.549118 0.49020788 0.30930692 0.60472876
000030 3f bb 12 3f 76 72 16 3f d3 72 6b 3f 91 bb 9c 3f
       0.57316965 0.58768404 0.9197208 1.2244741
000040 3f e4 a8 bf b9 af 5d 3f b0 e5 32 3f 4d f0 7b 3e
       -1.3194655 0.86596256 0.69881725 0.24603386
000050 9e 4c ae 3d 54 ac 78 bf 50 77 55 3e 4c c2 2a bf
       0.08510707 -0.9713795 0.20846295 -0.66702724
000060 cb c6 9c 3f 66 5a 6e bd 0d a4 5b 3f fd 9d 22 bf
       1.2248167 -0.05819168 0.85797197 -0.6352232
000070 c0 46 a9 3e 8a 35 5b 3f 82 15 82 bd d5 2e e6 be
       0.3306179 0.8562857 -0.063517585 -0.44957605

embedder.feature_projections.0.bias f4 [32]
000000 13 83 fa 3e b7 42 53 3f 01 ec 80 3f d3 45 e2 be
       0.48928127 0.82523674 1.0072023 -0.44193897
000010 1d ed 75 3f e3 be a5 be ef 2c 51 bf c8 d2 55 bf
       0.9606493 -0.32372198 -0.8170919 -0.8352475
000020 76 bb 55 3f 09 7e 78 3e 97 f9 21 3f 85 2d 1a bf
       0.8348917 0.24266829 0.6327147 -0.6022571
000030 7a f3 37 3f cd 3f 31 3f a3 4a 41 3f a0 05 95 3e
       0.7185589 0.6923798 0.7550451 0.29105854
000040 ea 3d a8 be 62 ea 06 3f da 6b 2d bf 5a 96 51 3f
       -0.32859737 0.5270139 -0.67742693 0.81870043
000050 65 f0 09 3f f8 e6 48 3f 8e 0f b2 be 62 61 7f be
       0.5388244 0.7847743 -0.34777492 -0.24939492
000060 f8 24 33 bf a3 65 3b be bd 51 11 3f 82 16 40 3e
       -0.69978285 -0.1830049 0.5676535 0.18758586
000070 11 b8 10 3f b2 1b 41 3f 05 f9 0c be 88 35 1f 3f
       0.56530863 0.75432885 -0.13766868 0.6219106

embedder.feature_projections.1.weight f4 [32, 1]
000000 54 43 9d 3e 4c 0d 45 bf d2 c8 fd be 00 1d e2 3d
       0.3071543 -0.76973414 -0.49567276 0.110406876
000010 8e 79 a8 3e 47 71 b1 bd 93 3a 33 be b3 94 7f be
       0.3290524 -0.08664184 -0.17502813 -0.24959068
000020 df ee 41 3f d7 68 28 3e b9 c9 c9 be 6a 32 14 3f
       0.75755113 0.16446243 -0.39411715 0.57889426
000030 f1 a8 27 bf fb 0c 37 bf 1b 0f 5a bf a8 e2 8d bd
       -0.6549216 -0.7150418 -0.851793 -0.06927997
000040 a0 af e1 be c0 a7 0d 3f 1a c8 9a be 27 9e ba be
       -0.44079304 0.5533409 -0.3023079 -0.36448786
000050 5c 42 5b bf be 18 28 bd 39 3d f8 be be c6 07 bf
       -0.8564813 -0.04103922 -0.4848421 -0.5303763
000060 88 0c 1c bf 23 5b 17 3f 5b 0b 2d bf 18 81 ee 3e
       -0.6095662 0.5912344 -0.6759545 0.46582866
000070 69 1b 03 3f 3c 02 f1 3e 29 9c 14 bf 91 ea 44 bf
       0.512137 0.47072017 -0.5805078 -0.7692042

embedder.feature_projections.1.bias f4 [32]
000000 b6 3b 59 bf d1 db 70 3f 97 32 23 bf 4f b1 fc 3e
       -0.84856737 0.94085413 -0.6374907 0.49354026
000010 ac ce 55 3e db 5d 14 bf 96 7e 8c 3e 18 6c 14 be
       0.2087962 -0.5795571 0.27440327 -0.1449436
000020 84 36 c5 3d b0 32 3b be a7 98 6a bf 2d 6d f3 bd
       0.09629539 -0.18281054 -0.9163918 -0.11886058
000030 d4 41 38 be e3 52 32 3f 65 c3 31 3f 45 33 4c bf
       -0.17993861 0.69657725 0.69438773 -0.7976573
000040 b4 04 66 3f d8 99 7f bf 1e 02 31 bf 48 d9 78 3f
       0.89850926 -0.9984412 -0.69143856 0.97206545
000050 39 1b dc 3e a9 cb f5 be 02 b0 b5 be 3c 1c 07 3f
       0.4298952 -0.48006943 -0.35485846 0.5277746
000060 16 34 41 3f 29 3d 66 bd b7 f3 02 3f 36 a9 f9 3e
       0.754701 -0.05621067 0.5115313 0.4876191
000070 ff 7f 94 3e ca 9a b8 be 1d 31 10 3e 83 b0 57 be
       0.29003903 -0.36055595 0.14081235 -0.21063428

embedder.stabilizer_embedding.weight f4 [8, 32]
000000 0a 5d 27 40 4f c2 43 be e6 fe ba 3e c1 88 c3 3f
       2.6150537 -0.19117092 0.36522597 1.5276109
000010 13 db 0c bf b4 54 3f bf 6c cc 26 be b9 3c c9 be
       -0.5502178 -0.7473862 -0.16288918 -0.3930414
000020 fd 27 d5 bd b4 a0 46 3f 17 69 2f be 9e 5c 83 bf
       -0.10408018 0.77588964 -0.17129932 -1.026264
000030 c6 19 31 bf 74 fb e0 bf 78 10 46 3f 1c cc a2 bf
       -0.6917995 -1.7576737 0.7736888 -1.2718539
000040 e2 61 86 3e 32 59 1c 3c 94 e1 5a 3f a4 b2 10 3f
       0.26246554 0.00954275 0.85500455 0.56522584
000050 40 b6 c1 bd 52 05 2c be 67 df 88 3e b5 aa 30 40
       -0.094585896 -0.16798905 0.26732942 2.7604191
000060 91 a0 56 3f d9 24 9a bf 6d 25 93 3e 9e 4f 1a bf
       0.83838755 -1.2042495 0.2873949 -0.60277736
000070 89 5f 7e bf ba d3 84 3f 50 92 2d bf 45 de cf 3e
       -0.99364525 1.0377114 -0.6780138 0.40599266
000080 a0 b3 02 c0 51 be 20 3f 01 b9 84 bf ea 0b 82 bf
       -2.0422134 0.627904 -1.0368959 -1.0159886
000090 ce 15 ae bf 71 72 2d 3f ee 29 74 3f a9 cf dd 3f
       -1.3600404 0.6775275 0.9537648 1.7328998
0000a0 78 58 1a 3f dc f6 78 bb 55 38 c9 be 5d 47 59 bb
       0.6029124 -0.0037988937 -0.3930079 -0.0033154108
0000b0 8b 33 c8 3f a2 82 42 bd e3 c3 11 bd 68 43 20 bb
       1.564073 -0.047487862 -0.035587203 -0.002445424
0000c0 41 62 2f 3f 27 b1 9e be 79 5c 8a 3e 71 c6 2a 3f
       0.685093 -0.30994532 0.27023676 0.6670905
0000d0 8f a6 8b be 83 30 df be 25 ef 49 3f 6e 39 9e be
       -0.27275512 -0.435917 0.7888053 -0.3090319
0000e0 8f 0f 44 3e 8b c5 d0 3f d6 22 65 3f 8a ce e4 3f
       0.1914656 1.6310285 0.8950628 1.7875531
0000f0 0c d0 4b 3d 0b c8 60 bd 78 69 6d 3f a7 d6 ec 3e
       0.049758956 -0.054878276 0.9273906 0.46257517
000100 40 cc 62 3e 1b 7c 50 bf 90 75 19 c0 d0 ac bc 3d
       0.22148228 -0.8143937 -2.3978004 0.09212649
000110 6f cf 4a 3f ae dd 00 3f d1 ad 04 c0 b3 9b 48 bf
       0.7922277 0.50338256 -2.073109 -0.7836258
000120 a2 b1 ed bf 0e 07 0c 3f e9 d0 17 be 91 61 c2 be
       -1.8569834 0.54698265 -0.14825787 -0.37965062
000130 65 5a 01 40 ef ff 2a 3e 0b b1 1d bd 7e af 77 bf
       2.0211422 0.16699193 -0.03849892 -0.96752155
000140 a6 75 b6 3f 77 b8 55 3f f8 c6 fa bd 1e 91 5d bf
       1.4254653 0.83484596 -0.122449815 -0.86549556
000150 58 0a 70 bf 40 b3 62 bf 25 aa 1e 3f 76 74 92 be
       -0.93765783 -0.88554764 0.6197837 -0.28604478
000160 70 40 c5 bd b2 3c 5e bf 4c f5 1d bf ad 45 58 be
       -0.09631431 -0.86811364 -0.6170242 -0.21120329
000170 a1 e9 81 3f b7 92 bc bf 4c 41 9f 3e 1e b7 40 3e
       1.0149423 -1.4732274 0.31104505 0.18819854
000180 e3 c8 9d bf 55 c8 cd 3e 71 ab 6b bf 52 6f d5 be
       -1.2326931 0.40191904 -0.92058474 -0.41686493
000190 01 af 2a 3f 75 73 0f 3e 16 62 ce 3f 9a 28 b0 3f
       0.66673285 0.14008887 1.6123683 1.3762391
0001a0 a1 c2 98 3f a5 d7 f5 bd d7 55 11 3e bf ce ea bf
       1.1934396 -0.120040216 0.14192902 -1.8344344
0001b0 f4 b8 63 bd 60 1c 8b bf 63 c0 e1 bf 9b 4d b3 3f
       -0.055596307 -1.0868034 -1.7636837 1.4008058
0001c0 87 3c 86 be 3b bd 11 3f 63 b3 6e be d0 62 a5 be
       -0.26218054 0.5692937 -0.23310618 -0.3230195
0001d0 33 3c 1d 3f c5 29 f3 3e c8 3c 09 3f e6 ba 54 bf
       0.6141998 0.47492805 0.5360837 -0.83097684
0001e0 ae ab 72 3e 1b 5e 57 bf b9 4a a3 be dd a2 b0 3e
       0.23698303 -0.8412797 -0.31892946 0.34499255
0001f0 34 cb e7 be 92 e6 11 3f af 28 e7 3f 91 01 8c bd
       -0.4527222 0.5699245 1.8059291 -0.06836236
000200 0f f0 55 3f fb f1 55 3f 86 e8 04 40 29 3e dc bf
       0.83569425 0.8357236 2.076692 -1.720647
000210 96 18 77 3f d6 f9 9d 3e bd 49 4f be d9 88 56 3f
       0.9652189 0.30854672 -0.20242973 0.8380256
000220 a5 29 ef bf 37 73 b4 bf f1 ab e6 3f e2 cc 56 bf
       -1.8684584 -1.4097661 1.8021222 -0.83906376
000230 2f 7e 13 bf ec 4e b5 3f d1 95 47 3e aa eb 0a 3f
       -0.57614416 1.416471 0.19490744 0.54265845
000240 cd 23 a3 bf 4b f0 9f bf 1d 6c 7b bf 05 b7 b6 3f
       -1.27453 -1.2495207 -0.9821184 1.4274603
000250 d9 0d 47 3f 4c ca 5a bf cb 4f 1d c0 3d a5 96 3f
       0.77755505 -0.8546493 -2.4579952 1.1769177
000260 cd 5d 55 bf e5 df ea 3e bb 12 85 3f f1 d6 91 bf
       -0.83346254 0.45873943 1.0396341 -1.139372
000270 26 c0 84 3f ad 41 b8 3e 2f 75 07 bc 9a d5 9d 3d
       1.0371139 0.35987607 -0.008267685 0.07706757
000280 7a f5 e3 be e6 ee a7 be 71 42 92 be f2 3f 59 3f
       -0.4452322 -0.32799453 -0.28566316 0.848632
000290 ee bf 0d c0 d5 33 37 bf 6e f3 e7 3d 1d 17 a6 3f
       -2.2148395 -0.71563464 0.113257274 1.2975804
0002a0 53 7c 3a 3f 36 fa 0d 40 f6 84 5b bf 3e 91 cd bf
       0.72845954 2.2183967 -0.8574976 -1.6059949
0002b0 70 3e b1 3e 75 fa 56 3f a3 87 2e bf 19 a7 93 bf
       0.3461795 0.8397592 -0.68175715 -1.1535369
0002c0 34 dc 1d 3e 12 37 b6 3d 9b 48 d4 bf 2d db 0c c0
       0.15416032 0.088972226 -1.6584657 -2.2008774
0002d0 3a d8 1f 3f 24 db 48 bf 66 c2 29 3f fa a2 36 3f
       0.6243931 -0.7845938 0.66312253 0.7134243
0002e0 11 ae f5 bf 21 e2 10 3e b5 13 8d 3f ec ca c3 bf
       -1.9193746 0.14148761 1.1021639 -1.5296302
0002f0 60 6c 20 bf 37 ea 1c be 79 36 66 be 2f 79 1f 3e
       -0.6266537 -0.15323721 -0.22481717 0.15573572
000300 fa a4 1c 3f 9f 04 9a be 44 9f 3c bf 15 12 43 bf
       0.61189234 -0.3008165 -0.7368052 -0.76199466
000310 43 a4 21 c0 51 1b 91 bd bc 56 b2 be 96 26 19 3f
       -2.5256507 -0.07085288 -0.34831798 0.598245
000320 91 38 0e bf 4b 09 00 bf 40 62 f8 3f 50 5e 3b bf
       -0.55555063 -0.5001418 1.9404984 -0.73190784
000330 28 c7 01 3e 31 bd 11 3f c6 a3 14 3f 07 4f 00 bf
       0.12673628 0.5692931 0.580624 -0.50120586
000340 31 ee 2b bf 2d 92 d6 bd 0e 13 c3 3e 5a 35 2b bf
       -0.67160326 -0.104770996 0.38100475 -0.66878283
000350 33 5a 22 bf 2c 28 0c c0 97 8f 12 40 79 02 87 3e
       -0.63418883 -2.189952 2.290014 0.26369074
000360 03 2f 64 3f 9f 34 c4 bf a9 63 9e 3f 19 6e af bf
       0.89134234 -1.5328559 1.2374164 -1.3705474
000370 9f 1d 75 3f 85 50 7c bf e0 a0 18 3c 6d c4 14 3f
       0.95748323 -0.98560363 0.009315699 0.5811222
000380 98 88 0c 3f 21 c9 31 3f 27 82 06 3f 11 20 00 c0
       0.54895926 0.69447523 0.52542347 -2.0019572
000390 bc 47 c0 3f 04 4e 77 3f 1d 1a 61 bf f9 8a 65 3f
       1.5021892 0.9660342 -0.8793047 0.8966518
0003a0 6e b5 be bf 2e 89 4e bf 92 40 73 be b8 25 8f 3d
       -1.4899118 -0.8067807 -0.237551 0.06989616
0003b0 af 98 31 3f 40 7e 75 3f eb 43 a0 bf 90 a2 8d bf
       0.693736 0.9589577 -1.2520727 -1.1065235
0003c0 7b 76 57 bf 24 42 88 3e 06 9b 36 3f 5a cf 75 3f
       -0.8416516 0.2661296 0.71330297 0.9601952
0003d0 6d 9b ed 3d c8 65 12 3f 94 48 44 3f 32 83 68 3f
       0.11601911 0.57186556 0.76673245 0.9082519
0003e0 d5 d5 56 be c6 eb d0 bf 5a bd 5e be dc 22 70 3e
       -0.20980008 -1.6321952 -0.2175192 0.23450798
0003f0 f8 89 a6 be a3 15 b3 bc 43 4d b7 bb 53 41 fa be
       -0.32527137 -0.021860903 -0.005593927 -0.48877963

embedder.res_block.0.weight f4 [32]
000000 17 52 80 3f 5d b2 77 3f 32 da 85 3f c8 63 85 3f
       1.0025052 0.96756536 1.0457213 1.0421076
000010 d6 b5 8e 3f 76 e2 8c 3f 68 4e 68 3f cc 78 9a 3f
       1.1149242 1.100661 0.9074464 1.2068114
000020 3d 87 80 3f 1f 0a 7e 3f da 8e 8e 3f de c9 81 3f
       1.0041271 0.99234194 1.1137345 1.013973
000030 ed b3 82 3f db 07 81 3f ed 34 8d 3f cd 52 93 3f
       1.0211159 1.0080522 1.1031777 1.1509644
000040 34 52 9d 3f cf 35 96 3f 06 f1 7b 3f 7e a3 83 3f
       1.2290711 1.1735171 0.9841465 1.0284269
000050 ee f5 85 3f 15 1d 92 3f 46 51 85 3f 1c f2 8a 3f
       1.0465677 1.1415125 1.0415428 1.0855136
000060 d8 f7 89 3f 37 57 82 3f 8d f6 6d 3f d5 39 94 3f
       1.0778761 1.0182866 0.9295433 1.1580149
000070 53 eb 84 3f 67 82 84 3f 20 84 87 3f ff ca a1 3f
       1.0384315 1.0352296 1.0587196 1.2640074

embedder.res_block.0.bias f4 [32]
000000 e4 cd 2c 3c e2 55 06 bd 3a 15 0c 3d 35 39 44 bc
       0.010547135 -0.032796748 0.03419993 -0.01197653
000010 14 37 cf bc 74 39 a6 3b 10 8b 52 3d 93 75 66 3c
       -0.025294818 0.005072767 0.05140215 0.014066118
000020 5b c8 34 bd fc 3c 64 bc 61 49 b5 bb 79 c7 89 3d
       -0.044136386 -0.013930555 -0.005532429 0.067274995
000030 ce be e9 3b d7 e6 44 3c 3d 1e 92 bc bf c8 1f 3d
       0.0071333414 0.012017927 -0.017836684 0.039009806
000040 8b be 2c 3b 80 d9 80 bb 8e 21 80 3d 2c f3 05 3c
       0.002635869 -0.003932178 0.062564 0.0081756525
000050 44 e0 91 3b 41 e8 e5 3b 0c 48 11 3d 67 25 fb 3b
       0.0044517834 0.007016212 0.0354691 0.007664371
000060 df cb 5c bc e0 37 2f bc 08 8f 90 bd 5d 6e eb bc
       -0.013476341 -0.010694474 -0.07058531 -0.028739149
000070 ac 0c 00 35 7c 07 59 3c ca 62 5b bc fd 3c 0d bc
       4.7702156e-07 0.013246413 -0.013390252 -0.008620498

embedder.res_block.1.weight f4 [32, 32]
000000 b1 89 74 be 70 18 a9 3d 10 74 06 bc ae be b5 bc
       -0.2388065 0.08256614 -0.008206382 -0.02218565
000010 6a a0 f5 bd b0 03 44 bb 04 8f e3 3d 21 a8 72 bd
       -0.11993487 -0.0029909424 0.111112624 -0.05924237
000020 35 86 db bd 00 82 fb 3d 9e 01 82 bd 77 56 2e 3d
       -0.10718957 0.12280655 -0.06347965 0.042562928
000030 2e 07 8e 3d f0 ad 4f 3e 3f 3b 61 3e 72 e2 e7 3a
       0.06934963 0.20281196 0.21995257 0.0017691387
000040 f3 d1 e1 bd e6 be 60 bc 31 0a 35 3e ee 0f cd 3d
       -0.11026373 -0.013717389 0.17679669 0.10012804
000050 c4 1b 1f 3e e9 ce f6 3c 20 ff 5b 3d 5d 86 98 bd
       0.15537935 0.03012796 0.053710103 -0.07447503
000060 c0 80 e8 bc 21 de a2 bd 34 13 18 3c d1 7d b6 bd
       -0.028381705 -0.07952524 0.009281922 -0.08910716
000070 f6 1c 63 3d f9 48 00 3e 9c 8d e2 bd ae ab ea 3d
       0.05544754 0.12527837 -0.11062166 0.114585266
000080 d3 fa 00 3d 8e 2a e3 bd dc 74 ad bd bb b9 37 be
       0.031489205 -0.11092101 -0.08469555 -0.17941944
000090 af f4 cc 3d 9b 71 7d be 64 4a 56 bd 84 85 bc bd
       0.10007607 -0.24750368 -0.05231704 -0.092051536
0000a0 59 89 5e 3d 18 e0 1d 3e ac d1 5e be fe e5 2e 3d
       0.054330204 0.15417516 -0.21759671 0.042699806
0000b0 91 92 ac 3d 9d 18 1e 3d 4f d7 0d 3d 4c 13 ed 3b
       0.08426393 0.03859769 0.034629162 0.0072349664
0000c0 f9 f1 32 3e 6f c0 4a be ea a3 e6 3d 53 46 a0 bc
       0.17475118 -0.1979997 0.11261733 -0.019564783
0000d0 b4 e1 78 3d 72 1c 66 3d 0f 00 4e bd 6a 17 35 3e
       0.060762122 0.05617947 -0.050293025 0.17684713
0000e0 02 71 df 3b 13 f7 1f 3e 6a fd 96 3c 96 a3 3a 3e
       0.0068188915 0.15621595 0.018431384 0.18226466
0000f0 07 4f 4d be 9d 1c 96 3c 45 31 9d 3d 98 3a 3e 3e
       -0.20049678 0.01832419 0.07675413 0.18577039
000100 93 0f 1d 3d ca aa 11 3e fa ed 74 3e 56 82 36 3d
       0.03834493 0.14225307 0.23918906 0.04455789
000110 7a e5 ed bd e6 7c 48 3e dd 9d 42 bd 31 3d 44 be
       -0.11616035 0.19578895 -0.04751383 -0.19163968
000120 6f 1b c3 bb 97 2b dc bd d5 2a 3d be 5a 6d ce bd
       -0.005954198 -0.107505016 -0.1847337 -0.10079451
000130 dd ef 9f bd af 4f 23 3e 88 6f a4 bd 4a b3 0d 3e
       -0.07809422 0.15948366 -0.080290854 0.13837925
000140 2e 98 36 be 56 81 b1 3a a9 3f df 3d b5 81 94 bd
       -0.1783149 0.0013542573 0.10900814 -0.07251302
000150 cc 26 f9 3d 4d 35 42 be 46 d2 bd bd fc 6c f4 3d
       0.12165603 -0.18965645 -0.09268622 0.119348496
000160 1f 29 33 3e c6 d9 a9 bd 7f 70 89 ba 6c f6 0f be
       0.17496155 -0.0829349 -0.0010485797 -0.14058846
000170 36 47 24 be b2 12 81 3e 3e 33 a5 3a 26 a2 26 be
       -0.1604279 0.25209576 0.0012603772 -0.16272792
000180 33 1c 9f 3d c0 8f 69 3d 1d ba 49 3e 14 40 d8 bd
       0.077690504 0.057021856 0.19699903 -0.10559097
000190 07 01 9a bc ad a5 44 be b0 1e 6b bb 7a b5 9d bd
       -0.018799318 -0.19203825 -0.0035876445 -0.077006295
0001a0 44 09 a6 3d 8c c3 12 3e 43 ca ce 3d 82 b8 66 bd
       0.08107236 0.14332408 0.10097172 -0.056328304
0001b0 1a f1 06 be 30 da af 3c 4a 65 00 3c f9 88 7d bd
       -0.1317791 0.021466345 0.007836649 -0.061898205
0001c0 7d 7c 79 3e 84 07 d9 bd 4a 38 46 bd 15 68 0a 3d
       0.24363895 -0.105971366 -0.048393525 0.033790667
0001d0 a6 8d 1e 3e e3 77 8b 3e 0a 57 25 be be e4 0b 3e
       0.15483722 0.27239904 -0.16146484 0.13661477
0001e0 9e 16 77 bd 2b 02 bf bd f2 56 db bd fd ab 27 3d
       -0.060324304 -0.093265854 -0.10709943 0.040935505
0001f0 8e e5 bd bd af 24 b4 3d b9 48 07 3d ff 6a 8d bd
       -0.092723 0.08796059 0.033028338 -0.069051735
000200 5a 94 31 be a1 57 61 bd 2b 42 0b 3c 7d bc ab bd
       -0.17341748 -0.05501521 0.008499662 -0.08385561
000210 cd 50 bb be 24 de ff 3c d8 17 69 3e 54 b2 3c be
       -0.36585084 0.031233855 0.22763002 -0.18427402
000220 99 3e 85 3d 4e 59 c6 3c 5d 19 9e 3d 0f 48 9c 3e
       0.0650608 0.024212506 0.077196814 0.30523726
000230 56 50 35 bd c7 74 88 3d aa 6b 31 3d 60 bf a5 3e
       -0.044266067 0.066628985 0.043315567 0.3237257
000240 84 24 8c be 2f b5 03 3e 40 a7 70 3e 28 df cc 3d
       -0.2737161 0.12862085 0.23501301 0.10003501
000250 d4 09 9a bd f7 02 a5 bd 9d 3a 40 3e b1 da 3f be
       -0.07521406 -0.08057206 0.18772359 -0.18735768
000260 7b 7e a7 3e 92 fc 18 3e cc d5 98 bc ed 50 ad 3d
       0.32713684 0.14940098 -0.018656634 0.08462701
000270 54 2c 73 3d 31 c2 00 3e f7 ad a4 3d dd 9c 82 bd
       0.059368446 0.12574078 0.08040994 -0.063775755
000280 98 4a 15 3e 6a c1 2a be ff 15 da 3d 92 62 ef bc
       0.14579237 -0.16675344 0.10648727 -0.029221807
000290 71 7e 0b be 3a f2 f0 bc 37 d4 9c bd af d4 98 bd
       -0.13622452 -0.029412378 -0.07657664 -0.07462441
0002a0 e7 84 15 bd 00 54 08 3e 0f f2 f5 3d cd a8 9b bd
       -0.0365037 0.13313293 0.1200906 -0.076005556
0002b0 31 73 e2 3d 51 80 d4 bd 2e 9d 27 be d9 b3 27 bd
       0.11057127 -0.10376037 -0.16368553 -0.040943
0002c0 20 f5 d5 bd ff 1c 2c 3d 78 b7 26 3e 6a c9 10 be
       -0.104471445 0.04201984 0.16280925 -0.14139333
0002d0 08 94 81 bd 98 89 92 bd 82 9a 9b bd 35 a1 f5 bc
       -0.06327063 -0.0715515 -0.075978294 -0.029984096
0002e0 a6 fe 00 be 04 72 23 3e 09 83 3e be 6c 28 f9 bd
       -0.1259714 0.15961462 -0.18604673 -0.12165913
0002f0 7f 99 08 bd 8c 55 10 bd 08 8e ac 3d aa 25 18 3e
       -0.03334951 -0.035237834 0.08425528 0.14858118
000300 a1 28 40 be 0c ef a2 bd 39 e8 d2 3d 93 e5 a8 bd
       -0.18765499 -0.07955751 0.10298199 -0.08246913
000310 93 9b 8a be d6 01 ab 3d 4d 4f 0f bd 13 ea c3 bb
       -0.2707182 0.083499596 -0.034987736 -0.0059788316
000320 73 a0 cd bd 58 fd 0a be 6f c8 11 3e 35 8f 03 be
       -0.10040369 -0.13573205 0.14236616 -0.12847598
000330 a4 ee eb bd 2e d5 8a 3c b1 9c b4 3d 14 b4 e9 3d
       -0.115201265 0.016947355 0.08818949 0.114113
000340 21 c6 b5 bd 1b 32 7b be d7 a2 d5 bc 93 7c 60 3d
       -0.08875681 -0.24530832 -0.026078625 0.054806303
000350 7b 8c 47 3d fa ca a5 3b 7d f0 d3 3b 08 81 ed bd
       0.048717957 0.005059597 0.0064678774 -0.115968764
000360 15 01 a2 3d c4 88 b2 3d ca 7b d0 3d 0a 98 56 3d
       0.07910363 0.08717492 0.10179861 0.05239109
000370 0d 5c a4 3e f6 c2 2b bc 04 f9 50 be 52 bc f1 3d
       0.3210148 -0.010483494 -0.20407492 0.118034974
000380 c9 e2 eb bd 4e 6f a2 3d 1b 8b 4f 3d c4 61 4d 3e
       -0.11517865 0.07931386 0.05066977 0.20056826
000390 77 9a 14 be a0 46 96 3e c0 27 ae 3d 55 f5 ce be
       -0.14512049 0.29350758 0.085036755 -0.40421548
0003a0 af f3 08 3e 85 2e 30 3e d7 21 61 be 4f 1b 1a 3e
       0.13374208 0.17205246 -0.21985565 0.1504948
0003b0 27 1c 71 3e d3 4d e5 3d a9 bd dc 3d 53 d0 a2 3e
       0.23545896 0.111964844 0.10778362 0.31799564
0003c0 b3 56 d1 be 6a 92 2f 3d cc 82 1e 3e c5 bb 5a 3e
       -0.4088646 0.04286424 0.15479583 0.21360691
0003d0 d8 21 06 3e 24 2f 72 be 14 86 8e be 2b 9a df bd
       0.13098848 -0.23650795 -0.27836668 -0.10918077
0003e0 48 ef 6f 3b f8 5a a7 3d d3 00 28 bd 59 4d 9b be
       0.0036611129 0.08171648 -0.04101641 -0.3033245
0003f0 78 a5 8a 3d 90 53 69 3d 0e 94 b7 bc 3b f0 cf be
       0.06769842 0.056964457 -0.022409465 -0.4061297

embedder.res_block.1.bias f4 [32]
000000 21 ad 1f 3e bf f3 22 3e 7a 5f e6 3d c4 c8 8d 3d
       0.15593387 0.15913294 0.112486795 0.06923059
000010 9b d5 dc bd 8e 40 b5 3c 47 e9 d1 bc 86 1f 05 3e
       -0.107829295 0.022125509 -0.02562393 0.13000306
000020 dc ae 50 be 43 9f af 3d 26 d9 d5 3c 9f a1 1a bd
       -0.20379204 0.08575299 0.026104521 -0.03775179
000030 d6 61 80 bd bf 58 15 3e 64 8c fa bd ed 0d 0c 3e
       -0.06268661 0.14584635 -0.12233809 0.13677187
000040 bd 5d c0 3d e9 bf eb bd f7 b3 68 3d c8 9b 50 3d
       0.09392879 -0.11511213 0.056812253 0.050929815
000050 35 16 14 3e b7 09 1b 3e fb 63 ee bd 66 eb 08 bd
       0.14461596 0.15140425 -0.116401635 -0.03342762
000060 30 3e 04 be e1 e0 1d 3e 85 f2 67 ba 4d 77 c5 bd
       -0.12914348 0.15417816 -0.0008848089 -0.096418954
000070 90 58 89 bd 89 b7 d2 3c cd 1d 2f 3d ca c7 bf 3d
       -0.06706345 0.025722282 0.04275303 0.093642786

embedder.res_block.3.weight f4 [32, 32]
000000 d9 e1 a8 3d b8 3f 20 be 57 15 76 bd d6 bf 5d 3c
       0.08246202 -0.15649307 -0.060078945 0.013534507
000010 83 72 af 3e 94 ea ba bc b5 dc f9 3d 46 1c b6 bd
       0.34267053 -0.022816934 0.122003 -0.088921115
000020 72 11 da 3c e5 37 8c 3d c8 19 cf 3d e5 92 16 be
       0.026619647 0.068465985 0.10112339 -0.14704473
000030 35 66 13 bc 1d 4c e4 3d a6 3a 01 be 6e 63 53 ba
       -0.008996536 0.1114733 -0.12620029 -0.00080638274
000040 c6 59 98 3d 9e 9c 17 be b2 2c 9f 3d 42 22 0f be
       0.07438998 -0.14805838 0.07772197 -0.13977912
000050 50 31 0e 3e 2f 09 b4 bd 45 25 48 3d 2e bb 25 be
       0.13885999 -0.08790814 0.048863668 -0.16184685
000060 ce 23 57 3d 48 43 b2 bc c2 f4 f0 bc 24 f6 ce 3d
       0.05252438 -0.021760598 -0.029413585 0.10105541
000070 39 d8 77 3e 1c f9 73 3d da 87 82 3c 03 b5 bd bd
       0.24203576 0.05956374 0.01593392 -0.09263041
000080 6a f7 e2 3b 5f 39 6b 3d f8 74 1e bd 8a 13 04 be
       0.0069264667 0.05742776 -0.03868577 -0.12898079
000090 eb 50 f4 3d 6d 3a 66 3d fd 33 e1 3d 61 ce c0 bd
       0.119294964 0.056208063 0.10996244 -0.09414364
0000a0 ec 9f 93 3d c6 db 89 bc 64 79 1e 3e e0 4a 26 be
       0.07208237 -0.016828429 0.15475994 -0.162395
0000b0 09 32 37 bd 2e ac 31 be 93 c5 50 bc fe 42 2b 3e
       -0.04472545 -0.17350838 -0.012742418 0.16724774
0000c0 67 32 04 3e 16 84 c1 3d 3f f4 7a 3d 38 43 3e bd
       0.12909852 0.094490215 0.061268087 -0.046450824
0000d0 0a 06 09 3e 69 4c 7e bd 12 51 1e 3e 03 c1 3c be
       0.1338121 -0.06208459 0.15460613 -0.18433003
0000e0 a4 24 80 3d 13 2a a1 bd e9 eb 2d be 4a 4d 25 be
       0.06256989 -0.07869353 -0.16984524 -0.16142765
0000f0 cd de b6 3d ca 62 8e 3c cf 35 d9 bd b9 c4 ef bc
       0.089292146 0.01738109 -0.10605966 -0.02926861
000100 df 12 bd 3c 81 6f 31 3e 28 ee 13 be 2e 1f 67 3d
       0.023080288 0.17327692 -0.14446318 0.05642622
000110 ec f6 63 be 01 7b 92 bd 8e 25 4c 3d 4f 1d 05 be
       -0.22262162 -0.071523674 0.049840502 -0.12999462
000120 9e b7 6a bd 01 01 49 bd 02 97 d8 3c f0 5f 9e bd
       -0.057304017 -0.049073223 0.026439194 -0.077331424
000130 09 c4 92 3e 2f 4b 3a 3e cb 90 4e 3c c3 b1 2b 3c
       0.28665188 0.18192743 0.0126077635 0.010479393
000140 ff dd 39 bd b2 71 c5 3d 3d dd 99 bc 02 cf a5 bd
       -0.045377728 0.09640826 -0.018782252 -0.08096124
000150 9d 65 11 3e 38 92 cc 3d f5 59 5f 3d 3c b5 3e 3e
       0.14198919 0.099888265 0.05452915 0.18623823
000160 26 9a 51 3d 36 ec cb 3d 8c c3 3c bd 07 b9 ac 3c
       0.051172398 0.09957163 -0.046084926 0.021084322
000170 c2 e7 e9 bd 85 98 ce 3d d7 5a c6 3d 02 f0 b2 bd
       -0.114211574 0.100876845 0.09685295 -0.08737184
000180 84 b1 20 3e 3a 00 fc 3d b8 53 3b 3d 83 1f e1 bd
       0.15692717 0.12304731 0.045734137 -0.109923385
000190 d9 e0 7f bd e0 1f e7 bc 3c a7 21 be 34 0e 89 3e
       -0.06247029 -0.028213441 -0.15786451 0.2676865
0001a0 c2 e0 fd 3d e6 ee 2d 3e c9 db 3f 3d d4 ef 56 3d
       0.12396385 0.16985664 0.046840463 0.05247481
0001b0 41 7b fd 3d f5 7f 48 bc e9 48 16 be 59 c3 8e 3d
       0.123770244 -0.012237539 -0.1467625 0.06970853
0001c0 86 20 07 3e 6b 4a 4b be b4 10 dc 3a 26 e5 fe 3d
       0.13196 -0.19852607 0.0016789646 0.1244605
0001d0 5d d2 4c 3e a1 5f 11 3d 0c 03 61 3d fe b7 16 3e
       0.20002122 0.03549159 0.054934546 0.14718625
0001e0 b4 74 44 bd 16 91 e2 bd c5 1f c5 bd 60 cb 24 3e
       -0.04796286 -0.11062829 -0.096252 0.16093206
0001f0 9f 5c 5f be 1f 7f 06 3e 18 ac 08 3d bb 46 c8 bd
       -0.21812676 0.1313443 0.033367246 -0.09779116
000200 8f 5e 45 3c fd e4 0a 3e 93 54 3d 3e d6 b6 09 be
       0.01204647 0.13563915 0.18489294 -0.13448653
000210 6d c0 8a be 01 bd 1c 3e 78 40 04 be f1 d1 e5 bd
       -0.27099934 0.15306474 -0.12915218 -0.11221684
000220 11 40 06 be 15 2d f4 3d c6 22 ab 3d be f1 04 bc
       -0.13110377 0.11922661 0.08356242 -0.008114276
000230 e5 aa 7f 3e 88 53 e0 3d 43 31 a6 3d 53 74 fc bd
       0.24967535 0.10953432 0.08114865 -0.123268746
000240 17 06 c1 3d df 42 f5 bd 14 ac 0f be ec c8 51 3e
       0.0942499 -0.11975645 -0.14030486 0.20486802
000250 21 9b ec 3d 25 d4 b8 bd 64 a0 21 3d 29 e5 ec 3d
       0.11553026 -0.09024838 0.0394596 0.11567146
000260 5d 3b 1c 3d b0 59 a0 bc 91 7d 40 be e1 48 75 3d
       0.03814255 -0.019574016 -0.187979 0.059883956
000270 6d 79 13 bd 4f 26 65 3e 88 79 09 3e c0 b5 ca bc
       -0.036004473 0.22377895 0.13425267 -0.024744868
000280 5b b5 4b 3d bc 86 4f be 1f a6 55 bc fa 68 5e be
       0.0497335 -0.20266241 -0.013040095 -0.21719733
000290 10 42 b1 be 86 1f f8 3d 3f 8d af bd fb 43 1f 3e
       -0.34620714 0.121153876 -0.085718624 0.15553276
0002a0 e9 ab b0 3d 4d 09 b4 bd d4 10 90 3d b5 e7 fb 3c
       0.08626539 -0.087908365 0.0703446 0.030750135
0002b0 29 9d 1e bd ac 0a 92 3d ea ac e8 bd 2f 5c c7 bd
       -0.0387241 0.07130942 -0.11361106 -0.097343795
0002c0 9b d9 a1 bc 83 a0 c3 3d 17 bb 2c 3e 4e 60 a8 3d
       -0.019757083 0.095520996 0.16868244 0.08221494
0002d0 cf 9f 1b 3e 24 0e 9a be 8a 86 98 3c 86 16 26 bb
       0.15197681 -0.30088913 0.01861884 -0.0025343015
0002e0 4f 6f 77 be ab bf 91 bb 04 21 d3 bc 6d 51 74 3e
       -0.24163555 -0.0044478974 -0.025772579 0.23859186
0002f0 54 c2 63 be 6a 65 db bd 48 96 76 3c c3 c7 28 3d
       -0.22242099 -0.107127026 0.015050478 0.041206133
000300 fb 04 29 3d dc 2b 81 bd 99 6a 35 3d 1e 24 05 3e
       0.041264515 -0.06307194 0.044291113 0.13002059
000310 ee ac 9c bd 9b 5b 25 be 21 6c 27 be 5e 72 8f 3e
       -0.07650171 -0.16148226 -0.16349842 0.28016943
000320 11 e3 ac 3d 6b 39 9a 3d 76 82 53 3e bf f9 21 3c
       0.08441747 0.07530483 0.20655236 0.009886204
000330 ba 24 87 be 5e 04 e7 3d 0a e3 29 3d f5 f7 40 3d
       -0.26395208 0.1128013 0.041476287 0.04711147
000340 45 1d 41 3d 77 27 3a 3e 84 4e 05 3e c2 f0 b1 bd
       0.047147054 0.18179117 0.13018233 -0.08688499
000350 7d 25 16 bd ae 62 0e 3e c6 34 22 3e 8f 88 62 3e
       -0.036656845 0.13904831 0.15840444 0.22122405
000360 c6 c8 42 bd f2 9e 2e bd ce ab 6d bd e6 49 a5 bd
       -0.047554754 -0.04263205 -0.058025174 -0.08070736
000370 ae ab 94 be f7 4c f6 3d cf 2b 89 bc a3 d2 c0 bd
       -0.2903723 0.12026399 -0.016744522 -0.09415176
000380 55 71 51 be d1 0e 2f be 14 d0 96 be b1 bc 04 be
       -0.20453389 -0.17095496 -0.29455626 -0.12962605
000390 c3 91 1d 3e f4 06 6d bd 6e f4 6b 3d cd 03 11 be
       0.15387635 -0.05786796 0.057606153 -0.14161606
0003a0 63 d1 1f 3e 6f f6 3d be da 2b 2a be d7 a2 72 3d
       0.15607218 -0.18551038 -0.1661829 0.059237327
0003b0 f6 9c 90 bd bd 0b ee bd f8 a2 06 be 34 83 31 3e
       -0.07061188 -0.11623333 -0.13148105 0.17335206
0003c0 aa f8 99 bd a9 d6 3c be 2b c7 4a be 00 5f 44 bd
       -0.07518132 -0.18441261 -0.19802539 -0.04794216
0003d0 79 d9 29 3d 0a c2 39 3e 04 80 ad 3d 1b 83 39 be
       0.041467164 0.18140426 0.08471683 -0.18116419
0003e0 04 b5 e5 3d f3 a4 b7 3d 28 1c 25 be 1b 9a 35 be
       0.112161666 0.089670084 -0.16124022 -0.17734568
0003f0 3c 42 0a bc af d1 6a be ec f7 92 bc 22 2c bb 3d
       -0.008438643 -0.2293155 -0.017940484 0.09139277

embedder.res_block.3.bias f4 [32]
000000 62 f8 48 bd e0 2e 26 be a9 47 d3 3d 5d a7 25 be
       -0.049065 -0.16228819 0.103164025 -0.16177125
000010 94 94 d1 3d 88 8e cc 3d 16 66 3f 3e ea bd b5 3d
       0.10233417 0.09988123 0.18691286 0.08874114
000020 1a 94 e5 3b 47 06 aa 3d 96 af 2f 3e ae 00 e4 3c
       0.0070061805 0.083019786 0.17156824 0.027832355
000030 7d 05 ca 3c 8c 7d 7d 3d a0 e0 5f 3c df 2b af bd
       0.02466082 0.06188731 0.013664395 -0.085532896
000040 fc e1 b9 bd 5e 3f 91 3d 62 5b 6e bd d1 27 f4 3c
       -0.09076306 0.070921645 -0.05819262 0.029804142
000050 7a c4 68 3c af d5 10 3e 9f 6e ae 3d 8d e3 8c bc
       0.014207 0.14144014 0.08517193 -0.017198348
000060 04 07 ec 3d e0 6a 39 3e 1f bd 38 be c3 5c 31 bd
       0.115247756 0.18107176 -0.18040894 -0.043301355
000070 76 98 8f bd 84 61 d0 3d 3f 24 fa bd 52 8d 95 bd
       -0.070115015 0.1017485 -0.12213945 -0.07302345

cnn_blocks.0.proj_in.weight f4 [16, 32]
000000 1a 27 35 3e a7 d6 e0 bc 72 22 05 3e 22 73 d9 3d
       0.17690697 -0.027446104 0.13001421 0.10617663
000010 4c 0c b8 3d 7f 52 fb 3d b1 04 d0 3d 54 dd 33 3e
       0.089867204 0.12271594 0.10157145 0.17564899
000020 f2 3c 82 bd 80 5b 3a 3d d3 a5 dc bd fe b9 47 be
       -0.06359281 0.045497417 -0.10773816 -0.19504544
000030 5d 18 e2 bd 6e 99 ee bd 86 98 78 3d e0 1c d9 3d
       -0.11039803 -0.11650358 0.060692333 0.106012106
000040 54 5f 73 3d be 45 66 bc 25 d0 5d 3d 93 3a ce bd
       0.059417084 -0.014054714 0.05415358 -0.10069766
000050 bd 95 95 bd 4c 98 07 be 04 e0 b4 bc 88 e5 93 bd
       -0.07303951 -0.1324169 -0.022079475 -0.07221514
000060 3a 84 26 3e 73 df 37 bc a8 05 b2 3d a8 34 26 3c
       0.16261378 -0.011222708 0.08692485 0.01014439
000070 de 2e 95 3d cf 88 51 3c f4 29 ba bc 21 43 3b bd
       0.0728433 0.012788965 -0.022725083 -0.045718316
000080 a4 d7 10 be bc 07 be bd fd 82 21 3e 6d 27 a1 3c
       -0.1414476 -0.09278819 0.15772624 0.01967212
000090 c1 99 eb bd ea 15 b7 3d 4a 5a 84 3d 9c 0d cd bc
       -0.115039356 0.08939727 0.06462534 -0.025030904
0000a0 a3 3c 3a 3e 5c 4b 9e 3d f3 c3 e7 3d d0 d4 1c be
       0.18187194 0.077292174 0.11316671 -0.15315557
0000b0 0a c6 9c 3d 22 6a 65 3e d3 5b a9 bd 83 88 55 be
       0.076549605 0.22403768 -0.08269467 -0.20852856
0000c0 a5 86 f6 3d be aa ff 3d b3 6d f5 bc 24 87 1e be
       0.120374 0.12483738 -0.029959535 -0.1548124
0000d0 a7 9c 76 3d 06 03 77 be b3 e9 e0 bd 14 c0 8c 3d
       0.06020799 -0.24122247 -0.109820746 0.068725735
0000e0 ae 45 9a bd 61 e4 87 3c fd 1b 44 be 44 3b a1 bb
       -0.075328216 0.016588392 -0.19151302 -0.004920395
0000f0 66 5d 17 be d0 f8 96 bd 6e 9b 2b 3e 86 ec 18 3e
       -0.14781722 -0.07371676 0.1675851 0.14933977
000100 a9 08 46 3e df e5 53 bd c1 ac 16 3d ea f5 a3 bd
       0.19339241 -0.051732894 0.036785845 -0.08005889
000110 64 3a 03 3e 32 d8 2d 3e 1d 22 1b 3e 02 ec 2f 3c
       0.12815243 0.16977003 0.15149732 0.010737421
000120 c7 59 53 be 65 a0 df bd 14 fe 39 3e 36 73 ff 3d
       -0.20639716 -0.10919265 0.1816333 0.124731466
000130 b4 ec 52 be f6 b3 92 3d 82 31 d8 bd 5a 3a 22 bd
       -0.20598108 0.07163231 -0.10556318 -0.03960643
000140 76 4b a7 bc f2 e4 a3 3d af 38 d0 3a 01 02 24 3e
       -0.020421725 0.08002652 0.0015886034 0.1601639
000150 cb 44 56 bd c9 e8 43 3e 97 70 91 3d 64 29 74 be
       -0.0523117 0.19131769 0.07101553 -0.23843914
000160 05 28 59 bd 5d f5 5b 3d 91 8f ce 3c 5f 4f 0e 3e
       -0.05301668 0.053700794 0.025214942 0.13897465
000170 9b 46 31 be 2c ca 50 3e 4f 85 05 be 17 fd ae bd
       -0.1731209 0.20389622 -0.13039134 -0.08544367
000180 c1 17 28 be 52 14 86 3d f0 29 01 3e 5e d4 de bd
       -0.16415311 0.065468445 0.12613654 -0.108803496
000190 59 c0 b5 3d 57 31 1f 3a 17 a9 a2 bb b5 04 ae 3d
       0.08874578 0.0006072721 -0.0049640047 0.084969915
0001a0 89 d1 66 3d cf 3d 0e be df 4a 22 3e dc ab 94 3c
       0.056352172 -0.13890766 0.15848874 0.018148355
0001b0 01 21 13 3c 48 be 10 bd 63 8a 0e be 9e 8a 15 bc
       0.008980037 -0.035337716 -0.13919978 -0.009127287
0001c0 27 20 f2 3c a8 38 21 bd bb 59 c9 bd cb 66 f7 bd
       0.029556347 -0.039360672 -0.09831568 -0.12080153
0001d0 5d 94 2f 3d 4c b9 c6 3d da f1 4e be 4e 29 ac 3d
       0.0428661 0.09703311 -0.20209447 0.08406316
0001e0 c9 68 9d 3d 97 60 4a bd df b4 3a 3d 76 24 0d bb
       0.07686002 -0.04940852 0.04558265 -0.0021536625
0001f0 0a 68 23 bd dc ca a7 bd fb b4 14 3d 1a 86 ea bd
       -0.03989414 -0.08192989 0.03630541 -0.11451359
000200 aa ea 67 be 5a 2c a6 bd ea 23 e8 bd 5e d0 7c 3c
       -0.22648111 -0.08113928 -0.11334975 0.015430538
000210 41 81 98 bc 29 2b 0b 3e 46 90 02 be 52 bd 14 be
       -0.01861632 0.13590683 -0.12750348 -0.14525345
000220 e9 54 94 3d bf 85 8e 3d 29 05 33 be 11 e8 ad 3d
       0.07242758 0.06959104 -0.17482437 0.08491529
000230 31 76 cf bd f0 c3 e6 bd ce 10 0a be b1 79 26 bd
       -0.10129965 -0.11267841 -0.13482973 -0.040643398
000240 6f a5 8d bc ce 37 8c 3d 79 bf d1 bc 5d ec 9c 3d
       -0.017290799 0.068465814 -0.025603997 0.0766227
000250 bd f4 18 3e 86 22 f2 bd 6a 97 79 3c a1 2d 5a bc
       0.1493711 -0.11822991 0.015233854 -0.013316543
000260 6a 8d 72 bd d7 2f 8d 3c 26 75 38 3e db 26 46 bd
       -0.059216894 0.017234726 0.18013439 -0.0483769
000270 8e 62 cb 3d 3b 22 85 3e 7e 28 64 bd 35 5e 99 3d
       0.09930907 0.26002678 -0.05570268 0.07488672
000280 19 2e 29 be aa 05 d0 bc ff 7a 7f 3d e6 c1 ef bc
       -0.16521491 -0.025393326 0.062373158 -0.029267263
000290 72 de 4c bd 1b 00 2f 3d 4c 96 aa bc d0 d4 1f be
       -0.050016828 0.04272471 -0.02082362 -0.15608525
0002a0 cd 2d b5 bc 04 98 1d bd db 04 c1 bd 26 a9 33 be
       -0.022116566 -0.03847505 -0.09424754 -0.17544994
0002b0 7b 70 6c 3d 08 d4 ee bd 06 fd a2 bd 27 3a 43 3e
       0.057724457 -0.116615355 -0.07958417 0.19065152
0002c0 b7 e6 86 be e0 45 34 bd 30 b5 56 bd e6 d7 ef 3d
       -0.26347896 -0.04401195 -0.052418888 0.11711101
0002d0 5e a0 04 3e 5b e7 d3 bc df de 91 bd f0 ac fa bc
       0.129518 -0.025867155 -0.071225874 -0.030600041
0002e0 97 8b b0 bd b2 0e b4 bb 1e c3 c5 bd ab e0 4e 3e
       -0.08620375 -0.005494916 -0.09656356 0.20202892
0002f0 0e 80 99 3d 2e b4 f6 3d bd f3 bf 3d eb d5 5e 3d
       0.074951276 0.12046085 0.09372661 0.054403227
000300 21 e6 58 3e ca f0 37 be 72 a8 f1 3d e3 ec 11 be
       0.21181537 -0.17962947 0.117997065 -0.14250521
000310 7c 1f 98 bd a0 65 bf bc db 0b 8c 3d a1 be 4f 3d
       -0.0742788 -0.023363888 0.06838199 0.050718907
000320 ff df 6c 3e e6 3f c6 bd 41 4f 17 bd f2 4e 86 3d
       0.23132323 -0.096801564 -0.036940817 0.065580264
000330 b3 68 96 bd 0c 7a b4 bd f3 44 b8 bb f5 d0 90 bc
       -0.073441885 -0.08812341 -0.0056234538 -0.017677763
000340 58 a6 49 3e 88 ca 97 bd 5e 4c b1 bd f4 2b 60 bd
       0.19692361 -0.07411677 -0.08657144 -0.054729417
000350 1d c0 6f 3e 56 77 b0 3d 12 bb b8 3b 85 21 4b be
       0.23413129 0.086165115 0.005637535 -0.19837005
000360 a6 78 87 3d 87 68 bc bd 62 a7 e0 3d e5 b9 4c 3d
       0.06614809 -0.091996245 0.10969426 0.04998197
000370 a7 82 ae 3d 3a d7 87 bd 0d 73 98 3a 64 a9 3c be
       0.08521014 -0.06632848 0.0011630967 -0.18423992
000380 b7 da 5f bd 2f 13 f5 bc 62 47 1c 3c c7 0c 98 3d
       -0.054651942 -0.029916374 0.009538503 0.07424312
000390 1c 9e 31 be 8a 97 8f 3c fb c1 f4 bd 53 34 0b 3e
       -0.1734547 0.017528314 -0.11951061 0.13594179
0003a0 21 af 54 be 4e 2b 2d bd 6b 31 8e bd cf 0c 2f bd
       -0.20769931 -0.042277627 -0.069430195 -0.042736825
0003b0 b8 ed 05 3e 21 5a d8 3d d9 ba a0 bd 3f a0 37 3e
       0.13078964 0.10564066 -0.07848138 0.17932223
0003c0 5e 76 a5 bd 23 3c 99 bd a8 a8 12 be 6b 83 d0 bd
       -0.080792174 -0.07482173 -0.1432215 -0.10181316
0003d0 b3 d6 8a bc f7 2f c7 bd 9f d7 a1 3d ca 52 b0 3d
       -0.01694808 -0.097259454 0.079024546 0.08609541
0003e0 9a 9b 06 be 7a d9 32 3c 91 61 8a 3d e9 2e 16 bd
       -0.13145295 0.010916108 0.067568906 -0.03666583
0003f0 b5 8d 89 3d 02 c6 0d 3e 20 75 ab 3d 58 7e 3e be
       0.067164816 0.13845065 0.08371949 -0.18602884

cnn_blocks.0.proj_in.bias f4 [16]
000000 e3 4f c2 bc 06 09 1d 3e 66 92 1e be ff 3b dc 3c
       -0.023719734 0.15335473 -0.15485534 0.026884077
000010 e7 51 f1 bd 19 2b c0 bd 79 f7 e4 3d 68 5a 1c be
       -0.117832 -0.0938322 0.11180014 -0.15268862
000020 52 42 f4 3d 33 50 1e be 2e 9e f6 bd 67 d5 22 be
       0.11926712 -0.15460281 -0.12041889 -0.15901719
000030 99 d1 6b 3c eb 3d 11 be a0 6c 89 bd 8d a1 01 3e
       0.014393234 -0.14183776 -0.06710172 0.12659283

cnn_blocks.0.convs.0.weight f4 [16, 16, 3, 3]
000000 12 38 59 3d a9 be 78 bd 4f 39 a1 3d 7f 42 94 bb
       0.05303199 -0.060728703 0.07872259 -0.0045245285
000010 7b e8 b0 bd 5c 7c 59 3d 29 88 0b 3c 71 3e 05 be
       -0.08638092 0.053097114 0.00851635 -0.13012101
000020 d7 9e 6b bd 50 67 09 3c be 06 eb bd 1d d5 e4 bd
       -0.05752453 0.008386448 -0.11475895 -0.11173461
000030 c6 42 b9 3d df 41 1d 3d b2 d6 d3 bd b7 4e 9e bc
       0.09045939 0.038392898 -0.10343684 -0.019324644
000040 4a e6 87 bd e4 21 09 be 88 23 90 bc f6 59 c5 bd
       -0.06635721 -0.13391834 -0.017595068 -0.09636299
000050 db e0 3b 3e a1 0f 2e bc f8 8e b0 bc a7 71 7f 3c
       0.18347494 -0.010623843 -0.021552548 0.015591062
000060 82 af aa 3d 29 3b 65 39 64 5c 51 3d f5 9b f8 bd
       0.08334257 0.0002186118 0.0511135 -0.121391214
000070 89 0a 99 3c 2c 67 ed bd d8 d2 a5 3d f3 d0 d9 bd
       0.018681781 -0.11591944 0.08096856 -0.10635557
000080 39 f4 17 bd 74 4c ad bc cd ac fd 3a 74 9e 07 be
       -0.037098143 -0.02115462 0.0019353867 -0.13244039
000090 c3 c5 96 bd 37 b3 84 bd bf df 54 bd 9d 91 68 bd
       -0.07361939 -0.06479495 -0.051971193 -0.056779493
0000a0 3f 40 a6 bd e6 77 6d 3d c2 61 8a 3d 8f b8 aa bd
       -0.08117723 0.057975672 0.06756927 -0.08335983
0000b0 ea 20 e1 3c cb e2 b2 bb e8 89 be bc 23 be 13 bd
       0.027481515 -0.0054591647 -0.023259118 -0.03607
0000c0 fa 8a bc bc fc 74 ff 3c e7 14 5b bd 23 18 bb 3d
       -0.023015488 0.031183712 -0.05348673 0.09135463
0000d0 f4 1c 4b be 67 7b ee 3c b9 c0 04 3d cf a5 67 3d
       -0.19835263 0.029111577 0.032410357 0.05655461
0000e0 d8 2e e9 bd 8e 6d 11 3d 5d 75 9b bd c4 13 ad 3d
       -0.11385888 0.03550487 -0.07590745 0.084510356
0000f0 01 84 09 3d 7e 39 0f bd ac e2 1f bd 24 0c 56 bd
       0.033573154 -0.03496694 -0.03903453 -0.052257672
000100 ca 76 28 bb d6 0b 8f 3c b8 b3 e6 bb 07 62 2d 3e
       -0.002570557 0.017461699 -0.007040467 0.16931926
000110 58 bf b9 3d 61 2c 97 3d e4 4b 8c 3c 2a 95 b8 bd
       0.09069699 0.073815115 0.017126031 -0.09012826
000120 7b f8 8f 3c 73 47 6a 3d 02 f6 ca bc 0e 46 cc 3a
       0.01757454 0.057197046 -0.024775509 0.0015584843
000130 88 a4 93 3d f8 57 df bd 55 92 04 bd d2 97 27 bd
       0.07209116 -0.109054506 -0.032366116 -0.04091627
000140 76 9c 62 3d 82 de aa 3a 21 5c 9e 3d 8a 2f 83 bd
       0.055324994 0.0013036283 0.07732416 -0.06405552
000150 26 e5 e5 3d 10 1b 94 bd c6 74 98 bd 9c 21 10 3d
       0.11225347 -0.07231724 -0.07444148 0.035188302
000160 5e 20 a7 3c 2a d6 0a bd 5d 10 4f bd 40 8c ea bc
       0.020401176 -0.03389565 -0.050552715 -0.02863133
000170 5c f8 7d bd 6b 1d e8 bc 6a df 01 be 0a a9 35 bc
       -0.062004432 -0.02833434 -0.12682882 -0.011087665
000180 4f c4 cf 3d f7 c0 12 bd 92 f0 56 3c 9a 11 84 3d
       0.10144865 -0.035828557 0.01311888 0.0644867
000190 0c ff 93 3d 56 6d 9d 3d 88 0c 59 bd dd 16 0f 3e
       0.07226381 0.0768687 -0.052990466 0.13973565
0001a0 d6 44 01 bd 6e f4 42 3c 12 82 99 bc 59 7f ea bc
       -0.031559788 0.011899097 -0.01873878 -0.028625177
0001b0 46 a7 aa bd 6c cd 3f 3d 1e 8f a9 3c c3 7b 13 bd
       -0.08332686 0.046826765 0.020698126 -0.0360067
0001c0 1d bf bc 39 b5 4d 00 3b 67 c6 f8 3c 04 96 91 bd
       0.00036000545 0.0019577567 0.030368043 -0.07108691
0001d0 a5 ef db bd 32 99 a2 3d 0b 05 0b 3a 0f d3 e8 bc
       -0.10739068 0.07939376 0.00053031807 -0.028420953
0001e0 a2 d1 e2 bd ad d8 7b ba 15 44 b7 bc 4e 6b 89 3d
       -0.110751405 -0.00096071773 -0.022371331 0.0670992
0001f0 f8 ef 79 bd 06 5f 33 3d e0 d5 23 3d 9d fb 96 3c
       -0.061019868 0.043791793 0.03999889 0.018430525
000200 13 10 19 3e 2b bd dd bc fe 37 ef 3a 4e bd a6 3b
       0.14947538 -0.027067741 0.001825094 0.005088485
000210 c1 9e 32 bd 6d 41 88 bd 2f 49 f0 bd 0d dc 29 3d
       -0.04360843 -0.06653104 -0.11732709 0.041469622
000220 95 e0 73 3d 17 71 a3 bd 39 38 84 bc e2 69 b2 3c
       0.05954035 -0.079805546 -0.01614009 0.021779004
000230 01 a6 10 3d b2 81 cf bd 90 ce 11 bd 12 55 2a bd
       0.035314564 -0.10132159 -0.035597384 -0.041585036
000240 f5 77 92 3d 91 3b 61 bc 2d 0b a0 3d 02 46 b7 bc
       0.07151786 -0.013747112 0.078146316 -0.02237225
000250 78 65 47 bd 06 46 fe bd fb 1d e5 3d 51 ed 44 bd
       -0.048680753 -0.124157 0.11187359 -0.048077885
000260 f8 50 95 3b dd 85 16 bd f5 89 98 3d aa e4 42 3b
       0.0045567714 -0.036748756 0.07448188 0.0029738345
000270 ae c2 fb bc 4c 04 3c 3b d1 79 20 bd 32 64 dc bb
       -0.030732479 0.0028689085 -0.039178673 -0.0067258114
000280 37 91 70 3d 7e 4d e9 3d 46 b6 ef bd 0d 07 6b bd
       0.058732238 0.113917336 -0.11704688 -0.05737977
000290 aa 31 01 3d c3 26 3c 3d ca ec 43 bd cf b0 9d bd
       0.031541504 0.045935404 -0.04783324 -0.07699739
0002a0 eb 83 bd bd 28 6a 2c be 56 fc 72 3c 06 fe f0 3d
       -0.09253677 -0.1683737 0.014830669 0.11767201
0002b0 e8 04 e5 3c c1 32 c9 bd 68 e2 33 bd 1b 7b 28 39
       0.027956441 -0.09824134 -0.04391709 0.00016067589
0002c0 99 c5 0a 3d 9d 42 03 be 2a 54 6e bb 16 6a 19 3e
       0.03387985 -0.1281838 -0.0036366084 0.14981875
0002d0 54 e4 ba bd f6 6e 8c bd 6a 8d 96 bd 22 0a 8e 3d
       -0.091255814 -0.068571016 -0.07351191 0.069355264
0002e0 14 e8 8c bd 35 c1 14 3d 48 de 30 3d ff a9 09 bd
       -0.06880203 0.03631707 0.043180734 -0.033609387
0002f0 06 a3 c7 bd 39 bc d7 3c 12 0f 80 bc 5a 83 68 3d
       -0.09747891 0.026334869 -0.015632186 0.05676589
000300 15 6d 25 3e 38 8e 81 bd 0d b7 c1 3d 3c 14 01 3d
       0.16154893 -0.06325954 0.09458742 0.031513438
000310 ef 0f 83 3d d3 04 b1 bd eb b5 61 3d e0 59 28 3a
       0.063995235 -0.08643498 0.05510513 0.0006422084
000320 ca 91 15 bc e2 ff b5 3d 48 e6 7d bc 34 41 56 3c
       -0.009128997 0.088866964 -0.015496798 0.013077069
000330 81 67 50 bd e6 24 d7 3c 42 db d7 bb 5b b0 83 bc
       -0.05087996 0.026262712 -0.006587417 -0.016075304
000340 37 30 1e bc 58 47 b4 3d ae 68 32 bc 54 64 3b 3b
       -0.00965505 0.0880267 -0.010889215 0.0028593736
000350 23 35 35 bd fb 2c d8 3d 7b a2 4a 3e 41 b0 20 bd
       -0.04424013 0.10555454 0.19788544 -0.03923059
000360 e4 d7 b0 3c 48 2f 32 bd 07 78 f7 bc 88 a8 78 3d
       0.02158732 -0.043502122 -0.0302086 0.0607076
000370 3b a0 68 ba a4 7c a9 3d d4 c9 53 bb 40 73 30 3d
       -0.0008873974 0.082757264 -0.0032316344 0.04307866
000380 af 0f 06 3e 6b af 02 bd ce e3 4e bd 68 de ef bc
       0.1309192 -0.031905573 -0.05051022 -0.029280856
000390 ef 60 8e bd 50 9c 87 bd fc c1 79 bb b7 30 13 3d
       -0.06952082 -0.06621611 -0.0038110008 0.03593513
0003a0 19 f2 40 3e 54 0c 88 3b e2 2b 80 bd 49 eb 7c bd
       0.18842353 0.0041518603 -0.0625837 -0.061747823
0003b0 4a 30 9b 3d 37 f5 19 3b 28 9e 3f ba a7 4b 18 3d
       0.0757757 0.0023492107 -0.0007309639 0.037181523
0003c0 a2 fb a9 3d e7 57 0b 3b ff 26 14 be 2a 5c 30 3d
       0.08299948 0.002126211 -0.14468001 0.043056644
0003d0 00 9d f4 bc 44 1f 02 bd 62 ce ed 3b cb d1 71 3d
       -0.02986002 -0.0317681 0.0072572688 0.059037965
0003e0 95 bc d5 3c 79 f8 fc 3d 46 c8 d4 3c c1 52 4e bd
       0.0260909 0.1235208 0.025974404 -0.05037189
0003f0 47 06 9b 3c a9 47 ae bd 74 c6 0e bd d6 ee bb bd
       0.018923892 -0.08509762 -0.03485723 -0.09176414

cnn_blocks.0.convs.0.bias f4 [16]
000000 c2 b7 8e bd a0 e7 81 3c cb 3c b1 bc 45 1e 8b 3c
       -0.06968643 0.015857518 -0.021635434 0.016982207
000010 78 cd b0 3d 5c d7 51 bc 40 ce f6 3c 02 c6 8e 39
       0.0863294 -0.012807693 0.030127645 0.00027231878
000020 a6 93 ca bc da 99 81 bd 92 92 1e 3d 10 5e 27 bd
       -0.024728607 -0.06328173 0.038714 -0.04086119
000030 c5 8e 5c 3d 4e b8 fa 3c b1 b8 a2 3d fa 95 8d 3d
       0.053847093 0.030605461 0.07945383 0.069133714

cnn_blocks.0.convs.1.weight f4 [16, 16, 3, 3]
000000 4e 56 df bb c3 3d e9 bc 67 a1 18 be 66 9e 0f 3d
       -0.0068157082 -0.028471833 -0.1490532 0.03506317
000010 3e 6f d1 bd 32 8a 0b 3d 96 fa 8c bc 0c 56 a4 bc
       -0.10226296 0.03406734 -0.017209332 -0.020060562
000020 d6 7d 80 3c a0 ae dc 3d 4a 3a 51 3d 80 50 17 be
       0.015685003 0.107754946 0.05108098 -0.14776802
000030 60 d9 99 bd 60 cb 26 3d 08 7c b7 3b 87 f4 eb bc
       -0.07512164 0.040721297 0.0055995025 -0.028803123
000040 58 d6 8b 3c 02 2b 8c bc 05 13 d2 3d 00 83 55 bd
       0.01706998 -0.017110351 0.10257534 -0.052126884
000050 c9 0e 32 3d bd 27 11 3c 7f 8d fe 3c dc 02 bc bd
       0.04347113 0.008859572 0.03107333 -0.09180233
000060 54 08 4a 3d 04 48 3d 3d 84 fc 02 be 1a f2 01 bd
       0.04932435 0.046211258 -0.1279164 -0.031725027
000070 6a cd 25 3c 34 f6 3d 3d fb 34 56 bc 58 fd dd bc
       0.010119775 0.046377376 -0.013074155 -0.027098343
000080 1d 39 23 bd ad 1d f5 bd 12 ee 84 bd 02 f4 38 bd
       -0.03984939 -0.11968551 -0.06490721 -0.04515458
000090 83 a7 6f be 5d 1f b8 3d 22 f8 cd ba 56 d6 80 bd
       -0.23403744 0.08990357 -0.0015714208 -0.06290881
0000a0 d4 ff 08 3d 28 57 53 be 96 9f ee bc 83 1b 4f be
       0.0334471 -0.20638716 -0.02912883 -0.20225339
0000b0 cc 7f 85 bd e2 5d a8 3d db 3f 9e bd eb 05 01 bd
       -0.06518516 0.08221032 -0.07727023 -0.031499784
0000c0 e5 38 d4 3d 46 66 f1 bc 26 10 53 bd 4f ea 17 3d
       0.10362414 -0.029467713 -0.051529072 0.03708869
0000d0 6d c0 2c 3c 6f 55 1d bd 60 92 36 3d 5b 14 e8 bd
       0.010543925 -0.038411554 0.044573188 -0.113320075
0000e0 30 07 3b 3e 06 f2 bd bd 70 10 b2 3d 64 0e 55 be
       0.1826446 -0.09274678 0.086945415 -0.20806271
0000f0 3a 75 4b bd e4 a6 d4 3c 46 b0 a2 bd ab e4 3e 3c
       -0.049672343 0.025958486 -0.07943778 0.011651198
000100 9f 3d 84 bd 37 af 6e bd 8f 6c 14 bd 46 7c a1 bd
       -0.06457066 -0.058272567 -0.036236342 -0.078850314
000110 3f 59 68 3c d0 05 db 3c ec 7c 14 be 17 37 3f 3d
       0.014181434 0.02673617 -0.14500779 0.046683397
000120 3c a1 4c bd 3c b4 a3 bd d9 7f 7b 3d f1 b9 2f 3e
       -0.049958453 -0.07993361 0.061401222 0.17160775
000130 90 3a 85 3d 4d 13 42 bd 31 b8 9d bd 94 4f 4f 3d
       0.065053105 -0.047381688 -0.07701147 0.050613
000140 1a 32 c0 3c 42 d2 ad bb 2d 83 1f 3d ca 02 10 3d
       0.02346139 -0.0053046057 0.03894346 0.03515891
000150 5f 21 88 bc 6a c9 6a bb c1 b2 d4 3d 33 2d 0a 3c
       -0.016617475 -0.0035825619 0.10385657 0.008433628
000160 5f 21 01 be 04 13 8b bd ec a1 3a bc 1b 4c 87 3d
       -0.12610386 -0.06790736 -0.011391144 0.06606313
000170 4f de 33 bd f8 3e ac bd 38 c3 52 3d 02 4f ad bd
       -0.043913182 -0.08410448 0.051455706 -0.08462335
000180 0f 2b 31 3d f5 2a 0d bd 01 19 0b be 3e e8 95 bb
       0.043253954 -0.034464795 -0.13583757 -0.0045748046
000190 aa ea aa 3d 42 3c 18 bc 98 e2 f7 bc 51 38 4a bd
       0.0834554 -0.00929171 -0.030259416 -0.049370114
0001a0 f9 b4 87 bd de 89 c2 3d 28 51 3a bd 6c b6 33 bd
       -0.06626315 0.09498952 -0.045487553 -0.043875143
0001b0 ba 6b 9c 3d 30 0e 6f bd 05 7e d4 bd a0 2b b8 bc
       0.07637735 -0.05836314 -0.10375599 -0.02248174
0001c0 32 59 62 3d 21 66 bf 3d 41 53 68 bc 46 b7 8b bd
       0.055260845 0.093456514 -0.0141800055 -0.06822066
0001d0 45 0d ff bb e3 bd 9c bd 5c 7a 02 bd 92 3d 70 3c
       -0.0077835643 -0.076534055 -0.031854972 0.014663117
0001e0 90 e2 4b bd 99 b2 f9 bd f7 40 d7 bc 52 b9 00 3d
       -0.049776614 -0.12192268 -0.026276095 0.031426735
0001f0 dd 90 33 3d 86 14 83 3d 5a 9e 9f bd 56 51 72 3d
       0.043839324 0.06400399 -0.07793875 0.0591596
000200 9a f4 b6 3c 5c 6f 25 3d b9 18 b6 bd f7 cb cf 3b
       0.022333432 0.040389404 -0.08891434 0.006341453
000210 b4 6e fb 3c b6 a5 95 bd f1 c0 e1 bc 1d 99 8a bd
       0.030692436 -0.073069975 -0.027557822 -0.06767485
000220 ed 4d c5 bc 3d fe 86 3b a2 89 97 bd f7 38 6a 3d
       -0.02408501 0.004119663 -0.07399298 0.057183232
000230 b5 38 9b bd 4e 49 23 bc 79 68 b4 3d 86 5b 99 bd
       -0.075791754 -0.009966208 0.08808989 -0.0748816
000240 27 65 75 bc f3 c0 1b 3d 33 28 e9 bd 24 fa d9 bc
       -0.01497773 0.038025808 -0.113846205 -0.026608534
000250 d3 db 98 3c c2 a9 1b be d6 c5 d3 bd 72 35 a3 bd
       0.018659508 -0.15201476 -0.103404686 -0.07969178
000260 33 c0 07 be e3 3c 8c bd 21 74 9d bd e2 30 3f 3e
       -0.13256912 -0.06847551 -0.076881655 0.18670991
000270 26 47 1f bd e1 26 6e bd b5 1b 0f be 67 98 6e bd
       -0.03888621 -0.058142547 -0.13975413 -0.05825081
000280 36 8b a2 bc 2e e4 15 3e 59 a5 30 3d a9 35 f5 bd
       -0.019841772 0.14637825 0.043126438 -0.119731255
000290 09 33 50 3d ab 01 34 3d c3 11 5f 3d 8d f8 a0 3c
       0.05082992 0.043946903 0.0544603 0.019649768
0002a0 2e de 6c bc 99 d7 1d 3d c9 db 1b 3b d1 64 37 3d
       -0.014457269 0.038535688 0.0023782125 0.04477388
0002b0 da 5d 97 bb 82 f0 b5 bc bc cc 56 bd da b1 31 bd
       -0.0046193423 -0.02220941 -0.052441344 -0.043382503
0002c0 ad 69 cc 3d 61 9b ab bd 8a 87 ae bc cf 9f e0 bc
       0.099810936 -0.083792455 -0.021304864 -0.027419953
0002d0 4b 36 a7 ba 8d 20 44 bc 8b f1 7f bc 34 7e 9e 3d
       -0.001275727 -0.011970651 -0.015621553 0.07738915
0002e0 82 8d 64 bc 0d 7c 7d bd 24 d0 4d 3e 66 f5 ca 3c
       -0.013949754 -0.061885882 0.2009893 0.024775218
0002f0 27 0f 97 bd 2a dc 97 3d 3e f5 0f 3e 73 a1 8e 3d
       -0.07375937 0.0741504 0.14058396 0.06964388
000300 8f bb 5f bc b6 00 22 3d dd 78 3a bd 45 d8 2d 3c
       -0.013655557 0.03955146 -0.04552542 0.010610645
000310 84 83 e9 bc e1 64 b1 3c c1 e6 1c bd e1 84 a5 bd
       -0.028505094 0.021654548 -0.038306 -0.08081985
000320 3c ab 67 bd 94 6f 9c bd 0f bc a0 bd b0 0f 94 bd
       -0.056559786 -0.07638469 -0.07848369 -0.07229555
000330 3d ba ee bc 59 ec 13 3e 2a 1e 63 bd d0 54 14 3d
       -0.02914154 0.14445628 -0.05544869 0.036213696
000340 e2 0b 21 bd 5b 37 90 3c 1e e9 4d bd 89 48 94 bd
       -0.039317973 0.01760452 -0.050271146 -0.072403975
000350 47 f8 a0 bd 50 67 ba 3c c3 89 d5 3b 7c 45 b4 bc
       -0.07859855 0.022754341 0.0065166666 -0.022005789
000360 3a cd 7e 3d 51 06 4b 3e 59 9b dc bd e1 61 14 bd
       0.062207438 0.19826628 -0.10771818 -0.036226157
000370 1c ce e7 3b 02 30 35 bc 08 b5 b3 bd de 16 fc bb
       0.0070741307 -0.011058809 -0.08774763 -0.0076931557
000380 65 ba 3c 3d c1 d8 f8 bc 96 2d 34 bd aa 08 2c be
       0.046076197 -0.030376794 -0.043988787 -0.1680018
000390 a9 c0 ff bc d1 de 83 bb 66 1c 0d bd 4d 19 45 bd
       -0.031219797 -0.0040243645 -0.03445091 -0.04811983
0003a0 e7 fe 01 3d 22 4a d2 3d e3 43 43 bd dc 27 3d bc
       0.031737234 0.10268046 -0.047672164 -0.011545148
0003b0 ad a9 d3 3d 27 c6 32 bd 72 5c 8e 3d ec 06 23 bd
       0.103350975 -0.043646004 0.06951226 -0.039801523
0003c0 bb a4 95 bd 24 fb 23 3e 9f b3 f7 3d ef 3e 0c bd
       -0.073068105 0.16013771 0.12094807 -0.034239706
0003d0 4a ce 43 bd 72 dc be bd 2b 1b ac bd 81 a7 90 bd
       -0.047804154 -0.0931939 -0.084036194 -0.07063199
0003e0 3b 19 6e 3d 69 94 2a 3e 96 99 2f 3d a5 e2 4f 3d
       0.05812953 0.16658176 0.04287108 0.050753254
0003f0 70 d9 a6 bc 84 d2 20 be 1f 03 14 be 7a 35 34 bc
       -0.020367354 -0.15705305 -0.14454316 -0.010999078
