checkpoints/abl_rnn_only/best_model.pt (torch, 292187 bytes, 146 tensors)

embedder.feature_projections.0.weight f4 [32, 1]
00000000: 9362 923e 67a4 063f 1925 753e 9640 3e3f
00000010: 12de 93be 1911 71bf 8261 c1be 6ff5 07bf
00000020: c650 3ebf d21a 933f e15b 3abf 8b12 383c
00000030: 25c6 4b3f e348 50bf 579d 233f 5ae0 653f
00000040: 5c1a 7c3f 3e46 02bf da09 94bf 0feb 1b3f
00000050: 9cfe 123f c697 573f b1a8 23bf e6bb e7be
00000060: cb4b 7bbf b7ae 9bbe 072b e53e ee92 7d3e
00000070: f62f 783f 2a1b 363e 3461 32bf 31a9 88bf
0.2859083 0.5259461 0.23939933 0.743173 -0.28880364 -0.94166714 -0.37769705 -0.53108877
-0.74342 1.149256 -0.72796446 0.01123489 0.7959922 -0.81361216 0.63911957 0.8979546
0.9847772 -0.5088843 -1.1565506 0.60905546 0.57419753 0.8421596 -0.6392928 -0.45260543
-0.98162526 -0.30406734 0.4475939 0.2476308 0.9694818 0.177838 -0.6967957 -1.0676633

embedder.feature_projections.0.bias f4 [32]
00000000: 1ac6 383f 15f8 d83d 67fc 203f 9fe7 57bf
00000010: f36c 9dbe 425d ed3e 44b7 0d3f 6ff5 203f
00000020: 201a cfbe c1d9 a6be 1d3c ecbe 9205 5b3e
00000030: 3b2b ecbe 37a3 d5bd ba1e a83e 4a15 563e
00000040: 21dd 60be 8df0 343f 9f4d f43e d696 1b3d
00000050: 7658 20bf 4364 cc3e 0f42 723f 6b84 103f
00000060: 7013 e5bd 0cc7 073f f8b0 e73e d57e b33e
00000070: a095 d2be 48f7 74bf e8ed bbbe e7f5 acbe
0.7217728 0.10594193 0.62885135 -0.843378 -0.30747184 0.46360213 0.55357766 0.628745
-0.4044962 -0.32588008 -0.46139613 0.21388844 -0.46126732 -0.104315214 0.32835943 0.20906559
-0.21959354 0.7067955 0.4771547 0.037985645 -0.6263498 0.39920244 0.9463205 0.56452054
-0.11185348 0.53038096 0.45252204 0.35057703 -0.4112978 -0.9568982 -0.36704946 -0.3378136

embedder.feature_projections.1.weight f4 [32, 1]
00000000: 8b15 dbbd 8265 0a3f 04bc 6cbe ad72 2b3f
00000010: 4e15 23bf 35e5 1c3f 9a8e b4be d021 70bf
00000020: f28a 7d3e e3b3 e43e 6e32 96bd c6b0 e3be
00000030: 1fcc 303e 3798 4ebf 9a8c 963d 45a6 3abf
00000040: c33c 94be 4ba7 583c 9cad 283f c258 64bf
00000050: 1b9b 0a3f 7515 66be a127 433d 48a5 70be
00000060: d350 77bf 1f2e 5cbf 9b5a fe3e 279a be3e
00000070: b3bf 3ebf d624 f93e ebbc 2ebe e9f7 0b3f
-0.10697468 0.5406114 -0.23118597 0.66971856 -0.63704383 0.6128724 -0.35265046 -0.93801594
0.24760035 0.44668493 -0.073338374 -0.44470805 0.17265366 -0.8070101 0.07351036 -0.7290996
-0.28952608 0.0132234795 0.65889907 -0.89197934 0.5414292 -0.22469123 0.047645215 -0.2350055
-0.966077 -0.86007875 0.496785 0.37226984 -0.7451126 0.48660916 -0.17064254 0.54675156

embedder.feature_projections.1.bias f4 [32]
00000000: bc2b 84be c892 4bbe 9da6 d23e 91ec 1c3f
00000010: 2d7f c73d 94f1 173f d11c 5fbe bd39 473f
00000020: e85e a3be 2a15 773f 6f4f 003f cf75 1abf
00000030: ff60 e83e a233 a5be 1f40 4c3f eba1 35bf
00000040: b9c8 623e e908 0d3f 5d15 65be ef8b a5bd
00000050: 76ae 3f3f 83d0 923e 951e b73e e152 1e3f
00000060: 1078 433f 4a7e 3a3f b37c 093f 657c 98be
00000070: 083c 2d3f 30c8 13bf 51ed 4dbe 41d1 bdbe
-0.25814617 -0.19880211 0.4114274 0.6129847 0.09741054 0.59352994 -0.21788336 0.77822477
-0.31908345 0.9651667 0.50121206 -0.6033601 0.45386502 -0.32265955 0.7978534 -0.7095019
0.22146882 0.5509172 -0.2237143 -0.08083331 0.7487558 0.28674707 0.3576552 0.61845213
0.76355076 0.7284895 0.537059 -0.29782405 0.67669725 -0.57727337 -0.2011006 -0.3707371

embedder.stabilizer_embedding.weight f4 [8, 32]
00000000: d7f6 383f e57e f43e 0e63 64bf bcc0 7f3f
00000010: 916c d8bd 92f4 94be 5040 243f 3b96 193e
00000020: edf5 3c3f f7cf 48bf ab23 b43d 99dd ddbe
00000030: 0186 09be bf34 a13e 6178 ff3e 7671 b4bf
00000040: ba67 a1bf daaa 0dbd 567e 193f 20f0 b53d
00000050: ab46 c6be 64d2 2bbf 2010 d5be a1cc b43f
00000060: 5b55 a33e 9020 823d 2e2a 2d3f 1953 973d
00000070: 9f7b 27be 88c4 343f 509f ba3f 3058 83bf
00000080: a79e 283f 3760 23bf 7708 f33e e85e 03bf
00000090: 793f 1a3f 77c5 18bf c002 04bf 1c82 22bf
000000a0: 9e77 903f 9918 18bf 12b2 9bbe 088c 90bf
000000b0: 2c5d 2abf d617 91be ab40 233f 9fa9 893f
000000c0: 02a2 0b40 6900 ddbf b8a3 95bf 0f27 10bf
000000d0: 59f4 a63e 055b f7bf ecfc 48be e5bb 073e
000000e0: 79f8 a1be 76e7 29bf 350c 29bf 659b 78be
000000f0: 804e aebd 4b1d a03e f09a d63e 75a4 bdbf
00000100: 77bd 953f d08f 06be b784 3ebf 9b7e 9ebf
00000110: 73bc 4d3e 2250 0fbf 8d3f 603e f248 513e
00000120: c91d ec3f 8c84 babe 7d56 d7be 18ef b2bf
00000130: 50e6 873f 1ed8 343e 240f 553f 4860 a53f
00000140: bec2 483f 5dc7 0e3f cca1 fc3f 19b9 bbbe
00000150: 62d0 ff3d 77bc 81bf d139 b1bf 3711 6e3f
00000160: 6d16 20be e4b4 b33e b57b fa3f e72c 843f
00000170: 01b3 3b3d 9e86 fbbe 6722 f53e 930b b63e
00000180: 51f1 d1be 58da 893f dd0a a6bf 3e0d 103f
00000190: 1af8 5bbf 5152 e9bf d90d 5d3f c725 58bf
000001a0: 109a 8f3f 0b02 be3e 564a 78bd 98e0 53be
000001b0: 71ec 7cbd ddff ce3f da5a 52bf 55d7 fd3f
000001c0: a146 453e 13f4 80be 4093 053f 1b2e 863f
000001d0: db48 693f 9655 27be 0589 80bf a8c4 98bf
000001e0: f60e 7d3f a797 a8bf 1094 42bf 3079 8b3f
000001f0: 0a84 adbf eb0e ca3f 30dc 6b3e 3456 b1bd
00000200: b3ae 6cbe 320b f53f 4741 61be 2e46 a83f
00000210: 1a22 a4bc d871 30c0 8ed7 543f 85cf 8fbf
00000220: 226c 1b40 6663 14be 9dff fd3e b7dc f53f
00000230: 26d5 f13f 7b21 f6bf 59ab 9d3f 82bc 033f
00000240: 7247 883f 186e 0bc0 a642 c93e 5df4 fbbf
00000250: d7a1 983e feae d7bf 1f8a 00c0 5671 703e
00000260: 375a 4d3f d2ea 5fbf b193 e1be 7d98 0abd
00000270: 334b b3bf 0e89 0cc0 f120 c2be f60d a2be
00000280: e03f f83e 7d9b f23d 2e17 07bf c44c 45bf
00000290: f407 913f 7c43 9cbf 9aef 3fbf 7eda 4abf
000002a0: 8764 82bf 78b5 ff3d cfaa a33e f8ef 503f
000002b0: 9094 523f 13db 0f3f 0cba 30bf 74ac d13f
000002c0: 1128 d7bf 6ac0 79bf 311e 133f 5ad6 953f
000002d0: 8120 183f 9212 f5bf 8b83 603e 5f68 76bc
000002e0: ff79 793f 20a2 19be cb51 913e 8d57 023f
000002f0: bcac a1bf bf73 afbe d059 d5bd 6727 f1be
00000300: 44b0 92bf afbd 41bf be2a 12be 3a9f 76bf
00000310: cf42 22c0 e3d3 a93f 4bbd abbd 72a2 7ebf
00000320: fa3f e73e 2978 cf3e c295 9d3e a73d 8c3e
00000330: 24b6 d73f 6a88 0f3f 93fb 183e 7178 7b3d
00000340: 812d 813e 5dc7 acbd 3d82 4cbf 1fb7 19bf
00000350: 5daa d83f 2b03 a73d 68b5 513f 8e43 8abf
00000360: 2102 49bf d890 e3be a495 a53f 8898 4f3e
00000370: b914 903e 1e37 ee3c abb6 c93e 729f 3bbf
00000380: c693 c53f 07e8 f8bf f136 8d3f d67a 603e
00000390: 7d33 b8be f9af f23f edeb 203d 25d9 efbe
000003a0: c3ea 7cbe a9c4 edbe 0d5a bd3f f550 8b3f
000003b0: a5f1 3f3f 7c4d b63f 4a04 c6ba 29ee 893f
000003c0: 614b a4be 43c9 523d 77f0 4c3e a55b 973f
000003d0: 738d ad3f 26b5 23bf 4dfc 1640 2ad8 3dbe
000003e0: e3cd a7bf 32c7 2d3f 7a0e 953e f104 5b3f
000003f0: 7d56 343e d2de 83be 9811 863f f586 5c3d
0.7225165 0.47753063 -0.89213645 0.99903464 -0.105675824 -0.29092842 0.64160633 0.14998715
0.7381275 -0.7844233 0.087958656 -0.43333128 -0.13430025 0.31485555 0.4989653 -1.4097126
-1.260978 -0.034586765 0.599584 0.08883691 -0.3872579 -0.67117906 -0.41613865 1.4124948
0.3190106 0.06353867 0.67642486 0.073888965 -0.16355751 0.7061238 1.4579868 -1.0261288
0.65867084 -0.6381869 0.47467396 -0.5131669 0.602531 -0.5967631 -0.51566696 -0.6347978
1.1286504 -0.59412533 -0.30409294 -1.1292734 -0.6654842 -0.28338498 0.6377055 1.0754889
2.1817632 -1.726575 -1.1690588 -0.563096 0.32608297 -1.9324652 -0.19627732 0.1325527
-0.31634882 -0.66368806 -0.6603425 -0.24278028 -0.085110664 0.3127235 0.41915083 -1.4815813
1.1698445 -0.13140798 -0.74421257 -1.2382387 0.20091419 -0.5598165 0.21899243 0.20437983
1.844659 -0.3642925 -0.42058173 -1.3979216 1.0617161 0.17660567 0.8322623 1.2920008
0.78422153 0.55772954 1.9736876 -0.36664656 0.12490918 -1.013564 -1.3845769 0.9299502
-0.15633555 0.35098946 1.9569002 1.0326203 0.04582501 -0.49126142 0.4787781 0.35555705
-0.41004422 1.0769758 -1.2972065 0.56270206 -0.8592545 -1.8228246 0.86349255 -0.84432644
1.1218891 0.37110934 -0.060617767 -0.20691144 -0.061748926 1.6171833 -0.8216988 1.9831339
0.19265224 -0.25186214 0.5217781 1.048282 0.91126794 -0.16341242 -1.0041815 -1.1935015
0.98850954 -1.3171281 -0.76007175 1.0896358 -1.355592 1.5785803 0.23033214 -0.0865902
-0.23113517 1.9144042 -0.21997558 1.3146417 -0.020035792 -2.7569485 0.8314141 -1.1235205
2.428475 -0.14491042 0.4960908 1.9207982 1.8893173 -1.9228967 1.2317916 0.51459515
1.0646803 -2.1785946 0.3930866 -1.9683949 0.29810974 -1.6850278 -2.0084302 0.23480734
0.8021578 -0.8746768 -0.44057992 -0.03383683 -1.4007324 -2.1958652 -0.37915757 -0.31651276
0.48486233 0.11846063 -0.52769744 -0.7707026 1.1330552 -1.2208095 -0.7497498 -0.7923964
-1.0186929 0.12485784 0.31966254 0.81616163 0.8225794 0.56193656 -0.69033885 1.6380754
-1.6809102 -0.97559226 0.57467943 1.170604 0.594246 -1.9146292 0.2192518 -0.015039532
0.97451776 -0.15003252 0.28382716 0.5091484 -1.2630839 -0.34267995 -0.10417521 -0.47100374
-1.1460042 -0.7568006 -0.14274117 -0.9633671 -2.5353277 1.3267788 -0.08385714 -0.9946662
0.45165998 0.40521362 0.3077832 0.27390787 1.685246 0.56067526 0.14939718 0.06139416
0.2523003 -0.08436463 -0.7988623 -0.60045046 1.6926991 0.08154901 0.8191743 -1.0801866
-0.78518873 -0.44446445 1.2936292 0.2027303 0.2814081 0.029079016 0.39397177 -0.7329017
1.5435722 -1.9445809 1.1032392 0.21921858 -0.35976782 1.8959953 0.039287496 -0.46845356
-0.2469893 -0.46439102 1.4793106 1.0884081 0.74978095 1.4242396 -0.0015107479 1.0775806
-0.3208876 0.05146147 0.20013605 1.1824843 1.3558792 -0.63948286 2.3591492 -0.18539491
-1.3109707 0.6788207 0.29112607 0.85554415 0.17611118 -0.25755936 1.0474119 0.053839643

embedder.res_block.0.weight f4 [32]
00000000: a43d 903f 9d40 793f 8579 753f b126 8d3f
00000010: 67b4 823f cdbd 833f 978b 813f a6ca 7f3f
00000020: 57bc 813f 68ef 8b3f b8e6 953f 9ca4 843f
00000030: 5cc2 853f cde8 893f 877c 843f 4401 793f
00000040: 9368 843f eea5 803f ca64 8e3f 7122 873f
00000050: 0cee 803f 3ee8 883f b5e1 883f 1d2b 833f
00000060: 5c66 8c3f f267 803f 212f 833f b961 8c3f
00000070: 653d 8f3f 1680 843f 3d83 7a3f 9d11 823f
1.1268811 0.9736422 0.9588855 1.1027433 1.0211304 1.0292298 1.0120724 0.9991859
1.0135602 1.0932436 1.1711035 1.0362735 1.0449939 1.077417 1.0350503 0.97267556
1.0344414 1.0050638 1.1124508 1.0557386 1.0072646 1.0695875 1.069388 1.0247532
1.0968738 1.0031722 1.0248758 1.0967323 1.1190611 1.0351589 0.97856504 1.0161625

embedder.res_block.0.bias f4 [32]
00000000: 77e8 b23c 5537 483c 4785 2bbd 6ce0 26bc
00000010: 65e5 c63c 81d1 a93b a222 2f3d b9ac 28bb
00000020: 5389 ed3c 55bc fabc 3a0c ec3c 5c0d 2d3c
00000030: 7953 00bd 7773 88ba 7773 a03b 091e fcbc
00000040: a739 f73b 1bef e33c 8083 113c e9c5 f43c
00000050: a3d4 c3bc 3d0c 973c cc69 893c edfa 6d3c
00000060: 4350 ce3c c426 4fbb 391d 1e3b 5f3e 403d
00000070: 6adb 18bd ac47 5b3b 7599 d83c 5046 e63a
0.021839364 0.012220223 -0.04187515 -0.010185342 0.024279306 0.0051824455 0.042757638 -0.0025737716
0.028996145 -0.030607382 0.028814424 0.010562267 -0.031329606 -0.0010410388 0.004896577 -0.03077604
0.0075447145 0.027823975 0.00888145 0.029879527 -0.023905104 0.018438453 0.01677408 0.014525157
0.025184756 -0.00316088 0.0024126305 0.04693448 -0.037318625 0.0033459468 0.026440362 0.0017568562

embedder.res_block.1.weight f4 [32, 32]
00000000: a67f 14be c4ff 34bd 3569 143d 7639 99bd
00000010: 2005 0abe 192c 37bc 8007 d23c eac4 8b3d
00000020: f092 13bd 7ce5 2e3e ec26 5bbd bfeb 583e
00000030: 6652 403d 20fa 16be e712 36be 32a8 073e
00000040: ab30 1b3e 0e5f 393d 7805 a93d 7041 a2bd
00000050: 2c1a 1e3e ba44 c8bd 12ec 9cbb c6ff 913d
00000060: 75ab e9bd 2093 e0bc da18 a6bd eb5c b63d
00000070: 645f 403e 4e46 4ebc 117e 833c d6d9 d03d
00000080: a79e da3b 83d6 cf3c 4df5 153d 50d7 743e
00000090: ba46 a13d 5965 473d beef 1f3e 8b21 95bd
000000a0: 0f59 bbbc 80f8 a33c 0f7f 1fbd 6354 c939
000000b0: 25d8 dabd c39c 2abe 2702 23be deeb 1a3d
000000c0: dc2d 283c 7720 02be 262f b53d 79ba c13c
000000d0: 7bb0 4e3c 6f2d 9ebd aa43 41be 032d a83d
000000e0: 8973 1bbe cda7 d03d 93cf 073d 354c 993d
000000f0: 70e8 113e 1d2e d33d fd54 613d e4f0 a3bd
00000100: 9c31 b2bd f036 db3d 0335 0a3e 45f8 fcbd
00000110: e31d 023e e3c5 1f3d daf6 883d 22f5 873d
00000120: 5dbf 483c ac04 e73d 988b 64bd f3ed 40bd
00000130: 8a82 35be e232 8d3d 1383 933d 930e d23d
00000140: 293a e0bc ab89 d6bd c594 cb3c e8fd 82bd
00000150: c893 db3d 1717 42be 7709 543e 3951 e1bd
00000160: 20ca 02be 0cc6 023e ee3f e2bd 2cd8 2dbe
00000170: ea6e 34be d6a5 2abd 0614 11bd b0d7 0f3e
00000180: c6f5 c9bd b305 453d b06d e5bd 26cb 90bd
00000190: a011 b13c 87f6 673d c043 a83d dabd 873d
000001a0: 7854 753e 34ed 58be 73ec 21be c5f7 54be
000001b0: cb6d 0cbe b169 0bbe 2b0d 30be 5d31 82bb
000001c0: 2c8a 14bd 7b10 b9bd 5d05 d8bd e3b3 dc3c
000001d0: bd57 30be d886 00be 8b8c eb3d fc07 2c3d
000001e0: b259 c7bc 4f3a f3bc 4034 e7bc b83e cbbb
000001f0: 7074 623d ebd3 bbbd 4e23 103e ae88 12be
00000200: c3b7 fc3d bad7 173e 4c5a 3cbe 55c0 493e
00000210: d4b5 cb3c 804e 34be f0df 133e a34f 9e3c
00000220: 0131 623d a1b2 723e f31f cabd e224 42bc
00000230: a19a dabc ad4c 15be 0f60 413e 4f3f c3bd
00000240: 6590 1cbd 58b8 1c3d 5312 963c 06ea 4d3e
00000250: 1293 44bc 59b7 4e3e e9a4 313d 4fa1 0c3b
00000260: 1925 2abe b01b 413d 0ffa 463e 1914 4e3e
00000270: cbea 163d 739e bfbd d1cd 10bd d287 fabb
00000280: 8635 0f3e cd21 353e cf30 c4bd e15b 5d3d
00000290: 8471 0d3d 0b7c ea3d 4e43 0ebd 9369 2a3e
000002a0: e4ef 60bd 9c9e 14be 8762 573e 3dae 3d3d
000002b0: 29fc 2dbb a822 dd3d 9722 0dbe 7768 313e
000002c0: fc26 8d3d af44 f43c 5aa9 b63e f075 0dbe
000002d0: fe01 4b3e 88c0 31be acae 9abd f54f 1fbd
000002e0: 2b5a 623e 08a4 ccbd 6dae 1bbd 370c 373e
000002f0: fcfd f9bc 659d 60be 5ea1 d63d acdf afbd
00000300: 750b d83d 7cde 203d c73f 2dbc 601b 83bd
00000310: 9fa6 c9bd 23d7 bf3d 5e3e 923d 541a dc3d
00000320: e283 db3b ec0b b43d d53a c33d c1eb ea3d
00000330: 4a98 e63d 34ef 96bd 8b65 213e ef77 7e3d
00000340: 7473 783d 6001 1a3e 2610 313c 8868 423e
00000350: b4e0 b9bc b0b7 823e 3160 2cbd 2fe9 4dbc
00000360: a08c 3cbe 4814 eebd ff20 bdbd 7274 703e
00000370: 0d88 b93d 1d25 5e3d 574e 81bd 8e8d 08be
00000380: 2391 973d 8c61 4e3d 09c9 28be c662 f3bd
00000390: 075f e3bd 3173 a33d 8e46 593e 0495 fe3d
000003a0: 1e37 6a3b 2680 32be d164 253e 782f f23c
000003b0: d7c5 45bd f5aa 36bd 4ed3 34bc bf5b ee3b
000003c0: aec2 3cbd 81c7 d1bd 8a28 c13d e131 c4bd
000003d0: 9a96 e9bb 1190 babb fc00 cdbd 158e 5f3d
000003e0: 909e 8f3d 87d4 cdbc 0577 393e 47f7 db3d
000003f0: 7108 49be 389b f43d e982 2ebe 0624 eb3c
-0.14501819 -0.04418923 0.036233146 -0.07481663 -0.13478518 -0.011179947 0.025638342 0.06824668
-0.036028802 0.17079729 -0.053503916 0.2118368 0.04695358 -0.14743853 -0.17780648 0.13247755
0.15155284 0.045256667 0.08252996 -0.079226375 0.15439671 -0.097787336 -0.004788884 0.07128863
-0.11409656 -0.027413905 -0.08110209 0.089044414 0.18786389 -0.012590004 0.016051324 0.10197799
0.006671745 0.025370842 0.03661089 0.2391026 0.07874818 0.048680637 0.15618798 -0.072817884
-0.022869615 0.020015955 -0.038939532 0.0003840058 -0.106857575 -0.16661362 -0.1591879 0.037822597
0.01026484 -0.12707697 0.088468835 0.023648487 0.012615318 -0.077235095 -0.18873468 0.0821171
-0.15180792 0.101882555 0.033156943 0.074852385 0.14248824 0.1031153 0.05501269 -0.080049306
-0.087008685 0.10703838 0.13496785 -0.12352041 0.12706713 0.03900708 0.06687708 0.06638552
0.012252656 0.11280188 -0.05579719 -0.047101926 -0.17725578 0.06894471 0.07202735 0.10256686
-0.027371483 -0.10475477 0.024851212 -0.06396085 0.107215464 -0.1895412 0.20706736 -0.1100182
-0.12772417 0.12770861 -0.1104735 -0.16976994 -0.17620435 -0.04166206 -0.035419486 0.14047122
-0.09861331 0.04810114 -0.11202562 -0.070699975 0.02161485 0.05663159 0.08216047 0.06628008
0.23958004 -0.21184236 -0.15812854 -0.20797642 -0.13713758 -0.13614537 -0.17192523 -0.0039731697
-0.036264583 -0.090363465 -0.10547898 0.026941245 -0.1722097 -0.12551439 0.11501416 0.041999802
-0.024334762 -0.02969089 -0.028223157 -0.006202545 0.055286825 -0.091712795 0.14075968 -0.14309952
0.12339737 0.14828387 -0.1839382 0.19702275 0.024866976 -0.1760807 0.14440894 0.019325083
0.055222515 0.23700954 -0.09869375 -0.011849614 -0.026685061 -0.1458003 0.188843 -0.095335595
-0.038223643 0.03826174 0.018319285 0.20108804 -0.011997955 0.20187129 0.04337016 0.0021458452
-0.16615714 0.047145545 0.19431327 0.20124854 0.03684501 -0.09356394 -0.03535253 -0.0076455856
0.13985261 0.17688675 -0.09579622 0.0540427 0.034532085 0.114494406 -0.034732156 0.16641836
-0.054916278 -0.1451363 0.21033679 0.046308745 -0.0026548004 0.10797626 -0.13782726 0.17325006
0.06892201 0.029817907 0.3567608 -0.13814521 0.19824979 -0.17358601 -0.07552847 -0.038894612
0.22104709 -0.09992224 -0.038008142 0.17875753 -0.030516617 -0.21935041 0.10479997 -0.08587584
0.1054906 0.039274678 -0.010574288 -0.06401706 -0.098462336 0.09367206 0.07140802 0.10747209
0.0066990713 0.087913364 0.09532706 0.11470748 0.112595156 -0.07369843 0.15761392 0.062126096
0.06065698 0.15039587 0.010807073 0.18985188 -0.022690155 0.25530767 -0.042083923 -0.012567802
-0.18413019 -0.11624962 -0.09234809 0.2348192 0.09059153 0.054234613 -0.0631377 -0.13335249
0.074007295 0.050385997 -0.16482939 -0.11884074 -0.111021094 0.079809554 0.2121832 0.12430766
0.0035738419 -0.17431697 0.1615174 0.02956365 -0.048284378 -0.04459663 -0.011036707 0.0072741206
-0.0460841 -0.102431305 0.0943156 -0.09579826 -0.007128549 -0.0056934436 -0.100099534 0.05457886
0.07012665 -0.025125755 0.18111809 0.10740524 -0.19632126 0.11943668 -0.17042126 0.0287037

embedder.res_block.1.bias f4 [32]
00000000: 3731 af3d 42a6 58bd 57bc 41bd aefc ec3d
00000010: 6ae3 1b3e ef2b df3d 1e98 9b3d a4b8 98bd
00000020: da6c bcbd cc02 983d 3cfc 2a3e 92ee 043c
00000030: 6900 f9bc d68c 113e f637 e13d e022 2dbe
00000040: f948 ed3d 480b 533e fddd eb3b c4b2 03be
00000050: 2a67 03be 3885 7cbd 9efc d43d fe37 b0bd
00000060: ad11 033d 796a e83d 5ac9 043e c190 27bd
00000070: 132a d03c 2a27 f2bd 2b4a 69bd e057 18be
0.08554309 -0.05289293 -0.047298755 0.11571632 0.1522347 0.108970515 0.075973734 -0.074570924
-0.09200449 0.074224085 0.16697782 0.00811352 -0.030395703 0.14213881 0.10997002 -0.16907835
0.11586184 0.20609772 0.007198094 -0.12861162 -0.12832323 -0.061650485 0.103997454 -0.0860443
0.03199928 0.11348433 0.12967435 -0.040909532 0.025410688 -0.11823876 -0.056955498 -0.14877272

embedder.res_block.3.weight f4 [32, 32]
00000000: 65c5 f2bc 97b9 763c 5da6 1fbe 04c5 9cbd
00000010: 8f41 4f3d 327c ee3d daa9 973d 5f6f 62bd
00000020: ce12 2abe e53a dd3d 7b3d dbbd 3c80 1ebe
00000030: 396f b2bd 0db1 f33d 4992 dcbd db98 1fbd
00000040: 3591 1fbe d103 023e 8b86 97bd 9ce6 bd3c
00000050: 59c3 dbbc e8d9 b9bc 541a 2bbe 9d56 c7bb
00000060: a7ae ddbd 60c1 3a3c 7f87 203e f56a 6d3d
00000070: 4515 1cbe 9acc 68bd ef27 31bd 4e25 2ebe
00000080: 456c 99bc 0b74 05bd 814c 0fbe b519 153e
00000090: d110 4c3e 5566 3abe 109c 78bd 675e 5d3c
000000a0: f3a2 46bd 2ed6 71bd 6a9f 4abd 6b40 c73d
000000b0: fbe8 09be 1f80 95bc 45ea abbd 3908 0b3c
000000c0: d9ee 00be 8825 16be c4d3 5bbe 115c 2c3d
000000d0: e6c8 8d3d 8898 4a3e 09a5 94bd 958b ed3d
000000e0: e05b f93d 2139 5d3e d098 01be 967c 303c
000000f0: 2986 29be 4002 173e 7d77 fcbd 68fa bb3e
00000100: e1e8 fd3d 86f2 a13c 27e6 c13c 8a61 b13c
00000110: a2ff cf3d 004e 83bd ef59 493d c0f7 fa3d
00000120: e844 f3bd 0307 a2bd 65e7 42be c254 02bd
00000130: 3fee 683d 22d9 3abb fd05 47bd d9db 6fbd
00000140: c076 e9bd b552 28be f5ae 60be 5349 9dbc
00000150: 3599 743c 9e61 4f3e 6390 1a3c 7da2 eb3d
00000160: fabf 733d bac2 ef3c 7a67 0abe 3b32 fe3d
00000170: 8781 86bc ad03 f03d db4d 863d 79c1 883e
00000180: 70d8 853d f9b5 0b3e abc8 2c3e 12c8 d2bc
00000190: 8a60 8f3d c75b 0e3e a5eb 6bbd e3fd 11be
000001a0: bf9f 44be b030 bb3d c21c 0a3d 49b6 d0bd
000001b0: a8b8 d9bd ee97 a0bd 725c d3bb ebd2 f3bd
000001c0: 353c 323e 9578 df3d 761e 163e 850f 09be
000001d0: 031e 933d f852 77bd 05d1 fe3c 5fa0 ac3d
000001e0: 3142 40be 2924 913d 9e17 4c3d dce0 a3bc
000001f0: 377c e53d 9012 abbd f9d9 12be 7f7f 4abd
00000200: eda6 29be a7b9 263c b6ef 3a3e ab1d cfbc
00000210: 31fb 2f3e 53d6 59be 75b6 293d ca6e 233e
00000220: 4201 043e c3a7 09be 7496 96bc d6c6 513e
00000230: 12a8 b4bd 2acf ff3c 9955 2b3e 70ad 8fbd
00000240: 4719 0bbe d535 9f3d abe2 593d 5979 a33d
00000250: 1ef1 23be 7b74 313e b82d 8dbd 4115 2b3e
00000260: 3faa 15be fe67 89ba c4f6 173e 9864 09be
00000270: dbbe de3d 803f 913d 6a3f 5c3d 5b3f c0bd
00000280: 746b 07be 0a7d e93d 244f 0b3e 0ab2 c3bd
00000290: 0232 153e d558 803d 64cf 29be 40a6 113d
000002a0: 487a f03d 250f 0e3d 8953 13bd ff82 8a3d
000002b0: 2a3a 403e a16e 1abe 2b97 b33d a3ec ab3c
000002c0: b24a 3ebd af1c 643e 1e36 a83b 23a5 823d
000002d0: 3933 c1bd 856e 41bd 5454 c7bd 58ad 4ebd
000002e0: 4137 e4bd 8dab c63c d2e6 d8bd aeaf e83c
000002f0: d5fa bdbc b2bc 343d 5641 983c bde5 a4bd
00000300: 3c2e 8fbd 54f0 ec3c e7ff da3d 6e9a a63d
00000310: cc2b 633d 4180 d93d 0e09 49bd 827e 27bd
00000320: 45c5 a3bd 354c 9dbd 1fd2 b43d a4a8 23be
00000330: f5c8 473c 6d1e 91bc 06c0 383d d7f2 a4bb
00000340: dd5b 403e 4821 113e 8f29 95ba 6eaa f43d
00000350: 312d 083e 9856 c1bd 9fdd 1c3e 1f6a c2bb
00000360: 53d0 3e3e 10a2 0cbe 6c03 003e 2794 f6bd
00000370: c69a 1abd 62fb 933d dd8a 0f3e 8364 68be
00000380: da58 063d f073 8cbd 998b bcbd ee9b 503e
00000390: 7e4f 62be 1f31 693e 9459 6bbe b0ae 5b3e
000003a0: fced a93c 4c26 83bc 697f 263e 876f 9c3a
000003b0: 974f e93d 1b18 56bd fb2a 6fbc 3626 323e
000003c0: 49aa 663e 1455 703e 1915 633e b927 8a3e
000003d0: d6c2 9fbd dd5d 11be a39d 0b3e feea 113e
000003e0: cc88 55bd c963 f2bd bfeb 4e3e 6594 abbd
000003f0: 36e3 95bc 2c36 11be bdf9 62be ed1e 95be
-0.02963514 0.0150588965 -0.15590806 -0.07654765 0.05059963 0.11644782 0.074054435 -0.055281993
-0.16608736 0.10802249 -0.10705086 -0.15478605 -0.0871262 0.11899004 -0.10770089 -0.038964134
-0.15582736 0.12696768 -0.07398709 0.023181252 -0.026826547 -0.022686914 -0.16709262 -0.006083323
-0.10824328 0.011398643 0.15676688 0.05796333 -0.15242489 -0.05683575 -0.043250974 -0.17006418
-0.018728385 -0.03258137 -0.13994028 0.14560588 0.1992829 -0.18203099 -0.060695708 0.013511277
-0.048495244 -0.05904215 -0.049468435 0.097290836 -0.13467781 -0.01824957 -0.08394293 0.008485847
-0.12591113 -0.14662755 -0.21467501 0.04207999 0.06923084 0.19784749 -0.072580405 0.11598889
0.12175727 0.21603824 -0.1265595 0.010771891 -0.16555084 0.14746952 -0.12327478 0.36714482
0.12397934 0.019768964 0.023669316 0.021652956 0.1015618 -0.06411362 0.049158033 0.12254286
-0.11878377 -0.07911494 -0.19033583 -0.031819113 0.056867834 -0.002851077 -0.048589695 -0.058559272
-0.11399603 -0.164378 -0.21941741 -0.019200003 0.0149291055 0.20252082 0.009433839 0.115056016
0.059509255 0.029267658 -0.13516036 0.124119245 -0.016419185 0.11719451 0.065578185 0.26710108
0.06535423 0.13643636 0.16873424 -0.025730167 0.07000835 0.13902198 -0.057597775 -0.14257006
-0.19201563 0.09140146 0.03371883 -0.10191018 -0.106309235 -0.07841478 -0.0064502293 -0.11905464
0.1740578 0.10911671 0.14660057 -0.13384826 0.07183459 -0.06038186 0.031105528 0.08429026
-0.1877525 0.07086975 0.04982721 -0.020004682 0.11205333 -0.0835315 -0.14340962 -0.049437996
-0.16567583 0.010176099 0.18255505 -0.025282701 0.17185666 -0.21273164 0.04143377 0.15960231
0.12891105 -0.13442902 -0.018382289 0.20486006 -0.08821119 0.031226713 0.16731872 -0.070155025
-0.13583861 0.077739395 0.053194683 0.079821296 -0.16009948 0.1732959 -0.06893486 0.16707326
-0.14615725 -0.0010483263 0.14840227 -0.1341728 0.108762465 0.0709219 0.053771414 -0.09387084
-0.13224584 0.114008024 0.13604409 -0.09555443 0.14569858 0.06266943 -0.1658302 0.03555894
0.11742073 0.03468241 -0.035968337 0.06763267 0.18772188 -0.15081264 0.087690674 0.02098686
-0.046457954 0.22276567 0.0051334044 0.063791536 -0.09433598 -0.04722454 -0.09732881 -0.050458282
-0.11143351 0.024251724 -0.105909005 0.028404083 -0.023190895 0.044125266 0.018585842 -0.080516316
-0.069912404 0.028923191 0.10693341 0.08134924 0.05546169 0.106201656 -0.0490809 -0.04089213
-0.079966106 -0.07680551 0.0882914 -0.159823 0.012193908 -0.017714703 0.045105003 -0.0050338316
0.18785043 0.14172852 -0.0011380183 0.119465694 0.13298489 -0.094403446 0.15318917 -0.005933061
0.18634157 -0.13733697 0.12501305 -0.120399766 -0.03774526 0.07225682 0.14017816 -0.22694592
0.03279958 -0.06858051 -0.09206314 0.20371982 -0.22100636 0.22772644 -0.2298339 0.21453357
0.020743363 -0.016009472 0.1625954 0.0011935093 0.11392134 -0.052269083 -0.01459765 0.17397389
0.22525896 0.23469955 0.22176017 0.2698343 -0.07800834 -0.14195962 0.13634352 0.14249799
-0.052132413 -0.11835439 0.20207117 -0.083779134 -0.01829682 -0.14180821 -0.2216558 -0.29125157

embedder.res_block.3.bias f4 [32]
00000000: 4f52 94bd ac94 1c3e 2b6a 3d3b 726a 793c
00000010: 3781 243d 7f81 8fbc fb24 b0bd 1d43 dd3d
00000020: 988e 89bd d28f a4bd b2f2 33bb edc6 b2bd
00000030: fdcf 0b3d 8421 5b3b 47bf d53d 26e9 46bd
00000040: c87e 0c3d 0417 0a3e 6449 1a3e 246b bcbd
00000050: 37ff ab3d 4b93 dbbd 5b2a b13d 4bc8 38be
00000060: 322e d5bd 62cf 98bc ec46 ed3d 33e0 473d
00000070: f181 ef3d 13af 85bd 27f8 f73d e092 f2bd
-0.072422616 0.15291089 0.0028902392 0.015223132 0.04016229 -0.017517803 -0.086008035 0.108038165
-0.06716651 -0.08035244 -0.002745789 -0.08729348 0.0341339 0.0033436725 0.10436874 -0.04856219
0.034300596 0.13485342 0.15067059 -0.09200123 0.08398288 -0.10721453 0.08650657 -0.18045156
-0.10409202 -0.018653575 0.11585793 0.048797797 0.11694706 -0.065275334 0.12107878 -0.118444204

cnn_blocks.0.proj_in.weight f4 [16, 32]
00000000: f4fe 89bc f188 84bc b158 a73d 2b5a f13d
00000010: 77a7 28be dee8 833b 4c7d 273e 1ce3 d4bd
00000020: c547 803b 45d9 ecbc e541 813d 0e9e b53c
00000030: 3743 953d 4624 79bd 7953 ae3d 6d74 da3d
00000040: a0d1 d1bd 922f febd df1b 92bd e6f0 f73c
00000050: a538 9c3d 7b1b 22be 4155 60ba 4bd7 443d
00000060: a0a1 a1bd c50e 85bd 4936 d2bd 8f41 b4bd
00000070: 32fb 083d aa1c 7a3c 9502 1ebd 2a1a d23d
00000080: 4018 3bbd 8790 b63d 8f4a a23d 321c 223e
00000090: 2062 c33c 735d d1bd ee51 bc3b 95d9 843c
000000a0: 3a90 32be db17 1bbe ce8e d0bb 37c2 2b3c
000000b0: fc38 e93d 8836 093e a5d2 2ebe 7974 08be
000000c0: 1c05 08be 35ae fe3d 7ebe 49be 9377 32be
000000d0: 67f9 9dbd 4e53 0f3d a791 e5bd 8f4e 29bd
000000e0: f968 d33d ccc5 b3bc 7dcb 0abc 8d9e f53d
000000f0: 5c51 0bbe 7aa6 2e3e 1729 d2bd 67b7 da3d
00000100: 0c49 013e 19e3 28be 75bd 573d d731 8cbc
00000110: bd39 65bd 23e6 09be b5da 26bd af1b 2dbe
00000120: 55ff 21be c084 1abe 856d fa3d 5e1b c43d
00000130: f13f 24be c93a 023e df49 09be e379 4fbd
00000140: b732 5fbd dc56 823d 5455 00be 16b6 57bb
00000150: 230e 89bd 847f ca3c 99dc bc3d 9fb4 ffbc
00000160: e958 4ebe e723 26bc aed5 483d 2a95 823c
00000170: 5f00 2c3e 5530 9d3d 4474 233e 7de3 ba3d
00000180: bf7f c23d 1186 953d 8f7d bcbd 1ee1 eebc
00000190: 17fc 11be d7de b5bb 3b38 073e ae9e ee3d
000001a0: dd9b 3c3e 2a6b 663d 6205 4cbd 5afc 0abe
000001b0: 0ae9 4eb9 76dc 0a3e 8592 6bbc 7c88 b23d
000001c0: bc28 073e abb4 a43c afde 8f3d 1810 aa3d
000001d0: 57e1 b9bd df7e a73d e8dd 8ebc c870 fe3d
000001e0: 7216 273d ca9a 673d 6dd4 e6bd 0fec 10bc
000001f0: 6398 423d 61a5 ff3d f2fe c03d 771f f8bd
00000200: 7f74 cdbd 72fc 82bc 9f8d c2bd 7cfd 99bd
00000210: e95c 54be a74f 823d 6460 703d 36b7 21be
00000220: 1b49 5e3d 3e3a 23be 0d5c e9bd bb06 eebc
00000230: a9c3 02be ac0b 093b c9aa 3cbe a8b5 28bd
00000240: 2072 02be d7af 9b3c 40a7 23bd 4dab 2a3e
00000250: 2d7e a4bc 4bc8 243e 1f06 ce3d 4e1d 94bd
00000260: 99b4 0c3e e661 cc3d cb08 71bd d325 52bd
00000270: 9f4c bc3c e190 2a3d 91b7 d6bd 8c7c 843c
00000280: c6eb 77bd 5648 d6bd 8119 07bd 0984 0c3e
00000290: 3b5d 7dbd a439 f13d 78c5 edbd 67d2 4a3d
000002a0: 1050 81bd a269 80bd 1af6 ccbd 64b7 2bbe
000002b0: 70fc 0abe 8c9b 17be 9ebc 1c3e 906b 893d
000002c0: 4f02 b5bd 8604 28bd 138f c7bd 32e9 4ebc
000002d0: 33a1 92bd 137d 683b 75bd d93d bc12 19bd
000002e0: 0b65 2f3e 0ff8 c7bd 20df 683d 1569 0ebe
000002f0: 5710 3dbe b414 333e de9d b63d bb1b b23d
00000300: 78a3 21be 384e adbd 83f2 183e 1f64 873d
00000310: 4027 e63d 485f 7bbd 785b 083e d39b 20bd
00000320: 8993 3fbd ebf3 133e 1ffe ec3c 22db a03d
00000330: 85ff adbd 7bd1 1ebd 5ca5 523d 05c5 c13d
00000340: f9b1 043e ed45 bb3d 389e c6bd d1e9 f0bd
00000350: 4319 333e 5dae ff3d 7eb5 983c ada6 a2bd
00000360: 5821 d03d 8687 5cbe 6080 c3bd 281c b4bd
00000370: 0dd4 cfbd a6dd 9fbd 0a79 d63d 6a2a 563d
00000380: dc0f 913d 54f3 efbd c9b2 f9bc 33f1 1cbe
00000390: 65ff b7bd b52c f4bd ded8 17be 8b07 a33d
000003a0: c99e 5b3c 6ff1 aebd 47da 8c3d c943 893d
000003b0: 6d74 72bd fb3b 65bd e5de 83bd 2df1 4bbe
000003c0: 42b8 c83c 5a52 ef3c feb0 c4bd 7cf4 a2bd
000003d0: 28cc e53d 39f2 b33d 3352 43bc dd48 8c3d
000003e0: 3635 cbbd 8026 df3d d0a5 a9bd e09b 653c
000003f0: 2448 f23c 3caa c2bd 790d 223e 0578 febd
-0.016845204 -0.01617858 0.081712134 0.11784776 -0.16470133 0.0040255627 0.1635639 -0.1039488
0.0039148056 -0.028912196 0.063113965 0.022170093 0.07288211 -0.06082561 0.08512015 0.10666738
-0.10245061 -0.12411417 -0.07134222 0.030266237 0.076279916 -0.15830795 -0.00085576257 0.048056882
-0.07892156 -0.06496958 -0.1026426 -0.08801567 0.033442684 0.015265623 -0.03857668 0.10258897
-0.045677423 0.08914285 0.07924377 0.15831068 0.0238505 -0.10222902 0.0057470715 0.016217032
-0.1743783 -0.15145819 -0.00636468 0.010483316 0.11387822 0.13399708 -0.17072542 -0.13325681
-0.13283199 0.12435571 -0.19701573 -0.17428426 -0.07713585 0.034991555 -0.112094216 -0.041334685
0.10322756 -0.021944903 -0.008471367 0.11993132 -0.13605255 0.17055693 -0.102617435 0.106795125
0.12625521 -0.16492881 0.052670915 -0.01711361 -0.055963267 -0.13466696 -0.04073592 -0.16905092
-0.15820058 -0.15089703 0.122279204 0.095755324 -0.16040017 0.12717737 -0.13407086 -0.05065335
-0.054491725 0.06364223 -0.1253255 -0.0032914928 -0.066921495 0.024719007 0.09221763 -0.031214057
-0.20151104 -0.010140396 0.049031906 0.015940268 0.16797017 0.07675234 0.1596232 0.09125421
0.09497022 0.07300962 -0.09203636 -0.029160079 -0.14256321 -0.005550246 0.13205044 0.116513595
0.18418832 0.056254543 -0.04980982 -0.13572827 -0.00019732505 0.13560662 -0.014378195 0.087174386
0.13199133 0.02010568 0.070248954 0.08303851 -0.09076183 0.081784956 -0.017439798 0.12423855
0.04079289 0.056544103 -0.11270986 -0.008845343 0.04750861 0.124827154 0.09423627 -0.121153764
-0.100319855 -0.015989516 -0.09499668 -0.075190514 -0.20738567 0.06362849 0.058685675 -0.15792546
0.054268938 -0.15940186 -0.113945104 -0.029055944 -0.12769951 0.0020911498 -0.18424524 -0.041188866
-0.12738848 0.019004745 -0.039954424 0.16666909 -0.020079697 0.1609203 0.10059761 -0.07232152
0.13740768 0.0997961 -0.058846276 -0.051305603 0.022985755 0.041642074 -0.10484231 0.01617267
-0.060527585 -0.10463016 -0.032983307 0.13722242 -0.06185649 0.11778572 -0.1160993 0.04951706
-0.06314099 -0.06270148 -0.10007878 -0.16769177 -0.1357286 -0.1480543 0.15306327 0.06709969
-0.08838331 -0.04101994 -0.09744086 -0.01262884 -0.071596526 0.003547494 0.10631839 -0.037371382
0.17128389 -0.0976411 0.056853414 -0.13907273 -0.18463264 0.17488366 0.089168295 0.086966954
-0.15785015 -0.08462185 0.14936261 0.066108935 0.11237955 -0.061370164 0.13316143 -0.039211106
-0.04677156 0.14448516 0.028929768 0.07854296 -0.08496002 -0.038773995 0.05142723 0.094614066
0.12958516 0.09144197 -0.096981466 -0.11763347 0.17490105 0.12484429 0.01864123 -0.07941947
0.1016261 -0.21536073 -0.0954597 -0.08794433 -0.10147867 -0.07805948 0.10472305 0.052286543
0.07083103 -0.11716333 -0.03048076 -0.15326385 -0.089842595 -0.1192259 -0.14828822 0.07960423
0.013404557 -0.085421436 0.068775706 0.06702382 -0.059193064 -0.055965405 -0.06438998 -0.1991622
0.024501923 0.029214073 -0.09604071 -0.07956788 0.1122058 0.08786435 -0.011921453 0.06849835
-0.099222586 0.10896015 -0.08283579 0.014014214 0.029575415 -0.09505126 0.15825452 -0.12425236

cnn_blocks.0.proj_in.bias f4 [16]
00000000: 455b bfbd ab6c f3bd 4bdb 04be 06be e03d
00000010: 7efe 043d afcb 02be bf2f aabd 5dee 8c3d
00000020: 58e4 0fbc 2b6e 4a3d b693 813d 64d5 413d
00000030: 8e3b f03c 60f5 db3c c395 0abc 9d2b ae3d
-0.0934358 -0.11885961 -0.12974279 0.10973744 0.032469265 -0.12773012 -0.08309888 0.06881402
-0.008782469 0.04942147 0.06327002 0.047322646 0.029325273 0.026850402 -0.008458558 0.08504412

cnn_blocks.0.convs.0.weight f4 [16, 16, 3, 3]
00000000: 5f6c 23bc 5952 693d 7454 8e3b 3e9e 1dbc
00000010: 2fca 033d fa75 333d e212 3cbc 9c1e 873d
00000020: 13e7 8d3d 9df0 c13d dd81 c6bd ab16 44bd
00000030: 993a 55bc 668c 58bd ce56 f93c 6d08 7a3d
00000040: 4d66 62bd 207a 20bb 4485 753a 9945 063d
00000050: 1d39 b53d 991d 03bd 8924 9abd fdf4 c53d
00000060: 633b 2bbd ed6a 3dbd 30d0 b53c c42b 873d
00000070: 5210 b3bd cb5d 9f3d c8d2 70bc 6a7c 8abc
00000080: 7a06 2b3d 6f0d d73c 9421 133d 018d 48bd
00000090: 3d4a 9c3b b912 f9bd 93d7 da3d 6170 43bc
000000a0: 2330 d83c c0aa db3c b03d 19bd 2795 1dbd
000000b0: 453c 4a3c 0f2b c9bc 80cd 8c3d 1643 233d
000000c0: a148 ba3d ab45 45bc 2aad 97bd 98a8 3f3d
000000d0: 059c 073d 7a61 14bc 4215 46bd 3038 803d
000000e0: df4e e43c 9040 d13c 51be ae3d 1e1c 1f3d
000000f0: 7e45 cb3d c119 03bd d3aa 013c 3cfb 4dbd
00000100: 3e37 cf3d a7fd e93c 92ea ccbc f662 d5bc
00000110: e02d 74bb ed70 31bc 1325 c1bd 4eb9 6cbd
00000120: 9ea6 96bc 3854 8c3c 89cb 2dbd dff1 cabc
00000130: 00a6 9bbd b9fb a5bd 1a29 0f3d 1afd 97bc
00000140: b1d5 17bc 6432 7dbd aac8 a63d 79af a2bc
00000150: 0627 0c3d b3dc 9dbc a206 9dbd cba9 11bb
00000160: 6a5c 46bd 8ffd 743d 680a 0bbb 85d7 a43c
00000170: 9fd6 8cbd a9d4 743d 18e3 e1bb 8966 093d
00000180: 0b14 6a3d 408d 8a3d 74da 03bd 25d4 34bd
00000190: 4d95 9b3d 330c ccbc c1ac 8d3d 403a 97bd
000001a0: 714b f23d f898 d0bd 0b90 62bc 9620 82bd
000001b0: 04b2 a73d e998 553d c19c 03bd 4e82 1c3c
000001c0: 4a41 c8bc 500a e93a cfc9 04bd 4e2a fabc
000001d0: 5344 7a3c a8f9 183c 0bda 853d b37e 48ba
000001e0: 57ac 433d 41fa b1bc f5b9 9e3d c87d 2f3c
000001f0: 7560 d83c fe50 0f3d 5ce9 af3b c4c6 cd3c
00000200: 6693 00bd 0f0f 643d 59d7 303d 6f41 0abd
00000210: fe9c 88bd eeed 3a3d 23a0 133d d064 343d
00000220: 9ab9 ba3c af7a a4bc 63d6 c83d 478e 19bc
00000230: 49f2 813d 81d7 a5bd a5df 813d 1dfe be3c
00000240: ae60 1f3c addb 543d 98c5 953d e8fd 6dbd
00000250: eaef 193d 3747 a0bd 4a5c 34bd 4d0c 38bd
00000260: 84bc e3bb 0081 bc38 b791 a5bd 5326 0bbd
00000270: 338c 443d be1f c63c 6d7b 6ebc 9d27 023d
00000280: 97c9 a53c 5fc2 1fbd 52db 79bd f588 1abd
00000290: e978 babd 5c30 103d 9818 9abb 49c4 703d
000002a0: d252 6ebd 7dbc d9bb a881 863d 99a9 56bd
000002b0: 7dc5 963d e453 36bd 42c2 633d b9c0 ac3c
000002c0: 9f1d 573d ea9b 2e3b 6710 ddbc 8645 5f3d
000002d0: c436 9b3c ad2f 8e3d 49c2 8dbd cf30 93bd
000002e0: 3771 013c 725f de3b 4f0b 09bc 792f ae3d
000002f0: f064 66bd f344 fc3c a878 8bbb 2a9f bfbd
00000300: f8ac 943d dc10 cabb 5ed8 8ebd 184d 3f3d
00000310: 3fc4 ad3c a7b4 78bc 71c9 0b3d e107 b9bd
00000320: 02a4 71bd e1a8 28bc 0fc3 103d 3318 24bd
00000330: e039 bf3d 96ae b23d dd26 94bc 0263 6abd
00000340: 52e6 80bd dca4 f93c 6a2e 91bd be31 353d
00000350: a709 b4bd dd58 6b3c 3de3 083a 096b 0e3c
00000360: cde7 1ebd 9d68 7ebb 9d9d 3cbd 41f7 8b3c
00000370: a170 503c 5f08 a73d fc31 293d 052a 7d3d
00000380: 1f02 8e3d 5f54 943d ab17 83bd 5bb0 b53d
00000390: ba9a 84bd c524 61bd fa68 433d 655a 0e3d
000003a0: cedd 70bc 8151 593d 0f9b 533d 9310 a23d
000003b0: 5622 203c 2a97 563d 534b 93bc 71f9 0cbd
000003c0: 2c3a 553d 3c15 903b 3cf4 a7bd a917 573d
000003d0: 056f dbbc 4a93 843c 292c 8bbc 686a 193d
000003e0: 201f 223c ae29 15bd a969 1ebd 4ae8 313d
000003f0: 78b8 d63c b6b4 c83d 7207 1fbd 860c 103d
-0.009974568 0.0569633 0.0043435637 -0.009620247 0.03217524 0.043813683 -0.011479111 0.06597635
0.069288395 0.094697215 -0.09692738 -0.04787318 -0.013014459 -0.05286827 0.0304369 0.06104319
-0.055273343 -0.0024486855 0.00093658664 0.032781217 0.08848784 -0.03201065 -0.075265 0.096658684
-0.041804682 -0.04624455 0.022193998 0.066001445 -0.08743347 0.077815615 -0.014698692 -0.016905028
0.041754223 0.026251523 0.035920694 -0.048962597 0.004769592 -0.12161774 0.10685649 -0.011928649
0.02639014 0.026814818 -0.037412345 -0.03847232 0.012343471 -0.024556665 0.068751335 0.0398589
0.09095884 -0.012040536 -0.07406075 0.046791643 0.033107776 -0.009056443 -0.048360117 0.06260717
0.02786964 0.025543481 0.08532394 0.038845174 0.09925364 -0.032006983 0.007914263 -0.050288424
0.101179585 0.028563334 -0.025014196 -0.026048165 -0.003725879 -0.010830146 -0.094308995 -0.057793908
-0.018389996 0.017130002 -0.042430434 -0.024773536 -0.07600021 -0.08104653 0.034951307 -0.018553305
-0.009267257 -0.061815634 0.081437424 -0.019859063 0.034216903 -0.019270277 -0.07667281 -0.0022226449
-0.048427977 0.059812125 -0.002121592 0.020122299 -0.06876873 0.05977312 -0.0068935268 0.03354505
0.05714802 0.067652225 -0.032190755 -0.04414763 0.07596836 -0.02490816 0.06917716 -0.07384157
0.118307956 -0.101854265 -0.013828288 -0.063538715 0.08188251 0.05214778 -0.032131914 0.009552551
-0.024445195 0.0017779563 -0.032419022 -0.03053775 0.015275079 0.009336866 0.06535729 -0.0007648274
0.047771778 -0.021725776 0.07750312 0.010711141 0.026413182 0.03498935 0.005368395 0.025119193
-0.03139057 0.055678423 0.04317412 -0.03375381 -0.06670569 0.045637064 0.03604139 0.044041455
0.02279358 -0.020078031 0.09806516 -0.0093723005 0.0634504 -0.08097745 0.06341485 0.02331453
0.00972764 0.05196731 0.07313079 -0.058103472 0.037582316 -0.07826083 -0.044033326 -0.044933606
-0.006949963 8.988567e-05 -0.080844335 -0.033972096 0.047985267 0.024185058 -0.014555794 0.03177606
0.020237727 -0.039003726 -0.061000176 -0.03772827 -0.09105093 0.03520237 -0.004702639 0.058780942
-0.058184452 -0.006644784 0.06567699 -0.052407835 0.07361887 -0.044513598 0.05560518 0.021087991
0.052518483 0.0026643225 -0.02698536 0.054509662 0.018947013 0.06942687 -0.069218226 -0.07187044
0.007900528 0.0067862803 -0.008364513 0.085051484 -0.056248605 0.030794596 -0.0042563267 -0.0935653
0.07259554 -0.0061665606 -0.069748625 0.04670438 0.021211741 -0.01517979 0.034127656 -0.09034706
-0.0589943 -0.01029417 0.035342272 -0.04006214 0.09337211 0.08724706 -0.018084938 -0.057223327
-0.0629393 0.030474119 -0.07088931 0.04423689 -0.087909035 0.014364448 0.00052218494 0.008692511
-0.03879528 -0.0038819679 -0.04604875 0.017085673 0.012722165 0.081558935 0.041307434 0.06180765
0.06933998 0.07242655 -0.06400999 0.08871528 -0.06474824 -0.054966707 0.047707535 0.034754176
-0.01470132 0.053056244 0.051661547 0.079133175 0.009773811 0.052390255 -0.017980253 -0.034417573
0.05205743 0.0043970626 -0.08200881 0.0525128 -0.026786337 0.016183514 -0.01698883 0.037454993
0.009895116 -0.036416702 -0.038674984 0.04343442 0.026211008 0.09800093 -0.03882546 0.035168193

cnn_blocks.0.convs.0.bias f4 [16]
00000000: 1e11 8bbd 6574 99bd 8a1e 5a3d f13c 8ebd
00000010: db7e 9f3d a7a6 62bd f170 133d 251c 35bc
00000020: 407d 063d 770c 993d 546f 963c 87a5 363d
00000030: 32b0 a83c 8f48 af3d b15f 2d3d 7618 3f3d
-0.06790374 -0.074929036 0.05325178 -0.069452174 0.07787868 -0.055334713 0.03599638 -0.011054073
0.03283429 0.074730806 0.018363632 0.044591453 0.020591829 0.08558761 0.042327587 0.046654187

cnn_blocks.0.convs.1.weight f4 [16, 16, 3, 3]
00000000: 3383 8d3d 38a9 58bc e628 953d fe3f e13c
00000010: 01d8 5e3b a78b 463d a645 2e3c 0ccd 27bd
00000020: 1b10 ec3c 703f 083d 4450 193d c685 b63c
00000030: d136 873b 3f02 923d 6972 1cbc 669a 27bd
00000040: 4ab3 90bd 72cb 86bd e10c 10bb 5743 463c
00000050: 1955 b4bd f654 bc3a 8e19 82bd 82e5 32bc
00000060: 80d9 95bc 1c9c 97bc 8c45 493d fc6a 15bd
00000070: f260 6f3d 5152 80bd b59a 16bd f691 34bc
00000080: 0ef7 ce3c 7a90 d0bc 8953 67bd 1d13 a5bd
00000090: 159a a03d ad32 5f3c 8f2f 9cbd d8ed cebc
000000a0: 20b4 8bbd e1da 293d 1225 c13c e1ea 91bc
000000b0: cc41 d5bc 591e 763d 0b99 6bbd 330c 883d
000000c0: dd51 d73c f2e1 b4bc 3888 7fbd 443a b83c
000000d0: 0a43 ad3d 3d70 56bc 77a4 d73c 033c 54bd
000000e0: 7fe6 25bd 08f9 b8bc e84d 703d ac1c bb3b
000000f0: 3137 483d 849a 603d 5618 9f3d d2e5 413d
00000100: adde 353d 6240 99bd 2e8d 53bc f245 e13d
00000110: 77b7 8c3b 6f1a 673d 7d79 8a3d 5a8e 093d
00000120: 1818 f13b 5855 b43d 506f 463c 4a13 59bd
00000130: 8c98 313c 62ac c13b a1ba 943c 2cdb 45bc
00000140: 156b 2a3c 7be3 86bd c973 94bd 728d 4bbd
00000150: ef7f 043d 8af4 223d 2b33 98bd c414 6d3d
00000160: afd0 153d 963a dc3c c293 813d ca02 ac3b
00000170: 7024 88bd 0956 e43d a374 913d 7915 bc3d
00000180: ecbe 123d f134 f83d 184c d03d 33e9 2c3b
00000190: f514 733a 25f1 e8bc a0bc 74bd be88 483c
000001a0: cffd 13bd 61fd 7cbd e95a 80bd 6a03 3fbc
000001b0: 25c4 88bc 2856 963d 6fe6 f0bb ad85 933d
000001c0: 590e 1dbb 3430 04be f6e3 453d 16c5 873c
000001d0: 4d9f 6a3d a0c9 55bd e1b8 fe3c 1adc 20bd
000001e0: d794 9b3d a8bb 763d c96a 1f3d cd47 7cbb
000001f0: fbbb a13d 8758 263d b386 233b a7da 1d3d
00000200: 0008 cbbd 4b70 f23b 4ba3 bfbc ad6f 553d
00000210: 2700 6fbd 232e 87bd 8626 073d bdb8 36bd
00000220: 4a85 e4ba f37e 523d fad9 41bc c93c 98bb
00000230: 0d78 b4bd fcec 7cbd 8c1c c7bb 8b7a c7bc
00000240: 0296 1b3d cfd9 9fbd 1c65 c63c f211 51bc
00000250: a8be b3bd 057e 65bd 6003 afbc c64e 073d
00000260: 4923 4e3c c558 88bc 41a7 8fbc cdf5 243d
00000270: 1465 cf3b 9661 a03d ad86 a33d df3e 2dbd
00000280: b563 713d de0a aebd afbf 8a3d 600d 3b3d
00000290: d7dc 2dbd 2f31 af3a 732f 67bc 778d 73bc
000002a0: bbad 503d 2a80 9c3d 87e2 f13c 9b9c a4bc
000002b0: 8fad 5fbd ee70 d13b e72d b93d 1c26 c83b
000002c0: be96 81bd fdd1 d1bd d45e 77bd 0508 0ebc
000002d0: b524 7abd 7e77 5dbd b99c 4e3d e4b1 32bc
000002e0: 9823 12bd 8bba b1bc 1ac1 c4bc 0363 b13d
000002f0: 8206 a9bb 819f 3dbc 17bf b93c 29c5 233c
00000300: 7d0b 113d 2e3b ddbc 7b90 a7bd e0b9 8fbd
00000310: b96f 823d 2ee1 a6bc 627f e7bd cae0 f43a
00000320: 3af6 0dbc e8f5 9cbd 124b 203d 5553 4bbc
00000330: 3be6 0b3d d7f5 debc 776e 4b3d 5d0a f7bc
00000340: 3773 623d 5323 283d 7d87 523d 3745 183d
00000350: ae99 8abc 3160 8a3d 50d9 4bbb 0400 3cbb
00000360: 4dec c1bc 2cfc e63c f12c 9bbd 78ed 663c
00000370: d3ab 90bd 3028 8dbd f7aa d53d 3064 8dbc
00000380: 259d 783c 6411 8e3d 6d4a 32bd aeef 8abd
00000390: 9056 b4bc a4bc 50bd 7545 abbd 3594 a73d
000003a0: be60 0fbd b579 683d bed0 f7bb 6538 b3bd
000003b0: 2fa1 f23b 0723 6cbd 68a6 c0bd 6c6d 62bd
000003c0: 20ec 4a3c 8b02 7cbd de2b b43c b830 d0bb
000003d0: 868c 353c 72b6 98bd 356e 943c b4f4 563c
000003e0: b7f1 a43c 804b 283d 90f8 70bc f9f4 d23d
000003f0: 49af f4bc e146 adbd 70d0 9c3c ab33 9b3d
0.0690979 -0.013223939 0.072831914 0.027496334 0.003400326 0.048473027 0.010636723 -0.040967032
0.028816273 0.033263624 0.037430063 0.022280585 0.0041264077 0.07129335 -0.009548762 -0.04091873
-0.07065447 -0.06581773 -0.0021980333 0.012101016 -0.088052936 0.0014368582 -0.063525304 -0.010918977
-0.018292189 -0.018507056 0.04913859 -0.03647898 0.058442064 -0.062657006 -0.036768634 -0.011021128
0.02526429 -0.025459517 -0.05647615 -0.08060286 0.07841889 0.013622922 -0.076262586 -0.025259897
-0.068214655 0.041468505 0.023577247 -0.017812194 -0.026032351 0.060087536 -0.057519 0.06642952
0.026284153 -0.022080395 -0.062385768 0.02248872 0.08460052 -0.013088283 0.02632354 -0.051815044
-0.04050302 -0.022579685 0.058668047 0.005710205 0.04888076 0.054834858 0.077683136 0.047338314
0.044401813 -0.07482983 -0.012912078 0.10999669 0.0042943317 0.056421693 0.06761453 0.033583023
0.0073576085 0.088053405 0.0121115 -0.05299691 0.010839593 0.005910442 0.018155398 -0.01207618
0.010401507 -0.06586357 -0.07248647 -0.04969544 0.03234857 0.039783992 -0.074316345 0.05788113
0.03657597 0.026883405 0.06327011 0.005249356 -0.06647575 0.111492224 0.07102325 0.09183783
0.03582661 0.12119473 0.10170764 0.0026384115 0.0009272837 -0.0284353 -0.0597502 0.012239633
-0.036130723 -0.06176508 -0.0626734 -0.011658529 -0.016695092 0.07340652 -0.0073516886 0.07203231
-0.002396485 -0.12909013 0.048313104 0.01657347 0.057280827 -0.052194238 0.031094017 -0.039272405
0.07596748 0.060237557 0.038920198 -0.0038494945 0.078971826 0.04061177 0.0024952113 0.0385386
-0.09913635 0.0073986403 -0.023393294 0.052108455 -0.058349755 -0.06600597 0.032995723 -0.044609774
-0.0017434743 0.0513906 -0.011831755 -0.004645918 -0.0881196 -0.061749443 -0.006076401 -0.024350425
0.037984855 -0.078052156 0.024218135 -0.012760626 -0.08776599 -0.056028385 -0.021363914 0.03303411
0.012581655 -0.016643891 -0.017535808 0.040273476 0.006329188 0.07831113 0.07984672 -0.042296287
0.05893298 -0.084981665 0.06774842 0.045667052 -0.042446937 0.0013366098 -0.014110434 -0.014865271
0.050946932 0.07641633 0.029526962 -0.020094207 -0.054608878 0.006391636 0.09041958 0.0061080586
-0.0632758 -0.1024513 -0.06039317 -0.008668904 -0.061070163 -0.054069035 0.05044243 -0.01090667
-0.035678476 -0.021695396 -0.02401786 0.08661463 -0.0051582465 -0.011573673 0.022674127 0.009995737
0.035411347 -0.027005758 -0.08181854 -0.07017875 0.06368966 -0.020371046 -0.11303593 0.0018682715
-0.008664662 -0.076640904 0.039134093 -0.012410005 0.03415511 -0.027216835 0.049665894 -0.030156309
0.05528566 0.041049313 0.051398743 0.037175383 -0.016918983 0.06756628 -0.003110487 -0.0028686533
-0.023672247 0.028196417 -0.07576931 0.014094703 -0.07064023 -0.06892431 0.104329996 -0.017259687
0.015174185 0.06936911 -0.04352801 -0.067839965 -0.022013932 -0.05096115 -0.08362857 0.08182565
-0.03500437 0.056756694 -0.007562726 -0.08750991 0.0074044685 -0.057650592 -0.094067395 -0.055280134
0.012385398 -0.061525863 0.021993574 -0.006353464 0.011080867 -0.07456674 0.018118957 0.013119865
0.02013479 0.041087627 -0.014707699 0.10300631 -0.029868739 -0.08460785 0.01914236 0.07578214

cnn_blocks.0.convs.1.bias f4 [16]
00000000: b512 a53d 7d6a f73c 8177 afba f979 0b3c
00000010: 06ab fa3b dfa7 ab3c 3654 03bd 1204 ee3c
00000020: bd30 3cbd 327c 8abd 94c0 3bbd 28e4 853d
00000030: a844 22bd 31cd 7bbc 17ac 4a3c 7d55 013d
0.08060209 0.030202145 -0.0013387055 0.008512967 0.007649782 0.02095407 -0.03206273 0.029054675
-0.045944918 -0.067619696 -0.045837954 0.06537658 -0.039616257 -0.015368746 0.012370131 0.03157567

cnn_blocks.0.norms.0.weight f4 [16]
00000000: 99de 803f c44c 7e3f 790f 813f 0a5f 7e3f
00000010: d509 7c3f 8cb1 7c3f 2f5d 753f a2a1 7f3f
00000020: 3c61 8b3f 3bea 713f e8b0 863f 940a 7d3f
00000030: d655 7d3f 6fe8 7f3f ce9d 7b3f 695d 7c3f
1.0067931 0.99335885 1.0082847 0.9936377 0.984525 0.98708415 0.9584531 0.9985601
1.0889049 0.9449803 1.0522738 0.98844266 0.989591 0.9996404 0.98287666 0.9858003

cnn_blocks.0.norms.0.bias f4 [16]
00000000: 15fc 8dbc 28e3 8b38 eb37 1abb 2ed7 43bc
00000010: 58e4 18bc 0806 30bb 077d 68bd d603 42bc
00000020: b419 f53c 9e3b 2ebd 4ece 1bbc 7e8e e6bb
00000030: 35bf 143a 8f36 bdbc 362a 28bd 2045 d2bc
-0.017332116 6.670348e-05 -0.0023531865 -0.011953158 -0.009331785 -0.0026859064 -0.05675986 -0.011841735
0.029919483 -0.042537324 -0.009509636 -0.0070360294 0.0005674244 -0.023097305 -0.04105588 -0.025667727

cnn_blocks.0.norms.0.running_mean f4 [16]
00000000: dfd4 0abe 39f6 aebc fc91 5abd 3a06 6d3d
00000010: 35bb b93d 496b 1bbe 75c1 dabd c40c 47ba
00000020: 7810 d1bc d67a 2cbd d4d6 fd3c 8ea4 283e
00000030: 932a 863d 266b c63d 53ea 9abd 9e4e 55bc
-0.13557766 -0.021357642 -0.053361878 0.057867266 0.0906891 -0.15177645 -0.1068143 -0.000759315
-0.025520548 -0.042109333 0.030986227 0.16469023 0.06551089 0.09688406 -0.07564225 -0.013019232

cnn_blocks.0.norms.0.running_var f4 [16]
00000000: 1816 bf3c 4a66 133d bc4b d73c f50c ee3c
00000010: 84e5 f63c 68ab b23c 1a4a 0d3d 20a0 733c
00000020: b8cf e33c a328 0f3d 84ba e93b 1403 033d
00000030: 2730 1b3d 57ee bf3c b1c0 1b3d 64a1 203d
0.023325965 0.035986222 0.02628123 0.029058913 0.030138738 0.021810248 0.034494497 0.01486972
0.027809009 0.034950864 0.00713283 0.031985357 0.03788772 0.023429079 0.03802556 0.039216414

cnn_blocks.0.norms.1.weight f4 [16]
00000000: ca0e 863f 9a42 7d3f 80bf 853f 422e 7a3f
00000010: a3f9 7e3f 44c5 7c3f 271e 813f 164a 823f
00000020: 584d 803f f609 823f bdf9 853f ec32 7f3f
00000030: f096 7f3f 4f20 773f 9c60 743f 3703 823f
1.0473263 0.9892975 1.0449066 0.97726834 0.99599665 0.98738503 1.0087327 1.0178859
1.0023603 1.015929 1.0466839 0.99687076 0.9983969 0.96533674 0.95459914 1.0157231

cnn_blocks.0.norms.1.bias f4 [16]
00000000: b46f ef3b fb7b d7bb 45d1 ae3c 03d2 453c
00000010: 3421 1dbb a080 dbba 999d ea3b 561b a73b
00000020: 528a 79bc 6446 43bc a887 2a3d 55fb 5e3a
00000030: 1d78 89bb 7948 a5bc bf03 8ebc fae5 2cbb
0.007307017 -0.006576059 0.021340022 0.0120739965 -0.002397609 -0.0016746707 0.0071599004 0.0050996942
-0.015230732 -0.011918638 0.041633278 0.00085060793 -0.004195227 -0.02017616 -0.01733577 -0.0026382194

cnn_blocks.0.norms.1.running_mean f4 [16]
00000000: f708 a13e 0679 4bbe 8039 afbd e499 9ebd
00000010: 2ac3 403e 41fa e2bd 6c0d e7bd 929b 47be
00000020: a831 b4bb e2e2 5dbe e111 0bbe d646 753e
00000030: f399 48be f1eb c6bb 83f7 2bbd dd34 283b
0.31452152 -0.19870386 -0.08555889 -0.07744196 0.18824449 -0.110828884 -0.11281857 -0.19492939
-0.0054990835 -0.2166858 -0.13581039 0.23952803 -0.19589977 -0.006070607 -0.041984092 0.0025666275

cnn_blocks.0.norms.1.running_var f4 [16]
00000000: 000c 383d 6a1a 2a3e ff19 863d aed4 053e
00000010: d8f6 f83d e86e b73d e271 bf3d 5c03 b53d
00000020: 3bdf c13d 3e35 c73d 31af c23d d574 053e
00000030: 46db e33d 1a39 163e bfa7 143e bd9b cc3d
0.04493332 0.16611639 0.06547927 0.13069412 0.12156457 0.089567006 0.09347893 0.088385314
0.09466406 0.09726952 0.09506071 0.13032849 0.111258075 0.1467022 0.14517115 0.09990642
