checkpoints/abl_rnn_only/final_model.pt (torch, 86258 bytes, 50 tensors)

embedder.feature_projections.0.weight f4 [32, 1]
00000000: ce01 a03d 4c51 763f 8d54 803f 806e 273f
00000010: 15ee 003f 617f c73e fad9 ee3e 0a20 a13f
00000020: 8d57 9c3f b210 08bf d431 843f 01ee a23f
00000030: 1050 933d 09b4 a9bf 6399 223f 62ce b93e
00000040: 272c a03e ad97 5bbf dad9 1cbe 05e6 843f
00000050: 73f8 5cbf 1818 ea3e 3468 0e3e 4154 ee3e
00000060: 38b5 3e3e 672c 963f 7fa8 793f 3fb0 c13e
00000070: 0dc3 1cbf e83b 803f b8b2 90be 2a86 8a3f
0.07812844 0.962178 1.0025803 0.65402985 0.50363284 0.3896437 0.46650678 1.2587903
1.2214218 -0.53150475 1.0327706 1.2728883 0.07193005 -1.3258067 0.635153 0.3629027
0.31283686 -0.85778314 -0.15317479 1.0382696 -0.86316603 0.45721507 0.13906938 0.46548656
0.18623817 1.17323 0.9752273 0.37829778 -0.61235124 1.0018282 -0.28261352 1.0822194

embedder.feature_projections.0.bias f4 [32]
00000000: ed26 b53d 2481 bfbe 3cab e6be 877f 03bf
00000010: 454e b83e 9cce ca3e 5347 bfbe e121 37bf
00000020: a708 45be 3147 823e 2f1f 593e 300c eb3e
00000030: ef57 00bb ad3f 3d3f bd96 8a3e 9d79 56bf
00000040: f184 b0be 653e cf3e 9ca4 313f 8ba1 d2be
00000050: dde5 313f 1dfc 8bbe 0e7a 623f f6d3 ce3e
00000060: 2553 c23e f687 c7be 69cc f2be 86b5 34bf
00000070: 5d96 45bf c233 3bbf 37a1 76bf e99e 723f
0.08845315 -0.37403214 -0.45052516 -0.51366466 0.35997215 0.39610755 -0.37359104 -0.7153607
-0.19241582 0.2544494 0.21203302 0.45907736 -0.0019583663 0.73925287 0.2706813 -0.8377932
-0.34476426 0.4047729 0.693918 -0.41138873 0.6949137 -0.27340785 0.8846749 0.40396088
0.3795406 -0.38970917 -0.47421578 -0.7058948 -0.7718256 -0.7312585 -0.96339744 0.9477373

embedder.feature_projections.1.weight f4 [32, 1]
00000000: c078 243f 4f21 28bf 5361 b2be da06 cf3d
00000010: 4729 da3e 1136 24bf e065 623f 182d 513f
00000020: b122 e73d 2b20 d5bd 67bd d9be 4dc4 c5be
00000030: 8178 323e 24d8 dbbe 0ade 24bf 0ddf 99be
00000040: e5e3 3abf 3380 513f 6b44 f23e 4004 833e
00000050: e778 b63c 9422 4dbf 8d27 dabe 3fb7 56bf
00000060: 1e77 a93e ebc7 5b3f 821c 143f 2eaa 82be
00000070: 13f7 14be 19db a43e 5d5d 74bd b981 6d3d
0.6424675 -0.65675825 -0.34839877 0.10108729 0.42609617 -0.64145 0.884367 0.8170943
0.11285914 -0.10406526 -0.42527315 -0.38626328 0.17428781 -0.4293834 -0.64401305 -0.30052987
-0.7300399 0.8183624 0.47317824 0.2558918 0.022274448 -0.8013089 -0.426083 -0.8387336
0.33098692 0.85851926 0.57856 -0.25520462 -0.14547376 0.32198408 -0.05965935 0.05798504

embedder.feature_projections.1.bias f4 [32]
00000000: 793c 803d 3d87 34bf d6ca d73e c0b5 8fbc
00000010: 6cf6 6f3f fc7d 1cbe 59ca 433f 4e1a f9be
00000020: fd7a d2bc e587 06be a8f5 44bf f32f 3e3e
00000030: 76ba 76bf 43d5 0b3f b585 eebe 291e 21bf
00000040: edce d0be ab0b 70bf 649c 3a3f f63c 1d3f
00000050: 5794 293f 209f 07bf 4d4b 07be 7d9d 7a3c
00000060: d743 513e 79db 563f 85d5 40bf 8c47 08bf
00000070: 9d39 703e 26bc b6be 3f24 1dbf d159 49bf
0.06261534 -0.7051886 0.4214694 -0.01754272 0.93735385 -0.15282434 0.76480633 -0.4865288
-0.025693411 -0.13137777 -0.7693734 0.18572979 -0.96378267 0.54622287 -0.46586385 -0.62936646
-0.40782872 -0.93767804 0.72894883 0.61421144 0.66241974 -0.5297718 -0.13212319 0.015296337
0.20436035 0.8392864 -0.75325805 -0.5323417 0.23459478 -0.3569042 -0.6138343 -0.78652674

embedder.stabilizer_embedding.weight f4 [8, 32]
00000000: 54f7 c03f d353 5d3b e14f 93bf d3b3 ce3e
00000010: b1f7 aabe 47e6 1c40 e258 bfbf 05b2 72bf
00000020: cabe 713f 0fb7 b7bc cde8 93bf 2f88 953e
00000030: 8a8c 81be e542 66bd 71ba 39bf 869c 833e
00000040: 43c4 af3f 09d5 88bf 1e5f 773d d6a8 0d40
00000050: 8421 3b3f 4de5 a1bf d703 25bf e26f 06bf
00000060: 392c 3abf 4e67 e7bf 2e6b c3bf 5600 c9bd
00000070: fea0 12bf 3fb6 1abf 35af 5cbe 1c4c 1dbc
00000080: 1a6a 20c0 3136 d6bd d88d 6c3f 928b bd3e
00000090: ed9c 1abe a896 dcbd 9b63 0240 a22b bbbf
000000a0: 6912 ce3c e02b 553f afab ccbe e705 d4be
000000b0: 92f9 873f a2ff 1dbd 1dea 0dbf 6e6c b2bf
000000c0: 8d5a b53f 1a3c 95bf c74d 953f b037 f63e
000000d0: 6e2d 1140 7bdd 5cbf 1f1f 9a3f f693 413e
000000e0: 0df3 df3d 69f8 97bf 0216 1f3f d10a e23e
000000f0: 449d 493f 1568 083f 8bf0 d13f a98e 89bd
00000100: 9e9a d43f 28eb d4be 4052 97bf a09a 4d3d
00000110: 0b51 2b3f d6e0 873e 8d30 a0be 4b63 b03f
00000120: 9a6e 913e 50d2 5dbf ad85 613f 6445 24bf
00000130: 49e8 1240 8adf 4e3f 9a61 12be a12c a5be
00000140: f29d 933f d7f6 27bf 8f09 7cbf cf93 883e
00000150: a9e8 853d f0c0 a4bf 4aa4 a53f 234f 4ebf
00000160: 1f79 893f 909d 913e b76f d73e a5a3 f03e
00000170: 3c8b 47bf 1970 4a3f 3276 9fbe 7c6e 8a3f
00000180: 5cc1 f6be d57e f1be 75c3 1b40 4f7d 183d
00000190: 5773 0d3e 3d22 8bbf 6f52 423e cf5f 66bf
000001a0: b2ee d2be 03fc 7abf 594b a23f a1ca 933f
000001b0: 8e2e a93a 34a4 eebe 7cfd 0b3f 05eb 083f
000001c0: f30f 89be 9169 c7be 20e2 11be 1ad2 1640
000001d0: 2cd6 d6bf 31b4 15bf 2291 1bbe 9804 473f
000001e0: d8b4 4cbf 12bd 53bf 5903 bc3f 58b7 003f
000001f0: d935 da3f ed43 46c0 4687 5e3e 1f63 4d3e
00000200: 6e99 f3be 256b c1be 6628 20bf 386c 823f
00000210: 1861 a53d b77d d73e 6967 02bf 1a5f 3bbe
00000220: 78fd 30bf ddac 4fbf 4e81 1abf c022 0bbf
00000230: 0532 d8bf c3d8 033f a7d8 2040 d298 073f
00000240: 6f0c db3e 07df 923f 2c1c bebf 2489 0bbf
00000250: 4ba5 f7bd 456d 603f c72a 623f e096 b5bf
00000260: 3129 b7bf 4a69 bb3d ae42 a3bf ec13 5abf
00000270: 9090 853f fd99 a3bf 4229 773c 78b9 7ebd
00000280: 6eb9 fb3c 4e49 563f 107b 9dbf 6034 89bf
00000290: dcff 72bf 0e91 bd3f ade1 febe 20ca 953f
000002a0: e4e0 9cbf 93a9 9dbf 3c91 13bf 5a03 b4be
000002b0: 6969 8cbe cd15 d23d 9c8b dbbf d418 8c3f
000002c0: 1eae 3bbf d29e 603f c79b 2f3f ad89 abbf
000002d0: 60b5 703d 7a96 d13e b275 95bf 3034 25be
000002e0: 9001 2c3f c599 2cbf d640 a2bd bdc9 2540
000002f0: e5be 6b3e 2293 a9bf fe08 633f 2970 6abf
00000300: 549c b53e c107 1b3f f623 9dbf ce16 b8bf
00000310: e8a9 1e3f 4615 0f3f f236 a53c a3af bebf
00000320: 6108 0cbc 7d56 d13d b985 7abf 4999 f03e
00000330: e4be b33f 423f 1b3d 57cc 02bf e5fe 0ec0
00000340: d845 88be 3acd d6be 98b5 4bbf 11e4 82bf
00000350: 3302 ae3b 618c ef3e 0f51 4abf f6b2 19bf
00000360: 9212 3c3e 4273 ab3f 87b5 a33d e4cf 84bf
00000370: 1736 b0bd bc07 5abf bd7f bc3c a058 493f
00000380: 4acd a8be 0e56 04bf 4a55 6dbf d10f 853f
00000390: 7276 ed3f bded 8c3f b69c 41bf f71a fabe
000003a0: 0e37 d13c 2b55 8d3d 4b1a e5ba 31ee 9ebf
000003b0: 49c3 4e3f 437a 8ebf 62cc 44bb 699f 513f
000003c0: 9a78 f93f 9464 73bf 9cb1 3b40 1432 6dbf
000003d0: 786d 713f b1cf 2b3f 5b1e 4ebf ae4f 0b3f
000003e0: fae2 cd3e 1d08 1ac0 7e0f b5bd 71d3 86be
000003f0: b26b 82be 0b1f d43e c32d 37bf e8bb 71bf
1.5075479 0.0033771887 -1.1508752 0.4037157 -0.333921 2.451555 -1.4949 -0.94802886
0.94431746 -0.022426156 -1.155542 0.29205462 -0.25302535 -0.05621614 -0.7255011 0.25705355
1.3731769 -1.0690013 0.060393445 2.21343 0.73098016 -1.2648102 -0.64458984 -0.5251447
-0.7272373 -1.8078401 -1.5267084 -0.09814517 -0.57276905 -0.60434335 -0.21551211 -0.009600665
-2.506476 -0.10459555 0.92403936 0.37020546 -0.15098925 -0.10770923 2.0373294 -1.4622691
0.025155263 0.8327007 -0.39974734 -0.41410753 1.0623038 -0.03857387 -0.55435354 -1.393934
1.4168259 -1.1658967 1.1664361 0.4808936 2.2683978 -0.8627545 1.2040747 0.18904099
0.1093503 -1.1872684 0.62142956 0.44148877 0.78755593 0.53283817 1.6401533 -0.067166634
1.6609685 -0.4158566 -1.1821976 0.05019629 0.66920537 0.26538724 -0.3128704 1.3780302
0.28404695 -0.86649036 0.880946 -0.6416838 2.2954276 0.80809844 -0.14295045 -0.32260612
1.1532576 -0.6561102 -0.98452085 0.2667527 0.06538517 -1.287138 1.2940762 -0.80589503
1.0740088 0.28440523 0.4207742 0.4699985 -0.7794683 0.790773 -0.31144863 1.0814967
-0.48194396 -0.47167078 2.4338048 0.03722888 0.1381353 -1.0869824 0.18976758 -0.8998994
-0.41197735 -0.9804079 1.2679244 1.1546212 0.0012907551 -0.46609652 0.5468366 0.5348361
-0.2676998 -0.38947728 -0.14246416 2.3565736 -1.678411 -0.58478075 -0.15192083 0.77741385
-0.79963446 -0.82710373 1.4688522 0.5027976 1.7047683 -3.0978959 0.2173129 0.20057343
-0.47577995 -0.37777057 -0.62561643 1.0189276 0.0807516 0.420881 -0.5093904 -0.18297997
-0.6913676 -0.81123143 -0.60353553 -0.543499 -1.6890265 0.5150263 2.5132234 0.5296756
0.42782924 1.1474313 -1.4852347 -0.54506135 -0.12092074 0.8766673 0.88346523 -1.4186668
-1.4309446 0.09150942 -1.2754724 -0.8518665 1.0434742 -1.2781368 0.01508552 -0.062188596
0.030728068 0.83705604 -1.2303181 -1.0719109 -0.9492166 1.4809892 -0.49781552 1.1702309
-1.2256131 -1.2317375 -0.57643485 -0.35158807 -0.27424172 0.102580644 -1.715198 1.0945077
-0.73312557 0.8774234 0.6859707 -1.340139 0.058766723 0.40935117 -1.1676543 -0.16133189
0.67189884 -0.67422134 -0.07922523 2.5904381 0.23022039 -1.3248026 0.88685596 -0.9157739
0.3547083 0.60558707 -1.22766 -1.438196 0.61978006 0.55891836 0.020167802 -1.489735
-0.00854692 0.102215745 -0.97860295 0.46991947 1.404263 0.037902124 -0.5109305 -2.2343075
-0.26615787 -0.4195345 -0.79573965 -1.022585 0.0053103208 0.46786788 -0.79029936 -0.600387
0.18366459 1.3394549 0.07993608 -1.0375943 -0.08604067 -0.8516805 0.02301013 0.78650856
-0.32969123 -0.5169381 -0.92708266 1.0395452 1.8551772 1.1010052 -0.75629747 -0.48848698
0.025538947 0.0690101 -0.0017479149 -1.241644 0.8076673 -1.1131061 -0.0030029048 0.81883866
1.948993 -0.95075345 2.9327154 -0.9265454 0.9430766 0.67113787 -0.8051507 0.54418457
0.40212232 -2.4067452 -0.088408455 -0.26333192 -0.2547279 0.41429934 -0.715542 -0.9442735

embedder.res_block.0.weight f4 [32]
00000000: ffd9 843f 5b0e 8a3f 783a 8d3f 576e 8b3f
00000010: 4393 6f3f 36dc 883f 3944 7a3f da37 8d3f
00000020: 16ca 9e3f f03f 913f 26e5 783f 34b0 8e3f
00000030: 4a94 983f 93a6 9a3f e2aa 843f 329e 743f
00000040: f204 7c3f 15f7 8c3f 9398 703f f7b8 743f
00000050: a1ed 803f 9ce8 813f 4530 8d3f 52f3 8f3f
00000060: eebd 683f 488c 913f 1064 7c3f bdd6 623f
00000070: eb4c 923f d5f5 7d3f da8c 723f 783a 8e3f
1.0379027 1.0785631 1.1033468 1.0893048 0.9358408 1.0692203 0.9776035 1.103267
1.2405422 1.1347637 0.9722465 1.1147523 1.1920254 1.2082084 1.0364649 0.95553887
0.98445046 1.1012903 0.9398281 0.95594734 1.0072519 1.0149112 1.1030356 1.124613
0.9091481 1.1370935 0.98590183 0.88608915 1.1429724 0.99203235 0.9474617 1.1111593

embedder.res_block.0.bias f4 [32]
00000000: 60c7 3abd 9e68 813c 1375 d63b d940 523d
00000010: 4692 9bbd cd8d 2cbc e856 78bd 51e0 0e3d
00000020: 63fd cd3c 33ef 71bd 7218 003d f4a0 e8bb
00000030: 7efc 56bd 9b20 30bd f477 233d 603a c03d
00000040: 6023 b3bc 625c 04bc 86cb a6bd 600e f0bc
00000050: d1fd 11bd 70c7 143d 0ff6 1dbd 84d3 153c
00000060: b665 b1bd 8654 07bd 3f00 1a3d 8037 8b3d
00000070: 92ba 0c3d 3e39 963d 4a15 213d 4c86 753c
-0.045600295 0.015796956 0.006544718 0.051331375 -0.07596259 -0.010531855 -0.060629755 0.034881894
0.025145238 -0.05906601 0.031273313 -0.007099265 -0.05248689 -0.042999845 0.039909318 0.09386134
-0.021867454 -0.008078666 -0.08144288 -0.02930373 -0.03564245 0.03632301 -0.038564738 0.009144668
-0.08661978 -0.033039592 0.03759789 0.06797695 0.034357615 0.07335137 0.039326943 0.014985632

embedder.res_block.1.weight f4 [32, 32]
00000000: 306d e7bd 2383 db3d 7b2b d33d f738 2ebd
00000010: 5798 60bd bf74 f4bd e3af 923d 49e9 23be
00000020: bd6a cd3d 47a9 a13d 61ca f13d e6d2 babd
00000030: c103 91bd b578 473e 7541 9cbd a4dc c6bd
00000040: b999 293e 8343 f83d 29bb ab3d 664d fdbb
00000050: 3403 e23d c70c 403e 92f7 83bd cc9a f33d
00000060: 3d42 c6bd 5233 dcbd 3ebf 063e 5621 f13d
00000070: 2122 c03d bf8f 5d3d 1cfb 8a3d c8ed 87bc
00000080: e2d0 133d f8a5 78bc cf7c 7b3e 485a 85bd
00000090: 4fc9 f53c 1f45 d53c 941c 43bb 4a8e f6bd
000000a0: 4a27 84bd 4be9 2e3d 06ad baba 685c 073e
000000b0: 1700 8c3d 270f 30be c6fa debc 90fd 823c
000000c0: 3046 3a3e 516c 00be 5965 ea3d dbda f33d
000000d0: 60db d03d 7b70 5fbd f56a fd3d c1ef 11be
000000e0: 612f 403d 3f6e 1ebd fa3e 693c f26e a0bd
000000f0: 984e 69bd 14a8 ddbc 700d b7bd 445a 44be
00000100: cbdb b13d a9ae 44be 07fe 16bd 7612 bc3d
00000110: 8a6b 993d 7210 d8bd b71f 153e 5111 f73d
00000120: f9c6 8f3d ab52 243e ed39 b4bd 4eab 903d
00000130: 7a05 313d bbb9 b13d 3e7c 37be ff61 00bd
00000140: d775 503d 1b9e 8e3e c4a9 d63d b85c 65bd
00000150: 6e81 043e 290f 6ebe 9c13 d13d 5225 f9bd
00000160: 1a01 e33a 3450 11be 0361 403e e6ac 76bd
00000170: 0231 c6bd c4ab 0dbe cfbe 6f3d fd58 fabc
00000180: 0b33 833c d700 2fbe 0ca5 c23d ac83 48be
00000190: 626f 0fbe 62f1 10bd bcb7 123d 4c48 ebbd
000001a0: 3efc 49be c143 893d 61b1 a0bc 4b43 75be
000001b0: f32d 0cbe e546 3e3e df05 9e3d 230f 80bd
000001c0: 3c59 afbd 15fb 5cbd ea16 903d 3eb9 d93c
000001d0: f927 3d3e ed0d a03d 338a f9ba 0664 eebd
000001e0: b312 edbd 2408 f03c 45b6 cabc b462 593d
000001f0: b39f 803e 37df 1bbd 0c6c 2d3d 47aa c83d
00000200: da41 0f3e 64fa 48be 0ab5 b1bd 1e0e e83d
00000210: 863b b2bd 9f4a 2f3e a003 9bbb dcbf 9b3d
00000220: be09 b2bd 82dd 363e 9619 adbd a9ba 57bd
00000230: a722 02be 81fd 863d 8a90 20be af2c 02bc
00000240: c54d 523e c63a b73d 775d c0bc dbe7 18be
00000250: 0ec6 4d3e 077a c83d c3e2 54be 3bf6 dd3c
00000260: b112 6a3d 426b 83bd 9c2f 92bd 07dc c03d
00000270: 5bc5 293e 622a 1fbe d52a 163d 79cb afbe
00000280: ae91 20be 70dd dfbd 988e f33c be8b debb
00000290: 4e64 bbbb 9b96 393d 07f7 f03d a26c 3fbe
000002a0: c775 1e3d 8e22 fa3c b2ec cfbd 2ed0 cb3d
000002b0: 1b47 f73d f906 593e 0212 4e3e 0982 09bd
000002c0: 0249 773d 250c 433e 95af 35be 829e 76bd
000002d0: 6c0f 4c3e e9a9 7c3d 2cc6 10bd 5ca6 f4bd
000002e0: 588a 373e 7926 d93d e08a 47bd 8117 63bd
000002f0: 55a0 3d3e 970b e8bd 95ee 523e df6e 60bd
00000300: 482b 653d 15ef c63d 9dbe f7bc f2f6 36bd
00000310: 0f86 f33a eab0 043e 425e 0ebe c6b2 fbbd
00000320: a55d 193d 5651 05be 335e edbc 78ff 5fbe
00000330: 7c9b 6dbc 1ddb 593d 80a5 ab3d 4d7b 52bd
00000340: a031 1c3d d81f a83c 1dcb 9fbb 608b 373d
00000350: b0f1 c2bd 28df 043b 5975 f33c b9c0 b53d
00000360: 89f3 f03d 91a8 523d 85b5 d33d acca c9bd
00000370: b1ba 4cbc 13cf 94bc 53e3 8bbc 417f 97bd
00000380: b453 3cbe 242b 303d c92b d03d efc3 8b3d
00000390: f92f c6bd 1080 1fbe d504 7ebc 25f8 aa3d
000003a0: bdbb 8ebd 3622 80bd 01af 97bc 9456 97bd
000003b0: a9d2 99bd 3b24 f1bd 3d13 05be f291 033e
000003c0: d807 1c3e e3af ad3c 7f99 2bbe bed0 1abd
000003d0: 8f7d 20be 7766 a5bd 30f7 10be d1a6 8bbd
000003e0: c719 163e 8587 2abe 19cf 88bd 38b6 e1bd
000003f0: 0246 11bc 6052 0d3e 10b2 c3bd b006 f03d
-0.11300123 0.10718372 0.103110276 -0.042534795 -0.054832783 -0.1193633 0.07162454 -0.1600696
0.10030124 0.07893615 0.11806179 -0.09122257 -0.07080794 0.1947964 -0.076296724 -0.097100526
0.16562547 0.12122252 0.08385307 -0.007730174 0.11035767 0.18754874 -0.06443705 0.118947595
-0.09680603 -0.10751976 0.1315889 0.117739365 0.093815096 0.054092165 0.067861766 -0.016592875
0.036087878 -0.015176289 0.2455933 -0.065113604 0.030003218 0.026033936 -0.0029771673 -0.12038858
-0.06452806 0.042702954 -0.0014242239 0.13218844 0.06835955 -0.1719328 -0.027219187 0.015990049
0.18190837 -0.1254132 0.11445112 0.11906978 0.101980925 -0.05455063 0.12373916 -0.14251615
0.046920184 -0.038679358 0.014236206 -0.07833661 -0.05695972 -0.027057685 -0.0893811 -0.19175059
0.086845 -0.19207253 -0.036863353 0.09183209 0.074912146 -0.10550012 0.1456288 0.1206385
0.07020373 0.1604716 -0.08800111 0.07063924 0.043218113 0.086780034 -0.17918488 -0.031343456
0.05089363 0.27855 0.10481599 -0.055996627 0.12939999 -0.2324797 0.10208818 -0.121653214
0.0017319054 -0.14190751 0.18787007 -0.060223483 -0.09677316 -0.13835055 0.05853158 -0.030560011
0.01601555 -0.17090164 0.095041364 -0.19581479 -0.14007333 -0.03538645 0.035819754 -0.11488399
-0.19725129 0.06702376 -0.01961583 -0.23951451 -0.13689403 0.18581732 0.077159636 -0.06252887
-0.08561942 -0.053950388 0.070356205 0.026577588 0.1847228 0.07815156 -0.0019038379 -0.11640172
-0.11575832 0.029300757 -0.024745116 0.053072646 0.2512184 -0.03805467 0.04233937 0.09798103
0.13989964 -0.19626766 -0.086771086 0.11330818 -0.087027594 0.1711831 -0.0047306567 0.07604954
-0.086932644 0.17857936 -0.08452146 -0.052668247 -0.12708531 0.06591321 -0.15680137 -0.007945224
0.20537479 0.08946757 -0.023482068 -0.14932196 0.20095083 0.097889 -0.20789628 0.02709495
0.05714673 -0.06416942 -0.07137987 0.09416967 0.16579191 -0.15543512 0.03666194 -0.34334925
-0.15680572 -0.10930908 0.02973108 -0.006791561 -0.0057187444 0.045309644 0.11765867 -0.18693784
0.03868654 0.030534055 -0.10152568 0.099518165 0.12074109 0.21194066 0.20124057 -0.033571277
0.06037236 0.19047602 -0.1774276 -0.06020976 0.19927758 0.061685476 -0.03534524 -0.11945793
0.17923868 0.10603041 -0.048716426 -0.055442337 0.18518193 -0.113303356 0.20598824 -0.054793235
0.05594948 0.0971357 -0.030242259 -0.0446691 0.0018579381 0.12958112 -0.13903144 -0.12289958
0.037442822 -0.13019308 -0.028975582 -0.21874797 -0.014502402 0.05318748 0.08381176 -0.05138712
0.038133264 0.020522997 -0.004876508 0.044810653 -0.095187545 0.0020274613 0.029719042 0.088746496
0.11765201 0.05143029 0.103373565 -0.0985311 -0.012495683 -0.018165147 -0.01707617 -0.07397319
-0.18391305 0.043009892 0.10164601 0.06824481 -0.09677119 -0.15576196 -0.015504082 0.08348111
-0.06969402 -0.06256525 -0.018516066 -0.0738956 -0.07510883 -0.117744885 -0.1299562 0.12848642
0.15237367 0.021202033 -0.16757773 -0.03779673 -0.15672897 -0.08076184 -0.14156795 -0.06818927
0.14658271 -0.16653259 -0.06680126 -0.110210836 -0.008866789 0.13800955 -0.09555447 0.117200255

embedder.res_block.1.bias f4 [32]
00000000: 812a 6b3d c187 323d 3f00 1fbe b855 0ebe
00000010: 9cad a7bd d1db 9bbc c35a c33c b06d 03be
00000020: 8ca9 523d 9ca3 a7bd d3cb 6f3d 3403 f03b
00000030: 90be 05be 2cad 9d3d ab16 b83c 01a8 333d
00000040: f038 ed3c be39 0e3c 7c7b 2a3e f80c a53b
00000050: 5e0a f93d 8448 e8bd 265a cc3d a315 803d
00000060: a8fb fd3d 5ad9 aa3c 40c9 ccbd 9134 1b3e
00000070: 3b80 27be 6136 1c3e 0d0a 773b 78e2 c4bc
0.05741358 0.043586496 -0.15527438 -0.13899887 -0.0818741 -0.019025715 0.02384699 -0.12834811
0.051431224 -0.08185503 0.05854399 0.0073246006 -0.13060975 0.076990455 0.022471746 0.043861393
0.028957814 0.008680759 0.16648668 0.0050369464 0.121601805 -0.11341956 0.09978132 0.06254127
0.12401515 0.020855594 -0.09999323 0.15156771 -0.1635751 0.15255119 0.00376952 -0.02403377

embedder.res_block.3.weight f4 [32, 32]
00000000: 45ec 433d 3b4a f2bd 1ca2 37be 3164 e2bc
00000010: 8bf2 a53d e9af 83bd 8fc9 043e 5997 163d
00000020: aaeb 8a3c 05ad 9abd e20e e2bd 6db9 05bd
00000030: 7c33 18bd 5a28 1c3e 65c8 2e3e 27d4 0d3e
00000040: 6061 163e c819 4b3d 0502 433e bbb7 ed3d
00000050: fe9a 62bc b07b 153e bb56 763e ceea 043d
00000060: f7b0 c13d 21e6 6b3d 808c bdbd bf27 083e
00000070: 2afd 3b3e 96a2 18be cf03 133e dfa8 79bd
00000080: 72a6 25be 3b3e 0cbe 91af c2bc 350e 20be
00000090: 8b90 883d 809b a6bd 6df7 573c 9929 30be
000000a0: 6373 34be 4ffd 84bd fac2 41bd 6945 f1bd
000000b0: e085 45bc 3d87 e83c f3b0 28be 46d8 4b3e
000000c0: c45b 1f3d 6310 b0bc a6cd 04be 6ad1 163e
000000d0: 9442 5f3e 3220 553d 0da0 6d3a b53c 083e
000000e0: b5da 883d 03a8 e6bd a2f3 25be ca6c cdbb
000000f0: 065e 833d 6f8e 3ebe fe69 e339 56e7 323e
00000100: 24a7 193c bf49 1bbc 104c 16bd 1d9c 11be
00000110: d4ba 5d3d 4f59 80be fab9 8bbd bc6d 833d
00000120: 45d9 32be ae1e 44bd dd49 53be b8e0 bcbe
00000130: 6e22 ab3c ba1b cbbd 6f12 423e ef56 94bc
00000140: ccda 543d d2c8 3abe e5fa 423e fb0e 1f3d
00000150: 473d ed3d ad57 b03d 6d16 d23b f5fa b6bc
00000160: 1bf8 983e e0ac 46bd 0750 423d f093 4ebe
00000170: 5a90 46bd e2bf b43d 1e3c 253d 9296 d73d
00000180: 5b83 f9bd d993 04be 88ea 72bd 9b2b d6bd
00000190: 0e54 5a3d 94fa 313e 79d2 87bc 694a 543d
000001a0: 2074 04be ad57 263e db67 95be 0530 893e
000001b0: f589 9e3e 6e54 94bd f06b 1d3e 7d8d 88bd
000001c0: fc1f 8fbd bbe6 773e 9464 e13d 6122 9cbc
000001d0: 5a42 8c3e 6c85 753d feba c73c c8d8 003e
000001e0: 540d a43e b757 97bc 6598 763c 0ecd 323d
000001f0: 80bc cbbd 8eca 40be 6e4d 1c3e 9232 6a3e
00000200: d308 1b3e 888f 1a3e 67ab 38be fa75 0b3d
00000210: 3ecb bc3c 17f6 b43d e921 4bbd 8ff3 bf3d
00000220: 5b76 f2bd d131 be3d d043 62bd 807c ec3e
00000230: 9d58 633d a77d e63d 750e 2bbd c6d9 38bd
00000240: 6a69 aa3d d384 94be 47eb 1abe aad1 483d
00000250: c333 513e 9444 2e3e fc33 2abd 28d7 57be
00000260: 035f a23d 1432 763e ed03 84bc 2ec8 33bd
00000270: 15ee 0ebe f908 f83d 92ad 823d 5fd8 41be
00000280: 095a b33d be21 b6bd f876 6f3d a012 d3bd
00000290: 9296 f53d 518f babd fb5a a93d a8c9 97bd
000002a0: 8c20 bfbd b0c5 19be 1f8a 09be be2e 13be
000002b0: 7eaa abbd 195b e8bd 6d9f 89bd 58ab fa3d
000002c0: 7c6d 373e 153d 223d d948 e23c a503 693e
000002d0: 4700 a43d c98b 03bc ee41 393e dbe2 3b3d
000002e0: 7527 82bd 4d34 30bd 1087 e3bd 4fec 343e
000002f0: 377c a83c 3365 003b 1435 233c 46d8 203e
00000300: 0ade ce3d dd76 f03d f96d 30be 0d68 a1bd
00000310: 9a7f eabb 84f5 793d d275 03bd 1ade 94bd
00000320: 78ea 3f3e 155f cc3d 1b48 b2bd 07ad 2abd
00000330: 08cd 053e 632f 0c3e fc19 c43d e2ff 7d3d
00000340: 6ff1 36be c937 bfbc 7122 243d e4cb 383e
00000350: de48 513c cd20 02be a887 4a3e 55d4 2a3e
00000360: 69f4 043d a8ff 6dbd 4f07 7f3c 210f ebba
00000370: edd1 c4bd ae11 303e aad4 0cbe 9c28 24bd
00000380: 3c07 8f3e f08f ccbb b09a 89be 0919 433e
00000390: 49f8 4ebd 81f9 02be fb70 813d 0d91 e33d
000003a0: a2ec bcbb f2a3 fabd 3b26 eabc 55dd a23e
000003b0: 7793 a83e 6628 02bd 364e 2e3e 019d 823e
000003c0: 19cd 12be 4d52 9c3d 664a 5a3e f729 a43e
000003d0: fa21 dc3d dbb5 42bd b563 99bd 7c3e 893e
000003e0: 53a0 9c3e 9564 aebd 7c21 cf3d 3dc4 263e
000003f0: eb61 00bd fe8a 0dbe 4c78 e1bd 2769 873d
0.047832746 -0.118305646 -0.17932934 -0.027635666 0.08102902 -0.064300366 0.12967514 0.03676543
0.016958077 -0.07552532 -0.11037995 -0.03264754 -0.037158474 0.15249768 0.17068632 0.13850461
0.14685583 0.049585134 0.19043739 0.116073094 -0.013830898 0.14597964 0.24056523 0.03245049
0.094575815 0.057592515 -0.09255314 0.13296412 0.18358293 -0.14905772 0.14356922 -0.060952064
-0.16176775 -0.13695614 -0.023765357 -0.1563042 0.066681944 -0.08135128 0.0131815495 -0.17203368
-0.17622142 -0.06493627 -0.047305085 -0.11780817 -0.012055844 0.0283848 -0.16473751 0.1990672
0.038905874 -0.021492189 -0.12969074 0.14728323 0.21802741 0.052032657 0.0009064682 0.13304408
0.0668234 -0.112625144 -0.1620622 -0.006269072 0.06414418 -0.18609022 0.00043375784 0.1747106
0.009378228 -0.009478032 -0.036693633 -0.14219709 0.05413325 -0.25068137 -0.068225816 0.064174145
-0.17465694 -0.04788082 -0.20633645 -0.36890197 0.02089044 -0.09917398 0.18952344 -0.01810786
0.051966473 -0.1824067 0.19041021 0.038832646 0.11583953 0.08610473 0.006411365 -0.022336463
0.2987679 -0.04850471 0.0474396 -0.20173621 -0.048477508 0.08825661 0.040340535 0.10526766
-0.12183257 -0.12947024 -0.059305698 -0.10457536 0.053302817 0.17380744 -0.016579853 0.051828776
-0.12934923 0.16244383 -0.29180798 0.26794448 0.30964628 -0.07242666 0.15373206 -0.06667612
-0.069885224 0.2420911 0.11005512 -0.019059362 0.27394372 0.059941694 0.024381157 0.12582695
0.3204142 -0.018474443 0.015050982 0.043652587 -0.09948063 -0.18827268 0.15263912 0.22870854
0.15140085 0.15093815 -0.18034135 0.034048058 0.023046132 0.088360004 -0.049592886 0.09372627
-0.11838981 0.092868455 -0.055240452 0.46188736 0.05550443 0.11254435 -0.041761834 -0.04512956
0.083208874 -0.29007587 -0.15128814 0.049028076 0.20429902 0.17018348 -0.041553482 -0.2107817
0.07928278 0.24042541 -0.016115153 -0.043892078 -0.13958009 0.121110864 0.06380762 -0.18930195
0.08757407 -0.088931546 0.058463067 -0.10306287 0.1199161 -0.09109367 0.08269306 -0.0741151
-0.0933238 -0.15016818 -0.13431595 -0.143733 -0.08382128 -0.113455005 -0.06719861 0.122397125
0.17912859 0.039609034 0.027622627 0.22755297 0.080078654 -0.008028933 0.18091556 0.045870643
-0.06355182 -0.043018628 -0.111097455 0.1766827 0.020567043 0.001959157 0.009961385 0.15707502
0.10100944 0.11741421 -0.17229451 -0.07881174 -0.0071563246 0.061025158 -0.032094784 -0.07268925
0.18741786 0.09979073 -0.08705159 -0.041668918 0.13066494 0.13689952 0.095752686 0.062011607
-0.17865537 -0.02334203 0.04007191 0.18046528 0.012773721 -0.12707825 0.19778311 0.1668256
0.03245965 -0.05810514 0.015565707 -0.0017933586 -0.09610353 0.17194244 -0.13753 -0.04007779
0.27935207 -0.0062427446 -0.2687583 0.19052519 -0.050529752 -0.1279049 0.063203774 0.111116506
-0.0057655135 -0.12238301 -0.028582683 0.31809488 0.32925007 -0.03177681 0.17022023 0.2551041
-0.14336051 0.07632885 0.21317443 0.32063267 0.10748668 -0.047536712 -0.07489721 0.26805484
0.30591068 -0.08515278 0.101138085 0.16285796 -0.03134338 -0.13822553 -0.11009273 0.06611853

embedder.res_block.3.bias f4 [32]
00000000: 43a9 053e b526 1f3e 2f13 a93d a83c 3e3e
00000010: 66a0 00be 8323 5ebd 2eb3 23bd 4483 483e
00000020: 4308 933d 40eb c2bd d647 2e3d 5800 dfbc
00000030: eaa0 7b3d f131 0c3d ebad 123e e9f9 25bc
00000040: 2510 013e d567 4b3e f208 8abd c3f8 35be
00000050: 28ac 173d 4e85 f9bd fc50 d1bd 2a0a 493e
00000060: 0a41 fe3d 9adb acbc 6f3a acbd 442b 153d
00000070: dbaf 813d 1714 383e d099 9fbd 7826 8bbd
0.1305285 0.1554211 0.08255612 0.18577826 -0.12561187 -0.054233085 -0.0399658 0.19581324
0.0717931 -0.095175266 0.042548977 -0.027221844 0.061432756 0.034227315 0.14324157 -0.010130384
0.12603815 0.19863828 -0.067399874 -0.17770676 0.037029415 -0.12183629 -0.10220525 0.19632784
0.12414749 -0.021100808 -0.08409583 0.036418214 0.0633237 0.17976414 -0.07793009 -0.06794447

cnn_blocks.0.proj_in.weight f4 [16, 32]
00000000: 5d70 d13d 16ed 393d 24df 783d 5e98 e73d
00000010: bb47 e6bd e9c1 5abd 4143 83bc 8e6f b4bd
00000020: 1e8e 15be 3ea6 0d3e db73 0fbe b812 4b3e
00000030: 495d 60bd df65 f2bc aab1 44bd 5b7a 3abe
00000040: 1f92 29bd b7ca 06bd ee66 34be 2d06 d5bc
00000050: c81c f2bb 57a6 073e 1e55 c4bd 1ee4 553e
00000060: d735 253e 6c78 6f3e 8395 c63d 537b e53d
00000070: ce97 9c3d 23d3 28bd 0af6 d4bc 6624 af3d
00000080: 7247 6cbe 330d 273e 76d8 eabd df77 863b
00000090: 0a9e b13d ade0 953c 69f3 d0bd e87f a8bc
000000a0: 303a e23c 1122 f53c 3bd3 d83d 1cf6 29be
000000b0: 35c9 a9bd 9c26 9cbd ba37 15be e9c3 36bd
000000c0: 0fa0 ccbd a7d5 81bd 5a4c d13c 3d7d 5bbd
000000d0: 5591 9c3d ed4e d9bd 6ed9 0b3e 382e 023e
000000e0: 68b4 813d 183e 663c 4819 d4bd c440 0f3d
000000f0: 1356 183e 8ee7 79bd 61ed e03d 37f8 71bd
00000100: 8dee 243d 64ad 05be 2500 c5bd b9e6 71bd
00000110: 05c8 98bd 3a02 ef3d 0a3e 2f3e 4dd3 11bd
00000120: ab2b 403d f1e2 1abc e1a8 67bd 3cd4 21be
00000130: 73f3 d03b 98eb 263d 6dda f1bd 8afb 5f3d
00000140: 2947 fdbd 6972 c63c 7aed 88b9 29cc 67bd
00000150: 2f9e fe3d 524e 8bbd 50d1 4bbe e82d 3bbe
00000160: aff0 0d3e ed2e 97bd 5319 b53d d7ef ecbd
00000170: ad26 833d a6ed 5dbd a048 b83c 80d2 38bd
00000180: 9c96 2a3e 58cf 7b3e 0ebf c73d befb dc3d
00000190: 71da 473d 18b7 f4bd cdde b3bd 2261 b8b8
000001a0: 37dc 66bd 8559 da3d 4e23 893b b33e 573d
000001b0: 7223 06be 9efe 40bd b14d 823e a1cb 06be
000001c0: 1ee2 7c3d 4329 023e 0fec 22be c632 e7bc
000001d0: 854d e33d ca04 02be a0d7 8abd 6979 adbc
000001e0: 2d90 86bd 165b 10bd 7e16 873d 51e3 9cbd
000001f0: dbe6 ec3d 04d8 043e 1b6e 6e3d f26e e5bc
00000200: 9d7b e4bd 951e 1f3e fedd 5ebe 940f 6a3e
00000210: e8e9 00be 517d 04bd b7af dabd 1b2d cebb
00000220: 9707 55bd 2a4c 86bd 1385 8cbd 1bf5 b83d
00000230: 3979 823d 8c0c 463e e400 e1bd 649e 18be
00000240: 5e5f 0bbe 44c8 47be ef41 c13d 7a04 08be
00000250: 21dc 43be e285 6fbe 4ed9 6bbe 91b6 86bc
00000260: 15ec 72be a30f 073c 3e09 b9bd 9923 1ebe
00000270: 289d 123e e3c3 663d eb67 01bd da74 053e
00000280: e30f 413d a9f5 fa3c d570 4a3e 9b81 943d
00000290: dc99 b9bd a522 a93d 52eb 363c f0a1 0f3e
000002a0: a964 06be 7b0c 16be eae4 043e 9f1b fa3d
000002b0: 816a da3d 42af 893c 0d15 74be 0156 b33d
000002c0: 2076 b0bd 6d67 043e a826 3c3e cb52 223e
000002d0: f1bb 00bd 096e ab3d 4e8e a1bc 48e7 89bd
000002e0: 7083 3f3e 8ddc 4b3c 821a debd 9d3f 263d
000002f0: 6011 483e 919a 82bc 64b9 e6bd 438b 00bd
00000300: 25d0 d2bd 4183 c4bd 108f 773d 5eb5 e6bd
00000310: d94b ef3c c251 d53c 24dc 353e c4a8 1ebd
00000320: 8a00 1bbe 63ed 313e f136 bc3c 21d5 10be
00000330: d1f5 27be 493f fabd a013 ad3d 2f51 1c3e
00000340: a7e5 023e 7f77 fb3c 6322 113e 43ce a83d
00000350: 26c3 e23c 2d7a e43b 1585 353c 7257 0d3e
00000360: 770e 8c3d 6a20 1e3e 6d42 823c 40d5 0bbe
00000370: 11ab 6c3c 5b98 e7bc 5d5c 303d fe2a 623d
00000380: 30b7 943d d8ce 87bd 4468 36be 3809 063e
00000390: 36e4 103e 028e 00be 9cae 9cbd dfb1 0f3d
000003a0: 674c 963b e494 86bd af40 353d 4fb6 1fbd
000003b0: 3a90 013e 8565 a43d a433 8d3d 5ac5 b03d
000003c0: ff45 443e 6ade 983c aab0 a9bc a3e1 223e
000003d0: 04ab 063c d01b 24be 2164 193e 0534 f93d
000003e0: 87aa eabd 995d 3a3c 3300 bc39 5d6d 03be
000003f0: 9e7b a73d f920 883d 072e 24be fb23 843d
0.1022651 0.04539212 0.06075968 0.113083586 -0.1124415 -0.053407583 -0.01602328 -0.0881034
-0.14604995 0.13832948 -0.14009039 0.1983136 -0.054776464 -0.029589592 -0.048020996 -0.18210737
-0.041399118 -0.032908168 -0.1761739 -0.026003921 -0.007388685 0.13247047 -0.09586547 0.20887801
0.1613382 0.23385781 0.09696486 0.11205163 0.07646142 -0.04121698 -0.025996227 0.08551864
-0.23074129 0.16313629 -0.11467068 0.004103645 0.08672722 0.01829561 -0.10202677 -0.020568803
0.027615637 0.02992347 0.10587164 -0.1659779 -0.0829033 -0.07624552 -0.14572039 -0.04462043
-0.09991466 -0.06339579 0.025549103 -0.053586233 0.076449074 -0.10610757 0.13657162 0.12712944
0.06333238 0.01405289 -0.103563845 0.034973875 0.14876585 -0.061011843 0.109827764 -0.059074607
0.040266562 -0.13054425 -0.09619168 -0.059057925 -0.07460026 0.116703466 0.1711351 -0.035601903
0.046916645 -0.009453521 -0.05655754 -0.15803617 0.0063766777 0.040752023 -0.118092395 0.054683246
-0.12367088 0.024224477 -0.00026116875 -0.056591187 0.12432515 -0.06802048 -0.19904065 -0.1827923
0.13861345 -0.07381997 0.08842721 -0.11569183 0.06403861 -0.054181717 0.022495568 -0.045122623
0.16659015 0.24590814 0.09753238 0.107902035 0.048792306 -0.11948985 -0.0878273 -8.791896e-05
-0.056362357 0.10661606 0.004185117 0.05255003 -0.13099459 -0.047117822 0.254499 -0.13163616
0.06173908 0.12711053 -0.15910362 -0.028222453 0.1109877 -0.1269714 -0.067794085 -0.021176057
-0.06570468 -0.035243116 0.06596087 -0.07660545 0.1156747 0.12973028 0.058210474 -0.028007004
-0.1115639 0.1553901 -0.21764371 0.22857505 -0.12589228 -0.032346074 -0.10678046 -0.006291998
-0.05200919 -0.06557496 -0.068613194 0.09031125 0.06370778 0.19340724 -0.10986498 -0.14904171
-0.13610598 -0.19509989 0.09436404 -0.13282958 -0.19126941 -0.23390916 -0.23032114 -0.016444476
-0.2372287 0.008243474 -0.09034966 -0.15443267 0.14317763 0.056339156 -0.031593245 0.13032857
0.04713429 0.030634718 0.19769605 0.07251283 -0.090625495 0.08258561 0.011164503 0.14026618
-0.13124336 -0.14653198 0.12977949 0.122122996 0.10664845 0.016807202 -0.23836155 0.08756638
-0.086162806 0.12930079 0.18374121 0.15851896 -0.031429235 0.08370597 -0.019721176 -0.067335665
0.18702483 0.01244272 -0.108449 0.04058801 0.19537878 -0.015942844 -0.11265829 -0.03138281
-0.10293607 -0.09595347 0.06043917 -0.11265062 0.029210972 0.026039962 0.17759758 -0.038735166
-0.15136924 0.17375712 0.022975417 -0.14143802 -0.16402365 -0.12219102 0.08451009 0.15265344
0.12782918 0.030696629 0.14173274 0.08242466 0.027680945 0.0069725723 0.0110790925 0.13802889
0.068386964 0.15442052 0.015900815 -0.13655567 0.014445082 -0.028270891 0.043056834 0.05521678
0.07261503 -0.06631249 -0.17813212 0.13089454 0.14149556 -0.12554172 -0.076504916 0.03508174
0.0045867446 -0.065713674 0.04425114 -0.038992222 0.12652674 0.08027176 0.06894615 0.08631392
0.19167326 0.018660743 -0.020714123 0.15906386 0.008219484 -0.16026235 0.14979602 0.12168125
-0.11458307 0.0113748545 0.00035858303 -0.12834688 0.08177875 0.06646914 -0.16033183 0.06452175

cnn_blocks.0.proj_in.bias f4 [16]
00000000: 3778 e93d 1ceb 9ebd 824c df3c d0bb 2b3e
00000010: 3720 053e 8462 593c a0be e3bd fee0 da3d
00000020: 030c 14be 83ea 6ebd 0854 143d 025c 633d
00000030: 2781 ef3d 2190 fc3d c33f 133e 4e7f 0e3e
0.11399882 -0.07759687 0.027258161 0.16770864 0.1300057 0.013268117 -0.11120343 0.10687445
-0.14457707 -0.058329117 0.03621295 0.055507667 0.11694556 0.12332178 0.14379792 0.1391575

cnn_blocks.0.convs.0.weight f4 [16, 16, 3, 3]
00000000: 46bf e0bb 46c4 0c3d e029 f03c d7c1 3bbd
00000010: 515b 7dbc d20a 8ebc 3b57 34bd eee8 a93d
00000020: 97ca f3bd 3ccd 3d3c da9a 0b3b 978e c93d
00000030: b24b 1a3e 15e3 343c 01cb bc3d 8b6b ce3d
00000040: f1dd 10bd 0c2b 8f3d 518d e5bd 5bfb b3bc
00000050: 5e12 16bd 9614 2dbe e983 25bb 2b3c 463c
00000060: ee25 c2bc 1b77 c6bd ad3b 493d eb24 163e
00000070: f28e c6bd 3736 82bc 29c0 debd 2b99 f13d
00000080: bdf0 813b ae92 88bb cb2b 95bd c285 c1bd
00000090: 07cc f6bd ce8f 083d 539e bb3c b47f 893c
000000a0: 2db8 ba3c 5061 853d 5a4b 8a3d 77b0 5c3b
000000b0: 6eb1 283a 7fa8 c3bd 800b 2f3d 370b 07be
000000c0: d93a abbd e0d4 3739 23a1 07bd 863b 9a3c
000000d0: 3cc8 523b 066b 03bd de54 623b 0f25 b43d
000000e0: 5c6c e53d 6c3a 01bd 0a87 c43d 9a14 813b
000000f0: 84fe 703d 74ff c83d 560d 6c3d e66e 82bd
00000100: f74c 3a3d d24e a6bc 80e4 dc3d 9e36 353d
00000110: 4013 d5bd 95e5 81bb e330 433c 3852 3abd
00000120: c811 75bb 20cc 3dbd f166 a63d f498 3cbd
00000130: 35ac 5d3d fbf7 5c3b 208e 13bd c231 7ebc
00000140: 8a19 d63c e3b1 473b 4520 afbc 6892 2dbc
00000150: b6f3 9f3d de67 a23b 53f6 9cbc 13a2 163e
00000160: 7fb4 7d3d 57e1 553d c2ed 2cbd 990e e63c
00000170: e211 9abd 6907 593d 1df0 d2bd 8607 cbbd
00000180: 2ef7 b6bc 15aa 143d 8253 b33c 6fbf d23d
00000190: 2280 753d d7b5 973d 540d 883d f0de 8c3d
000001a0: 8a9e 113d 54b7 2f3e 6f5a 87bd 9a2e 653c
000001b0: 6f3a 183d e7dd 903d e412 ba3d a736 01be
000001c0: 48ac d33d 76d8 ba3b 8903 febd 5b2d 14bc
000001d0: 97a0 8fbd 9f6d c33a a60d 4c3d b42e 223e
000001e0: 2a8e 96bc 79c2 1bbd 3f47 2e3b b15b ee3d
000001f0: 4fd0 eb3c 709e fabc 9296 0a3e 7f5c 9c3d
00000200: d486 c6bb e0b9 9dbc a814 923b efa5 94bd
00000210: 0c7b 82bc 81f0 d13d 5951 0abb c038 6e3c
00000220: d188 983c cc0d ff3d 1c38 cebc 6960 023e
00000230: 6147 adbd fdfa 743d e087 873d 0e21 c83d
00000240: 06ce 9cbb 4b1e ca3b 016a 7b3d e2de b4bc
00000250: 0fc9 e0bd 761b ae3d 2542 04be 3e52 e5bd
00000260: d0d7 333d 119a ab3c d55c 823c f42d 6e3b
00000270: 83e2 08bd 4279 013e ce8f 5c3d 7592 423d
00000280: 6d51 533d 56c3 913d cdf0 b1bc 58b7 543d
00000290: 1b80 813d 8f03 0a3d c268 9b3c 085e 65bd
000002a0: 7afb 3b3d b5ce 28be d1b5 1fbd 47aa 29bd
000002b0: b2fa 41bd e108 e4bd 7b5b 27be aa06 91bb
000002c0: 4aa6 07be 479b 9f3c b6f6 efbc 77e6 81bc
000002d0: 015d 3f3e 7e9d b03c f4a6 14bd 7a07 ea3c
000002e0: 2ae7 a63d dd5b bd3d 2ede 173c e777 bb3d
000002f0: fa6e 3cbd 5ba9 dfbd 0bf8 d53d dfbf 103e
00000300: 860a 573e c9bd 133d f51f 45bd b707 c63d
00000310: 6c70 95bc be52 cc3d 789e d9bd 3576 94bc
00000320: aadf 483d 25bd ccbc 2305 f9bc 15cd 723d
00000330: 8007 53bd 6dc5 6dbd 142e febd e60a 263d
00000340: 1768 203d f57a 8abd 3ee4 92bd 5ae0 96bc
00000350: 19d3 f8bb 2327 07bd b4ff df3d f83f 9f3d
00000360: 9333 93bd 1ecc ca3d 5c87 043c 5a32 383d
00000370: cf48 cc3c 48c7 333e 9154 a73c 1ac2 2bbd
00000380: ade8 c63d e4af 57bd bb33 563d dbfa c4bd
00000390: 72b7 abbb b610 14bd b300 463e 6ca0 b33c
000003a0: bfbf 7bbc eab0 edbd 9474 a53d c728 bb3b
000003b0: 9938 09bd e566 9a3d e22d acbd 044b ce3b
000003c0: c9ab 3abd 67b8 2e3b 4d3e 513a b318 2a3e
000003d0: 16fe 25bd e88d 313d 57ec 84bd 79e3 f7bd
000003e0: edac 0f3d 9276 18bd b095 0c3d ea6e 3bbd
000003f0: ea50 61bd 9606 05bd 6745 833d 711e 553d
-0.006858739 0.03436687 0.029316843 -0.045839157 -0.015463666 -0.017339144 -0.044028502 0.08296381
-0.11903875 0.011584576 0.0021302016 0.0984165 0.15067938 0.011040469 0.092184074 0.10079106
-0.03536791 0.069906324 -0.112085946 -0.021970442 -0.03663861 -0.16902384 -0.0025255627 0.012099306
-0.023699727 -0.09690686 0.049129177 0.1466252 -0.096952334 -0.015894992 -0.108764954 0.117967926
0.003965466 -0.004167876 -0.072837435 -0.094493404 -0.12050634 0.033340268 0.022902643 0.016784526
0.0227929 0.065127015 0.067526534 0.0033674517 0.00064351305 -0.095536225 0.042735577 -0.13187872
-0.08360834 0.00017531542 -0.033112656 0.018827211 0.0032162806 -0.032084487 0.0034535448 0.08796131
0.112023085 -0.031549856 0.09596069 0.0039392235 0.058836475 0.09814349 0.057629906 -0.063688084
0.045483556 -0.020301256 0.107857704 0.04424154 -0.10404062 -0.003964136 0.011913511 -0.045488566
-0.0037394632 -0.046337247 0.08125103 -0.046044305 0.054119308 0.0033717144 -0.036024213 -0.015514793
0.026135225 0.003047102 -0.021377692 -0.010593988 0.07810156 0.0049562296 -0.019160425 0.14710264
0.061939713 0.052216854 -0.04221893 0.028083133 -0.07522942 0.052985583 -0.10299704 -0.09913544
-0.022334661 0.036295015 0.021890406 0.10290419 0.05993665 0.0740773 0.06643167 0.068784595
0.035551585 0.17159778 -0.06609046 0.013988161 0.0371651 0.070735745 0.09085634 -0.12618504
0.103355944 0.0057020737 -0.12403018 -0.009044017 -0.07013052 0.0014909989 0.049817704 0.15838128
-0.018378336 -0.03802726 0.002659276 0.116385825 0.028785853 -0.030593127 0.13534 0.0763483
-0.0060585532 -0.019253671 0.004458029 -0.07258212 -0.015927814 0.102509506 -0.0021105616 0.014539897
0.018619927 0.124538034 -0.02517324 0.1273209 -0.0846088 0.059809674 0.06617713 0.0977193
-0.004785302 0.006168162 0.06138039 -0.022078935 -0.10975849 0.085013315 -0.12915857 -0.11197327
0.043906987 0.020947488 0.015913406 0.0036343308 -0.033419143 0.12643912 0.05384808 0.047502954
0.051591326 0.071173355 -0.021721268 0.051932663 0.06323262 0.0336948 0.01897085 -0.05599788
0.045894124 -0.16485102 -0.038991753 -0.041422155 -0.047358222 -0.11134506 -0.16343491 -0.0044258432
-0.13247028 0.019483222 -0.029292446 -0.015856965 0.18687822 0.021559473 -0.03629203 0.028568018
0.0814956 0.09246037 0.00926928 0.09153729 -0.046004273 -0.10920974 0.10447701 0.14135693
0.21000108 0.036069665 -0.04812618 0.0966944 -0.018242083 0.09976719 -0.10625929 -0.018122772
0.049041428 -0.024992535 -0.030397957 0.059277613 -0.051520824 -0.058049608 -0.124111325 0.040537737
0.039161768 -0.067617334 -0.0717244 -0.018417526 -0.007593524 -0.032996308 0.109374434 0.07775873
-0.071875714 0.099022135 0.008088913 0.044969894 0.024937062 0.17556489 0.020426067 -0.041933157
0.09712348 -0.052657977 0.052295428 -0.096181594 -0.0052403742 -0.03614875 0.19336204 0.021927081
-0.01536554 -0.11606009 0.08078876 0.005711648 -0.03350124 0.07539157 -0.08407189 0.0062955637
-0.045573983 0.0026660205 0.0007982001 0.16610985 -0.04052552 0.043348223 -0.06490391 -0.12103934
0.035077024 -0.037222452 0.03432244 -0.045760073 -0.055008806 -0.032476984 0.06409722 0.052030984

cnn_blocks.0.convs.0.bias f4 [16]
00000000: 4c8a 94bd 5541 cb3d 4d02 393d 9db1 e2bc
00000010: f470 85bd 39e9 babd 3102 85bd e7cc 7cbd
00000020: 6d41 0c3d d5c3 4bbc 5d22 2fbc d413 103d
00000030: b1a0 ef3a 7b1b 07bd 6996 633d 0887 cebd
-0.072529405 0.099245705 0.04516821 -0.027672583 -0.06515685 -0.09126515 -0.064945586 -0.061718848
0.034242082 -0.012436827 -0.010689345 0.03517516 0.0018282143 -0.03298519 0.055563364 -0.10084349

cnn_blocks.0.convs.1.weight f4 [16, 16, 3, 3]
00000000: 9c03 5cbd cdc9 95bc 625e 76bd 3750 343d
00000010: f24c 183d 9cd8 593d d010 d1bc 4be9 103e
00000020: c1c0 60bd 28a0 78bd 3d2b 0c3d 503d 4b3c
00000030: 64b2 0d3d ec38 413e 825d 0b3e e540 bd3d
00000040: a2a0 5b3d 53d2 4bbd 4194 d2bc 0001 0e3e
00000050: 759a cdbc 36a5 7fbd a853 303c 5716 acbd
00000060: 9fc7 943d 18e6 c2bb ed8c a93a ac26 0c3e
00000070: bd46 453c 2c3e d3bc 3bea c63d aef9 bfba
00000080: d622 463d 2d79 2a3d 031f 03bd 16bc 99bb
00000090: c573 81bd 1953 0cbe 99cc 0c3d 7e52 21be
000000a0: 26a9 c7bc b413 6b3d a2fb fdbc c54a b6bc
000000b0: aec1 f4bd 0da6 243d acd5 5abd c6be 31bd
000000c0: 26ce c83c d790 da3c e4e9 803c 4993 0dbe
000000d0: ddc2 8dbd 0bca 633d e91b a6bd dfc2 0d3b
000000e0: 3319 383d 5f39 1e3e ccea b73d 946b 28bd
000000f0: 3322 f2bd 8f73 943c cb5f 993b fd9e 50bc
00000100: 1497 a03d 763a 5abd f78f 66bd 80dd 0bbc
00000110: d829 843c c73d ab3d 8253 26bc 023f d8bd
00000120: 0ad1 c93d 19ee 323e 4d2c 5abd ca8d c9bd
00000130: 9d6c 813b 7edf d63d f0cb 8f3b ec2f 37bd
00000140: 4467 48bd 89d0 8dbd b7e1 a03a 0739 103a
00000150: d99e d63d a874 8cbc fb3c b6bd d610 143e
00000160: 8485 4a3d 655c 04be ed54 3e3b 58b5 363b
00000170: 22e6 553d eeac 273a 1996 d53d 1c61 9e3d
00000180: 559b 22be c92d 72bc 11d6 ed3c fa2c bf3d
00000190: 65e2 e83c 603a 80bc 5cb0 7c3d 73e6 d4bc
000001a0: 512a 803d 164d 4abd c4ff ad3d 0ab7 f73d
000001b0: 198e b23d c78d e3bb e9b9 e43d 76aa c03c
000001c0: aa52 84bd 1e63 06bd cc5a a9bd 45ba 2fbd
000001d0: a878 8f3c d629 273c 2066 4fbd d516 3f3c
000001e0: 8da1 173d 4de0 953d 122b d93c 7995 80bd
000001f0: 9d57 46bd 809b 253c b75a e53b a1dd 2a3c
00000200: 0351 0bbd 4a05 e5bd 0ff3 03bd db16 fcbd
00000210: fe67 013e e790 98bc eb1a d53c 9f69 b23c
00000220: 45e8 813d 90f3 bb3b 8e83 a43c 73a3 1e3d
00000230: b05a d2bb 0de1 00be 65cf 0fbe a9e2 ef3d
00000240: 4707 ccbd f039 483d 3fc3 f33b c97d 15be
00000250: 7b31 9d3d 7472 d1bd b40f 4e3c b00b 1dbd
00000260: 20bc 1d3d 5d0c 9f3c 080f 243e 0a74 ad38
00000270: 32d6 773d 27e6 b63d 16a7 a6bd c89c dfbd
00000280: e973 a9bc 702c debd 2131 c93b 356f dd3b
00000290: 3eb3 813d b93a 323d a830 6b3d 86a6 7a3d
000002a0: 2aee 0c3e d148 26bc 9f42 10be a2ef 813d
000002b0: 1089 e6bc a8ee aabd bba5 993d c5ef 8f3d
000002c0: f373 d1bd 665a 023e 7702 083d ed1f f7bd
000002d0: e316 ab3d 888a 2cbd ae65 243c 349d d5bb
000002e0: 15fc 0d3d e7d3 16bc a8db 61bd 5d9d 0039
000002f0: 8e61 393d 9b30 45be d2c1 593d 9554 993d
00000300: c376 f3bd b3af dc3c 22d1 b43d 4ad0 183e
00000310: c765 39bb 8639 6a3d adb1 643d ec22 1bbd
00000320: 95c1 693d 0945 463d bc53 39bc 6c0a 483e
00000330: 78de dd3d 4d7e 9dbd 94fd debb 1247 38bd
00000340: d3b2 f03d 2a7c 5d3d abb0 b5bd 291a eabc
00000350: a06c debc 6a24 243d 71ee 2bbd 34b9 1cbd
00000360: 3144 d0bc 38da c6bc b1bc 053e 04f3 5bbd
00000370: d9af 67bc e1dd cfbd 98a9 c3bc f4ac 053e
00000380: c253 6cbc 3259 d8bd 1327 1f3d 548b 40be
00000390: c62e 07be c8aa 5a3d 1af0 12bd 195a 303c
000003a0: 983a 58bd 706b 2fbd 446f 05be 0b54 96bb
000003b0: 4375 483d 7ffb 41bd 23ee 13bc 197f 3ebd
000003c0: ceef 4dbc 8b00 ecbd 4383 af3c 4c23 d7bd
000003d0: c1a9 d23b 9e4d 7a3b a93a 893d a597 673d
000003e0: 65f1 acbd a660 213e d2d3 31bd 4e29 36be
000003f0: 1a3e ab3d 1808 bbbd 9114 e93c 6fe1 2ebd
-0.05371438 -0.018284703 -0.060148604 0.04402181 0.037182756 0.05318509 -0.025520712 0.14151494
-0.054871324 -0.060699612 0.034220923 0.012404755 0.034593955 0.1886937 0.13609889 0.09240893
0.05361999 -0.049761128 -0.025705459 0.13867569 -0.025098065 -0.062413417 0.010762133 -0.084026985
0.07264637 -0.0059478395 0.0012935676 0.13686627 0.012040791 -0.025786482 0.09712645 -0.0014646554
0.048373066 0.04161947 -0.032011997 -0.004691611 -0.063209094 -0.13703574 0.034374807 -0.15754125
-0.024372648 0.057391837 -0.031003777 -0.02225245 -0.11951004 0.04019742 -0.05342643 -0.043394826
0.024512362 0.026680393 0.015736528 -0.13825716 -0.06921933 0.055612605 -0.08110792 0.0021631045
0.044945907 0.15451573 0.08980331 -0.04111822 -0.11822929 0.018121509 0.004680609 -0.012733218
0.07841316 -0.05327841 -0.05628964 -0.008536696 0.016133234 0.083613925 -0.010151746 -0.10558893
0.09854324 0.1747364 -0.053264905 -0.09841497 0.0039497153 0.104918465 0.004388325 -0.044723436
-0.048926607 -0.069245405 0.00122743 0.0005501662 0.104795165 -0.01714547 -0.0889835 0.14459547
0.049443737 -0.1292587 0.002904232 0.0027879085 0.052221425 0.0006396313 0.104290195 0.07733366
-0.15879567 -0.014781424 0.029032739 0.093347505 0.028428266 -0.015652835 0.061691627 -0.025988793
0.06258071 -0.04938992 0.08496049 0.12095459 0.08718509 -0.0069443914 0.11168272 0.023518782
-0.064610794 -0.03280937 -0.08269271 -0.04290225 0.017513588 0.010202846 -0.050634503 0.011663158
0.0370193 0.073181726 0.026509795 -0.0627851 -0.0484234 0.010107875 0.0069993394 0.010428817
-0.034012806 -0.111826494 -0.03221422 -0.12309047 0.12637326 -0.018623782 0.026013812 0.02177888
0.0634313 0.005735822 0.020082261 0.038730096 -0.006419502 -0.1258585 -0.14043958 0.11713154
-0.099623255 0.04888338 0.0074390466 -0.14598764 0.07675453 -0.10226908 0.012576986 -0.038341224
0.038509488 0.019415075 0.16021359 8.270897e-05 0.060507007 0.08930617 -0.08137338 -0.109185755
-0.020685153 -0.108483195 0.00613989 0.0067576417 0.06333016 0.043513034 0.05741945 0.061193965
0.13762727 -0.010149197 -0.14087914 0.063445345 -0.028141528 -0.08346301 0.07502314 0.07028154
-0.10227194 0.12729797 0.033205476 -0.12066636 0.08353975 -0.0421243 0.010034008 -0.006518984
0.034664232 -0.009205795 -0.05514112 0.00012265654 0.04525905 -0.19256823 0.053163357 0.07486836
-0.118878864 0.026939249 0.088289514 0.14923206 -0.0028289424 0.057183765 0.055833507 -0.0378751
0.05706938 0.04840568 -0.011311468 0.19535226 0.10833448 -0.076901056 -0.006805131 -0.044989653
0.11752858 0.05407349 -0.08871587 -0.028576927 -0.027151406 0.04007379 -0.041975442 -0.03826256
-0.025423141 -0.024273977 0.13060261 -0.053698555 -0.014141046 -0.10149742 -0.02388458 0.13054258
-0.014424266 -0.10563888 0.038855623 -0.1880315 -0.13201436 0.053385526 -0.03587351 0.010763668
-0.052790254 -0.04282707 -0.13030726 -0.0045876554 0.048939954 -0.047358986 -0.009028944 -0.04650793
-0.012569381 -0.11523541 0.021424895 -0.10504779 0.0064289276 0.0038193236 0.06700642 0.056541104
-0.0844448 0.15759525 -0.0434149 -0.17789194 0.08361454 -0.09132403 0.02845219 -0.04269546

cnn_blocks.0.convs.1.bias f4 [16]
00000000: 84bd 8a3d b9be b33d d5e5 06bd 7db2 2e3c
00000010: 1518 9c3d 46a9 62bd 8ecf 963d d772 3d3d
00000020: 106f 48bc 9f57 673d c849 47ba 5c93 68bd
00000030: 4fb1 5cbd 830d 61bd afe0 6d3c 757a eabc
0.067744285 0.08776612 -0.03293403 0.010662672 0.07621781 -0.055337213 0.07363807 0.046252098
-0.012233511 0.056480046 -0.0007602242 -0.056781158 -0.053880032 -0.054944526 0.014518901 -0.028622845

cnn_blocks.0.norms.0.weight f4 [16]
00000000: 9d34 793f b265 863f 6124 873f 04ce 803f
00000010: a045 783f 55d2 7d3f fcfc 783f 9ca4 833f
00000020: 9693 813f 7123 793f 3e49 803f 3fac 783f
00000030: 3dd8 7f3f eba4 7c3f 7e28 7a3f 10e5 823f
0.97345906 1.0499785 1.0557977 1.0062871 0.9698124 0.99149066 0.97261024 1.028461
1.0123165 0.97319704 1.0022352 0.97137827 0.9993933 0.98689145 0.97718036 1.0226154

cnn_blocks.0.norms.0.bias f4 [16]
00000000: 31f3 b1bd 6b9e b8bd 7aed 593d 200d e1bd
00000010: 5172 c03c 5d6b 00be e2f9 95bd 31a5 b9bd
00000020: b941 e6bd 70a2 85bc 72c3 75bd f020 aebd
00000030: a975 3dbe 5541 03be 95a9 09be 5d07 5cbd
-0.08688963 -0.09014591 0.05320499 -0.109888315 0.02349201 -0.12540956 -0.07323052 -0.09064711
-0.11243004 -0.016312808 -0.060000844 -0.08502376 -0.18501915 -0.12817891 -0.13443597 -0.05371796

cnn_blocks.0.norms.0.running_mean f4 [16]
00000000: c965 21be 1267 ac3d 8910 613c beda 35be
00000010: a20b 693c 2007 d0bd 79fd 86bd a504 40be
00000020: b256 b6bd 1439 fd3c 45de f73c c071 0c3e
00000030: d3eb 82bd 5069 a5bd 9a39 f53d 03d3 60bd
-0.15761484 0.084180966 0.013736852 -0.17759225 0.014223965 -0.10157609 -0.06591315 -0.18751772
-0.089032546 0.030911006 0.030257354 0.13715267 -0.06392636 -0.080767274 0.11973877 -0.054888736

cnn_blocks.0.norms.0.running_var f4 [16]
00000000: 7fe4 2d3d eef7 a33d bd08 843d 2805 893d
00000010: a1db 953d 97ea 863d 124e 853d 1466 693d
00000020: 6a73 803d 5ed4 203d 8e90 403d c479 483d
00000030: 5107 623d fab2 6b3d 721c 793d abc9 a63d
0.04245424 0.08006273 0.06446979 0.066904366 0.073172815 0.06587713 0.06509031 0.056982115
0.062720135 0.03926503 0.047012858 0.04894425 0.05518276 0.057543732 0.060818143 0.08143934

cnn_blocks.0.norms.1.weight f4 [16]
00000000: b352 913f 74c7 863f bedf 893f a730 973f
00000010: ba15 8a3f a3b8 833f 686c 943f 331a 8e3f
00000020: a2e4 993f e1e8 8a3f f16e 8f3f 35b0 903f
00000030: 6ee4 9b3f 8e09 923f cbc5 8f3f 8618 8d3f
1.1353363 1.0529618 1.0771406 1.1811723 1.078788 1.0290722 1.1595583 1.1101745
1.2022898 1.0852319 1.1205732 1.1303774 1.2179086 1.1409166 1.1232237 1.1023109

cnn_blocks.0.norms.1.bias f4 [16]
00000000: a4e8 313d 4327 313b a907 123b 3d34 963c
00000010: 3930 db3c 8b40 2ebb 751e d0bb 59f4 b93b
00000020: 2929 77bd 0039 b7bc 2523 81bd 5c4d 88bd
00000030: 895c 35bd 0065 23bd e7da 3cbc 4612 363d
0.043434754 0.0027031458 0.0022282398 0.018335456 0.026756393 -0.0026588764 -0.006351287 0.0056748805
-0.060341988 -0.022366047 -0.063055314 -0.0665538 -0.0442777 -0.039891243 -0.0115268 0.04445102

cnn_blocks.0.norms.1.running_mean f4 [16]
00000000: 3714 6d3e db21 7c3e bed5 5b3d 9595 92be
00000010: 2d2e 243e 786d a93e 303f 91be 87d9 e93d
00000020: b500 953e e9c5 2c3d 793e ea3c 4df2 093c
00000030: c186 093e 99c5 adbc 6486 a4be afdf 763c
0.23152243 0.2462229 0.053670637 -0.28629747 0.1603324 0.3309133 -0.2836852 0.11418443
0.29102102 0.04218093 0.028594242 0.008419585 0.13430311 -0.021212386 -0.32133782 0.015067979

cnn_blocks.0.norms.1.running_var f4 [16]
00000000: 0afa 7a3d 8626 9a3d fc2b ba3d a1f8 e93d
00000010: 4414 b93d 2fbd 7a3d 7fe5 d93d 0372 cb3d
00000020: 1811 9c3d aa2a d93d 4e64 883d a05e 833d
00000030: 6566 dc3d 057e b43d b260 ce3d 0774 433e
0.061273612 0.07526879 0.090904206 0.11424375 0.090370685 0.061215576 0.10639476 0.099338554
0.07620448 0.10603841 0.066597566 0.06414533 0.10761718 0.08813099 0.10077037 0.1908723
