checkpoints/abl_rnn_only/final_model.pt (torch, 86258 bytes, 50 tensors)

embedder.feature_projections.0.weight f4 [32, 1]
00000000: b4c0 943e e595 233f 9b12 663e 40b3 4f3f
00000010: 4a0a 8dbe f774 7fbf dfc2 dfbe 6138 21bf
00000020: 5614 52bf e122 a23f b419 68bf a89b 9d3d
00000030: cd22 503f 9dd3 60bf dcbb 313f 76d5 713f
00000040: ab96 863f 70c4 17bf 8842 a2bf 1556 2f3f
00000050: 9d71 233f f8e0 6a3f 340d 36bf 5192 07bf
00000060: 9bbb 87bf 2b48 e9be 4a40 d83e 246b 933e
00000070: cb59 833f fdcb a13e de63 39bf 1440 90bf
0.2905327 0.63900596 0.22468035 0.8113289 -0.27546912 -0.9978785 -0.43703362 -0.6297665
-0.8206228 1.2666894 -0.9066422 0.07695705 0.813031 -0.87822896 0.69427276 0.9446634
1.051473 -0.59284115 -1.2676554 0.68490726 0.63845235 0.91749525 -0.71113896 -0.52957636
-1.0604128 -0.45562872 0.4223655 0.2879268 1.0261778 0.31600943 -0.7241801 -1.1269555

embedder.feature_projections.0.bias f4 [32]
00000000: c803 333f 5021 023e f480 1d3f a910 5abf
00000010: ec0a 8dbe 5942 e53e 4387 0c3f 7ea0 263f
00000020: ffa2 babe a674 acbe 6fb1 e4be 6048 553e
00000030: 7753 fcbe 7da3 77bd c8d6 9c3e bace 473e
00000040: b2b5 66be 5a0e 243f df90 ea3e 3411 833d
00000050: 9826 23bf 64a7 ca3e 7406 763f a1d8 ff3e
00000060: 9a29 b0bd 43fc 053f ca66 d63e 78a3 9a3e
00000070: 96ec d3be 4d69 6cbf 53f7 b7be 3c72 aabe
0.69927645 0.1270802 0.6152489 -0.8518167 -0.27547395 0.44777182 0.54893893 0.6508864
-0.3645248 -0.33682746 -0.4466662 0.2082839 -0.4928243 -0.06045865 0.30632615 0.19512454
-0.22530249 0.640844 0.45813653 0.063997656 -0.63730764 0.39580834 0.96103597 0.49969962
-0.08601685 0.52338046 0.41875297 0.30202842 -0.41391438 -0.92348176 -0.3593088 -0.3329028

embedder.feature_projections.1.weight f4 [32, 1]
00000000: 3048 a8bd f81e ff3e d11f 5abe d642 043f
00000010: 4083 e3be 2435 153f fad3 babe 9402 5bbf
00000020: 6cb1 603e 9373 cd3e c3f6 b0bd 22d5 b3be
00000030: e588 a93d 4bb9 20bf c1c5 0bbd 06fd 3abf
00000040: cfef aebe 138e 70bd 9fca 043f 07ef 55bf
00000050: a517 db3e 7935 80be 3a73 e83d c71c 16be
00000060: e602 6bbf 12b9 43bf 02a7 e83e 7b74 8f3e
00000070: bcda 43bf 0abe df3e c8a0 91bd d690 083f
-0.08216894 0.49828315 -0.213012 0.51664484 -0.44436073 0.5828421 -0.3648985 -0.8555081
0.21942681 0.4012724 -0.08640816 -0.35123545 0.08278064 -0.62782735 -0.03412414 -0.73042333
-0.34167334 -0.058729243 0.51871675 -0.8356785 0.42791477 -0.25040796 0.11350103 -0.14659415
-0.918013 -0.7645427 0.45439917 0.28018555 -0.7650564 0.43699676 -0.07110745 0.53346

embedder.feature_projections.1.bias f4 [32]
00000000: 9061 8fbe 1cba 35be c5c2 cb3e df87 1a3f
00000010: 643b 043e abda 133f ef52 63be 90dd 4c3f
00000020: 03ef 8ebe 2719 743f b8e9 033f 6bc2 1bbf
00000030: dff5 d73e dcab 8ebe ec87 463f fa10 39bf
00000040: 44ad 5c3e 8d58 f83e 7e2a 78be 9b47 60bd
00000050: dcab 3c3f e01a 913e 1ed0 be3e c6ba 0d3f
00000060: a1ef 493f 81b3 383f 30ce 003f 5623 b1be
00000070: 9965 2c3f 7141 0bbf 7c13 46be 964d bbbe
-0.28004122 -0.17746776 0.39797035 0.6036357 0.1291328 0.57755536 -0.22199605 0.8002558
-0.27916726 0.9535088 0.515285 -0.60843533 0.42179772 -0.27865493 0.7755115 -0.7229153
0.2155047 0.4850506 -0.2423496 -0.05475579 0.73699737 0.28340816 0.37268156 0.5536312
0.7888127 0.721489 0.5031462 -0.34597272 0.67342526 -0.5439673 -0.1934337 -0.3658263

embedder.stabilizer_embedding.weight f4 [8, 32]
00000000: ee63 4f3f 9a03 0b3f 64b5 73bf 0cec 8a3f
00000010: 610a 3ebd c1dd b5be 5e86 3a3f 8d08 c93d
00000020: 1ab5 3f3f 7bdd 3cbf 26aa 82bc b5df e9be
00000030: a6a1 c1bc b8ac 9e3e 6b6a fb3e 4c73 c2bf
00000040: e101 94bf a851 0fbd 5e04 133f 7541 3b3e
00000050: d319 b4be e995 1dbf 671b fcbe 33f3 c03f
00000060: e98d 843e a577 f2ba 11b4 173f 1ecd 3a3e
00000070: 78b6 05be 34d6 453f 5277 b33f 6f82 85bf
00000080: f562 103f 7b1b 30bf fa08 033f 5ad4 0fbf
00000090: 2f0d 223f 8e4b 07bf 2e31 03bf f7ee 11bf
000000a0: a0cc 923f 63b8 1fbf 001e 74be a289 9abf
000000b0: 345e 31bf 0e23 96be b414 0f3f 90d7 9e3f
000000c0: 4224 0b40 888d ecbf d02a 99bf f693 1ebf
000000d0: 85ae 373e d293 02c0 96f6 33be 24e4 883d
000000e0: 44ba 83be 4dbe 1ebf a8ae 43bf 7501 bfbe
000000f0: f832 febd af82 b73e 06a3 013f ad9c babf
00000100: 2c7a 923f c2b4 e1bd 25fa 48bf 8bc2 9ebf
00000110: 30c8 873e f6ca 12bf 4d18 813e 3196 383e
00000120: c2f6 e93f ecd1 c7be 0ca3 d3be 6e67 afbf
00000130: 4806 7d3f ba4d 783e 84ba 543f 922e a63f
00000140: 23a9 3e3f f72c 093f d7cc f63f e540 8ebe
00000150: 88bb f43d dba8 80bf dd62 aebf 2059 663f
00000160: e398 27be ff71 bd3e 69c4 0040 34c5 803f
00000170: ee76 413d 9a5a a8be 9b63 e33e 67be d23e
00000180: f065 d2be 6d70 8c3f 6ad6 9fbf 7415 153f
00000190: 5c7f 3dbf a2ae e6bf d033 763f 1e4f 4fbf
000001a0: 0cd0 963f 4f19 bd3e 4b88 67bc 0a78 b1be
000001b0: 6e0e 06be afcd d23f 0153 4dbf 3fc5 f63f
000001c0: ea7d 453e 7cca 93be 6d80 143f 271d 823f
000001d0: 9a27 5e3f 7c04 f7bd d37b 80bf 273c a5bf
000001e0: f015 823f 19fe a1bf 0763 48bf 9072 863f
000001f0: 4fd9 afbf 7632 cb3f 3fff 653e e55b ffbd
00000200: 13a6 98be eff0 f03f e411 62be 90bf a53f
00000210: 9383 59be f7ec 2dc0 b46a 443f fab2 94bf
00000220: 34c0 1c40 c4c1 2ebe 7712 083f 4af8 0040
00000230: 823c f63f 6238 f7bf fe9c 973f 0d15 093f
00000240: 5eba 8b3f 1ac9 0bc0 b82e b53e 5db6 ffbf
00000250: ee39 bc3e ea74 d2bf 156b ffbf dd89 fc3d
00000260: cc36 4f3f ff3b 6cbf 1018 dbbe 883b 8abd
00000270: cc17 afbf 22ce 0cc0 8379 a7be a4b2 bbbe
00000280: deb9 f63e 93f9 203e ee17 0bbf d4e7 3bbf
00000290: bc1c 953f 0ac0 a0bf 94cd 51bf 4e8a 45bf
000002a0: 1f3e 85bf cd9f 063e b6d6 a13e c43e 663f
000002b0: df62 583f 1f8b 123f 4fe3 2dbf 4d48 cf3f
000002c0: a374 d6bf 71d2 83bf 9835 173f 6f56 993f
000002d0: 4dd4 0e3f 5d1c fabf 9176 803e d666 53bd
000002e0: 67be 783f 5bfc 3ebe fec2 613e fb64 033f
000002f0: d522 a1bf afaf cfbe c33a 93bd c924 efbe
00000300: af52 99bf 550f 51bf bd07 32be 672b 92bf
00000310: 42c3 2dc0 f741 ae3f 62ec bebd 213a 59bf
00000320: c7d6 113f 41c6 d63e f7b0 993e e866 8c3e
00000330: 217d e13f 6634 0a3f 4790 fb3d 4634 51bd
00000340: fec5 523e 5094 13be d97c 5ebf b9f2 2fbf
00000350: 6134 e23f 815c 613d b110 563f 4b2c 8bbf
00000360: 26ba 30bf 0a7e d3be 747a ab3f d4e7 3b3e
00000370: d932 893e 7924 543d 4f61 ca3e 7e9a 41bf
00000380: 7498 ca3f f410 f7bf 47ab 8f3f 6f41 953e
00000390: 6077 95be 4c28 eb3f ae61 533c c263 03bf
000003a0: 2a27 98be 7a35 00bf 9b73 c13f ecf1 913f
000003b0: 2181 253f f3fb b93f c106 d33b 9a26 913f
000003c0: 8fe7 b1be ef2b 773d d35b 563e 126c 9f3f
000003d0: acd7 b03f c02f 1cbf 54e3 1640 6e40 3fbe
000003e0: 7df0 a6bf 2d43 243f 610b b63e 34c3 4e3f
000003f0: 69ab 1e3e f19c abbe ad76 833f 6179 a13d
0.81011856 0.5430237 -0.95198655 1.0853286 -0.046396617 -0.35520747 0.7286128 0.09816084
0.74885714 -0.7377545 -0.015950274 -0.45678487 -0.02363665 0.3099115 0.49104628 -1.5191436
-1.1563073 -0.034989983 0.5742854 0.18286689 -0.35175952 -0.6155687 -0.49239656 1.5074219
0.2588952 -0.0018498792 0.59259135 0.18242308 -0.13057888 0.77279973 1.4020789 -1.043043
0.56400996 -0.6879193 0.5118557 -0.561834 0.63301367 -0.5284966 -0.5124692 -0.57005256
1.1468697 -0.62390727 -0.23839569 -1.2073252 -0.6928437 -0.2932362 0.55890965 1.2409534
2.174088 -1.8480692 -1.196619 -0.6194452 0.17937668 -2.0402722 -0.17574534 0.06684139
-0.25728047 -0.62009126 -0.7643838 -0.373058 -0.12412065 0.3584189 0.5063938 -1.4579064
1.1443534 -0.11020805 -0.7850669 -1.240312 0.26519918 -0.57340944 0.25213853 0.18026043
1.827843 -0.39027345 -0.41335332 -1.3703439 0.9883771 0.242484 0.830971 1.2982962
0.7447683 0.53584236 1.9281262 -0.27783886 0.11949831 -1.0051531 -1.3623921 0.89979744
-0.16366915 0.37001035 2.011988 1.0060182 0.04723256 -0.32881624 0.4441193 0.4116089
-0.41093397 1.097181 -1.2487309 0.5823586 -0.7402246 -1.8022044 0.9617281 -0.809801
1.1782241 0.3693337 -0.014131616 -0.34661895 -0.13091442 1.646902 -0.8020478 1.9278945
0.19286314 -0.2886542 0.5800846 1.0165147 0.8677918 -0.12061402 -1.0037788 -1.2908982
1.0162945 -1.265567 -0.78276104 1.0503712 -1.3738192 1.5874774 0.2246065 -0.12468699
-0.29814205 1.8823527 -0.22077137 1.2949085 -0.21241598 -2.7175882 0.76725316 -1.1617119
2.4492311 -0.17066103 0.53153175 2.0151544 1.9237216 -1.9314082 1.1844785 0.53547746
1.091625 -2.1841493 0.35387206 -1.9977528 0.36762947 -1.6441929 -1.9954554 0.12330983
0.8094299 -0.92279047 -0.42791796 -0.06749636 -1.3679137 -2.2000813 -0.32709894 -0.3665973
0.4818868 0.15720205 -0.5433339 -0.73400617 1.1649394 -1.2558606 -0.8195431 -0.7716416
-1.0409583 0.13146897 0.31609124 0.8993952 0.84525865 0.5724353 -0.6792497 1.619394
-1.6754345 -1.0298597 0.5906615 1.1979502 0.55792695 -1.9539906 0.2509046 -0.051611744
0.9716553 -0.18650953 0.2204704 0.5132596 -1.2588755 -0.40563723 -0.07188942 -0.46707752
-1.1978358 -0.8166402 -0.17385764 -1.1419495 -2.7150426 1.3613881 -0.0932243 -0.8485432
0.5696835 0.4194813 0.30017826 0.2742226 1.7616311 0.53986204 0.12283378 -0.051075242
0.2058334 -0.14412045 -0.8690925 -0.6872974 1.7672235 0.05501986 0.8361922 -1.0872892
-0.6903404 -0.41307098 1.3396745 0.18350154 0.26796606 0.051792596 0.39527366 -0.7562636
1.5827775 -1.9302049 1.1224145 0.29151484 -0.29192638 1.8371673 0.012901707 -0.51324093
-0.2971738 -0.500816 1.5113405 1.1401954 0.6465016 1.4530014 0.006440014 1.1339905
-0.34746978 0.060344633 0.20933466 1.2454855 1.3815818 -0.6101036 2.357625 -0.18676922
-1.3042141 0.64165 0.35555556 0.80766606 0.15495075 -0.33518174 1.0270592 0.07884479

embedder.res_block.0.weight f4 [32]
00000000: 80df 9d3f 27e5 753f da28 773f e6c4 933f
00000010: b907 843f 9ece 843f 95fa 833f 5136 893f
00000020: 473c 883f dec2 903f 4d81 9e3f 6286 8d3f
00000030: 540f 883f a336 8d3f 7558 853f 0dce 8b3f
00000040: aa6e 883f f380 823f f4ee 963f 2013 903f
00000050: 4575 7b3f d211 923f d4fa 8b3f b64b 7f3f
00000060: 669c 953f dfb9 823f 951e 803f 0b72 993f
00000070: 28f5 983f 5811 853f 79e9 793f f44f 813f
1.2333832 0.96052784 0.9654671 1.1544464 1.0314857 1.0375555 1.0310847 1.0719701
1.0643395 1.1309469 1.238321 1.1056635 1.0629678 1.1032299 1.041762 1.0922257
1.0658772 1.0195602 1.1791673 1.1255836 0.98225814 1.1411688 1.0935922 0.997249
1.1688354 1.0212973 1.0009333 1.1987928 1.1949816 1.0395918 0.97621876 1.0102525

embedder.res_block.0.bias f4 [32]
00000000: 55be 103c 0d64 d63c 1f5a a1bd bd6e 59bb
00000010: 8be3 2c3d 80af c1ba c563 673d 0543 8ebb
00000020: dd87 573d 28b0 16bd 37dd 0c3d 2f23 a23c
00000030: d513 7fbd 5d18 173d 2df5 b2ba 29a1 a6bc
00000040: ab8d 3d3c 7750 ab3c a617 273c f4b3 0e3d
00000050: 546c 14bd face c43c 65c2 773c c956 8ebb
00000060: 2bfc 0f3d 74c6 4abd 2ed0 b6bc 1e90 023d
00000070: 5464 1bbd e39d aa3c 1b9c 753d 5fc6 1d3d
0.008834441 0.026170755 -0.07878517 -0.0033177577 0.04220919 -0.0014777035 0.056491632 -0.0043414854
0.052619804 -0.03678909 0.034390654 0.019792167 -0.062274773 0.03688847 -0.001365339 -0.020340519
0.011569421 0.020912392 0.010198509 0.034839585 -0.036236122 0.024024475 0.015122031 -0.0043438417
0.035152595 -0.049505666 -0.022316065 0.031875722 -0.037937477 0.02082724 0.059963327 0.03851926

embedder.res_block.1.weight f4 [32, 32]
00000000: 154b 3abe 6ca4 d03c d901 1a3e 96d0 543c
00000010: d20a cabd 325b d2bb 9ca9 7dbd a324 18bd
00000020: 1306 c1bc 694a 5a3e cfd8 d13b 2343 bf3e
00000030: 33a5 d73d 2452 82be a5cd 01be ed6f 073d
00000040: ba03 813e 9e64 2abe ad57 d3bd 4e21 27be
00000050: 9892 373e f955 01be 1464 8dba ce25 cf3d
00000060: e07a 20be 92e5 8fbd 3bc6 bcbd 702e 82bd
00000070: 988c 9c3e 4774 9abc 6337 6a3c 55a8 ac3d
00000080: ce7b 123d 93e4 9e3d 6ea3 8cbd 0e1c 983e
00000090: 1173 acbc bd9f 80bd a176 383e 35d8 acbd
000000a0: 01ce e63b e6ee 963d 1f6a 62be 75a3 e8bd
000000b0: 1d97 c4bd f7af 38be 7ff8 0cbe 40c0 4e3d
000000c0: df91 7f3d 4ec8 2dbc 2161 af3d 480e 9c3d
000000d0: 2099 0eba a4fb 0a3e 395e d5be 089b 8a3d
000000e0: 0c8f 93be b2dd 923c f68f b13d 648d 273e
000000f0: 3211 ba3e 10cc 513e 9719 fd3c db68 c1bd
00000100: 9a87 43bd 10a4 d53d 5c74 423e d7e5 13be
00000110: f45b 573e d5d8 963d 2a62 f3bc cc00 443d
00000120: c065 44bc a4cc 1d3e 8aa7 40bd 5c8a b2bd
00000130: eff2 7bbe cbaf 283d 46aa bf3d 2f04 003e
00000140: b4e1 acbc abb7 31be e361 0abc 4f80 5ebd
00000150: 0e41 123e 020a 8cbe 2054 803e 3158 7cbd
00000160: a03e e7bd cec1 ee3d 9627 ecbd 20da 34be
00000170: 6bee 5dbe ea5f ebbc 647d 06bd 28f8 d53d
00000180: 6240 b7bd c007 d63b 88b5 a3bd 99ad e9bd
00000190: 6818 a63d 0175 ca3d 875f 893d d6fa cb3d
000001a0: f778 9c3e ecd5 90be 2595 15be 2b70 72be
000001b0: ae91 69be cb28 fcbd d255 24be 8034 9a3b
000001c0: 2e28 d63b 76e6 d2bd eff5 e3bd a94b 99bc
000001d0: 15cd 4bbe 71b5 42be 345b 183e 8929 7e3d
000001e0: 87fe 553d d219 6abc d87c 26bd 92d5 8cbd
000001f0: b971 cb3c ba7a c0bd 97eb 423e 619d 1abe
00000200: c749 163e 3d8f 203e 0a17 85be a200 903e
00000210: 9d11 8dbc 8182 51be aa75 463e 0310 213d
00000220: 1a16 053a cfd1 753e 1771 ecbd 9558 76bb
00000230: ae10 03bd 76b8 eebd 99a3 363e 24af 0bbe
00000240: 250c fcbd d065 b73d c756 be3c a3c5 913e
00000250: db76 cfbc bddd 8c3e 0ae8 353d e31e ea3b
00000260: 3ebd 39be 96c7 843d eb09 4a3e b13c 733e
00000270: 0eec 2c3d 299b bebd 63e2 e6bc b609 16bd
00000280: faae 093e 3eed 063e 2ea8 cabd 268d 4abc
00000290: baef e63a 85c6 013e 41cb 0bbc 2458 3e3e
000002a0: 2a27 50bd 6eb1 3cbe 2b94 833e 5493 303d
000002b0: bb8c 0cbc c51c 293e a537 26be 33a9 613e
000002c0: 2922 5f3d f11f ae3d ab16 d43e 2c89 f7bd
000002d0: 2571 573e f9d3 43be 0145 5fbd 7087 71bd
000002e0: 174c 833e 0490 a5bd 7804 35bd a1e0 573e
000002f0: 8a95 a7bd b912 79be c888 a83d c371 82bd
00000300: d7b6 eb3d a4e8 533d b447 f7bc 73af 77bc
00000310: 5c1e d6bd ca65 b63d 8576 7e3d 234b 603d
00000320: da97 37bd 1507 e53d 1966 ab3d e505 1c3e
00000330: 9634 193e b7d5 c9bd f033 1a3e 64a3 0f3c
00000340: 0f88 49bc 7485 243e 8d6c cbbb 676c 633e
00000350: 6129 bbbc 2594 b33e d69b 45bd 219c 75bc
00000360: eb9b 6dbe e126 eabd 4266 9cbd 0071 7a3e
00000370: 1615 0b3e 2655 823d 5e5f 82bd 0663 09be
00000380: a721 8a3d a05e 8c3d 556d 53be 6522 05be
00000390: 23ed f1bd 2f6c 4b3d 46de 643e 408b e63d
000003a0: 63f0 ca3c a425 23be 42c0 1e3e 9e40 473c
000003b0: 1814 84bd e5b6 b2bc 18a1 e0bc 03dc 433d
000003c0: 9926 3dbd 44fb acbd 281f 123e a794 afbd
000003d0: b044 603c 4bd7 b1bc 92cb eebd d864 253d
000003e0: f657 bf3d 6985 43bd 66d1 313e e77d 203e
000003f0: cdcb 7bbe fc2c fb3d c039 46be 512a 5b3d
-0.18192704 0.025469027 0.15039767 0.012989184 -0.09865345 -0.0064195627 -0.06192933 -0.037144314
-0.023562467 0.21317448 0.0064040194 0.3735591 0.10529556 -0.25453293 -0.12676103 0.033065725
0.25198156 -0.16639945 -0.10319457 -0.16321298 0.17927015 -0.12630452 -0.0010787272 0.101146325
-0.15671873 -0.07026209 -0.09217497 -0.063565135 0.30576015 -0.018854273 0.014295432 0.08430544
0.0357626 0.07758441 -0.06867109 0.29708904 -0.021050962 -0.06280468 0.18014003 -0.08439676
0.0070436005 0.07369785 -0.22110794 -0.11359302 -0.09599135 -0.18035875 -0.13766669 0.050476313
0.062394973 -0.010606838 0.08563448 0.076199114 -0.00054396875 0.13572556 -0.4167345 0.06767851
-0.28820074 0.017927978 0.086700365 0.1636253 0.36341244 0.20488 0.030895991 -0.09443828
-0.04773674 0.10431683 0.189897 -0.14443146 0.21031171 0.07365576 -0.029709894 0.047852322
-0.01198715 0.15410095 -0.047034778 -0.08717796 -0.2460439 0.041183274 0.09358649 0.12501596
-0.021103717 -0.1735522 -0.00844619 -0.054321583 0.14282629 -0.27351385 0.25064182 -0.061607543
-0.11291242 0.11658059 -0.11530988 -0.17661333 -0.2167298 -0.028732259 -0.032834426 0.10447723
-0.08947827 0.0065316856 -0.07993609 -0.11410064 0.08110124 0.09885598 0.067076735 0.099599525
0.3056104 -0.2828821 -0.14607675 -0.23675601 -0.22809479 -0.12312468 -0.16048363 0.0047059655
0.0065355515 -0.10297863 -0.111308925 -0.018712835 -0.19902451 -0.19014527 0.14878541 0.06205133
0.05224469 -0.014288383 -0.040646404 -0.06876673 0.0248345 -0.09398408 0.19035183 -0.15099098
0.14676581 0.15679641 -0.2599414 0.28125483 -0.017220313 -0.2045994 0.19380823 0.03932191
0.0005076841 0.24005817 -0.11545008 -0.003758942 -0.03199833 -0.11656277 0.17835845 -0.1364103
-0.12307004 0.08954966 0.023234738 0.28471097 -0.02532523 0.27512923 0.044410743 0.0071447953
-0.18138596 0.064833805 0.19730346 0.2375362 0.042217307 -0.09306938 -0.028184121 -0.036630355
0.13445655 0.13176438 -0.09895359 -0.012362754 0.0017619052 0.12673385 -0.008532346 0.1858831
-0.0508186 -0.18427059 0.2569898 0.043109253 -0.008578475 0.16514881 -0.16232164 0.220372
0.054475937 0.08502186 0.41423544 -0.1208671 0.21039255 -0.1912383 -0.054509167 -0.058967054
0.2564399 -0.080841094 -0.044193715 0.21081783 -0.08182819 -0.24323548 0.08229214 -0.063693546
0.11509483 0.051735535 -0.030185558 -0.015117514 -0.10455009 0.089061335 0.062124748 0.054759156
-0.04482255 0.111829914 0.08369083 0.15236624 0.14961466 -0.09855216 0.15058875 0.008766983
-0.012300505 0.16066533 -0.0062080086 0.22209321 -0.02284688 0.35073963 -0.04824432 -0.014990837
-0.23204009 -0.11433197 -0.07636692 0.24457169 0.13582262 0.06363897 -0.06365846 -0.1341668
0.067447 0.06853986 -0.20647176 -0.13001402 -0.11812808 0.04966372 0.22350416 0.112570286
0.024772828 -0.15932328 0.15503028 0.012161402 -0.06449145 -0.021815727 -0.027420565 0.04781724
-0.046179388 -0.084463626 0.14269698 -0.08573275 0.013688251 -0.021709105 -0.11659922 0.040379375
0.09342949 -0.04773465 0.17365035 0.15673028 -0.24589463 0.122644395 -0.19357967 0.053507153

embedder.res_block.1.bias f4 [32]
00000000: 974e a13d fba8 83bd 4eef edbc 35bc ef3d
00000010: 31e4 233e eff1 f63d e901 8b3d e058 98bd
00000020: b82a e1bd 0c7d a43d c02f 323e 46be 633c
00000030: 653c c5bc b246 fd3d 2300 8a3d 69f0 f2bd
00000040: af9e e23d d277 523e 3083 693c 1dc8 cdbd
00000050: 3a01 04be 97d0 72bd 76ef d43d af54 a6bd
00000060: 3541 bc3d d987 da3d 0ead 013e 2eb3 d73b
00000070: 2f7c a23c ae1f 14be 43f8 7ebd b6d5 17be
0.07876318 -0.06428715 -0.029044773 0.117058195 0.16005017 0.12057864 0.06787474 -0.074388266
-0.10994476 0.08031663 0.17401028 0.013900345 -0.02407665 0.12367 0.06738307 -0.11862261
0.11065423 0.2055352 0.014252469 -0.10047934 -0.12891093 -0.059280958 0.10397236 -0.08121621
0.09192125 0.10670442 0.12663671 0.006582639 0.019834606 -0.1446521 -0.06224848 -0.14827618

embedder.res_block.3.weight f4 [32, 32]
00000000: 9916 57bd a446 c8bc 8c3a 42be f436 a4bd
00000010: e96e 8c3d a460 7a3d f1cd a33d 66b9 89bd
00000020: 19cc 23be 2dd0 b13d 2540 02be 3f80 30be
00000030: d443 a7bd 4960 b93d bed1 45be c9a4 d8bc
00000040: 89d3 4cbe f527 ff3d 9b4f 7bbd 64f8 813d
00000050: 4ca3 dbbc 38c8 3cbc e6ee 4fbe b4af 3abd
00000060: 5858 03be 25a5 2f3b 57f8 173e 5d1b 423c
00000070: 77ea 68be f5fc 8ebd d98f f43c 87e2 39be
00000080: c1e0 84bd 7325 343c e180 03be bcce 693e
00000090: d8c4 8b3e b8bf 37be b70b d9bb 9da8 f73b
000000a0: dcb2 35bd 6e58 98bd 7485 8fbd 3266 e03d
000000b0: 1ce0 42bc 1921 973b 2772 16be 856f fdbc
000000c0: c4ac 87bd 2673 0cbe 2a1b 3fbe 0258 b43c
000000d0: cbad 8d3d efb8 753e 62d9 8ebd 2771 bc3d
000000e0: 3de6 023e 1071 623e d4f1 15be ed4e ee3b
000000f0: a4dd 16be 56c2 053e 7c54 cabd e5a0 e53e
00000100: a36b 093e 00f3 7bbd bfe7 4e3d e235 f2bb
00000110: 39a4 b23d 150d 8fbd 7c77 333d 16ec 0e3e
00000120: 5cee 1ebe 8f09 bdbd 5d87 62be a48e 37bd
00000130: f12d d53c 0c1d 6dbb a789 14be c4e3 a43d
00000140: 3af8 2cbe ce48 56be 1292 83be ce64 a03c
00000150: c073 743c 5c2f 4a3e 7f92 bc3b eb22 133e
00000160: 5d37 133e cf32 1d3c 500c bcbd 0d3c 223e
00000170: 06ef c7ba 4308 d83d a322 813d 58e8 9a3e
00000180: f07f d1bc b451 4f3e c92a 8c3e 9251 b13b
00000190: d7b2 813d 73b2 2d3e 0e84 08be e107 3abe
000001a0: d6f3 ebbd ae6a ff3c 26a5 263e a7fe 07be
000001b0: a89b 94bd 67c6 0fbe 924e 063e 3975 12be
000001c0: e300 553e 4f1e 233e 0fda 823e e6a7 6abe
000001d0: 3803 933d 84f3 34bd ba5a 07bd b7e0 4eba
000001e0: 7441 38be 04ed 8a3d 3242 463d 49c3 25bd
000001f0: da7d 9a3d 2e0c a3bd 5390 89bd 2804 a9bc
00000200: 577b 9fbe b83d ee3d 520a 5c3e 678d 2cbb
00000210: 2577 5f3e 4efc 84be 81f2 083d e18a 183e
00000220: 1256 173e d8b4 97be ee28 dabb 942d 5c3e
00000230: f78d 91bd ba8c b6bc 73dc ad3e c212 89bd
00000240: 03f5 30be 00e8 d03d 6be7 b43d 19b7 5f3e
00000250: 21d7 23be 954f 493e 3120 22be 789d f33d
00000260: 1763 72bd 4c0a a33d 5867 3e3e 5ef0 22be
00000270: 9bfd 943b 3bc3 953d f99a b73d 11bd d4bd
00000280: e55f cfbd 8019 c23d 1dac d03d 7722 b7bd
00000290: 754b 063e 89a5 743c dd06 2bbe 84ed 0b3c
000002a0: 779c cc3d 15a0 2d3d 8a87 63bd e642 843d
000002b0: d62c 483e 5530 13be ff44 173e 77a9 17bd
000002c0: b7e5 a6bd c06d 5c3e 9630 e1bb 13b8 8c3a
000002d0: 6511 c1bd 03ee 93bd bab9 a6bd 21d2 a3bc
000002e0: b005 fbbd ecc4 b93b 9f3e f2bd 551b 7d3d
000002f0: 2530 953c 3fd6 863d beba 6c3c 5ad4 d0bd
00000300: 9548 fcbd 787e 1c3e 236b 59bb 09e4 d63d
00000310: 690c e13d 901e 833d 6bf8 9ebd 0008 3bbc
00000320: c165 bebd 81d5 24be d642 e63c 767f 38be
00000330: 839d 943c f161 87bd 8d5a d73d c6a7 af3c
00000340: cecc c43d aabe 133e 50b9 87bc 06bb 003e
00000350: 0b13 083e b728 d9bd 1c5e 0c3e 31b6 1abd
00000360: 552f 6d3e 59cc 15be 14c9 1c3e f7b4 71bd
00000370: f943 64bd 74f2 a73d 888c 133e 0fcf 9abe
00000380: dea6 c23c 9a72 37be d5f2 4b3d 3b00 823e
00000390: abd1 6ebe 217b 823e 35f5 55be ac1c 683e
000003a0: 5652 b73c f97a 93bc 9d7d 613e 0ee9 7abc
000003b0: f23e 7b3e 7594 2bbd 188e 743d 2978 2f3e
000003c0: ca2c 8c3e 79ee 753e bde2 643e f61e b33e
000003d0: 8fa8 9fbd b10f 57be 370f 183e ff87 5e3e
000003e0: 9a5c eabc 4deb c2bd 9267 373e f71b 3d3d
000003f0: 2bd0 04bd 47a8 21be 0acc 84be 5f0a d1be
-0.052511785 -0.024447747 -0.18967646 -0.08018294 0.06857092 0.06112732 0.079982646 -0.06724815
-0.15995826 0.086822845 -0.12719782 -0.17236422 -0.08167234 0.09051568 -0.19318292 -0.026445763
-0.2000257 0.12458793 -0.061355215 0.06346205 -0.026811264 -0.011522345 -0.20305976 -0.04557772
-0.12826669 0.0026801315 0.14840828 0.011847344 -0.22745691 -0.069818415 0.029853748 -0.1815282
-0.06488181 0.010995257 -0.12842132 0.22832769 0.27298617 -0.17944229 -0.006623711 0.007557942
-0.044360027 -0.074387416 -0.07007876 0.10956992 -0.011894252 0.0046121 -0.14691983 -0.030936966
-0.06624749 -0.137158 -0.18662706 0.022014622 0.06917914 0.23996328 -0.06975056 0.092012696
0.12783141 0.22113442 -0.14643031 0.0072725923 -0.14732987 0.13062415 -0.09879395 0.44849315
0.13419966 -0.06151104 0.05051398 -0.0073916772 0.08722729 -0.06984917 0.04381512 0.13957247
-0.15520614 -0.09230339 -0.2212195 -0.044813767 0.026022883 -0.0036180643 -0.14505635 0.08051255
-0.16891566 -0.2092621 -0.2569738 0.019579317 0.014920175 0.19744629 0.0057547684 0.14368789
0.14376588 0.009594633 -0.09182036 0.1584322 -0.001525373 0.10548451 0.063054346 0.3025539
-0.0255737 0.20246011 0.27376392 0.0054113353 0.06332939 0.16962604 -0.13331625 -0.18167068
-0.115211174 0.031178799 0.16273937 -0.13280736 -0.072562516 -0.14040528 0.1311591 -0.1430253
0.2080112 0.1592953 0.2555699 -0.2291561 0.07178348 -0.044177547 -0.033045508 -0.00078917615
-0.17993718 0.067834884 0.048402973 -0.04046944 0.075435355 -0.079613075 -0.06716981 -0.020631865
-0.31148788 0.11632866 0.21488312 -0.00263294 0.21822794 -0.25973743 0.033434395 0.14896728
0.14778927 -0.2963016 -0.006657711 0.21501762 -0.07107156 -0.0222839 0.33957252 -0.06693031
-0.17280965 0.102005005 0.08833202 0.2184719 -0.16000034 0.19659264 -0.15832593 0.11895269
-0.05917653 0.07960948 0.1859411 -0.15912005 0.0045468337 0.07312628 0.089651056 -0.10387624
-0.10125712 0.0947752 0.10189078 -0.089421205 0.13114722 0.014932045 -0.16701837 0.008540515
0.09990781 0.042388994 -0.055549182 0.06458072 0.19548354 -0.14373906 0.14772414 -0.03702685
-0.081492834 0.21526241 -0.006872247 0.0010736011 -0.09427146 -0.072231315 -0.08140893 -0.019997658
-0.12256944 0.005669227 -0.1182835 0.061793644 0.018211434 0.06583833 0.01444882 -0.10196753
-0.123185314 0.15282619 -0.003317543 0.10492713 0.10988695 0.06402314 -0.07762226 -0.011415482
-0.09296752 -0.1609707 0.028108042 -0.18017372 0.018141514 -0.06610478 0.10515318 0.021442305
0.09609376 0.14428201 -0.016567856 0.12571344 0.13288514 -0.10603469 0.13707775 -0.037771408
0.23162587 -0.14628734 0.1531108 -0.059010472 -0.055728886 0.08200541 0.14409077 -0.30236098
0.02376121 -0.17914811 0.04979213 0.253908 -0.2332217 0.25484565 -0.2089432 0.22667187
0.022378128 -0.018002974 0.22020574 -0.015314354 0.2453573 -0.041889627 0.059705824 0.17135681
0.2737792 0.24016751 0.22352119 0.3498456 -0.07795822 -0.2100208 0.14849554 0.21731566
-0.028608609 -0.09517536 0.17910603 0.046169247 -0.032425087 -0.15786849 -0.2593692 -0.40828225

embedder.res_block.3.bias f4 [32]
00000000: 0059 a9bd c0e9 2e3e ee76 8f3b f5cc f13b
00000010: 746a 443d 07cd ecbc 111b e0bd d950 fb3d
00000020: 1fe7 55bd 3393 99bd 0339 9e3b 668e c0bd
00000030: be04 cd3c 44ae 923c 30d6 b13d c6ae 81bd
00000040: 2df3 f23c 85f9 a83d 5301 ec3d fb5b 63bd
00000050: b7ad b13d e6a5 ecbd 533d f13d 1af6 76be
00000060: 7d5b b8bd 2fa4 5ebc 661f f23d 2ec3 df3c
00000070: 7caa e53d 5269 50bd 9ff0 ea3d eef5 07be
-0.082689285 0.17081356 0.004378191 0.007379169 0.047953084 -0.028906358 -0.109426625 0.1227128
-0.052222367 -0.07498779 0.0048285737 -0.0940216 0.025026675 0.017905362 0.08683431 -0.063321635
0.02965697 0.08250717 0.1152369 -0.05550764 0.086757116 -0.1155508 0.11779275 -0.24117318
-0.09001825 -0.013588949 0.11822395 0.027314749 0.11214158 -0.05088169 0.11471676 -0.13277408

cnn_blocks.0.proj_in.weight f4 [16, 32]
00000000: b25d 5e3c b795 523c 78dc c73d f7ca 633d
00000010: c4d3 fabd e7f2 d03c 784c 223e 4097 e4bd
00000020: 9b64 5bbc dacd 8c3c 9276 483d 66dc 4c3d
00000030: 0b9d 893d b69b b23c 76e4 153e 2b1f e7bc
00000040: 1442 c1bd 2f3c ccbd 729a 8dbb de85 69bd
00000050: 5306 923d f74c 71be c39d b7bc 7685 603d
00000060: bede 98bd 78b8 b3bd 2293 1abe ae0e e8bd
00000070: 40d1 713d e913 0cbc cc79 78bc a824 a73d
00000080: 9b42 43bd 0caf b33d 444a 713d 7227 393e
00000090: ec83 7b3d ed1f 1cbd 5458 43bd 1d58 14bd
000000a0: 0340 10be 56e4 62be 15b8 363d cc6d b83c
000000b0: 834a 903d 0914 223e 9862 18be 4220 00be
000000c0: 18c5 00be 346a 1e3e e0ec 14be 1065 51be
000000d0: a61e 4cbd fb6d c53d b185 fabd 8438 97bd
000000e0: e8f0 4e3d 0614 babc bedf 9abd 1edb 103e
000000f0: 0898 f0bd 0c59 4c3e d6e9 08be 79cf dd3d
00000100: a652 db3d 0739 46be d150 773d 58ae 463c
00000110: 27a0 ccbc 3ec7 65bd b95f bdbd 7283 5abe
00000120: 76a2 36be ef04 3ebe 8701 023e 8e8c 903d
00000130: 308c 2dbe 911b 9e3d 44fe 35be 593a 233c
00000140: 3bf9 06be f71e 703d c00d 62be 0333 29bc
00000150: 765b e1bd b581 70bb 5d4f 0c39 4d24 5f3d
00000160: 4058 66be 444d 88bc 507d 2ebb 64ba 163c
00000170: 3e41 e53d b396 703d 5052 2f3e 9dc3 833d
00000180: ee4a a53d 6d7c 073e 8a46 20be fc49 40ba
00000190: 21b8 03be d332 3fbd a5f4 903d e41d 923d
000001a0: 343e ef3d 7483 423d 7c35 9cbd 5dd4 a2bd
000001b0: 8b73 c23c 5fd5 103e 1d06 c73c 1ec3 3a3e
000001c0: 0136 2d3e a9b7 803d 3e95 fc3d 7472 043d
000001d0: 3b6c 5ebd f1c9 c43d 5d02 9cbc accb dc3d
000001e0: 7da6 b53d d0d8 853d 24b9 dcbd d8e6 97bd
000001f0: 070f a13d 1b21 e73d 665e 053e d6bb 21bc
00000200: 9913 f1bd 0ec1 1ebe ff84 fabd cd15 2bbe
00000210: 83ba 76be a2b6 953d 7080 7c3d fbba 4ebe
00000220: 68a0 af3d 6202 0fbe 35ce 1abe e81f 233c
00000230: e7e0 18be b334 5fbd 433b 3fbe 22c8 6ebd
00000240: f7a6 a8bd d8d0 1fbc 851e caba 0897 0c3e
00000250: 5c79 05bd 5a37 423e d50d 363e cf7b 22bd
00000260: 202e 133e 6aa9 be3d 9d92 18bc cf23 f2bb
00000270: 7ffd 0d3d 6ea7 fcbb a5ad a5bd 3ddf fabc
00000280: e892 21bc d2fe c3bd a029 cb3b 4fc3 133e
00000290: 76e2 273d 7cb2 f23d ceaf 28be eeac 4abd
000002a0: 9895 71bc a7a1 1fbd b172 efbd 4d75 11be
000002b0: 6a55 0ebe 5f77 0abe f723 153e 99e3 98bd
000002c0: 2423 92bd aaaf 013b b521 67bd d5a6 bd3c
000002d0: 3aec 47bd 9e00 c93c 9143 143e 44c7 a4bc
000002e0: bc06 2c3e 9ca3 1ebe 7344 b1bc 5482 28be
000002f0: 5fde e6bd 14d0 5a3e b21b 273d c5e7 32bc
00000300: a673 4dbe 996b 4f3a 7254 173e dbf5 843d
00000310: 596d 1d3d ff94 bfbd 6513 253e d4b2 e1bc
00000320: c171 0cbc cc35 2b3e 4cce c53c eeaa 1b3e
00000330: 472b 88bd 71c1 fcbc 11e3 d93b 6465 803d
00000340: 2954 193e f823 2e3e 17c3 04bd 7471 ddbd
00000350: 2bc8 233e 7726 843d 112c 653d b004 85bd
00000360: 8c1c 903d 0c50 7cbe d27a aabc 239c 02be
00000370: db8f 9abd 205a 2bbe 4c61 923d 96f0 133d
00000380: b0fa b33d 80ff 4fbe 4418 67bc a5d0 30be
00000390: 4c6a 8abd 4699 d1bd ba16 dabd 5247 a63c
000003a0: d1b2 86bc 99d1 2fbd bb35 863d 7b9b 113d
000003b0: 9211 d5bd f377 16be 374b edbd 2bca 2abe
000003c0: 46de 1abd 1f9a 833c 0afa afbd 9a2b 0bbe
000003d0: c92e ca3d 884e 3b3e 8705 e6bb 94f0 963d
000003e0: a7ff b7bc deab de3d 039b 30be ec4d 2e3b
000003f0: 392e 5d3d c806 aebd 785a 4e3e 7bbc 32be
0.013572143 0.012853078 0.09758848 0.055613484 -0.12247422 0.02550645 0.15849483 -0.11161661
-0.013390685 0.017188001 0.048941202 0.050014876 0.06719407 0.021802764 0.14637932 -0.028213104
-0.094364315 -0.099724166 -0.00432139 -0.05701243 0.071301125 -0.23564516 -0.022414094 0.05481478
-0.0746436 -0.08775419 -0.15095189 -0.11330925 0.059037447 -0.008549669 -0.015165757 0.081612885
-0.04767094 0.08773622 0.058908716 0.18081453 0.061405107 -0.038116384 -0.04769166 -0.036216844
-0.14086919 -0.22157416 0.044609148 0.022513293 0.07045462 0.15827955 -0.1488136 -0.12512305
-0.12575185 0.15470201 -0.14543486 -0.20448709 -0.049833916 0.09640118 -0.12232531 -0.073838264
0.050522715 -0.022714626 -0.07562207 0.14146087 -0.11747748 0.19955844 -0.13370451 0.10830588
0.10709123 -0.19357692 0.060379807 0.012126528 -0.02497871 -0.056098215 -0.09246773 -0.21339205
-0.17835411 -0.1855657 0.12695895 0.07058059 -0.16948009 0.077201016 -0.17772776 0.009962642
-0.13181011 0.05862328 -0.22075558 -0.010327104 -0.11003773 -0.0036698405 0.00013381006 0.05447798
-0.22494602 -0.016638406 -0.0026624985 0.009199712 0.111940846 0.058737468 0.17121243 0.06433795
0.08070932 0.13231058 -0.15651909 -0.0007335243 -0.12863208 -0.04667933 0.07077912 0.071346074
0.11681786 0.047488645 -0.07627389 -0.07950661 0.023736736 0.14143895 0.024294907 0.18238494
0.16915132 0.062850304 0.12333153 0.032335714 -0.054302435 0.0960883 -0.019044096 0.10781035
0.08869646 0.06535494 -0.107775 -0.07417077 0.07864194 0.11285611 0.13024291 -0.009871444
-0.11771316 -0.15503332 -0.12232398 -0.16707535 -0.24094586 0.07310225 0.061645925 -0.20188515
0.08575517 -0.13965753 -0.15117724 0.0099563375 -0.14929543 -0.054493617 -0.1867495 -0.05829633
-0.08234971 -0.009754382 -0.0015420472 0.13729489 -0.03258644 0.18966427 0.17778714 -0.039668854
0.14373064 0.09309657 -0.009312299 -0.0073895226 0.03466558 -0.007710389 -0.08089761 -0.030624026
-0.009861685 -0.095700875 0.0062000304 0.14429973 0.040987454 0.118504494 -0.16473314 -0.049481325
-0.014745139 -0.038972523 -0.116917975 -0.14204903 -0.1389977 -0.13522099 0.14564501 -0.07465286
-0.07135609 0.0019788542 -0.05642863 0.02315084 -0.048809268 0.024536427 0.144789 -0.020114549
0.16799444 -0.154921 -0.021639084 -0.16455966 -0.11272883 0.21368438 0.040797897 -0.010919516
-0.20063648 0.00079124566 0.14778307 0.06492206 0.03843436 -0.093545906 0.1612068 -0.027551092
-0.008572043 0.1671974 0.024146222 0.15201923 -0.066488795 -0.030853959 0.006649383 0.06269339
0.14973511 0.17005908 -0.032412615 -0.10812655 0.15994327 0.06452649 0.055950228 -0.06495035
0.07036695 -0.2463991 -0.020810518 -0.12754874 -0.075469695 -0.16733599 0.07147464 0.036118113
0.08788049 -0.2031231 -0.0141049065 -0.17267092 -0.06758556 -0.10234313 -0.10648866 0.02029768
-0.016442688 -0.042924497 0.06553217 0.03554867 -0.10403742 -0.14694194 -0.11586612 -0.16678683
-0.037809633 0.016064702 -0.08592613 -0.13590851 0.09872205 0.18291676 -0.007019702 0.073701054
-0.022460772 0.10872625 -0.17246632 0.0026596738 0.05399916 -0.08497387 0.20151699 -0.17454712

cnn_blocks.0.proj_in.bias f4 [16]
00000000: c37d 81bd 45d8 f3bd 6007 13be 1686 fc3d
00000010: 3d1f 083a fc0d 08be 1ba6 debd b871 c23d
00000020: 4fae c4bc f034 e23b b967 813d 7705 a23c
00000030: f8e4 ea3c 882b 223d 2159 20bd 5575 ae3d
-0.06322815 -0.119064845 -0.14358282 0.12330262 0.0005192643 -0.13286585 -0.10871526 0.094943464
-0.024008898 0.0069032833 0.06318612 0.019777996 0.028673634 0.039592296 -0.0391475 0.08518473

cnn_blocks.0.convs.0.weight f4 [16, 16, 3, 3]
00000000: 3af9 cdbc c86d 0f3d d315 d63b e997 563d
00000010: 9d51 253c 3be7 453d bda9 7ebd d9a3 883d
00000020: 4ce8 813d 2b16 043e e1e0 02bd b479 03be
00000030: f9be 3fbc 5ed9 59bd 3e85 b3bc 4737 553d
00000040: c3db 9bbd 1753 c03d 78d8 813c 6c91 053d
00000050: 5f04 2f3d 99da 8f3b 5c51 31bd 2d37 ab3d
00000060: 97ec 99bd 6db2 99bc 3933 2d3d 2ffc 8e3d
00000070: f878 99bd 30ba 7e3d 6a5f 1cbd 4a62 12bd
00000080: 9bdf 9f3d d6ab de3a cc9c ff3c 765e 20bd
00000090: 7c5c f73c 26e5 43be f065 d13d 85ee a9bb
000000a0: 8c63 cf3c 64d7 26bc d7ce 26bd 11e1 69bd
000000b0: 0a3f debc 0a68 c23c bcbb 933d a5f4 ad3c
000000c0: 769d 4b3d d8b5 89bd 5843 63be 82aa 2b3d
000000d0: ca7b 85bc 73be 963c e5bd f1bd 4585 d53b
000000e0: 8e8f 023e a2c1 f03c de44 293b 36df d7bc
000000f0: 357f b63c b9b1 3ebc 96f0 78bd 6b7c e4ba
00000100: c519 953d 8e67 843c 5bb9 02bd 82bd 5b3c
00000110: 1d33 b43a 3332 10bd 8845 e5bd e767 d4bc
00000120: 078e 8ebc 876f a83d 04be 10bd 1365 1cbd
00000130: dc15 09bd d46a aebd 3b66 c93c 588b 28bd
00000140: 27da 84bd 53fd 67bd 6114 6b3d 65bc 44bb
00000150: 50dd ad3b 184f 013d 5962 b9bd 376f af3c
00000160: 29f6 343c 2177 11bb a978 44bd bd91 8f3d
00000170: 507e c3bc 9565 923d 80ae 8ebd e04f 0c3e
00000180: 7a44 353e 7f47 153e 2de9 cbba 4663 73bb
00000190: 349f 093e 5eb7 10bd 16f6 583d 045d c0bd
000001a0: abe3 2b3e ddd0 34bd 9d47 873c 4d55 cebd
000001b0: 189f 673d cf13 11bd 47aa e03c 7587 a73c
000001c0: 9daf 9f3c 15e6 c3b9 7beb 333c 1c29 0bbd
000001d0: c495 a53d db0a 80bc a969 0a3d 3440 be3d
000001e0: 4f26 9f3d 8f73 543a 9865 d13c 28c4 583d
000001f0: 44e6 20bd 6fe9 a23d 3d44 88bc 71b4 c73d
00000200: 7fc9 f8bd ac9f 0a3e d861 a73c ccce 06bc
00000210: 0c12 83bd 8463 5f3d 560b b13d f4a5 003e
00000220: 4211 163d 7f1c af3b a13f 1a3e 36c5 d63b
00000230: f08b 4e3d 0574 2bbd a554 643d 4966 8e3d
00000240: 8693 17bd ced0 af3d f83c fdbc 7a5f a5bc
00000250: 05c3 aa3d 5a66 95bd 90d2 f6bc 4099 a6bd
00000260: 6367 a13c ad17 10bd 3a69 07be 082f 5abd
00000270: a659 353d 7711 89bd 4e30 bcbc f858 573c
00000280: 2fdb 013c 6511 4abc 7259 06bd 8bbc 4abd
00000290: 8fdc e4bd c38d b43b 7d4e 813d 8e60 e63b
000002a0: 1f7d 17bc bd82 d23d 9d30 62bb fd11 69bd
000002b0: 6340 4d3d 4e5e dcbb 2271 c23b 8217 b3bc
000002c0: d332 8bbc 378d 61bd 16b1 a9ba 6e06 443d
000002d0: 3423 2bbd f313 18bd 5db7 a5bd 13cb 30bd
000002e0: 74dc c33d 4412 b63b 77b8 cebc 8ed0 fb3d
000002f0: 1b7a efbd e650 18bd ae85 23bd 1ba6 d7bd
00000300: 1c68 b13d cb05 04bd 5383 58bd b727 fa3d
00000310: 0905 413d 952e 363b 0eb6 7dbc 958a c3bd
00000320: 6485 06bd 7308 93bd ddbc fb3c 73fd 56bd
00000330: b517 263e bd96 ec3c 54af d43c 36ed 9ebd
00000340: f6c0 99bd 48d3 a93d 1b70 f0bd 65dc 8b3d
00000350: 4f6a e3bd da2e bbbc ac05 ed3d 8600 243d
00000360: be85 37bd b932 403c ac14 f6bd 34e1 40bd
00000370: b6f0 69bc d10a c93d 1831 bc3d 61aa 833d
00000380: 0b5c f33d ba5c 363d 162c dd3c 0cc2 043e
00000390: dbe1 d2bd 88ff b6bd 8c22 053c d5cd b83c
000003a0: 9f0f 68bd a9f9 8e3c ed6d 8d3d 63d1 d53d
000003b0: ab4d ea3d 2e0b 5e3d 8dd1 6fbd 3758 e0bc
000003c0: 4319 a1bd dae1 813b e8ac 78bd be22 063d
000003d0: c724 353c e0c3 5c3b 7257 f4bc 6403 9f3b
000003e0: 8727 593c 77fe c0bc 1db3 dfbd e8b3 a23d
000003f0: a440 743d 6398 abbb f7dc 9dbb 27f5 9e3d
-0.025143255 0.035016805 0.0065333634 0.052390967 0.010090259 0.04831622 -0.062173594 0.066718765
0.06343135 0.12899081 -0.031952742 -0.12839395 -0.011703246 -0.053185813 -0.02191412 0.05205467
-0.076102756 0.09390848 0.01585029 0.03260939 0.042728778 0.0043900725 -0.04329048 0.08360133
-0.07515829 -0.018761838 0.042285178 0.06981694 -0.07493776 0.06218928 -0.03817693 -0.035738267
0.07806321 0.0016988467 0.031202696 -0.039152585 0.030195467 -0.19130382 0.10224521 -0.0051859044
0.025316022 -0.010183189 -0.0407246 -0.057099406 -0.027129669 0.02373125 0.07213542 0.02123482
0.049710713 -0.06724137 -0.22193658 0.041910656 -0.016294379 0.01840136 -0.11803798 0.006516131
0.12750074 0.029389206 0.0025828402 -0.026351552 0.022277454 -0.011639052 -0.060776316 -0.0017432099
0.07280306 0.01616266 -0.03191505 0.013411881 0.0013748143 -0.035204124 -0.11194903 -0.02592845
-0.017401708 0.08224397 -0.035337463 -0.03818233 -0.033468112 -0.085164696 0.02458488 -0.041148514
-0.06486922 -0.056638073 0.05739248 -0.0030019518 0.0053059235 0.03156957 -0.090519615 0.021415336
0.011045017 -0.002219625 -0.047966633 0.07010219 -0.023863941 0.071482815 -0.06966877 0.13702345
0.17701903 0.14578055 -0.0015557163 -0.003713803 0.13439637 -0.035331123 0.05296906 -0.09392741
0.16786067 -0.0441445 0.01651364 -0.100748636 0.056548208 -0.03541928 0.027424945 0.020450333
0.019492919 -0.00037364723 0.010981436 -0.03397475 0.08085206 -0.015630176 0.03379217 0.092895895
0.07770979 0.0008104378 0.025561139 0.052921444 -0.0392821 0.0795468 -0.016634101 0.09751213
-0.12147807 0.13537472 0.020432398 -0.008228015 -0.063999265 0.054538265 0.0864474 0.12563306
0.036637552 0.005343973 0.15063335 0.006554271 0.050426424 -0.04185869 0.055744786 0.06953103
-0.037005924 0.08584748 -0.030912861 -0.020187128 0.08337978 -0.07294913 -0.0301297 -0.08134699
0.019702619 -0.03517883 -0.13223734 -0.05326751 0.04427495 -0.06692784 -0.022972252 0.01314377
0.007925793 -0.012333249 -0.032800145 -0.049496215 -0.11174881 0.0055100634 0.063137986 0.007030553
-0.00924614 0.102788426 -0.003451384 -0.05690192 0.050110232 -0.006725109 0.0059338966 -0.021861795
-0.016992008 -0.055066314 -0.0012946452 0.047857694 -0.04178162 -0.0371284 -0.080916144 -0.043162417
0.095635325 0.0055563767 -0.025234444 0.12295638 -0.11693212 -0.037186526 -0.03992241 -0.10529729
0.086624354 -0.032232087 -0.052859616 0.12214606 0.047123943 0.002779876 -0.0154853 -0.09547917
-0.032842055 -0.07179346 0.030729705 -0.0524878 0.16219981 0.028880471 0.02596251 -0.07760088
-0.075075075 0.08292252 -0.117401324 0.06829146 -0.11104261 -0.022849489 0.115733474 0.04003956
-0.04480528 0.011730843 -0.120156616 -0.04708977 -0.014278581 0.09816516 0.091890514 0.064289816
0.1188279 0.044522025 0.02699856 0.12964648 -0.10296985 -0.089354575 0.008125912 0.022559086
-0.056655522 0.017453032 0.06905732 0.10440328 0.11440595 0.05420988 -0.058549453 -0.027385814
-0.078661464 0.003963691 -0.06071177 0.032747976 0.011056132 0.0033686087 -0.029826853 0.004852699
0.013254053 -0.023558838 -0.10922835 0.07944471 0.05963196 -0.005236672 -0.004817601 0.07761603

cnn_blocks.0.convs.0.bias f4 [16]
00000000: b662 90bd 8c3f 94bd 9ab6 623d b4b1 b3bd
00000010: f832 b53d 8700 87bd 5e59 d03c 8019 b4bb
00000020: 5137 543d ce7f 8c3d 15c2 923b 0e2a a33d
00000030: b739 c63c 9bac dc3d 0de7 2a3d 7835 963c
-0.070500776 -0.07238683 0.055349924 -0.087741286 0.08847612 -0.065918975 0.025433239 -0.005496204
0.051810566 0.06860314 0.004478703 0.07967006 0.024197442 0.107751094 0.041724253 0.018336043

cnn_blocks.0.convs.1.weight f4 [16, 16, 3, 3]
00000000: 7d70 803d e4e9 5c3c 6e66 e63c 2d3c e63d
00000010: 0ea8 4dbd fbd6 ed3d 84f9 b23d fca4 853d
00000020: fdfa 4b3d 40a9 923c 7f89 053d 0dfc 70bc
00000030: f705 4aba bad7 a03d b62a 9fbc bcd4 8bbd
00000040: 308b f8bd 5738 3bbd 809a c53c a50c e7bc
00000050: e4e3 73bd 82cc bb3b b0e7 973b 698c d83c
00000060: e6d0 2ebd df9d 5cbd 9eb7 a83c b12e 2abd
00000070: 5738 173d b43b 6bbd 84c1 6bbc 5f52 a2ba
00000080: 9164 6dbc 7537 b13b 101c d73c d653 18bd
00000090: 7275 943d d0fe 0f3c a621 bebd aa2a bbbd
000000a0: 64c2 22be bed3 08bb 424d 58bb 020d ddbc
000000b0: e430 12bc c4b6 883d eb6e 7dbd aba9 1a3d
000000c0: 09a5 383d 0423 c9bc c119 fd3c 06c2 2f3d
000000d0: 98ee f33d e6e3 893d 9c15 9a3d ecad 50bd
000000e0: e7a7 ddbd ec05 d8bb b81e f53c 00cb bc3c
000000f0: 14b1 c43d cc4a 083e 2b97 6cbc c941 8f3d
00000100: 88f0 c43c dde4 12be 1e58 133d 7e7d 0d3e
00000110: 9252 9e3d 6a98 963d 1476 ee3d 7006 bfbd
00000120: 90ae d23a a9ae 3f3d 1f02 53bc ee9d c2bd
00000130: 4345 9b3a ce23 983d 322b bf3b 551a 76bc
00000140: 7258 82bd ae2f 71bb 114c 24bd bdba cbbc
00000150: 6b67 bebc cfec 233d 1e6f a1bd ec93 e13d
00000160: 4e24 3b3d bfc9 163d f38d 643d d1e4 38bc
00000170: da92 01bd 032f e53d 143d 683d 2bd9 633d
00000180: 6478 06bd 0a7f a93c caef 8b3d 8d41 abbb
00000190: 7058 e1bc fa6d 00bd 0b40 14be 11e2 8a3b
000001a0: 46e8 8bbd 3d98 7cbd 1579 cdbd 3d77 b13d
000001b0: b55e 60bc cf25 b83d 9825 093d 326d 8d3c
000001c0: fb76 0a3c 777a 0cbe bb98 88bc 6ec9 613d
000001d0: 8add 863c c0a6 9cbb edc5 4a3d 0af0 07bd
000001e0: 5cbd dc3d e011 ae3d a7cf c33d cceb 933c
000001f0: 4e1a 2b3e 4534 f1bc d9e2 063d 5044 813d
00000200: 0185 88bd cffb 793c 4df6 31bd ead6 f7bc
00000210: 0556 8bbd 4879 cabd 38af b5bc ff0a 11be
00000220: e8ac 4abd b7aa a93c 0c25 fbbc 2ab0 42bd
00000230: cef7 2bbd 8654 99bd 7ca1 72bd 7446 8d3d
00000240: 2391 1d3d 58fc d1bd 8e1d 29bd 82cc 17bd
00000250: 22ca ffbc 2519 01bc 23a4 bd3c a003 f03b
00000260: 0f6e 5ebd 8211 5cbb 5983 d53b e185 113d
00000270: 4c73 003e 3dcf 553c e7e4 383e d8cd 483d
00000280: 5245 09bd b1a3 14bc 62a7 fe3c a1a6 243d
00000290: c458 8a3d ce2c 58bd caef 83bd dfe7 65bd
000002a0: 6411 2fbc 15ed af3d f0fc 653d f2be ad3a
000002b0: acb4 a5bd a50d 91bc fda8 903d b26c 463d
000002c0: 61ba be3c 37f6 123d 417e 8ebe 80d0 20be
000002d0: b070 35bd fec3 27bd ba1e 773c b2b7 5dbc
000002e0: 88ff 273d b96a cc3d a00a bcbc 3105 4a3e
000002f0: c057 263d 2601 433c 1253 0fbd ffcd 943c
00000300: 987a ba3d 988b e73d db6d 883d e28a 8fbd
00000310: 0f81 453d 1215 e83d 4324 2abe 92bc fdbc
00000320: 77a2 6fbd 4108 50bd c23d 6fbd da47 e3bd
00000330: 011e 96bd 37ca 3f3c 268f 903c 3c87 e9bc
00000340: 6640 eb3c 9c48 d83c 332e 043c 068f b53c
00000350: 1e0d 443d 88f0 fd3c e3d2 00bd 899f 12bc
00000360: 44e8 4f3d 78f9 b73d efd7 15bb 68cc 8f3c
00000370: 8156 05bd 2cf1 48bd 214a 8c3d bb10 fd3c
00000380: 4f9e 6c3d b11e b13d 1234 0dbd 0382 e2bd
00000390: 5e5b a4bd 3549 09bd ec24 8ebd 57fd 433d
000003a0: 0087 b5bd 9e8e d03c 1169 50bc 1e3d 13be
000003b0: 9070 92bd 7658 06bc f15c 473d 3510 873d
000003c0: dd2d 95bd 424c 0ebe ee68 d3bc 236c 133c
000003d0: e804 41bc 6819 d3bd eff3 6fbd 3020 3dbd
000003e0: e4c2 ac3d 426c 213e 4059 38bd 31ca a0bd
000003f0: 4aca 7fbd d787 f3bd 4327 adbc a623 4d3c
0.062714554 0.013483498 0.028125014 0.11241946 -0.050209098 0.1161327 0.087389976 0.06525609
0.049799908 0.01790297 0.03260183 -0.014708531 -0.00077065773 0.078536466 -0.019429546 -0.06827685
-0.12135923 -0.045708027 0.024121523 -0.028204272 -0.059543505 0.0057311663 0.0046357736 0.02643414
-0.04267969 -0.053861495 0.020595368 -0.041548435 0.036918964 -0.057429984 -0.014389399 -0.0012384168
-0.014489309 0.0054082223 0.026258498 -0.037189327 0.072489634 0.008788779 -0.09283762 -0.09138997
-0.15894467 -0.0020878161 -0.0033005034 -0.026983742 -0.008922789 0.06675485 -0.061873358 0.037759464
0.045079265 -0.02455283 0.03089607 0.042909645 0.119107425 0.06732921 0.07523653 -0.050947115
-0.108230405 -0.006592503 0.029921874 0.023046017 0.096040875 0.13309783 -0.014440338 0.069949694
0.024040475 -0.14345117 0.035972707 0.13817403 0.07730593 0.073532894 0.11643615 -0.093274
0.0016073752 0.04679743 -0.012878924 -0.09502779 0.0011846203 0.07428704 0.0058340067 -0.0150209265
-0.06364526 -0.00368021 -0.040111605 -0.024869317 -0.023242673 0.04002076 -0.07882522 0.11014542
0.04568892 0.036813494 0.055799436 -0.011285023 -0.03163419 0.111906074 0.056698874 0.05562703
-0.032829657 0.02069046 0.068328455 -0.00522632 -0.02750799 -0.03135488 -0.14477555 0.004238375
-0.06831412 -0.061668623 -0.1003286 0.08665321 -0.013694455 0.089915864 0.033483118 0.017263982
0.008451219 -0.13718592 -0.01667439 0.05512374 0.01646306 -0.0047806203 0.049505163 -0.033187903
0.10778305 0.08499503 0.09561091 0.018056773 0.16709253 -0.02944387 0.032931183 0.06311858
-0.066659935 0.01525779 -0.04344778 -0.030253846 -0.06803516 -0.09886414 -0.022178277 -0.14164351
-0.049481302 0.020711286 -0.030657314 -0.047531284 -0.04198437 -0.07486825 -0.059236035 0.068982035
0.03846849 -0.10253209 -0.04128795 -0.03706027 -0.031224314 -0.00787953 0.023149556 0.007324651
-0.05430418 -0.0033579771 0.006515902 0.035528067 0.12543982 0.013049898 0.1805607 0.049024433
-0.033513375 -0.00907223 0.031085674 0.040197972 0.06755212 -0.052777104 -0.064422205 -0.056129333
-0.010685299 0.08590142 0.056149423 0.0013255759 -0.08091101 -0.017706702 0.07063482 0.048443504
0.023282232 0.03587934 -0.278307 -0.15704536 -0.04429692 -0.040958397 0.015083009 -0.013532566
0.041015178 0.09981293 -0.022954285 0.19728543 0.04061103 0.011902129 -0.03499133 0.018164633
0.09105414 0.11305922 0.06661578 -0.07008912 0.048218783 0.11332144 -0.16615395 -0.030973706
-0.058504548 -0.05078912 -0.058408506 -0.11097689 -0.073299415 0.011705927 0.017646383 -0.028506868
0.028717231 0.02640181 0.008067655 0.022162925 0.047864072 0.030998483 -0.031451117 -0.008949169
0.050758615 0.08983129 -0.0022864302 0.017553523 -0.0325532 -0.049058124 0.068500765 0.030891767
0.057768162 0.08648432 -0.034473486 -0.11059954 -0.080252394 -0.03351708 -0.06940636 0.047849026
-0.0886364 0.02545863 -0.012720362 -0.14378783 -0.07150376 -0.008199802 0.04867262 0.06594888
-0.07284138 -0.13896278 -0.02580687 0.00899795 -0.011780955 -0.1030758 -0.058582243 -0.046173275
0.0843561 0.15763953 -0.04500699 -0.07851065 -0.062448777 -0.11891144 -0.021136886 0.012520706

cnn_blocks.0.convs.1.bias f4 [16]
00000000: f52f d43d a902 013d ce7b aabb 11b1 f73b
00000010: 671d b43b e67a bb3c 8dd3 13bd f4ef 1b3d
00000020: 9d7f 3ebd 45af 86bd 10b8 5bbd 66fb 733d
00000030: 3b9b 0cbd af8d 49bc d17c 713c 17d8 2b3d
0.103607096 0.031496678 -0.005202747 0.0075589498 0.005496669 0.022885751 -0.036090422 0.038070634
-0.04650842 -0.06576399 -0.053642333 0.059565924 -0.034327727 -0.012301846 0.014739231 0.041954126

cnn_blocks.0.norms.0.weight f4 [16]
00000000: b6cc 7c3f 6b7d 7c3f acf9 703f e880 733f
00000010: 357d 773f 983e 813f 3601 6d3f e37b 7b3f
00000020: 4f04 813f d486 853f 8a1e 793f 26a5 873f
00000030: d77a 843f c9a1 813f df74 813f 6edf 813f
0.98749864 0.9862887 0.9413097 0.9511857 0.96675426 1.0097227 0.9257997 0.9823591
1.007944 1.0431771 0.97312224 1.0597274 1.0349988 1.0127498 1.0113791 1.014631

cnn_blocks.0.norms.0.bias f4 [16]
00000000: f355 f0bc 208e 3d3d 1b6d 58bc 4b43 4dbb
00000010: 1003 0cbd ab0a 963c 4b96 ddbd 9019 10bd
00000020: 97d4 ad3d 4be3 aebd 54aa f7bd 9772 8a3c
00000030: e61b 003e f374 b23c 5b51 03be 6607 92bc
-0.029337859 0.04627812 -0.0132096065 -0.0031320627 -0.034182608 0.018315634 -0.10819682 -0.03518063
0.08487814 -0.085394464 -0.120930344 0.016900344 0.12510642 0.021784281 -0.12824003 -0.017825793

cnn_blocks.0.norms.0.running_mean f4 [16]
00000000: e87a 24be 7e56 4f3c ca6e e8bd 883d 2e3d
00000010: b73c 033e dc16 3bbe 70d6 98bd 261e 833d
00000020: cbb8 b93d e3e8 38bd d245 163c 304b 263e
00000030: a4ee 0f3d 75bf 0c3e 606d 42bd e403 0d3d
-0.1606251 0.012654899 -0.11349256 0.04253915 0.1281613 -0.18270439 -0.07462776 0.06402235
0.090684496 -0.045143973 0.00917192 0.1623962 0.035139695 0.1374491 -0.04746759 0.03442754

cnn_blocks.0.norms.0.running_var f4 [16]
00000000: 457b ee3c eec9 923d 7ff3 433d a789 103d
00000010: 5917 ec3c a640 0f3d 7e2d f13c 5eee 223d
00000020: f021 0a3d fecd 143d 49f7 973c 1db8 2c3d
00000030: bc2f 353d ec06 0f3d 6729 283d 6c21 863d
0.029111514 0.07167421 0.047839638 0.035287526 0.028819727 0.034973763 0.029440638 0.039778106
0.03372377 0.036329262 0.018550532 0.04216777 0.044234976 0.03491871 0.04105511 0.065493435

cnn_blocks.0.norms.1.weight f4 [16]
00000000: c843 8b3f 1bb3 823f 55b1 933f 755f 823f
00000010: 2333 863f 8b0d 903f 89dc 8b3f d3ad 883f
00000020: 4d84 843f bd2e 8a3f e4c2 863f 5a57 8e3f
00000030: 8287 8a3f 7312 893f 1883 913f 75c7 833f
1.088006 1.0210909 1.1538492 1.0185381 1.0484356 1.1254133 1.0926677 1.0678047
1.0352875 1.0795513 1.0528226 1.1120408 1.0822604 1.0708755 1.1368132 1.0295244

cnn_blocks.0.norms.1.bias f4 [16]
00000000: 9093 103d 441f b23c 910f b23d 4569 2a3c
00000010: c174 4a3d 5792 8abd f74e b03c 131e 0a3d
00000020: eb3a e8b9 0f93 deb8 7979 a33c f61b 673d
00000030: ee89 43bd d196 96bd 4d99 18be bfbb 063b
0.035296977 0.021743424 0.08694375 0.010401075 0.04942775 -0.06766193 0.021522028 0.033720087
-0.00044294386 -0.00010613177 0.019955384 0.05642315 -0.047738962 -0.07352985 -0.1490223 0.0020558683

cnn_blocks.0.norms.1.running_mean f4 [16]
00000000: 64b3 9b3e 1874 cabd 3c1e 06bc f77b 823d
00000010: 74a0 063e f4f3 9a3d dfe2 02be fcc3 62be
00000020: 8ce9 813d 41a8 5b3d b0a7 f6bd 47c4 353e
00000030: bd0d 9bbe 7b39 a93d e9b5 973d 400d a3bd
0.30410302 -0.098854244 -0.008185919 0.06371301 0.13147146 0.075660616 -0.12781857 -0.22145075
0.06343374 0.053627256 -0.120437026 0.17750655 -0.3028392 0.08262917 0.074077435 -0.079615116

cnn_blocks.0.norms.1.running_var f4 [16]
00000000: b4cc a63d da49 3e3e 8941 e43d 89bc ee3d
00000010: 71d2 fe3d cd47 8c3d 24a2 e43d a1c6 083e
00000020: 224a a53d 02a4 d83d 1de5 aa3d a77c 163e
00000030: 5608 693d 1d93 d33d 84e4 cc3d 56ed a53d
0.08144513 0.1858286 0.11145312 0.11657054 0.12442482 0.068496324 0.11163738 0.13357021
0.0807078 0.10578157 0.08344481 0.14695989 0.056892715 0.10330794 0.100045234 0.08101909
