checkpoints/stage1_kd_d3/best_model.pt (torch, 327585 bytes, 150 tensors)

embedder.feature_projections.0.weight f4 [32, 1]
0	0xbea12d9a	-0.31480104
1	0x3f3fcd29	0.74922425
2	0xbed8eccb	-0.4236816
3	0xbe8317f0	-0.256042
4	0x3f17253f	0.5904121
5	0xbfa33fac	-1.2753806
6	0x3ec15bc8	0.37765336
7	0x3f867def	1.0507182
8	0xbf803b8f	-1.0018176
9	0x3f3684af	0.7129621
10	0xbc2670a9	-0.010158696
11	0x3d899f8a	0.06719883
12	0x3f9ece44	1.2406697
13	0xbe7acadc	-0.24491447
14	0x3f5634f6	0.8367456
15	0xbedb7d90	-0.42869234
16	0xbeb77a2d	-0.358354
17	0x3f30fd38	0.6913638
18	0xbec759a5	-0.3893558
19	0x3f9a088c	1.2033858
20	0x3f18d998	0.5970702
21	0xbeb8eab8	-0.36116576
22	0xbf47c023	-0.7802755
23	0x3f8786ac	1.0587974
24	0xbf2087d7	-0.62707275
25	0x3ecb1c8b	0.39670214
26	0x3e994148	0.29932618
27	0x3d1ef9de	0.03881251
28	0xbf992834	-1.1965394
29	0x3f25f365	0.64824516
30	0xbf93dc97	-1.1551694
31	0x3fa39cde	1.2782247

embedder.feature_projections.0.bias f4 [32]
0	0xbe9f5851	-0.31122068
1	0x3e707d7f	0.23485373
2	0xbf35390e	-0.70790184
3	0xbe2c7f9d	-0.16845556
4	0x3f368166	0.71291196
5	0x3f3f7f3d	0.74803525
6	0x3f53323a	0.82498515
7	0x3ec659e2	0.3874045
8	0xbe8ccffe	-0.27502435
9	0xbd77a09d	-0.060455907
10	0x3ec10db4	0.37705767
11	0xbf6dcdb8	-0.92892027
12	0xbf5127b7	-0.81701225
13	0x3f471232	0.7776214
14	0xbf79b263	-0.9753782
15	0x3f1e13f8	0.6174922
16	0x3f5d7558	0.8650718
17	0x3e27e3b4	0.16395456
18	0x3eebb86b	0.46039137
19	0x3ec6ad32	0.38804013
20	0x3f4e17ca	0.8050505
21	0x3e86cd27	0.26328394
22	0x3f6cd760	0.92516136
23	0x3c4f1b4d	0.012640786
24	0x3f51fb92	0.8202449
25	0x3f569f97	0.83837265
26	0xbe666a8a	-0.22501579
27	0xbf56e12a	-0.83937323
28	0x3f3c2a4a	0.7350203
29	0xbf53e901	-0.8277741
30	0x3e705441	0.2346964
31	0x3eb9763c	0.36223018

embedder.feature_projections.1.weight f4 [32, 1]
0	0x3f6ce4e7	0.9253678
1	0x3f0605c3	0.5235254
2	0xbe7229d2	-0.23648766
3	0xbd9f24eb	-0.077707134
4	0x3f04cd3e	0.51875675
5	0xbe053c4f	-0.13011287
6	0xbf5a9c25	-0.8539451
7	0x3f53f3e6	0.82794034
8	0xbf034144	-0.5127146
9	0x3e19b611	0.15010859
10	0xbd27c728	-0.040961415
11	0xbe8f6b3f	-0.2801151
12	0x3f44822f	0.76761144
13	0x3dc6f8a0	0.0971539
14	0x3f4ad34e	0.79228675
15	0xbf1649b3	-0.58706206
16	0xbf34414f	-0.70412153
17	0xbd381df8	-0.044950455
18	0xbedcf1c7	-0.4315321
19	0xbf2fd9ec	-0.686919
20	0x3f5a3efb	0.8525235
21	0x3f3de084	0.7417071
22	0xbe398ebd	-0.18120857
23	0x3d827033	0.063690566
24	0xbf11a126	-0.5688652
25	0x3f100b64	0.5626738
26	0x3efac862	0.48981005
27	0x3f44b386	0.7683643
28	0xbdfdf355	-0.123999275
29	0xbed87469	-0.42276314
30	0x3f2060cf	0.6264772
31	0xbe9af8e2	-0.30268008

embedder.feature_projections.1.bias f4 [32]
0	0x3f265c5c	0.6498468
1	0x3f48f5fe	0.78500354
2	0x3e2d78eb	0.16940658
3	0x3d483488	0.048878223
4	0xbf02d23a	-0.5110203
5	0x3ebf844e	0.37405628
6	0x3def4129	0.1168235
7	0x3e1f9fe0	0.15588331
8	0xbe85af7e	-0.26110452
9	0x3f6d7c40	0.92767715
10	0xbe2c564d	-0.16829796
11	0x3e9068aa	0.28204852
12	0xbf63adb7	-0.8893694
13	0xbf78d33a	-0.97197306
14	0x3f6bb483	0.92072314
15	0xbf54bcb2	-0.83100426
16	0xbf211d0a	-0.62934935
17	0xbdc2ebc9	-0.09517629
18	0xbf50771e	-0.8143176
19	0xbedb8370	-0.42873716
20	0xbf117cf1	-0.5683127
21	0x3e8f2f67	0.27965853
22	0xbef0e2a1	-0.47047904
23	0x3f029e6e	0.51022995
24	0xbf003823	-0.5008566
25	0x3f08ac91	0.53388315
26	0x3e1f401c	0.155518
27	0xbf3a1443	-0.72687167
28	0x3e994799	0.29937437
29	0xbee2d366	-0.4430191
30	0xbefe2280	-0.49635696
31	0x3c88be8d	0.016692424

embedder.stabilizer_embedding.weight f4 [8, 32]
0	0x3fa4a3b4	1.2862458
1	0x3f1ace3b	0.6047093
2	0xbf8e3ca0	-1.1112251
3	0x3f2d2da2	0.67647755
4	0xc009b753	-2.1518142
5	0x3ff533e9	1.9156467
6	0x3f0ef845	0.5584758
7	0xbe6b4024	-0.22973686
8	0xbff39c90	-1.9032154
9	0xbee7d430	-0.45279074
10	0xbfbb0063	-1.4609493
11	0x3ef4a1e2	0.47779757
12	0x3dbfa85e	0.09358285
13	0xbc20bbbf	-0.009810387
14	0xbf87ebc2	-1.0618823
15	0xbeb25fa6	-0.348386
16	0x3fa27fed	1.269529
17	0x3e2b08bc	0.1670255
18	0xbd85ef1b	-0.065397464
19	0x3fe94666	1.8224609
20	0xbf638834	-0.88879704
21	0xbf87f4b3	-1.0621551
22	0xbff34078	-1.9004049
23	0xc00c8c00	-2.196045
24	0xbf144481	-0.5791703
25	0xbf187152	-0.59547913
26	0xbf564e9b	-0.8371369
27	0x3f3ccccf	0.73750013
28	0x3f9af66c	1.2106452
29	0xbf66ee85	-0.902077
30	0xbe341d32	-0.17589262
31	0xbe561ec9	-0.20910181
32	0xbff45302	-1.9087832
33	0x3e5fbad5	0.21848615
34	0xbe304640	-0.17214298
35	0x3e15f4b8	0.14644134
36	0x3ef07ab9	0.4696863
37	0x4000f566	2.014978
38	0xbf34832b	-0.70512646
39	0xbf122875	-0.5709298
40	0xc026f980	-2.6089783
41	0x3f8598b4	1.0437226
42	0x3ddbcda6	0.10732584
43	0x3f815ef9	1.0107108
44	0xbeb5b3c0	-0.354887
45	0x3f86d7d6	1.0534618
46	0xbffc2b84	-1.970078
47	0xbf054a58	-0.52066565
48	0x3fded48f	1.7408618
49	0xbf9fa54b	-1.2472318
50	0xbbb33c42	-0.00546983
51	0x3e0f219f	0.13977669
52	0xbf77e91f	-0.9684009
53	0x3e2554fd	0.16145702
54	0x3f9a603a	1.2060616
55	0xbfe7cf19	-1.8110076
56	0xbf71568e	-0.94272697
57	0xbdf61225	-0.120151795
58	0x3faca59b	1.3488039
59	0xbd2d7424	-0.04234709
60	0x3f27eb62	0.6559354
61	0xbd160ead	-0.03663509
62	0xbf943c86	-1.158097
63	0x3f8ca3f7	1.0987538
64	0xbed892bf	-0.42299458
65	0xbeb6cf34	-0.35704958
66	0xbf025033	-0.50903624
67	0x3fcae4a1	1.5851022
68	0xbedad0af	-0.42737338
69	0x3fc28437	1.5196599
70	0x3e005c1f	0.12535141
71	0xbf545e08	-0.8295598
72	0x400331e8	2.049921
73	0xbf5d575f	-0.8646144
74	0xbf11638b	-0.56792516
75	0x3f91abec	1.1380591
76	0xbf7dac7a	-0.99091303
77	0xbd4ef089	-0.05052236
78	0x3f9a5679	1.2057639
79	0x3e3cc639	0.18434991
80	0x3f106bc2	0.56414425
81	0xbebaea5d	-0.3650693
82	0xbd606097	-0.054779615
83	0x3e9e325e	0.30897802
84	0xbfa62e27	-1.2982835
85	0x3f6edd8b	0.933068
86	0xbf649917	-0.89296097
87	0xbe531827	-0.20614682
88	0xbfdf9fd1	-1.7470647
89	0x3f0aa68b	0.54160374
90	0xbfa23791	-1.2673208
91	0xbf6d4faf	-0.9269971
92	0xbed2cd8a	-0.4117244
93	0x3f02240b	0.5083625
94	0xbea38c43	-0.3194295
95	0x3ecad41e	0.39614958
96	0xbf4c7c0f	-0.798768
97	0x3edaa3de	0.42703146
98	0x3f367f77	0.71288246
99	0x3f13f5ec	0.5779712
100	0xc05d68f5	-3.459531
101	0x3feb3836	1.8376529
102	0xbe7fc59b	-0.24977724
103	0x3f90205f	1.1259879
104	0xbebb5c44	-0.3659383
105	0x3f215ac6	0.63029134
106	0x3f0215fe	0.5081481
107	0x3e525619	0.20540656
108	0x3ed9eef8	0.4256513
109	0x3f81e6b1	1.0148526
110	0x3f486511	0.78279215
111	0x3fc9080b	1.570558
112	0xbf2ea203	-0.6821596
113	0x3f547b79	0.83000904
114	0xbf37847b	-0.71686524
115	0xbe3f3aab	-0.18674724
116	0x3fea33fa	1.8297112
117	0xbfad5d74	-1.3544145
118	0x3f2ca608	0.67440844
119	0x3fe391e2	1.7778895
120	0x3f752962	0.9576627
121	0xbfe9c5b3	-1.8263458
122	0x3fc40027	1.5312546
123	0xbbe2b530	-0.006918572
124	0x3f4e9aee	0.80705154
125	0xbf1cb0ac	-0.6120708
126	0x3f253d4c	0.64546657
127	0xbf5bed64	-0.85909104
128	0xbdce3fb4	-0.10070744
129	0x3fdc5b5c	1.7215381
130	0xbf0dd7bc	-0.5540731
131	0x3e720bf6	0.23637375
132	0xc00f14c5	-2.2356427
133	0xbf63225e	-0.88724315
134	0x3f5a306e	0.8523015
135	0x3e94577f	0.28973004
136	0xbef7b4f3	-0.4838024
137	0xbdcb34e8	-0.099222004
138	0x3eeb63d2	0.45974594
139	0xbf4c9500	-0.79914856
140	0xbf868d0a	-1.0511792
141	0x3faff477	1.374648
142	0xbf0ac68c	-0.5420921
143	0xbfcc4164	-1.5957456
144	0x3f501571	0.81282717
145	0xbbb9dc6a	-0.0056720274
146	0xbf2ed077	-0.6828684
147	0xbf499a3b	-0.7875096
148	0xbf896e63	-1.0736812
149	0xbf093f75	-0.5361245
150	0xbf1312f3	-0.5745079
151	0xbf929740	-1.1452408
152	0xbe847f3d	-0.25878325
153	0xbef9ed03	-0.48813638
154	0x3ec1aefd	0.37828818
155	0x3f038324	0.5137198
156	0xbf074ce2	-0.5285169
157	0xbf5ed6ad	-0.8704632
158	0x3f5a1309	0.85185295
159	0xbf1886ab	-0.59580487
160	0x3f9349bc	1.1506877
161	0x3ef2f726	0.47454184
162	0x3fc82548	1.5636377
163	0xbf5821cc	-0.8442657
164	0xbfb13334	-1.3843751
165	0x3f3b1d66	0.73091733
166	0x4015d54e	2.341144
167	0x3ddd4980	0.10805035
168	0x3f66cf9c	0.90160537
169	0x3e4f9de3	0.20275073
170	0xbfcfe4d9	-1.6241714
171	0x3eda0f5f	0.42589852
172	0x3ca9a569	0.020708757
173	0x3f463945	0.77431136
174	0xbf04f9c8	-0.51943636
175	0xbf93cdfb	-1.1547235
176	0x3faad482	1.3346102
177	0x3f7badc1	0.98312
178	0x3f92a02b	1.1455129
179	0x3f30df8f	0.69091123
180	0x3f8c22ca	1.0948117
181	0xbfbceda3	-1.4760021
182	0x3f8a6f4f	1.0815219
183	0xbdef04c1	-0.116708286
184	0x3db3dfcf	0.087829225
185	0x3f395be0	0.72405815
186	0x3ea40219	0.3203285
187	0x3f31ade4	0.6940596
188	0x3ea51823	0.32244977
189	0x3f177b50	0.59172535
190	0xbdd723bf	-0.10504865
191	0xbf7dda85	-0.9916156
192	0x3f8fd058	1.1235456
193	0x3fdc2c2f	1.7200984
194	0x3fc97b90	1.5740833
195	0x3f8cc8b3	1.0998749
196	0xbe3c642b	-0.18397586
197	0xbde62f0f	-0.112394445
198	0x3dd15763	0.10221746
199	0xbfb8ad1c	-1.4427829
200	0xbc523c91	-0.012831823
201	0xbfd9bbfe	-1.7010496
202	0x3f0ef632	0.55844414
203	0x3fd8ecd6	1.6947277
204	0xbfc7a3a5	-1.5596815
205	0x3c0d15af	0.008611127
206	0xbfb3924c	-1.4029021
207	0x3ecd3ea6	0.4008686
208	0xbfb98d88	-1.4496317
209	0x3fc63fa6	1.5488174
210	0xbcc35e8e	-0.023848798
211	0xbfba544f	-1.4556979
212	0xc02e7183	-2.7256782
213	0xbefefcaf	-0.49802157
214	0x3c3851e9	0.011249998
215	0x3f700137	0.93751854
216	0xbf4f8080	-0.8105545
217	0x40147730	2.3197746
218	0xbc57e24f	-0.013176515
219	0xbe3cfdb1	-0.1845615
220	0x3ee604e3	0.44925603
221	0x3eaee71b	0.34160694
222	0xbe9a400d	-0.30126992
223	0x3e2b7cd5	0.16746838
224	0xbecf1502	-0.40445715
225	0xbfed2df1	-1.8529645
226	0x3f169b57	0.5883078
227	0x3f71f727	0.9451775
228	0xbec8bbbe	-0.39205736
229	0xbf85eef7	-1.0463551
230	0x3f660998	0.8985839
231	0xbf48a85e	-0.7838191
232	0x3f8f0b35	1.1175295
233	0xbdbc235b	-0.09186431
234	0xc00fba5e	-2.24575
235	0xbe5f4e1a	-0.21807137
236	0x3ffcd027	1.9751023
237	0x3eb3505a	0.3502224
238	0x3f90a56d	1.1300484
239	0xbf3a0323	-0.72661036
240	0xc01d4526	-2.4573455
241	0x3fe92869	1.8215457
242	0x3ef5c022	0.47998148
243	0xbf2e3b71	-0.6805945
244	0xbe303d6a	-0.17210928
245	0x3ea02008	0.31274438
246	0x3fb5eb40	1.4212418
247	0xbee5bf3d	-0.44872466
248	0xbe055d90	-0.13023973
249	0x3f500da9	0.81270844
250	0xbf39d189	-0.7258535
251	0xbf87fe42	-1.0624468
252	0x3df86780	0.12129116
253	0x3df27396	0.118384525
254	0xbeb9bdaa	-0.36277515
255	0x3e5bba9d	0.21457906

embedder.res_block.0.weight f4 [32]
0	0x3f893bac	1.0721335
1	0x3f7750e9	0.96607834
2	0x3f8ad320	1.084568
3	0x3f811600	1.0084839
4	0x3f7c00c2	0.98438656
5	0x3f8db21e	1.1069982
6	0x3f826bd5	1.0189158
7	0x3f84031e	1.0313451
8	0x3f8d8434	1.105597
9	0x3f874aa4	1.0569654
10	0x3f7d936b	0.99053067
11	0x3f83ef84	1.0307469
12	0x3f890f9a	1.0707886
13	0x3f88f7e9	1.0700656
14	0x3f842372	1.0323317
15	0x3f833700	1.025116
16	0x3f8289b1	1.019827
17	0x3f83dcee	1.0301797
18	0x3f866bc5	1.0501639
19	0x3f96f9b8	1.1794958
20	0x3f8c8a17	1.0979642
21	0x3f819522	1.0123637
22	0x3f9421c3	1.1572803
23	0x3f9a6209	1.2061168
24	0x3f78586d	0.9700993
25	0x3f76f707	0.96470684
26	0x3f80a68e	1.0050828
27	0x3f6fdb67	0.93694156
28	0x3f93ad21	1.153721
29	0x3f7df330	0.991992
30	0x3f975c52	1.1825049
31	0x3f9d7379	1.2300864

embedder.res_block.0.bias f4 [32]
0	0x3d059930	0.032616794
1	0xbdb65d3a	-0.089045
2	0x3cf50632	0.02991018
3	0x3d0f7386	0.03502228
4	0x3d2324cf	0.039830025
5	0xbcc45a66	-0.023968887
6	0xbd5fc8bf	-0.054634806
7	0xbd787226	-0.060655735
8	0x3c542c32	0.01294999
9	0xbc77b12c	-0.015117925
10	0xbcc14192	-0.023590837
11	0xbc9ec03b	-0.019378772
12	0x3cbd3243	0.023095256
13	0xbc8e211c	-0.017349772
14	0xbc112ef6	-0.008861294
15	0x3d19d59e	0.037557237
16	0xbba8c0bb	-0.0051499284
17	0xbcd0f8e9	-0.025509315
18	0xbc867b3a	-0.01641618
19	0x3c1be754	0.009515602
20	0x3c8332c9	0.016015427
21	0x3bf52e7f	0.0074823494
22	0x3d18fe15	0.037351687
23	0x3d017698	0.03160724
24	0x3cf64bbc	0.03006541
25	0xbdc8d05c	-0.098053664
26	0xbbca3a72	-0.006171518
27	0x3dab912f	0.08377301
28	0xbc8cd33f	-0.017190574
29	0x3d1cf7e9	0.038322363
30	0x3cb37e15	0.021910707
31	0x3b1fd94d	0.0024390996

embedder.res_block.1.weight f4 [32, 32]
0	0x3d6aa981	0.057290558
1	0x3d399ffb	0.045318585
2	0xbe8392d0	-0.25697947
3	0xbdd9a027	-0.1062625
4	0x3e325ba0	0.17417765
5	0xbe508d3a	-0.20366374
6	0x3de455a1	0.11149145
7	0x3e2e2d34	0.17009431
8	0xbe7eee4a	-0.24895588
9	0x3e5c96ee	0.2154195
10	0xbd79574a	-0.06087426
11	0xbd865dc2	-0.06560852
12	0x3e55c320	0.20875216
13	0xbea5392d	-0.32270184
14	0x3de1355b	0.10996505
15	0xbe2f5c00	-0.17124939
16	0xb93f4de7	-0.000182442
17	0x3de17072	0.11007775
18	0xbe09c72d	-0.13454886
19	0x3ed5f4f6	0.41788453
20	0x3e1b2cc6	0.15153798
21	0xbe5da29e	-0.21644065
22	0xbdf8f8ac	-0.121568054
23	0x3ea88f41	0.32921794
24	0xbe0d9fd9	-0.13830508
25	0xbd316c34	-0.04331608
26	0x3d69ec0b	0.057109874
27	0x3da681b4	0.08130208
28	0xbe9ef360	-0.31045055
29	0x3e139669	0.14412846
30	0xbe0e1627	-0.13875638
31	0x3eda54e7	0.426429
32	0x3db70fda	0.0893857
33	0x3cabd6df	0.020976482
34	0x3e309483	0.17244153
35	0x3d9e208b	0.07721051
36	0xbe09e934	-0.13467866
37	0xba60062b	-0.0008545841
38	0xbe2a498a	-0.16629615
39	0xbc1a0b7e	-0.009402154
40	0xbe49ed96	-0.19719538
41	0xbe1e160b	-0.15438096
42	0xbdf96c4a	-0.121788576
43	0xbd47ba86	-0.048761867
44	0xbc1b5a47	-0.009481973
45	0xbe570721	-0.20998813
46	0x3e03a7e4	0.12857014
47	0xbd939027	-0.07205229
48	0xbe5a8124	-0.21338326
49	0xbd1a2b16	-0.037638746
50	0x3ce28c99	0.027654933
51	0x3e1c2e9d	0.15252157
52	0x3d2a29ab	0.041543644
53	0x3d29391a	0.041314222
54	0xbc9fddc9	-0.019514935
55	0x3e8e3df7	0.2778165
56	0xba9130aa	-0.0011077125
57	0xbc855e8b	-0.016280433
58	0xbd5ce360	-0.05392778
59	0xbd353a7e	-0.044245236
60	0xbd771b51	-0.060328785
61	0xbdbe9aae	-0.093068466
62	0xbd9a5474	-0.075356394
63	0xbcbf03a9	-0.023317175
64	0xbca810b8	-0.020515785
65	0x3de8adc6	0.1136127
66	0x3dece9de	0.11568044
67	0x3d9023d1	0.070380814
68	0xbbc59ea3	-0.006030874
69	0xbbebff6d	-0.00720208
70	0x3dfe5855	0.12419192
71	0xbcf6aa84	-0.030110605
72	0xbe33654d	-0.17519112
73	0xbe08f20b	-0.13373582
74	0x3dfec537	0.124399595
75	0x3e26798e	0.16257307
76	0x3e1d992e	0.15390465
77	0xbe210627	-0.15725003
78	0xbdb9d642	-0.090740696
79	0x3e800280	0.25001907
80	0xbe3a6109	-0.18201078
81	0x3e81979f	0.2531099
82	0xbe31e23a	-0.17371455
83	0x3de29818	0.11064166
84	0x3d43d38b	0.047809165
85	0xbe0845eb	-0.13307922
86	0xbd9d24ad	-0.07673011
87	0x3e5c1bbd	0.21494956
88	0x3dbc2e4b	0.09188517
89	0x3d19b774	0.03752847
90	0x3e52a264	0.2056976
91	0xbe285855	-0.16439946
92	0xbb978eea	-0.004625191
93	0x39df63a9	0.00042608127
94	0xbe591426	-0.21199092
95	0xbe395f29	-0.18102707
96	0xbd9d7949	-0.07689149
97	0x3c88d471	0.016702862
98	0xbda4d55e	-0.08048509
99	0xbe0b3d34	-0.13597566
100	0x3dc4242f	0.09577214
101	0xbe3b3a07	-0.18283854
102	0x3de3c534	0.11121598
103	0x3dbddee2	0.09271027
104	0x3d9ba09d	0.07598994
105	0xbe65afb4	-0.22430307
106	0x3dbfdad3	0.09367909
107	0xba885b85	-0.0010403252
108	0x3ddfb381	0.109229095
109	0x3de95a72	0.11394204
110	0x3e2ad949	0.1668445
111	0x3b3adff0	0.0028514825
112	0xbc89e5b7	-0.01683317
113	0xbe09b6ba	-0.13448611
114	0x3dde2e0c	0.108486265
115	0xbda81133	-0.082064055
116	0xbd841264	-0.0644882
117	0xbe21d03a	-0.15802088
118	0xbe24c38e	-0.16090223
119	0x3e1e4952	0.15457657
120	0x3dca49f4	0.09877387
121	0xbe368572	-0.17824343
122	0xbb2480f6	-0.002510128
123	0x3d83115c	0.063997954
124	0x3e119115	0.142155
125	0xbd96db11	-0.07366002
126	0x3dd951a8	0.10611278
127	0xbca2f6bf	-0.019893048
128	0x3d0fe158	0.035127014
129	0x3cd429bb	0.025898805
130	0xbd8c3de7	-0.068477444
131	0xbde93f1a	-0.11388989
132	0xbd875b31	-0.0660919
133	0xbde7a517	-0.11310785
134	0x3d744f47	0.059645917
135	0xbe190450	-0.14943051
136	0x3d13387c	0.03594254
137	0xbe5dd238	-0.21662223
138	0xbc36e1f7	-0.011162273
139	0x3db68eca	0.089139536
140	0x3cb8705b	0.022514513
141	0xbe230972	-0.15921572
142	0xbe09792c	-0.1342513
143	0x3b14e351	0.00227185
144	0x3df1e3fa	0.11811061
145	0xbe153a85	-0.14573105
146	0xbd7e7647	-0.062124517
147	0xbe1db340	-0.1540041
148	0x3e0b21d3	0.13587122
149	0xbd205c7a	-0.039150693
150	0x3df30176	0.11865513
151	0xbc6bcdd0	-0.014392331
152	0x3e05a1ea	0.13050047
153	0xbe09a8e7	-0.13443337
154	0x3b844be7	0.0040373686
155	0x3dac45fc	0.08411786
156	0xbe12d328	-0.14338362
157	0x3d930294	0.07178226
158	0x3db4601f	0.08807396
159	0xbc7b724a	-0.015347073
160	0xbe7464fc	-0.23866647
161	0xbdf57656	-0.119854614
162	0x3ce81be5	0.028333614
163	0xbca86332	-0.020555113
164	0xbdd77180	-0.10519695
165	0xbd7b44c8	-0.06134489
166	0xbd97c5f6	-0.07410805
167	0x3e7d150d	0.24715061
168	0xbe3c7938	-0.18405616
169	0x3d6ff72d	0.058585335
170	0x3d590341	0.05298162
171	0xbd7988b6	-0.060921393
172	0x3e99509a	0.29944307
173	0xbe26f84f	-0.1630566
174	0x3e346918	0.17618215
175	0x3dc341eb	0.09534057
176	0x3cf96a99	0.030446338
177	0xbdd43fa6	-0.103637025
178	0xbe55b12e	-0.2086837
179	0x3e968079	0.29394892
180	0x3e8cc8d7	0.2749698
181	0x3bb5a8d5	0.005543808
182	0xbe2e6952	-0.17032364
183	0x3e4e5376	0.20149025
184	0xbb87bb19	-0.004142177
185	0xbdafc7ae	-0.08583008
186	0xbd8600a9	-0.06543095
187	0xbdb98c52	-0.09059967
188	0xbe4a8319	-0.19776572
189	0xbd9c140b	-0.076210104
190	0xbedd5406	-0.43228167
191	0x3e76579b	0.24056856
192	0xbdcb39ea	-0.099231556
193	0xbe65db6a	-0.22446981
194	0xbc2b20be	-0.010444818
195	0x3d700ac3	0.058604013
196	0xbe20bcec	-0.15697068
197	0x3e834abf	0.25642964
198	0xbe2b7932	-0.16745451
199	0x3db98801	0.09059144
200	0xbdef6b67	-0.11690407
201	0x3d8fcb2a	0.07021172
202	0xbe24fc8b	-0.16111962
203	0xbe35a387	-0.17738162
204	0x3d9d1cd5	0.07671515
205	0x3d60416c	0.05474989
206	0xbd45295a	-0.04813514
207	0x3c315070	0.0108224
208	0x3e00148c	0.12507838
209	0x3d4bcd7f	0.049756523
210	0xbd4cb8e7	-0.049981024
211	0xbc999149	-0.018746035
212	0x3cd714d8	0.026255056
213	0x3d9fadab	0.077967964
214	0x3e14a1b1	0.14514805
215	0xbdabd08b	-0.08389386
216	0xbe09078d	-0.13381787
217	0x3df15c1e	0.11785148
218	0xbd9831f6	-0.07431404
219	0x3e016b65	0.12638624
220	0x3e718f03	0.23589711
221	0xbe2ae432	-0.16688612
222	0x3db8d4ce	0.09024964
223	0x3e022b73	0.12711887
224	0xbd00106d	-0.031265665
225	0x3d89225d	0.066960074
226	0xbe11cc64	-0.14238125
227	0xbc86ab9b	-0.01643925
228	0x3d199529	0.037495766
229	0x3da5cad6	0.080953285
230	0x3e31bdd6	0.17357573
231	0x3d4edac3	0.050501596
232	0x3e20274e	0.15639994
233	0x3cbb4c70	0.022863597
234	0x3d2a440f	0.041568812
235	0xbd35d96d	-0.044396807
236	0x3b978af3	0.0046247183
237	0xbde99204	-0.114048034
238	0x3db79695	0.08964268
239	0xbd6d0a80	-0.05787134
240	0x3e22c659	0.15895976
241	0x3dd1ab0f	0.10237705
242	0x3d1e39c9	0.038629327
243	0xbe0d908d	-0.13824673
244	0x3afbb9ac	0.0019205115
245	0xbd8355ee	-0.06412874
246	0x3e1b633d	0.15174575
247	0xbcd65b87	-0.02616669
248	0x3d47b63c	0.048757777
249	0x3d87cf47	0.06631332
250	0x3c946234	0.018113233
251	0xbca940e0	-0.020660818
252	0x3e02b72a	0.12765184
253	0xbe35c885	-0.17752273
254	0x3e7ad8ce	0.24496767
255	0xbcfdb225	-0.030968735

embedder.res_block.1.bias f4 [32]
0	0xbc9f418a	-0.019440431
1	0xbc6c3b3c	-0.014418419
2	0x3d24f340	0.040271044
3	0x3d65c33a	0.056094386
4	0x3cc02fb5	0.023460248
5	0x3dd4cf1b	0.10391065
6	0x3d266927	0.040627625
7	0xbd1566dc	-0.036475047
8	0xbe08ee8a	-0.13372245
9	0xbb82beef	-0.003990046
10	0xbe07a737	-0.13247381
11	0xbcb17242	-0.021660928
12	0xbe2b9c53	-0.16758852
13	0x3d6c7d6b	0.057736795
14	0xbd746555	-0.05966695
15	0x3dd1c33f	0.10242318
16	0x3dcde848	0.1005407
17	0x3e28b1af	0.16474031
18	0xbd354d57	-0.04426321
19	0xba39e873	-0.00070918276
20	0x3d7edca0	0.062222123
21	0xbd5cdb53	-0.0539201
22	0x3c04270e	0.008065952
23	0x3b547a89	0.003242167
24	0x3e034f5a	0.12823239
25	0xbcf25816	-0.029583018
26	0x3ddc48f6	0.10756104
27	0x3e3c19be	0.18369195
28	0xbc256a31	-0.010096119
29	0xbd8b6fed	-0.068084575
30	0x3e0ebb9d	0.13938756
31	0x3d26dab5	0.04073592

embedder.res_block.3.weight f4 [32, 32]
0	0x3e528f27	0.20562421
1	0xbe0488b6	-0.12942776
2	0xbd86e9b5	-0.06587545
3	0x3c8f2ffd	0.017478937
4	0x3d1586bc	0.036505446
5	0xbc791d3e	-0.015204726
6	0xbca2300b	-0.0197983
7	0x3e0e70df	0.13910244
8	0x3e084519	0.13307609
9	0x3d3d7fb3	0.04626436
10	0xbd52fe49	-0.051512036
11	0x3e8e8542	0.27836043
12	0xbdabd003	-0.083892845
13	0x3df35708	0.11881834
14	0xbdddb526	-0.10825567
15	0xbd9faff5	-0.07797233
16	0x3c2cfcae	0.01055829
17	0xbd304d02	-0.04304219
18	0xbe274e19	-0.16338386
19	0xbe1fc5d4	-0.15602809
20	0x3eb18e5c	0.34678924
21	0xbe2c1b55	-0.16807301
22	0xbd902638	-0.0703854
23	0xbde493c4	-0.111609966
24	0x3e1f7c61	0.1557479
25	0x3d1a7805	0.037712116
26	0x3e14df55	0.1453832
27	0xbdbdc352	-0.0926577
28	0x3d75cee7	0.06001177
29	0xbe22c2f5	-0.15894683
30	0x3d77302d	0.06034868
31	0x3c8703fb	0.01648139
32	0x3e808a08	0.2510531
33	0x3d8750fc	0.066072434
34	0xbdd7929f	-0.10526013
35	0xbd6e03fe	-0.058109276
36	0xbd26d288	-0.040728122
37	0x3e547276	0.20746788
38	0xbe15cf27	-0.14629804
39	0xbdd17814	-0.10227981
40	0xbdc4793c	-0.09593436
41	0xbe2b74b4	-0.16743737
42	0xbdce1808	-0.10063177
43	0x3e8afaa2	0.27144343
44	0xbe04f6fb	-0.1298484
45	0xbe51752a	-0.20454851
46	0xbe5a9f4e	-0.21349832
47	0x3dca8ba3	0.09889915
48	0xbc74beaf	-0.014938041
49	0xbe14e9ef	-0.14542364
50	0xbcc0f2bf	-0.02355325
51	0xbd58c537	-0.052922454
52	0x3db6eb6f	0.08931624
53	0xbe36921e	-0.17829177
54	0xbdea2f89	-0.11434848
55	0xbdb36334	-0.08759156
56	0xbe150d30	-0.14555812
57	0xbcaca6ba	-0.021075595
58	0x3d847f55	0.06469599
59	0xbe24a150	-0.16077161
60	0xbddafb83	-0.10692503
61	0xbe03fbf3	-0.1288908
62	0xbde7e53d	-0.113230206
63	0xbe06c884	-0.13162428
64	0x3d4cd8ee	0.050011568
65	0x3dc38585	0.09546951
66	0x3e81a70b	0.25322756
67	0xbdd722dc	-0.10504696
68	0xbcee4429	-0.029085236
69	0xbd727165	-0.059190173
70	0x3d815693	0.06315341
71	0x3e31a05c	0.17346328
72	0x3e006704	0.12539297
73	0xbe48a60f	-0.19594596
74	0xbdc5ad43	-0.09652188
75	0x3e1a079e	0.15041968
76	0x3c6dfdcd	0.014525843
77	0xbbb6f8a9	-0.005583842
78	0xbe26a3a8	-0.16273367
79	0x3dbc177a	0.09184165
80	0xbc040adb	-0.008059229
81	0x3e693ac3	0.22776322
82	0x3d076a88	0.03306058
83	0x3e4568eb	0.19278304
84	0xbe1df7d2	-0.15426567
85	0x3d1d42d7	0.03839382
86	0xbd9ec97d	-0.077532746
87	0x3da3f481	0.0800562
88	0xbba37d36	-0.0049892915
89	0xbdd99f97	-0.106261425
90	0x3e8747de	0.26422018
91	0xba929c83	-0.001118556
92	0xbe594b35	-0.21220095
93	0xbd067ef1	-0.032835905
94	0xbdcb8afc	-0.099386185
95	0xbd6458e4	-0.055748835
96	0xbeac7393	-0.33681926
97	0xbe06d0a3	-0.13165526
98	0x3dfeac49	0.124352045
99	0x3a941f50	0.0011300836
100	0x3df3437c	0.11878106
101	0xbe4d0f90	-0.20025468
102	0x3df2bffb	0.118530236
103	0xbdb97c8e	-0.0905696
104	0xbd77d8b0	-0.060509384
105	0xbda77b5e	-0.08177827
106	0x3e31b630	0.17354655
107	0xbecf6307	-0.4050524
108	0xbae6ea2f	-0.00176174
109	0x3e15a062	0.14611962
110	0x3dbb21c7	0.09137302
111	0x3e03c76f	0.12869047
112	0xbd08f05d	-0.033432353
113	0x3ddf8665	0.109143056
114	0x3e1e5fd2	0.1546624
115	0x3d0a71b8	0.033799857
116	0xbe925724	-0.28582108
117	0x3e2c59bd	0.16831107
118	0x3e25d97b	0.16196243
119	0x3d5a5ad8	0.05330929
120	0xbd3fb657	-0.046804752
121	0x3df0c32b	0.11755975
122	0x3d881928	0.06645423
123	0x3dce752d	0.10080943
124	0xbdbb4e31	-0.09145773
125	0x3e2965dc	0.16542763
126	0x3d47e844	0.04880549
127	0xbb254f51	-0.0025224278
128	0x3e1a911f	0.15094422
129	0xbe105c19	-0.14097632
130	0x3dee093c	0.11622855
131	0x3c28a88f	0.010294094
132	0xbe5d81cb	-0.21631543
133	0xbd9008e6	-0.07032947
134	0x3d326518	0.04355344
135	0xbdd3a51f	-0.10334229
136	0x3d701117	0.05861005
137	0xbddeee03	-0.10885241
138	0xbe006cc8	-0.12541497
139	0x3db4a1c8	0.0881992
140	0x3d68c6e4	0.056830302
141	0xbc9aa6ad	-0.018878305
142	0xbe5e3055	-0.21698125
143	0xbdf2a98f	-0.11848747
144	0x3d23baac	0.039972946
145	0x3e963821	0.29339698
146	0x3e00cb1b	0.12577479
147	0xbd836ca3	-0.06417205
148	0xbcdbe3f5	-0.026842097
149	0xbb956620	-0.0045592934
150	0x3d935537	0.07193988
151	0xbc17acf4	-0.009257544
152	0xbd4f5779	-0.05062053
153	0x3e27afdc	0.16375679
154	0xbce5e1a6	-0.0280617
155	0x3d039496	0.032124124
156	0xbe1b6119	-0.15173759
157	0xbc9842e7	-0.018586589
158	0xbd66da11	-0.056360308
159	0x3d9926f1	0.074781306
160	0xbe915e31	-0.28392175
161	0x3b69c863	0.0035672418
162	0xbe7092a5	-0.2349344
163	0xbe20b469	-0.15693821
164	0x3d5f6e14	0.054548338
165	0x3de68605	0.11256031
166	0x3da66599	0.08124847
167	0x3e459cb9	0.19298066
168	0xbcb09dc4	-0.021559604
169	0x3e112ede	0.14178035
170	0xbe251f4a	-0.16125217
171	0xbc8bbc53	-0.017057573
172	0x3e1c18b0	0.15243793
173	0xbe063de3	-0.13109545
174	0xbd0c2c76	-0.03422209
175	0xbdb3488e	-0.08754073
176	0xbe28f83b	-0.16500942
177	0x3e53a10e	0.20666906
178	0x3c82f5d4	0.01598636
179	0x3dbbdf6c	0.09173474
180	0x3db42e67	0.08797913
181	0x3d7f292d	0.062295128
182	0xbd9883bc	-0.07447001
183	0xbddc7121	-0.10763765
184	0xbcd6f3e5	-0.026239345
185	0x3d60e31b	0.054904085
186	0x3db844cb	0.08997496
187	0x3a9d7328	0.0012012469
188	0x3e40c677	0.18825708
189	0x3e1c71fd	0.15277858
190	0x3dcc6f5e	0.09982179
191	0x3e1c5af8	0.15269077
192	0x3e4553cc	0.19270247
193	0xbe0d7f4f	-0.13818096
194	0xbe1c90b9	-0.15289582
195	0x3cb54881	0.0221293
196	0xbe3deba8	-0.18546927
197	0xbdb596e0	-0.08866668
198	0x3d414f04	0.047194496
199	0x3cc76acd	0.024342919
200	0xbde423ea	-0.111396626
201	0xbe0e5f63	-0.13903575
202	0xbe11783d	-0.14206024
203	0x3bd56bd4	0.0065130983
204	0xbde579bc	-0.112048596
205	0x3e247cdf	0.1606326
206	0xbc8c51f9	-0.017128931
207	0x3d284c85	0.0410886
208	0x3d01f871	0.031731073
209	0xbccdd7f7	-0.025127394
210	0xbc4c5fc8	-0.012474008
211	0xbd3eaad2	-0.046549626
212	0xbe3f1cce	-0.18663332
213	0xbddd9479	-0.108193345
214	0x3d1aad0c	0.037762687
215	0xbd9f525b	-0.0777938
216	0xbe274378	-0.16334331
217	0x3dbfa13c	0.09356925
218	0xbe3a65b4	-0.18202859
219	0xbe66f74a	-0.22555271
220	0xbd44622e	-0.047945194
221	0x3d92554c	0.07145175
222	0xbe43b409	-0.19111647
223	0xbd234ff6	-0.03987118
224	0x3f0c5a85	0.5482562
225	0x3dc9baf3	0.09850111
226	0x3db0c548	0.086313784
227	0xbe15eeec	-0.14641923
228	0x3e0786c4	0.13235003
229	0x3db411b6	0.087924406
230	0xbe74fabe	-0.23923776
231	0x3d82f6e9	0.063947506
232	0xbda0c498	-0.07849997
233	0x3cc15e7c	0.023604624
234	0x3db833fc	0.0899429
235	0xbce1da3b	-0.02756988
236	0x3ddacd2c	0.10683665
237	0xbe032440	-0.12806797
238	0xbcbb2ac6	-0.022847544
239	0x3e024e13	0.12725095
240	0x3d2239f3	0.039606046
241	0x3c0a4378	0.008438937
242	0xbdf06a69	-0.11739046
243	0xba9c2c03	-0.0011914972
244	0x3e6f9f89	0.23400702
245	0xbd07d321	-0.033160333
246	0x3d87b643	0.066265605
247	0x3d718ab6	0.058970176
248	0x3ddeea28	0.108845055
249	0xbdc56022	-0.096374765
250	0xbe40a023	-0.18811087
251	0xbe7897a3	-0.24276595
252	0x3b8c7ee4	0.0042875875
253	0xbd33c6e3	-0.043890845
254	0x3e3173c4	0.17329317
255	0xbc9ca9c9	-0.019123929

embedder.res_block.3.bias f4 [32]
0	0x3e182027	0.14856015
1	0xbe3f4141	-0.18677236
2	0xbd0a062a	-0.033697285
3	0xbdd82ef1	-0.10555828
4	0xbc20bb6a	-0.009810308
5	0xbdcc007e	-0.099610314
6	0x3dd14d84	0.10219863
7	0x3dc246d0	0.09486163
8	0xbd982a73	-0.074299715
9	0x3d8bfe53	0.06835618
10	0x3e00cd21	0.1257825
11	0xbdce5b7e	-0.100760445
12	0x3d0c1271	0.034197275
13	0x3df9db85	0.12200073
14	0x3bb117d6	0.005404453
15	0xbe2d4455	-0.16920598
16	0x3d3e9e46	0.04653766
17	0xbd9f3b90	-0.077750325
18	0xbddc49f0	-0.1075629
19	0x3ce4c232	0.02792463
20	0x3d286bb5	0.041118342
21	0x3e31b7b1	0.17355229
22	0xbd8e49c6	-0.06947665
23	0xbe2bebe7	-0.16789208
24	0x3e0d0cd7	0.1377443
25	0xbd3803dd	-0.04492556
26	0x3d63af2e	0.055586986
27	0x3d5e08d8	0.054207653
28	0xbe336cdf	-0.17522
29	0x3d7cdb1e	0.061732404
30	0x3d921247	0.071323924
31	0x3d13df04	0.036101356

cnn_blocks.0.proj_in.weight f4 [16, 32]
0	0xbdbf4b8a	-0.0934058
1	0xbe712c9d	-0.23552175
2	0x3dd292c2	0.10281898
3	0xbe0e46a1	-0.1389413
4	0x3cb96e8c	0.02263572
5	0xbd8479b7	-0.06468528
6	0xbd0801c2	-0.0332048
7	0x3e119d99	0.14220275
8	0x3e10d822	0.14144948
9	0x3db47865	0.08812026
10	0x3d8e72f3	0.069555186
11	0xbe004b56	-0.12528738
12	0x3dae9e0a	0.08526237
13	0xbdcda0fd	-0.10040472
14	0x3ded2e20	0.11581063
15	0xbe10c21b	-0.14136545
16	0x3db609c8	0.088885844
17	0x3d8346c5	0.064099826
18	0x3c4ce07a	0.012504691
19	0x3d5f5cdc	0.054531917
20	0x3d87a7c6	0.06623797
21	0x3cb10f7e	0.021613833
22	0x3b67beb5	0.0035361473
23	0xbce16fae	-0.027519073
24	0xbe233564	-0.15938336
25	0xbde054be	-0.10953663
26	0xbe03aefd	-0.12859721
27	0xbe675ff0	-0.22595191
28	0xbd52aa8e	-0.051432185
29	0xbe151816	-0.1455997
30	0x3db112a3	0.08646133
31	0x3decc789	0.11561496
32	0x3d08b8bd	0.033379305
33	0x3e4a5105	0.19757469
34	0x3dbbc7f2	0.09168996
35	0x3e404b93	0.1877883
36	0x3e21fc8b	0.15818994
37	0x3d9e2765	0.07722358
38	0x3d0a0354	0.03369458
39	0x3d9e9127	0.07742529
40	0x3c310761	0.010804982
41	0xbd9b803c	-0.07592818
42	0xbd1050f7	-0.035233464
43	0x3db3b90e	0.08775531
44	0xbc416a89	-0.011805185
45	0xbdf88c0f	-0.12136089
46	0x3e23b299	0.15986098
47	0xbd6a5037	-0.057205405
48	0xbe35ce58	-0.17754495
49	0xbe134360	-0.1438117
50	0xbca9a3fa	-0.020708073
51	0xbe0b6179	-0.13611402
52	0x3db3738c	0.08762273
53	0xbe1472c4	-0.14496905
54	0xbe1e74fa	-0.1547431
55	0xbe15ebba	-0.14640704
56	0xbdfacf93	-0.12246623
57	0x3e0be431	0.13661267
58	0xbe0f0b2f	-0.1396911
59	0xbc99751e	-0.018732604
60	0xbe1a6952	-0.15079239
61	0x3d807709	0.06272704
62	0xbdfa3746	-0.12217574
63	0x3e00c7ea	0.12576261
64	0xbdc09f15	-0.094053425
65	0xbc6231cb	-0.013805817
66	0xbe1af92a	-0.15134111
67	0x3e30bf01	0.17260362
68	0x3b99603a	0.0046806606
69	0xbd2fb28e	-0.042894892
70	0xbde064d7	-0.10956734
71	0x3e334fb5	0.17510875
72	0xbe352812	-0.17691067
73	0xbdc975b5	-0.09836904
74	0xbd89c907	-0.06727796
75	0xbcb1ad75	-0.021689156
76	0xbe2904b1	-0.16505696
77	0x3d9b8ac3	0.07594826
78	0x3dd80aec	0.10548958
79	0xbd69f116	-0.057114683
80	0xbd5c593a	-0.05379603
81	0xbdc0d97b	-0.09416481
82	0xbc095742	-0.00838262
83	0xbdb96d21	-0.09054018
84	0x3dab948c	0.083779424
85	0xbd9268c9	-0.071488924
86	0x3e1011f6	0.14069352
87	0xbdc9f37d	-0.09860895
88	0x3e00b400	0.12568665
89	0xbe4bf15b	-0.19916289
90	0xbdc33e6e	-0.09533392
91	0x3df25b67	0.1183384
92	0xbdc71675	-0.0972108
93	0xbe020155	-0.1269582
94	0xbd869f13	-0.0657331
95	0xbdaf6c88	-0.085656226
96	0xbe1c05eb	-0.15236633
97	0xbcfebbf5	-0.031095484
98	0xbcd2bffe	-0.025726315
99	0xbd8c0130	-0.06836164
100	0x3e112262	0.14173272
101	0xbdb7ddfa	-0.089778855
102	0xbdeedb17	-0.11662882
103	0xbdc22241	-0.0947919
104	0xbd41b3fd	-0.04729079
105	0x3e81dcbb	0.25363716
106	0xbd2a80f7	-0.041626897
107	0x3ddf9386	0.1091681
108	0x3e754c02	0.23954776
109	0x3c527b54	0.0128467865
110	0xbe3a581c	-0.18197674
111	0x3cd79cc5	0.02631987
112	0xbe3edb19	-0.18638267
113	0x3e1d4a72	0.1536043
114	0xbd46a116	-0.048493467
115	0xbdf63696	-0.1202213
116	0x3d8826e8	0.06648046
117	0x3da3bd8a	0.07995136
118	0xbdfdc6bf	-0.123914234
119	0x3d2faf8f	0.042892035
120	0x3d8ccd7e	0.06875132
121	0x3bb47409	0.0055069965
122	0xbcb6c02f	-0.022308437
123	0xbda382a1	-0.079839
124	0x3c06de4c	0.008231711
125	0xbc222e9f	-0.009898811
126	0x3d0d7383	0.03453399
127	0x3e1b8ed7	0.15191208
128	0xbd9a8e5a	-0.07546683
129	0x3d42844d	0.047489453
130	0xbbc7b593	-0.0060946434
131	0x3d30ffc2	0.04321266
132	0xbc6911da	-0.014225448
133	0xbdd45e03	-0.10369494
134	0x3e686657	0.2269529
135	0xbe47cf15	-0.1951259
136	0xbd1a8402	-0.03772355
137	0xbda73af0	-0.08165538
138	0x3e08bbb9	0.1335286
139	0xbdc11c4a	-0.09429224
140	0xbe1dd299	-0.15412368
141	0x3e8ad00b	0.2711185
142	0xbd9a0cb2	-0.07521953
143	0xbd3a2398	-0.0454441
144	0x3c3f21f9	0.011665815
145	0x3e380d7c	0.17973894
146	0xbd7fc092	-0.06243951
147	0x3da53ea5	0.08068589
148	0x3dc5b500	0.09653664
149	0x3daecebe	0.08535527
150	0xbe7f8e99	-0.2495674
151	0xbdccbc7f	-0.0999689
152	0x3c38a63f	0.011270105
153	0xbd8629b5	-0.06550924
154	0x3df215f1	0.11820591
155	0x3dde1a61	0.10844875
156	0xbdf0d47b	-0.117592774
157	0xbe1326f2	-0.14370325
158	0x3dbc27ff	0.09187316
159	0x3e5dab50	0.21647382
160	0x3dcc0b7a	0.099631265
161	0x3e1aac5e	0.15104815
162	0xbdd5ea90	-0.1044513
163	0x3db544b4	0.08850995
164	0xbe344f78	-0.1760844
165	0xbdca3a85	-0.09874443
166	0xbe25e445	-0.16200359
167	0x3c7751fa	0.015095228
168	0xbd4e5986	-0.050378345
169	0x3e2ce3ef	0.16883825
170	0xbe2ca14e	-0.16858408
171	0x3dfa5fdc	0.12225315
172	0xbd7a7660	-0.061148047
173	0xbdd5863b	-0.10425993
174	0xbcdd3299	-0.027001666
175	0x3de64f77	0.112456255
176	0x3d87aa73	0.066243075
177	0xbe56a7b5	-0.20962413
178	0x3e48c373	0.19605808
179	0x3d03b739	0.032157157
180	0xbe057e77	-0.13036524
181	0x3da4a719	0.08039684
182	0x3d8420d5	0.06451575
183	0x3ddc11ae	0.1074556
184	0x3cda6b3b	0.02666246
185	0x3e25e34e	0.16199991
186	0x3dc7ab93	0.09749522
187	0xbdc99630	-0.09843099
188	0xbe35ec0f	-0.1776583
189	0x3dc5124c	0.096226305
190	0x3dbba13e	0.09161614
191	0xbcedcf13	-0.029029405
192	0xbdc89230	-0.09793508
193	0xbd3cb66c	-0.04607241
194	0x3da8c8be	0.082414135
195	0xbdae7b7f	-0.08519649
196	0x3e2f9e3e	0.17150208
197	0x3de8114a	0.113314226
198	0xbd8ee7ea	-0.06977828
199	0xbcba4256	-0.02273671
200	0x3d821e55	0.063534416
201	0xbd931f59	-0.071837135
202	0x3e557a5a	0.20847455
203	0x3db034c6	0.08603816
204	0xbd3e87fc	-0.046516404
205	0x3dfd3277	0.12363141
206	0x3e86f797	0.2636077
207	0xbd8c6c68	-0.06856614
208	0x3e33d01e	0.17559859
209	0xbc8bfcd0	-0.017088324
210	0x3c8f5563	0.01749677
211	0x3e1727aa	0.14761224
212	0x3d81278f	0.06306373
213	0xbd311e7f	-0.043241974
214	0x3da9cd6e	0.08291136
215	0x3e303189	0.17206396
216	0x3e379505	0.1792794
217	0xbd2a8417	-0.041629877
218	0xbd852532	-0.06501235
219	0x3dd07aa7	0.10179644
220	0xbd072e25	-0.03300299
221	0x3da610dc	0.081086844
222	0xbc1e20a0	-0.009651333
223	0xbe449f7b	-0.19201462
224	0xbe00be06	-0.12572488
225	0xbd412bbf	-0.04716086
226	0x3d9a1687	0.07523828
227	0xbe508ec5	-0.20366962
228	0xbd44c6dd	-0.048041213
229	0x3d917a63	0.071034215
230	0x3e3a947f	0.1822071
231	0x3d210974	0.039315656
232	0x3e342652	0.17592743
233	0x3d0c90b3	0.034317683
234	0xbc9581c5	-0.018250355
235	0x3e0072b7	0.1254376
236	0x3da79381	0.08182431
237	0x3e5718d2	0.21005562
238	0xbd197bf3	-0.037471723
239	0x3c97d5a1	0.018534483
240	0x3dcef778	0.10105795
241	0xbd654831	-0.05597705
242	0xbe342763	-0.1759315
243	0xbde8a26e	-0.11359106
244	0x3e081e60	0.13292837
245	0x3e1cb7ce	0.15304491
246	0x3e0da54c	0.13832587
247	0x3dd3d77f	0.10343837
248	0xbe1835b8	-0.14864242
249	0xbd231b20	-0.03982079
250	0x3d44a249	0.04800633
251	0x3e307709	0.17232908
252	0xbd5296c7	-0.051413324
253	0xbe3b294c	-0.18277472
254	0xbd4a18a5	-0.04933991
255	0xbdde228f	-0.10846435

cnn_blocks.0.proj_in.bias f4 [16]
0	0x3c25cd3c	0.0101197325
1	0xbe33125d	-0.17487474
2	0xbe3132f1	-0.17304589
3	0x3e1b34d3	0.1515687
4	0xbcbaa519	-0.022783803
5	0xbe0b751f	-0.13618897
6	0x3e24a39e	0.1607804
7	0xbd85bfc5	-0.06530718
8	0xbe5c3e07	-0.21508037
9	0x3d0f21c8	0.034944326
10	0xbde4cf26	-0.11172323
11	0x3bca6acc	0.006177282
12	0x3e11bda4	0.14232498
13	0x3cfafc5e	0.030637916
14	0xbda184fc	-0.07886693
15	0x3cffdc4d	0.031232977

cnn_blocks.0.convs.0.weight f4 [16, 16, 3, 3]
0	0x3cc9d39d	0.024637038
1	0xbd13b790	-0.03606373
2	0xbe305c94	-0.17222816
3	0xbd408165	-0.0469984
4	0xbbdc66ea	-0.0067261355
5	0x3d9524de	0.072824225
6	0x3d8b0f41	0.06790019
7	0xbc523b4e	-0.012831522
8	0xbce8a057	-0.028396768
9	0x3d85c044	0.065308124
10	0x3d108e8d	0.035292197
11	0x3dff2227	0.12457686
12	0xbd80bb45	-0.06285719
13	0x3debcb05	0.11513332
14	0xbbd4da5c	-0.006495757
15	0xbc268059	-0.010162436
16	0x3ca7db61	0.02049035
17	0xbd428e89	-0.047499213
18	0xbd0cfe0e	-0.034421973
19	0x3c14915e	0.009067861
20	0xbd55f6cc	-0.052237317
21	0xbc83ef21	-0.016105236
22	0x3d852ba9	0.06502468
23	0x3cceb50a	0.02523281
24	0xbd4aedad	-0.04954307
25	0x3dbb34cd	0.0914093
26	0xbd121947	-0.035668638
27	0x3d193df5	0.037412602
28	0x3d69d653	0.05708916
29	0xbdc05f3c	-0.093931645
30	0x3d973808	0.07383734
31	0xbdaa641a	-0.08319874
32	0x3d0c01e9	0.03418151
33	0x3db1f886	0.0868998
34	0x3cfdaf78	0.03096746
35	0x3d709a66	0.058740996
36	0xbd74aeb5	-0.059736926
37	0x3dac9cd8	0.08428353
38	0xbe468acb	-0.19388883
39	0x3d2ccd21	0.042187814
40	0xbd8c83f2	-0.06861104
41	0x3dec53e5	0.11539439
42	0xbc4624f0	-0.0120937675
43	0x3aa71be5	0.0012749402
44	0x3c4f92fa	0.012669319
45	0xbc62725d	-0.013821212
46	0x3d2d70aa	0.042343773
47	0x3da3d864	0.080002576
48	0xbd501e25	-0.050809998
49	0xbd6224cc	-0.055210873
50	0xbe19ecfc	-0.15031809
51	0xbd1cd89a	-0.038292505
52	0xbd808141	-0.06274653
53	0x3e1a9cd8	0.15098894
54	0xbca3ecc6	-0.020010363
55	0xbd24006c	-0.040039465
56	0x3d9d6076	0.07684414
57	0x3d7e47bd	0.062080134
58	0x3d00dcd0	0.031460583
59	0xbdd41c5a	-0.1035697
60	0xbd8d7caa	-0.069085434
61	0x3c9a24ad	0.018816317
62	0xbcf32cef	-0.029684512
63	0xbde04ab9	-0.10951752
64	0x3badf1e8	0.0053083785
65	0x3e05e606	0.13076028
66	0x3d3f199e	0.04665529
67	0xbe3b71e3	-0.18305163
68	0x3dbda5f1	0.092601664
69	0xbd797b90	-0.060908854
70	0x3c8269d1	0.015919598
71	0xbc94e203	-0.018174177
72	0xbd7eb96e	-0.06218856
73	0x3d9595c1	0.07303954
74	0x3ba0e567	0.0049101594
75	0x3c94a1b5	0.018143514
76	0xbc0f0230	-0.008728549
77	0x3e49de77	0.1971377
78	0xbdac909c	-0.084260195
79	0xbd70aefd	-0.05876063
80	0x3a8e63ba	0.0010863461
81	0x3cfdaf3d	0.03096735
82	0xbd08d88f	-0.03340965
83	0x3c3fcc9c	0.0117064975
84	0x3d7c2ae3	0.061564337
85	0x3bce0806	0.0062875776
86	0x3cbb01c8	0.022827998
87	0x3dfba7a9	0.12287838
88	0x3ba3b803	0.004996301
89	0xbd932e28	-0.07186538
90	0xbe097a30	-0.13425517
91	0x3d3d61d4	0.046235874
92	0x3b0a95cf	0.0021146422
93	0xbdc23b06	-0.09483914
94	0x3d6079d0	0.05480367
95	0x3d970722	0.07374407
96	0xbd9463f1	-0.07245625
97	0xbd087e84	-0.03332378
98	0x3dc604d8	0.096688926
99	0xbd406787	-0.04697373
100	0x3c951256	0.01819722
101	0x3dabb991	0.08385003
102	0xbd2922de	-0.041293018
103	0x3d8b00b8	0.067872465
104	0xbe0cffdd	-0.13769479
105	0xbda02a94	-0.07820621
106	0xbe005f96	-0.12536463
107	0x3d32c02c	0.0436403
108	0x3d6eac09	0.058269534
109	0x3d0d0514	0.03442867
110	0xbce5cc8e	-0.02805164
111	0xbd047212	-0.03233535
112	0xbd7a511d	-0.061112512
113	0x3c835072	0.01602957
114	0xbcae5ab6	-0.021283489
115	0xbd93c5f4	-0.07215491
116	0xbd60e440	-0.054905176
117	0xbd868b16	-0.06569497
118	0xbd3b98e3	-0.0458001
119	0x3d2a2338	0.041537493
120	0x3dc3cf35	0.09561006
121	0x3bf52e38	0.0074823163
122	0x3c8bfe5f	0.017089067
123	0x3cd8e06c	0.0264742
124	0x3d8328ee	0.06404291
125	0xbd7419f3	-0.05959506
126	0x3cdaf66b	0.02672883
127	0x3cb21c57	0.02174203
128	0xbd53dd7e	-0.051724903
129	0x3cd44b37	0.025914771
130	0xbca54742	-0.02017558
131	0x3d9e3311	0.07724584
132	0xbd208653	-0.0391906
133	0x3cf37ec1	0.029723527
134	0xbd06d6f9	-0.032919858
135	0x3d758e67	0.05995026
136	0xbc6c3f11	-0.014419333
137	0x3d2a241c	0.041538343
138	0x3cfc6285	0.030808697
139	0xbd02b5a6	-0.031911515
140	0xbde4d3dc	-0.111732215
141	0x3d3c3738	0.0459511
142	0xbd38d73c	-0.04512714
143	0xbd8e1796	-0.069380924
144	0x3d6b387a	0.057426907
145	0xbe011219	-0.1260456
146	0xbcba4c2b	-0.022741398
147	0x3dce6a87	0.10078912
148	0x3c3e0f8d	0.011600387
149	0x3d43dea1	0.047819737
150	0x3d838b41	0.06423045
151	0x3d1935d2	0.037404843
152	0xbd4f6bf2	-0.050640054
153	0xbcbb46cd	-0.022860909
154	0xbb6c704a	-0.0036077672
155	0xbdf6a6f4	-0.120435625
156	0xbc099906	-0.0083983
157	0xbdbdc242	-0.09265567
158	0xbc8bd2f4	-0.017068364
159	0x3e3712d4	0.17878276
160	0xbdc6f3b3	-0.09714451
161	0xbd93949d	-0.0720608
162	0xbcd93904	-0.026516445
163	0x3d98edf4	0.07467261
164	0x3dc316d1	0.09525836
165	0xbdc9654e	-0.098337755
166	0x3d05e0b5	0.032685
167	0xbdf5031d	-0.119634844
168	0x3c3577e7	0.01107595
169	0x3de5b2ad	0.1121572
170	0xbb8a2901	-0.004216314
171	0xbe043fce	-0.12914965
172	0xbd119ab1	-0.035547916
173	0xbe03573c	-0.12826246
174	0x3d07af4b	0.033126157
175	0xbd0c8981	-0.03431082
176	0xbd826fa8	-0.06368953
177	0xbc05271f	-0.008127003
178	0x3d5ca0f5	0.053864438
179	0xbcd034dd	-0.025415832
180	0xbe131c36	-0.1436623
181	0xbce72ca8	-0.028219536
182	0xbe41e273	-0.1893404
183	0x3c64035d	0.0139168175
184	0xbd176299	-0.036959264
185	0x3ce7951b	0.028269341
186	0x3d8a719a	0.06759949
187	0xbdbfaba3	-0.09358909
188	0xbd191916	-0.03737744
189	0x3d0a608e	0.033783488
190	0xbd635073	-0.055496644
191	0x3bb64eb3	0.005563581
192	0x3cff998f	0.031201152
193	0x3db751eb	0.089511715
194	0x3e07993d	0.1324205
195	0x3dac6fe1	0.08419777
196	0xbd2ab8a9	-0.041680012
197	0xbce64ab2	-0.02811179
198	0x3e1d7e2e	0.15380165
199	0x3d5c2ca1	0.0537535
200	0x3d588fbd	0.052871455
201	0x3d499a4b	0.04921941
202	0x3c6ee624	0.014581237
203	0xbd987b88	-0.07445437
204	0x3ca2bd70	0.019865721
205	0x3e096654	0.13417941
206	0x3d3f25cf	0.046666916
207	0x3c834502	0.016024116
208	0x3d7f9b97	0.06240424
209	0xbd308a38	-0.043100566
210	0x3c05a40e	0.0081567895
211	0xbde12454	-0.10993257
212	0xbdcd943e	-0.100380406
213	0xbcd333d5	-0.025781551
214	0x3d9d3b2d	0.076773025
215	0xbdb3fe78	-0.087887704
216	0x3c83126f	0.016
217	0x3d052a16	0.03251084
218	0xbcad28af	-0.021137564
219	0xbd851f15	-0.06500069
220	0xbd6c249e	-0.05765211
221	0xbd8b7652	-0.06809677
222	0xbdd99b0e	-0.106252775
223	0x3d61d11d	0.055131067
224	0x3dad3fdf	0.08459448
225	0x3aeaef17	0.0017924038
226	0x3d3ee28b	0.046602767
227	0x3cdb2d80	0.026755095
228	0xbd3d1449	-0.046161924
229	0x3db41e18	0.087948024
230	0x3b8dacc5	0.0043235742
231	0xbddf4bed	-0.109031536
232	0x3cd932fe	0.026513573
233	0x3de82e66	0.11336975
234	0xbda6fb30	-0.08153379
235	0xbba912dc	-0.005159719
236	0x3cb179b2	0.021664474
237	0xbc5c40cf	-0.013443186
238	0x3d51e427	0.051242974
239	0x3b9dfcce	0.0048213964
240	0xbc307a84	-0.0107713975
241	0x3cbd3280	0.02309537
242	0x3b80f36d	0.0039352686
243	0xbd17a610	-0.037023604
244	0xbdd759af	-0.10515153
245	0x3c0d7f2b	0.008636276
246	0xbd701f05	-0.058623333
247	0x3c726284	0.014793996
248	0xbd6b3ec0	-0.05743289
249	0x3d7fcdf1	0.06245226
250	0xbe0114dd	-0.12605615
251	0xbd847b2b	-0.06468805
252	0xbc69a7f9	-0.014261239
253	0x3db2d763	0.08732488
254	0x3d829171	0.06375397
255	0x3ba367cf	0.00498674

cnn_blocks.0.convs.0.bias f4 [16]
0	0x3b034226	0.0020028441
1	0xbc14e221	-0.009087116
2	0xbbe93652	-0.007117071
3	0x3cca2afe	0.024678703
4	0x3d83d4c4	0.06437066
5	0x3d4614c1	0.048359636
6	0xbb9ef2fa	-0.0048507424
7	0xbd945057	-0.07241886
8	0x3cd96ce5	0.026541183
9	0xbd0305bb	-0.031987887
10	0x3d16c2e3	0.036806952
11	0x3d2cb0cb	0.04216079
12	0xb92b5c57	-0.0001634223
13	0xbcc2618e	-0.023728158
14	0x3daeb668	0.08530885
15	0xbdb6c685	-0.08924583

cnn_blocks.0.convs.1.weight f4 [16, 16, 3, 3]
0	0x3ca263f3	0.01982305
1	0x3d913b10	0.070913434
2	0xbd230fab	-0.039809864
3	0xbd5225b2	-0.05130548
4	0xbe0e2c69	-0.13884129
5	0xbd9df39d	-0.07712481
6	0xbdb3c3e1	-0.08777595
7	0xbd58e330	-0.052951038
8	0xbd6dc2de	-0.058047168
9	0x3bbc695e	0.0057498654
10	0x3d44e814	0.04807289
11	0x3ae628d2	0.0017559773
12	0xbda728e5	-0.08162097
13	0x3dafc942	0.08583309
14	0xbe209d54	-0.15685016
15	0xbcbedc4d	-0.023298407
16	0x3da3a644	0.07990697
17	0x3d54b981	0.051934723
18	0xbd102cee	-0.0351991
19	0xbd007c2c	-0.03136842
20	0x3c748bfe	0.014925955
21	0xbd5c5a1b	-0.05379687
22	0xbd375937	-0.044762816
23	0x3c9935d0	0.018702418
24	0xbb67dac7	-0.0035378204
25	0xbdbc9767	-0.09208565
26	0x3c6e0d7e	0.014529584
27	0xbdad6ea9	-0.084683724
28	0xbd20a2d1	-0.039217774
29	0x3cc253ee	0.023721661
30	0xbc32f1bc	-0.010921892
31	0xbd4d1fda	-0.050079204
32	0xbe0cc55e	-0.13747165
33	0x3dca97e9	0.09892256
34	0xbc11a4e7	-0.008889413
35	0xbd59bd03	-0.05315877
36	0x3c75f229	0.015011349
37	0x3d302008	0.042999297
38	0x3d55ce74	0.052198842
39	0x3d922211	0.07135404
40	0x3e015b5e	0.1263251
41	0x3df2af78	0.11849874
42	0x3d81c2f1	0.0633601
43	0x3d7dc0bf	0.061951395
44	0x3d49cae5	0.04926576
45	0x3d1afb25	0.037837166
46	0xbd3bc0e1	-0.04583824
47	0x3c2a699c	0.010401156
48	0xbe06b3ae	-0.1315448
49	0xbc58f05a	-0.013240898
50	0xbdca323a	-0.09872861
51	0x3de60c6f	0.1123284
52	0xbd02b0b7	-0.03190681
53	0x3ce8d2fe	0.028420921
54	0x3dc13609	0.094341345
55	0xbda240e0	-0.0792253
56	0xbd2c8232	-0.04211635
57	0x3de7d81f	0.11320519
58	0xbd582dd9	-0.0527781
59	0xbce3a214	-0.027787246
60	0xbd4f5ea0	-0.05062735
61	0x3d2cdf11	0.04220492
62	0x3da41285	0.08011345
63	0xbd645e28	-0.055753857
64	0xbd7adbbc	-0.06124471
65	0x3d5665ad	0.05234306
66	0xbcd7e608	-0.026354805
67	0xbdb883eb	-0.09009536
68	0x3d8f2c29	0.06990845
69	0x3d1394c6	0.036030553
70	0xbd6222b4	-0.055208877
71	0x3d77a8db	0.060463767
72	0x3c7d6a9e	0.015467314
73	0x3db56202	0.08856584
74	0x3d8db19d	0.06918643
75	0x3c9b1cee	0.018934693
76	0xbd1b716f	-0.037949976
77	0x3cf6e324	0.030137606
78	0x3d973d00	0.07384682
79	0x3c406c7a	0.011744613
80	0xbdf2ead6	-0.11861198
81	0x3c6a0ec9	0.014285752
82	0x3dae5c67	0.08513718
83	0xbc4b161e	-0.01239541
84	0x3dbfd4b0	0.09366739
85	0x3cb58daf	0.022162287
86	0xbd192907	-0.037392642
87	0x3cec280e	0.028827693
88	0x3bf5f98c	0.007506555
89	0x3e258854	0.16165286
90	0x3daac966	0.08339195
91	0x3bdd68ae	0.0067568636
92	0xbbc07707	-0.005873564
93	0x3c9248a3	0.017856902
94	0x3e279e28	0.16368926
95	0x3d9783cb	0.073981844
96	0x3cd2a028	0.025711134
97	0xbd1dd42d	-0.038532425
98	0xbcb98798	-0.022647664
99	0x3df4f62b	0.11961015
100	0xbd7abdc4	-0.06121613
101	0xbd59b11c	-0.05314742
102	0xbd91fcf4	-0.07128325
103	0xbd157627	-0.036489632
104	0x3c539ed5	0.0129162865
105	0xbc8f3b09	-0.017484205
106	0xbdaf91ce	-0.08572732
107	0xbd39e364	-0.045382872
108	0xbe207ff2	-0.15673807
109	0xbd5ee643	-0.054418813
110	0xbe1718ed	-0.14755602
111	0xbbf53c8a	-0.0074840235
112	0x3d06e084	0.03292896
113	0xbd9a54ed	-0.075357296
114	0x3d0ba3fa	0.034091927
115	0x3d4fb8f2	0.050713487
116	0x3df42176	0.11920445
117	0x3d4c01ec	0.04980652
118	0xbdb35732	-0.087568656
119	0xbcd1ee8d	-0.025626445
120	0x3de2791d	0.11058257
121	0x3da8cc55	0.08242098
122	0x3c86f263	0.016473
123	0x3cf86748	0.030322686
124	0xbc579f9d	-0.013160613
125	0xbbf4650c	-0.007458335
126	0xbd8f56af	-0.069989555
127	0x3c1734bc	0.009228881
128	0x3dd225e2	0.10261132
129	0xbbf55ac6	-0.0074876277
130	0xbd61d6e8	-0.05513659
131	0x3d42d8a6	0.047569893
132	0xbd318a32	-0.043344684
133	0x3cfaf001	0.03063202
134	0x3e322ccb	0.173999
135	0x3d55b07d	0.052170265
136	0x3e079252	0.1323941
137	0xbd74045c	-0.05957447
138	0xbd028cc6	-0.031872533
139	0xbc9d741c	-0.019220404
140	0x3cec923c	0.028878324
141	0x3dd88f0d	0.1057416
142	0xbc9bdc43	-0.019025927
143	0x3e1d50d1	0.1536286
144	0x3dcd5684	0.10026267
145	0xbd7fd804	-0.062461868
146	0xbdb35e0c	-0.087581724
147	0xbc9adc17	-0.018903775
148	0xbe164cfc	-0.14677805
149	0x3de378cc	0.111070246
150	0xbd7a9935	-0.061181266
151	0x3c5f119e	0.01361504
152	0xbd2f3e3d	-0.042783964
153	0x3d7470b3	0.05967779
154	0xbdcfadb7	-0.10140555
155	0x3d788e19	0.06068239
156	0x3d8efa05	0.06981281
157	0xbcbf95ba	-0.023386825
158	0x3e12e39f	0.14344643
159	0xbe467fec	-0.19384736
160	0xbcc57196	-0.024102014
161	0x3d526ddf	0.051374312
162	0x3def5523	0.116861604
163	0x3d2c212b	0.04202382
164	0x3d0acc1d	0.033886064
165	0x3d15cfb9	0.036575053
166	0x3d93219e	0.07184146
167	0xbd56604d	-0.052337933
168	0x3ba2b47c	0.004965363
169	0xbc868137	-0.016419036
170	0x3d5b3b51	0.053523365
171	0xbc658e5f	-0.014010995
172	0x399ac05a	0.00029516482
173	0x3d3323bd	0.043735255
174	0xbd64c133	-0.05584831
175	0x3d97cbaf	0.074118964
176	0xbc554210	-0.013016239
177	0x3dcf3b61	0.101187475
178	0xbcafaac0	-0.021443725
179	0xbe230f88	-0.15923893
180	0xbc881f00	-0.016616344
181	0xbd53cd88	-0.05170968
182	0xbcbcad5b	-0.023031881
183	0x3c278c9c	0.010226395
184	0x3db9974b	0.0906206
185	0x3ccb40d5	0.024811188
186	0xbe080b12	-0.13285473
187	0x3c172c80	0.009226918
188	0xbca6b7e2	-0.020351354
189	0x3dfde9e2	0.12398125
190	0x3c6121e6	0.013740992
191	0x3d5a7867	0.05333748
192	0x3db4da6e	0.08830725
193	0x3c9f0494	0.019411363
194	0xbc46f5dd	-0.012143579
195	0x3b7b5858	0.0038352218
196	0x3da38591	0.0798446
197	0x3c792c8e	0.015208377
198	0xbc94bb61	-0.018155755
199	0x3d7ab6e0	0.06120956
200	0xbe0b06ba	-0.13576785
201	0xbd916ecb	-0.0710121
202	0xbc9f8870	-0.019474238
203	0xbd9bf2b7	-0.076146536
204	0xbdf56a06	-0.11983113
205	0xbcb83842	-0.022487763
206	0xbce015c9	-0.027354138
207	0x3bd1a1b7	0.0063974517
208	0xbd241597	-0.040059652
209	0x3d0a7442	0.03380228
210	0x3d249b91	0.040187422
211	0xbe33d41a	-0.17561379
212	0xbc054b88	-0.008135684
213	0x3d312b2b	0.04325406
214	0x3d358571	0.044316713
215	0xbce8c618	-0.028414771
216	0x3d264299	0.040590856
217	0xbba1f145	-0.0049420916
218	0x3df567d4	0.11982694
219	0xba2af5e8	-0.0006521628
220	0xbd5118a8	-0.051048905
221	0xbe0d5049	-0.13800158
222	0xbdd1f1bf	-0.102511875
223	0xbd4b6739	-0.049658988
224	0x3c3a4b92	0.011370556
225	0x3cafdd00	0.021467686
226	0x3d40678f	0.04697376
227	0x3cf0f88f	0.029415397
228	0x3cc316f8	0.023814663
229	0xbd09dea6	-0.0336596
230	0x3bba5842	0.0056867907
231	0x3e01436f	0.1262338
232	0x3a31ead1	0.00067870045
233	0x3e04814e	0.12939951
234	0xbd81628c	-0.063176244
235	0xbd6d7583	-0.057973396
236	0x3df2fc7c	0.11864564
237	0xbd971b91	-0.07378305
238	0x3deb0f1d	0.11477492
239	0x3cc04148	0.023468629
240	0x3d07ff6a	0.033202566
241	0x3d832658	0.06403798
242	0xbe571513	-0.21004133
243	0xbdd1793d	-0.102282025
244	0x3d515cc7	0.05111387
245	0xbd9f4e3f	-0.07778596
246	0x3d4831f0	0.04887575
247	0xbd854467	-0.06507187
248	0xbe0ce532	-0.13759306
249	0x3dbc8834	0.09205666
250	0xbd822843	-0.063553356
251	0x3d08607f	0.03329515
252	0x3d4af5e6	0.049550913
253	0xbd76f8ab	-0.060295742
254	0xbd79d467	-0.06099358
255	0xbdcadc18	-0.09905261

cnn_blocks.0.convs.1.bias f4 [16]
0	0x3c6882ab	0.01419131
1	0xbd1ee9de	-0.038797252
2	0xbc80b1b0	-0.015709728
3	0x3a6993ba	0.00089102576
4	0xbd8c9b18	-0.06865519
5	0x3d194372	0.037417836
6	0xbb0cb66f	-0.0021471044
7	0x3d189573	0.0372519
8	0xbb863ba1	-0.004096464
9	0xbd2f74b6	-0.042835914
10	0x3d1adadb	0.037806373
11	0xbd6fdbd5	-0.058559258
12	0x3c80dfcd	0.015731717
13	0xbd5bae5d	-0.053633083
14	0x3dc596a8	0.09647876
15	0x3c14962a	0.009069005

cnn_blocks.0.norms.0.weight f4 [16]
0	0x3f7be59b	0.98397225
1	0x3f7e6a04	0.99380517
2	0x3f7c3226	0.9851402
3	0x3f64453b	0.8916814
4	0x3f8d2eac	1.1029868
5	0x3f705e3b	0.93893784
6	0x3f80e5f0	1.0070171
7	0x3f7a0801	0.97668463
8	0x3f857a42	1.0427935
9	0x3f858043	1.0429767
10	0x3f8b9edd	1.0907856
11	0x3f7c2bba	0.9850422
12	0x3f7b6c14	0.9821179
13	0x3f7a01fa	0.97659266
14	0x3f7f3c73	0.99701613
15	0x3f82722e	1.0191095

cnn_blocks.0.norms.0.bias f4 [16]
0	0xbd9126c9	-0.07087476
1	0xbdc0c6ee	-0.09412943
2	0xbd55a992	-0.052163668
3	0xbd6f7ca4	-0.058468476
4	0xbd807d6a	-0.06273921
5	0xbd329eb7	-0.043608394
6	0xbe04d710	-0.12972665
7	0xbda92631	-0.082592376
8	0xbd4d2a29	-0.050089035
9	0xbcc65dbf	-0.024214623
10	0xbc00bd44	-0.007857624
11	0xbc902300	-0.017594814
12	0xbe054029	-0.13012756
13	0xbc8b7f5d	-0.017028505
14	0x3cbef11d	0.023308331
15	0xbd4ff86e	-0.05077403

cnn_blocks.0.norms.0.running_mean f4 [16]
0	0x3c913b2e	0.017728414
1	0xbc4414ee	-0.011967881
2	0x3dd4f151	0.1039759
3	0xbd0ea979	-0.03482959
4	0x3d3c093c	0.045907244
5	0x3dbd416d	0.092409946
6	0xbe0079af	-0.12546419
7	0xbd364d50	-0.044507325
8	0xba491827	-0.00076711405
9	0xbd678c33	-0.05653019
10	0x3dd4951a	0.10380001
11	0xbdf21656	-0.118206665
12	0xbd7f5979	-0.062341187
13	0x3d81c54f	0.06336462
14	0x3c534c21	0.0128965685
15	0xbe0950e5	-0.13409765

cnn_blocks.0.norms.0.running_var f4 [16]
0	0x3d452880	0.048134327
1	0x3ce30a47	0.027714862
2	0x3d4a328e	0.04936462
3	0x3d36f7a6	0.04466977
4	0x3d0d1d6a	0.03445188
5	0x3d168466	0.03674736
6	0x3d34e66f	0.04416507
7	0x3d4b6fd1	0.049667183
8	0x3d24a691	0.040197913
9	0x3d7912b0	0.060808837
10	0x3d271608	0.040792495
11	0x3d2dc82f	0.042427238
12	0x3d17179f	0.03688776
13	0x3d0b4a86	0.034006618
14	0x3d62ee5c	0.0554031
15	0x3d2c2592	0.042028017

cnn_blocks.0.norms.1.weight f4 [16]
0	0x3f8dfc79	1.1092674
1	0x3f8664a9	1.0499469
2	0x3f9525ea	1.1652195
3	0x3f912fae	1.1342676
4	0x3f8a6309	1.0811473
5	0x3f87b1b2	1.0601103
6	0x3f882069	1.0634891
7	0x3f81af97	1.0131711
8	0x3f8b9377	1.0904378
9	0x3f91d6ec	1.1393714
10	0x3f8aa94b	1.0832914
11	0x3f888d73	1.0668167
12	0x3f90049b	1.1251405
13	0x3f879874	1.05934
14	0x3f99bf25	1.2011458
15	0x3f8463aa	1.0342915
