checkpoints/stage1_kd_d3/best_model.pt (torch, 327585 bytes, 150 tensors)

embedder.feature_projections.0.weight f4 [32, 1]
00000000: e753 85bf c878 b93e 08c7 a13f 2b19 373f
00000010: 3429 1cbf 9a07 8b3f 9294 65bf beb7 82bf
00000020: 4103 67bf d6af a13f d013 8cbe 4aab adbe
00000030: 1cfb 8e3f 1707 273c 62bf 2e3f dbf0 813e
00000040: 07b3 0d3f f136 9ebc 1c06 88be 5e19 813e
00000050: f761 4cbf 7716 34bf cb71 4cbf c4a1 3fbf
00000060: 0fbc 403f 6e6e c9bd ecbf 8dbf e36e 293e
00000070: 2128 863f b4f5 98bf 7f2e d6bd 7da6 8d3f
-1.041623 0.3622496 1.2638865 0.7152278 -0.6100037 1.0861695 -0.89679825 -1.0212324
-0.9023934 1.2631786 -0.27358866 -0.33919746 1.1170382 0.010194561 0.68260777 0.2537907
0.553513 -0.019313307 -0.2656716 0.25214666 -0.7983698 -0.7034678 -0.79861134 -0.7485621
0.75286955 -0.09835516 -1.1074195 0.16546206 1.0480996 -1.1949983 -0.10458087 1.1066433

embedder.feature_projections.0.bias f4 [32]
00000000: a135 603f d8c0 a23e a01a a33e 2fda 6bbf
00000010: a708 f0be b643 943e fd16 4bbf 2af7 1fbf
00000020: 70d4 743e e5cc 0abf f914 0c3e 5d7d 343f
00000030: 3482 5fbf e405 f23c c384 3fbf c84e 083f
00000040: 2347 64bf 62ce 79bf 460f 0e3f 147f 3d3e
00000050: 2114 3fbf 16de 83be 16fd 383f c1e0 f83d
00000060: 4efc d5be 3b4a f6bd 07fe 13bf 259e 24bf
00000070: d2af 35bf 7dbb d2be b089 a7be 0145 45bf
0.8758183 0.31787753 0.3185625 -0.92129797 -0.468816 0.2895791 -0.7933195 -0.6248652
0.23909163 -0.54218894 0.13679875 0.7050379 -0.8730805 0.029543824 -0.74811953 0.5324521
-0.89171046 -0.9758054 0.55492055 0.18505508 -0.7464009 -0.25755376 0.7226118 0.121522434
-0.41794056 -0.12025877 -0.5780949 -0.6430381 -0.70971406 -0.41158667 -0.32722235 -0.77058417

embedder.feature_projections.1.weight f4 [32, 1]
00000000: c8f1 4fbf 25bc f53e 3779 373f 1323 d93e
00000010: 07f1 a8bd 692e 3b3f e0ee 803f e731 8dbc
00000020: 84b8 f03e 6a81 503f e23b 353f 78be 823d
00000030: 7a7b 403f b642 81bc a94d 73bf 0bac 523f
00000040: 8ee2 4bbf 6e89 0abf e835 6bbf 21e9 77bf
00000050: 3a63 643f d7c1 dbbd 2d54 20be 4caf 9ebe
00000060: 9abf 4abf 8feb 84be 6b47 223f 4a9b 99be
00000070: 2b5b 903e 31c1 08bf d019 2fbe 7443 533e
-0.81228304 0.47995105 0.71669334 0.42409572 -0.08249097 0.7311769 1.0072899 -0.01723571
0.47015774 0.8144747 0.707945 0.06383985 0.7518841 -0.01577888 -0.95040375 0.82293767
-0.7964257 -0.5411595 -0.9187913 -0.968401 0.8921391 -0.107303314 -0.1565711 -0.30993116
-0.7919861 -0.25960967 0.63390225 -0.3000129 0.28194556 -0.53419787 -0.1709969 0.206312

embedder.feature_projections.1.bias f4 [32]
00000000: 76ec e4be f724 1b3f 2fae 233d fc77 5bbc
00000010: 85ea f03e 579a 2cbd cdc9 0e3f a8b7 4fbf
00000020: bc06 4d3f 4526 47bf 739a d73e 0aaf b6bd
00000030: cedf 09bf 5274 f3be 04d5 d63e 829e 00bf
00000040: 36a8 f93e 68b4 1abf f649 533f f718 d23e
00000050: 551d f6bd eabd cdbe 9c7f b53e 7502 94be
00000060: b088 b63e 7658 493f 27b8 673f a600 88bd
00000070: 7b6f 9d3e b19c d2be 1f29 73bf b198 e2be
-0.44711655 0.6060328 0.039961036 -0.013395306 0.47053924 -0.042139377 0.55776674 -0.8113961
0.800884 -0.7779277 0.42110023 -0.08920105 -0.53857124 -0.47549683 0.41959393 -0.50241864
0.48761147 -0.6043153 0.8253473 0.41034672 -0.120173134 -0.40183955 0.3544892 -0.28908125
0.3565116 0.78650606 0.9051537 -0.06640749 0.30749115 -0.4113517 -0.9498462 -0.4425712

embedder.stabilizer_embedding.weight f4 [8, 32]
00000000: 68e2 4b3f 2ae0 80bf 4112 99be 0b84 56bf
00000010: 3267 e73c b5d0 423f 3b23 a4bf 1110 f23f
00000020: 0e68 cb3f 29bc e13d 9a47 643f cd4a bd3f
00000030: 6e9c cfbf a420 4abf c3ff d93d b4e1 243f
00000040: 709e 9e3e ab86 bdbf aea5 0e40 4784 3140
00000050: 7b26 723e 4a97 523f 09b3 bdbf 4f1b db3f
00000060: cbf8 973e 5252 1ebf 24e9 62bf d062 81bf
00000070: cd38 023c 29b6 17bf 377c f93e e72e acbe
00000080: 6887 16be 7edd 35c0 2612 a1bf 1b65 4f3f
00000090: 1ef1 27c0 dbf4 6b3f bdcf 683f 1c7c aabe
000000a0: 65df 553f ab33 8c3f ee08 713f 3b57 2ebc
000000b0: bd7d f53c 9ac6 c33f 8167 b13f b4b6 02be
000000c0: d2b6 0040 2697 5ebf 2926 41bf 3aa5 ddbd
000000d0: bb0b 2cbf 0685 90bd 9143 143f d371 34be
000000e0: cddf 1a40 1cbd 3fbf 356e 2340 95f9 c93f
000000f0: 15f4 093f 3944 ab3e 7add 7cbf d5e1 b6bf
00000100: c51d c63f e975 27c0 9e39 ae3f 48ef 723d
00000110: e110 a8be 6367 e53d 6f67 07bf d2dc 33be
00000120: a3f6 983f 6c87 31bf 3913 3bbf 2def 163f
00000130: faae 6abf 684d c13e 1322 e4bd 81fb 8dbf
00000140: 997c 323f 5bdf a53e 542b 91bd 71f9 7cc0
00000150: 0406 e0be ef7f 0cbe 5262 813e 9b99 a03f
00000160: 0af9 5f3e a037 8ebf ee37 02c0 a579 70bf
00000170: 6647 96be 438d 28bf efd3 9fbe b534 223e
00000180: c969 ac3e d6a3 d73f 2e38 19bf 70b3 40be
00000190: 81f9 0f3e 97dd 07bf 353f 10bf f400 513f
000001a0: 429a 08c0 0d9d a23f c4ad 85bf cde0 2fbd
000001b0: ae15 073f d3fa ce3e b303 86be 68cb aa3f
000001c0: 8c08 df3e 9584 6fbf 12bf b8be f450 7fbe
000001d0: 99eb 84bf dd8d 21bf a677 54bf dd91 553e
000001e0: ac44 743e db90 8a3e 1f59 d73e 19cb 8d3f
000001f0: cc95 ad3f d939 5a3f 73b2 25be 73d7 58bf
00000200: 1731 19c0 2e83 96be 92a4 bcbf 9e49 803f
00000210: 0fd3 6bbe cc1d e0be 7597 c93e 4aa9 29bf
00000220: ce2d 10be 6b64 1bbe 42f2 e23f b900 d43d
00000230: eb84 36bf 8767 d2bd e2bf 473f 01c4 3e3f
00000240: 7017 b73f 4f98 0e3d 75ba 9cbe f773 663c
00000250: 786e 0dbe c95c d7bf fbd1 afbe 24aa 02bf
00000260: e776 fa3f 77ce 1140 a9fc b8bf 5b25 863f
00000270: 9760 b5be 339a 96bf be3d 3cbf b995 3a3f
00000280: 71f0 613f 6e11 733f e877 293f e645 afbe
00000290: 63b4 e1be ac71 e7bf 7786 95bf f86f 533f
000002a0: ea08 e23e 7570 fa3e b62d 86bf ce8f a23c
000002b0: a71b 183f b04d 7abf 2322 20be a431 f6be
000002c0: efed 3d3e 566b 89be c8b5 b6be de52 923e
000002d0: 81af d53e b487 30c0 ce98 20bf 2cb4 80bf
000002e0: 0ac9 e7bd 4c63 893e ef9c ec3c 9da6 94bf
000002f0: 41f9 0bbf cbc8 63bf f5d0 1cc0 8bba 32bd
00000300: deff b2be 14d7 063f 57b7 9e3f 94d2 993f
00000310: c4a6 a13f 8310 b43d 5578 0e3f b0b4 16bf
00000320: 886e 9b3f ca9a 03c0 9dd9 8fbb 14ff b5bf
00000330: df63 553f 7b3e e53e 2d38 28bf 677f a83f
00000340: 8aa7 ef3d f173 43bf 48d0 873f cacc e33f
00000350: b4c1 bbbd 1f88 a33e 4672 a5bf f559 4ebf
00000360: 34c1 993e 6287 27bf cec5 2940 6bbf 16be
00000370: 386c 0440 956b febe 39cd 4dbe 7d65 bf3f
00000380: 845d c6bf 9ea8 1e3e ec9e 2ebf 75a7 403e
00000390: 7a74 3dbf f6ff 2e3f 8ffa 983e 0058 0140
000003a0: d9bf 173f 6a9f 643f fb6a 72bf bfd0 723f
000003b0: c1e2 813f 1c94 ba3f b48a 0540 ad93 3cbd
000003c0: 1775 5ebf 17b1 bb3e e4b5 88bf 5b07 81bf
000003d0: 3991 d2bd f669 40bf 797c c23d 53ba 543e
000003e0: 6895 6dbf a166 563e c3ba 863f f288 583d
000003f0: 90fa 0a40 c470 a83f f8fc 5dbe 7dde cfbf
0.79642344 -1.006841 -0.2989674 -0.8379523 0.02824745 0.7609971 -1.2823251 1.8911153
1.589113 0.11022217 0.89171755 1.4788452 -1.6219614 -0.78956056 0.10644486 0.64406896
0.30980253 -1.4806722 2.2288623 2.7736986 0.23647492 0.822621 -1.4820262 1.7117709
0.29682 -0.6184436 -0.88636994 -1.010828 0.007948113 -0.5926233 0.4872758 -0.33629534
-0.14700091 -2.8416438 -1.2583663 0.8101365 -2.6240916 0.92170495 0.90941983 -0.33297813
0.83544 1.0953268 0.9415425 -0.010640915 0.029967183 1.5294983 1.3859712 -0.12765008
2.0111585 -0.86949384 -0.7544885 -0.1082253 -0.672054 -0.07056622 0.579156 -0.17621545
2.4199097 -0.74897933 2.5536015 1.5779291 0.53888065 0.33450487 -0.98775446 -1.4287668
1.5477835 -2.6165717 1.3611333 0.059310228 -0.32825378 0.1120136 -0.528922 -0.17564705
1.1950268 -0.6934726 -0.73076206 0.58958703 -0.91673243 0.3775437 -0.11139312 -1.1092378
0.6972137 0.3239697 -0.07088342 -3.9527247 -0.4375459 -0.13720678 0.25270325 1.2546877
0.21872345 -1.1110725 -2.0346637 -0.93935615 -0.29351348 -0.6584055 -0.3121638 0.15840419
0.33674458 1.6846874 -0.5985135 -0.1881845 0.14060022 -0.53072494 -0.56346446 0.8164208
-2.1344151 1.2704178 -1.0443654 -0.042938996 0.52767456 0.4042574 -0.26174697 1.3343325
0.43561208 -0.9356168 -0.36083275 -0.24933225 -1.0384399 -0.6310709 -0.8299507 0.20856424
0.23854321 0.2706364 0.42060181 1.1077605 1.3561339 0.8524452 -0.16181354 -0.8470375
-2.3936212 -0.29396957 -1.4737723 1.0022466 -0.23029731 -0.43772733 0.39373365 -0.6627394
-0.14079973 -0.15175025 1.7730181 0.103517 -0.71296567 -0.102736525 0.78027165 0.7451783
1.4304028 0.03481322 -0.30611005 0.014065734 -0.13811672 -1.6825191 -0.3433989 -0.51040864
1.9567536 2.2782266 -1.4452106 1.048015 -0.35425255 -1.1765808 -0.7353171 0.7288471
0.8825751 0.9494847 0.6619859 -0.34233016 -0.44082937 -1.8081565 -1.168166 0.82592726
0.44147426 0.48913923 -1.04827 0.019843962 0.59417194 -0.9777479 -0.15638022 -0.48084748
0.18547796 -0.26839703 -0.35685563 0.28578848 0.4173546 -2.7582827 -0.6273316 -1.0054984
-0.11317642 0.2683357 0.028883426 -1.1613346 -0.54677206 -0.8897826 -2.4502537 -0.043634932
-0.34960836 0.52671933 1.2399701 1.2017388 1.2629018 0.08792212 0.5565236 -0.5886946
1.2143106 -2.0563226 -0.004389955 -1.4218469 0.83355516 0.4477423 -0.6571072 1.316388
0.117018774 -0.7634879 1.0610437 1.7796872 -0.09167805 0.3193979 -1.2925498 -0.80606014
0.30030215 -0.6544095 2.652698 -0.14721458 2.0691051 -0.49691454 -0.20097817 1.4952847
-1.5497289 0.1549401 -0.68211246 0.1881388 -0.74005854 0.68359315 0.2987866 2.020996
0.5927711 0.89305747 -0.9469449 0.9484977 1.0147325 1.4576449 2.0865908 -0.046039272
-0.86897415 0.36658546 -1.0680509 -1.008037 -0.10281605 -0.75161684 0.094963975 0.20774202
-0.928061 0.20937587 1.0525745 0.052864976 2.1715431 1.3159413 -0.21678531 -1.6239773

embedder.res_block.0.weight f4 [32]
00000000: 1cd5 863f ab72 7d3f 000a 8f3f 8fa9 8e3f
00000010: 26f8 8c3f a2d1 993f 26eb 923f 4ea0 883f
00000020: 2f61 793f 18cb 923f 564e 803f f19c 843f
00000030: 3873 823f 76fa 753f c2a9 8c3f fbc1 833f
00000040: 65f8 773f ebf3 763f 6835 7e3f 552b 803f
00000050: 58e5 893f e278 803f 7ceb 8c3f 7b9f 823f
00000060: 87b1 7a3f db13 863f 9822 8d3f 2362 703f
00000070: f17c 883f 1c0b 883f fa0c 7e3f d896 853f
1.0533786 0.99003094 1.1174927 1.1145495 1.1013229 1.20171 1.1478012 1.0673921
0.97413915 1.1468229 1.0023906 1.0360395 1.0191412 0.960853 1.0989306 1.0293573
0.96863395 0.9646594 0.9930024 1.0013224 1.0773115 1.003689 1.1009364 1.020492
0.97927135 1.047481 1.1026182 0.93899745 1.0663129 1.062839 0.9923855 1.0436659

embedder.res_block.0.bias f4 [32]
00000000: 1696 9b3c 7e6d b3bc ac7d c0bb eefc 873c
00000010: 4368 bfbc 8a1f 373c 4878 f93b 56d3 c33c
00000020: 53ab 30bd 89ee b93c 0ed0 f6bb 2211 a33c
00000030: 589a 8e3c 0d54 a9bb 43e4 64bc b577 8bbc
00000040: 6eb2 8cbc 8337 413d 58f5 30bd a054 71bc
00000050: 7b64 0ebc 71de fe3c 34f8 3fbc b428 25bc
00000060: 91df 15bd 6eff 33bc 350c 153c c65d dd3c
00000070: 3f8b e2bc 96b2 073c d8b8 233b 8d8d 803c
0.018992465 -0.021902796 -0.0058743563 0.016600098 -0.023365146 0.011176953 0.0076132156 0.023904484
-0.043132138 0.02269675 -0.0075321263 0.01990563 0.017407581 -0.0051674903 -0.013970437 -0.017024854
-0.017174926 0.04717208 -0.043202728 -0.014729649 -0.008690949 0.031111928 -0.011716891 -0.010080505
-0.036590163 -0.010986192 0.009097149 0.027022254 -0.027654288 0.008282324 0.0024982002 0.015692497

embedder.res_block.1.weight f4 [32, 32]
00000000: f88b 26be 3c8d 233e 4fdd e3bd 3e46 dfbc
00000010: aa25 ea3b 2bbd 293d e074 ba3d 0665 19be
00000020: 5dc9 fcbd c04a fbbd ecf3 c53d 9043 a43b
00000030: 558d 883d 062e b63d 54db 90bc fd96 3e3d
00000040: 8a05 9b3d 12aa adbd ce4d f2bd c275 d6bc
00000050: 5749 f73d 13fa 3e3d bc29 323e e09d 58be
00000060: 4560 493e 8c35 5c3e c9f8 4ebe 03ea 483e
00000070: 9637 35bd ae12 cebd 712d 08bd 95c2 363e
00000080: a5f8 b5bd 9d0f e53b aa17 003d 7bae 213e
00000090: 6b30 ccbd 10af a4bd cb76 8d3d 423b b5bd
000000a0: 9c47 59bb e7dc 05bd 0f9f 97bd 934e f4bd
000000b0: 9c5f b53d bcb4 84bd 05c4 ca3d 81f9 34be
000000c0: dbb2 02be 0ae9 8dbd 1d74 b93d a275 72bc
000000d0: 587a 3f3e 7e1b 913d 6621 ce3d d06a 1cbe
000000e0: 9812 a23d 8a7d 45be 85b3 9cbd df58 9abd
000000f0: 891e 023d 0661 3b3e fbbf 3cbd 4eff c03d
00000100: 43b1 17be 9750 633c 9b17 b8bd 6878 4e3e
00000110: c2b5 f1bd 8194 cc3d c6ec 37be 01a0 9bbd
00000120: e4a2 093e 8243 0a3e 3ba6 933d 1fb3 a3bd
00000130: 8096 91bd 0d83 343e 85bf ac3d 849e 083e
00000140: 9cc1 8fbd 3399 383d 97d3 d23d 54aa 2e3e
00000150: 6302 d53d 4379 99bc 7259 afbd 97f6 3dbe
00000160: ba76 313e 275a 6abe a49c c43b e378 10be
00000170: ce94 ae3d 0efd a43d 3125 3f3e 9613 843d
00000180: 8fef 033e bc0e 933c 5cc4 1b3d f682 073e
00000190: b54f 773d 1a9a 8abb 8c32 593e 25f2 c03d
000001a0: 9847 0b3d 929d 943d f689 c7bd 7f0b 2f3e
000001b0: 23c4 d0bc c2a7 dcbd 4132 003d b46f 91bd
000001c0: e14b a3bd 2a24 a63b b7bc d63d 8fd6 6cbd
000001d0: c8f9 8a3e 50b7 ee3b da87 0b3d 6cb3 ca3d
000001e0: ca16 e6bd 66c8 55bd 990d 393e 9b40 10bd
000001f0: a52e 2cbd 4efd 0fbe c099 373d 5b43 4dbd
00000200: ddb6 5a3d 7703 1cbe 6e23 a2bd e99d 0fbe
00000210: 267f a5bd 9bfd 95bd 0d57 f3bc 9040 e93a
00000220: beca 1e3e 55b8 113e 577a 11be 34ae ffbd
00000230: 2e69 37bd 3c85 97bc 18fc 73bd 8778 2cbd
00000240: a4a3 2bbe cea7 163e 25f6 e1bd 33f6 14be
00000250: 4c50 f13d 8e62 1abe 7467 2dbe 7f99 3d3d
00000260: 886b 0b3d 0e22 943d 5654 f0bd 6e98 e13d
00000270: 53cb 24bb 5b65 263c 97e5 a53c 5a7f 08be
00000280: ff75 bcbd ad62 0bbe fe6d ed3d 3170 7f3e
00000290: 546a 853a b8f4 80bc 86b9 d23c 0322 22be
000002a0: 3d12 95bb afca 113e 744d dd3d 41fd 8abe
000002b0: 3c01 dd3d b6fe a93c 6c2b fc3d 7579 a73d
000002c0: 312a cfbd 18ad 89bd cfef 643d 1196 84bd
000002d0: 5afd 283d 9928 623c da64 46bd 9a24 2fbe
000002e0: ec3e 7a3d 6117 cd3c 9258 853c 1332 40bd
000002f0: 8393 453d ac76 98bd 2a5b 123e 4b29 a7bd
00000300: 0ed5 66bd 9d9f 973d 1f02 a23d cda2 c0bd
00000310: b40d c9bd 3550 853c 44c3 d1bd e1fe d2bd
00000320: 06e6 48be d5a7 1e3e 5225 b83d 8cfe ce3c
00000330: a5c0 aebd 495d dabc 379f 013e 7e0a 133e
00000340: 9164 ab3d 4001 01be cf45 0ebe 5ed2 e6bc
00000350: 6193 a1bd f383 16bd 2f73 93bd 27f3 863d
00000360: 7a58 bf3d 42fb 1e3e 82da 12be 3266 ecbd
00000370: 2dd2 e43c f011 bb3d 6543 b73d ec4f fdbd
00000380: 5091 48be 93ed c23d fd23 c0bd 49cf 36bd
00000390: 3115 43bd 7b82 ed3d 3efa 3dbe dbef bb3b
000003a0: 1349 573d 7e9f 05be 5ec3 3bbb 539f a33d
000003b0: 6ccc 88bd 29a2 233e dfbc ab3c 00ad c036
000003c0: 3333 1bbd ffbd 2b3d 3777 3b3e 60ff 103d
000003d0: b7d9 e63d be4a 293d cb14 ab3c 0cb2 0b3e
000003e0: bf7c 9c3d 9c0b 45be c55b 183e d8fb 0bbe
000003f0: 9cc7 62bd 65d8 383d 777d 23bb 1cea ebbd
-0.16264331 0.15971845 -0.11126196 -0.027255174 0.007145603 0.04144017 0.091043234 -0.14979944
-0.123430945 -0.12270117 0.09665665 0.005012937 0.06667582 0.08895497 -0.017682709 0.046530712
0.07569416 -0.08479704 -0.11831246 -0.026179198 0.12074535 0.046625208 0.17398733 -0.21153975
0.1966563 0.21504802 -0.20212092 0.19620518 -0.044242464 -0.100621566 -0.03324646 0.17847665
-0.08885316 0.0069903866 0.031272568 0.15789215 -0.099701725 -0.08041203 0.069074236 -0.08849193
-0.0033154255 -0.032681372 -0.07403385 -0.11929049 0.08856127 -0.06479785 0.09900669 -0.17673303
-0.1276354 -0.06929214 0.0905535 -0.014798554 0.18699014 0.07085322 0.10064964 -0.1527512
0.07913703 -0.1928617 -0.07651428 -0.07536482 0.0317674 0.1829873 -0.046081524 0.094236955
-0.14813714 0.013874195 -0.089888774 0.20163119 -0.11802246 0.09989262 -0.17961416 -0.07598878
0.13441044 0.13502315 0.0720944 -0.07993149 -0.07108784 0.17628117 0.08434967 0.13341719
-0.0701935 0.045067977 0.10294264 0.17057163 0.10400846 -0.01873458 -0.08561982 -0.18551098
0.17330447 -0.22885953 0.0060001183 -0.14108615 0.08524476 0.08056079 0.18666531 0.06449048
0.12884353 0.017951362 0.03802906 0.13233551 0.06037875 -0.004229796 0.21210688 0.094211854
0.034003824 0.07256617 -0.09743111 0.17094229 -0.02548415 -0.10774185 0.031297926 -0.07101384
-0.07973457 0.005070229 0.10485213 -0.057821807 0.27143693 0.007285036 0.034065105 0.09897503
-0.112348154 -0.052193068 0.18071593 -0.035217863 -0.04203667 -0.14061472 0.04482436 -0.050113063
0.05339705 -0.15235697 -0.07916914 -0.14025082 -0.08080892 -0.07323762 -0.029704595 0.001779573
0.15507028 0.14230473 -0.14206825 -0.124843985 -0.04477804 -0.018496148 -0.059566587 -0.04210713
-0.16761643 0.1471245 -0.110332765 -0.14547043 0.117828935 -0.15076658 -0.16933995 0.046288963
0.034038097 0.07233058 -0.11734836 0.11015402 -0.0025145605 0.010156001 0.020251079 -0.13329831
-0.092021935 -0.1361186 0.11593245 0.24945141 0.0010178783 -0.015741691 0.02572323 -0.15833287
-0.0045492933 0.14237474 0.10805789 -0.27146342 0.10791251 0.020751338 0.123129696 0.08177463
-0.10115469 -0.06722468 0.05589276 -0.064739354 0.04125724 0.013803625 -0.048436023 -0.17103806
0.061095163 0.025035562 0.016277585 -0.046922754 0.04823638 -0.0744451 0.14292589 -0.08162173
-0.05635553 0.07403491 0.07910561 -0.09406052 -0.09817067 0.016273597 -0.10242322 -0.103025205
-0.19618997 0.1549371 0.08991493 0.025267862 -0.08532838 -0.02665581 0.12658392 0.14359471
0.08368791 -0.12598133 -0.13893817 -0.028176483 -0.078894384 -0.03674693 -0.07199704 0.065893464
0.093430474 0.15525535 -0.14341167 -0.1154293 0.02793225 0.09134281 0.08948401 -0.123687595
-0.19586682 0.0951797 -0.09381864 -0.044631276 -0.04762763 0.11597153 -0.18552491 0.00573538
0.052559923 -0.13049123 -0.0028650383 0.07989373 -0.066796154 0.15979828 0.020964084 5.7421857e-06
-0.037890624 0.04192924 0.18307196 0.035399795 0.112719946 0.041331045 0.020883938 0.13642138
0.07640981 -0.1924271 0.14878757 -0.1367029 -0.055366144 0.045128245 -0.002494661 -0.11519262

embedder.res_block.1.bias f4 [32]
00000000: 08ff 1dbe 35dc a5bc 67e2 043e eb32 bb3d
00000010: 133a 5b3d 4197 783d 2e02 5f3d 039e efbd
00000020: 9477 2fbd 3afd 45bd f1df bcbd f6fc afbc
00000030: 84fe 0a3e 3115 5fbc 20c2 4c3e aeca 1ebe
00000040: 36fe ebbd bb5c febc f0d8 e0b9 ae7d 123e
00000050: 18f3 9e3c 353b 1b3e 90e7 673d 3cf5 99bb
00000060: 785e cc3d 49f7 1cbe 0e82 6ebc 2de6 e8bd
00000070: b5a8 253d 1825 b63d d7e8 0cbe 7c42 053e
-0.15429318 -0.020246604 0.1297699 0.09140571 0.05352218 0.060691122 0.054445438 -0.1170006
-0.042838648 -0.0483372 -0.09222401 -0.021482926 0.13573653 -0.013615892 0.19995928 -0.15507004
-0.11523096 -0.031050077 -0.0004288624 0.14305755 0.019403026 0.15159304 0.05661732 -0.0046984237
0.09978956 -0.15328707 -0.014557375 -0.113720275 0.040444095 0.08893794 -0.13760696 0.13013643

embedder.res_block.3.weight f4 [32, 32]
00000000: a2c7 d6bd 5823 c83d fbe0 7ebd 853e 9dbd
00000010: 41a0 5fbd cfe0 d1bd 091d b1bd 0335 153e
00000020: 833b 69bd 0f9f cc3c f70e 493e 9838 90be
00000030: 74f6 4fbd 7a43 753c 0f59 ff3d efa5 92bd
00000040: 1a89 b0bd b13f 4ebd 41fa aa3d 9b37 1a3e
00000050: 91a2 c7bd 7ff4 823d 00c7 a4be f194 0f3e
00000060: 630d a23d 4abb 5ebd defa 76be 589a 59be
00000070: a2f1 a6bd 6131 ca3d 511d 36be 1b15 b83c
00000080: c301 f43c 43b0 403b 1f3c 4abd 4c95 efbd
00000090: cab4 bcbd fa43 36bc 2498 bfbd 556f 0b3d
000000a0: 3343 e1bd 8ee7 26be f6fe a1bd 718d a73e
000000b0: 8aa9 3bbe 8f9c 1cbc 7e5f 983c cf79 94bc
000000c0: a871 373d 90c2 443e ea67 903c 49b8 8b3d
000000d0: cbd8 ffbd 79f4 56bd 3e8e f13b fade 02bc
000000e0: 2acb f73c b65b 35be bf0a 283d 916e 773d
000000f0: 7f7e 223e 746a 30bd 9fca 123e 5f92 7f3c
00000100: 65f9 a6be 019a b53d 449c 933d a7d3 4fbd
00000110: 032f 00be 20f6 343e 48f0 a83d 9005 da3d
00000120: a919 f9bd 4929 bf3c 6827 2fbe ad94 dc3e
00000130: 9ae5 423e 180b b6bd bb73 19be 4af9 d6bd
00000140: 1437 d63d 1520 4ebd 15c0 32be e8f1 b53d
00000150: df54 153d 6d88 5fb9 a38a 6c3e 435c 0cbe
00000160: f63b 3a3d 3350 4f3e 064c 0e3e 5016 11be
00000170: 93ea 9ebd af04 08bb 9eff b1bd cb9d a43d
00000180: 4022 cb3d 2fcb 15be 8564 4a3d 8c93 bf3d
00000190: cfb9 98bd e4bc 563d 2552 b4bd e96e bd3d
000001a0: 0f12 abbd 6279 e53d 33e5 4b3d 3312 3bbc
000001b0: 67c1 333e 13d1 a1bc 77ee 44be 697f 9e3d
000001c0: c80f 22be b980 56bd 4d8b ef3d fb95 1d3e
000001d0: 6a71 093e 3f1a 533e 8f53 1e3e c3f0 fabc
000001e0: 4d6d e0bd c555 17bd f648 053e 8a3b eb3d
000001f0: 1677 1c3e 65db 613d a2b7 5bbd aa15 a2bd
00000200: 2f15 93bd 548b 30be 8add 3fbd 625a 6bbd
00000210: 36f3 063e 0eda 9e3d a140 0fbe 7f85 c1bc
00000220: 0fe5 03be 0055 15be c06f 923d 0ffb 1abe
00000230: c437 9ebd bfb4 203e 98f5 073e cab9 9d3d
00000240: 8b81 843e 2436 143e 05aa e4bc 94fe 09be
00000250: d299 c0bd 9542 88bc b12b d0be d2a8 47bd
00000260: 470a 543d 2078 483d 0cd9 42be 8299 3bbe
00000270: 52ba 99bd 9975 33be 03af 323c 822a 043e
00000280: 2176 c73d 7ca2 38bc 18a4 8c3d 217d 5ebe
00000290: ffb9 163e 78b1 99bc 576f 123d db81 a8bb
000002a0: c83e d83c 81c2 023e a5d7 dbbd 9a4d 223d
000002b0: 6a02 25be ca9c 19bc e159 2a3e 926d fc3d
000002c0: b67d 5ebd 526b 03be b265 04be 220c 73bb
000002d0: 0699 77bc 9995 17be 65ed 813d 39b5 f73d
000002e0: 2a5f e73b fe66 e13b 8d30 673d 17cb 9c3d
000002f0: d57a bebd 4cbd 0abe fcad cdbc 5b55 ca3a
00000300: 60a9 033e 3d0d b0bd 547f 42bd b1e5 4a3e
00000310: 719b fb3d 0c06 103e 20c9 2e3e a016 cfbd
00000320: 4a09 dd3d d9e1 053e e243 1ebd 2ed9 15be
00000330: 765c 5f3e 1bca 18be 62f9 373d 7acc ae3d
00000340: d349 7c3e 00a3 acbc 6bef 5abd 00e2 0b3e
00000350: 6061 c23d aeca 0bbd 42c7 61be 491b 54bc
00000360: fda8 26be c7fa 60bd 46ac 2fbd a42d edbd
00000370: e3a3 77bd 2e19 b43c 242a 07be c801 6f3e
00000380: 4d6a 553e 06ec bc3d e1ac bb3d 5796 6cbc
00000390: b995 50bd 18f0 ab3c 5b51 e0bd 7030 573e
000003a0: 0197 253e d0ed 5cbe 6584 6a3e 4feb 1cbe
000003b0: a3e0 12be bd2c 213e 14fe e03b 2396 c53c
000003c0: 2de7 2e3e ed7d 383d cbef 19bd 6e41 f13d
000003d0: 6f29 1cbe 738b 563e 0879 88be 61cc 203e
000003e0: c93a f63d d388 e8bd 0d91 05be a9c3 1abe
000003f0: 12d2 77bc d371 d73d b9e5 653d 6389 08bd
-0.10487296 0.09772366 -0.062226277 -0.0767794 -0.05459619 -0.10247957 -0.08648116 0.14571004
-0.05694152 0.024978189 0.19634615 -0.28168178 -0.050772145 0.014969701 0.124681585 -0.071605556
-0.086199 -0.05035371 0.083485134 0.15060274 -0.09747804 0.0639429 -0.32183075 0.1402166
0.079127096 -0.05437783 -0.24119136 -0.21250284 -0.081515566 0.098726995 -0.17784621 0.022471001
0.029785996 0.0029401935 -0.049373742 -0.11698398 -0.0921417 -0.011124605 -0.093551904 0.03404172
-0.10999145 -0.16299269 -0.07909958 0.327251 -0.18326393 -0.009558811 0.018600222 -0.01812449
0.044786125 0.19214845 0.017627675 0.06822259 -0.12492522 -0.05247924 0.007371693 -0.007987732
0.030248243 -0.17710766 0.041025873 0.06040818 0.15868567 -0.04307027 0.14335106 0.015598862
-0.32612148 0.088672645 0.0720754 -0.050738957 -0.12517934 0.17672014 0.08248955 0.10645592
-0.121630974 0.023335116 -0.17104876 0.4308218 0.19032899 -0.08888835 -0.14985554 -0.10496767
0.10459724 -0.050323565 -0.17456086 0.088840306 0.036457893 -0.0002131776 0.2309976 -0.1370707
0.04546734 0.20245437 0.13896188 -0.14168668 -0.07759585 -0.0020754745 -0.08691333 0.08037909
0.09918642 -0.1462829 0.04941227 0.09354314 -0.07457315 0.052426234 -0.0880473 0.0924967
-0.08353054 0.112047926 0.04977913 -0.011417913 0.17554246 -0.019753015 -0.19231592 0.07739145
-0.15826333 -0.052368853 0.116964914 0.15389244 0.1342217 0.20615481 0.15461563 -0.030632382
-0.109583475 -0.03694703 0.13016114 0.114859655 0.15279803 0.05514087 -0.053641923 -0.07914288
-0.07181775 -0.1724065 -0.046842135 -0.057459243 0.13178715 0.077564344 -0.13989498 -0.023623226
-0.12880348 -0.14583206 0.07150221 -0.15134834 -0.0772548 0.15693949 0.1327728 0.07701452
0.25880083 0.14473778 -0.027913103 -0.1347602 -0.09404339 -0.016633311 -0.40658334 -0.048744984
0.051767614 0.048942685 -0.1902811 -0.18320277 -0.07506241 -0.17525329 0.010905984 0.1290684
0.09739328 -0.011269208 0.06867236 -0.2172742 0.1471939 -0.018761382 0.035750713 -0.005142433
0.026397124 0.1276951 -0.1073449 0.039624788 -0.16114202 -0.00937576 0.16635849 0.123255864
-0.054319106 -0.12833908 -0.12929419 -0.003708609 -0.015112167 -0.1480316 0.063441075 0.12095112
0.007060905 0.0068787327 0.056442786 0.07655924 -0.09300772 -0.13548774 -0.025107376 0.0015436815
0.1285758 -0.08596275 -0.04748471 0.19814183 0.122855075 0.14064807 0.1706891 -0.10111737
0.107927874 0.13074435 -0.038638957 -0.14633629 0.21812615 -0.14920847 0.044915564 0.085350946
0.24637537 -0.021073818 -0.053450983 0.13660431 0.09491229 -0.034128837 -0.22048667 -0.012945958
-0.16275401 -0.05492666 -0.042888902 -0.11580971 -0.06045903 0.021984663 -0.13199669 0.23340523
0.20841332 0.092247054 0.091638334 -0.014440141 -0.050924037 0.020988509 -0.10953017 0.21014571
0.16170885 -0.21575093 0.22902067 -0.15324138 -0.14343505 0.15739723 0.006866226 0.024119442
0.17080374 0.045041967 -0.0375822 0.11780058 -0.1525018 0.20951633 -0.2665484 0.15702964
0.12022931 -0.11354222 -0.13043614 -0.15113701 -0.015125768 0.10519757 0.056127284 -0.033334147

embedder.res_block.3.bias f4 [32]
00000000: a1ee 1abe aa7c 0fbe e87a ebbd dc0c 0ebe
00000010: 57bf aabd e746 103e 55f6 72bd b5b9 4d3d
00000020: 1268 9b3d 4502 6b3d 2ff7 193c 9b38 333e
00000030: 4e6e 183e e23d c9bd 1797 ff3c f773 273d
00000040: 715f c23d 476d 78bd fa6e c8bc cf56 673c
00000050: eb3b 903d 84a8 dfbd b680 21be 91c8 01be
00000060: 207f d1bd 94b8 0bbe 44f4 6c3d cb79 c03d
00000070: 1979 be3d 0b34 a13c 0043 053e df38 1abd
-0.15130092 -0.140124 -0.11498052 -0.13872093 -0.083372764 0.14089547 -0.05931695 0.050225932
0.07588209 0.05737521 0.009397312 0.17502062 0.14885828 -0.09826256 0.031199975 0.040882077
0.0949086 -0.06065109 -0.02446698 0.014119818 0.070426784 -0.10920814 -0.15771756 -0.12674166
-0.10229325 -0.1364463 0.057850137 0.0939823 0.09300441 0.019678136 0.1301384 -0.037651893

cnn_blocks.0.proj_in.weight f4 [16, 32]
00000000: 2b2a d03b 092d b93d 764c 38be 0587 203e
00000010: 65a7 ef3d 762a fdbd 32d2 e8bd ea00 f63d
00000020: 872e ba3c 3b24 2bbd c5f6 c7bd 3706 2fbd
00000030: 85d7 4e3d d20d 483d 026f f4bd a127 28bd
00000040: 949a d43d d55c cd3d d11b 0e3e 44d6 02bd
00000050: 56b7 0ebd 1905 0a3c 16a6 92bd 82d8 653d
00000060: 1047 bcbd 0174 7a3d 9367 cb3d 9787 b7bd
00000070: 4c2d 993d 93d4 b43d acca edbd d8fb 2c3e
00000080: e7fe ad3c ae67 383d d037 bb3d cc41 6d3d
00000090: bb38 a3bd aee7 15be b3b6 d4bd dd6a 4a3d
000000a0: a3ca 31be b8ee 6d3d 679f 3fbe f21f 013e
000000b0: f0eb 5c3d 48cf 44be c1cd 43be 7694 69be
000000c0: 0a2b 45bd bf28 cc3b 78c9 443d 54a7 ebbd
000000d0: 2f2b e33c cdc5 fb3c 5a92 3dbd cd16 09bc
000000e0: 59b8 9abd 1616 693d 0ba1 cdbd 9e1f a33d
000000f0: 0fdb 48bc 58c3 523e 2c10 71bc d26d 04ba
00000100: 0bdf 273d a164 5c3c cac5 94bd 154e b3bd
00000110: a667 a53b b620 66bd 8c61 aa3d f318 1cbd
00000120: c140 363d 88ac 923c c99e 733d da84 cebc
00000130: 17d2 17be 0c8e 1c3d 22e5 3e3d b36f 8d3d
00000140: 8ad4 553d d4db adbd 7b24 e13b d047 36be
00000150: 1910 e73c 1072 0e3e b7d6 c73d 8052 3e3d
00000160: e241 3abe f42c cb3d 0c96 b33a 3733 b83d
00000170: 95ac 41be 55d4 40be 1308 dcbd f257 f53d
00000180: 5d85 20bd 5d45 c5bd be52 c93d 1ac5 cebc
00000190: 39ff b0bd 7555 d4bc c3e7 1abe 9074 eabb
000001a0: 4a5a 87bd b3cd 943d df90 e63d 225a 19be
000001b0: 1f1f 13bd 1d8b 493d 4f29 203e 9c52 0a3e
000001c0: 5119 36be 437d c53d a7e8 0e3c a90e 0b3e
000001d0: dd10 283d 0964 3f3d c1d9 a73d 4690 f1bd
000001e0: 9426 d83d bd36 053e 1476 273d b9d1 35bd
000001f0: d517 c0bd 3f65 fb3d b81d f63c a0de 25be
00000200: beb4 22be 1ba9 72bd f30d 4a3e deb6 413d
00000210: e26f 9abd 8694 56bd 2d30 d33d a139 433d
00000220: cbb8 01be 998b 1e3e 962e 2e3d f457 26be
00000230: 0e50 c83d 276a 093d 1adf 02be ccb5 6f3c
00000240: 2027 17be 0806 dcbc 8ab9 55bd fb61 6cbd
00000250: ab9a 8cbd 2dfc b23d 3c6a 57be dd9b 0cbc
00000260: 7902 4f3e 664a 14be 6f68 2bbd 8e2f edbd
00000270: 1309 2d3d cbaf 0d3d bebe febd bb3d 873e
00000280: c8c8 29be 643b 8dbc 15a2 3b3c e15d cebc
00000290: 0fbe e93d e760 e53c ed7e 513d a0e7 333d
000002a0: 69a9 843c 1f6d 373e de19 1abe 3062 fc3d
000002b0: d2cd 17be 56dc 143e 48cb 81bd 57e6 16be
000002c0: c96a 9a3d 649b ebbd f7df 02bd d5ba 29bd
000002d0: 849c 603d 31d2 b0bd 74d7 6fbd 4d33 7dbd
000002e0: 4f18 ecbd 7705 fc3d b1ef 10be 4ba4 2cbe
000002f0: cf72 983d fed6 dbbc 930e a63d bb5e 5b3e
00000300: 1cc7 343d ff72 e73d a528 68bc 6fc7 3e3d
00000310: 0e75 b63d 6697 1ebe 0824 d0bc 2bc8 22be
00000320: 7ea7 f9bb 8945 fd3d 175d 3b3e 4fad 85bd
00000330: 5359 dcbd a8d3 873d aca1 afbd 19f5 34be
00000340: bd25 0ebe de26 cabd 0018 e73d 6322 b2bd
00000350: cb85 663d 4f1a 9f3d d0db d9bc 441c da3d
00000360: 61d0 643d 14e7 a6bd b818 23be 6cbf 67be
00000370: c54b 253d d914 003e b887 163c 3e1b 6c3e
00000380: dae9 6e3b 87e3 82bd 9634 f1bc 0aae 73b8
00000390: febf f4bd 6acf f43d ca66 8c3d 1ed3 21bd
000003a0: 9694 163e 7417 3b3e 4900 323e 52dd 083e
000003b0: ac6c 253e bcdd b9bc 6ad4 06be 3e23 93bb
000003c0: 56d5 8abc 82db 603e 71ba e2bd 89d9 76bc
000003d0: 4f64 e4bd b9a7 43bd b7dd 0fbe 8aef 173d
000003e0: 6e37 d43d f187 3e3e cace 92bc 9de1 85bc
000003f0: 2262 df3d beee 3bbe 7c39 f4bd 2f5d fb3d
0.006352683 0.09041793 -0.17997918 0.15676506 0.1170185 -0.123616144 -0.113682166 0.12011893
0.022727264 -0.0417826 -0.097638644 -0.042730536 0.050498504 0.048841305 -0.119352356 -0.041053418
0.10381046 0.10027472 0.13877799 -0.03194262 -0.03484281 0.008424067 -0.07160585 0.05611468
-0.091932416 0.061145786 0.099318646 -0.089614086 0.07479343 0.08829608 -0.11610922 0.16892946
0.021239711 0.04502075 0.09141505 0.057924077 -0.07969805 -0.1463916 -0.103864096 0.04941832
-0.17362456 0.058088988 -0.18713151 0.12609842 0.053935945 -0.19219697 -0.19121458 -0.2281054
-0.04813675 0.0062304433 0.048043698 -0.11506525 0.027730552 0.030733967 -0.04628215 -0.008367253
-0.07554693 0.05690583 -0.10040482 0.07965015 -0.012259259 0.2058233 -0.014713328 -0.0005051765
0.040984195 0.013451726 -0.07264288 -0.08755127 0.0050477562 -0.05618354 0.08319387 -0.03810973
0.044495348 0.017904535 0.0594776 -0.025209833 -0.14826237 0.038221404 0.046605237 0.069060706
0.052204646 -0.084891945 0.006870804 -0.17800832 0.028205918 0.13910699 0.097577505 0.046465397
-0.18189195 0.099206835 0.0013701334 0.089941435 -0.18913491 -0.18830998 -0.107437275 0.11979665
-0.039189685 -0.096323706 0.09830235 -0.02524047 -0.0864243 -0.025919655 -0.15127473 -0.0071550086
-0.06609018 0.072657965 0.11258101 -0.14975789 -0.03591835 0.049204934 0.15640758 0.13508075
-0.17783095 0.096430324 0.008722461 0.13579811 0.041031707 0.04672626 0.0819583 -0.11795096
0.10554233 0.13009162 0.040884092 -0.04438946 -0.093795456 0.122751705 0.030043468 -0.16198206
-0.1588926 -0.059243303 0.19731884 0.047293536 -0.07540871 -0.052387737 0.10311923 0.04766238
-0.12668149 0.1548294 0.042524897 -0.16244489 0.09780894 0.0335485 -0.12780419 0.014630746
-0.14761019 -0.026858345 -0.052178897 -0.05771063 -0.06865438 0.08739505 -0.21036619 -0.008582083
0.20215787 -0.14481506 -0.041847643 -0.11581336 0.042244982 0.034591477 -0.12438725 0.26414284
-0.16580498 -0.017240234 0.011452218 -0.02519125 0.11413204 0.028000308 0.051146436 0.043922067
0.016194062 0.1791272 -0.1504893 0.12323415 -0.14824608 0.14537176 -0.06337601 -0.14736305
0.07539899 -0.11504248 -0.03195187 -0.041437943 0.054836765 -0.08633841 -0.05855508 -0.061816502
-0.11528074 0.1230573 -0.14153935 -0.16859548 0.07443773 -0.026835915 0.081082486 0.21422856
0.044135198 0.11301231 -0.014169847 0.046576913 0.08909045 -0.15487441 -0.025407806 -0.1589667
-0.0076188436 0.123667784 0.1829723 -0.065271966 -0.10759225 0.06632167 -0.08575758 -0.17671622
-0.13881584 -0.098706946 0.112838745 -0.08697965 0.05627994 0.0776869 -0.026594073 0.106499225
0.055862788 -0.081495434 -0.15927398 -0.22631615 0.040355463 0.12507953 0.009187631 0.23057267
0.0036455304 -0.06391054 -0.02944402 -5.80978e-05 -0.11950682 0.119536236 0.06855543 -0.039507978
0.14705119 0.18270665 0.17382921 0.13365677 0.16154736 -0.022688739 -0.13166967 -0.004490285
-0.01694743 0.21958736 -0.11070717 -0.015066513 -0.11151945 -0.047767375 -0.14049421 0.037093677
0.10362135 0.18606545 -0.01792087 -0.016342932 0.10907389 -0.18352792 -0.11925027 0.12273633

cnn_blocks.0.proj_in.bias f4 [16]
00000000: 56ca c13d 8e8d 54bc 0869 ffbd cdea 87bc
00000010: 9804 3d3d b6eb b1bd 3ea3 ae3d 6465 ee3d
00000020: a551 373e 4322 243e 1679 573e c6d3 fa3d
00000030: 1ffe efbd 296e 36be acb9 ac39 355e 0abd
0.09462421 -0.012973202 -0.12471205 -0.016591454 0.04614696 -0.086875364 0.0852723 0.116404325
0.17902239 0.16028695 0.21042284 0.12247424 -0.117183916 -0.1781546 0.00032944733 -0.03378125

cnn_blocks.0.convs.0.weight f4 [16, 16, 3, 3]
00000000: f760 ee3c 7f94 be3d 31f8 803d d7d5 a0bd
00000010: 29a2 e33d 6f0c 9b3c 22ab b8bd 9947 30bb
00000020: e75c bc3c 428a 0a3d 160e 48bc 0798 463d
00000030: 37e3 be3d 1b31 b4bc ebc7 063d b7ce 21bd
00000040: 545d 6bbd 0c84 82bc 02c3 ac3d 8efa bebd
00000050: 778c f9bc f3df 5c3c 475d d03b 9e11 8cbd
00000060: 4fa7 003d 11d1 263d 33c6 123d dd0d 7abd
00000070: 90aa a3bd 7597 983c 9d81 3f3c 6d48 c83c
00000080: 1d64 3d3d 5dc9 ae3c 33b7 043c 08e2 b13b
00000090: 75f8 cfbc 966d 18bd 7d2e b4bc 2121 cfbd
000000a0: 7f69 9b3c 233a 3dbc 5d82 bb3d ffbb eb3b
000000b0: 562d c3bd f861 ac3d 499d ba3d c758 66bd
000000c0: 720b 03bd 071f 9e3d c083 98ba 47cf 9e3d
000000d0: e466 a7bc 09d1 c23c 1cc8 ca3c 6fb8 cabc
000000e0: 502f 053e 5b91 ac3c 4171 ca3b 2c4c c03c
000000f0: 6bba 48bc 7b5e f4bc 0a0d 413d c5d5 3b3c
00000100: 36c7 d93d 01e8 22bd e8a0 32bb 3436 b2bd
00000110: 6562 16bc acfe 33bd 6538 a5bd a6e0 d6bc
00000120: c1c6 88bd 1fb7 673d 7510 83bc 494c c0bd
00000130: ed8a 303d ea47 1ebd 7c11 e639 1e84 433a
00000140: 1a48 f9bd 0cb1 233d da5d b93c 3bb3 473c
00000150: 5823 9b3c cfe3 7a3d bd6f a73c 48b5 163d
00000160: f0fa 863c 114d a1bd 7977 133d 2085 2abd
00000170: 352c aebc 57bb 153e 08d1 303e 0b27 fcbc
00000180: 87e2 ab3d 1e4d 223d fb45 5e3c 432d 8fbd
00000190: 6dc5 573c 2802 7c3d 55a9 6fbd f97b 18bd
000001a0: dd2c a8bd 38e7 423d fb5b c2bd e1d8 9bbd
000001b0: 4565 7a3d ec43 82bd 13ba 0dbd f38d d8bb
000001c0: a169 7ebc 3cf9 0bbe c2e5 5cbd 8b4f 5e3c
000001d0: 41e3 5ebd a448 1bbd ad65 613c f21e f8bd
000001e0: 774a 9bbc 16e2 babd c43c b73c 2db4 84bb
000001f0: 6c49 423c e730 ae3d cd29 c73d be93 c33d
00000200: 0aee fa3d 6514 a73d 3e80 04be a47e 0abc
00000210: 65ff 563d 0a2f 1cbc 5898 b43d 18de bf3d
00000220: c973 85bd 58b5 293d b432 97bd 93ba 053b
00000230: bc0d 2f3e d45c 83bd 6385 0cbd a0ff a2bc
00000240: acc9 1c3c 45e7 7b3c a091 0cbe 8713 c3bd
00000250: e459 de3b efdf 8d3d 5751 babc fe19 a8bd
00000260: b6d3 debc ad65 44bc 93a5 3f3d cd4e c8bc
00000270: 0d03 af3d b175 94bd 448d f2b9 b2b4 273d
00000280: a90f a5bd ec6a 343d dc20 a9bc 3871 e93b
00000290: 5aad 4dbd 37d5 8e3c f5c8 f2bc 2f2a e93d
000002a0: c9c9 003d 9945 99bd abf2 6b3d 46f6 8e3c
000002b0: f1d2 8c3d 3b8e fa3c d921 633d 5c7f d53c
000002c0: 9e0e bcbc 513a 363d 105f c23d 2c17 823d
000002d0: 3998 ae3d 0e1d c2bc cb03 c53c f8d0 71bc
000002e0: ae35 5a3b cb3b 1cbe a0b7 a03c e68f 703d
000002f0: 803a c0bd 5a40 fabd 2621 e93c fe66 753d
00000300: 2ed8 1cbc 6d09 22be 9f51 1d3d e4c0 493d
00000310: 62db 763d 4817 e5ba 075a d0bd ad3e 473d
00000320: d347 a7bd dcb0 823b fb84 85bd 733e a8bd
00000330: 466c 723c 3ac4 423d 9d18 10bd 4909 92bd
00000340: 4a5a f0bb c651 843d 06a0 41bd da4d d03d
00000350: 7cc1 48bd 89eb 3d3d 81ca 3a3d 6526 dfbd
00000360: efeb a83c a19f 793d a6af febd d600 60bd
00000370: 6324 973d 9a6a 21bd bd8d b43d a787 3abe
00000380: 652e 963d f93c 76bd 4f38 d63d a582 33bc
00000390: 02f2 c3bc 0973 dc3c d6d6 f43c 038f b53d
000003a0: 59d2 78bd 9532 70bd 9436 1bbb ac58 003d
000003b0: a6af 96bd 093d 5cbd b737 9bbd 22d4 ac3d
000003c0: 6d21 533d 778e 07bd 8c96 c43c 42cc 7fbd
000003d0: a046 6e3d 49ec cf3b 2e4c 2ebd 0220 87bd
000003e0: 8dd6 3c3d 1bc3 413c b189 b6bd 16af 50bd
000003f0: 4141 a2bd c891 313d 9570 943d dd7e cc3d
0.02909897 0.09305667 0.06297339 -0.07853287 0.11114914 0.018926827 -0.09017016 -0.0026898144
0.022993518 0.03382326 -0.01221039 0.04848483 0.093206815 -0.021996072 0.0329055 -0.03950378
-0.05746205 -0.015932105 0.08435632 -0.09325133 -0.030462487 0.013481128 0.006358776 -0.06839298
0.031409558 0.040726725 0.03583355 -0.061048377 -0.079915166 0.018626908 0.011688617 0.024448598
0.046238054 0.021336252 0.008100319 0.0054285564 -0.025387028 -0.037213884 -0.021994824 -0.10113741
0.018971203 -0.011549505 0.09155724 0.0071940417 -0.095301315 0.084171236 0.09112031 -0.05623701
-0.031993337 0.07720762 -0.0011635944 0.07754379 -0.020434804 0.023781316 0.024753623 -0.024746148
0.1300633 0.021065405 0.0061780517 0.023473822 -0.012251477 -0.029830208 0.047131576 0.011464541
0.106336996 -0.039772037 -0.0027256552 -0.08701745 -0.0091787325 -0.043944046 -0.08067397 -0.026230168
-0.06678534 0.056571122 -0.015999058 -0.0938955 0.04310124 -0.0386428 0.00043882045 0.00074583467
-0.121719554 0.039963767 0.02262776 0.012188728 0.018937752 0.06125241 0.020439023 0.036793977
0.016477078 -0.078760274 0.03600261 -0.041630864 -0.021261314 0.14622246 0.17267239 -0.030780336
0.08392816 0.039624326 0.013566489 -0.06991055 0.013169629 0.061525494 -0.058511097 -0.037227605
-0.08211682 0.04758379 -0.094902 -0.07609726 0.061131734 -0.06360611 -0.034601282 -0.0066087185
-0.015528114 -0.13669294 -0.05393005 0.013568769 -0.054415945 -0.037911072 0.013757152 -0.12115277
-0.018956406 -0.09125154 0.022367842 -0.004049799 0.011858325 0.08505421 0.0972477 0.09549664
0.122524336 0.08158187 -0.12939546 -0.008453045 0.052489657 -0.009532699 0.0881812 0.09368533
-0.06516225 0.04143271 -0.07382718 0.0020405396 0.17095083 -0.0641419 -0.034306895 -0.019897282
0.009569567 0.015374963 -0.13727427 -0.09525209 0.006785618 0.069274776 -0.022743864 -0.082080826
-0.027200561 -0.011987132 0.046788763 -0.024451638 0.08545504 -0.0724901 -0.00046263088 0.04094381
-0.080596276 0.04404728 -0.020645551 0.0071240924 -0.05021415 0.017435653 -0.02963684 0.11384999
0.031442437 -0.07483978 0.057604473 0.017451417 0.068761714 0.030585399 0.0554522 0.026061706
-0.022956189 0.04448921 0.09490788 0.06352076 0.08525128 -0.023695495 0.02404966 -0.014759295
0.0033296156 -0.15257184 0.01961881 0.058730982 -0.09386158 -0.12219305 0.02845819 0.059912674
-0.009573026 -0.15823908 0.038407918 0.04925622 0.060267814 -0.0017478252 -0.10173421 0.048643757
-0.08167996 0.0039883684 -0.06519505 -0.08215036 0.014796322 0.047550417 -0.035179723 -0.07130677
-0.007334982 0.064609095 -0.04727175 0.10171099 -0.049012646 0.046367202 0.04560328 -0.10895995
0.020620314 0.06094325 -0.12435846 -0.054688297 0.07379987 -0.039408304 0.08816097 -0.1821581
0.07333068 -0.06011674 0.10459959 -0.010956441 -0.02391911 0.026910322 0.029887598 0.08865168
-0.06074748 -0.05864199 -0.0023683654 0.031334564 -0.07357721 -0.053769145 -0.07578986 0.084388986
0.05154555 -0.03309485 0.023997568 -0.062450655 0.058172822 0.006345306 -0.04255312 -0.06597902
0.04610305 0.011826302 -0.08912981 -0.050948225 -0.079226024 0.04335192 0.07248036 0.09985135

cnn_blocks.0.convs.0.bias f4 [16]
00000000: 4a52 8cbd 1a5e 433d f7a5 123d 3c08 08bd
00000010: 6104 2b3d 3088 e13d cf3d fc3c 8074 ad3c
00000020: cc14 1b3d 59f8 a3bd db2d 5e3d 4ad5 d1bc
00000030: 5420 fd3c d7f6 bcbd 07e3 54bd af24 b3bd
-0.06851633 0.047697164 0.035802808 -0.033210978 0.041752223 0.11012304 0.030791191 0.021173716
0.03786163 -0.08006353 0.05424295 -0.0256144 0.030899204 -0.092267685 -0.051974323 -0.08747231

cnn_blocks.0.convs.1.weight f4 [16, 16, 3, 3]
00000000: ae2c 323c 8098 773c 10e1 b4bd 064c 033c
00000010: d66f 143b b2e7 47bd eb50 1cbd d28b ec3b
00000020: f661 be3d fc3b 513d ccd9 01be 794d 003d
00000030: 9b89 42bd ac95 32bd f134 f4bc 2426 12bc
00000040: 6a3d cfbc 0ca2 c7bc ad16 94bc 105c f63d
00000050: 25a6 eabd 4191 8f3d 3fbe 24bd e637 9bbd
00000060: ee14 2d3c 4f48 933c dda6 933c 3f84 943d
00000070: 2861 49bd a053 103c 2153 463e e707 073e
00000080: 7d1b 023e 9117 923d c9e1 fabd 0dab 7d3d
00000090: 3ed5 dbbb eb6c 2abd b1fa 003e d7ca 47bd
000000a0: d89a d5bd f7fe 67bd 2f0a 2a3c 8550 e3bd
000000b0: 1f1b 9d3d 1dfc 6ebb 25b9 0b3d bfc6 693d
000000c0: d860 23bd bd30 2abd fa49 183d d4df e23c
000000d0: 3cb4 1dbe b4ad 9c3d 290e e13d 5cb4 093e
000000e0: 8e78 cd3d b25e f83b 7040 21bd c1a2 2e3d
000000f0: d020 b23d 5ff7 9b3c ebb9 f03c 4d9b d53c
00000100: 9cbf 7fbd 64da 64bd fc53 4c3c ce46 30bc
00000110: efe1 203d 9919 633d 5a04 e53b de68 9f3d
00000120: 1433 b1bd 316e 9cbd aeaa 25bd 8705 b1bc
00000130: c9f1 aebd 984e 1abd dcbf 9c3d a681 1b3c
00000140: f888 efbd 4cc0 05be 563f 523d d129 b3bd
00000150: 0897 cbbd b532 5e3c 4823 c5bb f3ca fe3c
00000160: 74cd e13c 2194 823d 9b58 2e3d 81f8 5c3d
00000170: a58c 383e 1f76 a43d 4d2a e63c aa91 303d
00000180: e327 29bd 4d20 03be 0581 143e d692 43bd
00000190: c0ae 18bd 932c a53d f4a8 31be e21c 82bd
000001a0: c421 e13d 427b 733d 3e72 d739 ccee 40be
000001b0: 6dcf 393d 9023 bebd afa9 2dbe 7dc0 a03c
000001c0: 66dc 22ba da3a a23c c9e5 d23d 3e51 6e3d
000001d0: 000e dcbc 7da8 803d 331b 91bd 996b 67bd
000001e0: 6472 b53d d122 b1bb e65d 8bbc a4bf 8d3c
000001f0: d2cd 1c3d 498b 66bd c1b7 8b3d 7d27 b5bc
00000200: 8939 d6bc 9bea b73d 742b 083c ddef 49bd
00000210: 12bd 72bd e8fc ae3d 9f9b 30bd 19e9 7abc
00000220: 2666 203c dcd3 2a3d 00f8 a13d 0b77 813d
00000230: c0b4 e73c b094 71bc c613 21bd 06b5 2fbd
00000240: 28db 853d adab 92bc 67ef b83d afea 123d
00000250: a185 0e3d 06f6 39bd f295 8fbd 4cf2 8fbc
00000260: 0b7f 6a3b d1de 653d d996 3abe 0e52 ec3c
00000270: 0418 18bd e86d 23be 6baa 153d d118 c53d
00000280: 51c6 60bd 5f0d a6bc be60 a33c d9f3 e0bd
00000290: a3b0 9c3d 6917 cabd 0cb0 3abb f7c7 b1bc
000002a0: 8111 d63a 7f0b dd3c 7e53 a1bc 64bf 62bd
000002b0: 5efd 19bd 3c45 6d3d c413 b3bc ddba 27bd
000002c0: d00b 5bbc bf94 cabc 33c8 183d 6a2d e13d
000002d0: 9f48 3a3d e3ce 3e3b 5e31 ab3d f2c2 54bb
000002e0: 02d8 0a3c 7948 4abe eb2a fc3d 52bc 58b8
000002f0: a016 a4bd b37c 663d 20d5 66bd 0588 b4bd
00000300: d315 2c3d 52c3 a13d 02b5 7abd c407 14bd
00000310: 5941 d33d 9645 003d 964f 0cbc b7e8 4d3a
00000320: 3ba2 5f3d ba4a 75bb 6bad 95bd 457f 01bc
00000330: af67 0e3d 012d b6bd 8ce4 41bd 6bf2 bcbd
00000340: 169c c73c 15e9 acbd 985f 9bbd 9e02 5e3d
00000350: eb40 e33c 0671 bf3d f6e0 7bbd e5ba 0ebd
00000360: 4ab3 24bd c6ec a3bd 8b98 9abc 7791 85bb
00000370: 8747 c03d a35d cc3d 704f 353d 9023 063a
00000380: ffc9 5ebd 7ab5 f23c 406b 063e 044f 323c
00000390: b13f d8bd fabc 443d 0e25 843d 0466 b03d
000003a0: d68c 943b f393 203c a3fb cd3d cf64 88bc
000003b0: 1c49 3d3d f65d b2bd a545 10bc 678c 4ebd
000003c0: df5d c8bc 848e c63d 199a 70bd 6fc5 493e
000003d0: 286b a5bc f1ee 23bd fa3c b63d f3dd 02bc
000003e0: 60b2 90bd 46bc 73bd 579f 713d 6d8c d33c
000003f0: 3248 d43d 8693 46bc 51aa fc3b 96d2 cb3b
0.01087491 0.015112042 -0.0883199 0.008013731 0.0022649667 -0.048804946 -0.038163107 0.0072188163
0.09296028 0.051082596 -0.12680739 0.031323884 -0.047494512 -0.04359977 -0.0298104 -0.008920226
-0.02529784 -0.024369262 -0.018077219 0.12029278 -0.11457471 0.07010127 -0.040220495 -0.07579021
0.010564072 0.017978815 0.018023903 0.072517864 -0.04916492 0.008809 0.19367649 0.13186608
0.12705798 0.07133401 -0.12250096 0.061930705 -0.00670877 -0.04160778 0.12595631 -0.048777428
-0.10429925 -0.056639638 0.0103784045 -0.11099342 0.076711886 -0.003646619 0.034112114 0.057074305
-0.03988728 -0.041550387 0.037179925 0.02769462 -0.15400785 0.07650319 0.10989029 0.13447708
0.100327596 0.007579648 -0.039368093 0.042635683 0.08697665 0.019038854 0.029385528 0.02607503
-0.062438592 -0.055872336 0.012471195 -0.010759069 0.039277967 0.055444334 0.006989044 0.07783674
-0.086523205 -0.07638205 -0.040445976 -0.021609081 -0.085422106 -0.03767261 0.07653782 0.00949136
-0.116960466 -0.13061637 0.051329933 -0.0874821 -0.09940916 0.013561894 -0.0060161687 0.031102633
0.027563788 0.063759096 0.04256497 0.05394793 0.18022402 0.08030342 0.028096342 0.043107666
-0.041297805 -0.1280529 0.14502342 -0.047747456 -0.03727603 0.080651425 -0.17349607 -0.06353165
0.109927684 0.05944372 0.00041093113 -0.18841094 0.045363832 -0.09284127 -0.1695926 0.019623036
-0.00062126515 0.019803453 0.10297734 0.058182947 -0.026862144 0.062821366 -0.07085266 -0.056499097
0.08859709 -0.005405762 -0.017012548 0.017303295 0.038282223 -0.056285176 0.06822158 -0.022113556
-0.026150482 0.08980294 0.008311141 -0.049301017 -0.059262343 0.08544332 -0.04311716 -0.015314364
0.009789979 0.04170595 0.0790863 0.06321534 0.02828443 -0.0147449225 -0.039325498 -0.042897247
0.06535941 -0.017904127 0.090300374 0.035868343 0.034795407 -0.04540064 -0.07011022 -0.01757159
0.003578129 0.056120697 -0.18221606 0.02884772 -0.037132278 -0.15959895 0.036539476 0.09623874
-0.05487663 -0.020270048 0.019943591 -0.1098401 0.07650878 -0.098677464 -0.002848628 -0.021701796
0.0016332121 0.02698302 -0.019693132 -0.055358306 -0.037595145 0.057927355 -0.02186001 -0.04094969
-0.013369516 -0.02472913 0.0373003 0.1099499 0.045479413 0.0029115013 0.083590254 -0.003246483
0.008474352 -0.19754209 0.123128735 -5.16738e-05 -0.08012128 0.056271266 -0.056355596 -0.08815006
0.042013 0.078985825 -0.06120778 -0.03614022 0.103151985 0.031316362 -0.008563897 0.00078548066
0.054598074 -0.0037428574 -0.073084675 -0.007903879 0.03476685 -0.088953026 -0.0473371 -0.09225925
0.02436642 -0.08442894 -0.075865924 0.054201715 0.027740916 0.093477294 -0.061493836 -0.034846205
-0.040210046 -0.08004145 -0.018871566 -0.0040761787 0.09388643 0.09978797 0.04426521 0.00051169936
-0.054391857 0.02962755 0.1312685 0.010883097 -0.10559023 0.048031785 0.0645238 0.08613208
0.0045333905 0.009800899 0.100577615 -0.016649632 0.0462123 -0.08709328 -0.008805667 -0.050426867
-0.024458824 0.096951514 -0.05874071 0.19704221 -0.020192698 -0.040022794 0.08898349 -0.007987487
-0.07065272 -0.059505723 0.05898985 0.025823796 0.10365333 -0.012120133 0.007710733 0.006220172

cnn_blocks.0.convs.1.bias f4 [16]
00000000: 2e34 9e3d 53b0 14bc 12c7 a43c 9e7a fe3a
00000010: dd1b 7ebd 9db5 383c abd9 bfba f9e3 8c3d
00000020: a5de 9cbc 593d 0d3d 769c 80bc d7a1 d4bc
00000030: 8887 95bd dfb1 b03b 18b6 9b3d d1c4 93bd
0.07724796 -0.009075242 0.020114455 0.0019415205 -0.06203829 0.011273769 -0.0014637014 0.0687942
-0.019149134 0.034482334 -0.015699606 -0.025956078 -0.07301241 0.0053922976 0.07603091 -0.07215274

cnn_blocks.0.norms.0.weight f4 [16]
00000000: 6a0e 773f c40f 793f 6519 7b3f 4c56 723f
00000010: 9d2d 803f a683 803f d2cc 783f 4b00 833f
00000020: d0d4 813f a300 7c3f 6879 813f 05a6 7d3f
00000030: 3617 843f 75a4 7e3f 204f 7f3f 19c8 743f
0.9650637 0.9728968 0.98085624 0.9466293 1.001392 1.0040176 0.9718753 1.0234464
1.014307 0.9843847 1.0115175 0.9908145 1.0319583 0.9946969 0.9973011 0.95617825

cnn_blocks.0.norms.0.bias f4 [16]
00000000: 3cfd 74bc dff7 0bbd ee83 7fbd ca32 6abc
00000010: 5263 ddbd c25f b8bd 6c8e 243a a05e 6abc
00000020: 3ce3 0ebe 5906 d8bc 5262 28bd ba5d e7b8
00000030: 7cde 07bd 9dac 45bd df48 e4bd 9014 a3bd
-0.014952954 -0.034171935 -0.062381677 -0.014294336 -0.108099595 -0.09002639 0.0006277326 -0.014304787
-0.1395387 -0.026370214 -0.04110939 -0.00011032396 -0.033171162 -0.04826032 -0.111467116 -0.07962906

cnn_blocks.0.norms.0.running_mean f4 [16]
00000000: d76b 46bd 6541 833c ceaa 05bd 02c7 f73d
00000010: 1b84 92bd 87fe 49bd de7a 583a beff 303d
00000020: 09cd 003c a611 56bd 4ff9 4f3d 9b23 10bd
00000030: 28ab 143d 9528 68be 5fb3 f0bd 2887 78be
-0.048442688 0.016022393 -0.032633595 0.120985046 -0.07154103 -0.049315 0.0008258055 0.043212645
0.007861384 -0.052262925 0.05077487 -0.035190206 0.03629604 -0.22671731 -0.11752962 -0.24270308

cnn_blocks.0.norms.0.running_var f4 [16]
00000000: 2913 9d3c f9e3 dd3c 6af3 0d3d a70d 043d
00000010: 2bfd df3c fb89 303d ebc6 123d d9f3 003d
00000020: bb1b f03c 94d2 af3c 58d6 3c3d da14 d33c
00000030: 8652 0e3d fe75 0c3d d3ce 073d 580e ff3c
0.019174175 0.027086245 0.034655966 0.032239582 0.0273424 0.04310034 0.035834234 0.03148255
0.029310098 0.021462716 0.04610285 0.025766779 0.03474667 0.034292214 0.033156227 0.03113477

cnn_blocks.0.norms.1.weight f4 [16]
00000000: 9141 873f 34a6 853f ff04 8b3f 59d3 8a3f
00000010: 4358 983f 031f 8a3f 97e6 8f3f fa25 853f
00000020: 3b25 933f bf9d 8f3f db69 893f f5af 903f
00000030: 2c3c 8e3f 8e19 913f 8c73 903f f8a2 8f3f
1.0566884 1.0441346 1.08609 1.0845748 1.1901935 1.0790714 1.1242245 1.0402215
1.1495737 1.1220015 1.073543 1.1303698 1.1112113 1.1335924 1.1285262 1.1221609

cnn_blocks.0.norms.1.bias f4 [16]
00000000: ae80 453b 3ad7 3abb 5479 913d 1f9c 02bc
00000010: 35c5 afbd aecc 60bd 3262 2e3d 225c 28bd
00000020: df2e 3bbd c32e db3c 67ac 003d fd08 2a3d
00000030: 4eba 4f3d f508 70bc 0aa0 13bd cd05 35bc
0.0030136514 -0.0028509633 0.0710322 -0.0079717925 -0.08582536 -0.054882698 0.042574115 -0.04110349
-0.045698997 0.026755696 0.031414416 0.04151248 0.050714783 -0.014650573 -0.036041297 -0.011048746

cnn_blocks.0.norms.1.running_mean f4 [16]
00000000: 9b91 c3bc d9f1 20be 71c0 c3bd f3bb 05be
00000010: 0853 3dbe ad41 193e 8e47 3e3e 089a 8c3d
00000020: 4ded 5b3d c96e 873d 2272 313e a5ee 763d
00000030: ad4f 9abe 44fd c23d 1b22 c3bd 1ad9 3bbd
-0.023873141 -0.15717258 -0.0955819 -0.13059978 -0.18488705 0.1496646 0.18581983 0.06865317
0.053693105 0.066129275 0.17328694 0.060286183 -0.30138913 0.09520963 -0.095279895 -0.04586134

cnn_blocks.0.norms.1.running_var f4 [16]
00000000: 4313 b23d f269 943d 561b c63d c5d0 c63d
00000010: 372f 673d 510b c43d bc8d b93d 3c28 e03d
00000020: 46ef db3d 86f9 9e3d 7106 d13d 3095 8e3d
00000030: 0ad1 283e 399b a73d 2650 ba3d 85a9 6f3d
0.0869508 0.0724677 0.09673183 0.097077884 0.056441512 0.09572471 0.09060237 0.10945174
0.10738997 0.077624366 0.10206307 0.06962049 0.16485992 0.08183903 0.09097318 0.058511276
