checkpoints/abl_fused_only/best_model.pt (torch, 256789 bytes, 142 tensors)

embedder.feature_projections.0.weight f4 [32, 1]
-1.1020638 1.2427176 -0.7140458 1.085532 0.8126003 -0.8627349 0.6101617 0.3574263
-0.4131601 -0.80934745 1.0095011 -0.11633295 -0.87888175 0.64143205 -0.35587817 -0.15387635
0.7576456 -0.79728717 -1.0976886 -0.41537648 -0.109596714 -1.1703988 1.2594397 -0.9217087
-0.41968346 0.4473961 0.75993574 0.39511853 0.39622983 0.06439118 0.8736092 -1.193872
00000000: 6d10 8dbf 5f11 9f3f b5cb 36bf b6f2 8a3f
00000010: 9306 503f 32dc 5cbf 8f33 1c3f 9400 b73e
00000020: b889 d3be 6531 4fbf 5537 813f f83f eebd
00000030: 65fe 60bf e434 243f aa35 b6be c391 1dbe
00000040: 10f5 413f 031b 4cbf 0f81 8cbf 3aac d4be
00000050: 3e74 e0bd a1cf 95bf 5235 a13f 1af5 6bbf
00000060: c0e0 d6be 1a11 e53e 268b 423f fa4c ca3e
00000070: a3de ca3e 86df 833d daa4 5f3f ccd0 98bf

embedder.feature_projections.0.bias f4 [32]
-0.8691968 0.3140161 0.29195789 -0.112783186 0.4437909 -0.93206507 0.31979665 -0.33358592
-0.8610452 -0.8279233 0.6626084 -0.38588798 0.86264044 -0.39161804 -0.7794672 0.95524955
-0.724967 0.17052984 0.7417235 -0.526099 0.4110341 0.05455141 0.5738618 -0.77780807
0.27659503 0.5271657 -0.94125104 0.59452105 0.5611441 0.8374002 -0.6647848 0.979072
00000000: ae83 5ebf b8c6 a03e 817b 953e dffa e6bd
00000010: 9038 e33e d19b 6ebf 63bc a33e c6cb aabe
00000020: 756d 5cbf c8f2 53bf b4a0 293f 1c93 c5be
00000030: 01d6 5c3f 2982 c8be 2a8b 47bf 3c8b 743f
00000040: 7097 39bf 609f 2e3e 97e1 3d3f 6dae 06bf
00000050: 1073 d23e 4d71 5f3d 9be8 123f 6e1e 47bf
00000060: dd9d 8d3e 55f4 063f d4f5 70bf 8832 183f
00000070: 24a7 0f3f dc5f 563f 562f 2abf 76a4 7a3f

embedder.feature_projections.1.weight f4 [32, 1]
0.17921999 -0.090452395 -0.54643303 0.7383156 -0.07638915 0.13089725 -0.40575832 0.36093608
-0.40699127 0.040177707 0.45540836 -0.33663875 0.27065653 -0.37363085 0.18067761 0.52069366
-0.8140219 -0.6881027 0.71245 0.49252796 -0.10891946 0.35012734 -0.9420392 -0.06823057
-0.59666747 0.72407424 0.26366195 -0.84296495 0.43334466 0.30885592 -0.90714014 5.9033802e-05
00000000: 7285 373e 1b3f b9bd 09e3 0bbf 4002 3d3f
00000010: ea71 9cbd ee09 063e 8ebf cfbe 9dcc b83e
00000020: 2961 d0be 6191 243d 492b e93e ea5b acbe
00000030: 7e93 8a3e 8b4c bfbe 8d03 393e 2e4c 053f
00000040: bd63 50bf 8027 30bf 2063 363f a02c fc3e
00000050: 2a11 dfbd e443 b33e 7b29 71bf 78bc 8bbd
00000060: 33bf 18bf ee5c 393f b3fe 863e 8dcc 57bf
00000070: 5adf dd3e 5d22 9e3e 563a 68bf 109b 7738

embedder.feature_projections.1.bias f4 [32]
0.8111944 -0.84560764 -0.7293408 0.35694996 0.8937951 -0.6353622 0.7117743 -0.41685933
-0.23233695 -0.5224046 -0.03275278 0.38088536 0.9299496 0.9771565 0.24297677 0.4805548
-0.47123173 0.86679083 -0.3237626 -0.48131877 0.37631905 -0.2803829 -0.71499974 0.28547463
-0.24924405 -0.9665775 -0.085465334 0.8139893 0.5540526 -0.020779008 0.16874881 0.29526857
00000000: 70aa 4f3f be79 58bf 14b6 3abf 25c2 b63e
00000010: c1cf 643f 19a7 22bf d736 363f 966e d5be
00000020: bde9 6dbe 4fbc 05bf c727 06bd 6803 c33e
00000030: 2d11 6e3f ee26 7a3f e7ce 783e 470b f63e
00000040: 4945 f1be 01e6 5d3f 36c4 a5be 6a6f f6be
00000050: e4ac c03e 598e 8fbe 390a 37bf bb29 923e
00000060: d539 7fbe 9f71 77bf 7308 afbd 9a61 503f
00000070: 64d6 0d3f bd38 aabc 7dcc 2c3e 712d 973e

embedder.stabilizer_embedding.weight f4 [8, 32]
-0.8488261 -0.986757 -0.058240227 1.7429776 -0.10018064 -0.5745661 1.5918823 -0.5982258
1.9414032 0.035009183 -2.2858863 0.15265723 -0.26428357 -0.5737184 -1.0137342 -0.050883003
0.12555188 1.1025242 -0.40677333 0.082838364 -0.12446076 -0.5473567 -0.8911487 1.1931248
0.55381846 -1.8146555 -2.902259 -0.81522256 -0.12262869 0.28787103 0.3949734 1.209151
1.4511607 1.0339798 0.2672519 -0.81892985 -1.6580905 -1.216498 -0.5821187 -1.0373433
0.5838614 0.3022518 -1.2478844 1.1391442 -0.9766147 -1.1309588 -0.8320638 -0.041218396
0.9862747 -0.14792809 0.43458152 -0.9088486 -2.9030447 0.9242476 -0.0050133644 0.30997574
0.07576148 2.3205202 0.34223503 0.08808115 -0.36106816 -2.4625 0.86007994 -1.7648923
0.028388258 0.03531368 0.8101639 1.3809798 1.7262552 1.1838579 -1.327315 -0.79488456
0.6405607 -1.0251209 -0.12863767 1.183483 -0.8397613 0.3212939 -2.1027884 0.19159503
-2.0384154 -0.006914631 -0.5997177 -0.65725785 1.2653991 -0.6841515 1.3831346 0.23150486
0.59433395 0.2363103 -0.6761342 -0.03777081 1.3292036 -0.8661087 0.9227054 -0.07036575
2.0028353 -1.0166715 -0.42071316 -0.56853724 -0.6747222 -0.31086957 -1.4851568 -0.743623
-0.7290064 0.9606878 0.24081996 -0.5619403 0.22664386 -1.4613085 0.7925033 2.319601
0.044506498 -0.3687154 0.8034325 0.55158323 -1.0697916 -0.4696934 -0.5431673 0.41098762
-0.570735 0.068447776 -0.21833013 -1.3705031 0.53088975 2.0389218 -0.13315792 -0.6949587
-1.7865742 0.65625626 -0.7960009 -0.69739205 -0.33792892 0.32578763 1.2628821 -0.5064167
0.49615422 1.5753795 0.13435276 1.0219487 -0.193947 -1.1687205 2.574451 -0.6270639
-1.1622626 -0.68811405 -0.28131285 -1.011716 1.316762 -0.25535905 0.040948648 -0.66430366
-0.10376134 0.50643235 1.1905812 -0.67005116 -2.0219698 -0.10663786 -0.926953 -0.83558995
-0.8793907 -1.9862108 -1.6115133 -1.0340515 -0.46042344 0.8708636 0.143059 0.14925042
-0.11858259 -2.0278225 -0.8037547 0.70429313 0.7292159 -0.48789698 -1.3561285 0.42066342
0.06771262 -0.7546046 -1.8689059 -1.5052339 -0.25894368 1.7077974 -1.0378 0.39675802
0.17083383 -1.5480313 1.2637146 -0.00053904514 0.36634335 0.31197295 1.3093624 -0.40699163
1.4384552 -0.796106 1.4453952 -0.36390287 -0.19469206 -1.4048787 1.8523889 -1.6962692
-0.5258944 -0.013133358 0.028879084 0.36817664 -0.1338253 -0.22341512 -0.19529961 -0.64949137
-0.02367796 0.08205273 0.98306125 -1.5219667 -0.25327274 -1.5740246 -1.3577695 0.039299954
2.6659994 0.07896038 0.010882199 1.9796894 -1.3123529 -0.1238182 -0.5552069 -1.5533946
0.14634821 -0.6260446 -1.4945564 -0.8691103 0.29094616 -0.88988453 1.2259926 1.8789606
-0.6217263 -0.26500565 -0.26416576 -0.53225857 -1.7553399 0.43152836 0.51263475 -0.5253095
-1.7113652 0.46067634 0.5606033 -1.3467579 -1.0623482 0.36715138 -0.45935193 0.37814173
1.3216274 0.18473403 -0.60386574 0.7720127 -1.3504738 0.34578073 -0.19193089 -0.066478305
00000000: ab4c 59bf 1b9c 7cbf 4e8d 6ebd e419 df3f
00000010: 822b cdbd c416 13bf cdc2 cb3f 5325 19bf
00000020: e67f f83f ca65 0f3d f64b 12c0 2d52 1c3e
00000030: 2d50 87be 36df 12bf 0bc2 81bf b26a 50bd
00000040: ac90 003e 831f 8d3f 9844 d0be 29a7 a93d
00000050: 48e5 febd 921f 0cbf 5222 64bf 50b8 983f
00000060: 0cc7 0d3f a246 e8bf 9dbe 39c0 6db2 50bf
00000070: c024 fbbd d563 933e f439 ca3e 76c5 9a3f
00000080: a2bf b93f 7359 843f 3ed5 883e 63a5 51bf
00000090: 4f3c d4bf 35b6 9bbf bb05 15bf aac7 84bf
000000a0: f177 153f bfc0 9a3e adba 9fbf 7acf 913f
000000b0: 6c03 7abf 42c3 90bf 2202 55bf 9fd4 28bd
000000c0: 807c 7c3f 767a 17be 7881 de3e 4daa 68bf
000000d0: 7ccb 39c0 7e9b 6c3f 2647 a4bb 24b5 9e3e
000000e0: d628 9b3d 6783 1440 6e39 af3e e463 b43d
000000f0: eddd b8be 9a99 1dc0 332e 5c3f fee7 e1bf
00000100: 7e8e e83c 14a5 103d e766 4f3f f2c3 b03f
00000110: eef5 dc3f a888 973f 75e5 a9bf 8e7d 4bbf
00000120: c9fb 233f 2937 83bf 98b9 03be 5f7c 973f
00000130: 99fa 56bf a280 a43e 1694 06c0 7d31 443e
00000140: 6675 02c0 2194 e2bb 1987 19bf 0d42 28bf
00000150: 99f8 a13f 8d24 2fbf 8e0a b13f 9c0f 6d3e
00000160: 4526 183f 54fb 713e 2217 2dbf 91b5 1abd
00000170: 5823 aa3f 4db9 5dbf 6c36 6c3f eb1b 90bd
00000180: 742e 0040 4b22 82bf b767 d7be a88b 11bf
00000190: 98ba 2cbf 4c2a 9fbe 9e19 bebf 145e 3ebf
000001a0: 2aa0 3abf a3ef 753f 8299 763e 52db 0fbf
000001b0: 5415 683e 280c bbbf 7fe1 4a3f 5874 1440
000001c0: 724c 363d 44c8 bcbe c1ad 4d3f 8f34 0d3f
000001d0: eeee 88bf a77b f0be 030d 0bbf f86c d23e
000001e0: b01b 12bf 592e 8c3d ef91 5fbe a56c afbf
000001f0: 64e8 073f b27d 0240 8d5a 08be d0e8 31bf
00000200: 77ae e4bf 6900 283f b7c6 4bbf 4988 32bf
00000210: 0505 adbe a3cd a63e 1fa6 a13f 86a4 01bf
00000220: ed07 fe3e 09a6 c93f c593 093e 37cf 823f
00000230: 0b9a 46be a298 95bf cec3 2440 4287 20bf
00000240: 05c5 94bf 3e28 30bf 3d08 90be e97f 81bf
00000250: a88b a83f 6cbe 82be c5b9 273d ce0f 2abf
00000260: d380 d4bd 8da5 013f f764 983f 7988 2bbf
00000270: f467 01c0 f364 dabd cb4c 6dbf 39e9 55bf
00000280: c01f 61bf 283c febf 1146 cebf cd5b 84bf
00000290: 9fbc ebbe ebf0 5e3f 0f7e 123e 1ad5 183e
000002a0: 6edb f2bd d8c7 01c0 dec2 4dbf 8e4c 343f
000002b0: e5ad 3a3f a2cd f9be 9e95 adbf 3261 d73e
000002c0: eaac 8a3d c42d 41bf 4f38 efbf 81ab c0bf
000002d0: 4494 84be 1b99 da3f a1d6 84bf de23 cb3e
000002e0: 10ef 2e3e e425 c6bf 66c1 a13f b54e 0dba
000002f0: 5b91 bb3e ebba 9f3e 3099 a73f 3561 d0be
00000300: 4d1f b83f 9acd 4bbf b602 b93f 7a51 babe
00000310: 5b5d 47be 11d3 b3bf 141b ed3f 591f d9bf
00000320: 04a1 06bf 4c2d 57bc d493 ec3c a681 bc3e
00000330: 8009 09be efc6 64be 9ffc 47be 1145 26bf
00000340: 48f8 c1bc 430b a83d e7a9 7b3f cecf c2bf
00000350: f7ac 81be a379 c9bf 64cb adbf fdf8 203d
00000360: bc9f 2a40 fbb5 a13d 404b 323c 7666 fd3f
00000370: 2efb a7bf 6594 fdbd 0a22 0ebf a2d5 c6bf
00000380: 4edc 153e 7544 20bf a04d bfbf 037e 5ebf
00000390: e5f6 943e 79cf 63bf 53ed 9c3f c881 f03f
000003a0: 7429 1fbf d2ae 87be bc40 87be 1942 08bf
000003b0: faae e0bf 49f1 dc3e 083c 033f af7a 06bf
000003c0: 040e dbbf c5dd eb3e b383 0f3f 9062 acbf
000003d0: 07fb 87bf 44fb bb3e 2d30 ebbe cb9b c13e
000003e0: 162b a93f eb2a 3d3e f296 1abf a0a2 453f
000003f0: 53dc acbf 2c0a b13e 8889 44be c725 88bd

embedder.res_block.0.weight f4 [32]
1.0889221 1.0156765 0.99133354 1.0361884 1.0055224 0.9807914 1.0539911 1.0599803
0.96139014 0.8874428 1.0967213 1.0455486 0.882288 1.0323436 0.9946311 0.9645409
1.0307093 1.109371 1.075647 0.95326406 1.0485015 1.0188004 0.9764916 1.1797086
1.1208564 1.0188601 0.9291746 0.97211486 0.9667774 1.021171 1.0930068 1.0802275
00000000: cd61 8b3f b001 823f 09c8 7d3f d2a1 843f
00000010: f5b4 803f 2515 7b3f 2ee9 863f 6fad 873f
00000020: aa1d 763f 742f 633f 5d61 8c3f 89d4 853f
00000030: a0dd 613f d623 843f 25a0 7e3f 27ec 763f
00000040: 48ee 833f deff 8d3f cdae 893f 1d09 743f
00000050: 4c35 863f 0d68 823f 5afb 793f b100 973f
00000060: 3978 8f3f 026a 823f 63de 6d3f 85dc 783f
00000070: b97e 773f bbb5 823f a6e7 8b3f e544 8a3f

embedder.res_block.0.bias f4 [32]
-0.0011230432 0.04241891 0.037083905 -0.02254662 -0.028382245 0.05877419 0.011280211 0.037382152
0.061954506 0.09041897 -0.0455018 0.015905567 -0.013379964 0.00077985035 -0.003970093 -0.039902553
0.040028367 0.0050838655 -0.0071009123 0.064477436 0.008686839 0.012926303 -0.019872695 0.012544072
0.0017440075 -0.007833897 0.032373894 -0.046284888 -0.012045353 -0.0005147467 0.014598901 -0.019948624
00000000: 1433 93ba 73bf 2d3d 4be5 173d b0b3 b8bc
00000010: e281 e8bc 34bd 703d a2d0 383c 071e 193d
00000020: 02c4 7d3d 952d b93d 1860 3abd 644c 823c
00000030: a337 5bbc df6e 4c3a 8e17 82bb dc70 23bd
00000040: c9f4 233d 8e96 a63b c5ae e8bb bf0c 843d
00000050: 3e53 0e3c d8c8 533c 10cc a2bc a785 4d3c
00000060: 2e97 e43a bf59 00bc 7d9a 043d 3995 3dbd
00000070: df59 45bc 11f0 06ba 3b30 6f3c 4c6b a3bc

embedder.res_block.1.weight f4 [32, 32]
-0.028551117 0.08787235 0.03995363 -0.0778209 -0.09005507 -0.041277952 -0.20435986 -0.12382692
-0.04799145 -0.030968394 0.09370034 0.033907283 0.11386676 -0.19727792 0.095861144 -0.03693738
-0.029791333 0.046261765 0.065320276 0.033071227 -0.041647274 -0.04832561 -0.05687856 -0.19689596
-0.23778804 0.05537999 0.047218066 -0.09954105 0.07573719 0.09205059 0.17770939 -0.18816282
-0.13249592 -0.06281304 0.09814433 -0.024217602 0.037490763 0.017251829 0.06434463 0.22609754
0.12327534 0.17311145 -0.16963036 0.11871668 0.17112553 0.09582325 0.22214995 -0.0052440763
-0.20810294 0.18379416 0.1340748 0.111299604 0.025334297 0.21426925 -0.13779375 -0.123349726
0.07555356 -0.04679063 -0.13922466 -0.107569605 -0.024835061 0.010956417 -0.13660912 0.09630959
0.09038383 0.016103769 -0.116982855 -0.10403957 0.16222067 -0.033356085 -0.050637603 0.091713324
0.023286663 -0.131353 -0.07901578 0.019771453 0.014393977 -0.010111706 0.058263425 0.022386225
-0.002875002 -0.17177546 -0.076552264 0.21450153 -0.05976514 0.09252922 -0.0029716657 0.012231907
-0.021906318 -0.100256436 -0.06381355 0.047855943 -0.046532627 0.02469779 0.09065331 -0.004996476
0.054313716 0.04128707 -0.037913043 -0.055895325 -0.082845755 0.079568364 -0.13622288 -0.07897289
-0.14448895 -0.1512439 0.0070745815 0.14643732 -0.0034570752 -0.1618751 -0.048985094 0.15147269
-0.12125042 0.05438278 0.081987604 -0.07482863 0.17940739 0.02477093 -0.16305047 -0.06453277
0.148106 0.20987102 0.012747141 -0.077439226 0.023218572 0.1344681 -0.14472973 0.0020699082
0.2796813 -0.12878579 0.057925876 -0.1780363 0.11470183 -0.082158946 -0.07750633 0.15329555
0.08486173 0.00911369 0.06203623 0.09271115 -0.1073728 0.04969817 -0.14388664 -0.15841326
-0.038236227 0.059432607 0.18255895 -0.013758124 0.05608078 -0.035023987 -0.08411626 -0.023226077
0.0865465 -0.1510428 0.072983034 0.017857766 -0.17158121 -0.05026263 -0.025100736 0.14425549
-0.162978 0.020648632 -0.1956146 0.14810959 -0.12087098 0.14171383 -0.15308943 0.127287
0.0067570247 -0.09985262 0.17901811 -0.27852 -0.06339776 -0.10084687 0.25296557 -0.11141039
0.19135016 -0.40520644 0.049721174 0.21364097 -0.05008124 -0.30752906 0.044669252 -0.31451762
-0.3913312 0.29661942 0.13972135 -0.3855699 0.03983936 0.2381522 -0.11384286 -0.17076524
0.12654684 -0.097916394 -0.12559164 -0.2608143 -0.031562522 -0.07071543 -0.18058269 0.053897522
-0.01764639 -0.022454582 0.0025383278 -0.14984497 -0.07137971 0.15348843 0.2184756 -0.13035437
0.14695577 0.18143493 -0.053536773 0.056456216 -0.16088778 0.06176121 0.019281562 0.23357661
0.14838886 -0.010887764 -0.16122398 -0.016812058 0.0027315714 0.14825276 -0.10198902 0.12764071
-0.115274474 0.27605936 0.08434176 0.08683797 -0.1404662 0.05532559 0.09593769 -0.086672984
-0.03634572 0.15780097 0.17705137 0.03527519 0.048407584 0.10927127 0.117816105 -0.07335291
-0.15637966 -0.11856535 0.00067044987 0.06382698 0.116074234 -0.06383342 0.042193554 -0.08520957
-0.1170132 0.11070988 0.03383985 -0.1267315 -0.2137965 0.13637 0.08272784 0.043667752
00000000: 08e4 e9bc 6bf6 b33d 6ba6 233d 9060 9fbd
00000010: cb6e b8bd 1213 29bd b643 51be f898 fdbd
00000020: af92 44bd 6eb1 fdbc f7e5 bf3d 5de2 0a3d
00000030: fa32 e93d 3903 4abe d952 c43d a64b 17bd
00000040: f40c f4bc fa7c 3d3d a3c6 853d b275 073d
00000050: 5596 2abd 13f1 45bd 7ef9 68bd 189f 49be
00000060: b57e 73be 21d6 623d bb67 413d 2edc cbbd
00000070: 1a1c 9b3d 0585 bc3d 73f9 353e c1ad 40be
00000080: 03ad 07be 20a4 80bd e5ff c83d fe63 c6bc
00000090: ea8f 193d b553 8d3c 1ec7 833d 1d86 673e
000000a0: c877 fc3d 2144 313e 95b3 2dbe bb21 f33d
000000b0: 883b 2f3e fb3e c43d 477b 633e 80d6 abbb
000000c0: f018 55be 8934 3c3e e84a 093e 0cf1 e33d
000000d0: df89 cf3c 6669 5b3e ce19 0dbe c89e fcbd
000000e0: d3bb 9a3d 88a7 3fbd e990 0ebe 744d dcbd
000000f0: e672 cbbc 8b82 333c 43e3 0bbe f63d c53d
00000100: 281b b93d 0dec 833c b594 efbd b312 d5bd
00000110: 2d1d 263e 64a0 08bd 6069 4fbd 32d4 bb3d
00000120: acc3 be3c 6781 06be 06d3 a1bd bef7 a13c
00000130: b7d4 6b3c 92ab 25bc a1a5 6e3d 5163 b73c
00000140: 886a 3cbb e8e5 2fbe 6fc7 9cbd 4aa6 5b3e
00000150: 4bcc 74bd f67f bd3d 47c0 42bb 5668 483c
00000160: e174 b3bc 3f53 cdbd aeb0 82bd 9804 443d
00000170: ff98 3ebd 0553 ca3c 71a8 b93d 7bb9 a3bb
00000180: 0f78 5e3d a11c 293d b54a 1bbd 7ff2 64bd
00000190: 09ab a9bd bdf4 a23d 037e 0bbe 8abc a1bd
000001a0: e9f4 13be aedf 1abe e4d1 e73b aaf3 153e
000001b0: 1990 62bb 96c2 25be 98a4 48bd a81b 1b3e
000001c0: 2452 f8bd 7ac0 5e3d 1ee9 a73d c13f 99bd
000001d0: 92b6 373e 68ec ca3c b4f6 26be c229 84bd
000001e0: 19a9 173e 6ee8 563e 62d9 503c 7598 9ebd
000001f0: e034 be3c 01b2 093e 0834 14be 4ca7 073b
00000200: 6332 8f3e 6ce0 03be af43 6d3d 264f 36be
00000210: cbe8 ea3d f342 a8bd a4bb 9ebd 82f9 1c3e
00000220: fdcb ad3d 9651 153c b419 7e3d 58df bd3d
00000230: 45e6 dbbd 4f90 4b3d 0557 13be 1637 22be
00000240: 979d 1cbd 9b6f 733d bcf0 3a3e c169 61bc
00000250: f6b4 653d 5075 0fbd 2545 acbd 9d44 bebc
00000260: 4b3f b13d f7aa 1abe 2178 953d 734a 923c
00000270: fcb2 2fbe 30e0 4dbd 0fa0 cdbc b6b7 133e
00000280: b4e3 26be 5227 a93c 324f 48be 0aaa 173e
00000290: 348b f7bd 6e1d 113e 7ac3 1cbe 8657 023e
000002a0: 086a dd3b 887f ccbd 8650 373e 2c9a 8ebe
000002b0: afd6 81bd ce88 cebd b484 813e 212b e4bd
000002c0: 4cf1 433e 3877 cfbe 6ea8 4b3d b3c4 5a3e
000002d0: fc21 4dbd 7374 9dbe 1bf7 363d 7408 a1be
000002e0: 905c c8be 80de 973e 1d13 0f3e 6b69 c5be
000002f0: 992e 233d 2cde 733e 7226 e9bd 15dd 2ebe
00000300: 7f95 013e 6488 c8bd 189b 00be 7489 85be
00000310: b447 01bd 40d3 90bd abea 38be a6c3 5c3d
00000320: 298f 90bc acf2 b7bc 135a 263b f670 19be
00000330: 872f 92bd 122c 1d3e 11b8 5f3e 9e7b 05be
00000340: 937b 163e 14ca 393e 6049 5bbd a23e 673d
00000350: c4bf 24be 53f9 7c3d 5ef4 9d3c b52e 6f3e
00000360: 40f3 173e 9862 32bc e617 25be 71b9 89bc
00000370: 2a04 333b 92cf 173e 9fdf d0bd 3fb4 023e
00000380: 0615 ecbd a757 8d3e 5fbb ac3d 1bd8 b13d
00000390: 5fd6 0fbe 169d 623d fb7a c43d 9b81 b1bd
000003a0: 40df 14bd 9496 213e f44c 353e b87c 103d
000003b0: 0847 463d 9ec9 df3d 9249 f13d 0d3a 96bd
000003c0: fd21 20be 64d2 f2bd 21c1 2f3a b8b7 823d
000003d0: 54b8 ed3d 19bb 82bd 26d3 2c3d 5b82 aebd
000003e0: 9ea4 efbd ddbb e23d a89b 0a3d e7c5 01be
000003f0: 78ed 5abe 94a4 0b3e 376d a93d f5dc 323d

embedder.res_block.1.bias f4 [32]
0.120747775 -0.0016989191 0.024234438 -0.10429494 0.033475444 -0.05496168 0.1466921 -0.11084293
-0.07041027 -0.064962655 0.048990395 -0.03588278 0.14479469 -0.028997721 0.17846957 0.010603745
0.0043764315 0.031194149 -0.049123384 -0.060650326 -0.056279965 0.013481098 -0.082251124 -0.06272833
0.14135791 0.16999282 -0.16928406 -0.118661135 0.15075101 -0.17230159 0.15391304 0.029297426
00000000: 9c4a f73d 44ae deba 4d87 c63c 9698 d5bd
00000010: 8c1d 093d 801f 61bd 7436 163e 9e01 e3bd
00000020: 4233 90bd 240b 85bd 27aa 483d d2f9 12bd
00000030: 0f45 143e a18c edbc bac0 363e 54bb 2d3c
00000040: 2b68 8f3b df8a ff3c 9a35 49bd 7a6c 78bd
00000050: d285 66bd d3df 5c3c 4773 a8bd b677 80bd
00000060: 21c0 103e 9912 2e3e cd58 2dbe 9c04 f3bd
00000070: 795e 1a3e d46f 30be 619b 1d3e 2801 f03c

embedder.res_block.3.weight f4 [32, 32]
0.017851405 -0.08447398 -0.11676142 0.098672874 0.024991872 0.05531946 0.17035316 -0.1354346
0.04313473 -0.10027532 0.092595994 0.13747661 0.01947227 0.0056099826 0.15645133 0.0076282895
-0.08504091 0.058768336 -0.13942285 0.13872583 -0.024229987 0.07112779 -0.15192644 0.10030314
0.008130471 0.1935702 0.13330267 0.051134843 0.1440765 0.1112468 -0.020511633 -0.054499395
0.07287166 0.039472368 -0.13841009 0.105364844 -0.011197547 0.1340879 -0.17530625 0.045614954
-0.10829844 -0.021090655 -0.013172969 -0.020395614 0.12969345 0.07724199 0.04740716 -0.10384466
0.17520739 -0.04318405 0.2429759 -0.056660157 -0.040475015 -0.049795862 -0.117280595 -0.14385214
0.118144624 0.14316261 -0.08866163 0.119977355 0.082200944 0.076363035 0.22163354 -0.14685163
0.21094216 0.18019472 -0.12818027 0.1905591 -0.156542 0.025915312 0.11485007 0.08696309
0.16701245 -0.077641636 0.058537673 -0.13458204 0.008086012 0.03355258 -0.14893378 -0.06911511
0.10352678 0.040209267 -0.07776449 -0.09333157 0.13218305 0.051210895 0.14077774 -0.19192907
0.16555767 -0.14571495 -0.03604991 0.1478436 0.14407071 -0.046868794 -0.09842892 0.13636857
0.103866875 -0.038123354 0.03940156 0.10906435 0.10547015 -0.14879067 -0.13829291 -0.075003244
-0.23301092 0.15924229 -0.07063364 0.24807154 -0.24721406 -0.053089134 0.1798025 -0.078003064
0.17670016 -0.07655516 -0.15468703 -0.022296496 -0.19779472 0.13819137 0.14855506 0.10113863
0.113692105 0.20236045 -0.16845153 0.10992893 0.0048435368 -0.038890745 0.3528479 -0.1702142
0.12719233 -0.23857385 -0.04259826 -0.0046866485 -0.26208916 0.24368873 -0.18950668 -0.08364754
-0.20695087 -0.17459892 0.046513915 0.15842201 0.11356083 0.10530851 -0.06265524 0.05467403
-0.16584061 -0.081737414 -0.04507363 -0.116407335 0.03903759 -0.19023894 0.1648678 0.1488136
-0.09803194 0.012030497 0.018193662 -0.18035626 -0.079756826 0.012519986 0.2320279 -0.117003806
0.09741802 -0.16090502 0.010802874 -0.085776046 -0.012420016 -0.19277023 -0.06357608 0.0054804306
-0.06460683 -0.11444648 0.014221928 -0.09610231 -0.076403305 0.111795254 0.088955924 -0.09934501
0.004677613 0.06452535 0.15442123 0.008142777 -0.1119404 -0.022235617 0.09861967 -0.12219238
0.057743367 0.0034341838 0.06470307 -0.08407804 -0.16514502 0.049465626 -0.23343399 0.050146908
-0.06282184 -0.24385394 -0.12420471 0.076098345 0.13870192 0.49684963 0.08919035 -0.03602353
0.012347861 0.011271949 0.067074746 0.14649883 0.07546391 -0.05284416 -0.1534654 0.08941644
0.08696465 -0.1012403 0.38642585 -0.14177383 -0.16712649 -0.06478144 0.12541845 -0.17336273
-0.21372508 -0.15184283 -0.11197428 -0.06774788 -0.06443303 -0.031829596 0.09064439 0.05957008
-0.09125807 -0.076252915 0.13911797 0.1126033 -0.087379016 -0.2920054 0.16022319 -0.04823785
0.21890563 -0.06673946 -0.028344644 0.061213825 -0.06933197 0.20600381 0.0832881 0.07033905
0.05283682 0.015237938 -0.02510692 -0.17535108 -0.045852784 -0.17457052 0.042514805 0.14853987
-0.030180605 -0.08007139 0.017831506 0.11502895 -0.17220825 0.047014005 0.20664933 0.18575265
00000000: 1c3d 923c b200 adbd 9d20 efbd 0115 ca3d
00000010: c1bb cc3c a896 623d 0f71 2e3e 5eaf 0abe
00000020: 0bae 303d 265d cdbd f8a2 bd3d abc6 0c3e
00000030: 4f84 9f3c f2d3 b73b c734 203e bbf6 f93b
00000040: ee29 aebd 11b7 703d ddc4 0ebe 250e 0e3e
00000050: f77d c6bc 72ab 913d 9b92 1bbe bc6b cd3d
00000060: ab35 053c 4437 463e 7f80 083e c572 513d
00000070: ca88 133e 5dd5 e33d 0308 a8bc c23a 5fbd
00000080: bd3d 953d c7ad 213d 60bb 0dbe 86c9 d73d
00000090: eb75 37bc 574e 093e 7b83 33be bfd6 3a3d
000000a0: 93cb ddbd 4fc6 acbc 70d3 57bc b414 a7bc
000000b0: 5cce 043e 0c31 9e3d 032e 423d 82ac d4bd
000000c0: 9169 333e c2e1 30bd adce 783e 7b14 68bd
000000d0: 21c9 25bd bff6 4bbd cf30 f0bd fa4d 13be
000000e0: cff5 f13d 3899 123e 3b94 b5bd b0b6 f53d
000000f0: f858 a83d 3964 9c3d e7f3 623e 4660 16be
00000100: 3901 583e f784 383e b041 03be ed21 433e
00000110: 8c4c 20be 594c d43c 8336 eb3d b419 b23d
00000120: 5005 2b3e 9402 9fbd 33c5 6f3d e0cf 09be
00000130: 317b 043c 6e6e 093d 1982 18be 398c 8dbd
00000140: d905 d43d 79b2 243d fd42 9fbd 9f24 bfbd
00000150: fe5a 073e 84c2 513d 0a28 103e 0e89 44be
00000160: f387 293e 4d36 15be 12a9 13bd 5064 173e
00000170: 4687 133e 7ef9 3fbd 1a95 c9bd 34a4 0b3e
00000180: 28b8 d43d 3c27 1cbd 8863 213d 215d df3d
00000190: bc00 d83d 955c 18be a89c 0dbe 4d9b 99bd
000001a0: 6a9a 6ebe 6910 233e 5fa8 90bd 7706 7e3e
000001b0: af25 7dbe fe73 59bd 261e 383e 12c0 9fbd
000001c0: e3f0 343e f4c8 9cbd 4766 1ebe 24a7 b6bc
000001d0: b38a 4abe 0a82 0d3e d11e 183e c521 cf3d
000001e0: 68d7 e83d 9437 4f3e 8f7e 2cbe 6b22 e13d
000001f0: 88b6 9e3b e74b 1fbd 7ba8 b43e a24c 2ebe
00000200: b53e 023e b44c 74be 837b 2ebd 7592 99bb
00000210: 8d30 86be 8a89 793e 0a0e 42be 674f abbd
00000220: eeea 53be 0fca 32be 6085 3e3d 6139 223e
00000230: 9592 e83d fdab d73d 6451 80bd e0f1 5f3d
00000240: 1fd2 29be f265 a7bd 209f 38bd f866 eebd
00000250: e1e5 1f3d ffcd 42be 1bd3 283e 9862 183e
00000260: f8c4 c8bd 901b 453c e00a 953c 50af 38be
00000270: 8c57 a3bd a120 4d3c b998 6d3e b19f efbd
00000280: 1983 c73d 49c4 24be 8afe 303c 5aab afbd
00000290: 537d 4bbc 8f65 45be 2d34 82bd 2f95 b33b
000002a0: 9650 84bd eb62 eabd 1703 693c 4ad1 c4bd
000002b0: 5679 9cbd e9f4 e43d 862e b63d 6675 cbbd
000002c0: a946 993b de25 843d 9920 1e3e 4869 053c
000002d0: 0241 e5bd 7827 b6bc 1cf9 c93d 0040 fabd
000002e0: 4f84 6c3d 0b10 613b 0b83 843d 1c31 acbd
000002f0: c71b 29be 789c 4a3d 5209 6fbe d866 4d3d
00000300: bda8 80bd d9b4 79be 0a5f febd 73d9 9b3d
00000310: e007 0e3e 1363 fe3e 6ea9 b63d 698d 13bd
00000320: af4e 4a3c fbad 383c 7c5e 893d ca03 163e
00000330: d38c 9a3d 1e73 58bd 0926 1dbe f71f b73d
00000340: 861a b23d 1357 cfbd 9cd9 c53e 292d 11be
00000350: 3523 2bbe 22ac 84bd b26d 003e 0086 31be
00000360: bfda 5abe b07c 1bbe c552 e5bd 67bf 8abd
00000370: 77f5 83bd c05f 02bd c4a3 b93d c2ff 733d
00000380: 83e5 babd 7d2a 9cbd f174 0e3e 8f9c e63d
00000390: c5f3 b2bd bb81 95be 8c11 243e 0d95 45bd
000003a0: cc28 603e b3ae 88bd 0733 e8bc 59bb 7a3d
000003b0: ebfd 8dbd aaf2 523e f492 aa3d eb0d 903d
000003c0: 6c6b 583d 8ba8 793c 07ad cdbc 3c8f 33be
000003d0: 21d0 3bbd 9dc2 32be 0124 2e3d d61a 183e
000003e0: 513d f7bc 78fc a3bd 6113 923c 4c94 eb3d
000003f0: 5c57 30be c291 403d e29b 533e f135 3e3e

embedder.res_block.3.bias f4 [32]
-0.042284075 -0.10854492 0.09123901 0.12648945 0.06617227 0.20263757 -0.03384103 0.11758609
-0.04775046 -0.009459434 -0.17179377 0.039544903 -0.1057431 0.15421057 0.029739358 -0.068073995
0.0012619332 0.08551163 0.096140005 -0.012006237 0.05465262 0.097191095 0.15573467 -0.08462746
-0.028443 -0.025240436 0.020973334 -0.059254207 0.041509703 0.016298564 -0.039703675 0.112797104
00000000: 1132 2dbd cd4c debd 85db ba3d 7386 013e
00000010: 5485 873d 3980 4f3e e49c 0abd fad0 f03d
00000020: fd95 43bd befb 1abc b5ea 2fbe d6f9 213d
00000030: d78f d8bd 60e9 1d3e f49f f33c 616a 8bbd
00000040: 7467 a53a b920 af3d 0de5 c43d cfb5 44bc
00000050: 6ddb 5f3d 200c c73d e978 1f3e 2951 adbd
00000060: 4b01 e9bc 08c5 cebc 45d0 ab3c 8ab4 72bd
00000070: 1406 2a3d 9184 853c 52a0 22bd 2b02 e73d

cnn_blocks.0.proj_in.weight f4 [16, 32]
0.040241294 -0.09138224 0.00048527168 0.035760477 0.03063686 -0.0031659089 0.01680404 0.19070637
-0.16534907 -0.001472858 0.064312756 -0.020095196 -0.10227246 0.06233051 -0.014495682 -0.010733668
-0.023588207 0.17493205 0.119831584 0.07258404 -0.06429767 -0.016388277 -0.08799328 0.15849769
-0.039049417 -0.12247401 -0.19975175 -0.08590375 -0.12414128 -0.052008267 -0.15156236 -0.1937694
0.08971919 0.005625285 0.012037498 -0.21082807 -0.047312386 0.099019475 0.11263487 0.12185967
-0.05106208 -0.048902046 0.20707257 -0.07119411 0.09387425 0.06532826 -0.11268701 0.17856319
0.13003337 -0.18307175 -0.113256805 0.043912068 -0.14541624 -0.07348201 0.0015591367 -0.022765463
0.13667348 0.0889089 -0.13750657 -0.23752533 -0.073739775 -0.041798577 -0.020165734 0.16164355
0.03654433 0.03489326 0.034782313 -0.080103315 0.17551358 -0.004188303 0.047118764 0.078061074
-0.020143349 0.051094424 0.012190558 -0.0014638021 0.12645893 -0.1447191 -0.16488598 0.060855318
0.06569976 0.056461766 -0.06239566 0.027713673 -0.16843073 0.16267617 -0.13557713 0.06422938
0.023285199 -0.051820412 -0.14019194 0.07808482 -0.0048568593 -0.13638656 -0.009322398 -0.12413714
-0.008431765 0.09204048 0.23792855 0.16545394 0.106223695 -0.025545195 0.04904406 -0.10303252
0.1469212 -0.18416996 -0.034789912 -0.111756295 0.11161677 0.122558884 -0.06598529 0.005645414
-0.08702319 -0.017640896 -0.022712553 0.08279906 -0.08637903 -0.042460866 0.05465801 -0.03508201
-0.108358875 -0.090962395 -0.058171004 0.16755359 0.03062988 -0.06554256 -0.03642602 -0.11720446
-0.15014175 -0.065132916 0.27037814 -0.008011018 0.21363819 0.09146894 0.10631004 -0.057580616
-0.07498967 -0.0047468618 -0.16383347 -0.006949091 0.1979912 -0.07644675 0.024442008 -0.052411996
-0.17361599 0.13083896 -0.045665607 0.15863892 -0.0038776195 -0.06419327 0.01219734 -0.106594175
-0.038760524 0.04348943 -0.18534642 0.035455115 -9.895315e-05 -0.15148777 -0.07319909 0.19792616
-0.15684879 0.17604223 0.028159844 0.11306468 0.012669158 -0.08010717 0.17865303 0.122924455
0.04541526 0.14108208 0.02499564 -0.10345032 0.032552194 0.05316046 -0.06544571 -0.14566606
-0.102648534 0.11565718 0.121877186 0.009685473 0.16405444 -0.00298618 -0.08409676 -0.02514226
-0.088714086 0.10480735 -0.15079838 -0.13498119 -0.027631663 -0.07416569 -0.11512239 -0.1885067
0.110542566 -0.12156628 0.10807784 -0.07791583 0.1291788 0.18203753 0.07524219 -0.15173352
0.0063934596 0.15165131 0.107463576 -0.12777811 0.0020278087 0.060616527 0.026045492 -0.061180815
-0.21303715 -0.17234927 -0.016356915 0.04742729 0.0728588 -0.09786372 0.14581256 -0.09929522
0.18840241 -0.08902258 -0.117358044 0.052490998 0.14439201 -0.049032453 -0.14104092 0.124145485
0.07324062 -0.13141021 0.13800894 0.004966524 -0.046727523 -0.034263417 0.11208589 0.18040773
-0.14336246 0.1571091 0.06332169 -0.1684242 -0.008952849 0.022941153 0.02477608 0.06258141
0.096797355 -0.23992895 -0.19529076 -0.048382323 0.13743924 -0.08413355 0.016413629 0.043185137
-0.046470575 -0.102173075 -0.069876 -0.023650011 0.0391853 0.14224161 0.11621071 -0.026923763
00000000: 0ed4 243d 9d26 bbbd 106c fe39 9479 123d
00000010: 27fa fa3c 237b 4fbb a0a8 893c 8848 433e
00000020: 4451 29be ea0c c1ba 68b6 833d ae9e a4bc
00000030: 3974 d1bd 474e 7f3d 4c7f 6dbc 44dc 2fbc
00000040: 0e3c c1bc 6321 333e 436a f53d f1a6 943d
00000050: 7fae 83bd b540 86bc d235 b4bd 384d 223e
00000060: 48f2 1fbd a7d3 fabd b98b 4cbe 4eee afbd
00000070: c93d febd 9f06 55bd 2a33 1bbe 7c6b 46be
00000080: b2be b73d 5054 b83b ed38 453c 50e3 57be
00000090: a2ca 41bd b9ca ca3d 1cad e63d 9091 f93d
000000a0: 7926 51bd 834d 48bd d50a 543e 38ce 91bd
000000b0: 2541 c03d d3ca 853d 72c8 e6bd 45d9 363e
000000c0: 7827 053e 2977 3bbe 2ff3 e7bd 24dd 333d
000000d0: ffe7 14be bc7d 96bd f25b cc3a a37e babc
000000e0: 22f4 0b3e df15 b63d 86ce 0cbe d739 73be
000000f0: e104 97bd fc34 2bbd 9c32 a5bc e385 253e
00000100: 82af 153d 3cec 0e3d e677 0e3d 350d a4bd
00000110: d5b9 333e 083e 89bb 9bff 403d 7cde 9f3d
00000120: aa03 a5bc 6348 513d e8ba 473c 0cdd bfba
00000130: 737e 013e 3e31 14be dfd7 28be 6d43 793d
00000140: 998d 863d 7444 673d 9792 7fbd c907 e33c
00000150: 1b79 2cbe 9594 263e bbd4 0abe b18a 833d
00000160: 9ac0 be3c a441 54bd 7a8e 0fbe efea 9f3d
00000170: 4a26 9fbb eba8 0bbe f9bc 18bc 9d3b febd
00000180: 6325 0abc b87f bc3d 8ba3 733e c26c 293e
00000190: cf8b d93d 2844 d1bc 6de2 483d b702 d3bd
000001a0: 8372 163e 0d97 3cbe de7f 0ebd 7ce0 e4bd
000001b0: 5597 e43d 2700 fb3d 4c23 87bd 2afd b83b
000001c0: 3739 b2bd a483 90bc ad0f babc 8e92 a93d
000001d0: 7de7 b0bd 72eb 2dbd 14e1 5f3d 27b2 0fbd
000001e0: 42eb ddbd 7e4a babd b844 6ebd 2b93 2b3e
000001f0: 84eb fa3c 2d3b 86bd 7333 15bd e408 f0bd
00000200: c2be 19be 6864 85bd 016f 8a3e a540 03bc
00000210: f8c3 5a3e 1154 bb3d 14b9 d93d a7d9 6bbd
00000220: 2f94 99bd 908b 9bbb f6c3 27be 33b5 e3bb
00000230: 35be 4a3e 1d90 9cbd 9b3a c83c f6ad 56bd
00000240: 64c8 31be a6fa 053e dc0b 3bbd 3e72 223e
00000250: a91f 7ebb c377 83bd 5ad7 473c 0c4e dabd
00000260: 5bc3 1ebd f921 323d 74cb 3dbe 6239 113d
00000270: 1185 cfb8 9c1f 1bbe 68e9 95bd 28ad 4a3e
00000280: f89c 20be 6a44 343e 79af e63c 748e e73d
00000290: 4d92 4f3c 3a0f a4bd d2f0 363e d1bf fb3d
000002a0: 5a05 3a3d d277 103e a8c3 cc3c c3dd d3bd
000002b0: 7355 053d c8be 593d 6708 86bd 7c29 15be
000002c0: 6539 d2bd acdd ec3d bf9a f93d d1af 1e3c
000002d0: e3fd 273e c9b3 43bb ec3a acbd 24f7 cdbc
000002e0: bbaf b5bd 3ca5 d63d e46a 1abe 8238 0abe
000002f0: cc5b e2bc 2ee4 97bd 4ac5 ebbd e607 41be
00000300: 2464 e23d bef7 f8bd ea57 dd3d 5692 9fbd
00000310: 7347 043e 0c68 3a3e 9418 9a3d 0860 1bbe
00000320: 3a80 d13b 7b4a 1b3e dd15 dc3d 44d8 02be
00000330: fce4 043b 0949 783d 5b5d d53c bc98 7abd
00000340: 6926 5abe 547c 30be f0fe 85bc 1e43 423d
00000350: ff36 953d c66c c8bd e34f 153e 4b5b cbbd
00000360: 90ec 403e 7851 b6bd 6a59 f0bd cd00 573d
00000370: 80db 133e 41d6 48bd 086d 10be fd3f fe3d
00000380: 2eff 953d 6690 06be 3752 0d3e 39be a23b
00000390: 5c65 3fbd cc57 0cbd 498d e53d cebc 383e
000003a0: 9ccd 12be 35e1 203e cdae 813d 6577 2cbe
000003b0: f8ae 12bc 16ef bb3c 35f7 ca3c af2a 803d
000003c0: b13d c63d efaf 75be 4dfa 47be 8b2c 46bd
000003d0: dfbc 0c3e 364e acbd e075 863c e6e2 303d
000003e0: ee57 3ebd 1e40 d1bd 261b 8fbd abbd c1bc
000003f0: c480 203d c9a7 113e e1ff ed3d 398f dcbc

cnn_blocks.0.proj_in.bias f4 [16]
0.10974362 -0.14277296 -0.12434764 -0.014243968 0.0031936597 -0.13637458 -0.15609391 -0.06198602
-0.10639177 0.1886214 -0.06084904 -0.08791942 -0.05883767 0.021533234 -0.09537603 0.16871437
00000000: 43c1 e03d 1333 12be faa9 febd 885f 69bc
00000010: b84c 513b c7a5 0bbe 15d7 1fbe 0ee5 7dbd
00000020: eee3 d9bd f825 413e d83c 79bd 190f b4bd
00000030: c5ff 70bd 7766 b03c 8254 c3bd 76c3 2c3e

cnn_blocks.0.convs.0.weight f4 [16, 16, 3, 3]
-0.027586222 -0.063815504 -0.07031504 -0.1796804 -0.03816529 -0.030269522 -0.024089387 0.05201718
0.1581049 -0.08246825 -0.007355141 0.0336852 -0.10253296 0.05853332 -0.108482935 -0.071564265
-0.00891611 -0.054257333 -0.019584222 0.040609922 0.13516477 0.08044844 0.056626577 -0.008144186
-0.026528398 -0.018355967 -0.0046153963 0.02180492 0.005146578 0.13973047 0.047653377 0.004532413
0.0023912394 0.14142492 -0.07846371 0.11526084 -0.089171216 -0.007940608 -0.098793715 0.070935935
-0.043888718 -0.11712276 0.07088238 -0.031994212 0.119890705 0.06973916 0.051341686 -0.0071458225
-0.018186431 0.027040597 0.03524848 -0.07575155 0.13579562 0.0684848 -0.048639953 0.023314498
-0.0037567758 -0.0118207885 0.103481226 -0.017291613 -0.021409485 -0.07817677 -0.062374037 0.03176305
-0.067289636 0.06985589 -0.088063315 0.043975182 0.032325104 -0.1018093 -0.012292497 -0.08439905
-0.030479291 0.0987427 -0.036037687 0.063806206 -0.04492972 0.029236855 0.08670911 -0.05986243
0.0558869 0.07985627 0.10547391 0.0789695 -0.00033346098 -0.08923743 -0.06016235 0.08904206
0.07976633 -0.054628976 0.08614027 0.044603705 -0.065771416 -0.006149376 -0.09859765 0.1485552
-0.01733847 -0.071983665 0.0821366 -0.047622334 -0.18840964 -0.039458506 -0.120794445 0.04073416
-0.045694605 -0.069453776 0.097624876 -0.020905076 -0.002522772 -0.04522838 0.047628004 -0.028421568
0.045560416 0.004757216 0.0057144905 -0.057040874 0.054183766 -0.002392795 -0.009500939 -0.10209178
0.038285635 -0.07321499 0.1618859 0.01104152 0.06964641 0.05684031 -0.07541042 0.05250767
-0.11845601 -0.019396722 0.1844565 -0.017436242 0.08519743 -0.031971447 -0.08217407 -0.096774474
-0.04814782 0.0118404245 0.03093864 -0.13171627 0.160488 0.13753416 0.05070376 0.14003831
-0.04375732 -0.013187634 -0.032291826 -0.07601054 -0.0177206 0.025895895 -0.036534186 -0.03740523
0.037110347 0.028687933 -0.022600211 -0.08197906 -0.08021226 0.009224956 0.0027232498 0.00500967
-0.13286234 0.07794108 -0.063032046 -0.07206912 0.03050095 0.04724799 0.06832347 0.12691532
0.0369911 -0.16448152 0.021198979 0.11435879 0.07351063 -0.020537455 -0.078002445 0.03341393
0.13354206 -0.06997088 -0.031257514 0.09005799 0.11207346 0.20581955 -0.030955521 0.07993905
0.025622291 0.027248962 -0.077787876 -0.008122292 0.0013580396 -0.029368035 0.0049962597 0.011363372
0.053251985 -0.11370748 -0.058775138 0.058372933 -0.038512945 -0.12608448 -0.029027183 -0.087406136
-0.101053156 -0.025471615 0.06470785 0.015169201 -0.07355832 0.013834738 -0.044249248 -0.07276223
-0.031264503 -0.038771506 0.030187745 0.0869868 -0.124522254 -0.006684016 0.025646899 -0.108536914
0.020379536 -0.004623453 -0.0926394 0.033521175 -0.07354536 -0.060071915 0.029586384 0.03956542
-0.089443095 -0.00522692 0.13677824 -0.017490191 0.05225233 0.060083516 0.1361675 0.03923989
-0.0027871535 0.004405627 -0.025506467 0.08828316 0.07533544 -0.015330408 -0.1197539 0.010867921
0.020888496 -0.08869795 -0.006664774 0.040531233 -0.06021994 0.10108924 0.09135557 0.18586567
0.042256713 -0.0035260932 0.055231854 0.012743298 -0.018666664 -0.088278726 -0.13515958 -0.0021229994
00000000: 80fc e1bc b4b1 82bd 5501 90bd 24fe 37be
00000010: 3553 1cbd caf7 f7bc 1b57 c5bc f70f 553d
00000020: 40e6 213e 1de5 a8bd 6503 f1bb 7ef9 093d
00000030: cdfc d1bd a2c0 6f3d 4d2c debd 4990 92bd
00000040: e014 12bc f03c 5ebd 176f a0bc 9756 263d
00000050: a268 0a3e 27c2 a43d 45f1 673d 316f 05bc
00000060: 1552 d9bc 415f 96bc c03c 97bb 3ba0 b23c
00000070: a0a4 a83b 8115 0f3e 3030 433d a384 943b
00000080: 57b6 1c3b b2d1 103e 95b1 a0bd e00d ec3d
00000090: 669f b6bd 5319 02bc 5c54 cabd dc46 913d
000000a0: a8c4 33bd 0fde efbd c82a 913d 5d0c 03bd
000000b0: 4289 f53d 68d3 8e3d a94b 523d 8127 eabb
000000c0: b6fb 94bc 3e84 dd3c b660 103d a123 9bbd
000000d0: 020e 0b3e c241 8c3d b03a 47bd 0cfe be3c
000000e0: 3d34 76bb fbab 41bc f7ed d33d 24a7 8dbc
000000f0: f262 afbc 241b a0bd eb7b 7fbd f919 023d
00000100: 26cf 89bd 9b10 8f3d 8a5a b4bd 521f 343d
00000110: 5467 043d 6581 d0bd 7866 49bc 69d9 acbd
00000120: b5af f9bc 9d39 ca3d 419c 13bd d4ac 823d
00000130: 3a08 38bd 2182 ef3c 8c94 b13d 4f32 75bd
00000140: a9e9 643d af8b a33d b502 d83d c3ba a13d
00000150: 60d4 aeb9 1dc2 b6bd cc6c 76bd af5b b63d
00000160: 885c a33d a2c2 5fbd 4f6a b03d 60b2 363d
00000170: 2ab3 86bd b480 c9bb 91ed c9bd db1e 183e
00000180: 6809 8ebc 2c6c 93bd 3c37 a83d a30f 43bd
00000190: 75ee 40be 3e9f 21bd 1463 f7bd ddd8 263d
000001a0: 442a 3bbd c83d 8ebd 8def c73d 1f41 abbc
000001b0: 1755 25bb 6541 39bd 9515 433d 59d4 e8bc
000001c0: 8f9d 3a3d 6ce2 9b3b 9f40 bb3b b1a3 69bd
000001d0: ccef 5d3d 70d0 1cbb d4a9 1bbc 7f15 d1bd
000001e0: 66d1 1c3d bef1 95bd 6bc5 253e 7ee7 343c
000001f0: c7a2 8e3d 63d1 683d c770 9abd 4812 573d
00000200: 1199 f2bd e0e5 9ebc 2ae2 3c3e 73d6 8ebc
00000210: fd7b ae3d 7ef4 02bd e14a a8bd b231 c6bd
00000220: a636 45bd 57fe 413c 0873 fd3c a1e0 06be
00000230: f756 243e c1d5 0c3e bfae 4f3d 3466 0f3e
00000240: e03a 33bd f210 58bc 6f44 04bd 6aab 9bbd
00000250: cb2a 91bc a123 d43c dfa4 15bd 3a36 19bd
00000260: 0501 183d f502 eb3c 1424 b9bc a3e4 a7bd
00000270: 5346 a4bd 4524 173c 8d78 323b 2828 a43b
00000280: 110d 08be 939f 9f3d f216 81bd fa98 93bd
00000290: 21dd f93c 1c87 413d 2ded 8b3d 17f6 013e
000002a0: fb83 173d d86d 28be 7ba9 ad3c f134 ea3d
000002b0: be8c 963d 2a3e a8bc bfbf 9fbd 0cdd 083d
000002c0: 40bf 083e e54c 8fbd e107 00bd 5370 b83d
000002d0: c586 e53d 5cc2 523e 6f96 fdbc 16b7 a33d
000002e0: d7e5 d13c 3739 df3c 404f 9fbd 5d13 05bc
000002f0: 3f00 b23a 3c95 f0bc aab7 a33b 702d 3a3c
00000300: c11e 5a3d 78df e8bd 33be 70bd 7518 6f3d
00000310: c0bf 1dbd 4a1c 01be 6aca edbc fd01 b3bd
00000320: f5f4 cebd d9a9 d0bc 8d85 843d 3e88 783c
00000330: bfa5 96bd 19ab 623c b33e 35bd 5d04 95bd
00000340: 350f 00bd dfce 1ebd 4a4c f73c 2326 b23d
00000350: 8605 ffbd 9705 dbbb 7219 d23c 9a48 debd
00000360: fcf2 a63c 5680 97bb bab9 bdbd 804d 093d
00000370: f39e 96bd f80d 76bd 255f f23c 5a0f 223d
00000380: f12d b7bd 9546 abbb 980f 0c3e 9747 8fbc
00000390: 8a06 563d 221a 763d 7e6f 0b3e 02ba 203d
000003a0: ada8 36bb 145d 903b f0f2 d0bc cdcd b43d
000003b0: 7849 9a3d 642c 7bbc 8841 f5bd 5d0f 323c
000003c0: 5a1e ab3c 45a7 b5bd 2d64 dabb 1404 263d
000003d0: 2fa9 76bd e007 cf3d a118 bb3d 9253 3e3e
000003e0: 6015 2d3d 0716 67bb cc3a 623d 44c9 503c
000003f0: d5ea 98bc 7acb b4bd 4667 0abe 0522 0bbb

cnn_blocks.0.convs.0.bias f4 [16]
0.016723594 -0.036881447 -0.106528394 0.0691879 0.038191095 0.052306462 -0.049648657 0.024942527
-0.029519359 0.028317126 -0.06739715 -0.017238166 0.030229151 0.06279637 -0.038248643 0.081554025
00000000: ebff 883c 0011 17bd 8f2b dabd 63b2 8d3d
00000010: 446e 1c3d 4d3f 563d 645c 4bbd 4554 cc3c
00000020: 95d2 f1bc 51f9 e73c 8407 8abd 0e37 8dbc
00000030: 20a3 f73c 629b 803d 9caa 1cbd cc05 a73d

cnn_blocks.0.convs.1.weight f4 [16, 16, 3, 3]
0.039022002 -0.08398479 -0.07563297 0.046000015 0.042398278 0.06121872 -0.019713782 0.0101576615
0.031755097 -0.013499658 0.02795175 -0.00881817 0.0016966087 0.10842353 0.06901118 0.20263855
-0.12829058 0.12654524 0.2023694 -0.036720667 0.01796789 0.005747586 0.13140735 -0.08164545
0.07613992 -0.004708198 0.008303077 0.0476975 -0.089033715 0.0014156516 -0.065999374 -0.10728913
-0.012416854 0.05414752 0.12576877 0.043702584 0.054043844 0.13463672 0.06056768 -0.09038194
0.05062038 0.003790349 -0.04454393 -0.054714542 -0.008552491 -0.09638332 -0.06530408 0.102788046
0.03858912 0.06402243 0.08612351 0.09255867 0.03412091 0.07960174 0.09906307 0.049595926
0.06503381 0.05997218 0.17812291 0.06325143 -0.0495516 -0.011360424 -0.0133829275 0.033839963
-0.07448402 0.013361874 -0.06610927 0.0058929822 -0.044753067 -0.06622798 -0.04250528 0.07530798
0.05744278 0.0612787 -0.008078252 0.11902741 -0.086132996 0.092037804 -0.052217912 0.025535269
0.1302022 -0.04091009 0.11074408 -0.01653979 0.02152241 -0.04059766 0.022372209 -0.03042506
0.0007701336 0.05772456 -0.075150676 -0.04220578 -0.047957476 -0.0046362607 -0.09666321 0.044683866
-0.07106934 -0.07038498 -0.107914455 0.113911405 0.12288973 0.0635001 0.012147218 0.057528313
0.01304438 -0.035440434 0.04007535 0.13451205 -0.033740982 0.07213051 0.13529146 -0.06965285
0.012428347 0.023658495 0.0027427457 -0.02931198 0.039653033 0.036836263 0.09075818 0.041909456
0.10400008 -0.034254227 -0.05079378 0.12215672 0.015476525 -0.04319781 0.10000836 0.12186989
-0.057523806 0.09597648 0.03596077 0.051716637 -0.032085653 0.11321346 -0.040816795 -0.04981459
-0.013969952 -0.07687499 -0.026960365 -0.10336539 0.053411268 0.078480475 0.07393401 -0.0014139275
0.078473255 -0.036487993 -0.12967077 0.22312824 0.124033384 -0.12278731 -0.090739585 0.03131448
-0.034245435 -0.045041654 0.045759935 -0.10598773 -0.029530954 -0.031784542 -0.023181064 0.11645331
-0.041164488 0.08673654 0.11351494 -0.086826876 0.07837734 0.0335005 -0.062521674 -0.062282976
-0.014900566 -0.04448278 -0.03247961 -0.05178421 -0.03340886 0.012002488 0.025700176 -0.07334109
0.11020188 -0.009007671 -0.057482235 -0.043412186 0.10668256 0.11597488 0.030739188 -0.043355517
0.012477129 0.10772739 0.098250195 0.08825397 0.072087936 -0.08693891 -0.09036746 -0.007803035
-0.013859899 -0.02336467 0.020338966 -0.06766605 -0.09750291 -0.01692046 -0.16730388 -0.08766211
-0.12679757 -0.06844172 -0.03707501 0.010334204 -0.004433857 0.04550073 -0.028390573 0.005852602
-0.06221619 0.04899178 -0.007481856 -0.11471438 0.042859633 -0.05855752 0.022300743 0.1381154
0.05299128 -0.10740277 0.003404006 0.035291668 -0.05222303 -0.07457756 -0.14518833 0.042690262
-0.13527974 0.047292527 -0.045449995 -0.005669817 0.09121498 0.028806467 -0.0130860675 0.04919153
0.04378659 0.065647505 -0.06253374 -0.11188897 -0.038931083 -0.13545616 0.07920541 0.06871341
-0.07074675 0.08770863 0.020729065 0.050384093 0.05792552 0.04493353 -0.14083727 0.090804234
-0.013905151 0.05228482 -0.12931909 -0.043517325 0.098235615 -0.067814134 -0.0149761215 -0.067019686
00000000: 89d5 1f3d 3800 acbd 75e5 9abd 836a 3c3d
00000010: d1a9 2d3d 7bc0 7a3d cc7e a1bc 526c 263c
00000020: a211 023d ab2d 5dbc 12fb e43c 167a 10bc
00000030: be60 de3a 280d de3d bc55 8d3d 7b80 4f3e
00000040: 9b5e 03be 1395 013e ed39 4f3e 6968 16bd
00000050: 6531 933c 3f56 bc3b a68f 063e bb35 a7bd
00000060: 3fef 9b3d 3a47 9abb a109 083c 745e 433d
00000070: 4f57 b6bd 638d b93a ae2a 87bd 67ba dbbd
00000080: 0f70 4bbc cac9 5d3d 87c9 003e 7b01 333d
00000090: 145d 5d3d 35de 093e d115 783d 2b1a b9bd
000000a0: 5157 4f3d 8167 783b b273 36bd 5b1c 60bd
000000b0: bf1f 0cbc 9e64 c5bd 25be 85bd 8a82 d23d
000000c0: a00f 1e3d 311e 833d 8661 b03d 668f bd3d
000000d0: 5ec2 0b3d 3d06 a33d 94e1 ca3d 1925 4b3d
000000e0: 7230 853d 63a5 753d da65 363e f789 813d
000000f0: 9ef6 4abd 1221 3abc 1144 5bbc c69b 0a3d
00000100: 148b 98bd c3eb 5a3c 4c64 87bd eb19 c13b
00000110: fe4e 37bd 89a2 87bd 041a 2ebd 123b 9a3d
00000120: 1f49 6b3d 60ff 7a3d a55a 04bc a5c4 f33d
00000130: 7f66 b0bd 517e bc3d 73e2 55bd 572f d13c
00000140: ba53 053e 5791 27bd cbcd e23d 747e 87bc
00000150: c44f b03c bb49 26bd ec45 b73c fa3d f9bc
00000160: cbe2 493a 9770 6c3d 99e8 99bd f8df 2cbd
00000170: 0f6f 44bd c6eb 97bb 5cf7 c5bd 6e06 373d
00000180: cd8c 91bd 0026 90bd 4102 ddbd 624a e93d
00000190: 9cad fb3d 570c 823d 2005 473c cfa2 6b3d
000001a0: 18b8 553c fd29 11bd 0d26 243d 87bd 093e
000001b0: fc33 0abd 29b9 933d d889 0a3e 27a6 8ebd
000001c0: 44a0 4b3c 76cf c13c a3bf 333b ad1f f0bc
000001d0: 386b 223d 9fe1 163d 6ddf b93d 40a9 2b3d
000001e0: fefd d43d 294e 0cbd 230d 50bd 4d2d fa3d
000001f0: 4091 7d3c 30f0 30bd 2fd1 cc3d ec96 f93d
00000200: 159e 6bbd 518f c43d 9a4b 133d d3d4 533d
00000210: 3f6c 03bd 75dc e73d 832f 27bd 620a 4cbd
00000220: 3ae2 64bc a270 9dbd fcdb dcbc 3cb1 d3bd
00000230: c6c5 5a3d 5fba a03d b76a 973d 8953 b9ba
00000240: 96b6 a03d 6f74 15bd 6ac8 04be bb7b 643e
00000250: 3705 fe3d ea77 fbbd add5 b9bd 9d43 003d
00000260: f144 0cbd 997d 38bd c56e 3b3d 1810 d9bd
00000270: e6ea f1bc 8230 02bd 37e6 bdbc 137f ee3d
00000280: 189c 28bd eda2 b13d 857a e83d 4ad2 b1bd
00000290: 4d84 a03d d237 093d 5d0b 80bd 6f1c 7fbd
000002a0: 8121 74bc 9333 36bd 5709 05bd ae1b 54bd
000002b0: bbd7 08bd 15a6 443c 2d89 d23c da33 96bd
000002c0: 86b1 e13d e994 13bc 7e72 6bbd fad0 31bd
000002d0: 637c da3d 3d84 ed3d c0d0 fb3c 8e95 31bd
000002e0: df6c 4c3c 2ea0 dc3d 6637 c93d 7fbe b43d
000002f0: d7a2 933d 070d b2bd 9312 b9bd 9ab0 ffbb
00000300: a114 63bc 4467 bfbc e79d a63c 7f94 8abd
00000310: 9baf c7bd c79c 8abc b551 2bbe 3188 b3bd
00000320: 39d7 01be 2c2b 8cbd f7db 17bd cb50 293c
00000330: e349 91bb f95e 3a3d 5993 e8bc 2fc7 bf3b
00000340: 67d6 7ebd 9bab 483d 5b2a f5bb 5fef eabd
00000350: 958d 2f3d 03da 6fbd 0cb0 b63c 206e 0d3e
00000360: 620d 593d fcf5 dbbd be15 5f3b ff8d 103d
00000370: d1e7 55bd 1fbc 98bd 40ac 14be fcdb 2e3d
00000380: c686 0abe cfb5 413d c629 3abd dfc9 b9bb
00000390: ebce ba3d 8afb eb3c f266 56bc 0f7d 493d
000003a0: 9159 333d 3372 863d b111 80bd 0b26 e5bd
000003b0: 3376 1fbd 05b5 0abe 7236 a23d 9eb9 8c3d
000003c0: ace3 90bd 95a0 b33d 00d0 a93c 8d5f 4e3d
000003d0: 4f43 6d3d 390c 383d a537 10be 92f7 b93d
000003e0: 6ed2 63bc 9b28 563d 396c 04be 393f 32bd
000003f0: c12f c93d 23e2 8abd 685e 75bc 9e41 89bd

cnn_blocks.0.convs.1.bias f4 [16]
0.008784201 -0.041328523 -0.063994505 -0.05345486 0.008914889 0.0029647278 -0.028087296 -0.07307889
0.012188455 -0.085462146 0.041632216 0.04042994 0.03561737 0.0254965 -0.0010960625 -0.015394059
00000000: 9ceb 0f3c 1948 29bd 8d0f 83bd 7cf3 5abd
00000010: c10f 123c e14b 423b 5417 e6bc 63aa 95bd
00000020: 16b2 473c c706 afbd 8b86 2a3d dd99 253d
00000030: 85e3 113d 09de d03c c1a9 8fba 5d37 7cbc

cnn_blocks.0.norms.0.weight f4 [16]
0.93219084 1.0275731 0.92034334 0.9749422 1.0204942 0.9920759 1.0278563 0.95815605
0.9618625 1.0113901 0.95886576 0.9350905 1.0646484 0.9640734 1.0734063 1.0966495
00000000: 0fa4 6e3f 8487 833f 9f9b 6b3f d095 793f
00000010: 8e9f 823f b0f8 7d3f cc90 833f b749 753f
00000020: 9f3c 763f 3b75 813f 3a78 753f 1762 6f3f
00000030: 6646 883f 84cd 763f 6165 893f 035f 8c3f

cnn_blocks.0.norms.0.bias f4 [16]
-0.055695314 -0.18490244 -0.09772613 -0.00033195628 -0.08561958 -0.082585454 -0.09226361 -0.080397956
-0.07958039 -0.10437249 -0.16548216 -0.081416264 -0.047453195 -0.023205832 0.009330887 -0.10526094
00000000: c520 64bd 1157 3dbe a324 c8bd 6b0a aeb9
00000010: 5159 afbd 9022 a9bd b4f4 bcbd afa7 a4bd
00000020: 0bfb a2bd 3ec1 d5bd 2874 29be 92bd a6bd
00000030: 485e 42bd 281a bebc 94e0 183c 0c93 d7bd

cnn_blocks.0.norms.0.running_mean f4 [16]
-0.049644396 0.05516702 -0.03447005 0.042943332 0.23757851 -0.12181623 -0.27312875 -0.02737555
0.024888368 -0.0045993025 0.011873793 -0.061021082 -0.004850101 0.06724402 0.1618631 0.20838368
00000000: ec57 4bbd d0f6 613d 7830 0dbd 59e5 2f3d
00000010: c847 733e ca7a f9bd 88d7 8bbe b042 e0bc
00000020: b1e2 cb3c bfb5 96bb 4c8a 423c 3ef1 79bd
00000030: 99ed 9ebb 3cb7 893d 71bf 253e 8862 553e

cnn_blocks.0.norms.0.running_var f4 [16]
0.056814227 0.04253959 0.057366475 0.044361837 0.054298926 0.07077606 0.063225545 0.05954942
0.06445362 0.0583057 0.041614138 0.044192754 0.062284738 0.055823565 0.077764474 0.049127094
00000000: 09b6 683d fe3d 2e3d 1cf9 6a3d c2b4 353d
00000010: 8d68 5e3d 0af3 903d 657c 813d 18ea 733d
00000020: 4200 843d f5d1 6e3d 9673 2a3d 7603 353d
00000030: 481e 7f3d 40a7 643d fb42 9f3d 7e39 493d

cnn_blocks.0.norms.1.weight f4 [16]
1.0815319 1.0573448 1.1046852 1.1521322 1.0987867 1.0516274 1.0342466 1.1302705
1.0833708 1.0792505 1.0543791 1.1138589 1.0574411 1.0960836 1.1229832 1.0681918
00000000: a36f 8a3f 1357 873f 5366 8d3f 1179 933f
00000010: 0ba5 8c3f ba9b 863f 3162 843f b4ac 903f
00000020: e5ab 8a3f e124 8a3f e5f5 863f ee92 8e3f
00000030: 3b5a 873f 784c 8c3f eabd 8f3f 82ba 883f

cnn_blocks.0.norms.1.bias f4 [16]
-0.022711065 -0.09178295 0.003712959 -0.0037743608 -0.00013045594 -0.026793428 -0.036030684 -0.06334633
0.008475457 0.011171571 -0.06684596 -0.035475586 -0.07080738 -0.021786883 0.028141275 0.018111316
00000000: 8e0c babc b3f8 bbbd 1d55 733b 445b 77bb
00000010: 00cb 08b9 e47d dbbc e994 13bd b8bb 81bd
00000020: a5dc 0a3c f708 373c 89e6 88bd d94e 11bd
00000030: 7603 91bd 687a b2bc 8888 e63c 2f5e 943c

cnn_blocks.0.norms.1.running_mean f4 [16]
0.29599652 -0.09943765 -0.29044726 -0.10185608 0.24619906 0.06383292 0.13206488 0.0780409
0.063792326 0.13208659 0.023988537 0.087802395 0.33213428 0.16426127 -0.14263327 -0.22193637
00000000: db8c 973e f7a5 cbbd 81b5 94be ec99 d0bd
00000010: 9b1b 7c3e d5ba 823d 043c 073e e8d3 9f3d
00000020: 8da5 823d b541 073e 9c83 c43c bed1 b33d
00000030: 810d aa3e 1b34 283e 750e 12be 4a43 63be

cnn_blocks.0.norms.1.running_var f4 [16]
0.14355382 0.12629652 0.109639995 0.15193176 0.115912065 0.101521336 0.1509451 0.23127127
0.14358476 0.14478856 0.10999238 0.079487674 0.16013637 0.1549356 0.14966133 0.11435883
00000000: c6ff 123e e053 013e ef8a e03d 0094 1b3e
00000010: 4e63 ed3d 6bea cf3d 5a91 1a3e 60d2 6c3e
00000020: e207 133e 7443 143e af43 e13d 6fca a23d
00000030: cafa 233e 70a7 1e3e d240 193e f634 ea3d
