checkpoints/abl_fused_only/best_model.pt (torch, 256789 bytes, 142 tensors)

embedder.feature_projections.0.weight f4 [32, 1]
00000000: 186b 50bf 938b 29bf c810 6f3f 3f42 763e
00000010: 8d5e f53c 3b46 303e f2c1 0dbe dbee a93f
00000020: db2b 2bbf 5e76 0abe 1497 be3e 0595 81bf
00000030: 8b7b 0e3f 49de 3d3e 7745 01bf 8202 dcbe
00000040: 0014 9dbf bb3d ffbc 3cb8 0a3f 0b3e 9e3f
00000050: 14b3 8abe b99d 5dbf 91a7 753f da4e 2b3f
00000060: a9da 6ebf 3369 aa3e eb61 14bf 1add 9bbf
00000070: 1c2c 903f b66f 8c3f 6570 84bf eac8 66bf
-0.8141341 -0.662286 0.9338498 0.24048708 0.029952312 0.17214291 -0.13843516 1.3276018
-0.66863793 -0.13521716 0.37224638 -1.0123602 0.5565726 0.18541826 -0.5049662 -0.42970663
-1.2271729 -0.031157365 0.5418737 1.2362684 -0.2708975 -0.8656879 0.9595881 0.6691719
-0.933024 0.33283386 -0.5796191 -1.217685 1.1263461 1.0971591 -1.03468 -0.9015032

embedder.feature_projections.0.bias f4 [32]
00000000: c3a1 9dbd da09 17be 54c7 89bf 7e4a 073f
00000010: 10c1 bcbe 1fab d73e dee7 12bf 9413 7ebf
00000020: fbf3 3a3f 8864 03bf d8f7 c33d 8032 043f
00000030: 7466 f9be 24a4 663f a290 b33e 74af 5c3f
00000040: fa0e 65bf 21ca 37bf d29f 8cbe 8f9f 22bf
00000050: 38a0 afbe 1bb2 38bf 0cf2 c6be a6dd 0a3f
00000060: 1170 b13e bde4 1c3e 28d8 263f 46cd 0d3d
00000070: 8f08 923e 56a0 0fbf 2683 653f d8ad 553f
-0.07696869 -0.14749852 -1.0763955 0.5284804 -0.36866045 0.42122743 -0.5738505 -0.99248624
0.73028535 -0.51325274 0.09568757 0.51639557 -0.48710978 0.9009421 0.35071284 0.8620522
-0.8947598 -0.717928 -0.27465683 -0.6352472 -0.34301925 -0.7214677 -0.38856542 0.5424446
0.34655812 0.15321632 0.6517358 0.034619592 0.28522155 -0.5610403 0.8965324 0.8346839

embedder.feature_projections.1.weight f4 [32, 1]
00000000: ac5a 473f 5d3f 16be 66b4 1d3f c5dc d33c
00000010: cd4f bebe 0d66 9abe 4b7c 423f d5e1 5ebe
00000020: 3977 20bf 2e6a 073f bbc3 fb3d 17b0 9c3e
00000030: 88eb 92be 3760 a6be 7e30 12bf e637 573f
00000040: 146b 1c3d dec4 fd3d 7885 1abe e457 0d3f
00000050: 4791 13bf ac5d 47bf fcc9 2d3f 9871 6a3f
00000060: 2f17 073f 0e01 693f c23e b3be 4556 bb3e
00000070: fc84 1abf 008c 403f 141e 403f 41b4 ca3e
0.7787273 -0.14672609 0.6160339 0.025862107 -0.37170258 -0.30155984 0.75970906 -0.21765836
-0.6268192 0.5289639 0.12293192 0.30603096 -0.2869532 -0.3249528 -0.57105243 0.8406967
0.038188055 0.12391065 -0.15089977 0.55212235 -0.5764355 -0.77877307 0.6788633 0.9157958
0.5276975 0.91017234 -0.35008818 0.36589256 -0.6035917 0.75213623 0.75045896 0.39590648

embedder.feature_projections.1.bias f4 [32]
00000000: 483d 55bf dc7c 83be 2292 cc3e 4a34 1a3f
00000010: 3d16 0abf b973 f63e 2860 8dbc 1d01 093f
00000020: 68b7 873e 7e44 123f 9039 dabe b471 58bf
00000030: b55b 293e c6ca 2d3f 2d2f 183e f062 c7be
00000040: c891 023f 08db 1dbd 5de5 553e f731 1d3f
00000050: bd42 0dbf 5186 46bf de38 193f ce33 69be
00000060: 4421 6abf 981f 013f 737f 55bf b562 773f
00000070: df0c 203f 2044 243f 6a4c ef3e e9a3 6abb
-0.8329663 -0.25681198 0.3995524 0.60236037 -0.5394018 0.48135164 -0.017257765 0.53517324
0.26507115 0.5713576 -0.42622042 -0.845485 0.1653889 0.6788753 0.14861746 -0.3894267
0.51003695 -0.038538963 0.20888276 0.61404365 -0.5517996 -0.775487 0.598524 -0.22773668
-0.9145701 0.50438833 -0.833976 0.9663499 0.6251964 0.6416645 0.46737987 -0.0035803264

embedder.stabilizer_embedding.weight f4 [8, 32]
00000000: 1948 d63f 54b8 583e 47ff 0e40 dadd 873f
00000010: 8a86 debe 82d7 6fbe b151 843e 5ddf b2be
00000020: c5e6 4dbd 0aab a5be 1d1c d6bd 9b5e dfbc
00000030: a008 12bf 8687 cbbf e28a 8bbf 5fc8 5a3f
00000040: 767b 8c3f 9b8b 943e 5706 673f d6c6 a9bf
00000050: c8b5 00be 12bd 323f bf69 b53f a1ee 4f3f
00000060: 9ce7 ddbd 6b1d 99bf 623f b13f f6e9 843f
00000070: cd0f da3f 1d20 89be bc19 9b3e 2340 12bf
00000080: bc82 e4be ba40 f7be 4241 703e 31ee 9abf
00000090: 0cd7 92bf d658 bbbe 3dbb 2abf ba69 bc3e
000000a0: d7ad 393e a204 0dbf 461b b53f e883 fc3f
000000b0: 11f7 883e 1226 a53e eeb5 35bf 1d27 95be
000000c0: 98d0 df3f 001f 3abf 6b2a 60bf 6f1c 3c3f
000000d0: fa45 f7be 8cb1 4f3f d680 d63f 7861 98bf
000000e0: 0f06 1f40 bccc 243d 5edd 033f b98a a4bf
000000f0: 9835 0d3f bc9e dabe d7a4 19bf d3b8 ca3e
00000100: 7373 4a3e c594 acbd e1bf 303f 4d78 963d
00000110: 75ab 9d3f 34c7 513f c1c2 3f3f 5eef b93e
00000120: b69c 363f 5ce8 94bf 5121 0c3f a5da c23e
00000130: f458 aebc 59d6 1b3f 4864 303f d45a 68be
00000140: f338 5cbf 5b38 a23e c739 ae3f 1e0e 32bf
00000150: 5236 a2be bb84 5b3f 237b 90bf fb11 55be
00000160: d8ce 083f 1af0 b5bd 2718 11bf 2fd1 8abf
00000170: 7faf 9abf da45 bbbd 5dab b4bf 08d8 c3be
00000180: 5a60 cebf 4d1e a83f 916f 98be f28b 13c0
00000190: 2683 53bf e706 dfbe 38aa 773f 309a 14bf
000001a0: 4b69 1e40 f3ec 353f 50e8 5e3e 3034 a63e
000001b0: f0ba f13e ae20 443f 3015 1640 2928 72bf
000001c0: e992 ebbe a8d1 8e3e 3f4d a53e 4cb9 a7be
000001d0: d338 1940 e21b b2bd 6af4 febe 4d2d c4be
000001e0: 9bce 37bd a6c3 b4bd c264 00bf c04d c33e
000001f0: 8c09 433f f42a 12bf a7f7 0f3f e465 90bf
00000200: 8b95 2f3f 5a87 4240 59c0 203f f391 f9be
00000210: 3334 203d 7396 563f 58e7 09c0 e8e4 963e
00000220: 6f1f 013f c271 babe 1b35 c03e d479 b63d
00000230: 0b8e 96be 77c4 3f3f acba 2bbf 85bb f2bf
00000240: 9568 e23e e65b d7be c74d 343f c59d e0be
00000250: 6807 1cbf a05d f93d 727a 103f de1a 8a3e
00000260: 529e eebe 7aa4 f5bf f4a4 35bf 2224 b4bf
00000270: 5417 8c3f 6824 c9bf 48fb 023f 4c39 d1bf
00000280: 4b16 893f 3bc9 9cbf 64af 543f a2fe 3b3b
00000290: 987e 0a3d 631b a3bf db28 6dbe 283c de3e
000002a0: d141 c83e 3e61 16bf bb59 13bf b58c a83d
000002b0: fc4e 94be d842 7b3f b4d1 503f b1ab 153f
000002c0: cd9f ad3f dd07 d9be fc93 1540 8c71 c93d
000002d0: 2cfc 4dbe a614 0940 ab09 7cbf 1a61 383d
000002e0: 31c7 1bc0 5be6 113d 9971 113e e0d8 ebbf
000002f0: 2278 04be 5e07 323d 07ce d63f 597e a43f
00000300: fbcb c8bf bab3 dcbe abc2 5b3f 072c 77bf
00000310: 9bc6 28bf 8d89 5b3f 3a7e c0bf 2111 4e3f
00000320: 5641 04c0 eca6 98be fb65 003e 75ce b23f
00000330: 1e44 3bbe 678b 0c40 e9fb 44bf 05fb 193e
00000340: fe41 a9bf 4ed9 a1bf 1ae0 8c3f 9733 b43f
00000350: 1265 153f 86d8 8fbf 340d 9cbf e03a 63bf
00000360: 7e50 133d 3aec a53e 7637 5cbf b210 c4be
00000370: 0e3c c73e 6217 74bf ec9e 1d3f 1d9d 2ebf
00000380: 9355 babd 2b5d a43f 10af 303f c251 10bf
00000390: 9882 90bf be7e 43bf f3ca 553f 1d9c d9bf
000003a0: 6076 fcbf da36 243f 06aa 943f 4c23 0b3f
000003b0: 75a5 a2be e089 e6be e9a0 1f40 272c 28bf
000003c0: 10e8 72be fd64 6bbe b1dd aabe a1f8 3abf
000003d0: e09d 553f ffa4 8a3f 8994 a7bf cb27 f63e
000003e0: 840f 47bf 31c5 353e db62 353f dfbf c53c
000003f0: fcb3 a33e 644a 433f df77 95bf 1515 92bf
1.6740752 0.21164066 2.234331 1.0614579 -0.4346202 -0.23422053 0.25843576 -0.34936038
-0.050268907 -0.32357055 -0.10454581 -0.027266791 -0.5704441 -1.5900733 -1.0901759 0.8546199
1.0975177 0.2901276 0.9024405 -1.3263805 -0.12569344 0.6981975 1.4172896 0.81223494
-0.108351916 -1.1962103 1.3847468 1.0383899 1.7036072 -0.26782313 0.3029307 -0.57129115
-0.44630992 -0.4829157 0.23462394 -1.210394 -1.1471877 -0.36591214 -0.6669195 0.36799413
0.18132721 -0.55085194 1.4148948 1.9727755 0.26750997 0.32255608 -0.7098073 -0.29131404
1.7485533 -0.7270355 -0.87564725 0.73480886 -0.48295575 0.8113029 1.6758068 -1.1904745
2.4847448 0.040234312 0.51509655 -1.2854835 0.551599 -0.4269923 -0.6001715 0.39594135
0.19770603 -0.08426813 0.69042784 0.07347164 1.231795 0.81944585 0.74906546 0.36315435
0.7133287 -1.163341 0.54738337 0.38057438 -0.02128265 0.60873944 0.6890302 -0.22690898
-0.860244 0.3168362 1.3611382 -0.6955279 -0.31682068 0.85749406 -1.1287578 -0.2080764
0.5344062 -0.08883686 -0.5667748 -1.0845088 -1.2084807 -0.091441825 -1.4114796 -0.38250756
-1.6123154 1.3134247 -0.29772618 -2.3054166 -0.8262199 -0.43559954 0.9674411 -0.5804777
2.4751766 0.7106468 0.21768308 0.3246169 0.47212934 0.76612365 2.3450432 -0.9459253
-0.4601052 0.2789433 0.32285497 -0.32758558 2.3940933 -0.086967245 -0.49795848 -0.38315812
-0.04487477 -0.088263795 -0.50153744 0.38145256 0.7618644 -0.5709679 0.5623726 -1.1281095
0.6858756 3.0395112 0.627935 -0.48744163 0.03911228 0.8382332 -2.154745 0.29471517
0.5043859 -0.36414915 0.37540516 0.089099556 -0.29405245 0.74909157 -0.67081714 -1.8963476
0.44220415 -0.420623 0.7043118 -0.4387037 -0.609488 0.12176061 0.56436837 0.26973623
-0.46605164 -1.9190819 -0.70954823 -1.4073527 1.0944619 -1.5714235 0.51164675 -1.6345611
1.0709928 -1.2248911 0.83080125 0.0028685709 0.033812135 -1.2742733 -0.23160116 0.4340527
0.39112714 -0.5874213 -0.5755879 0.08229963 -0.2896651 0.9814887 0.8156998 0.58465105
1.3564392 -0.42388812 2.3371572 0.098361105 -0.20115727 2.1418853 -0.9845225 0.04501448
-2.4340327 0.035620075 0.1420349 -1.842556 -0.12936452 0.043464057 1.6781625 1.2851058
-1.568725 -0.4310587 0.85843915 -0.96551555 -0.6592805 0.8575676 -1.5038521 0.80494887
-2.0664878 -0.2981485 0.12538902 1.3969256 -0.18287703 2.1960084 -0.76946884 0.15037163
-1.3223264 -1.2644441 1.100589 1.4078244 0.58357346 -1.1237953 -1.2191529 -0.8876171
0.035965435 0.3240679 -0.86022127 -0.38293988 0.38913006 -0.9534818 0.6157062 -0.68208486
-0.09098353 1.2840933 0.69017124 -0.5637475 -1.1289854 -0.7636527 0.835128 -1.7000767
-1.9723625 0.64146197 1.1614387 0.54350734 -0.3176686 -0.45027065 2.4941962 -0.6569237
-0.23721337 -0.22987743 -0.33372262 -0.7303563 0.83444023 1.0831603 -1.3092204 0.48077235
-0.7775805 0.17751004 0.70853966 0.024139343 0.31973255 0.76285386 -1.1677207 -1.1412684

embedder.res_block.0.weight f4 [32]
00000000: 7656 753f 8034 853f 6aca 773f e2ff 5d3f
00000010: d8e6 803f 6f2f 733f 8104 843f b85d 953f
00000020: b11e 753f f761 843f 8b50 823f 56f6 9c3f
00000030: f59e 8c3f 9776 6d3f 4413 7c3f cbd9 893f
00000040: bed5 8d3f ebb3 7a3f c35b 7e3f a98a 903f
00000050: 49ec 833f afb3 763f a224 7f3f 4e67 983f
00000060: f196 8d3f 6933 6d3f adf1 793f 763f 963f
00000070: 97a4 863f 90d9 883f 54a7 8a3f 39a8 713f
0.95835054 1.0406647 0.96793234 0.8671857 1.0070448 0.9499425 1.0313874 1.1669226
0.95749956 1.0342396 1.018083 1.2262676 1.098601 0.9275908 0.98466897 1.076959
1.1080854 0.97930783 0.9935877 1.1292316 1.0306484 0.96367925 0.9966527 1.1906526
1.1061689 0.9265657 0.9763439 1.1738117 1.0518979 1.0691395 1.0832314 0.9439731

embedder.res_block.0.bias f4 [32]
00000000: 0404 743d c158 c6bc 8134 79bd 9a00 a1bd
00000010: a5c4 d33b e0de 41bd d3e8 083c 91ef 5dbc
00000020: 2ea7 d33b 37b6 df3a 4314 4a3c a0ef 663c
00000030: 898c 1fbb 2a7e ecbc f739 29bd fcb2 bf3c
00000040: c029 ff3c 211c 673d 5dde 62bd 980c 943c
00000050: cb3a 353b fa2c 143d 201d aabc 4f92 5abc
00000060: 04cb 113c 8c24 9bbd 4510 1b3d 9c91 c93c
00000070: 5887 1bbd 1339 87bc e8b8 853b 3f55 cc3c
0.059574142 -0.024212243 -0.060841087 -0.07861443 0.006462651 -0.04733169 0.008356291 -0.013545887
0.0064591384 0.0017067854 0.012333932 0.014095217 -0.002434524 -0.028868753 -0.041315045 0.023400776
0.031147838 0.05642331 -0.055387843 0.018072411 0.0027653452 0.036175705 -0.020765841 -0.013340547
0.0088985 -0.0757533 0.037857313 0.024605565 -0.03797087 -0.016506707 0.0040808804 0.024942992

embedder.res_block.1.weight f4 [32, 32]
00000000: ce5f 3fbd 5680 033e d039 53bd 146c 26bd
00000010: 06ea 8dbc 84d4 183d 7032 f23d c14f 953e
00000020: 12f2 8fbd f08e 86be fa19 e63d 0f62 67be
00000030: 448d 1f3e 1d0f 643d 3d21 d1bd 1e11 19be
00000040: 0a99 18be 4f5a c83d 80ff 9fbc b001 223e
00000050: d3ad 7bbd f404 60bd 3b83 2a3e 962a 573e
00000060: 32a3 80be 3fea b0bd dfe3 d8bc 2889 78be
00000070: f9ca 3e3e e30f 323e 3bf1 b7bc d240 ccbd
00000080: 71e9 e33c 44bb 60bd 6b42 30be 486e c2bb
00000090: 00bf 1fbe 5f3e 00be e020 933d 046a f3bd
000000a0: 24cf 5a3e 9eb9 d0bd 6446 233e ec34 b33c
000000b0: 31e6 7fbe d330 123e 3db7 0abe fcad 693e
000000c0: c144 70bc 8b54 933d 5f0e b2bd 87ee 1abd
000000d0: f7aa 12be 6074 6a3d c724 d13d cf5e 1f3e
000000e0: b481 7c3d 08ff 74bd d993 293d eb0f 09bd
000000f0: bdb6 31be 47ae 8f3d 802d bb3d d40d 283e
00000100: a547 bf3d 9959 cabd 4326 22bc f1e4 e4bd
00000110: 12d4 4d3e daa2 963d 7f3f 923c 3541 5c3d
00000120: 334e 1a3e ebf9 b23d fadc 96bd 7842 45bd
00000130: 710b b13c 1ac3 113e eeff de3c 16cb 58bb
00000140: 4468 d03d 7870 e2bd 4807 9fbd 33bd 05be
00000150: 2416 b23c c1c9 243e d2f9 093a e02e c9bd
00000160: b214 05bd 48e6 0b3e 1688 483e ea6e 873d
00000170: cbaf ee3d e386 9a3d 8869 27be 97cb 2abe
00000180: 69f9 aa3d c8a5 a4be 129b b63c 84d6 bb3d
00000190: 2c1b 24be 7054 18be 3634 6f3e 6343 3e3e
000001a0: 5432 45bd 7e69 8fbe bbb2 663e 95f0 a8bc
000001b0: d890 f63d 7d9c 86bd d0ab e1bd c709 4abc
000001c0: 8bd0 2abe d1f0 ab3d e231 d63d 84a5 233d
000001d0: b800 37be 9228 d83a 813b bcbd 2eed a73c
000001e0: 1ded 523d 00d0 f8bc 75a1 cbbd a8d2 58be
000001f0: 97b4 183e 414a 3d3e acdb a0be 1a20 d3bb
00000200: a3e9 023e b019 16be dcc9 27bd ecf1 22bc
00000210: d7ae 93bd 944e 3bbd f3ba eb3d e4e9 39be
00000220: b57c d9bd 8021 2fbe c73c 2dbd 0160 3ebe
00000230: 4659 4ebe dd8b e63d d5cc 083e d8bf adbd
00000240: 9a00 c6bd f28a 91bd 00b7 123e a48e c63d
00000250: 3e28 3abd 1451 073e 40ce 2dbe b273 82bd
00000260: 1502 9abd 59be c13d 371c f63b 2844 c33d
00000270: 987d 343d f1b2 7abc 3144 00be 9832 363d
00000280: 8d0b 5cbd fcf5 093d f9d8 1cbd 65da 1abe
00000290: 00b4 cfbd c694 59be 54b5 b93d 4963 09be
000002a0: fdb5 0d3b 1a57 a3bd ebe1 34be be3a 173e
000002b0: 0fbc 9fbd c62e 84bd 2427 333e e056 363e
000002c0: e064 433e 5dd1 1a3d 8bff 1abd d50e 38be
000002d0: d268 bebd ccd9 753d 39ba 28be 2e7e 5c3d
000002e0: 079f 0bbe 518c 143d 4173 5e3c 5503 023e
000002f0: 9560 83bd 9501 06be 5af0 1f3e 6619 113e
00000300: dab8 453e 2d2c 2d3e 5d7a c63b 9230 ea3c
00000310: dcdd 24be b5b1 da3d ca9b dd3c 9bd4 debd
00000320: 4236 ffbc d8d1 a8bd 94ab 403e 7998 053c
00000330: 0ad9 7d3d 7123 823d 3b54 2b3e 2ff4 bcbd
00000340: 5701 dfbd 1c05 0b3d 0425 69bd 1926 66be
00000350: 0cef 263e c79f 103e 19b5 603d c143 f23d
00000360: 4966 6b3d 6d56 173e 64f7 b3bd f171 e53c
00000370: 06ef 47be c1a1 e0bd 1994 d13d 6cb3 b53b
00000380: f1e1 ff3d 6601 243e aaab 233e 475b 203d
00000390: 9eef 313e 5342 cabd ace3 ff3d 1c4a ec3d
000003a0: 53bc 7ebd 99de 693e 0825 c43c b288 aebe
000003b0: 26cc 223d e13d 18bd 9fe9 273d cdbc 8fbd
000003c0: e9d2 95bd b9ba 6b3e acaa 553e 5a5a c93d
000003d0: ff2b 8fbd cc3a b1bc d194 a5bc c848 7f3e
000003e0: b649 b63c 2647 0d3e 9c4b dd3c edae 89be
000003f0: 2fc5 a53d 05d8 313e 2f07 8abd ed27 8ebe
-0.046722226 0.12841925 -0.051568806 -0.040630415 -0.017323505 0.037312046 0.118260264 0.2916241
-0.07028593 -0.26280928 0.112354234 -0.22596 0.15581232 0.055678476 -0.10211418 -0.14947936
-0.1490213 0.0978285 -0.019531012 0.15820956 -0.06144507 -0.054692224 0.16651623 0.21012339
-0.25124508 -0.08638429 -0.026475845 -0.24271071 0.18632115 0.17388873 -0.022453895 -0.09973301
0.027821274 -0.05486609 -0.17212836 -0.0059335567 -0.15600204 -0.12523793 0.07184005 -0.11885455
0.2136808 -0.10191654 0.1594482 0.021875821 -0.24990155 0.14276437 -0.13546462 0.22820276
-0.01466483 0.0719386 -0.08694147 -0.037825134 -0.1432303 0.05723989 0.10212093 0.1556351
0.061647132 -0.05981353 0.041400764 -0.033462446 -0.17354865 0.07015663 0.09139538 0.16411525
0.09339837 -0.09880371 -0.009896818 -0.111764796 0.2010043 0.0735528 0.017852543 0.053773124
0.15068893 0.08739074 -0.07366367 -0.048159093 0.021611901 0.14234582 0.027221646 -0.0033080033
0.10176137 -0.11056608 -0.07765061 -0.13060455 0.021739073 0.16092588 0.00052633614 -0.09823394
-0.03249044 0.13662064 0.19583163 0.06612952 0.116546236 0.07545259 -0.1634885 -0.16679226
0.083483525 -0.3215773 0.02229074 0.09171775 -0.1602599 -0.1487596 0.2335976 0.18580393
-0.0481437 -0.28010172 0.22529118 -0.020622531 0.120393455 -0.065728165 -0.11019099 -0.012331433
-0.16681115 0.083955415 0.10458733 0.03995277 -0.17871368 0.0016491583 -0.09191037 0.020498838
0.05149566 -0.03037262 -0.09942905 -0.21174109 0.1491264 0.18485357 -0.31417596 -0.006443036
0.12784438 -0.14658237 -0.040963992 -0.009945374 -0.072110824 -0.045729235 0.11510267 -0.18155628
-0.10619489 -0.17102623 -0.04229429 -0.1859131 -0.20151243 0.112571456 0.13359387 -0.08483857
-0.096680835 -0.0710658 0.14327621 0.09695175 -0.045448534 0.13214523 -0.1697321 -0.063697234
-0.07519928 0.09460134 0.0075106877 0.09534484 0.044065088 -0.015301452 -0.12526013 0.044481844
-0.053721953 0.033681855 -0.03829286 -0.15122373 -0.10141754 -0.21248159 0.09067789 -0.1341678
0.0021623366 -0.07975598 -0.17664306 0.14768502 -0.07799541 -0.06454234 0.174954 0.17806578
0.1908145 0.03779732 -0.03784136 -0.17974408 -0.09297337 0.06002216 -0.16477288 0.05383127
-0.13634883 0.03626663 0.013577283 0.12696584 -0.06414906 -0.13086541 0.1561903 0.14169845
0.19308797 0.16911383 0.0060570673 0.028587613 -0.16100258 0.10678426 0.027051825 -0.10880395
-0.031153802 -0.082431495 0.18815452 0.008154028 0.061974563 0.06354416 0.1673135 -0.09226262
-0.108889274 0.03394042 -0.056920066 -0.2247547 0.16302127 0.1412345 0.05486021 0.11829329
0.057470594 0.14779063 -0.087874204 0.028008433 -0.19524774 -0.10968352 0.102333255 0.0055450704
0.12494267 0.16016158 0.15983453 0.03914955 0.17376563 -0.098759316 0.12494597 0.11537573
-0.06219132 0.2283882 0.02394344 -0.34088665 0.039745472 -0.037168387 0.040994283 -0.07018433
-0.073156185 0.23020448 0.20865887 0.09831686 -0.069908135 -0.021634482 -0.020212563 0.24930108
0.022251945 0.13796672 0.027013592 -0.2689127 0.080942504 0.17367561 -0.067396514 -0.27764836

embedder.res_block.1.bias f4 [32]
00000000: 6502 2b3d 6708 11bd 5a36 d1bd 2a36 cfbd
00000010: 3b4f af3d ee01 fbbd b0d4 ed3b 7af9 d93d
00000020: 93ee 30be 1f1a c43d a065 6f3d 963d 193d
00000030: 129d 7a3d 6c2a b83d b94b 5f3c 5b9a c5bc
00000040: fbb2 04be c0f4 e0bd 125c 9abb cb61 23be
00000050: b599 75bd 28e9 423d b9ab 0abe aaa5 02be
00000060: 12cd 043c f96a d23d bb69 243e b8e5 8c3d
00000070: 0463 bf3d 6ff7 0b3e bff1 483c 9bec a53d
0.04175033 -0.035408404 -0.10215445 -0.10117753 0.08560034 -0.122562274 0.0072580203 0.10643287
-0.17278509 0.09575295 0.058446527 0.03741225 0.06118495 0.08992466 0.0136288935 -0.024121454
-0.129589 -0.10984182 -0.0047106827 -0.15955274 -0.05996104 0.047585636 -0.1354207 -0.12758508
0.008105533 0.1027431 0.16055958 0.06879753 0.093450576 0.13668607 0.012264668 0.081017695

embedder.res_block.3.weight f4 [32, 32]
00000000: 790e bcbd 879b 033d 4000 ee3d 94a6 35be
00000010: 0383 d9bd b9cf 10be f610 453e fc02 0a3e
00000020: 205e aabd 9433 afbd 2ce2 b13d 3576 92bd
00000030: 22b0 9cbd 91a5 203e da2f 093d 8570 053e
00000040: bc05 4bbe 869e f7bc 9660 4b3e 7293 133e
00000050: c7f7 d33c fa3c fe3d 8ebc 5bbd 3e64 133e
00000060: d1f2 d5bd 2128 46bd 0da9 ebbd 2751 5f3b
00000070: 4bfd 063d 39b9 423e d1dd 1b3e 597c 453d
00000080: c764 29bd 81b4 db3d 2b38 bf3c fc77 29be
00000090: bd5c ea3d 08c1 db3d 5057 a23d 7c1d ab3d
000000a0: 451e 393e 19a6 8c3d 0c77 133d 409d 86bc
000000b0: d80a 803d b892 0bbe 6b4a 8d3c 9d49 b33d
000000c0: d7a5 413e b9da d63d 6a05 c73d 9018 033e
000000d0: 30fd 823e f9d9 16be 66e5 a83d ba55 473c
000000e0: 3288 2ebe e678 2e3e 3585 5ebe c5f1 0e3d
000000f0: 45b8 9f3d 7aa7 86bd 943d bf3c d24f 59bc
00000100: 6b09 af3d 89ea 893d 2471 02be 9b97 473d
00000110: a914 cdbc ec3d 22be 29c6 eabd 6116 11be
00000120: d358 f03d 6865 0fbe 8ba5 f8bd 4de6 f5bd
00000130: abed eabd 36a7 b9bc d263 4a3d 0a1b ddbd
00000140: a3f4 02be 94db 4cbe 27b5 05be 351f 4e3e
00000150: 1f2f 5bbd 0bbe 06bd a7dd e6bc b09e 37bd
00000160: e9ca 77bb 4244 e3bd 8b04 91bc 53f4 ec3d
00000170: 475c 4dbe bf05 d43b 5f57 3c3d 9a12 69bd
00000180: 1038 b83d 28b5 a8bd 77a5 1bbe 6b56 6a3e
00000190: 76b9 4fbc cbda 1dbe 1cae f63d 7ece c13d
000001a0: 19a0 70bd 1d40 0a3e f462 a63e e9e4 243d
000001b0: cfe0 9a3d c5a1 943d 6549 febd a675 a03d
000001c0: 4404 e6bd 0b69 5c3d ea58 01ba d592 a83d
000001d0: 735d 84be 2cdc cabd ffa6 423d 6213 b6bd
000001e0: c7fd 1bbe ec36 01bd 6cf4 a93e 929b 1abe
000001f0: 7a1c ab3c 24ac dabc d788 8bbd 1f58 44be
00000200: fc1a 47be 06e9 1c3e a9b1 f63c 4c1b 90be
00000210: 39ca 74bd af5f 1a3d abda 9bbb 6695 aebc
00000220: b417 92bd 7826 84bd ad99 9dbe 5733 3f3e
00000230: 7a3c e2bd 8e6f bc3d a98e ab3d 67d8 6abd
00000240: 6282 193d f4df 1abc 968c b2bd 9f88 6b3d
00000250: 9cce dd3d 039a 873d 6a6c 30bd 9ed1 f93d
00000260: 2e04 04be c81b 1dbe 534d a2be 2c45 83bc
00000270: 1923 1f3d 205b 4a3e e7aa 5e3e 08ed a5bd
00000280: eca8 783c 8077 16bd 39c0 a3bd 7d0c 6fbe
00000290: c99a 1d3e adeb 343c 964c 7fbd 833d 67bd
000002a0: b0da eb3d b6e9 c9bd f5ee 98be 541b 093e
000002b0: 42c0 fe3b 273d e1bc 5a12 893b 4c96 a0bd
000002c0: a9ae 48bd 68f6 d23d 04b7 36be 19d8 58be
000002d0: cc5f 5bbd b571 60be 9a36 00bc 0941 5b3e
000002e0: fe55 49be d13c 863e 84e5 403c a4ef cbbc
000002f0: 87f2 9ebd ffbe dd3d d1a2 163e 4e45 f3bd
00000300: c98e adbb 4c55 b03d cfd3 c73d 5d1d a13d
00000310: 2930 d4bd 34f4 a5bc 4999 2fbe 2468 083e
00000320: 471d 223e 46f4 11be a976 d53e fec4 923c
00000330: 56c9 e8bd 990e 173e 0983 903b 9f27 b83b
00000340: 7786 01bb 60bb 79bd 64f2 153e be09 813e
00000350: 3d95 15be 59d0 023d 4e4e c5be 1c07 433c
00000360: 813d 06bc 003d 81bd cbef a1bd 3e9e 523c
00000370: 3105 febc 69d4 153e 12c2 0fbe cbfc 9fbb
00000380: 1f98 a93d c1b2 923d 7d43 153e e100 443d
00000390: 3164 5bbc ffea aebd 4e22 5b3b ecba 0b3e
000003a0: 5b38 11bd 6b30 243e 8059 e0bc 800b b9bd
000003b0: 1b7e 22bd c6e0 24be aa5f b1bc 33b1 0c3d
000003c0: e1f5 31bd 3a84 50bd 68f5 2d3e 21b4 c13b
000003d0: b189 41be 5b52 a1bd f1e4 4bbc 3e51 e7bc
000003e0: 3185 b4bd bca8 bcbd 9f0b 5c3d 52fe 1abe
000003f0: b405 59be a60e 1bbc 8f8a 5abc a2b4 33bd
-0.09182448 0.032130744 0.116211414 -0.17739326 -0.106206916 -0.1414174 0.19244751 0.13477701
-0.08318734 -0.085547596 0.08685717 -0.071514525 -0.07650782 0.15688159 0.0334929 0.13031204
-0.19826406 -0.030226957 0.19861063 0.14411715 0.025874985 0.12413974 -0.053646617 0.14393708
-0.10446704 -0.048378114 -0.11506853 0.003407547 0.032956403 0.1901597 0.15221335 0.04821429
-0.041355874 0.10727788 0.023342213 -0.16549677 0.1144347 0.10730177 0.0792681 0.08355233
0.18077953 0.06867618 0.036002204 -0.016432405 0.06252068 -0.13630188 0.0172474 0.08754275
0.18910919 0.10490937 0.097178295 0.12802339 0.25583792 -0.14731587 0.08246879 0.012166435
-0.17044142 0.17038307 -0.21730502 0.03489854 0.077988185 -0.06574912 0.023344792 -0.01326366
0.08546718 0.06734187 -0.12738472 0.048728567 -0.025034266 -0.15843934 -0.11463577 -0.14168693
0.11735692 -0.14003527 -0.1214095 -0.12006817 -0.11471113 -0.02266274 0.049411602 -0.10796173
-0.12788634 -0.20005637 -0.13057385 0.20129092 -0.053511735 -0.032896083 -0.028181864 -0.04482907
-0.0037810153 -0.110970035 -0.017702362 0.11570039 -0.20054732 0.0064704116 0.04598176 -0.056902505
0.08995068 -0.08237678 -0.15199839 0.22884528 -0.012678495 -0.15415494 0.120449275 0.094632134
-0.05874643 0.1350102 0.3249737 0.04025737 0.0756241 0.072574176 -0.12416343 0.0783494
-0.11231282 0.053811114 -0.00049342087 0.08231131 -0.25852546 -0.09905276 0.04752254 -0.08890416
-0.15233527 -0.03154652 0.33194292 -0.15098408 0.020887602 -0.026693411 -0.068132095 -0.1917424
-0.19443887 0.15323266 0.030114012 -0.28145826 -0.059763167 0.037688907 -0.004756292 -0.021311473
-0.07133427 -0.0645265 -0.30781308 0.18671928 -0.11046691 0.09200965 0.0837682 -0.057335284
0.03747786 -0.009452809 -0.08718221 0.05750334 0.10830423 0.06621172 -0.04307214 0.121981844
-0.1289222 -0.15342629 -0.3169962 -0.016024195 0.03885183 0.19761324 0.21744882 -0.08101851
0.015176993 -0.036735058 -0.07995648 -0.23344608 0.15391077 0.011042518 -0.062328897 -0.056455147
0.11516321 -0.0985903 -0.2986981 0.13389331 0.0077743838 -0.02749498 0.004183096 -0.07841167
-0.048994694 0.103009045 -0.17843252 -0.21176185 -0.053558156 -0.21918376 -0.007825518 0.21411528
-0.1966171 0.26218274 0.011773471 -0.024894543 -0.07761102 0.10827445 0.14710547 -0.11878453
-0.0052965623 0.08610019 0.09757196 0.07866929 -0.10360748 -0.020258047 -0.17148317 0.13320976
0.15831481 -0.14253339 0.41692093 0.017916199 -0.11366527 0.14751662 0.004410152 0.0056199576
-0.0019763985 -0.06096971 0.14643246 0.25202745 -0.14607711 0.031936977 -0.38536304 0.0119035505
-0.008193375 -0.06310463 -0.07907065 0.012855111 -0.031008335 0.1463181 -0.14038876 -0.00488243
0.08280968 0.07163001 0.14576526 0.0478524 -0.013390587 -0.08540916 0.0033437195 0.13645524
-0.035454135 0.16034095 -0.027386427 -0.090353966 -0.039671045 -0.1610137 -0.021652061 0.034348678
-0.04344738 -0.05090735 0.16988146 0.0059113656 -0.18900181 -0.07877036 -0.012444721 -0.028236981
-0.08814467 -0.09211871 0.05372202 -0.15136078 -0.21193582 -0.009463942 -0.013338699 -0.043873437

embedder.res_block.3.bias f4 [32]
00000000: cf94 263e 2f7e 353e 0676 763d 38ae 483d
00000010: 7e42 b43d e8e1 6f3d 7d3f 29bc b848 463d
00000020: 4402 f63d 3c4d 433c 07dc f5bd db1a 163d
00000030: 5f7f 0f3e ac08 de3d 20da 733d b265 353c
00000040: f3f3 143e a144 3f3c e575 b0bd 9278 50be
00000050: 1bfb 6cbd 027a d2bd cb34 c63d 8000 073e
00000060: 9783 103e 85af ea3d af7c 2a3e 9871 85bd
00000070: b740 fcbd eec3 08be 89f4 07bd b44a e4bd
0.16267703 0.17723916 0.06017115 0.048994273 0.08801745 0.05856505 -0.010330078 0.048409194
0.12012151 0.01192027 -0.120048575 0.036646705 0.14013432 0.10841498 0.059534192 0.011071609
0.14546184 0.011674077 -0.086162366 -0.20358494 -0.05785666 -0.102771774 0.09678038 0.13183784
0.14112698 0.11459259 0.16649126 -0.06515807 -0.12317031 -0.13355991 -0.03319219 -0.11147061

cnn_blocks.0.proj_in.weight f4 [16, 32]
00000000: d519 8cbd 2c9c 09be 408b a53d 6c57 45be
00000010: 1fea 963d db73 31bd c5c7 49be a75b 25be
00000020: f045 4b3e 3465 763d ded4 eb3d 82c4 2a3c
00000030: a346 443d e08b a7bd 2da4 5bbe 4b6c 3fbd
00000040: 4bdc 61bd 237e 81bd 8c1f 113e c5d0 203e
00000050: 8489 c83d e761 58bd 6eb4 863d 6a96 f43d
00000060: 01f2 85be a254 12be 2bca 4cbd 4b41 3c3e
00000070: 3e8d b3bd 17d9 4c3e 062e 5c3e 735e 2f3d
00000080: b850 ae3d 06c9 40bd 00dc 97bd b108 1bbe
00000090: b970 2f3e e6ff 87bd a6c2 0a3e 11ac b8bc
000000a0: 96bb b23d e5b4 36be 4959 2e3e 1332 e93d
000000b0: 3089 dabd 705a d4bb be2e 8e3d 9980 29bd
000000c0: 9339 8abd 485f 253e 8eb2 b5bd 4e54 473e
000000d0: 9235 a4bc 4e5f e53d 94c2 fd3d df40 463e
000000e0: ec85 4b3e f6dd 5c3e 52d9 bf3a 8c6b d43b
000000f0: 65eb 03bd bd23 edbc f647 ca3b 1d55 07be
00000100: 7e4e 1bbe ac72 9f3b 3d0f c93d bb03 20bd
00000110: 8980 bb3d 170c 4fbe b1ea cd3d b69c 933d
00000120: b6ae 583d 4d03 ee3d e372 10be 0fff f8bd
00000130: aa33 953d 279a 51bd a862 c73c 417f d23d
00000140: ebe5 42bd e114 783d 644d 923d 52a4 1f3d
00000150: 0220 333e 134e 8bbd 0c73 8a3d 616d 4fbd
00000160: 6afc 293d 5818 47be bf91 bf3d d07d f23d
00000170: 1647 c1bd 4602 84bc d89c 2cbe 20af 8e3c
00000180: 55b3 6cbd 4c2f e93d 2dd2 db3d c542 bf3d
00000190: dd0e eabd 1907 433d ff87 e33b 7094 963d
000001a0: d2b3 23be 30d1 bfbd cdab 6b3e 98f6 0cbe
000001b0: 5056 04be fc46 f0bc 2d40 5e3e 4f9c 6d3d
000001c0: 989b 98bd d775 0b3e 70eb ee3d 1e11 4f3d
000001d0: fe3a 453e 8853 83bb 3962 12bc f716 d7bd
000001e0: 210d 893d f74b a4bd c358 cebc 6661 6fbd
000001f0: de4c 473d 5165 08be 03cb 7c3e fca9 0d3e
00000200: b1d6 363d 6619 20be 7219 273e 84aa 4cbe
00000210: f8f7 e13c fde4 0fbc b4c7 c8bd 5018 083e
00000220: 9235 fa3c d516 8bbc 78c9 343e 2ba4 3fbd
00000230: 2ae0 a8bc 1a61 07be 2416 853a eae5 b63d
00000240: f67e 833d 2ffb b0bd 8412 003d f70a 8bbd
00000250: 3045 2dbd 16a8 0c3e f4ff 1f3e 0fbe fa3d
00000260: ad1c adbd 2666 323e e346 563d e389 8b3d
00000270: 204b 053e c35d 84bd 1eaa 05bd c408 1dbe
00000280: a84c 51bb 737c c63d 2473 99bd 3f09 173c
00000290: 460f d6bd f765 143e 6f72 5fbe c5c6 42be
000002a0: 83a1 3bbe 9ddf db3d 349c 42bd bbd9 c63d
000002b0: 4c72 cebc 7389 9ebd 767b b93c 3887 00be
000002c0: ebf6 e73d 08f6 0b3e 14af 173e a823 14be
000002d0: fe2d 94bc e40e 2dbe 542d adbd 23de 5fbd
000002e0: fddb 353c 3b97 603e 1160 863c 0719 1b3e
000002f0: 7112 5abe b98e 73bd fe1f a4bd b633 a63d
00000300: 986f f0bd 6e7a a8bc 6da3 143d feff 0b3e
00000310: 7698 fe3c 57d3 e33d 16f1 aa3d 2fbd c03d
00000320: d314 a2bd ee43 2d3e 2aa5 a0bd a3cc 9ebb
00000330: 8225 41be c179 12be 6614 cc3c adfe debd
00000340: 0596 2abe 136d 4c3e 96a0 bf3b f7fe 233e
00000350: 8f0f 63bd 98a3 9ebd c71b 383e 0f96 cfbd
00000360: 8036 463d 0f48 e53c 9a76 59bd 77ed 6bbc
00000370: b204 70bd 315a 88bc 0ade 5ebc 72ea 893d
00000380: cb59 fc3d 1003 33be 389b 09be 8bac 413e
00000390: d1f9 72bd 410e 6cbc 9d5c a53d b784 42bc
000003a0: d9f3 36be 6ec6 923e 1ca7 9f3d 394f 3ebe
000003b0: a489 f3bc e783 363b 36bb 1d3d 881c 0abe
000003c0: ba62 fcbd 0f6d 6dbe 4333 9ebd f190 8d3c
000003d0: 3428 9a3d e8a9 133e 510e 1e3d 3c66 edbd
000003e0: ba7f 96bd 06ef 133d 6898 25be 8519 783d
000003f0: 51a7 2ebe 09dc 19be d7a5 dfbd 5484 30bd
-0.068408646 -0.13438481 0.080832005 -0.1927163 0.07368874 -0.04332338 -0.19705112 -0.16148244
0.19850898 0.06015511 0.115152106 0.010422828 0.047918927 -0.08180976 -0.21449347 -0.046734136
-0.05514173 -0.06322887 0.1417219 0.1570464 0.09791854 -0.052827742 0.06577383 0.11942752
-0.26161197 -0.14290097 -0.04999749 0.18384282 -0.08767174 0.20004688 0.21501932 0.042814683
0.0851149 -0.04706671 -0.074150085 -0.15140034 0.17132844 -0.06640606 0.13550815 -0.022542985
0.087271854 -0.17842443 0.17026247 0.11386504 -0.10670698 -0.0064805076 0.06942509 -0.041382406
-0.06749263 0.16149628 -0.08871947 0.19465753 -0.020045076 0.111998186 0.123906285 0.19360684
0.19875306 0.21569046 0.001463691 0.006482547 -0.03220691 -0.028947705 0.006173129 -0.13216062
-0.15166661 0.004865965 0.098173596 -0.039066058 0.091553755 -0.20219456 0.100545295 0.072076246
0.052900992 0.11621723 -0.14106326 -0.121580236 0.07285245 -0.0511724 0.024339035 0.10278178
-0.047582548 0.060566787 0.07143667 0.038975067 0.17492679 -0.06802001 0.06760225 -0.05064142
0.041500486 -0.1944288 0.09353971 0.11840403 -0.09437387 -0.016114365 -0.16856706 0.01741749
-0.05778821 0.11385974 0.10733447 0.09338907 -0.11428616 0.04761419 0.006943702 0.07352531
-0.15986565 -0.09366071 0.23014756 -0.13765943 -0.1292355 -0.029330723 0.21704169 0.058010396
-0.07451552 0.13619171 0.11666 0.050553434 0.19260785 -0.0040077604 -0.008934551 -0.10502427
0.06691957 -0.08022302 -0.02518881 -0.058442496 0.04865729 -0.13319899 0.24686818 0.13834375
0.04463834 -0.15634689 0.163183 -0.19986922 0.027584061 -0.008782622 -0.09803715 0.13290524
0.030543122 -0.01697866 0.17654979 -0.046787422 -0.020614702 -0.13220635 0.0010153693 0.089305714
0.064207 -0.086416595 0.031267658 -0.06789201 -0.04230231 0.13735995 0.15624982 0.12243282
-0.08452735 0.17421779 0.052313697 0.06813409 0.13016939 -0.06463196 -0.03263294 -0.15335375
-0.003193656 0.096917056 -0.074926645 0.009218513 -0.10452132 0.14492022 -0.21820997 -0.19021137
-0.1832333 0.1073601 -0.04751225 0.097094975 -0.025200985 -0.0774106 0.022641879 -0.12551582
0.11326393 0.13668072 0.14812881 -0.14466727 -0.018088337 -0.16900212 -0.08455911 -0.054655205
0.011099813 0.2193269 0.01640323 0.15146266 -0.21296097 -0.059462283 -0.080139145 0.08115332
-0.11740035 -0.020566192 0.036288667 0.13671872 0.031078558 0.11124294 0.08346765 0.09411084
-0.07914128 0.16920444 -0.078440025 -0.004846172 -0.18861964 -0.14304258 0.02491207 -0.10888419
-0.1665879 0.19963484 0.0058480008 0.1601523 -0.05543476 -0.07746047 0.17979346 -0.10136043
0.04839182 0.027988462 -0.053091623 -0.014399878 -0.058598228 -0.01664457 -0.013602743 0.0673417
0.12321814 -0.17481637 -0.13438118 0.18913476 -0.059320275 -0.014407695 0.08074305 -0.011872462
-0.17866458 0.28667015 0.077955455 -0.18584909 -0.029728718 0.0027849616 0.038508616 -0.13487446
-0.12323518 -0.23186134 -0.07724621 0.017281028 0.075271994 0.14420283 0.038587872 -0.11591765
-0.07348581 0.036116622 -0.1617142 0.060571212 -0.17056014 -0.15025343 -0.10920303 -0.043094948

cnn_blocks.0.proj_in.bias f4 [16]
00000000: 321d 193e 20a0 933c dd86 3ebe 9526 30be
00000010: b19a 27be f013 54be 33c1 dcbc 1a9d 0ebe
00000020: e5b3 11be 59a2 e9bd b4ac acbd e54a 073e
00000030: 8d68 cabd 8ebf 1cbd e235 623d 35fc b8bd
0.14952543 0.01802069 -0.18606134 -0.17202218 -0.16367604 -0.2071073 -0.026947593 -0.13927117
-0.1422878 -0.114079185 -0.08431378 0.13212164 -0.09883223 -0.03826862 0.055227168 -0.0903248

cnn_blocks.0.convs.0.weight f4 [16, 16, 3, 3]
00000000: 7923 75bd b95e 713d f49e 573d f5e5 5a3d
00000010: 2107 c23c 32c5 5d3c 29ad 3b3e e517 413e
00000020: 1a54 8a3c d698 20bd 9583 9ebd b223 e7bc
00000030: a38e 623d afa3 533d 866a 16bd 18f8 e6bb
00000040: 42b0 72bd 1e04 2b3d ac1f 84bd bcac 9e3d
00000050: c8ec 5cbd 2cd9 d7bc eb56 9bbd b6c1 f6bd
00000060: 7d9a d93d 9d98 dc3d a16c 18bd 2129 debd
00000070: 5b7e 7dbd c293 6c3d 65fa 7abd eb6f f6bd
00000080: 03bc a3bd 87bc c1bc d32a a13c be55 e1bb
00000090: 1381 84bd e34a 24be 5561 58bd f41b e63c
000000a0: abeb d63d 88c8 913d bcbe e7bd 3764 04be
000000b0: 7e9d 3b3e 8cb1 8d3d 574d 91bd 26b9 0a3d
000000c0: c855 1abd 2452 b9bd 7217 ffbc 4006 9fbc
000000d0: 8c18 1f3c e56c 513d 606a c3bd d600 acbc
000000e0: 51d5 e93d 644b 26bd e866 82bd ba55 43bd
000000f0: 8d2e 023d f171 8cbc f542 24be 3253 8e3d
00000100: 10ec b03c 9843 8e3c 05e8 213c 48b7 bc3d
00000110: 98f6 be3c d212 dd3d c2df e7bc 79de d1bd
00000120: d1ce 89bc 24ad 893c 339b 1e3e 43de 9a3d
00000130: 3d6f 383e f8f6 dcbd d8a5 a03c 7e03 203d
00000140: e9d5 a5bd 4bb4 113d 3b77 0ebb 9973 8e3c
00000150: ea64 ecbc b415 803d ee98 07bd c4e8 abbc
00000160: a1e6 323d c2e4 34bd 790d 9dbc 8f2d d53d
00000170: 7e4e 4d3b 8ef5 8f3b 945f 303e f355 543d
00000180: 311e 9e3d b339 bd3d 44de ba3d e2fe 1fbd
00000190: ae3b a63b 4266 893d 847a 713d ead4 6c3b
000001a0: 24f3 92bc d5c6 03be 5432 b73c 79b1 3bbc
000001b0: 80c0 0cbd d86b a83c da7d cabc 4ae5 c13a
000001c0: ebca 423d 0143 9b3d fc17 793d 6a65 703d
000001d0: de1b 7fbd 2633 613d 9313 92bd 382b 8d3b
000001e0: 3a0d 52bc fc54 edbc 527f 823d b6f0 753e
000001f0: b69c 2a3d 8a32 52be 0f5f e13c c77e 9bbd
00000200: 8f32 ed3b f8b3 e03c 1c0e bc3d 0bee b13d
00000210: 7d39 adbd bd58 10bc fdc6 533e f93f 963b
00000220: 97db 863c 2c6b 0abd 21fb c1bd a479 c8bb
00000230: 62d2 b3bd 5279 67bd 9bd7 c3bd bf12 393d
00000240: ffbb 173e 6012 903b 09c1 e93c a28f 8e3d
00000250: 63cb 033e 16db 303e b400 273d dd5a 413d
00000260: e1d3 d73c 7ef6 debd 12d4 92bd 8f06 90bd
00000270: 2bc7 babd 63d3 c6bd 2e47 0abd 9db5 87bd
00000280: cdcf 253d 7dbc d6bd 76f6 773d 2698 973b
00000290: 57ea 263e bff2 af3c a610 013e d4b5 3c3c
000002a0: b31a 953d 3378 f5bd 2252 e1bd bb14 a9bd
000002b0: 80fa d33d 727b 013e bc13 03bd 5d2f 76bb
000002c0: cf7b 6fbd 4925 98bd d851 f9bd 4aee bcbc
000002d0: 2202 b63d f822 05be 30d5 98bd 3cd7 aabd
000002e0: 75fc e5bd 47d3 78bd e96d 29be 9c92 b83d
000002f0: cca0 963d 56bb 223e 1c1c 673c 20a5 27bc
00000300: c588 133d d839 e13c 8548 0d3d 20b0 173c
00000310: 1654 bebd 02a0 323e 8068 99bc f0eb a83d
00000320: 57f9 da3d 40ad 813d c058 d93d 2e09 a3bb
00000330: 13b3 a33d 8f30 293d 4da7 7e3b 7efa 873d
00000340: 05c1 55bd e80f 36bd 1fcc 823c 5c64 043e
00000350: 4127 c4bd e33d 43bd 4619 78bc 0e21 973a
00000360: 7f7b 713d f499 dabc ff3f f0bc 906c 9c3c
00000370: 12bf bd3d 7eec e63c dc43 34bd fc7f 8ebd
00000380: 9a21 c33d cba6 a4bd 5339 393d 5829 8fbd
00000390: 99cd 30bd 3fc2 89bc e3ff 513c e9a5 63bd
000003a0: 1900 663d 1e28 893d dd8c 693d b05d c4bc
000003b0: af17 31bc 2e39 143d 2c21 1a3d 91b0 9f3a
000003c0: 9b9b 7dbd 8629 62bc 8df2 1b3d fa0c bebc
000003d0: b09a cebd 0723 a7bc 98d5 acbd 2cc3 a3bd
000003e0: ad46 013e 8086 bf3d 55f7 04be 0123 183c
000003f0: 6f50 ef3b 5e50 3dbd 41ac e23b 176c 543d
-0.059848282 0.058928225 0.052641824 0.05344196 0.02368504 0.013535785 0.18327774 0.18856771
0.016885806 -0.039208256 -0.07739941 -0.028215263 0.05531181 0.051669773 -0.036722682 -0.007048618
-0.059250124 0.041751973 -0.064513534 0.0774779 -0.05393675 -0.026348673 -0.07584938 -0.12048666
0.106251694 0.10771296 -0.03721297 -0.108476885 -0.06188808 0.0577581 -0.06127395 -0.120330654
-0.07994845 -0.023649467 0.01967374 -0.0068766763 -0.064699315 -0.16044192 -0.052827198 0.028089501
0.10494169 0.071183264 -0.113156766 -0.12928854 0.18321797 0.0691863 -0.070948295 0.033867978
-0.037679464 -0.0904887 -0.03113911 -0.01941216 0.009710442 0.05112924 -0.09541774 -0.020996492
0.1141764 -0.04059924 -0.06367284 -0.047689177 0.031782676 -0.017144175 -0.16041167 0.06949462
0.021596938 0.017366216 0.009881978 0.092146456 0.023310944 0.10794605 -0.028304938 -0.102475114
-0.01682225 0.016806193 0.15488891 0.07561924 0.18011184 -0.10789293 0.01961033 0.03906583
-0.08097441 0.03557233 -0.0021738547 0.017389106 -0.028856713 0.062541395 -0.03310483 -0.020985015
0.043676976 -0.044163473 -0.019171463 0.1040908 0.0031327303 0.004393286 0.1722396 0.05183978
0.07720602 0.09239521 0.09124425 -0.039061435 0.0050730323 0.06708957 0.05895473 0.003613765
-0.017938204 -0.12868817 0.022362866 -0.011455887 -0.03436327 0.020559236 -0.024718214 0.0014793065
0.0475568 0.07581139 0.06081389 0.058690466 -0.062282436 0.05498042 -0.0713264 0.0043081306
-0.012820536 -0.028971188 0.06371941 0.24017605 0.041653357 -0.20527092 0.027511148 -0.0759254
0.007238693 0.027429566 0.09182379 0.08687981 -0.08458231 -0.008810219 0.20681377 0.004585263
0.01646213 -0.033793613 -0.09471727 -0.0061180163 -0.08780362 -0.056512184 -0.09562608 0.045183893
0.14817809 0.0043967217 0.02853443 0.069609895 0.12870555 0.17271075 0.040772155 0.047205795
0.026346149 -0.108868584 -0.071693555 -0.07032501 -0.091200195 -0.097082876 -0.03375929 -0.06626437
0.040481377 -0.1048517 0.060537778 0.004626292 0.16300331 0.021478055 0.12604007 0.011517961
0.07280483 -0.11985817 -0.11001994 -0.08255907 0.103505135 0.12644747 -0.032001242 -0.0037564852
-0.058467682 -0.074289866 -0.121738136 -0.023062844 0.088871256 -0.13001621 -0.07462537 -0.08341834
-0.11229793 -0.060748365 -0.16545834 0.090123385 0.07354888 0.15891775 0.014105823 -0.01023224
0.036019105 0.027493402 0.03449299 0.0092583 -0.09293382 0.1744385 -0.018726587 0.082481265
0.10692089 0.06331873 0.10612631 -0.0049754595 0.0799314 0.041306075 0.0038857043 0.066395745
-0.05218603 -0.044448763 0.015966473 0.12928909 -0.095777996 -0.04766644 -0.015142744 0.0011530237
0.058955666 -0.026684739 -0.02932739 0.019094735 0.092649594 0.02818894 -0.04401003 -0.06958005
0.09527893 -0.08039626 0.045220684 -0.069903076 -0.043164823 -0.016816257 0.012817356 -0.055578146
0.056152437 0.06697105 0.057019103 -0.023970455 -0.010808869 0.036187343 0.03762929 0.0012183358
-0.061915975 -0.013803845 0.03807311 -0.023199547 -0.10088098 -0.020402445 -0.08439177 -0.079962105
0.12624617 0.09351826 -0.12984975 0.009285689 0.0073032896 -0.046219222 0.006917507 0.051860895

cnn_blocks.0.convs.0.bias f4 [16]
00000000: 1c91 19bd 41fa 973c b319 90ba f9a6 e7bc
00000010: 0f80 7fbd b9de 5f3d f4f5 f0bc 234d 8fbd
00000020: 7847 7c3d 03de 86bd bca7 e5bb c69d 93bd
00000030: 2018 5c3d 185a a53c 88b1 893c 90e9 9c3c
-0.037491903 0.018551948 -0.0010993987 -0.028277861 -0.062377986 0.054655764 -0.029414155 -0.069971345
0.061591595 -0.06585314 -0.007008521 -0.07207827 0.053733945 0.020184562 0.016808286 0.01915434

cnn_blocks.0.convs.1.weight f4 [16, 16, 3, 3]
00000000: 07f5 af3d 92ea 083d d007 fb3b ada0 edbd
00000010: 83d5 133e 55e3 fa3c 0200 f83c ff3d b13d
00000020: 48c4 8a3c adeb acbd cd75 683c df60 d33b
00000030: eb68 a7bc 6bdc 193e 3588 c93d 935f fbbc
00000040: 596d 8d3d 15ec 7abd 7c1e 90bb 8f1d db3a
00000050: 80f0 b0bd 18f8 0abd c54f 0fbe 7126 fabd
00000060: a4ad f63d d5cc 8a3d 208f df3b 8fbc 46bd
00000070: 48f9 db3c 4eb8 1cbd 705e 323e 1e2f d1bd
00000080: 9648 75bd 41b7 4ebd 2f39 5ebd 721d 3c3c
00000090: 9f0a 84bd e9bf a13c bb2a 78bd 94d9 05bc
000000a0: 60b8 a23d 2391 c0bc acc7 1bbe 5612 2e3d
000000b0: 5680 9db9 3c60 b93c e9b4 63bc f2de 003b
000000c0: 7ab2 ab3a 7643 873d 6b49 013e b55f c83d
000000d0: 5abd 51bb ef89 ad3d 1d81 e4bb 954c 4c3c
000000e0: 61f2 4dbc 92cf 24bd 9b3c 89bd 8a74 15be
000000f0: 3008 803d bb9b 42bd a63e 95bd f081 ae3c
00000100: 7f55 adbd bd16 083c 3b4b 303d 6c15 cf3d
00000110: 2b28 e03b 74fa cebd 3a0f fc3c 6856 5fbb
00000120: cda9 32bc d5ec 91bb 8054 c73c b028 c1bd
00000130: b866 dcbc 62b3 24be 9064 033e 4d74 2bbd
00000140: 35fa 6b3d 68fb d4bb 1399 51bb 418c a0bc
00000150: 38c3 9ebd 7141 e53b 54ca 283c eb17 b1bd
00000160: afba 023d 727f a93b 5134 923d ab9c 0bbd
00000170: 3309 193d bccf bfbb 1d8b d5bc 3620 8e3d
00000180: a7b9 023c e3ee 01bd c777 d53c 72b1 9d3c
00000190: 041a fd3b 66b9 3dbd 306b e0bd e1ef fbbc
000001a0: 9422 1b3d aecb 963c c907 20bc 7ebc 18bd
000001b0: cb66 693b ae8a 07bc d67b 7cbc 2a73 20bd
000001c0: 353f b7bd ffe0 b2bc ece4 8fbd 84d2 093d
000001d0: 2ea0 413d 0107 9bbd 880c 17bd 5eeb 5abd
000001e0: 05d0 b4bb 7e36 3bbb deee 25bd 309a 333d
000001f0: faca a73d 01be f93d e826 5bbd 1056 46bd
00000200: ae48 93bc 8f93 d0bc 996a 22bb 8b1e 2ebe
00000210: 90a6 693d 4f1c bb3d 3674 e73d 5382 30bd
00000220: 6319 2ebc df96 4bbd 08e9 14bd 6813 b93c
00000230: 6180 93bc 1a87 ef3c 53d6 033d 0c92 48bd
00000240: f382 a63d da31 91bd c0db c5bd 44c8 c2bd
00000250: 11ad b0bc 874d 113e 5240 b0bd 15f8 bcbd
00000260: b50e 46bd ea32 b53d 12aa d13c 0ae8 3f3d
00000270: 37cf 413c 9e1a f33c 2311 19be 978b b0bc
00000280: bd41 10bd cfdc d0bd d9d3 52bd 2648 30bc
00000290: 7305 9bbd 7cef 3dbd a9a4 373c ac45 3f3c
000002a0: 0115 5fbc acb3 50bc a212 9ebc f3f7 ef3c
000002b0: d88e f13c f9b7 96bd ccfa d2bd 5c8e 7abc
000002c0: c81e 063e 188c 133d 1a35 8cbd c6d5 ea3b
000002d0: 4245 653c a317 fd3d 3754 ecbb b557 2b3d
000002e0: d08b 94ba d145 95bd c028 1e3e 1da1 53bd
000002f0: d53f aa3c c01c 9b3d 16e7 4ebd 400b 46bd
00000300: 6cf1 72bc e8c2 b4bd 07ba 48bd 9874 8ebb
00000310: 6ff7 213e f776 403d d3e6 e0bc 19e4 73bc
00000320: 7da2 223d 1f36 473d b214 76bd 50c2 d5bd
00000330: 1876 103c d899 dcbc 827e 9b3a 7114 853d
00000340: ac46 d9bc 3433 c13d 973c ba3c 775b 843d
00000350: 0432 b4bb 4b80 6bbd 4d61 68bc 884f 46bc
00000360: f8a7 0b3d 35f4 fabc 249a f63b fd6c 56bc
00000370: 0064 bc3d ff8d 4d3d 379a 8cbd b7c8 85bd
00000380: dca2 f6bd 0578 1d3d 8906 393c 93ed 223c
00000390: be72 0bbd 2a32 98bd 0d99 8bbc dde9 31bd
000003a0: 3be5 b7bd 658a 083e f2e1 e13c 1f85 613d
000003b0: eb58 b6bd b27e f1bd f270 94bd b416 cdbd
000003c0: 314a aa3b 38a2 233d f832 a53c 15fb 5b3d
000003d0: b483 ae3d 5cfc 063e 4d29 223e 798f 703d
000003e0: 477b 28bd 5603 c53d 4775 a9bc 5416 94bb
000003f0: 7ee3 c5bc 6517 f9bc fafa d0bc 624c cc3d
0.08591657 0.03342683 0.0076608434 -0.11602912 0.14436917 0.030625978 0.030273441 0.08654403
0.016939297 -0.08443389 0.014188242 0.006450757 -0.020435771 0.15025489 0.098404326 -0.030685222
0.06905622 -0.0612603 -0.0043981653 0.0016717183 -0.08639622 -0.033928007 -0.13995273 -0.12214363
0.12044838 0.0677735 0.0068224818 -0.048519667 0.026852265 -0.038261704 0.17418838 -0.10214065
-0.059883676 -0.050467733 -0.054253753 0.01148163 -0.06447338 0.01974483 -0.060587626 -0.00816955
0.07945323 -0.023506707 -0.15212888 0.042497955 -0.0003004099 0.022628896 -0.013898113 0.0019664136
0.0013099455 0.06604664 0.12625663 0.0978388 -0.0032003731 0.08473574 -0.0069733993 0.01246943
-0.012569995 -0.040237017 -0.06701013 -0.14595237 0.06251562 -0.047511797 -0.0728734 0.021302193
-0.08463573 0.0083062025 0.043040495 0.10111508 0.006840726 -0.10106364 0.03076898 -0.0034078602
-0.0109047415 -0.0044532814 0.024332285 -0.09431589 -0.026904449 -0.16084054 0.1283133 -0.04185896
0.057611663 -0.0064996965 -0.0031982108 -0.019598128 -0.07752079 0.0069963266 0.010302145 -0.0864714
0.031916317 0.0051726634 0.07138885 -0.034084957 0.03736229 -0.0058536213 -0.026067311 0.069397375
0.007978833 -0.03172196 0.02605809 0.019249652 0.0077240486 -0.046319388 -0.109579444 -0.030754032
0.037874773 0.018407669 -0.009767481 -0.037289135 0.0035614248 -0.00827281 -0.015410384 -0.03917233
-0.08947603 -0.021835802 -0.07026085 0.03364803 0.0472719 -0.07569695 -0.036877185 -0.05344712
-0.005517962 -0.0028566415 -0.040511005 0.043848217 0.081930116 0.121944435 -0.0535039 -0.04842192
-0.017978992 -0.025460986 -0.0024782775 -0.17003839 0.057043612 0.09136259 0.11301462 -0.043093037
-0.01062617 -0.04970443 -0.03635505 0.022592261 -0.018005552 0.029239226 0.032186817 -0.048967406
0.08130445 -0.070895866 -0.096610546 -0.09510854 -0.0215669 0.1418973 -0.08606018 -0.092270054
-0.04835387 0.08847602 0.025593791 0.04685215 0.011829189 0.029675778 -0.14947943 -0.021550937
-0.035218943 -0.10198366 -0.051471565 -0.010759389 -0.07569399 -0.04637097 0.011208692 0.011674326
-0.013615848 -0.01273815 -0.019295994 0.029293036 0.029487059 -0.07359309 -0.10301742 -0.01529273
0.1309768 0.036022276 -0.06846066 0.007166597 0.013993563 0.12358024 -0.0072121876 0.04183169
-0.0011333171 -0.07288707 0.15445232 -0.05166732 0.02078239 0.07573843 -0.05051335 -0.048350573
-0.014828067 -0.08826238 -0.049005534 -0.004347395 0.15817045 0.046988454 -0.027453816 -0.014885926
0.039705742 0.0486356 -0.06007833 -0.10437453 0.008817218 -0.026928827 0.0011863264 0.064980395
-0.026522957 0.09433594 0.02273397 0.06462758 -0.0054991264 -0.057495397 -0.014183355 -0.012103923
0.034095734 -0.030634025 0.007525699 -0.013087508 0.09198761 0.050184246 -0.06865352 -0.06532424
-0.12042782 0.038444538 0.011293062 0.009944337 -0.034044974 -0.07431443 -0.017040754 -0.04343592
-0.08979269 0.13334043 0.02757356 0.055058595 -0.089036785 -0.11791743 -0.07248105 -0.10014096
0.0051968326 0.039949626 0.020165905 0.053706247 0.08521214 0.13182205 0.15836067 0.058730576
-0.04113319 0.09619777 -0.020685805 -0.0045192633 -0.024156328 -0.030406663 -0.0255103 0.09975506

cnn_blocks.0.convs.1.bias f4 [16]
00000000: 1dc9 aabd 36ad 46bc cf55 2ebd f435 323d
00000010: 5583 4d3d abdd 3b3b 2905 893d a35f 0abd
00000020: c799 f3bc d77a 08bd f6cc 0f3d c24b cb3c
00000030: 0b7b 1d3c 3c38 7abc 787c 92bd 0582 143c
-0.083391406 -0.012126258 -0.042562302 0.043508485 0.050174076 0.002866606 0.06690437 -0.033782613
-0.029736413 -0.033320274 0.035107575 0.024816398 0.009611855 -0.015272196 -0.07152647 0.009064202

cnn_blocks.0.norms.0.weight f4 [16]
00000000: 5dc7 793f f781 843f 65f8 853f 4201 803f
00000010: d83f 833f 5b0b 7f3f 8879 783f fccb 813f
00000020: 65ac 813f b0ad 823f d8b3 813f 5b6f 823f
00000030: fb0f 873f 0095 733f 4c5d 7e3f 341d 803f
0.9756983 1.0352162 1.0466429 1.0000384 1.0253859 0.996267 0.9706044 1.0140376
1.0130736 1.0209255 1.0133009 1.0190233 1.0551752 0.9514923 0.9936111 1.0008912

cnn_blocks.0.norms.0.bias f4 [16]
00000000: 4fb3 8bbc a7bf 4fbd fe13 8c3c 0364 72bd
00000010: f6bc a8bd 6be7 20bd 8527 8abd b3cb 70bd
00000020: 390f 89bc 13de f6bc 1635 d3bd 38d2 b2bd
00000030: 3af3 c8bd acaf 36be 7ab2 2bbd a7b4 58bd
-0.017053274 -0.050719883 0.017099377 -0.05917741 -0.082391664 -0.039283197 -0.06745819 -0.058788013
-0.016730892 -0.03013519 -0.1031286 -0.08731502 -0.09812017 -0.17840451 -0.041918255 -0.05290666

cnn_blocks.0.norms.0.running_mean f4 [16]
00000000: b7fb 80bd 565f f73d e92a 1b3d 0875 fd3c
00000010: 0a29 68bd d382 873d 7e16 54be 7ea2 bebd
00000020: 4b01 013e a691 4a3c b00b 89bd 00c9 8abe
00000030: 15bd 9dbc 0f2d 453c becb 0abd 9cf8 863d
-0.06298011 0.12078731 0.03788272 0.030939594 -0.056679763 0.066167496 -0.20711705 -0.09308337
0.1259815 0.012363827 -0.06691682 -0.27106476 -0.0192552 0.012034669 -0.03388571 0.06590387

cnn_blocks.0.norms.0.running_var f4 [16]
00000000: 0a78 623d f751 863d d3af 963d 154f 413d
00000010: bb09 343d 2681 713d 3bd6 a13d 7e90 c93d
00000020: 8d22 3d3d c8d2 233d 40d9 5b3d 6ae5 9f3d
00000030: 0a71 863d ca0a 603d e22a 133d 82ab 963d
0.05529026 0.06558602 0.073577546 0.04719456 0.043954592 0.058961056 0.07902189 0.09842013
0.04617553 0.03999594 0.053673983 0.07807429 0.06564529 0.05469779 0.035929568 0.07356931

cnn_blocks.0.norms.1.weight f4 [16]
00000000: 85c1 883f 0998 813f f947 913f bda1 883f
00000010: fc74 983f f186 893f 0515 923f 0f4e 7f3f
00000020: 2240 a03f fccb 863f 5b5a 903f d048 8e3f
00000030: f6d0 893f 294c 8c3f ed2b 813f 3833 883f
1.0684057 1.0124522 1.1350089 1.0674359 1.1910701 1.0744306 1.1412665 0.9972848
1.2519572 1.0531001 1.1277574 1.1115971 1.0766895 1.0960742 1.009153 1.0640631

cnn_blocks.0.norms.1.bias f4 [16]
00000000: 84e5 24bc b254 35bd 5d7b 383d d606 0b3c
00000010: 1928 843c e4d2 73bc 7650 17bd 9b21 0dbd
00000020: 9885 e1bd 2fa3 523c 54db debc ad4b 74bc
00000030: 022b a4bc 4ced d9bc b99d c7bb 1991 893c
-0.010064486 -0.044270225 0.045039523 0.0084855165 0.016132401 -0.014881823 -0.036941968 -0.034455877
-0.11011809 0.012856289 -0.027204193 -0.014910621 -0.020040039 -0.02660241 -0.0060918 0.01679282

cnn_blocks.0.norms.1.running_mean f4 [16]
00000000: d48b 8fbe 9117 b43d 2a39 ad3d eea8 283e
00000010: fa5b 70be c426 113d 306d a43d 6bf6 dcbc
00000020: e451 0a3e c626 44be 6f96 4aba 1fb5 673e
00000030: 1d52 6ebe 9bff 93bd c627 16be 7466 00be
-0.28036368 0.087935574 0.08458169 0.16470692 -0.23472586 0.03543736 0.08028638 -0.02697297
0.13507801 -0.19155416 -0.0007728105 0.22627686 -0.23273511 -0.07226487 -0.1466361 -0.12539083

cnn_blocks.0.norms.1.running_var f4 [16]
00000000: 4ed5 923d 6dda d83d 5020 ef3d f4bc df3d
00000010: c156 ea3d 6af6 0b3e ea4c b83d db8d 2d3e
00000020: 4fea 053e 929f ee3d b7f9 0f3e 18bf cb3d
00000030: baa2 f83d e2a0 a53d 18b6 1e3e 0eb0 073e
0.07169591 0.105885364 0.11676085 0.10924712 0.11442328 0.13668218 0.08999045 0.16948645
0.13077663 0.11651529 0.14060102 0.099485576 0.12140413 0.080873266 0.15499151 0.13250753
