checkpoints/abl_fused_only/best_model.pt (torch, 256789 bytes, 142 tensors)

embedder.feature_projections.0.weight f4 [32, 1]
00000000: f0a0 afbe 7208 60be 36c8 94bf acf5 4ebf
00000010: c7c9 7cbf b90a 45bf 0f83 abbf 5682 8d3f
00000020: 1685 10be e48c 963e 954a 9b3f de69 5d3f
00000030: e873 cd3d 6970 1e3f 9119 583f e27a eabe
00000040: a30f 90bf 25e5 5ebf eb61 443f 8fa5 9abf
00000050: 4d81 a93f e696 713f 3dfc 903d b1b0 863f
00000060: 0a5f 96be fb44 1bbf 0ffb 76bf 68f2 363f
00000070: a506 cebe 6097 2d3f 6df0 4d3f 3ff7 5b3e
-0.34302473 -0.21878222 -1.16236 -0.80843616 -0.9874539 -0.76969486 -1.3399371 1.10554
-0.14113268 0.29404366 1.2132136 0.86489666 0.10031873 0.61890274 0.8441401 -0.45796877
-1.1254772 -0.87068397 0.7671191 -1.2081774 1.3242584 0.9437088 0.07079361 1.0522672
-0.29369384 -0.6065213 -0.96476835 0.7146363 -0.40239444 0.67809105 0.80444986 0.21481036

embedder.feature_projections.0.bias f4 [32]
00000000: 17eb d53e a7d4 fe3e e43c 56be a8c2 ad3d
00000010: 94c9 cebe c4ab 53bf 48b3 ebbe ac3d 813e
00000020: 10aa 52bf fe7e 04bf 53d8 cfbd 835d 43bf
00000030: c13d e8bd 366c cb3e 3d52 173f 3c33 9fbe
00000040: 8448 573f e3ff ffbe 37ed 623f 442f 54bf
00000050: a2d4 453f f8fb 09bf 7da7 3f3f defc 78bf
00000060: 12b1 27bf 1b87 35bf 8ecf 0b3f 8b12 413f
00000070: a044 bb3c b8d7 e2be 88f3 02bd 230c 30bf
0.41780922 0.49771616 -0.20921665 0.08484393 -0.40388167 -0.8268397 -0.46035218 0.25242364
-0.82290745 -0.51756275 -0.101486824 -0.7631456 -0.113399036 0.39730996 0.5910986 -0.31093776
0.84095025 -0.49999914 0.8864321 -0.8288462 0.77277577 -0.539001 0.7486494 -0.97260845
-0.6550456 -0.7090928 0.5461358 0.7541892 0.022859871 -0.44305205 -0.03197053 -0.6876852

embedder.feature_projections.1.weight f4 [32, 1]
00000000: 01bb 2cbf 43a9 453f b03d e43e 0677 0bbe
00000010: 7248 07bd 6d20 213f aae3 4d3f 7f1e b23e
00000020: 725c 64bf ef26 0b3f 15a1 363f 4c1c c7be
00000030: fe13 80be b0eb 4b3e c405 55bf 6aaf 603e
00000040: 205c c1be 27d2 113f 31d5 3a3f 67d0 d03e
00000050: 0df7 10bf 1018 c63e e330 433d d8be f03e
00000060: f38c 083f 15e9 b73e 2b5d 533e 5a5b 92ba
00000070: d9ee 79bd 877e 753e 7efc 1f3c 0340 393f
-0.67472845 0.772114 0.44578314 -0.13619623 -0.033028074 0.629401 0.8042551 0.34788892
-0.8920356 0.5435628 0.7133954 -0.38888776 -0.25015253 0.19914126 -0.8321192 0.21941915
-0.37765598 0.5696129 0.72981554 0.40783998 -0.5662697 0.38690233 0.047654044 0.47020602
0.5334007 0.35920015 0.2064101 -0.0011166141 -0.0610188 0.23974048 0.009764789 0.723633

embedder.feature_projections.1.bias f4 [32]
00000000: ce51 2abf cf16 b83e b630 29bf 937d 4a3f
00000010: 58f1 20bf 087f 1dbf 94a5 f3be a001 38bf
00000020: 1a97 763d c5f3 903e 1f1b 03bf ddb7 233f
00000030: 1a55 82be 54c4 b1be 14d0 89be 13c8 133f
00000040: 2078 233f d80e 48bf 3194 2ebf f8e5 133f
00000050: d904 2ebf e61a 76bf c728 64bf 72d1 bebe
00000060: 6cca 633f 5cb3 cfbe 0cae b4bd d943 0ebf
00000070: 08cc 6fbf 2a31 d43e 54d2 ecbe 2414 ecbe
-0.66531074 0.35954902 -0.6608995 0.7909786 -0.6286826 -0.6152196 -0.47587264 -0.7187748
0.060202695 0.2831098 -0.5121326 0.6395243 -0.25455552 -0.347201 -0.26916564 0.57727164
0.6385517 -0.7814765 -0.6819487 0.5777278 -0.67976147 -0.96134794 -0.8912472 -0.3726917
0.88980746 -0.40566528 -0.08822259 -0.5557228 -0.936707 0.4144376 -0.46254218 -0.46109116

embedder.stabilizer_embedding.weight f4 [8, 32]
00000000: e917 05c0 c18f b03e 5c97 db3e e198 dbbe
00000010: f340 ab3f 5838 8e3e b35d fe3e e522 903f
00000020: 83c4 ccbe 2561 b3be 40ff 2bbf eacf b9bf
00000030: eeb4 9fbd b77f 1b3f 3edc 3e3d 27e5 a83f
00000040: 6df9 64bf b103 cb3d ba4f 493f fa0c cc3e
00000050: 8d2a debf f9c6 95bf c013 003f dc9e d1be
00000060: 89fa 32be 9904 8cbf 4c16 043f 4175 40be
00000070: a403 9d3f 7920 14bf b3f9 79be 07da 10c0
00000080: d291 523f 17d6 35c0 811a 9bbf 269f 673e
00000090: 9758 82bf 1fbb 773e 0ef2 e13e ef56 80bf
000000a0: 979c 723e 77f5 0640 e44c 2c3f e008 403f
000000b0: 3730 aabf 83c2 43bf b213 3640 2614 2bbf
000000c0: 318a 9abf 8f4b 983e f215 a13c 717c 853f
000000d0: dc22 a6bf 8e3c 43bf 4d8c 823f 3256 88be
000000e0: 6c98 aabf 19a5 1fc0 e6bb 95bd 33d7 5e3e
000000f0: 0cb5 adbf 2695 d7be 2e64 5b3f 3d8b 47be
00000100: 574c e5be 2d90 0fbf 8ac6 233f b05b 00bf
00000110: e26d a1bf 6af7 dcbe ccfa 13bf 05f4 0140
00000120: 6e67 653f c79a b93e f0cd fc3d f8a6 b8bf
00000130: 7eb3 4dbf 8159 dcbe 74f3 9cbf d141 41be
00000140: 135d a4bf c1c8 b3be 5c16 85be 8291 e5bf
00000150: 38bc 123f 8379 a4be a6d9 6f3f 7f56 3a3e
00000160: d5bb 8c3e 25d5 093e 10b9 d8bc f928 883f
00000170: 35f7 643f f420 afbf 0436 db3f 540b b73b
00000180: 7ca0 10bf 2087 2f3e f220 583f d4b2 7d3f
00000190: 2b0f 0f3f 66c9 9c3e 9a4b abbf df79 0340
000001a0: 3ab3 56be 10e7 aebe e5c9 a93e 8924 09c0
000001b0: 2887 8abe 0078 263f 5cac e8be 7752 f6bd
000001c0: 6337 c53f 8a5a babe 7a55 5c3f f740 08bf
000001d0: 482d 2a3f 45b6 c13f cd64 91bf 8b5f b0bf
000001e0: bb2c d03e ff15 45bf 2543 6ebf 33ac 713f
000001f0: 26ea 933e 1001 17bf db52 25c0 323a bd3e
00000200: 5f15 353f 1860 813f b994 bfbe d8cb 97be
00000210: 638a 0dc0 2410 973f fc59 0c40 a1a0 fbbd
00000220: 4c5b 54bf 40bc a6b9 f5b0 2540 c1e0 54be
00000230: d545 9fbf dc9f 8d3e 9718 433f 9030 273f
00000240: 02e3 ecbf 977e 14be 6842 9abf 6f9d 783f
00000250: 89b6 adbe a2ee 02bf 11b0 1f3f 4ae4 47bf
00000260: 50f5 fdbc a9b4 603d cf33 473f 6f8d 393e
00000270: 0ed4 c3be f71f e6bd 291f ce3d e7fd 593f
00000280: fe6c b6bf 23f0 4bbe 918b d63f 5951 aebe
00000290: a7fe 943f 3f58 f0bf 4687 19c0 de74 793f
000002a0: d84c 0f40 c950 d43d dbc6 ccbf d647 dcbf
000002b0: 5cd1 f2bf 1ed6 0840 2622 d3bf dacf 74bf
000002c0: 6432 2c3e de9b 9fbe 9404 763f 2849 513f
000002d0: e467 0e3e a3e5 193d cc09 993e b3b0 e13f
000002e0: d547 6e3f 262a e03e 9f75 1e3f 31bb 82be
000002f0: 673d 48bf 0b16 30bf ff85 993f d4e3 09bf
00000300: 2dab 2d3f 4db3 b6be 4f58 84bf 9655 bc3e
00000310: 75a9 aebd 6f96 15be 784a 47bf 5ef1 d2bf
00000320: dfb1 523e acc8 6b3f 5ccd f43b 21b0 993f
00000330: 7bf9 1b3f 86ed c5bf 0da8 863f ba7a 0a40
00000340: a156 47bf df06 b23e c5ad 7cbf 45ba 12bf
00000350: 343a 1dbf c5cb a13e fd2b aebe f5ec 56be
00000360: 7703 ce3e d763 90bf 251e 4b3f ab73 be3e
00000370: f92f b13e 48a4 cb3e 99b9 d13d 36d3 c7bf
00000380: 3957 993c b21e ebbe da01 f9be e919 263f
00000390: ab59 03c0 aa54 e13e 699e 9ebf 69e6 ec3e
000003a0: ff2f bfbf e1c5 5c3e 0d60 d63e 4fe6 6cbf
000003b0: f5df 48bf 8cae 0a3f 97ff 9abf 5a0b 89bf
000003c0: 0f8a e23d 4acc c6be 0a7c 65bf 17ff 3e3f
000003d0: 7afe 933f ed76 14bf f141 e73f f8f5 a13e
000003e0: ed9e fb3e a544 973f 1814 cb3f 4871 df3f
000003f0: 278e 0640 62f5 e0bf aa98 18bf 4e1d 2ebd
-2.0795844 0.34484676 0.42888916 -0.42890075 1.3379196 0.27777362 0.49680862 1.1260649
-0.39993677 -0.35035053 -0.67186356 -1.4516575 -0.077981815 0.6074175 0.046596758 1.3194932
-0.89443094 0.099128135 0.7863728 0.3985365 -1.7356735 -1.1701347 0.50030136 -0.40941513
-0.17478384 -1.0938903 0.5159652 -0.18794729 1.2266736 -0.5786205 -0.24411659 -2.2633073
0.82253754 -2.841192 -1.2117463 0.22619304 -1.0183285 0.24192475 0.44129986 -1.002653
0.23692547 2.108732 0.67304826 0.7501354 -1.3295964 -0.76468676 2.844952 -0.6682762
-1.2073423 0.29745147 0.019663785 1.0428602 -1.2979388 -0.76264274 1.0199066 -0.26628262
-1.3327765 -2.4944518 -0.073112294 0.2176178 -1.3570876 -0.4210598 0.8569974 -0.19486709
-0.44784805 -0.5607937 0.6397482 -0.50139904 -1.2611659 -0.43157512 -0.5780456 2.0305188
0.89610946 0.36250898 0.12343967 -1.4425955 -0.8035201 -0.43037036 -1.2261796 -0.18872763
-1.2840904 -0.351141 -0.2599362 -1.793503 0.5731845 -0.32123956 0.9369148 0.18197058
0.27487054 0.13460214 -0.026455432 1.0637504 0.8943971 -1.3681931 1.7125859 0.005586067
-0.5649488 0.1714139 0.8442527 0.99100995 0.5588252 0.30622405 -1.3382447 2.0543134
-0.20966807 -0.34160662 0.33161846 -2.142855 -0.2705624 0.65026855 -0.45444 -0.12027448
1.5407528 -0.363972 0.86067927 -0.5322413 0.66475344 1.5133749 -1.1358887 -1.3779157
0.40659127 -0.7698669 -0.93071204 0.9440338 0.2888958 -0.58985996 -2.583182 0.36958462
0.70735735 1.010745 -0.37418154 -0.29647708 -2.2115715 1.1801801 2.1929922 -0.12286497
-0.8295181 -0.00031802244 2.5889256 -0.20788862 -1.2443186 0.27661026 0.76209396 0.65308475
-1.8506777 -0.14501415 -1.2051516 0.97115225 -0.33928326 -0.51145375 0.6237803 -0.78082716
-0.031000763 0.05485979 0.7781343 0.18120359 -0.38247722 -0.112365656 0.10064537 0.8515305
-1.4252012 -0.19915824 1.6761342 -0.34046438 1.1640214 -1.877693 -2.3988814 0.9744395
2.2390652 0.10366971 -1.5998186 -1.7209423 -1.8970141 2.1380687 -1.6494796 -0.95629656
0.16816097 -0.31173605 0.96100736 0.8175225 0.13906819 0.037572514 0.29890287 1.7632049
0.93078357 0.43782157 0.61898226 -0.2553344 -0.7821869 -0.68783635 1.1994017 -0.53863263
0.6783932 -0.3568367 -1.033945 0.36784047 -0.08528415 -0.14608167 -0.77848005 -1.647991
0.20575665 0.92103076 0.00747077 1.2006875 0.6092755 -1.5463111 1.0520035 2.1637406
-0.7786656 0.34770867 -0.9870265 -0.57315475 -0.61416936 0.31600776 -0.34017935 -0.2098883
0.40237018 -1.1280469 0.7934287 0.37197623 0.34606913 0.39773774 0.10240478 -1.5611331
0.018718349 -0.45921856 -0.48634225 0.64883286 -2.052348 0.44009906 -1.2392093 0.4626954
-1.4936522 0.2155986 0.41870156 -0.92538923 -0.7846673 0.5417259 -1.210925 -1.0706589
0.11061489 -0.38827735 -0.89642394 0.74607986 1.1562035 -0.57993966 1.8066999 0.31632972
0.49144688 1.1817824 1.5865507 1.7456446 2.1024263 -1.7574885 -0.59607947 -0.042508416

embedder.res_block.0.weight f4 [32]
00000000: a612 803f 50e2 7a3f 7bb5 8e3f 81f7 813f
00000010: 36f3 6b3f ec16 6b3f 06fa 773f a563 823f
00000020: 948f 713f c48c 733f 0bf3 873f fb97 843f
00000030: 99b6 813f 90ea 6c3f 6a90 843f 25d4 653f
00000040: 8d70 883f d069 723f 3aea 823f f746 863f
00000050: 8393 823f 7de1 873f 0b70 753f db4b 803f
00000060: 2b35 843f 8cbf 803f aa88 823f 4f6b 723f
00000070: d37e 683f a013 863f 7286 803f 860b 773f
1.0005691 0.98001575 1.1149133 1.0153657 0.92167985 0.9183185 0.9686588 1.0186659
0.9435971 0.95136666 1.0621046 1.0358881 1.0133849 0.92545414 1.0356572 0.8977683
1.0659348 0.9469271 1.022773 1.0490407 1.0201267 1.0615689 0.9587409 1.0023149
1.0328726 1.0058455 1.0197957 0.9469499 0.9081852 1.0474739 1.004103 0.9650196

embedder.res_block.0.bias f4 [32]
00000000: 903c 493d c9c9 d6bc 70c9 f53b 4c9f 47bd
00000010: 2f4d 623d a929 6c3d 61ce 633d c61e 9abc
00000020: c4ce bc3b 1411 003b 8a8e 82bc e6af 273c
00000030: 0c50 bb3c bcee 77bd 0d99 e03c 5aa4 bdbb
00000040: c2d3 54bb ff2a 803d 9a4d e4bc 4247 a23c
00000050: 64db 44bb 0a8d 80bc 7a48 11bd 9f10 0abc
00000060: 243e 51bc 8fdb 083d 016f 37bc 6758 17bc
00000070: ab7b 24ba c824 51bb 8374 02bd 01d0 0d3d
0.049130023 -0.026219266 0.00750082 -0.0487359 0.05524939 0.057656918 0.05561674 -0.018813502
0.005761953 0.001954143 -0.015937109 0.010234809 0.022865318 -0.06053041 0.02741673 -0.0057874145
-0.003247485 0.06258201 -0.027869035 0.019809369 -0.0030037994 -0.015692253 -0.03546951 -0.008426814
-0.012771163 0.033412512 -0.011195899 -0.009237385 -0.00062745315 -0.0031912792 -0.031849395 0.034622196

embedder.res_block.1.weight f4 [32, 32]
00000000: cd10 253e dec2 813d 04d3 c4ba 3483 663a
00000010: 942a 8c3d 9a54 a7bd 22e6 fdbb ad22 35be
00000020: 30e9 cbbd 23b7 513d 31f4 153d 0226 2dbd
00000030: d9f0 353d f8e2 05be 5d22 2fbe 2987 193e
00000040: c051 203e 20fa d03d 9ec4 2ebc 0ecd b3bd
00000050: 3dab 92bd ffcb 95bc b0b9 8ebd 1f73 b5bb
00000060: 8de5 b0bd e44e 153c 8cbc 12be 16c6 2bbe
00000070: 34b4 67ba 4582 fc3d c9cc 443d e768 74bc
00000080: 6fcf 993d e54a 723d 8db0 6cbd 6483 10be
00000090: 3dc8 4e3e 8e97 e73d f859 11be f799 4b3e
000000a0: e5e4 263e d4e3 39be 400f e73d b94b 023e
000000b0: 9547 8bbd 03c3 e0bc 905b b83b 1e00 1f3d
000000c0: b277 2dbd 9c14 23bd 91eb 3fbe bdcf f1bd
000000d0: 1497 2fbe 4270 273c 7c86 a43c b327 333e
000000e0: 2e46 bdbd 0936 b43c 12d7 37be 0e45 29be
000000f0: 7543 db3d 2984 d73c 44da 9bbd 26d2 db3d
00000100: fb6a cc3d d3bb 1abe 2dc1 043e 1f8a 0b3e
00000110: 5168 bf3c be23 0b3d 5996 93bd eb4a 28be
00000120: e313 d0bd 3372 c93d 7d9c 7dbe a93e 0ebe
00000130: 1639 45be 87a6 7bbd e738 75be 8206 48bc
00000140: 5d4a 5f3e 3123 04be 320b ccbd 253a 613e
00000150: cae5 bdbc 614b c33b 8c8a 89bd 96ad de3d
00000160: acec aabc 768a ebbb cec7 3e3e 0985 a9bd
00000170: 5fec 003e dba3 403d a1c7 f9bd b938 003e
00000180: 9e43 49be 1993 bd3d a641 43bd 78b4 d93d
00000190: cfc5 a13c 704f cc3d 290e 88bd 4446 33bd
000001a0: e26d a43d 27eb 803d eeaa 023e 6fa0 9fbd
000001b0: 99d2 533e 71cb 903d 278c 10be 2925 f23d
000001c0: 4954 0ebc 2d9f eabd de34 e03d c562 16be
000001d0: db8c 56bd 8615 5ebd 3878 2ebe 664a 80bd
000001e0: 45c2 603d 069a ab3d 5bf6 40be 541a d0bd
000001f0: b658 893d fd8c c83d e2d1 2cbe 723c bebd
00000200: dd8f 103e bce5 213e cfdb 24be 7079 4aba
00000210: 36d0 1bbe b46a 443d 0215 d6bd 945e 293e
00000220: bb08 63bd 8103 e53d ed12 623e b675 213c
00000230: b245 d6bc 1755 fe3d e8aa 513e 87a4 1bbd
00000240: 0e97 2dbe 5a67 97bd d25c 15bc bcfc ba3c
00000250: d0c3 143d d409 f83d a31d 6ebd 8a81 9fbc
00000260: e372 12be 4a28 a23d dc49 ba3d d2ca 56bd
00000270: 8722 46be 0c79 283d ecb5 b1bc 88d9 20be
00000280: 20d3 093e d68b 2cbd 3192 3c3e 4f36 c73d
00000290: ce15 e3bc dd6d 4b3e b598 6ebd 0b61 c8bc
000002a0: a3a5 f63d dac1 1cbe 2750 adbd 1c32 8dbd
000002b0: 5de2 aa3d 5395 ebbd 222e 33bd 7cb9 01bd
000002c0: 492c fcbd 5a16 403c b323 f03c ec7d a3bd
000002d0: 31a2 6f3d 07fe c2bc 8a8c 3a3d 4a94 bb3d
000002e0: f238 eabd 6aa4 fcbd 2281 8f3d 8822 51bd
000002f0: 0d53 093d ec17 13be def8 b6bc 0fc6 53bd
00000300: 46d2 c9bd 8ad4 153d 4108 733c 60fd 6f3e
00000310: ebe1 353e 6bb2 3ebd 33ef a4bd 01b1 efbd
00000320: 8e94 06bd 8e01 403d 6d0d b63d ba81 5dbb
00000330: 5adf 06bd eda0 f0bc 747c 51be f28f 97bd
00000340: 2afe 51bd 09d6 90bd da7f 2bbe f2c9 acbd
00000350: f958 5abd fbfc 64be 4615 68bd 2ea3 e83b
00000360: fdbb d53d 2e63 063e 76b4 063e ef0e e2bd
00000370: 95dc a53d b5ff f6bc 937d 33bd d19e 11be
00000380: d7dd 523b fee3 75bd 9cee 52be 89bb c83c
00000390: 029f 743d 24c4 d63d 4f52 5cbb 0336 cbbc
000003a0: 0f77 9ebc a47d c9bd bb54 3abc 4a48 473e
000003b0: 2efe 563e 34f8 78be 6a49 93bd 4612 f73d
000003c0: 2719 98bd 0b80 3c3c 7a31 c23d 6d63 10be
000003d0: 4af4 ac3d 1117 d93d fc3c 2dbe 661f 633e
000003e0: e06c 483e 8719 13be c5b0 6c3d 0050 80bd
000003f0: 8327 c63d 8f0f 403e b7ab 5abb 2ec8 473d
0.1611969 0.06335996 -0.0015016501 0.00087933545 0.06844059 -0.08170433 -0.0077483812 -0.17689009
-0.09956586 0.051200043 0.036609832 -0.042272575 0.044419143 -0.13074863 -0.17102952 0.14992966
0.15656185 0.102039576 -0.010666994 -0.087793455 -0.07161567 -0.01828575 -0.06969011 -0.005537405
-0.08637533 0.009113047 -0.14329737 -0.16774783 -0.0008838803 0.123295344 0.04804686 -0.014917589
0.07510268 0.059153456 -0.05778556 -0.14112622 0.20193572 0.11308204 -0.14194477 0.19882952
0.16298254 -0.18153316 0.112822056 0.12724198 -0.068007626 -0.027436739 0.0056261495 0.03881847
-0.04235048 -0.039814577 -0.18742205 -0.11807201 -0.17147475 0.010219635 0.020083658 0.17495613
-0.09241901 0.021998422 -0.17953137 -0.16530249 0.10706226 0.026308136 -0.0760999 0.10733442
0.099813424 -0.15110712 0.12964316 0.13626908 0.023365172 0.033969633 -0.07206411 -0.16434829
-0.10160043 0.09836235 -0.24766727 -0.1389109 -0.19260058 -0.06143811 -0.23947488 -0.012208583
0.21805711 -0.1290405 -0.09963073 0.21994837 -0.023180861 0.0059599136 -0.06715879 0.10872953
-0.020864807 -0.0071881367 0.18630907 -0.082773276 0.12590168 0.047031265 -0.12196279 0.12521638
-0.196547 0.09256572 -0.04767003 0.10630125 0.019747643 0.09976089 -0.06643326 -0.043768182
0.08028771 0.06294852 0.12760517 -0.07794272 0.20685805 0.07070053 -0.14115964 0.11823494
-0.008687087 -0.114561416 0.109475836 -0.14686115 -0.052380424 -0.054219745 -0.17038047 -0.062641904
0.05487277 0.08378987 -0.18843977 -0.10161272 0.067063734 0.097925164 -0.16876939 -0.09288873
0.1411738 0.15810293 -0.16099475 -0.0007723784 -0.15216145 0.047953323 -0.10453226 0.16539985
-0.055428248 0.11182309 0.22077532 0.009854725 -0.02615628 0.12418573 0.20475352 -0.037998702
-0.16952154 -0.073927596 -0.009116368 0.022825591 0.036319554 0.121112496 -0.058133733 -0.019470949
-0.14301638 0.07917841 0.09096119 -0.05243952 -0.19349109 0.041131064 -0.021693192 -0.15707982
0.13459444 -0.042125545 0.18415143 0.097271554 -0.027720358 0.19866128 -0.0582511 -0.024460336
0.120433114 -0.15308324 -0.084625535 -0.06894323 0.083439566 -0.11503091 -0.043745168 -0.031671032
-0.12313134 0.011724079 0.029313898 -0.07983002 0.058504287 -0.02380277 0.045544185 0.09159143
-0.11436643 -0.12336047 0.07007052 -0.051058322 0.03352647 -0.14364594 -0.022335466 -0.051702555
-0.098545596 0.036579646 0.014833511 0.23436499 0.17761962 -0.04655687 -0.08053436 -0.11703683
-0.032856517 0.046876483 0.088892795 -0.0033799247 -0.03292785 -0.02937361 -0.20457631 -0.07400502
-0.05126778 -0.07072074 -0.1674799 -0.084369555 -0.053307507 -0.2236213 -0.056660913 0.0070995307
0.104362465 0.13123772 0.13154778 -0.110380046 0.08098713 -0.030151227 -0.04382093 -0.1422074
0.0032175684 -0.060031883 -0.20598835 0.024503486 0.059721954 0.104866296 -0.0033618396 -0.024806028
-0.019343881 -0.09838417 -0.01137274 0.1946117 0.209954 -0.24313432 -0.07191737 0.12064032
-0.074266724 0.011505137 0.09482093 -0.14100428 0.08445032 0.10600103 -0.16917795 0.22179946
0.19572783 -0.14365207 0.057785768 -0.06265259 0.09675505 0.18755935 -0.003336651 0.04877489

embedder.res_block.1.bias f4 [32]
00000000: 061e 3abe a469 08bd 88a2 033e 27e6 833d
00000010: 4f0a 0dbe fbc1 dcbd 8c99 1cbd e068 50bc
00000020: 6826 7cbd d64b 2a3c fe64 9a3d 0be5 ee3d
00000030: 2b41 fdbc 6003 683d 106a 99bd c9ce cb3b
00000040: cfb9 2ebc 9a40 ffbd 6861 97bb 293f e5bd
00000050: 8dd1 febb 9e41 02be d2eb bf3d c76d 293e
00000060: 8d49 0f3e f224 813b b862 f63d e42d 15be
00000070: ec44 2ebe 3238 bdbb 07fe 98bd 3e2e e83d
-0.18175516 -0.03330387 0.1285497 0.064403825 -0.13773464 -0.10779186 -0.03823237 -0.012720317
-0.061560065 0.010394057 0.07538794 0.1166478 -0.030914864 0.056643844 -0.07490933 0.006219719
-0.010664417 -0.12463494 -0.004619766 -0.111936875 -0.0077764452 -0.12720343 0.09371151 0.16545783
0.13992901 0.003941172 0.12030548 -0.14568287 -0.17018479 -0.0057745213 -0.07470327 0.11336945

embedder.res_block.3.weight f4 [32, 32]
00000000: 8edd 843c 3da2 3a3e 3af2 663d 2c7b 4e3e
00000010: fa52 abbd b774 b7bd a33b 0a3e 6141 8f3d
00000020: 8373 03bd 3c87 023c 0ad6 0c3d 88bd 2cbe
00000030: 7a85 2b3e f833 36be c48c 13be 0553 d03c
00000040: 3154 633e 2cdc 303e 160e 3fbe d211 483c
00000050: a6f5 e83d 1150 c4bd f2e3 e73d 8478 863a
00000060: 7c2b 313e b03a 573c a12d 2fbe 7e98 493d
00000070: 7d9d f33d 4161 9cbd 5c30 353e cf51 4f3e
00000080: 714c a0bd 1a8b 29bd 4a3a 9d3c b3e1 833d
00000090: 28ce 963d 9d8d 9bbd 8e88 01be 7d68 5abe
000000a0: cdbe d93d 5342 17be 44be 31be 6fcb ffbb
000000b0: 2f2f 403e 9c51 f5bc 49dd 093e bcd3 52bd
000000c0: c470 a9bd 1767 063e 73f9 313e 8773 f43b
000000d0: 63a3 a13d e5de 0cbe 32cc 1abc abd7 45be
000000e0: 06a2 d9bd 7f7e c0bd eb9e c4bd 7247 133e
000000f0: a362 06be f2ba 32bd bdc4 f53d 99a3 823d
00000100: 8025 abba 70ec 013e e347 cdbd 38ab e73d
00000110: bada e9bd 7600 2bbe 645e 99bd 173f 4ebe
00000120: a61a d9bd cbd3 f0bd b43d b7bc 3d2d 1ebe
00000130: 1f32 443e 0b97 fc3d dd30 3dbd bbec e53d
00000140: 771d 36bd 182a 6ebd 55fa 493c 960f e83d
00000150: 2b80 ae3d d84b df3d f4be fbbd 1efc aa3c
00000160: 8bbe f1bd 0eef 013e cfa2 0cbe c801 253e
00000170: c40d 043e 8c98 2fbe 7243 b63c 7e52 403e
00000180: 9ccd cebc 9200 723d 63e3 13be cf7b 4f3d
00000190: 1be0 1cbd c78e e83d 4902 2c3d 1bba 313e
000001a0: df51 b4bd 7c19 4fbe 2da8 2c3d f1a4 be3d
000001b0: abb3 273d 776a 4cbd 935a a13d b63d 61bb
000001c0: 9def bf3d f59a 26be 14a8 70bd 3335 363d
000001d0: 40f1 d5bd 78c1 82bd 1fae d13d 2f5b b73c
000001e0: ccc4 133d 3fd2 e7bd 61f5 2cbd 91aa 1b3c
000001f0: 35c3 bbbd 0f17 cfbb accf 2cbe e4de dcbd
00000200: 091a 26be a1e0 e0bd 40cc 1a3d 0bb3 1cbb
00000210: 6267 c43d a329 14be 69e0 803d cb48 7e3c
00000220: 6ec2 633d 1e4e adbd f5ed 0fbe 6762 f13c
00000230: 4ef7 153e 3173 0d3e 4b5e 31be 89cb 413d
00000240: 43d1 1c3e 17d9 0ebe b981 ab3c 5e7c 7abd
00000250: 3676 973c 690f 1bbe c163 0fbe 82d7 193e
00000260: ef56 0bbe 5095 273e 293f 8f3c 16d5 e93d
00000270: ad6f f13d 3e3c d33c b1fa e2bd 10ed bb3d
00000280: 05fb e0bd 1545 f63d fddf cb3d 49ee 5a3d
00000290: 7132 ecbd 2338 e53d 49b3 403e da57 04be
000002a0: 4291 b13d 2ef0 233e 6d6a cd3d bb08 14be
000002b0: 1669 003e 407c d93d 1f09 06be d077 2bbe
000002c0: dfef 63bd e2fa 5f3d f707 1cbd e960 ce3c
000002d0: d557 4b3d bb65 01be fdf0 173e 6d98 5fbd
000002e0: 4629 033c 33f8 e1bd a439 243c b56b efbd
000002f0: aecc 41be 572a efbd 0817 00be be59 f93d
00000300: 6667 8ebd 3112 fb3d 24de 673d fa7d 10be
00000310: 63bd 85bc eb16 2c3e 8a29 4f3d fb7d 953d
00000320: beb2 1c3e 6047 dabd d8fb cdb9 0def f73d
00000330: bf7d cf3b c138 4f3d f518 17bd 89d5 023e
00000340: a049 d03d 8c91 653d 4b14 1c3d 0c3a 17be
00000350: 4b9c febd 5336 1c3e 16df d9bd 09d0 363e
00000360: ac5c ccbd b240 11be 638a 39be b429 0b3e
00000370: de82 56bd 6c0b babd 6f26 f83d 4c7a 173e
00000380: 916a 0e3e d8be b43d beba 57bd a79c 90bd
00000390: 4a45 be3d c890 f2bc fbca 1bbe 510e 3dbe
000003a0: a926 71bd a78d 8e3d d1a1 cf3b 40a6 fb3d
000003b0: 2979 34be bc0e 07be b0c3 ecbd 930d 253e
000003c0: ad47 b3bd eb49 fbbd 168d c0bd 6e51 bb3d
000003d0: 797c 82bd 041e 203e 36d0 88bd 04e8 20bd
000003e0: dcd7 793d 81f2 c7bd 03b6 793d 174f f5bd
000003f0: 5b89 9bbd b25f c03d 7f40 9cbd 70b0 d9bd
0.016218927 0.18225951 0.05638335 0.20164174 -0.08365436 -0.089578085 0.13499312 0.06994892
-0.032092582 0.007966813 0.03438381 -0.16869175 0.16750136 -0.17793262 -0.14409167 0.025430212
0.22200085 0.17271489 -0.18657717 0.01221128 0.11374979 -0.09585584 0.11322774 0.0010259305
0.17301744 0.013136551 -0.1710725 0.049217694 0.11895273 -0.07635737 0.17694229 0.20246051
-0.0782708 -0.041392423 0.019192833 0.06439533 0.0736354 -0.0759537 -0.12649748 -0.21328922
0.106320955 -0.14771394 -0.17357737 -0.0078062336 0.18767999 -0.029946141 0.1346332 -0.051471457
-0.082734615 0.13125263 0.17380314 0.007460061 0.07892492 -0.13756903 -0.009448098 -0.19320552
-0.10626607 -0.09399127 -0.09600624 0.14382723 -0.13123564 -0.043635316 0.120004155 0.0637886
-0.001305744 0.1268785 -0.10023477 0.11311954 -0.11418672 -0.16699395 -0.07488707 -0.20141254
-0.10600786 -0.11759146 -0.02236829 -0.15446945 0.19159745 0.12333497 -0.046189178 0.112267934
-0.044461694 -0.058145612 0.01232775 0.11331098 0.0852054 0.10903138 -0.12292281 0.020872172
-0.11803921 0.12688848 -0.13733982 0.1611396 0.12895876 -0.17148036 0.022248957 0.18781468
-0.025244527 0.059082575 -0.1444221 0.050655182 -0.03829966 0.113553576 0.041994367 0.1735615
-0.08804678 -0.20224565 0.042152572 0.09308804 0.04094283 -0.04990622 0.07878604 -0.0034369058
0.093718745 -0.16270049 -0.05875404 0.04448433 -0.104464054 -0.063845575 0.10238289 0.022382347
0.036076352 -0.11319398 -0.0422262 0.009501115 -0.09168092 -0.0063198875 -0.16876096 -0.107847005
-0.16220869 -0.109803446 0.037792444 -0.002391043 0.09590031 -0.14469008 0.06292803 0.015520285
0.055605344 -0.08462165 -0.14055617 0.029465867 0.1464512 0.13813473 -0.17321126 0.047313247
0.15314202 -0.1395 0.02093588 -0.061153762 0.018488985 -0.15142597 -0.14002897 0.15023616
-0.13607381 0.16365552 0.017486172 0.11417596 0.117888786 0.025785562 -0.11082972 0.091760755
-0.10985378 0.12024895 0.09954832 0.053449903 -0.115330584 0.11192348 0.18818392 -0.12924138
0.08670284 0.1600959 0.10030065 -0.14456455 0.12540087 0.10619402 -0.13089417 -0.16744924
-0.05564868 0.05468262 -0.038093533 0.025192695 0.04964431 -0.12636463 0.14838023 -0.054588724
0.008005446 -0.11033668 0.010023508 -0.11690465 -0.18925735 -0.116779976 -0.12508786 0.1217532
-0.069533154 0.12259329 0.056608334 -0.14110556 -0.016325658 0.16805618 0.050576724 0.072994195
0.1530256 -0.10658145 -0.00039288285 0.12106142 0.006332129 0.050591234 -0.036889035 0.1277677
0.10170293 0.056047007 0.03810529 -0.14768237 -0.12432154 0.15255098 -0.106382534 0.17852797
-0.09978613 -0.14184836 -0.18119197 0.13590127 -0.0523709 -0.0908421 0.121167056 0.14792746
0.1390784 0.08825463 -0.052668326 -0.07061129 0.092905596 -0.029610053 -0.1521415 -0.18462493
-0.05887476 0.06960612 0.0063364287 0.12287569 -0.17624344 -0.13189214 -0.11560762 0.1611846
-0.087539054 -0.12269958 -0.0940191 0.09146391 -0.063713975 0.1563645 -0.06680338 -0.039283767
0.060996875 -0.09763051 0.060964596 -0.11977976 -0.07594558 0.093932524 -0.07629489 -0.10629356

embedder.res_block.3.bias f4 [32]
00000000: 5409 cd3d ae70 9c3c 4772 073e 95cd 21be
00000010: 268f babd 76cd 3b3c afa1 27be 1def ac3d
00000020: 1661 72bd 8487 37be 86dd be3d 0c47 f4bd
00000030: a350 c7bc e831 ce39 be74 a8bc e634 31be
00000040: ff25 2abe 22bf 583d e88c 8dbc 60f1 a73d
00000050: 5f2e a23c 4b0b 04be 2067 25bd fffb 483d
00000060: 281a ff3c 51bf c53d b7be 3a3d c104 fa3d
00000070: a177 013e cdf4 863d a116 263d b0bd 92bc
0.10011545 0.019096699 0.13227187 -0.1580108 -0.09109335 0.01146256 -0.16370271 0.08444045
-0.05917462 -0.17922789 0.09319596 -0.119276136 -0.024330443 0.00039328565 -0.02056348 -0.17305335
-0.16616057 0.052916653 -0.017279103 0.082003355 0.019797502 -0.12894933 -0.04038155 0.049068447
0.031140402 0.09655631 0.045592036 0.12207938 0.12643291 0.06589661 0.040548924 -0.017912716

cnn_blocks.0.proj_in.weight f4 [16, 32]
00000000: da8e 213d ab3a f43d 6211 0cbe 2660 a83d
00000010: 3929 0d3d bd7a 153e 8159 0c3e e1bd ec3d
00000020: 3928 e3bc 9f12 b4bd d790 0ebe 3351 4b3e
00000030: 5cd3 cb3b 907e dcbb 1ba2 b43d a46b cf3d
00000040: c719 2f3d 4ba1 bdbc 2842 57bd 4be9 cdbd
00000050: c4b2 233e e160 8b3d 5dd2 96bd e1d1 0ebe
00000060: 07d9 fdbb a86d 80bd 9ddb 35bc 5d36 d4bb
00000070: 1a9a c0bc 6665 32be 66b7 16bd d41b 9c3d
00000080: 7bfe ee3d cd5a e53d 302b b9bc e820 663e
00000090: 127c 20be 9441 6ebd eac6 0abe 6e62 f237
000000a0: 880b 87bd 1648 3ebe 92a9 02be a944 1e3e
000000b0: 097d f83d 3a04 43bb 84c2 15bd 16e0 603d
000000c0: 57bf 65b9 64dd dd3d a014 d6bd 4e42 0abe
000000d0: 397c 91bc 6f1e 123e 8d66 cdbd 5f4b f8bb
000000e0: 65d4 05be 6cc4 2c3d 43ac 99bd a0e7 bf3d
000000f0: e452 153e f312 36be 7c67 543c 957f 3e3e
00000100: 313d 4dbe d891 233c 7cde c43c 9a5c 24be
00000110: c3c6 1a3e 7840 e4bd ddb6 a33d d36c 243e
00000120: 841e 17be b7ea 8c3c d4a4 77be bd2d e03c
00000130: 5461 86bc bb94 81bd aab3 ccbd 8251 0e3e
00000140: fcce 8abd 3004 aa3d 5dcd 0c3e ebc7 9a3d
00000150: 9164 a8bc 42c1 3bbe 693b 15bc b42f b9bd
00000160: 3d04 5d3d b214 ff3c 83cd 02be 6d7e e53c
00000170: 6d9b 013e e8d0 ce3d 5e7d 0ebd c5cc c83d
00000180: db47 96bd 32b4 0ebe f389 15bd 395c 043e
00000190: 7ec1 d3bd 9890 163e 82ed 14be 5755 81bd
000001a0: 1be7 4f3d 2149 97bd e371 5f3e 0d16 1fbd
000001b0: e870 7fbd ff3c 323d 93bb 823d 5c85 1bbe
000001c0: 6581 783d 4b0f c0bd a82e fcb9 4328 4cbc
000001d0: bdc1 9fbd ca3c 803d 9fcf bfbd 0735 43bc
000001e0: e29d 963d 8e8d 06be ae28 ee3d 9da4 893d
000001f0: 4cb1 ccbd 89ce 8abd dcd5 a9bd f310 3c3e
00000200: 3a09 dfbd dbb0 03be 431e b03c ee29 f7bc
00000210: 9b35 fc3d df3f b1bd 9f05 cebd a937 fe3c
00000220: fb2d 35bc c635 e0bc 9d06 143d 7fe3 cabd
00000230: 1a11 c6bd 26dd 613e e4f2 1a3e c8a6 4dbe
00000240: f364 593d 46b6 23be e4dd ae3d 2d9f ec3d
00000250: 7dc3 3f3e 55fd cb3d 7dc7 e7bd 8910 0bbe
00000260: 3953 d73d 346a e0bd e0b1 13be 3623 d83d
00000270: e87b b5bd 6474 8c3d fab0 bebd bd75 b53d
00000280: 0d0b 81bd f61a 223e c447 7b3d 3914 f83d
00000290: e719 163d 0d31 443e 240a 91bd bc1d 653d
000002a0: 27e7 40bd 5db3 f43d 93ac 6fbe 02a4 3abe
000002b0: 0e89 eebc 206c 533e c540 b5bd 12b1 64be
000002c0: 1c36 33bd a427 a03d 83da 2d3e ddc0 3e3c
000002d0: b3ce dabd ee5a ae3d ac92 aa3d e387 a3bd
000002e0: 8ebc 193e 6fb7 113e 7481 233e 7ea9 8a3d
000002f0: 6ad1 2d3e 360f cbbd 0d0c fbbd c57b 7a3d
00000300: 528b 1b3e 924a bfbd 2bd4 aa3c 2f5a a1bd
00000310: 9a66 2f3e a173 a2bc c3e3 aebc 8b7c a63c
00000320: 355d 733d 38bc 2dbe 1b18 3e3e 6fbb 31be
00000330: 7273 debd 21eb 413d 71da dd3d 6d0c 343e
00000340: 313c 133e afc0 053e 75f1 e83d d234 04be
00000350: 8f19 11bd 9f99 3cbe bf24 0ebe a47d d03d
00000360: 6907 5fbd 3d90 0ebd 396c 5a3e c296 ef3c
00000370: a68f 37bd 7406 963d c11a 3c3d 9e2d f83c
00000380: 8a27 b0bd 5364 03be 7f24 b93c f5c5 2d3d
00000390: a0bd 44be 4e01 16be 502d 36be b430 ddbc
000003a0: 2939 43bd 49a0 dbbd c6c1 3f3e 6f1d 373e
000003b0: 84ca 1d3d 7b60 d8bd 8612 063e 1e42 f63d
000003c0: 8b4a 173e 4f01 553e ff88 ac3d 88f2 963d
000003d0: 0155 083d ef49 c13d 60a6 ba3d a2b5 dd3d
000003e0: ea10 d23d 354f 7cbd 9401 3ebe c3e8 8a3d
000003f0: 0c27 553d 981f c4bd c167 573c b029 643d
0.039442874 0.119252525 -0.13678506 0.08221464 0.03446314 0.14597602 0.13706018 0.11559654
-0.02772914 -0.08792614 -0.1392244 0.19855194 0.0062202644 -0.0067289546 0.08819982 0.10127953
0.042749193 -0.0231482 -0.052553326 -0.10054263 0.15986162 0.068055876 -0.07364342 -0.1394725
-0.007746819 -0.06270915 -0.011099723 -0.006476207 -0.023510981 -0.17421493 -0.036795996 0.07622495
0.11669632 0.111989595 -0.022603601 0.2247349 -0.15672329 -0.05816801 -0.13552442 2.8894483e-05
-0.06593996 -0.18582186 -0.12759998 0.1545588 0.121332236 -0.0029757158 -0.036562458 0.054901205
-0.00021910421 0.108332425 -0.10453153 -0.13501856 -0.01775943 0.14269422 -0.10029326 -0.0075773443
-0.13069303 0.04217951 -0.075035594 0.09370351 0.14582402 -0.17780666 0.012964126 0.18603356
-0.20042874 0.009983502 0.02403187 -0.1605095 0.15114884 -0.11145109 0.07993863 0.16057138
-0.14757735 0.017201765 -0.2418397 0.02736556 -0.016403832 -0.06327196 -0.09995206 0.1389828
-0.067777604 0.0830158 0.13750215 0.075576626 -0.020555766 -0.18335441 -0.009108403 -0.09042302
0.05395912 0.031137798 -0.12773709 0.028014386 0.12656946 0.100984395 -0.03478753 0.09804682
-0.07337924 -0.13935927 -0.03650851 0.12925805 -0.1033964 0.14703596 -0.14543727 -0.063151054
0.05075751 -0.07386995 0.21820788 -0.03883939 -0.062363535 0.0435152 0.06383433 -0.15187591
0.060670275 -0.09377917 -0.00048099947 -0.012460771 -0.078006245 0.062615946 -0.093657725 -0.011914498
0.073543325 -0.13139936 0.11628853 0.067208506 -0.09994754 -0.06777675 -0.082927436 0.1836584
-0.10890432 -0.12860434 0.021498805 -0.03017136 0.12314912 -0.086547606 -0.10059666 0.0310324
-0.011058326 -0.027369391 0.03613912 -0.09906673 -0.096712306 0.22057018 0.15131718 -0.20083153
0.05307479 -0.159875 0.08538416 0.11553798 0.18726917 0.099604286 -0.11317346 -0.13580526
0.1051392 -0.10957757 -0.14423323 0.10553591 -0.08861524 0.06858137 -0.09311099 0.088603474
-0.06300936 0.15830597 0.061347738 0.12113232 0.036645796 0.19159336 -0.07082012 0.05593656
-0.047095444 0.11948273 -0.23405676 -0.18226627 -0.029118087 0.20646715 -0.088502444 -0.22333172
-0.043752775 0.07820061 0.16977887 0.011642662 -0.10683956 0.08513437 0.08328757 -0.07984903
0.15013334 0.1423013 0.15967351 0.06770609 0.16974416 -0.09915011 -0.12258158 0.061153192
0.15189865 -0.09340395 0.020853123 -0.07878529 0.17128983 -0.019830527 -0.02134884 0.020323059
0.05941506 -0.16966331 0.18563883 -0.17356656 -0.10861863 0.047343377 0.1083268 0.17582865
0.1437843 0.13061784 0.11374179 -0.12910774 -0.035424765 -0.18417977 -0.13881205 0.10180214
-0.054450426 -0.034805525 0.21330346 0.029246692 -0.04481473 0.073254496 0.045923952 0.03029519
-0.086012915 -0.1283124 0.02260041 0.042425115 -0.19212961 -0.14648935 -0.17790723 -0.027000763
-0.047661934 -0.10723931 0.18726262 0.17882322 0.038523212 -0.10565277 0.13093004 0.120243296
0.1477453 0.2080128 0.084245674 0.07370478 0.03328419 0.0943793 0.09113765 0.10825659
0.10257132 -0.061598975 -0.1855529 0.06782677 0.05203919 -0.095763385 0.013147295 0.05570382

cnn_blocks.0.proj_in.bias f4 [16]
00000000: f6fb ae3c e623 a7bd 53da 943d b265 0a3e
00000010: 8b63 063d 8403 d73d 449e 21bd e71d 3d3e
00000020: 6121 523e 050d 903c a87e 463d cd3d 193e
00000030: 21db 8b3c afeb f93d 6b08 bbbd c083 30be
0.021360379 -0.08161144 0.072682045 0.13515356 0.032809775 0.104987174 -0.039457574 0.18468438
0.20520546 0.017584333 0.048460633 0.14964981 0.017072262 0.12203156 -0.09132465 -0.17237759

cnn_blocks.0.convs.0.weight f4 [16, 16, 3, 3]
00000000: 3fbd c8bc ddfe 223e 0115 e1bd 189a f7bd
00000010: 6a37 143c 8474 d8bb a00e 0f3d bc3e 4cbc
00000020: 5779 16bd 0b9f 37bd ad31 a0bc 3a0c 213d
00000030: 58bc 833c e21d c43d 3e59 95bd 55da 943d
00000040: 562d 40bd 6803 04bd 450f b5bc b124 9d3d
00000050: e2fb 543d 3002 f43d 7a32 14be 5dec 3b3d
00000060: 0db5 ff3d 7508 8d3d 5289 8e3c 8180 d238
00000070: 842c a9bd 9fff 403d 39f2 9ebd ad4f 2b3e
00000080: d0e5 9b3c 4ae4 c0bc d382 84bc f88b 64bd
00000090: 3cf5 913d 3209 61bc 7887 523d 773d a3bd
000000a0: 4cda 54bd d5bf 19be 1efb f1bd e62a 8dbc
000000b0: 0c64 debc 34c8 863e 2c07 6c3d 2e33 433e
000000c0: 3ebc 173c f4c5 1d3e 2c1f 8d3c ea4e bcbd
000000d0: 8896 42bd 4ee8 293e 8b0c 2abc e3ec 7c3c
000000e0: 343c dabd 2b87 0f3a 288f cfbc 2e2a b73c
000000f0: f63e a33d 17d5 07bc 3fd1 95bd 46bd 0ebe
00000100: 5207 12bd 178c 0bbe 4f69 82bd 90fc a7bd
00000110: d853 3d3d 2937 1b3d d31e 31bc 21b0 fcbc
00000120: b076 d83d 3f38 a53c c506 7a3d fe28 bfbd
00000130: b4f6 62bd d339 7c3d 8ec3 823d 2b25 f43c
00000140: 24f8 013d 59c1 d33d 7aed 193d 871a 5d3c
00000150: c88d cfba 55e9 e9bc e3db 6dbc a8dc bb3d
00000160: aab6 713c af1c 963d 866f 013b dda5 013c
00000170: 7e4f 613c e72a c7bd 6a9b e2bd 0e84 d43d
00000180: a398 5bbd 5ca8 493d 4817 a1bd d90e d3bb
00000190: 374d dfbc 72c2 80bd 76b3 643b 122d ed3c
000001a0: 51fd 4a3d 9973 e13d cd59 7f3c 0122 443c
000001b0: 4521 ffbd 32d6 46bc 7fb2 9b3d cd15 56bd
000001c0: 2821 ac3d 62fe 883d f92e 8f3c cb8c a3bd
000001d0: 6a62 10be 53e2 a93d 4108 e73c 0c33 e2bc
000001e0: 2d6b 20bd 58c2 873d de74 103d e94d 0a3d
000001f0: 12c3 103d 14b4 aebc dfbc a23d f461 953d
00000200: 4b87 89bd d64c 60bd 885d 763d d882 9b3d
00000210: 4497 b0bd 69cb 27bd 44b8 df3d 6da6 31bd
00000220: 5754 c9bc 634e 02bd c7c6 a03c 477f 853c
00000230: 146f a53d 7f0f 25be 3919 15be e277 4dbd
00000240: 6c9a b7bd e278 1fbd ace0 06bd 096a d0bc
00000250: d1ce 20bc 501b 34bd be16 9cbc 2428 233e
00000260: f3a7 313d a9c2 433d 0524 dfbc 93cd 3d3d
00000270: 8d4e 443c 5721 af3d 3781 9ebd 75ea ca3c
00000280: 4831 0d3e 4401 19bd 7e21 d53b 2e2f 59bd
00000290: f36c 9bbd 67bc ddbc 0334 3abd b3fa bcbc
000002a0: 4358 f03c 70c3 4fbd 23f1 29bd 7736 553b
000002b0: 5fd2 01bd 1a2f 89bb 2c2f 0e3d d50f 873c
000002c0: 939d b3bd c9b3 0abd 6906 f93c 33e5 2c3d
000002d0: 1259 c53d a908 093d ce7b fbbb 2d91 093c
000002e0: 633b dfbc 6237 2ebd 6544 06be 2444 603d
000002f0: c224 5ebd 7472 803d 86e2 7cbd 7209 1e3d
00000300: 996a 973d 13eb 87bc 796b c0ba 3bff 89bd
00000310: 8fcb c3bd d293 2d3d 2ff4 5dbb 2cea 403c
00000320: 5fac 233e 79b6 f83c 9e2c 52bd e24e 1cbd
00000330: 2846 1cbc 9652 02bd ba5e ae3d 621f d03c
00000340: 07f6 54bd 0b0b 55bd 3dc5 c33c 43d1 83bd
00000350: ede5 523d a5a7 fc3d 9ec2 eb3d 29fc 7b3c
00000360: f925 8fbd 1b88 0bbd 3ace 383b 61b0 d1bc
00000370: d427 473d 9194 f03d 334b aa3d bd26 9cbb
00000380: f9ff c83b f580 07bd e271 27bd eb68 2cbd
00000390: 5302 c0bc 4347 6b3b bf38 8cbd 870d 123d
000003a0: a405 583d 8a45 9d3c c4c8 babd 0fbd f93d
000003b0: 4d40 2cbc 02c2 0d3e fa72 e73c c7ec 873b
000003c0: 2d30 debd 31fa d43d 7328 2fbd 48fe 79bd
000003d0: e18b b83d 2a28 1ebe 328e 063d 4159 5abb
000003e0: 296f 9ebc 8252 ac3d b53e 8abc 7c92 76bd
000003f0: 3abd 1bbd 1cb4 143d 0685 973d ded5 e0bd
-0.024504302 0.15917535 -0.10990334 -0.12089938 0.009046415 -0.0066056866 0.034926057 -0.012466129
-0.036736812 -0.04482941 -0.019554937 0.0393183 0.01608102 0.09576012 -0.07292412 0.07268206
-0.046918236 -0.03222981 -0.022102008 0.07673014 0.051998027 0.1191448 -0.1447238 0.04587971
0.124857046 0.06886379 0.017399464 0.00010037516 -0.08260444 0.04711878 -0.07761044 0.16729613
0.019030482 -0.023546357 -0.016175663 -0.055797547 0.07126853 -0.0137351025 0.051398724 -0.07970708
-0.051965997 -0.15014584 -0.11815475 -0.01723237 -0.027147315 0.26324618 0.057624027 0.19062492
0.009261189 0.15407544 0.017226778 -0.09194739 -0.04750684 0.16592523 -0.010378967 0.015437338
-0.10656014 0.00054751587 -0.025336817 0.02235898 0.07970993 -0.008290551 -0.07315301 -0.1393939
-0.035651512 -0.13627659 -0.06367742 -0.08202469 0.046222538 0.0378944 -0.010810572 -0.030845704
0.10569513 0.020168422 0.061041612 -0.093339905 -0.055411056 0.061578583 0.06384955 0.02980288
0.031730786 0.103396125 0.03757999 0.013495094 -0.0015835101 -0.028553644 -0.014517757 0.09172946
0.014753023 0.0732969 0.001975031 0.00791308 0.013751863 -0.0972498 -0.11064799 0.1037675
-0.053612363 0.049232826 -0.07865769 -0.006440979 -0.027258499 -0.062870875 0.0034897006 0.028952155
0.049557988 0.11008377 0.015585375 0.011970998 -0.124575175 -0.012136029 0.07602405 -0.052266885
0.084047616 0.06689145 0.017478453 -0.079858385 -0.14100042 0.08295121 0.028202178 -0.027612232
-0.03916471 0.06628865 0.035267703 0.033765707 0.035342284 -0.021326102 0.079461806 0.07294074
-0.06715258 -0.054760776 0.060147792 0.07593316 -0.08622602 -0.04096547 0.10923818 -0.043371607
-0.02457635 -0.031813037 0.019626034 0.016296042 0.08077827 -0.16119193 -0.14560403 -0.050163157
-0.089650005 -0.038933642 -0.032929108 -0.025441187 -0.009814934 -0.04397136 -0.019053813 0.15933281
0.04337306 0.047793064 -0.027238855 0.04633863 0.011981619 0.08551281 -0.077394895 0.024770001
0.1378833 -0.037354723 0.0065042367 -0.05302351 -0.0758914 -0.027067376 -0.04545976 -0.023068761
0.029338961 -0.050723493 -0.04148973 0.0032533684 -0.031694766 -0.004186523 0.034712955 0.016487041
-0.08770289 -0.033862863 0.030398564 0.04221077 0.096361294 0.033455525 -0.007674671 0.008396429
-0.027249997 -0.042533286 -0.13112028 0.054752484 -0.054234274 0.0627183 -0.061739467 0.038583227
0.07393379 -0.016591584 -0.0014680467 -0.067381345 -0.0956031 0.0423773 -0.0033867469 0.011774581
0.15983723 0.030360447 -0.05131208 -0.038161166 -0.009538211 -0.03181704 0.085141614 0.02540559
-0.051992442 -0.052012485 0.023897761 -0.06436398 0.051488806 0.12336663 0.1151173 0.015379944
-0.069896646 -0.034065347 0.0028199092 -0.0255968 0.048621967 0.11747087 0.08315124 -0.00476536
0.00613403 -0.033081967 -0.04088009 -0.042092245 -0.023438608 0.003590063 -0.06846761 0.035657432
0.052739754 0.019198198 -0.09120324 0.12194263 -0.010513377 0.1384354 0.028253067 0.004148099
-0.108490326 0.10399283 -0.042763185 -0.061033517 0.09011055 -0.15445009 0.03285045 -0.003331736
-0.019340115 0.084141746 -0.016875604 -0.060198292 -0.038022257 0.03630458 0.07398419 -0.10978292

cnn_blocks.0.convs.0.bias f4 [16]
00000000: 32ce e9bc 246c ecbc d7ae 61bd ad87 843c
00000010: 5d49 b8bd 714a 82bd 741f 07bc 912f 8c3c
00000020: 69b6 193d a705 02bd 6de5 1d3d fa36 34bd
00000030: 464c e53b 51b5 533b 4c94 063d a1c7 c73d
-0.028540704 -0.02886016 -0.05509838 0.016177977 -0.08998368 -0.06361855 -0.008247245 0.017112525
0.037527476 -0.03174367 0.038548876 -0.043997742 0.006997618 0.0032304118 0.03285627 0.09754873

cnn_blocks.0.convs.1.weight f4 [16, 16, 3, 3]
00000000: 219f 8abd 7fc5 36bd 36f3 643d 3b6d 713d
00000010: c5d0 cabc 76ad 3f3d f02f ab3d d883 cd3d
00000020: 8a94 91bd 4b45 b93d 361c 5abd 85ab 723b
00000030: 95ef d03c e26e cebd 2f14 1f3d b1ec ccbd
00000040: 1c79 a2bc 1a6b 2dbe c8df 4c3d f9eb 32bd
00000050: 7dd8 d3bc 5a3c 36bd 9c4f c8bd 0504 5bbd
00000060: c687 37bd c3d8 da3c a166 1bbd 5b03 2f3d
00000070: d14c acbd e987 0abe a28c f33c ec9b 07bd
00000080: 0fbd 863c 7a67 dcbc 8e97 09bd 4b48 b0ba
00000090: 2cfe aabc 8319 b23c aa9e 0e3d fddc 10be
000000a0: aa7a 6fbd 4bde 013d 9e72 30bd 145e f3b8
000000b0: 3e23 b43d f05e 04be 20da f4bc 956c 1e3d
000000c0: 51c3 bdbd 9e01 95bd 9c2e 323e a747 2b3e
000000d0: d15c 8f3c e03b 3c3d 9ced dbbd 97ce ccbc
000000e0: 6401 3ebb d28e c9bd 98ab 2bbd 25e4 e03d
000000f0: cbd6 9cbd c88c 393d 0a58 c3bc c065 86bc
00000100: 6ec6 ad3c 90bf 9d3d 6929 ea3c ab5c 383d
00000110: 6f74 54bc ba02 7d3d 19e7 e0bc f555 a1bd
00000120: 31fa 383d dd8a 713e 516e c63d a1da 533d
00000130: 6ced c33c bf7e 303d 926f 15b9 eb50 eebc
00000140: 8baa 9abd c245 183d a6f6 d13d dd3b 013e
00000150: b9f7 5ebd eecb 32bc a661 d3bd 2956 a1bd
00000160: b8c8 9ebd 4ef6 033d 3fa9 4dbc 1b8b 44bb
00000170: 3e1f c03b 1b78 a7bd 9eec 003e dd01 20bd
00000180: 695b c83d 12b4 073d 7d04 603d c86d c23d
00000190: 41d4 5d3d 78a0 16bd 6628 89bc 9fb8 77bd
000001a0: 1826 c8bd 1e32 e6bc c207 b23d 6e8b 103d
000001b0: 5527 51bc 0302 02be 950a 8abd 5be9 ac3d
000001c0: 03d6 683d 1fa2 e0bc 2acb 1b3d aea3 23bc
000001d0: 0c2a f23c d224 f03d f98e e33a 0a67 253b
000001e0: 52af cf3a 53e6 c03d 8520 9fbd 12fa 953d
000001f0: 58f8 9f3c ac20 2dbe 4e39 e5bb 9528 ad3c
00000200: 903c e8bc 2c9e ed3d acee 07bd 6e1f f63d
00000210: 7120 bbbd 6fc7 23be 790f 09bc 2f84 0dbe
00000220: 37a1 3ebd 7edc 213d 991d 3fba 4554 32bd
00000230: 2003 863d e186 aabd 9ad4 1fbd 3e4a 183d
00000240: 20b6 dd39 9bbd aa3c 5309 cbbd 9067 d8bd
00000250: 6456 903d 8771 b2bd d765 edbc 7447 003c
00000260: 4561 883c cb02 f43b 6a13 a93d 7b41 263d
00000270: 6084 1a3d fa4b bb3d 6c28 11bd 1035 3f3c
00000280: 10b6 b0bd 5c13 963d 7969 fd3d 7c50 67bc
00000290: 2d4e 983c d8dd 0ebd fd33 803d ae45 fdbc
000002a0: 9ebe 8c3d 920d b8bd c139 46bd dcb3 19be
000002b0: 43ac 0c3d abde 273d a3f2 a83c 21b1 df3d
000002c0: 03cb 7bbc 8406 b63d 31b9 bcbd 6f83 813c
000002d0: 2e4b 9c3d e39f c1bd b569 19bd 7771 49bd
000002e0: a2ec 30bd bd03 35be 9d09 3d3d d17c 4ebc
000002f0: 15d9 f8bc b5a0 023e 614b 313d 557d 093a
00000300: 6dda 413d 142f dd3d 51e9 71bd d35d 99bc
00000310: f336 723d 03e9 d7bd 662a 9abc 5595 a53d
00000320: 8085 b23d fc37 59bc 2d68 a83d 4843 8a3b
00000330: fc13 74bd 5266 9c3d f08a 183e bfb1 57bc
00000340: 5c73 993c 6982 5d3d 1f73 b4bd f51e 6f3d
00000350: 3ecd 6fbd 44d3 85bd af1f 81bc f503 373d
00000360: 41d1 c13c 52cd 98bd 13ea 02be 8dc9 99bd
00000370: 3dea 68bd 58a1 35bd ef4d 7bbd 95f2 84bd
00000380: 9d86 343c a192 a6bd 974a c73c 2fb2 3dbd
00000390: 37f3 3d3d 4ffd c63d 3009 12bd 9815 86bd
000003a0: de26 0abe 1fbe f2bc 7026 0a3d 875a e7bc
000003b0: c3c7 4a3e eaea 9ebc 2766 ee3c 45d1 cabc
000003c0: f312 84bc 5f50 37be 8561 883c bcc3 a9bc
000003d0: 4f1d c13c e43a e3bb 7e7c f4bc 7bac 0fbd
000003e0: 47d6 03bd 2853 eb3c 04ed 0abe 4b8b a33d
000003f0: b6ce 153d e8be 3bbd 077e b2bc 92e0 593d
-0.06768633 -0.04462194 0.055896007 0.05894206 -0.024757752 0.046796285 0.08358753 0.10034913
-0.0710841 0.0904642 -0.05324956 0.0037028503 0.025504867 -0.10079743 0.038837608 -0.10006083
-0.01983314 -0.16935387 0.050018102 -0.043682072 -0.025860066 -0.04449115 -0.09780809 -0.05347063
-0.044807218 0.026714688 -0.03793967 0.04272781 -0.08413089 -0.13528408 0.029730145 -0.033107683
0.016447572 -0.02690481 -0.0335918 -0.0013449279 -0.020873152 0.02174068 0.034819283 -0.141468
-0.05846659 0.031706136 -0.043078057 -0.00011604666 0.087957844 -0.12926841 -0.029889166 0.03867777
-0.09265769 -0.07275699 0.17400593 0.16726552 0.017500313 0.04595554 -0.1073868 -0.025000853
-0.0028992528 -0.09841694 -0.04191169 0.10981015 -0.07658156 0.045300275 -0.023845691 -0.01640594
0.021212783 0.07702553 0.028584199 0.04501025 -0.012967213 0.06177018 -0.027453946 -0.07877723
0.045160476 0.23588128 0.0968901 0.051722173 0.023916923 0.043089624 -0.0001425131 -0.02909132
-0.0755206 0.0371759 0.102521226 0.12620492 -0.054435465 -0.010912878 -0.10321359 -0.07877762
-0.07753128 0.032217316 -0.012552558 -0.002999014 0.0058630994 -0.08177205 0.12590262 -0.039064277
0.0978306 0.033130713 0.05469178 0.09493595 0.0541575 -0.03677413 -0.016742896 -0.060478803
-0.09772891 -0.02810007 0.08692886 0.03528922 -0.012765725 -0.1269608 -0.067402996 0.084429465
0.056844722 -0.027421055 0.03803555 -0.009987755 0.029561065 0.11725773 0.0017361335 0.0025238418
0.0015845096 0.09418931 -0.077698745 0.07323088 0.0195276 -0.16906995 -0.0069953566 0.021137515
-0.028349191 0.116024345 -0.0331866 0.120177135 -0.09137047 -0.15994047 -0.008365505 -0.13819955
-0.046540465 0.03951692 -0.0007290482 -0.043537397 0.06543565 -0.08326507 -0.039021112 0.037180178
0.00042288098 0.020842364 -0.09913888 -0.10566628 0.07047728 -0.0871306 -0.028979225 0.007829536
0.016647944 0.007446622 0.08255656 0.04058979 0.0377239 0.09145351 -0.03543894 0.011670366
-0.08628476 0.07327911 0.12373633 -0.01411831 0.018591965 -0.034879535 0.06259916 -0.030917015
0.06872295 -0.08986963 -0.048394922 -0.15010017 0.03434397 0.040983837 0.02062351 0.109224565
-0.015368226 0.088879615 -0.0921501 0.015809743 0.07631527 -0.09454324 -0.037454326 -0.049180474
-0.04319442 -0.17677207 0.046151746 -0.012603001 -0.03037695 0.12756617 0.043284778 0.0005244811
0.047327448 0.10799995 -0.0590604 -0.018721497 0.059134435 -0.1054249 -0.018819045 0.080851234
0.08716869 -0.013257977 0.08222995 0.0042194463 -0.05958937 0.076367036 0.1489675 -0.013164937
0.018731765 0.054079447 -0.0881102 0.058379132 -0.058545344 -0.06534436 -0.015762178 0.044681508
0.02365935 -0.07461037 -0.12784605 -0.07509146 -0.056864012 -0.044343323 -0.06135362 -0.06491581
0.011018422 -0.08133436 0.02432756 -0.046312507 0.046374526 0.097162835 -0.035653293 -0.065470874
-0.13491389 -0.029631672 0.033728063 -0.028241409 0.19802766 -0.019399125 0.029101444 -0.02475799
-0.016122317 -0.17901753 0.016648063 -0.020723216 0.023573546 -0.0069345105 -0.029844519 -0.0350766
-0.032186773 0.028726175 -0.13566977 0.079855524 0.036574088 -0.04583636 -0.02178861 0.053192683

cnn_blocks.0.convs.1.bias f4 [16]
00000000: e445 803d 146b 2b3d 1739 a03c 6d30 d33c
00000010: c2ab 82bd 029f 15bd 2672 233d be2a 833b
00000020: b246 103d 1872 54bd 115f 04bd 9245 863d
00000030: 8657 93bd 9698 443d 4054 91bd 397f 81bd
0.062633306 0.041850165 0.019558473 0.025779927 -0.063804165 -0.036528595 0.039903782 0.004002898
0.03522367 -0.05186662 -0.032317225 0.06556238 -0.07194428 0.04799708 -0.070961475 -0.06323094

cnn_blocks.0.norms.0.weight f4 [16]
00000000: 61a5 813f 9375 7b3f bdcf 823f 520f 893f
00000010: b488 823f 9684 803f 9661 733f d8ea 763f
00000020: ac87 693f dc35 743f b5cd 753f b422 7a3f
00000030: 3cad 813f 8b78 863f 8222 803f 232b 763f
1.0128595 0.9822628 1.0219647 1.07078 1.0197968 1.0040462 0.9507078 0.96452093
0.91222644 0.9539468 0.9601701 0.977092 1.0130992 1.0505537 1.0010531 0.9615957

cnn_blocks.0.norms.0.bias f4 [16]
00000000: d943 22bd f830 04be e4dd a5bd f381 b13c
00000010: 2e1b 17bc eb8b 46bd 6030 e0bc 14cd 2fbd
00000020: 0596 06be 4c2f d6bd e435 8b3c 70e2 babd
00000030: 9e89 ddbc 4f2b 35be 868c fdbc 6030 55bc
-0.039615486 -0.12909305 -0.08098963 0.02166841 -0.009222789 -0.04847328 -0.027366817 -0.042920187
-0.13143165 -0.1045824 0.01699347 -0.09125221 -0.02704316 -0.17692302 -0.030950796 -0.013012022

cnn_blocks.0.norms.0.running_mean f4 [16]
00000000: 929a cd3d f054 46bd a150 3a3d 967b 97bc
00000010: ce2b 423d 8f28 84bd fa98 5abd 0e08 cdbd
00000020: 26a7 0abe d85f d1bd 6c1a e03d 6e54 e6bd
00000030: 01f1 84bd 70e1 d4bd 980d e23c a743 2a3c
0.100392476 -0.048420846 0.04548705 -0.018491548 0.047405057 -0.064530484 -0.053368546 -0.10011302
-0.13540325 -0.10223359 0.109425396 -0.112465724 -0.0649128 -0.10394561 0.027594373 0.010392106

cnn_blocks.0.norms.0.running_var f4 [16]
00000000: fee6 4d3d f4fd 183d 4ce9 203d 638f 333d
00000010: 056f 1e3d d64c 803d d37d 283d 6f76 923d
00000020: cc72 1e3d 313f 373d 97e2 503d f309 2e3d
00000030: a403 293d 3ef0 803d e358 683d 8720 563d
0.05026912 0.037351564 0.03928499 0.043837916 0.038680095 0.06264655 0.04113562 0.07151496
0.038683698 0.044738 0.050997343 0.042489957 0.041263238 0.062958226 0.056725394 0.052277114

cnn_blocks.0.norms.1.weight f4 [16]
00000000: b413 833f f3fb 933f e3d5 8d3f 33da 8b3f
00000010: 3e27 903f 966f 863f 2d3b 943f e5a4 893f
00000020: ade6 873f 9042 8d3f d48f 8e3f cc76 913f
00000030: 6e06 983f 8911 8d3f b41d 943f 5139 863f
1.0240388 1.1561264 1.1080898 1.0925964 1.1261976 1.0502803 1.1580559 1.0753447
1.0617272 1.1035938 1.1137643 1.1364379 1.1876962 1.1020976 1.1571565 1.0486242

cnn_blocks.0.norms.1.bias f4 [16]
00000000: 92d9 8cb9 f557 a6bc f031 bdbd d137 5e3d
00000010: 3635 143c 2c92 2cbd 5efb 933c f74b 6dbd
00000020: 9911 b7bc f1d4 b4bc 70f7 ccbc efc7 273d
00000030: 2e47 bdbc c604 a5bd f3bf 81bc b716 36bc
-0.00026864983 -0.020305613 -0.092380404 0.05425245 0.00904589 -0.042131588 0.018064197 -0.057933774
-0.022347258 -0.022074195 -0.025020331 0.040962156 -0.02310523 -0.08057551 -0.015838599 -0.011113814

cnn_blocks.0.norms.1.running_mean f4 [16]
00000000: bac4 b23c f4ae cc3d cd5c 17be f7a6 70be
00000010: 9025 0abe 6a8f a5be 92c8 8d3b e9cc c7bd
00000020: 0002 da3e c773 813d 481f e03d ade4 75be
00000030: 6062 51be c158 683e 575b 24be 8c5b 49bd
0.021822322 0.09994307 -0.14781494 -0.23501192 -0.13490891 -0.3233598 0.0043268884 -0.097558804
0.4257965 0.06320911 0.109434664 -0.24013014 -0.20447683 0.22690107 -0.16050468 -0.04915957

cnn_blocks.0.norms.1.running_var f4 [16]
00000000: e507 fa3d ab96 d43d 17f4 b03d bef2 f73d
00000010: e054 b33d b476 ce3d d7f0 be3d 9c12 ce3d
00000020: 1a79 983d 3221 cd3d 83a3 1d3e 59c1 193e
00000030: f8ca 0e3e 925a b53d 0730 f03d 4c22 103e
0.12208537 0.103803 0.086403064 0.12106846 0.08756423 0.100812346 0.0932328 0.10062143
0.07444973 0.10016097 0.15394406 0.15015163 0.13944614 0.088551655 0.117279105 0.14075583
