checkpoints/abl_fused_only/final_model.pt (torch, 86322 bytes, 50 tensors)

embedder.feature_projections.0.weight f4 [32, 1]
00000000: c5ce 2b3e 9607 a13f 85b9 1f3c adba acbe
00000010: 9649 c4be 2a4e 12bf 09fc 563f 81d0 67bd
00000020: 428a fe3e 7f5a 9b3e 6f64 46be 70db 45be
00000030: a291 debe 18aa 7cbf f3ff 893f 4f60 36bd
00000040: af00 9c3f 75ad bc3e 2279 85bf 721e 40bf
00000050: 036e 3dbf bd13 56bf e320 38bf 1495 9a3f
00000060: c158 6b3f a384 6bbe c052 82bf d8b6 68bd
00000070: 6f89 753f 6321 dfbe 57d9 633f 19b2 9a3f
0.16778095 1.258044 0.009748821 -0.33736172 -0.38337392 -0.5715052 0.83978325 -0.05659533
0.49714857 0.3034248 -0.1937425 -0.1932199 -0.43470484 -0.9869704 1.0781235 -0.04452544
1.2187709 0.36851087 -1.0427592 -0.75046456 -0.7399599 -0.8362387 -0.7192518 1.2076745
0.919323 -0.22999816 -1.0181503 -0.056815 0.9591283 -0.4358016 0.8900351 1.2085601

embedder.feature_projections.0.bias f4 [32]
00000000: 4a85 6b3d 8c9f 173d 24da 48bf 26a7 02bf
00000010: 5a08 a0be 156e 583e 0304 ab3e 5f33 4d3f
00000020: cf8b e13e 7727 56be f46e f7be de19 cabe
00000030: 7728 4abf 90f8 14bf b558 743e 7a4a 0e3e
00000040: c989 f3be b2c3 58bf e764 ad3e f4c0 43be
00000050: ccff 5c3f 51e6 80bd 0650 40bf 6ac1 f23e
00000060: 3c16 e0be a24b 493f 4c1f 8f3d 1e2f a8be
00000070: d68b 6ebe defe 633e b9b6 7bbf 4d21 503d
0.05750016 0.03701739 -0.78457856 -0.510363 -0.31256372 0.21135743 0.33401498 0.8015651
0.44051978 -0.20913492 -0.48326838 -0.3947286 -0.78967994 -0.58191776 0.23861964 0.13895598
-0.4756606 -0.8467361 0.33866045 -0.19116575 0.86327815 -0.06293929 -0.75122106 0.47413188
-0.43766963 0.7863103 0.06988391 -0.32848448 -0.2329553 0.22265193 -0.9832569 0.050813008

embedder.feature_projections.1.weight f4 [32, 1]
00000000: e859 27bf e9ad f43e 6408 133f 02af 333f
00000010: 0611 883e b088 28bf 49c8 383f a8cf de3e
00000020: e4ec 98be 3d85 913e 60b1 49be becf 663e
00000030: b5e6 52bf af84 52bf 5166 db3c 42be 433f
00000040: ee5a d93e 22e9 18bf 00c0 583e 3344 693f
00000050: 48fd 723e 9f2d bbbe 5b33 4dbf cc73 1c3f
00000060: 7381 8c3e 1351 5e3f bb58 c03d 07b4 34bf
00000070: b9e5 303f c50f 22bf be0c 043d 2ca6 5c3e
-0.6537156 0.47788933 0.5743468 0.70188916 0.26575488 -0.6583357 0.7218061 0.43517804
-0.29868233 0.28421965 -0.1969657 0.22540185 -0.8238328 -0.8223371 0.026782187 0.76462185
0.42452186 -0.5973073 0.21166992 0.9111969 0.23729432 -0.36558244 -0.8015649 0.6111419
0.27442512 0.8684246 0.09391924 -0.705872 0.6910053 -0.6330531 0.032238714 0.21547765

embedder.feature_projections.1.bias f4 [32]
00000000: 7445 74bf 830b 80bd 86dc 6dbe 586d 373f
00000010: 04b6 3fbe f955 e0be 06ac 423f 3db4 303f
00000020: a36b 063f d68e 26bf 1bdb 0a3f c0b4 5f3f
00000030: 8d5c 413f 40d0 063f 41fb bfbe f7aa 06bf
00000040: 6bf4 af3e 311f 953e 17e9 d93e 36aa a7be
00000050: 0682 6f3f afc4 01bf 1837 d2be fda1 16bc
00000060: cca2 e4be 817e e9be 2438 163e e518 32bd
00000070: 78c2 afbd 3a32 babe c763 0dbf cd5f 8c3e
-0.9541848 -0.06252196 -0.23228654 0.7165122 -0.18721777 -0.43815592 0.76043737 0.6902502
0.5250799 -0.650617 0.5424058 0.8738518 0.75531846 0.52661514 -0.3749638 -0.5260462
0.34366164 0.2912536 0.42560646 -0.32747048 0.93557775 -0.5069074 -0.41057658 -0.009193894
-0.44655454 -0.45604327 0.14669853 -0.043480773 -0.08582014 -0.36366445 -0.55230373 0.2741684

embedder.stabilizer_embedding.weight f4 [8, 32]
00000000: 14ee 0340 07e4 7c3f 6e20 86be cffe 613d
00000010: 8475 623f c0a6 90be 2e56 efbe d0ec 36bd
00000020: 00f9 673f d8a4 bbbf d6fd 1f3e c07b f63c
00000030: e5f5 9cbf 7b02 d33f 8376 29bf 9690 8c3f
00000040: 42db 363f a624 023f 59c9 fcbe 0be5 dc3e
00000050: c167 de3f 5182 5fbf 9e53 e63e ad27 8fbf
00000060: a3c4 afbf 7d5b b9bf 698b 05be 48ab b93e
00000070: 547a 6e3e 4ad4 80bf 82ef c03e 23bf 9dbe
00000080: 51b5 1b40 136e 22bf bd50 9b3f 6669 5abf
00000090: c3d1 7a3f a819 a93e 3fdc 35be 01a7 813e
000000a0: b714 e93e d49d aebd d87e c73f a8ce 66bd
000000b0: 84d9 b1bf 9b2c 793e 31ef 823f e39b 8fbf
000000c0: bdf2 fdbe 0473 0b3f 427a 89bf 3001 c7be
000000d0: 379c 99bf fb6b b13f f29b 0a3f a1b5 12bf
000000e0: 9a04 1d3e 96cd f3be 9c7e 093f f0e1 75be
000000f0: b317 16bf df7a 2bbf cc9f d83d ac75 5c3e
00000100: f6f6 813f df3c f3bf f4b8 97bf 755c 043f
00000110: e122 21bf 96b3 35bf 5509 813d c07b 1b3f
00000120: 74a8 cd3f e42a 06c0 d3f1 a63f 2d76 fbbf
00000130: 4ee7 e23f 4008 84bf 23c2 99be 4f1c 453f
00000140: d729 abbf 388b a43e 9e8f e03e 6290 443f
00000150: 16e9 a4be 78a6 c03f 2350 d23e 5e5d 0bc0
00000160: 6c2b 6e3f 5761 ec3f dad9 cdbf 055f edbe
00000170: 63fc e1bf 733a 5bbf 63ad 8e3e 0083 89be
00000180: b453 87bf 229b 1d40 b1cf c3bf 39c8 f5be
00000190: e518 14bf 0115 633e 1a04 653f e15e 35bf
000001a0: 44a5 023f 9a57 b8bf 520b 773f 56a4 d63e
000001b0: c313 79bf 2d82 2e3d 17a4 2abe aa2d 1b3e
000001c0: 198c 983f 9198 b4be f0ea d03f 664a d43e
000001d0: 1ee1 39bf c433 163f bda7 fabf 696f ac3f
000001e0: f0f1 0cbf d9bc 18be d4d7 dabf be90 003e
000001f0: 04dd 163e a01d a83f 907c 1fbf 209f dd3e
00000200: 3170 f53e 905c a33f c8b7 0f3f 50fb aabe
00000210: d0ef 793f 719f 37bf dc14 653f ed3c 2dbf
00000220: e1d8 cbbe 7771 0fc0 374e b13d c463 ad3f
00000230: c93c 983f a7df 2cbf 7e39 81bf f570 1d40
00000240: 7412 90bf 968b 183f 3df3 93bf 701b 0cbf
00000250: b7fe 2b3e 7ebe 5abe dc12 d0bd c211 9cbe
00000260: 605a fd3d 3cc8 40bf 8a56 a8bf d337 02c0
00000270: 114b a2bf b0df 83bf 0741 203f 355d fdbe
00000280: 9933 42bf 2298 8e3f 04b0 e03e a03e 1bbe
00000290: fbe5 6cbf bdf5 d4bf fdd5 67bf 9d7a 45bf
000002a0: ffdd c93f b42d f23e 4beb 6a3f 8fd5 ff3e
000002b0: 435c ad3f 7813 4b3f 5cbc c2be d351 2b3f
000002c0: be0d 323f a9a5 de3e be53 3cbf 14d3 78bf
000002d0: 8f9a d5bf c26e 813e 169e 983f 5ba1 323f
000002e0: f6ad 913f 801f d1be c557 77bf 6c1b c7bf
000002f0: c24d c73f e735 353f bcc8 203f 2eb3 b53e
00000300: f4b2 e5be 7225 0c40 065f af3d da52 84bf
00000310: d33c 703f ae06 abbe 4543 473f 11ad a4bf
00000320: 6d94 9a3e 3921 44be cacf 00c0 1615 4cbb
00000330: 3801 e33f 92ef 14bd 8c2a a1bf 8d7e 84bf
00000340: e16f eb3f 6875 83be 2a0f 6e3f 6f9e 80bf
00000350: 3448 6ebf 54ba 303f ed4b 09bf 5ebc 9ebe
00000360: 64e5 d4bf a64d b1be 0aab 44bf bc50 17be
00000370: 206b 6cbe 7cbe eabe 3391 64bf 2e47 77bf
00000380: 79e5 a83f d618 55bf c853 173f 159f 04be
00000390: 2a08 3ebf f220 cdbe 8f6c 2bbe ac02 293f
000003a0: 53fd 97bf 1688 b2bf d3a6 543d a1e3 b33e
000003b0: 0766 91bf 53b3 813b c14c 413f 1ead 1e3d
000003c0: aee4 6cbf 8bc3 c33f 28e7 8c3e 3227 c23f
000003d0: bc58 e23d af53 d13e cdbc f4bb d441 b23e
000003e0: 1ed1 febe fc56 adbf 7adf 4dbe a56a a33f
000003f0: 01ee 0f3e 356f 3ebe 523b a8be 724e ebbf
2.0614061 0.9878544 -0.26196617 0.055174645 0.88460565 -0.2825222 -0.46745437 -0.044659436
0.9061432 -1.4659681 0.15624174 0.030088305 -1.2262541 1.6485132 -0.6619646 1.0981624
0.7142831 0.5083717 -0.49372366 0.43143496 1.7375413 -0.8730822 0.4498567 -1.1183983
-1.3731884 -1.4481045 -0.13041462 0.3626349 0.23288852 -1.0064785 0.3768273 -0.30809888
2.4329417 -0.6344921 1.2134014 -0.85317075 0.9797632 0.33027387 -0.17759798 0.25322726
0.45523617 -0.08526197 1.5585585 -0.056349427 -1.3894506 0.24333422 1.0229245 -1.1219448
-0.49599257 0.54472375 -1.0740435 -0.38868093 -1.2000798 1.3861078 0.54144204 -0.57308394
0.15333787 -0.47617787 0.53708816 -0.2401197 -0.5862991 -0.6698436 0.10577354 0.21529263
1.0153491 -1.9002951 -1.1853318 0.5170358 -0.62943846 -0.7097715 0.06300608 0.607357
1.6067033 -2.0963678 1.3042549 -1.9645439 1.7726839 -1.0315018 -0.30030927 0.7699632
-1.3372144 0.32137465 0.4385957 0.7678281 -0.3220908 1.5050802 0.41076764 -2.1775737
0.93035007 1.8467206 -1.6082108 -0.46361557 -1.7655147 -0.8563606 0.2786666 -0.26857758
-1.0572419 2.4625936 -1.5297757 -0.4800432 -0.57850486 0.22175981 0.89459383 -0.708479
0.51033425 -1.4401734 0.9650165 0.41922253 -0.9729578 0.042604614 -0.16664158 0.15154138
1.1917754 -0.3527265 1.6321697 0.41463012 -0.72609127 0.5867274 -1.958244 1.34715
-0.5505667 -0.1491579 -1.7097116 0.12555215 0.14732748 1.3134041 -0.6229944 0.43285465
0.47937158 1.2762623 0.561398 -0.3339486 0.9763155 -0.71727663 0.89484954 -0.6767109
-0.39813903 -2.2413003 0.086574964 1.3546071 1.189355 -0.67528766 -1.009567 2.4600194
-1.1255631 0.5958799 -1.1558605 -0.54729366 0.16796385 -0.2136173 -0.10159847 -0.30482298
0.12370753 -0.75305533 -1.315141 -2.0346572 -1.2679158 -1.0302639 0.62599224 -0.49485174
-0.7585998 1.1140177 0.4388429 -0.15160608 -0.9253842 -1.6637493 -0.90560895 -0.7714022
1.5770873 0.47300494 0.9176528 0.4996762 1.3543781 0.7932658 -0.38034332 0.6692173
0.6955222 0.43485764 -0.7356528 -0.9719708 -1.6687793 0.25279814 1.1923244 0.6977746
1.1381214 -0.40844345 -0.966183 -1.5555243 1.5570605 0.70785373 0.62806296 0.35488266
-0.44863093 2.1897855 0.08563046 -1.0337784 0.9384281 -0.33403534 0.7783702 -1.2865316
0.30191365 -0.19153298 -2.0126824 -0.0031140498 1.7734747 -0.036361285 -1.2591109 -1.035112
1.8393518 -0.2567551 0.9299189 -1.004835 -0.93078923 0.69034314 -0.5363148 -0.31003088
-1.6632504 -0.34629554 -0.76823485 -0.14776891 -0.2308774 -0.45848453 -0.89284056 -0.96592987
1.319503 -0.8324102 0.59112215 -0.1295131 -0.7423121 -0.40064198 -0.1674063 0.660197
-1.1874183 -1.394778 0.05191691 0.35134605 -1.1359261 0.0039581447 0.7550774 0.038739316
-0.9253644 1.529405 0.27520108 1.5168211 0.11052081 0.40884158 -0.007468796 0.34815848
-0.4976892 -1.354217 -0.20104781 1.276692 0.14055635 -0.1859711 -0.32857758 -1.8383315

embedder.res_block.0.weight f4 [32]
00000000: 8c10 843f cf8e 833f 38c2 843f e4a5 813f
00000010: b8b1 883f 4df6 803f f4a9 5f3f 9633 833f
00000020: 8ebb 793f 70c3 653f b40d 7e3f e84f 803f
00000030: c8c9 773f d3f3 843f 41d8 903f 1d79 853f
00000040: 2bfe 873f c410 963f cbfc 933f 5021 7b3f
00000050: f033 883f f74f 793f 4de4 7e3f 749a 753f
00000060: 4068 8c3f 1a4b 6c3f cdda 8e3f 4831 813f
00000070: dc3b 823f 8672 783f b0a8 893f 76ff 873f
1.031755 1.0277957 1.0371771 1.0128751 1.0679235 1.0075165 0.873687 1.0250118
0.9755181 0.8975134 0.9923966 1.0024385 0.9679227 1.0386909 1.1315995 1.0427586
1.0624441 1.1723866 1.1561521 0.98097706 1.064085 0.9738764 0.9956711 0.959388
1.0969315 0.92302096 1.1160523 1.0093164 1.0174518 0.9704975 1.0754604 1.0624835

embedder.res_block.0.bias f4 [32]
00000000: 3185 8b3c 9905 ccbc e5f3 133c d491 9f3b
00000010: c646 803c f709 ec3c 6e87 d1bd 8e6d 34bc
00000020: 0993 8fbd 5b70 fd3d 0d0f fcbc 564c b4bc
00000030: d6a5 513c 47df b73c 5a0c d73b 8cb2 09ba
00000040: eecb 98bc 9a5a 07bc b847 253c 3fff 9a3c
00000050: 1a61 933a 8efa 143d 1fbf 5c3d 5aae 48bc
00000060: e3ff e9bb 99a8 1fbc 36ed 843c ac06 85ba
00000070: 1b26 aabb 646f 9f3d 3932 113c 63c5 37bc
0.017031284 -0.024905013 0.009030317 0.004869679 0.015658747 0.028813345 -0.10230909 -0.011012448
-0.070104666 0.12374946 -0.030768896 -0.022009056 0.012795886 0.022445334 0.0065627517 -0.0005252741
-0.018651929 -0.008261347 0.0100879 0.018920539 0.0011244148 0.03637176 0.053893205 -0.0122486
-0.0071411 -0.009744787 0.016226392 -0.0010149083 -0.005192531 0.07784918 0.008862072 -0.011216494

embedder.res_block.1.weight f4 [32, 32]
00000000: ce3d 1f3e 1471 c7bd 8fd9 2abe 778d 933d
00000010: 2c41 adbd ac19 d8bd 3ed2 b73c 2a70 f2bb
00000020: a7e3 b93d b5f2 ae3d a6bc 8d3d d50e a5bd
00000030: f209 39be 609b c63a f7e9 2b3e 5f83 82bd
00000040: f95d 363e 292e 843e 1e56 82be e0f8 963a
00000050: 3898 dcbd 3164 b8bd 3c45 65be 4c11 81bc
00000060: 32b8 a93d 72fa 26bc c924 82be c08a 3a3e
00000070: 4e37 273d 8f8f 0b3c 8b2f a23d ec97 1f3e
00000080: d634 1bbe f04a 8abe b198 23be 4cea 283e
00000090: 2fff 443d 49fb 323e 2c47 e8bd 2087 28bd
000000a0: 88cf 13bd e65f 143d 72a3 2a3e 8b65 b3bd
000000b0: fd31 593c 4616 7b3d 72ed c8be 2c62 9d3d
000000c0: 4219 48be 5c2f 3abe aa60 093e 99a7 1f3e
000000d0: 0c51 24bc 76c5 3a3d f025 1ebb f363 2ebd
000000e0: c780 f73c 0a6d 653e e492 c03d 5ebd 803d
000000f0: b53f 6cbe 1f0e 1fbe ea9a bfbd e2c8 acbd
00000100: 70c9 fbbd 7dab 1a3e 8af6 893d 7fe0 163e
00000110: c528 cd3d 9b8d 3d3e 9ed2 323d d156 8abc
00000120: c8de 28be 4a79 f3bc 287d dc3c fa2a 9d3d
00000130: d9f4 333c 3984 213e f86a cbbd 0a77 06bd
00000140: 58cf 04be cb89 143e 76e0 2bbe b4d2 1abd
00000150: 7d4e c03c a572 bc3d 644a 263d b140 24be
00000160: 99ef 983d 44c5 9d3d 9db3 c1bd 1238 ccbd
00000170: c6e0 97bd eaa6 0e3e 0147 c7bb e04a acbb
00000180: 644f ea3d 30f0 8d3d 98c4 b73d 30fd e8bd
00000190: 26b7 863e c3a1 dabd eb77 393e 2ab1 59be
000001a0: 3095 693b 30bc e53d c371 2ebe c07a 4dbe
000001b0: 882e ffbd 7936 09be 0fa8 733d 11a4 60be
000001c0: 9475 febc a3d8 43bd f51c 8bbe 8d28 c93d
000001d0: 2ebc 85be 5563 b63d 019d 3ebe da00 8f3d
000001e0: ccdb a83d f48f 833d e946 113d 16ba 1d3e
000001f0: d40d 853c 0921 5dbe 513c b13d bb3b 533e
00000200: d586 abba 0fe8 2c3e 1f33 1c3d 3bca 8a3e
00000210: e775 123e 368c 78be 00a1 93bd 921e c7bd
00000220: 73ec 083e 1a51 1b3e a7ce 39be bf19 98bd
00000230: af52 ffbd 47a8 90bb 312b fa3d 65be 343e
00000240: c5d0 02be 3fb7 81bd 89e3 8abd fd98 473e
00000250: 2ef2 293e 095f 14be a2a7 cb3d 481c 1b3e
00000260: 9da2 2abe 2952 b6bc 1586 af3d bb2b 2fbe
00000270: 5f78 e8ba 1101 ecbd 9ab8 aabd f0ff 1dbd
00000280: 8633 20bd e8f7 fbbd 77a9 91bd 0c2b 2a3e
00000290: 8f95 c2bd c5dd 47bb 7afc c53d dd2d 71bd
000002a0: 8fcf f73d 7f0d 293e cefc 3d3c 7581 a93c
000002b0: ac9a 0dbe e4f3 013e ea51 0a3e 3314 69bd
000002c0: 258d 4abc bc48 42be d5ce 673e 786e 283e
000002d0: f25b 0fbd fc3a 9abd 5edf 78bd ceaa 1bbd
000002e0: d92a 74be 6bfb 013e ebba 463e 2de8 42be
000002f0: defd a0bc 6fe2 073e 3b5b 1cbe f178 5e3c
00000300: ff36 fe3d c257 413e b63e 80be 793f e1bd
00000310: e420 84be 8217 8dbd da62 513d d752 b0bc
00000320: 0e7e 1ebe 2d51 b9bd ecd9 963d 68a3 48be
00000330: 8f47 0f3d b0bb e9bd a8b1 8f3e f0de 303e
00000340: cb10 3d3e 8e54 b53e a6e3 b9be 2986 473e
00000350: f500 7f3d 9ed0 25be a80e 6fbd f460 0a3d
00000360: d470 8f3d e4a5 58bd 3ec3 d4be e4e1 93bc
00000370: ce9f 163d 04af babd 638b a83e 6d11 76bc
00000380: 7684 52be 989c 00be 6404 83bc 9a66 343d
00000390: ba05 5f3d 1a53 23be 9612 e23c 7ee8 2a3e
000003a0: 53a3 4a3d d0a9 f33d 5403 013e 53bd 133e
000003b0: 44e7 ad3d dfdf 253e 33b1 4abe 9bc9 253e
000003c0: 42f3 20bc 0944 873d c27b 13bd daf9 9dbd
000003d0: d37c 3e3e 5a69 013e f72c f5bd d241 54bd
000003e0: 2980 94bc 7ab4 9abd fb24 223d 5127 133d
000003f0: 4aa6 c8bd 3728 103e 87f3 fb3d 390b 50be
0.1555092 -0.09738365 -0.16684555 0.07204717 -0.08459696 -0.105517715 0.022439118 -0.007398625
0.09076624 0.085423864 0.069207475 -0.080594696 -0.180702 0.0015152507 0.1678847 -0.06372713
0.17809285 0.25816467 -0.25456327 0.0011518262 -0.10771221 -0.09003485 -0.22389692 -0.015755318
0.082870856 -0.010191547 -0.2541869 0.18216991 0.040824227 0.008518114 0.07919224 0.15585297
-0.15156874 -0.27010298 -0.15976216 0.16495627 0.048094925 0.1747867 -0.113417 -0.04114449
-0.03608659 0.03622427 0.16663912 -0.08759602 0.013256547 0.06130054 -0.39243656 0.076847404
-0.19540885 -0.18182129 0.1341578 0.15591277 -0.010029089 0.04559847 -0.00241315 -0.042575788
0.030212773 0.22404876 0.09403017 0.06286119 -0.23071177 -0.1553273 -0.093557194 -0.08436753
-0.122942805 0.1510448 0.06736477 0.14734076 0.10017542 0.1851105 0.04365789 -0.0168871
-0.16491234 -0.029720921 0.026915148 0.07674213 0.010983669 0.15773095 -0.09932512 -0.03282837
-0.1296972 0.14505689 -0.16784844 -0.0377986 0.023474926 0.09201554 0.04059829 -0.16040303
0.074675746 0.07703641 -0.09458087 -0.09971632 -0.07415919 0.1393086 -0.0060814624 -0.0052579492
0.11440924 0.06930578 0.08973044 -0.11376417 0.26311606 -0.10675385 0.18112151 -0.21258989
0.0035641901 0.112175345 -0.17035584 -0.20066357 -0.12460047 -0.13399686 0.059486445 -0.21937586
-0.031061925 -0.047814023 -0.2717053 0.098221876 -0.26120132 0.08905665 -0.1861458 0.06982584
0.08245048 0.06423941 0.035468016 0.15403017 0.016241945 -0.21594633 0.086540826 0.20628254
-0.0013086448 0.16885398 0.03813469 0.27107415 0.14302789 -0.24272236 -0.07208443 -0.09722628
0.13371448 0.15167657 -0.18145238 -0.07426786 -0.124669425 -0.0044145915 0.12215269 0.17650755
-0.12774952 -0.063337795 -0.0678168 0.19491954 0.1659629 -0.14489378 0.09944083 0.15147507
-0.16663595 -0.022255974 0.08570496 -0.17106526 -0.0017736069 -0.11523641 -0.08335991 -0.03857416
-0.039111637 -0.12303144 -0.07112401 0.16617984 -0.09501182 -0.0030497175 0.09667297 -0.05888163
0.121001355 0.16509055 0.011595918 0.020691613 -0.13828534 0.12690693 0.1350781 -0.05690403
-0.012362753 -0.18973058 0.22637494 0.1644839 -0.034999795 -0.075307816 -0.060759895 -0.03800469
-0.2384447 0.12693565 0.19407241 -0.1903388 -0.019652303 0.13269971 -0.15269177 0.013578639
0.124128334 0.18881133 -0.25047845 -0.109984346 -0.25806344 -0.068892494 0.051119663 -0.021523876
-0.15477774 -0.09048686 0.07365784 -0.19593585 0.034980353 -0.11412752 0.28065228 0.17272544
0.18463437 0.35416073 -0.36306494 0.19484772 0.062256772 -0.16192862 -0.058363587 0.033783868
0.07003942 -0.05289258 -0.41555208 -0.018052049 0.036773495 -0.09115413 0.32918844 -0.015018803
-0.20558342 -0.12559736 -0.015993305 0.04404316 0.05444882 -0.1594967 0.027596753 0.16690251
0.049472164 0.118976235 0.12598926 0.1442769 0.08491376 0.16198681 -0.19794159 0.16190188
-0.009823622 0.066047736 -0.036006697 -0.07713671 0.18602304 0.12637845 -0.11971467 -0.051820584
-0.018127518 -0.075539544 0.03958605 0.035926167 -0.09797342 0.14077841 0.123023085 -0.20316781

embedder.res_block.1.bias f4 [32]
00000000: 062c 703d 02d7 443d 8596 d63d 3164 67be
00000010: ff39 aa3d 518e 5f3d 3ba4 9cb9 d59f ce3d
00000020: dd97 af3d b1e9 0f3e aae9 21be a433 9d3d
00000030: ba9b d33d 695f de3d e762 7fbd d088 903d
00000040: 7a2a c43c 22cb 093e 70e3 e8bd a086 28be
00000050: 17cd ad3d 6020 31be 6520 35bd a9ac febd
00000060: 7005 d33d cabf 19bd 3386 acbd 9f87 f5bd
00000070: 999a d5bd a1a4 83bc 4823 213e 520a 60bd
0.058635734 0.04805661 0.10477928 -0.22596814 0.08311843 0.054579083 -0.00029877 0.10089079
0.085738875 0.1405399 -0.15811792 0.07675865 0.10332437 0.10858042 -0.06235018 0.07057345
0.023946036 0.13456395 -0.11371505 -0.16457605 0.084863834 -0.17297506 -0.044220347 -0.12435276
0.103037715 -0.03753642 -0.08424034 -0.11988758 -0.10429878 -0.016069712 0.15736115 -0.054697342

embedder.res_block.3.weight f4 [32, 32]
00000000: f155 253c cd49 923e 3823 a7bd 3e8e 9d3c
00000010: 0247 e63d 295f 0fbe 3ba2 bc3d b940 ec3c
00000020: b1ee 71bb af10 e2bc 0533 6cbd b962 5ebc
00000030: 5d2c 783d 830a 023e c593 1cbe ab02 0a3e
00000040: fd33 393e 07a3 2ebc f948 053e aaa3 173e
00000050: 17a1 56bd 6997 513e 7dc2 51bd fca6 333e
00000060: 1bf7 0ebd 0376 51be dfb2 603c b662 65be
00000070: 9519 c9bd 839c 5e3e 28cd 9dbd 3f6f 4e3e
00000080: 59a8 41ba 795c 91bd 2ab7 debd cc0e 23be
00000090: 3496 67bd 3175 103d 0e8f 083e 855c 19be
000000a0: 7e49 373c b5bd 20be 8005 7cbd 004d 37be
000000b0: 342c 063c 2754 353e ae09 a1bd 544f 4a3e
000000c0: 0045 4f3d 1b0b 313c e113 04be d261 76bc
000000d0: 2a38 173e 039c 8d3d b99b e83d 89c8 53bd
000000e0: 74da 703d 0d75 26bd 73f2 7ebd ebe7 acbd
000000f0: 0f93 86bd 9f70 a5bd 4f4b e0bc 4b98 2dbe
00000100: f774 10be 92ae 82bd 0f27 05be 84da 253e
00000110: 1362 e3bd 9e9e 243e 1724 5fbe 71d3 083d
00000120: 6773 ee3d 0df2 64bd 7c43 ab3d 93fb 5a3e
00000130: 0456 ce3d bbb5 a0bb b156 763b 73b2 2cbd
00000140: 2de4 663d fe31 65bd fad4 0e3e adcc ac3d
00000150: d8ba 8e3c 2825 a2bb 3871 07be bf53 943c
00000160: 94d0 54bd d56f 393e fd65 f3bd 72a3 23bd
00000170: d63d c9bc adac 613d 04ff 45bd b3bb 933d
00000180: f4ff 9dbd cfa1 dabd 597d a3bd 736e 1cbe
00000190: aa2d a9bd 1a74 d6bd d4fc a43d d09d 4cbe
000001a0: daf9 babd 8fa4 04be 802e e9bd a038 b13d
000001b0: c4af 7ebe a592 0d3e 2377 c6bd 79fb 303e
000001c0: e80b 023e 2c66 84bc 67eb 973d b5af a13c
000001d0: 4b04 00be 3e6d bb3d 61fb 113d de98 debd
000001e0: 166c bdbc b54d 30be b1d7 343d b5c8 683d
000001f0: ac43 d1bd 6680 193e dd95 37be 16b5 b9bd
00000200: b9dc 12be dd81 673e 573d ddbd 0987 473d
00000210: 7a8b e6bd 1c6b 923d 0c2e 21be 2bea 963d
00000220: 420f 833d 3dd4 383d 03f0 15be cc83 afbd
00000230: 430b e93d f266 3bbd 61e6 0a3e 933b b33b
00000240: 0c3c 42be f7af 89bd 6655 44bd be42 3a3e
00000250: 9530 90bd 217e 1ebe e78e 0d3d 506a f8bd
00000260: 787e 543e 61a5 93bd 7865 ebbc cafb 853d
00000270: 640d 193e bdb5 cd3c 0896 913d ead5 82bd
00000280: af66 84bd 008a 4d3e 8804 dbbd b848 033e
00000290: 78e7 e1bd 60fc aabc 395d 87be 4602 943c
000002a0: 0578 643d 0cd8 06be 515b 113e 0282 54bd
000002b0: ff1a 573e d786 46be 6770 833d 2aa5 d1bd
000002c0: 1647 d9bb 2e15 6a3e 7b08 983c 8d0b 2a3e
000002d0: 5bec 273e a2e1 1ebd ffbc a2bc 001e d13d
000002e0: c604 c5bd 2138 fc3d d42c f83c 32d1 4a3e
000002f0: 82d1 c6bd d8c2 fb3d be6c 7f3d 13a5 d6bd
00000300: 402c 453e 738a 493d 04f1 643d 5c67 0cbe
00000310: 68aa 09bc 2a49 3abe 6fa1 623e 3eb0 02be
00000320: 8fcc a63d d053 aabd 1975 28be a2d3 c43d
00000330: b3c7 fb3d 0cab 3c3d b2a7 af3d 8e4b 6d3e
00000340: f83d 89bc 4970 cbbd 5d7a 0abd f686 52bc
00000350: 8172 8bbd 6739 533e a8e1 1b3e 50eb c7bd
00000360: 59e9 3c3d eb48 c93c cbb5 51be 7f29 6abe
00000370: 7c0b 5a3e 4ee0 293e c09c 25be 77f5 e7bd
00000380: 4d94 423e 1547 9abd 162d 353e d073 91be
00000390: cad7 19be 227d ccbd 7c20 9f3d d59f 98bd
000003a0: f67f 013e ede2 2a3d 13dc ff3d 733d e0bd
000003b0: 8a4d 603d b492 efbc b033 9bbc d53e 2f3e
000003c0: 61e4 20be 12e4 aabd 1b43 28be 8bb9 1bbe
000003d0: 38a2 a43c 3d94 dc3e 2aec 923b 065d 72be
000003e0: 683a 4dbe fe87 383e aa98 bcbb eb52 aa3d
000003f0: 0f6b 80bd 137f 883d 6449 17be 61d3 a8bd
0.010091291 0.2857193 -0.08161014 0.019232865 0.112440124 -0.14001144 0.092106305 0.028839456
-0.0036915953 -0.027595846 -0.057665844 -0.013573342 0.060589183 0.12699322 -0.15290745 0.1347758
0.18086238 -0.010658986 0.13016118 0.14808527 -0.05239972 0.20467915 -0.05121087 0.17544168
-0.034903627 -0.20455174 0.013714521 -0.22400936 -0.098193325 0.21739392 -0.07705146 0.20159625
-0.00073874515 -0.07097716 -0.108747795 -0.15923613 -0.05653973 0.035268012 0.13335821 -0.149767
0.0111869555 -0.15697367 -0.061528683 -0.17900467 0.00818925 0.17707883 -0.078631744 0.19756824
0.050602913 0.01080587 -0.12898208 -0.015037971 0.14767519 0.069145225 0.11357827 -0.051704917
0.058802083 -0.040638972 -0.062242936 -0.08442672 -0.06571018 -0.080781214 -0.02737966 -0.16952626
-0.14107119 -0.06380953 -0.13003181 0.16196638 -0.111026905 0.16076133 -0.21791111 0.03340477
0.11643105 -0.0558949 0.08362481 0.2138503 0.10075 -0.0049044765 0.0037588293 -0.04216237
0.05636995 -0.05595588 0.13948432 0.08437476 0.017423078 -0.004948277 -0.13226783 0.01810634
-0.051956728 0.18109067 -0.11884687 -0.039950795 -0.024565618 0.055096317 -0.048338905 0.07213535
-0.07714835 -0.10675394 -0.079828925 -0.15276508 -0.08260663 -0.10471363 0.08056036 -0.19982076
-0.09129687 -0.12953399 -0.11385822 0.086533785 -0.24871737 0.13825472 -0.09690692 0.17283429
0.12699854 -0.016162 0.07417946 0.019737104 -0.12501638 0.09151696 0.035640124 -0.10869001
-0.023122828 -0.17217143 0.04415101 0.056832034 -0.102179855 0.14990386 -0.17928262 -0.090677425
-0.14342012 0.22608133 -0.10802715 0.048712764 -0.11257072 0.07149336 -0.15740222 0.07368883
0.063993946 0.04512428 -0.14642338 -0.0857006 0.11379101 -0.045752473 0.13564445 0.0054697483
-0.18968219 -0.06723016 -0.047933005 0.18189523 -0.07040516 -0.15477802 0.03456011 -0.121296525
0.20751369 -0.07209278 -0.028734908 0.065421656 0.14946514 0.025111074 0.07108694 -0.06388457
-0.06464898 0.20072174 -0.10694224 0.12820709 -0.11030477 -0.020872295 -0.2643831 0.01806749
0.055778522 -0.13168353 0.1419499 -0.051881798 0.21006392 -0.19387375 0.064179234 -0.10236581
-0.0066307886 0.22859642 0.018558731 0.16605969 0.16398756 -0.0387894 -0.019865511 0.102108
-0.09620051 0.12315393 0.030294813 0.19806364 -0.09707929 0.12293023 0.062359564 -0.10480704
0.19255161 0.0492043 0.055893913 -0.13711303 -0.008402444 -0.18191972 0.22131895 -0.12762544
0.08144485 -0.08316767 -0.16450919 0.09610678 0.12293949 0.04606156 0.08576907 0.23173353
-0.016753182 -0.09933526 -0.0338081 -0.01284956 -0.06808949 0.20627366 0.152228 -0.09761679
0.046120975 0.024570903 -0.20479505 -0.22867392 0.21293443 0.16589472 -0.16173077 -0.113261156
0.19001885 -0.07533089 0.1769298 -0.2840867 -0.15023723 -0.09984805 0.07769868 -0.074523605
0.1264647 0.04172032 0.12493148 -0.109492205 0.054761447 -0.029244758 -0.018945545 0.17113812
-0.1571212 -0.08344282 -0.16431849 -0.15207498 0.020096883 0.43081847 0.0044837194 -0.23668298
-0.20041811 0.18020627 -0.0057555037 0.083165966 -0.0627042 0.066648625 -0.1477409 -0.08243442

embedder.res_block.3.bias f4 [32]
00000000: 1cea 063e 4e2d 66bc 2c32 b13c 1ff6 aa3c
00000010: a28b ec3c e8fe c03b 0781 b7bb 48cb 973d
00000020: 6b96 e13d 8c38 65bd 9cd1 a43d 7983 8c3d
00000030: fba4 04bd 061d 52bc 6b8b 3bbe ea1b ab3d
00000040: 06cf 23be 4719 04bc b9e6 12be dc83 653d
00000050: cbd3 07bd 85a5 73bd af1e 1e3e d5b6 0cbe
00000060: 0aa1 903c 100e 943d e50a 193e f5ff 59bd
00000070: 9466 18be f29e 913d 929a 353d 5402 dd3d
0.13175243 -0.014048887 0.02163037 0.020869313 0.028875176 0.005889762 -0.005600098 0.0741182
0.11015018 -0.05596213 0.08047792 0.06861014 -0.0323839 -0.012824303 -0.18314902 0.083549336
-0.15996942 -0.008062667 -0.14345826 0.056033954 -0.033160966 -0.059484024 0.15441392 -0.1374162
0.017654914 0.07229245 0.14945562 -0.053222615 -0.1488288 0.071103945 0.044336863 0.1079146

cnn_blocks.0.proj_in.weight f4 [16, 32]
00000000: b9bd e9bd 64b0 20bd e6f9 6cbd 100c 95bd
00000010: 13d4 093e a1de 39be fb2b 0ebe 71f1 34bd
00000020: 5010 b8bc cc79 bfbd 6f4a 433e e963 0dbe
00000030: 02fe 78bd 6ac8 c03d 053b 89be 3d68 233d
00000040: 3790 f2bc a7cd 9a3d 19e5 4bbe bf60 31be
00000050: 332b a8bd ed90 593d ce46 10be 4ded 443d
00000060: a298 75be 03e9 9cbc 9636 503d 7f38 06be
00000070: 8b3a e9bd fb4b 35bd a060 673c cbe3 43be
00000080: dfe2 eabd 80aa 3c3e d22e d8bd 38a8 733c
00000090: 8701 9ebd 5934 933c 781e 38bd f528 543c
000000a0: 3d72 34bd 7594 0dbe 2977 593e 000f 3e3d
000000b0: bc60 243e 853b 73bd 9c5f 6f3d 5913 1d3e
000000c0: 086d 4abd dfad b93c 7051 86bd f7e6 9b3d
000000d0: a7e6 33be 44df d73d 1c7e 6c3c 7ce9 043e
000000e0: 7c00 053e 5742 203e c11a 1c3c 9c53 013e
000000f0: cab9 813d ef7d 2f3d 8bd4 1abe e20a e93d
00000100: 4a52 bf3d 210d ddbd d935 8cbd 899c 58bd
00000110: d359 a43c c993 eabd ccf2 c43d d898 4abc
00000120: b618 96bd 6fa6 033e 67df 293d 1043 623d
00000130: 40c9 a23d cb99 20be a1fc 423e b890 363b
00000140: 0cba 13be ed0a 043d 5814 16be 965d 63bd
00000150: bb79 17bd 34e4 1f3e fcbf 56bd 34d9 833d
00000160: 46e6 2fbc 0743 943d da0a cfbd b81e cd3b
00000170: da0c 8fbe 3986 81bd 604c 1a3c cae8 05be
00000180: a61b 32be a693 cfbc 17f5 bcbd 4b89 fb3d
00000190: ea85 5fbd 39e0 f3bd 21f7 a03d 314e 0a3e
000001a0: c6b0 91bd 7f0e 83bd d3df f33d eee2 39bd
000001b0: 6db5 c93d 3f39 01bd 620f fabd d7c7 6bbe
000001c0: 783e a13d 1bea 8b3d c480 0b3e 977c 963d
000001d0: 3f2c eabc de5e f63d 9266 8d3d 4acf 233e
000001e0: d318 1bbc a267 6abd ce8c b33d c5eb e7bd
000001f0: ae79 873d ea68 053e ac75 4e3d 8fda 85bd
00000200: 570b 4ebd 897f 253e 3319 8e3d 52e2 bcbd
00000210: 462b 9d3b 7568 87bd d516 b43d 4ba2 283e
00000220: 7ff4 d33c a8dd 2f3e 36c6 37be fa8d 373d
00000230: c204 02bc 2c68 a7bd 02cc 47be 9b1e c53d
00000240: b496 803d db6c 253a a131 09be bc2a f7bc
00000250: 36f5 a33d 1ef4 a63d b9c9 773c 7b7b f23d
00000260: afc1 97bd ffcd 16be 8266 e63d 4445 15bd
00000270: 477f 4e3e 2244 463d 701c 70be 20e6 c33d
00000280: e747 983c 8d4c 1b3e e5d5 ec3d 8982 48bd
00000290: 9a7d d1bd 8d26 033e 5edc 46be fb0b 0abd
000002a0: 4f19 ddbd 0c3d 423e 0597 e3bd 75ef 83bd
000002b0: de40 92bd dd7b 35be e509 edbd 1525 8f3c
000002c0: 366d 153e 3709 0bbd 49c7 c93c 8f0f b33c
000002d0: bb1b 13be b1d7 0fbe 6a0f 323e 9c79 ae3d
000002e0: 9529 d8bd 3fe2 bfbd 4632 b23b 0f92 8e3c
000002f0: b317 48bd 3822 b73d 6396 a83a c770 07be
00000300: 803b 8b3d 04ac ee3c f394 293c 56b5 e73d
00000310: a038 7a3d 0e7a e93d 9f18 3b3e 7de4 0b3d
00000320: d9bd 98bd 33d7 da3d 9cb7 f4bd 5f5b 6dbc
00000330: f33c f8bd b136 95bd 2ca1 263e d35a 64bd
00000340: dd50 0c3e 89cd d2bb 7ccf 54be 9f79 5d3e
00000350: ca6a 2f3e affc db3c 1433 bbbd 04b8 2cbc
00000360: e28f 4fbe 6395 87bd 4c4d 66bd e69d 30be
00000370: 7bbf 2abe 85d1 c83d 7221 8f3d 748a e4bd
00000380: 367f 1a3d 7616 8bbc 7b39 723e d28f 1c3e
00000390: 1b95 063d 95dc c33d 7de1 49bd 0b16 803d
000003a0: 5c98 ba3d 1968 153e a450 073e fbbf bd3c
000003b0: 7922 e4bd 4980 023e 3d00 02be 36a6 08be
000003c0: 24eb 3f3e 8941 cb3c c5f3 c83c 21fd e3bd
000003d0: 0c8f 483d 96e0 5cbe c99f f13d 0836 563e
000003e0: 7bd3 e33c cbf2 db3d 58be c2bd a2e2 66be
000003f0: 2203 e4bd d338 d3bc e15a 13bc e725 88bc
-0.1141314 -0.03923072 -0.05785551 -0.07277691 0.13459806 -0.18151332 -0.13883965 -0.04417557
-0.022468716 -0.09349403 0.19071363 -0.13807644 -0.060789116 0.09413226 -0.2680284 0.03989433
-0.029609783 0.07558756 -0.19911613 -0.17322062 -0.082113646 0.053116728 -0.1408951 0.04807787
-0.23984006 -0.019154077 0.050833307 -0.13107489 -0.11388119 -0.044261914 0.014122158 -0.19129865
-0.114690535 0.18424416 -0.10555805 0.014871649 -0.07715135 0.017969297 -0.044950932 0.012949218
-0.04405426 -0.13826163 0.21236862 0.046401024 0.16052526 -0.059382934 0.05844079 0.15339412
-0.049420387 0.022665916 -0.06558502 0.076124124 -0.17568456 0.105406314 0.014434364 0.12979692
0.12988466 0.15650307 0.009527863 0.1262955 0.063342646 0.04284471 -0.15120141 0.11379029
0.09341867 -0.1079352 -0.06846208 -0.05288366 0.020062363 -0.11453969 0.09616622 -0.012365542
-0.07328932 0.12856458 0.04147282 0.055239737 0.07948542 -0.15683667 0.19041683 0.0027857255
-0.1442644 0.032236982 -0.14656198 -0.055509172 -0.036981326 0.15614396 -0.052429184 0.064379126
-0.010736054 0.07239347 -0.10109492 0.0062597655 -0.27939492 -0.06324429 0.009417623 -0.13077083
-0.1739336 -0.025338959 -0.09226435 0.12282046 -0.05457107 -0.119080015 0.07859636 0.1350639
-0.07113795 -0.06399249 0.119079255 -0.045382433 0.09849057 -0.031548735 -0.12209965 -0.23025452
0.07873243 0.068317614 0.13623339 0.073479824 -0.028585551 0.12029813 0.06904329 0.15997043
-0.009466368 -0.05722774 0.08767091 -0.11324266 0.066150054 0.13028303 0.05040519 -0.06535827
-0.050303783 0.16161932 0.069384 -0.09222855 0.0047964184 -0.066117205 0.08793417 0.1646816
0.02587342 0.17174399 -0.17946705 0.044813134 -0.007935705 -0.08174166 -0.19511417 0.09624978
0.06278744 0.0006310471 -0.13397838 -0.030171745 0.08005755 0.081520304 0.015123778 0.11839958
-0.07409989 -0.14727019 0.112500206 -0.03644301 0.2016574 0.04840482 -0.23448348 0.09565377
0.018588973 0.1516592 0.11564235 -0.048952613 -0.10229035 0.12807675 -0.19420001 -0.03370283
-0.10795843 0.189686 -0.11112789 -0.06442157 -0.07141279 -0.17723031 -0.11574153 0.017473737
0.14592442 -0.033944335 0.02463116 0.021858005 -0.14366047 -0.14047123 0.17388692 0.08519289
-0.10554806 -0.09369325 0.005438122 0.01740363 -0.048850726 0.089420736 0.0012862202 -0.13226615
0.06798458 0.029134758 0.010350454 0.11313884 0.061089158 0.11400233 0.18271111 0.03415345
-0.074580856 0.10685577 -0.11949083 -0.014487117 -0.12121 -0.07285822 0.1627242 -0.05575068
0.13702722 -0.006433193 -0.20782274 0.21628426 0.1713058 0.026853887 -0.09140602 -0.01054192
-0.2026973 -0.0662029 -0.05622606 -0.17247733 -0.16674607 0.09805588 0.06988801 -0.1115922
0.037718974 -0.016978484 0.2365474 0.15289238 0.03285704 0.09563557 -0.049287308 0.06254204
0.091110915 0.14590491 0.13214356 0.023162832 -0.11139388 0.1274425 -0.12695403 -0.13344654
0.18742043 0.024811523 0.0245303 -0.11132265 0.048964545 -0.21570048 0.11798055 0.20919049
0.027810803 0.107396685 -0.095089614 -0.22547391 -0.1113341 -0.025783932 -0.008993835 -0.016619636

cnn_blocks.0.proj_in.bias f4 [16]
00000000: 471b f9bc 2b46 0c3e 00cd fc3d ed90 02be
00000010: 61d7 183d 8fbf 23bc 2f92 8bbd 325e eebd
00000020: 651e 91bd eeed 1e3c d8d2 c5bd bea7 573d
00000030: 1678 2dbc 6379 debd 6b11 d23d 48da 1ebe
-0.030408515 0.13698642 0.12343788 -0.12750597 0.037314776 -0.009994402 -0.06814992 -0.1163906
-0.070858754 0.009700282 -0.09659356 0.052650206 -0.010587713 -0.108629964 0.102572285 -0.15512955

cnn_blocks.0.convs.0.weight f4 [16, 16, 3, 3]
00000000: a5a6 21bd bdb1 273e 8c88 71bd cc32 fe3d
00000010: fc8e b83d 91ae 343e e215 03bd d96a 85bd
00000020: ee97 e1bc d5e1 babc 600a 89bd b48e 173d
00000030: 25ce aebd 84bc 4b3c d0f5 9fbd 9cf1 6b3b
00000040: e868 21bd 3e29 c6bd 3b9d 9f3c 9112 4fbc
00000050: 3a05 213b 2c90 6fbd f900 12bc 7786 313d
00000060: 0a48 77bd c203 53bb 8690 ef3c 7ccf 55bd
00000070: a8f0 3b3c 1c3b 0bbe cc67 be3c 4c3e 063d
00000080: 9687 26bd 2a25 16bd 81c5 89b8 408c 8f3d
00000090: 893f 57bd 62f0 543d d748 d1bd 0b29 f43b
000000a0: 3b37 c4bc 7453 263c ab88 b73c 6931 1b3c
000000b0: ea50 3c3d 4490 c43c d510 b63d 318d 88bd
000000c0: 76f6 6d3d cb56 15bd bdfe 983d 4cb1 2bbd
000000d0: f16d 29bd 8cdc e33c d826 993d 7014 90bd
000000e0: 7329 07be 563d 993d 6b62 2fbd 4d9f 373d
000000f0: f692 2d3d 59fd 1c3d bbbf 52bc 0eef 12be
00000100: b37a e63c dbb6 d13c 1091 d83d 94cc 853d
00000110: 4853 13be 28c9 2fbd a85b 423d 8255 f3bc
00000120: 767e 973c 19cf 563d 731c 69bd 9f72 333d
00000130: 0632 dd3d bb6c e33b eeac 913d ce43 ed3c
00000140: 57af cf3d 3a32 4fbd 777f 013e 011e 2ebe
00000150: 64d5 fabc 88d9 50bc e2bc 833d d036 f53a
00000160: 2bf4 033c c641 88bc fa3d 6b3c 0f59 6b3a
00000170: 15b7 0c3c 101a 0c3d 46c4 80bd 3cba 213d
00000180: 9164 af3d 0546 d1bd 2818 1abc dfc8 adbd
00000190: 9509 71bd 14ec 35be 9804 febd df2c 8abb
000001a0: 456b 223c 9720 aebc ef83 31bd adc7 063d
000001b0: ed1e 033d e01c f1bd 39ca 133e 52e9 803d
000001c0: ff65 cc3c c676 c33b b6fe 573d 5357 64bc
000001d0: 8c4d 80bd dd7e 203d 0c00 0e3e 1a71 203d
000001e0: 8615 51bd 4936 c6bd 5660 0fbd 3225 9c3d
000001f0: 999c f2bd 0f3c a9bc 649c 83bc c113 ebbd
00000200: 21c3 c13c b85a 0e3d 8a92 4d3d 9b67 2bbd
00000210: 7752 b1bb e644 ea3d f776 eabd 36d8 2abc
00000220: 3c69 a33c 24b5 dbbd ff35 cf3d c7fa 153c
00000230: 64dd 50bd c40b c73d 93e8 91bd dd3d 35bd
00000240: 3130 b4bc 089e 833b b368 dfbc 3281 e43c
00000250: 2788 b63c 1527 dc3d b728 913d acaa 86bd
00000260: 201b 8f3c e440 9a3c a0e9 6a3d eb63 20bd
00000270: 73e8 6fbc 61c4 02be fba4 923d 8b51 573d
00000280: 02a7 b8bd c8c8 bcbb aa74 b13c 4200 12bb
00000290: 8efa 54bd 3fe6 4d3c 2350 1d3e ca4c 463d
000002a0: f639 02bd 61ad 5abc ca44 693c 1e9b e43c
000002b0: 21eb ab3d 4db9 b33c 289e b3bd c4b7 cfbd
000002c0: 8a84 973d 3cae 00bb 941b 613c ff66 c9bc
000002d0: eab3 b7bb e141 cf3d 6e75 22bd 34a2 6bbc
000002e0: dad4 5ebe c504 e1bd ec14 573d d49c f5bc
000002f0: 8e32 2d3d 3212 3d3d 6e79 84bc 1528 e8bd
00000300: 4661 f8bc 3c1a 37be 0c10 56bd ea42 04bd
00000310: 1c4e 04be 3183 81bd d3ac 7ebd 9eb3 86bd
00000320: 4bb5 243d 5bc2 1dbd 569c 7b3d 6491 7fbd
00000330: 3ec9 43bc b89e 83bc bf6e ffbc 1925 013d
00000340: 3d6b 7b3b d3e4 b63d 3d84 903d 7c18 b1bd
00000350: 0f13 383d c91e 8abd 9d85 823d 8726 dfbd
00000360: 84e2 80bd dbfa c3bc 6cb4 b2bd b16d 8abd
00000370: 6ff3 30bd b5f7 563c aef8 4bbd 9f41 22bd
00000380: 596c b4bc ef2e b3bc 8cec dfbd 2e3d 5d3d
00000390: 93e2 6e3b 6438 673d 32e2 a2bd 18e7 0abe
000003a0: c986 12be 1af3 a63d fa2e b4bc 1f42 7abd
000003b0: d264 693d 4d42 833d bc46 76bd 287b 9cbd
000003c0: 4eda bfbd 27e9 65bd 6503 c13c e435 46bd
000003d0: bc50 563d 8d7e 75bd 059e 28bd 9fea 8a3b
000003e0: d594 92bd 059f 0cbd 88a4 2cbc 1d6d f8bc
000003f0: ed3d a5bd 406a a8bd b45c 8dbc fc09 fe3d
-0.039465565 0.16376396 -0.058968112 0.124120325 0.09011647 0.17644717 -0.03200329 -0.0651452
-0.027538266 -0.022812763 -0.06691432 0.037001327 -0.08535413 0.012435082 -0.07810557 0.0036002165
-0.039406687 -0.09675835 0.019484153 -0.012638704 0.0024569766 -0.058487102 -0.008911365 0.043341126
-0.060371436 -0.0032198285 0.029243719 -0.052199826 0.011470951 -0.13596767 0.023242854 0.032774255
-0.04065665 -0.036656536 -6.569457e-05 0.070091724 -0.052550826 0.05198706 -0.10218971 0.0074511818
-0.023952117 0.010151733 0.022404036 0.0094722295 0.045975603 0.023994572 0.08889929 -0.06667555
0.05809637 -0.036459725 0.074704625 -0.04191713 -0.041364614 0.027815126 0.07478112 -0.07035148
-0.13199405 0.07482402 -0.042818468 0.044829655 0.04237648 0.03832755 -0.012863095 -0.14349005
0.02813468 0.025599888 0.105745435 0.06533161 -0.14387238 -0.042916447 0.04745069 -0.02970386
0.018492918 0.052443597 -0.056911897 0.043810483 0.10800557 0.006940452 0.07113062 0.028962996
0.10140865 -0.05058501 0.1264628 -0.17003633 -0.03061933 -0.012747176 0.06432511 0.0018708352
0.00805382 -0.016632926 0.014358038 0.00089778093 0.008588572 0.034204543 -0.06287436 0.039484248
0.085641034 -0.10218433 -0.009405173 -0.08485579 -0.05884703 -0.17765838 -0.1240322 -0.004216775
0.00991327 -0.021255774 -0.043338712 0.03290527 0.032011915 -0.117730856 0.1443261 0.06294502
0.02495098 0.0059650866 0.052733146 -0.013936835 -0.06264791 0.039183486 0.13867205 0.039170362
-0.051045917 -0.09678323 -0.035003982 0.07624282 -0.11846275 -0.020658521 -0.016065784 -0.11478377
0.023652615 0.034754485 0.05018858 -0.041846853 -0.005411442 0.114389226 -0.11448472 -0.010427525
0.01994764 -0.10727909 0.10117721 0.009154028 -0.050992385 0.09719041 -0.07124438 -0.04424845
-0.021995636 0.0040166415 -0.027271604 0.027893636 0.02228172 0.10749642 0.07087844 -0.06575522
0.017468989 0.01882977 0.05735171 -0.03915779 -0.014642823 -0.12770225 0.07160374 0.052568
-0.09016229 -0.0057612397 0.021662075 -0.0022277986 -0.05199676 0.012567102 0.15362601 0.048413076
-0.031793557 -0.013347001 0.014237592 0.027905997 0.08394457 0.021938944 -0.087704 -0.101424724
0.07398327 -0.0019635102 0.013739485 -0.024585245 -0.005606164 0.10119987 -0.03966277 -0.014381934
-0.21760884 -0.10987238 0.052510187 -0.029982008 0.04228454 0.04615993 -0.016171183 -0.1133577
-0.030319821 -0.17881101 -0.052261397 -0.032290377 -0.12920421 -0.06323851 -0.062176537 -0.06577228
0.040211957 -0.03851543 0.06142839 -0.062394515 -0.011949835 -0.016066894 -0.031180738 0.03152952
0.003836348 0.089303635 0.070564725 -0.08647248 0.04494005 -0.06744153 0.06373141 -0.108960204
-0.062932044 -0.023923328 -0.08725819 -0.06759203 -0.043200906 0.013120581 -0.049797706 -0.039613362
-0.02202432 -0.021872966 -0.109337896 0.054013424 0.0036450967 0.056450263 -0.079532996 -0.13564718
-0.14309229 0.08151837 -0.021995056 -0.061098214 0.056980915 0.0640913 -0.06012605 -0.07640678
-0.0936781 -0.056130555 0.023561189 -0.048391238 0.052323088 -0.05993514 -0.041166324 0.004239395
-0.07157294 -0.03433134 -0.010537274 -0.030325467 -0.08068452 -0.082233906 -0.017256118 0.12404248

cnn_blocks.0.convs.0.bias f4 [16]
00000000: 447d 73bd 8d9f 8dbd 77c1 a5bd 472b 223d
00000010: 899e a9bd de4c ac3c 9d11 073d 6b2e 113d
00000020: e76e ed3c b7a7 2d3d f9e5 553d 3df2 df3c
00000030: 91f0 8b3d d669 0c3d 1279 a53d e3ca 81bd
-0.059445634 -0.069151975 -0.08093541 0.039592054 -0.08282191 0.021032747 0.03297578 0.03544466
0.028983546 0.042396273 0.052221272 0.027337188 0.06832994 0.03428062 0.08079733 -0.06337526

cnn_blocks.0.convs.1.weight f4 [16, 16, 3, 3]
00000000: e572 b9bd 3e75 c3bc 39cc b23d 8055 b03b
00000010: c3d9 d23d 5e00 313d db81 843c 03fc debd
00000020: adf4 cfbd 41e6 b0bd 4353 3bbd e49e 6dbd
00000030: f660 c73d 3fb5 e2bd 6d3c 843d d2b6 923d
00000040: 4f33 293e 1c51 8bbc 52bf 8cbd 58f6 9f3d
00000050: ca0d 21be cae4 44bd ad4b 81bd a88e f63d
00000060: 9b2b 8c3d c00a 9a3d bd2e 02be 7e67 d2bd
00000070: 45b3 3b3d 7f1a e1bd 6d70 08be 42d8 b4bd
00000080: d934 0fbe 83d4 5a3c 860c 36bc fbb6 e3ba
00000090: 5ed8 8a3d 402f 713c 20af 223d c529 cf3c
000000a0: 4096 54bd bc19 0cba dff3 79bd c27c fd3b
000000b0: e591 c9bd 9476 b0bc e5d2 e8bd 94b5 8c3d
000000c0: 56e3 bbbd 18a6 43bd 19c2 1cbd 14ee 70bc
000000d0: edc8 d7bc 619c b7bd 5364 00be 063b 52bc
000000e0: 79bc 2e3d aa25 813c 4331 843d 4e0d cfba
000000f0: d959 853d bb78 8a3d 28ea a9bd ad4a f7bd
00000100: 37dc a1bd 14e4 12bd de25 a73d 58d9 f03d
00000110: 5eac 7d3c fddd b2bd cd4f 153c 435d 273c
00000120: 9f40 9bbd fe13 d4bd cd03 243d 900a 2abd
00000130: 8aff 89bc 093d c63d 09ff cd3c f0d4 26bc
00000140: d968 29bc 98a6 883c 2a3e b63c 41dc f2bd
00000150: 8f58 623d 5c48 143d 00ca 81bd f252 b03c
00000160: 5d12 8c3c 00c1 14be 8c83 5e3d 1c9b 9cbc
00000170: cc6b d6bd b23e 87bd 3e54 2fbd 7d99 90bb
00000180: 389f 32bd 26ca 2c3d 91fd a33d 3f83 03bd
00000190: b0bd 13bd b6b1 2f3d 802b aebc 85e5 8ebd
000001a0: 53fb dfbd bdb2 713d 79e9 913b e95b 56bd
000001b0: 1108 003e 08ba 0dbd 4982 5bbd 4699 93bc
000001c0: 0330 36be 15d2 0e3d ea68 55bd 7f61 053d
000001d0: 59d0 0b3c 0b0d 20bd e1aa 4ebd 6040 5d3d
000001e0: d473 04bd 6772 33bc 7da6 d23d aeb2 f9bd
000001f0: e142 f0bc f44a 303e 7f3e 7fbd 8c2c c5bd
00000200: 59cf 9d3c 7658 76bd 037e 3dbd d1ab 98bb
00000210: c5e8 efbc d7d6 0a3d 8f12 efbb 4c1a 6c3d
00000220: 1ea5 573d 6522 7c3d 94fa b43c 046a 513c
00000230: 883d 1b3d 8516 113c 2c8f 79bd 2f4b 39bc
00000240: 06e8 d13d 54b7 4bbd 074e 773c 7418 98bd
00000250: fd58 23bd bdf9 acbd 1e74 09be ac2b 9fbc
00000260: 2967 19be 3988 9ebd 5790 bdbc 05e4 eabc
00000270: 0583 b7bc 8ccc 513d cbfe 65bd f9c0 b3bd
00000280: 5940 873d e8a4 a53d 1f43 32bd d3d3 0abe
00000290: 86cc c0bc 9a28 75bc d29b 403d ca3f 563d
000002a0: 2cef e2bd db88 e63d 76b0 5d3c ad2f 223d
000002b0: 4a6e d3bd ed5e aebd 39dd b3bd 9aba 223d
000002c0: fb3f b83d 4005 13bd 841c abbc e84b 97be
000002d0: 4ba0 d33d 6685 ebbb 4956 b5bd ddc3 813d
000002e0: 4a72 aabd 9c22 b5bd 4f92 91bd b0e0 10bd
000002f0: 0287 27be b6e0 85bb f832 2bbc 3f55 4dbd
00000300: 79af 043c 3671 363c 5aed 9bbd de00 cdbd
00000310: af2a 343d 30da 5fbd 3b82 803d 3789 b7bc
00000320: 7077 ebbd 33d0 4dbd 936c 2f3c 77a6 353b
00000330: 134e 19be 38ec aa3c 370e 89bd e84d 2bbd
00000340: ab1f 95bd 1c10 ee3d c166 28bd a4ef 9c3c
00000350: ae6f 20bd c5cc 3c3e 1408 f4bc c4eb 633d
00000360: c39c 1b3e aeac 8cbc f4c9 953d 4137 153c
00000370: 93c2 a8bb c67f 92be db2c d8bd 3add 5e3d
00000380: f3bf 783d 9193 75bd b2a2 05bd b99a 92bc
00000390: 7974 65bc cc18 073d b4e2 e63c 142b 3fbd
000003a0: 3899 3dbd 4beb e1bd a012 b6bc dced 09bd
000003b0: 87ce ebbc 45b8 22be fca9 a4bd e240 05bd
000003c0: 4b7b 093b dc07 ebbb 3cf6 33bd 2664 f13c
000003d0: 6052 d3bd e013 e03c e125 56bd 4c8c 973c
000003e0: 3f76 59be 9f74 743a aad3 593d c2a5 2f3d
000003f0: 09f4 8f3a 7ff1 3e3d c5e3 a1bd 79d6 6d3d
-0.090551175 -0.023859616 0.08730359 0.005381286 0.10295441 0.04321324 0.016175201 -0.10887911
-0.1015409 -0.086376674 -0.0457337 -0.058012858 0.09735291 -0.11069726 0.06456838 0.071637765
0.16523479 -0.01700645 -0.06872429 0.07810658 -0.15727916 -0.048069753 -0.06313262 0.12038928
0.068442546 0.07521582 -0.12713142 -0.10273646 0.04582526 -0.10991382 -0.13324137 -0.088303104
-0.13985004 0.013356331 -0.011111384 -0.0017373258 0.0677955 0.014720738 0.039717793 0.025288472
-0.051901102 -0.0005344411 -0.06102359 0.0077358196 -0.0984228 -0.021540917 -0.1136835 0.06870571
-0.0917422 -0.04776582 -0.038271043 -0.0147052 -0.026340926 -0.08965374 -0.1253827 -0.012831455
0.04266021 0.01576503 0.064547084 -0.0015796812 0.06511278 0.06761309 -0.08296615 -0.1207479
-0.07903331 -0.035862043 0.081615195 0.11760205 0.01548299 -0.08733747 0.009113264 0.010215106
-0.07580685 -0.10355376 0.040042687 -0.04151398 -0.016845483 0.0967961 0.025146024 -0.010182604
-0.010339939 0.016681 0.022246439 -0.11858416 0.055260237 0.03620182 -0.063373566 0.021523926
0.0170986 -0.14526749 0.05432467 -0.01911693 -0.10469779 -0.06603755 -0.04280495 -0.0044128285
-0.043608874 0.04218497 0.08007348 -0.032107588 -0.036069572 0.042894088 -0.021260977 -0.06977371
-0.10936608 0.05900835 0.004452881 -0.052333746 0.12503077 -0.03460124 -0.053591046 -0.018017422
-0.17791753 0.03486832 -0.052102007 0.032563683 0.008533561 -0.03907494 -0.05045593 0.05401647
-0.032337025 -0.010952569 0.10285661 -0.121922836 -0.029328765 0.17216092 -0.06231546 -0.09627637
0.01926391 -0.060142957 -0.046262752 -0.004659154 -0.029285798 0.033896293 -0.0072959135 0.057642266
0.052647702 0.06155624 0.022092141 0.012781624 0.037900478 0.008855467 -0.060927555 -0.011309429
0.10249333 -0.049735382 0.015094287 -0.07426539 -0.039879788 -0.08446071 -0.13423201 -0.019430004
-0.14980759 -0.07740826 -0.023140116 -0.028673181 -0.022401342 0.05122046 -0.056151193 -0.08777041
0.0660407 0.08088094 -0.043521043 -0.13557367 -0.023535024 -0.014963293 0.0470236 0.052306928
-0.11080775 0.11256572 0.013530841 0.03959625 -0.1032377 -0.085141994 -0.08782429 0.03972874
0.08996578 -0.03589368 -0.02088762 -0.295501 0.10333308 -0.007187533 -0.08854348 0.06336186
-0.0832258 -0.08844492 -0.07107984 -0.03537053 -0.16360095 -0.0040856255 -0.010449164 -0.050130125
0.008098477 0.01113539 -0.076136306 -0.10009931 0.04398602 -0.05465144 0.062748395 -0.022404296
-0.1149739 -0.050247382 0.010707038 0.002771763 -0.14971189 0.020864591 -0.066921644 -0.041822344
-0.07281431 0.11624166 -0.04111362 0.019157238 -0.039169006 0.18437488 -0.029789008 0.055644765
0.15196519 -0.017172184 0.0731391 0.009107412 -0.005150148 -0.28613108 -0.105554305 0.054410197
0.060729932 -0.059955183 -0.03262586 -0.017896043 -0.01400482 0.032982633 0.028184272 -0.046671942
-0.0462887 -0.11031207 -0.022225678 -0.033674106 -0.028785003 -0.15890606 -0.080402344 -0.03253258
0.002097803 -0.007172568 -0.043936 0.0294667 -0.10318446 0.027353227 -0.052282218 0.018499516
-0.21236514 0.0009325239 0.053180374 0.04288269 0.0010982762 0.046617027 -0.07904772 0.058065865

cnn_blocks.0.convs.1.bias f4 [16]
00000000: 5675 60bd 5870 7d3d 4f6c a2bc 8cd9 403d
00000010: 234f d73b d128 d23c cb68 27bd 27dc 583d
00000020: b5b2 a1bb b470 ae3d e066 603d ff0a 983d
00000030: 51dc 8dbd 2292 28bc 9123 c2bc 54b4 a0bd
-0.0547994 0.061874717 -0.019827036 0.04708247 0.006570713 0.025654228 -0.040871423 0.05294433
-0.0049346336 0.0851759 0.05478561 0.07423972 -0.06926788 -0.010288747 -0.0236986 -0.07846895

cnn_blocks.0.norms.0.weight f4 [16]
00000000: f27e 823f af18 8b3f 781f 6e3f 4cd5 843f
00000010: e84e 813f 8c06 893f e73b 7c3f 09bf 843f
00000020: fdf7 813f 1c9e 813f 2aaf 7e3f b978 733f
00000030: f66f 6b3f 801d 823f 254a 843f b062 723f
1.0194991 1.0866908 0.9301677 1.0377593 1.0102205 1.0705123 0.98528904 1.0370799
1.0153805 1.0126376 0.9948603 0.95106083 0.91967714 1.0165253 1.0335127 0.94681835

cnn_blocks.0.norms.0.bias f4 [16]
00000000: ea45 11bd 8590 0bbe 9535 f4bd 33b6 8dbd
00000010: bcc8 9bbc a1e7 8b3c 4ee3 59bd 3c28 abbd
00000020: e2de e1bd 45c3 88bd a08e b3bd fc02 bbbd
00000030: 632d c0bd 1ebd 8cbd 7896 34bd 1609 8bbd
-0.035467066 -0.13629349 -0.119242825 -0.06919517 -0.019016616 0.017078223 -0.05319529 -0.083572835
-0.1102884 -0.0667787 -0.08767438 -0.091314286 -0.09383657 -0.06872009 -0.04408881 -0.067888424

cnn_blocks.0.norms.0.running_mean f4 [16]
00000000: 55ef 22be 5b83 ddbd 3c3b 31be 8a61 14bc
00000010: 7aa6 5fbe f29c da3d 9b06 1d3d 539f 8ebd
00000020: 5e13 153e c240 743c 8e1b 12be 9b88 7abd
00000030: e694 81bb 3866 44bc 23fd 813d 5ba3 6f3d
-0.1591161 -0.1081607 -0.17307752 -0.009056458 -0.2184085 0.10674466 0.038336378 -0.069639824
0.14558169 0.014908018 -0.14268324 -0.061165433 -0.0039545177 -0.0119872615 0.0634711 0.058505397

cnn_blocks.0.norms.0.running_var f4 [16]
00000000: f3f3 193d ae7a 2d3d ffaa 413d 6ccb 883d
00000010: c6da 0e3d c636 613d cd15 1a3d cf98 2e3d
00000020: b7a0 043d b245 743d 0bef 5a3d f036 5b3d
00000030: a9ee 883d e21a 523d 8701 233d b15b 5d3d
0.037586164 0.042353325 0.047282215 0.06679425 0.034876607 0.054983877 0.037618447 0.0426262
0.032379832 0.05963678 0.053450625 0.05351919 0.06686146 0.05129517 0.03979638 0.054042522

cnn_blocks.0.norms.1.weight f4 [16]
00000000: 89b3 853f 424a 943f 7dcf 893f 146e 8f3f
00000010: 97cf 883f aade 903f 0afd 963f cd03 8a3f
00000020: 36b3 983f 5d06 8e3f f7f3 963f 03a5 913f
00000030: fb8a 8b3f a823 8a3f 627a 873f 8050 913f
1.0445415 1.1585162 1.0766445 1.1205468 1.0688351 1.1317952 1.1795971 1.078241
1.1929691 1.1095692 1.1793202 1.1378483 1.0901788 1.0792131 1.0584223 1.1352692

cnn_blocks.0.norms.1.bias f4 [16]
00000000: 3d4d 3a3d ebe6 8e3c f497 dcbc 0c74 84bd
00000010: 18ae 7abd 041d 9abc b58d cabc 93ee e8bb
00000020: 4135 b2bb a4ae 4b3d 688f adbd c9e7 5c3d
00000030: 8c9c cebc 0f50 273d 87b7 2ab9 0ca1 2abd
0.045483816 0.017444095 -0.026927926 -0.06467447 -0.061201185 -0.018812664 -0.024725774 -0.0071085184
-0.0054384773 0.049727097 -0.08474618 0.053931985 -0.025221132 0.040847834 -0.00016280833 -0.041657493

cnn_blocks.0.norms.1.running_mean f4 [16]
00000000: aab7 c4be 7e8c 9bbe f9dc 05be 067d 343e
00000010: b1a7 68bd af18 c63e fc14 2bbd ed1e 2d3e
00000020: 359f 83be 3764 e83d 2cad 993e 39d3 b0bd
00000030: 0230 6fbd b034 d13d a9e7 853e 6f2a 6cbc
-0.38421375 -0.30380625 -0.13072576 0.17625818 -0.056800548 0.38690707 -0.04176806 0.16906328
-0.25707403 0.113472395 0.30014932 -0.086340375 -0.058395393 0.102151275 0.26153305 -0.014414414

cnn_blocks.0.norms.1.running_var f4 [16]
00000000: 37e6 043e c36e 363e 0f27 aa3d 71c9 d13d
00000010: 8224 053e edcf bf3d 9466 d83d 6cc1 2d3e
00000020: ec0a 3c3e df4e 203e 08a5 cb3d b77e da3d
00000030: f652 b43d 0cba 253e 1f94 003e 8b26 083e
0.12978445 0.1781569 0.08308231 0.102435 0.13002208 0.093658306 0.1056644 0.16968316
0.18363541 0.15655087 0.099435866 0.106687 0.08804886 0.16184253 0.12556504 0.13295953
