checkpoints/abl_response_only/best_model.pt (torch, 256725 bytes, 142 tensors)

embedder.feature_projections.0.weight f4 [32, 1]
0.44433144 1.1249061 -0.965316 -0.52860326 -0.6301382 -0.028848112 -0.6519976 -1.1094407
5.637984e-05 -1.0682106 -0.050624307 0.89783496 1.2906104 0.84347355 -0.5979798 0.8603133
0.4497874 0.8612896 1.1380657 -0.3542611 0.32643342 0.37516272 -0.9879813 -1.0459092
0.94489604 -1.0346408 -0.9298942 0.726177 0.51184076 0.2963836 -0.5354693 0.37714714
00000000: 697f e33e ecfc 8f3f f31e 77bf 8b52 07bf
00000010: bd50 21bf e052 ecbc 51e9 26bf 2702 8ebf
00000020: 6479 6c38 20bb 88bf 6f5b 4fbd 83d8 653f
00000030: b932 a53f e2ed 573f 3415 19bf 7e3d 5c3f
00000040: 894a e63e 7a7d 5c3f 23ac 913f b661 b5be
00000050: 4822 a73e 5415 c03e 58ec 7cbf 5ae0 85bf
00000060: b5e4 713f 1c6f 84bf 8c0d 6ebf bce6 393f
00000070: ff07 033f 97bf 973e 8414 09bf 6e19 c13e

embedder.feature_projections.0.bias f4 [32]
-0.7542955 -0.84868896 0.7195755 -0.74712545 -0.9158829 -0.3858887 -0.8004414 -0.88032967
-0.8674764 0.236786 -0.053867906 0.26559672 -0.6449816 0.22170956 0.73582464 -0.4742272
0.040887445 -0.45447564 -0.4315734 0.1629772 0.11809314 0.33431914 -0.20659761 0.88409615
-0.51648444 -0.035905078 -0.39945233 -0.19842012 -0.7847594 0.55237275 -0.7393463 0.8358646
00000000: 8319 41bf ae43 59bf 1a36 383f 9d43 3fbf
00000010: 4d77 6abf 3493 c5be bae9 4cbf 495d 61bf
00000020: ef12 5ebf 0778 723e 98a4 5cbd 4bfc 873e
00000030: 841d 25bf d507 633e 015f 3c3f e8cd f2be
00000040: 9879 273d 08b1 e8be 30f7 dcbe 7fe3 263e
00000050: d1da f13d e12b ab3e 538e 53be 2054 623f
00000060: 5338 04bf 3411 13bd 0485 ccbe a52e 4bbe
00000070: fee5 48bf 4d68 0d3f cd45 3dbf 39fb 553f

embedder.feature_projections.1.weight f4 [32, 1]
0.8211733 -0.89563906 -0.2915341 -0.30623227 -0.53510725 0.8464965 -0.30500558 0.6434237
0.6186623 0.3987891 -0.889258 -0.24573438 0.572837 -0.72592586 0.5475475 0.054873597
0.60080713 0.63595325 -0.8395782 0.46000087 0.3211939 -0.55790377 -0.7343625 0.3660813
0.6630188 0.075419165 -0.3689086 0.61620706 0.038357556 0.5075378 0.9573173 -0.27387163
00000000: 6a38 523f 9a48 65bf f543 95be 7aca 9cbe
00000010: cafc 08bf ffb3 583f b129 9cbe 6ab7 243f
00000020: a760 1e3f 162e cc3e 6aa6 63bf cba1 7bbe
00000030: 72a5 123f 47d6 39bf 132c 0c3f 23c3 603d
00000040: 7fce 193f d5cd 223f 99ee 56bf 3c85 eb3e
00000050: 8773 a43e c8d2 0ebf 2eff 3bbf 026f bb3e
00000060: 9abb 293f 5d75 9a3d 97e1 bcbe bfbf 1d3f
00000070: d01c 1d3d ffed 013f bf12 753f e738 8cbe

embedder.feature_projections.1.bias f4 [32]
0.26742995 0.37514043 -0.14849067 -0.03670536 0.89596874 -0.13366032 -0.09743023 -0.34432513
-0.07897409 0.6848495 0.92655176 -0.40767506 -0.97749496 0.3563722 -0.98141015 0.47850198
-0.041248553 0.65387344 -0.13866207 -0.15158756 0.030938858 0.7013975 -0.6866749 0.34333622
-0.7715845 0.74869406 0.11720001 -0.6299472 -0.5824678 0.03761163 0.4148321 0.29392236
00000000: 94ec 883e 6812 c03e f00d 18be 5c58 16bd
00000010: 355e 653f 40de 08be 8089 c7bd 624b b0be
00000020: 2bbd a1bd 4c52 2f3f 7f32 6d3f c9ba d0be
00000030: 1c3d 7abf 6b76 b63e b23d 7bbf 36fe f43e
00000040: 3ef4 28bd 4064 273f 6efd 0dbe c539 1bbe
00000050: 7d73 fd3c c98e 333f edc9 2fbf c4c9 af3e
00000060: 9086 45bf 6aaa 3f3f 8f06 f03d 3844 21bf
00000070: 9c1c 15bf a70e 1a3d df64 d43e fe7c 963e

embedder.stabilizer_embedding.weight f4 [8, 32]
-1.0396225 -0.48730296 0.2542082 1.1912937 -1.6258649 -0.2679431 0.7271487 -0.31264672
-0.5972148 0.29621512 -0.33497795 -2.067696 -0.09463156 1.0086166 -0.8509435 0.4275265
-1.250899 0.2196935 -1.2801507 -0.5435404 0.83445185 -1.2945529 -0.043902755 -1.1903689
-0.9367153 0.15709138 -0.0020049757 0.18861061 -0.41105098 0.7446528 0.06525429 -0.18577936
0.7419781 -2.4073353 0.43992752 0.36497688 0.57975465 -1.0995207 -0.108805194 -1.3339738
1.6875297 -0.90486085 -0.86853456 -0.37159008 -1.6720536 0.8528603 -0.04829248 0.15558408
0.6373466 0.5079084 0.9298544 -0.36150798 0.15274812 0.32648194 0.74061304 -0.08286135
-1.4279455 -0.9915516 1.1404337 0.547124 0.73671055 0.92803586 1.1298134 0.7285246
0.6384527 -1.1337591 -0.113857225 -1.8259786 0.48965773 0.6137189 0.011981457 -1.190938
-1.1829939 -0.5266926 0.089745276 -1.0881463 -0.022137577 2.3613672 0.95632666 0.5832546
0.2849599 0.24382563 0.041395504 -0.20719151 0.6511569 -0.010968957 0.9710233 1.5551237
-0.6593674 -0.8855194 -0.98348826 -0.81793135 -0.051722642 -0.11369458 -0.74348587 -1.7694083
0.6607036 0.34620085 -0.052849505 -0.24560721 -2.0145454 0.39284134 -0.11312787 1.8566872
-1.1237903 -2.205917 -0.31338853 0.6447855 1.0442959 -1.6428077 0.6876553 -0.28723213
-0.62175614 -0.37247133 -1.1084986 1.0667467 -0.49688697 0.5274204 -1.8347571 -1.3930739
-0.5528139 0.7650075 0.815992 1.5596682 -0.16041817 1.3818432 0.13167489 1.3332032
0.62355113 -1.548887 -0.21821153 2.3089678 -0.60467184 -0.68913853 -0.013623849 -2.3586197
0.60392654 0.020142956 1.5839839 -2.118052 -0.08800919 -1.1300957 1.8545452 0.51224285
-0.55329585 -1.3819896 -0.281588 0.68242514 -1.5011094 -1.3833091 -0.7881093 -0.9055804
-0.6879697 -1.1217474 -0.024279645 0.979338 0.68483645 -0.7180902 -0.07065251 0.5014231
-1.2975938 0.09490981 0.5275766 0.9881959 0.28720987 -0.7914699 -0.28578874 1.0334398
-0.5400508 0.7692663 -1.6242738 -0.7118724 1.3836217 -0.029333914 1.6429607 0.06255014
0.0531754 1.5657678 0.5922539 0.7910732 -0.8614204 1.5157595 0.0865956 0.9384889
-0.065696396 0.36245796 1.6402733 0.93134767 0.12468386 -1.467267 -0.4672287 -1.0997915
-1.4491364 2.1766996 1.8121563 -1.003232 -1.1921957 2.1787405 0.7672293 -2.6044376
-1.6444376 0.05054427 0.31363735 -0.5881406 -1.1972207 -0.9055388 0.897657 -0.876658
1.0636914 -0.09440577 0.40774426 1.9455168 -0.80578643 -0.6667857 0.40102392 0.1893612
-0.83962494 1.8615676 -0.9333683 0.3980525 2.4185152 -0.45554298 0.5362719 0.8323177
-2.2555132 -1.6552271 0.63561743 0.40331924 0.58335954 -0.37093228 0.8924747 -2.4441721
-1.5465087 1.1736183 -1.7101382 -0.08780888 -1.2307855 1.021893 -1.4747415 -1.1726943
-0.40132418 -0.5956969 -1.273178 0.9225174 1.6719737 -0.21590915 -1.8387961 1.3494929
0.4512401 -0.120222926 0.6876373 0.21578625 0.01245885 -1.6066985 -2.071644 2.8161821
00000000: 5a12 85bf c67f f9be 9427 823e 507c 983f
00000010: 571c d0bf d72f 89be 6b26 3a3f 3b13 a0be
00000020: 12e3 18bf 82a9 973e 3b82 abbe 2255 04c0
00000030: 31ce c1bd 591a 813f 6fd7 59bf c1e4 da3e
00000040: 751d a0bf 55f7 603e fadb a3bf 7725 0bbf
00000050: a39e 553f e9b3 a5bf 60d3 33bd 025e 98bf
00000060: 93cc 6fbf 90dc 203e e965 03bb 2423 413e
00000070: 4675 d2be 91a1 3e3f 0ba4 853d f23c 3ebe
00000080: 47f2 3d3f c811 1ac0 2e3e e13e 40de ba3e
00000090: cd6a 143f 18bd 8cbf 42d5 debd a7bf aabf
000000a0: f900 d83f f6a4 67bf 4858 5ebf 0e41 bebe
000000b0: da05 d6bf 0d55 5a3f 56ce 45bd 6f51 1f3e
000000c0: 2629 233f 4906 023f f00a 6e3f 9317 b9be
000000d0: 016a 1c3e a428 a73e d198 3d3f 36b3 a9bd
000000e0: ebc6 b6bf 53d6 7dbf bbf9 913f 5210 0c3f
000000f0: 1099 3c3f c293 6d3f ba9d 903f 9780 3a3f
00000100: a371 233f 051f 91bf fa2d e9bd abb9 e9bf
00000110: 6bb4 fa3e af1c 1d3f df4d 443c a870 98bf
00000120: 586c 97bf 54d5 06bf 5fcc b73d 6148 8bbf
00000130: dd59 b5bc a420 1740 d3d1 743f 2c50 153f
00000140: 44e6 913e 6dad 793e 558e 293d 032a 54be
00000150: 38b2 263f 24b7 33bc fc94 783f 4b0e c73f
00000160: 4dcc 28bf 66b1 62bf e3c5 7bbf f363 51bf
00000170: 1fdb 53bd b4d8 e8bd 1755 3ebf f97b e2bf
00000180: df23 293f 3d41 b13e b978 58bd 7580 7bbe
00000190: 50ee 00c0 8022 c93e 96af e7bd eda7 ed3f
000001a0: 5cd8 8fbf be2d 0dc0 7674 a0be aa10 253f
000001b0: 7dab 853f 8647 d2bf 2e0a 303f 1710 93be
000001c0: 692b 1fbf 90b4 bebe 48e3 8dbf 288b 883f
000001d0: f867 febe 0605 073f 52d9 eabf 3f50 b2bf
000001e0: 3685 0dbf 88d7 433f dae4 503f 35a3 c73f
000001f0: a944 24be 3de0 b03f c8d5 063e 67a6 aa3f
00000200: 0ca1 1f3f ee41 c6bf d872 5fbe 21c6 1340
00000210: c6cb 1abf 626b 30bf 9036 5fbc a0f3 16c0
00000220: ee9a 1a3f d702 a53c fcbf ca3f 2a8e 07c0
00000230: 2a3e b4bd faa6 90bf bd61 ed3f 5922 033f
00000240: cca4 0dbf 09e5 b0bf 4d2c 90be 6ab3 2e3f
00000250: 5a24 c0bf 4610 b1bf 88c1 49bf 1ed4 67bf
00000260: c81e 30bf 6b95 8fbf 1be6 c6bc e5b5 7a3f
00000270: 7151 2f3f c2d4 37bf 43b2 90bd 445d 003f
00000280: 8e17 a6bf 1360 c23d 430f 073f 68fa 7c3f
00000290: 2c0d 933e c59d 4abf e752 92be c147 843f
000002a0: c540 0abf a3ee 443f 34e8 cfbf 453d 36bf
000002b0: 841a b13f ad4d f0bc 894c d23f 4a1a 803d
000002c0: 73ce 593d 146b c83f f49d 173f c683 4a3f
000002d0: 0c86 5cbf 6804 c23f 0959 b13d cf40 703f
000002e0: d58b 86bd 1794 b93e 7af4 d13f cd6c 6e3f
000002f0: 405a ff3d 68cf bbbf 9a38 efbe f8c5 8cbf
00000300: 4d7d b9bf 0c4f 0b40 bdf4 e73f e869 80bf
00000310: de99 98bf 7c70 0b40 2469 443f 1baf 26c0
00000320: ee7c d2bf 8207 4f3d 1395 a03e 6290 16bf
00000330: 873e 99bf 64d1 67bf d9cc 653f a96c 60bf
00000340: 0a27 883f d057 c1bd dbc3 d03e b206 f93f
00000350: 0548 4ebf 78b2 2abf 0253 cd3e e7e7 413e
00000360: a9f1 56bf d947 ee3f 3af1 6ebf 8acd cb3e
00000370: f4c8 1a40 ee3c e9be 1e49 093f c612 553f
00000380: 545a 10c0 7bde d3bf d3b7 223f dc7f ce3e
00000390: 0d57 153f d6ea bdbe 3979 643f 516d 1cc0
000003a0: fff3 c5bf 2039 963f cfe5 dabf 24d5 b3bd
000003b0: 618a 9dbf 64cd 823f 54c4 bcbf d91a 96bf
000003c0: 5d7a cdbe 987f 18bf 7ff7 a2bf 1a2a 6c3f
000003d0: 3c03 d63f 4a17 5dbe ac5d ebbf 2fbc ac3f
000003e0: f108 e73e 7037 f6bd 0009 303f 12f7 5c3e
000003f0: 3420 4c3c 4ca8 cdbf d195 04c0 543c 3440

embedder.res_block.0.weight f4 [32]
0.9854576 1.0999557 1.0665232 0.9492687 1.0860074 1.0008928 1.0014577 1.0568503
1.0089911 1.0106345 0.9499458 1.038973 1.1365203 0.9903828 1.0128841 1.104975
1.0232416 0.98891896 1.0761776 0.9833903 1.0734514 0.9799257 1.018523 1.0207598
1.0457437 1.069767 1.0789143 0.97337925 0.9708654 0.9603061 1.0486729 0.9866677
00000000: f346 7c3f 59cb 8c3f d583 883f 4603 733f
00000010: 4a02 8b3f 411d 803f c42f 803f df46 873f
00000020: 9f26 813f 795c 813f a62f 733f 11fd 843f
00000030: 7f79 913f ba89 7d3f 30a6 813f d26f 8d3f
00000040: 95f9 823f cb29 7d3f 30c0 893f 77bf 7b3f
00000050: db66 893f 69dc 7a3f f65e 823f 42a8 823f
00000060: eeda 853f 20ee 883f dd19 8a3f 622f 793f
00000070: a38a 783f 9fd6 753f ea3a 863f 4196 7c3f

embedder.res_block.0.bias f4 [32]
0.011352171 0.0032327308 -0.010400012 0.028172309 0.016476098 -0.030512908 0.018527493 0.00696402
0.019450042 -0.040107172 3.023335e-05 0.009722791 0.041153405 -0.011774771 -0.019708883 0.0070015206
-0.030281918 -0.018436262 0.017183146 -0.006230661 -0.011371122 -0.037207633 0.025303766 -0.03727767
0.035451613 -0.017646546 -0.005770416 -0.025367131 0.012419979 -0.012260627 0.010841381 -0.018771665
00000000: 75fe 393c 39dc 533b d064 2abc 9dc9 e63c
00000010: e2f8 863c 35f6 f9bc f8c6 973c 6f32 e43b
00000020: b255 9f3c 6b47 24bd a09d fd37 574c 1f3c
00000030: 7990 283d f8ea 40bc 8674 a1bc 036d e53b
00000040: c911 f8bc a507 97bc abc3 8c3c 932a ccbb
00000050: f14d 3abc 0867 18bd d849 cf3c 78b0 18bd
00000060: b635 113d 7d8f 90bc c215 bdbb bbce cfbc
00000070: 2b7d 4b3c cce0 48bc 0ca0 313c 09c7 99bc

embedder.res_block.1.weight f4 [32, 32]
0.14714853 0.1372857 0.01921546 -0.013531418 -0.0015276731 0.1279795 0.105232075 -0.1547817
0.067128144 -0.1534256 0.11357496 0.17706776 0.12048319 0.14088252 0.029076878 0.21501935
-0.055013455 -0.024850806 -0.11485065 0.072162084 0.20914935 -0.07195877 0.008269706 0.09228805
0.01172553 -0.009890456 -0.18990368 0.19382374 -0.096996576 -0.08586519 -0.1785752 -0.08964381
0.043405782 -0.06673562 0.20607655 0.22079672 -0.06404711 0.18447012 -0.019475553 0.11696042
0.0822107 -0.04376293 -0.16155224 0.04922621 0.0028503293 -0.022878572 0.11494063 0.0072496887
-0.024066245 -0.21348643 -0.24135293 -0.05260117 0.08356307 0.07318087 0.074156985 0.1238256
-0.026101924 0.19998196 0.18226649 -0.0074592573 -0.16296631 -0.08770503 0.036796402 0.086835094
-0.066565394 0.24127162 -0.1312172 -0.15712942 -0.022876509 0.056277305 0.09696595 -0.025192777
0.18064292 -0.17835543 -0.18674177 0.05909546 0.1170998 -0.0033996312 -0.13020912 -0.17742789
0.21076708 0.02165644 0.06127621 0.09126855 0.11566779 -0.15967286 -0.043497726 -0.053319965
-0.05092161 0.02030315 -0.2121861 0.11049028 0.21111251 -0.18864118 0.09266718 -0.15243971
-0.026191661 0.21984886 -0.30163088 -0.06674057 -0.25440538 0.16466458 -0.033415154 -0.19794014
-0.018568557 -0.012579441 -0.14370139 0.12548374 0.27519646 0.029906074 0.0031616613 0.29764977
-0.00035522314 -0.065362744 -0.029429931 -0.005425133 0.121890284 -0.069911584 -0.22441311 0.039593432
0.3717741 -0.07892383 -0.066147834 -0.009193419 0.0071012042 -0.003289137 -0.18268266 0.07515754
0.1832447 0.13956171 -0.18086463 -0.17475247 -0.2965626 0.17307688 0.025918838 0.12612961
0.12701868 -0.02722231 0.07018964 0.12217033 0.26505533 0.1142111 -0.13946855 0.106122755
0.101411454 0.026887842 0.14258297 0.040785804 0.107954234 -0.07572555 0.04496632 0.030303506
-0.019126954 0.12214228 -0.29943183 0.06907183 0.14485534 0.1585782 0.030588679 -0.1485403
0.10384505 0.15623239 0.039809458 -0.085525036 -0.31680214 0.0016863227 -0.1739544 -0.19357112
-0.1297167 0.082420774 0.02806813 0.031099332 0.3260479 0.10024983 -0.16942665 0.064360626
-0.07448259 0.1552074 0.22761446 0.08613106 0.07954894 0.116522744 -0.06427169 -0.13791975
0.2823921 -0.06520704 -0.15372205 0.044031322 0.0069176164 -0.1305013 -0.1450732 0.081192054
0.118740454 0.05971431 -0.10070792 0.007772917 -0.09405179 -0.13483414 0.07368218 -0.07414262
0.08898209 -0.17469974 0.09731558 0.0077484422 -0.06524641 0.092491224 0.14583942 0.153073
-0.12163252 -0.120298445 0.03523774 0.16720134 0.0809692 -0.08200671 -0.11981659 -0.21027012
0.029494917 0.060144793 0.042191446 0.058264285 -0.10904161 0.1393992 -0.22520977 -0.04944815
-0.0035515 -0.18711577 0.1262704 0.08540298 -0.08423947 -0.030098645 -0.0023667908 0.2360412
-0.16354433 0.05396512 0.03913188 0.051102195 -0.052887272 0.14560375 0.013519753 -0.09313788
-0.030183094 0.081505865 -0.26190808 -0.04276898 -0.0025557033 0.15881148 -0.06141948 0.22083092
0.10488524 0.026068255 -0.008209346 0.06170222 -0.03616278 -0.105591185 0.13947546 -0.047551583
00000000: 1bae 163e 9f94 0c3e be69 9d3c e1b2 5dbc
00000010: 343c c8ba 0f0d 033e ea83 d73d 187f 1ebe
00000020: 7b7a 893d 9a1b 1dbe fd99 e83d 4051 353e
00000030: e4bf f63d 8243 103e a232 ee3c 082e 5c3e
00000040: ca55 61bd eb93 cbbc d136 ebbd b7c9 933d
00000050: 3f2b 563e 1f5f 93bd a97d 073c 8401 bd3d
00000060: 701c 403c 940b 22bc 1c76 42be bb79 463e
00000070: 24a6 c6bd 17da afbd 6bdc 36be 2d97 b7bd
00000080: 43ca 313d afac 88bd bb05 533e 8918 623e
00000090: 222b 83bd bce5 3c3e 328b 9fbc f288 ef3d
000000a0: 155e a83d c240 33bd f36d 25be 6ca1 493d
000000b0: 97cc 3a3b d86b bbbc fe65 eb3d cc8e ed3b
000000c0: 9326 c5bc 309c 5abe 3925 77be 5374 57bd
000000d0: 1d23 ab3d dadf 953d 9edf 973d 4798 fd3d
000000e0: b4d3 d5bc 12c8 4c3e 11a4 3a3e c96c f4bb
000000f0: a4e0 26be b29e b3bd d3b7 163d 99d6 b13d
00000100: 7053 88bd e80f 773e cd5d 06be 89e6 20be
00000110: 8467 bbbc 0883 663d 1696 c63d 1561 cebc
00000120: 75fa 383e cea2 36be 3c39 3fbe 150e 723d
00000130: 05d2 ef3d 59cc 5ebb 8a55 05be a8af 35be
00000140: 53d3 573e d968 b13c c3fc 7a3d 01eb ba3d
00000150: 3ce3 ec3d 4881 23be ac2a 32bd 0966 5abd
00000160: 2e93 50bd cb52 a63c 5047 59be ba48 e23d
00000170: e12d 583e 272b 41be 4ac8 bd3d 2819 1cbe
00000180: e58f d6bc 0f20 613e 5d6f 9abe 48af 88bd
00000190: 6c41 82be d59d 283e 54de 08bd d2b0 4abe
000001a0: 161d 98bc 001a 4ebc 7526 13be cf7e 003e
000001b0: 8de6 8c3e 95fd f43c e033 4f3b 8d65 983e
000001c0: 3e3d bab9 e7dc 85bd 0a17 f1bc 50c5 b1bb
000001d0: 9da1 f93d ce2d 8fbd 8dcc 65be b92c 223d
000001e0: 2d59 be3e d1a2 a1bd 8478 87bd fe9f 16bc
000001f0: 38b1 e83b 908e 57bb 2a11 3bbe 32ec 993d
00000200: 80a4 3b3e 44e9 0e3e 9434 39be 50f2 32be
00000210: 0ed7 97be 113b 313e be53 d43c 1f28 013e
00000220: 2f11 023e 5201 dfbc 96bf 8f3d 7034 fa3d
00000230: 55b5 873e 82e7 e93d d8d0 0ebe e356 d93d
00000240: cfb0 cf3d e443 dc3c 4501 123e 040f 273d
00000250: 1c17 dd3d ff15 9bbd 9b2e 383d 0f3f f83c
00000260: 21b0 9cbc bb25 fa3d 214f 99be 8875 8d3d
00000270: f554 143e 5362 223e 1c95 fa3c f31a 18be
00000280: b7ac d43d 62fb 1f3e 3e0f 233d c027 afbd
00000290: e433 a2be 9a07 dd3a 1a21 32be 8237 46be
000002a0: 74d4 04be 39cc a83d 23ef e53c 07c4 fe3c
000002b0: c0ef a63e c84f cd3d 2e7e 2dbe 81cf 833d
000002c0: 548a 98bd b0ee 1e3e c413 693e 7b65 b03d
000002d0: 8eea a23d 7aa3 ee3d e0a0 83bd d63a 0dbe
000002e0: b395 903e 458b 85bd 5069 1dbe 305a 343d
000002f0: 2cad e23b 22a2 05be 128e 14be 0548 a63d
00000300: 322e f33d fe96 743d f43f cebd f4b3 fe3b
00000310: 3a9e c0bd f611 0abe afe6 963d 16d8 97bd
00000320: 3e3c b63d 7de4 32be 644d c73d a5e6 fd3b
00000330: e99f 85bd 0a6c bd3d ee56 153e 2bbf 1c3e
00000340: 781a f9bd 085f f6bd 7355 103d d436 2b3e
00000350: 2ed3 a53d 22f3 a7bd 6662 f5bd 0d51 57be
00000360: 539f f13c 635a 763d f0d0 2c3d 88a6 6e3d
00000370: 3551 dfbd aabe 0e3e 649d 66be 258a 4abd
00000380: 48c0 68bb 479b 3fbe 074d 013e c2e7 ae3d
00000390: be85 acbd 6f91 f6bc 291c 1bbb c9b4 713e
000003a0: 2a78 27be 880a 5d3d c048 203d 8950 513d
000003b0: 53a0 58bd 2619 153e f481 5d3c 13bf bebd
000003c0: 8942 f7bc 8cec a63d d118 86be 872e 2fbd
000003d0: 967d 27bb 7a9f 223e fe92 7bbd 8021 623e
000003e0: 13ce d63d 188d d53c 7e80 06bc 78bb 7c3d
000003f0: 6c1f 14bd 3140 d8bd a8d2 0e3e 73c5 42bd

embedder.res_block.1.bias f4 [32]
-0.023770383 0.107003696 -0.078934975 -0.16068879 -0.11755803 -0.011722153 0.14775364 0.06805476
-0.03712939 0.030482585 0.06479693 0.11595946 -0.022057563 0.061103005 -0.048478354 0.16935745
-0.05552236 -0.043036077 -0.028165948 0.14454688 -0.09517828 0.083998464 0.14557862 -0.03702452
0.069155045 0.13455182 0.1492521 0.15624492 0.019817756 -0.13878615 0.11381879 0.04489726
00000000: 1bba c2bc c124 db3d a9a8 a1bd 9a8b 24be
00000010: 44c2 f0bd 460e 40bc bb4c 173e 4b60 8b3d
00000020: fd14 18bd 9db6 f93c 41b4 843d 277c ed3d
00000030: 10b2 b4bc 2547 7a3d 3d91 46bd 0a6c 2d3e
00000040: 6a6b 63bd 9946 30bd 46bc e6bc 1904 143e
00000050: d4ec c2bd 6307 ac3d 9012 153e 06a7 17bd
00000060: 29a1 8d3d f4c7 093e 8bd5 183e abfe 1f3e
00000070: d958 a23c f51d 0ebe d319 e93d 30e6 373d

embedder.res_block.3.weight f4 [32, 32]
0.20126513 0.051862746 -0.11804375 0.17953435 0.033867337 0.21767935 -0.05446275 0.13788529
-0.17886055 0.19725887 -0.074292846 -0.09232587 0.053874247 0.057288684 0.04141489 -0.14689876
-0.11881084 0.07044824 0.03532721 0.008482903 -0.063773215 0.009778313 -0.0018455691 0.13136233
-0.08316526 0.039492883 -0.06911485 -0.042640604 0.016861808 -0.21534348 0.20061684 -0.023679465
-0.13021229 -0.18069965 -0.0027228931 -0.11745941 0.07214228 -0.08162547 -0.07483776 0.05408979
-0.056368735 -0.17236723 0.048648346 0.13369279 0.15726826 0.11532151 0.0736123 0.19491194
0.15291598 0.1619033 0.1584205 -0.012068009 -0.0635562 -0.1408414 0.13885789 0.19674094
0.15303299 -0.11217708 0.12330471 -0.03188015 0.07990523 0.002172656 -0.12931578 0.15827829
-0.10602247 0.21263392 0.0899727 -0.09287455 0.04816972 -0.024254633 -0.11554304 0.116375856
0.060841225 -0.088033006 -0.032814473 0.024730941 -0.16785021 -0.19709615 0.052139256 0.12980297
-0.09161425 -0.19775309 -0.1872543 -0.10329292 0.0033108762 -0.03169655 0.07342394 -0.09041492
0.0003061981 -0.061169688 -0.12333256 -0.13705952 0.07948889 0.11588851 0.007173487 0.14503752
-0.046977777 -0.050587174 0.13967884 -0.033849835 0.31734994 -0.25533947 -0.01689682 0.14573222
0.059793428 -0.0926417 -0.12897764 -0.22162576 0.037587512 -0.18046778 0.15040195 0.1005446
0.1613689 -0.1120199 0.03114691 0.023675155 -0.17577605 0.18822533 -0.16494901 -0.082138404
0.1897108 -0.071327664 0.009123403 0.064754725 -0.11052436 0.08914928 0.09406845 -0.048158716
0.09063249 0.02443828 0.15351929 -0.05194594 -0.32285655 -0.02814477 0.058629144 0.20058967
-0.09201657 0.1718222 -0.0050214203 -0.07100372 0.033757728 -0.019306611 0.16988185 0.22895795
-0.09488247 -0.036198903 0.0044951 0.07753129 0.22462437 0.060104534 -0.19758895 -0.007693682
0.0524215 -0.13534309 -0.1432167 0.031087816 0.07005605 0.028081035 -0.11303774 0.016932124
-0.010463797 -0.108789705 -0.06793192 0.27869573 0.29818988 0.2908049 -0.00018144172 0.025675364
0.012161647 0.12404773 0.08290356 -0.030581627 0.24647357 0.12844938 -0.17538814 -0.04322316
0.029147139 0.11608807 -0.034768436 -0.105110206 -0.1165661 -0.1705318 0.04244809 -0.096019685
-0.104641624 0.0059234444 0.1361392 0.0997472 0.0121315345 -0.04277692 -0.0897627 -0.08928251
0.02702121 0.028490804 -0.23346625 -0.03972262 -0.15784462 -0.053874657 -0.012069768 0.040131457
0.038899638 0.07477184 -0.09530908 -0.092479356 -0.06435268 -0.1445497 0.039852697 -0.174084
-0.18239507 -0.08045054 0.15808088 0.05860638 -0.22242531 -0.001934789 0.0443606 0.053639695
0.18562819 -0.05555099 -0.10440408 0.076103136 0.06673416 -0.019085214 -0.18346067 0.19484824
-0.10242988 0.10720422 0.32167527 0.10100095 0.02362316 0.01597748 -0.21465759 0.1824291
-0.22930817 -0.06894744 -0.2246418 0.010327314 -0.3242629 0.11058865 -0.07905844 0.11694687
0.15726174 0.01406366 -0.046114527 0.117369495 -0.18446626 0.1739346 -0.13665159 -0.13449016
0.029283911 0.08438552 -0.20738448 0.15398264 0.059972037 0.1995408 -0.15458313 -0.06910469
00000000: 7218 4e3e 086e 543d ecc0 f1bd dad7 373e
00000010: 7ab8 0a3d 56e7 5e3e 5514 5fbd cd31 0d3e
00000020: 3827 37be 3bfe 493e d926 98bd 5915 bdbd
00000030: 3eab 5c3d 8aa7 6a3d a9a2 293d a16c 16be
00000040: 1953 f3bd 2b47 903d 44b3 103d e0fb 0a3c
00000050: 889b 82bd 3835 203c 06e7 f1ba d983 063e
00000060: 8c52 aabd 4ac3 213d 168c 8dbd eaa7 2ebd
00000070: c621 8a3c 0083 5cbe 806e 4d3e 70fb c1bc
00000080: 5f56 05be 5409 39be 9172 32bb 8f8e f0bd
00000090: 55bf 933d 412b a7bd 8a44 99bd 418d 5d3d
000000a0: e7e2 66bd 0981 30be 7d43 473d c3e6 083e
000000b0: ee0a 213e af2d ec3d 0cc2 963d ff96 473e
000000c0: 0296 1c3e fbc9 253e fc38 223e e6b8 45bc
000000d0: c129 82bd ba38 10be c330 0e3e 7576 493e
000000e0: aeb4 1c3e 19bd e5bd 2e87 fc3d c394 02bd
000000f0: 5aa5 a33d 1e63 0e3b 5b6b 04be b413 223e
00000100: 4f22 d9bd b5bc 593e 9b43 b83d 0335 bebd
00000110: 9d4d 453d a7b1 c6bc d4a1 ecbd 7756 ee3d
00000120: a634 793d a64a b4bd 7868 06bd 8b98 ca3c
00000130: ede0 2bbe 93d3 49be f98f 553d 12eb 043e
00000140: 40a0 bbbd c97f 4abe 97bf 3fbe 3d8b d3bd
00000150: 49fb 583b 3ed4 01bd 4a5f 963d 752b b9bd
00000160: 3789 a039 118d 7abd c895 fcbd 5559 0cbe
00000170: 12cb a23d f556 ed3d 920f eb3b b784 143e
00000180: c56b 40bd 7f34 4fbd f807 0f3e 20a6 0abd
00000190: b17b a23e dbbb 82be 336b 8abc d43a 153e
000001a0: f4e9 743d eeba bdbd b712 04be ddf1 62be
000001b0: 5df5 193d 8ccc 38be f802 1a3e 54ea cd3d
000001c0: e43d 253e b06a e5bd ce27 ff3c 66f2 c13c
000001d0: a3fe 33be 24be 403e 65e8 28be 2e38 a8bd
000001e0: 8c43 423e 3d14 92bd 537a 153c 209e 843d
000001f0: 985a e2bd e693 b63d f6a6 c03d 1342 45bd
00000200: 879d b93d ca32 c83c 2934 1d3e 44c5 54bd
00000210: 744d a5be dc8f e6bc 1d25 703d 6167 4d3e
00000220: 2f73 bcbd 29f2 2f3e ba8a a4bb 666a 91bd
00000230: 8b45 0a3d e628 9ebc 82f5 2d3e f473 6a3e
00000240: be51 c2bd 4d45 14bd a24b 933b bac8 9e3d
00000250: ee03 663e 2c30 763d c254 4abe 481b fcbb
00000260: edb7 563d 6197 0abe 66a7 12be e0ab fe3c
00000270: 8c79 8f3d 330a e63c 5580 e7bd 3db5 8a3c
00000280: 5870 2bbc 23cd debd e41f 8bbd 35b1 8e3e
00000290: 58ac 983e 61e4 943e 6441 3eb9 2455 d23c
000002a0: a541 473c bc0c fe3d 57c9 a93d 5286 fabc
000002b0: 9163 7c3e 3c88 033e f398 33be c50a 31bd
000002c0: fbc5 ee3c 95bf ed3d 5969 0ebd 0544 d7bd
000002d0: 35ba eebd e39f 2ebe 0cde 2d3d f8a5 c4bd
000002e0: 594e d6bd 7419 c23b 1368 0b3e 4348 cc3d
000002f0: 58c3 463c da36 2fbd 82d5 b7bd c0d9 b6bd
00000300: 965b dd3c 8c65 e93c c711 6fbe 30b4 22bd
00000310: 05a2 21be acab 5cbd 47c0 45bc e260 243d
00000320: 3a55 1f3d fa21 993d 6831 c3bd d165 bdbd
00000330: 57cb 83bd d604 14be 953c 233d 1343 32be
00000340: c6c5 3abe 41c3 a4bd f4df 213e 3e0d 703d
00000350: 76c3 63be bf98 fdba 76b3 353d 4cb5 5b3d
00000360: 5115 3e3e 6f89 63bd ced1 d5bd f6db 9b3d
00000370: ebab 883d 9858 9cbc 1ddd 3bbe 4c86 473e
00000380: c2c6 d1bd e38d db3d 9fb2 a43e 96d9 ce3d
00000390: 5b85 c13c 34e3 823c 33cf 5bbe b2ce 3a3e
000003a0: c3cf 6abe 5134 8dbd 8008 66be e533 293c
000003b0: c905 a6be 4d7c e23d 64e9 a1bd d781 ef3d
000003c0: 3909 213e 446b 663c 96e2 3cbd 6b5f f03d
000003d0: b9e4 3cbe e91b 323e 65ee 0bbe cab7 09be
000003e0: d0e4 ef3c 51d2 ac3d 995c 54be a0ad 1d3e
000003f0: 3da5 753d 6c54 4c3e 0a4b 1ebe c286 8dbd

embedder.res_block.3.bias f4 [32]
0.17836058 0.09837575 -0.12130986 0.04777265 -0.0004512609 0.027738882 -0.08342627 -0.11568643
-0.113218084 -0.025424061 0.026152352 -0.09256353 -0.027056176 0.067942135 -0.09341518 -0.17795089
0.024130676 0.033395298 0.02457471 0.119674414 -0.17017613 -0.043828078 0.057871506 -0.15557438
0.011020601 -0.02765635 -0.0439287 0.027959287 0.052314956 -0.14254633 0.13786282 -0.096556745
00000000: 28a4 363e 3a79 c93d 4e71 f8bd 41ad 433d
00000010: 3697 ecb9 a73c e33c 64db aabd 02ed ecbd
00000020: e2de e7bd 1f46 d0bc 753d d63c f391 bdbd
00000030: eaa4 ddbc 3f25 8b3d 7550 bfbd c238 36be
00000040: b2ad c53c 82c9 083d e750 c93c dc17 f53d
00000050: a742 2ebe 1285 33bd ac0a 6d3d e44e 1fbe
00000060: c08f 343c 928f e2bc 95ee 33bd e00a e53c
00000070: 3548 563d aaf7 11be e92b 0d3e 8bbf c5bd

cnn_blocks.0.proj_in.weight f4 [16, 32]
-0.16398694 0.046146233 -0.20686556 -0.14390856 0.1326128 -0.11623502 -0.02538818 -0.0051590945
0.043130398 -0.108351 -0.07966182 0.16275193 0.076846786 0.02714396 -0.072560675 -0.23485072
0.009440977 0.20285232 -0.059756145 -0.23729573 0.05553357 0.07007787 -0.0015670761 -0.19654459
0.12218669 0.06646858 0.10618698 -0.2034935 0.22196475 -0.19452383 -0.17255689 0.16769534
0.0801441 0.14689414 -0.10480813 -0.083151706 0.16395874 0.0878996 0.04214291 0.11424425
-0.06729402 0.09896937 -0.14685717 -0.047620613 -0.02484062 -0.18259677 -0.0040583173 0.08583417
-0.16939984 0.0019994853 -0.17617804 -0.1416577 0.04943501 0.07549585 0.17260826 0.10040063
0.11912029 0.0046743266 0.047459718 -0.022778712 0.06334737 -0.13218933 0.17023245 0.15504739
-0.033230018 -0.06046419 -0.051123884 0.12402415 0.04235375 -0.109315254 -0.18268879 -0.07362048
0.20779444 -0.04993188 -0.073152855 -0.009495154 -0.07421816 0.14311844 -0.005771344 -0.1396355
0.1215212 -0.07118703 0.1205809 0.119424574 0.17956522 -0.048335772 -0.0036400636 0.10127117
-0.07924991 0.10198978 -0.12381537 -0.12525314 -0.14224732 -0.19944684 0.22934379 -0.056733154
-0.029626487 -0.055362385 -0.122702174 0.041374777 -0.0055399276 -0.06603283 0.14242314 -0.034356672
-0.073237404 -0.12679791 0.051737256 0.121644475 -0.10291426 0.08788388 0.110312834 0.13388579
0.15121818 0.18073122 -0.026116211 0.029306274 -0.1053378 -0.12433599 0.09916102 0.016881628
-0.21279608 -0.12835278 -0.09953031 0.020651413 -0.076431274 -0.17678083 -0.024549555 0.09389978
-0.010894416 -0.19862099 0.006134589 0.053148776 0.06563375 0.15220185 -0.13676459 0.020947225
-0.12867363 -0.20776436 -0.103110984 0.10464554 0.03128716 -0.08425592 0.115586065 -0.03247127
-0.18432228 0.016585715 0.12880705 -0.21122976 -0.13673656 0.0018237465 -0.11333581 -0.036458272
-0.16850512 -0.14064798 0.065062895 0.07822343 0.118250616 0.053557966 0.09240249 0.052882776
0.007950906 -0.0011507721 -0.0021993464 -0.0329775 -0.090674385 0.036554076 0.08781359 -0.11246147
-0.13535331 -0.1236544 -0.124602355 0.07073158 -0.17027524 0.11730858 0.16615777 0.032402094
-0.05822713 -0.10777231 -0.1077617 -0.12899406 0.032624725 -0.13686013 0.10021637 -0.0240883
0.019531962 0.11877891 -0.12541495 -0.056194734 -0.04280759 0.14629342 0.0520656 0.120446764
0.05052456 0.01882015 -0.08297847 0.1512736 -0.089446336 -0.037211224 0.08039293 -0.0816721
0.05095803 -0.09127787 0.13962819 -0.07714303 0.22478604 -0.115911864 -0.10678409 0.13336821
-0.026087144 -0.045405056 -0.10331538 -0.030011574 0.07403819 -0.026068093 0.009414043 0.061569538
-0.17388357 -0.16473693 0.06643674 -0.21910027 0.19555463 0.16166653 0.018061709 0.035941046
0.094302356 -0.07245185 0.13370022 0.079080746 0.18584035 0.0003206965 -0.031503767 0.17194186
-0.0486477 0.02120996 0.10926831 0.13376005 0.022596996 0.042931374 -0.07492572 -0.066855
-0.11330184 -0.10433732 0.16963597 0.09868023 0.24397795 0.11911794 -0.11078594 -0.038560614
-0.019785969 0.07758481 -0.072075985 -0.0053004296 0.16170065 -0.0589718 -0.07671889 0.1316734
00000000: 31ec 27be d503 3d3d 91d4 53be c45c 13be
00000010: a6cb 073e a00c eebd dffa cfbc 9f0d a9bb
00000020: 80a9 303d 21e7 ddbd bc25 a3bd 71a8 263e
00000030: d961 9d3d 035d de3c b19a 94bd b57c 70be
00000040: 54ae 1a3c 85b8 4f3e dcc2 74bd a7fd 72be
00000050: 2b77 633d fc84 8f3d 5966 cdba fc42 49be
00000060: 043d fa3d ae20 883d 8f78 d93d 9a60 50be
00000070: ba4a 633e 4131 47be c1b2 30be 54b8 2b3e
00000080: 9722 a43d 6b6b 163e a5a5 d6bd 714b aabd
00000090: cde4 273e b504 b43d 0b9e 2c3d e4f8 e93d
000000a0: 72d1 89bd 74b0 ca3d ba61 16be d50d 43bd
000000b0: 8e7e cbbc a6fa 3abe a2fb 84bb d3c9 af3d
000000c0: 2777 2dbe cc09 033b 0468 34be b70e 11be
000000d0: 5d7c 4a3d 919d 9a3d 38c0 303e d89e cd3d
000000e0: 57f5 f33d 182b 993b 1f65 423d 6c9a babc
000000f0: 44bc 813d a45c 07be 6a51 2e3e bec4 1e3e
00000100: 331c 08bd 4ca9 77bd 4767 51bd 6000 fe3d
00000110: 207b 2d3d ade0 dfbd c512 3bbe 56c6 96bd
00000120: 11c8 543e 5f85 4cbd 2ad1 95bd 9091 1bbc
00000130: b1ff 97bd a48d 123e 8b1d bdbb 9cfc 0ebe
00000140: 1be0 f83d 81ca 91bd 1ef3 f63d df94 f43d
00000150: f2df 373e bbfb 45bd 228e 6ebb 4267 cf3d
00000160: c74d a2bd 05e0 d03d ea92 fdbd 5c42 00be
00000170: 48a9 11be cb3b 4cbe 19d9 6a3e 0661 68bd
00000180: 3fb3 f2bc abc3 62bd 474b fbbd 9978 293d
00000190: 4888 b5bb 383c 87bd 5fd7 113e 95b9 0cbd
000001a0: 7efd 95bd 50d7 01be 72ea 533d bd20 f93d
000001b0: b6c4 d2bd 77fc b33d b2eb e13d 5b19 093e
000001c0: f0d8 1a3e 9b11 393e aaf1 d5bc b613 f03c
000001d0: 58bb d7bd dea3 febd ef14 cb3d 574b 8a3c
000001e0: 37e7 59be e96e 03be 8cd6 cbbd 272d a93c
000001f0: 0088 9cbd 0906 35be 261c c9bc 874e c03d
00000200: 7e7e 32bc 4d63 4bbe aa04 c93b 88b2 593d
00000210: fd6a 863d cdda 1b3e 040c 0cbe 8499 ab3c
00000220: 05c3 03be 2ec0 54be da2b d3bd 6750 d63d
00000230: f726 003d 5e8e acbd 63b8 ec3d 9800 05bd
00000240: fbbe 3cbe c4de 873c ffe5 033e 9d4c 58be
00000250: ab04 0cbe c70a ef3a 9b1c e8bd 4555 15bd
00000260: 9b8c 2cbe 0606 10be b23f 853d 9b33 a03d
00000270: 612d f23d 995f 5b3d 843d bd3d 9c9b 583d
00000280: 8444 023c 81d5 96ba e922 10bb 6a13 07bd
00000290: 7eb3 b9bd bab9 153d 9dd7 b33d 3352 e6bd
000002a0: 0f9a 0abe 853e fdbd 852f ffbd b8db 903d
000002b0: a25c 2ebe 7b3f f03d 4325 2a3e 0fb8 043d
000002c0: 927f 6ebd bbb7 dcbd 2bb2 dcbd 0517 04be
000002d0: 81a1 053d 1025 0cbe 3d3e cd3d d454 c5bc
000002e0: 7e01 a03c 5b42 f33d c76c 00be 732c 66bd
000002f0: 0357 2fbd f1cd 153e bd42 553d cbac f63d
00000300: d7f2 4e3d b72c 9a3c 9ef0 a9bd 77e7 1a3e
00000310: a42f b7bd cc6a 18bd 0ca5 a43d b443 a7bd
00000320: 5eb9 503d e4ef babd b1fa 0e3e 2afd 9dbd
00000330: 502e 663e 3363 edbd 9eb1 dabd ad91 083e
00000340: b5b4 d5bc a7fa 39bd 0497 d3bd d5da f5bc
00000350: 56a1 973d c18c d5bc 5c3d 1a3c 5730 7c3d
00000360: 890e 32be ccb0 28be fc0f 883d d25b 60be
00000370: 793f 483e e98b 253e 26f6 933c eb36 133d
00000380: 9821 c13d a361 94bd b6e8 083e 16f5 a13d
00000390: ef4c 3e3e 2823 a839 180a 01bd 8711 303e
000003a0: d042 47bd 83c0 ad3c 10c8 df3d 65f8 083e
000003b0: 561d b93c cfd8 2f3d a872 99bd 46eb 88bd
000003c0: cc0a e8bd ceae d5bd 0db5 2d3e dc18 ca3d
000003d0: 5bd5 793e 1bf4 f33d bde3 e2bd bcf1 1dbd
000003e0: 2f16 a2bc c9e4 9e3d 939c 93bd 3aaf adbb
000003f0: db94 253e 6a8c 71bd cb1e 9dbd 64d5 063e

cnn_blocks.0.proj_in.bias f4 [16]
0.11859353 -0.11049407 -0.0878018 -0.16920003 -0.06807156 0.031530168 -0.092382684 0.0848194
-0.14338152 0.050161388 0.06699531 -0.1400028 -0.006333721 0.11113941 0.10067859 0.044512674
00000000: 2ae1 f23d b74a e2bd 6ed1 b3bd c642 2dbe
00000010: 1a69 8bbd c725 013d 2233 bdbd cbb5 ad3d
00000020: 9bd2 12be 0776 4d3d d634 893d e55c 0fbe
00000030: 1a8b cfbb 0f9d e33d 9430 ce3d ec52 363d

cnn_blocks.0.convs.0.weight f4 [16, 16, 3, 3]
-0.011673368 0.11374111 0.07838313 -0.05288945 0.015440295 0.11350971 -0.0017876512 -0.08624
-0.14154103 -0.07995725 -0.07505685 0.0051496434 0.10115256 -0.07689149 0.053002812 0.06388728
-0.056512218 -0.07423094 0.05885481 0.051952846 -0.036543943 0.07293436 -0.08826699 0.08863715
0.055543963 0.11538671 -0.022190863 -0.011645984 0.052266255 0.051524665 0.030127978 0.035428867
0.0067264405 -0.033893716 0.061710175 -0.09394662 0.09153622 0.070115 0.083549224 -0.02716776
0.062132612 -0.12771685 0.059494067 0.034559466 -0.004782957 -0.06851053 0.00019337656 0.0024006497
0.08017846 0.1090914 0.04327657 0.055694107 0.009031762 0.06843144 0.09321773 0.0485082
-0.0629998 -0.09470441 -0.009068125 0.0004470519 0.012384068 0.049573544 0.11095655 -0.05304956
0.11089142 0.16923209 0.051626384 0.07955574 -0.11320033 0.08374279 0.05811238 -0.037320446
-0.048490003 0.05580655 0.068326384 -0.08493056 -0.05300129 -0.052395284 0.09343328 -0.026967082
-0.008890892 -0.026188867 0.013158791 0.05527549 -0.113434024 0.14378412 0.046081934 0.006654925
0.026761208 -0.08745148 0.014403396 0.049649913 0.027758645 -0.02979924 -0.0084048705 -0.04976406
-0.06270426 -0.07721503 0.025429478 -0.088232145 0.14491516 0.07104099 0.003921494 0.0012997707
-0.06489121 -0.0040197917 0.050418593 0.007738024 0.07378853 0.044107318 -0.018844891 -0.004917682
0.08083657 0.0509288 -0.030463334 0.011502744 7.625228e-06 -0.05584956 0.04785155 -0.009638562
0.06548084 -0.015766535 -0.08560923 0.09133318 -0.08853383 -0.09156103 -0.003998352 0.018122198
0.025833756 -0.12408492 0.04740509 0.024456257 -0.12095282 0.02545841 0.14617771 0.0062479395
-0.09688402 -0.19153678 -0.049052715 0.038529184 0.13972236 -0.039211087 0.020539898 -0.011119661
-0.050743524 0.12520893 0.05116215 0.075256005 0.040241323 0.062281698 0.0009811334 0.015779715
0.08791085 0.031496026 0.037731048 -0.014483327 -0.0002740578 -0.048454024 0.12367855 -0.027991112
0.040100046 -0.03928441 -0.022801636 -0.07565361 -0.09558501 0.13837682 0.07126814 0.109034926
0.14963256 0.08157898 0.0071606664 0.07943113 0.05747683 -0.008931644 -0.058485042 0.047915746
-0.007042396 0.041302912 0.110321395 -0.056272358 -0.06889115 0.09407604 0.032219198 -0.05410434
0.045668714 -0.08835177 -0.0014045676 0.035395965 0.07645396 0.06645926 0.0030368592 0.051120847
0.010735278 -0.111456685 -0.050545257 -0.07193939 0.066273555 -0.06497718 0.008705028 0.029505856
-0.020171326 -0.05069042 0.03810477 -0.0009035339 0.009595446 0.024720592 0.028229523 0.14466217
-0.03248321 -0.051200684 -0.14557303 0.0011739786 0.05077135 0.10285779 0.0003162488 -0.07557281
0.040582735 -0.021367146 0.034928255 0.09983568 0.06406576 0.17893416 0.13612802 0.018972967
0.07309984 0.003582296 -0.036283817 -0.0833064 -0.057391074 -0.008148696 -0.06580658 0.08386362
-0.13166244 -0.011609255 -0.038439937 0.03928401 0.017083151 0.012288784 0.075521894 0.0030472542
-0.053779587 0.011633257 -0.12022984 0.017010346 -0.08537886 -0.026819728 -0.11657794 0.0017780995
-0.038788136 -0.110944524 -0.014842138 -0.10485512 -0.051414076 -0.09463513 0.08177486 -0.08354858
00000000: a741 3fbc 19f1 e83d 5687 a03d 9ca2 58bd
00000010: 4bf9 7c3c c777 e83d 9f4f eaba 999e b0bd
00000020: 22f0 10be a0c0 a3bd 68b7 99bd 57be a83b
00000030: 1329 cf3d 4979 9dbd 7a19 593d 56d7 823d
00000040: 5b79 67bd 6406 98bd be11 713d 82cc 543d
00000050: 1aaf 15bd 9c5e 953d 53c5 b4bd 6587 b53d
00000060: 1182 633d de4f ec3d 9dc9 b5bc ccce 3ebc
00000070: 2415 563d 870b 533d f3ce f63c dc1d 113d
00000080: 7969 dc3b 23d4 0abd cfc3 7c3d 1667 c0bd
00000090: 5777 bb3d 7498 8f3d db1b ab3d ec8e debc
000000a0: c47e 7e3d 35c8 02be 0db0 733d 3a8e 0d3d
000000b0: 5aba 9cbb 404f 8cbd 20c5 4a39 3854 1d3b
000000c0: 9b34 a43d 506b df3d c642 313d 811f 643d
000000d0: f5f9 133c c825 8c3d f0e8 be3d 89b0 463d
000000e0: 0a06 81bd 63f4 c1bd 7992 14bc 4a62 ea39
000000f0: 8ce6 4a3c a10d 4b3d 303d e33d 7f4a 59bd
00000100: 0a1b e33d 2d4b 2d3e 3076 533d 1fee a23d
00000110: 93d5 e7bd 5781 ab3d 3f07 6e3d 53dd 18bd
00000120: 749d 46bd 6995 643d b4ee 8b3d 13f0 adbd
00000130: e117 59bd 709c 56bd f359 bf3d 12ea dcbc
00000140: 1bab 11bc 098a d6bc f897 573c 8d68 623d
00000150: 1950 e8bd 253c 133e 69c0 3c3d 8f11 da3b
00000160: 523a db3c c319 b3bd 39fc 6b3c b55d 4b3d
00000170: 1966 e33c 891d f4bc 95b4 09bc 66d5 4bbd
00000180: 176b 80bd ea22 9ebd 7b51 d03c 0eb3 b4bd
00000190: a464 143e f07d 913d e07f 803b 115d aa3a
000001a0: afe5 84bd 75b8 83bb ba83 4e3d 408f fd3b
000001b0: 711e 973d e0a9 343d 9a60 9abc 8224 a1bb
000001c0: a58d a53d b89a 503d 3e8e f9bc 0176 3c3c
000001d0: 36dc ff36 82c2 64bd fdff 433d 0feb 1dbc
000001e0: d21a 863d d228 81bc e453 afbd e40c bb3d
000001f0: 3a51 b5bd 5984 bbbd 9c04 83bb 0175 943c
00000200: 50a1 d33c 3c20 febd d72b 423d 7d58 c83c
00000210: 1db6 f7bd 288e d03c 9caf 153e 84bb cc3b
00000220: 216b c6bd 3822 44be 80eb 48bd c7d0 1d3d
00000230: 6113 0f3e ce9b 20bd 4a43 a83c 3d2f 36bc
00000240: 71d8 4fbd c536 003e 678f 513d d21f 9a3d
00000250: 16d4 243d 181b 7f3d 6099 803a 7644 813c
00000260: 9b0a b43d fa01 013d df8b 1a3d 7a4b 6dbc
00000270: 6aaf 8fb9 ba77 46bd 2e4b fd3d 9e4d e5bc
00000280: f23f 243d b1e8 20bd 7fca babc 48f0 9abd
00000290: 13c2 c3bd a7b2 0d3e 08f5 913d b44d df3d
000002a0: 4739 193e e112 a73d 06a4 ea3b caac a23d
000002b0: d36c 6b3d 0856 12bc 038e 6fbd 4d43 443d
000002c0: e6c3 e6bb 3e2d 293d 2ff0 e13d d87d 66bd
000002d0: ce16 8dbd f0aa c03d 47f8 033d 839c 5dbd
000002e0: 1e0f 3b3d c6f1 b4bd 7819 b8ba 5cfb 103d
000002f0: e593 9c3d cb1b 883d 0b06 473b 1864 513d
00000300: 05e3 2f3c 6743 e4bd 8b08 4fbd f554 93bd
00000310: 6eba 873d c112 85bd 899f 0e3c 44b6 f13c
00000320: 563e a5bc c2a0 4fbd bf13 1c3d 22db 6cba
00000330: 3836 1d3c d782 ca3c 9a41 e73c 5222 143e
00000340: 1d0d 05bd cfb7 51bd 1911 15be 2fe0 993a
00000350: 9ef5 4f3d 1ba7 d23d 32ce a539 ebc5 9abd
00000360: 153a 263d 270a afbc ee10 0f3d a676 cc3d
00000370: e934 833d 843a 373e 2565 0b3e 326d 9b3c
00000380: 5eb5 953d f4c4 6a3b 579e 14bd 8c9c aabd
00000390: e712 6bbd 1c82 05bc 9ac5 86bd b1c0 ab3d
000003a0: 85d2 06be bf34 3ebc 3273 1dbd 45e8 203d
000003b0: f7f1 8b3c e556 493c 39ab 9a3d 71b4 473b
000003c0: fc47 5cbd 6b99 3e3c 103b f6bd 4859 8b3c
000003d0: 1ddb aebd 0cb5 dbbc 6ac0 eebd 1e0f e93a
000003e0: 4fe0 1ebd e236 e3bd 702c 73bc 48be d6bd
000003f0: 9197 52bd 10d0 c1bd 9479 a73d 851b abbd

cnn_blocks.0.convs.0.bias f4 [16]
0.03829857 0.034546077 -0.062391516 0.052811097 0.024796084 0.024404258 0.06888936 -0.031086888
-0.036983885 -0.061321788 0.015544224 -0.047519922 -0.057043772 -0.051460437 -0.04523416 -0.00019074017
00000000: f6de 1c3d 3080 0d3d 3f8e 7fbd 7350 583d
00000010: 2821 cb3c 70eb c73c dd15 8d3d eea9 febc
00000020: 6a7c 17bd 8e2c 7bbd 33ad 7e3c 40a4 42bd
00000030: bba6 69bd 2ec8 52bd 7447 39bd 6d01 48b9

cnn_blocks.0.convs.1.weight f4 [16, 16, 3, 3]
0.070874736 0.060356382 0.07685855 0.034531575 -0.03921444 0.023345415 0.049868625 0.010625034
-0.10741472 -0.014367766 0.10370953 -0.019968165 0.019039875 0.079580255 0.042815294 -0.016575087
0.027547421 -0.037227098 0.057983115 0.045287784 0.036001403 -0.020114962 0.12923482 -0.006088295
-0.09457381 -0.0893084 0.1666482 -0.08615392 0.059927583 -0.044349242 0.10055935 0.007532039
-0.072207436 -0.053560846 -0.07706166 -0.05994831 -0.015012517 0.021337578 0.016361162 0.010392666
0.06276875 0.12612583 -0.0065726563 -0.10094157 0.09692447 0.12119463 -0.023532096 -0.08566649
0.021322105 0.02184627 -0.08735597 -0.15456691 -0.015038786 -0.023257116 -0.10421502 -0.023304414
0.17461567 0.009867056 0.009260006 -0.05055933 0.024431774 0.051934127 -0.084074974 -0.1272891
-0.102447174 -0.18870161 -0.21051174 -0.02522827 0.07889941 -0.009195229 0.025233135 0.0033395323
0.03728138 0.024419412 0.114629135 -0.0067315386 0.04585045 -0.030612877 0.04502177 -0.06561358
0.051817775 0.04506286 -0.09216275 -0.076813586 -0.05953932 0.08184492 -0.0032607692 0.057076503
-0.01105888 -0.08843202 -0.07928043 0.04259264 0.12844445 0.10888219 0.13792926 0.064458005
0.026407998 0.016588336 -0.026013054 0.0040108166 0.089924105 -0.053564526 0.11713549 0.007460853
-0.014065558 -0.05188158 0.11364476 -0.0114864865 -0.09590513 0.111624435 -0.037192106 -0.09887093
-0.116737925 0.07204626 0.04230268 -0.13404301 0.057691395 0.035368413 -0.0815127 0.05625391
-0.038586207 0.09698443 -0.025404902 0.0091196075 -0.08459291 0.015380686 -0.0061368225 -0.03556181
-0.0029257357 0.027406033 0.09211658 0.13707356 0.037245024 0.07446777 0.046817612 -0.008167653
0.04420709 0.023355993 -0.07695137 0.051573783 -0.025119573 -0.048319146 -0.08586812 0.091452815
0.07052534 0.00925487 -0.010448508 0.077049345 -0.0030969162 0.10501326 -0.070478596 -0.054285504
-0.05384259 -0.027043067 -0.063151516 0.02884637 -0.0013634287 -0.011212125 0.030239241 -0.04256328
0.09985669 0.07846882 0.11269898 0.100729965 0.0025278279 0.062917195 -0.05970144 0.009172346
0.0841774 -0.053746928 -0.17485522 0.21849175 0.07161544 0.022231285 0.03220807 -0.015032827
0.024724104 -0.12088436 0.101619974 0.1426856 -0.008092543 0.019727476 -0.050499234 0.08517131
0.083189465 0.115115084 -0.10290499 0.13471329 0.058911312 -0.059620786 -0.015783662 -0.0502133
0.058848258 -0.09400422 -0.07582642 -0.075016804 0.074503995 0.05694837 -0.10622942 -0.043667343
-0.04151788 0.087571256 -0.032698993 -0.034691118 0.028337354 0.02066706 -0.06517302 -0.109391205
0.07957518 -0.07603414 -0.06103184 0.15575294 -0.035338357 0.0020406009 0.04050981 0.021049216
0.028607456 0.042091683 0.072544016 -0.105149895 -0.0214493 -0.017327184 -0.048110753 -0.007621435
-0.02906406 0.035492174 0.04536847 0.09196503 0.037425254 0.009228492 -0.04753019 0.0036762627
-0.08880172 -0.05107159 0.027356306 -0.016515726 -0.001910664 -0.08853829 -0.025177918 -0.026677247
-0.090849645 0.059116587 0.013689141 0.043225035 -0.042289697 -0.04960604 -0.059932735 0.029119838
0.121166535 -0.03323963 -0.022937115 -0.029165426 0.0764849 0.10744748 -0.016175507 0.08468507
00000000: c626 913d 4138 773d 0468 9d3d fb70 0d3d
00000010: 529f 20bd e23e bf3c 0b43 4c3d 9f14 2e3c
00000020: 40fc dbbd c766 6bbc a965 d43d 4794 a3bc
00000030: 83f9 9b3c f9fa a23d 175f 2f3d 7ac8 87bc
00000040: 21ab e13c 717b 18bd b47f 6d3d af7f 393d
00000050: 3576 133d 22c8 a4bc 2256 043e 5280 c7bb
00000060: eaaf c1bd 53e7 b6bd d3a5 2a3e 7771 b0bd
00000070: a076 753d 8da7 35bd 0ff2 cd3d 53cf f63b
00000080: 7ee1 93bd 9e62 5bbd 81d2 9dbd 5c8c 75bd
00000090: 0ff7 75bc 25cc ae3c d807 863c 0046 2a3c
000000a0: e78c 803d 2127 013e 705f d7bb 74ba cebd
000000b0: 5680 c63d e434 f83d 62c6 c0bc ea71 afbd
000000c0: b2ab ae3c f3f6 b23c b0e7 b2bd ca46 1ebe
000000d0: 3e65 76bc b585 bebc af6e d5bd e6e8 bebc
000000e0: 73ce 323e 6fa9 213c 48b7 173c 4d17 4fbd
000000f0: 2525 c83c e1b8 543d 802f acbd 1358 02be
00000100: d3cf d1bd ff3a 41be 6490 57be 84ab cebc
00000110: 0496 a13d 96a7 16bc b8b5 ce3c 0edc 5a3b
00000120: 5cb4 183d 380b c83c aec2 ea3d 3d94 dcbb
00000130: aecd 3b3d dbc7 fabc bf68 383d 6a60 86bd
00000140: e03e 543d d593 383d d3bf bcbd 7150 9dbd
00000150: 81df 73bd 4f9e a73d a1b2 55bb 0dc9 693d
00000160: 4e30 35bc d91b b5bd c75d a2bd 9f75 2e3d
00000170: f186 033e a0fd de3d 543d 0d3e 8f02 843d
00000180: 9655 d83c 43e4 873c 5419 d5bc 2b6d 833b
00000190: 212a b83d 7a66 5bbd bbe4 ef3d 2c7a f43b
000001a0: 3a73 66bc c881 54bd 95be e83d d131 3cbc
000001b0: e969 c4bd 5a9b e43d c056 18bd d87c cabd
000001c0: 4b14 efbd fd8c 933d 9345 2d3d 9242 09be
000001d0: d04d 6c3d 78de 103d 21f0 a6bd 806a 663d
000001e0: 920c 1ebd c69f c63d f11d d0bc 686a 153c
000001f0: 0c3f adbd 46ff 7b3c 6617 c9bb 43a9 11bd
00000200: b3bd 3fbb 9e82 e03c 9ea7 bc3d 035d 0c3e
00000210: 3d8e 183d 8f82 983d d3c3 3f3d 9fd1 05bc
00000220: 7e12 353d 1155 bf3c ae98 9dbd 083f 533d
00000230: 90c7 cdbc 4cea 45bd a0db afbd 9d4b bb3d
00000240: 976f 903d bda1 173c 3830 2bbc 0ccc 9d3d
00000250: a2f5 4abb 3111 d73d 1557 90bd 7a5a 5ebd
00000260: 0c8a 5cbd 6c89 ddbc 9555 81bd 394f ec3c
00000270: 13b5 b2ba 10b3 37bc 49b8 f73c d556 2ebd
00000280: aa81 cc3d 43b4 a03d b9ce e63d 834b ce3d
00000290: eaa9 253b bbda 803d 7f89 74bd 9c47 163c
000002a0: 3365 ac3d bd25 5cbd 3f0d 33be 4dbc 5f3e
000002b0: 1eab 923d 621e b63c 9cec 033d 3f4c 76bc
000002c0: 348a ca3c 3892 f7bd 221e d03d 2d1c 123e
000002d0: 9696 04bc 849b a13c 49d8 4ebd 4c6e ae3d
000002e0: 3d5f aa3d 75c1 eb3d dabf d2bd 48f2 093e
000002f0: fd4c 713d ed34 74bd bd4c 81bc 76ac 4dbd
00000300: df0a 713d 4985 c0bd e24a 9bbd 69a2 99bd
00000310: 8d95 983d b242 693d cf8e d9bd 87dc 32bd
00000320: a70e 2abd 8f58 b33d 61ef 05bd 4618 0ebd
00000330: bd23 e83c f74d a93c 6f79 85bd 7f08 e0bd
00000340: 50f8 a23d cab7 9bbd 86fc 79bd b37d 1f3e
00000350: f4be 10bd 9abb 053b 9ded 253d 686f ac3c
00000360: 2f5a ea3c 5468 2c3d f591 943d d458 d7bd
00000370: 71b6 afbc bdf1 8dbc c80f 45bd 3bbd f9bb
00000380: c017 eebc 3e60 113d 4ad4 393d 2958 bc3d
00000390: 394b 193d 1a33 173c 04af 42bd 74ed 703b
000003a0: addd b5bd 7230 51bd 551a e03c fd4b 87bc
000003b0: 3f6f faba 9053 b5bd ec41 cebc 3e8a dabc
000003c0: 610f babd 3c24 723d 6b48 603c bc0c 313d
000003d0: f637 2dbd b42f 4bbd 077c 75bd ba8c ee3c
000003e0: 2926 f83d 4726 08bd 9ee6 bbbc 55ec eebc
000003f0: 1ea4 9c3d 6d0d dc3d 7f82 84bc 5e6f ad3d

cnn_blocks.0.convs.1.bias f4 [16]
0.046885792 0.06784089 -0.017588502 -0.075890765 -0.03852408 0.007819871 0.04904884 0.053362545
0.054552566 -0.06808853 -0.057669375 0.080318324 -0.0067882854 -0.0330221 0.04800518 0.045666154
00000000: 510b 403d 2af0 8a3d c315 90bc 9e6c 9bbd
00000010: 6dcb 1dbd eb1e 003c 70e7 483d af92 5a3d
00000020: 8372 5f3d 0072 8bbd b936 6cbd ef7d a43d
00000030: 4470 debb 2e42 07bd 14a1 443d 6f0c 3b3d

cnn_blocks.0.norms.0.weight f4 [16]
0.98856425 1.0138828 0.9697395 1.0451574 1.0206164 0.95349526 1.0262142 0.9884492
0.98381484 0.99557865 0.9412293 1.0052617 0.9616523 0.9845178 1.0006139 0.9935708
00000000: 8c12 7d3f e9c6 813f d940 783f b8c7 853f
00000010: 8fa3 823f 4418 743f fd5a 833f 020b 7d3f
00000020: 4adb 7b3f 3ede 7e3f 67f4 703f 6aac 803f
00000030: d82e 763f 5c09 7c3f 1e14 803f a85a 7e3f

cnn_blocks.0.norms.0.bias f4 [16]
-0.07875862 -0.022827985 -0.031947937 0.0028170682 -0.061585054 -0.08487691 -0.05870761 -0.026131395
-0.023559706 -0.04016348 -0.025742285 -0.04327759 -0.121776894 -0.024912756 -0.06669534 -0.02735586
00000000: 334c a1bd c101 bbbc d7db 02bd 909e 383b
00000010: 9c40 7cbd f2d3 adbd 6477 70bd 8211 d6bc
00000020: 4900 c1bc 7682 24bd 7ce1 d2bc d843 31bd
00000030: 2a66 f9bd d615 ccbc 9197 88bd 6619 e0bc

cnn_blocks.0.norms.0.running_mean f4 [16]
-0.02272608 -0.008255769 -0.12698804 0.049123663 0.14877516 -0.0453119 -0.029921278 0.019865287
-0.042494815 -0.015725123 0.01564018 -0.10906463 -0.053165726 -0.024623642 -0.08411878 0.16415665
00000000: 0b2c babc 3443 07bc 2709 02be e535 493d
00000010: 8458 183e f998 39bd 781d f5bc 87bc a23c
00000020: 0b0f 2ebd f9d1 80bc d61f 803c 475d dfbd
00000030: 4ec4 59bd 85b7 c9bc 7846 acbd ae18 283e

cnn_blocks.0.norms.0.running_var f4 [16]
0.041711546 0.056366377 0.034679744 0.046068896 0.034478433 0.041217316 0.046740882 0.06400598
0.04416062 0.07750332 0.044061866 0.03297693 0.038604222 0.054959886 0.05462054 0.040388867
00000000: bad9 2a3d 6ee0 663d 590c 0e3d bdb2 3c3d
00000010: 4239 0d3d 7dd3 283d 5e73 3f3d 9115 833d
00000020: c4e1 343d 10ba 9e3d 377a 343d d112 073d
00000030: 761f 1e3d 9e1d 613d cab9 5f3d cc6e 253d

cnn_blocks.0.norms.1.weight f4 [16]
1.0974977 1.036991 1.0463792 1.0166057 1.0353556 1.0475192 1.0836382 1.086787
1.0562402 1.0420433 1.04914 1.0816764 1.0424894 1.0303693 1.0999427 0.9932001
00000000: ce7a 8c3f 1fbc 843f c1ef 853f 2320 823f
00000010: 8886 843f 1c15 863f a8b4 8a3f d61b 8b3f
00000020: e132 873f ad61 853f 384a 863f 5f74 8a3f
00000030: 4b70 853f 24e3 833f ecca 8c3f 5d42 7e3f

cnn_blocks.0.norms.1.bias f4 [16]
0.014854022 -0.0041780397 -0.029268742 -0.008685022 -0.03145987 -0.031137094 -0.02767885 -0.028729001
-0.02376112 -0.018528981 -0.023531958 0.043707464 0.024487933 -0.007810064 -0.031461354 -0.020721732
00000000: 495e 733c f0e7 88bb 00c5 efbc 9f4b 0ebc
00000010: 11dc 00bd 3813 ffbc c1be e2bc 1559 ebbc
00000020: aea6 c2bc 17ca 97bc 18c6 c0bc 9906 333d
00000030: eb9a c83c 91eb ffbb 9fdd 00bd 9fc0 a9bc

cnn_blocks.0.norms.1.running_mean f4 [16]
0.29171905 0.3131592 -0.22125205 -0.14752027 -0.06639356 0.21796085 0.3009981 0.17355031
0.21286497 -0.052552123 0.017486732 0.05211842 -0.28411317 0.11365034 0.22032133 -0.16751182
00000000: 335c 953e 6756 a03e e68f 62be 8e0f 17be
00000010: 59f9 87bd 2131 5f3e 6c1c 9a3e 2cb7 313e
00000020: 46f9 593e e540 57bd 5640 8f3c 207a 553d
00000030: 4877 91be 82c1 e83d ea9b 613e 3888 2bbe

cnn_blocks.0.norms.1.running_var f4 [16]
0.11182266 0.16058579 0.17883845 0.15686436 0.096778855 0.09079469 0.07987218 0.08547421
0.12477382 0.14498809 0.13221613 0.19953564 0.10982174 0.16240019 0.099973075 0.14103903
00000000: 4703 e53d 9a70 243e 6d21 373e 0da1 203e
00000010: fe33 c63d 91f2 b93d 0794 a33d 1a0d af3d
00000020: 6b89 ff3d c277 143e aa63 073e 1253 4c3e
00000030: 38ea e03d 3c4c 263e afbe cc3d 896c 103e
