checkpoints/abl_response_only/best_model.pt (torch, 256725 bytes, 142 tensors)

embedder.feature_projections.0.weight f4 [32, 1]
00000000: ed1f 903f 82de a53c 76d6 523f 40aa a6bf
00000010: ffb4 64be b945 60bf 2f5b 4c3f 23ec 77bf
00000020: c26b ae3e 332b 89bf 493c 293f ed95 523f
00000030: 2a14 5a3f 50e1 483f 8f82 81bf 392c 04bf
00000040: c737 22bf 2d13 0ebf f0f0 42bf c196 373f
00000050: d901 c2be 4533 0e3f 0f90 3cbe bbaa 393f
00000060: 1284 9abf 2864 c0bd 79d0 b1be d30c 8dbf
00000070: 62ff b0be 1eb6 babe 729d 4d3f 88ba 6abf
1.1259743 0.020247702 0.8235849 -1.3020706 -0.2233467 -0.8760639 0.79826635 -0.9684469
0.34066588 -1.0716308 0.6610761 0.8226002 0.8518702 0.784688 -1.0117968 -0.5162998
-0.6336636 -0.5549801 -0.7614889 0.7171441 -0.37892035 0.5554698 -0.18414329 0.7252614
-1.2071555 -0.09394103 -0.34729365 -1.1019539 -0.34569842 -0.3646707 0.8031837 -0.91690874

embedder.feature_projections.0.bias f4 [32]
00000000: 29c0 2dbf 6c14 4bbf bc01 743f ee62 3ebf
00000010: abc8 813e 1ed0 bdbd 6ec4 223f b493 803e
00000020: 39a3 33bf e945 fb3e a807 1c3f c7cb 22bf
00000030: c7e3 3a3f 3ee4 523e bba0 9a3e 174e f1be
00000040: 84f3 c0be 95f9 343f 7e44 153f 7fb4 29bf
00000050: 66b6 86bd 6193 29bf 7a95 e2be 993f 5b3f
00000060: 0d8c 6dbf da87 85bd 3fe3 bb3e 7c36 673f
00000070: 84a4 833e c6eb 02be a79b dbbe 3db6 4fbf
-0.6787134 -0.79328036 0.95315146 -0.74369705 0.2534841 -0.09268211 0.6358098 0.2511269
-0.70170933 0.49076775 0.6094918 -0.6359219 0.7300381 0.2059488 0.30200753 -0.4712989
-0.37685788 0.7069333 0.58307636 -0.6629104 -0.065777585 -0.6624051 -0.44254667 0.8564392
-0.92791826 -0.06520052 0.36696813 0.9031751 0.25711453 -0.12785253 -0.4289219 -0.8113745

embedder.feature_projections.1.weight f4 [32, 1]
00000000: b530 06be 0103 043f e559 77bd e4d2 fbbe
00000010: d28e 783e f138 29bf 2eb0 5d3e 55e9 48bf
00000020: 9bfe a4be 4c51 05bf 8ace 52bf 7aeb f93e
00000030: 6ab7 38bd d1b6 b13d ed3a a0be 08a4 20be
00000040: 45f1 d1bd bd69 c13e d7bd ae3e 9a9d 21be
00000050: 89b7 363f 378e 47bf 7e95 60bf db9b 27bf
00000060: 3894 2d3f 06b9 18bf 2603 22bf e58d 1f3f
00000070: abc2 2d3f ed8d 62bf 1f88 6a3e 8b76 a2be
-0.13104518 0.51567084 -0.060388464 -0.49184334 0.24273232 -0.6610251 0.21649238 -0.78481036
-0.322255 -0.52077174 -0.82346404 0.48812467 -0.045096792 0.086774476 -0.31294957 -0.15687573
-0.10251097 0.37775984 0.3412921 -0.15782776 0.713738 -0.7795138 -0.87728107 -0.6547219
0.6780429 -0.59657323 -0.63286054 0.6232589 0.67875165 -0.8849781 0.22903489 -0.31731066

embedder.feature_projections.1.bias f4 [32]
00000000: 6148 753f 40a5 0ebd fa5c aebe 1c1f 91bd
00000010: 5e79 3f3e b311 293f 233d 423f fab5 913d
00000020: 7e68 143c 7ad5 2a3f 28f1 4b3f f3f8 4cbf
00000030: e3a8 4bbf 187e 3fbe 2e1d 10be efe6 ca3e
00000040: 0448 c6be bfd1 99be b4c4 193f 0b75 0dbf
00000050: c849 43bf 6d4f 6f3e 1a89 94be 2a87 e73b
00000060: 4451 a03e 3195 59bf dc45 32bf 4a2e 563f
00000070: ee04 f93e 0d56 6dbf 135a c33e 8304 f73e
0.95813566 -0.034825563 -0.3405531 -0.07086012 0.18698642 0.6604263 0.7587454 0.071147874
0.009058116 0.6673199 0.7966485 -0.80067366 -0.79554576 -0.18700445 -0.14073631 0.39629313
-0.3872682 -0.30042836 0.6006577 -0.5525672 -0.76284456 0.23370142 -0.2901085 0.0070656734
0.31312 -0.84993273 -0.69637847 0.8366438 0.48636574 -0.9270943 0.3815466 0.4824563

embedder.stabilizer_embedding.weight f4 [8, 32]
00000000: fa5d d0bf 0901 00be 6bfb 2dbf a6d0 043e
00000010: 08cc babd 6245 0c40 ee43 49c0 56ce 5a3f
00000020: 94e5 883f 1bf9 55bf 7400 483e bb81 adbe
00000030: 1a9e 20bd 56a1 16bf ce4d d13b 51ff a03f
00000040: 55b3 353f 3c98 e3bd 5dc6 803e 1aa8 54bf
00000050: dd53 a03d 5802 7b3f ff28 703f 9ff5 75bc
00000060: f45e 2c3e 11df 5dbe 7c20 123c f6d6 d33e
00000070: b319 b43e efa7 3bbf 0676 b8be a853 a5be
00000080: f777 20bf 43f4 7b3f 2464 c93f 2628 8cbe
00000090: dbb2 723f f254 4ebf d031 9ebe 350d 7ebf
000000a0: e9aa 8f3f ea38 903f aa96 ff3d 069b eebf
000000b0: c905 173f 745f 533f db19 62bf 0ff6 01c0
000000c0: f4f8 743f f191 0540 7309 95be 33e4 3bbe
000000d0: 6561 f8be 7a80 54bf de60 2d3d fe88 973d
000000e0: 4e48 653d 3429 eebe 7d84 fb3d 66f6 0140
000000f0: 5dee 68bf 19be de3f 300f c73e 4d40 2e3f
00000100: 41e6 f53f 1ded 4e3f 2a4c 743d f71b a13f
00000110: 962c 80be d834 16bf a462 1e40 355a c3be
00000120: 0944 d13f 2d21 98bf 14e9 073f 693d 81be
00000130: fd1d 473c 5408 aabf 61c8 963f 49bd 30bf
00000140: a130 213f 3d7a 6bbf ab92 cf3f 678a 403c
00000150: 694e 143f 61f1 983d 1835 a5bf 8f33 f0bd
00000160: ea95 ed3e 554b 95be fc72 4d3f 07db d2bf
00000170: c26a b93f 6720 4bbf 9d20 2840 e79c a13f
00000180: 4063 49be bcce cc3e fcc6 8f3e b011 47bd
00000190: e8d4 11bf 8107 9bbf c955 3ec0 c4ff c63e
000001a0: f642 51bf d730 8f3f 0f09 f33e f980 a7bf
000001b0: ca93 303f 390f 743f 5f26 8fbf f60f 33bf
000001c0: 730d 2c3f e4f0 f53f 2825 0ebf c353 f8be
000001d0: de5f 1ebf acc3 663e fbf8 b43d 6115 33bf
000001e0: 343d 84be 9560 36be b149 323f a43c 083f
000001f0: 03d0 a13e 21d5 afbf c42f adbf 1905 4cc0
00000200: e79e 683f 9918 22bf 2021 8abf acd9 3dbf
00000210: f6b4 2a3f f990 b03f 16f4 54be 4c39 85be
00000220: 5ea2 08bf 88e6 6bbf f5a1 8abf 7f5a 64bf
00000230: 0990 8abf 5d10 253e 791e 073f 27a0 543f
00000240: 4951 333f 23c6 6abf e28c 1540 1f06 bebf
00000250: 673c 8c3f a8dc d0bf 56a7 ec3e c8c9 da3e
00000260: be46 67be cdee e2bd d69a 023f b29c 0740
00000270: 7a10 143e 7ef0 1b3f acf9 643f 16cd b1be
00000280: cff1 5cbc 565d d53e bccf d43f 284c 09bf
00000290: 137d 2abf fa51 2fbe d22d 0bbe f0c6 673f
000002a0: c12d 82bf ab5b 3bbf 2afb 75be 6317 0e40
000002b0: 96ed c33d a617 c1bf ddb2 1abf 15dc 31bf
000002c0: 2446 ddbc 5951 a7bf d44e efbe 7fdb 8cbd
000002d0: a215 fa3e d314 90be d435 91bf 0a66 943f
000002e0: 03d6 d73d d02a 95bf ff75 ee3f e43a 773e
000002f0: 8d1a de3d 7a86 5cbe 4fe0 00be 8221 683f
00000300: cfb2 e7bf a132 f8be 5c11 f0bf 0e75 8cbe
00000310: cb6b 0d40 dd34 b83e baa3 3a3e c99b 0fbf
00000320: f81a 3d3f f27f 95be ce1b a73e 173e 913f
00000330: c45e 813f 6f67 e0bf 8f25 d8bd bf69 39bf
00000340: 936e 283f d3f5 d63e d6c0 0f3f b375 78be
00000350: 6e31 52bf b553 4fbf 69c4 adbf 8abe 563f
00000360: 75b0 77be 2cbe fabd c08b 9ebf 98df 493d
00000370: 1b07 80bf d9c6 ed3f 7d32 c43f ece2 fc3e
00000380: 2bc8 453f 4582 523f b8fa e6bc 8c18 663f
00000390: 9581 49bc f424 723e 69da e3bf dc4b ee3e
000003a0: 20e8 36bf 0177 2d3f 1dfc 9e3f faca 723f
000003b0: 8d6a 183f b86e 7c3f 8b3d 413f cc25 a03d
000003c0: 3359 e43f c903 0e3f f1d2 bfbf 89b2 a43e
000003d0: d1d8 763f e613 b9be 6e0c 843f b512 22bf
000003e0: 4eed 3f3f 746c 183f 8b24 75bf 2e06 9c3f
000003f0: 730f 95bf 116c d43e 08b9 de3e 978e 9fbe
-1.6278679 -0.12500395 -0.6796176 0.12970218 -0.09120947 2.1917348 -3.144771 0.85471094
1.0695062 -0.8358323 0.19531423 -0.3388804 -0.039213277 -0.5883993 0.006387449 1.2577916
0.70976764 -0.11113021 0.2515134 -0.83069 0.07828496 0.9805045 0.93812555 -0.015012174
0.16833097 -0.21667124 0.008918878 0.4137494 0.35175857 -0.7330312 -0.36027545 -0.32290387
-0.6268305 0.9841959 1.5733685 -0.2737438 0.9480416 -0.80598366 -0.3089738 -0.992389
1.1224033 1.1267369 0.12479909 -1.8641059 0.589932 0.82567525 -0.883207 -2.0306432
0.9569237 2.0870326 -0.29108772 -0.1834877 -0.48511806 -0.8300854 0.042328708 0.07399176
0.05597716 -0.4651581 0.122811295 2.030664 -0.90988714 1.7401763 0.38878775 0.68066865
1.9210893 0.80830556 0.05964295 1.2586659 -0.25034016 -0.58674383 2.4747705 -0.3815476
1.6348888 -1.1885124 0.53090024 -0.25242165 0.012153146 -1.3283792 1.1779901 -0.69038826
0.62964827 -0.91983396 1.6216635 0.011751748 0.57932144 0.074679144 -1.2906828 -0.11728584
0.46403438 -0.29159036 0.8025358 -1.6473092 1.4485705 -0.7934632 2.6269906 1.2626008
-0.19666767 0.40001476 0.280815 -0.048600852 -0.56965494 -1.2111665 -2.973986 0.3886701
-0.817428 1.118678 0.4746785 -1.3086234 0.6897551 0.9533573 -1.1183585 -0.6994623
0.6720802 1.9214139 -0.55525446 -0.48501405 -0.6186503 0.2253558 0.08836552 -0.69954497
-0.25827944 -0.1781028 0.69643694 0.5321753 0.31604013 -1.3736917 -1.3530202 -3.1878111
0.90867466 -0.63318783 -1.0791359 -0.74160266 0.66682374 1.3794242 -0.20796236 -0.26020277
-0.5337275 -0.9214864 -1.0830675 -0.89200586 -1.0825206 0.16119523 0.5278087 0.83056873
0.70045906 -0.9170858 2.3367238 -1.4845618 1.0955933 -1.6317339 0.46221417 0.42732072
-0.2258558 -0.11080704 0.5101751 2.118939 0.1445941 0.60913837 0.8944347 -0.3472678
-0.013485386 0.41672772 1.6625896 -0.5363183 -0.665971 -0.17121115 -0.13591698 0.9053793
-1.0170213 -0.7318675 -0.24021593 2.2201774 0.095668 -1.5085342 -0.60429174 -0.69476444
-0.027010985 -1.30717 -0.4673983 -0.06877803 0.4884463 -0.28140888 -1.1344552 1.159364
0.10538866 -1.165369 1.862976 0.24143559 0.10844908 -0.21535674 -0.12585567 0.9067613
-1.8101443 -0.48476127 -1.8755298 -0.27433056 2.2097042 0.3597783 0.18226519 -0.56097084
0.73869276 -0.29199177 0.326384 1.1347073 1.0107045 -1.7531565 -0.10554039 -0.7242698
0.6579372 0.41984424 0.5615362 -0.24263649 -0.82106674 -0.809871 -1.3575565 0.8388449
-0.24188407 -0.12243304 -1.2386398 0.0492855 -1.0002168 1.8576308 1.5327908 0.49391878
0.7725856 0.82230026 -0.028195724 0.89881206 -0.012298961 0.23646909 -1.7801028 0.4654225
-0.71447945 0.6775971 1.2420689 0.9484097 0.59537584 0.98606443 0.7548453 0.07819709
1.7839721 0.55474526 -1.4986249 0.32167462 0.96424586 -0.36147994 1.0316293 -0.63309795
0.74971473 0.59540486 -0.95758885 1.2189386 -1.164534 0.41488698 0.43500543 -0.31163475

embedder.res_block.0.weight f4 [32]
00000000: a57a 8f3f 2ddd 8e3f a041 8b3f 281f 7e3f
00000010: a073 8d3f 82b3 863f 8d54 783f 1f85 8b3f
00000020: 7781 803f ee64 863f 5be9 6b3f 0cdf 853f
00000030: 2167 883f ce16 983f 2f12 8d3f 469b 7b3f
00000040: 730e 743f 21e1 7b3f 9660 833f 2830 743f
00000050: 7344 843f 8459 853f 1f65 743f eaf4 663f
00000060: d5fa 8e3f c5ac 743f 774a 773f 9afe 633f
00000070: 6648 7e3f 91f6 8a3f 458c 813f 0e36 7a3f
1.1209303 1.1161247 1.0879402 0.9926629 1.1050911 1.0523531 0.97004014 1.09
1.003951 1.0499551 0.9215295 1.0458694 1.0656472 1.188196 1.1021174 0.98283803
0.9533455 0.98390394 1.0263851 0.9538598 1.0333389 1.0417943 0.954668 0.9021746
1.1170298 0.95576125 0.96598 0.89060366 0.9932922 1.0856496 1.0120932 0.9773873

embedder.res_block.0.bias f4 [32]
00000000: 4a95 9abb 5d77 a9bb 6d34 2dbc 4828 1c3d
00000010: e91e 29bd 52b3 ddbb 6e1d 5bbc 8ee1 b0bc
00000020: b886 05bb 25b1 f8bc 8394 9cbd 2ae4 033a
00000030: 58a2 24bd d8e4 2e3c 2bad 233c 29cc 3e3b
00000040: 75d8 ee3b 09ec 22bd 60a0 4abd e1db 883d
00000050: fd17 543d 9bf0 763c 5f12 623d 7fda a8bd
00000060: 6c24 67ba 43a4 663d dd6f 083c 637e adbd
00000070: 7f17 43bd 86c7 fe3c c26c 33bc 5426 7d3d
-0.0047175037 -0.0051717 -0.010571581 0.038124353 -0.041289244 -0.0067657614 -0.013373716 -0.021591928
-0.0020374488 -0.030357907 -0.07645514 0.00050312525 -0.040193886 0.010674678 0.009990017 0.0029113388
0.0072889873 -0.039775882 -0.04946935 0.066825636 0.05178069 0.015072013 0.0551933 -0.082448
-0.0008817378 0.056308996 0.008327452 -0.08471372 -0.04762983 0.031101 -0.010951223 0.06180413

embedder.res_block.1.weight f4 [32, 32]
00000000: b666 48be c2ec 04be 5325 83be 03b2 00be
00000010: d5d5 273d 0e29 383e 395a 1cbe e548 983d
00000020: 2c96 8ebd bf07 bd3b 2fe9 98bc 07a7 0dbe
00000030: 0faf 8fbd 6f5d c6bc c75d 52bc 99c4 943d
00000040: 79cf 103e b905 d7bc 36c2 373e b8c0 efbd
00000050: ff82 0fbe 1900 013e 972d 73bd cec9 c43d
00000060: 3b19 8b3d 4f32 4bbd b971 aa3d 1dc8 97bd
00000070: 9c89 c83d f8b8 423e 6a3f 043c 17e7 a0bd
00000080: a54b 53bd c44d 0ebd a92b 3fbd 3904 cf3c
00000090: d38e 2abd cadd 03be e6aa e23d 009a 453e
000000a0: 01a6 25be f242 9abd 858d 40bd 3e38 603d
000000b0: 4d13 053c 616f 873c c595 db3c fefb 0dbe
000000c0: 9b10 503e 3ace 803d 12fa bdbd 53ac a9bd
000000d0: 4616 853c 55fd 27be 431a 16be 9206 043e
000000e0: 46eb 2a3e e21d fe3d 619f 1abd 879f 0abe
000000f0: 64c1 b33d 1fa0 eebd 2c32 203d 9fbe 94bd
00000100: 3bd8 0abe df3f f7bd 1973 eb3d 6f8b db3d
00000110: 314f d6bd e6fe e23b d6d6 e73d 97b5 b93d
00000120: 8112 da3d cc05 c73d 6d7f 203d 5730 ee3d
00000130: 3935 863d ff5f acbd 7f55 4dbd 5a10 f43d
00000140: 7fc4 2cbd 9cae 0e3e 6e0d 4dbe c0b8 303e
00000150: 8c5f 243c 03c9 bebd 52b3 9e3d ca3c 96bd
00000160: c407 85bd cfe9 473e a7d4 a73c 9656 1fbe
00000170: 604a 313c 7a12 86bc 2b8a 373d 6023 cf3c
00000180: 9653 f73b daf5 553d 297b b53b 0ec4 283e
00000190: f3d4 2b3e 8f9c 803b 9112 133e f7ea 3e3c
000001a0: 18bc 353e 77c0 7bbe fa55 c03d f939 043e
000001b0: 9c12 d53d afba 9b3c f177 86bd 7058 283e
000001c0: 5d7f 47bb 27f6 6e3c 033f febd cec6 25bd
000001d0: dadb b43d c46c 08be 7f9b 67bb 68c7 15be
000001e0: ed0a 173e 4ddc 103c ab5e ddbd 8f12 0abd
000001f0: a731 f5bd 6020 dfbd f7fb bcbd 0112 71bd
00000200: d2fa 7a3c 3e8d 1c3e a870 29be 5dd9 eb3d
00000210: 175c 613d 8d2f 323d ba46 dd3d d12f 8cbd
00000220: 3446 d13d 2f0a a93d a33c e5bd ed65 b8bd
00000230: bc13 ebbd ef35 3b3e 7733 d33d d612 c43d
00000240: 5227 1ebe 141d 2ebc bf87 f93c 23d9 193e
00000250: 185d fabd 6ae1 a63c 20a3 a43d 4ee0 0abe
00000260: 712a 163e b302 cb3d 1294 363d 24b1 873c
00000270: 3005 8e3d 61e5 003e 6d19 f0bd a062 1d3a
00000280: 3d27 e03d 49d0 053e 8cd3 e63b e91f e93d
00000290: b86a 0a3e 41dd e1bd 189e c53d 7079 6abe
000002a0: 128e 4b3e e8f5 e3bc 6e47 bc3d 8d78 093e
000002b0: f911 073d 74d6 fcbd 0c86 abbd 19eb 193e
000002c0: 2264 093d dbb5 bf3d eb74 4fbd 6cc0 873b
000002d0: e579 80bd 4e6c 903d 14a2 bcbd 3fb0 453d
000002e0: 0190 cf3c ea6b 353e cb95 29be bfd3 123d
000002f0: 0709 18be cd48 523d 8b1b 69bd e0bc 91bd
00000300: dc5d e33d acc9 adbd bbda 763e 515a fdbd
00000310: b650 22be 51f2 a6bd 4d07 143e c8d7 ddbd
00000320: c81a 373e 332c 4fbe 0ea2 a33c f8e7 83bc
00000330: 2fec d63d da38 1d3e 052e 63be a0d1 1b3e
00000340: 73d5 95bc a60e 29be bb5d debd 9163 e03c
00000350: f789 7abd 5042 003e 3649 99bc 2d5e c93d
00000360: 3f01 6abd a105 383e 9a94 babd 47df edbc
00000370: 9e3d 0a3e b131 2dbe d781 6f3d fc16 e3bd
00000380: 731a c1bc cc59 dbbd 34f0 2cbe dd96 713c
00000390: 0ce0 bbbd 44b3 233e f8d3 24be 318d 983d
000003a0: 2f43 b7bc e7ae 003e 74f5 5a3d 5ece f5bb
000003b0: 2ec5 493e 9c41 62bd 3cca 18bc e26d babd
000003c0: 4dad 86bd 705e c4bb dbcb fd3d ba5b 0a3e
000003d0: a36c 253d 9ce9 dabd bfb0 09be b757 15be
000003e0: 32d2 a3bd ded6 0dbe 668e 393e f716 49bd
000003f0: a535 1d3e 8563 2b3d b332 22bd 6833 863d
-0.19570431 -0.12980941 -0.25614414 -0.12567906 0.04097541 0.17984411 -0.15268792 0.074357785
-0.06962237 0.0057687457 -0.018665878 -0.13833247 -0.07015812 -0.024214474 -0.012839741 0.072640605
0.14141645 -0.026247846 0.1794518 -0.1170668 -0.14014815 0.12597694 -0.05936965 0.09608804
0.06791922 -0.049608525 0.08322472 -0.074112155 0.09791872 0.19015872 0.00807176 -0.07856577
-0.051585812 -0.03474213 -0.046672497 0.025270568 -0.041640114 -0.12877575 0.110677525 0.19297028
-0.16176607 -0.075323 -0.047009964 0.054741137 0.008122277 0.016532602 0.026804814 -0.13865659
0.20318834 0.062893346 -0.09276213 -0.08284821 0.016245972 -0.16405232 -0.14658456 0.12893131
0.16691312 0.124080434 -0.03774965 -0.13537417 0.08777121 -0.116516344 0.039110348 -0.072629206
-0.13559048 -0.12072729 0.114965625 0.10719954 -0.10464323 0.006927359 0.113202736 0.09067839
0.106480606 0.097179025 0.039184023 0.11630314 0.0655312 -0.08416747 -0.050130364 0.11917181
-0.04217958 0.13933796 -0.20024654 0.17257977 0.010032546 -0.09315684 0.077490464 -0.07335813
-0.06495622 0.19522785 0.020487143 -0.15560374 0.010820955 -0.016366232 0.0448095 0.025285423
0.007547806 0.052236415 0.0055383635 0.16481039 0.16780452 0.0039249132 0.14362551 0.0116527
0.17747533 -0.24585138 0.09391399 0.1291274 0.1040394 0.019009916 -0.06565846 0.16439986
-0.0030440905 0.0145850545 -0.12414362 -0.040472798 0.08830996 -0.13322741 -0.0035340486 -0.14626849
0.14750262 0.008841586 -0.10809072 -0.033709105 -0.11972361 -0.10894847 -0.09227746 -0.05885506
0.015318589 0.15288255 -0.16546881 0.11516068 0.055019464 0.04350238 0.10804506 -0.06845058
0.10218468 0.082538955 -0.11193206 -0.09003816 -0.114783734 0.18282293 0.103125505 0.09573905
-0.15444687 -0.01062705 0.030460237 0.15024237 -0.122247875 0.020371158 0.08038926 -0.13562128
0.14664628 0.09912624 0.044574805 0.01656396 0.06934583 0.12587501 -0.117235996 0.0006003771
0.10944984 0.13067736 0.0070442613 0.113830395 0.13517272 -0.11028529 0.096492946 -0.22897887
0.19878414 -0.027827218 0.09193312 0.13424893 0.032976124 -0.12345591 -0.08375177 0.15031089
0.03354276 0.09360858 -0.05064861 0.0041428115 -0.062732495 0.070519075 -0.092106014 0.048263784
0.025337221 0.17716947 -0.16561048 0.035846468 -0.14847194 0.05133896 -0.056911033 -0.07116103
0.11101887 -0.084857315 0.24106877 -0.12370742 -0.15851101 -0.08151687 0.1445591 -0.10832173
0.1788131 -0.20231704 0.019974735 -0.016101822 0.10494267 0.15353718 -0.22185524 0.15216684
-0.018290257 -0.16509494 -0.108577214 0.027391227 -0.06116673 0.12525296 -0.018711668 0.09832416
-0.057130095 0.17970897 -0.09110375 -0.029037131 0.13500068 -0.16913487 0.058473434 -0.11088368
-0.023572182 -0.10710487 -0.16888505 0.014745441 -0.09173593 0.15986353 -0.16096485 0.07448805
-0.022370903 0.1256672 0.05345674 -0.0075014075 0.19704124 -0.05523835 -0.00932556 -0.0910299
-0.06576023 -0.005992703 0.12392398 0.13511553 0.040386807 -0.10689089 -0.1344633 -0.14584242
-0.07999076 -0.13851497 0.18120727 -0.049094167 0.15352495 0.041842956 -0.03959913 0.06552774

embedder.res_block.1.bias f4 [32]
00000000: b99a 3ebd 26e1 9a3d eb4f b3bc dd29 133d
00000010: 0f0d 3fbe dc57 853d b5a3 2bbe aa26 9c3d
00000020: 722a 78bd 9802 42bd 5036 163e d44e ccbd
00000030: e7cd 603d 8639 413d f6b3 ac3d d1d5 d83d
00000040: 9105 4ebd f0e6 98bd b5c5 4ebc 7f99 133e
00000050: 6d43 b93c c00c efbd b909 423c 5db5 3ebe
00000060: f39b 9d3d 1a2c 693d 6983 b63d 1e8f 44bd
00000070: b9f7 603c 004f cfbd c89d 4fbd e5a7 193e
-0.046534274 0.07562475 -0.021888694 0.035928596 -0.18657325 0.065108985 -0.16761668 0.07624562
-0.060587354 -0.047365755 0.14669156 -0.09975973 0.054883864 0.047174 0.08432762 0.10587657
-0.050298277 -0.07465923 -0.012620379 0.14414023 0.022615159 -0.11672354 0.011843138 -0.18623872
0.076957606 0.056926824 0.08911783 -0.04798805 0.013730937 -0.1012249 -0.05068758 0.15005453

embedder.res_block.3.weight f4 [32, 32]
00000000: d35d 1dbe c297 d8bd 7267 123d af1f 213d
00000010: 879a f53c 231c f1bd afb7 913e 606f eabc
00000020: 7913 bc3e c8a0 f5bc 6269 763d bd0f 1abe
00000030: abac 513e 9837 073e b23c cc3e f0d3 e0bb
00000040: 79f8 8d3d fdef 21bc 001f bf3c a49f cbbc
00000050: e40e 073e 3915 db3d 74d9 b5bc abb9 ec3d
00000060: 6c02 2cbd ff10 d73d 3534 cd3a f79c a03d
00000070: 12ec 043e 9365 ab3d 1b1f b4bd 9d3f 473e
00000080: 2acc ca3d 6774 503c 2bac 27bc ab9e 02be
00000090: 8799 aabd cfa0 d2bc e719 8a3e c3be 513d
000000a0: ce21 993e 82a3 bdbc 2574 eebd 7c19 0d3c
000000b0: d07a f33d a7b1 2a3e 85da 873e 689a 243e
000000c0: 2c1a 3cbd 818f 1bbd 8627 dbbd 4526 41be
000000d0: b3df 2e3e 8a1f 713d 5fd6 1abe e25c 16be
000000e0: 44a2 0bbc 7607 34be 0328 bdbd a968 2ebd
000000f0: 8b98 91bc 1bb2 b63d 9c1a e03d 16bf 91bd
00000100: a818 133e 3140 0f3e 7995 cf3d 73a5 b53d
00000110: c4dc 35bc ff27 21be b688 243e 6967 8cbd
00000120: 8946 a63d 10fe a3bd d09a 43bb c6a3 db3c
00000130: 65d7 0cbe fe96 63be 6f06 b33e 09e8 0abd
00000140: 0376 5abe 6851 1abe b77e c9bd a98b 68bd
00000150: 7dcf 6a3d 6d28 ff3d b29c 1dbe 88cc 843d
00000160: c443 4cbd f9a5 96bd 77bd b73c 0da5 893c
00000170: 421c 0b3e 45ef 8bbd 06d6 f63d ba56 c03d
00000180: b4a4 c5bd 706d e43d 9957 0bbe 8995 143e
00000190: 14fb 123e 0300 9ebd 8532 2ebe 1c15 3f3e
000001a0: 7501 a7be b233 953c 7859 293d a495 e2bd
000001b0: ba5b a5bd 5632 493e 7609 bbbe fd8d c5bd
000001c0: 79e2 97bd 60ad c1bd d860 38be e91e af3d
000001d0: a422 333e 5690 f73c b2c1 4939 a63e 373d
000001e0: ad9f 9c3d 64e5 553e 8ef9 653e 5c36 54bc
000001f0: 2ab9 e5bd 473d 1cbe 191d bebd 000f 30be
00000200: f189 073e d9da 2cbe d421 babd e338 6abd
00000210: 12cd afbd 5dad cfbd 1ffe 493e 3832 e63d
00000220: 8806 c03d 17e2 cabd d828 5f3c 8037 063e
00000230: 63b8 56bd 7b35 713d f693 a9bd 6356 c4bc
00000240: 2998 293e d684 c73c 20ec 40be ed79 14be
00000250: ddf7 2fbd ab33 8a3d 25ff 35be d5e6 0d3e
00000260: 2acc d13d 8fcb 16be 2de4 8a3c cc39 83bd
00000270: 58f6 903d 6cf8 c73d 71ea 393e 210f 83ba
00000280: 8d97 13bc 6c46 f0bc 0e08 e1bc 6387 aabd
00000290: 133f 9e3d 3667 e13d 5fbb 193e dd06 383d
000002a0: 8eb3 60be f35a 053e 0a6f 7b3e 9964 febd
000002b0: b9d1 fcbd 515f b4bd 073c 67be 8630 f2bc
000002c0: 60fc e83d bf28 2a3e 86c5 0ebb 4f98 933d
000002d0: 8d4c 043e 41ce a4bd fdfe 79bd 606b 813d
000002e0: 0876 183e ce67 603e d5e7 933d 4000 c5bc
000002f0: d924 acbd 4801 0cbc 29f8 f83d a3ff 53be
00000300: 4c31 943d f599 933d eb48 99bd f28b c9bd
00000310: e5e6 423d 9e75 f73d f3d8 d1bd 760a 0a3e
00000320: 9239 a5bc d2a8 bb3d 3a7a 9e3d 88bf 55bc
00000330: b72c 2bbe f8a9 09be 76ce c13d 1a8f b03d
00000340: 6892 cd3c bcf9 d1bd d154 f2bc 4007 d33d
00000350: 5e46 1b3e f32d fabd 7525 813c 2113 ecbd
00000360: 4a2b 1c3e b397 54be c89b 3dbe 4f13 ad3d
00000370: 8736 b9bd bba6 d3ba 3126 90bd 2a2c dabd
00000380: 49ff 07be ef48 e43d 1087 11be ad96 213d
00000390: 82bc fe3d 4e29 b43d 29d4 83be 1af2 b7ba
000003a0: d49a c5bd 64c2 4f3d 4e9e 5f3c 76fa 44bd
000003b0: 01be 7dbd 27bf 2d3d 2aa3 d9bd 059c 103d
000003c0: b8a1 fc3d 27d2 53bd bb0e 0f3e b3d9 fb3c
000003d0: 1330 a73d 8263 cbbd ff41 583e 8fdf b73d
000003e0: 7701 d1bd e14f e43d 894a 5e3e 802e 9ebd
000003f0: e4e2 09be 4dde 84bd 1f86 0bbd fd93 d4bd
-0.15367822 -0.105758205 0.035743184 0.039336856 0.029980911 -0.11772945 0.28460452 -0.02861756
0.36733606 -0.029983893 0.060159095 -0.15045066 0.20476024 0.13204801 0.39890057 -0.0068612024
0.06932158 -0.009883878 0.023330212 -0.024856396 0.13189274 0.10697407 -0.022198416 0.11558851
-0.041994497 0.105012886 0.0015655818 0.07842439 0.12980679 0.08368983 -0.087949954 0.1945786
0.099022225 0.012723065 -0.010233919 -0.1275584 -0.08330064 -0.025711445 0.26972887 0.051207315
0.29908603 -0.023149256 -0.116432466 0.008612033 0.11888659 0.16669331 0.26533905 0.16074526
-0.045923397 -0.037978653 -0.10700898 -0.18862255 0.17077522 0.05886797 -0.15120839 -0.1468387
-0.008522574 -0.17580971 -0.09236147 -0.04258028 -0.017772933 0.0892069 0.10942575 -0.07116525
0.14364874 0.13989331 0.101359315 0.088694476 -0.011099998 -0.15737914 0.16067776 -0.068556614
0.08118922 -0.08007443 -0.0029846914 0.026811492 -0.13754041 -0.22225568 0.34965846 -0.033912692
-0.2133408 -0.15070117 -0.09838622 -0.056773815 0.057326782 0.124588825 -0.15391806 0.06484324
-0.049869314 -0.073558755 0.022429211 0.016802335 0.13584998 -0.068327464 0.120525405 0.09391542
-0.09650555 0.11153686 -0.13607635 0.14510168 0.14353591 -0.07714846 -0.17011459 0.18660396
-0.326183 0.018213127 0.04134509 -0.11063698 -0.08074136 0.19648108 -0.36530656 -0.09646223
-0.07416243 -0.09456897 -0.18005693 0.085508175 0.17493683 0.030220192 0.00019241011 0.04473748
0.07647643 0.20888287 0.22458479 -0.012952413 -0.11216958 -0.1525775 -0.09282894 -0.17193222
0.13236214 -0.16880359 -0.090884835 -0.057183158 -0.08584036 -0.10140488 0.19725846 0.11240047
0.09376246 -0.099064045 0.013620578 0.13107109 -0.05242194 0.058888894 -0.082801744 -0.023966974
0.1656195 0.024355333 -0.18840075 -0.14499636 -0.04296099 0.06748136 -0.17773111 0.13857587
0.10244019 -0.14726089 0.016954506 -0.06407508 0.07078236 0.097641796 0.18155839 -0.0009999016
-0.0090083005 -0.029330455 -0.027469661 -0.08326604 0.07726874 0.11006014 0.15012883 0.04492842
-0.21943495 0.13022976 0.24554077 -0.12421531 -0.12344689 -0.08807243 -0.22581492 -0.029564153
0.11376262 0.16617106 -0.0021785214 0.07206785 0.12919827 -0.08047152 -0.06103419 0.06319308
0.14888775 0.21914598 0.07221953 -0.02404797 -0.08405466 -0.008545227 0.12156708 -0.20702986
0.07235965 0.07207099 -0.07484611 -0.098411456 0.04758348 0.120829806 -0.10246458 0.13480553
-0.020169053 0.09163059 0.077381566 -0.013046153 -0.16716276 -0.13443744 0.094632074 0.086210445
0.025094226 -0.10252711 -0.02958146 0.10304117 0.15163562 -0.12215795 0.015764931 -0.11527086
0.15250888 -0.20760994 -0.18516457 0.084509484 -0.090436034 -0.0016147712 -0.070385344 -0.10652955
-0.13280977 0.111467235 -0.14211679 0.039450336 0.12438299 0.08796941 -0.25747803 -0.0014033944
-0.09648672 0.050722495 0.013648583 -0.04809042 -0.06194878 0.042418625 -0.10626824 0.03530504
0.12335533 -0.05171409 0.13970463 0.030743456 0.08163466 -0.09931089 0.21118926 0.08978187
-0.102053575 0.11148048 0.2170812 -0.07723713 -0.13465458 -0.06487713 -0.034063455 -0.10379789

embedder.res_block.3.bias f4 [32]
00000000: 3ed5 d63b 4334 26be a729 d33b 57fd 703d
00000010: 4ed8 43be 57ce 293e 7f24 c03d ea5d 03be
00000020: 4e92 13be 5889 2bbe 7c72 1abe 5526 003d
00000030: 75cf 883d 8fd6 27be bf20 283e 64af eb3d
00000040: e2fd 573d f2c0 413c 602d 92bd 1dd1 da3c
00000050: 675a c03d 66de 103e 3b71 203e 01b3 01be
00000060: 66f5 9c3d 7ad1 0c3e c58b 2dbe bbf4 613c
00000070: 416f f2bd 5d45 74bd a716 fdbc 3061 40bd
0.006556182 -0.16230874 0.0064441743 0.058835354 -0.19125482 0.16582619 0.09381961 -0.12828794
-0.1441128 -0.16751611 -0.15082735 0.031286556 0.06680194 -0.16390441 0.16418742 0.115080625
0.052732356 0.011825787 -0.07137561 0.026711041 0.09392243 0.14147338 0.15668194 -0.12665941
0.076639935 0.13751784 -0.16947849 0.013791258 -0.11837626 -0.059636462 -0.03089459 -0.046967685

cnn_blocks.0.proj_in.weight f4 [16, 32]
00000000: 6ffa 10bd d6bf 36be 92ca b03c c49f cebd
00000010: bcd8 4f3e a7da c63d 1efb 3c3e 531b 833d
00000020: 4544 e63d 5746 1bbe 4aa3 3f3d 0375 bdbd
00000030: 4d8e 64bd 4419 e53d a455 05be 9efc 0a3e
00000040: f9b9 8abc 0ce2 143e 76e4 943c 6ea4 7c3b
00000050: 121e 48be 09ad d03b b251 dd3d f7ba b13c
00000060: ef6b e5bd ec36 a2bc 7dea 3cbb 5d80 323c
00000070: 9240 28be bbfe febd 4f2f 79bd 0178 143e
00000080: 6d0d c7bc 4bda 17bc ed3e 913d 69f9 02be
00000090: 1a18 75bd 8da3 2a3e bc46 6b3d 168a 59be
000000a0: 0c30 193e d0bf 7c3d fc59 0ebe 0707 41bd
000000b0: eb29 163e fdc8 3b3c bf7b 563d 58fd 1f3e
000000c0: 755a 2dbd c713 ff3d 3a97 8a3d 23f4 dcbd
000000d0: b51f 16be 6c06 343d bd79 b13d ddd3 883c
000000e0: d6ce 073d 6cbc a43d 7c87 ec3d 71fc 803d
000000f0: 61bc 77bd 6ac8 b0bd 5609 c73d 825f e33d
00000100: eda3 c33d 0ca1 24bb a265 f63c 92b6 e8bd
00000110: d27b 85bd d9b5 093c 7a9d 90bd c2bb b83d
00000120: 05f4 ccbd 3946 43be a500 643e d252 9d3d
00000130: 6a16 01be 3f9b 9abd 003b f13d 7a16 ea3d
00000140: 55db fe3d c6ba c03d 2c0d c2bd 6f4d 903d
00000150: 55a3 2c3e 002d 323e 87b0 2b3d 6178 83be
00000160: 53d5 06bc e6f0 15be 3011 7e3d ae0c 0f3e
00000170: b4a9 91bc 6082 af3d 35f9 26bc 7e0b 34bd
00000180: 34a2 773d 5d4e e0bd 2e25 dfbd 38b7 583d
00000190: 0f7c 1e3e fed6 d53c fe0e d7bd d84f 3f3d
000001a0: 0f79 6ebe 06ef b1bc 81db 69be 52e8 ab3d
000001b0: 5dad bd3b 65b3 0d3e 7285 e6bc e9b2 163e
000001c0: fd07 28be 8715 ccbd 720d 1fbe dab5 66be
000001d0: 4b51 2d3e 4a3a 963c a7b6 443b ab71 c03d
000001e0: 22b4 9cbd 96ad 9bbd 4ca1 b6bd 974b 05be
000001f0: 585c d73d dce8 2f3e a914 a7bd 0456 c1bd
00000200: 29b4 403e 6e8d 053e 9e27 f73c cf54 0fbe
00000210: ba04 bd3c f06b e1bd 61d3 f83c fd6f 0dbd
00000220: e383 db3d ad1c 003e 4fe3 92bc 8e22 06be
00000230: 4114 78bd 70d3 32be 4ca0 d9bb 1237 6e3d
00000240: e00b 263c 2453 20be 6731 da3d 744e fd3d
00000250: f9d0 29bd 4fa0 723d 558c 9c3d c316 453e
00000260: 9a9c 2abc 6949 fcbd 5ac0 173e f47b 8d3d
00000270: b318 403e 410f 6dbd 5378 23be 1353 263d
00000280: 8378 f8bd 6423 a23d 6aaf 29be e18e b73b
00000290: 8e64 83bb 6e2a e0bd 678f 08bd 179a 1a3d
000002a0: c038 c7bd 5e9d 14be d053 bd3c 2f58 d6bd
000002b0: 5718 3dbe 2031 973d d07e 84bd 8b74 2f3d
000002c0: ec58 803d 74c4 d6bd f417 3d3e c8a2 3d3e
000002d0: 2833 59bd d9c3 acbc dea5 6f3d 7171 9abd
000002e0: 5c73 3e3d 89bf 3abd aa88 c23d 85f6 97bd
000002f0: 373c c23d a53f 9c3b f9fc 933d 2494 c23d
00000300: acbb 933d 1432 ac3d 54ec a73c 223e 07be
00000310: b930 9a3d a554 883d 618f 09bd 6861 d63d
00000320: 6dad c03d 47ea 063e d9f4 923c 6c25 40be
00000330: 53af 8bbd 9132 50be 993f 30bd 4ec5 d73d
00000340: aa50 de3d ffc2 3f3d 7325 dbbc 162d 863b
00000350: e897 c33d 4b0b e8bd 6f0e ab3d 9cfb 2a3d
00000360: 9223 aa3d 484f 78bd 87d9 8ebd fdde 53be
00000370: 16c8 40bd 552c 3bbe abb1 c8bd dd05 80be
00000380: 7fe2 4b3e 0bd0 72bd 8e7f 57bd 744f 17bd
00000390: a208 adbd cd44 28bd 5e5e 2f3e b13d bf3d
000003a0: dc58 41bc 4ad3 593d 02a5 153e c024 47be
000003b0: c9d0 8a3d 951e 0ebe 74ee cabd 13ec b9bd
000003c0: 8c66 0e3d 6037 aabd 599e 25be eb11 cc3b
000003d0: 8b2b 26bd 354b ef3d 1498 44bd 142d 823d
000003e0: 2543 133d d261 1a3e 587c ebbd de0d 64bd
000003f0: 02f3 f8bc 914f a63d f3ea c53c 0a9b 813c
-0.035395082 -0.17846617 0.021580968 -0.100890666 0.20297521 0.097096734 0.18455169 0.06401696
0.1124349 -0.15163551 0.046786584 -0.09250834 -0.05579977 0.1118646 -0.1302095 0.13572928
-0.016934382 0.14539355 0.018175345 0.0038550156 -0.19542721 0.0063682836 0.10806598 0.021695597
-0.11202227 -0.01980158 -0.002882629 0.010894862 -0.16430882 -0.1245093 -0.060836133 0.14498903
-0.024298394 -0.009268354 0.0709208 -0.12790455 -0.05983744 0.16663952 0.057440504 -0.21244082
0.14959735 0.061706364 -0.13901514 -0.047125842 0.14664428 0.011461494 0.052364107 0.15623987
-0.042322595 0.12454944 0.067671254 -0.10788753 -0.14660533 0.043951437 0.08665798 0.016702587
0.03315624 0.08043751 0.11549279 0.062981494 -0.060482386 -0.08631976 0.097185776 0.11102201
0.09552751 -0.0025120405 0.03007776 -0.113629475 -0.065177575 0.008405172 -0.07061286 0.09020187
-0.100074805 -0.19069757 0.22265871 0.07681812 -0.12606207 -0.07549142 0.117788315 0.11430068
0.12444178 0.09410624 -0.094751686 0.07046019 0.16859181 0.17399979 0.041916396 -0.2567778
-0.008229571 -0.14642677 0.06202811 0.1396968 -0.017781116 0.08569789 -0.0101912515 -0.043956272
0.060457423 -0.109524466 -0.10895763 0.052909106 0.15477012 0.026103493 -0.105009064 0.046707004
-0.23288368 -0.02172042 -0.2283764 0.08393921 0.005788489 0.13837965 -0.028139804 0.14716686
-0.16409297 -0.099650435 -0.15532473 -0.22530308 0.16925542 0.018338341 0.0030016096 0.093966804
-0.07651545 -0.07601468 -0.08917484 -0.13017116 0.1051566 0.17178673 -0.081582375 -0.09440234
0.18818726 0.13042232 0.030170258 -0.13997196 0.023073543 -0.110069156 0.03037423 -0.03453063
0.10718515 0.12510939 -0.017930655 -0.13099119 -0.06056619 -0.1746347 -0.0066414233 0.058157988
0.010134667 -0.15656716 0.10653954 0.12368479 -0.041459057 0.059234913 0.07643954 0.19246964
-0.010413313 -0.123186894 0.1481947 0.06908408 0.18759422 -0.057875875 -0.15963869 0.04060657
-0.12132361 0.079169065 -0.16570821 0.0056017493 -0.00400979 -0.10945593 -0.033339884 0.037744608
-0.09727621 -0.14513156 0.023111254 -0.104660384 -0.18466316 0.07382417 -0.064695 0.042835753
0.062669605 -0.10486689 0.18466169 0.18519127 -0.053027302 -0.021089481 0.058507793 -0.075411685
0.046496734 -0.04559282 0.09498723 -0.07420067 0.09484141 0.004768329 0.07225985 0.09500912
0.0721353 0.08407989 0.020498432 -0.13207296 0.07528824 0.0665677 -0.033584002 0.104677975
0.09408078 0.13175307 0.017939018 -0.18764275 -0.0682055 -0.2033179 -0.0430294 0.1053568
0.10855229 0.046816822 -0.026751256 0.00409473 0.09550458 -0.11330279 0.08352362 0.04174386
0.08307566 -0.060622483 -0.06975084 -0.20690532 -0.047065817 -0.1827863 -0.097995125 -0.25004473
0.1991062 -0.059280436 -0.05261188 -0.036941007 -0.08448912 -0.04108124 0.17125842 0.093379386
-0.011800971 0.053180017 0.14613727 -0.19447613 0.06778104 -0.13878854 -0.099087626 -0.09078231
0.034765765 -0.08311343 -0.16173686 0.006227722 -0.04056887 0.116842665 -0.047996596 0.06356254
0.035952706 0.15076378 -0.11498326 -0.055677287 -0.030389313 0.08120645 0.024159884 0.015820999

cnn_blocks.0.proj_in.bias f4 [16]
00000000: cd15 573c 15bb aabd 0fc0 bd3c 6610 8a3c
00000010: f29d ddbd 56f0 143d 78ec ddbd a51b 18bb
00000020: 1256 c43d 235d c83d 61e8 c6bd 71ad 6fbd
00000030: 589a 413e 865e dc3c 7879 3f3d 9520 02be
0.013127756 -0.08336464 0.02316287 0.016853523 -0.10821141 0.036362015 -0.108361185 -0.0023209837
0.09586729 0.097833894 -0.097122915 -0.058515016 0.18906534 0.026900541 0.0467467 -0.12707742

cnn_blocks.0.convs.0.weight f4 [16, 16, 3, 3]
00000000: d530 623c 47f4 283d 1ed3 933d b49b a83d
00000010: 3b43 c43d a04d 8cbd 5826 5ebd d091 ad3d
00000020: 4e44 5bbd fe23 f03c 9e67 633c e70e 0cbd
00000030: 6c28 ae3b 30bc f83c bdb6 35bd c19c 023c
00000040: b5fa 783c afaf a23a 5979 943c edc6 93bd
00000050: d951 583d 2b1a 16bd e9ac 483c 4fe3 babd
00000060: cd7b cdbb 9c09 1b3d 2b8b d4bc e316 963d
00000070: 4331 813d 7e17 a43d 5582 693d 1308 13be
00000080: 0b80 263e 10f5 6d3a fe66 5c3d 0022 303d
00000090: 15e7 0ebd a512 1f3c 4fad be3d 20ca 3cbd
000000a0: 60fc 8b3d a4c0 71bc 0f73 a63c 9928 13bd
000000b0: cfd6 2f3e f031 ecbc 6512 6d3d c5a5 7e3d
000000c0: 619c 02bd 484d 343e ed64 d4bd a264 363c
000000d0: 54e2 e33c 4997 66bd 0731 67bb b8a7 1d3c
000000e0: a79f 2e3c 3107 723d c18e cfbc d538 b03c
000000f0: 7345 9fbd 3b01 1dbd 7add 113e 59a8 74bc
00000100: a78f 11bd 8379 f83c bd25 c1bd b056 09bd
00000110: 5a10 06be 6642 7f3d 4e95 7cbd 2f11 013d
00000120: 0f6d 283d 9143 003e 5691 ce3d e343 273d
00000130: 62af 013e 64dd e8bc 7ebf a0bb 0f37 1fbe
00000140: 90f9 49bd 5bef b9bd 9847 33bc bee1 933c
00000150: 1489 1bbd f181 2abd d4c4 afbd 5e36 4c3d
00000160: 577f ea3d dabd 413d 755c 9fbd a4a9 6ebc
00000170: ad3c 19be 807a 27bc 7ea6 b43d d3f5 0a3d
00000180: b62b 4f3d b48f b2bd b31f ba3c e1c7 8e3d
00000190: 917a 89bd 076a b93d a52a 10bc 1d68 a4bd
000001a0: 14ac 83b9 0ceb a73c f73f b4bd da0f 1abd
000001b0: f3e7 9b3c 0017 e73c e186 123c ddbd efbc
000001c0: d156 6a3d 2716 6dbc bd15 023e bcae 70bd
000001d0: 0033 043e f9a9 333c c242 3b3c c7d6 22be
000001e0: a4f1 98bd ed36 2bbd f838 2d3a 3af1 4a3d
000001f0: b133 d23d 6595 bebd 5c82 473d 5109 76bc
00000200: 2642 fd3c b7a7 943d 867a 0f3e 9f40 2ebd
00000210: 694c 7f3d 3cd0 acbd b15f 26bc 6ca4 853d
00000220: 9908 34be e41d 0d3d fedb 183d 49e8 73bd
00000230: ecd2 4bbd e7fd 503c 90a7 b4bb fa63 ae3d
00000240: 9da0 60bd 71a0 0abd a3a3 fcbc beca 4ebd
00000250: 75e7 4dbd 559d d33d f075 21bd 6962 983d
00000260: 9789 c63d 0f67 b13d b97e 3d3d 5743 9ebc
00000270: 9149 e4bd eb9a 2a3d 9d5b a1bc 9ebb a3bc
00000280: 1488 d73d eb53 1e3d 6d7a 5f3c 42e4 403d
00000290: 86e9 3fbd 5f65 96bd 8da1 403d 7eda 393b
000002a0: 02bd fd3d 4203 5e3d 333d ed3d 12e3 8fbd
000002b0: 8779 b9bd 5f8a d33d c3cd 933d 9ce3 f3bc
000002c0: 97f2 643d 40bd ffbd 1578 6b3d adb2 f53c
000002d0: 5964 b4bc 3e41 003d f7c9 52be 2a3e 24be
000002e0: 5639 0f3e 113c 52bd a815 e0bd bc2f 0a3d
000002f0: d1ae b3bd 3eae 333d ccef f9bd 0f70 ccbc
00000300: f49d 8abc 04d1 efbc 935a e03d 242e 83bd
00000310: 1ab0 a2bb fa94 793d 4954 2b3a 2858 e8bd
00000320: 8a9f c2bd 3416 9dbd 3341 893d 5e9a 0abe
00000330: aa71 963d c357 f0bd 2885 5a3c 53d1 b1bd
00000340: 9328 0c3d ada2 933d 78fc f13c 3c68 823d
00000350: 1c18 42bd 62d7 f33d 513d 7e3c ab09 5bbd
00000360: 309b 1e3d 1311 1939 8299 11be 50c5 82bd
00000370: 38c6 e73b a3c2 c2bd a55a a13d 2933 25bd
00000380: 1e98 7c3d ffb5 3b3c a990 bbbd 6156 db3d
00000390: 585f dd3c a77a 8fbd def4 31be a40b 5cbc
000003a0: 86fa 22be 2552 36bd 51ba a73b 950c e73d
000003b0: 5876 e939 6ce1 273b c189 f7bd 32f7 b2bd
000003c0: 9f2f 193e e10f 4abd b48e a6bd 7017 b43d
000003d0: 1380 a23d dfec ee3b 3241 0bbc c599 63ba
000003e0: 9afc 8fbd 45dd b83d 3abc 0a3d 311c 493d
000003f0: 9e1e ffbc a941 133d 1c50 5a3d 5ab3 563d
0.013805588 0.041248586 0.07218002 0.08232823 0.09583136 -0.06850743 -0.054235786 0.08475077
-0.053531937 0.029314037 0.013879685 -0.0341939 0.0053148773 0.030363172 -0.044363726 0.007971943
0.015196492 0.0012411977 0.01812427 -0.072156765 0.05281243 -0.03664605 0.012248256 -0.09125387
-0.0062708617 0.03785096 -0.025945267 0.07328584 0.06308224 0.08012293 0.05700906 -0.14358549
0.16259782 0.00090773497 0.05380916 0.043001175 -0.034888346 0.009709035 0.093104 -0.0460912
0.06835246 -0.014755402 0.020318536 -0.03592739 0.17171787 -0.028832406 0.05787887 0.06216981
-0.031887416 0.17607605 -0.103708126 0.011132391 0.027817883 -0.05629662 -0.0035277025 0.009622507
0.010658181 0.05908889 -0.025336625 0.021511475 -0.07776918 -0.03833125 0.14244643 -0.014932715
-0.03553739 0.030331379 -0.09431026 -0.033529937 -0.13092175 0.06231918 -0.061665826 0.03151053
0.04111963 0.12525775 0.100863144 0.040836226 0.1266456 -0.02842588 -0.00490564 -0.15548347
-0.049310267 -0.090788566 -0.010942362 0.018051978 -0.037972525 -0.041627828 -0.08582464 0.049856536
0.114500694 0.047300197 -0.07781307 -0.014566813 -0.14964552 -0.010222077 0.08820818 0.033925842
0.050578795 -0.087188154 0.022720193 0.069717176 -0.06712831 0.09053426 -0.00879923 -0.080276705
-0.00025114475 0.020497821 -0.08801263 -0.037612773 0.0190315 0.02820921 0.00894329 -0.029265339
0.0572117 -0.014470614 0.12703605 -0.05876039 0.1291008 0.010965818 0.0114294905 -0.15902244
-0.07467964 -0.04180043 0.0006607915 0.049546458 0.102637656 -0.093058385 0.048708305 -0.01501687
0.030915331 0.072585516 0.14011583 -0.042542096 0.06232873 -0.08438155 -0.010154651 0.065255016
-0.17581405 0.034452334 0.037319176 -0.059547696 -0.049761698 0.012755848 -0.005513139 0.08515163
-0.054840673 -0.033844415 -0.030839747 -0.05048632 -0.050269563 0.10332743 -0.039419115 0.07440645
0.09694212 0.08662235 0.04626343 -0.01931922 -0.11146844 0.041651648 -0.019697005 -0.019986924
0.10524002 0.03865425 0.013640028 0.047092684 -0.046853565 -0.07343554 0.047029067 0.0028358991
0.12389566 0.054202326 0.115839384 -0.07025732 -0.090563826 0.103291266 0.0721698 -0.029771619
0.055895414 -0.124872684 0.057487566 0.029992426 -0.022020506 0.03131222 -0.20584856 -0.16039339
0.13986716 -0.051326815 -0.109416306 0.03373693 -0.08773578 0.043867342 -0.12203941 -0.024955777
-0.016921021 -0.029274471 0.10954776 -0.06405285 -0.0049648406 0.06093309 0.0006535692 -0.113449395
-0.09503086 -0.076702505 0.06701889 -0.13535449 0.073458984 -0.11735489 0.013337411 -0.086825036
0.034218382 0.07208762 0.029539332 0.063675374 -0.047386274 0.119063154 0.015517549 -0.053476017
0.038722217 0.00014597578 -0.14218715 -0.063852906 0.00707319 -0.0950978 0.07878617 -0.040331993
0.061668508 0.0114569655 -0.09158451 0.10709835 0.027023003 -0.07005816 -0.17378566 -0.01343051
-0.1591588 -0.044511933 0.005118646 0.11281697 0.00044529396 0.002561654 -0.12086821 -0.08738555
0.14959572 -0.04933155 -0.08132687 0.08793533 0.079345845 0.007291421 -0.0084994305 -0.0008682276
-0.07030602 0.09026579 0.033870913 0.04909915 -0.03114253 0.03595129 0.053299055 0.052417137

cnn_blocks.0.convs.0.bias f4 [16]
00000000: 4b9e f4bc 7781 efbc 4a95 a7bb c515 3a3b
00000010: 0259 89bd 046c 9a3c 7b5f 9d3c bd73 c13c
00000020: dde4 62bc aa3b 84bd f917 e13b fa92 913d
00000030: 53c6 8ebd f028 5cbc 45e8 5abc 2d08 cabd
-0.029860636 -0.029236538 -0.005114232 0.0028394323 -0.0670643 0.018850334 0.019210568 0.023614759
-0.013848511 -0.064566925 0.006869313 0.07108112 -0.06971421 -0.013437495 -0.013361041 -0.09864841

cnn_blocks.0.convs.1.weight f4 [16, 16, 3, 3]
00000000: 1669 5d3c 89c3 2f3e 3d37 3cbc 5abd e1bd
00000010: 2cae 73bd 6167 cabd 827a b43d ba56 9c3d
00000020: cf09 e13d 37ff b5bb 0c3c ad3c 9053 3abd
00000030: 9c33 593d 2161 d33c 328a 44bd ede1 7f3d
00000040: 0bd3 0bbc e4da 96bc 5573 663d 4043 aabc
00000050: 2b9c 1cbc 2d2c a4bc 14ad 213d 9611 343d
00000060: 8800 2f3b 8c1d 803a f556 aabb 85d0 1dbe
00000070: dc8c f9bd e425 abbd 4f11 9b3d c0dd 713d
00000080: b28c bb3d e2a1 2b3c ae25 fb3d df60 d23d
00000090: 9674 083d 9cca 54bd aded 333d 9d2f d7bc
000000a0: 7467 41bd 4067 e73c 1cc0 953d 6bf9 573d
000000b0: b151 fcbd 8918 293d 9dab 2dbe 4540 953c
000000c0: bc6d c63d bc3f 8c3d 81e4 0d3d 9384 b83d
000000d0: 8f59 04bd 0241 9b3d ddc5 3fbd 553d 333c
000000e0: c2cb ae3c 421f d93d 4638 fb3d 0efe 85bc
000000f0: a8b5 b43d c6bc a73d f5c8 013c 072c 16bd
00000100: 9bae 393d 7a5d 87bd 1c89 0abe 10e4 31bd
00000110: 305d 87bc c3aa 11be 54d7 e63c 3fe9 e7bd
00000120: 49f3 25bd 221f 68bc d10a 1b3d 421b 15bd
00000130: c9e2 5f3d 8b5a dabd 1a48 913d fb5c c3bd
00000140: b8a4 0cbe fbdf e2bc ec5c 07bc d727 953e
00000150: c6c5 23bd 4444 69bd 8dc3 a2bd 38ed 0bbb
00000160: 8fac 153d ed87 e73c 1af4 10be 8810 54bd
00000170: c22c b83c 0cbe 4a3d ac0e 5fbc 9dc8 64bd
00000180: 2053 1b3d b177 6e3d 6c24 4c3d f2ba ba3d
00000190: 9562 d9bd 7c51 97bd d47d 18bd 2a09 cc3d
000001a0: 4f8a 163d db3a c03d 54f5 e2bc fb40 343d
000001b0: 5e8d 75bd efd8 a93d 8dfb 8ebc 4034 bdbd
000001c0: 3e8f 0bbd 9ae7 bdbd 7e99 163e 9d3b b9bc
000001d0: 360f b4bd 7a56 42be 1855 dc3c a00e d7bb
000001e0: 7b92 9a3d e568 5f3d cd53 8a3d bee2 e23c
000001f0: 0863 87bb 4b15 37be 2cd1 743d d810 adbd
00000200: ca71 33be 1249 2abe d8a9 653d 8938 963d
00000210: 8dac 2b3d bcfc 2fbe 6134 8ebd 55e3 a63c
00000220: b4bc b7bd 5324 dbbd b22c 4c3a 9fb1 50bd
00000230: cc7a 9ebd 0817 02be 9a3c 4dbc e122 2e3e
00000240: 383c 663d 23f3 b7bc 50ab 01be 854f efbd
00000250: 19ec 5e3b 7f97 8d3d b618 233e 6113 853d
00000260: aa2e b1bd 3101 acbd b5b7 403d 2238 11be
00000270: 8f60 fbba 1ba0 dbbc 2b6d 21be e517 833c
00000280: e2c7 423d f2a2 57bc 0fb9 723d fba0 9dbc
00000290: 335b 893c ef26 303d 9045 bdbc 7b86 163e
000002a0: 2461 a2bc 08aa 673c ac9c fc3d e044 d53c
000002b0: d86b e23d eda5 1e3d 4d82 25bd 9bc5 84bd
000002c0: 8f22 7fbd 0aa6 32be 6202 473d fd8d bc3d
000002d0: 6da7 a1bc e7dc 9cbd 95a4 ca3d 391c 043e
000002e0: 346e 1d3e fe4e 18be b584 bcbd 3e42 643d
000002f0: 86a8 993c d901 95bc 9a45 c6bc 8d10 efbd
00000300: 9371 3a3d 6ee0 8c3d 69c9 b7bd 3ed2 3e3d
00000310: 2b93 fbbb 91a2 673c 0806 703d 9e77 e8bd
00000320: c5ba 503d d4a2 74bd ebe8 68bd 086d d53c
00000330: 70d7 6fbd d1c1 bfbd 16a7 b33d a33f 22bd
00000340: 637c 473c 7d91 dc3d d25e 183d 7d8e cbbd
00000350: e3b9 eb3d 5d93 423e ba9a e1bc 7f7b 12bd
00000360: 37ed 3a3d 7bdd 8dbd cb68 c2bd 00ed 663d
00000370: 1f2f 253e 8303 b13d f6b6 dbbd 00ee 983d
00000380: 1ead dd3a fbf8 87bd 6111 a33c 4c2b b6bc
00000390: 65ff 1cbe 6a3e 253d c47b 323b f878 0dbc
000003a0: 7b23 8f3d 4b21 b139 0489 eabd 41c2 9f3c
000003b0: 6990 06bd f50c b4bc af16 d4bb ef70 b33c
000003c0: d011 2b3e d04e 933c f164 ae3c 8dee 043d
000003d0: 2ceb 1fbd a56f ba3d f086 96bc 8191 a73c
000003e0: 187b 76bc 5a7d abbd ac83 133c 295a 67bd
000003f0: 7e10 6e3d 11e3 103d ac11 28bd 28bd 84bd
0.013513824 0.17164434 -0.011487779 -0.11022444 -0.059492275 -0.09882999 0.08812429 0.07633729
0.10988199 -0.0055541056 0.021146797 -0.045489848 0.053027734 0.02580315 -0.047983356 0.06247132
-0.008534203 -0.018414922 0.056262333 -0.02078402 -0.009558718 -0.020040596 0.0394717 0.043962084
0.0026703198 0.0009774431 -0.0051983544 -0.15411575 -0.1218507 -0.083568364 0.07571661 0.059049368
0.09157695 0.010475608 0.12263046 0.10272383 0.03331431 -0.051951036 0.043927837 -0.026267821
-0.0472178 0.028247476 0.073120326 0.052728098 -0.12320269 0.041283164 -0.16959997 0.018219123
0.09688899 0.06848094 0.034641746 0.090096615 -0.032311972 0.07580759 -0.046819557 0.010939916
0.021337394 0.10601665 0.12266593 -0.016356494 0.08823711 0.081903026 0.007921447 -0.03666308
0.045332532 -0.06609626 -0.13528866 -0.043430388 -0.016523927 -0.14225297 0.028178848 -0.11323785
-0.040515218 -0.014167579 0.037852112 -0.03640295 0.05465964 -0.10661801 0.070938304 -0.09539219
-0.1373471 -0.027694693 -0.0082619 0.29131958 -0.039983533 -0.05694987 -0.079474546 -0.002135111
0.036541518 0.028263057 -0.14155617 -0.051773578 0.02248228 0.04949765 -0.013614338 -0.055855382
0.03792107 0.058219615 0.049839422 0.09117688 -0.10614506 -0.07388589 -0.037229374 0.099626854
0.036752995 0.09386226 -0.027704872 0.044007283 -0.05994927 0.0829333 -0.017453933 -0.092384815
-0.034072153 -0.0927269 0.1470699 -0.022611434 -0.08791964 -0.189783 0.026896045 -0.0065630227
0.0754747 0.054543395 0.06754265 0.02769601 -0.0041316785 -0.17879216 0.059769794 -0.08450478
-0.17523876 -0.16629437 0.05607018 0.07335002 0.041912604 -0.17186254 -0.06943584 0.020372072
-0.08971539 -0.10700288 0.00077886425 -0.050950643 -0.077382654 -0.12704098 -0.012526656 0.17005493
0.056209773 -0.022454804 -0.12663007 -0.11685089 0.0034015237 0.06913661 0.15927395 0.06497837
-0.086514786 -0.08398665 0.047050197 -0.14181569 -0.0019178557 -0.026809743 -0.157643 0.016002605
0.047553904 -0.013161408 0.059258517 -0.0192418 0.01676712 0.04300588 -0.023104459 0.14699738
-0.01982171 0.01413966 0.1233457 0.026033819 0.11055726 0.038732458 -0.040407468 -0.06483003
-0.062288817 -0.17446151 0.048586257 0.092067696 -0.019733155 -0.07659321 0.09894673 0.12901391
0.1537407 -0.14873883 -0.09204999 0.055727236 0.018757116 -0.018189358 -0.02420311 -0.11673079
0.04551847 0.06878744 -0.08973963 0.04658722 -0.007677456 0.01413788 0.0585995 -0.1135094
0.050959367 -0.059725598 -0.056862753 0.026052967 -0.058555067 -0.093631394 0.087721035 -0.03961147
0.012175652 0.10769937 0.037199803 -0.09939287 0.115100645 0.19001527 -0.0275396 -0.035762306
0.045636382 -0.0692701 -0.09492644 0.056378365 0.16131257 0.08643248 -0.107282564 0.0746727
0.0016912555 -0.06639286 0.019905748 -0.022237442 -0.153318 0.040342726 0.0027234415 -0.008634798
0.06989189 0.00033784876 -0.11451915 0.019501807 -0.032852564 -0.021978835 -0.0064724307 0.021904437
0.16706014 0.017981917 0.021288367 0.032454062 -0.039042637 0.09103326 -0.01837489 0.020455124
-0.015043996 -0.08373518 0.009003561 -0.056482468 0.058121197 0.035372797 -0.04103248 -0.06481391

cnn_blocks.0.convs.1.bias f4 [16]
00000000: ee3c 2e3d de84 64bd a8c9 8cba aedf 5cbd
00000010: 89b8 c7bc e6ef a73d 9669 9cbd e865 2cbd
00000020: 4d7b fb3c 01a8 403c 9dd7 6b3d 4100 8d3d
00000030: 7946 553d 1625 8abd c7df 96bd c82f 38bd
0.042538576 -0.055790775 -0.0010741251 -0.053924255 -0.024379985 0.08200054 -0.076373264 -0.042089373
0.030698443 0.011758805 0.05757867 0.06884814 0.05206916 -0.06745355 -0.07366901 -0.044967443

cnn_blocks.0.norms.0.weight f4 [16]
00000000: e69e 743f 921c 793f b076 693f bce7 6b3f
00000010: 53d5 863f fd5f 823f b056 873f 2a48 833f
00000020: e15f 893f b046 8d3f 5bf0 7a3f 0f3b 813f
00000030: 0d47 803f bdc1 6b3f a0fa 853f 719c 803f
0.9555496 0.9730922 0.9119673 0.92150474 1.0533851 1.0185543 1.057333 1.0256398
1.0732385 1.1037197 0.98023003 1.0096148 1.0021683 0.92092496 1.046711 1.0047742

cnn_blocks.0.norms.0.bias f4 [16]
00000000: 8290 c5bc 37ef 1d3c 1729 bbbd c4e4 a6bd
00000010: 4419 04be 0dd9 b8bd 71f0 2dbc 18f6 9dbd
00000020: 2355 8abd 44e6 6fbd 0e71 eabd 8e73 ceb9
00000030: 894c c5bd 0547 dabd 8af3 a7bc ad4b a7bd
-0.024116758 0.009639553 -0.09138697 -0.08149102 -0.12900263 -0.09025774 -0.010616408 -0.07712954
-0.0675452 -0.058569208 -0.11447345 -0.00039377477 -0.096337385 -0.10658077 -0.02050187 -0.08168731

cnn_blocks.0.norms.0.running_mean f4 [16]
00000000: 6dd3 2fbb 8625 73bd a9c7 f0bd b844 eabd
00000010: e529 7bbc edfe b2bb 749a e83a 78e9 e73d
00000020: c39f 643d 3980 42bd 89c4 dcbd 9665 fc3d
00000030: e34b e8bd 66aa b3bd 594e ed3d b11e 07be
-0.00268289 -0.059361957 -0.11756832 -0.11438888 -0.015329813 -0.0054625184 0.0017746226 0.113238275
0.055816423 -0.047485564 -0.107796736 0.123240635 -0.11342599 -0.08772735 0.11587209 -0.13195302

cnn_blocks.0.norms.0.running_var f4 [16]
00000000: bc3d 1f3d 9cd1 823d 47aa 703d 41d6 853d
00000010: 1c8b 363d f492 993d 3293 603d 0adb 563d
00000020: 5c43 8a3d dfc3 843d 62e3 843d da57 b33d
00000030: bc30 2d3d b242 3b3d 9ea1 6d3d e9ff 563d
0.038877234 0.06387636 0.05875614 0.06535006 0.04456626 0.07498732 0.054827876 0.052454986
0.06751129 0.06482672 0.06488682 0.08756991 0.042282805 0.045717902 0.05801546 0.05249015

cnn_blocks.0.norms.1.weight f4 [16]
00000000: e38c 8a3f 7469 913f b0be 873f 7f93 873f
00000010: 739c 8e3f 1bed 8a3f 8591 8a3f db33 873f
00000020: 06dd 8a3f 8938 8f3f 8336 8d3f c0ff 873f
00000030: 1c03 8e3f 2829 8d3f 8565 8d3f 43b3 8b3f
1.0824245 1.1360307 1.0605068 1.0591887 1.1141495 1.0853609 1.0825659 1.05627
1.0848701 1.1189128 1.1032261 1.0624924 1.1094699 1.1028185 1.1046606 1.0914081

cnn_blocks.0.norms.1.bias f4 [16]
00000000: fbf6 b1bd a0f7 033d 8ab6 27bd 039f 80bd
00000010: fe8c f4bb 37de 4c3d 4751 8abd 8626 38bd
00000020: 6846 553d fa65 2cbc 4472 b5bc f4d3 c43c
00000030: 74c8 afbd d849 a4bd 39c1 733d 17d5 fcbc
-0.08689686 0.032218575 -0.040945567 -0.06280329 -0.0074630966 0.050016608 -0.06753784 -0.044958614
0.052069098 -0.01052236 -0.022149213 0.024026848 -0.08583155 -0.08021897 0.059510443 -0.030863328

cnn_blocks.0.norms.1.running_mean f4 [16]
00000000: 8bb1 35bd 43f2 10bd 8147 333e 3ba7 073d
00000010: bf44 73bd 6376 d7bd c569 c63c 7cc8 c0be
00000020: dc19 143e d164 83bd 9e5d 9f3a 4e66 1a3d
00000030: 8070 d73e 2a63 793e 5477 8abd d2c9 6c3e
-0.04435877 -0.03538729 0.17507745 0.033118468 -0.059391733 -0.10520627 0.024220357 -0.37652957
0.1446299 -0.064157136 0.0012158637 0.03769522 0.42078018 0.24354234 -0.06761041 0.23123863

cnn_blocks.0.norms.1.running_var f4 [16]
00000000: 6a20 fe3d 1ff9 063e 8e9d 003e 9252 153e
00000010: 4578 eb3d 2f39 043e 0892 f23d c956 de3d
00000020: c6c7 173e bd71 353e a718 b03d 2a49 133e
00000030: 8092 053e 858e ef3d 2bad 2c3e 4dc9 ed3d
0.12408526 0.1318097 0.12560102 0.1458228 0.11497549 0.12912439 0.118442595 0.10856397
0.14822301 0.17719169 0.08598452 0.14383379 0.13044167 0.11697105 0.16862933 0.11610661
