checkpoints/abl_response_only/final_model.pt (torch, 86258 bytes, 50 tensors)

embedder.feature_projections.0.weight f4 [32, 1]
0	0x3ee487ad	0.44634762
1	0x3f904ace	1.1272829
2	0xbf7846c5	-0.96982986
3	0xbf09c503	-0.5381624
4	0xbf200e17	-0.625215
5	0xbcf2421a	-0.029572535
6	0xbf25d4f3	-0.6477806
7	0xbf8e4e38	-1.111762
8	0xb9ab45e9	-0.0003266775
9	0xbf880b0e	-1.0628374
10	0xbd648cc5	-0.05579831
11	0x3f669d9a	0.9008423
12	0x3fa50d56	1.2894695
13	0x3f58cb13	0.84684867
14	0xbf19c5d2	-0.60067475
15	0x3f5c8b50	0.86150074
16	0x3ee25d14	0.44211638
17	0x3f5dbfe9	0.86620957
18	0x3f924685	1.1427771
19	0xbeb13f5f	-0.3461866
20	0x3ea750e2	0.32678896
21	0x3ebf3814	0.37347472
22	0xbf7d7c60	-0.99017906
23	0xbf85970f	-1.0436724
24	0x3f725061	0.946539
25	0xbf84710e	-1.0347002
26	0xbf6da5cd	-0.92831117
27	0x3f3b74fa	0.7322537
28	0x3f02edf3	0.5114433
29	0x3e9845c7	0.29740736
30	0xbf09893e	-0.5372504
31	0x3ebd44c2	0.3696652

embedder.feature_projections.0.bias f4 [32]
0	0xbf4157ce	-0.75524604
1	0xbf58af8d	-0.8464287
2	0x3f37ed07	0.7184605
3	0xbf414d43	-0.7550852
4	0xbf6a6c7f	-0.915718
5	0xbec59c8b	-0.38595995
6	0xbf4c5ba5	-0.7982734
7	0xbf614102	-0.8798982
8	0xbf5cc75a	-0.86241686
9	0x3e72b536	0.23701939
10	0xbd584cbf	-0.052807566
11	0x3e87c041	0.26513866
12	0xbf24fbcb	-0.64446706
13	0x3e604f23	0.21905188
14	0x3f3c2200	0.7348938
15	0xbef101bb	-0.47071633
16	0x3d202598	0.039098352
17	0xbee7ea08	-0.4529574
18	0xbed95ef9	-0.4245527
19	0x3e257508	0.16157925
20	0x3de8104e	0.11331235
21	0x3eaaee47	0.33384916
22	0xbe50437f	-0.20338248
23	0x3f6153d9	0.88018566
24	0xbf03c59d	-0.5147341
25	0xbd1125fa	-0.035436608
26	0xbeccc196	-0.39991444
27	0xbe4bb18d	-0.19891949
28	0xbf474ec5	-0.7785457
29	0x3f0eadfc	0.5573423
30	0xbf3c4afe	-0.7355193
31	0x3f563d17	0.83686966

embedder.feature_projections.1.weight f4 [32, 1]
0	0x3f4f6eea	0.81028616
1	0xbf62fe13	-0.88668936
2	0xbe932fa0	-0.28747272
3	0xbe9ddf07	-0.3083422
4	0xbf05f43e	-0.5232581
5	0x3f5b3b47	0.85637325
6	0xbe9d6dbc	-0.30747783
7	0x3f228592	0.6348506
8	0x3f1b9a06	0.60781896
9	0x3ed18bb1	0.4092689
10	0xbf663551	-0.89925104
11	0xbe7dfdcb	-0.24803846
12	0x3f119cfc	0.56880164
13	0xbf3a5e14	-0.727998
14	0x3f0d73a6	0.5525459
15	0x3d55a7d7	0.052162018
16	0x3f15a860	0.58460045
17	0x3f1b60af	0.606944
18	0xbf584863	-0.84485453
19	0x3ee3fd64	0.4452926
20	0x3ea3a6e6	0.3196327
21	0xbf09895a	-0.53725207
22	0xbf38e154	-0.72218823
23	0x3ebd3d91	0.36961034
24	0x3f25b71c	0.6473253
25	0x3da09250	0.07840407
26	0xbeb9635f	-0.36208627
27	0x3f1bae3c	0.60812736
28	0x3d2f8690	0.04285294
29	0x3ef942fa	0.48683912
30	0x3f7200e7	0.94532627
31	0xbe9247d7	-0.28570434

embedder.feature_projections.1.bias f4 [32]
0	0x3e885859	0.26629904
1	0x3ec122ea	0.3772195
2	0xbe190aef	-0.14945577
3	0xbd37690e	-0.044777922
4	0x3f65593f	0.89589304
5	0xbe08f912	-0.13376263
6	0xbdc34faf	-0.09536683
7	0xbeb01b12	-0.34395653
8	0xbd9797c6	-0.07401995
9	0x3f2f5ba9	0.6849924
10	0x3f6d6f9a	0.92748415
11	0xbed0e70f	-0.40801284
12	0xbf7a1b63	-0.9769804
13	0x3eb51631	0.35368493
14	0xbf7b6aef	-0.9821004
15	0x3ef6ba9f	0.48189256
16	0xbd30387a	-0.04302261
17	0x3f27bbff	0.65521234
18	0xbe06d523	-0.13167243
19	0xbe1c9878	-0.15292537
20	0x3cd660f4	0.026169278
21	0x3f336c18	0.7008681
22	0xbf2ef14a	-0.6833693
23	0x3eadd0f6	0.33948487
24	0xbf4513da	-0.76983416
25	0x3f3fc0b8	0.7490344
26	0x3deeecb6	0.11666243
27	0xbf215eef	-0.6303548
28	0xbf138563	-0.57625407
29	0x3d2ede97	0.042692747
30	0x3ed6430b	0.41848025
31	0x3e9707cf	0.29498145

embedder.stabilizer_embedding.weight f4 [8, 32]
0	0xbf845ddd	-1.0341145
1	0xbef8f504	-0.48624432
2	0x3e809ffb	0.25122055
3	0x3f96d169	1.1782657
4	0xbfd0e32e	-1.631933
5	0xbe8c4162	-0.27393633
6	0x3f3aadb9	0.7292133
7	0xbea0c609	-0.3140109
8	0xbf17a87c	-0.5924146
9	0x3e96f2b7	0.29482052
10	0xbeab3db6	-0.3344552
11	0xc003a2b5	-2.0568058
12	0xbda93da7	-0.082637124
13	0x3f81406b	1.0097784
14	0xbf5c0eaa	-0.85959876
15	0x3ede2d33	0.4339386
16	0xbf9fd957	-1.2488202
17	0x3e62f3e8	0.22163355
18	0xbfa382f8	-1.2774343
19	0xbf093a8f	-0.5360498
20	0x3f5577fd	0.8338621
21	0xbfa5d3bc	-1.2955241
22	0xbd39c933	-0.045357894
23	0xbf984851	-1.1897069
24	0xbf6bd3b6	-0.9211992
25	0x3e1f5c36	0.1556252
26	0xb81b7cd2	-3.7071128e-05
27	0x3e420f93	0.18951254
28	0xbed2a556	-0.41141766
29	0x3f3f55a0	0.7474003
30	0x3d87f348	0.06638199
31	0xbe351356	-0.17683157
32	0x3f3d0e7e	0.7385024
33	0xc01a10a9	-2.4072669
34	0x3ee1e1f3	0.44117698
35	0x3eb46bf2	0.35238606
36	0x3f158a53	0.5841419
37	0xbf8c43da	-1.0958207
38	0xbddd0c71	-0.10793389
39	0xbfab28cf	-1.3371829
40	0x3fd881d5	1.6914622
41	0xbf6aa193	-0.9165279
42	0xbf5b9443	-0.85773104
43	0xbebe54b0	-0.37173986
44	0xbfd6e92c	-1.6789908
45	0x3f5d66c2	0.8648492
46	0xbcee83f4	-0.029115655
47	0x3e1e5d62	0.1546531
48	0x3f1ec64a	0.62021315
49	0x3f041542	0.51594937
50	0x3f6de355	0.92925006
51	0xbebc9590	-0.36832857
52	0x3e201558	0.15633142
53	0x3eae27d8	0.34014773
54	0x3f3d6334	0.73979497
55	0xbdaf0edf	-0.08547758
56	0xbfb5aea5	-1.4193922
57	0xbf7b376e	-0.98131454
58	0x3f91e77b	1.1398767
59	0x3f0f494e	0.5597123
60	0x3f3d190a	0.7386633
61	0x3f6ff6a0	0.93735695
62	0x3f917d45	1.1366354
63	0x3f3e8292	0.74417984
64	0x3f24eace	0.64420784
65	0xbf903b68	-1.1268129
66	0xbde5ae54	-0.11214891
67	0xbfe9bfa1	-1.8261606
68	0x3efb15eb	0.4904016
69	0x3f1cbab1	0.6122237
70	0x3c732788	0.014840968
71	0xbf9877c4	-1.191155
72	0xbf98899c	-1.1916995
73	0xbf05356c	-0.5203464
74	0x3dae1651	0.0850035
75	0xbf8be01b	-1.0927767
76	0xbcaade97	-0.020858092
77	0x40166606	2.349977
78	0x3f762e09	0.96163994
79	0x3f157fa9	0.5839792
80	0x3e96c3ba	0.29446203
81	0x3e6dae2d	0.23210974
82	0x3d476b63	0.048686396
83	0xbe597a2c	-0.21238011
84	0x3f251bf8	0.644958
85	0xbc886da4	-0.016653843
86	0x3f7934af	0.97346014
87	0x3fc79112	1.5591147
88	0xbf2a3d11	-0.6649943
89	0xbf630b93	-0.88689536
90	0xbf7da2ba	-0.99076426
91	0xbf534198	-0.82521963
92	0xbd3c4fc3	-0.045974504
93	0xbddd54ec	-0.10807213
94	0xbf3d8b1e	-0.740404
95	0xbfe2b140	-1.7710342
96	0x3f2ae2dd	0.66752416
97	0x3eb38a6d	0.35066548
98	0xbd5297da	-0.05141435
99	0xbe7aa364	-0.24476391
100	0xc000f1bb	-2.014754
101	0x3ec36e64	0.3817016
102	0xbdd84d90	-0.10561669
103	0x3fecd86f	1.850355
104	0xbf8c9e90	-1.098589
105	0xc00df7e7	-2.2182558
106	0xbea08314	-0.31350005
107	0x3f251ceb	0.6449725
108	0x3f86d6f3	1.0534347
109	0xbfd33741	-1.6501237
110	0x3f309a2a	0.68985236
111	0xbe90ace0	-0.28256893
112	0xbf1f12ba	-0.6213795
113	0xbebe80a2	-0.37207514
114	0xbf8c4eb6	-1.0961521
115	0x3f87be0c	1.0604873
116	0xbefe1e6b	-0.49632582
117	0x3f04a212	0.518098
118	0xbfe9a324	-1.8252912
119	0xbfb1fca0	-1.390522
120	0xbf0c22c9	-0.5474058
121	0x3f41515a	0.7551476
122	0x3f4fc088	0.81153154
123	0x3fc5f54c	1.5465484
124	0xbe24e9db	-0.16104834
125	0x3fb0e71a	1.3820527
126	0x3e086367	0.13319169
127	0x3fab8662	1.3400385
128	0x3f1bfc81	0.60932165
129	0xbfc58080	-1.542984
130	0xbe5ce79e	-0.2157273
131	0x401396b8	2.3060741
132	0xbf1bf08d	-0.60913926
133	0xbf2e2339	-0.68022496
134	0xbc4b3e06	-0.012404924
135	0xc017430d	-2.3634675
136	0x3f1aa3ce	0.60406196
137	0x3d1d5552	0.038411446
138	0x3fcbdfc7	1.5927666
139	0xc0081ec5	-2.126878
140	0xbdc8083d	-0.09767196
141	0xbf914d48	-1.1351709
142	0x3fec8446	1.8477867
143	0x3f03290a	0.51234496
144	0xbf0c84a3	-0.5488989
145	0xbfafb8cb	-1.3728269
146	0xbe90ecfb	-0.28305802
147	0x3f30ad2d	0.69014245
148	0xbfc0cde2	-1.506283
149	0xbfb2afc7	-1.3959893
150	0xbf4a81a1	-0.7910405
151	0xbf6a53cd	-0.9153412
152	0xbf33ba3f	-0.70206064
153	0xbf900068	-1.1250124
154	0xbcd66062	-0.026169006
155	0x3f7bcfa6	0.9836372
156	0x3f309b4a	0.6898695
157	0xbf38477d	-0.7198408
158	0xbd97bfba	-0.07409616
159	0x3f00a500	0.5025177
160	0xbfa6ea16	-1.3040187
161	0x3dbc691e	0.09199737
162	0x3f06500b	0.52465886
163	0x3f7ca3d1	0.98687464
164	0x3e94c6ae	0.2905783
165	0xbf4b3f5a	-0.7939354
166	0xbe9674cb	-0.2938598
167	0x3f847005	1.0346686
168	0xbf0921f8	-0.5356746
169	0x3f436643	0.76327914
170	0xbfd114e0	-1.6334496
171	0xbf369ccd	-0.7133301
172	0x3fb065d4	1.3781075
173	0xbce55357	-0.027993841
174	0x3fd20115	1.640658
175	0x3d7bafb0	0.061446846
176	0x3d49e32d	0.049288917
177	0x3fc8d2e8	1.5689363
178	0x3f17107f	0.59009546
179	0x3f4a3cdf	0.7899913
180	0xbf5c99d1	-0.86172205
181	0x3fc2a593	1.5206779
182	0x3dac5f4f	0.08416616
183	0x3f701a5d	0.9379023
184	0xbd8a6c3e	-0.06758927
185	0x3ebaddff	0.36497495
186	0x3fd312b5	1.6490084
187	0x3f6f009a	0.9336029
188	0x3e044151	0.12915541
189	0xbfbc115b	-1.4692796
190	0xbef02a12	-0.46907097
191	0xbf8eac6e	-1.1146371
192	0xbfbba7c9	-1.4660579
193	0x400b6852	2.1782422
194	0x3fe701b5	1.8047396
195	0xbf808fa3	-1.0043834
196	0xbf9864fa	-1.1905816
197	0x400c1658	2.1888638
198	0x3f455f85	0.77098876
199	0xc0264b05	-2.5983288
200	0xbfd3be2b	-1.654241
201	0x3d653d23	0.055966508
202	0x3ea247b2	0.31695324
203	0xbf170269	-0.5898805
204	0xbf995fa6	-1.1982315
205	0xbf6714c5	-0.90266067
206	0x3f653195	0.8952878
207	0xbf5e05f5	-0.8672784
208	0x3f87f07b	1.0620264
209	0xbdae6b69	-0.085165806
210	0x3ed01be8	0.4064629
211	0x3ff8bbec	1.9432349
212	0xbf4aec5d	-0.7926691
213	0xbf29bead	-0.66306573
214	0x3ece2271	0.40260652
215	0x3e3a376a	0.18185201
216	0xbf58bfe8	-0.84667826
217	0x3fef7648	1.8707972
218	0xbf6e608f	-0.93116087
219	0x3ecf7ab8	0.40523314
220	0x401ab30f	2.4171789
221	0xbee6a019	-0.4504402
222	0x3f0a7d31	0.54097277
223	0x3f5399a4	0.8265631
224	0xc00ff02a	-2.2490335
225	0xbfd3c909	-1.6545726
226	0x3f22d063	0.6359922
227	0x3ed16e84	0.4090463
228	0x3f1541c9	0.58303505
229	0xbebc376f	-0.36761042
230	0x3f653263	0.8953001
231	0xc01bc906	-2.4341445
232	0xbfc5b43d	-1.5445629
233	0x3f961367	1.1724671
234	0xbfdae5ef	-1.710142
235	0xbdb17500	-0.08664894
236	0xbf9d237d	-1.2276455
237	0x3f82adde	1.020931
238	0xbfbcfa6f	-1.4763926
239	0xbf96c4a8	-1.1778765
240	0xbed4a794	-0.41534102
241	0xbf1a772e	-0.60338104
242	0xbfa2ac9a	-1.2708924
243	0x3f6ded4f	0.9294023
244	0x3fd4cb8b	1.6624616
245	0xbe59b895	-0.21261819
246	0xbfea99ad	-1.8328148
247	0x3fac6408	1.3468027
248	0x3ee89fbb	0.45434365
249	0xbdfea780	-0.12434292
250	0x3f2f6b38	0.6852298
251	0x3e550436	0.20802388
252	0x3ca1a3d8	0.019731447
253	0xbfcd8f8a	-1.605943
254	0xc0048056	-2.070333
255	0x4033d7f1	2.810055

embedder.res_block.0.weight f4 [32]
0	0x3f7e6b7e	0.9938277
1	0x3f8cb4ca	1.0992672
2	0x3f8813db	1.063106
3	0x3f718cb4	0.9435532
4	0x3f8adb4a	1.0848172
5	0x3f80b59c	1.0055423
6	0x3f7f1468	0.9964051
7	0x3f876f62	1.0580866
8	0x3f81073a	1.008033
9	0x3f81819c	1.0117679
10	0x3f72d51d	0.94856435
11	0x3f84da96	1.0379207
12	0x3f90c2c5	1.1309439
13	0x3f7b66a2	0.9820348
14	0x3f81ce1c	1.0141025
15	0x3f8c4333	1.0958008
16	0x3f824499	1.0177184
17	0x3f7aeb26	0.9801506
18	0x3f89e5c2	1.0773242
19	0x3f787f03	0.97068805
20	0x3f8a5e77	1.0810078
21	0x3f790281	0.97269446
22	0x3f82678c	1.018785
23	0x3f827d32	1.0194457
24	0x3f8609d1	1.0471746
25	0x3f879604	1.0592656
26	0x3f8968b1	1.0735074
27	0x3f790a9a	0.972818
28	0x3f7572bf	0.95878214
29	0x3f7471bb	0.9548604
30	0x3f8626ab	1.048055
31	0x3f7cfe9e	0.98826015

embedder.res_block.0.bias f4 [32]
0	0x3c532654	0.012887556
1	0x3bb072af	0.005384765
2	0xbc628c08	-0.013827331
3	0x3d0bcd32	0.034131236
4	0x3c891ca8	0.016737297
5	0xbd085149	-0.033280645
6	0x3cb0dfc5	0.021591077
7	0x3bfd4bac	0.007729968
8	0x3ca6f4e4	0.020380445
9	0xbd30bbd8	-0.04314789
10	0x3b6cc12e	0.0036125886
11	0x3c26500f	0.010150923
12	0x3d2c81d7	0.042116012
13	0xbc654541	-0.013993562
14	0xbcbb7893	-0.022884643
15	0x3bd5048c	0.006500786
16	0xbd00b373	-0.031421136
17	0xbc929fea	-0.017898519
18	0x3ca3097d	0.019901985
19	0xbc448e59	-0.011996829
20	0xbc9b5179	-0.018959748
21	0xbd22361f	-0.039602395
22	0x3cca13a6	0.024667572
23	0xbd273472	-0.0408215
24	0x3d195718	0.037436575
25	0xbcb347d1	-0.02188483
26	0xbbea72cb	-0.0071547977
27	0xbcc9a9fd	-0.02461719
28	0x3cb23822	0.021755282
29	0xbc4cc8e5	-0.012499069
30	0x3c220302	0.009888412
31	0xbcac77d1	-0.021053227

embedder.res_block.1.weight f4 [32, 32]
0	0x3e1a50bc	0.1506986
1	0x3e0a801a	0.1352543
2	0x3c3ae118	0.011406206
3	0xbc309cf1	-0.010779605
4	0xba28639c	-0.00064235344
5	0x3de75cca	0.11296995
6	0x3ddc87dd	0.10768101
7	0xbe167c85	-0.14695938
8	0x3d8a449b	0.06751367
9	0xbe223a31	-0.15842511
10	0x3de90433	0.11377754
11	0x3e373707	0.17892085
12	0x3e02fb9c	0.12791294
13	0x3e12a5a8	0.14321005
14	0x3ccdd4f4	0.025125958
15	0x3e6030da	0.21893635
16	0xbd8c4d1b	-0.06850644
17	0xbcd2e7b0	-0.025745243
18	0xbdf7980a	-0.12089546
19	0x3d729504	0.059224144
20	0x3e598746	0.21243009
21	0xbd8bb8c2	-0.06822349
22	0x3c1d35b4	0.009595323
23	0x3db87e3c	0.09008452
24	0x3c41fb91	0.011839763
25	0xbc8f991c	-0.017529063
26	0xbe3bd6e4	-0.18343693
27	0x3e4567ab	0.19277827
28	0xbddd3c52	-0.10802521
29	0xbda66ba0	-0.081259966
30	0xbe3b83da	-0.18312016
31	0xbdbcbb89	-0.09215457
32	0x3d4b4ad4	0.04963191
33	0xbd8a4479	-0.067513414
34	0x3e4c53a8	0.19953787
35	0x3e600433	0.21876602
36	0xbd764a7a	-0.06012962
37	0x3e44e4ee	0.19227955
38	0xbc6b4270	-0.014359102
39	0x3df6ba80	0.12047291
40	0x3db16fc0	0.08663893
41	0xbd438781	-0.04773665
42	0xbe270f85	-0.16314514
43	0x3d6c095a	0.057626106
44	0x3befde1f	0.00732018
45	0xbd03205c	-0.032013282
46	0x3de8fbc1	0.11376143
47	0xba48158f	-0.0007632607
48	0xbca58c4b	-0.020208498
49	0xbe63bfaf	-0.2224109
50	0xbe7833a7	-0.24238454
51	0xbd52f552	-0.051503487
52	0x3daaa7cb	0.08332785
53	0x3d8a9df6	0.0676841
54	0x3d97127a	0.07376571
55	0x3df89dd5	0.12139479
56	0xbc89af12	-0.016807113
57	0x3e46feee	0.19433185
58	0x3e368fb6	0.17828259
59	0xbb2e81e4	-0.0026627714
60	0xbe20f1dd	-0.15717264
61	0xbdba4f0b	-0.090971075
62	0x3d18b029	0.037277374
63	0x3db0f0f9	0.08639712
64	0xbd846cbc	-0.06466052
65	0x3e81b2c9	0.25331715
66	0xbe0ee39c	-0.13954014
67	0xbe23ff56	-0.16015372
68	0xbcf44312	-0.029817138
69	0x3d7502cb	0.059817117
70	0x3db4292a	0.08796914
71	0xbcf722f6	-0.030168038
72	0x3e3ae29f	0.18250512
73	0xbe4d44e8	-0.20045817
74	0xbe51911b	-0.2046551
75	0x3db491d2	0.088168755
76	0x3e043a46	0.12912855
77	0x3b1ac936	0.0023618466
78	0xbe14540e	-0.1448519
79	0xbe1aab82	-0.15104488
80	0x3e5e13a2	0.21687177
81	0x3d011606	0.031515144
82	0x3dce3af3	0.100698374
83	0x3dbbb088	0.0916453
84	0x3e020b91	0.12699725
85	0xbe25da23	-0.16196494
86	0xbd530d1f	-0.051526185
87	0xbd93e8ff	-0.07222175
88	0xbcef54d6	-0.029215258
89	0x3c76befb	0.015060182
90	0xbe61323c	-0.21991819
91	0x3e03d7e7	0.12875329
92	0x3e64e30e	0.2235224
93	0xbe3e3421	-0.18574573
94	0x3dbef8db	0.09324809
95	0xbe18a75b	-0.14907591
96	0xbcdecd7e	-0.027197596
97	0x3e61662b	0.2201163
98	0xbe9cf94d	-0.3065895
99	0xbd875b46	-0.06609206
100	0xbe811e53	-0.25218448
101	0x3e2d16b3	0.1690319
102	0xbce768e3	-0.028248256
103	0xbe4b62a5	-0.19861849
104	0xbc9f3644	-0.019435056
105	0xbc5d8530	-0.013520524
106	0xbe13d19c	-0.14435428
107	0x3e0faafe	0.14030072
108	0x3e8d3fd3	0.27587757
109	0x3cfad89f	0.030620871
110	0xbc1f4784	-0.0097216405
111	0x3e95d194	0.29261458
112	0xbb21b489	-0.0024674258
113	0xbd8e34f3	-0.06943693
114	0xbd16c1be	-0.03680586
115	0xbb8ad418	-0.0042367093
116	0x3e04f3b5	0.12983592
117	0xbd976885	-0.073929824
118	0xbe67e14e	-0.2264454
119	0x3d1a8fa0	0.037734628
120	0x3ec673d0	0.38760233
121	0xbda6fb2b	-0.08153375
122	0xbd89d291	-0.067296155
123	0xbc0a0aa1	-0.008425386
124	0x3c29d007	0.010364539
125	0xbb998a73	-0.004685694
126	0xbe417616	-0.18892702
127	0x3da4e5cc	0.08051643
128	0x3e5224b4	0.20521814
129	0x3e0385a1	0.12843944
130	0xbe601453	-0.21882753
131	0xbe343300	-0.1759758
132	0xbe958104	-0.29199994
133	0x3e2a36aa	0.16622415
134	0x3cdc3d55	0.026884714
135	0x3e1b3f83	0.15160947
136	0x3e046b97	0.12931667
137	0xbd478915	-0.048714716
138	0x3d546891	0.051857535
139	0x3e0e267c	0.13881868
140	0x3e9a7d2e	0.3017363
141	0x3decec22	0.11568476
142	0xbe11bdac	-0.1423251
143	0x3dde8df6	0.10866921
144	0x3daea892	0.08528246
145	0x3cc1be89	0.023650425
146	0x3e024a0f	0.12723564
147	0x3cc8a91c	0.0244947
148	0x3deca1f4	0.115543276
149	0xbd8b3deb	-0.06798919
150	0x3d3a6166	0.045503043
151	0x3cd6cd92	0.02622107
152	0x3c72489f	0.014787822
153	0x3dd9f5f1	0.10642613
154	0xbe953d67	-0.2914841
155	0x3d894cec	0.06704125
156	0x3df34fdc	0.11880466
157	0x3e25e793	0.1620162
158	0x3c38c608	0.011277683
159	0xbe272f12	-0.1632655
160	0x3dd1b85b	0.10240241
161	0x3e229819	0.15878333
162	0x3d27084f	0.040779408
163	0xbdaf50ee	-0.08560358
164	0xbea1c462	-0.3159514
165	0x3bd3e82d	0.0064668865
166	0xbe2e85a0	-0.17043161
167	0xbe47bb70	-0.19505095
168	0xbe04b953	-0.1296132
169	0x3da73a34	0.08165398
170	0x3ce6c02d	0.028167808
171	0x3d2aa2e9	0.04165927
172	0x3ea59465	0.3233978
173	0x3dc5c870	0.09657371
174	0xbe344804	-0.17605597
175	0x3d6c0f07	0.05763152
176	0xbd96e799	-0.073683925
177	0x3e1b6796	0.15176234
178	0x3e66c7de	0.22537181
179	0x3db4c444	0.08826497
180	0x3da81fc7	0.08209186
181	0x3de7af55	0.11312739
182	0xbd8525e2	-0.06501366
183	0xbe0e8f56	-0.13921866
184	0x3e93bd88	0.28855538
185	0xbd839a03	-0.0642586
186	0xbe1eee29	-0.15520538
187	0x3d36f596	0.044667803
188	0x3c738454	0.014863092
189	0xbe07b910	-0.1325419
190	0xbe1592fd	-0.14606853
191	0x3dad91b6	0.08475058
192	0x3df28628	0.118419945
193	0x3d8b1e65	0.06792907
194	0xbdde6f14	-0.1086103
195	0x3b3a3d41	0.0028417858
196	0xbdc129dc	-0.09431812
197	0xbe123003	-0.14276128
198	0x3d983fb4	0.074340254
199	0xbd9036c7	-0.07041698
200	0x3da2e2ea	0.07953437
201	0xbe407b24	-0.18796974
202	0x3dc58684	0.096447974
203	0x3cb3938d	0.021920944
204	0xbd680542	-0.05664564
205	0x3dc88678	0.09791273
206	0x3e0beb74	0.13664037
207	0x3e1d70f3	0.15375118
208	0xbe056d5c	-0.13029999
209	0xbdf9ff14	-0.122068554
210	0x3d1c4879	0.038155053
211	0x3e27c1d8	0.1638254
212	0x3db3188c	0.08744916
213	0xbd8e1940	-0.0693841
214	0xbdfe84ca	-0.12427671
215	0xbe60d035	-0.21954425
216	0x3d0b15ec	0.033956453
217	0x3d675128	0.05647388
218	0x3d3f9069	0.04676858
219	0x3d77ea8d	0.06052642
220	0xbde9d865	-0.11418227
221	0x3e10ce9b	0.14141314
222	0xbe82d896	-0.25555867
223	0xbd34e238	-0.04416105
224	0xbbd09ee0	-0.0063665956
225	0xbe46b0e3	-0.19403414
226	0x3e04d450	0.12971616
227	0x3db7be73	0.08971872
228	0xbda66b45	-0.08125929
229	0xbcfc5155	-0.0308005
230	0x3b621fda	0.0034503848
231	0x3e730801	0.23733522
232	0xbe2988f0	-0.16556144
233	0x3d6e40c6	0.05816724
234	0x3d1e1483	0.03859378
235	0x3d52dcf6	0.051480256
236	0xbd690638	-0.056890696
237	0x3e13fb91	0.14451434
238	0x3c3258e9	0.010885456
239	0xbdcb34b7	-0.09922164
240	0xbd15161c	-0.03639804
241	0x3d9c6edd	0.07638333
242	0xbe8a9a91	-0.2707105
243	0xbd1b5cdb	-0.03793035
244	0x3ab0e019	0.0013494521
245	0x3e22365a	0.15841046
246	0xbd83ae9b	-0.06429788
247	0x3e656b0e	0.2240412
248	0x3dd6c81e	0.10487388
249	0x3cf6a9da	0.030110288
250	0xbb19ecf8	-0.0023487192
251	0x3d7d3299	0.06181583
252	0xbd22b6c9	-0.0397251
253	0xbdd94956	-0.10609691
254	0x3e0a160c	0.13484973
255	0xbd2dcdf8	-0.042432755

embedder.res_block.1.bias f4 [32]
0	0xbcd6aaae	-0.026204433
1	0x3dd0ee4b	0.10201701
2	0xbda2f841	-0.07957507
3	0xbe250842	-0.16116431
4	0xbe008f3c	-0.1255464
5	0xbc405382	-0.01173866
6	0x3e178f06	0.14800653
7	0x3d8c2d93	0.0684463
8	0xbcf1c35a	-0.029512096
9	0x3ce8d8af	0.028423635
10	0x3d8075ac	0.06272444
11	0x3de96f90	0.11398232
12	0xbcd08fc1	-0.025459172
13	0x3d808dbc	0.06277034
14	0xbd5c6f2b	-0.053816956
15	0x3e2e0b71	0.16996552
16	0xbd5a0610	-0.053228438
17	0xbd318e7c	-0.043348774
18	0xbcb4cd74	-0.022070624
19	0x3e113f79	0.14184369
20	0xbdc20a4b	-0.094746195
21	0x3da78d1f	0.081812136
22	0x3e1877d8	0.14889467
23	0xbd10e6cc	-0.035376355
24	0x3d8bf22b	0.06833299
25	0x3e04ce2e	0.12969276
26	0x3e1c3c5d	0.15257402
27	0x3e21ef4d	0.15813942
28	0x3c81417a	0.015778292
29	0xbe113673	-0.14180927
30	0x3de9cde9	0.11416227
31	0x3d26b1a8	0.04069677

embedder.res_block.3.weight f4 [32, 32]
0	0x3e4e3873	0.20138721
1	0x3d7733e0	0.060352206
2	0xbe10c707	-0.14138423
3	0x3e353e02	0.17699435
4	0x3cd5ffb9	0.026122915
5	0x3e5ad553	0.21370439
6	0xbd4cb966	-0.049981497
7	0x3e13732b	0.14399402
8	0xbe462e9a	-0.19353715
9	0x3e487515	0.19575913
10	0xbdaa8d22	-0.083277
11	0xbdc2fcec	-0.09520897
12	0x3d7da9ca	0.0619295
13	0x3d6d01bc	0.057862982
14	0x3d17ef5c	0.037093505
15	0xbe1b5312	-0.15168408
16	0xbe0e9f20	-0.13927889
17	0x3d9ae085	0.07562355
18	0x3cf7e534	0.03026066
19	0x3bdda5dd	0.006764157
20	0xbd6ec3c6	-0.058292173
21	0x3b886d67	0.0041634324
22	0xbb4d8edb	-0.0031365666
23	0x3e0e1cd2	0.13878182
24	0xbdab035c	-0.0835025
25	0x3cc871d1	0.024468334
26	0xbd860196	-0.06543271
27	0xbd2ad960	-0.04171121
28	0xbc002243	-0.007820669
29	0xbe7617a4	-0.24032456
30	0x3e54dd25	0.20787485
31	0xbc47b125	-0.012188231
32	0xbdf0d96a	-0.117602184
33	0xbe30c0b7	-0.17261015
34	0x3d0f43b0	0.03497666
35	0xbdecec73	-0.115685366
36	0x3da1088c	0.07862958
37	0xbda47e0d	-0.08031855
38	0xbd931a2d	-0.07182727
39	0x3d70526f	0.058672365
40	0xbd58d041	-0.05293298
41	0xbe2cd55c	-0.16878265
42	0x3d58dfe8	0.05294791
43	0x3e046168	0.12927783
44	0x3e1d5643	0.15364937
45	0x3dd3be05	0.10338978
46	0x3da248a0	0.07924008
47	0x3e638ddb	0.22222082
48	0x3e24dbc2	0.16099456
49	0x3e2894e6	0.1646305
50	0x3e230204	0.15918738
51	0xbc7f12d0	-0.01556845
52	0xbd84846a	-0.064705685
53	0xbe0b9770	-0.13631988
54	0x3e084559	0.13307704
55	0x3e4a1f50	0.19738507
56	0x3e202e72	0.15642717
57	0xbdea082f	-0.11427342
58	0x3defff04	0.11718562
59	0xbd05b6b3	-0.03264494
60	0x3da3a3ee	0.079902515
61	0x3ccaee31	0.024771782
62	0xbe0376cc	-0.12838286
63	0x3e28e1e3	0.16492419
64	0xbdd3d9bf	-0.10344266
65	0x3e5abd7a	0.21361342
66	0x3dbaebf4	0.09127036
67	0xbdb7fb39	-0.08983464
68	0x3d3100ec	0.04321377
69	0xbcae4a20	-0.02127558
70	0xbdebaa68	-0.11507112
71	0x3ded72a6	0.11594133
72	0x3d7c98e2	0.061669238
73	0xbdb3612e	-0.0875877
74	0xbd083f07	-0.033263233
75	0x3cd20f2d	0.025642002
76	0xbe2bd8fe	-0.16781995
77	0xbe4b323b	-0.1984338
78	0x3d4bf105	0.0497904
79	0x3e02328b	0.12714593
80	0xbdc71198	-0.097201526
81	0xbe40d178	-0.18829906
82	0xbe3f6a52	-0.18692902
83	0xbde28429	-0.11060364
84	0x3b93f9f5	0.004515881
85	0xbd1d51aa	-0.03840796
86	0x3d91e1bf	0.07123136
87	0xbdbe3353	-0.09287133
88	0xbb3d7f02	-0.0028914814
89	0xbd8e6d82	-0.06954481
90	0xbdf469bc	-0.1193423
91	0xbe1065f8	-0.14101398
92	0x3d62b2e7	0.055346396
93	0x3dd61f48	0.10455185
94	0x3c179b9a	0.009253407
95	0x3e15cb43	0.1462832
96	0xbd433690	-0.047659457
97	0xbd6bd9d0	-0.05758077
98	0x3e0f57e2	0.13998368
99	0xbcf8765c	-0.030329876
100	0x3eaac46c	0.33352983
101	0xbe80a28f	-0.25124022
102	0xbcb02ed8	-0.021506712
103	0x3e0e22a3	0.138804
104	0x3d600f1f	0.05470192
105	0xbdc8fbed	-0.09813676
106	0xbe0dab03	-0.13834767
107	0xbe624d89	-0.2209989
108	0x3d1e8be8	0.038707644
109	0xbe376e51	-0.17913176
110	0x3e1092a8	0.14118445
111	0x3dd0235d	0.10162995
112	0x3e260ff7	0.16217028
113	0xbdf44212	-0.119266644
114	0x3ce4c08d	0.027923847
115	0x3c767582	0.0150426645
116	0xbe42d5ea	-0.19026914
117	0x3e385018	0.17999303
118	0xbe2ffdf5	-0.1718672
119	0xbdb31235	-0.08743707
120	0x3e393ab6	0.18088803
121	0xbda83853	-0.08213868
122	0x3b8ab2b1	0.0042327275
123	0x3d6cb549	0.057790074
124	0xbde94ea3	-0.11391952
125	0x3db12817	0.08650225
126	0x3db6d31d	0.089269854
127	0xbd55ca6e	-0.052195005
128	0x3daf8499	0.08570213
129	0x3cbdbffc	0.023162834
130	0x3e4863d6	0.19569334
131	0xbd512f93	-0.05107076
132	0xbeadfcef	-0.33982036
133	0xbcb508fb	-0.022099009
134	0x3d517eba	0.051146246
135	0x3e4c2770	0.19936919
136	0xbdbdd6a2	-0.092694536
137	0x3e2b063d	0.16701598
138	0xbb32b029	-0.0027265644
139	0xbda6b567	-0.081400685
140	0x3d0e0b38	0.034678668
141	0xbc9a55f5	-0.018839816
142	0x3e2a72c4	0.16645342
143	0x3e78cd48	0.24297059
144	0xbd8cbddb	-0.068721496
145	0xbd1469cd	-0.036233712
146	0x3c291804	0.010320667
147	0x3d9181f0	0.07104862
148	0x3e76b665	0.24093015
149	0x3d619215	0.055070955
150	0xbe479e06	-0.19493875
151	0x3ad872cb	0.0016513703
152	0x3d56ad2e	0.05241125
153	0xbe0a66d8	-0.13515794
154	0xbe178531	-0.14796902
155	0x3d078ba6	0.033092164
156	0x3d92f5b3	0.0717577
157	0x3d42f298	0.047594637
158	0xbdddc624	-0.10828808
159	0x3ca96556	0.020678204
160	0xbb8ac752	-0.0042351866
161	0xbde041d8	-0.10950059
162	0xbd464ad4	-0.048411205
163	0x3e95e7c6	0.29278392
164	0x3e9bdef6	0.30443543
165	0x3e98c038	0.2983415
166	0xbc12d1b0	-0.008961126
167	0x3cdaab6f	0.026693074
168	0x3c89719e	0.01677781
169	0x3e04da4a	0.12973896
170	0x3db5d9a4	0.08879402
171	0xbcb2e0c9	-0.021835702
172	0x3e779c2c	0.24180669
173	0x3df11833	0.11772194
174	0xbe2df216	-0.1698688
175	0xbd194183	-0.037415992
176	0x3d265827	0.040611412
177	0x3dfc98ac	0.12333807
178	0xbd0cbfb2	-0.034362502
179	0xbdcd8065	-0.10034255
180	0xbdf67820	-0.12034631
181	0xbe209f5f	-0.15685795
182	0x3d17e176	0.03708025
183	0xbddffaae	-0.10936485
184	0xbdda9ecc	-0.10674819
185	0x3c6a7cad	0.014311952
186	0x3dfe7046	0.12423758
187	0x3dc40dd5	0.09572951
188	0x3c311cb1	0.010810063
189	0xbcee6edf	-0.029105602
190	0xbdb799ac	-0.089648575
191	0xbdc5a12d	-0.096498825
192	0x3ce31300	0.02771902
193	0x3cdedd68	0.027205184
194	0xbe62a5db	-0.22133581
195	0xbd2816f8	-0.04103753
196	0xbe325aae	-0.17417404
197	0xbd500453	-0.050785374
198	0xbbfb8403	-0.007675649
199	0x3d1973e5	0.03746404
200	0x3d241a3d	0.040064085
201	0x3d9fb4b2	0.07798137
202	0xbdb057bb	-0.08610483
203	0xbdbac3b7	-0.09119361
204	0xbd84bc7a	-0.064812616
205	0xbe0b67cf	-0.13613819
206	0x3d2d8729	0.042365227
207	0xbe2aa500	-0.16664505
208	0xbe2f613c	-0.17126936
209	0xbda0c1bc	-0.07849452
210	0x3e281d07	0.16417323
211	0x3d6b0ee9	0.057387266
212	0xbe62dac2	-0.22153762
213	0xbabca079	-0.0014391086
214	0x3d51277e	0.051063053
215	0x3d715906	0.05892279
216	0x3e3e3dec	0.18578309
217	0xbd5d6274	-0.05404897
218	0xbdc37681	-0.09544087
219	0x3da98403	0.08277132
220	0x3d94e97b	0.07271095
221	0xbc0b0458	-0.008484922
222	0xbe374c40	-0.17900181
223	0x3e4d0da0	0.20024729
224	0xbdc573fa	-0.096412614
225	0x3ddebc54	0.108757645
226	0x3eb4208d	0.35181084
227	0x3dcb2502	0.09919168
228	0x3c3b1e2a	0.011420766
229	0x3ca8287d	0.020527119
230	0xbe5ed549	-0.2176105
231	0x3e3a870f	0.18215583
232	0xbe74d639	-0.23909844
233	0xbd8bf7a6	-0.068343446
234	0xbe6a0add	-0.22855707
235	0x3b4b3111	0.0031004588
236	0xbeab324e	-0.33436817
237	0x3df4efe9	0.11959822
238	0xbda1cb04	-0.0790005
239	0x3dddb934	0.1082634
240	0x3e22fd25	0.1591688
241	0x3d314295	0.04327639
242	0xbd1bb969	-0.038018618
243	0x3dfe6764	0.12422064
244	0xbe41a22d	-0.18909521
245	0x3e3284c8	0.17433465
246	0xbe0e77af	-0.13912843
247	0xbe085891	-0.13315035
248	0x3ceab5da	0.028651167
249	0x3daea8ed	0.08528314
250	0xbe4ae90a	-0.1981546
251	0x3e28e194	0.16492301
252	0x3d498129	0.049195442
253	0x3e4c2b54	0.19938403
254	0xbe1ae37d	-0.15125842
255	0xbd89431c	-0.06702253

embedder.res_block.3.bias f4 [32]
0	0x3e36c2e9	0.1784779
1	0x3dce1ebe	0.10064457
2	0xbdf9eac4	-0.12202981
3	0x3d17b838	0.03704092
4	0xbb1c7487	-0.0023873167
5	0x3cfdaf4e	0.03096738
6	0xbda7c4bd	-0.08191822
7	0xbdeaa9d2	-0.11458172
8	0xbddc5f22	-0.10760333
9	0xbcd6b973	-0.026211476
10	0x3cd1c51a	0.02560668
11	0xbdbc22d1	-0.09186328
12	0xbcd32c0e	-0.025777843
13	0x3d8021c5	0.06256441
14	0xbdc0d850	-0.09416258
15	0xbe321de7	-0.1739422
16	0x3cb6364e	0.022242691
17	0x3d056581	0.032567505
18	0x3cf882b3	0.03033576
19	0x3df67540	0.120340824
20	0xbe2f39d6	-0.17111906
21	0xbd3ae89c	-0.04563199
22	0x3d7bc770	0.061469495
23	0xbe247168	-0.16058886
24	0x3c7c3cde	0.015395371
25	0xbcd02092	-0.025406156
26	0xbd3722f5	-0.044711072
27	0x3cdf8e62	0.027289573
28	0x3d648030	0.05578631
29	0xbe0a6ada	-0.13517323
30	0x3e139768	0.14413226
31	0xbdbfa6f8	-0.09358019

cnn_blocks.0.proj_in.weight f4 [16, 32]
0	0xbe2ff044	-0.17181498
1	0x3d2b9367	0.04188862
2	0xbe561576	-0.20906624
3	0xbe15a679	-0.14614286
4	0x3e09fa8c	0.13474482
5	0xbdfc9243	-0.12332585
6	0xbcc714df	-0.024301944
7	0xbbfd346a	-0.0077271955
8	0x3d663296	0.056200586
9	0xbdd1dbec	-0.10247025
10	0xbda59dc6	-0.080867335
11	0x3e237afc	0.15964884
12	0x3da20b37	0.07912295
13	0x3c7327df	0.014841049
14	0xbda17d63	-0.07885244
15	0xbe783a2f	-0.24240945
16	0xbb71212c	-0.0036793454
17	0x3e55322d	0.20819922
18	0xbd8b6b3c	-0.06807563
19	0xbe75a6d3	-0.2398942
20	0x3d521b38	0.05129549
21	0x3d8daed5	0.06918112
22	0xba071b62	-0.00051539217
23	0xbe504452	-0.20338562
24	0x3df9c36f	0.12195479
25	0x3d88f09a	0.06686516
26	0x3dc96955	0.098345436
27	0xbe4d6e4e	-0.20061609
28	0x3e6777a9	0.2260424
29	0xbe456b3e	-0.19279191
30	0xbe31853d	-0.17335983
31	0x3e34bfe1	0.17651321
32	0x3da5ab6a	0.08089335
33	0x3e24348d	0.16035672
34	0xbdcf2d7b	-0.101160966
35	0xbdbfb53e	-0.09360741
36	0x3e259b9b	0.1617264
37	0x3db0303f	0.08602952
38	0x3d3e7647	0.046499517
39	0x3df32acc	0.11873397
40	0xbd8ec706	-0.069715545
41	0x3dd5f11b	0.10446378
42	0xbe1c7665	-0.15279539
43	0xbd136cfa	-0.0359926
44	0xbc9c8bc4	-0.019109614
45	0xbe39a09c	-0.18127674
46	0xbb83d227	-0.004022855
47	0x3da49aed	0.08037362
48	0xbe2d9e14	-0.16954833
49	0x3ac077bb	0.001468412
50	0xbe2f8c57	-0.17143379
51	0xbe05dd2b	-0.1307265
52	0x3d584dfb	0.052808743
53	0x3dbc3d52	0.091913834
54	0x3e383019	0.17987098
55	0x3dc0f3ba	0.09421487
56	0x3de57915	0.11204735
57	0x3c0e8e86	0.008700972
58	0x3d3d063a	0.046148516
59	0xbcc5390d	-0.024075055
60	0x3d76a1ce	0.060212903
61	0xbe02cd15	-0.12773545
62	0x3e34aa66	0.17643127
63	0x3e1de4bd	0.15419288
64	0xbd082107	-0.033234622
65	0xbd1f34b9	-0.03886864
66	0xbd808735	-0.06275789
67	0x3dfbcc2a	0.122948006
68	0x3cec5a0c	0.028851531
69	0xbde119a5	-0.109912194
70	0xbe359b74	-0.17735082
71	0xbd976b59	-0.07393522
72	0x3e5393b1	0.20661809
73	0xbd1eab1b	-0.038737398
74	0xbd9220de	-0.07135175
75	0xbbcda749	-0.0062760455
76	0xbda1fd01	-0.07909585
77	0x3e1fc819	0.15603675
78	0x3ad52cf3	0.0016264006
79	0xbe116479	-0.14198484
80	0x3e055139	0.13019265
81	0xbd989a1b	-0.07451268
82	0x3df0b3de	0.11753057
83	0x3df10f22	0.117704645
84	0x3e39b37b	0.18134873
85	0xbd54ecfe	-0.051983826
86	0xbb94aff2	-0.004537576
87	0x3dc71a51	0.09721816
88	0xbdab9223	-0.08377483
89	0x3dc89d12	0.09795584
90	0xbe03a7a3	-0.12856917
91	0xbdec6725	-0.11543111
92	0xbe137132	-0.1439865
93	0xbe4c1587	-0.19930087
94	0x3e66a810	0.22525048
95	0xbd5d2c72	-0.053997464
96	0xbce66b8c	-0.028127454
97	0xbd30c7c5	-0.043159265
98	0xbdf255c8	-0.11832768
99	0x3d1a3c53	0.037655186
100	0xbbd2ea8f	-0.006436653
101	0xbd842cc8	-0.06453854
102	0x3e10949a	0.14119187
103	0xbd210964	-0.039315596
104	0xbda37779	-0.07981772
105	0xbe0bda09	-0.13657393
106	0x3d54c36a	0.051944174
107	0x3dfda7e4	0.12385538
108	0xbdbab722	-0.09116961
109	0x3db5a7ca	0.08869894
110	0x3dda97f7	0.10673516
111	0x3e03d5fd	0.12874599
112	0x3e2d6053	0.16931276
113	0x3e3a11f8	0.18170917
114	0xbca56652	-0.020190392
115	0x3d060e76	0.032728635
116	0xbde671eb	-0.11252197
117	0xbdf77b03	-0.120840095
118	0x3dcaefdf	0.09909033
119	0x3c4c8183	0.01248205
120	0xbe573b5c	-0.21018738
121	0xbe01ff2f	-0.12695001
122	0xbdda5091	-0.10659898
123	0x3cc648f3	0.024204707
124	0xbd9d079b	-0.07667466
125	0xbe3667dc	-0.17813057
126	0xbcc9aa5c	-0.024617366
127	0x3dc85f5c	0.09783813
128	0x39972e00	0.00028835237
129	0xbe45440c	-0.19264239
130	0x3c0d1741	0.008611501
131	0x3d57820a	0.05261425
132	0x3d848e85	0.06472496
133	0x3e133366	0.14375076
134	0xbe0686fa	-0.13137427
135	0x3cb19704	0.021678455
136	0xbe0d6360	-0.1380744
137	0xbe50626a	-0.20350042
138	0xbdcccdf8	-0.10000223
139	0x3dc26cd1	0.09493411
140	0x3d0c3831	0.034233276
141	0xbdc6aa3a	-0.09700437
142	0x3de63337	0.11240237
143	0xbd04efad	-0.032455135
144	0xbe3e758a	-0.18599525
145	0x3c88a4e7	0.016680194
146	0x3e0a8b1f	0.13529633
147	0xbe4db6aa	-0.20089212
148	0xbe148733	-0.145047
149	0x3aae77e4	0.0013310877
150	0xbdec927b	-0.115513764
151	0xbd28248e	-0.041050486
152	0xbe2ecd64	-0.17070538
153	0xbe0e0aef	-0.13871358
154	0x3d847fc4	0.06469682
155	0x3d9bad84	0.07601455
156	0x3e023d6a	0.1271874
157	0x3d2d13b0	0.042255104
158	0x3dc6f09f	0.097138636
159	0x3d66b864	0.056328192
160	0x3c1bba7c	0.009504911
161	0xbc03e698	-0.008050583
162	0x3c68c20b	0.01420642
163	0xbd39f0b8	-0.045395583
164	0xbdc686f6	-0.096937105
165	0x3cbc8f3c	0.023017518
166	0x3dc20ad7	0.09474724
167	0xbde31f1b	-0.11089917
168	0xbe13a0cc	-0.14416808
169	0xbde31696	-0.11088292
170	0xbe055296	-0.13019785
171	0x3d780d80	0.06055975
172	0xbe29ee94	-0.16594917
173	0x3de4595f	0.11149859
174	0x3e2968a5	0.16543825
175	0x3cb7eec6	0.022452723
176	0xbd637a28	-0.05553642
177	0xbe00005b	-0.12500136
178	0xbdcc27d4	-0.09968534
179	0xbe03a7e7	-0.12857018
180	0x3d0e4b72	0.03473992
181	0xbe0835f3	-0.1330183
182	0x3dd2e08e	0.10296737
183	0xbce5de7a	-0.028060187
184	0x3c4ca9c0	0.012491643
185	0x3de2331e	0.11044906
186	0xbe01d47c	-0.12678713
187	0xbd4ce409	-0.05002216
188	0xbd359ecf	-0.044340905
189	0x3e1b9d42	0.15196708
190	0x3d5675da	0.052358486
191	0x3e03b515	0.12862046
192	0x3d48dc79	0.049038384
193	0x3cda2f51	0.02663389
194	0xbdb65eb4	-0.08904782
195	0x3e14c851	0.1452954
196	0xbdb47310	-0.08811009
197	0xbd1fce68	-0.039015204
198	0x3d98c883	0.074601196
199	0xbda82639	-0.082104154
200	0x3d2da16b	0.04239027
201	0xbdcc0016	-0.09960954
202	0x3e0fce30	0.14043498
203	0xbd8a3854	-0.06749025
204	0x3e609f6d	0.21935816
205	0xbde2e216	-0.11078279
206	0xbdd8e1f4	-0.10589972
207	0x3e1690cc	0.14703673
208	0xbccabe46	-0.024748933
209	0xbd631946	-0.055444025
210	0xbdcfb8ac	-0.10142645
211	0xbd39d0f0	-0.045365274
212	0x3d85d8b9	0.06535477
213	0xbcf2639d	-0.029588515
214	0x3c06b210	0.008221164
215	0x3d8a40ff	0.06750678
216	0xbe35b5f8	-0.17745197
217	0xbe2b6658	-0.1673826
218	0x3d9da5bd	0.07697628
219	0xbe6396fe	-0.22225568
220	0x3e48468d	0.19558163
221	0x3e1f52c5	0.15558918
222	0x3cdb41f1	0.026764842
223	0x3cdf8f77	0.027290089
224	0x3dbd1d12	0.0923406
225	0xbd9ccb47	-0.076559596
226	0x3e0e3cdd	0.13890405
227	0x3dc5172e	0.09623562
228	0x3e3df238	0.1854943
229	0xbba5fdf0	-0.005065672
230	0xbcd6df04	-0.026229389
231	0x3e36ea0b	0.17862718
232	0xbd4350d7	-0.047684517
233	0x3bbef4b1	0.0058275093
234	0x3dcf9efc	0.10137746
235	0x3e0f00cc	0.13965148
236	0x3cc70b44	0.024297364
237	0x3d4dbc66	0.0502285
238	0xbda8ae45	-0.08236364
239	0xbd8732bb	-0.06601473
240	0xbdea42fe	-0.11438559
241	0xbdcf7bc7	-0.101310305
242	0x3e38619b	0.18005984
243	0x3ddba43d	0.10724685
244	0x3e7a9fc3	0.24475007
245	0x3de7ff82	0.11328031
246	0xbdf18849	-0.117935725
247	0xbd375159	-0.044755314
248	0xbca671c7	-0.020317925
249	0x3d9248e0	0.07142806
250	0xbda11fd0	-0.07867396
251	0xbc070cde	-0.008242814
252	0x3e2939a4	0.16525894
253	0xbd787e46	-0.0606673
254	0xbd982a4d	-0.07429943
255	0x3e04d405	0.12971504

cnn_blocks.0.proj_in.bias f4 [16]
0	0x3df7e8ab	0.12104925
1	0xbde8cabf	-0.11366796
2	0xbdb95bec	-0.09050736
3	0xbe242515	-0.1602977
4	0xbd9015e7	-0.070354275
5	0x3d001daf	0.03127831
6	0xbdbc734d	-0.092016794
7	0x3dab0a41	0.08351565
8	0xbe19667f	-0.14980505
9	0x3d42fe55	0.04760583
10	0x3d80ee30	0.06295431
11	0xbe116c24	-0.14201409
12	0xbb915a51	-0.0044358154
13	0x3de56639	0.11201138
14	0x3db89e75	0.09014598
15	0x3d270e0a	0.040784873

cnn_blocks.0.convs.0.weight f4 [16, 16, 3, 3]
0	0xbc5567c4	-0.013025228
1	0x3e07352a	0.13203874
2	0x3d971daa	0.07378705
3	0xbd851e43	-0.064999126
4	0x3aa5635c	0.0012618112
5	0x3df7b10b	0.12094315
6	0xbb8429a9	-0.0040332866
7	0xbd97eb66	-0.074179456
8	0xbe1a8697	-0.15090404
9	0xbd98da91	-0.07463563
10	0xbdb6b776	-0.08921711
11	0x3c3261b7	0.010887555
12	0x3dfc26b6	0.12312071
13	0xbda2a3e3	-0.07941415
14	0x3d2c5776	0.042075597
15	0x3d4da88b	0.050209563
16	0xbd6578f1	-0.05602354
17	0xbda05f29	-0.0783065
18	0x3d1c69ef	0.038186964
19	0x3d3446f8	0.044012994
20	0xbd56ef23	-0.052474152
21	0x3d6d9c95	0.058010656
22	0xbdb47dc5	-0.08813051
23	0x3dca17b8	0.09867805
24	0x3d58390d	0.052788783
25	0x3e0064b9	0.12538423
26	0xbcaa65e4	-0.020800538
27	0xbc4ae4a7	-0.0123836165
28	0x3d606d3b	0.05479167
29	0x3d6979f7	0.05700108
30	0x3cf049c3	0.029332047
31	0x3d1e81b0	0.0386979
32	0x3ca813fa	0.020517338
33	0xbcffdbb8	-0.0312327
34	0x3d481a15	0.048853
35	0xbdb4f0ca	-0.08834989
36	0x3dcb144d	0.099159814
37	0x3db08d19	0.08620662
38	0x3dcafd42	0.09911586
39	0xbce443f7	-0.02786444
40	0x3d878274	0.06616679
41	0xbe04ffb4	-0.12988168
42	0x3d7f831b	0.06238089
43	0x3cb32442	0.021867875
44	0x3c477b78	0.012175433
45	0xbda7e2a9	-0.08197529
46	0x3ac0bfb0	0.0014705565
47	0x3ba141ae	0.0049211597
48	0x3db9603d	0.09051559
49	0x3dc67478	0.096901834
50	0x3d41ee98	0.04734668
51	0x3d216a2f	0.039407905
52	0x3a92b890	0.001119392
53	0x3dbd474a	0.09242113
54	0x3dfb21fb	0.12262341
55	0x3d29ca1c	0.041452512
56	0xbd9bff2c	-0.076170295
57	0xbdc8248a	-0.09772594
58	0xbab6ab23	-0.0013936501
59	0xba43a835	-0.00074637245
60	0x3c898513	0.016787088
61	0x3d3843dd	0.044986594
62	0x3dd90c56	0.10598056
63	0xbd0e6122	-0.0347606
64	0x3e02ef2e	0.12786552
65	0x3e292d2a	0.16521135
66	0x3d8ee1e2	0.069766775
67	0x3dbecbb4	0.09316197
68	0xbe00402a	-0.12524477
69	0x3dbc3d13	0.091913365
70	0x3d62118a	0.055192508
71	0xbd45ce89	-0.04829267
72	0xbd359ebc	-0.044340834
73	0x3d7899bf	0.0606935
74	0x3d5db4b5	0.054127414
75	0xbd82da8b	-0.0638934
76	0xbd58306f	-0.052780565
77	0xbd3672ee	-0.0445432
78	0x3dc3eb13	0.09566321
79	0xbcd6ce37	-0.026221378
80	0x3b058d06	0.0020378246
81	0xbd11d95c	-0.03560768
82	0x3bf418c0	0.0074492395
83	0x3d9916db	0.074750625
84	0xbde8b7f5	-0.11363212
85	0x3e0dd392	0.13850239
86	0x3d294f70	0.041335523
87	0x3caf4c0b	0.021398565
88	0x3cb782c3	0.02240122
89	0xbd8dd105	-0.06924633
90	0x3cb19d8b	0.021681568
91	0x3d3bd259	0.0458549
92	0x3ca12955	0.019673029
93	0xbd47f955	-0.048821766
94	0xbbf99831	-0.0076170196
95	0xbd3c7649	-0.046011243
96	0xbd5faf6d	-0.05461066
97	0xbda27312	-0.07932104
98	0x3d1eb356	0.038745247
99	0xbdbf5be2	-0.09343697
100	0x3e15c44e	0.14625666
101	0x3da419e3	0.0801275
102	0xbc11be66	-0.008895492
103	0xbab1cd77	-0.0013565262
104	0xbd852a36	-0.06502192
105	0xbaac3122	-0.0013137201
106	0x3d596af6	0.05308052
107	0x3c8635d2	0.016383085
108	0x3da4a4ae	0.08039223
109	0x3d444b57	0.047923412
110	0xbcb3b82a	-0.021938402
111	0xbcb4d0f5	-0.022072295
112	0x3da9ab83	0.082846664
113	0x3d719f1e	0.058989637
114	0xbd11cbbb	-0.035594683
115	0x3c0359b2	0.0080169905
116	0xbcc6da75	-0.02427409
117	0xbd503a8f	-0.050837096
118	0x3d44bbe1	0.048030738
119	0xbc89b46e	-0.016809668
120	0x3d941a6e	0.072316036
121	0xbc9490a2	-0.018135373
122	0xbdb4f73e	-0.0883622
123	0x3dbdc10a	0.09265335
124	0xbdc92f28	-0.098234475
125	0xbdc50f77	-0.0962209
126	0x3b3fc5f5	0.0029262279
127	0x3cf13848	0.029445782
128	0x3d231d7b	0.039823037
129	0xbdfade9c	-0.122494906
130	0x3d20c95b	0.039254528
131	0x3d2200b9	0.03955147
132	0xbe08c072	-0.13354662
133	0x3c831cee	0.016005006
134	0x3e12f56b	0.14351432
135	0xbb350160	-0.0027619228
136	0xbdc2ec0b	-0.09517678
137	0xbe4d1f1c	-0.20031399
138	0xbcea0e7d	-0.028571362
139	0x3d226334	0.03964539
140	0x3e148ebf	0.14507578
141	0xbd3de515	-0.046361048
142	0x3ca42a38	0.020039663
143	0xbc0e908c	-0.008701455
144	0xbd485aa7	-0.048914578
145	0x3e0549a0	0.13016367
146	0x3d107d67	0.035275843
147	0x3d95db87	0.07317262
148	0x3d44cbed	0.04804604
149	0x3d41127f	0.04713678
150	0x3aa6147a	0.0012670897
151	0x3c5b2fd8	0.013378106
152	0x3dc10761	0.094252355
153	0x3d1d41ff	0.038393017
154	0x3d135a7b	0.03597496
155	0xbcd22b4b	-0.02565541
156	0xbc08167e	-0.008306144
157	0xbd67cd53	-0.056592297
158	0x3dff5ec2	0.124692455
159	0xbb76166a	-0.003754998
160	0x3d45b604	0.048269287
161	0xbd476933	-0.04868431
162	0xbc33ba38	-0.010969691
163	0xbd82141c	-0.06351492
164	0xbdb58248	-0.0886274
165	0x3e128e36	0.14312062
166	0x3da71a4f	0.08159315
167	0x3ddbc2f2	0.10730542
168	0x3e0d8adf	0.13822506
169	0x3dc6843e	0.09693192
170	0x3b29ded0	0.002592016
171	0x3d88ddb5	0.06682912
172	0x3d257e03	0.040403377
173	0xbc5e3d2f	-0.013564392
174	0xbd9b4842	-0.075821415
175	0x3d40fef9	0.04711816
176	0xbc024684	-0.007951383
177	0x3d2b3c7f	0.04180574
178	0x3dda1f8b	0.106505476
179	0xbd82c0fe	-0.063844666
180	0xbd857be2	-0.065177694
181	0x3da85f09	0.082212515
182	0x3cf85e62	0.030318443
183	0xbd7784ba	-0.060429312
184	0x3d825467	0.06363755
185	0xbdb9fa1c	-0.09080908
186	0x3bfb5d9b	0.0076710708
187	0x3c894f2c	0.016761385
188	0x3d95ed1c	0.07320616
189	0x3d80d9c6	0.06291537
190	0x3b35a41c	0.0027716225
191	0x3d49cece	0.04926949
192	0xba5288c8	-0.0008031246
193	0xbdd63634	-0.10459557
194	0xbd54d3ab	-0.051959675
195	0xbd91065e	-0.070812926
196	0x3dafe84d	0.0858923
197	0xbd6fcf6c	-0.058547422
198	0xbbb515bc	-0.0055262726
199	0x3c4fef6d	0.012691361
200	0xbcbcf2c5	-0.02306498
201	0xbd6d809e	-0.057983987
202	0x3cb032ca	0.021508593
203	0x3c548443	0.012970987
204	0x3cf7fd86	0.030272257
205	0x3ca8f357	0.020623846
206	0x3ccb3c99	0.024809169
207	0x3e1a49e2	0.15067247
208	0xbd40e1ad	-0.04709022
209	0xbd155925	-0.036461968
210	0xbe07c1fd	-0.13257594
211	0xbc00c8f3	-0.00786041
212	0x3d8cc671	0.06873787
213	0x3dd6a748	0.10481125
214	0xbbfdb034	-0.0077419523
215	0xbd9a8867	-0.07545548
216	0x3d29db26	0.04146876
217	0xbc64c559	-0.013963067
218	0x3d0f3400	0.0349617
219	0x3db1d21f	0.086826555
220	0x3d8f34a2	0.06992461
221	0x3e48ed27	0.19621716
222	0x3e126048	0.14294541
223	0x3ca9df55	0.020736376
224	0x3dadc1a2	0.08484198
225	0xbae69b15	-0.0017593825
226	0xbd1e35aa	-0.038625397
227	0xbdb15530	-0.08658826
228	0xbd79912a	-0.060929455
229	0xbc2ecf47	-0.010669536
230	0xbd9b2d92	-0.07577051
231	0x3db67ecd	0.08910904
232	0xbe1159cb	-0.1419441
233	0xbc31459e	-0.010819821
234	0xbd1153f4	-0.035480455
235	0x3d05a161	0.032624606
236	0x3c74b27a	0.01493513
237	0x3cbd7db6	0.023131233
238	0x3dad679e	0.08467029
239	0x3ad9b241	0.001660891
240	0xbd1dfdee	-0.038572244
241	0x3caff7b9	0.021480428
242	0xbe0e6553	-0.1390584
243	0x3c9eba3c	0.019375913
244	0xbdb5bfa9	-0.08874447
245	0xbcd043e2	-0.025422994
246	0xbdda4159	-0.10656995
247	0x399b016e	0.0002956497
248	0xbcefee09	-0.029288309
249	0xbdee01a3	-0.11621406
250	0xbca1c58e	-0.019747522
251	0xbddc47fe	-0.10755919
252	0xbd449217	-0.047990885
253	0xbdc43538	-0.09580463
254	0x3daee681	0.08540059
255	0xbda09580	-0.07841015

cnn_blocks.0.convs.0.bias f4 [16]
0	0x3d1ffa7e	0.039057247
1	0x3d037224	0.032091275
2	0xbd52ea56	-0.05149301
3	0x3d751a60	0.059839606
4	0x3cc20148	0.023682252
5	0x3cdcae3f	0.026938556
6	0x3d6810d8	0.05665669
7	0xbd22b214	-0.03972061
8	0xbcf52c82	-0.02992845
9	0xbd83baa8	-0.06432086
10	0x3c1338e9	0.008985736
11	0xbd2bba56	-0.04192575
12	0xbd66d30d	-0.056353617
13	0xbd41dce5	-0.047329802
14	0xbd45255d	-0.048131336
15	0xbc67617f	-0.014122366

cnn_blocks.0.convs.1.weight f4 [16, 16, 3, 3]
0	0x3da4cbec	0.080467075
1	0x3d509d29	0.05093113
2	0x3d912c20	0.07088494
3	0x3d09decf	0.033659752
4	0xbcad6f3a	-0.021171201
5	0x3c3e994a	0.011633227
6	0x3dabc516	0.083872005
7	0x3c366265	0.0111318575
8	0xbe00bd3e	-0.1257219
9	0xbbcdb950	-0.0062781945
10	0x3de426dd	0.11140225
11	0xbce580c9	-0.028015511
12	0x3cb6bb10	0.022305995
13	0x3d96e812	0.07368483
14	0x3d471226	0.048601292
15	0xbccd5450	-0.025064617
16	0x3cee8d9b	0.029120257
17	0xbd8ef86c	-0.069809765
18	0x3d2860e4	0.041108027
19	0x3d57f107	0.052720096
20	0x3d652be7	0.05595007
21	0xbc5a28c1	-0.013315381
22	0x3e0006c3	0.1250258
23	0x3a08732d	0.0005205151
24	0xbde9fb2d	-0.11424861
25	0xbd942da8	-0.07235271
26	0x3e2915d1	0.16512229
27	0xbd8a97f7	-0.06767266
28	0x3d5cb97f	0.05388784
29	0xbd28aef3	-0.04118247
30	0x3dbc01f2	0.091800585
31	0x3c734c50	0.014849737
32	0xbd9ad8f2	-0.0756091
33	0xbd96c5f5	-0.07361976
34	0xbdac66ee	-0.0841807
35	0xbd182e42	-0.03715349
36	0xbbdde4ef	-0.006771676
37	0x3cbe92c3	0.02326334
38	0x3b97acc6	0.0046287505
39	0x3ac42330	0.00149641
40	0x3d822c68	0.06356126
41	0x3df13a81	0.11778737
42	0x3bc8768e	0.0061176484
43	0xbdf05380	-0.11734676
44	0x3df8b36a	0.121435955
45	0x3df82ce1	0.12117935
46	0xbcba7cac	-0.022764526
47	0xbde03f0f	-0.109495275
48	0x3bc763a6	0.006084877
49	0x3c0aba2e	0.00846724
50	0xbdc89b24	-0.09795216
51	0xbe2f9e63	-0.17150263
52	0xbbe952af	-0.0071204524
53	0xbc7e03a5	-0.015503799
54	0xbde87411	-0.11350263
55	0xbcd3740b	-0.02581217
56	0x3e2f7711	0.17135264
57	0x3cc7b142	0.024376515
58	0x3cb2604f	0.02177444
59	0xbd472606	-0.048620246
60	0x3d058d56	0.03260549
61	0x3d5abc31	0.05340213
62	0xbde30d10	-0.11086476
63	0xbe0026cf	-0.12514804
64	0xbde6dacc	-0.11272201
65	0xbe57950d	-0.21052952
66	0xbe67b3ec	-0.22627228
67	0xbc42d68d	-0.011891973
68	0x3da5561a	0.08073063
69	0xbbc9338b	-0.0061401776
70	0x3cbe02ca	0.02319469
71	0xb9eac637	-0.0004477964
72	0x3d3bd63d	0.04585861
73	0x3ca86882	0.020557646
74	0x3e114d39	0.14189614
75	0xbb89192e	-0.00418391
76	0x3d2ba144	0.04190184
77	0xbce75c23	-0.028242176
78	0x3d6d2dce	0.05790501
79	0xbda68fd9	-0.081329055
80	0x3d2af666	0.04173889
81	0x3d248a50	0.040170968
82	0xbdc8aa5e	-0.0979812
83	0xbd8c6444	-0.06855062
84	0xbd837b9b	-0.0642006
85	0x3dab0bdd	0.08351872
86	0xbc194ed7	-0.009357176
87	0x3cecc74e	0.02890363
88	0xbb3fc935	-0.0029264216
89	0xbd542a66	-0.051798247
90	0xbd65971f	-0.056052323
91	0x3d801e12	0.062557355
92	0x3dfa10a7	0.122102074
93	0x3dfdc9c5	0.12392
94	0x3e061eac	0.13097638
95	0x3d85a54c	0.065256685
96	0x3c4cf455	0.012509425
97	0x3b1bcc95	0.0023773063
98	0xbd1de3a2	-0.038547166
99	0x3b9f74f6	0.0048662378
100	0x3dab4b68	0.08363992
101	0xbd5c35df	-0.053762313
102	0x3df84cba	0.121240094
103	0x3c33bfb0	0.010970995
104	0xbbb29d15	-0.0054508545
105	0xbdabe263	-0.08392789
106	0x3e050882	0.12991527
107	0xbd0857f5	-0.033287007
108	0xbdc150bd	-0.09439228
109	0x3de9ef78	0.11422628
110	0xbd2ed084	-0.042679325
111	0xbdb2d46e	-0.08731924
112	0xbdf02688	-0.11726099
113	0x3d9c6e60	0.0763824
114	0x3d3044d3	0.043034386
115	0xbe14e980	-0.14542198
116	0x3d9a55bd	0.075358845
117	0x3d303222	0.04301656
118	0xbdb14f08	-0.08657652
119	0x3d8f5c7a	0.070000604
120	0xbd4f05c0	-0.050542593
121	0x3db86c8d	0.090050794
122	0xbc98b511	-0.018641027
123	0x3aecca36	0.0018065635
124	0xbdb557ce	-0.08854638
125	0x3d4c790d	0.04992013
126	0x39b4b644	0.00034468074
127	0xbd2ebc1e	-0.04265987
128	0x3cdbd936	0.026836973
129	0x3d23cc3f	0.039989706
130	0x3dc7886c	0.09742817
131	0x3e06afc2	0.13152984
132	0x3d504444	0.050846353
133	0x3dac439c	0.08411333
134	0x3d2d2433	0.04227085
135	0xbc658ec1	-0.014011086
136	0x3d483513	0.04887874
137	0x3d6c7374	0.057727292
138	0xbd9917c7	-0.07475238
139	0x3d24835c	0.040164337
140	0xbc4e00f7	-0.012573472
141	0xbd67701a	-0.056503393
142	0xbdb2bb80	-0.08727169
143	0x3d5e17bc	0.054221854
144	0x3d89a828	0.067215264
145	0x3c5412c1	0.012943924
146	0xbcc9e44c	-0.024644993
147	0x3d924842	0.07142688
148	0x3b46a7a2	0.003031232
149	0x3dec9a5b	0.115528785
150	0xbd9b2c87	-0.07576852
151	0xbd5b4b86	-0.05353882
152	0xbd8b6652	-0.068066254
153	0xbcf0110f	-0.02930501
154	0xbd7ffbc9	-0.06249598
155	0x3c9f91c6	0.01947869
156	0xba6e8d27	-0.0009100013
157	0xbb1aa2d2	-0.0023595584
158	0x3c7717ad	0.015081328
159	0xbd2ea832	-0.042640872
160	0x3da0855f	0.078379385
161	0x3db2401b	0.087036334
162	0x3df0de10	0.11761105
163	0x3df52eeb	0.119718395
164	0xbc017f5b	-0.007903899
165	0x3d90c34a	0.070684984
166	0xbd60781c	-0.054802045
167	0x3c4d9ab8	0.012549095
168	0x3dd14a45	0.10219244
169	0xbd6d6fe1	-0.057968024
170	0xbe35eca8	-0.17766058
171	0x3e66f1a4	0.22553116
172	0x3d58361d	0.05278598
173	0x3ce76c6b	0.02824994
174	0x3d1ecf70	0.038772047
175	0xbbc21078	-0.0059223734
176	0x3d151db1	0.03640527
177	0xbe199ef2	-0.15002039
178	0x3dddcf15	0.108305134
179	0x3e0cf613	0.13765745
180	0x3caf6a28	0.021412924
181	0xbc010e8c	-0.007877003
182	0xbd175ede	-0.036955707
183	0x3dbdfe82	0.09277059
184	0x3db18a19	0.08668918
185	0x3df797d9	0.120895095
186	0xbdf26029	-0.11834747
187	0x3e06d8d0	0.13168645
188	0x3da00c9a	0.078149036
189	0xbd8281cc	-0.06372413
190	0xbc70ecdd	-0.01470491
191	0xbd1964bd	-0.037449587
192	0x3d75d324	0.060015813
193	0xbdbcede5	-0.09225062
194	0xbdad26a2	-0.08454634
195	0xbdb026d3	-0.08601155
196	0x3da922a0	0.08258557
197	0x3d4dbf20	0.0502311
198	0xbdc8a48e	-0.09797011
199	0xbd3a6ba2	-0.045512803
200	0xbd3c84c2	-0.046025045
201	0x3db1fd51	0.086908944
202	0xbd10d55d	-0.03535973
203	0xbd31a6c9	-0.04337195
204	0x3d084f43	0.033278715
205	0x3ca65531	0.020304294
206	0xbd807c88	-0.062737525
207	0xbddb1df0	-0.106990695
208	0x3d8fb3b3	0.07016697
209	0xbdcd6b8f	-0.10030281
210	0xbd970bae	-0.073752746
211	0x3e285338	0.16437995
212	0xbd129ace	-0.035792165
213	0x3aa14bc0	0.00123059
214	0x3cef717a	0.029228915
215	0x3c342410	0.010994926
216	0x3cb3637f	0.02189803
217	0x3cd66213	0.026169812
218	0x3d7f198d	0.062280226
219	0xbddee51d	-0.10883544
220	0xbc05e599	-0.008172416
221	0xbcd3b904	-0.025845058
222	0xbd187c80	-0.037228107
223	0xbc9fbb46	-0.019498479
224	0xbd39dd49	-0.04537705
225	0x3cb67e4f	0.022277026
226	0x3d521cfe	0.05129718
227	0x3dca8c61	0.098900564
228	0x3d1a3f0b	0.03765778
229	0xbc3a6cc5	-0.011378472
230	0xbd3b6969	-0.045754824
231	0x39eabc64	0.0004477232
232	0xbdc5b7be	-0.09654187
233	0xbd899a10	-0.06718838
234	0x3b0a1e8b	0.0021075334
235	0xbc819bc2	-0.015821341
236	0x3d11c624	0.035589352
237	0xbdd1d175	-0.10245029
238	0xbcf029ef	-0.02931687
239	0xbd0dfa46	-0.034662507
240	0xbe044097	-0.12915264
241	0x3d1e4286	0.03863766
242	0x3c8c1d50	0.017103821
243	0x3d4d9584	0.050191417
244	0xbcb6a059	-0.022293257
245	0xbd2c71bb	-0.04210065
246	0xbd4ef308	-0.05052474
247	0x3d1a751d	0.037709344
248	0x3e1086de	0.14113948
249	0xbd0d4b96	-0.034495912
250	0xbd01767f	-0.031607147
251	0xbd904ced	-0.070459224
252	0x3d7c1f13	0.061553072
253	0x3dc91bb1	0.09819735
254	0xbc8d4469	-0.017244535
255	0x3dc3070e	0.0952283

cnn_blocks.0.convs.1.bias f4 [16]
0	0x3d46ad35	0.048505027
1	0x3d8d8bb4	0.06911412
2	0xbc8d9dce	-0.017287161
3	0xbd97ffd1	-0.0742184
4	0xbd0c6017	-0.034271326
5	0x3bdc7534	0.006727839
6	0x3d4cc0ab	0.04998843
7	0x3d5a4fbd	0.0532987
8	0x3d600f1d	0.054701913
9	0xbd918bb9	-0.07106728
10	0xbd6a41fa	-0.057191826
11	0x3da431e5	0.08017329
12	0xbb45cb9d	-0.0030181177
13	0xbd0423ae	-0.03226059
14	0x3d49529f	0.04915106
15	0x3d3da89c	0.046303377

cnn_blocks.0.norms.0.weight f4 [16]
0	0x3f7bad89	0.9831167
1	0x3f81c66a	1.0138676
2	0x3f754227	0.95804065
3	0x3f84bab9	1.0369483
4	0x3f84381d	1.0329624
5	0x3f74462a	0.9541956
6	0x3f8271ac	1.019094
7	0x3f7b0373	0.9805214
8	0x3f7c0163	0.98439616
9	0x3f80015b	1.0000414
10	0x3f720744	0.94542336
11	0x3f81010f	1.0078448
12	0x3f7836f6	0.96958864
13	0x3f7d9fb6	0.99071825
14	0x3f7f5ba7	0.99749225
15	0x3f7f0acb	0.99625844

cnn_blocks.0.norms.0.bias f4 [16]
0	0xbdb21194	-0.08694759
1	0xbcdafea4	-0.02673275
2	0xbd0202f8	-0.031741112
3	0xbb1f9556	-0.0024350486
4	0xbd8021b6	-0.0625643
5	0xbdaadf9a	-0.0834343
6	0xbd5399a5	-0.0516602
7	0xbcf109d7	-0.029423637
8	0xbcecb5e6	-0.02889533
9	0xbd51e650	-0.051245034
10	0xbd172c06	-0.03690722
11	0xbd799e58	-0.060942024
12	0xbe13567d	-0.14388461
13	0xbcff1080	-0.031135798
14	0xbdb6e299	-0.08929939
15	0xbcbd87c5	-0.023136029

cnn_blocks.0.norms.0.running_mean f4 [16]
0	0xbcb198e6	-0.021679353
1	0xbc99fed9	-0.018798279
2	0xbdd27300	-0.10275841
3	0x3d66ffc9	0.05639628
4	0x3e1a7ace	0.15085909
5	0xbd28b454	-0.0411876
6	0xbcdd9901	-0.027050497
7	0x3c956a1f	0.018239079
8	0xbd475272	-0.04866261
9	0xbd1fc2ad	-0.039004017
10	0xbb532863	-0.0032220117
11	0xbde0eb57	-0.109823875
12	0xbd3cdaf0	-0.046107233
13	0xbc824d26	-0.015905928
14	0xbdc7bb02	-0.09752466
15	0x3e164232	0.14673689

cnn_blocks.0.norms.0.running_var f4 [16]
0	0x3d2607c2	0.040534742
1	0x3d6f7e1a	0.05846987
2	0x3d09bb14	0.033625677
3	0x3d33e063	0.043915164
4	0x3d06182a	0.03273789
5	0x3d3f10da	0.04664693
6	0x3d4f6281	0.05063105
7	0x3d7fb9bc	0.06243299
8	0x3d29c203	0.04144479
9	0x3d97ebda	0.07418032
10	0x3d2fee27	0.04295173
11	0x3cf41462	0.029794876
12	0x3d27d558	0.040974945
13	0x3d5b3b6e	0.053523473
14	0x3d4b3826	0.049614094
15	0x3d1d3e40	0.038389444

cnn_blocks.0.norms.1.weight f4 [16]
0	0x3f8d50db	1.10403
1	0x3f8637e6	1.0485809
2	0x3f88a044	1.0673909
3	0x3f82fd23	1.0233501
4	0x3f8513a5	1.039662
5	0x3f8799bc	1.0593791
6	0x3f8c2f63	1.0951961
7	0x3f8cc8f1	1.0998822
8	0x3f892098	1.0713072
9	0x3f85fe00	1.046814
10	0x3f8690be	1.0512922
11	0x3f8c78ce	1.0974367
12	0x3f865461	1.04945
13	0x3f8482d1	1.0352422
14	0x3f8fb494	1.1226983
15	0x3f81008a	1.007829
