checkpoints/abl_cnn_only/best_model.pt (torch, 292187 bytes, 146 tensors)

embedder.feature_projections.0.weight f4 [32, 1]
00000000: 43af 863f 25ee 78bf 2008 0e3f f397 a83f
00000010: dd6b 0abf 578e cd3d fb4d c63e cd41 103f
00000020: 8511 16bf 98b0 8cbf 696b 1e3f 3efc 6d3e
00000030: 3f6b e0be 76f2 953f 5e04 983f de01 a4be
00000040: 335b 2fbe 5444 6dbf 6a8d 07be 2a06 50bf
00000050: af39 5f3f d1bc 38bf 4952 553f 2b27 7abf
00000060: c9f1 aa3d b20a 86be 8ec4 463f 1ce1 41bf
00000070: d6b9 803e e0f7 263e 364b 1b3e 6c09 743f
1.0522236 -0.9723838 0.5548115 1.3171371 -0.54070836 0.10036915 0.3873137 0.56350404
-0.5862048 -1.0991392 0.61882645 0.23240754 -0.43831822 1.1714618 1.1876333 -0.32032675
-0.17124633 -0.92682385 -0.13237539 -0.81259406 0.87197393 -0.7216311 0.8332868 -0.97716016
0.08346898 -0.26180035 0.7764367 -0.75734115 0.25141782 0.16305494 0.1516541 0.95326877

embedder.feature_projections.0.bias f4 [32]
00000000: 1fe6 283e 8979 083f 827d cc3e 58c2 afbd
00000010: dd7b 10bf 5915 fbbe f2b2 2a3d 1e22 71bf
00000020: 0020 013e b947 30bf 6d3e 03bf 2a11 bc3c
00000030: 1119 1a3f c4f6 4fbe 9851 073f d032 6a3f
00000040: df6f b5be 5af5 7abf a510 a1be 08b1 24bf
00000050: 11d5 db3e dcbe 30bf face 6bbf f8b7 7d3f
00000060: 5ab9 b03e 5c6c b3be 3dac 15bf bb4a 0ebf
00000070: 6e7d ee3e a9d9 a43e 937b 423f a7f6 67bf
0.16494034 0.5331045 0.39939505 -0.0858199 -0.56439 -0.49039724 0.04167456 -0.94192684
0.12609863 -0.6885944 -0.5126713 0.022957403 0.601945 -0.20308977 0.5285888 0.91483784
-0.35436913 -0.98030627 -0.3145801 -0.6433263 0.42935994 -0.6904123 -0.92112696 0.9910884
0.34516412 -0.3504361 -0.5846594 -0.5558278 0.4658007 0.32197312 0.7596981 -0.90610737

embedder.feature_projections.1.weight f4 [32, 1]
00000000: 7cd7 4c3f 09cb 6b3f 7c9d 5dbe 1fc3 db3e
00000010: 31d6 7cbe 8e42 54bf ccfb cdbc 01a1 00bf
00000020: f305 f43e e000 d6be ea3b 0f3e 5689 de3e
00000030: 2738 353f f785 2e3f d40e fe3e 1c91 42be
00000040: 845f 303f 20eb 2dbe 8d11 61bf f3e7 c2be
00000050: 7f89 b4be 340d 13bd 8cc4 37bf 40a6 17be
00000060: c1b7 113f adff 533f acea 5bbe af8a b13d
00000070: 2178 0a3f 9c91 32be 7231 47bf ff13 3abf
0.80016303 0.9210668 -0.21642107 0.42922303 -0.24691083 -0.82914054 -0.02514448 -0.5024567
0.4766079 -0.41797543 0.13987699 0.43464154 0.70788807 0.68173164 0.49620688 -0.19000667
0.68895745 -0.16984224 -0.87917405 -0.38067588 -0.3526115 -0.035901263 -0.7178428 -0.14809513
0.5692101 0.82812005 -0.21476239 0.0866903 0.5408955 -0.17438358 -0.7780982 -0.7268676

embedder.feature_projections.1.bias f4 [32]
00000000: e1c7 55bf e4cd 97be 7465 a9be 104e 2dbf
00000010: 064a 853e 86db 2b3e bd3a 6ebe 9085 4dbf
00000020: 22f6 56bf 9205 6d3f ca48 0a3e 81f5 173f
00000030: d6ad 7abf 289f 433d f628 39bf 4261 56bf
00000040: 48c9 563d e36a 803f 723b 153f 92b1 413c
00000050: efad 80bf a7fe dd3e 51d0 1ebf d6ef 51bf
00000060: c428 fabe d40d 343e 6249 5f3f 5fef 1ebf
00000070: 59e1 c9bd edb2 27bf 283e f4be e9b4 573f
-0.83508116 -0.2964927 -0.33085215 -0.6769724 0.26033038 0.1678296 -0.23264594 -0.80281925
-0.8396932 0.92586625 0.1350433 0.59358984 -0.979215 0.047759205 -0.72328126 -0.83742154
0.05243805 1.0032619 0.5829383 0.011822121 -1.005308 0.43358347 -0.62036616 -0.82006586
-0.48859227 0.175834 0.8722135 -0.62084 -0.09857435 -0.65507394 -0.4770367 0.8426042

embedder.stabilizer_embedding.weight f4 [8, 32]
00000000: 10e0 263f 7646 303f 89a4 72bf 82d8 833f
00000010: 1f46 71bf 0183 843f bd3d 423f 581b 823f
00000020: 13e7 cf3f 2446 21c0 6d93 8a3f 75c7 94bf
00000030: 14e5 8cbe be2c cb3e ff4e 06bf 52f5 cebf
00000040: 24ae 64be cf72 a73e feae aa3e ba53 5a3f
00000050: 6d09 ad3f 6d68 a3bb 10e8 8dbf 5edb 3dbb
00000060: 57f3 42bf 3108 203f 43f2 f3be eb3e ad3f
00000070: 27b9 3dbe b1a9 d93f dc21 f33f 77ba 1a3f
00000080: f32a c4be 6214 c33f fce7 46bf 7a50 ddbf
00000090: 2e13 1c40 ea1f 483c f95a babf 62d6 a2be
000000a0: 75aa c6bf 688e 48be c691 b13f 131f ac3e
000000b0: 5df2 4fbf 8822 d1be 265a 99be f4a9 2cbf
000000c0: c41e 673f f623 62bf 0da4 b6bf 1f8e 8bbf
000000d0: 17f3 13c0 3730 90bf 9a74 c0bf 3cab bb3f
000000e0: ccef 483f 08da 153f 1e5c f9bf cdd5 953f
000000f0: 46fe 14bf 5586 de3e 8275 02bf be85 cebf
00000100: c4e1 a3bf c102 7ebf 3aaa 8b3f 6700 08c0
00000110: 5301 b8bf 9ee6 073e 172b 2cbf e587 adbd
00000120: 4e5c 913e b568 acbf ba4e 9b3f e27d 88bf
00000130: f723 543f 0840 dabf 6c0b 0a3f 1f49 aa3e
00000140: 6e83 36c0 e967 833f 2e19 ac3e 4953 a6be
00000150: ba60 293f 6b24 363f 188d 2cbe f089 da3f
00000160: 29e6 10c0 c4f1 d2be 9a17 36bf eca3 9e3d
00000170: 00fc bb3e fdb7 6f3e 831a 13c0 448f 22bd
00000180: e21d 0fbf a436 15bf 825a 96bc 53ba dcbe
00000190: 373f d2bf 36d3 213f 78b6 ce3e 4e1e 9e3f
000001a0: d6a9 923e 6e2b 053f 764c 11bf 36e7 27bf
000001b0: f213 293e c016 31bf 87af 0abc f4a2 2abf
000001c0: 3d7b ad3f 98c4 0140 1d95 4dbf 3f32 a0bf
000001d0: 4d11 343e c299 52bf 2f00 de3e 30ad 22be
000001e0: ab31 983f df22 b83f 1c64 323f 103d 26c0
000001f0: 0c5a 803f 0173 c03e 2c50 983f 4df7 e13f
00000200: 74fc 87bf 3ca8 903e 3f55 343f 3210 41bf
00000210: 9586 3c3f 7b15 9d3e 3605 44bc 8c00 45be
00000220: 19e9 02bf 6f96 ba3f eb8d d7bd 1ab5 703f
00000230: 8f8f 8ebf 888a 8dbf fbe6 77bf 63b7 a03f
00000240: 63b4 353f d03c aebf 6338 013e dbf9 173e
00000250: 1269 07bf c7f3 d5be 4a89 cf3e b1fb 52bd
00000260: 9825 bebe f2fb f83f 1ed0 40bf 8e5f 1ebf
00000270: daf7 c43e 8896 4b3e 0521 9a3f aa14 483e
00000280: 1c44 03bf 4a7e 6bbf 8934 123f 00bd 363f
00000290: 72d2 ecbf a379 c7be db44 02c0 bcc2 bebe
000002a0: 24f3 153e 9ace 86bf 8f8b 1f3f 4c53 27bf
000002b0: 70fa 17bf 6e1f 5a3f ef67 b4be fb08 61be
000002c0: 525d bebf 6e73 26bc 9e45 0840 4e95 ff3c
000002d0: 6c65 8ebe ef71 a3bf e29d 553f b98b 853e
000002e0: 2046 91bf fd4f 0440 ef1b 17bf cca6 fbbf
000002f0: 4119 60bf 5b82 1c3f 74d7 c73e cc47 b53f
00000300: 9b77 adbf fb9e 08c0 02fe c1be 7109 733f
00000310: 1e1e 3fc0 6287 883e 7c5d 6a3f 5ecc 04bf
00000320: b8ee 4abf a4be 883e 8a0b 0940 d4cb 13be
00000330: 5982 c23d 4073 1d3e ec6e 7d3f 9309 debe
00000340: 41b0 5abf 5f08 6bbf 8c4f e43f 9d04 87bf
00000350: 2a24 0040 fb28 2cbd f0b7 533e ecc8 ce3f
00000360: 1e67 15bf cb17 0abf d721 ecbe 1add 99be
00000370: 3875 2cbe 6346 913f da4e 61bf 3a60 27bd
00000380: a2fa 993f f57d d9be 158d 343f 5d35 d33e
00000390: 3eaf 12bf ee2a cd3e e229 bcbf 3226 153d
000003a0: 4e11 efbe e80d 67bd d283 b13f f903 85bf
000003b0: 6185 bfbf 4919 d43e a829 34c0 2d70 e8be
000003c0: 1c4b e43e c0df eebf 7bd5 ed3f 35da 4c3e
000003d0: 7357 883f 2435 983f 25ab 5f3f bedc 2bc0
000003e0: 356c ddbc 33ec 46bf 8c30 62be c8f3 533f
000003f0: 770e c03e 7aef 9fbf 5ace 533f 5a91 623f
0.6518564 0.68857515 -0.9478231 1.0300448 -0.9424762 1.0352479 0.75875455 1.0164595
1.6242393 -2.519906 1.0826241 -1.162337 -0.27518523 0.39682573 -0.5246429 -1.6168616
-0.22332054 0.3270478 0.33336633 0.85284007 1.3518502 -0.0049868138 -1.1086445 -0.0028969864
-0.7615256 0.625125 -0.4764577 1.3534826 -0.18527661 1.7004911 1.8994708 0.6044077
-0.38314018 1.5240595 -0.7769773 -1.7290184 2.4386706 0.01221464 -1.4559013 -0.31804186
-1.5520769 -0.19585574 1.3872612 0.33617458 -0.8122919 -0.40846658 -0.2995159 -0.6744683
0.9028132 -0.8833612 -1.4268814 -1.0902747 -2.311712 -1.1264714 -1.5035584 1.4661632
0.784909 0.58535814 -1.9481237 1.1705872 -0.5820049 0.43461862 -0.5096055 -1.6134565
-1.2803273 -0.9922295 1.0911324 -2.1250246 -1.4375404 0.13271567 -0.6725325 -0.084731854
0.28390735 -1.3469454 1.21334 -1.0663416 0.8286738 -1.7050791 0.5392368 0.33258912
-2.8517718 1.0266086 0.3361296 -0.32485417 0.6616322 0.7114932 -0.16850698 1.7073345
-2.2640479 -0.41200078 -0.71129763 0.07746109 0.36715698 0.2341003 -2.2984931 -0.03968741
-0.5590497 -0.582865 -0.018353704 -0.43110904 -1.6425542 0.6321291 0.40373588 1.2352998
0.286452 0.52019393 -0.56757295 -0.65587175 0.16511515 -0.6917534 -0.008464701 -0.66654897
1.3553234 2.0276241 -0.80305654 -1.2515334 0.17584725 -0.82265866 0.43359515 -0.15886378
1.1890157 1.4385642 0.69684005 -2.597477 1.002748 0.3758774 1.1899467 1.7653595
-1.0623918 0.28253353 0.70442575 -0.7541534 0.73642856 0.3068045 -0.011964133 -0.1923849
-0.5113693 1.4577159 -0.105251156 0.9402634 -1.1137561 -1.1057901 -0.96836823 1.2555965
0.70978373 -1.3612309 0.12619166 0.14841406 -0.528947 -0.4178755 0.4053443 -0.051509563
-0.37138057 1.9451888 -0.7531756 -0.61864555 0.38470346 0.19881642 1.2041327 0.19539133
-0.512758 -0.91989577 0.5711141 0.7138214 -1.8501723 -0.3895999 -2.0354526 -0.37257946
0.14643532 -1.05318 0.62322325 -0.65361476 -0.5936651 0.8520421 -0.35235545 -0.21976082
-1.4872229 -0.0101593565 2.129249 0.031199124 -0.27811754 -1.2769145 0.83444035 0.26083162
-1.1349525 2.067382 -0.59027 -1.9660277 -0.87538534 0.61136407 0.39031565 1.4162536
-1.3552126 -2.1347034 -0.37889105 0.9493628 -2.9862132 0.2666579 0.91548896 -0.5187434
-0.79270506 0.26707947 2.1413293 -0.14433223 0.09497518 0.15375996 0.9899738 -0.4336668
-0.8542519 -0.9180965 1.7836776 -1.0548283 2.0022073 -0.04203127 0.20675635 1.6155066
-0.5836047 -0.53942555 -0.46119568 -0.300515 -0.1684159 1.1349605 -0.8801094 -0.040863253
1.2029612 -0.4247891 0.70527774 0.4125165 -0.5729865 0.40071815 -1.4700282 0.03641338
-0.4669289 -0.056409746 1.3868353 -1.0391837 -1.4962579 0.4142554 -2.8150425 -0.45398083
0.44588554 -1.8662033 1.8580774 0.20005114 1.0651687 1.1891217 0.8737052 -2.685348
-0.027029136 -0.7770416 -0.22088832 0.82793856 0.37511036 -1.2494957 0.8273674 0.8850304

embedder.res_block.0.weight f4 [32]
00000000: f9bc 8e3f 22cb 873f 1fe4 763f 0616 873f
00000010: c346 813f 9462 8c3f 5e25 833f 38f1 873f
00000020: 8e4a 803f 2d48 863f a9b7 733f b8e0 823f
00000030: fc8f 823f bf6d 863f 6eb9 933f e493 833f
00000040: 5192 803f 7d24 8c3f 7091 823f 9d8a 813f
00000050: 0c05 833f 597a 883f e09a 803f 5676 813f
00000060: 4c0d 873f 312e 803f f310 8e3f 2550 823f
00000070: 8234 7b3f 2fd6 7e3f dc40 863f 6c67 7d3f
1.115142 1.0608866 0.96441835 1.0553596 1.009972 1.0967584 1.0245779 1.0620489
1.0022752 1.0490776 0.9520212 1.0224829 1.020019 1.0502242 1.1540964 1.0279508
1.0044652 1.0948635 1.0200634 1.0120426 1.0235915 1.0662338 1.0047264 1.0114238
1.0550933 1.0014096 1.1098922 1.0180708 0.98126996 0.9954557 1.0488544 0.98985934

embedder.res_block.0.bias f4 [32]
00000000: 1d52 b339 3870 84bb 1f1a bfbc 660f 8c3c
00000010: b394 a4bc 1be8 033d 6cc9 41ba 7815 e2bc
00000020: e87e 2b3c a252 f73c 9663 11bc bbef 2cbc
00000030: 8f17 8b3c 7203 b4bc 3ab5 0cbd 5d41 bc3b
00000040: 0ea4 2abd 6654 563b faa6 babc b7cf 7a3c
00000050: b512 0a3c 6bcf 3fba 1f03 06bd 85b0 babc
00000060: 96f6 633c e7c5 07bc 58d8 443b 6f29 70bc
00000070: 6ade 483b 2b8d f0bc 55b6 5bbb 83ab d6bc
0.0003420272 -0.004041698 -0.023327885 0.017097186 -0.020090437 0.032203775 -0.000739238 -0.027598128
0.0104672685 0.03019077 -0.008873841 -0.010555203 0.016979007 -0.0219743 -0.03435252 0.0057450966
-0.04166036 0.0032704114 -0.022784699 0.015308312 0.008427312 -0.00073169795 -0.03271782 -0.02278925
0.013913771 -0.00828693 0.0030036177 -0.014658316 0.0030650147 -0.02936419 -0.0033525426 -0.02620483

embedder.res_block.1.weight f4 [32, 32]
00000000: 304b f3bd 9593 93bc e640 e63c ce13 36bc
00000010: da50 52be bc62 853c b9e9 a5bb 3ef8 c33c
00000020: 0f68 cdbc 34f1 023e 0c50 e2bc 4bb9 08bd
00000030: 92fa 523e e673 73be 4194 13be a410 fabd
00000040: df49 44be 551a de3c 790f 97bd 7931 c53d
00000050: b44e 903d 9e98 483e b9ca 47be e879 c73d
00000060: b556 293d c88e e03d efb9 55bc f499 1dbd
00000070: 4c84 c4bd d4a1 2f3e 692e 143e b7fd 553d
00000080: e6fa 72be de5e 50be 07af fcbd 94bd 113e
00000090: 2698 29bd a512 2abe 6dc4 153d 9e33 a2bd
000000a0: ec02 2e3d 5a05 19bd 90d4 243d 2f2c 0f3e
000000b0: 2d4a 193e e2a9 243d b13e 363e 608c 81ba
000000c0: cd00 fb3d 6318 95bc 52b5 a23c e006 33be
000000d0: 288e 153e b778 aabd 8b66 c0bd 767e 523d
000000e0: f9e6 363c 8b93 a9bc e75f 26bd 58a4 73bd
000000f0: c6b7 64bb cc0a bf3d b314 23bd e349 913d
00000100: c65c 333d 5582 d1bc 03d8 df3d 0ace ca3b
00000110: 6098 a8bd f3f4 3f3e d632 5c39 b6b2 443e
00000120: 36f2 42bc 570c 3f3e e941 cb3d 0b97 86bc
00000130: fd18 d13d b157 ab3d c401 ebbc 6494 41be
00000140: 0a18 d1bc 2ada a93c 00d4 fdbc eb74 34be
00000150: 697e 47be 89f8 24be 1267 f7bd fa0a 8d3b
00000160: 618a 5b3e d880 16be 1e90 e03d 33bb 3abd
00000170: fbe1 da3c 96cb 2a3c b39a c63d 437b 393e
00000180: ff9a 853e 88f0 b8bd 259c 043e e2d2 523d
00000190: 42b9 2abd 806f 1bbd d263 7b3d cbbb ad3d
000001a0: 5343 14be 5178 b7be 48ba a53d 9f91 673e
000001b0: 66fd 55bd 6d5f 7a3d 2177 cb3e e121 ed3d
000001c0: 3595 db3d fdb8 5cbe 0d3f 65be 3d2f cabd
000001d0: 04c6 b0bc 5f75 40be 87e9 63bd 9023 55be
000001e0: 4d0c 52be db57 08bd 1aa9 213e b36f 54bc
000001f0: 1e5b 423e 5966 44be adea 7dbd d43a 483e
00000200: 6378 953d 9156 553e 6b65 14be 59f5 04be
00000210: b6fd 303d 22c3 2dbd db6e 433c 254d 7ebd
00000220: 4131 16be 7927 22be 3059 1bbe d196 6dbc
00000230: 6ecc 8cbc 9fe1 253d 7cec 0b3e 989f 9fbd
00000240: 4526 aabd 74c5 13be 4b5f 323e 0935 74bd
00000250: 139b f5bd ab1f 03be 314c 1a3e f259 80bd
00000260: 84cc e5bc 1f1e 173e c79a 753d 0e5c 783d
00000270: fbf0 c43d b795 fb3c 3b2d 38be be49 9b3d
00000280: 529f 37bd 2515 cabb 568f 2e3c d158 343d
00000290: c429 a23c 5ab5 a2bc 1b1c 63bc 2b24 29be
000002a0: 6ef0 33be f619 71bd e997 96bc c214 b0bc
000002b0: b4cc b53d b33a 4dbe f3d7 fa3d 8b52 eabd
000002c0: cc4e e73d 69e0 b2bd b494 2c3e c2ae 24bd
000002d0: 4816 60bd 7b2c a53d 5282 4bbd ea97 f33c
000002e0: 9c90 82bd 0310 0c3e f7a1 0abe 1089 133a
000002f0: 9584 b43d a35c bc3d e793 633b bdea 4dbe
00000300: 08e5 ce3d 7595 2a3e 815f f63d a3e1 05bc
00000310: 8220 6f3d 3622 003e 4457 2a3d 0a78 163c
00000320: 08a2 07be 06f4 c33d e09f c7bd 310d ff3c
00000330: da6d c0bd 95b2 ee3c 7ab5 5cbe 7866 30be
00000340: 2e3e 4dbb ab42 bb3d 4fe0 053d 6c7b 2cbe
00000350: 9606 86bd 50d8 20be 5ab2 da3d ef4c 2d3e
00000360: 6976 3e3e 0c5e 9f3d 30cf 253d c2c3 24bb
00000370: 85ff 1e3e bfd0 2fbe a939 15be b11a e83b
00000380: fbd8 023e a6f9 21bd 0ce1 043d 418f 7a3e
00000390: 7b72 253e 94c1 673c a31f 023e f72e 0f3c
000003a0: 45f6 453d dfce 12be 77e6 27bd 4f54 11be
000003b0: 9699 35bd b4f2 463e 326b 3b3e c047 a3bc
000003c0: 19fb 49be 1cc9 9bbe a8b0 3ebd 42b6 593c
000003d0: 3a1a 8e3c 276f 90bd 12e0 343d 0fb5 f0bd
000003e0: eccb fcbc d254 aabd 172a 973d 90a8 02be
000003f0: c47e 11bc be61 91bc 00a0 b4bd 90c0 d83d
-0.11879575 -0.018014709 0.028107118 -0.01111312 -0.20538655 0.016282432 -0.0050632623 0.023922082
-0.025074033 0.12787324 -0.02762606 -0.033379834 0.20603397 -0.2377468 -0.14412023 -0.12210205
-0.19168805 0.027112165 -0.07375998 0.09628577 0.070462614 0.19589469 -0.19510926 0.09740049
0.041342456 0.10964733 -0.013044818 -0.0384769 -0.09595546 0.17151576 0.14470829 0.052243914
-0.23728523 -0.20348689 -0.12338071 0.14232475 -0.041404866 -0.16608675 0.03656428 -0.079200014
0.042483255 -0.03735862 0.040241778 0.13981698 0.14969702 0.040201075 0.17797352 -0.0009883754
0.12256012 -0.018200105 0.01986185 -0.17483091 0.1460501 -0.08323806 -0.093945585 0.051390134
0.011163467 -0.020700237 -0.040618803 -0.059482902 -0.0034899577 0.09328231 -0.039814662 0.07094171
0.043789648 -0.025574842 0.10929873 0.0061891126 -0.08232188 0.18745784 0.00020999773 0.19208798
-0.011898568 0.18657051 0.09924681 -0.016429445 0.10209844 0.08366335 -0.028687365 -0.18904263
-0.025524158 0.020733912 -0.030984879 -0.17622726 -0.19481815 -0.16110434 -0.12080206 0.004304287
0.21439506 -0.14697587 0.10964988 -0.045588683 0.026719084 0.010424515 0.09697475 0.18113427
0.26094815 -0.09030253 0.1295019 0.051470645 -0.041680582 -0.03794813 0.061374493 0.08483084
-0.14478807 -0.35833982 0.08092171 0.22614144 -0.052243613 0.06112616 0.39739326 0.115787275
0.10721818 -0.21554942 -0.22387333 -0.09872291 -0.021578796 -0.18794774 -0.05564263 -0.20814347
-0.20512505 -0.03328691 0.15787163 -0.012966084 0.18980071 -0.19179668 -0.061991382 0.19553691
0.072983526 0.20833804 -0.14491813 -0.12984218 0.043210708 -0.04242242 0.0119282855 -0.06208529
-0.14667226 -0.1583537 -0.15170741 -0.014501289 -0.017187323 0.040498372 0.1366443 -0.07794112
-0.083080806 -0.14430791 0.17419164 -0.05962089 -0.11992469 -0.12805049 0.15068127 -0.06267156
-0.028051622 0.14757584 0.05996206 0.060634665 0.09616276 0.030711038 -0.17986004 0.075824246
-0.044829674 -0.0061670714 0.010654291 0.044030014 0.019795306 -0.019861866 -0.013861681 -0.16517703
-0.17572185 -0.05886265 -0.018382983 -0.021494273 0.08876935 -0.20041923 0.1224822 -0.11441525
0.11294326 -0.08734209 0.168536 -0.040205725 -0.05470875 0.080651246 -0.04968483 0.029735524
-0.06375238 0.13677983 -0.13538347 0.0005628029 0.088143505 0.091973566 0.0034725608 -0.20109077
0.10102278 0.16658576 0.12029935 -0.008171472 0.05838061 0.1251305 0.04158713 0.009183893
-0.13245404 0.09568028 -0.097472906 0.03113422 -0.093959525 0.029137889 -0.21553603 -0.17226589
-0.003131758 0.09143575 0.03268462 -0.16843957 -0.06544225 -0.15707517 0.10678549 0.16923879
0.18599857 0.0778161 0.040480793 -0.0025141095 0.1552716 -0.17169474 -0.14572777 0.00708326
0.12778084 -0.039544724 0.032441184 0.2446871 0.16156952 0.014145274 0.12707381 0.008739225
0.048330564 -0.14336728 -0.040991273 -0.14192317 -0.044335924 0.19428521 0.1830261 -0.019931674
-0.19724692 -0.30426872 -0.04655519 0.013288083 0.01734649 -0.070524506 0.044159003 -0.11753284
-0.030858956 -0.083169594 0.07381075 -0.12759614 -0.008880321 -0.017746802 -0.0881958 0.105836034

embedder.res_block.1.bias f4 [32]
00000000: 45d1 f33d 75b1 c7bd e43b 1fbe 01c0 92bd
00000010: 0a2d 23ba 3b06 c7bd 78d6 283e 90cc a03c
00000020: 05ac 8abd 782a c3bd 0d86 013d 562b 873c
00000030: a72e fb3c 50bd ae3c 0a6d 9dbd 1633 08bc
00000040: 8933 e5bd f8d3 803d 7bc5 1cbd 88ff 8cbd
00000050: 5399 e93d c37f 2a3e 674e 4ebd 6ec9 39bd
00000060: 4ebb 11be 41d7 a73c b02b d63d 4293 82bc
00000070: bd4e 573d a7cb 97bd 5890 953d 3202 063e
0.11905149 -0.09750644 -0.1555019 -0.07165528 -0.0006224668 -0.09717985 0.16488063 0.019628793
-0.06771091 -0.09529585 0.03162198 0.016500156 0.030661894 0.021330506 -0.07686813 -0.008312961
-0.1119147 0.0629043 -0.03827427 -0.06884676 0.114061974 0.166503 -0.05036774 -0.045358114
-0.14231607 0.020488383 0.104575515 -0.015939359 0.052565325 -0.074118905 0.07302922 0.13086775

embedder.res_block.3.weight f4 [32, 32]
00000000: b80e d9bd 204c 103e 2baa 8dbc 47f8 a93d
00000010: 008f 123e 71d3 9d3d b65e 1a3d 2004 093e
00000020: 28ad a43c 220d 35be 5fe3 093c 7d59 3f3d
00000030: 7b93 37be f678 82bc adb4 1fbe ce77 a13d
00000040: 4d28 dc3d 3069 8abd 9444 923c e64c 423e
00000050: 73fb 22be f404 3ebe 1ac8 c03d 22e0 bf3d
00000060: 6301 c13d ac43 713e de3b 21be 5987 bdbd
00000070: 5a9d 09be 9a6c ebbd d972 89bd e88e 0a3e
00000080: 3b38 b13d 2124 adbd d851 0e3e 1429 99bd
00000090: 3897 35be 58ac 743d 0e07 a0bc 66fa 3b3d
000000a0: d6ef 0dbe abb8 303e 9082 c8bd af02 e1bc
000000b0: a565 133d d717 b4bd ae5c e9bc eea2 9dbd
000000c0: 743e 09bd 012d edbc 489b 113e 0757 62be
000000d0: 348b df3d ac56 cb3d 67e2 8dbd 9ad0 e9bd
000000e0: a314 993c 6bec de3a 46a3 58bd 1d4e 1e3d
000000f0: 57c6 80bd 96f3 273e 4913 463e 11c6 59be
00000100: e6c8 1a3e 423b 34bc 2621 c2bd c52d 993e
00000110: ab18 133e 293b a63d 27e5 fcbd a3fb c43e
00000120: c47a 043e f614 c1bc 4c2b 8bbd 3088 253d
00000130: 32aa b2bc 882b b73b 9306 42be b8de df3b
00000140: 6cca 053d eed6 46bd 9cb4 29be da05 1abd
00000150: 6e0c f0bd bb9e 99bd bf2f 473d 3dc2 d3bd
00000160: 0b46 88bc 175a 7d3e 4438 19be 8aca 3ebe
00000170: baac 063e 01d4 bbbc 006d efbd f2fc 033e
00000180: 0dd1 01be 2ada 40be b7a1 16be 6cc5 b33e
00000190: 956c e4bc 328c 16be 791c 32be a02c 323e
000001a0: 4f7d 083d 8e46 c43d ac52 c83d b1cf e73b
000001b0: aa90 e7bd b37e 3b3d 3d01 573d 6c10 623b
000001c0: 405e 003e c71d 0c3e ce39 da3c 1713 913d
000001d0: 07e9 523d 5c22 1fbd 884d 3d3d d7a5 4e3c
000001e0: f244 b03d 8613 503d 64f7 e03d ae98 b43d
000001f0: 629b 8fbb 4c2f c23c 04a6 1ebe 043b 123b
00000200: 664c f7bd 66a5 8b3d 7893 f73d ac62 28be
00000210: 69f8 d8bd c6ba 54bd f29d 12bc a1e7 a5be
00000220: 9e98 2ebe 8438 acbb 739d 123e c5ec c23d
00000230: 1914 b63d ad18 ffbd 72a9 6d3e 6aba cf3c
00000240: f9c3 f73d 01c2 70be b1c2 a6bd 5812 74be
00000250: 112f 0d3d e92d c1bc a921 a43d 4475 5c3e
00000260: fd9b d83d 9521 35be 1c57 5c3e b393 0fbe
00000270: cd14 83bd 3e58 1c3e 46b6 5abd ca2a 533d
00000280: 1391 593e db4c f23c 79fb 2a3e 6d59 f13c
00000290: e4bc 0bbe 68b5 0f3e f4e9 ee3d 5a75 a2be
000002a0: 57b2 22be 067f 54bd e667 ebbd f5f4 183e
000002b0: 633d 933d f65c 033e c14f 883e 363e d33c
000002c0: 9cef 80be 0a9d 02be 1b07 73bc 19c7 41be
000002d0: b565 823d 1cd5 9abd cc69 29be 55ed 5a3e
000002e0: 0f78 d5bc aede 19be 7c3c 483e b497 e0bc
000002f0: 3df6 553c 9b58 c1bd 42f2 be3d 184e 00bd
00000300: a9de 393e 4277 08be 0fc0 393d 23e0 06be
00000310: 5de1 203e 4e95 4f3d 191e e7bd 17e2 52bc
00000320: af2f ba3d 4122 a63d 8fb9 aa3c 495e e2bc
00000330: 5804 19bd c66c 70bd 0826 bebd 336e 463d
00000340: 01f2 0bbe ba86 80bd 3359 243c 4abf fabd
00000350: 6f7e 2fbe 1998 db3d a07f c1bc 90e7 a6bd
00000360: 2b17 adbd b1a5 4dbd 053a 37be 3797 1dbd
00000370: 6753 a63d b9c2 053d fcf1 c1bd d1f5 d73d
00000380: 4b0b c3bd bb67 18bd 25ff 10be d4ac 813e
00000390: de06 96bc d07c d93d 3fe8 323e ecda e73d
000003a0: e87e 97bd e70d 073e 8f75 3a3e 0072 98bd
000003b0: 3a0a 443e f5c2 cb3d bbe7 8a3d 07e5 fd3d
000003c0: 8029 6bbc 3699 ef3d 65d1 1c3e b307 f43d
000003d0: b45b 253e cbbc 76bd 9b2e cc3d 3d5c 213e
000003e0: d4c6 ba3d aff9 ebbd 340c 2a3e 6ed6 1bbe
000003f0: 517c fc3c 309c 063e 6703 fdbd 7da1 0dbe
-0.105985105 0.1409154 -0.017293056 0.08299308 0.14312363 0.07706345 0.03768798 0.1338048
0.020102099 -0.17680791 0.008416026 0.046716202 -0.17927353 -0.01592682 -0.15596266 0.07884179
0.10749874 -0.06758344 0.017854966 0.18974647 -0.15916233 -0.18556577 0.09413166 0.09368922
0.094240926 0.23560971 -0.15745494 -0.09254331 -0.13438931 -0.114953235 -0.067113586 0.13531077
0.08653303 -0.08454157 0.13898408 -0.07478538 -0.17733467 0.059734672 -0.019534614 0.045893095
-0.13861021 0.17257945 -0.09790528 -0.0274671 0.035985608 -0.087936096 -0.028486576 -0.07697092
-0.033506826 -0.028952124 0.14219391 -0.22103511 0.10915223 0.09928641 -0.069279484 -0.11416741
0.018686598 0.0017007714 -0.052890085 0.038648713 -0.0628783 0.16401514 0.19343294 -0.21266963
0.15115699 -0.011000456 -0.09478979 0.29917732 0.14364879 0.08116753 -0.12348395 0.38473234
0.12937456 -0.023569565 -0.067953676 0.04041308 -0.021809671 0.005589906 -0.1894782 0.00683197
0.032663748 -0.048544817 -0.16572803 -0.037603237 -0.11721121 -0.075009786 0.04862952 -0.103397824
-0.016634962 0.24741398 -0.1496287 -0.1863195 0.13151827 -0.02292824 -0.11690712 0.1288946
-0.12677403 -0.18833223 -0.14710127 0.35111558 -0.027883807 -0.14701918 -0.17393674 0.17399836
0.03332263 0.0958377 0.097813934 0.0070743193 -0.11306889 0.045775127 0.052491415 0.0034494651
0.12535954 0.13683234 0.026638892 0.07083719 0.051491763 -0.038851127 0.046216518 0.0126127815
0.086069 0.05079987 0.10984686 0.08818184 -0.0043825367 0.023704194 -0.15493017 0.0022313008
-0.12075119 0.068186566 0.12088674 -0.1644389 -0.105942555 -0.051935934 -0.00894879 -0.3240328
-0.17050406 -0.0052557606 0.14317875 0.095178165 0.08890552 -0.124558784 0.2320917 0.025357444
0.12097926 -0.23511507 -0.08142603 -0.23835123 0.034468714 -0.023581462 0.08014233 0.21529108
0.105766274 -0.17688592 0.21517605 -0.14021187 -0.06400452 0.15268037 -0.053396486 0.05155448
0.21246748 0.029577663 0.16697492 0.029461587 -0.13646275 0.14034045 0.11665717 -0.31730157
-0.15888344 -0.05187895 -0.114944264 0.14937194 0.07189443 0.1282843 0.26623347 0.0257865
-0.25182807 -0.12755218 -0.014833237 -0.18923606 0.06367055 -0.07560179 -0.16544265 0.21379597
-0.026058225 -0.15026352 0.19554323 -0.027416088 0.013059196 -0.09440728 0.09323551 -0.031324476
0.18151344 -0.13326743 0.045349177 -0.13171439 0.1571097 0.050679497 -0.112850375 -0.012871287
0.09091126 0.08112002 0.020840434 -0.02763285 -0.03735766 -0.058697484 -0.09284598 0.048444938
-0.13666536 -0.06275697 0.010031032 -0.12243517 -0.17138074 0.1072237 -0.023620427 -0.08149636
-0.084516846 -0.050206844 -0.17893226 -0.038474288 0.081213765 0.032656405 -0.09469983 0.10544933
-0.09523638 -0.0372083 -0.1415983 0.2532717 -0.018313821 0.10619509 0.17471407 0.11321053
-0.07397252 0.13188897 0.18208908 -0.07443619 0.19144526 0.099492945 0.0678248 0.12397199
-0.014353156 0.116991445 0.15314253 0.11915531 0.16148263 -0.06023864 0.09969827 0.15757842
0.09119955 -0.11522233 0.16606218 -0.15218517 0.030820997 0.13145518 -0.123541646 -0.13831134

embedder.res_block.3.bias f4 [32]
00000000: 6989 6dbc 4430 d13d 5d12 fdbd ea28 25be
00000010: 0fc4 67bd 8664 66bd c3c3 8d3c 57c2 d0bc
00000020: eeaf de3d 24da 0abe 106a 313c 684e 5fbd
00000030: 2c40 c2bd f971 21be 7709 cbbc 48cc e3bc
00000040: 9d17 f53c 47b1 1f3e 7e09 1cbe 3c69 1cbc
00000050: 93cd d1bd 5b19 a3bb 90cf 163e 36d5 29be
00000060: 2ff4 c2bd 32a9 d1bd 294d f93d f1cd 8bbd
00000070: 704b 26bd e2f9 b23d a6d7 a03d 6703 14bd
-0.014498093 0.10214284 -0.12357018 -0.16128889 -0.05658346 -0.05624821 0.01730526 -0.025483293
0.108734 -0.13559777 0.01082851 -0.054518133 -0.09484896 -0.15766133 -0.024784787 -0.02780737
0.029918486 0.1559497 -0.15237996 -0.009546574 -0.10244288 -0.004977388 0.14727616 -0.1658524
-0.095192306 -0.102373496 0.1217292 -0.068263896 -0.040599287 0.087390676 0.07853632 -0.036136057

cnn_blocks.0.proj_in.weight f4 [16, 32]
00000000: 3965 37be 8786 81bc 8583 71bd 34e3 44be
00000010: dc65 493e 6882 893c 64c0 613d 6a3b 4d3c
00000020: b323 bcbc c46a 35bb 7309 8d3d 77f7 8b3d
00000030: 399b d53d 65d6 953c 9123 22bd 1c3b 753d
00000040: 70ad 5bbd 873c 8bbc 19d1 4c3e 883c 9cbd
00000050: da59 9b3c 08e2 6f3d 4567 1abe 598e 793d
00000060: c4f1 42bc 7dc7 47be ff05 f5bb 4381 933b
00000070: 8a4f 44be ec5f 843d dc02 2e3e 1e4b 0cbe
00000080: 6581 0f3e b780 d8bd 72c3 14be f3fc 19be
00000090: 18a5 ea3d f30f 043e a396 26bc 2e02 5cbc
000000a0: a1a2 863d d317 063e c055 1e3e 6141 8e3d
000000b0: d1d8 353d f800 043e 801f eb3d fea9 463e
000000c0: 09c2 dbbd d732 433e 372c dd3d e57d 1c3d
000000d0: e803 a43d eb95 353e fba0 2e3d 5d01 40bc
000000e0: 148e f23d e09a bb3d 8812 99bb f8cc 2f3e
000000f0: 577c 07be cdf2 eb3d 1c83 993d 4179 52bd
00000100: a017 b5bb ab1c 08bd 59cc 0cbe 01ec 153e
00000110: 87d0 16bd 79d1 523d c217 ba3d 4d92 35be
00000120: 8dc7 19be cd66 28be cc74 06be 533d 013e
00000130: f18d 373e 214c 1bbe 915d 1ebe f4ea 71bd
00000140: 5fc7 b03b 5a55 253d c62c af3d a110 c83d
00000150: a6ba 6e3d 8edb 013e 5ace ef3d 4b1c fcbd
00000160: e478 02bd 4193 22be 9651 973c f3ec 84bd
00000170: 0a22 0dbe 5307 1fbe 4e95 51be 7f29 36be
00000180: 9cfe 72bd efe5 303d 6005 fcbd 1167 613d
00000190: 06d7 923d 2541 2c3e 1b05 9c3d b167 23be
000001a0: 4789 bcbd afcd 31bd 8ebe 213e 45ef 243e
000001b0: fad3 f83d 4288 8e3d f29a e7bd aeac 6c3d
000001c0: bb08 b03d 10aa c2bd c2ea d7bd 7135 203e
000001d0: f7b1 8cbc 4bf8 f4bc 8f9d 093e bb23 9dbc
000001e0: 7460 173c 272b 8d3b 953c d4bd 780b bdbd
000001f0: 7500 b83d bde3 50bd e966 9e3d b6c9 28bd
00000200: 370a 0cbe 975c 3d3e fab0 2ebd 9608 9d3b
00000210: a4bc bbbd 1f60 b3bd 8ca6 9b3c 52e1 703d
00000220: 1fae 15be ff25 3d3e 2489 3e3d 3d19 f23c
00000230: 20b5 df3d ea40 553d 1fff 293d ec75 04be
00000240: b6df 96bd 5912 2b3c 4475 db3d e321 073d
00000250: 14b7 c73d b546 823d 5aea b3ba a958 7cbd
00000260: 48e4 cebd de37 033e 2b06 f2bd 6984 063e
00000270: 2919 1dbe 9b5e 2f3c 9a77 93bc 822a 503c
00000280: 2b0b 44bd 5ce1 293e 0cff 1c3e bda3 ef3d
00000290: e286 c13b 7d1f 173b 8b5f 9abd 7828 b73d
000002a0: bf92 04bc e546 4ebe 55c4 cfbd 5fa7 05bd
000002b0: d78b 003d 5136 843d d855 b03d d137 42bc
000002c0: c3bc ef3d ffe8 afbd 0247 d0bd 838d 2ebe
000002d0: bb80 24be db29 1abe 3602 913d 94ef 283e
000002e0: ad63 233d db2c f23d e7e2 1e3e 50f2 1e3e
000002f0: c00c 1dbd e067 d3bc e208 49bd 743b 42be
00000300: e61e 55bd 78b3 e83d f27c 6e39 940a 0cbe
00000310: dbcb dbbc 6242 0fbe 672b 8b3d 20a8 033e
00000320: 5887 1abe 029d 13be 75e0 e7bd 95a7 e33d
00000330: 0bea 02be 40be 823d 2082 ae3d fddf 3a3b
00000340: 0baa b0bc 6760 25bd 516a 92bd 0f76 483c
00000350: 7902 01be 450a 3fbe 52c3 a83d 2145 23be
00000360: 3947 a5bc af6e ee3c 7fb2 03be 80a5 53bd
00000370: ea0d dbbd 3315 29be 9144 2c3e fd4a 0dbe
00000380: 4530 a9bd 6dda 37bd d348 eebc ead8 13be
00000390: cbb5 f4bc 2ac7 c1bc de61 0abe 617d 133e
000003a0: df9c 0dbd b9c5 8e3d 6761 d93d ce86 0abb
000003b0: ac32 eabd 888a 86bd 4a21 463e 9be2 293e
000003c0: d98a fdbd 38c5 dd3c c0e3 21be 2850 ddbd
000003d0: aaed 583d 03f0 9b3d 56d0 39be 1285 673d
000003e0: cca9 32be c9d6 1dbe 3cb3 03be c80a d6bd
000003f0: cebc 1dbd c777 013b 1740 1b3e 61f8 8f3d
-0.17909707 -0.015811218 -0.058963317 -0.19227296 0.19667763 0.016785815 0.05511512 0.012526372
-0.022966241 -0.0027682045 0.06886568 0.068343095 0.10429997 0.018290708 -0.0395847 0.059870824
-0.0536322 -0.016996635 0.2000164 -0.07628733 0.018963743 0.05856517 -0.15078457 0.06092677
-0.011898462 -0.19509692 -0.0074775214 0.004501493 -0.19170967 0.06463608 0.16993278 -0.1370053
0.14014204 -0.105714254 -0.14527681 -0.15037899 0.114572704 0.12896709 -0.0101677505 -0.013428254
0.06573988 0.13095026 0.15462399 0.06946064 0.044396225 0.12890995 0.114806175 0.19400784
-0.10730369 0.19062363 0.10799449 0.038206 0.080085576 0.1773297 0.04263399 -0.011719075
0.118435055 0.091603994 -0.0046713986 0.17168033 -0.13231026 0.1152092 0.0749571 -0.051385168
-0.005526498 -0.033230465 -0.13749827 0.1464081 -0.03681996 0.0514693 0.09086563 -0.1773159
-0.15017529 -0.16445465 -0.13130492 0.1262105 0.1792524 -0.1516576 -0.1546538 -0.05906196
0.0053948606 0.0403646 0.08553462 0.09768797 0.05828347 0.1268141 0.1170928 -0.12310084
-0.03185357 -0.15876485 0.01847152 -0.06490507 -0.13782516 -0.15530138 -0.20467111 -0.17789267
-0.059324846 0.04318803 -0.12305713 0.055029932 0.07169919 0.16821726 0.07618161 -0.15957524
-0.09205871 -0.043409046 0.15795347 0.16106899 0.12149806 0.06959583 -0.1130885 0.057781868
0.08595415 -0.09505093 -0.105428234 0.15645386 -0.017174704 -0.029903552 0.1343901 -0.019182077
0.009239305 0.0043081227 -0.103631176 -0.09230703 0.08984462 -0.05099844 0.07734472 -0.04120799
-0.13675772 0.18492351 -0.042649247 0.0047922833 -0.0916684 -0.08758568 0.019000314 0.058808632
-0.14617203 0.18471526 0.046517506 0.02955305 0.10923219 0.05206386 0.041503068 -0.12935609
-0.07366888 0.010441386 0.10715726 0.0329913 0.09751716 0.063611425 -0.0013726458 -0.06160799
-0.10102135 0.1281428 -0.11817583 0.13136448 -0.15341629 0.010703708 -0.018001366 0.012705447
-0.047862213 0.16589874 0.15331668 0.117011525 0.005905972 0.002305954 -0.075377546 0.08943266
-0.008091628 -0.20144232 -0.10144869 -0.03263032 0.03138336 0.064556725 0.086101234 -0.011854128
0.11705925 -0.08589362 -0.10169794 -0.1704617 -0.16064732 -0.15055029 0.070805 0.16497642
0.03988998 0.11824962 0.15516244 0.15522122 -0.038342237 -0.025806367 -0.049080737 -0.18967992
-0.05203142 0.11362356 0.00022743994 -0.1367591 -0.026830604 -0.13990167 0.06795388 0.12857103
-0.15090692 -0.14415362 -0.11322109 0.11115948 -0.12784593 0.063839436 0.08520913 0.0028514855
-0.021565458 -0.04037514 -0.071491845 0.012235179 -0.125986 -0.18656261 0.082403794 -0.1594434
-0.020175563 0.029105512 -0.1286106 -0.051671505 -0.10696013 -0.16511993 0.16823031 -0.13798137
-0.0826116 -0.04488604 -0.02908746 -0.14438215 -0.029871842 -0.02365454 -0.13513896 0.14403297
-0.034573432 0.06971306 0.10614281 -0.0021137479 -0.11435446 -0.065693915 0.19348636 0.1659035
-0.12379999 0.02707158 -0.15809536 -0.10806304 0.05296103 0.07614138 -0.1814588 0.05652339
-0.17447585 -0.15413965 -0.12861341 -0.10451275 -0.038510136 0.001975523 0.15161167 0.070297964

cnn_blocks.0.proj_in.bias f4 [16]
00000000: 7bb4 1b3e 9a1e 41bd ad86 6d3d cb7a e5bd
00000010: 2169 a4bd b295 4e3d 14c2 e93d 6da2 1abe
00000020: d53d 913c 8702 02bc 04c9 0e3d 7329 92bd
00000030: 7308 2f3e a511 cc3d 9529 ad3d 111d 60bd
0.15205567 -0.047148325 0.057989765 -0.112050615 -0.08027864 0.05043573 0.114139706 -0.15101023
0.01772968 -0.007935173 0.034859672 -0.07136812 0.17093067 0.09964303 0.08455197 -0.05471522

cnn_blocks.0.convs.0.weight f4 [16, 16, 3, 3]
00000000: 27e5 03bd 3325 023b c5f5 22bd 2e36 de3c
00000010: 3861 e13d bf93 9f3d 654e af3d ba60 b23c
00000020: 1047 f03c 6c2d e93d d396 87bd 1636 17bd
00000030: 66af 4cbd 98e4 79bc 9f3f 0a3d 2e54 aebc
00000040: 6a1a d93b 9823 303d 83d9 c9bd 65e6 00bd
00000050: 7caf 53bd 35be 95bc c490 db3d cfd4 3fbd
00000060: 5caa 1d3c cc6c 1abd ba23 baba d7e2 c13c
00000070: 06c6 bcbd 37b3 00bd 642a 933d 43ee 0abd
00000080: 9f4a d33c 17a2 bcbd 2d34 3dbc b42d afbd
00000090: 732c 393d 9564 88bd 7a04 7abd 89c6 463c
000000a0: a9b8 09bd 91be 4e3d ee3b 343d cb9d 883d
000000b0: c267 be3d eacf a5bd 24b2 debc 6e65 51bd
000000c0: 99cf 77bd 8b22 773d 51d5 d33c 5714 303c
000000d0: 7c29 ea3c b44b 713d 0fb5 75bc 1a6d d7bc
000000e0: bed8 b63d 9703 683d 105c ff3c 00aa ff3b
000000f0: 5cd9 a2bd e672 a53c 5bd4 94bc 66a2 c93d
00000100: e933 2fbd e0e3 24bd b8d8 883d 2054 56bc
00000110: 7503 8b3d 28e2 8bbc 9117 24bd 2c56 b73d
00000120: bc28 533c 4075 883d 69c4 10bd fec7 bb3d
00000130: 451d cfbd 5e4a afbb b13b 37bd 749a 563d
00000140: 59b8 dbbb d5f9 ff3c 6efc 033c ce5e b6bd
00000150: 5815 b0bb 1cef dabd 04de 403a 7601 633b
00000160: 69b6 af3d 59b0 c33b 96bc 09bd bf59 5c3c
00000170: 5705 7d3d 9339 c6bc b39f 9abd dd85 513d
00000180: fbd2 2fbd e283 8a3d a700 513d dbda fc3b
00000190: 0e74 dd3c ef32 d63d 5c90 a4bd 1b62 343d
000001a0: efb8 983b c877 10be fc3b ce3c 6880 d8bd
000001b0: 7730 ae3d ba41 0d3d da60 1fbc 883c 3c3d
000001c0: 9a53 f9bc ad96 9e3d c22a 763d 91f8 89bd
000001d0: cfea 053d c7c9 e3bd fbbc 34bd ef0a b83d
000001e0: 8f58 583c 32cf 533b a7cc c63c 3136 133d
000001f0: 36d0 e4bc a9b4 9d3c 90f3 cfbb fbc7 553c
00000200: b1b2 80ba 8c1b 42bd bd85 e73c 8ffa e53c
00000210: dd0e 783d 9cbc 763d 5ded a8bd 2a83 9c3c
00000220: 729e fc3a a85f 2ebd b817 2f3d 9077 a23c
00000230: ad4b f8bd 48e9 8d3d 06f3 18bd eeb9 d6bc
00000240: aca7 5f3d 94e6 93bd 87c3 0b3e 06f0 fabd
00000250: ad77 4d3d 97db eebc fbad 58bc e525 2cbd
00000260: 1e4a 703d cb2c b13d 3c82 e83c 082e 10bd
00000270: f4c8 89ba fea2 c83d 1ee9 e4bc d37d 35be
00000280: 6285 2c3d 9885 d33c 55ba c6bd de94 4abb
00000290: eea6 7f3d f169 c43b 52ab eb3b 0c1c 49bd
000002a0: 4046 0c3d 6ceb ef3d 4991 5b3a 3da3 b3bc
000002b0: 47b1 813d 87ac b13d ff00 8abc da2e 2f3d
000002c0: 901b 0d3c f03c b3bd 6bcf dfbd 2237 023d
000002d0: 74c9 963c 8ab9 1bbd e86d cd3d 7051 d3bc
000002e0: 51f6 f3bc 546b a8bd aa89 263d 2195 d93c
000002f0: 9dac 043d e2f5 b2bc 6547 43bd 6d06 883d
00000300: 1bcf fabc 97bf c03d 58fe 11bd 387a a6bc
00000310: 7002 a53d f687 36bc 59d3 f3bd d089 2cbc
00000320: 067b 193c 2eb4 4c3d f38b 1d3d 8131 803d
00000330: 6cf9 86bd df63 5dbd b789 ddbd 9cd1 d83b
00000340: 23d6 86bd 9e8d e1bc 2d44 d23c 83aa 753d
00000350: 007b 003d 515d 75bd c986 38bd 22e7 93bd
00000360: b679 6d3c cb63 b9bd e7da 64bd 75ec 0e3b
00000370: 1d3d babd 6aca 4a3d d286 b2bd 6881 6fbd
00000380: 70d8 c1bc 7453 39bd ef4a 0a3d 753f 29bd
00000390: 7b69 80bd 5a09 b0bc d196 91bc de3e bbbc
000003a0: 5333 5dbd 021a c9bd 3338 253b 817a 4dbc
000003b0: c255 5bbd 0dca dc3c 92ae f2bc 12d3 65bd
000003c0: 7cae 3d3d 8e3e f23b eaca bb3c 48dd 933c
000003d0: 8e53 69bc f7e3 92bd 419e bb3d 6917 c73d
000003e0: bb0a 363d 4aa5 be39 4599 d73c 920e f1bb
000003f0: 7d0b f03d 8efa 5cbd 1186 88bd 6426 ec3b
-0.03220096 0.0019858598 -0.039785165 0.027125444 0.11004871 0.07791852 0.085598744 0.021774638
0.02933076 0.11385617 -0.06620564 -0.036916815 -0.04997196 -0.015252255 0.03375208 -0.021280374
0.0066254633 0.043002695 -0.0985594 -0.03146972 -0.051681027 -0.018279174 0.10720971 -0.04683381
0.009623136 -0.037701413 -0.0014201321 0.023667736 -0.092174575 -0.031420913 0.0718582 -0.03391863
0.025792418 -0.09210604 -0.011548084 -0.08553639 0.045208406 -0.066598095 -0.061039425 0.012132295
-0.03362337 0.050474707 0.044002466 0.066707216 0.09297134 -0.08096297 -0.027184553 -0.05112212
-0.060500715 0.060335677 0.025858553 0.010747037 0.028584234 0.058910087 -0.014996781 -0.02629714
0.08928059 0.05664405 0.031171829 0.007802248 -0.07951614 0.02019639 -0.018167665 0.09845428
-0.042774115 -0.04025638 0.06681961 -0.01308158 0.06787769 -0.017075613 -0.040061537 0.08951983
0.01288813 0.06662989 -0.03534356 0.09169005 -0.101130046 -0.0053494414 -0.04473466 0.05239339
-0.0067053256 0.031247059 0.008055789 -0.08904801 -0.005373638 -0.10690138 0.00073573017 0.0034638322
0.08579714 0.00597195 -0.033627115 0.0134491315 0.06177267 -0.024197375 -0.075499915 0.051153053
-0.042925816 0.06763436 0.051026013 0.0077165193 0.027032878 0.104589336 -0.08035347 0.044038873
0.0046607177 -0.14108193 0.025175087 -0.105713665 0.08505338 0.03448651 -0.009727681 0.045956165
-0.030435372 0.07743583 0.06009937 -0.067368634 0.032694634 -0.1112247 -0.04412554 0.089864604
0.013204708 0.0032319543 0.024267508 0.035940353 -0.027931314 0.019251185 -0.0063461736 0.013048167
-0.0009818879 -0.047389552 0.028262014 0.028073577 0.06056105 0.060238466 -0.082483985 0.019105513
0.0019273295 -0.042571694 0.04274723 0.019832402 -0.12123809 0.069292605 -0.03734114 -0.026211705
0.054603264 -0.07221714 0.13648807 -0.12252812 0.05016296 -0.029157443 -0.013225074 -0.042028327
0.058664434 0.08651122 0.028382413 -0.03520015 -0.0010512159 0.09796713 -0.02794319 -0.1772378
0.04211939 0.025820538 -0.09703509 -0.0030911486 0.062415056 0.0059940745 0.007192054 -0.049099013
0.034246683 0.11714825 0.0008375836 -0.021928424 0.06332641 0.08675485 -0.016846178 0.04276929
0.008612528 -0.08751857 -0.10928234 0.03179086 0.018406607 -0.03801874 0.100307286 -0.025795668
-0.029780539 -0.08223596 0.04065863 0.026560368 0.03239118 -0.021845762 -0.04767551 0.066418506
-0.030616334 0.09411543 -0.03564295 -0.02032195 0.080571055 -0.011140814 -0.11905546 -0.010530904
0.00936771 0.04997652 0.038463544 0.06259442 -0.06590542 -0.054050323 -0.10817283 0.0066167843
-0.06583812 -0.027533349 0.025667274 0.059977066 0.031367302 -0.059903447 -0.045050416 -0.072218195
0.01449435 -0.09052237 -0.055872824 0.002180842 -0.09093688 0.049509443 -0.08717121 -0.05847302
-0.023662776 -0.045245603 0.03376287 -0.041320283 -0.06270119 -0.021488834 -0.01777211 -0.022857126
-0.054004025 -0.09819414 0.00252105 -0.012541414 -0.053548582 0.026951814 -0.029624257 -0.056109495
0.04630898 0.007392711 0.022923905 0.018049851 -0.014241112 -0.07172387 0.09161044 0.09721262
0.044443827 0.00036362774 0.026318202 -0.0073564732 0.11720941 -0.053949885 -0.06666196 0.007206725

cnn_blocks.0.convs.0.bias f4 [16]
00000000: d9fa 7f3d 8791 e43c 2454 b73d 7654 db39
00000010: 4446 cd3d 1a0c 99bd a870 03bd 0461 73bd
00000020: b072 8c3c d69e d6bc f24e 7a3d 0620 9a3c
00000030: d0ff 8d3d cf76 69bd 9731 d13d 0b40 8a3d
0.062495086 0.027901424 0.089515954 0.00041833863 0.10023168 -0.07473011 -0.03208986 -0.059418693
0.017144531 -0.026198786 0.061110444 0.018814098 0.06933558 -0.05699807 0.10214537 0.067504965

cnn_blocks.0.convs.1.weight f4 [16, 16, 3, 3]
00000000: a069 66bd b388 cb3d d315 b33d 2d43 863c
00000010: fb76 c63b 725b 653b b6e0 183d 6596 e3bc
00000020: 1bef 86bd dd69 a5bc a002 8ebd ecf1 04bd
00000030: d460 0fbd 2952 8f3d 6384 113c a292 62bc
00000040: b80c 8bbd 66fd 1bbd 0cdb cb3d 5038 fd3c
00000050: 509a d63c 5263 7d3d cc2a 73bd 92a0 d8bb
00000060: 0d24 c53d ad53 363d 7c0f f1bd a4fc 31bc
00000070: 3b3c 8b3b 912c 16bb 7f78 10bd 5199 51bc
00000080: 678b df3d 7c16 3b3d 4192 5e3d 7b11 87bd
00000090: 9067 80bd fc10 a63d 9400 2039 523a b43c
000000a0: 1709 9cbd 92b4 03bd 7bc6 c2bd 4ca3 57bc
000000b0: 8b6f 64bd 9766 79bc 75b6 bb3a c1f4 ce3d
000000c0: c815 d4bd 68df e43b b594 b6bd 11a7 063b
000000d0: c521 37bc 4766 4a3d ae58 b2bd 2c5d 82bd
000000e0: 9e10 653d 5d85 48bd 7d00 4ebd 9a85 bb3c
000000f0: 9927 95bd ce90 b4ba f169 053c dd2a 773d
00000100: b1e2 a1bc 8561 843d 3a80 713d 7006 463c
00000110: e6be bebb 3fd9 f23c 6f77 2f3b f2be d03b
00000120: 12dd a5bd a3d5 ac3c d0c8 603c 148a 00be
00000130: 3161 ca3d cc7c 053c acb2 7dbd c42f 8e3d
00000140: 6904 25bc 4e40 cf3a 86cb bfbb f443 7ebd
00000150: 6f24 e03d dedc ae3c 0e6f e8ba 3b54 29bd
00000160: f5ea b03d 8159 9b3d 12c4 b2bc e64e d03b
00000170: d567 9dbc 5da4 edbc ad41 72bd 5095 9f3d
00000180: f4c8 3a3c 39f3 563d d115 1f3d 75e5 953c
00000190: f879 aabd 6782 4c3d cb1e 2b3d 066d a0bd
000001a0: c1c9 8abc 5d62 523d e691 8d3c bcac 91bc
000001b0: d7a2 6abd fe4e b73c f352 253e 8f67 723d
000001c0: 0789 713d 56b9 e53d 9cc9 dfbc f74c 85bd
000001d0: 4ac4 12bd 9157 123d 4c3b b3bd 1182 9b3d
000001e0: 589f d13c 7bbe e1bd 1e5a 363d 002d 24b7
000001f0: cd55 b23d b481 40bd 370a 4ebd 5b68 b63d
00000200: c4b0 87bd 0a14 8abd 5d4d 06bd ef94 83bd
00000210: 8bf6 8fbd bd84 a93c 89b2 fa3c 7b8d 093d
00000220: 8d25 0e3d 66c8 dc3c 5bf3 cf3c b6e6 233c
00000230: a750 98bd e680 6e3d 3fd5 06bc 8df7 b7bd
00000240: 26d5 eebc 7a1b 783c 7b53 77bd 4130 793c
00000250: 7822 b3bd 6336 89bc dcaf 003d 3c1b b1bd
00000260: 3431 a8bd e16d 20bd eefc 1b3d 8916 243d
00000270: 7543 0d3e 00ed 28bc f301 713d d958 883d
00000280: d441 dbbc 247e a3bd 0725 fdbb 30c7 7abd
00000290: 8fc7 3b3d 05b5 2a3d a05e 9d3d e1b5 5cbb
000002a0: 2354 a33d 7b4a acbc a2a4 78bd 4525 b83c
000002b0: c683 003d 61ea b5bc bd0b 8cbd 86ac 6abd
000002c0: 0275 01bd 7085 dabc 9774 78bd 1a69 5e3d
000002d0: 6f7f 4dbd 2d67 98bd e986 a7bd 817d 59bc
000002e0: 368a 8b3d 04a1 a73d c113 00bd e98e 643d
000002f0: 9d7d e63b b2d4 57bd e83c 8ebd 6767 5dbd
00000300: 6cf4 6ebd 5754 35bd 0781 433d 714d 80bd
00000310: da46 913c 2466 523d c522 fc3c cbfe f8bd
00000320: 05c8 23bd fab0 14be 4263 8fbc 26fe e0bd
00000330: 1580 093c 9e18 f1bc a5d4 3b3b 9047 adbd
00000340: a5c3 90bc 531e a23d bd68 b6bc ee8c 373d
00000350: 9766 933d 3802 aebd c0b2 68bd 6724 04be
00000360: 5a0a 8abc 45a3 93bb d002 69bd b368 a63d
00000370: 563a 453d 62dc 863d 2c48 483d 7791 6b3d
00000380: 09b8 003d df24 09bd f416 e3bc 4d65 2fbd
00000390: 2185 56bd 3ffa b7bd f4ce 5b3d cf6b 85bd
000003a0: 6809 40bd c129 99bd e2c8 9ebc c857 9d3c
000003b0: 15b0 86bc 5625 603d 69d9 4f3d a594 8bbd
000003c0: 6062 caba 98b9 4e3d a929 f13b 3a88 333d
000003d0: 942b 31bb 7420 10bd 1fcb 6c3d de45 103d
000003e0: 7fb9 693d 780e 483c 4a34 8cbd fe9a 1cbd
000003f0: a651 bf3c 6687 1d3d 4a9d 01bd b277 ebbd
-0.056253076 0.09938183 0.08744397 0.016389454 0.006056664 0.0034997133 0.037323676 -0.027781675
-0.065885745 -0.020192081 -0.069340944 -0.032457277 -0.035004452 0.06998093 0.008881661 -0.013828905
-0.06789535 -0.038083456 0.09953889 0.030910641 0.026196629 0.061862297 -0.059366986 -0.0066109383
0.09626017 0.044513393 -0.117705315 -0.010863457 0.0042491234 -0.0022914747 -0.035271164 -0.012792901
0.10915261 0.04567574 0.054338697 -0.06595131 -0.06269753 0.08108708 0.00015259004 0.022000466
-0.07618921 -0.032154627 -0.095105134 -0.013161492 -0.05577044 -0.015222213 0.0014321344 0.10105277
-0.10355717 0.00698464 -0.08915082 0.0020546357 -0.011177485 0.049413946 -0.087083206 -0.063654274
0.05592405 -0.04895531 -0.050293434 0.022890855 -0.07282943 -0.0013776065 0.008142934 0.060343612
-0.019761415 0.06463913 0.058960177 0.012086496 -0.0058210967 0.029644607 0.0026774069 0.0063704187
-0.080988064 0.021097964 0.013719752 -0.12552673 0.09881819 0.00814743 -0.061937973 0.06942704
-0.010071852 0.0015812011 -0.0058531193 -0.062076524 0.10944449 0.021345552 -0.0017733292 -0.041340094
0.086385645 0.07585431 -0.02182201 0.0063570617 -0.01921455 -0.029009039 -0.059144665 0.07792151
0.01140045 0.05247805 0.038839165 0.01829789 -0.08324045 0.04992905 0.041777413 -0.078332946
-0.016941907 0.051363338 0.017281484 -0.017782561 -0.057284202 0.022376534 0.16144924 0.059180792
0.05896857 0.11216991 -0.027317815 -0.065088205 -0.035831727 0.03572804 -0.08751544 0.075931676
0.025588676 -0.110226594 0.044519536 -9.785639e-06 0.087077715 -0.046998695 -0.05030271 0.08906623
-0.06625512 -0.067421034 -0.032788623 -0.06424891 -0.07029446 0.020693177 0.03060271 0.033582192
0.03470378 0.026951026 0.025384596 0.010003736 -0.07437258 0.058228396 -0.008229553 -0.089827634
-0.029154371 0.01514327 -0.060382348 0.0152092585 -0.08746809 -0.016749566 0.031417713 -0.08647773
-0.0821251 -0.03916729 0.03808301 0.040060554 0.13795264 -0.010310411 0.05883975 0.06657571
-0.026764788 -0.07983044 -0.0077253613 -0.061225116 0.04584461 0.04167654 0.07684064 -0.0033677744
0.07975032 -0.021031609 -0.06070388 0.022478709 0.03137567 -0.022206487 -0.068381764 -0.057293437
-0.031605728 -0.026674956 -0.060658064 0.05429945 -0.05017036 -0.07441554 -0.08180029 -0.013274551
0.06813471 0.08185008 -0.03126884 0.055800352 0.0070340172 -0.052693076 -0.06945211 -0.05405369
-0.058338568 -0.044269886 0.047730472 -0.06264771 0.01773398 0.05136694 0.030778298 -0.12157973
-0.039985675 -0.14520636 -0.017503385 -0.10985975 0.008392354 -0.029430684 0.0028660682 -0.08460915
-0.017671416 0.0791594 -0.02226674 0.044812135 0.07197302 -0.08496517 -0.056811094 -0.12904511
-0.01685064 -0.004505547 -0.056887448 0.081254385 0.048151337 0.065850034 0.048896953 0.057511773
0.03142551 -0.03348243 -0.027720906 -0.042821217 -0.052373055 -0.089832775 0.053664163 -0.065147035
-0.04688397 -0.07478667 -0.019382898 0.019206896 -0.016441384 0.054723106 0.050744448 -0.06815461
-0.0015440695 0.050469965 0.0073597026 0.043831088 -0.0027034031 -0.0351872 0.0578109 0.03522288
0.05706167 0.012210481 -0.06845911 -0.03823375 0.023354363 0.038459204 -0.031644143 -0.114974394

cnn_blocks.0.convs.1.bias f4 [16]
00000000: 2fdc f4bc 7b2d 3ebd 383b af3d 1750 8fbd
00000010: 6567 063d 15d0 333d 25ff 38bc 64ef c53b
00000020: bc73 abbc 37a4 7fbc 7755 3abd 18de acbd
00000030: 6703 65bd c465 14bb 0598 10bd e959 42bd
-0.029890148 -0.046430092 0.08556217 -0.06997698 0.03281345 0.043899614 -0.0112913 0.0060405005
-0.02092921 -0.015603117 -0.045491662 -0.084407985 -0.055911448 -0.0022643665 -0.035301227 -0.047449026

cnn_blocks.0.norms.0.weight f4 [16]
00000000: a698 693f 6f8d 823f 1025 833f b3f0 813f
00000010: 3995 753f 67a0 7e3f d792 7c3f 5f77 7d3f
00000020: e93b 823f 2b13 7b3f 783a 7f3f 03c6 803f
00000030: 253b 873f 4529 823f d25e 813f 559d 823f
0.9124855 1.0199412 1.0245686 1.015158 0.9593082 0.99463505 0.9866156 0.9901027
1.0174533 0.98076123 0.9969859 1.0060428 1.0564924 1.0168844 1.0107062 1.0204264

cnn_blocks.0.norms.0.bias f4 [16]
00000000: cf13 afbd ffcc 133c 5866 6abd becd b4bc
00000010: ec3d 3bbd 154f 04bd 728a cabd b083 aebc
00000020: 656d b7bc 397d 92bd a7d0 0dbd 6f6c 9bbd
00000030: c310 76bc 99ea 6ebc aa96 90bd edf9 0f3d
-0.085487 0.009021043 -0.05722651 -0.022070762 -0.04571335 -0.03230198 -0.098896876 -0.021303028
-0.02239103 -0.071527906 -0.034622815 -0.075890414 -0.015018645 -0.0145823 -0.07059987 0.035150457

cnn_blocks.0.norms.0.running_mean f4 [16]
00000000: 9a68 273c b5c4 263c 5fab 11bc 48fb 8b3d
00000010: 9959 703c f2bb 0fbe 2ce5 d7bd 7d3c d73b
00000020: ea87 2dbc a481 a4bd 4461 f63d c654 e4bd
00000030: f829 b53d a6ef 823d 17c4 7d3b a555 193e
0.01021781 0.010178735 -0.008890956 0.068350375 0.014669799 -0.14036539 -0.10541758 0.00656849
-0.0105914865 -0.080325395 0.12030271 -0.11148982 0.088458955 0.063933656 0.0038721615 0.14974077

cnn_blocks.0.norms.0.running_var f4 [16]
00000000: 2330 913c f4d1 ae3c 17a3 f73c ff9b ba3c
00000010: 8123 b33c b059 753c cbb2 1a3d 5954 413d
00000020: 5508 e53c 94df df3c 4639 bb3c 6e61 d23c
00000030: 593c a83c 5c94 cc3c 93ec a43c b49c ab3c
0.017723149 0.021340348 0.030229134 0.022779463 0.021867516 0.014974996 0.037768167 0.04719958
0.027958075 0.02732829 0.022854459 0.025681224 0.020536589 0.024973087 0.020132339 0.020948745

cnn_blocks.0.norms.1.weight f4 [16]
00000000: d99b 813f 9bb8 833f 893c 873f 2d1d 8b3f
00000010: 7af3 813f b6c9 843f ebd9 823f 982b 8c3f
00000020: 6143 7f3f 3a3c 873f 93b6 813f e921 8d3f
00000030: 36b3 8a3f 122e 7a3f 1142 873f e5c5 863f
1.0125686 1.0290712 1.0565349 1.0868279 1.0152428 1.0374057 1.0222753 1.0950804
0.9971219 1.0565255 1.0133842 1.1025974 1.0835941 0.9772655 1.0567037 1.0529143

cnn_blocks.0.norms.1.bias f4 [16]
00000000: 57cc b2bc 5e0b 823c c6c0 7c3c d70d f4bc
00000010: b425 2abd 4ac1 eebc c117 cbbc 33a5 93bc
00000020: c498 713c 091c 063d 62b3 66bd 3864 baba
00000030: 4ff1 8ebc 9263 1bbd 4ab5 b03c 5698 0b3d
-0.021825952 0.01587456 0.01542682 -0.029791756 -0.041539863 -0.029144902 -0.0247916 -0.018023109
0.014745895 0.03274158 -0.056323417 -0.0014220541 -0.01744905 -0.037936755 0.02157082 0.034080826

cnn_blocks.0.norms.1.running_mean f4 [16]
00000000: a8d3 4f39 cad6 48be 4e49 c23e e5f7 04be
00000010: 8b5e 453d 1550 a03e c92c e2bd 7b4e 673e
00000020: 68d3 f33b 0e4b 93be 16f4 893d 6ff1 2cbe
00000030: 36f7 89bc 8112 a03d e979 633e 0f0b de3c
0.00019819906 -0.19613186 0.37946552 -0.1298519 0.048185866 0.31311098 -0.11043698 0.22588532
0.007440973 -0.287682 0.06736009 -0.16888975 -0.016841512 0.07816029 0.22214474 0.027104883

cnn_blocks.0.norms.1.running_var f4 [16]
00000000: fdff a33d aeb0 893d 407e ad3d 3366 ab3d
00000010: 007a 083d 4361 fc3d 69c9 7c3d b22d 8c3d
00000020: 9e8a ae3e 58d7 123e 80ca bb3d 0180 473d
00000030: 3d05 a73d f9bc c53d a24a a93d f292 d53d
0.0800781 0.06723152 0.08471346 0.08369102 0.033319473 0.12323239 0.061715517 0.06844653
0.34090132 0.1433996 0.09169483 0.04870606 0.08155296 0.09655184 0.08266188 0.10428418
