checkpoints/abl_cnn_only/best_model.pt (torch, 292187 bytes, 146 tensors)

embedder.feature_projections.0.weight f4 [32, 1]
000000 57 58 ce 3e af 7d 57 3f 2c 2a 63 3c 8c de 2a bf
       0.40301773 0.8417615 0.013865035 -0.6674583
000010 ec a9 09 be 51 39 2a 3f 5a f5 96 be ba 11 39 3f
       -0.13443726 0.6649371 -0.29484063 0.72292674
000020 48 07 46 bf 93 d3 ab 3f e9 02 cb be b9 0e a2 bf
       -0.7735486 1.3423942 -0.39650658 -1.2660743
000030 e9 92 6b 3b 6a 4b ad be ce de 91 3d 5f 2a 30 bf
       0.003594572 -0.338466 0.07122575 -0.68814653
000040 16 98 1c 3f 97 2a 25 bf e8 12 9e 3e 4c 66 01 bf
       0.61169565 -0.6451811 0.308738 -0.5054672
000050 6c 91 3f bf e2 0b 6b 3f ea 04 af bf 90 9f 1f bf
       -0.7483127 0.91815007 -1.3673375 -0.6235285
000060 5c 86 37 bf 78 08 97 3e 13 07 5c bf fb 83 92 bf
       -0.7168939 0.2949865 -0.85948294 -1.1446527
000070 a2 4e 38 3f eb 27 8f 3f 7c 43 78 bf df 8a 60 bf
       0.71994984 1.1184057 -0.96977973 -0.877119

embedder.feature_projections.0.bias f4 [32]
000000 77 a4 e7 be 30 2e 55 bf b4 2d 9f be 0a 8a 5e 3f
       -0.45242664 -0.832736 -0.31089556 0.8692938
000010 93 0b 81 be bd 01 20 3f 50 33 5c bf 5a 64 5a 3e
       -0.25204143 0.6250265 -0.86015797 0.21327344
000020 d8 de 9e be 0f 84 d3 bd 42 6f 63 3f ac 5f 2d 3d
       -0.3102939 -0.103279226 0.8884164 0.042327568
000030 94 4e 10 3f b3 0b 94 3c 14 07 28 3f c0 56 19 bf
       0.563699 0.018071985 0.656358 -0.59897995
000040 6b 4c 82 bf 91 23 df 3d d3 57 fd be 7e 12 d2 be
       -1.0179571 0.10895456 -0.49481067 -0.41029733
000050 d7 72 8e 3e 3a 53 4d 3f 0e f1 33 bf 9b f3 19 bf
       0.2782199 0.8020512 -0.70289695 -0.6013734
000060 1a 4b 1a bf 5c 1d 08 be d0 97 e2 be 18 1a c6 bd
       -0.60270846 -0.1329245 -0.4425645 -0.09672946
000070 a4 ce d3 3e 77 e5 1f 3f ad b7 41 be 94 2f f9 be
       0.41368592 0.6245951 -0.18917723 -0.48669112

embedder.feature_projections.1.weight f4 [32, 1]
000000 53 00 29 bf 0e b1 90 3e 66 ce 62 bf 1b 6c 75 be
       -0.6601612 0.28260082 -0.8859619 -0.2396702
000010 7f 09 e0 3e 4b 03 1a bf 57 6f 26 3f bc db c6 be
       0.43757245 -0.60161275 0.6501364 -0.3883952
000020 64 1f 61 3f 0b 03 4b 3f 68 32 47 3d 59 a8 70 be
       0.87938523 0.7930152 0.048632056 -0.2350172
000030 4e e4 56 be 6c 3d da be 63 87 35 3e c6 6e e7 3d
       -0.20985529 -0.42624986 0.17727427 0.11300425
000040 ec 29 46 3f 6e 4d bd 3e 94 2e 4e bf 24 8d 7b 3e
       0.7740772 0.36973137 -0.8053982 0.2456556
000050 96 d7 12 3e 77 5c 5a 3f b5 2c 14 bf 79 75 50 3e
       0.14340052 0.8529734 -0.5788072 0.20357312
000060 07 ac bd 3e 9f 7f 0d bf b6 69 1c bf ff 9b 33 bf
       0.3704531 -0.5527286 -0.610988 -0.70159906
000070 f1 12 40 bf dc 2f 36 be e9 cc 73 3f 02 65 70 3e
       -0.750289 -0.17791694 0.95234543 0.23476031

embedder.feature_projections.1.bias f4 [32]
000000 4a 17 46 be e7 d9 0b bf c6 bb 2e bf 72 74 01 3f
       -0.19344822 -0.5462937 -0.6825527 0.50568306
000010 19 85 00 3f cf d2 12 3f 20 07 28 3f 90 d3 65 3f
       0.5020309 0.5735292 0.6563587 0.89775944
000020 f4 9f 8e 3e d1 e4 a0 be 80 2d 53 3f c7 b9 bd 3d
       0.2785641 -0.31424573 0.824913 0.0926395
000030 0d 0b 72 3f 2e 1b c3 be 96 4c 03 bf a4 0e 0f 3f
       0.9454811 -0.38106674 -0.51288736 0.55881715
000040 c1 b9 68 3d 2a ea 6f bf 86 0b 19 3e b2 11 92 3e
       0.056817774 -0.9371668 0.14945802 0.28529125
000050 9d 7a aa 3d f3 7d f2 3d 7d fd 03 3f 27 b5 0c 3f
       0.08324168 0.11840429 0.5155867 0.54963917
000060 b6 63 bf bd c9 26 48 3f 8d 37 55 3f 9b d0 34 3f
       -0.0934519 0.7818418 0.8328789 0.70630807
000070 6e 38 26 bf 97 b0 58 3e 83 ff e6 3e 83 2c 10 be
       -0.64929855 0.21161114 0.45116815 -0.1407948

embedder.stabilizer_embedding.weight f4 [8, 32]
000000 cc 0c 0d c0 f1 01 f4 be 32 34 9a 3f ad 77 53 bf
       -2.203906 -0.4765773 1.2047179 -0.82604486
000010 fe 09 38 bf 98 fe b4 3e 42 13 e0 3f b8 9f b0 bf
       -0.71890247 0.3535049 1.7505877 -1.3798742
000020 96 57 b3 bf 4f 62 f1 3e 99 ea 7e 3e bd de 6b bf
       -1.4011104 0.47145316 0.2489418 -0.92136747
000030 30 e2 51 bf fa 6e 82 3f 1e 36 8f 3e b6 38 b8 be
       -0.8198576 1.0190117 0.27970976 -0.35980767
000040 b5 bc a8 bf c3 30 c6 3e 75 a0 40 3f f3 b1 7f 3f
       -1.3182589 0.38709077 0.7524484 0.99880904
000050 91 dd a8 bd 15 d4 89 3f 61 e6 d1 3e d2 fd 15 bf
       -0.082453854 1.0767847 0.40996078 -0.58590424
000060 2c e7 5e 3f 44 2f 36 bf 6a d3 11 bf e0 1b e1 3f
       0.8707149 -0.7116587 -0.5696322 1.7586632
000070 3b c8 9f 3f 3c 0b aa bf ea df 57 3f 3d 62 9b be
       1.248298 -1.3284678 0.8432604 -0.30348387
000080 09 af 52 bf 9f a0 0d 40 d8 e0 5a 3f 8b 89 df bf
       -0.8229833 2.2129285 0.85499334 -1.746385
000090 a3 a7 cf 3f 9f 42 28 be 97 1b 8b be d0 d4 20 bf
       1.6223034 -0.16431664 -0.27169487 -0.62824726
0000a0 7c 8f 5d 3e 33 f8 eb be 2e e6 af bf b5 9f f5 be
       0.21636766 -0.46087798 -1.374212 -0.4797341
0000b0 2e a2 b2 3d 77 c7 e8 bd e0 c4 ba bf 70 cb 65 be
       0.087223396 -0.1136617 -1.4591331 -0.22440886
0000c0 5f eb fe 3e d8 a0 5b 3c d2 f1 1a bd 1e 01 32 3b
       0.4978895 0.013405047 -0.037828274 0.002716131
0000d0 bc bb 46 bf b2 1f be 3f 1b 8e 55 3e 5f 4c 5a 3f
       -0.7763021 1.4853423 0.2085499 0.85272783
0000e0 60 41 54 3f 9e f0 9f 3f 01 99 44 3f 47 a4 00 3f
       0.82912254 1.2495306 0.76795965 0.5025067
0000f0 a9 2d 17 3f c8 68 41 3e ff 77 92 3f b6 9d ac 3f
       0.59054047 0.18887627 1.144287 1.348563
000100 77 3a fa be 42 90 59 3f 4f d1 83 3d 00 8e 58 3f
       -0.4887273 0.84985745 0.06436407 0.84591675
000110 6a 6f 3c be b1 be df bf bb e4 a6 bd e9 94 91 3e
       -0.18401876 -1.7480069 -0.081490956 0.28433922
000120 ab 23 d8 bd f2 cf e1 bc 87 9b 2a 3e 76 80 d1 3d
       -0.10553678 -0.027564976 0.16660891 0.1022958
000130 67 9b e4 be dd c3 25 bf 60 d9 b0 3f 48 15 c5 3d
       -0.44649813 -0.6475199 1.3816338 0.096232
000140 79 5b 78 3e cc 4a e2 3e 82 68 04 3e e8 1f b4 bf
       0.24253644 0.4419769 0.12930492 -1.4072237
000150 2c a6 da 3e 27 12 65 bf de 71 52 bf 7a 49 b4 3e
       0.42704904 -0.89480823 -0.82205 0.35212308
000160 2c 89 09 3f 9b 69 84 bf 9f 51 d9 be 26 f5 9c 3e
       0.5372493 -1.0344728 -0.42445084 0.30655783
000170 4a 15 4b 3b f8 bc b0 3d 4c b5 d7 bf 9d 20 d1 bd
       0.003098803 0.08629793 -1.6852202 -0.102112986
000180 18 e5 17 bf 60 7b fd 3f 6e 72 2e 3f c7 7e 84 3e
       -0.59333944 1.9803276 0.68143356 0.25877973
000190 fd 65 3b 3e 3b d8 3a bf 90 ec 16 3d da 87 a5 3f
       0.18300624 -0.7298619 0.036846697 1.2932084
0001a0 7b 4f ce 3e 0e b7 d4 bf 06 c5 95 3e b7 1b a0 3d
       0.40295014 -1.6618364 0.2925188 0.07817786
0001b0 71 8b 84 be fd 05 86 3f 53 0b 32 c0 83 6a f6 bf
       -0.25887635 1.0470577 -2.7819412 -1.9251255
0001c0 57 1c 1a bf 5b 1a e7 3f 8c 47 81 3f 90 27 9f bf
       -0.60199493 1.8054918 1.0099959 -1.2433949
0001d0 f9 4e 12 c0 f4 ee d9 bf bc 43 d5 bf 81 ef 04 c0
       -2.28607 -1.7026048 -1.6661296 -2.0771182
0001e0 05 fd ee 3e e0 2b 1b 3f 95 a4 e4 bf b2 7d f6 bf
       0.46677414 0.6061382 -1.7862726 -1.9257109
0001f0 1b e1 18 bf e7 a1 fe 3e 3c 1e 10 3f 2f a9 71 be
       -0.59718484 0.49732897 0.56296134 -0.23599695
000200 b2 c3 af be c4 28 42 c0 d2 f3 12 bf 4a 5d 75 bf
       -0.3432899 -3.0337381 -0.5740329 -0.9584547
000210 c2 19 e4 3e 3c 2b a8 3f 42 7d 6f 3f 93 a5 a3 3f
       0.44550902 1.3138194 0.93550503 1.2784904
000220 9b 80 08 c0 04 7a aa 3f f0 94 cb 3d a1 00 4d bf
       -2.1328495 1.3318486 0.09940517 -0.80079085
000230 5c 13 5c 3b 9e f1 a3 bd fa 05 7b 3f ba ae 85 be
       0.0033580875 -0.08005069 0.98055995 -0.26109868
000240 6e 39 7a bf 2e 17 92 bf b0 37 13 bd 8c b4 57 bd
       -0.9774388 -1.1413324 -0.03594178 -0.052662417
000250 66 23 fa 3e 97 7f 41 3f 65 1d 0b 3f 09 23 ee 3e
       0.48855132 0.7558531 0.5434173 0.46511105
000260 e5 38 28 bf 81 c4 a1 bd 9d d6 6e bf ed 3f 9f bf
       -0.65711814 -0.07898808 -0.93296224 -1.2441384
000270 c0 41 a3 be c5 ee 81 bf 15 93 ff be c7 24 5c bf
       -0.318861 -1.0150992 -0.49916902 -0.8599362
000280 dd 8c cf 3e d8 76 56 3f 64 df 2f 3f ee fe c1 bd
       0.40537158 0.8377509 0.6870024 -0.09472452
000290 65 27 21 40 d8 07 d7 3e 04 3e 0a c0 29 4a 30 c0
       2.5180295 0.41998172 -2.1600351 -2.7545264
0002a0 b5 23 e8 3e 41 9c 83 3f 4b d2 06 bf be fb 9c be
       0.45339742 1.028206 -0.5266463 -0.30660814
0002b0 32 12 96 3f 33 45 d9 bc 32 bd 43 be 01 34 1c 3f
       1.1724303 -0.026522255 -0.19115141 0.6101685
0002c0 77 3e ad 3f ba d4 0c 3e 7e 27 81 bd 31 5d 11 3e
       1.3534688 0.13753024 -0.06306361 0.14195706
0002d0 81 21 a2 bd 43 23 1b bf d7 ae 14 3d 3b b1 7d 3d
       -0.079165466 -0.6060068 0.036299553 0.0619366
0002e0 a6 ef 6c 3f 45 8d 45 3f a1 6e d0 bf c0 7f db 3d
       0.92553174 0.77168685 -1.6283761 0.10717726
0002f0 43 76 f2 3c 2b 9b 7b be e3 21 b2 bf 00 d7 59 3c
       0.029597407 -0.2457091 -1.3916591 0.013295889
000300 be 47 7c 3f f4 bf 1e 3c e7 b3 93 3f 54 83 30 3b
       0.9854697 0.00968932 1.1539277 0.0026933746
000310 1c 26 ba 3f c9 c1 ec 3d a5 0b b1 bd 2a 7f d0 3f
       1.454288 0.11560399 -0.08644799 1.6288807
000320 34 75 ce bc dd 6c 23 be 92 7d a5 bc fd 81 bd 3e
       -0.025202371 -0.15959497 -0.020201478 0.37013236
000330 db 96 ef be 04 b7 8f 3f de 3f 71 3e 51 c7 88 be
       -0.4679478 1.1227727 0.2355952 -0.26714566
000340 98 40 01 40 da 2f a9 bf 2e b7 21 be 80 31 e0 3e
       2.0195675 -1.3217728 -0.15792534 0.43787766
000350 ba be a8 bf a9 05 ad 3e f0 ea c5 3f e3 6f 83 3f
       -1.3183205 0.3379338 1.5462322 1.026852
000360 67 07 9c bf 60 dc 3a bd 5c e5 80 bf 68 d7 c0 be
       -1.2189759 -0.045620322 -1.0069995 -0.37664342
000370 64 2b 0b bf e4 ce 2d 3f ff fd ae be e6 3f 66 3e
       -0.54363084 0.67893815 -0.3417816 0.22485313
000380 a7 39 87 3f 08 61 59 3e 81 90 00 40 21 dc b9 bd
       1.0564469 0.2122842 2.0088198 -0.090751894
000390 41 3a 35 bf 03 10 cc bd d8 67 41 bf 1a d5 2a 3f
       -0.70792013 -0.099639915 -0.7554908 0.6673142
0003a0 37 d4 9b 3e 6f 03 86 3f 27 57 44 bf 9b 0d 02 40
       0.30435345 1.0469798 -0.76695484 2.0320804
0003b0 1c da 00 40 52 56 87 bd 21 aa 85 bf fe f5 77 3e
       2.0133123 -0.06608261 -1.0442544 0.24214932
0003c0 81 18 79 bf c6 93 b8 3f c6 36 f2 3f 0d e7 e8 3c
       -0.97303015 1.4420097 1.8922966 0.028430486
0003d0 72 64 c0 bf 17 d5 78 bf a3 80 c3 bf 92 47 a1 3f
       -1.5030653 -0.9720015 -1.5273632 1.2599967
0003e0 5c 8b fa bf 6b 82 c7 bf 26 0d d5 be 89 b7 67 bf
       -1.9573779 -1.5586675 -0.41611594 -0.9051443
0003f0 c6 37 10 be 44 e5 23 3f 28 62 4c 3f 09 0b 92 bf
       -0.14083776 0.64021707 0.79837275 -1.1409618

embedder.res_block.0.weight f4 [32]
000000 2a c3 7f 3f fb 4e 8c 3f 6e d2 89 3f c3 b9 84 3f
       0.9990717 1.0961603 1.0767343 1.036919
000010 45 71 76 3f b1 c6 7a 3f ff 27 81 3f 1f 15 7d 3f
       0.96266586 0.9795943 1.0090331 0.98860353
000020 1f 37 8d 3f 63 2a 8f 3f f9 89 71 3f 64 42 94 3f
       1.1032447 1.118481 0.94351155 1.1582761
000030 96 0c 80 3f 0f 2c 88 3f 73 b2 82 3f 4c fd 80 3f
       1.0003841 1.0638446 1.0210708 1.00773
000040 4e 10 8b 3f b8 1f 79 3f 95 cb 8c 3f bd 7b 84 3f
       1.0864351 0.97314024 1.0999628 1.0350262
000050 ae dd 89 3f 8d 3e 84 3f 30 c7 87 3f 77 2b 91 3f
       1.0770776 1.0331589 1.0607662 1.134139
000060 97 2f 79 3f e0 5f 83 3f 2d f6 8e 3f af 69 86 3f
       0.9733824 1.0263634 1.1168877 1.0501002
000070 1c ce 96 3f 85 40 8e 3f 0d f0 92 3f ee 1f 79 3f
       1.178165 1.111344 1.1479508 0.97314346

embedder.res_block.0.bias f4 [32]
000000 86 7d 80 3c 48 8d 67 bc 04 18 20 3d 56 03 91 bc
       0.015684854 -0.014132805 0.039085403 -0.017701786
000010 f7 ad 00 bd 09 0f 75 bd a6 e4 a3 3c 86 67 c2 bc
       -0.031415906 -0.05982879 0.020006489 -0.023731004
000020 06 06 d9 3b 58 d7 c0 3a ff 13 5f bd c1 f6 3c 3c
       0.0066230325 0.0014712615 -0.05446243 0.01153344
000030 9f 6b 9c bc 03 73 10 3d 97 77 19 bc ad 43 10 3d
       -0.019094286 0.035265934 -0.009366891 0.03522079
000040 b5 b9 6f 3c 41 ef 4f bc 9c 72 ce bc 97 4c 20 3c
       0.014631678 -0.01269132 -0.025201134 0.009783885
000050 4a 55 15 3d c8 2a a5 bc 73 c7 06 3d 01 0f 95 bc
       0.03645829 -0.020162001 0.032905053 -0.018195631
000060 a2 18 36 3d 1f 1c 51 bd 75 a7 b3 bb 34 dc 12 3c
       0.044457085 -0.05105221 -0.005482609 0.008963633
000070 a1 2e a3 bc 1f c3 04 bd 2b d0 c7 3b 2b 28 35 3d
       -0.019919695 -0.032412644 0.0060978136 0.04422776

embedder.res_block.1.weight f4 [32, 32]
000000 95 e7 e2 bd cb 43 51 be d9 9e 87 3d 4c 5c 1b 3e
       -0.11079327 -0.20436017 0.06622095 0.15171927
000010 2e bb f9 3c 7c d0 b0 3d 29 b4 26 be 19 bc 5e be
       0.030484762 0.08633515 -0.16279663 -0.21751441
000020 a1 51 25 bd 3e 15 ca bd 05 8d 6d 3c 45 26 04 3e
       -0.04036105 -0.09867333 0.014498954 0.12905224
000030 f0 89 87 3d 2e f2 19 3d 3c a6 58 3e 13 98 48 3d
       0.06618106 0.037584476 0.21157163 0.048973154
000040 e6 99 38 bd 4a 4e 2f be bc 68 91 bd ed 77 aa bb
       -0.045068644 -0.17119709 -0.071000546 -0.0052022845
000050 b3 3b 47 3e 45 f0 90 3d 1c 18 61 3e d7 e8 51 be
       0.19456367 0.07077078 0.21981853 -0.20498978
000060 cb ee b7 3d c3 9a b1 3d 17 0f 1c bd e3 b3 63 bc
       0.08981093 0.086720966 -0.03810033 -0.013897869
000070 f5 ce 4e bd 1f 45 55 be 8d f1 97 3d ff e7 10 bb
       -0.05049034 -0.20827149 0.07419119 -0.0022110937
000080 12 5d 65 3d 10 7d 34 be 14 39 0f be 2a ce 39 3e
       0.055996962 -0.17625833 -0.13986617 0.18145052
000090 a1 25 3a 3d fe e8 35 be 7e 33 91 3d 2d 8d ca 3c
       0.045446042 -0.1776466 0.070898995 0.024725521
0000a0 09 5a 0a 3d 86 84 76 be 64 7f b2 bb 09 19 21 bd
       0.03377727 -0.24073991 -0.005447315 -0.039330516
0000b0 04 ff cc 3c f3 95 88 3c 05 01 0a 3d 3c 16 c8 bd
       0.025023945 0.016673064 0.03369238 -0.09769866
0000c0 7f 00 b0 3c 7f 29 0c be 8f 7c c9 bd 5c 73 37 bd
       0.021484612 -0.13687705 -0.09838211 -0.04478775
0000d0 81 ce be 3c 09 6b 5e bd cd 20 e2 bc 64 35 d3 3d
       0.023291828 -0.054301295 -0.027603531 0.10312918
0000e0 ef d8 75 bd 87 a3 be bd 94 bd c3 3d 14 b6 16 3d
       -0.060021337 -0.09308534 0.095576435 0.036794737
0000f0 b1 c0 24 be 41 0a 2b be b1 e5 7d bd 9b 39 3f bd
       -0.16089131 -0.1670313 -0.06198663 -0.046685796
000100 17 e1 76 bd 6b 7e 34 be e3 5d 24 be f7 01 98 bd
       -0.060273256 -0.1762635 -0.1605144 -0.0742225
000110 f2 d3 43 3d c9 56 cb 3c f7 31 2d be f3 44 ad 3d
       0.04780955 0.024821656 -0.16913591 0.08460417
000120 f6 7f 1a be e5 b9 eb 3d cb 61 85 3d 77 f2 d4 bd
       -0.15087876 0.11510066 0.06512793 -0.10397809
000130 d7 7d 0c 3e 13 7c 35 be 03 06 b1 bd d5 e1 d6 bd
       0.13719879 -0.17723112 -0.08643725 -0.10492293
000140 b1 7b 9a bd c0 57 1a be 65 14 d4 bd 64 fe c3 3b
       -0.075431235 -0.15072536 -0.103554524 0.0059812535
000150 d0 87 06 bd dc 2e e3 bd b5 32 91 3d 79 0f d9 3d
       -0.032844365 -0.11092922 0.0708975 0.10598654
000160 49 09 19 be 29 91 25 3d 3d ac b0 3d ae 29 2a be
       -0.14944948 0.04042164 0.08626602 -0.16617462
000170 1c 3e 0a be fd 18 9b bc 08 f4 cf bd f1 3b eb 3d
       -0.13500255 -0.018932814 -0.10153967 0.11486042
000180 ee 2e a0 3d 27 7c 0f bd 36 fa 83 3d a8 bd 2d be
       0.07821451 -0.03503051 0.06444208 -0.1696688
000190 16 50 d0 bd 1a ae 0e 3e af 1d 30 be 39 78 cf bd
       -0.10171525 0.13933602 -0.17198823 -0.101303525
0001a0 8d 46 c7 bd ae 5b cc bb 4c a2 f7 bd 83 41 80 3d
       -0.09730253 -0.006236515 -0.120915025 0.06262495
0001b0 98 14 14 3c fa 44 34 3d f5 31 2b be c9 c4 b1 3d
       0.009038113 0.044011094 -0.16718276 0.08680112
0001c0 0f 04 0a 3e 94 1f fb bc f5 ee aa 3b e1 ed 18 3e
       0.1347811 -0.030654706 0.005216474 0.14934494
0001d0 9e c8 06 3e ca b6 cc 3c 7c b1 1f 3e ba 73 fc bd
       0.13162467 0.024989504 0.15595049 -0.123267606
0001e0 db 0e ce 3c 3d 84 1b be ad 3f 30 3e e4 b6 cf 3d
       0.025153568 -0.15187164 0.1721179 0.101423055
0001f0 f4 d1 e8 3d 32 05 c0 bd 1d a8 4c bd 54 81 13 3e
       0.113681704 -0.09375991 -0.049965013 0.14404804
000200 08 88 a3 bd 9f fa e8 3c 22 b7 1e 3e 91 88 dc 3d
       -0.0798493 0.028439818 0.15499547 0.107682355
000210 bf b4 00 bd 5d 2f f1 bb 8d fd 37 3e 21 39 e2 3d
       -0.031422373 -0.0073603825 0.17967816 0.11046053
000220 1e 32 47 bc 6b 96 81 3c 5f fb 98 3d e0 58 49 bd
       -0.012157945 0.015818795 0.0746982 -0.049157023
000230 36 b2 7f 3d d3 b6 00 3e 69 c6 53 be 59 69 1f 3e
       0.062425815 0.12569742 -0.20681156 0.1556753
000240 bc 7a 60 be e9 17 8c 3b ac c3 15 bd 45 54 9c bd
       -0.2192182 0.0042753113 -0.03656356 -0.07633261
000250 7c 46 53 3d 34 47 a3 3b 2e b4 e3 3c e8 fa 90 bc
       0.05158089 0.0049828533 0.027795877 -0.017697766
000260 77 9b b8 bd cc c8 2f be 84 94 dd bd a4 5d d6 3c
       -0.090140276 -0.17166442 -0.10819343 0.026167698
000270 1c 5b 92 be b1 1c 0d be db 49 9a 3e 0b 8c fc 3d
       -0.28585136 -0.13780476 0.30134472 0.123313986
000280 14 2a 5c bd 58 9b 47 be 25 a6 2e bd be 76 e8 3d
       -0.053751066 -0.19492853 -0.042638917 0.11350773
000290 f8 c7 d9 bd 02 4c 55 3c b0 1b 5a 3d a8 31 2f 3e
       -0.10633844 0.01301861 0.05324906 0.17108786
0002a0 1a a1 11 3e 31 03 ea 3d e3 99 3e 3e d7 18 ff 3d
       0.14221612 0.1142639 0.1861339 0.1245591
0002b0 1a 81 48 bd e9 bc 0d be 0a b9 fd bc ff e1 07 3d
       -0.048951246 -0.13841595 -0.030972023 0.03317451
0002c0 a0 01 76 3c af ef 08 3e 2b c1 82 be 24 43 25 3e
       0.015015036 0.13372682 -0.25538 0.16138893
0002d0 3e fd 80 3e a7 d2 00 3e b2 36 66 3e 24 5a 31 3e
       0.25193208 0.12580357 0.22481802 0.17319542
0002e0 e5 f7 c5 bd b2 2e 13 be 29 3e d8 3d 3c 01 c9 3d
       -0.09666423 -0.14373282 0.10558731 0.098146886
0002f0 ad 13 73 be f4 18 3e be 9a fa ea bd 84 cc 37 3e
       -0.23737974 -0.18564206 -0.1147358 0.1794911
000300 ce 70 42 bb 5b 85 5c 3e 2c b4 a1 3d a6 06 06 be
       -0.0029669288 0.21535246 0.07895693 -0.13088474
000310 90 7a 83 bd dc ae b8 3c 21 29 98 bd 05 b9 1c 3d
       -0.06419861 0.022544317 -0.0742972 0.038262386
000320 0f 8b 9c be af d8 62 3d 9d 28 80 bc 3a c8 9a be
       -0.30574843 0.055382427 -0.015644366 -0.30230886
000330 19 49 55 bd f5 7b 0b be a4 7b 1a be 7e 05 e2 3c
       -0.052071664 -0.13621505 -0.15086228 0.02759051
000340 e7 72 80 3d dd 01 b8 bd 9c dd 1d 3d a0 5f 12 be
       0.06271916 -0.089847304 0.03854142 -0.1429429
000350 1a 7f 2b be 25 2d 72 3e e6 0f 83 3d db 88 39 be
       -0.16747704 0.23650034 0.06399517 -0.18118612
000360 0a 5a 13 be 6c a3 d4 bd 65 dc 49 3b ae 9a 33 be
       -0.14389816 -0.10382733 0.0030801531 -0.17539474
000370 9c b4 1a 3c b7 3a 86 3e c7 9b ad 3c e9 36 05 3d
       0.009442475 0.2621667 0.021192444 0.03252307
000380 26 78 33 3c f7 d2 47 be 3e 4a fa 3d f6 e0 3e be
       0.010953939 -0.1951407 0.12221192 -0.18640503
000390 e1 e3 6b bd ef 9a 52 3d fa a4 f8 3d 08 32 ac bd
       -0.05759037 0.051417287 0.12140842 -0.0840798
0003a0 38 bc 74 be fb e5 24 3e 66 b4 99 bd 08 8f 32 be
       -0.23899925 0.16103356 -0.075051114 -0.17437375
0003b0 89 55 d0 bd 9c 36 e0 bd 0b e4 69 bd a5 99 f1 bb
       -0.101725645 -0.10947916 -0.057102244 -0.007373052
0003c0 a6 ee e0 3d f1 28 15 be c4 4d 16 3d 3f 28 e3 bd
       0.109830186 -0.14566399 0.036695257 -0.11091661
0003d0 a9 ed bf 3d 44 88 f9 3d ab 08 26 bc 9f 0f 09 be
       0.09371502 0.12184194 -0.010133903 -0.13384865
0003e0 7c a7 5d bd 4d 15 e7 bb d7 89 0d be 67 b4 35 3d
       -0.054114804 -0.0070521 -0.13822113 0.0443615
0003f0 b1 59 c9 bd c8 d0 21 3e 60 8f a2 3d ee 96 3d be
       -0.098315604 0.158023 0.07937503 -0.18514606

embedder.res_block.1.bias f4 [32]
000000 d2 ac 8d bd 82 1d d9 bb 2a 86 a0 3d aa 76 6c 3d
       -0.069177285 -0.006625832 0.0783809 0.057730354
000010 d1 db 99 bd 70 ed 09 3c 1a 99 d5 3d 40 61 25 3e
       -0.0751263 0.008418426 0.104295924 0.16150379
000020 18 c1 c5 bd 0d f9 89 bd dd 8b 94 bb 53 ee f4 bd
       -0.0965597 -0.06736956 -0.0045332746 -0.11959519
000030 d4 34 9f 3d 89 cb 1d be 7e 97 8e 3d 98 3b 1f bd
       0.07773748 -0.15409674 0.069624886 -0.038875192
000040 2b 57 51 3e bb 3c d8 3d 38 dd 64 bc 19 0f 79 bd
       0.20443408 0.105584584 -0.013968758 -0.060805414
000050 bb 35 dd 3d 6c f4 bd 3d 82 d9 93 3d 71 09 e9 3c
       0.10801264 0.092751354 0.07219221 0.028446885
000060 72 ab b2 3d 60 e6 33 3e ab 8a ec 3d 63 49 1f be
       0.08724107 0.1756835 0.11549886 -0.15555339
000070 dc 01 bf 3d 0b 66 1c 3e 2f 55 db bd ab 36 62 bd
       0.093265265 0.15273301 -0.10709607 -0.055227917

embedder.res_block.3.weight f4 [32, 32]
000000 5f 13 8c bc a4 15 85 be 96 3a 06 3d f0 cc 9e bd
       -0.01709908 -0.25993073 0.032770716 -0.077539325
000010 ee a4 2b 3e 8b 95 22 3e 6b 93 49 bc c5 b7 69 3e
       0.16762134 0.15877359 -0.012303214 0.22824009
000020 03 e9 01 be df f8 03 be 54 a6 10 3d 09 b3 03 3e
       -0.12686543 -0.12887906 0.035314873 0.12861265
000030 71 75 f8 3d 22 fd 07 be 24 d0 8b 3e 02 ff a8 bd
       0.12131775 -0.13280156 0.27307236 -0.08251764
000040 88 da 78 3d 3a 81 84 3e f4 0b 64 be df 59 35 bd
       0.060755283 0.25879842 -0.22270185 -0.04427516
000050 30 04 76 bc 1e 94 32 3e 3e e2 89 bd c6 2f 34 3e
       -0.015015647 0.17439315 -0.067326054 0.17596349
000060 0c fa 2d 3d 0e ff 26 3e f9 3d 86 be 4b 61 ba 3b
       0.04247479 0.16308233 -0.26219156 0.0056878678
000070 76 63 40 be 31 17 fe bd ce d5 94 bd 5a 4d 82 3d
       -0.18787941 -0.12406767 -0.072673425 0.0636241
000080 e9 0a af bd 6f d2 86 3c 67 94 c5 bd cf de 56 bd
       -0.08547003 0.016457764 -0.09647446 -0.05245858
000090 cc e3 c1 3c 79 4b 2b 3d 69 e0 d5 3d 80 7f ec bd
       0.023668192 0.041820023 0.104431935 -0.11547756
0000a0 3b be 6b 3e 2a fc 84 3d 62 c7 d4 3d 0f f3 b7 3d
       0.23021786 0.06493409 0.10389592 0.089819066
0000b0 32 34 d3 3d a4 6a 83 3a 21 7c ae bd 30 8e 25 bd
       0.1031269 0.0010026288 -0.085197695 -0.040418804
0000c0 f9 0c eb 3d 67 8e 18 3e 73 f1 3f 3e f8 62 06 bc
       0.11477084 0.14898072 0.1874445 -0.008202307
0000d0 2b ff 9b bd 0f 18 35 3e 0e f2 db 3c 2a e3 88 3d
       -0.07617029 0.17684959 0.02684882 0.06683953
0000e0 fa 9d b3 3c 24 5d e9 bd a6 e7 33 be c2 12 2b bd
       0.021925915 -0.11394718 -0.17568836 -0.041765936
0000f0 c5 e0 d2 bc 43 91 f8 bd 56 64 70 be 3c fc bd bd
       -0.025741944 -0.121370815 -0.23475775 -0.092766255
000100 90 a1 ca 3c cb ed 30 3e a2 5e 04 3e 26 7e 76 3d
       0.024735242 0.17278211 0.12926725 0.0601789
000110 06 34 92 bd 32 c3 07 3e 45 de b0 bc b4 43 ea 3c
       -0.07138829 0.13258055 -0.021590361 0.028596736
000120 83 ba 43 be c7 77 1d 3e 9e e8 cf bd f5 a9 69 3d
       -0.19114117 0.15377723 -0.1015179 0.05704685
000130 f6 88 21 be fa a0 fb 3d 6b a5 44 be 99 9e 09 bd
       -0.15774903 0.12286563 -0.19203727 -0.033598516
000140 3c 00 87 bd e1 4d 3f be ec e9 02 be 8e 1e b1 bc
       -0.065918416 -0.18682052 -0.12784547 -0.021621015
000150 68 56 c1 bd be 32 28 bc af 2d ad 3d 60 08 1a be
       -0.09440309 -0.010266004 0.08455979 -0.15042257
000160 66 b5 05 bd b9 47 1c 3e 0d d0 8b be ce 87 84 bc
       -0.0326437 0.15261735 -0.27307168 -0.016178038
000170 4c 32 5d 3e 71 1f 1a 3e dc 2e 93 3c ee f4 bb bd
       0.21601218 0.15051056 0.01796668 -0.09177576
000180 4a 38 35 3d 3a fd b9 bd 9c e5 59 bd 6c 8c e4 bd
       0.044243135 -0.09081502 -0.05319749 -0.11159596
000190 c8 1f cb bd 7b 2b 08 3e 99 de 0c be ba c3 bd bd
       -0.09918171 0.13297836 -0.1375679 -0.092658475
0001a0 36 cf ee bd b2 86 28 3e 30 4b 52 bd 9d 9c bc bd
       -0.11660616 0.16457632 -0.051341236 -0.09209559
0001b0 c4 86 2d be 23 f3 9e 3d 86 6a 0b 3e fb 27 0e bd
       -0.1694594 0.077612184 0.13614854 -0.034706097
0001c0 75 04 f1 bd 73 61 b0 3d 76 ef 17 3e 63 0a c6 3d
       -0.11768428 0.08612337 0.14837441 0.0966995
0001d0 bf e1 69 3e ee 21 6a 3c b9 5d ce bd ae 9f fe bb
       0.22840022 0.014290316 -0.1007647 -0.0077705
0001e0 7a 60 b5 bd 69 23 b9 3c d8 29 34 bb 95 ba 5b be
       -0.08856292 0.022599893 -0.002749076 -0.21457894
0001f0 77 6b 05 3e 65 cf b2 3d 33 8c 53 3e f2 16 11 3e
       0.13029276 0.087309636 0.2065895 0.14168909
000200 02 7e 60 3c 4a 01 07 3d ac a4 b6 3d a1 42 0a be
       0.013701918 0.032960214 0.089181274 -0.1350198
000210 5b 7c 93 3d ba 14 b6 bd e0 55 f8 bd 65 f1 83 bd
       0.07201453 -0.08890672 -0.12125754 -0.06442527
000220 2a 36 a8 3d ae 4c 57 bc fa 79 e4 3d 2b a2 a1 bd
       0.08213456 -0.01314084 0.11156078 -0.07892259
000230 1d 00 57 3b 0f 89 82 3d fa 2e dc 3d fa 50 30 3d
       0.0032806464 0.06373798 0.107511476 0.043045975
000240 db 70 8e bb 32 2d 67 bd 94 15 69 3e 89 da 53 3d
       -0.0043469495 -0.056439586 0.22762138 0.051722083
000250 23 24 83 bd f5 3f 6b 3c f0 81 8e bc 1e 7d e8 3d
       -0.06403377 0.01435851 -0.017395943 0.11351989
000260 48 16 3b 3e 22 56 a2 3d 14 db 29 3e 77 82 33 bd
       0.18270218 0.07926585 0.16587478 -0.043825593
000270 0d 96 17 3e 53 ee 0e bc e9 33 fe bd 5e 9f f4 bd
       0.14803334 -0.008723813 -0.12412245 -0.119444594
000280 27 1d b9 bc 04 c7 26 3e 1b 24 e0 bd df 27 ff bd
       -0.022596909 0.16286856 -0.109443866 -0.12458777
000290 a3 de c8 3d 2a 30 95 3d ad 1f d9 3c 6e db 2f bc
       0.098080896 0.07284577 0.026504362 -0.010733468
0002a0 b1 2e f5 3d 9b ca 0f 3e a1 c4 3b be 81 13 0d bd
       0.11971796 0.14042132 -0.18336727 -0.03444243
0002b0 a6 2f 58 bd 75 d6 97 bd 11 5a fc bd 19 bf 8a 3d
       -0.052779816 -0.07413951 -0.12321866 0.0677473
0002c0 fe 48 11 be f8 99 00 3c 77 ae 08 3c 89 b1 98 3d
       -0.14188 0.007849209 0.008342377 0.07455737
0002d0 3f e8 27 3d c0 73 27 3e 3b 1f ca 3c a1 1b 4e be
       0.04099297 0.16352749 0.024673095 -0.20127727
0002e0 78 04 b8 bc 22 d8 59 be d0 ce ad bd a9 02 ed bd
       -0.022463068 -0.21273854 -0.08486712 -0.11572773
0002f0 29 5f 75 3d a3 b7 ed bd d2 b3 c8 bd b0 29 20 be
       0.059905205 -0.116072915 -0.09799923 -0.15640903
000300 a5 bf d2 bd 70 dd ca 3d 7a c6 27 be b3 38 19 3e
       -0.102904595 0.09905517 -0.16384307 0.14963035
000310 1e c5 a9 bc c9 f3 a1 bd 42 20 c9 bb ce 71 59 be
       -0.020723876 -0.079078265 -0.0061378786 -0.2123482
000320 d3 bb 86 3d 8e 6e e7 3d 7e f4 3b 3e 25 52 a1 3d
       0.065787934 0.113003835 0.18354985 0.07876996
000330 b4 e5 f5 bd 30 13 b1 3c 42 1e b3 bd 97 f1 5b be
       -0.12006703 0.021615595 -0.087460056 -0.21478878
000340 6a 99 80 bc 85 f6 a8 3d fe af 3b be d4 18 ae bd
       -0.015698154 0.08250145 -0.18328854 -0.08500829
000350 c9 da d2 bd 0b b3 7a bd 1b a0 33 3c 28 d0 7f bd
       -0.10295636 -0.061205905 0.010963465 -0.062454373
000360 84 f5 25 be b2 ad ed 3c 4e 07 b6 bd e2 52 fb bc
       -0.16206938 0.029013488 -0.08888112 -0.03067917
000370 64 14 ff 3d 3f f2 1b be d7 16 3a 3d b9 63 0b 3c
       0.12455061 -0.15229128 0.045431938 0.008507662
000380 28 91 3e be ef 8d 1a be 20 94 08 3e 06 68 0b be
       -0.1861006 -0.15093206 0.13337755 -0.136139
000390 10 58 2e be 8d ea c1 3d db 99 02 3e d0 19 23 3e
       -0.1702578 0.09468565 0.12754004 0.15927815
0003a0 5b 91 85 3e 4f d8 8c bd 53 d1 85 bd d5 ec a7 bd
       0.2608746 -0.06877195 -0.06534066 -0.08199469
0003b0 05 2c 06 be 94 ee be 3d f0 58 ae bd 94 fa a6 38
       -0.1310273 0.09322849 -0.08513057 7.962171e-05
0003c0 cf b6 2b be 7c ca 82 3e 0e e5 65 3c c4 64 da bd
       -0.16768955 0.25545108 0.014031662 -0.10663751
0003d0 57 77 d8 bd 2c 36 bf bd bb 6b 3a 3d 80 44 83 3d
       -0.10569637 -0.09336504 0.045512896 0.0640955
0003e0 8f 58 f1 bd 3a 8a 22 be 34 53 8b bd ed 40 bd 3d
       -0.11784469 -0.15873042 -0.06802979 0.09240899
0003f0 f6 dd 0f 3e 22 9e 09 be c0 fa c7 3c 8c df 90 bd
       0.14049515 -0.13439229 0.02441156 -0.07073888

embedder.res_block.3.bias f4 [32]
000000 9a 13 07 bd 24 5a e5 3d 4d 10 05 bd 09 2e 3f 3e
       -0.032977678 0.111988336 -0.03248625 0.18669905
000010 7a dd 24 bd e3 6b 9f bb 24 94 1e 3e a4 f8 cc 3d
       -0.04025028 -0.004865156 0.15486199 0.10008362
000020 47 96 28 bd 0f 0c 62 bc 81 b4 62 3d 19 a1 2b be
       -0.04115894 -0.01379682 0.055347923 -0.16760673
000030 b1 18 2d 3d ef 35 0d 3e 65 a7 9a bd 4e 3a 07 bd
       0.042259876 0.13790105 -0.07551459 -0.033014588
000040 14 cd b4 bd 2f b5 7f 3d 05 f7 e3 3d 3e 41 73 bd
       -0.08828178 0.06242865 0.111310996 -0.05938839
000050 18 6d 01 be 68 e9 f5 bb 4f 2f 2a be 74 2e 5b bd
       -0.12639272 -0.007504631 -0.1661961 -0.053511098
000060 12 6a 8d bd cc 1f 15 3e 3d fb df 3d 95 14 f9 3d
       -0.06904997 0.14562911 0.10936592 0.12162129
000070 72 e2 13 be 20 2a 81 bd 56 42 65 bd 36 89 9b bd
       -0.14441851 -0.06306863 -0.055971466 -0.0759453

cnn_blocks.0.proj_in.weight f4 [16, 32]
000000 29 4f 78 be c2 91 a4 bd cd 2f ef 3d a1 b2 18 3e
       -0.24248947 -0.080356136 0.11679039 0.14911892
000010 06 85 38 be 8f 20 a4 bd d0 a9 4c bd fc 3e 2d 3e
       -0.18019494 -0.080140226 -0.049966633 0.16918558
000020 49 9c 1e be 52 dd 01 be cb 0f 26 3e 4e 40 48 3c
       -0.15489306 -0.12682083 0.16216962 0.012222363
000030 d2 5c 2e 3e 6a 56 38 be f3 78 1b bd 3a 4d bc 3d
       0.17027596 -0.18001714 -0.037957143 0.09194417
000040 95 38 af bd 30 9a 2f 3d ea a1 49 bd d7 39 dc 3d
       -0.08555714 0.042871654 -0.04922668 0.107532196
000050 32 ec b8 3d 57 69 87 3d 3c 56 49 bd 4a 2c 94 bd
       0.09029426 0.06611889 -0.049154505 -0.0723501
000060 82 56 0e be 91 17 10 be 9a 72 cd bd 64 48 46 be
       -0.13900188 -0.1407149 -0.10031624 -0.19363552
000070 83 1d e5 bc e3 77 f4 bd eb 03 d8 bc 69 be 00 3e
       -0.027968174 -0.11936929 -0.026369056 0.12572636
000080 ae f2 17 bc 9c 0c a8 bc e3 e4 c7 bd ad ca f5 bc
       -0.009274168 -0.020513825 -0.097604536 -0.03000387
000090 29 c9 6c 3d d1 97 c2 bd 97 f8 f4 bd 39 3c 65 3e
       0.05780903 -0.09501613 -0.11961477 0.22386254
0000a0 11 7e a8 bd 25 3a c2 bd 8f 7e 45 be 1f bb c8 3d
       -0.0822717 -0.094837464 -0.1928656 0.098013155
0000b0 cb 4e f9 3b 7b ba 4b be 31 58 02 3e e5 f9 05 be
       0.00760827 -0.19895355 0.12728955 -0.13083608
0000c0 71 2f 48 bd 47 85 b5 3d b1 fb db 3c 55 0f 90 3d
       -0.04887337 0.08863311 0.026853414 0.07034174
0000d0 90 d9 0c be 3a bd 79 3e 6d ab b8 3d c1 d3 93 3b
       -0.13754869 0.2438859 0.09017072 0.004511327
0000e0 1c 34 c6 3d 9f 28 ba 3d 2f 8f d5 bb f0 52 29 3d
       0.09677908 0.09089779 -0.006517313 0.04133886
0000f0 3b ea 03 be fd d6 41 3e 53 d9 b5 bd c3 6d 89 bd
       -0.1288232 0.18929668 -0.08879342 -0.067103885
000100 0b 5f ea bd 39 cb c1 bd c6 1d f4 3b 2a 2e 14 3e
       -0.11443909 -0.0946259 0.0074498383 0.14470735
000110 5d e2 ef bc a8 8f 25 3e ac 8b 35 3e 87 b9 64 3e
       -0.029282743 0.16168082 0.17729062 0.22336398
000120 89 df 72 3d 4a 7a f4 3d 50 15 2f be fb 1e 18 3d
       0.05929521 0.11937387 -0.17097974 0.03713892
000130 74 ac f5 bd 18 33 5b bd 1d 13 31 bd 37 25 af 3d
       -0.119957834 -0.053515524 -0.04323112 0.0855202
000140 80 2a 1e be 8a 2d 03 3e 9e 8e 33 3d ad 0e 6d 3d
       -0.154459 0.1281034 0.043837182 0.057875324
000150 37 b1 4b 3e 79 27 61 3e e5 e6 5c 3e 32 b8 ac 3d
       0.19891821 0.21987714 0.21572454 0.0843357
000160 48 d7 78 bd b1 74 22 be 42 cf 9b bd 05 99 0e be
       -0.060752183 -0.15864827 -0.07607891 -0.1392556
000170 6f 58 36 bd b8 91 55 be 7d 80 23 bc de 7c ac bd
       -0.04451793 -0.20856369 -0.009979364 -0.08422254
000180 74 04 1d bd d0 c7 e5 bd 68 47 06 3e fb 8b 14 be
       -0.038334325 -0.11219752 0.13113177 -0.14506523
000190 a1 78 05 be 1c 98 98 3d a1 96 64 bc b3 0d 12 3d
       -0.13034298 0.074508876 -0.013951928 0.035657596
0001a0 9c 8c 58 bd 42 a4 a3 bd f7 be f6 bd 30 a1 13 be
       -0.05286847 -0.07990314 -0.120481424 -0.14416957
0001b0 2c fa ee 3c 21 26 c8 bd 99 90 66 bd b5 a7 c9 bd
       0.029172026 -0.097728975 -0.056290243 -0.09846441
0001c0 66 db 5d bd b9 36 1a bd 6a df a0 bc 9f 39 41 3d
       -0.054164313 -0.037649844 -0.019637782 0.047174092
0001d0 42 e6 50 3e 0c 59 07 3e b5 6f e9 bd 87 d7 30 be
       0.20400336 0.13217562 -0.113982596 -0.17269717
0001e0 95 4c c0 3d 82 b0 1c 3e bd 54 86 3d c6 54 e7 3d
       0.09389607 0.15301707 0.06559131 0.11295466
0001f0 f2 fd 38 bd 0c f5 a2 3d cb cc 1e bd 38 1f 9d bd
       -0.045164056 0.07956895 -0.038769525 -0.0767197
000200 91 9d 83 bc 8c f0 b5 3d 02 12 d9 bd ba 74 80 be
       -0.016066344 0.08883771 -0.10599138 -0.25089055
000210 39 42 5e bc 90 49 e4 bd 15 4f 95 bc 32 9d a5 3c
       -0.013565593 -0.111468434 -0.018226186 0.020216558
000220 b6 c4 45 be e3 9f 6d 3d 3e fa 9b bd 89 3e 5e bc
       -0.1931332 0.058013808 -0.07616089 -0.013564714
000230 91 7b e5 3c 06 d0 1a 3d 90 6c d6 bd e6 c9 c6 3c
       0.028013023 0.037796043 -0.104699254 0.024266195
000240 5c 11 66 bd e6 8e a2 3d ab b0 28 be 61 75 e2 3d
       -0.0561689 0.07937412 -0.16473643 0.110575445
000250 d5 27 01 3e a8 da f3 3d 12 db b5 bd 86 fe 3b 3d
       0.12612851 0.1190694 -0.08879675 0.04589703
000260 f0 5a 85 bd 15 3f 22 3e e0 fa e9 3d b4 fb bf bd
       -0.065114856 0.15844376 0.11424804 -0.093741804
000270 fb 3a b0 3d 0e e6 4d 3e 80 7a 4f bc d4 03 be bc
       0.08605 0.2010729 -0.012663484 -0.023195185
000280 5a e3 b3 bd fd 51 63 bc 98 23 12 3d ca 5c e3 bd
       -0.08783598 -0.013874528 0.035678476 -0.111016825
000290 6e 7a fb bd 47 0b 12 bc e2 49 90 3d 3a 25 0a bd
       -0.12279211 -0.008913822 0.07045342 -0.03372691
0002a0 7b 33 9c bd 85 d5 2e 3d 24 7e e8 bd 5d 67 62 bd
       -0.076270066 0.042684097 -0.113521844 -0.055274356
0002b0 91 44 0e be 2b 27 ee bc 14 03 0e bc 19 74 14 bd
       -0.13893344 -0.029071411 -0.008667726 -0.03624353
0002c0 ba 1c 84 3d f3 27 3a 3e 54 53 20 3e 36 7f b5 bd
       0.06450792 0.18179302 0.15656787 -0.08862154
0002d0 4d e1 6e 3c 55 1f 16 3e e2 94 fd 3c ae 44 1b 3d
       0.014580083 0.1466039 0.030954782 0.037907295
0002e0 f8 e7 da bd 3e 2b 15 3e 45 cc 31 be 5d c1 fa 3d
       -0.10688776 0.14567277 -0.17363079 0.12243912
0002f0 ee 28 0d be 61 b7 00 bc d0 b8 2a 3e d9 60 ff 3b
       -0.13785145 -0.007856221 0.16672063 0.0077935276
000300 e4 cd 28 be bd 06 99 bd ee fd a3 bd c8 2e ec 3d
       -0.16484791 -0.07471988 -0.080074176 0.1153236
000310 53 e4 d4 3b 07 28 89 3d 24 7c a2 bd 09 1d e1 3c
       0.006496945 0.06697088 -0.07933834 0.027479665
000320 26 06 c1 bd 92 7e 0f 3e 09 9f 31 3e e7 f4 1c 3e
       -0.09425001 0.14013126 0.17345823 0.15327798
000330 de 42 06 3e f1 b9 21 3e 20 e3 c4 bd 7d 1f 90 bd
       0.13111445 0.15793587 -0.09613633 -0.07037256
000340 b6 cb 7a bd c6 a8 9f bc 6b 47 dc bd 0e ec 00 bd
       -0.06122943 -0.019489657 -0.107558094 -0.03147512
000350 0e 27 dc bd b3 36 cb bd d6 2e b8 bc 6c 0a 53 bd
       -0.107496366 -0.099225424 -0.02248327 -0.05152361
000360 f7 37 c0 3d 95 e8 41 bd 60 e2 bc bd d5 70 28 3d
       0.093856744 -0.047340948 -0.09222865 0.04112323
000370 07 36 25 be 92 b2 07 be 3f 68 00 be 42 4f 1b bd
       -0.16133891 -0.13251713 -0.12539767 -0.037917383
000380 57 a4 c8 3c 44 ed a1 3d 17 a2 4c be 45 10 c0 bd
       0.024492426 0.07906583 -0.19983707 -0.09378103
000390 79 f5 0f be 37 96 dc 3b 9c 62 fc bd 87 6c 88 bc
       -0.14058484 0.006731774 -0.12323496 -0.016653312
0003a0 a3 22 9e 3d 01 d9 6e bd 8a 3f ef bd e1 b6 ce 3d
       0.0772145 -0.05831242 -0.11682041 0.10093475
0003b0 18 a8 08 bd ab fc 4a 3d cb 88 ec bd be 6c 25 3c
       -0.03336343 0.04955737 -0.11549529 0.010096727
0003c0 bf 33 02 3d b2 db a6 bd 60 05 1e be 7c 5f 29 be
       0.03178763 -0.08147372 -0.15431738 -0.1654033
0003d0 18 ae 4b be 48 dd 95 3d d7 df 30 be 36 07 fb 3b
       -0.1989063 0.07317597 -0.17272888 0.0076607717
0003e0 25 77 25 be d9 17 d2 3d e1 97 05 be 94 cb 0c 3d
       -0.16158731 0.10258455 -0.13046218 0.034373835
0003f0 89 4f f2 3b a1 92 91 3d a7 45 c9 3d 68 e7 35 be
       0.0073947352 0.07108045 0.09827738 -0.17764056

cnn_blocks.0.proj_in.bias f4 [16]
000000 47 ce 18 3c c7 4d c3 3d 81 a7 42 3e 4f 6c 67 be
       0.009326524 0.09536319 0.1900921 -0.2259991
000010 15 51 1a 3e 57 b4 dc 3d 79 0e 20 be ac 80 69 3d
       0.15069993 0.107765846 -0.15630521 0.057007477
000020 fa f8 46 3d 74 cb 88 3d a8 0a 51 3d d9 94 1f 3d
       0.048577286 0.066794306 0.051035553 0.03896031
000030 56 f9 0c bd 70 11 6a bd 4c 48 03 bd 63 c4 0d 3e
       -0.034417473 -0.057145536 -0.03205137 0.13844447

cnn_blocks.0.convs.0.weight f4 [16, 16, 3, 3]
000000 82 7c 86 bd 17 21 cc 3d 2a 1f 9b 3d f7 09 91 3c
       -0.06566717 0.09967249 0.075743034 0.017704947
000010 dd 4f 3b bd b6 b0 e8 3c 3b 28 37 bc a7 a4 38 3c
       -0.04573046 0.028404575 -0.011179025 0.011269725
000020 9f a4 29 bd 90 ff 60 bd 19 d9 e9 bd dc 93 72 bd
       -0.04141676 -0.054931223 -0.11418361 -0.05922304
000030 b9 54 83 bb 0f a8 26 be 44 0d 40 bd 9a 7d bd 3c
       -0.0040079025 -0.16275047 -0.04688765 0.02313118
000040 74 46 54 3d eb 5c 20 3d bc ca 4d bd c0 68 b8 3d
       0.051825 0.039151113 -0.05024217 0.090043545
000050 9c c2 87 bd 0d c6 7b bb f9 03 06 3e d9 15 4f bd
       -0.06628916 -0.0038417608 0.13087453 -0.050557945
000060 31 b2 af bd 9b cb f7 3c 97 cf bd 3d 66 89 46 bd
       -0.08578909 0.030248454 0.0926811 -0.048470877
000070 5e d4 b0 bc 87 48 f1 3d 03 43 e9 bd 8d 7b f4 bd
       -0.02158564 0.117814116 -0.113897346 -0.11937628
000080 06 5a 0c bd ea f2 a0 bd f5 a2 8e bd 4f a1 d0 bd
       -0.03426554 -0.07858832 -0.06964675 -0.10187017
000090 97 67 35 3d 9e e8 6c 3e 29 57 c8 bc 11 dc cd bc
       0.044288244 0.23135611 -0.024455624 -0.02512935
0000a0 65 38 54 bd ad e8 6f 3d 54 84 50 bd 00 0e 06 bd
       -0.051811595 0.058571506 -0.050907448 -0.032728195
0000b0 49 92 16 3d 4b ff 73 bd 24 4b dc bc 36 39 7c 3c
       0.036760602 -0.05956964 -0.026891299 0.0153944995
0000c0 09 b3 6c bc 7c e0 51 bc 53 84 bc 3b 19 3b b3 3d
       -0.014446982 -0.012809869 0.005753079 0.08751506
0000d0 5e b3 81 bc c2 08 ae bd 20 58 0a 3d 61 df cd bd
       -0.0158326 -0.08497764 0.03377545 -0.10052372
0000e0 aa fe 90 3c 3c 3d 85 3d 90 c1 09 3e be de 4d 3c
       0.017699558 0.0650582 0.13452744 0.012565313
0000f0 3b a6 09 bd d8 81 02 3d e8 f1 9b 3d c1 96 c0 bb
       -0.033605795 0.03186211 0.07614499 -0.0058773463
000100 74 ff 88 3c 8b f8 ab 3c 34 14 43 3d 49 fe af bd
       0.016723372 0.020992538 0.04762669 -0.08593423
000110 83 a3 dc bd 5c f6 ae b9 9f 14 2a bd 02 2e ae 3d
       -0.10773375 -0.00033371418 -0.041523572 0.08504869
000120 d9 c0 30 bc 1b 85 4b 3d b4 a0 8e 3a 60 cd c7 bb
       -0.010788166 0.049687486 0.0010881633 -0.0060974807
000130 8d 0c 05 be e8 ac 9b bc 05 5d b2 bc b3 57 f6 3d
       -0.12993069 -0.019003347 -0.02177287 0.12028446
000140 d6 76 60 bd b8 0e d1 3d b8 ee 32 3d ea 1c 1f 3d
       -0.05480083 0.102078855 0.04368469 0.038845934
000150 69 d7 b8 bc bc ef 1e be d3 07 ac bd ab 9e 46 3c
       -0.022563653 -0.15521139 -0.0839993 0.01212279
000160 a6 0a f0 3d e0 ed ce bd 1f c3 97 3d ab a7 d6 bc
       0.11720781 -0.10103965 0.07410263 -0.026202997
000170 cb 57 46 be f8 48 46 3d 79 0c ba 3b e6 07 26 bd
       -0.19369428 0.048409432 0.0056777564 -0.040534876
000180 4b 2f 7a bd 3a b7 7a 3d dd 9b e2 3d 5b a4 d7 bd
       -0.06108026 0.061209895 0.11064885 -0.10529395
000190 ea a4 08 bd 6d e6 c0 bd 0f 48 34 bd 94 e4 1d bd
       -0.0333604 -0.0941895 -0.044014033 -0.038548067
0001a0 78 83 c7 bc 99 92 2e 3d ee 66 59 3d b7 15 b4 bd
       -0.024354681 0.042620275 0.053076677 -0.08793204
0001b0 27 28 76 bc 4d b7 1c 3c 4a c4 ac 3d 0d 5b be 3d
       -0.0150242215 0.009565187 0.08435877 0.0929471
0001c0 da 6c 79 bc ec f5 aa 3d fa b3 c5 3d b5 95 20 bd
       -0.015223706 0.08347687 0.096534684 -0.03920527
0001d0 11 a1 59 bd d7 0e c4 3c d2 41 47 3d 32 8a 8b 3d
       -0.05313212 0.023932857 0.048646756 0.06813468
0001e0 2c 4f 5b 3d 60 e7 34 3d 4f c6 fd 3c 45 25 09 3d
       0.0535423 0.04416597 0.03097835 0.03348281
0001f0 2f 5c 66 bd cb 43 61 3d 62 82 a7 bd 2b 40 11 be
       -0.056240257 0.054996293 -0.081791654 -0.14184634
000200 54 10 8f bd 7d b7 82 3d 84 df ad 3d 9c 5b 93 bd
       -0.06985536 0.06382654 0.08489898 -0.071952075
000210 ae 6a a9 3d 5a 41 28 bd fb 70 9d 3d 19 6d 82 3c
       0.08272301 -0.04107795 0.07687565 0.015921162
000220 63 e0 86 3d d3 e9 af bc d4 4f e7 bc 51 cd 0e 3e
       0.06585767 -0.0214738 -0.028236307 0.1394551
000230 49 1c 69 3c 7f ca ab ba d8 25 c3 bc 76 64 96 3d
       0.014227935 -0.0013106613 -0.023821756 0.0734338
000240 20 56 81 3c 9f 29 bf 3c 10 b3 51 3d c8 fc fd bb
       0.015788138 0.023335276 0.051196158 -0.007751081
000250 0b 13 ce bc f7 94 6e 3c 14 72 9c bd 94 d5 29 bd
       -0.025155565 0.014561883 -0.07638946 -0.04146345
000260 39 42 95 bd fb 71 cb bc db 59 35 bd 97 76 31 3c
       -0.072880216 -0.024834624 -0.044275146 0.010831497
000270 55 ba ca 3b 2a cd 8d bd 47 af 92 3d ca c4 bd 3c
       0.0061867633 -0.069238976 0.07162338 0.023165125
000280 e8 36 8c 3d 52 dc 89 3d 9c 06 01 bd 78 23 47 3d
       0.0684641 0.06731476 -0.031500444 0.04861781
000290 55 c4 c3 3c 49 b4 60 bd ec 7b 2e 3e 10 de 6b 3d
       0.02389733 -0.054859433 0.1703946 0.057584822
0002a0 b4 45 16 be 2e 0f 13 3d 1b c6 a7 bb 80 6f 54 bd
       -0.14675027 0.03590315 -0.0051200516 -0.051864147
0002b0 8b e7 4f bd c9 ca 0d 3e 83 fe f5 bc e6 8f 7a bd
       -0.050757926 0.13846888 -0.030028587 -0.06117239
0002c0 97 de d3 bb 2c 4e a0 3d 44 db b5 3d c1 c5 cc 3c
       -0.0064657438 0.0782741 0.08879712 0.02499664
0002d0 66 25 89 bc d6 64 0d 3e 09 1d 62 3d 06 d4 3d bd
       -0.016741466 0.13807997 0.05520347 -0.04634478
0002e0 ae d2 83 3d ac e0 a0 3d de a2 0d 3e 87 9d c3 bd
       0.06436668 0.07855353 0.1383166 -0.0955153
0002f0 9a b4 a0 bc 0a 6a 45 bd 2d 4b 28 bd 92 75 9b bd
       -0.019617368 -0.04819683 -0.04108732 -0.07590784
000300 2e 65 3a 3d d7 b9 ee bc df f9 f2 bc 40 6b 73 bd
       0.04550665 -0.02914135 -0.029660163 -0.059428453
000310 2f ca 89 bc 1d b3 8a 3d a2 60 89 bd e3 4a 87 bd
       -0.016820041 0.067724444 -0.06707884 -0.066060804
000320 c0 9b 99 3d 59 48 85 3d 1b 1b 57 bd ee 31 82 3c
       0.0750041 0.0650794 -0.052516084 0.015892949
000330 f2 f2 6b 3c 95 74 0e 39 7d af e7 3d a6 41 c3 3d
       0.014401184 0.00013585605 0.113127686 0.09534006
000340 10 b4 05 be bc ed d6 bc 94 3a cb 3b 6c cc dd bb
       -0.1305697 -0.026236407 0.0062020514 -0.0067687538
000350 b1 27 80 3b f2 3a 1c 3b 05 84 4d be 25 a3 6a 3d
       0.0039109816 0.0023838845 -0.20069893 0.057284493
000360 a2 85 fb bc 5a 04 37 3d f4 b3 87 3d d0 af 2c bd
       -0.03070337 0.044681884 0.0662612 -0.042159855
000370 27 b4 5b bc 18 2e 66 3c 79 da ab bc a8 71 e8 bc
       -0.013409651 0.014049076 -0.0209782 -0.028374508
000380 8c 94 ae 3c 44 3d a0 3c ff 63 4e 3d ef 8f 90 bc
       0.021311067 0.019560464 0.050388332 -0.017646758
000390 b2 0c 5c bd 80 52 f3 bc d6 f9 bd 3d 8f d5 57 3d
       -0.053723045 -0.029702425 0.09276168 0.0526939
0003a0 99 8e 19 be 82 14 da 3b 0b 0e ef 3c 05 d0 5b bd
       -0.14995803 0.0066552768 0.0291815 -0.05366518
0003b0 17 c1 d6 3d f7 16 0f bd 4b 46 1e 3d 21 5a 01 bd
       0.10486048 -0.03493401 0.038641255 -0.031580094
0003c0 df c4 30 3c a4 0a 27 be f2 13 e4 bd c5 28 33 3d
       0.010789125 -0.16312653 -0.11136617 0.043740053
0003d0 7e 33 a2 bd b9 3a 7b 3d 05 b5 f5 3c 08 37 fc bd
       -0.079199776 0.0613353 0.029993543 -0.12315184
0003e0 80 11 15 3d 2d 31 20 bd 1a 12 15 3d 9a 17 29 3e
       0.036393642 -0.039109398 0.036394216 0.1651291
0003f0 43 55 7c bc 95 50 2c bd 57 4a d7 bd d3 64 60 bc
       -0.015401187 -0.042069037 -0.10512226 -0.013695913

cnn_blocks.0.convs.0.bias f4 [16]
000000 d2 ac 58 bd 59 78 e3 bb fe e1 58 3c 61 95 93 3b
       -0.05289919 -0.006941837 0.0132374745 0.0045038913
000010 03 e6 98 3d 1c 96 81 3d c7 31 b3 3b 76 67 f4 3c
       0.07465746 0.06327459 0.0054685804 0.02983449
000020 4a 65 97 bd ab f6 85 3d b7 79 ed 3c 5e 32 5a bd
       -0.07392366 0.06541189 0.028988702 -0.05327069
000030 8f 80 12 bc bd 9e 35 3d 46 c7 3d 3d 14 d8 e2 bd
       -0.008941784 0.044340838 0.04633262 -0.1107637

cnn_blocks.0.convs.1.weight f4 [16, 16, 3, 3]
000000 69 41 76 3d 7c e4 b3 bd cd fc 4a be 41 16 df 3b
       0.060120974 -0.08783814 -0.19822998 0.006808073
000010 60 e8 30 be 85 21 60 3c ed af a2 bd 31 a7 75 3d
       -0.17276144 0.013679867 -0.079437114 0.0599739
000020 4f 5d a6 3d 58 97 e5 3d 37 00 81 bd df 1a 42 bd
       0.08123266 0.11210507 -0.06298869 -0.047388908
000030 61 54 27 be 16 c8 ad 3c 6d 8e 8e bc 62 b3 03 3d
       -0.16340782 0.021213572 -0.017401898 0.032153495
000040 93 91 94 3d b8 0d 4f bc a0 d3 37 3d 1b 65 b8 3c
       0.072543286 -0.012637548 0.044879556 0.022509148
000050 1e 2f da bc 6d e0 ca bd a5 03 c0 3c f7 ae 5d 3d
       -0.026633795 -0.09906087 0.023439238 0.054121938
000060 7a 29 6a 3d 35 d9 14 3e 54 39 8d 3e 18 66 ea 3d
       0.05716846 0.14535983 0.275828 0.11445254
000070 86 fd 5b bd b2 e2 2f 3d 2b 9c 3a bd 55 b3 61 bc
       -0.053708576 0.042940803 -0.04555909 -0.013775666
000080 0c 4a 7d bd e5 1c ed bb df be 55 bd fb 14 e0 3c
       -0.061838195 -0.0072361105 -0.052183982 0.027353754
000090 99 db 06 be 59 88 30 bc ed 7b 0d bd 79 f3 d2 bd
       -0.13169707 -0.010774695 -0.034542013 -0.10300345
0000a0 34 b9 86 3d e8 b1 2b 3d 28 b9 c0 3b ff 23 ad 3c
       0.065782934 0.04191771 0.0058814473 0.021135328
0000b0 d0 d5 be 3c a0 2c 9b bd b4 31 44 3e ab 9e fb 3c
       0.023295313 -0.07576871 0.19159585 0.030715307
0000c0 b1 80 2e 3d 58 87 ac 3d eb 1d 1d 3d 54 44 db bb
       0.0426032 0.08424252 0.03835861 -0.006691495
0000d0 69 aa fe 3c 93 42 18 bd 89 7e f2 bd 2e 05 c4 3d
       0.031087117 -0.037172865 -0.11840541 0.095713004
0000e0 b2 31 cc 3d f0 34 70 3d 98 62 9b 3d 28 02 d9 3d
       0.09970416 0.058644235 0.07587165 0.105961144
0000f0 f6 2a 4f bd 16 d0 d3 3d ca d8 cc 3d 50 1d b5 3d
       -0.05057808 0.103424236 0.10002287 0.088434815
000100 fd 2a 0c 3c 50 ee f4 bd 39 49 8b 3c 88 4d e5 bd
       0.008555171 -0.11959517 0.017002689 -0.111964285
000110 db ff e6 bc ce 9e 06 3c e7 1a fa bd 70 e4 85 bd
       -0.028198173 0.008216573 -0.122121625 -0.065377116
000120 c2 76 5b 3d 18 4e 01 3d 39 23 a0 bd ce 20 fc bb
       0.053580053 0.031568617 -0.07819218 -0.0076943403
000130 cb 7b 52 bd ff 31 41 bc 8f 0c 74 3d 0b 45 3b bc
       -0.05138759 -0.011791705 0.05958229 -0.011430035
000140 c9 e8 58 3d 70 45 99 bd 5b c8 f5 3c 6d 94 a8 bc
       0.052956376 -0.07483947 0.030002763 -0.020578587
000150 3a ca d4 bb 62 05 16 bd 07 06 e6 39 70 c5 01 bc
       -0.006493834 -0.036626227 0.0004387351 -0.007920608
000160 2d 3f e8 bd 1b 2d 87 bd 6c 7b 16 3d df 76 cb 3c
       -0.11340175 -0.066004 0.036738798 0.024836956
000170 95 b6 80 bd 1b 8a af 3b 0a 79 e6 3d 74 0b 56 bc
       -0.06284825 0.0053570396 0.11253555 -0.013064254
000180 24 83 0c bc b1 f0 c1 bd 75 0a 5e bc d4 fa 2c 3e
       -0.008576188 -0.09469736 -0.013552298 0.16892558
000190 17 45 81 3d 90 ee ac 3c dc 4f c4 bd e9 3e 0d 3d
       0.06312006 0.02110985 -0.095855445 0.034483824
0001a0 da 44 3b 3d 6b 6e 02 3d 22 01 96 3d 8c 8a 9f bd
       0.04571996 0.031843584 0.07324435 -0.077900976
0001b0 bc 1c b4 ba 85 65 0f 3e 73 ca f7 3d 62 06 8d bd
       -0.0013741474 0.1400357 0.12099161 -0.06885983
0001c0 9b 42 95 3a 09 ee 64 3d be f6 0d be c7 6a 3a bb
       0.0011387648 0.05589107 -0.13863656 -0.0028444992
0001d0 9f 58 64 bd 51 7e ed bd 10 94 5b 3d 12 e5 a6 3d
       -0.05574858 -0.115963586 0.053608 0.081491604
0001e0 97 a8 d0 bd 36 39 0e 3e 1a ec 3c 3c 34 91 f0 bc
       -0.10188406 0.13889012 0.0115309 -0.029366113
0001f0 e6 cf 35 3d 81 2f 3c 3d 41 14 1b 3d b4 89 c3 bc
       0.04438772 0.04594374 0.037861113 -0.023869373
000200 83 b3 1d 3d 56 ec 90 3d 9e a4 bf bd c4 cf 24 bd
       0.038501274 0.070763275 -0.0935757 -0.040237203
000210 ce c6 9d 3d 18 1c c1 3d 72 40 d4 3d c6 c6 12 3d
       0.077039346 0.094291866 0.103638545 0.035834096
000220 dc 04 55 3a ac 18 1f bd fc e2 e6 bd 8e 7f a4 3d
       0.0008126029 -0.03884189 -0.112737626 0.080321416
000230 ee ee df bc 96 a0 29 3e 10 fe ab 3c 48 d1 bf bd
       -0.02733561 0.16565165 0.02099517 -0.09366089
000240 1c a5 e4 bc e1 12 c5 bd 5e e5 7e 3a 91 f8 a8 bd
       -0.027910762 -0.096227415 0.00097235094 -0.08250535
000250 16 9c df bc f7 f9 db 3b 36 60 3a 3d d6 4d 75 3d
       -0.027296107 0.0067131477 0.04550191 0.059888683
000260 f2 b7 b4 bb f5 f0 b0 3c 52 f2 92 3e 40 a0 2e 3e
       -0.005515092 0.021599272 0.287005 0.17053318
000270 69 f7 8d bd c8 2e cb bd 0d 51 b2 3d fd 70 55 3d
       -0.06931955 -0.09921032 0.087068655 0.052109707
000280 16 79 72 3d e2 58 1f 3e 14 3a de bd 3a ff d4 38
       0.059197508 0.1556125 -0.10850921 0.000101564874
000290 97 69 a4 bd d7 90 f3 bd 03 ce 88 bd d7 45 06 bd
       -0.08027952 -0.118928604 -0.066799186 -0.03278145
0002a0 da 50 01 ba c4 e2 0a bc a2 4b 86 3c 05 cb f4 3c
       -0.00049330073 -0.008476917 0.016393486 0.029881964
0002b0 77 13 d3 3d 5b 23 8a 3d 19 f2 d5 3d 27 15 89 3c
       0.10306447 0.06745025 0.10446567 0.016733719
0002c0 8e bd 96 3d e8 c3 17 3d d1 b5 c9 3c f3 2a 94 3d
       0.073603734 0.037052065 0.02462283 0.072347544
0002d0 14 90 56 bd 48 97 3d bc af a3 4c 3e 02 4b 87 bd
       -0.052383497 -0.011571713 0.19984315 -0.066061035
0002e0 e5 32 74 39 0b 35 c3 3d 22 f3 29 3d 9e 10 52 ba
       0.00023288613 0.095316015 0.041491635 -0.00080133404
0002f0 c8 ae 6a 3d 54 c8 9e bd 1b f5 4e bd 91 56 3c 3c
       0.05729559 -0.07753053 -0.05052672 0.011495248
000300 3a 4c 29 be 42 59 9b bc aa 49 cf bb 3e 4f b0 3d
       -0.16532984 -0.01896346 -0.00632592 0.08608864
000310 dc 0d 03 be b8 4c 00 3d b0 05 2b bc 49 3d 68 3d
       -0.12798256 0.031323165 -0.010438368 0.05669907
000320 20 e3 de 3c c0 12 43 bd 13 76 44 bd b9 a8 3d bc
       0.027207911 -0.047625303 -0.047964167 -0.011575871
000330 a8 c8 64 3d 87 4d ea bc 9d a6 f6 3c 83 95 83 bc
       0.055855423 -0.028601421 0.030108744 -0.016062504
000340 b0 73 49 bd 88 46 05 be 6e 29 98 bd 80 e5 55 bd
       -0.049182594 -0.13015187 -0.07429777 -0.05222082
000350 64 19 03 be 26 6e 9b bd 3f 76 fb bb f6 7f b4 3b
       -0.12802655 -0.075893685 -0.007674008 0.005508418
000360 69 90 1d 3d 5f 35 5c 3d 73 55 ad 3d 5b cd 49 bd
       0.0384678 0.053761836 0.08463564 -0.049268108
000370 3a c3 c3 bd a1 28 7d 3c 0c b4 9c bd d5 4f d3 bd
       -0.09558721 0.015451581 -0.07651529 -0.10317961
000380 37 83 ac 3d 4b 0e bc bc e9 ee 1d 3c 41 73 1a 3d
       0.08423465 -0.022956034 0.00963948 0.03770757
000390 63 93 f3 bc d4 33 78 bc a2 63 15 3d cb a6 31 3d
       -0.029733365 -0.015149076 0.03647197 0.043371957
0003a0 01 33 2c 3d 16 b7 80 3d f9 81 68 3c 25 3f 33 bd
       0.04204083 0.06284921 0.014191144 -0.04376139
0003b0 4f 86 63 bd df 81 47 3c 3e 4c 4e 3d af ca 10 3d
       -0.05554801 0.01217696 0.05036568 0.035349544
0003c0 f2 82 a1 3d 96 29 0b be 93 b4 35 be fd ff 97 bd
       0.07886304 -0.13590083 -0.17744665 -0.07421873
0003d0 1d d0 f9 bb c6 8e 7d bd 8b 85 72 3d d3 7a df bd
       -0.007623686 -0.061903737 0.059209388 -0.10912099
0003e0 2d 84 7a 3d 2c 3e 78 bb 38 26 a4 bd d7 be 05 3e
       0.06116121 -0.0037878854 -0.08015102 0.13061081
0003f0 c6 d1 6d bd 97 55 20 bd e0 72 cc 3d b9 fe 8d 3c
       -0.058061384 -0.039144125 0.09982848 0.017333375
