checkpoints/stage2_kd_d3/best_model.pt (torch, 256853 bytes, 142 tensors)

embedder.feature_projections.0.weight f4 [32, 1]
-1.0394827 0.3573735 1.2625495 0.71282786 -0.6136062 1.0810611 -0.89858747 -1.0371343
-0.9080453 1.2626209 -0.26926267 -0.33564547 1.1282824 0.020007135 0.68448395 0.25446934
0.54727715 -0.017754197 -0.26226586 0.25579795 -0.7907433 -0.6918829 -0.80488926 -0.7468548
0.7624116 -0.10408377 -1.1182215 0.18011217 1.0549914 -1.1917665 -0.08532289 1.1165427
00000000: c50d 85bf a9f9 b63e 399b a13f e37b 363f
00000010: 4c15 1dbf 3660 8a3f d409 66bf d1c0 84bf
00000020: a875 68bf 909d a13f ccdc 89be b9d9 abbe
00000030: 8f6b 903f 01e6 a33c 573a 2f3f ce49 823e
00000040: 5b1a 0c3f 4071 91bc b647 86be f3f7 823e
00000050: 276e 4abf 3d1f 31bf 390d 4ebf e031 3fbf
00000060: 682d 433f df29 d5bd e221 8fbf 536f 383e
00000070: f509 873f ce8b 98bf c4bd aebd dfea 8e3f

embedder.feature_projections.0.bias f4 [32]
0.8792435 0.30434713 0.31649357 -0.921556 -0.46140933 0.27968186 -0.79261744 -0.61873186
0.23470394 -0.54233986 0.14236757 0.701662 -0.8728938 0.033171773 -0.7490614 0.52734804
-0.8995601 -0.9651044 0.55407727 0.18512896 -0.73845106 -0.2460754 0.72017854 0.124270394
-0.42300105 -0.1183621 -0.5795981 -0.63443613 -0.7121101 -0.40982383 -0.31861973 -0.76986986
00000000: 1a16 613f 63d3 9b3e 720b a23e 18eb 6bbf
00000010: d83d ecbe 7632 8f3e fae8 4abf 3665 1ebf
00000020: 3b56 703e c9d6 0abf cec8 113e 1fa0 333f
00000030: f875 5fbf 20df 073d 7dc2 3fbf 4800 073f
00000040: 9249 66bf 1511 77bf 02d8 0d3f 7292 3d3e
00000050: 210b 3dbf 31fb 7bbe 9f5d 383f 7a81 fe3d
00000060: 9893 d8be d467 f2bd 8b60 14bf 686a 22bf
00000070: d94c 36bf 6ed4 d1be 2022 a3be 3116 45bf

embedder.feature_projections.1.weight f4 [32, 1]
-0.7826611 0.4430327 0.6751405 0.40520793 -0.0904924 0.728548 1.0095572 -0.011476767
0.45726708 0.80889684 0.7220266 0.07197357 0.735459 -0.0074673714 -0.9549282 0.78323835
-0.7856259 -0.55427104 -0.89959073 -0.9614241 0.87668955 -0.13174485 -0.12802555 -0.26594123
-0.771314 -0.22268473 0.6242527 -0.26363206 0.24737062 -0.51821554 -0.17045909 0.17761225
00000000: 7a5c 48bf 2fd5 e23e 02d6 2c3f 6a77 cf3e
00000010: 1454 b9bd 1f82 3a3f 2c39 813f 0d09 3cbc
00000020: e91e ea3e dd13 4f3f bcd6 383f e166 933d
00000030: 0b47 3c3f dab0 f4bb 2d76 74bf 4f82 483f
00000040: c71e 49bf b5e4 0dbf 944b 66bf e41f 76bf
00000050: ba6e 603f 1fe8 06be 2119 03be 7329 88be
00000060: d674 45bf 7707 64be 06cf 1f3f c8fa 86be
00000070: b94e 7d3e c6a9 04bf d48c 2ebe fcdf 353e

embedder.feature_projections.1.bias f4 [32]
-0.44345224 0.5924244 0.03796199 -0.013812384 0.4777863 -0.051946905 0.5581496 -0.8052628
0.7963754 -0.7780786 0.42662916 -0.09239752 -0.53838456 -0.4717803 0.41841388 -0.50720346
0.47952196 -0.5936143 0.824504 0.4103809 -0.11236414 -0.3903468 0.35213774 -0.28623345
0.35129148 0.7882224 0.9033312 -0.0579497 0.3048567 -0.40958887 -0.9411638 -0.44193605
00000000: 2c0c e3be 20a9 173f 087e 1b3d 564d 62bc
00000010: 68a0 f43e 47c6 54bd e4e2 0e3f b425 4ebf
00000020: 42df 4b3f 2930 47bf 236f da3e e93a bdbd
00000030: 92d3 09bf 308d f1be 583a d63e 16d8 01bf
00000040: e783 f53e 1bf7 17bf b212 533f 721d d23e
00000050: 2c1f e6bd 89db c7be 664b b43e 318d 92be
00000060: 7adc b33e f1c8 493f b740 673f aa5c 6dbd
00000070: 2d16 9c3e a2b5 d1be 1cf0 70bf 7145 e2be

embedder.stabilizer_embedding.weight f4 [8, 32]
0.80330443 -1.0224062 -0.30462146 -0.83748025 0.03696296 0.76428974 -1.2822711 1.8857095
1.5857613 0.11685819 0.8868881 1.4682773 -1.626546 -0.771689 0.08391513 0.64496595
0.31242877 -1.4805262 2.2226043 2.76076 0.22827333 0.83488804 -1.4827399 1.7125374
0.2965083 -0.6195046 -0.88179296 -1.0054262 0.011968776 -0.58563966 0.4875268 -0.34701094
-0.13171102 -2.850885 -1.2617444 0.7914853 -2.6298616 0.9287406 0.90463 -0.34471133
0.83244306 1.1039233 0.9601838 -0.013747534 0.040082134 1.5276039 1.3893346 -0.120835476
2.0062685 -0.90202206 -0.7848963 -0.09478567 -0.6774118 -0.067312196 0.5791358 -0.19949074
2.4227197 -0.72977364 2.5544682 1.5927701 0.54263574 0.33545882 -0.9887097 -1.4314201
1.5429475 -2.6122096 1.3624574 0.055031434 -0.32989857 0.116615385 -0.5236916 -0.18557207
1.1886897 -0.6883917 -0.7289136 0.588842 -0.92132646 0.37317687 -0.116653025 -1.1195984
0.69094 0.32269987 -0.068500385 -3.9660048 -0.43735045 -0.12720095 0.2644873 1.256469
0.22421756 -1.1285554 -2.043586 -0.9308948 -0.29318205 -0.6633959 -0.2949226 0.15341307
0.341406 1.6799258 -0.59498876 -0.17692453 0.14234841 -0.5230268 -0.5570343 0.8357637
-2.1283443 1.2734666 -1.0469147 -0.050456833 0.51901466 0.40361437 -0.26293266 1.3309172
0.44599757 -0.9326972 -0.36964944 -0.25288802 -1.0307113 -0.63773644 -0.8444945 0.2060119
0.23670563 0.262554 0.42676392 1.120941 1.3572756 0.8696321 -0.16645463 -0.8460157
-2.3993561 -0.29858753 -1.4818531 1.0077122 -0.2244244 -0.4549359 0.39593416 -0.6507444
-0.14064252 -0.1539903 1.7848479 0.13892154 -0.7091877 -0.098597355 0.78639585 0.75066626
1.41841 0.024404751 -0.2785544 0.006846427 -0.12749186 -1.6825203 -0.3360677 -0.5031132
1.9592998 2.28596 -1.4604576 1.0353606 -0.3592148 -1.173269 -0.7405412 0.7451958
0.8816221 0.9414731 0.6522448 -0.34587738 -0.43412128 -1.8177272 -1.1649994 0.84370697
0.43807596 0.48486283 -1.0378438 0.013601001 0.5940131 -0.98525554 -0.14745049 -0.48886636
0.17952818 -0.25932837 -0.3673244 0.30614135 0.43794197 -2.7387805 -0.62825173 -1.0148749
-0.12810613 0.28209636 0.035346843 -1.1637732 -0.5487173 -0.88816875 -2.4587367 -0.044167962
-0.35654393 0.5410153 1.2460592 1.2045674 1.2650477 0.07210266 0.5541432 -0.5925295
1.2160786 -2.0696805 -0.025349472 -1.4340312 0.83052295 0.46499434 -0.6551876 1.3256917
0.09587295 -0.75048625 1.0766841 1.7744147 -0.08984362 0.30702233 -1.2957263 -0.7859348
0.29770577 -0.65683115 2.6494498 -0.15133314 2.0716527 -0.5033903 -0.17521079 1.5009391
-1.5418013 0.14421716 -0.67522323 0.20063016 -0.73019797 0.6712649 0.29334992 2.0281577
0.58772385 0.8929506 -0.94676346 0.94280237 1.0180737 1.4473711 2.081679 -0.058127765
-0.86107796 0.4135787 -1.0539473 -1.0071614 -0.09117555 -0.7430317 0.08378902 0.2341102
-0.9338102 0.19883999 1.0502474 0.047137357 2.1638248 1.3118061 -0.21227832 -1.6190667
00000000: 5ca5 4d3f 35de 82bf 58f7 9bbe 1b65 56bf
00000010: 7966 173d 7ea8 433f 7621 a4bf ee5e f13f
00000020: 3afa ca3f 5953 ef3d 190b 633f 83f0 bb3f
00000030: a932 d0bf 698d 45bf b2db ab3d 7d1c 253f
00000040: aaf6 9f3e e281 bdbf 263f 0e40 4bb0 3040
00000050: 7cc0 693e 39bb 553f 6cca bdbf 6d34 db3f
00000060: f0cf 973e da97 1ebf 2fbd 61bf ceb1 80bf
00000070: af18 443c 7bec 15bf 1d9d f93e 6bab b1be
00000080: 41df 06be e674 36c0 d780 a1bf c89e 4a3f
00000090: a74f 28c0 f2c1 6d3f d595 673f 017e b0be
000000a0: fd1a 553f 5c4d 8d3f 9bce 753f 563d 61bc
000000b0: 2a2d 243d 8688 c33f b7d5 b13f 9778 f7bd
000000c0: b466 0040 ebea 66bf f7ee 48bf fd1e c2bd
000000d0: dc6a 2dbf fada 89bd 3e42 143f 4d47 4cbe
000000e0: d70d 1b40 72d2 3abf 687c 2340 e4df cb3f
000000f0: 2dea 0a3f 42c1 ab3e 141c 7dbf c638 b7bf
00000100: 4e7f c53f 712e 27c0 0165 ae3f a468 613d
00000110: 77e8 a8be 0cd4 ee3d a710 06bf 9b06 3ebe
00000120: fc26 983f 703a 30bf 159a 3abf 59be 163f
00000130: 0ddc 6bbf 0a11 bf3e c8e7 eebd 004f 8fbf
00000140: 72e1 303f eb38 a53e ee49 8cbd 06d3 7dc0
00000150: 66ec dfbe f740 02be e16a 873e fad3 a03f
00000160: 4a99 653e 8174 90bf 1dca 02c0 1f4f 6ebf
00000170: f51b 96be 50d4 29bf 1800 97be 5118 1d3e
00000180: c4cc ae3e cf07 d73f 2f51 18bf b42b 35be
00000190: c8c3 113e 16e5 05bf cd99 0ebf 9cf4 553f
000001a0: cb36 08c0 f400 a33f 4d01 86bf d3ab 4ebd
000001b0: 25de 043f 8ba6 ce3e 1c9f 86be 7f5b aa3f
000001c0: cb59 e43e 3ec5 6ebf b142 bdbe 8a7a 81be
000001d0: 59ee 83bf b242 23bf cb30 58bf c9f4 523e
000001e0: f662 723e 7a6d 863e cd80 da3e ff7a 8f3f
000001f0: 35bb ad3f 36a0 5e3f 1573 2abe 7c94 58bf
00000200: 0d8f 19c0 77e0 98be 5dad bdbf b7fc 803f
00000210: 83cf 65be 5ced e8be e2b7 ca3e 2f97 26bf
00000220: 9804 10be a2af 1dbe e575 e43f 7341 0e3e
00000230: 538d 35bf 69ed c9bd 3d51 493f aa2b 403f
00000240: 758e b53f 79ec c73c af9e 8ebe fe57 e03b
00000250: 3a8d 02be d35c d7bf 1111 acbe 07cc 00bf
00000260: 56ca fa3f 2b4d 1240 46f0 babf b286 843f
00000270: 01eb b7be ae2d 96bf 1c94 3dbf 27c5 3e3f
00000280: fcb1 613f 6204 713f 84f9 263f d716 b1be
00000290: 2545 debe 49ab e8bf b31e 95bf 2efd 573f
000002a0: 7e4b e03e f13f f83e 11d8 84bf bcd6 5e3c
000002b0: 3e11 183f b539 7cbf 43fd 16be b14c fabe
000002c0: 3cd6 373e b0c6 84be f211 bcbe 8fbe 9c3e
000002d0: ee39 e03e 2e48 2fc0 1bd5 20bf 6ce7 81bf
000002e0: 412e 03be ef6e 903e dac7 103d 85f6 94bf
000002f0: bd78 0cbf 075f 63bf f15b 1dc0 77e9 34bd
00000300: ed8c b6be fb7f 0a3f de7e 9f3f 442f 9a3f
00000310: 15ed a13f 8faa 933d 54dc 0d3f 03b0 17bf
00000320: 77a8 9b3f a575 04c0 b2a9 cfbc 568e b7bf
00000330: 279d 543f bd13 ee3e 60ba 27bf 44b0 a93f
00000340: 0a59 c43d de1f 40bf c9d0 893f 0520 e33f
00000350: efff b7bd 0832 9d3e 5cda a5bf 0633 49bf
00000360: e46c 983e 1626 28bf 9690 2940 13f7 1abe
00000370: f595 0440 30de 00bf 756a 33be c61e c03f
00000380: bf59 c5bf aaad 133e 6edb 2cbf fe71 4d3e
00000390: 41ee 3abf 04d8 2b3f f631 963e 56cd 0140
000003a0: 1275 163f 6998 643f 175f 72bf 7f5b 713f
000003b0: 3d50 823f 7543 b93f 3b3a 0540 6117 6ebd
000003c0: 9b6f 5cbf 96c0 d33e bfe7 86bf aaea 80bf
000003d0: 3fba babd 5337 3ebf 9499 ab3d 96ba 6f3e
000003e0: 2f0e 6fbf b69c 4b3e 826e 863f 1a13 413d
000003f0: 1b7c 0a40 43e9 a73f 7d5f 59be 943d cfbf

embedder.res_block.0.weight f4 [32]
1.0485455 1.0003514 1.1142161 1.1069175 1.0905825 1.1945292 1.1578575 1.0604022
0.9606145 1.1553178 0.9953319 1.0368013 1.0190281 0.9459854 1.1051211 1.0211561
0.9674155 0.9461905 0.9859862 1.0051252 1.0777634 0.9992301 1.1077397 1.0189006
0.9737752 1.0353831 1.1050895 0.9303335 1.0633621 1.0561485 0.9857664 1.0372263
00000000: bd36 863f 840b 803f a29e 8e3f 79af 8d3f
00000010: 3598 8b3f 55e6 983f ad34 943f 42bb 873f
00000020: d5ea 753f 74e1 933f 12ce 7e3f e8b5 843f
00000030: 836f 823f 192c 723f 9c74 8d3f 3eb5 823f
00000040: 8ba8 773f 8a39 723f 9769 7c3f f1a7 803f
00000050: 27f4 893f 8bcd 7f3f 6aca 8d3f 566b 823f
00000060: 5549 793f 6f87 843f 9373 8d3f 562a 6e3f
00000070: 401c 883f e02f 873f 305b 7c3f d5c3 843f

embedder.res_block.0.bias f4 [32]
0.021375183 -0.026258914 -0.009955349 0.015883202 -0.015294161 0.003915861 0.009248014 0.030740364
-0.048732802 0.021609727 -0.009332236 0.019097507 0.021289853 -0.0065980325 -0.015940474 -0.029592065
-0.017866954 0.06641525 -0.05403747 -0.017414862 -0.0058937743 0.05089866 -0.007950687 -0.0040282705
-0.041098006 -0.011718925 0.00842311 0.038449764 -0.031131068 0.019776773 0.009281466 0.017989898
00000000: 021b af3c ef1c d7bc c31b 23bc 7d1d 823c
00000010: 5c94 7abc 9f50 803b fb84 173c 37d3 fb3c
00000020: 0c9c 47bd e206 b13c 3ce6 18bc 6072 9c3c
00000030: 0f68 ae3c 4f34 d8bb 9995 82bc 0f6b f2bc
00000040: b85d 92bc b804 883d 6556 5dbd 9da9 8ebc
00000050: 9020 c1bb 1d7b 503d 9943 02bc 95ff 83bb
00000060: 6256 28bd bc00 40bc 1501 0a3c 807d 1d3d
00000070: 9506 ffbc e602 a23c 4a11 183c 8d5f 933c

embedder.res_block.1.weight f4 [32, 32]
-0.17382827 0.17013206 -0.10320324 -0.008070809 0.021436846 0.031168766 0.10054876 -0.14297162
-0.11063434 -0.12098418 0.1005232 0.00081024936 0.077450775 0.050641727 -0.031518973 0.044653885
0.060196795 -0.071047455 -0.13080554 -0.017996958 0.16236816 0.038422983 0.16022281 -0.22836567
0.18605432 0.21999179 -0.21608962 0.17188975 -0.060708333 -0.109609455 -0.034651365 0.23518352
-0.10192526 0.007312718 0.034633875 0.17042097 -0.100021176 -0.071433306 0.060587473 -0.08771792
-0.011922568 -0.027245495 -0.0744522 -0.124787 0.115121186 -0.07811961 0.095123 -0.17643471
-0.12649293 -0.06409854 0.084989645 -0.018321682 0.19430764 0.068701856 0.0834178 -0.15363136
0.07764072 -0.20941868 -0.084108144 -0.07367065 0.029875915 0.18045229 -0.03909729 0.118858665
-0.13475889 0.013625317 -0.08728721 0.19533423 -0.12617636 0.10046477 -0.18497488 -0.071692295
0.12811291 0.14721358 0.06725103 -0.07841321 -0.066897765 0.17949784 0.08312558 0.13142614
-0.065322354 0.043361094 0.09887525 0.16689107 0.1009738 -0.018397443 -0.08326333 -0.18270753
0.17364785 -0.23446785 0.011297582 -0.13638322 0.08609166 0.08421424 0.1853237 0.057443216
0.12851915 0.020184387 0.034354396 0.123513594 0.051374987 -0.005884084 0.20466371 0.09776248
0.03653392 0.071778804 -0.09153287 0.17312545 -0.029816546 -0.111842215 0.038743537 -0.069592886
-0.076065905 -0.0013018737 0.11110329 -0.045055736 0.26548398 0.0045700064 0.034912176 0.096711606
-0.104029045 -0.04837221 0.18732995 -0.035394315 -0.04330601 -0.14126062 0.04077761 -0.05798336
0.051826913 -0.15075482 -0.08103085 -0.13896614 -0.08234096 -0.07531916 -0.028771944 0.0035597454
0.15320788 0.14373255 -0.1447536 -0.12654917 -0.043221068 -0.020215562 -0.056305163 -0.040995948
-0.16868423 0.14921087 -0.111731455 -0.14352249 0.118978545 -0.1487597 -0.17098811 0.044662632
0.03307149 0.07368725 -0.11585548 0.11202937 -0.0012377516 0.012178765 0.022079343 -0.13165359
-0.07639147 -0.1546403 0.11947617 0.25504 0.005288818 -0.022672435 0.010110561 -0.16200037
-0.0006386695 0.13167816 0.10790105 -0.28143102 0.09995034 0.011462095 0.12330034 0.063929215
-0.08412446 -0.05887349 0.06811343 -0.058599163 0.041888822 0.022942632 -0.048813805 -0.1614861
0.07048362 0.022486765 0.008680004 -0.050847434 0.032716487 -0.07710963 0.1477486 -0.06692764
-0.038170576 0.073071495 0.086768575 -0.09323608 -0.08316932 0.0002672049 -0.10853968 -0.08857988
-0.19925568 0.15227354 0.0800148 0.01925786 -0.07932325 -0.04078322 0.114232734 0.13278589
0.080511495 -0.11484024 -0.14139321 -0.031190373 -0.063882545 -0.030959738 -0.07875693 0.06976089
0.08227124 0.14839616 -0.15382062 -0.12489687 0.014002561 0.0953643 0.096721776 -0.11253719
-0.2127786 0.10717533 -0.087022364 -0.034781955 -0.03172495 0.11399267 -0.18455966 0.018376993
0.045504197 -0.125975 -0.015670827 0.06990841 -0.052274518 0.1542363 0.021508267 0.00086468295
-0.060511723 0.05309175 0.17499624 0.035657518 0.12959297 0.042585842 0.0014237567 0.12441621
0.053197812 -0.19541112 0.13770483 -0.147829 -0.046204824 0.046056964 0.012091574 -0.100066885
00000000: 0a00 32be 1937 2e3e 385c d3bd 6d3b 04bc
00000010: 539c af3c a455 ff3c 82ec cd3d 2767 12be
00000020: 4294 e2bd 8ec6 f7bd 1cdf cd3d ea66 543a
00000030: 839e 9e3d b36d 4f3d 0a1a 01bd fee6 363d
00000040: ea90 763d 5481 91bd e3f1 05be 5b6e 93bc
00000050: d743 263e 6b61 1d3d 7311 243e b1d8 69be
00000060: 0685 3e3e 8745 613e 9946 5dbe de03 303e
00000070: 4da9 78bd ec7a e0bd 97ee 0dbd f3d3 703e
00000080: 31be d0bd 869f ef3b 40dc 0d3d d682 2e3e
00000090: e7d7 ccbd a04b 92bd 922a 783d 74a5 b3bd
000000a0: e056 43bc f231 dfbc 657a 98bd 5490 ffbd
000000b0: a8c4 eb3d 2dfd 9fbd d9cf c23d 4dab 34be
000000c0: 5d87 01be 1846 83bd 0d0f ae3d 5a17 96bc
000000d0: 95f8 463e 8fb3 8c3d f4d6 aa3d 8a51 1dbe
000000e0: 1902 9f3d da71 56be e440 acbd a3e0 96bd
000000f0: 56be f43c 7cc8 383e 7b24 20bd 2c6c f33d
00000100: 3cfe 09be b93c 5f3c a3c3 b2bd b205 483e
00000110: 6034 01be 79c0 cd3d 0e6a 3dbe 69d3 92bd
00000120: 0830 033e 28bf 163e e8ba 893d 1b97 a0bd
00000130: b201 89bd 48ce 373e be3d aa3d 9394 063e
00000140: bac7 85bd 679b 313d 1b7f ca3d 7ee5 2a3e
00000150: 5acb ce3d 3cb6 96bc f785 aabd af17 3bbe
00000160: bed0 313e 5718 70be 7e19 393c 0ba8 0bbe
00000170: d350 b03d 8478 ac3d 7fc5 3d3e 9449 6b3d
00000180: 869a 033e ba59 a53c 32b7 0c3d b2f4 fc3d
00000190: 946e 523d 46cf c0bb 5d93 513e b237 c83d
000001a0: 97a4 153d c400 933d 9675 bbbd cc47 313e
000001b0: d441 f4bc 880d e5bd 8bb1 1e3d b786 8ebd
000001c0: 71c8 9bbd a2a3 aaba 1f8a e33d 5d8c 38bd
000001d0: 84ed 873e febf 953b 1200 0f3d bc10 c63d
000001e0: 2e0d d5bd f021 46bd 6cd3 3f3e a1f9 10bd
000001f0: a561 31bd a0a6 10be 6c06 273d f67f 6dbd
00000200: 7548 543d 795f 1abe 81f3 a5bd 244d 0ebe
00000210: 61a2 a8bd ef40 9abd 24b3 ebbc 9e4a 693b
00000220: 87e2 1c3e a02e 133e 4a3a 14be 1b96 01be
00000230: 9308 31bd 1b9b a5bc 3ea0 66bd 5eeb 27bd
00000240: 8fbb 2cbe bcca 183e 76d3 e4bd 8ff7 12be
00000250: 06ab f33d 7654 18be 8217 2fbe 2af0 363d
00000260: f875 073d 57e9 963d a345 edbd a86f e53d
00000270: 0d3c a2ba 7189 473c bddf b43c 33d0 06be
00000280: 2273 9cbd 075a 1ebe ecaf f43d 9a94 823e
00000290: d24d ad3b 8bbb b9bc c4a6 253c 6de3 25be
000002a0: 626c 27ba a4d6 063e 3afb dc3d ba17 90be
000002b0: c4b2 cc3d 83cb 3b3c e384 fc3d 52ed 823d
000002c0: 7249 acbd 5425 71bd 0e7f 8b3d ad05 70bd
000002d0: 9d93 2b3d 30f2 bb3c fcf0 47bd 9d5c 25be
000002e0: b759 903d 2a36 b83c 9336 0e3c 6645 50bd
000002f0: b901 063d a7eb 9dbd 694b 173e 5c11 89bd
00000300: c058 1cbd 82a6 953d b9b3 b13d 8ff2 bebd
00000310: ad54 aabd a217 8c39 0d4a debd 5e69 b5bd
00000320: ae09 4cbe 98ed 1b3e cdde a33d a9c2 9d3c
00000330: 3a74 a2bd 4e0c 27bd daf2 e93d 06f9 073e
00000340: 36e3 a43d 5c31 ebbd 62c9 10be f482 ffbc
00000350: dad4 82bd 479f fdbc 504b a1bd ccde 8e3d
00000360: d37d a83d 2af5 173e 2783 1dbe eec9 ffbd
00000370: ff6a 653c 5c4e c33d 1116 c63d e679 e6bd
00000380: a2e2 59be bd7e db3d c838 b2bd 8677 0ebd
00000390: 05f2 01bd fd74 e93d 35fd 3cbe 598b 963c
000003a0: 9c62 3a3d 97ff 00be 1b60 80bc 242c 8f3d
000003b0: ce1d 56bd 1ff0 1d3e 1b32 b03c e4ab 623a
000003c0: 24db 77bd bc76 593d 3732 333e 9e0d 123d
000003d0: 05b4 043e 7e6e 2e3d 599d ba3a edcd fe3d
000003e0: f3e5 593d da19 48be 7f02 0d3e 7c60 17be
000003f0: 4541 3dbd 3aa6 3c3d bd1b 463c deef ccbd

embedder.res_block.1.bias f4 [32]
-0.16009617 -0.026080647 0.12920421 0.09448646 0.05177419 0.056287523 0.045905594 -0.12795399
-0.04282867 -0.045758095 -0.09448352 -0.029070716 0.12806953 -0.026897028 0.19790637 -0.15514351
-0.12404963 -0.033446584 -0.0075759026 0.13632715 0.01824434 0.15686117 0.05842115 -0.0007130342
0.09976961 -0.16434567 -0.018112741 -0.1254175 0.033747137 0.088917986 -0.13549536 0.127501
00000000: 40f0 23be 15a7 d5bc 1c4e 043e 1e82 c13d
00000010: 2c11 543d bf8d 663d 8107 3c3d 5f06 03be
00000020: 1e6d 2fbd d76c 3bbd 9380 c1bd b625 eebc
00000030: a924 033e 2857 dcbc f8a7 4a3e f1dd 1ebe
00000040: bb0d febd 49ff 08bd 473f f8bb 5899 0b3e
00000050: 2775 953c 37a0 203e 044b 6f3d eaea 3aba
00000060: 0254 cc3d 3b4a 28be 2c61 94bc 726d 00be
00000070: 703a 0a3d a21a b63d 4cbf 0abe 9f8f 023e

embedder.res_block.3.weight f4 [32, 32]
-0.11177337 0.112476185 -0.050985545 -0.07936759 -0.055656765 -0.091331206 -0.08493922 0.15338309
-0.056931544 0.03125736 0.21137436 -0.28531295 -0.056249946 0.00913215 0.1239877 -0.08335062
-0.090137735 -0.04579844 0.082323015 0.15745567 -0.091534115 0.053974956 -0.32560363 0.13909076
0.07910714 -0.05812096 -0.24271928 -0.21706982 -0.07667461 0.09870704 -0.16480005 0.029596582
0.019482717 0.00054215715 -0.041944306 -0.1306439 -0.09215211 -0.0035245926 -0.10051922 0.019074151
-0.1099715 -0.1547795 -0.10639486 0.33057103 -0.17901425 -0.010560529 0.012676302 -0.017090045
0.046633855 0.1892908 0.007254993 0.060598403 -0.13102065 -0.050254185 0.010871468 -0.026619012
0.030243255 -0.17180468 0.043874614 0.06624852 0.14242563 -0.043060295 0.121721506 0.0056848456
-0.3290482 0.10297476 0.062483713 -0.05644504 -0.12566069 0.16770948 0.08321386 0.111181766
-0.12161102 0.023653012 -0.18366101 0.4226069 0.18685786 -0.07211463 -0.14893064 -0.10456891
0.09511385 -0.029783903 -0.16381508 0.08728023 0.03194208 -0.0037929574 0.22938742 -0.11918778
0.045457363 0.20033947 0.13367836 -0.15418054 -0.07583557 -0.002074851 -0.08175354 0.07887949
0.10739822 -0.14334571 0.025614535 0.09027292 -0.085827604 0.023259671 -0.07488257 0.08866709
-0.083510585 0.10516063 0.03528007 -0.015814265 0.18260132 -0.03810733 -0.19916394 0.07868661
-0.16393544 -0.059427056 0.12443149 0.14836906 0.13063738 0.21021996 0.14971246 -0.019448401
-0.10956352 -0.044288874 0.12826838 0.11087002 0.14152977 0.055130895 -0.053178575 -0.08527107
-0.072365135 -0.13419989 -0.0459159 -0.06385053 0.12181677 0.07621567 -0.12801597 -0.02057987
-0.12876357 -0.1542782 0.058471378 -0.16543154 -0.070254326 0.14171417 0.11550404 0.04766768
0.26409668 0.13977599 -0.0021751823 -0.13524246 -0.087678775 -0.020147217 -0.41915718 -0.021396464
0.051757637 0.03691048 -0.19262351 -0.20497587 -0.062031955 -0.17521338 0.034214202 0.14360341
0.08148979 -0.028553084 0.05123103 -0.20945942 0.14936943 -0.027923279 0.037940387 -0.0026104408
0.026392136 0.11267119 -0.09398567 0.032956563 -0.1843657 -0.0034513427 0.17846048 0.13255621
-0.06127157 -0.12289217 -0.120170005 -0.006186629 -0.019995047 -0.15358931 0.04976892 0.12623905
0.007059658 -0.0054546343 0.032063864 0.06415469 -0.09036775 -0.13544783 -0.029848529 0.0032609862
0.117176965 -0.078921214 -0.0575579 0.19243246 0.12506586 0.13618302 0.16588226 -0.096928425
0.10790792 0.11371121 -0.05290611 -0.14843942 0.2152842 -0.15652719 0.0387865 0.08421287
0.24117285 -0.016477698 -0.04018188 0.1290463 0.09127041 -0.041726016 -0.22062959 0.0055749267
-0.16271411 -0.05422051 -0.053664863 -0.120788485 -0.056380868 0.021979675 -0.120076686 0.23462227
0.22085996 0.06521926 0.075980686 -0.0123601565 -0.04741597 0.018805757 -0.09154385 0.20661984
0.16166894 -0.22076069 0.23311841 -0.16325156 -0.1325798 0.15619813 -0.0013759893 0.009575098
0.17863998 0.028830426 -0.020316087 0.119762786 -0.14287464 0.21749552 -0.27688405 0.1617032
0.12020936 -0.12496286 -0.13206148 -0.14097038 -0.01044177 0.10517762 0.062219083 -0.022449033
00000000: 70e9 e4bd ea59 e63d 38d6 50bd 7a8b a2bd
00000010: 59f8 63bd db0b bbbd 9df4 adbd 7510 1d3e
00000020: 0d31 69bd b807 003d 8572 583e 8a14 92be
00000030: 5866 66bd 039f 153c 43ed fd3d bbb3 aabd
00000040: 229a b8bd 2597 3bbd f898 a83d 0f3c 213e
00000050: 3d76 bbbd d814 5d3d 85b5 a6be cf6d 0e3e
00000060: ed02 a23d 3e10 6ebd 678b 78be 8d47 5ebe
00000070: 9407 9dbd eb26 ca3d 58c1 28be 8874 f23c
00000080: 389a 9f3c 8d1f 0e3a cbcd 2bbd 84c7 05be
00000090: 3fba bcbd dafc 66bb 05dd cdbd 6541 9c3c
000000a0: bd38 e1bd 847e 1ebe 8ce5 d9bd 9b40 a93e
000000b0: 834f 37be 1206 2dbc 44b0 4f3c 6c00 8cbc
000000c0: 2403 3f3d 73d5 413e 4bbb ed3b 0836 783d
000000d0: 472a 06be 55d7 4dbd 3e1e 323c 1d10 dabc
000000e0: b4c0 f73c 91ed 2fbe deb5 333d 4ead 873d
000000f0: 06d8 113e fe5f 30bd 2049 f93d f147 ba3b
00000100: 0179 a8be 6ee4 d23d ecee 7f3d ea32 67bd
00000110: 32ad 00be 09bc 2b3e 076c aa3d 44b3 e33d
00000120: 330f f9bd f6c3 c13c a211 3cbe ee5f d83e
00000130: ab57 3f3e d6b0 93bd 4681 18be 3a28 d6bd
00000140: 0dcb c23d 5ffd f3bc 24bf 27be fabf b23d
00000150: b3d5 023d 4493 78bb 89e4 6a3e b918 f4bd
00000160: 8031 3a3d ca25 4d3e fbe2 083e 81e1 1dbe
00000170: ae4f 9bbd 39fa 07bb 666e a7bd 928b a13d
00000180: 99f3 db3d 38c9 12be 93d5 d13c 02e1 b83d
00000190: 62c6 afbd 118b be3c 085c 99bd 1797 b53d
000001a0: 9907 abbd 755e d73d d681 103d eb8c 81bc
000001b0: d7fb 3a3e 6f16 1cbd a2f1 4bbe 7226 a13d
000001c0: b1de 27be c969 73bd f0d5 fe3d 0fee 173e
000001d0: cec5 053e e743 573e 394e 193e 4152 9fbc
000001e0: d762 e0bd 4068 35bd c958 033e d20f e33d
000001f0: 2eed 103e efd0 613d c7d1 59bd 99a2 aebd
00000200: 2c34 94bd b26b 09be 5012 3cbd 11c4 82bd
00000210: 127b f93d f616 9c3d 9e16 03be 1e97 a8bc
00000220: 99da 03be 1bfb 1dbe af7f 6f3d e366 29be
00000230: 80e1 8fbd 851d 113e 628d ec3d 2f3f 433d
00000240: ae37 873e 7021 0f3e 818d 0ebb 007d 0abe
00000250: ee90 b3bd c70b a5bc c59b d6be a347 afbc
00000260: d1ff 533d 722f 173d 193f 45be 32e5 51be
00000270: 3815 7ebd 236b 33be 3124 0c3d c60c 133e
00000280: 1ee4 a63d 28e8 e9bc a1d7 513d 887c 56be
00000290: 4df4 183e 5cbf e4bc 6167 1b3d ee13 2bbb
000002a0: 5234 d83c 27c0 e63d 8f7b c0bd 76fd 063d
000002b0: 5dca 3cbe ec2f 62bb 58be 363e d1bc 073e
000002c0: e6f7 7abd e4ae fbbd b11b f6bd 35b9 cabb
000002d0: a7cc a3bc 8446 1dbe 7fda 4b3d cf44 013e
000002e0: b454 e73b cabc b2bb 6655 033d 8963 833d
000002f0: ba12 b9bd d6b2 0abe e784 f4bc 45b6 553b
00000300: 7afa ef3d 72a1 a1bd d5c1 6bbd 040d 453e
00000310: 4411 003e 9073 0b3e 0add 293e 6982 c6bd
00000320: d4fe dc3d 6ce1 e83d 14b4 58bd 8100 18be
00000330: 7673 5c3e aa48 20be 98de 1e3d cc77 ac3d
00000340: 04f6 763e 3dfc 86bc c195 24bd b724 043e
00000350: fbeb ba3d e6e8 2abd b9ec 61be e0ad b63b
00000360: 879e 26be 5316 5ebd b0cf 5bbd f45f f7bd
00000370: a0ef 66bd b80e b43c c4ea f5bd d240 703e
00000380: 1d29 623e ad91 853d c39b 9b3d 4182 4abc
00000390: 4037 42bd 880e 9a3c 587b bbbd 2794 533e
000003a0: 8b8c 253e 170f 62be 98b6 6e3e 6b2b 27be
000003b0: 00c3 07be 67f2 1f3e 8a5a b4ba dfe0 1c3c
000003c0: 66ed 363e c92d ec3c ec6d a6bc 3146 f53d
000003d0: bb4d 12be 25b7 5e3e bfc3 8dbe 8695 253e
000003e0: 5330 f63d 87ec ffbd 203b 07be 8a5a 10be
000003f0: f513 2bbc 5d67 d73d 70d9 7e3d 09e7 b7bc

embedder.res_block.3.bias f4 [32]
-0.14945996 -0.15148292 -0.11613512 -0.13811928 -0.07668064 0.13620156 -0.05968221 0.056141205
0.07122889 0.05932518 0.013500706 0.17060785 0.15020238 -0.09387292 0.033075053 0.039873198
0.08486257 -0.051934164 -0.025357002 0.015441706 0.07520245 -0.10258328 -0.16219702 -0.12608589
-0.1080472 -0.13210623 0.0559619 0.09915597 0.0929014 0.019739106 0.13944001 -0.03757115
00000000: 080c 19be 571e 1bbe 40d8 edbd 246f 0dbe
00000010: bd0a 9dbd 6c78 0b3e 5575 74bd 52f4 653d
00000020: 74e0 913d f6fe 723d 1132 5d3c d3b3 2e3e
00000030: a7ce 193e 7240 c0bd b579 073d 1452 233d
00000040: 6dcc ad3d ebb8 54bd 7db9 cfbc 36ff 7c3c
00000050: be03 9a3d 2f17 d2bd fa16 26be a91c 01be
00000060: da47 ddbd db46 07be 4e38 653d 4912 cb3d
00000070: 1743 be3d e8b3 a13c 5dc9 0e3e 35e4 19bd

cnn_blocks.0.proj_in.weight f4 [16, 32]
-0.007937674 0.0885825 -0.17431352 0.16378732 0.12083565 -0.12379932 -0.10284126 0.12303869
0.035624087 -0.042614866 -0.13165243 -0.05822062 0.0546424 0.048522662 -0.122411035 -0.029391624
0.103814006 0.09591387 0.12212903 -0.03198246 -0.021683345 0.0011087931 -0.065472454 0.07264228
-0.09235667 0.06674885 0.09573458 -0.0901338 0.07898802 0.09218046 -0.11436908 0.15849476
0.037949234 0.044761956 0.10956878 0.06437472 -0.09295135 -0.1465513 -0.1003088 0.043538637
-0.18247716 0.05360171 -0.1897982 0.13948233 0.04197719 -0.21275215 -0.19415547 -0.23728304
-0.055095773 0.0042664786 0.054770723 -0.12317333 0.027290776 0.02346255 -0.047851443 -0.0031747662
-0.06905524 0.06887689 -0.104009226 0.07848265 -0.019113684 0.20698203 -0.02296169 -0.0011477594
0.03994647 0.0026218502 -0.078058645 -0.07919492 -0.0053498116 -0.054537494 0.07908567 -0.0299037
0.035609625 0.006619186 0.0670136 -0.026610442 -0.13894282 0.02981485 0.022065258 0.07026864
0.057385795 -0.07790395 0.017644852 -0.18428928 0.015528282 0.15393361 0.093613386 0.052056875
-0.17288908 0.10625086 0.0066341455 0.082614556 -0.18885116 -0.19807754 -0.08781159 0.10989476
-0.026124764 -0.1052959 0.11463392 -0.014387865 -0.09634445 -0.024924498 -0.15250029 -0.012542757
-0.06274635 0.075036675 0.11200885 -0.14828435 -0.020532046 0.06648689 0.16185126 0.12417621
-0.17652728 0.108463876 0.010515075 0.14557785 0.036214467 0.025764983 0.076100454 -0.11695598
0.097769335 0.12747678 0.04142102 -0.04141921 -0.095419355 0.13798629 0.014770272 -0.17675763
-0.16612655 -0.06528196 0.18935874 0.052384336 -0.077651925 -0.038786475 0.09641649 0.045008767
-0.12808688 0.15402578 0.03136877 -0.18035859 0.11109566 0.03586091 -0.120134704 0.022295156
-0.15456279 -0.03252555 -0.0380891 -0.06046863 -0.086458325 0.09531706 -0.20379944 -0.011915309
0.20444633 -0.16028841 -0.046352442 -0.11974362 0.057689097 0.032336153 -0.11161003 0.2614371
-0.166442 -0.03804313 0.00853135 -0.038027365 0.13600324 0.013832223 0.04887967 0.05485089
0.0147670405 0.16263314 -0.1567134 0.14304627 -0.15350085 0.15665801 -0.060384605 -0.15545268
0.08292519 -0.106847785 -0.038083687 -0.044450674 0.06546788 -0.07409272 -0.061077032 -0.04844434
-0.104949504 0.11157084 -0.14207678 -0.16278844 0.08552486 -0.04722517 0.07143877 0.21581027
0.03972993 0.109437466 -0.002529294 0.04795205 0.09748154 -0.15396652 -0.027812272 -0.1453285
-0.0044127936 0.10676543 0.16638796 -0.062162977 -0.128409 0.06715894 -0.084735826 -0.17135455
-0.12996243 -0.101664774 0.11157704 -0.07787332 0.065620594 0.0726794 -0.027098814 0.10341284
0.057260014 -0.06797974 -0.15797168 -0.22504222 0.045147866 0.12700976 0.0036746233 0.23206
0.014457664 -0.06674259 -0.028283134 0.009863568 -0.118332244 0.12052441 0.053171407 -0.042140603
0.14453286 0.17510357 0.16929409 0.12570463 0.16668029 -0.03751561 -0.14585806 -0.010721712
0.00043521647 0.21792991 -0.11184397 -0.008702622 -0.12157098 -0.05648779 -0.13314316 0.034983646
0.110496596 0.1878662 -0.02652511 -0.016420914 0.113494374 -0.18256994 -0.122189984 0.11855653
00000000: 050d 02bc be6a b53d 3e7f 32be ddb7 273e
00000010: ae78 f73d 7f8a fdbd 709e d2bd b5fb fb3d
00000020: 90ea 113d ed8c 2ebd e5cf 06be bf78 6ebd
00000030: b6d0 5f3d b3bf 463d a3b2 fabd b4c6 f0bc
00000040: 709c d43d 7e6e c43d c91e fa3d 0a00 03bd
00000050: 45a1 b1bc ec54 913a 6c16 86bd 7ac5 943d
00000060: 7e25 bdbd 9fb3 883d 7e10 c43d 1298 b8bd
00000070: 79c4 a13d 1cc9 bc3d 563a eabd 734c 223e
00000080: a870 1b3d 5058 373d 9965 e03d e5d6 833d
00000090: 475d bebd 8b11 16be b36e cdbd 9255 323d
000000a0: 4bdb 3abe 778d 5b3d 765a 42be 75d4 0e3e
000000b0: 46f0 2b3d b3db 59be b1d0 46be 53fa 72be
000000c0: 1bac 61bd d1cd 8b3b 4457 603d 4d42 fcbd
000000d0: e890 df3c 8934 c03c e0ff 43bd bd0f 50bb
000000e0: d56c 8dbd 540f 8d3d ca02 d5bd 83bb a03d
000000f0: 4d94 9cbc 19f3 533e 271a bcbc 6a70 96ba
00000100: e99e 233d 59d3 2b3b 36dd 9fbd f230 a2bd
00000110: 794d afbb b562 5fbd abf7 a13d 9bf8 f4bc
00000120: 66db 113d c2e5 d83b 6d3e 893d 24fe d9bc
00000130: 0747 0ebe 463e f43c 33c2 b43c 01e9 8f3d
00000140: 5e0d 6b3d 1b8c 9fbd f08b 903c 54b6 3cbe
00000150: 566a 7e3c c6a0 1d3e 60b8 bf3d 9739 553d
00000160: d609 31be 0d9a d93d 3f63 d93b d231 a93d
00000170: 3362 41be d7d4 4abe 90d6 b3bd 8110 e13d
00000180: 9a03 d6bc 60a5 d7bd 30c5 ea3d 14bb 6bbc
00000190: 3d50 c5bd 762e ccbc 0929 1cbe 2380 4dbc
000001a0: 2981 80bd d4ac 993d e564 e53d dad7 17be
000001b0: d232 a8bc 472a 883d 56bc 253e 1950 fe3d
000001c0: 91c3 34be 4f22 de3d 6c47 2c3c 5c12 153e
000001d0: 9f55 143d 1611 d33c 8eda 9b3d 9e86 efbd
000001e0: 4a3b c83d 4689 023e 16a9 293d 31a7 29bd
000001f0: 396b c3bd 474c 0d3e 03ff 713c f4ff 34be
00000200: 141d 2abe 8cb2 85bd 42e7 413e f590 563d
00000210: f907 9fbd 91de 1ebd 0276 c53d 1d5b 383d
00000220: 3529 03be efb8 1d3e 8a7c 003d ecaf 38be
00000230: 1f86 e33d e4e2 123d 2f09 f6bd 55a4 b63c
00000240: b545 1ebe 8339 05bd 5103 1cbd f4ad 77bd
00000250: 1011 b1bd 9735 c33d cdb0 50be 6e38 43bc
00000260: 615a 513e a522 24be 0fdc 3dbd 253c f5bd
00000270: 674b 6c3d ea72 043d cd93 e4bd 15db 853e
00000280: c66f 2abe 1dd3 1bbd 13c7 0b3c 95c2 1bbd
00000290: 6f44 0b3e 8ca0 623c 0d36 483d 54ab 603d
000002a0: 75f1 713c 4d89 263e 7a79 20be b97a 123e
000002b0: 542f 1dbe f56a 203e d955 77bd fd2e 1fbe
000002c0: afd4 a93d 03d3 dabd a4fd 1bbd e911 36bd
000002d0: 0614 863d edbd 97bd e92b 7abd 926d 46bd
000002e0: c4ef d6bd 417f e43d 937c 11be 03b2 26be
000002f0: a827 af3d 2e6f 41bd 7d4e 923d 5efd 5c3e
00000300: dabb 223d c020 e03d 83c2 25bb 5e69 443d
00000310: 67a4 c73d 66a9 1dbe 90d6 e3bc ffd0 14be
00000320: 3299 90bb d5a7 da3d 9b61 2a3e 9b9e 7ebd
00000330: a67d 03be a08a 893d fa89 adbd 9177 2fbe
00000340: df14 05be 9f35 d0bd 8182 e43d 0c7c 9fbd
00000350: 1764 863d f0d8 943d 55fe ddbc 1cca d33d
00000360: 7a89 6a3d f638 8bbd 54c3 21be 7871 66be
00000370: f8ec 383d d90e 023e f3d1 703b 23a1 6d3e
00000380: d7df 6c3c 57b0 88bd 08b2 e7bc cd9a 213c
00000390: 2d58 f2bd 80d5 f63d 43ca 593d a09b 2cbd
000003a0: 6c00 143e 5a4e 333e 6e5b 2d3e b7b8 003e
000003b0: 3dae 2a3e f8a9 19bd d15b 15be 1faa 2fbc
000003c0: c42d e439 0529 5f3e 740e e5bd 7195 0ebc
000003d0: 35fa f8bd be5f 67bd ae56 08be 034b 0f3d
000003e0: 0a4c e23d ff5f 403e 304b d9bc 2785 86bc
000003f0: bd6f e83d 9df3 3abe be3e fabd c4cd f23d

cnn_blocks.0.proj_in.bias f4 [16]
0.101827115 -0.015642965 -0.1260087 -0.020268911 0.04449672 -0.08507477 0.08670529 0.105523966
0.18079571 0.16018203 0.20839223 0.12657514 -0.1174878 -0.18075319 0.0032726005 -0.030527163
00000000: bc8a d03d ad25 80bc 6d08 01be fd0a a6bc
00000010: 3142 363d ae3b aebd 8b92 b13d f31c d83d
00000020: 8322 393e c206 243e c664 553e ea9c 013e
00000030: 729d f0bd 5d17 39be 2079 563b 1a14 fabc

cnn_blocks.0.convs.0.weight f4 [16, 16, 3, 3]
0.043171864 0.09251508 0.07005696 -0.08210207 0.08615178 0.025426883 -0.09225798 -0.030423386
-0.0055680834 0.042499665 -0.0199312 0.034456737 0.10021012 -0.03452499 0.045881163 -0.037105516
-0.05669102 0.0152279185 0.08938115 -0.117287114 -0.055355128 -1.9829386e-05 0.0076139136 -0.080278054
0.041247822 0.044534955 0.051971063 -0.057719 -0.068635695 0.01828309 0.027939478 0.040768586
0.05314891 0.022951273 -0.0106492825 0.007870827 -0.04664588 -0.032449976 -0.0039591487 -0.123399094
0.027648633 -0.009051293 0.10926193 -0.0023613428 -0.09586144 0.0997616 0.06735385 -0.033733174
0.001567179 0.08049296 0.006740882 0.08653729 -0.036587406 -0.008532158 0.0148227 -0.035299774
0.16203995 0.022141427 -0.00030171569 0.029495424 0.003788278 -0.019552005 0.047777172 -0.017472327
0.1154923 -0.027602538 -0.0219226 -0.05214778 0.0032908488 -0.032883063 -0.11243168 -0.04374767
-0.07007477 0.07216286 -0.009663073 -0.09495753 0.038591005 -0.03718479 -0.010483258 -0.015597214
-0.12759295 0.06955229 0.00017423864 0.015043865 0.02071697 0.060984593 0.023235207 0.018096196
0.039148536 -0.09770558 0.049902778 -0.045141414 -0.00763586 0.16379079 0.1725152 -0.031269915
0.104128525 0.021545514 0.0067929896 -0.0633439 0.003737238 0.03223978 -0.042012643 -0.04266378
-0.08685872 0.054309417 -0.10062978 -0.063696876 0.05828553 -0.057935037 -0.017919092 -0.008809593
-0.021070357 -0.12343641 -0.05277416 0.0010003616 -0.039471965 -0.01691584 0.011461955 -0.12136229
-0.010776078 -0.10598335 -0.0069279424 -0.029151903 0.05190523 0.13545981 0.12732925 0.10339273
0.11660661 0.08010291 -0.123111345 0.008995789 0.045608502 0.00875767 0.085430704 0.09583692
-0.06926139 0.0106545845 -0.0803752 0.0018227084 0.18241857 -0.057536792 -0.042749964 -0.020133164
0.0062835244 0.016360013 -0.16471888 -0.10241291 0.009008833 0.052643206 -0.035363927 -0.09313409
-0.01726494 -0.019026149 0.035590623 -0.002579029 0.10123161 -0.097266264 -0.0025112568 0.03839058
-0.092963815 0.03708921 -0.027908027 7.383205e-07 -0.04625711 0.03221928 -0.03256923 0.14520662
0.048362903 -0.08185981 0.052980486 0.018308317 0.053485584 0.031923138 0.046725668 0.022319842
-0.048961155 0.036520697 0.08387484 0.061343174 0.08003985 -0.03296904 0.0146722235 0.01014793
-0.004303747 -0.1530856 0.023407295 0.072541066 -0.09717653 -0.12953758 0.037924595 0.033872537
-0.016901895 -0.15475415 0.06599936 0.049736872 0.057411518 -0.008273521 -0.12204991 0.053728208
-0.088224575 0.0083249295 -0.058738302 -0.07701404 0.0094672525 0.048098586 -0.030504458 -0.091308914
-0.016409203 0.038643923 -0.022983124 0.08093385 -0.041434705 0.05692163 0.033969343 -0.121053964
0.012367469 0.060095306 -0.13098341 -0.049766444 0.07373027 -0.050727755 0.07875932 -0.19597632
0.06644211 -0.09223517 0.09366663 -0.04023401 -0.03335247 0.0035075608 0.04134047 0.12527819
-0.053742588 -0.052643817 0.016838055 0.015462464 -0.07711814 -0.05751495 -0.09218588 0.08974081
0.080248766 -0.025400162 0.011808353 -0.08752364 0.051587258 0.0017148472 -0.03449559 -0.06474639
0.045219503 0.028823514 -0.09647099 -0.05497574 -0.07859971 0.04750364 0.067073934 0.088618234
00000000: fbd4 303d 8c78 bd3d 067a 8f3d 2125 a8bd
00000010: 5870 b03d 0a4c d03c c0f1 bcbd 773a f9bc
00000020: 7874 b6bb 2114 2e3d c246 a3bc 8222 0d3d
00000030: f73a cd3d 136a 0dbd e3ed 3b3d f4fb 17bd
00000040: d834 68bd 857e 793c 770d b73d 3a34 f0bd
00000050: 0fbc 62bd 4857 a6b7 237e f93b d268 a4bd
00000060: 7af3 283d 496a 363d 9cdf 543d c26a 6cbd
00000070: df90 8cbd 6bc6 953c 55e1 e43c f6fc 263d
00000080: acb2 593d 4f04 bc3c 547a 2ebc a4f4 003c
00000090: c00f 3fbd 44ea 04bd bfbb 81bb aab8 fcbd
000000a0: 637f e23c e04b 14bc b8c4 df3d c2c0 1abb
000000b0: 0153 c4bd cf4f cc3d d1f0 893d cc2b 0abd
000000c0: cd69 cd3a 7ed9 a43d 9ee2 dc3b 763a b13d
000000d0: addc 15bd 77ca 0bbc e9da 723c 7f96 10bd
000000e0: cded 253e f061 b53c 982f 9eb9 63a0 f13c
000000f0: c244 783b 872b a0bc ffb1 433d 2022 8fbc
00000100: 3a87 ec3d b81e e2bc 0697 b3bc e998 55bd
00000110: 48ab 573b 64b0 06bd 9542 e6bd c230 33bd
00000120: 5c83 8fbd 1fca 933d de51 1ebc 1879 c2bd
00000130: 9a11 1e3d 144f 18bd f9c1 2bbc 758b 7fbc
00000140: baa7 02be 6e71 8e3d d4b3 3639 8b7a 763c
00000150: a3b6 a93c fbca 793d c357 be3c 793e 943c
00000160: 375a 203d dd19 c8bd db66 4c3d 34e6 38bd
00000170: 3c36 fabb c6b8 273e d3a7 303e e214 00bd
00000180: 5641 d53d 3880 b03c ba97 de3b 72ba 81bd
00000190: 73ec 743b dc0d 043d 7315 2cbd 37c0 2ebd
000001a0: fce2 b1bd 8d73 5e3d fc16 cebd 8273 82bd
000001b0: cfbc 6e3d 4a4d 6dbd 0fcb 92bc 1c56 10bc
000001c0: be9b acbc 3bcc fcbd b829 58bd 911e 833a
000001d0: 5bad 21bd 1693 8abc ecca 3b3c cb8c f8bd
000001e0: 268e 30bc cc0d d9bd cb03 e3bb f9cf eebc
000001f0: 949a 543d fab5 0a3e 9962 023e 91bf d33d
00000200: 72cf ee3d ff0c a43d cd21 fcbd 1363 133c
00000210: fbcf 3a3d 557c 0f3c 4bf6 ae3d 2646 c43d
00000220: ead8 8dbd 9190 2e3c c19b a4bd f2e7 ee3a
00000230: efcb 3a3e b3ab 6bbd 961a 2fbd 4eee a4bc
00000240: 06e6 cd3b 6f05 863c 11ac 28be dcbd d1bd
00000250: c999 133c 67a0 573d c4d9 10bd 16bd bebd
00000260: 346f 8dbc badc 9bbc 79c7 113d ed04 29bb
00000270: 8552 cf3d 8933 c7bd e693 24bb 713f 1d3d
00000280: d063 bebd dbea 173d 609f e4bc 0031 4635
00000290: 1878 3dbd 5df8 033d 5067 05bd 0bb1 143e
000002a0: 2e18 463d 1ea6 a7bd 1102 593d 53fb 953c
000002b0: b313 5b3d d6c1 023d 6a63 3f3d 1ad8 b63c
000002c0: 7e8b 48bd ba96 153d 92c6 ab3d fb42 7b3d
000002d0: efeb a33d 8b0a 07bd c463 703c 8143 263c
000002e0: 7206 8dbb 79c2 1cbe a8c0 bf3c 6990 943d
000002f0: 7d04 c7bd 80a5 04be d256 1b3d eebd 0a3d
00000300: d875 8abc df77 1ebe ac2a 873d e4b8 4b3d
00000310: 5728 6b3d aa8d 07bc 4ef5 f9bd 1c12 5c3d
00000320: 16af b4bd 4965 083c 9397 70bd 89b9 9dbd
00000330: 891c 1b3c 0603 453d 7ce4 f9bc 2b00 bbbd
00000340: 986c 86bc 1749 1e3d 1b47 bcbc a5c0 a53d
00000350: 70b7 29bd a826 693d 7023 0b3d 24eb f7bd
00000360: eda0 4a3c 7f26 763d 8420 06be e6d7 4bbd
00000370: e5ff 963d e8c7 4fbd 914c a13d 04ae 48be
00000380: cd12 883d cbe5 bcbd 4ad4 bf3d 6bcc 24bd
00000390: 999c 08bd 1bdf 653b a054 293d ed48 003e
000003a0: 3021 5cbd 0ba1 57bd f6ef 893c 4656 7d3c
000003b0: 1ef0 9dbd cc94 6bbd f3cb bcbd 08ca b73d
000003c0: 7759 a43d 0014 d0bc d277 413c 983f b3bd
000003d0: 294d 533d b9c4 e03a 3f4b 0dbd c199 84bd
000003e0: 1638 393d 4a1f ec3c 9592 c5bd 3e2e 61bd
000003f0: e2f8 a0bd 2d93 423d 0f5e 893d 7a7d b53d

cnn_blocks.0.convs.0.bias f4 [16]
-0.06766941 0.05116166 0.030273836 -0.03419104 0.044476088 0.10287316 0.031459548 0.01706443
0.03512367 -0.07980711 0.050650835 -0.01956635 0.028168483 -0.09955366 -0.049301375 -0.088839404
00000000: 4296 8abd e48e 513d d600 f83c e70b 0cbd
00000010: 8f2c 363d 2aaf d23d badb 003d b4ca 8b3c
00000020: d6dd 0f3d e971 a3bd 4077 4f3d 9c49 a0bc
00000030: 97c1 e63c cae2 cbbd 3df0 49bd 6ff1 b5bd

cnn_blocks.0.convs.1.weight f4 [16, 16, 3, 3]
-0.008403529 0.015147854 -0.14358415 0.02527248 -0.0026466679 -0.07572527 -0.058310304 -0.008714657
0.09102676 0.04308506 -0.10534307 0.013126909 -0.05541324 -0.023049168 -0.010285261 0.015618442
-0.0502121 -0.0227715 -0.040738054 0.10576341 -0.06885518 0.051875852 -0.0029338887 -0.074000716
-0.00093035074 -0.0003955584 -0.0029468846 0.076666005 -0.06239712 -0.0024197844 0.19485986 0.15762159
0.18298115 0.07144189 -0.1359955 0.023806842 -0.017945448 -0.038589872 0.12772498 -0.051653404
-0.105532005 -0.086529315 -0.025082948 -0.1275104 0.06901412 -0.017923929 0.037334193 0.061838772
-0.02123231 -0.03180236 0.036454014 0.04045045 -0.13430409 0.07664463 0.09086373 0.14462306
0.13159662 -0.009477987 -0.037486535 0.06269438 0.08905024 0.019840164 0.051325932 0.0152420895
-0.069406115 -0.06266945 0.01013617 -0.022526953 0.044337075 0.079026125 0.025140883 0.08014125
-0.110842176 -0.079492725 -0.050564706 -0.0300346 -0.07797657 -0.05220429 0.09146191 0.0030484528
-0.12937383 -0.13444288 0.066289224 -0.02689034 -0.07049835 0.020755094 -0.011463235 0.07645096
0.033392582 0.10245503 0.019779164 0.057153996 0.18693662 0.06092147 0.026267303 0.051156044
-0.06813656 -0.11602936 0.15376356 -0.04566061 -0.026982991 0.048371002 -0.17023449 -0.041052174
0.09331172 0.08574196 0.012567114 -0.21588022 0.058212996 -0.1077639 -0.19177544 0.029192686
0.007869708 0.01213538 0.11305641 0.06327207 -0.02111736 0.02743474 -0.07761524 -0.06348681
0.09066784 0.008661942 -0.00090914086 0.00080373726 0.053382337 -0.035196826 0.04292516 -0.070465304
-0.01925435 0.08469679 0.014071421 -0.058353692 -0.1072247 0.057786155 -0.050421588 -0.019733839
-0.01775585 0.043886423 0.085915215 0.05319284 0.054029286 -0.008242997 -0.048755284 -0.06484977
0.07800497 -0.026962914 0.06553912 0.045788515 0.0706517 -0.05346812 -0.1188955 0.0036035748
-0.013890051 0.035968553 -0.19237222 -0.0015475875 -0.058715045 -0.16401853 0.030367192 0.12383819
-0.07189509 -0.037603453 0.011318426 -0.08517 0.08480509 -0.12107049 0.007488345 -0.00015096611
-0.0059790174 0.04788289 -0.044006165 -0.07735096 -0.038153604 0.04517293 -0.030717527 -0.05204876
-0.0647514 -0.04879919 0.031848338 0.11880153 0.028838474 -0.021798192 0.07967927 -0.002274505
-0.008668606 -0.2031175 0.1335557 0.0146457525 -0.07529466 0.06464179 -0.051855393 -0.09549667
0.053270906 0.06064044 -0.07909274 -0.037138104 0.08553132 0.014651189 -0.011166526 0.0032280323
0.060070843 -0.0062570246 -0.081953414 -0.0019945728 0.001038322 -0.101768404 -0.067879744 -0.12279855
0.040503442 -0.09492982 -0.08203368 0.06355831 0.024791438 0.10638097 -0.012924813 -0.032721598
-0.06264829 -0.028209778 -0.036760878 -0.011635812 0.09876468 0.08137057 0.06967006 0.024599185
-0.05726976 0.017302245 0.108273886 0.006684065 -0.11488727 0.048986275 0.06551487 0.12150137
0.021558031 0.04287421 0.054940578 -0.021424973 0.033583645 -0.096339576 -0.03932677 -0.09672462
-0.009637937 0.09759877 -0.056871332 0.18112032 -0.014429358 -0.044395883 0.09565727 -0.014536358
-0.102355406 -0.03882905 0.06440871 -0.0061021145 0.111115664 -0.022170935 0.012129224 0.01688244
00000000: f5ae 09bc b42e 783c b907 13be 3b08 cf3c
00000010: b873 2dbb da15 9bbd c9d6 6ebd ecc7 0ebc
00000020: 3d6c ba3d f679 303d 1cbe d7bd 3f12 573c
00000030: fef8 62bd 9cd1 bcbc 8383 28bc 7ee4 7f3c
00000040: 34ab 4dbd 4c8b babc f2dc 26bd 7d9a d83d
00000050: f203 8dbd c67b 543d 7c46 40bb b08d 97bd
00000060: c8e2 73ba f362 cfb9 8520 41bb 1103 9d3d
00000070: 1f94 7fbd 3f95 1ebb 5889 473e 8e67 213e
00000080: 695f 3b3e 2050 923d 6842 0bbe 9106 c33c
00000090: 5502 93bc 6a10 1ebd 56ca 023e 8592 53bd
000000a0: 2a21 d8bd 4836 b1bd c17a cdbc 1692 02be
000000b0: 4657 8d3d 34d5 92bc bdeb 183d a74a 7d3d
000000c0: 62ef adbc 3143 02bd ce50 153d 5faf 253d
000000d0: 0387 09be dcf7 9c3d c316 ba3d 1118 143e
000000e0: 44c1 063e 8f49 1bbc 7b8b 19bd e965 803d
000000f0: f95f b63d d787 a23c 243b 523d f5b9 793c
00000100: cb24 8ebd d758 80bd 2e12 263c 728a b8bc
00000110: cb9a 353d 73d8 a13d 41f4 cd3c 1821 a43d
00000120: 3901 e3bd 15cd a2bd f01c 4fbd 1f0b f6bc
00000130: 2eb2 9fbd 2ad4 55bd 6250 bb3d 8dc8 473b
00000140: 937a 04be 65ab 09be a5c2 873d 2149 dcbc
00000150: 7061 90bd 9606 aa3c 4bd0 3bbc 5292 9c3d
00000160: a9c6 083d f1d3 d13d ea07 a23c 4f1a 6a3d
00000170: 506c 3f3e cb88 793d 872e d73c 0089 513d
00000180: 2e8b 8bbd cda0 edbd 3274 1d3e 9f06 3bbd
00000190: 6f0b ddbc ac20 463d f351 2ebe 5326 28bd
000001a0: 371a bf3d 7b99 af3d 4ce6 4d3c b40f 5dbe
000001b0: c070 6e3d 52b3 dcbd c860 44be 8025 ef3c
000001c0: f3ef 003c 79d3 463c 1e8a e73d c994 813d
000001d0: 50fe acbc d2be e03c bdf4 9ebd 5f05 82bd
000001e0: 0fb0 b93d d1ea 0d3c 6953 6eba e5b1 523a
000001f0: 70a7 5a3d 8c2a 10bd 4bd2 2f3d 1d50 90bd
00000200: 4cbb 9dbc 8375 ad3d d18b 663c 4804 6fbd
00000210: a098 dbbd 2db1 6c3d de86 4ebd dca8 a1bc
00000220: b774 91bc 40c2 333d 51f4 af3d bce0 593d
00000230: d04d 5d3d a30d 07bc 9fb3 47bd f5cf 84bd
00000240: 12c1 9f3d 54e1 dcbc 6039 863d bd8c 3b3d
00000250: d7b1 903d 6301 5bbd 7c7f f3bd f429 6c3b
00000260: 1993 63bc c353 133d 39fd 44be 6bd8 caba
00000270: 307f 70bd 79f4 27be 9ec4 f83c e19e fd3d
00000280: bc3d 93bd 1406 1abd eb70 393c 9c6d aebd
00000290: 4bae ad3d cef3 f7bd ca60 f53b a84c 1eb9
000002a0: a2eb c3bb d920 443d cf3f 34bd 2e6a 9ebd
000002b0: f446 1cbd 4007 393d 53a3 fbbc 1531 55bd
000002c0: 629c 84bd a9e1 47bd 6773 023d 374e f33d
000002d0: aa3e ec3c 1f92 b2bc e32e a33d dd0f 15bb
000002e0: c506 0ebc 09fe 4fbe d3c2 083e bdf4 6f3c
000002f0: 1634 9abd ea62 843d 5266 54bd c293 c3bd
00000300: 9832 5a3d 1c62 783d 60fb a1bd 201e 18bd
00000310: 0b2b af3d 8a0b 703c cef3 36bc 658d 533b
00000320: d80c 763d ba07 cdbb 31d7 a7bd 61b7 02bb
00000330: 4e18 883a f46b d0bd 8904 8bbd ce7d fbbd
00000340: f0e6 253d 916a c2bd 4601 a8bd dc2a 823d
00000350: 6a17 cb3c 44de d93d 98c2 53bc 1507 06bd
00000360: bf4d 80bd 3118 e7bc 9392 16bd 22a4 3ebc
00000370: 2345 ca3d 9da5 a63d 2daf 8e3d 3b84 c93c
00000380: b293 6abd 70bd 8d3c b3be dd3d 0006 db3b
00000390: 044a ebbd d5a5 483d a92c 863d b6d5 f83d
000003a0: 789a b03c de9c 2f3d 5f09 613d 6d83 afbc
000003b0: 018f 093d af4d c5bd 1b15 21bd 8f17 c6bd
000003c0: 70e8 1dbc dde1 c73d eaf1 68bd 9b77 393e
000003d0: 1d69 6cbc 75d8 35bd f5e7 c33d e829 6ebc
000003e0: b69f d1bd 360b 1fbd b7e8 833d 3ff4 c7bb
000003f0: 9c90 e33d d29f b5bc a7b9 463c 0b4d 8a3c

cnn_blocks.0.convs.1.bias f4 [16]
0.07375232 -0.009962831 0.013546379 0.0010112424 -0.06293445 0.009933251 -0.0013875718 0.0700964
-0.022462243 0.035646245 -0.013374279 -0.028490229 -0.07282507 0.0067229215 0.07867182 -0.06805113
00000000: 750b 973d 243b 23bc a2f1 5d3c aa8b 843a
00000010: c7e3 80bd 13bf 223c 2fdf b5ba b48e 8f3d
00000020: bd02 b8bc cc01 123d cb1f 5bbc 5764 e9bc
00000030: 4f25 95bd f44b dc3b b11e a13d 645e 8bbd

cnn_blocks.0.norms.0.weight f4 [16]
0.94350255 0.9847398 0.98282933 0.95760417 1.0225999 1.0012138 0.96236813 1.0215886
1.0185134 1.0034298 1.0232816 0.9751603 1.0471362 0.9822067 1.0029956 0.9602399
00000000: 6289 713f e817 7c3f b49a 7b3f 8c25 753f
00000010: 8ee4 823f c627 803f c25d 763f 6ac3 823f
00000020: a65e 823f 6370 803f e4fa 823f 1ba4 793f
00000030: 8f08 863f e671 7b3f 2962 803f 48d2 753f

cnn_blocks.0.norms.0.bias f4 [16]
-0.029807035 -0.043614745 -0.08736113 -0.014807541 -0.1130258 -0.09047837 -0.0068709734 -0.020737512
-0.15756623 -0.017940678 -0.044039126 -0.019157143 -0.045419622 -0.053451516 -0.14471965 -0.08921767
00000000: e22d f4bc 60a5 32bd 64ea b2bd 549b 72bc
00000010: 127a e7bd b94c b9bd e725 e1bb b7e1 a9bc
00000020: 0b59 21be 54f8 92bc 5f62 34bd 71ef 9cbc
00000030: ed09 3abd faef 5abd 6331 14be c1b7 b6bd

cnn_blocks.0.norms.0.running_mean f4 [16]
-0.03972077 0.014435881 -0.040333696 0.120690554 -0.08266274 -0.06825218 0.002138117 0.037851326
0.0144444425 -0.06405111 0.062316474 -0.034750074 0.018439587 -0.24441823 -0.13484228 -0.22700831
00000000: 3fb2 22bd 7984 6c3c f234 25bd 9c2c f73d
00000010: 154b a9bd cdc7 8bbd a71f 0c3b fe09 1b3d
00000020: 62a8 6c3c 3a2d 83bd 8f3f 7f3d 1856 0ebd
00000030: 9e0e 973c c648 7abe 1814 0abe de74 68be

cnn_blocks.0.norms.0.running_var f4 [16]
0.022501266 0.026794963 0.038224574 0.038118117 0.03188774 0.049888294 0.037872322 0.032623857
0.033473186 0.023636352 0.05283379 0.02987826 0.045694754 0.03952695 0.03877125 0.031592216
00000000: 9354 b83c 1c81 db3c 5f91 1c3d be21 1c3d
00000010: b89c 023d ab57 4c3d 0220 1b3d 98a0 053d
00000020: 2e1b 093d 06a1 c13c 3f68 583d 41c3 f43c
00000030: 6c2a 3b3d 03e7 213d 9ace 1e3d d766 013d

cnn_blocks.0.norms.1.weight f4 [16]
1.0713328 1.0541036 1.0919937 1.0909793 1.2084571 1.0829791 1.153518 1.052773
1.168137 1.135014 1.0995842 1.142323 1.110483 1.1428384 1.158533 1.1331398
00000000: 6f21 893f deec 863f 73c6 8b3f 36a5 8b3f
00000010: b9ae 9a3f 0f9f 8a3f 7aa6 933f 44c1 863f
00000020: 8385 953f 2448 913f 2dbf 8c3f a437 923f
00000030: 4f24 8e3f 8748 923f cf4a 943f ba0a 913f

cnn_blocks.0.norms.1.bias f4 [16]
0.004320725 0.0008504026 0.06826299 -0.010167929 -0.08390023 -0.052667897 0.057602268 -0.04583828
-0.057193026 0.02682002 0.04793729 0.039539162 0.042753115 -0.012833788 -0.039621513 -0.011942505
00000000: de94 8d3b 8ded 5e3a 77cd 8b3d 6397 26bc
00000010: e2d3 abbd 4bba 57bd 5bf0 6b3d ecc0 3bbd
00000020: 3c43 6abd a9b5 db3c e459 443d d1f3 213d
00000030: e41d 2f3d cf44 52bc 2b4a 22bd 7faa 43bc

cnn_blocks.0.norms.1.running_mean f4 [16]
-0.02199032 -0.20424147 -0.053404275 -0.111696064 -0.21831454 0.19301413 0.18802795 0.07289162
0.05017199 0.034074046 0.14861795 0.06504183 -0.2318703 0.10102838 -0.11191443 -0.09395218
00000000: 0b25 b4bc ad24 51be 71be 5abd e8c0 e4bd
00000010: d98d 5fbe 7fa5 453e 668a 403e 3448 953d
00000020: 2581 4d3d 3a91 0b3d 4e2f 183e a734 853d
00000030: 686f 6dbe f8e7 ce3d 6533 e5bd 006a c0bd

cnn_blocks.0.norms.1.running_var f4 [16]
0.08324849 0.094591044 0.103052065 0.08814884 0.080357835 0.11158802 0.09091318 0.099093966
0.12563665 0.08168957 0.1157648 0.08694994 0.17246708 0.08249958 0.08647989 0.06778763
00000000: 2f7e aa3d f3b8 c13d f60c d33d 6187 b43d
00000010: a692 a43d 4388 e43d b030 ba3d c7f1 ca3d
00000020: e5a6 003e dc4c a73d 1816 ed3d cf12 b23d
00000030: 369b 303e 8af5 a83d 5e1c b13d 3ed4 8a3d
