checkpoints/stage2_kd_d3/final_model.pt (torch, 86386 bytes, 50 tensors)

embedder.feature_projections.0.weight f4 [32, 1]
0	0xbf850568	-1.0392275
1	0x3eb58a76	0.354572
2	0x3fa23c1e	1.2674596
3	0x3f35e893	0.71058005
4	0xbf1f04d7	-0.6211676
5	0x3f8aa85d	1.083263
6	0xbf66e556	-0.9019369
7	0xbf873429	-1.0562793
8	0xbf6ae521	-0.9175587
9	0x3fa1f8ea	1.2654088
10	0xbe8c649d	-0.27420512
11	0xbeae25ee	-0.34013313
12	0x3f90fc64	1.1327024
13	0x3cb87ac4	0.022519477
14	0x3f2ebfb0	0.6826124
15	0x3e83a8c5	0.25714698
16	0x3f0d02b1	0.5508223
17	0xbc43afd8	-0.01194378
18	0xbe842a75	-0.25813642
19	0x3e862e39	0.2620714
20	0xbf484432	-0.7822906
21	0xbf2cf684	-0.67563653
22	0xbf50bdb5	-0.8153947
23	0xbf3e49d9	-0.7433143
24	0x3f45502e	0.7707547
25	0xbdd8d818	-0.105880916
26	0xbf8f5f41	-1.1200944
27	0x3e403cec	0.1877324
28	0x3f8780ca	1.0586178
29	0xbf986991	-1.1907216
30	0xbd85e7f3	-0.065383814
31	0x3f905e08	1.1278696

embedder.feature_projections.0.bias f4 [32]
0	0x3f621a72	0.883216
1	0x3e97c645	0.29643455
2	0x3ea1eb42	0.316248
3	0xbf6b5c5b	-0.919378
4	0xbee8db72	-0.45479923
5	0x3e8f0c73	0.27939186
6	0xbf4afb97	-0.79290146
7	0xbf1e1557	-0.6175131
8	0x3e6a1ac1	0.22861768
9	0xbf0b4e22	-0.54416096
10	0x3e135fac	0.14391965
11	0x3f3212a9	0.69559723
12	0xbf5e80c0	-0.86915207
13	0x3d0e4fad	0.034743953
14	0xbf403e32	-0.750949
15	0x3f055574	0.52083516
16	0xbf6623b7	-0.89898247
17	0xbf74baf9	-0.955978
18	0x3f0b63bb	0.5444905
19	0x3e3e2f00	0.18572617
20	0xbf3aafa7	-0.72924274
21	0xbe713865	-0.23556669
22	0x3f3790fc	0.71705604
23	0x3dfb3e1e	0.12267707
24	0xbedadaa3	-0.42744932
25	0xbdfa1582	-0.122111335
26	0xbf14a968	-0.58070993
27	0xbf216148	-0.63039064
28	0xbf362af0	-0.7115927
29	0xbed316a9	-0.41228226
30	0xbe9e953a	-0.30973226
31	0xbf443414	-0.76641965

embedder.feature_projections.1.weight f4 [32, 1]
0	0xbf44d686	-0.76889837
1	0x3ed0b3b8	0.40762115
2	0x3f22433e	0.63383853
3	0x3ec78bc6	0.38973826
4	0xbdc16f47	-0.094450526
5	0x3f3ba22b	0.73294324
6	0x3f81bdac	1.0136008
7	0xbc5a26e8	-0.01331494
8	0x3ee50b0c	0.4473499
9	0x3f4fc8a4	0.8116553
10	0x3f39832c	0.7246578
11	0x3d80f047	0.06295829
12	0x3f37ab3e	0.7174567
13	0xbc0c7048	-0.008571692
14	0xbf74dea1	-0.95652205
15	0x3f3f9c55	0.7484792
16	0xbf452ca5	-0.7702125
17	0xbf0f1755	-0.55894977
18	0xbf6515cf	-0.894864
19	0xbf71dff1	-0.9448233
20	0x3f5e7c3b	0.8690831
21	0xbe19f9e5	-0.15036733
22	0xbdda49b9	-0.10658593
23	0xbe8040c8	-0.25049424
24	0xbf41d063	-0.757086
25	0xbe46a708	-0.19399655
26	0x3f1e2898	0.6178069
27	0xbe79930f	-0.24372505
28	0x3e67ea44	0.22647959
29	0xbefd2086	-0.49438876
30	0xbe280ae4	-0.16410404
31	0x3e2babee	0.16764805

embedder.feature_projections.1.bias f4 [32]
0	0xbee0e70b	-0.43926272
1	0x3f159deb	0.5844409
2	0x3d1abfc5	0.037780542
3	0xbc40f809	-0.011777886
4	0x3ef7ef90	0.4842496
5	0xbd559f71	-0.05215401
6	0x3f0ebd09	0.55757195
7	0xbf4dd5d5	-0.80404407
8	0x3f4a4967	0.79018253
9	0xbf47a782	-0.7798997
10	0x3edb35c9	0.42814472
11	0xbdc94f18	-0.09829539
12	0xbf08de5a	-0.5346428
13	0xbef0b470	-0.47012663
14	0x3ed5259d	0.4163026
15	0xbf036fac	-0.5134227
16	0x3ef5b2eb	0.47988066
17	0xbf15a0ff	-0.58448786
18	0x3f509e6b	0.81491727
19	0x3ed26713	0.41094264
20	0xbdd38677	-0.103283815
21	0xbec27538	-0.37980056
22	0x3eb2bc07	0.34909078
23	0xbe935158	-0.28772998
24	0x3eb18231	0.3466964
25	0x3f48c88d	0.78431016
26	0x3f66e49c	0.9019258
27	0xbd5d58d9	-0.05403981
28	0x3e9c3c92	0.3051496
29	0xbed2f7dd	-0.4120473
30	0xbf6ea4e5	-0.9322036
31	0xbee08b09	-0.43856075

embedder.stabilizer_embedding.weight f4 [8, 32]
0	0x3f4f874c	0.8106582
1	0xbf84adcc	-1.0365539
2	0xbea5b916	-0.32367772
3	0xbf558780	-0.8340988
4	0x3d454a3f	0.04816651
5	0x3f445398	0.76690054
6	0xbfa27f8c	-1.2695174
7	0x3ff09f9c	1.8798709
8	0x3fca1b96	1.5789669
9	0x3df1db23	0.11809375
10	0x3f62edbf	0.8864402
11	0x3fbbcb1f	1.4671363
12	0xbfd077d9	-1.6286575
13	0xbf44642f	-0.7671537
14	0x3d9bf489	0.07615001
15	0x3f26681e	0.6500262
16	0x3ea5ba24	0.32368577
17	0xbfbe81b4	-1.4883332
18	0x400e2807	2.221193
19	0x40305afa	2.7555528
20	0x3e5cd80f	0.21566795
21	0x3f597d39	0.849567
22	0xbfbdd538	-1.4830694
23	0x3fdae8f6	1.7102344
24	0x3e9fa3d0	0.31179667
25	0xbf1bf4cd	-0.6092041
26	0xbf60152d	-0.8753231
27	0xbf803cf6	-1.0018604
28	0x3c6a9bdd	0.014319387
29	0xbf15518c	-0.58327556
30	0x3efc064d	0.49223557
31	0xbeb6b197	-0.35682365
32	0xbdf4de6c	-0.11956486
33	0xc036883d	-2.8520653
34	0xbfa15def	-1.2606791
35	0x3f4634bb	0.7742421
36	0xc028b161	-2.6358263
37	0x3f6e1444	0.9299967
38	0x3f66fcab	0.9022929
39	0xbeb45d79	-0.35227564
40	0x3f546f0a	0.8298193
41	0x3f8e1d81	1.1102754
42	0x3f79b919	0.9754806
43	0xbc48c620	-0.012254268
44	0x3d28a770	0.041175306
45	0x3fc39e43	1.5282673
46	0x3fb1c773	1.3888992
47	0xbdf6c7b5	-0.1204981
48	0x40003122	2.0029988
49	0xbf6c55a5	-0.92318183
50	0xbf484f52	-0.78246033
51	0xbdc2be33	-0.09508934
52	0xbf2cac3d	-0.67450315
53	0xbd543745	-0.05181052
54	0x3f1332cc	0.57499385
55	0xbe53aee6	-0.20672187
56	0x401b362e	2.4251819
57	0xbf39e907	-0.72621197
58	0x4023bde5	2.5584652
59	0x3fccc6db	1.5998186
60	0x3f0c70af	0.5485944
61	0x3eaa7e38	0.33299422
62	0xbf7e1a68	-0.9925904
63	0xbfb7f396	-1.4371212
64	0x3fc36f19	1.5268279
65	0xc0268c1f	-2.6023023
66	0x3fb040ef	1.3769816
67	0x3d759e29	0.059965286
68	0xbeaab25b	-0.333392
69	0x3e02952c	0.12752217
70	0xbf077089	-0.5290609
71	0xbe4ec599	-0.20192565
72	0x3f97a366	1.184674
73	0xbf2f25e2	-0.6841718
74	0xbf3bff76	-0.7343668
75	0x3f18317d	0.59450513
76	0xbf6b8888	-0.92005205
77	0x3ebc1979	0.36738184
78	0xbdf6ea8f	-0.12056457
79	0xbf90c123	-1.1308941
80	0x3f304068	0.68848276
81	0x3ea7fc5e	0.32809728
82	0xbd8e9a35	-0.069630064
83	0xc07e4ed8	-3.9735622
84	0xbedc2cf8	-0.43003058
85	0xbdfdadc7	-0.12386661
86	0x3e849917	0.25898048
87	0x3fa1ef7e	1.2651212
88	0x3e5e94ef	0.21736501
89	0xbf90da5e	-1.131664
90	0xc003710c	-2.0537748
91	0xbf6ee39b	-0.9331605
92	0xbe92ef87	-0.2869837
93	0xbf2e7ec8	-0.681622
94	0xbe8b3d2a	-0.27195102
95	0x3e26e56a	0.16298452
96	0x3ead3495	0.3382918
97	0x3fd69899	1.6765319
98	0xbf18552f	-0.5950498
99	0xbe2ce8f0	-0.16885734
100	0x3e0e44a2	0.13893369
101	0xbf012a89	-0.5045553
102	0xbf0ecfdb	-0.5578591
103	0x3f59f98b	0.851464
104	0xc008f939	-2.1402113
105	0x3fa21344	1.2662129
106	0xbf871802	-1.0554202
107	0xbd5f989d	-0.054588903
108	0x3f03fb25	0.5155509
109	0x3ed121da	0.4084614
110	0xbe8a64f5	-0.2703015
111	0x3fa888ce	1.316675
112	0x3ee7008c	0.45117605
113	0xbf6ac67c	-0.91709113
114	0xbec42104	-0.3830644
115	0xbe85755e	-0.26066107
116	0xbf83b7ab	-1.0290426
117	0xbf27fbe7	-0.6561875
118	0xbf58ddd8	-0.84713507
119	0x3e4e0f24	0.20122963
120	0x3e615ce5	0.22008093
121	0x3e831161	0.25599197
122	0x3ed8b5de	0.42326254
123	0x3f8ff9c0	1.1248093
124	0x3fac3cd2	1.3456061
125	0x3f626364	0.8843291
126	0xbe39a894	-0.18130714
127	0xbf585588	-0.8450551
128	0xc019a98e	-2.4009738
129	0xbe97cabd	-0.29646865
130	0xbfbeb03f	-1.4897536
131	0x3f812c25	1.0091597
132	0xbe6506fb	-0.22365944
133	0xbeeb70d3	-0.45984516
134	0x3ecdafe1	0.40173247
135	0xbf2358fc	-0.63807654
136	0xbe0e8243	-0.13916878
137	0xbe2159fd	-0.15756984
138	0x3fe4494f	1.7834872
139	0x3e26c1f6	0.16284928
140	0xbf341c1f	-0.7035541
141	0xbddcebab	-0.107871376
142	0x3f4acf19	0.79222256
143	0x3f4318dd	0.76209813
144	0x3fb37bba	1.4022133
145	0x3cde15be	0.027109977
146	0xbe8d08df	-0.2754583
147	0x3c18f987	0.009336836
148	0xbdfa61bb	-0.12225672
149	0xbfd88c89	-1.6917888
150	0xbea7b204	-0.32753003
151	0xbf023ce4	-0.5087416
152	0x3ffa9d84	1.957932
153	0x40122603	2.28357
154	0xbfbc3932	-1.4704955
155	0x3f84d79b	1.0378298
156	0xbebb33bd	-0.3656291
157	0xbf95b1ef	-1.1694926
158	0xbf3c55ab	-0.7356822
159	0x3f4089f2	0.7521049
160	0x3f601956	0.8753866
161	0x3f6e9ea6	0.9321083
162	0x3f25e164	0.64797044
163	0xbeb04400	-0.3442688
164	0xbedeadad	-0.4349188
165	0xbfe9b5bd	-1.8258587
166	0xbf957bee	-1.1678445
167	0x3f5863de	0.84527385
168	0x3ee2fd47	0.4433386
169	0x3ef9907c	0.48743045
170	0xbf840c26	-1.0316207
171	0xbbc1065c	-0.0058906507
172	0x3f19ee6d	0.60129434
173	0xbf7b7682	-0.98227704
174	0xbe139ea4	-0.14415985
175	0xbefedf7b	-0.49779877
176	0x3e36acca	0.17839351
177	0xbe84dac4	-0.25948155
178	0xbebdb0d2	-0.37048966
179	0x3ea09589	0.31364086
180	0x3ee666fe	0.45000452
181	0xc02f1b6b	-2.7360485
182	0xbf1eb12b	-0.61989087
183	0xbf830b70	-1.0237865
184	0xbe0a8593	-0.13527517
185	0x3e914cd1	0.2837892
186	0x3d1711f6	0.036882363
187	0xbf93fe88	-1.1562052
188	0xbf0cd238	-0.5500827
189	0xbf629fb6	-0.8852495
190	0xc01e7cdf	-2.4763715
191	0xbd3b9b36	-0.045802318
192	0xbeb698a4	-0.3566333
193	0x3f0b77e8	0.5447984
194	0x3fa04a1a	1.2522614
195	0x3f9a373a	1.2048104
196	0x3fa3571f	1.2760962
197	0x3d8154b0	0.06314981
198	0x3f0e132e	0.55498016
199	0xbf16f892	-0.5897304
200	0x3f9be3d5	1.2178904
201	0xc004c8b0	-2.074749
202	0xbd062c8c	-0.032757327
203	0xbfb9eb69	-1.4524966
204	0x3f523b73	0.8212196
205	0x3ef07760	0.46966076
206	0xbf273d27	-0.65327686
207	0x3fa96769	1.3234683
208	0x3db80fdb	0.08987399
209	0xbf3da760	-0.7408352
210	0x3f894502	1.0724185
211	0x3fe49169	1.7856876
212	0xbdb40647	-0.0879026
213	0x3e9ab40a	0.30215484
214	0xbfa602a1	-1.2969552
215	0xbf485c66	-0.7826599
216	0x3e97d654	0.29655707
217	0xbf28e32f	-0.65971655
218	0x4029b5a9	2.6517127
219	0xbe225197	-0.15851437
220	0x40047e8d	2.070224
221	0xbf01d631	-0.50717455
222	0xbe213817	-0.15744053
223	0x3fc0ea87	1.5071572
224	0xbfc3296f	-1.524702
225	0x3e0dfa66	0.1386505
226	0xbf2b8c7a	-0.67011225
227	0x3e524a09	0.20536055
228	0xbf38db6b	-0.72209805
229	0x3f28b2c5	0.6589778
230	0x3e93d2b0	0.2887168
231	0x40026a56	2.0377402
232	0x3f15cadf	0.5851268
233	0x3f627cf2	0.884719
234	0xbf718ca5	-0.9435523
235	0x3f70fb34	0.94133306
236	0x3f838155	1.0273844
237	0x3fb9b7d2	1.4509223
238	0x400530c8	2.0811024
239	0xbd5c7199	-0.053819273
240	0xbf5989f8	-0.8497615
241	0x3ee51289	0.44740704
242	0xbf88618c	-1.0654769
243	0xbf807067	-1.0034302
244	0xbda2d575	-0.0795087
245	0xbf384982	-0.71987164
246	0x3d886966	0.06660728
247	0x3e7d5978	0.24741161
248	0xbf70d2b3	-0.940715
249	0x3e418c60	0.18901205
250	0x3f8676ac	1.0504966
251	0x3d253992	0.040338106
252	0x400aa23e	2.1661525
253	0x3fa756c8	1.3073359
254	0xbe4c1a36	-0.19931874
255	0xbfce4560	-1.6114922

embedder.res_block.0.weight f4 [32]
0	0x3f84c412	1.0372336
1	0x3f80e9ff	1.007141
2	0x3f8eec07	1.116578
3	0x3f8e88bb	1.1135477
4	0x3f8a7074	1.0815568
5	0x3f984bf5	1.189818
6	0x3f944ead	1.158651
7	0x3f87ee94	1.0619683
8	0x3f7356d4	0.95054364
9	0x3f946bd6	1.1595409
10	0x3f7f96ad	0.9983929
11	0x3f8468fe	1.0344541
12	0x3f8287f0	1.0197735
13	0x3f6eb26d	0.93241006
14	0x3f8eec27	1.1165818
15	0x3f80f808	1.0075693
16	0x3f78615e	0.9702357
17	0x3f6e3842	0.9305459
18	0x3f7b90eb	0.98268
19	0x3f7e7c7b	0.9940869
20	0x3f8984f2	1.0743697
21	0x3f7e1329	0.99247986
22	0x3f8c5347	1.0962914
23	0x3f81d050	1.0141697
24	0x3f7a12a2	0.9768468
25	0x3f8312d2	1.0240119
26	0x3f8daff7	1.1069325
27	0x3f6dd046	0.92895925
28	0x3f879e4b	1.0595182
29	0x3f85a4a2	1.0440867
30	0x3f7aabf0	0.97918606
31	0x3f853845	1.0407797

embedder.res_block.0.bias f4 [32]
0	0x3cb3e262	0.021958534
1	0xbcd69ad2	-0.026196871
2	0xbc850030	-0.016235441
3	0x3c819810	0.01581958
4	0xbc64fdae	-0.013976498
5	0xbaec4452	-0.0018025732
6	0x3c3302df	0.0109259775
7	0x3d0cc185	0.034364242
8	0xbd635a81	-0.055506233
9	0x3ca3d650	0.019999653
10	0xbc6e8d82	-0.014560105
11	0x3c6c2f10	0.014415517
12	0x3cacb1ec	0.021080934
13	0xbab41a51	-0.0013740753
14	0xbc6caba6	-0.014445221
15	0xbd34cd35	-0.044141013
16	0xbc670b19	-0.014101767
17	0x3da6d195	0.08145443
18	0xbd8244db	-0.063607894
19	0xbcb2ad0e	-0.021811035
20	0xbb7d8451	-0.0038683603
21	0x3d7ef8fa	0.06224916
22	0xbba21fad	-0.0049476237
23	0xba9ef4e7	-0.001212743
24	0xbd1eee72	-0.038801618
25	0xbc38ba87	-0.01127494
26	0x3ba223ce	0.004948116
27	0x3d41b9ca	0.047296323
28	0xbd0e73cc	-0.0347784
29	0x3cdf9f98	0.02729778
30	0x3c86252b	0.016375145
31	0x3ca8515c	0.020546608

embedder.res_block.1.weight f4 [32, 32]
0	0xbe3e6db8	-0.18596542
1	0x3e445fc8	0.19177163
2	0xbdd00be1	-0.10158516
3	0x3b6440d9	0.0034828691
4	0x3c8e7411	0.01738933
5	0x3d0e610d	0.034760524
6	0x3dee0ed8	0.11623925
7	0xbe1e0da2	-0.15434888
8	0xbde0c5d3	-0.10975232
9	0xbde939bf	-0.11387967
10	0x3deaff06	0.11474423
11	0x3b8164cf	0.003948785
12	0x3d9e4b13	0.07729163
13	0x3cffc531	0.031221958
14	0xbd5c6f3d	-0.053817023
15	0x3d8c892d	0.06862102
16	0x3d88ca3f	0.066792004
17	0xbdb74642	-0.089489475
18	0xbe04ff1a	-0.12987939
19	0xbb2d28b0	-0.0026421957
20	0x3e24f906	0.1611062
21	0x3cba76ee	0.022761788
22	0x3e23209e	0.15930411
23	0xbe7fae5a	-0.24968854
24	0x3e47cee8	0.19512522
25	0x3e6cfee0	0.23144102
26	0xbe52bdbe	-0.20580193
27	0x3e3927d5	0.18081601
28	0xbd780908	-0.060555488
29	0xbdfcfc77	-0.12352841
30	0xbd4dc394	-0.050235346
31	0x3e71195f	0.23544835
32	0xbdf2874e	-0.118422136
33	0x3c842144	0.016129144
34	0x3d394755	0.045234043
35	0x3e41d00e	0.18927023
36	0xbdbce93e	-0.09224175
37	0xbd76e223	-0.060274255
38	0x3d74cacd	0.05976372
39	0xbdc2c78f	-0.09510719
40	0xbc94992a	-0.01813944
41	0xbcd4367e	-0.02590489
42	0xbd8f32e7	-0.06992131
43	0xbe11f9ae	-0.14255401
44	0x3e0de344	0.13856226
45	0xbdc57c4d	-0.09642849
46	0x3da64cf4	0.081201464
47	0xbe2ba700	-0.16762924
48	0xbe086747	-0.13320647
49	0xbd859837	-0.06523173
50	0x3da79f9d	0.08184741
51	0xbc88083d	-0.01660549
52	0x3e47e5f1	0.1952131
53	0x3d6c7fbf	0.057739016
54	0x3d6c106e	0.057632856
55	0xbe25b6bf	-0.16182993
56	0x3da2ec20	0.079551935
57	0xbe672075	-0.22570975
58	0xbdb24fa6	-0.08706598
59	0xbda09a46	-0.07841925
60	0x3d157681	0.036489967
61	0x3e2eef92	0.17083576
62	0xbd240bdd	-0.040050376
63	0x3e195962	0.14975503
64	0xbe024d27	-0.12724744
65	0x3c4a0b9c	0.012331869
66	0xbdb08e25	-0.08620862
67	0x3e415082	0.18878368
68	0xbe0326b9	-0.1280774
69	0x3de17f24	0.11010578
70	0xbe3961e3	-0.18103747
71	0xbd99f989	-0.07518298
72	0x3e086a83	0.13321881
73	0x3e161c07	0.14659129
74	0x3da0bcea	0.078485325
75	0xbd97e70c	-0.074171156
76	0xbd969afb	-0.07353779
77	0x3e34a710	0.17641854
78	0x3d81617e	0.06317423
79	0x3e145a64	0.14487606
80	0xbd892236	-0.06695978
81	0x3cfebb6b	0.031095227
82	0x3dd3fc80	0.10350895
83	0x3e2f033e	0.1709108
84	0x3dc94368	0.0982731
85	0xbc1ce672	-0.009576427
86	0xbdb12f8f	-0.08651649
87	0xbe3474e5	-0.17622717
88	0x3e31cedd	0.17364068
89	0xbe7be3ea	-0.24598661
90	0x3c9da1eb	0.019242248
91	0xbe0cc118	-0.13745534
92	0x3db0897e	0.086199746
93	0x3da22c35	0.07918588
94	0x3e3af99d	0.18259282
95	0x3d4dc37a	0.05023525
96	0x3df1f6c4	0.11814645
97	0x3ca8fc23	0.02062804
98	0x3cef3bcc	0.029203318
99	0x3df09c77	0.11748593
100	0x3d2dfce2	0.042477496
101	0x3b59bdc7	0.0033224688
102	0x3e510579	0.20412244
103	0x3dd99eec	0.10626015
104	0x3d1608f0	0.036629617
105	0x3d98438e	0.0743476
106	0xbdc35698	-0.09538001
107	0x3e381696	0.17977366
108	0xbcfdfb63	-0.03100366
109	0xbdcc5692	-0.099774495
110	0x3d607601	0.054800037
111	0xbd8e0c20	-0.069359064
112	0xbdb3461e	-0.08753608
113	0xbb6b2183	-0.003587813
114	0x3ddfa546	0.10920195
115	0xbd42a19e	-0.04751741
116	0x3e81b204	0.25331128
117	0x3b9e702f	0.0048351507
118	0x3d1a33ee	0.03764718
119	0x3dce5dc5	0.10076479
120	0xbdeb969f	-0.11503338
121	0xbd3fae20	-0.046796918
122	0x3e40a0d8	0.18811357
123	0xbd0b74bd	-0.034046877
124	0xbcfca2ff	-0.030839441
125	0xbe09e56d	-0.13466425
126	0x3d2ba4bf	0.04190516
127	0xbd91dfca	-0.071227625
128	0x3d58ecc0	0.052960157
129	0xbe1c4adb	-0.1526293
130	0xbda5e4f2	-0.081003085
131	0xbe0b8a69	-0.13627018
132	0xbd9a3a67	-0.075306706
133	0xbd9f98f5	-0.07792846
134	0xbd066b9e	-0.032817475
135	0x3b20d0e7	0.0024538578
136	0x3e1b9136	0.15192112
137	0x3e132c51	0.14372374
138	0xbe13fa80	-0.14451027
139	0xbe03628e	-0.12830564
140	0xbd30f73b	-0.043204527
141	0xbcc84fd8	-0.024452135
142	0xbd837019	-0.06417865
143	0xbd2ba3e5	-0.04190435
144	0xbe28727f	-0.16449927
145	0x3e1bdc82	0.15220836
146	0xbde4526c	-0.11148533
147	0xbe125224	-0.14289147
148	0x3df61f8e	0.12017737
149	0xbe11d195	-0.14240105
150	0xbe3043dc	-0.17213386
151	0x3d371d91	0.04470593
152	0x3d1a0a8d	0.03760772
153	0x3d862bcf	0.065513246
154	0xbdf2a87e	-0.118485436
155	0x3de7d10d	0.1131917
156	0xbc0dc4d7	-0.008652887
157	0x3c3f484b	0.011674951
158	0x3cc95d51	0.02458063
159	0xbe002a5e	-0.12516162
160	0xbd8377cf	-0.06419336
161	0xbe2e2de1	-0.17009689
162	0x3df348f0	0.11879146
163	0x3e83aad5	0.25716272
164	0x3c6a1a08	0.014288433
165	0xbd0a585a	-0.033775665
166	0xb9aef24d	-0.00033368394
167	0xbe25cb80	-0.1619091
168	0xba1b6b0d	-0.00059287326
169	0x3dff4367	0.12464028
170	0x3de6850d	0.11255846
171	0xbe94e7b2	-0.2908302
172	0x3db9f75e	0.09080385
173	0xbc46ff39	-0.012145811
174	0x3ddbf2c0	0.1073966
175	0x3d603bf7	0.054744687
176	0xbd90d7b9	-0.07072396
177	0xbd4d3052	-0.05009491
178	0x3da2243c	0.079170674
179	0xbd498ed4	-0.049208477
180	0x3d627bd0	0.055293858
181	0x3d154dd5	0.03645118
182	0xbd6e823b	-0.058229666
183	0xbe1757fa	-0.14779654
184	0x3d9da232	0.07696952
185	0x3cab12be	0.02088296
186	0xbb9bc7df	-0.004754051
187	0xbd638a76	-0.05555197
188	0x3c0430b9	0.008068257
189	0xbda779d2	-0.08177532
190	0x3e221160	0.1582694
191	0xbd36496b	-0.04450361
192	0xbcf44a00	-0.029820442
193	0x3d888c4d	0.06667385
194	0x3dc2a97d	0.095049836
195	0xbdbec273	-0.09314432
196	0xbda87a89	-0.08226497
197	0xbb79cb01	-0.0038115385
198	0xbdf72e6c	-0.12069401
199	0xbda2a578	-0.07941717
200	0xbe45d32f	-0.19318841
201	0x3e1a032b	0.15040271
202	0x3d9a2a73	0.07527628
203	0x3c948707	0.018130792
204	0xbd9dbcf7	-0.07702058
205	0xbd4d9168	-0.0501875
206	0x3df26de4	0.11837366
207	0x3df336b4	0.11875668
208	0x3da61428	0.08109313
209	0xbddcd397	-0.10782545
210	0xbe0e64c1	-0.13905622
211	0xbcc782da	-0.024354387
212	0xbd5e35d0	-0.05425054
213	0xbcf179c9	-0.029477017
214	0xbdab7f0d	-0.083738424
215	0x3d8da368	0.06915933
216	0x3da1f6d9	0.079084106
217	0x3e116db0	0.14201999
218	0xbe250e7e	-0.1611881
219	0xbe0d932b	-0.13825671
220	0x3bbb8b19	0.005723369
221	0x3dbd4977	0.09242528
222	0x3dc94686	0.098279044
223	0xbdd72a1d	-0.10506079
224	0xbe5f4c0b	-0.21806352
225	0x3ddd061e	0.107921824
226	0xbdaf6a33	-0.08565178
227	0xbcccd520	-0.02500397
228	0xbd125363	-0.035724055
229	0x3de4bc41	0.11168719
230	0xbe3ccc8d	-0.18437405
231	0x3c601e37	0.013679079
232	0x3d1440bf	0.03619456
233	0xbdf73209	-0.1207009
234	0xbcd355ed	-0.025797809
235	0x3d7fefe0	0.062484622
236	0xbd31b638	-0.043386668
237	0x3e24fea1	0.16112758
238	0x3cef3245	0.029198775
239	0xbbea374b	-0.0071477047
240	0xbd67ae20	-0.056562543
241	0x3d7a6dd2	0.06113989
242	0x3e2be901	0.16788103
243	0x3cf609e6	0.030034017
244	0x3dfeb3be	0.12436627
245	0x3d1c3e20	0.038145185
246	0x3b395c7a	0.002828388
247	0x3de92f71	0.11386002
248	0x3d6673a5	0.05626263
249	0xbe45be99	-0.19310988
250	0x3e0a3862	0.13498071
251	0xbe0ca159	-0.13733424
252	0xbd2d1ccd	-0.042263795
253	0x3d4f2f21	0.050582055
254	0x3c6ddd40	0.014518082
255	0xbdc4c1e8	-0.09607297

embedder.res_block.1.bias f4 [32]
0	0xbe17bcef	-0.14818166
1	0xbcce7e1a	-0.025206614
2	0x3e0c1d71	0.13683106
3	0x3dc5a57e	0.09650706
4	0x3d4d1dd6	0.050077282
5	0x3d4279f0	0.04747957
6	0x3d3309ef	0.043710645
7	0xbe083f92	-0.133055
8	0xbd2f637f	-0.042819496
9	0xbd40ac8b	-0.04703955
10	0xbdcc2ea5	-0.09969834
11	0xbd0c3970	-0.034234464
12	0x3e01cdb9	0.12676133
13	0xbcdc4d89	-0.02689244
14	0x3e495efb	0.19665138
15	0xbe207fb4	-0.15673715
16	0xbe0cd7f7	-0.13754259
17	0xbd103759	-0.035209034
18	0xbccb2dcc	-0.024802111
19	0x3e07a032	0.13244703
20	0x3c573bdc	0.01313683
21	0x3e25ea35	0.16202624
22	0x3d6f6929	0.058449898
23	0xbbebc0a3	-0.007194595
24	0x3dcc4a63	0.09975126
25	0xbe2b2dbe	-0.16716668
26	0xbcdc0e4b	-0.026862284
27	0xbe007657	-0.12545143
28	0x3cfd61a0	0.03093034
29	0x3db61103	0.088899635
30	0xbe0dfdd9	-0.13866366
31	0x3e00b1de	0.12567851

embedder.res_block.3.weight f4 [32, 32]
0	0xbdebf29f	-0.11520886
1	0x3df93927	0.12169104
2	0xbd11b97f	-0.035577293
3	0xbdb51c3e	-0.088432774
4	0xbd644da8	-0.05573812
5	0xbdbbbaf8	-0.09166521
6	0xbdb08a7c	-0.08620164
7	0x3e2abfcd	0.16674729
8	0xbd69276e	-0.05692237
9	0x3d34f1e8	0.044176012
10	0x3e665a52	0.22495392
11	0xbe924681	-0.28569415
12	0xbd656418	-0.05600366
13	0x3c159564	0.009129856
14	0x3dfb6722	0.122755304
15	0xbdd29987	-0.10283189
16	0xbdd1b29b	-0.102391444
17	0xbd36c103	-0.044617664
18	0x3da53388	0.080664694
19	0x3e2ea5ef	0.17055486
20	0xbdb10eea	-0.08645423
21	0x3d4c1bd3	0.049831223
22	0xbea487cb	-0.32134852
23	0x3e0fb2e2	0.14033082
24	0x3da1f94e	0.07908879
25	0xbd5f3127	-0.054490235
26	0xbe733103	-0.23749165
27	0xbe69eae3	-0.22843508
28	0xbd923579	-0.07139105
29	0x3dca1d4c	0.09868869
30	0xbe1ce6d0	-0.15322423
31	0x3d03bb39	0.03216097
32	0x3c9e0bab	0.019292673
33	0xbca195cb	-0.019724747
34	0xbd3b2843	-0.045692693
35	0xbe14cec8	-0.14532006
36	0xbdbcb5a9	-0.092143364
37	0xbc32a04f	-0.010902478
38	0xbdd2db9d	-0.10295794
39	0x3c470de0	0.012149304
40	0xbde12f1e	-0.10995315
41	0xbe1a986d	-0.15097208
42	0xbe070047	-0.131837
43	0x3eaa8f3a	0.33312398
44	0xbe3681a8	-0.17822897
45	0xbc2cfc73	-0.010558235
46	0x3c346808	0.011011131
47	0xbb6f7ea2	-0.0036543985
48	0x3d2794a6	0.040913247
49	0x3e42038f	0.1894667
50	0xbbf60fe3	-0.007509218
51	0x3d575441	0.052570585
52	0xbe115880	-0.14193916
53	0xbd4ac0a8	-0.049500138
54	0x3c22bb2e	0.009932322
55	0xbd3b9105	-0.0457926
56	0x3cf7b715	0.030238668
57	0xbe32719f	-0.17426156
58	0x3d32832a	0.04358212
59	0x3d926e8b	0.07149991
60	0x3e08d4a6	0.13362369
61	0xbd30565f	-0.04305112
62	0x3ddf326c	0.10898289
63	0xbb9e98fe	-0.0048400154
64	0xbeadf5ae	-0.339765
65	0x3dc4f214	0.09616485
66	0x3d674081	0.056458
67	0xbd875550	-0.06608069
68	0xbe00917b	-0.12555496
69	0x3e27fd82	0.164053
70	0x3db1c5f3	0.08680334
71	0x3dd56311	0.10419286
72	0xbdf90594	-0.12159267
73	0x3cf493d7	0.029855652
74	0xbe507f05	-0.20360954
75	0x3edb0432	0.42776638
76	0x3e416bee	0.18888828
77	0xbd93a737	-0.07209628
78	0xbe14e09e	-0.1453881
79	0xbdd8c60c	-0.105846494
80	0x3dae3944	0.08507016
81	0xbcb389a1	-0.021916213
82	0xbe1622c4	-0.146617
83	0x3dbc358d	0.091899015
84	0x3cf666e7	0.030078365
85	0xbb3f511e	-0.0029192637
86	0x3e727fa8	0.2368151
87	0xbddd882c	-0.10816988
88	0x3d3a27e1	0.045448188
89	0x3e50ee12	0.20403317
90	0x3e068430	0.13136363
91	0xbe19ff05	-0.15038688
92	0xbd8cbeb2	-0.0687231
93	0xbb07f09a	-0.0020742775
94	0xbda8ba5e	-0.08238672
95	0x3d99ed5e	0.07515977
96	0x3de5b21c	0.11215612
97	0xbe085bf2	-0.13316324
98	0x3be8ac4a	0.0071006166
99	0x3dc28044	0.09497121
100	0xbdafb6cf	-0.0857979
101	0xbbada30f	-0.005298979
102	0xbd88b422	-0.066749826
103	0x3dc2fcf2	0.09520902
104	0xbdaafdfa	-0.083492234
105	0x3dda192b	0.10649332
106	0x3c8517f4	0.016246773
107	0xbcb8eaca	-0.022572894
108	0x3e4028d9	0.18765582
109	0xbd1c0cd0	-0.038098156
110	0xbe50ec13	-0.20402555
111	0x3d99a4e0	0.075021505
112	0xbe235b6d	-0.15952845
113	0xbd295962	-0.041345008
114	0x3df6b505	0.120462455
115	0x3e115605	0.1419297
116	0x3e03fbbb	0.12888996
117	0x3e649d05	0.22325523
118	0x3e17d487	0.14827166
119	0xbc813c93	-0.015775954
120	0xbde05938	-0.10954517
121	0xbd701d8e	-0.058621936
122	0x3e01101b	0.126038
123	0x3deec5d6	0.11658828
124	0x3e0e7e5e	0.13915393
125	0x3d61c750	0.05512172
126	0xbd443d5b	-0.047910076
127	0xbdb3b35e	-0.08774446
128	0xbd9d6a9c	-0.0768635
129	0xbddedd04	-0.10881999
130	0xbd33cadc	-0.043894634
131	0xbd879817	-0.06620806
132	0x3df95177	0.12173741
133	0x3da3bdc7	0.079951815
134	0xbdfd8dd4	-0.12380567
135	0xbc46a997	-0.012125394
136	0xbe03d0fa	-0.12872687
137	0xbe1b0e1d	-0.15142103
138	0x3d7acf51	0.06123287
139	0xbe3dcf85	-0.18536194
140	0xbd735713	-0.059409212
141	0x3e1113e6	0.14167747
142	0x3de2d524	0.110758096
143	0x3ca2b32e	0.01986083
144	0x3e8835e4	0.26603615
145	0x3e231ae5	0.15928228
146	0x3c818eff	0.015815256
147	0xbe08a495	-0.13344033
148	0xbd9fbe61	-0.07799984
149	0xbcc244de	-0.023714479
150	0xbeddce4e	-0.4332146
151	0x3c0b2587	0.008492834
152	0x3d53f632	0.051748462
153	0x3cda6645	0.026660094
154	0xbe44da19	-0.19223823
155	0xbe8333c9	-0.25625446
156	0xbd8223bf	-0.06354474
157	0xbe336184	-0.17517668
158	0x3d59fa2d	0.0532171
159	0x3e1c6b98	0.15275419
160	0x3d92de55	0.07171313
161	0xbcce6ab5	-0.025197366
162	0x3d53a76f	0.05167335
163	0xbe51fc0c	-0.20506305
164	0x3e190f04	0.14947134
165	0xbcd09596	-0.025461953
166	0x3d561470	0.052265584
167	0xbbefa581	-0.007313431
168	0x3cd82ab3	0.026387548
169	0x3dd8bffc	0.10583493
170	0xbda9ae8a	-0.08285244
171	0x3d169265	0.036760706
172	0xbe432f20	-0.19060946
173	0xbb62264d	-0.0034507692
174	0x3e3c7001	0.18402101
175	0x3e0320f6	0.12805542
176	0xbd798b5c	-0.06092392
177	0xbdf530f4	-0.11972228
178	0xbdbe92b7	-0.093053274
179	0x3a637e1d	0.0008678155
180	0xbc33df60	-0.01097855
181	0xbe1aac87	-0.15104876
182	0x3d50e148	0.050996095
183	0x3e0ff8b8	0.14059722
184	0x3be74b15	0.007058511
185	0xb8f22c76	-0.00011547741
186	0x3ccbfa2a	0.024899561
187	0x3d7d9d5f	0.06191766
188	0xbda1e47e	-0.079049096
189	0xbe0aa937	-0.13541113
190	0xbd317f16	-0.04333409
191	0x3bd13bba	0.006385294
192	0x3dfb8d74	0.122828394
193	0xbda758e1	-0.08171249
194	0xbd7e69c0	-0.06211257
195	0x3e3ee43e	0.18641755
196	0x3dffdbd6	0.12493102
197	0x3e11195f	0.14169835
198	0x3e2630eb	0.16229598
199	0xbdafab13	-0.08577552
200	0x3ddcf535	0.10788957
201	0x3dd3cb87	0.10341554
202	0xbd716722	-0.058936246
203	0xbe19d4d6	-0.15022597
204	0x3e5df84e	0.21676752
205	0xbe203f0b	-0.15649049
206	0x3d053448	0.032520562
207	0x3dc5d7c4	0.09660295
208	0x3e78416c	0.24243706
209	0xbacd6971	-0.0015671683
210	0xbd286d18	-0.041119665
211	0x3df4b986	0.11949448
212	0x3db31057	0.08743351
213	0xbd1c053b	-0.038090926
214	0xbe63a4cf	-0.22230838
215	0x3c15c1c6	0.0091404375
216	0xbe2694e8	-0.1626774
217	0xbd548ae1	-0.051890258
218	0xbd62698f	-0.05527645
219	0xbe01ed55	-0.12688191
220	0xbd64fc8d	-0.055904914
221	0x3cb40519	0.021975087
222	0xbddfcb78	-0.109274805
223	0x3e6f6646	0.23378858
224	0x3e7222f5	0.23646148
225	0x3da95862	0.08268811
226	0x3d8e2b94	0.069419056
227	0xbc89e630	-0.016833395
228	0xbd423a24	-0.04741873
229	0x3c501697	0.012700698
230	0xbd9e7f9f	-0.077391855
231	0x3e50addb	0.2037882
232	0x3e2582ec	0.16163224
233	0xbe5a568a	-0.21322075
234	0x3e761ac2	0.24033645
235	0xbe3c5186	-0.18390474
236	0xbdf37913	-0.118883274
237	0x3e1fe8c8	0.15616143
238	0xbc11a7f5	-0.008890142
239	0xbc1270f3	-0.008938062
240	0x3e30e480	0.17274666
241	0x3ca19223	0.019723004
242	0xbb63212a	-0.0034657218
243	0x3dfdc43a	0.12390943
244	0xbe09be13	-0.13451414
245	0x3e5a940c	0.21345538
246	0xbe93c419	-0.28860548
247	0x3e30f4dd	0.17280908
248	0x3df626b4	0.12019101
249	0xbe1343c4	-0.1438132
250	0xbe026209	-0.1273271
251	0xbe1993e9	-0.1499783
252	0xbcb387d4	-0.021915354
253	0x3dd75dbe	0.10515927
254	0x3d800357	0.06250637
255	0xbc932373	-0.01796124

embedder.res_block.3.bias f4 [32]
0	0xbe171d9f	-0.14757393
1	0xbe23eca5	-0.16008241
2	0xbdea1e9c	-0.114316195
3	0xbe097a73	-0.13425617
4	0xbd8feb95	-0.070273556
5	0x3e0f0c3b	0.1396951
6	0xbd7bc71f	-0.061469194
7	0x3d677b8a	0.0565143
8	0x3d840cdd	0.06447766
9	0x3d728cb3	0.059216212
10	0x3c7f3a77	0.015577904
11	0x3e297cda	0.16551533
12	0x3e1f4122	0.1555219
13	0xbdbc4351	-0.09192527
14	0x3d0112ed	0.03151219
15	0x3d16e8f3	0.03684325
16	0x3daaebb4	0.08345738
17	0xbd2cc4d4	-0.042179897
18	0xbd14a9bd	-0.036294688
19	0x3c6a0554	0.014283497
20	0x3da782db	0.081792556
21	0xbdc40607	-0.09571462
22	0xbe29ffe3	-0.1660152
23	0xbe042447	-0.12904464
24	0xbdea2688	-0.114331305
25	0xbe09b186	-0.13446626
26	0x3d5db918	0.054131597
27	0x3dcf6d7f	0.101283066
28	0x3dc2ae35	0.095058836
29	0x3c89f1a6	0.01683886
30	0x3e18e05c	0.14929336
31	0xbd0bdfb0	-0.034148872

cnn_blocks.0.proj_in.weight f4 [16, 32]
0	0xbc3c3b24	-0.01148871
1	0x3da4ace5	0.080407895
2	0xbe349672	-0.17635515
3	0x3e1e8536	0.15480503
4	0x3dfd7b25	0.123770036
5	0xbdf7eb58	-0.12105435
6	0xbdc35fe4	-0.09539774
7	0x3dd4f98c	0.1039916
8	0x3d1208ca	0.035652913
9	0xbd0ce557	-0.034398403
10	0xbe17f869	-0.14840855
11	0xbd86d9f1	-0.06584538
12	0x3d75c28f	0.06
13	0x3d638eed	0.055556227
14	0xbdffc5da	-0.12488909
15	0xbcd5e5e5	-0.026110599
16	0x3dd32a83	0.10310843
17	0x3dce93b9	0.100867696
18	0x3def7a96	0.11693303
19	0xbcd01703	-0.025401598
20	0xbcdbb94e	-0.026821759
21	0xbac39000	-0.0014920235
22	0xbd423a77	-0.047419038
23	0x3da4c204	0.08044818
24	0xbdc75d20	-0.09734559
25	0x3d7a1502	0.06105519
26	0x3db885d8	0.09009904
27	0xbdabedfa	-0.08395
28	0x3d9b6bd8	0.07588929
29	0x3dd22f2c	0.102629036
30	0xbe047161	-0.12933876
31	0x3e16c0a2	0.14721921
32	0x3d3c0d53	0.045911144
33	0x3d0be6e0	0.034155726
34	0x3def3995	0.11680905
35	0x3d992380	0.07477474
36	0xbdc656c4	-0.09684518
37	0xbe0c110f	-0.13678382
38	0xbdd75ad9	-0.10515375
39	0x3d309d0c	0.04311852
40	0xbe396f4c	-0.18108863
41	0x3d2f6bbc	0.042827353
42	0xbe380b73	-0.17973118
43	0x3e139fa3	0.14416365
44	0x3d01394b	0.03154878
45	0xbe566dad	-0.20940275
46	0xbe52b609	-0.20577253
47	0xbe689077	-0.22711359
48	0xbd7d184a	-0.061790742
49	0xbac6066e	-0.0015108117
50	0x3d6a43ef	0.057193693
51	0xbe013f83	-0.12621884
52	0x3c5fef56	0.013667902
53	0x3cbb9e11	0.02290252
54	0xbd9024b2	-0.07038249
55	0x3a5a47b0	0.00083267223
56	0xbd9c0ffb	-0.076202355
57	0x3da6b13f	0.08139276
58	0xbdddf930	-0.10838544
59	0x3da3366e	0.07969366
60	0xbc948497	-0.01812963
61	0x3e554793	0.20828085
62	0xbce205a7	-0.027590586
63	0xb9fb5975	-0.000479411
64	0x3d0ac9ec	0.033883974
65	0xbc22182d	-0.009893459
66	0xbda99e1f	-0.08282112
67	0xbda9a750	-0.082838655
68	0xbc0d16c4	-0.008611385
69	0xbd54bd17	-0.051938143
70	0x3d9b855f	0.07593798
71	0xbd0a3719	-0.03374395
72	0x3d169b64	0.036769286
73	0x3bfd43ab	0.007729014
74	0x3d9a8773	0.07545366
75	0xbcdf60f8	-0.027267918
76	0xbe0727dd	-0.131988
77	0x3cd8f553	0.026484167
78	0x3bc6c017	0.0060653794
79	0x3d957699	0.07298011
80	0x3d734310	0.059390128
81	0xbd9d2182	-0.07672407
82	0x3c77a29c	0.015114453
83	0xbe42a6fd	-0.19009013
84	0xbbd52d37	-0.006505634
85	0x3e28c86d	0.16482706
86	0x3dab4a66	0.083638
87	0x3d733e64	0.059385672
88	0xbe2c06b4	-0.16799432
89	0x3ddd9040	0.10818529
90	0x3c5260d2	0.012840467
91	0x3d9ba8e5	0.076005735
92	0xbe3c7beb	-0.18406646
93	0xbe4c5cbb	-0.19957249
94	0xbd97d07b	-0.07412811
95	0x3dd63fc0	0.10461378
96	0xbcfd4b2a	-0.03091963
97	0xbde0fb49	-0.10985429
98	0x3dfccb71	0.12343491
99	0x3a7b6015	0.00095892075
100	0xbdb62f64	-0.08895758
101	0xbce6978a	-0.028148431
102	0xbe1a6462	-0.15077356
103	0xbc8a632e	-0.016892996
104	0xbd7250b8	-0.05915901
105	0x3da61074	0.08108607
106	0x3dd31a3b	0.103077374
107	0xbe113702	-0.1418114
108	0xbc5c672d	-0.013452333
109	0x3d9b7f45	0.07592634
110	0x3e257fde	0.16162059
111	0x3df3f94b	0.11912783
112	0xbe3cad61	-0.18425514
113	0x3df7661b	0.12080022
114	0x3bec3bc5	0.0072092735
115	0x3e082b4b	0.13297765
116	0x3d5543e6	0.052066706
117	0x3ce5dde8	0.028059915
118	0x3d9fa4f1	0.07795132
119	0xbdedc155	-0.11609141
120	0x3dbcd5c7	0.09220462
121	0x3e0ad3d6	0.13557371
122	0x3d03cbfa	0.03217695
123	0xbd2aa7e7	-0.04166403
124	0xbdbc7a85	-0.09203056
125	0x3e0bf4d2	0.1366761
126	0x3cb5ea61	0.022206487
127	0xbe425568	-0.18977892
128	0xbe2f5d8e	-0.17125532
129	0xbd9b7ab9	-0.07591767
130	0x3e3a4182	0.18189052
131	0x3d68e223	0.056856286
132	0xbd8c2366	-0.06842689
133	0xbceffb4a	-0.029294629
134	0x3dbb3a6a	0.09142001
135	0x3cd87b21	0.0264259
136	0xbe023ddd	-0.12718911
137	0x3e1fcaf8	0.1560477
138	0x3d18168a	0.03713087
139	0xbe456a79	-0.19278897
140	0x3df9d3d7	0.12198608
141	0x3d19ee64	0.037580863
142	0xbdf00c7f	-0.117211334
143	0x3d03cf65	0.03218021
144	0xbe1c178a	-0.15243354
145	0xbd0a0948	-0.033700258
146	0xbcef1a66	-0.029187392
147	0xbd824d9a	-0.063624576
148	0xbdc62561	-0.09675098
149	0x3dda9980	0.10673809
150	0xbe58a0a8	-0.21155035
151	0xbc9e96bb	-0.019358983
152	0x3e4e3ec9	0.20141138
153	0xbe2769fe	-0.16349027
154	0xbd351d19	-0.044217203
155	0xbdf809c6	-0.12111239
156	0x3d577687	0.05260327
157	0x3d1fb862	0.0389942
158	0xbdcb9633	-0.099407576
159	0x3e82400c	0.2543949
160	0xbe2a67a8	-0.16641104
161	0xbd6388c4	-0.05555035
162	0x3cbce202	0.023056988
163	0xbd111eab	-0.035429638
164	0x3e167d12	0.14696148
165	0x3c338f6b	0.0109594865
166	0x3d4510e3	0.048111808
167	0x3d83b031	0.0643009
168	0x3c95efb0	0.018302768
169	0x3e2571bb	0.16156666
170	0xbe250516	-0.16115221
171	0x3e158297	0.14600597
172	0xbe23b083	-0.15985303
173	0x3e2ad86f	0.16684125
174	0xbd6bf098	-0.057602495
175	0xbe1ececf	-0.15508579
176	0x3db37266	0.08762054
177	0xbdd62a5c	-0.10457298
178	0xbd25300b	-0.04032902
179	0xbd353bf7	-0.04424664
180	0x3d8df4c1	0.06931449
181	0xbd60762c	-0.054800197
182	0xbd87f72e	-0.06638943
183	0xbd1bf329	-0.038073692
184	0xbdd230aa	-0.10263188
185	0x3ddd718d	0.10812674
186	0xbe0d06ec	-0.13772172
187	0xbe20b881	-0.15695383
188	0x3db9a583	0.09064772
189	0xbd56bacf	-0.05242425
190	0x3d8aba29	0.067737885
191	0x3e5fcaa0	0.21854639
192	0x3cf741bc	0.030182712
193	0x3de40879	0.111344285
194	0xbb16f4cd	-0.0023034096
195	0x3d3d4296	0.04620608
196	0x3dc9bdd2	0.098506585
197	0xbe16854b	-0.14699285
198	0xbd056d75	-0.03257509
199	0xbe08471b	-0.13308375
200	0x3ad3370d	0.0016114429
201	0x3dcc2c0f	0.09969341
202	0x3e234e03	0.15947728
203	0xbd7b5283	-0.061357986
204	0xbe0d3276	-0.1378878
205	0x3d7a9e9a	0.06118641
206	0xbd9f0ac0	-0.07765722
207	0xbe24c169	-0.16089405
208	0xbe093451	-0.13398863
209	0xbdaecdf4	-0.08535376
210	0x3dea3391	0.11435617
211	0xbda669a0	-0.08125615
212	0x3d8fcdf5	0.07021705
213	0x3d96de04	0.07366565
214	0xbd06a587	-0.032872703
215	0x3dcd77e4	0.10032633
216	0x3d76b3b7	0.060229983
217	0xbd8dd053	-0.069245
218	0xbe259839	-0.1617135
219	0xbe725e38	-0.23668754
220	0x3d3f27e0	0.046668887
221	0x3df8536a	0.12125285
222	0x3ba459c1	0.0050155823
223	0x3e749564	0.23885113
224	0x3ce064c6	0.027391803
225	0xbda681e3	-0.08130243
226	0xbd058249	-0.032594953
227	0x3c74784e	0.014921261
228	0xbdfe2e73	-0.12411203
229	0x3dff7ea0	0.12475324
230	0x3d3779b4	0.0447938
231	0xbd0aad29	-0.033856545
232	0x3e0af01d	0.13568158
233	0x3e2ccbad	0.16874571
234	0x3e24846d	0.16066141
235	0x3dfb53dd	0.12271855
236	0x3e376a9e	0.17911765
237	0xbd3d1ab2	-0.046168037
238	0xbe18ed92	-0.14934376
239	0xbbeb10ac	-0.0071736183
240	0x3b8456ba	0.004038659
241	0x3e5cb64e	0.21553919
242	0xbdcd99ef	-0.10039126
243	0x37063a71	8.000629e-06
244	0xbdf9f278	-0.1220445
245	0xbd82d963	-0.063891195
246	0xbdfb4344	-0.12268689
247	0x3d160704	0.036627784
248	0x3dd9de86	0.10638146
249	0x3e48bb36	0.19602665
250	0xbd19403a	-0.037414767
251	0xbc8e627b	-0.017380944
252	0x3dedf00d	0.11618052
253	0xbe40ee35	-0.18840869
254	0xbe052ecc	-0.13006133
255	0x3decdddd	0.115657546

cnn_blocks.0.proj_in.bias f4 [16]
0	0x3dca1ac5	0.09868387
1	0xbc8f6e7f	-0.017508743
2	0xbdfe5f48	-0.12420517
3	0xbcc1ece9	-0.023672538
4	0x3d35ef48	0.04441765
5	0xbdb3f033	-0.08786049
6	0x3db43975	0.088000216
7	0x3db9d02f	0.09072911
8	0x3e40b44b	0.18818776
9	0x3e1b3618	0.15157354
10	0x3e512e77	0.20427881
11	0x3e09a173	0.13440494
12	0xbdf0ce3e	-0.117580876
13	0xbe3bbf7d	-0.18334766
14	0x3b4662f9	0.0030271395
15	0xbd1c317f	-0.03813314

cnn_blocks.0.convs.0.weight f4 [16, 16, 3, 3]
0	0x3d4d4c0b	0.05012135
1	0x3dd11fb4	0.10211125
2	0x3d95a643	0.073071025
3	0xbd82be77	-0.063839845
4	0x3d8129d1	0.06306804
5	0x3d1cbc12	0.038265295
6	0xbd9ccbaf	-0.07656037
7	0xbd14766a	-0.03624574
8	0xba5c14f6	-0.00083954574
9	0x3d3ef1e6	0.04661741
10	0xbcc3d26b	-0.023904046
11	0x3c3c09d1	0.01147695
12	0x3dbfd63d	0.093670346
13	0xbcfba3e3	-0.030717796
14	0x3d2c9798	0.04213676
15	0xbcfa6001	-0.030563356
16	0xbd61ed22	-0.055157788
17	0x3ce24f98	0.027625844
18	0x3dba77a3	0.0910485
19	0xbdf9b5bf	-0.121928684
20	0xbd95bbf2	-0.07311238
21	0xbccceaa4	-0.02501423
22	0x3c634750	0.013871983
23	0xbdb2251f	-0.086984865
24	0x3d053696	0.03252276
25	0x3d875519	0.06608028
26	0x3d79ba5f	0.060968753
27	0xbd488c72	-0.048962064
28	0xbd6901a1	-0.05688632
29	0x3c1d70bf	0.0096094
30	0x3d07c8ba	0.033150412
31	0x3d13cbf4	0.036083177
32	0x3d3fd8ff	0.046837803
33	0x3b831658	0.0040004663
34	0xbc8cc2f1	-0.017182799
35	0x3cca3376	0.024682742
36	0xbd49beaf	-0.049254116
37	0xbd28eaa0	-0.04123938
38	0xb9fd8320	-0.00048353616
39	0xbe040a7f	-0.12894629
40	0x3c91b75b	0.017787626
41	0xbc200e78	-0.009769075
42	0x3ddcf27c	0.10788438
43	0xbc59b9ac	-0.0132888965
44	0xbdae8024	-0.08520535
45	0x3dd1dd2d	0.10247264
46	0x3d5eb6c9	0.054373536
47	0xbc8d21bc	-0.017228
48	0x3c9231c5	0.017845998
49	0x3dc7f7de	0.09764074
50	0xb96c2ccb	-0.000225234
51	0x3ddafb11	0.10692418
52	0xbd108ea1	-0.03529227
53	0xbccc3616	-0.024928134
54	0x3c86a189	0.016434448
55	0xbd3896ba	-0.04506562
56	0x3e2fdc1b	0.17173807
57	0x3d09226e	0.0334801
58	0x3abe90f6	0.0014539051
59	0x3d1a1ac5	0.037623186
60	0x3badffbc	0.005310027
61	0xbc819894	-0.015819825
62	0x3ce87c54	0.028379597
63	0xbc5b2acf	-0.013376906
64	0x3e0f8c8b	0.14018457
65	0xbcc91132	-0.024544332
66	0xbc79c68d	-0.015245092
67	0xbc8fd51a	-0.01755767
68	0x3be7f189	0.007078354
69	0xbca318c4	-0.01990927
70	0xbe00af42	-0.12566856
71	0xbd832b1d	-0.064047076
72	0xbdab23ea	-0.083564594
73	0x3daa9a0a	0.08330162
74	0xbbea4716	-0.0071495874
75	0xbdcc6ad7	-0.099813156
76	0x3d05f2e8	0.032702357
77	0xbd2a9098	-0.0416418
78	0xbbf6300c	-0.007513052
79	0xbc9d9fa2	-0.019241158
80	0xbe0c0f65	-0.13677748
81	0x3db32a2d	0.08748279
82	0xbd0316f5	-0.032004315
83	0x3c95c4fc	0.018282406
84	0xbb0007f7	-0.0019535997
85	0x3d5db3c4	0.054126516
86	0x3c8dec6f	0.017324654
87	0x3d16d7a7	0.036826756
88	0x3d6447e4	0.055732623
89	0xbdde3ef5	-0.10851852
90	0x3d87863a	0.066173986
91	0xbcc375d6	-0.0238599
92	0xbc1ba2d1	-0.009499268
93	0x3e3552d9	0.17707385
94	0x3e32cbc7	0.17460547
95	0xbcfe7a2e	-0.03106412
96	0x3dd98f49	0.106230326
97	0x3c4e0930	0.012575433
98	0xbc05a00e	-0.008155836
99	0xbd643d05	-0.055722255
100	0x3b93a051	0.004505195
101	0x3d285ec9	0.04110602
102	0xbcf1d954	-0.029522575
103	0xbd538af6	-0.051646195
104	0xbdab1064	-0.08352736
105	0x3d546e1a	0.051862814
106	0xbdc4e270	-0.09613502
107	0xbd89484e	-0.06703244
108	0x3d549e73	0.05190892
109	0xbd5dfdc2	-0.05419708
110	0xbc2f9f93	-0.010719198
111	0xbaab0565	-0.0013047872
112	0xbc9eda20	-0.01939112
113	0xbde74ad3	-0.112935685
114	0xbd4d17f3	-0.050071668
115	0x3c0d53b7	0.008625916
116	0xbcd7c03e	-0.026336785
117	0xbcbce24d	-0.023057127
118	0xbb61a71f	-0.0034431887
119	0xbde76c61	-0.112999685
120	0xbcce5642	-0.025187615
121	0xbde31aea	-0.11089118
122	0xbc71da12	-0.014761465
123	0xbc52743b	-0.012845094
124	0x3d874f04	0.06606868
125	0x3e1dd0d4	0.15411693
126	0x3e1783a8	0.14796317
127	0x3e03652c	0.12831563
128	0x3dee0693	0.11622348
129	0x3da68a1e	0.081318125
130	0xbdd9957c	-0.10624215
131	0x3cf4adc8	0.029868022
132	0x3d873986	0.066027686
133	0x3b1748cf	0.0023084169
134	0x3d882345	0.06647352
135	0x3dd14d30	0.102198005
136	0xbdbdd5af	-0.092692725
137	0xbbcb78fc	-0.006209491
138	0xbd983f32	-0.074339285
139	0xbbac4a34	-0.005257869
140	0x3e452a91	0.19254519
141	0xbd92c99a	-0.07167359
142	0xbd3a4338	-0.04547426
143	0xbd012371	-0.03152794
144	0x3b1e542d	0.002415906
145	0x3c8cea29	0.0172015
146	0xbe2e42f0	-0.17017722
147	0xbded9a54	-0.116017014
148	0x3bc4fb96	0.0060114367
149	0x3d838bbc	0.064231366
150	0xbd5311e5	-0.051530737
151	0xbdde3cb2	-0.108514205
152	0xbbd61919	-0.0065337536
153	0xbccea23c	-0.025223844
154	0x3cd07f6c	0.025451384
155	0xbc608178	-0.013702743
156	0x3dc9a312	0.09845556
157	0xbdef7950	-0.116930604
158	0xbc656705	-0.014001613
159	0x3d33b117	0.043870058
160	0xbdd57c5c	-0.1042411
161	0x3d37eba5	0.044902463
162	0xbcf8c993	-0.030369556
163	0x3b325c0d	0.002721551
164	0xbd3feb87	-0.046855476
165	0x3d39851c	0.04529296
166	0xbcf8cfa8	-0.030372456
167	0x3e1d68f0	0.15372062
168	0x3d4fbcf5	0.050717313
169	0xbda28e07	-0.07937246
170	0x3d33bcdc	0.043881282
171	0x3ccda74d	0.02510419
172	0x3d1efd0b	0.03881554
173	0x3d70fab8	0.058832854
174	0x3d53831d	0.05163871
175	0x3c9a20ce	0.01881447
176	0xbd4c05fc	-0.049810395
177	0x3d022538	0.031773776
178	0x3d8cf08f	0.068818204
179	0x3d4e6a73	0.050394487
180	0x3db3536f	0.08756148
181	0xbd04ebd8	-0.03245148
182	0x3c3b2029	0.011421242
183	0x3cc70ebf	0.024299024
184	0xbc2e8f0a	-0.01065422
185	0xbe200d27	-0.15630017
186	0x3d527930	0.051385105
187	0x3da1be6c	0.07897648
188	0xbdcbe67c	-0.09956071
189	0xbe0ae54c	-0.13564032
190	0x3d1b4214	0.037904814
191	0x3bbf36c1	0.0058353846
192	0xbca83b62	-0.020536128
193	0xbe3497b3	-0.17635994
194	0x3d703d76	0.058652364
195	0x3d5f1e5a	0.054472305
196	0x3d354ee3	0.044264685
197	0xbb8182f4	-0.0039523784
198	0xbdf50f69	-0.1196583
199	0x3d7387a5	0.059455533
200	0xbdc5bcf7	-0.09655183
201	0x3c532daf	0.01288931
202	0xbd547662	-0.05187071
203	0xbd8a96f6	-0.06767075
204	0x3c8dee42	0.017325524
205	0x3d4e7d5c	0.05041252
206	0xbc9ef957	-0.019406004
207	0xbdca1e94	-0.098691136
208	0xbbf1e561	-0.0073820804
209	0x3d04ec85	0.032452125
210	0xbb1fb152	-0.0024367166
211	0x3d4f3f20	0.05059731
212	0xbd1a61a9	-0.037690792
213	0x3d0aa691	0.033850256
214	0x3d4826d3	0.04886515
215	0xbe195c0c	-0.1497652
216	0x3c8bd273	0.017068123
217	0x3d8ac614	0.06776062
218	0xbe07a25a	-0.13245526
219	0xbd0a95ad	-0.03383415
220	0x3db666fc	0.089063615
221	0xbd64b965	-0.05584087
222	0x3d839c1b	0.06426259
223	0xbe4565aa	-0.19277063
224	0x3d814292	0.063115254
225	0xbdcc084d	-0.09962521
226	0x3dc4cf91	0.09609903
227	0xbd048cc3	-0.032360803
228	0xbd3c989a	-0.04604397
229	0xbc955757	-0.018230123
230	0x3cff6cd0	0.031179816
231	0x3e0b1ee6	0.13586006
232	0xbd2ae10d	-0.04171853
233	0xbd4dfa31	-0.05028743
234	0x3c92045c	0.017824344
235	0x3c1cacbf	0.00956267
236	0xbdae3dc0	-0.08507872
237	0xbd46ae6c	-0.048506185
238	0xbddd1de0	-0.10796714
239	0x3db52129	0.088442154
240	0x3dc41372	0.095740214
241	0xbcbe7a23	-0.023251599
242	0x3c5568ad	0.013025445
243	0xbdd34c3e	-0.103172764
244	0x3d4ca480	0.049961567
245	0x3b4e609f	0.0031490696
246	0xbd377cd6	-0.044796787
247	0xbd9485bd	-0.07252071
248	0x3d41d79d	0.047324765
249	0x3c8a531a	0.016885329
250	0xbdba0c89	-0.09084422
251	0xbd88b4b4	-0.066750914
252	0xbdb4e8ab	-0.088334404
253	0x3ccf8cb5	0.025335649
254	0x3d9158e1	0.070970304
255	0x3db02dbb	0.086024724

cnn_blocks.0.convs.0.bias f4 [16]
0	0xbd884d14	-0.066553265
1	0x3d504255	0.05084451
2	0x3cedfa16	0.029049914
3	0xbd08dc08	-0.033412963
4	0x3d340279	0.04394767
5	0x3dd423d9	0.103584
6	0x3d04a74a	0.0323861
7	0x3c9666fb	0.018359652
8	0x3d15bfb6	0.036559783
9	0xbd9e9a60	-0.077442884
10	0x3d5ec761	0.05438936
11	0xbcbfb080	-0.023399591
12	0x3c9c2d97	0.019064708
13	0xbdd11e0b	-0.10210808
14	0xbd4c55b4	-0.04988642
15	0xbdb40d13	-0.08791556

cnn_blocks.0.convs.1.weight f4 [16, 16, 3, 3]
0	0xbb6d8e13	-0.0036248013
1	0xbbac2fc3	-0.005254717
2	0xbe3cb93b	-0.18430035
3	0x3cfce123	0.030869072
4	0x3be70d51	0.007051148
5	0xbdbd1c8d	-0.09233961
6	0xbdb04163	-0.086062215
7	0xbc5b87d5	-0.013399084
8	0x3d8be9af	0.06831681
9	0x3d47223b	0.04861663
10	0xbda75966	-0.08171348
11	0x3d2b2001	0.04177857
12	0xbd411ac0	-0.04714465
13	0xbce87370	-0.028375357
14	0x3c143687	0.009046203
15	0x3d6cc965	0.057809252
16	0xbd6a145a	-0.057148315
17	0xbc1f030c	-0.009705316
18	0xbd1be383	-0.03805877
19	0x3d9825e7	0.07429104
20	0xbd3275e5	-0.043569464
21	0x3ca304ca	0.019899745
22	0xbc462da1	-0.01209584
23	0xbd8aaab6	-0.06770842
24	0x3c10009e	0.00878921
25	0xbc9978c9	-0.018734353
26	0xbc0635b4	-0.008191515
27	0x3d9b0bc0	0.075706005
28	0xbd9908ec	-0.07472405
29	0xbc202a47	-0.009775705
30	0x3e4b1093	0.19830541
31	0x3e1779dd	0.14792581
32	0x3e4aa174	0.19788152
33	0x3d669570	0.05629486
34	0xbdeb162b	-0.114788376
35	0x3a6041ef	0.0008554747
36	0xbc9e8ebb	-0.019355169
37	0xbd219c10	-0.039455473
38	0x3e0faffd	0.14031978
39	0xbd512e9f	-0.051069852
40	0xbde64991	-0.112445004
41	0xbdc4ce7e	-0.09609698
42	0xbd246070	-0.040131032
43	0xbdfcad52	-0.12337746
44	0x3d80993d	0.06279228
45	0xbd117db5	-0.035520274
46	0x3d211804	0.039329544
47	0x3d58103d	0.05274986
48	0x3b4628fa	0.0030236826
49	0xbc2d79f7	-0.010588161
50	0x3d326c6e	0.043560438
51	0x3d45657b	0.048192482
52	0xbdfde357	-0.12396877
53	0x3d8d5fe6	0.06903057
54	0x3d82faca	0.063954905
55	0x3e18cfdf	0.14923047
56	0x3e11add4	0.14226466
57	0xbcca992f	-0.024731247
58	0xbd2c031f	-0.041995164
59	0x3d8e0b71	0.06935776
60	0x3daa8497	0.08326071
61	0x3d14fd80	0.03637457
62	0x3d50ca1a	0.05097399
63	0x3cd29c08	0.025709167
64	0xbd999bc0	-0.0750041
65	0xbd98958e	-0.074504
66	0xbb03a3dd	-0.0020086684
67	0xbd42c0a9	-0.047547016
68	0x3d138228	0.0360128
69	0x3d18bb59	0.037288044
70	0x3c98ccd9	0.018652366
71	0x3daceeab	0.0844396
72	0xbe0e25b6	-0.13881573
73	0xbdb070e6	-0.08615284
74	0xbdb653c6	-0.08902697
75	0xbccabc41	-0.02474797
76	0xbd9f11f9	-0.077671
77	0xbd6f33de	-0.058399074
78	0x3ddd513f	0.10806512
79	0x3c89ff98	0.01684551
80	0xbe03a8a7	-0.12857305
81	0xbe177b7a	-0.14793196
82	0x3d9ec1e7	0.07751828
83	0xbc47f526	-0.012204444
84	0xbd889fab	-0.06671079
85	0x3d33e89c	0.043923005
86	0xbccd182f	-0.025035946
87	0x3dc9e573	0.09858217
88	0x3c223cb2	0.009902166
89	0x3dd7205f	0.10504221
90	0x3be55418	0.00699855
91	0x3d91632d	0.070989944
92	0x3e44589b	0.19174425
93	0x3da4e78c	0.080519766
94	0x3cd3668b	0.025805732
95	0x3d670b44	0.056407228
96	0xbdbc8d55	-0.092066444
97	0xbdf10dfb	-0.11770245
98	0x3e3139dd	0.1730723
99	0xbd2c9d8c	-0.042142436
100	0xbca585e9	-0.020205455
101	0x3d21877e	0.039435856
102	0xbe2565e2	-0.16152146
103	0xbce7bf40	-0.028289437
104	0x3da5bc88	0.080926
105	0x3dfa218d	0.122134306
106	0x3c81cd8c	0.015845083
107	0xbe450a79	-0.19242276
108	0x3d343b65	0.044001956
109	0xbdce60c2	-0.10077049
110	0xbe542a30	-0.20719218
111	0x3cbb6310	0.022874385
112	0x3c4f7a18	0.012663387
113	0x3bd3a901	0.006459356
114	0x3e0780f1	0.13232781
115	0x3d9e30fc	0.07724187
116	0xbd106b02	-0.0352583
117	0x3d2847ce	0.041084103
118	0xbd9574c9	-0.072976656
119	0xbd8277e4	-0.063705236
120	0x3ded6f29	0.11593468
121	0x3cc8fda3	0.024535006
122	0x3c807214	0.015679397
123	0xbc38c5c8	-0.0112776235
124	0x3d3545e9	0.044256125
125	0xbc91de0d	-0.017806077
126	0x3cdad0b8	0.026710853
127	0xbda87976	-0.08226292
128	0xb9113502	-0.00013848025
129	0x3da7d736	0.08195345
130	0x3bf6abb4	0.007527793
131	0xbdac90ae	-0.08426033
132	0xbde75e35	-0.112972654
133	0x3d675e88	0.056486636
134	0xbdb24b7d	-0.087058045
135	0xbd0702e2	-0.032961734
136	0xbd21449e	-0.03937208
137	0x3cfaff56	0.030639332
138	0x3d99f9c7	0.07518344
139	0x3d329e3a	0.043607928
140	0x3d4e063b	0.05029891
141	0xbb257cdc	-0.0025251424
142	0xbd581177	-0.05275103
143	0xbd99414c	-0.074831575
144	0x3db137dc	0.086532325
145	0xbd33350b	-0.043751758
146	0x3d7992d0	0.060931027
147	0x3d26cd09	0.04072288
148	0x3db55e20	0.088558435
149	0xbd09c5ae	-0.033635788
150	0xbe119a42	-0.14219001
151	0x3c9ef77e	0.019405123
152	0xbcb9ece0	-0.022695959
153	0x3c58b335	0.01322632
154	0xbe61602c	-0.22009343
155	0xbc8ab644	-0.016932614
156	0xbd8e92c4	-0.06961587
157	0xbe291580	-0.16512108
158	0x3d29f3cc	0.04149227
159	0x3df855df	0.121257536
160	0xbda630b1	-0.08114756
161	0xbd5b5320	-0.05354607
162	0x3c3b36b4	0.011426616
163	0xbd5e0452	-0.05420334
164	0x3da93abf	0.08263158
165	0xbdefa1e4	-0.117008
166	0x3cad5b31	0.021161648
167	0x3be7fe81	0.0070799
168	0x38a6547d	7.931234e-05
169	0x3d8b56f3	0.068036936
170	0xbd2d8a9d	-0.04236852
171	0xbd909c68	-0.07061082
172	0xbd02ac47	-0.031902578
173	0x3d3d1027	0.046157982
174	0xbcac0faa	-0.021003563
175	0xbd7aac4b	-0.061199468
176	0xbd8a8658	-0.06763905
177	0xbd4b3715	-0.049613077
178	0x3c5c8482	0.013459327
179	0x3dea6e9b	0.114468776
180	0x3cdde6b0	0.02708754
181	0xbccea90e	-0.025227096
182	0x3d9dc1a3	0.07702949
183	0x3c22d98b	0.009939562
184	0xbbbde9d5	-0.005795697
185	0xbe45ed3f	-0.19328783
186	0x3df533f6	0.119728014
187	0x3cfcce94	0.030860223
188	0xbda0b173	-0.07846346
189	0x3d809b5b	0.06279632
190	0xbd292fa7	-0.04130521
191	0xbde5d101	-0.11221505
192	0x3d76e983	0.060281288
193	0x3d5b859e	0.053594224
194	0xbd9d7989	-0.076891966
195	0xbd472dc8	-0.048627645
196	0x3d8a1648	0.06742531
197	0x3c2d1c74	0.010565866
198	0xbb7bdba7	-0.0038430484
199	0x3ca7eb4d	0.020497942
200	0x3d536663	0.051611315
201	0x3b7b3152	0.0038328958
202	0xbd9a427b	-0.075322114
203	0xbb993b7b	-0.00467628
204	0xbd2056a1	-0.039145116
205	0xbe02c8b4	-0.12771875
206	0xbd1dded9	-0.038542602
207	0xbe211c50	-0.15733457
208	0x3d3a6d4f	0.0455144
209	0xbd9c9571	-0.07645691
210	0xbd91be9d	-0.07116435
211	0x3d9a92bf	0.07547521
212	0x3b2fa369	0.002680028
213	0x3de0f984	0.10985091
214	0x3d522b34	0.051310733
215	0xbd2aee75	-0.041731317
216	0xbda2f9ea	-0.079578236
217	0x3b47bc50	0.0030477233
218	0xbced5131	-0.02896938
219	0xbce5b3c3	-0.028039819
220	0x3ddf5d05	0.10906414
221	0x3d848e00	0.06472397
222	0x3dac98f6	0.084276125
223	0x3d32c063	0.043640506
224	0xbd6e1f17	-0.05813512
225	0xbb98d56c	-0.0046641137
226	0x3dcffb95	0.10155407
227	0x3bafed7e	0.0053688874
228	0xbde1f3bb	-0.11032816
229	0x3d68d29b	0.056841474
230	0x3d80033a	0.062506154
231	0x3e14c7e6	0.1452938
232	0x3d0bb0fa	0.034104325
233	0x3d8093a4	0.0627816
234	0x3cf0e2c2	0.029405002
235	0xbd1fb218	-0.038988203
236	0x3cf448d2	0.02981988
237	0xbdc6481c	-0.096817225
238	0xbd8cad80	-0.0686903
239	0xbda2e441	-0.07953692
240	0xbc6b0b3e	-0.014345942
241	0x3dc63b0d	0.09679232
242	0xbc6f7db0	-0.014617369
243	0x3e393386	0.18086061
244	0xbcc80c6f	-0.024419991
245	0xbcce9379	-0.025216805
246	0x3de6ba4f	0.11266004
247	0xbd09c672	-0.033636518
248	0xbdd14eac	-0.102200836
249	0xbcead96c	-0.028668128
250	0x3d57c2a5	0.052675862
251	0x3c42f178	0.011898391
252	0x3df03e1f	0.11730599
253	0xbc5063f1	-0.01271914
254	0x3c182f6f	0.009288653
255	0x3bf80fbc	0.007570235

cnn_blocks.0.convs.1.bias f4 [16]
0	0x3d93fce0	0.072259665
1	0xbbe1bbb4	-0.006888831
2	0x3c63491c	0.013872411
3	0x3b318309	0.002708616
4	0xbd83b500	-0.064310074
5	0x3c3972ca	0.011318872
6	0xbb520acd	-0.0032049895
7	0x3d91bbd3	0.07115903
8	0xbcadac7d	-0.021200413
9	0x3d0d4117	0.034485903
10	0xbc51345e	-0.012768833
11	0xbcdf0857	-0.027225656
12	0xbd94471a	-0.07240124
13	0x3be8f8ed	0.0071097524
14	0x3d9c9feb	0.076476894
15	0xbd89cc3c	-0.06728408

cnn_blocks.0.norms.0.weight f4 [16]
0	0x3f6f46f0	0.9346762
1	0x3f7a42b4	0.9775803
2	0x3f80896b	1.0041937
3	0x3f751e38	0.95749235
4	0x3f82d0d9	1.0219985
5	0x3f80351a	1.0016205
6	0x3f75d729	0.96031433
7	0x3f81dfd3	1.0146431
8	0x3f82b2d2	1.0210822
9	0x3f80bbb6	1.0057285
10	0x3f8399bd	1.0281292
11	0x3f76e274	0.9643929
12	0x3f872be0	1.0560265
13	0x3f780e9f	0.9689731
14	0x3f80afbf	1.0053633
15	0x3f7627a2	0.96154225

cnn_blocks.0.norms.0.bias f4 [16]
0	0xbd051680	-0.03249216
1	0xbd9324d7	-0.07184761
2	0xbdadfd69	-0.084956
3	0xbcb5d704	-0.022197254
4	0xbe129bed	-0.14317293
5	0xbdb737a9	-0.08946163
6	0xbc364852	-0.011125641
7	0xbcd67976	-0.026180964
8	0xbe22adc1	-0.15886594
9	0xbc47f203	-0.012203696
10	0xbd312687	-0.043249633
11	0xbd206089	-0.039154563
12	0xbd99edcf	-0.075160615
13	0xbd5ed6bd	-0.05440401
14	0xbe2d02b7	-0.16895567
15	0xbdbe6219	-0.092960544

cnn_blocks.0.norms.0.running_mean f4 [16]
0	0xbd1eda09	-0.038782153
1	0x3c95993a	0.01826154
2	0xbd360443	-0.044437658
3	0x3dd7fe4b	0.105465494
4	0xbdcd0761	-0.10011173
5	0xbd793cd9	-0.060849044
6	0x3bb55ba1	0.0055346047
7	0x3d07c572	0.033147283
8	0x3cd7d919	0.026348637
9	0xbd89287e	-0.066971764
10	0x3d910f42	0.07082988
11	0xbd4898a5	-0.0489737
12	0x3c693cd6	0.014235696
13	0xbe76e78a	-0.24111763
14	0xbe059d4f	-0.1304829
15	0xbe64a1dd	-0.22327371

cnn_blocks.0.norms.0.running_var f4 [16]
0	0x3cbc22f7	0.022965891
1	0x3cdb821a	0.026795436
2	0x3d180c20	0.03712094
3	0x3d1f5bde	0.03890597
4	0x3d002d3c	0.03129314
5	0x3d5a8b70	0.053355634
6	0x3d1df324	0.038561955
7	0x3d0e2e47	0.034712102
8	0x3d0108d7	0.03150257
9	0x3ccac1c9	0.024750607
10	0x3d6a01d6	0.057130657
11	0x3cff8f98	0.0311964
12	0x3d32c862	0.04364813
13	0x3d31027f	0.04321527
14	0x3d19ef4e	0.037581734
15	0x3d090ffe	0.033462517
