checkpoints/stage2_kd_d3/final_model.pt (torch, 86386 bytes, 50 tensors)

embedder.feature_projections.0.weight f4 [32, 1]
000000 1c 4f f4 be 5f 89 b0 3e 60 12 d6 3e c0 c6 93 3f
       -0.47716606 0.34479806 0.41810894 1.1545029
000010 f5 6b 43 3f ed 19 4d bf 16 c3 12 bf 12 55 e0 3d
       0.76336604 -0.80117685 -0.5732893 0.10953726
000020 0a 10 38 bf a3 e4 a5 bf 49 04 21 3d 3a e2 3a 3e
       -0.71899474 -1.2960399 0.039310727 0.18250361
000030 69 44 1a bf 49 34 48 3f 86 1c 7e 3f 84 73 14 bf
       -0.60260636 0.7820478 0.99262273 -0.5798876
000040 28 cd 4f bf e5 a8 8a 3f 88 3c c7 3e 29 fc 17 3e
       -0.8117242 1.0832793 0.3891337 0.14842285
000050 0e 88 82 be a7 6f 05 bf 8e 66 db be c8 b4 12 be
       -0.25494426 -0.5212349 -0.4285168 -0.14326775
000060 a9 16 7c 3f ec 0e 2f bf 48 c9 8a be 51 01 73 3f
       0.98472077 -0.68382144 -0.2710669 0.94923884
000070 e5 1d a5 3f e7 8e ac 3f df dc 26 bf 98 ff b2 3e
       1.2899748 1.348111 -0.6518077 0.34960628

embedder.feature_projections.0.bias f4 [32]
000000 28 e4 39 3f ce 4e 36 bf 01 b1 15 bf b7 33 a3 3e
       0.72613764 -0.71213996 -0.5847321 0.31875393
000010 56 d2 75 3c 8e c1 db bd af 57 74 be 08 84 ae 3e
       0.015003761 -0.10730277 -0.23861574 0.34085107
000020 24 be 29 3f 4a 92 48 3f cb c9 14 3e f3 65 3c bd
       0.66305757 0.7834822 0.14530103 -0.045995664
000030 11 42 30 bf c4 d3 07 bf 32 45 cb bd 40 23 9f be
       -0.6885081 -0.53057504 -0.09925307 -0.3108158
000040 f9 92 6e 3f 3c 0f 15 3f 9b c1 bd 3e bc a9 4f 3f
       0.9319301 0.5822637 0.37061772 0.8111837
000050 dd 08 27 3f 33 27 c9 be f4 ec 0c 3f 1d 20 28 3f
       0.652479 -0.3928772 0.5504906 0.65674
000060 47 84 81 be 48 dc 44 3f ab bf fd be e6 7c 87 3e
       -0.25296232 0.7689862 -0.49560294 0.26462477
000070 96 58 3c 3e 9f d4 ea be c2 51 06 3f f3 f7 92 be
       0.18393168 -0.45865342 0.524685 -0.28704795

embedder.feature_projections.1.weight f4 [32, 1]
000000 5e 1a 8e 3e 84 fd 15 bf d3 d5 ac 3e f7 64 d8 be
       0.27754492 -0.5858996 0.33756885 -0.4226453
000010 d3 48 39 bf 14 c1 14 bf e2 d7 af be a8 ac 8c 3d
       -0.72376746 -0.58107114 -0.34344393 0.06868869
000020 5d c0 a1 3e 20 9e 32 3d 5c 15 6d bd 76 11 e8 be
       0.31592074 0.04360783 -0.057881698 -0.45325822
000030 69 bb 91 3e 5a 75 75 3e 6c 83 f3 be 58 b7 42 3f
       0.28463295 0.23970547 -0.47561204 0.7606101
000040 33 0c 8b be 63 b7 0b 3f de c6 43 be 1a 40 96 3c
       -0.27157745 0.545767 -0.1911883 0.018341113
000050 16 c4 f5 3e f8 f1 45 3f 72 6c 38 bf 88 40 19 3f
       0.48001164 0.7732234 -0.72040474 0.5986409
000060 6b 04 00 bf cf a1 85 3d c9 50 ef be ac fd 4c 3f
       -0.5000674 0.06525003 -0.46741322 0.8007457
000070 62 f2 a1 3d a8 2f 28 3f 56 66 9d bd d3 a2 2d 3f
       0.07907559 0.6569772 -0.07685535 0.67826575

embedder.feature_projections.1.bias f4 [32]
000000 64 37 e8 be 47 08 ae be c6 8d a6 3e 54 fb 14 be
       -0.4535476 -0.3399069 0.3253004 -0.14548999
000010 e0 1a 50 3f e0 b6 d2 be 7d 42 07 3e 7c c4 c8 3e
       0.8129101 -0.41155148 0.13208957 0.39212406
000020 5e d4 5f 3f 85 4a 0d bd 29 5e 67 bd 39 b2 a1 be
       0.8743342 -0.034494895 -0.056486282 -0.31581286
000030 33 a2 d8 be d8 dc 18 be 05 47 77 be 0c f8 5f 3f
       -0.42311248 -0.14927995 -0.24148186 0.87487864
000040 1d 50 40 bf a0 33 52 be 9e eb 39 3f 08 9b 14 be
       -0.75122243 -0.20527506 0.7262515 -0.14512265
000050 9d 31 0c 3f 3a f3 00 bf 7a 98 cd 3e 02 fc d8 3e
       0.54763204 -0.50371134 0.40155393 0.42379767
000060 fa 6f 2a bf 50 46 54 3f 1d 29 eb be b8 51 dd 3d
       -0.6657711 0.8291979 -0.45929804 0.10806602
000070 f5 0d 0f 3f e0 20 ef bd e2 fa d5 be 1b cd ef be
       0.5588067 -0.11676192 -0.4179297 -0.4683617

embedder.stabilizer_embedding.weight f4 [8, 32]
000000 09 c4 c8 3f 2f e6 5a 3f e8 03 2f be c6 35 f2 bf
       1.5684825 0.8550748 -0.17091334 -1.892266
000010 e1 5a 5f bc f3 24 4b bf 3e 0e 9f bf 35 64 97 3f
       -0.013632507 -0.79353255 -1.2426221 1.1827456
000020 40 1f 6e 3d d2 9b be 3f 80 4a 7a bf b4 f0 25 bf
       0.05813527 1.4891303 -0.9776993 -0.6482041
000030 7d 90 72 bc fb d4 12 3f ff 70 4a 3e f6 34 d9 3d
       -0.0148049565 0.5735623 0.19769667 0.106058046
000040 bf 61 a2 bf ce f5 83 3e cc d2 77 3f 6c ca 47 3f
       -1.268608 0.25773472 0.96806026 0.78043246
000050 b4 88 ac be 91 1a 2a 3f c1 b9 30 3f d7 d6 69 3e
       -0.33698046 0.6644679 0.6903344 0.22835861
000060 6b 87 ba be ea 70 8a 3e 1e 3e 11 3f c7 6a b5 3e
       -0.3643144 0.27039272 0.5673541 0.35433027
000070 d6 88 d7 bf 2e 2f 04 bf ad 3b 0c 3e f4 18 17 40
       -1.6838634 -0.5163449 0.1369464 2.360898
000080 1d 89 94 3f 3d a3 9b bf d8 c9 81 bf 12 5e 82 bc
       1.1604344 -1.2159191 -1.0139723 -0.015913997
000090 20 00 81 3f 99 4f 6d 3f 28 23 57 bf 41 1e 66 3f
       1.0078163 0.9269958 -0.8403802 0.89889914
0000a0 33 7b e2 3f 19 3e 49 3f 52 d0 7c 3f 5a 90 7e 3e
       1.7693847 0.7861038 0.9875537 0.24859753
0000b0 69 b8 83 be 0e 42 73 be 60 a2 4e 40 ee e6 3b 3f
       -0.2572663 -0.23755667 3.2286606 0.73399246
0000c0 56 5c 50 3f c5 be 07 40 6c a1 e1 3e 29 81 05 bf
       0.81390893 2.1210186 0.44068468 -0.5215021
0000d0 77 61 84 bf 5b f8 43 3f ac bb 2e 3f 31 85 d2 bd
       -1.0342244 0.76550835 0.68255115 -0.102793105
0000e0 7c 7e 9a be 06 c8 a2 bf 17 40 3c bf b4 1e f0 be
       -0.30174625 -1.2717292 -0.73535293 -0.46898425
0000f0 3d 2e 28 3f cc ce e5 bc 6e ce 24 3f 13 39 f6 3c
       0.65695554 -0.02805271 0.64377487 0.030056512
000100 94 64 d2 bf b5 17 ed be ff 8a 8c 3f fc a3 01 40
       -1.6436944 -0.4630715 1.0979918 2.0256338
000110 1f c8 b2 bf a7 28 ba 3f b6 36 6e 3f b4 60 5f bf
       -1.3967322 1.4543656 0.9305223 -0.8725693
000120 b3 32 89 be 6d c9 37 bf 73 9b 3a bf 45 e5 92 bc
       -0.26796493 -0.71791726 -0.72893447 -0.01793159
000130 ac 2c fb be 18 da a2 3e 8a 0d cd 3e 1f fe af bf
       -0.4905752 0.31807017 0.40049392 -1.3749427
000140 32 73 8f 3b 7d 19 ef be c2 40 1f bf e9 8e 57 3f
       0.004377746 -0.46699134 -0.6220819 0.8420244
000150 ec 31 6a bd 82 94 21 3e 66 06 af be ff ff 06 3f
       -0.057176515 0.15779307 -0.3418457 0.5273437
000160 d0 08 c6 bf 9a 00 ef be 02 ee 1f be bb 17 f4 be
       -1.5471439 -0.46680146 -0.15618137 -0.47674355
000170 81 11 89 bf f3 d6 d4 bf 24 ae 9a bf d9 9f b3 3f
       -1.0708467 -1.6628097 -1.2084394 1.4033157
000180 f1 c3 ee bf a3 4b 22 c0 cc d3 cb 3f e3 4f 32 bc
       -1.8653547 -2.5358665 1.592401 -0.010883304
000190 f6 61 88 3f 32 1d 54 3e 89 81 a9 bf 07 24 d2 be
       1.0654895 0.20714262 -1.3242656 -0.41043112
0001a0 83 c6 c0 3f fc f6 b2 be 17 56 8c 3e eb 34 7c bc
       1.5060581 -0.3495406 0.2740943 -0.015393476
0001b0 8a a2 22 bf 29 d1 0b bf 35 31 3e 3f 7c 4f d4 3e
       -0.63529265 -0.5461603 0.74293834 0.41466892
0001c0 e3 77 af 3f 34 48 31 3f fe 0e 9c 3f 88 8c 46 3e
       1.3708462 0.692508 1.2192075 0.19389546
0001d0 5f fa a4 be 05 32 cf be 02 17 47 bf 7c 34 02 3f
       -0.32222268 -0.4046785 -0.7776948 0.50861335
0001e0 fd ee 32 3f 43 ca 2c 3f 9e 74 5e bf 03 72 e4 bf
       0.6989592 0.67496127 -0.86896694 -1.7847294
0001f0 d0 4d ba 3f 70 7e a7 bf 82 a7 e4 bd 9f 77 e8 3e
       1.4554996 -1.3085461 -0.11164762 0.45403764
000200 88 85 e9 3f a8 7e 69 3f ba 81 aa bf 2e 3a 10 3f
       1.8243876 0.9120889 -1.332084 0.56338775
000210 d7 83 81 bf 91 92 03 3f 3f cc c1 3e ff 86 8e 3f
       -1.0118359 0.5139552 0.3785114 1.1134948
000220 03 b7 1d 3f ae 3a 82 bf 59 d4 87 be 01 89 b6 3f
       0.6160738 -1.0174158 -0.26529196 1.426056
000230 19 03 58 bf 21 2b c8 3d e5 08 bb be c0 5a 1c c0
       -0.84379727 0.09773851 -0.36530223 -2.443039
000240 6e 4b ac 3f fd 17 d8 bf 4a 67 78 3e 2a 6c 9b bf
       1.3460519 -1.6882321 0.24258152 -1.2142384
000250 ff 77 88 3e f8 e6 d4 3d f9 c2 fd 3b 43 38 78 3e
       0.2665405 0.10395616 0.00774419 0.24240212
000260 e7 57 89 3d 5f 6f a0 bf f9 07 9b be a7 ee de 3e
       0.06706219 -1.2533988 -0.3027952 0.43541452
000270 13 06 01 40 84 0f f4 be 51 d2 0b c0 df 67 5f bf
       2.0159957 -0.47668087 -2.1847117 -0.8726787
000280 9d 06 34 be d0 d5 d1 bf b8 0f 28 be 55 54 8e bf
       -0.17580648 -1.6393375 -0.16412246 -1.1119486
000290 12 f2 ac 3e 4c bc 89 bf b5 44 46 3f 75 2e 68 3f
       0.33778435 -1.0760589 0.7744859 0.9069589
0002a0 1c b5 50 bf bb 39 b9 3e d9 d2 8a be a0 28 c4 bf
       -0.8152635 0.36176857 -0.2711399 -1.5324898
0002b0 7b 45 b4 bf d1 53 f0 3e fe 3d 69 3f 36 84 72 3f
       -1.4083704 0.46938947 0.9111022 0.9473299
0002c0 31 da 58 3f c3 04 f5 bd 73 04 2d bf e0 18 8f 3f
       0.84707934 -0.11963799 -0.67584914 1.1179466
0002d0 3f b9 ac be 0e 71 52 3f 8b 3e 6c be 12 ce 83 3e
       -0.33735082 0.8220376 -0.23070733 0.25743157
0002e0 da 41 d6 3e 83 57 33 3f 69 96 05 3f 44 47 20 3f
       0.41847116 0.7005541 0.5218263 0.6260874
0002f0 35 0e b2 bd f7 a9 87 3f b1 d0 54 bd a5 6f 79 be
       -0.08694116 1.0598744 -0.051956836 -0.24358995
000300 71 5a 10 bf 75 1a da be e9 86 9d bf bd e8 4a c0
       -0.56388 -0.4259831 -1.2306796 -3.1704552
000310 db ff 5e bf b2 df 99 3d 99 f0 b7 bf 19 ae 38 3e
       -0.87109154 0.075133696 -1.43703 0.18035163
000320 c1 93 81 3f 80 2c 03 3f 05 f2 c6 3e 68 88 23 bf
       1.0123216 0.51239777 0.3885652 -0.63880014
000330 7c dc 87 3f 57 9a 4a 3e d1 fe b4 bf 98 96 c2 3e
       1.0614161 0.19785438 -1.4140264 0.3800552
000340 47 b4 10 40 ac 34 04 3f e3 2d d6 3f 95 9f 86 bc
       2.2610033 0.5164287 1.6732754 -0.016433517
000350 e0 ac 41 be 28 86 55 bf 9a d2 0d be 7a 39 0e bf
       -0.18913603 -0.8340783 -0.1384987 -0.5555645
000360 2b 99 81 bf e9 fa 3c bf a9 0f d3 3e 91 7a ba 3e
       -1.0124868 -0.7382036 0.41222885 0.36421636
000370 95 1c 87 be 21 d6 74 3f 2b c8 bc bf 9a c4 cb 3f
       -0.26388994 0.95639235 -1.4748586 1.5919373
000380 ee 4b c2 3f e6 92 85 be 6c 7d 79 3f ec d0 e0 bf
       1.5179422 -0.26088637 0.97457004 -1.7563758
000390 3c 31 2c 3f b0 2e f6 be 6b 4b 2e bc 7a 52 ea be
       0.67262626 -0.48082495 -0.010638098 -0.4576605
0003a0 4a 01 92 bd 6f 71 37 3f 77 9f aa be ef 5e 26 3f
       -0.07129152 0.7165746 -0.33324787 0.6498861
0003b0 f9 99 bd 3f e4 db e4 bf 12 e6 78 bf 34 7d 09 3e
       1.4812614 -1.7879605 -0.9722606 0.13426667
0003c0 14 23 16 3f e0 c4 59 3f f7 09 13 c0 2f 5e 31 be
       0.58647275 0.8506603 -2.2974832 -0.17321084
0003d0 a3 0f 3c 3f 17 e1 23 3e 78 25 62 3f d1 3a 33 3f
       0.7346136 0.16003834 0.8833842 0.7001162
0003e0 76 8e 43 3e ee 9c d4 3f 41 23 de be 3f 44 67 3f
       0.19097313 1.6610391 -0.43386272 0.9033851
0003f0 bf 67 7d be 68 e5 bc 3f b1 2c cb 3f d6 a7 e4 3e
       -0.24746607 1.4757509 1.5873014 0.446593

embedder.res_block.0.weight f4 [32]
000000 9a 41 7e 3f 85 5e 80 3f e7 f1 99 3f ab b1 87 3f
       0.9931885 1.0028845 1.2026948 1.0601095
000010 9f e4 84 3f 2f 06 8d 3f ce 6d 8d 3f 31 8f 5f 3f
       1.038227 1.1017512 1.1049135 0.8732787
000020 51 65 85 3f 71 23 96 3f f8 dd 9b 3f 66 5c 85 3f
       1.0421544 1.1729566 1.2177114 1.0418823
000030 48 ff 6c 3f 25 66 7d 3f 73 cf 8e 3f f9 57 85 3f
       0.9257703 0.98983985 1.1157058 1.0417472
000040 bb ee ac 3f e5 6d 8d 3f 50 ac 82 3f b8 6f 77 3f
       1.3510355 1.1049162 1.0208836 0.96654844
000050 e4 1c 79 3f 8b d7 99 3f 21 94 89 3f 0a aa 7c 3f
       0.9730971 1.2018903 1.074833 0.9869696
000060 58 5e 87 3f dd e3 85 3f 73 38 7e 3f e0 e3 90 3f
       1.0575666 1.0460163 0.99304885 1.1319542
000070 aa 0e 87 3f 5e eb 8a 3f 8b 32 80 3f fe f6 7b 3f
       1.055135 1.0853078 1.0015424 0.98423755

embedder.res_block.0.bias f4 [32]
000000 9a 73 ba bc f8 8e a2 3c 6d ba 28 3d 61 5d 31 3d
       -0.022760201 0.019843563 0.041193414 0.043301944
000010 16 e3 be bc 6e 80 38 3d ec 2e 89 3b 1f e2 be bd
       -0.023301642 0.045044355 0.0041865017 -0.09320473
000020 6f 8e 09 bd b9 d3 c3 3b 9e c6 e4 bb 22 68 00 3b
       -0.0335831 0.005976167 -0.006981685 0.0019593318
000030 62 99 9a 3d 78 51 51 3d 54 a8 06 bc 46 f8 15 bd
       0.07548787 0.051103085 -0.0082188435 -0.036613725
000040 a4 9f 8c b8 26 de f2 bc 04 8b 83 bd da 72 1f bc
       -6.7054556e-05 -0.029646944 -0.064229995 -0.009731973
000050 78 f5 75 bd fd 91 7c 3b b8 67 63 bd c5 19 85 bd
       -0.06004855 0.0038539164 -0.055518836 -0.06499056
000060 b6 a2 34 3d 11 0d 81 bc fb c0 39 3d 4d 9d c2 bb
       0.044100486 -0.0157533 0.045350056 -0.005939162
000070 b7 34 81 bc d4 67 2e 3c e8 66 cd 3c 5f 0e 40 3b
       -0.015772207 0.010644872 0.025073484 0.002930544

embedder.res_block.1.weight f4 [32, 32]
000000 5f 41 43 3d 76 20 e8 3d 62 93 89 3e 11 58 33 3e
       0.047669765 0.113343164 0.26870257 0.17514063
000010 89 41 26 be 74 7a 14 3e 6f 12 a7 3b 99 4a 6f be
       -0.16235937 0.14499837 0.005098633 -0.233683
000020 5d 40 f0 bd 83 e0 8a bd 08 26 29 be f7 d7 13 be
       -0.11731026 -0.067811035 -0.16518414 -0.14437853
000030 d7 4d 77 bd c5 f7 5b 3d bd 48 bd 3d b1 d4 a8 bc
       -0.06037697 0.05370309 0.09242389 -0.020609232
000040 62 21 14 be 5a 97 15 3d 55 69 a1 3d 23 1d 08 3e
       -0.1446586 0.036521293 0.078814186 0.13292365
000050 a0 60 43 bd 7a 79 0b 3d 08 02 3f be eb 04 fa bd
       -0.04769957 0.034051396 -0.18653119 -0.12207969
000060 15 61 47 be f9 91 93 3d 19 7e 06 be 0e a6 ac 3d
       -0.19470628 0.072055764 -0.1313404 0.0843011
000070 4a bb db 3d e6 90 0b be 71 b2 b9 3d 04 88 05 3e
       0.10729082 -0.13629493 0.09067238 0.13040167
000080 96 8b b7 bd ea 19 fe bc c0 8b c5 3d d4 f8 d9 bb
       -0.08962171 -0.031018216 0.09645796 -0.006651977
000090 14 57 3d 3e f0 5f d2 3d f8 64 a5 3d 51 88 05 bd
       0.18490249 0.10272205 0.08075899 -0.032600705
0000a0 b0 d1 26 bd cf 78 f6 3d d5 e9 b3 bd fa 36 19 be
       -0.040727317 0.12034761 -0.08784834 -0.14962378
0000b0 3d 7f f8 3a ca b6 24 be e5 b3 ab bd ef d0 20 be
       0.0018958818 -0.16085353 -0.083839215 -0.15704702
0000c0 fd 6b 09 bd ba 5d de bd 2c 52 b9 3d 2b 85 37 bd
       -0.03355025 -0.10857721 0.09048876 -0.044804733
0000d0 96 46 90 bd 92 dc 4a bd ea 48 3f 3c 1e c6 8f 3d
       -0.07044713 -0.04952676 0.011675099 0.0702021
0000e0 cc c6 fa 3d 70 4f 3a 3e 91 2f 89 3c 97 98 8e 3d
       0.12244949 0.18194366 0.016746314 0.06962698
0000f0 de 74 c8 bd 1c 39 d7 bd 73 97 30 3d cf 6d 9a 3d
       -0.09787916 -0.105089396 0.043113183 0.075404756
000100 75 77 4f 3c f0 d8 0a 3d 6a 5f 2b be 35 59 8c 3d
       0.012662758 0.033898294 -0.16735616 0.068529524
000110 c8 d8 00 be f2 4e 10 3e 6c 83 2e 3e 5d 3c a9 3d
       -0.12582695 0.14092615 0.17042321 0.082634665
000120 4a 11 b7 bd 7f 44 a2 3c 72 e6 20 3e 90 fc f2 bd
       -0.089388445 0.019808052 0.15712908 -0.11864579
000130 e2 14 20 3e b8 9a 7a bd 76 44 fa bd 13 05 12 3d
       0.15632966 -0.061182708 -0.12220089 0.03564937
000140 1b 5a 72 bd 80 c2 21 3e 78 32 c7 3d 4a af 11 3e
       -0.059167963 0.15796852 0.09726423 0.14227024
000150 06 c5 1c 3d b4 b0 e1 3d a0 33 07 3d c7 9f 48 bd
       0.038273834 0.110200316 0.033008218 -0.0489805
000160 41 c8 30 3e 4d 90 e7 3c d5 02 83 3d 58 6e d9 bd
       0.17263891 0.02826705 0.063970245 -0.106167495
000170 b0 7a 81 3d 8e 74 05 3d 54 48 e3 3c cd 5e 46 bd
       0.06322229 0.03258186 0.02774445 -0.048430253
000180 0e 9b 09 be 5b e2 02 be 26 f1 18 3e 3e 5e 89 bd
       -0.13438055 -0.1278166 0.14935741 -0.067074284
000190 86 e5 b8 3d 46 b3 c4 3c ec e0 39 be 67 da 19 be
       0.09028153 0.024011265 -0.18152207 -0.1502472
0001a0 29 ab 62 bb 1b 8b 42 3e cf e2 9d 3c f5 2f a7 3a
       -0.0034586883 0.18998377 0.01927319 0.0012755381
0001b0 d8 cf a2 3d 2f 5a 4a be 90 da 1c be 50 e3 46 bd
       0.07949799 -0.19760965 -0.1531775 -0.048556626
0001c0 6f ca cb 3d 91 93 eb 3c d4 2f e0 3d 1e 45 6b 3d
       0.099507205 0.028756889 0.109466225 0.057438962
0001d0 12 44 4b 3d 77 ad 61 3d 54 3d e1 bd a8 cd 36 bb
       0.049625464 0.05509707 -0.109980255 -0.0027893577
0001e0 04 83 a0 3d 24 01 0b bd 64 cf 7a 3d 0c 19 67 bc
       0.07837489 -0.033936635 0.06123294 -0.014105093
0001f0 8d 34 c4 3c fe a7 88 3c c7 d9 bb bd 0e 2a 8d bc
       0.02395084 0.016681667 -0.09172397 -0.017231967
000200 d7 e5 6c ba 81 08 49 bd 31 e5 30 be 7c b1 e8 3d
       -0.00090369344 -0.049080376 -0.1727493 0.113619775
000210 9b d2 da bd 82 e8 c2 3d 5f 0f c6 bd 4f b4 5f 3d
       -0.10684701 0.095170036 -0.096709006 0.054615315
000220 31 82 b4 bd e0 b3 54 3e df 73 48 be e4 85 f1 bd
       -0.088138945 0.20771742 -0.19575451 -0.11793116
000230 1b 18 41 bd 26 22 d1 bc b8 9f 11 be 48 a6 1a be
       -0.04714213 -0.025528979 -0.14221084 -0.15102494
000240 06 13 09 3e 07 c7 63 be 97 b5 da bd a5 4d ff 3d
       0.13386163 -0.22243892 -0.10679167 0.124659814
000250 0e d1 c3 3d ec 88 13 be f9 56 80 ba 29 a3 ee bc
       0.095613584 -0.144077 -0.0009791545 -0.029130535
000260 69 39 3f 3d 35 2a 9c bc a1 4b ab bd 4f 37 2f 3e
       0.04668561 -0.019063095 -0.083640344 0.17110942
000270 2c f6 46 bc 03 25 a2 bd af a9 45 be f8 69 b1 bd
       -0.012143653 -0.07917216 -0.1930301 -0.0866279
000280 4e 71 0c be fc cc c1 3d eb a1 48 be 93 b1 2d be
       -0.13715097 0.09462926 -0.19593017 -0.1696227
000290 d6 e0 7b be 92 d8 03 be fb c6 0e be 29 4f 0b be
       -0.24597487 -0.12875584 -0.13943093 -0.13604416
0002a0 b8 5f 10 bc de a8 7b 3d 86 76 86 bd 23 43 19 be
       -0.008811884 0.06144034 -0.06565575 -0.14967017
0002b0 91 b4 2d bd 1d e8 91 bd 2d 34 3f be 1f 4f 0c bd
       -0.04240853 -0.0712435 -0.18672247 -0.034255143
0002c0 95 11 30 bc 04 94 e4 3d f4 40 ae 3c ad fb 6d bc
       -0.010746379 0.11161044 0.021271206 -0.014525336
0002d0 cd 83 0b bd e7 79 08 bd 2e 05 e2 bc e0 1d 4c bc
       -0.034061242 -0.03331938 -0.02759036 -0.012458295
0002e0 1d d9 af bd 1b af c0 bd 07 ee 50 3e 30 27 99 bd
       -0.08586333 -0.09408399 0.204033 -0.074781775
0002f0 41 1e d9 3c fc 93 d9 bd 27 be b7 3d e4 d7 17 ba
       0.026503684 -0.10623929 0.089718156 -0.0005792363
000300 1c d6 a7 bc c7 d2 16 bd 73 3e da bd a0 ce 94 bc
       -0.020487837 -0.036822107 -0.106564425 -0.018164933
000310 2d 8d a7 bd 18 e9 0d bd 44 c6 0b 3e b6 e9 f5 bc
       -0.08181224 -0.034646124 0.13649851 -0.030018669
000320 34 c0 16 3e 36 d1 82 3e 3a d0 2e be fa 9d 34 be
       0.14721757 0.2555024 -0.1707162 -0.17638388
000330 84 93 aa bd 31 9d cf 3d 20 71 34 be fc 27 f8 3d
       -0.083289176 0.10137404 -0.17621279 0.121170014
000340 81 90 f7 3c d7 11 15 be a6 01 e4 bd d4 ad 37 3d
       0.030220272 -0.14557587 -0.11133127 0.04484351
000350 5b 5a 4e bd e6 34 89 3e 1a e8 ed bd 8c 58 25 3e
       -0.05037914 0.2679817 -0.116165355 0.16147059
000360 8e c1 71 be 1d 90 cf 3c 67 5d c4 3d da 89 8b 3c
       -0.23608992 0.025337273 0.095881276 0.017033506
000370 88 a9 8e 3d 77 f1 11 3d e7 c2 6d 3c c3 c9 57 3d
       0.06965929 0.03563067 0.0145118 0.05268265
000380 97 c3 f2 bd 7b 54 0c 3e f7 e3 19 3c 27 17 3b 3d
       -0.11853712 0.13704102 0.00939273 0.045676377
000390 43 cd 41 3e 41 74 14 3e d2 84 31 be a3 09 3a 3a
       0.18925957 0.14497472 -0.17335823 0.0007096773
0003a0 ba f8 38 bd 98 c2 4d bd 33 ca e9 bd c8 cf 2e be
       -0.04515908 -0.050234407 -0.114155196 -0.1707145
0003b0 03 c8 a4 bd 31 21 45 3e 37 70 0e 3e 1e d0 30 be
       -0.08045962 0.19250943 0.13909994 -0.1726689
0003c0 18 56 96 bc 13 87 de 3c 75 68 a8 bd 72 97 08 3d
       -0.0183516 0.027164018 -0.082230486 0.033347555
0003d0 24 db 48 3d 20 44 8b bc 0e 9a 1c be e4 60 b5 bd
       0.049037114 -0.017000258 -0.15293142 -0.08856371
0003e0 ab 60 61 3d 27 27 2a be 5a a5 01 bc 6c 86 e1 3d
       0.05502383 -0.16616498 -0.007912958 0.11011967
0003f0 2e 89 13 3e 28 62 e9 bd 0b a2 21 3d 12 a3 e8 bd
       0.14407799 -0.11395675 0.039461177 -0.11359228

embedder.res_block.1.bias f4 [32]
000000 e4 ed e8 3d 22 e5 08 3d 21 58 a9 bd 23 a4 dd bd
       0.11373499 0.033421643 -0.082687624 -0.10822322
000010 5e df f0 3d 7e 03 fa bd c2 ab 17 3e 86 13 66 bb
       0.11761354 -0.12207697 0.14811614 -0.0035106852
000020 48 9d 9c bc 61 17 e8 bd f6 13 b0 3d 40 f9 17 3d
       -0.019117966 -0.11332584 0.08597557 0.037102938
000030 b2 88 08 3e df 55 b9 3d c3 53 88 bc 20 0f 1b bd
       0.13333395 0.09049582 -0.016641503 -0.03785622
000040 e2 93 64 3d dd 18 aa 3d 64 8d d8 3d a0 c2 1f 3d
       0.055805095 0.083055235 0.10573843 0.03900397
000050 ef 52 71 3b 01 ac 21 be bb 97 d8 bd 33 a1 ec 3d
       0.0036823114 -0.1578827 -0.10575815 0.11554184
000060 09 db a4 bd 3f 69 8c bd 30 9d 80 bd d3 85 6c 3d
       -0.0804959 -0.068560116 -0.06279981 0.057744812
000070 46 79 12 3e 42 c7 2f bd 1d 68 99 bc 9f 53 1d be
       0.14304075 -0.042914636 -0.018726403 -0.1536393

embedder.res_block.3.weight f4 [32, 32]
000000 f7 70 42 3e 5a 5a 94 bd 15 e2 07 bd cc 49 04 bd
       0.18988405 -0.07243796 -0.033174593 -0.03229694
000010 ca ae f3 3d c5 97 bc bd 2e bc a9 bd 6c c3 06 ba
       0.11898573 -0.09208635 -0.082878456 -0.00051408145
000020 17 5d 35 3d 4a 68 d0 3b ba 8d 15 bd 8f fa 10 be
       0.04427823 0.0063600885 -0.036512114 -0.1415808
000030 ee 9d 67 3d 1f 72 05 3e 37 b1 b5 bc 84 59 01 be
       0.056547098 0.13031815 -0.02217923 -0.12631804
000040 87 a8 a2 3d 23 bc f8 bd 3a 8b 2f 3e dc 8c 0e be
       0.079423 -0.12145259 0.17142954 -0.13920921
000050 57 8e 54 3d 0a 22 4e be 81 5f e3 3c 06 a2 0b be
       0.05189356 -0.20130172 0.0277555 -0.13636026
000060 3b 91 cc 3d 6e a7 c2 bc 09 17 30 3e 47 59 6d bd
       0.09988638 -0.023761477 0.17196287 -0.05794647
000070 7e 7f 31 3e d4 f2 8c 3b 4b 14 35 be 5e b7 2f bd
       0.1733379 0.0043014083 -0.17683522 -0.042899482
000080 b7 a7 97 3d 4f 1f 3e 3c 5c ac 9d bc 8f cf 6a bd
       0.07405036 0.011604144 -0.019247226 -0.05732685
000090 4e 5c 7a 3e 2b 74 f0 bb 67 5e aa bc cc 18 05 be
       0.24449274 -0.007338067 -0.020796968 -0.1299774
0000a0 f9 a2 3c 3e ff 6f 1f bd 09 f8 12 3e a9 cb 60 3e
       0.18421544 -0.038925167 0.1435243 0.2195269
0000b0 ae 21 09 3e 16 4c b1 3d 42 7d 21 3e 50 e8 75 bc
       0.13391754 0.0865709 0.15770438 -0.015009001
0000c0 3e bf 1b be 40 ab 3c bc ac 8c d2 3d 60 4b 92 bd
       -0.15209672 -0.011515439 0.10280737 -0.07143283
0000d0 81 92 dd 3c 3b e5 a3 bc 6e f5 d2 bc a3 c8 f5 bd
       0.027047398 -0.020006767 -0.025751796 -0.12001159
0000e0 68 5c 18 3e 18 cb 4b 3e 1a c4 d7 bd e5 d5 3e 3d
       0.14879 0.19901693 -0.1053545 0.046590704
0000f0 b1 6f 2f bc 7b e5 f1 3d 44 38 69 3e 88 12 10 3e
       -0.010707782 0.11811348 0.2277537 0.14069569
000100 b2 d3 c9 3d fb 26 b1 bd c1 df 2b 3e 5b b4 63 3e
       0.09854831 -0.08650013 0.16784574 0.22236769
000110 a0 59 ab bb ae aa 23 3d e2 e7 df 3d 46 7e 1d bd
       -0.00522919 0.039957695 0.109329 -0.0384505
000120 8c 17 68 be 82 ff 96 3e 50 66 0e 3e dc 05 95 bd
       -0.22665232 0.29491812 0.13906217 -0.07276508
000130 0b 5d b8 bd be 91 81 bd d9 5b 2e 3e c2 b7 f0 bd
       -0.090021215 -0.06326626 0.17027225 -0.11753799
000140 13 f8 b3 3d 45 6d 68 3e 1f ca 7a 3d ff cc fe bd
       0.08787551 0.22697933 0.061227914 -0.12441444
000150 64 bd 44 bd e0 c8 79 be 91 83 b8 3b 14 d0 22 be
       -0.04803218 -0.24393034 0.0056309183 -0.15899688
000160 76 fd 2a 3e ae 21 2a 3e 6f e1 77 bd 77 0b 90 bb
       0.1669825 0.1661441 -0.060517725 -0.004395898
000170 0a e4 dd bc 2b ad 16 3e 08 d1 9d 3e b0 59 63 bd
       -0.027086277 0.14714496 0.3082354 -0.055505455
000180 ec 7d ee 3d a8 c4 7c bd cc 51 d4 3c 4c 42 b5 bc
       0.116451114 -0.061710984 0.02591791 -0.02212634
000190 46 78 a3 3d 32 d8 17 bd a3 46 07 be e4 90 b5 3d
       0.07981925 -0.037071414 -0.1321054 0.08865526
0001a0 33 60 6c 3d 0c 85 3a 3d 3a d6 49 3e ae db fe 3d
       0.05770893 0.04553704 0.19710627 0.12444244
0001b0 37 d4 f2 bc e8 ce 6e 3d e4 f9 fa 3d 5d 67 ff bd
       -0.029642208 0.05830279 0.12254694 -0.12470887
0001c0 e0 6d 2e 3e 0b e2 2b 3e 36 9b 61 bd a5 53 0c be
       0.17034101 0.16785447 -0.05507966 -0.13703783
0001d0 3e b9 0e be 96 fc 29 bd b8 de 02 3e 19 0b 56 bd
       -0.13937852 -0.04150065 0.12780273 -0.052256677
0001e0 4d ea 69 bd 1a 7d 89 3d 03 83 5d be ce 9c 69 3e
       -0.057108212 0.06713314 -0.21632008 0.22813722
0001f0 ed ae f5 bc eb 68 c4 3d 3d a6 99 3e 56 ae 3e 3e
       -0.029990638 0.09590324 0.30009642 0.18621191
000200 b0 06 15 bd 13 ad 94 be f0 70 09 be 04 7f 0a be
       -0.03638333 -0.29038295 -0.13421988 -0.13525015
000210 24 06 25 be 14 df 19 be 18 be cc bb 79 77 7e be
       -0.16115624 -0.15026504 -0.006248247 -0.24850263
000220 24 97 b1 bb 3f 1b 4a be ca 37 85 3e c5 21 95 3d
       -0.0054196287 -0.19736956 0.26019126 0.07281832
000230 58 87 ee bd 3c 1f 83 be 45 7f 82 be 37 03 51 bd
       -0.116469085 -0.25609767 -0.25487724 -0.051028457
000240 79 c3 fe 3b 78 ef 5d 3a 32 48 31 be 50 f4 18 bd
       0.007774767 0.00084661646 -0.17312697 -0.03734237
000250 29 62 2a 3d a4 4c c1 bb 14 97 86 3d 36 e3 11 be
       0.04159752 -0.005899029 0.065717846 -0.1424683
000260 b3 5b 29 be 53 4f 28 be de 51 05 3e d4 d4 f4 bd
       -0.16538887 -0.1643651 0.13019511 -0.11954656
000270 e3 be 80 bd f1 12 25 ba 78 87 94 3e 8a c0 d9 bd
       -0.06286409 -0.0006297073 0.29009604 -0.10632427
000280 45 f2 0f 3e 90 16 0a 3c 52 b7 4e 3d 92 73 d8 3c
       0.14057262 0.008428231 0.050467797 0.026422296
000290 81 26 d6 3d 89 51 df 3d 80 bd 12 3e 5c 13 ad bd
       0.10456563 0.109042235 0.14330101 -0.08450958
0002a0 87 c4 02 bd 6a 16 b6 3d 19 43 93 bd 5a e7 40 be
       -0.031925704 0.08890994 -0.07190532 -0.18838254
0002b0 44 11 7d 3d 5f 10 2f be ce 9b 02 be 19 d0 fd 3d
       0.061784044 -0.17096089 -0.12754747 0.12393207
0002c0 43 d1 23 3e fc 89 6d bd c3 5e 31 be 2b 37 b0 bd
       0.15997796 -0.05799292 -0.17321305 -0.086042725
0002d0 62 c8 94 3d d3 ec 7d 3e 82 96 4f 3e ba d2 be 3c
       0.072647825 0.24797373 0.20272258 0.023293842
0002e0 01 2c 97 bd fd 99 e0 bd f0 da 76 be b3 6d 07 bd
       -0.0738144 -0.10966871 -0.24106956 -0.0330636
0002f0 2c 8b c3 3c 84 79 62 bd 25 74 d7 be 1e 71 fd bd
       0.023870073 -0.055291668 -0.420808 -0.12375091
000300 d7 97 c1 bd 43 a2 bb bd 6e cf 28 be 77 1f 91 3c
       -0.09452789 -0.09161808 -0.16485378 0.017715199
000310 a4 46 12 3c c4 8e 59 be 8c c8 75 3e 54 30 6d bd
       0.008927975 -0.21245867 0.24002284 -0.057907417
000320 76 f6 01 3e 2c dc 07 be 56 06 cb 3c 77 e6 e5 bd
       0.12691674 -0.13267583 0.024783295 -0.11225598
000330 d1 80 5e be 95 99 8e 3b ee c1 d6 3d d8 0f f4 3d
       -0.21728827 0.0043518045 0.10486208 0.119170845
000340 f3 ff 98 3d 31 5e fa bc df 8a 53 bd 9f 8e 96 bc
       0.074706934 -0.030562492 -0.05164611 -0.018378554
000350 5d 07 1e 3e af b1 e0 3d f1 ab d5 bd 4d 3a 39 be
       0.15432496 0.109713905 -0.10433186 -0.18088646
000360 70 c0 fa bd ce b2 57 be d6 a6 07 bd 17 3b e3 3b
       -0.12243736 -0.21064302 -0.03311809 0.0069345343
000370 12 ea 8c 3e ea 39 0d 3e 30 b9 a0 be 01 04 5e be
       0.2752233 0.13791624 -0.31391287 -0.21681215
000380 49 5d 2e 3d b9 28 01 3e e2 45 ff 3d 4a 3a 13 3e
       0.042569432 0.1261319 0.12464501 0.14377704
000390 fd a0 9d bb 5f a6 7c 3d 4b e4 2d be 4c a6 6a 3d
       -0.004810451 0.0616821 -0.16981618 0.0572875
0003a0 04 e1 ce bd e4 51 06 be ec 00 36 bd 5b 01 dd bd
       -0.10101512 -0.13117176 -0.044434473 -0.10791274
0003b0 64 b0 18 bd 09 5b 2b be 0a 36 3b 3d a1 5a 98 bd
       -0.037277594 -0.16733946 0.045705833 -0.07439161
0003c0 a9 27 56 be e3 16 24 bd a6 2c ea bd 14 fd 68 bd
       -0.20913567 -0.04006089 -0.11434297 -0.05688198
0003d0 de e3 fa bc cc ff 8c 3c 58 6e 6e be 29 06 98 be
       -0.030626234 0.017211817 -0.2328428 -0.296922
0003e0 ae 3f 58 3e f5 8c fd bd 21 53 a8 bd a2 e1 71 bd
       0.21118042 -0.12380401 -0.082189806 -0.05905307
0003f0 0d 37 2b bd 82 f3 4e be 41 41 be 3e 82 20 23 be
       -0.041800547 -0.20210078 0.3715916 -0.1593037

embedder.res_block.3.bias f4 [32]
000000 df 8d 35 bd 62 9c 41 3e 43 1e bc 3d b0 38 0b bc
       -0.044324752 0.18907312 0.091854595 -0.008497402
000010 cc 3d 85 bd a2 f8 2e 3d 1a 15 53 3d e0 16 2b be
       -0.065059274 0.042717583 0.051533796 -0.16707945
000020 05 7a 23 3d 17 3d 11 be 44 da b6 bd 15 ef ea 3c
       0.03991129 -0.1418346 -0.089283496 0.028678456
000030 0e e4 c3 3c a8 e8 06 3e ca b6 0c 3e a9 35 13 be
       0.023912456 0.13174689 0.13741603 -0.14375938
000040 48 81 8f 3c 75 cd 87 bd 5a ea eb bd d3 a8 ce 3d
       0.0175177 -0.06630985 -0.115193084 0.100907944
000050 2e 2d f6 3d 94 f6 02 be 79 94 9d 3d ae af 10 3e
       0.12020336 -0.12789375 0.076943345 0.14129516
000060 e1 ef fb 3d bc 68 00 be 58 ff 6b bd 45 75 17 be
       0.12301613 -0.12539953 -0.05761656 -0.14790829
000070 46 da f5 bd 80 c8 27 be 3f 64 e7 bd d8 93 dd 3d
       -0.12004523 -0.16385078 -0.11298417 0.108192146

cnn_blocks.0.proj_in.weight f4 [16, 32]
000000 f8 cb ca 3d e5 5c c4 bd d2 4b 14 be ed f9 8b bd
       0.09902185 -0.09588031 -0.14482048 -0.06834779
000010 c7 5a 75 bc c3 59 c1 3d e5 48 a5 bd 06 ff 59 be
       -0.014975256 0.09440949 -0.08070544 -0.2128869
000020 25 c8 33 3e a7 36 cc bd e6 14 43 bd a4 4e ec 3d
       0.17556818 -0.099713616 -0.047627352 0.11538437
000030 36 8a af bd 90 3b 5e b9 79 0a 4a 3c 6d 8b 15 be
       -0.085712835 -0.00021193759 0.012331598 -0.14603968
000040 75 ee 0b be a3 9e ab bd 94 ce 63 3e ed ad 86 3d
       -0.13665183 -0.08379867 0.22246772 0.065761425
000050 8a 6a 71 3e c6 a5 86 bd 30 b5 7a be 3a a0 3d 3d
       0.23575798 -0.065745875 -0.2448318 0.046295382
000060 9e c3 c0 3c 1c 7b 9d bd 74 5e 88 3d e7 2c 15 3e
       0.023530778 -0.07689497 0.066586405 0.1456791
000070 cf 0e 03 3e 96 6b c5 bd cf a8 3a be 72 d6 bd 3d
       0.12798618 -0.09639661 -0.18228458 0.09269418
000080 f2 c5 99 bd cc a4 38 3d 81 60 77 3c 71 20 12 3e
       -0.07508458 0.045079038 0.015098692 0.14270188
000090 66 13 96 3d aa 5d bd 3d 6f 2e f6 bc 95 5e 90 bd
       0.07327919 0.092463806 -0.030051438 -0.0704929
0000a0 6a e5 07 3e 82 5a 0d 3d 6e d8 2c 3c 5f 8f c9 bd
       0.13271108 0.034510143 0.010549648 -0.09841799
0000b0 2d bc d0 3d 80 7f 35 bc d8 a5 0e be 26 04 7b 3d
       0.10192142 -0.011077762 -0.13930452 0.061283253
0000c0 07 40 b0 3c 0b 55 0f 3e 7d 85 04 be 86 df 50 bd
       0.021514906 0.13997285 -0.12941547 -0.05099442
0000d0 2a 0f 09 3e 96 4e 4b bd b9 62 38 bb 10 1d 8c bd
       0.13384691 -0.049635492 -0.0028135015 -0.06841481
0000e0 d6 6a 67 be 43 ed fb bb b7 6d 21 3d 85 c0 2a 3e
       -0.22599348 -0.007688196 0.039411273 0.16675003
0000f0 ca d2 a5 3d 4e 32 b6 bd f6 45 b3 3d de c2 e1 3c
       0.080968454 -0.088963136 0.08753578 0.02755874
000100 08 3f 00 be 24 c0 2f be 7d f8 96 bc c6 fd dd 3c
       -0.12524045 -0.1716314 -0.018429035 0.027098548
000110 79 a9 2f bd 5f 33 11 bd a9 fe 02 3d 14 57 54 bd
       -0.04288623 -0.035449382 0.031981144 -0.051840857
000120 ac 34 91 bd 24 fd 63 3c 03 b8 1e 3e a6 19 ab bc
       -0.070901245 0.013915334 0.15499882 -0.020886254
000130 3a 4d 49 3e 5c b2 5e 3e b9 64 1c be 85 9c 21 3d
       0.19658366 0.21747726 -0.15272798 0.03945591
000140 95 e2 e0 bd a9 d7 a7 3c 8f de 05 3e 81 51 62 bd
       -0.10980717 0.020488577 0.1307318 -0.05525351
000150 70 0d c2 3d 6f f2 c5 3d 4f 88 8f 3d a2 cf 3a be
       0.09475219 0.09665381 0.07008421 -0.18243268
000160 87 30 16 3e 9e bf 13 3e 3d c4 65 bc ae c5 88 3d
       0.14666949 0.14428565 -0.014023838 0.066783294
000170 5e 9d 7c bd 01 8f 50 3d 74 65 02 be 5e 5c 08 bc
       -0.061673515 0.05091763 -0.12734014 -0.008322803
000180 83 26 b7 bd 1e fd ad bc 30 6d f5 bd 12 e7 06 3d
       -0.089428924 -0.02123886 -0.119837165 0.03293521
000190 6e 6a 2c 3e 6d 5c 12 3d 0e 04 b1 3d 90 25 fb 3c
       0.16837475 0.035732675 0.086433515 0.03065756
0001a0 74 ef 16 3e 18 d5 3a be 3e 02 82 3c 56 e4 36 bd
       0.14739782 -0.18245351 0.01587021 -0.044651352
0001b0 0e 91 13 be f9 f2 54 bc 26 20 59 be 15 61 73 3d
       -0.14410803 -0.012997382 -0.2120367 0.059418757
0001c0 60 0a 5e 3e 57 30 37 bd 18 75 24 3d 6c e2 b6 3d
       0.21683645 -0.044723835 0.04015073 0.08929905
0001d0 e9 2b db 3d 7a 25 ae 3c 57 e4 f9 3d 26 af 84 bd
       0.107017346 0.021258105 0.122017555 -0.064787194
0001e0 e5 ab 0f 3e 72 c1 48 3d 54 0c cc 3c 9d cb f5 3d
       0.14030416 0.04901261 0.024908222 0.12001727
0001f0 39 0a b1 3d 22 48 4e be 16 26 92 3d 7d 62 10 bc
       0.08644528 -0.20144704 0.071361706 -0.008812544
000200 4c 1e 7a 3d d2 4b 67 3d 1b 34 48 bd c2 cc df bd
       0.06106405 0.056468792 -0.048877817 -0.10927726
000210 f7 b0 86 bd 7c fe 3a be 47 aa 0a 3e a7 e6 e4 bd
       -0.06576722 -0.1826114 0.13541518 -0.11176806
000220 a5 97 2d bd 90 67 d7 bd 2a c7 a9 3d b4 4e 47 3d
       -0.042380948 -0.105178 0.08289941 0.04865904
000230 b6 29 8d bd 81 06 ba bc 91 36 09 3c a5 85 55 be
       -0.06892721 -0.02270818 0.008374826 -0.20851763
000240 1c 3e 6a be 0f 45 7c bc ed 5e 07 bd ab e9 3b 3e
       -0.22875255 -0.015397324 -0.033049513 0.18350856
000250 31 e4 00 bd 8a 27 ff 3d f7 ae ae bd 9b 87 87 3b
       -0.03146762 0.12458713 -0.08529466 0.0041360385
000260 2c cf 6d bd 78 03 db 3d da 23 d1 3d 49 75 75 bc
       -0.058058903 0.10694021 0.10211916 -0.014981576
000270 97 1c 57 3d af 96 d7 bd ed 23 26 3c 5e 25 e6 bd
       0.0525175 -0.105267875 0.010140401 -0.11237596
000280 42 66 cd bc ee 85 f6 bb ee d1 33 3e a9 dd 30 be
       -0.025073174 -0.00752329 0.1756055 -0.17272057
000290 63 00 15 be f1 4f f4 3d 19 85 af bd 5e 0c 36 3d
       -0.14550929 0.1192931 -0.08570308 0.044445388
0002a0 12 c1 14 be ed 93 eb bd 8a 66 49 bd 95 ee 49 3d
       -0.14526775 -0.11502824 -0.049170054 0.049299795
0002b0 14 ec 62 bd fd 9c 9d bc ed 03 50 3e 72 77 43 bd
       -0.055400923 -0.019239897 0.20313998 -0.047721334
0002c0 48 a0 08 be c1 32 64 3e 56 37 d8 3c 1c 6c 5b bd
       -0.13342392 0.22284986 0.026393574 -0.053569898
0002d0 a1 f5 34 be 32 d7 ea bc f6 51 0e be 29 ec 2d 3e
       -0.17671825 -0.028667066 -0.13898453 0.16984619
0002e0 73 e1 d6 3a 35 92 f0 3d 76 80 02 bd 25 5a 0c bc
       0.0016394093 0.11746637 -0.03186079 -0.008566414
0002f0 31 0d 56 bd ff d0 a6 bc ee 84 8d bc c1 99 13 3e
       -0.052258674 -0.020363329 -0.0172753 0.14414121
000300 de 2c 16 3e 98 92 b7 3d 35 d1 fe ba 48 20 ce 3d
       0.14665553 0.089635074 -0.0019441011 0.10064751
000310 be 0a 16 be ad c1 0d be 8f 03 f2 3d 04 a1 d5 bd
       -0.14652535 -0.13843413 0.11817085 -0.10431102
000320 d5 7a f0 bd 63 7e 34 3e 5b 66 c6 bd 5e 20 bd bd
       -0.11742178 0.17626338 -0.096874915 -0.09234689
000330 86 0a 2c 3e 5c fe 30 3e 1d c0 d1 bd 49 50 f8 3d
       0.1680089 0.1728453 -0.10241721 0.12124688
000340 e1 c9 f1 bc dd 28 b8 bd 7c 83 07 be 64 d4 0b 3d
       -0.029515209 -0.08992169 -0.13233751 0.0341381
000350 6d 7b a2 3d 77 b9 0d be 00 ef 1c 3d 42 3c 15 be
       0.07933698 -0.1384028 0.038313866 -0.14573768
000360 ba 37 41 bc e9 9b 0d 3e 30 49 0b be b3 93 db bc
       -0.011793071 0.13829006 -0.13602138 -0.026803827
000370 50 c0 dc 3d 59 34 28 bc a5 74 d9 3d 19 19 06 be
       0.10778868 -0.010266387 0.10617951 -0.13095511
000380 0c 77 fb 3d 66 fc 56 3d 2a b3 2b 3e bf 69 64 3c
       0.12278566 0.0524868 0.16767564 0.013941227
000390 1d 31 c5 bd 95 a9 0b 3d 0d 6f 64 be 72 10 2c 3e
       -0.09628508 0.034097273 -0.22307988 0.16803148
0003a0 dc a6 4b 3d b4 35 28 3e a0 a6 05 be 1b 9a 02 3e
       0.049719676 0.16426736 -0.13051844 0.12754099
0003b0 13 2d a4 bd 6f 2e 80 be 27 d6 88 bd 38 3d ab 3c
       -0.0801641 -0.25035426 -0.06681471 0.020903215
0003c0 08 ea d8 3d 05 d3 02 bd bc cc 24 3e 38 86 3e be
       0.10591513 -0.031939525 0.16093725 -0.18605888
0003d0 0c ae a5 bd 79 87 8f 3d 5b 2c a7 bd 0b bb 54 be
       -0.080898374 0.07008261 -0.08162757 -0.20774476
0003e0 70 2a 01 bd bb e5 06 bd 7c d9 d9 3d 9d 1f 53 3e
       -0.031534612 -0.03293393 0.10637185 0.20617528
0003f0 6b fe 06 be 2b ea 84 3d 56 df 18 bd 97 ae 07 3e
       -0.1318299 0.064899765 -0.037322365 0.13250194

cnn_blocks.0.proj_in.bias f4 [16]
000000 73 3c 0c bc 4a 20 f6 3d 08 3e 33 3e 40 ad ee bd
       -0.008559334 0.120178774 0.17504132 -0.116541386
000010 98 27 d2 3c 17 27 19 be 29 3f ee bd 51 64 15 be
       0.025653645 -0.14956318 -0.116331406 -0.14589049
000020 cc 09 b8 bc 82 fa ca bd 47 91 b7 bd b5 1c 41 3d
       -0.022465609 -0.09911062 -0.08963256 0.047146518
000030 9d 0b 3f 3c 3d df a5 3d 1f 93 46 bc 41 61 00 3e
       0.011660484 0.0809922 -0.012120037 0.125371

cnn_blocks.0.convs.0.weight f4 [16, 16, 3, 3]
000000 eb ea eb 3c 4c 5a dc bc a8 ba 3f 3d cc 06 23 be
       0.028798541 -0.026898526 0.04680887 -0.15920562
000010 c6 ab 0d bd 18 3f 56 bd 9b b8 c8 bd 30 54 6f bd
       -0.034587644 -0.052306265 -0.09800836 -0.058429897
000020 d0 67 00 3e fe 94 0f be 19 47 f7 bd 8f ed 10 3d
       0.12539601 -0.1402168 -0.12074108 0.035382804
000030 8e b9 e6 bd c0 31 54 bb 65 72 c0 bc ee 17 5d bd
       -0.112658605 -0.0032378286 -0.023492048 -0.0539779
000040 e4 bb 60 bd 12 81 8d bc c2 8a 21 bd 85 b2 b7 3d
       -0.054866686 -0.01727346 -0.03943897 0.08969597
000050 3c 6a 59 bd 6a 84 cb bc 2a bd f7 3c 23 d4 5c 3d
       -0.05307983 -0.024843413 0.030241568 0.053913247
000060 80 45 6c 3d ee 5b 8d bd 1a 65 be bc 05 93 5f 3c
       0.057683468 -0.069023 -0.023241568 0.013645892
000070 14 98 a6 bd ea f7 86 bc 5f 10 06 be 9a 31 49 bd
       -0.08134475 -0.016475637 -0.13092183 -0.04911957
000080 e7 79 d6 bd 3d 49 aa bd ce 12 0d 3d d0 e7 f6 3d
       -0.1047247 -0.0831475 0.03444176 0.120559335
000090 47 b3 93 3d 01 c2 04 bc 3d 2f a4 3d 7f 45 b2 3d
       0.07211929 -0.008102895 0.080168225 0.087046616
0000a0 db 65 24 3e 24 bd bd 3d 45 14 82 3d f8 d3 f4 3c
       0.1605448 0.09264591 0.06351522 0.02988623
0000b0 70 5c cc 3b d1 ae 83 3d 29 97 3c 3c 93 f6 ca 3c
       0.0062366053 0.06429828 0.011510649 0.024775779
0000c0 a9 94 af bc 34 ec 81 3d 19 08 0e bd 42 71 c2 3a
       -0.021433191 0.0634388 -0.03467569 0.0014834779
0000d0 13 5d 2f bd bc ea e4 bc 3f 40 38 3d 5c 97 d3 bd
       -0.042813372 -0.027943961 0.044983145 -0.10331604
0000e0 dc 2f ed bd 01 f6 39 3d fa 73 34 bd ca 74 b4 3d
       -0.11581394 0.045400623 -0.044055916 0.08811338
0000f0 59 b4 f9 3c d8 a0 c0 3d b5 1d 91 3d 53 d7 a3 3d
       0.030481504 0.094056785 0.07085744 0.08000054
000100 90 0f 85 3e 46 67 89 ba b5 60 1c 3e b8 a1 1a 3e
       0.25988436 -0.0010483048 0.15271266 0.15100753
000110 fb c2 6c bd 5e 2b ee bd 7d f4 13 3d 03 d6 fa 3b
       -0.057803135 -0.116293654 0.036121834 0.0076549067
000120 9c 7e 0a 3d ea 8c 0b 3d 2d d7 9b 3d 1e 23 d9 bc
       0.03381215 0.034069933 0.07609401 -0.026506003
000130 ac 7f 00 bc aa 28 a6 3d 14 d9 ea 3c a9 62 7e 3c
       -0.007842939 0.08113225 0.028667964 0.015526452
000140 6e c1 b0 3d 90 53 8d bc 68 fe ac 3d b2 22 5e 3c
       0.08630644 -0.01725176 0.08446962 0.013558077
000150 c9 89 b9 bc 37 04 30 3c 99 3c ad 3c fa 6c 91 3d
       -0.022648709 0.010743192 0.02114706 0.07100864
000160 7a 2e a9 bd 00 ed ab 3d 08 9d 7d bc 67 02 a3 3d
       -0.08260818 0.083948135 -0.015479334 0.079594426
000170 69 c3 37 bd 77 69 8c bd c5 4e d4 bd 66 98 c2 3d
       -0.044864092 -0.06856053 -0.103665866 0.09501724
000180 d1 33 a9 3d 3f c8 68 bd 63 0b 02 be 2e 44 9c 3d
       0.08261836 -0.056831595 -0.12699656 0.07630192
000190 56 88 84 bd 42 53 87 bc 29 9c 04 bd c2 ad af 3b
       -0.064713165 -0.016519193 -0.03237549 0.0053612897
0001a0 bf 73 d5 bd 82 55 b1 3b c3 31 08 bd 28 2c de 3d
       -0.104224674 0.0054118047 -0.03325058 0.10848266
0001b0 ad ee b6 bd 0b 7e d3 3b db d7 62 bc b2 44 98 3d
       -0.089322425 0.0064542345 -0.013845409 0.074349776
0001c0 70 be 9e bc a8 fc c0 3d ba 94 91 bd ec 88 3f 3d
       -0.019377917 0.0942319 -0.071084455 0.04676144
0001d0 59 35 cc bc 07 d1 e6 3d a2 07 bc 3d 34 05 cd 3d
       -0.024927782 0.112703376 0.09181143 0.10010758
0001e0 02 77 1f bd be 9a c3 3d a3 3d 90 bd bd 2c 9a bd
       -0.038931854 0.09550999 -0.07043006 -0.075280644
0001f0 4d 7c ac bd b7 c0 0b 3e 93 05 03 bc fe 86 83 bc
       -0.08422146 0.13647734 -0.0079969345 -0.01605558
000200 73 78 35 3d d6 bc 0d bd 58 2f 4e bd 9c b8 19 be
       0.044304322 -0.034603916 -0.05033812 -0.15011829
000210 c8 70 48 3d 18 37 a6 bd 4c c0 7b 3c fe 04 7a 3d
       0.04893568 -0.08115977 0.015365671 0.061039917
000220 af aa 81 3d b5 60 86 bd 16 05 2a bd af f3 58 3d
       0.063313834 -0.06561414 -0.041508757 0.05296677
000230 03 0b 5a 3d 5f 0c b6 3d 93 93 00 3d 28 33 84 3d
       0.053233158 0.08889078 0.031390738 0.0645507
000240 3a 81 58 3c 7b 31 4d bb 06 bc 06 3b a2 21 82 3d
       0.013214404 -0.003131001 0.0020558848 0.06354071
000250 d2 85 02 3e 3b 0d 00 3e 51 e2 97 3c 8d 10 ed 3d
       0.12746361 0.12505047 0.018540533 0.115754224
000260 b1 97 be 3d cc 96 b0 bc 33 00 e3 bc 5d 85 a1 bd
       0.093062766 -0.02155628 -0.027710056 -0.07886765
000270 5d ef f7 bd 0d c0 2d bd c1 63 26 be 18 86 44 3d
       -0.12106202 -0.042419482 -0.1624899 0.047979444
000280 86 3b 14 3d 63 1a cf bc 85 a1 5a bd 69 69 a7 3c
       0.03618958 -0.025281137 -0.053376693 0.020436006
000290 e0 63 ef 37 54 0e ce 3d 3e 62 ca 3d 7c 23 88 bc
       2.8537528e-05 0.100613266 0.098820195 -0.016618483
0002a0 3d 50 94 bd 4e ab 7c 3c f9 74 8d bd 53 d2 95 bd
       -0.07241867 0.015421702 -0.069070764 -0.07315507
0002b0 c8 4b bc bc 91 7d 22 bd f0 c9 7d bd e9 61 ce bd
       -0.022985354 -0.03967053 -0.06196016 -0.10077269
0002c0 35 fe 62 3b 39 59 86 bd 8b 46 81 bc 86 25 d7 bd
       0.0034636382 -0.065599866 -0.015780708 -0.10505204
0002d0 06 cc eb bd ef d6 c3 bd 6c ff fb 3c 5c 76 b6 3c
       -0.11513524 -0.0956248 0.030761443 0.022273235
0002e0 1e a7 f7 3d 00 a1 25 3d 56 3a d8 3d 20 5a ae 3c
       0.12092422 0.040436745 0.10558002 0.02128321
0002f0 42 a9 8a bd 59 28 ac bd 8d 65 f7 3b 64 ee 4e 3d
       -0.067705646 -0.08406133 0.0075499476 0.050520316
000300 aa d6 4b bd 9c d3 49 3d e3 79 0e 3b 59 cb 70 3d
       -0.049765266 0.049274072 0.002174013 0.058787677
000310 e1 0d 2a 3d cd 65 ac 3c 4f 70 39 3d 5d 99 b5 3d
       0.041517142 0.021044636 0.04527312 0.08867142
000320 32 22 7b bc ff 20 a3 3c ef 93 c4 3c 0b c3 dc 3b
       -0.015327977 0.019913195 0.023996321 0.006737118
000330 01 a7 aa bd 49 80 32 bc 3d c9 9b 3c af 94 a0 3d
       -0.08332635 -0.010894843 0.019016856 0.07840859
000340 6b 06 46 3d 32 08 a4 3c db 02 a9 bb 6c 70 81 3c
       0.048345964 0.02002344 -0.005157811 0.015800677
000350 23 85 9d bd 5e df 15 3e da 55 13 bd 16 57 57 3d
       -0.076914094 0.14635989 -0.035970546 0.052573286
000360 3a 14 ca 3b fc 00 64 3d 36 7e eb 3c 44 56 3a bd
       0.006166962 0.055665 0.028746706 -0.045492426
000370 be cb 7f 3d 7f 3d 6d 3d 4a dc 70 bd 5f 44 1e bd
       0.062450163 0.057919975 -0.058803834 -0.038639423
000380 f8 da 8a bd 5d 29 e4 3d 44 3c 31 3d 8e 89 4b 3e
       -0.06780046 0.11140702 0.043270364 0.19876692
000390 1f b3 15 3e 43 61 cc 3c 34 72 a0 3d 49 8f 7f 3c
       0.1461911 0.024948722 0.078342825 0.015598127
0003a0 a5 49 81 bd a0 1b 44 bc 1a 2d c2 3d c7 db 38 3e
       -0.06312875 -0.011969477 0.09481259 0.18052588
0003b0 7d 45 77 bc 26 42 cc bc 15 99 04 3e 06 41 11 3d
       -0.015092251 -0.024933886 0.12949021 0.0354624
0003c0 45 e2 c5 bd ed 30 26 bb 06 5a ca 3d 2b 54 4a bd
       -0.09662298 -0.0025358752 0.09880452 -0.049396675
0003d0 b4 8f a2 3c 99 a1 1e 3c 7f 8f 4b bd 84 6e fb 3c
       0.019843914 0.009682083 -0.049697395 0.030692346
0003e0 06 e4 6c 3d 0c 19 ce bd 82 91 94 39 8d e8 9c bd
       0.057834648 -0.10063371 0.00028337172 -0.07661543
0003f0 95 ee d9 3d 85 15 a2 3d 1f 91 9c 3d f3 e6 e3 3d
       0.10641209 0.07914261 0.07644867 0.111280344

cnn_blocks.0.convs.0.bias f4 [16]
000000 f4 da bc bd 68 8e 9a 3d b2 b4 1b bd f1 fe fe 3b
       -0.092214495 0.07546693 -0.03801412 0.007781856
000010 0d 25 77 bb 28 5a c0 39 1a 43 1d bd b0 ac 59 bc
       -0.0037711293 0.00036688265 -0.03839407 -0.013285801
000020 bc a8 d8 bd ae 72 11 3d a4 67 61 3a a2 1f 83 3c
       -0.105790585 0.035509758 0.00085985125 0.016006295
000030 ca 96 bf bd 80 9e f9 3b 95 3a 0d bd 94 ed 78 3d
       -0.093549326 0.0076177716 -0.034479696 0.060773447

cnn_blocks.0.convs.1.weight f4 [16, 16, 3, 3]
000000 aa 17 4c bc 38 be 9c 3d a3 af f9 bc 56 a5 74 3d
       -0.012456814 0.07653469 -0.030479258 0.05972799
000010 2b 9e 81 bc bb 28 3c 3a 2b 44 ea bc 8b 57 49 3d
       -0.01582249 0.00071777 -0.028596958 0.049155753
000020 96 b7 e4 3d 2e 96 f5 3a 95 ff 03 3e 14 8c 3b 3d
       0.11167829 0.0018736774 0.12890466 0.045787886
000030 41 30 68 3d 90 a4 83 3d fe 7f 0b 3e ac 76 7d 3d
       0.056686644 0.06427872 0.13623044 0.061880752
000040 26 8f ea bd 71 50 ef 3c d2 3c ce bd 6c 4b d0 3b
       -0.11453085 0.029213162 -0.10070194 0.0063566472
000050 f4 83 3f 3d e1 86 42 be b9 05 c3 bd cf cb 8e 3d
       0.0467567 -0.18996765 -0.09522576 0.06972467
000060 cf 0d d3 bd 4b ca 91 bd ca f8 a6 3d 79 16 a8 bd
       -0.10305368 -0.071186624 0.081529215 -0.08207411
000070 e2 d5 6e bd 02 78 d0 bc dc 1d c1 bd 70 00 35 bd
       -0.058309443 -0.02544785 -0.09429523 -0.04418987
000080 97 4d 0d bc a4 bd 45 be b7 56 a3 bd 17 ee 8f 3d
       -0.008624456 -0.19310623 -0.07975524 0.07027834
000090 9a 28 ea 3c a5 34 2a 3c 3f f6 f9 ba 2b 6c 62 3d
       0.028583813 0.010388528 -0.001907058 0.05527894
0000a0 08 89 af bb 57 82 1f be b9 d5 36 be 18 c7 0f be
       -0.0053569116 -0.15577064 -0.17854966 -0.14040792
0000b0 2f 9c 8c bd 9c fa 92 3c 6e 64 e2 bd ec ac 88 3d
       -0.06865727 0.017941765 -0.11054312 0.06673607
0000c0 58 d3 2e bd 1a ea c4 bd 37 0f 3f 3c 56 55 94 3d
       -0.04268202 -0.09614964 0.011661342 0.07242839
0000d0 9c 74 c6 3c 4c 2c a6 3d 5d c5 9c bc ae 6e 0c bd
       0.024225526 0.08113918 -0.019137079 -0.03428524
0000e0 dd d7 84 3c ce dd 9d 3b 59 92 69 bc 29 83 1c 3e
       0.016216213 0.004817701 -0.014256083 0.15284409
0000f0 fc cf 07 3e 4b 15 96 bc 01 75 dc 3d bc e0 d9 3c
       0.13262933 -0.0183207 0.10764504 0.02659642
000100 14 04 98 bd dd 53 89 bd 01 be 27 3e 68 2d a9 3d
       -0.07422653 -0.06705449 0.16381074 0.08260614
000110 1b 89 6e 3d 72 9d 99 bd 27 75 c7 bd 2c e5 ce bd
       0.058236223 -0.075007334 -0.09739142 -0.10102305
000120 f6 10 6a bd 36 f9 3c bd 12 a0 29 bd 3a 34 b4 3d
       -0.05714508 -0.046136104 -0.04141242 0.08799024
000130 6b 81 37 3d 17 30 11 bd 70 ab 8c 3d 28 b8 f5 3d
       0.044801157 -0.035446253 0.068686366 0.11998016
000140 03 c7 05 bd 23 91 22 3d c0 79 3d bd a2 be d5 3c
       -0.032660495 0.039689194 -0.046258688 0.026091877
000150 97 58 63 3d 20 c4 f6 3d bf 59 cc 3d 24 35 dd 3d
       0.055504408 0.120491266 0.09978055 0.108011514
000160 55 06 a2 3d ce a6 d0 3d 74 f3 54 bd 29 4b ca 3c
       0.07911364 0.101880655 -0.051989987 0.024694042
000170 c1 b8 d4 3c 92 b8 b9 3d 82 e4 b7 3d 3c ce 3d bd
       0.025967004 0.09068407 0.08979131 -0.04633926
000180 d7 08 1b be 4e ee 1a 3d e0 99 21 bd a6 f9 c2 3d
       -0.15140091 0.03782492 -0.039453387 0.09520273
000190 1a f4 84 3c 51 47 2a 3d 53 86 5e bb 7c a0 23 3d
       0.016229678 0.04157192 -0.0033954575 0.03994797
0001a0 a4 88 5a bd 50 f3 12 3e 2f ac 95 3d b2 47 47 3d
       -0.053352967 0.14350629 0.07308232 0.04865236
0001b0 8d d8 f9 bc b4 4a d0 3d be 6a e3 bd 1c dd 28 3d
       -0.030498767 0.101704985 -0.11104344 0.04122649
0001c0 27 30 98 3d 27 1e c9 3d fa 3f a8 3d f9 ed b6 3d
       0.07431059 0.09820204 0.082153276 0.089321084
0001d0 23 5b a2 3d f8 e0 41 3d 06 4d 63 bd 6d 16 4d 3d
       0.07927539 0.047333688 -0.055493377 0.050070215
0001e0 82 98 16 3d 6e ff 76 3d 1c 3a f0 3d 63 e0 36 3d
       0.036766537 0.06030219 0.117298335 0.044647586
0001f0 87 4d 76 3d b3 1f b0 3d 1b 49 a0 3c 28 86 b1 3d
       0.06013253 0.08599796 0.01956611 0.086681664
000200 9b 1a 2e 3c f5 ae dd 3c 58 fe 99 bd a2 44 b2 3d
       0.01062646 0.027060965 -0.07519215 0.08704497
000210 f9 c3 2c 3d 35 e2 96 3d 12 ce e5 3d 01 36 00 bd
       0.04217908 0.07367364 0.112209454 -0.031301502
000220 2a 06 ae 3c 37 36 94 bd 53 c7 79 3d 3c b8 87 3d
       0.021243174 -0.07236903 0.060981106 0.06626937
000230 9e ff 9d bd 2f a5 b5 3c 4b 8e 6f 3d ef 20 c6 3d
       -0.07714771 0.022173492 0.05848531 0.0967425
000240 c9 13 8d 3d 18 f0 2f 3d 3c 5b cc bd 7d 7b ed 3d
       0.06888539 0.04295358 -0.09978339 0.11595819
000250 39 f1 b4 3c 27 c4 1a 3d 24 a8 08 3d b5 4d 89 bd
       0.02208768 0.03778472 0.033363476 -0.067042746
000260 a3 7e b9 bc fb 48 9a bd 23 fe 81 bd 78 b4 c8 3a
       -0.022643393 -0.07533451 -0.06347301 0.0015312573
000270 ae b4 21 3e af 66 a3 3c 63 98 b0 3d 10 42 03 3d
       0.1579158 0.019946424 0.086228155 0.032045424
000280 3e e7 a2 3b d3 b7 81 3d 6a 4b 90 bd 65 0b 11 bd
       0.004971414 0.0633389 -0.07045634 -0.035411257
000290 7b 1d 01 be 69 aa a6 3d 1a 01 4f 3d d0 27 e9 bd
       -0.12608902 0.08137972 0.05053816 -0.11384547
0002a0 1d a4 78 3d e1 16 48 3d 47 46 e0 3d 3b f3 a5 3d
       0.060703386 0.048849944 0.10950904 0.08103033
0002b0 08 fb c4 3c 29 7c a7 bd 1a af c2 3d 08 32 26 3e
       0.024045482 -0.081779785 0.09506054 0.16230023
0002c0 cc 59 c4 3d af 4a db 3b 15 10 fe 3d d2 5e fa 3d
       0.0958744 0.0066922526 0.12405411 0.12225117
0002d0 f7 16 1f bd ff cd 9e bd 78 94 41 bd 3b bd 1c be
       -0.03884026 -0.077541344 -0.04726073 -0.1530656
0002e0 ed 3b c4 bd 5c 19 93 3c 3d a9 53 ba fc 4d 94 3c
       -0.095817424 0.017956428 -0.00080742297 0.018103592
0002f0 c2 3a 14 bb c1 07 ee 3c 99 d1 cf b9 f4 18 b7 3d
       -0.002261803 0.029056432 -0.0003963828 0.08940306
000300 96 02 14 be b8 ca ec bc 90 66 76 bd 00 3d 02 3a
       -0.14454111 -0.028905258 -0.060156405 0.0004968196
000310 20 5b 85 3d 20 f5 5d bd cc 21 1f 3d 4e 69 2e 3d
       0.06511521 -0.054188848 0.03885059 0.042580895
000320 16 b9 62 3d 4d da 14 bd f1 55 a4 3d 61 e9 a8 3d
       0.055352293 -0.036341 0.080242045 0.082476385
000330 66 42 cc 3c c3 cd 11 bd 4e 88 92 3c 45 8e a7 3c
       0.024934005 -0.03559662 0.01788726 0.020453582
000340 8b 44 a3 bc db 9b bb 3c d9 0f 8e 3c c3 c9 39 bc
       -0.019930145 0.022901466 0.017341541 -0.011339608
000350 4b fb 4e 3c 0b b9 1c 3e 0d 08 24 bc ce 2c be 3d
       0.012633155 0.15304963 -0.010011685 0.092858896
000360 84 34 74 bd 4a f0 36 bd ff a0 ac bc 9c 3d 30 bd
       -0.059620395 -0.04466275 -0.021072863 -0.043027505
000370 a4 92 b1 bd 8a ef df bd cb 32 34 be ff 95 ce bc
       -0.086705476 -0.1093436 -0.17597501 -0.025218008
000380 ab cb f4 bd 73 c4 da bc 1b 02 16 bd 4b f1 b3 bb
       -0.11952909 -0.026705002 -0.0366231 -0.005491411
000390 ac f4 cd 3c 59 04 a5 bd 51 fe ff bd cd d4 af 3c
       0.025141083 -0.0805747 -0.12499679 0.021463776
0003a0 af c5 03 bd 37 94 98 be 14 e3 4e 3d bd db 04 bc
       -0.032170948 -0.2980058 0.050509527 -0.00810903
0003b0 60 7d 85 bd 66 82 98 3d b3 b7 c6 3c 75 7a ee 3d
       -0.06518054 0.074467465 0.024257516 0.116444506
0003c0 2c 4e 24 bd 32 13 8e bb 96 5a f1 3c 8c 67 e7 bd
       -0.040113613 -0.0043357844 0.02946214 -0.11299047
0003d0 fd 95 83 bd 41 c0 9b bc 2b 3c 60 bd 07 75 e2 3c
       -0.06425092 -0.019012572 -0.05474488 0.027643694
0003e0 0c 9a 12 3e 6c 10 4a bb 84 48 c3 bc 0f cd c3 bd
       0.14316577 -0.0030832542 -0.02383829 -0.09560596
0003f0 1b 49 67 bd 53 c2 87 bd dc 4d 89 bb f9 3a 61 bd
       -0.056466203 -0.06628861 -0.0041901898 -0.05498788
