checkpoints/stage2_kd_d3/final_model.pt (torch, 86386 bytes, 50 tensors)

embedder.feature_projections.0.weight f4 [32, 1]
00000000: 3230 a9be 426a 3d3f 8981 d4be 063e 89be
00000010: 6744 183f d367 a5bf 8b75 be3e 8ae5 883f
00000020: 0aad 82bf da90 383f 0f0f dabb 04c0 9c3d
00000030: 165e a03f af79 7ebe 3cfa 583f 0922 d6be
00000040: 12fd b9be e129 313f 4f91 c9be 42fc 9a3f
00000050: 790c 1a3f 5f2e c6be cc73 4abf cf57 883f
00000060: c49e 15bf e650 c53e 7c0a a03e 4b10 023d
00000070: fee8 99bf 5e44 293f e9b0 93bf 18a0 a43f
-0.33044583 0.7399026 -0.41505077 -0.26805133 0.59479374 -1.292231 0.37199053 1.069505
-1.0209057 0.72096026 -0.006654627 0.076538116 1.2528713 -0.24851106 0.8475683 -0.41822842
-0.3632589 0.6920453 -0.39368674 1.2108233 0.6017528 -0.38707253 -0.7908294 1.0651797
-0.5844538 0.38538283 0.31258 0.03175382 -1.2024229 0.66119945 -1.1538364 1.2861357

embedder.feature_projections.0.bias f4 [32]
00000000: 4040 a3be b6c3 5a3e f05a 30bf ff8e 3ebe
00000010: 43da 353f de58 3c3f df00 513f 4fbc ba3e
00000020: 4599 8ebe cdc6 85bd 7585 bd3e 704c 6ebf
00000030: e238 4dbf 88bc 473f 4739 79bf 39c2 1e3f
00000040: 229a 5e3f caf2 213e 59b3 f13e 4a50 c33e
00000050: 04dd 4c3f e1b1 853e e7a9 6e3f cc67 873c
00000060: e913 573f 5502 543f 198b 5abe 7f49 56bf
00000070: 082d 3e3f aab6 53bf f2a6 703e b126 b33e
-0.31884956 0.2136372 -0.6888876 -0.18609236 0.71036166 0.735731 0.81641954 0.36471793
-0.2785131 -0.06532059 0.37015882 -0.93085384 -0.8016492 0.7802205 -0.97353023 0.6201511
0.8695394 0.15815273 0.47207144 0.38147193 0.80024743 0.26112273 0.93228 0.016528986
0.84014755 0.8281606 -0.21342124 -0.83705896 0.7428746 -0.827006 0.23501185 0.34990457

embedder.feature_projections.1.weight f4 [32, 1]
00000000: 04cf 6c3f a624 003f 8d07 5bbe 34a8 c4bd
00000010: e80c 073f 8d12 08be ab50 5dbf e324 503f
00000020: ca1f fdbe 67b9 1f3e f854 07bd a2aa 7dbe
00000030: 9c74 363f 4796 d33d fabd 473f 95e0 0cbf
00000040: b5b7 2fbf 776a 4cbd 0b4f debe 3db6 32bf
00000050: 6880 593f 8759 3f3f 9788 15be d64a ae3d
00000060: f2de f6be 445f 103f 0aa7 003f 8aba 403f
00000070: bd75 c4bd 6242 d3be 3ea1 233f 07c0 a7be
0.9250338 0.5005592 -0.21389599 -0.09602395 0.5275407 -0.13288327 -0.86451215 0.81306285
-0.49438316 0.15598069 -0.033040017 -0.24772123 0.7127168 0.103313975 0.78024256 -0.55030185
-0.6863969 -0.04990622 -0.4341968 -0.69809324 0.8496156 0.7474598 -0.14602886 0.085103676
-0.4821697 0.56395364 0.5025488 0.75284636 -0.09592769 -0.41261584 0.6391791 -0.32763693

embedder.feature_projections.1.bias f4 [32]
00000000: 494a 243f 8b78 433f bc8c 403e 5725 ff3c
00000010: 3351 03bf be4b b93e 0b44 de3d 7b78 083e
00000020: c578 87be eb26 6c3f 382a 33be f72e 8f3e
00000030: e2be 5fbf ba00 78bf 7505 6c3f 47e6 53bf
00000040: 16d0 1fbf 6791 cebd 6c5b 4dbf 2eb8 debe
00000050: 8d8f 12bf 2114 8e3e 6801 edbe 5d89 033f
00000060: b201 f6be 4f0f 063f 63f7 2a3e 997c 39bf
00000070: c361 9d3e dd82 e2be e9da fdbe cbf5 933b
0.6417585 0.7635581 0.18803686 0.031145735 -0.51295775 0.361906 0.10852822 0.1332721
-0.26459327 0.92246884 -0.17496574 0.2796552 -0.8740064 -0.9687611 0.92195827 -0.8277325
-0.6242689 -0.10086327 -0.80217624 -0.43499893 -0.5725029 0.27749732 -0.46290135 0.51381475
-0.48048168 0.5236711 0.16695933 -0.72455746 0.3073865 -0.44240466 -0.49581078 0.004515385

embedder.stabilizer_embedding.weight f4 [8, 32]
00000000: 32bf a43f 0d27 193f 99c3 8abf ff30 293f
00000010: 8926 0ac0 7321 f33f 81d0 093f 69d5 80be
00000020: 45a3 f4bf 79e6 ebbe 02fd b8bf ee95 ee3e
00000030: b474 c13d fdc1 17bb 54a5 87bf 4937 b0be
00000040: cc7f 9e3f 26b3 2c3e eacb 3cbd 0f0c ea3f
00000050: eff2 62bf 5e0b 8dbf 6dfe f4bf 1282 0dc0
00000060: 0b75 0ebf 3eb1 23bf 42eb 54bf f483 3e3f
00000070: 9a7d 9a3f 9d8f 60bf 25f6 35be 9c84 5ebe
00000080: 95e7 f3bf c36d 593e 3a75 23be 540d 0a3e
00000090: 3d06 f43e a33a 0140 9ab1 31bf c8b8 11bf
000000a0: 7edb 27c0 e886 833f 56f2 d23d a05a 813f
000000b0: f7e8 aebe b9eb 843f 9fb8 fbbf 7a13 04bf
000000c0: 8878 de3f f496 9fbf fbba 6bbb 6341 e73d
000000d0: 4283 7ebf 7dbf 233e 7cc4 973f d03c e6bf
000000e0: 9230 7abf aac3 fdbd 5366 ac3f df97 17bd
000000f0: 8ba6 2c3f b21d 20bd d7c3 94bf e148 8d3f
00000100: e6aa d8be fde8 bebe 027a 03bf 89eb c93f
00000110: 1a5d dabe 5e99 c13f d767 d43d 2b99 57bf
00000120: ed06 0240 c806 59bf d8f2 13bf 8664 933f
00000130: fda6 77bf 6080 37bd 5260 993f 5736 403e
00000140: 5164 133f e238 c2be 599a 64bd 3559 9d3e
00000150: b51f a6bf 3935 743f a7c7 60bf 6ae4 6fbe
00000160: c53f ddbf 67d8 0a3f 5d91 a0bf e542 68bf
00000170: ca4e d4be a7ed 023f a11d 9ebe 8bed cc3e
00000180: 8fdc 4dbf 2f18 db3e e28e 3b3f ecb1 133f
00000190: ea50 5ec0 3356 eb3f 3f96 82be 6c12 8f3f
000001a0: 8659 b7be 913c 213f 7158 043f 029e 533e
000001b0: 919e e03e a652 823f b9ca 403f fa14 ca3f
000001c0: 0a5b 36bf e7e9 583f 7ce2 32bf 6ad3 3abe
000001d0: 217f e73f aaae aabf 8c16 2f3f a805 e33f
000001e0: cfee 723f 11a1 eabf 02da c73f 03d9 75bc
000001f0: e6de 4d3f 1746 20bf 4597 233f 4f83 5ebf
00000200: 0c55 b4bd dbc2 dc3f 093a 15bf de53 823e
00000210: 763a 0cc0 da72 63bf bd87 5e3f 7999 963e
00000220: c3b0 f3be 95a6 aabd 04fc f83e b22f 4bbf
00000230: 0a91 89bf 9331 b13f 10bd 04bf 5c87 ccbf
00000240: ddcb 4f3f 26f2 01bc 878e 2fbf 627d 48bf
00000250: 19e8 88bf 35c0 03bf 1472 0cbf 236d 90bf
00000260: d06d 6fbe 97b9 f2be 93a9 bd3e d969 023f
00000270: 268e 07bf 6802 5dbf 19ab 543f 20b8 18bf
00000280: 50ee 903f aea9 ea3e 3a7e c83f 8c16 5bbf
00000290: 40f2 b0bf 8dfd 3c3f 9bd2 1440 0fbe e43d
000002a0: e99b 6a3f 3f3c 453e 1008 d4bf 6ce7 d53e
000002b0: 32a4 3d3c deb1 443f a136 08bf e965 93bf
000002c0: 05fe ae3f 62da 773f cc3d 903f 58f9 2e3f
000002d0: 97aa 8b3f 4b0f bcbf 30d3 8a3f 79e2 b3bd
000002e0: 6b00 c03d f922 383f 0263 a53e bdde 313f
000002f0: 775b ac3e e8bd 133f d17f adbd 8bf2 7fbf
00000300: 0368 8e3f 1cce dc3f 0535 cd3f 5c11 8d3f
00000310: b622 3dbe 69e7 0bbe ee2d b73d 16ed b8bf
00000320: 2f05 15bd aef8 dabf 2eae 0d3f 5a95 d83f
00000330: a06a c5bf 5f16 253b 56b5 b0bf b8b6 d73e
00000340: 1c8e b8bf 746d c63f 5949 6fbc 828a bbbf
00000350: ca4e 2ec0 d420 febe 2d9d 3f3c 533c 783f
00000360: 8ca4 52bf cefc 1440 6013 cb3a f24b 55be
00000370: 0062 f43e da4f ac3e 6af1 a5be 53b0 083e
00000380: 3691 cfbe 1cbc ecbf cc62 163f b205 6f3f
00000390: 7cf5 d7be 2951 87bf a907 703f 9a19 4cbf
000003a0: 3bd9 903f 264c c2bd 7470 12c0 24ff 5ebe
000003b0: 0fc9 fd3f a302 b53e 7c17 933f a658 41bf
000003c0: 3aa7 1cc0 ee64 e93f f792 003f 9fb5 2bbf
000003d0: 34eb 15be 205f 903e d46d b73f 4626 edbe
000003e0: 6caa d5bd 54d9 543f ebb2 41bf 5db0 88bf
000003f0: 11ed e63d bb7f 053e 2660 b5be c00d 5f3e
1.2870848 0.5982521 -1.0840942 0.6609039 -2.158602 1.8994583 0.53833777 -0.2516282
-1.9112326 -0.46074274 -1.4452212 0.46598762 0.094460875 -0.0023156398 -1.0597329 -0.3441718
1.238275 0.16865215 -0.046092905 1.828493 -0.8865194 -1.1019094 -1.9140145 -2.2110639
-0.55647343 -0.63942325 -0.83171475 0.74420094 1.206958 -0.87719136 -0.17769678 -0.21730274
-1.9055048 0.21233277 -0.15962687 0.13481647 0.4766101 2.019204 -0.69411623 -0.5692258
-2.6227717 1.0275545 0.10300128 1.0105782 -0.34162113 1.0384437 -1.9665717 -0.5159222
1.7380533 -1.2467942 -0.0035969603 0.112917684 -0.99419034 0.15991016 1.1856837 -1.7987309
-0.9773036 -0.123908356 1.3468727 -0.03701007 0.67441624 -0.03909082 -1.1622266 1.1037866
-0.42317885 -0.3728713 -0.51358044 1.5775005 -0.42649156 1.5124929 0.103713684 -0.8421809
2.0316727 -0.8477597 -0.57792425 1.1515052 -0.9673918 -0.044800162 1.198252 0.18770729
0.57574946 -0.37934023 -0.05581126 0.30732122 -1.2978426 0.9539371 -0.87804645 -0.23426977
-1.7285086 0.54236454 -1.2544361 -0.9072707 -0.4146636 0.5114388 -0.3088198 0.4002498
-0.8041467 0.42791888 0.73264897 0.5769336 -3.4736886 1.8385681 -0.25505254 1.1177497
-0.35810488 0.6298304 0.5169745 0.20665744 0.43870977 1.0181472 0.7530933 1.5787652
-0.71232665 0.84731907 -0.6987684 -0.1824471 1.8085672 -1.3334553 0.6839378 1.7736101
0.94895643 -1.8330404 1.5613406 -0.015005353 0.8041824 -0.6260695 0.63902694 -0.8691911
-0.08805284 1.7246965 -0.5829168 0.2545461 -2.1910682 -0.88847125 0.8692587 0.29413965
-0.47595796 -0.08332554 0.48629773 -0.7936965 -1.0747387 1.3843254 -0.51850986 -1.5978808
0.81170446 -0.007931268 -0.68576854 -0.7831632 -1.069583 -0.5146516 -0.5486157 -1.1283306
-0.23381734 -0.4740722 0.37043437 0.5094276 -0.52951276 -0.86331797 0.83073574 -0.5965595
1.1322727 0.4583258 1.5663521 -0.8558128 -1.3823929 0.7382439 2.3253543 0.11169063
0.9164415 0.19261263 -1.656496 0.41778123 0.011574792 0.76833904 -0.5320836 -1.1515476
1.3671271 0.968176 1.1268859 0.6834922 1.0911435 -1.4692167 1.0845699 -0.087834306
0.0937508 0.71928364 0.323021 0.69480497 0.33663532 0.5771165 -0.08471645 -0.99979466
1.1125492 1.72504 1.6031805 1.1020923 -0.18470272 -0.13662495 0.08944307 -1.4447353
-0.036381897 -1.7107141 0.553439 1.6920578 -1.5423164 0.0025190336 -1.3805339 0.4213159
-1.4418368 1.5502152 -0.01460489 -1.4651644 -2.723559 -0.4963442 0.0116951885 0.9696705
-0.8228233 2.32793 0.0015493445 -0.20829752 0.47731018 0.33654672 -0.32410747 0.13348512
-0.40540475 -1.8494906 0.587445 0.93368065 -0.42179477 -1.0571643 0.9376169 -0.79726565
1.1316293 -0.094871804 -2.2881136 -0.21777016 1.9826983 0.35353574 1.1491542 -0.7552589
-2.4477067 1.8233926 0.5022425 -0.67074007 -0.14640504 0.28197575 1.4330392 -0.46318263
-0.10432896 0.83144116 -0.7566363 -1.0678822 0.112756856 0.13037007 -0.35424918 0.21782589

embedder.res_block.0.weight f4 [32]
00000000: d1a6 893f 9d5d 743f 94ec 8c3f a1ba 823f
00000010: 3a44 793f 89e9 8e3f d8bd 813f 0f7f 843f
00000020: 9db6 8d3f 0dbb 863f bec6 7d3f d6be 833f
00000030: 62d7 883f d2df 863f e422 853f 2135 853f
00000040: bd36 813f 1103 813f d6b9 853f 5a0b 9c3f
00000050: 81be 8c3f f50b 803f 9e3e 953f 36a1 973f
00000060: a4a5 773f 919c 673f bc5e 813f d7b3 693f
00000070: 399c 933f c739 7b3f efed 963f af1c 9e3f
1.0754033 0.9545534 1.1009698 1.0213205 0.9736973 1.1165019 1.0136061 1.0351275
1.1071354 1.0525833 0.9913138 1.0292614 1.069073 1.0537055 1.0401273 1.0406839
1.009483 1.0079061 1.0447338 1.2190964 1.0995637 1.0003649 1.1659734 1.1846073
0.9673712 0.90473276 1.0107036 0.9129004 1.153205 0.98135036 1.1791362 1.2352504

embedder.res_block.0.bias f4 [32]
00000000: d700 ed3c 049e dfbd 5b53 4f3d 9048 023d
00000010: 6bb8 083d 3284 d4bc ec47 8fbd 0f64 b9bd
00000020: 55c7 a13c 3bd7 b0bc 9c80 a4bc 8645 14bc
00000030: e449 e83c 5efb 6abc 28d1 09bd d29d 0c3d
00000040: 6d9e 0a3c e645 10bd e5dd 05bc 304d 223b
00000050: 90d8 043c f8c1 893c ba64 393d d211 e33c
00000060: 9a80 1f3d cb43 0bbe f933 1c3b 1f0c d63d
00000070: 9eea 81bc add4 3c3d 35e4 063d 212f febb
0.028931065 -0.10918811 0.050616603 0.031807482 0.033379 -0.025941942 -0.0699614 -0.09052288
0.01974837 -0.021587005 -0.020080857 -0.009049779 0.028355546 -0.014342157 -0.033646733 0.034330197
0.008460623 -0.03522291 -0.00817058 0.0024765246 0.008108273 0.016816124 0.045262076 0.027718458
0.038941003 -0.1360008 0.002383469 0.10451531 -0.015858945 0.04610126 0.03293248 -0.007757083

embedder.res_block.1.weight f4 [32, 32]
00000000: 457a 283d e1d2 353d ea72 8cbe 15a1 efbd
00000010: e2c3 2c3e 8bb0 56be 9bd3 ef3d 4f0d 3c3e
00000020: 5a75 82be 91d6 6d3e 8002 74bd 2e06 9ebd
00000030: b738 6c3e 29c3 9abe a6d7 eb3d f4f1 35be
00000040: 635d db3c 93d7 c03d 61c0 08be 799d ed3e
00000050: 5864 293e c92c 66be b007 0cbe 07ee a23e
00000060: a1c7 0dbe 2555 6fbd 8714 833d faf3 c63d
00000070: bc22 aabe 19b5 1b3e 7730 14be 1d77 de3e
00000080: 42ae d73d 93a2 fc3c 9468 363e 59c1 833d
00000090: 418c 0bbe d5fc 31bc 8fcd 26be 72eb c1bb
000000a0: 9104 52be 01b5 22be a531 f3bd ea14 5dbd
000000b0: 1dce b5bb c569 4fbe 4880 ef3d 909b 9fbd
000000c0: 5e00 5bbe 245d fdbc 303a ed3c 33be 1c3e
000000d0: b3ed 2f3d 1184 d03c cc33 d2bc a52b 8d3e
000000e0: 5595 d43b c003 87bc 57ea 33bd 7df9 eebc
000000f0: e3ef 78bd 9658 bebd c880 82bd 762c 1fbd
00000100: 234e b0bc 112a 0e3e 00ac e63d 70ae 973d
00000110: c56f f8bb 19b2 4bbc 6e3e d33d d700 9abc
00000120: 0b05 4bbe 0e6f 0fbe 8057 213e 733a 373e
00000130: 34b5 143e d08d 1cbe 18df d9bd d15e 883e
00000140: 0a21 3abe c20c 803e 43e2 47be fbb9 d73d
00000150: d3fe 1b3d 297a 19be 8bd2 d2bd a694 703e
00000160: 51ca b43d 1ad0 043d b2b4 713e 688f 19be
00000170: 374b 48bc cce9 0c3b 935b 55be cdd1 2dbe
00000180: 308a b2bd da6d 843b 98a7 8cbd 3e4e 05be
00000190: 1c97 d83d cbae 2fbe 6949 cd3d 2095 a43d
000001a0: 43dc b43d c384 71be c786 ad3d a86b 2d3c
000001b0: ab9c f33d b073 d33d 66e0 1f3e c9b1 793c
000001c0: d12b 8abc 2c2e 13be 1567 f63d a9a1 98bd
000001d0: b572 97bd 83ab 29be 1b9b 19be c59d 143e
000001e0: 9473 df3d 7e1b 42be 5d22 5abc 126b 893d
000001f0: c10c 1c3e cd99 7dbd fcbc d23d 8297 f6bc
00000200: 43cd 0f3d a615 d43c d229 8cbd 052b e9bd
00000210: 1c47 87bd 0291 e7bd 323b 743d 3bf0 18be
00000220: 6724 133d 23be 5dbe e2cd 36bc b57a b63d
00000230: 465c b83c 5df5 22be 1765 09be 3ccf 143b
00000240: e5cf f13d 7026 15be 3262 7ebd 2b9f 1dbe
00000250: be0d 0b3e 6548 20bd 61ed f23d bbb9 6bbc
00000260: d58d 053e d294 09be d237 843b e731 ac3d
00000270: 13bf 12be 7fee 923d 0a4c b43d 355e 7bbc
00000280: 30e2 6cbe 308b 00be e35f dd3b d909 cdbc
00000290: 3dd2 c9bd 53ce 3dbd 15a4 babd 8805 813e
000002a0: e395 3bbe b392 6d3d b537 213d 474c 3dbd
000002b0: 88ca 9d3e 9b7a 3fbe 8ed8 423e 9685 c03d
000002c0: df5a 723d d969 09be c3b2 53be 3f06 a93e
000002d0: 1481 923e 0c59 7f3c 87a7 49be 8146 433e
000002e0: 964f afbc 498f b5bd 98a3 9cbd e305 a1bd
000002f0: 316c 53be 26f3 8ebd 984c e0be 4da4 783e
00000300: c894 d7bd d09c 5dbe 5e9b 92bc de3b 863d
00000310: 324e 24be a379 8c3e a3b3 2cbe 2ac1 ab3d
00000320: 6364 f0bd 63ae 8a3d d4a0 1bbe 47fc 1ebe
00000330: fb4d 6f3d 44b1 4f3d 7073 6bbd d00e ab3c
00000340: 3bce 183e 5829 da3c 0a3d 5abd aad1 c2bb
00000350: 75ef 563c fdf7 a23d 08ec 0a3e 15e1 b1bd
00000360: 778b 10be 738c ea3d efad 9bbd 004c f73d
00000370: 717d 783e d42b 2cbe 1e29 ac3d 466d 063e
00000380: e583 acbd 8f05 163d a982 f7bd 4625 20bd
00000390: 100e 4e3d efba 933d 0b9c 223e 4133 523d
000003a0: d466 253e d2af 253d 2e0e 443d 789a 54bd
000003b0: ba73 af3c de4d aebd 48e4 ac3d 13bc 63bd
000003c0: bb5b 243e 74f9 963d 225a 563d e42f 26be
000003d0: 4d2d de3c 1a6f 89bd 1244 413e 283f d0bc
000003e0: 7579 903d 41fc 223d f113 5c3d 195d 5abc
000003f0: 6572 e23d 8f90 26be d329 7c3e e5b9 37bd
0.04113223 0.044390563 -0.27431422 -0.11700646 0.16871598 -0.20965783 0.117102824 0.18364452
-0.25480157 0.23226382 -0.059572697 -0.077160224 0.2306851 -0.3022702 0.11515741 -0.17768079
0.026777929 0.094161175 -0.13354637 0.46409205 0.16542184 -0.22478022 -0.13674808 0.31822225
-0.13845684 -0.05843081 0.064004 0.097145036 -0.33229625 0.15205802 -0.14471613 0.4345025
0.10531284 0.03083924 0.17813331 0.064333625 -0.13627721 -0.0108635025 -0.16289352 -0.00591796
-0.20509554 -0.1588936 -0.11874703 -0.053975023 -0.0055482523 -0.20255192 0.116943896 -0.07793343
-0.21386859 -0.030928202 0.02895841 0.1530693 0.042951297 0.0254536 -0.025659464 0.2757236
0.0064875283 -0.01648128 -0.043924656 -0.0291717 -0.06077565 -0.0929424 -0.06372219 -0.03886076
-0.021521633 0.13883235 0.11263275 0.07406318 -0.0075816833 -0.0124325985 0.10314642 -0.018799229
-0.19826142 -0.14007208 0.15756035 0.1789339 0.14522249 -0.15288472 -0.10638255 0.2663484
-0.18176666 0.25009733 -0.19519906 0.1053352 0.038084816 -0.14988007 -0.10294064 0.23494205
0.08827651 0.032425024 0.23604086 -0.14996111 -0.012224964 0.0021501658 -0.20835714 -0.16974564
-0.087177634 0.0040414156 -0.068679035 -0.13018128 0.10575697 -0.17156522 0.100237675 0.08036256
0.08831074 -0.23585801 0.08472972 0.010584749 0.118951164 0.103248 0.15612945 0.015240141
-0.016866596 -0.14373082 0.1203138 -0.07452709 -0.073949255 -0.16569333 -0.15000574 0.1451331
0.10910717 -0.189558 -0.013313857 0.06709875 0.1523924 -0.061914254 0.10289952 -0.030101541
0.035107862 0.025889229 -0.06843914 -0.113851584 -0.0660536 -0.11306955 0.059626766 -0.1493539
0.035923388 -0.21654563 -0.011157485 0.08910123 0.022504937 -0.15913911 -0.13417469 0.002270653
0.11807231 -0.14565444 -0.062105365 -0.15392749 0.13579461 -0.03913154 0.11861683 -0.014387543
0.13042386 -0.13435677 0.0040349746 0.084079556 -0.14330702 0.07174396 0.08803566 -0.015342285
-0.23133159 -0.12553096 0.0067558154 -0.02502911 -0.09854553 -0.046339344 -0.091133274 0.25199533
-0.18318896 0.05800123 0.039359767 -0.046215322 0.30818582 -0.18699114 0.19027922 0.094004795
0.059168693 -0.13419284 -0.20673661 0.33012578 0.28614104 0.015585195 -0.19692813 0.19069864
-0.021400254 -0.0886522 -0.076483905 -0.07862451 -0.2064674 -0.06979971 -0.43808436 0.24281426
-0.10526425 -0.2164185 -0.01789635 0.065543875 -0.16045454 0.2743655 -0.16865401 0.083864525
-0.11737897 0.06771543 -0.1519807 -0.15525924 0.058423977 0.050706163 -0.057483137 0.020881087
0.1492242 0.026631042 -0.053280868 -0.005945404 0.013118614 0.07957456 0.13566601 -0.08685509
-0.14115702 0.1145257 -0.076015346 0.12075043 0.24266602 -0.16813594 0.0840628 0.13127622
-0.084235944 0.036626395 -0.12085468 -0.039098047 0.05030638 0.07213389 0.15879838 0.05131841
0.16152507 0.04045088 0.047865085 -0.051905125 0.021417487 -0.08510946 0.08441979 -0.055599283
0.16050617 0.07371798 0.05233205 -0.16229206 0.02712121 -0.06710644 0.18873623 -0.02542074
0.07054416 0.03979135 0.053729955 -0.01332786 0.11056975 -0.16266082 0.2462533 -0.044855017

embedder.res_block.1.bias f4 [32]
00000000: 0fd9 d6bc 8c7c 99bc eaa6 193d 7737 373d
00000010: a01b c03c 8bc9 c73d ba49 3b3d 3154 50bd
00000020: d5ca 17be 6668 d7bb fe51 15be ecbf 16bd
00000030: 6b69 1ebe 5551 633d 5ab6 86bd b543 cd3d
00000040: 4f41 c13d 5113 1b3e 1c76 57bd a375 023b
00000050: 49db 123d 62e1 7dbd 529d 813b eebd 27bb
00000060: 409f e53d 0144 f2bc a5f5 c63d 5186 3b3e
00000070: 097a 07bc b2d0 b4bd bdea 0c3e d359 193d
-0.026226548 -0.018736146 0.037512697 0.04473063 0.023450673 0.09755238 0.045724608 -0.05086154
-0.14823468 -0.0065737246 -0.14582059 -0.036804125 -0.15469901 0.055497486 -0.065777496 0.1002268
0.09436285 0.15144087 -0.052602872 0.0019906543 0.035853658 -0.06198252 0.0039555216 -0.0025595385
0.11212015 -0.029573442 0.09714822 0.18312956 -0.008268842 -0.08828868 0.1376142 0.03743918

embedder.res_block.3.weight f4 [32, 32]
00000000: e771 4c3e 8a4e 11be de88 a7bd 1dfb 8e3c
00000010: a772 153d f77a 81bc 40fb 68bb 9b51 0a3e
00000020: ea14 0a3e 3482 343d b29e 8fbd 2df8 9a3e
00000030: 959e d0bd bd1f e43d 7f05 f3bd c256 f4bd
00000040: 9540 783a b38f 64bd 2d0d 1fbe c690 13be
00000050: acf9 b53e 4664 2cbe 9150 7cbd ac3d e4bd
00000060: 9537 0a3e f063 1a3d ea3f 133e 1c72 b6bd
00000070: d08e 693d c400 13be a42a 363d 915e c33c
00000080: 1278 813e 7c63 603d a43f e9bd 0b14 6ebd
00000090: 73be 26bd 1a09 553e 9828 16be 4119 e4bd
000000a0: 14bb bfbd d5e9 37be 29fa efbd a2a5 8d3e
000000b0: ee6a 1cbe 7672 55be 0f7b 66be 2924 ae3d
000000c0: c36b 88bc ca28 09be 1c7f 99bc 12f1 fbbc
000000d0: addb a23d ab63 30be 6a46 e5bd 1f47 b3bd
000000e0: adc7 20be a592 acbc f86f 873d dc24 2fbe
000000f0: b7a9 d7bd 7e10 03be 4725 dbbd ea13 fabd
00000100: 4398 4e3d a4b0 e63d 9c39 8d3e e31e d7bd
00000110: 1430 eebc 8226 84bd 04c1 a63d d267 143e
00000120: 0801 023e 4037 3fbe f671 2fbe d06a 133e
00000130: 464e 913c 0496 ae39 c573 19be 236a 153e
00000140: 6b0b ebbb 74df 833e b722 3f3d bcae 2d3e
00000150: 0bf2 39be e449 3f3d f9fc 98bd 54da a33d
00000160: b8b1 10bc 828b d9bd a9ae 843e 7d9b 55bb
00000170: 4d24 64be 2266 cbbc 4581 72bd d82a 33bd
00000180: f31d b1be 903a 10be 6b09 f53d f8d2 8c3a
00000190: 672f f33d 3bcd 60be 48ce c53d 6933 c1bd
000001a0: b98b 92bd 391d 93bd 4ac5 3f3e 0c90 d1be
000001b0: a542 31bc dd88 ec3d 51b5 a03d d2d4 073e
000001c0: f0e6 ecbc 7252 9d3d b50c 133e aea1 af3c
000001d0: ca8d 98be 92c0 1b3e 9c17 133e 43d3 593d
000001e0: 1e1b 43bd 16af f03d f7db 733d 3c72 b73d
000001f0: 2768 d1bd c412 003e 0cb4 053d 3e39 11bd
00000200: 4fe4 1c3e 0087 24be c839 d83d 256e 293c
00000210: b66d 5dbe 78b5 8bbd 26f3 173d 3cdc b7bd
00000220: 6529 973d afd1 e5bd 5201 d2bd f71d 8f3d
00000230: 7db0 843d 6682 c2bc bb7a 5cbe 71bd c5bd
00000240: 4c37 a23d 0a35 a33e 9677 f33d 3e1b a1bd
00000250: cf9b 42bd 266f 46bb c123 b73d 7aa8 18bc
00000260: e06b 85bd c79b 273e c87e 78bd a7ca 0b3d
00000270: abb3 29be 1a37 82bc ae3d 7abd 4ed1 8e3d
00000280: a6b2 95be 86a5 d4bb 2643 7cbe 0b9f 20be
00000290: ff59 5f3d d5a6 bd3d 1836 8d3d 85a5 3c3e
000002a0: 39d7 17bd ea97 0a3e ec2e 15be 5193 d4bc
000002b0: 10db 1e3e 7250 12be d025 1fbd 9355 a0bd
000002c0: bb85 18be 4b41 263e 96da ea3b 170c 913d
000002d0: ccae 9d3d 4d36 573d ea6a b4bd c095 dcbd
000002e0: 83d8 d4bc 06cf 603d 9718 833d 3184 20bc
000002f0: 3a03 323e b97d 023e e31b ac3d 85cc 023e
00000300: 180c 4e3e 7ef7 09be d81f 1ebe 5976 b53c
00000310: 93d7 3dbe bd2e a7bd a6e4 4c3d 28e6 cc3c
00000320: 3912 c3bd 5a97 17be 02fa 05be c89a 953b
00000330: acfc c4bd 5fc2 0f3e c6b7 3abd fb05 563d
00000340: 2dc5 833c 54b1 bebc dea3 6bbb a085 a5bc
00000350: 80c7 51be 1be1 cfbd 5578 753d ba0f 9fbd
00000360: 9233 37be 278d bf3d 1e0d 34be 6386 66be
00000370: ffe9 59bd 45be bb3d f033 49be 31f3 35bd
00000380: f7de 113f 607d c13d 9f3b b13d 03d3 15be
00000390: af72 073e 16ef c73d 690b 82be a309 973d
000003a0: 1484 8fbd d50c 6a3c f744 f13d 5d17 35bc
000003b0: 0691 f03d bc28 07be e9d2 fcbc a96f f33d
000003c0: 9695 f93c b0ef 203c 9e9c bebd f36f bb3c
000003d0: 5a4f 6f3e 7a26 ebbc e09c 9a3d 41c8 713d
000003e0: f66b e63d 0d4c c5bd 06c6 42be 4fe0 7ebe
000003f0: c6f4 083c 6690 66bd 0c64 283e c5d8 b9bc
0.19965325 -0.14190117 -0.08180402 0.017453725 0.036486294 -0.015805705 -0.0035550147 0.13507693
0.1348454 0.044069484 -0.070126906 0.30267468 -0.10186497 0.11138866 -0.11866283 -0.1193061
0.00094700727 -0.055801105 -0.1553237 -0.14410695 0.35542047 -0.16835126 -0.06160027 -0.111445755
0.13497765 0.037692964 0.1437985 -0.089084834 0.057020962 -0.14355761 0.04447426 0.023848804
0.2528692 0.054782376 -0.113890916 -0.058124583 -0.04070897 0.20804253 -0.14663923 -0.11137629
-0.09361854 -0.17960294 -0.11717636 0.2766543 -0.15275165 -0.20844445 -0.2250788 0.08502991
-0.016652947 -0.13394466 -0.018737368 -0.0307546 0.07952056 -0.1722552 -0.11195071 -0.087538
-0.1570117 -0.02106602 0.06613153 -0.17103904 -0.105304174 -0.1279926 -0.107004695 -0.122108296
0.050438177 0.1126416 0.27583015 -0.10503938 -0.02907566 -0.06452657 0.081422836 0.1449273
0.12695706 -0.1867342 -0.17133316 0.14396214 0.017737519 0.00033299637 -0.14985569 0.14591269
-0.007172992 0.2575642 0.046663966 0.16961187 -0.18158738 0.046701327 -0.07470126 0.08000627
-0.008831434 -0.10622312 0.25914505 -0.00325939 -0.22279473 -0.024828974 -0.059205312 -0.04374203
-0.34593162 -0.1408484 0.11964687 0.0010744026 0.11874276 -0.21953289 0.09658486 -0.09433634
-0.07155556 -0.07183308 0.18727604 -0.40930212 -0.010819112 0.11549542 0.07847083 0.13264778
-0.028918713 0.07681741 0.14360316 0.0214394 -0.29795676 0.15210178 0.14364475 0.05317999
-0.047633283 0.11752145 0.059535947 0.08957335 -0.102249436 0.12507159 0.03264241 -0.03545498
0.15321468 -0.16067123 0.10557896 0.010341202 -0.21623883 -0.06821722 0.03709712 -0.08977553
0.07380942 -0.112216346 -0.10254158 0.06988137 0.06478975 -0.02374382 -0.21531193 -0.09655274
0.07920703 0.31876403 0.118880436 -0.07866524 -0.047511872 -0.0030278652 0.089423664 -0.009317512
-0.06514716 0.16368018 -0.060667783 0.03412881 -0.16572444 -0.015895415 -0.06109398 0.069735155
-0.2923786 -0.0064894585 -0.2463499 -0.1568567 0.054529186 0.09260336 0.06895083 0.18422516
-0.037070487 0.13534513 -0.1456868 -0.025949152 0.15513253 -0.142885 -0.03885442 -0.07828822
-0.14894764 0.16235845 0.0071671708 0.07082384 0.076993555 0.05254202 -0.08809455 -0.1077075
-0.025982147 0.054884933 0.064011745 -0.009797142 0.17384043 0.12743272 0.084037565 0.1277333
0.20121801 -0.13473317 -0.15441835 0.02215116 -0.18539266 -0.081632115 0.050022744 0.02501209
-0.0952496 -0.1480383 -0.13083652 0.0045655705 -0.09618506 0.1403899 -0.045585416 0.052251797
0.016085232 -0.023277916 -0.0035955827 -0.020205319 -0.2048626 -0.10150357 0.05992921 -0.077666715
-0.17890766 0.093530945 -0.17583129 -0.22512202 -0.05320167 0.091671504 -0.19648719 -0.04442138
0.5698084 0.094477415 0.0865395 -0.14631276 0.13227342 0.09762399 -0.2539933 0.07374885
-0.07007614 0.014285286 0.11780732 -0.0110529335 0.11746411 -0.13199133 -0.030862289 0.11886532
0.030466836 0.009822771 -0.09307216 0.02288053 0.23370114 -0.02870487 0.07549453 0.059028868
0.11251061 -0.09633646 -0.19020852 -0.24890254 0.00835914 -0.056290053 0.16444415 -0.022686372

embedder.res_block.3.bias f4 [32]
00000000: 03af 143e 2996 4ebe 4b61 e1bc 7521 fbbd
00000010: 971f 10bc 303c efbd 00fd c53d ea27 a83d
00000020: ea7b aabd 1d60 863d d8c7 f23d 35bf dbbd
00000030: 24cf 663d d24d fb3d 5dca 643c 8864 2abe
00000040: 2e00 4d3d 5223 aabd a9a0 cabd cabe e13c
00000050: 543b 1f3d 637e 2a3e 6e3b 91bd d91f 26be
00000060: e694 183e 0eef 4bbd 3b1b 863d 0ec4 6b3d
00000070: 61be 2bbe 0c2b 703d 13bd 873d 6ff4 de3c
0.14519887 -0.20174469 -0.027512213 -0.12262241 -0.008796594 -0.11681402 0.096673965 0.08210738
-0.08324416 0.06561301 0.118545234 -0.10729829 0.05634989 0.122707024 0.013964263 -0.16639912
0.050049 -0.08307518 -0.09893925 0.027556796 0.03887494 0.16649775 -0.070914134 -0.16223086
0.1490055 -0.049788527 0.065481625 0.05756002 -0.16771843 0.058634803 0.0662786 0.027216164

cnn_blocks.0.proj_in.weight f4 [16, 32]
00000000: 0a30 bdbd 9ac7 85be b6c6 db3d c3bc f2bd
00000010: b1ee 313c d8f7 58bd 9d77 6dbd 6b39 0d3e
00000020: 6f67 183e caa6 9e3d c8c7 9e3d 85a5 00be
00000030: aa38 c53d d2ea 01be c00c 013e 5782 1abe
00000040: b350 a23d 2d92 913d 52b1 603d ed96 813d
00000050: f4ac 883d c055 db3c fd4c 193c df87 01bd
00000060: 19d1 1dbe 49a0 d9bd 217a 05be 645c 4ebe
00000070: b6d2 3bbd 66af 00be c6b1 9b3d fc29 e53d
00000080: da2a bf3c 8e60 493e d915 e53d afb2 483e
00000090: 97b4 1c3e 0da4 843d 5a54 b53d b92d 613d
000000a0: 3951 8d3c 0368 6fbd bd59 7dbc 9782 a83d
000000b0: 2b59 90bc 2505 fabd d1bd 183e af66 70bd
000000c0: 4a5b 34be 3755 1fbe 91ea 06bc aae0 1bbe
000000d0: 18d0 ab3d 01d9 13be e721 16be 24a7 1abe
000000e0: b58f 01be 5f2b ea3d b9c1 16be 9b8e 3f3c
000000f0: eb7a 11be f1b9 9b3d ee19 f0bd c4fc 0d3e
00000100: 34ad cbbd c41e 423c 7b26 28be 1423 2a3e
00000110: aaf8 d43c 3399 90bd b53d f1bd d2d8 413e
00000120: 0717 29be b753 ccbd 1fbb 90bd 95b1 82bc
00000130: bb1e 30be 0b89 b93d 1b8a b83d fe1f 2dbd
00000140: 1dea 65bd 7c01 dabd 34b8 ffbb fe37 cebd
00000150: 2c83 ec3d 9a2f 5dbd b04c 1c3e 77f4 d6bd
00000160: c481 e73d 4308 55be de64 f6bd b02d 043e
00000170: 55ec f2bd 9860 c8bd cadb 37bd 3027 b7bd
00000180: 9d2f 28be 853b ecbc c09e 12bd d249 3abd
00000190: 01d5 1a3e 625c 97bd 56aa 16be dac1 cabd
000001a0: 5ff8 41bd 8138 803e 87dc 91bc eb09 d13d
000001b0: b23d 783e 600d 0ebc f90a 39be 3d55 6d3b
000001c0: 54e0 3cbe 6c18 1e3e 4951 50bd 08ec f7bd
000001d0: e820 953d 0a5c b03d ac52 03be ab0f 563d
000001e0: 0320 813d 7df7 be3c fa5c 64bc e4cc 92bd
000001f0: 488b 8a3c f126 11bc 7e8b 1a3d 7375 1e3e
00000200: e6b7 b2bd 7699 643d 2193 93bb ced3 273d
00000210: ea8f 0dbc f54e d3bd 4408 5f3e 7120 39be
00000220: 556c 20bd 7caf bbbd 9476 003e 6544 e6bd
00000230: 61d9 29be 2365 893e 2af0 efbd cdce 8abd
00000240: daf6 823b 0654 333e 7bd4 8cbd ffb2 ba3d
00000250: 1a47 c13d 9854 af3d 46a3 71be d1ee c9bd
00000260: 5b02 e53c 1333 45bd 73b3 093e 7a38 cb3d
00000270: 63fa d3bd 1fd9 03be 00a6 f23d 37d0 553e
00000280: e06e ee3d 77af 0c3e fa2e c9bd 4bfa bb3d
00000290: 78e7 3abe 0be2 efbd 5f16 16be f389 8b3b
000002a0: 5641 67bd a212 3c3e fda9 4bbe 25ee 0b3e
000002b0: b662 5ebd 70c6 d5bd d2a3 8a3c 4079 bd3d
000002c0: 53a1 913d cc54 49be b3ac 483e c6e4 263d
000002d0: 2ae4 ecbd f373 843d ae35 6e3d e0c1 de3d
000002e0: 7140 ee3c 004a 1a3e 6443 8f3d 2301 e6bd
000002f0: fb3c 41be 5265 b63d 572b d83d 1654 dbbc
00000300: 2a28 9bbd 969d 69bd be66 d93d 7f5b 88bd
00000310: d395 3e3e 770a fa3d 19e0 76bd 236e f7bc
00000320: fd10 913d a73b 96bd 6a9a 583e eea3 ab3d
00000330: 8337 86bd d226 043e 2ae1 863e be49 84bd
00000340: 9b4e 1b3e 7ba6 97bc 5e68 823b b252 393e
00000350: fab1 2c3d 77ca 27bd ef62 c53d 3718 2e3e
00000360: e184 303e bc57 04bd 507f 85bd f0f9 de3d
00000370: 5fd5 a1bc 21f6 893d 70d2 fa39 1863 31be
00000380: 4405 e1bd 02c4 3fbd a97f ce3d 19bd 64be
00000390: f670 7abc 83f5 853d 5312 243e 04b7 3c3d
000003a0: 6ce0 363e 0663 f13c 8f59 73bc fe50 053e
000003b0: 3e5f 973d 1ea3 533e f21c 41bd fe79 ab3c
000003c0: d63e f83d a995 75bd b583 41be e480 cebd
000003d0: fd94 1f3e b3b5 283e 501b 053e 95d6 dd3d
000003e0: 1d66 29be 404c a5bc ea41 493c 15b0 233e
000003f0: 2c55 e6bc 5539 38be 3202 38bd a0b7 c9bd
-0.09237678 -0.26128846 0.107312605 -0.1185241 0.010860131 -0.052970737 -0.0579754 0.13791434
0.14883207 0.07746656 0.07752949 -0.1256314 0.096299484 -0.12687233 0.1260252 -0.15088783
0.079255484 0.07107959 0.054856606 0.06327615 0.06673613 0.026774287 0.009356734 -0.031623717
-0.15411796 -0.10626275 -0.1303487 -0.20152432 -0.045855246 -0.12566909 0.07602267 0.111896485
0.023335863 0.19665739 0.11185808 0.19599412 0.15303265 0.06476603 0.088539794 0.054975245
0.017250644 -0.058448803 -0.01546329 0.08228033 -0.017620644 -0.122080125 0.14916159 -0.058691677
-0.17612949 -0.1555985 -0.008234636 -0.15222421 0.083893 -0.14438249 -0.1466137 -0.15102822
-0.12652476 0.11434054 -0.14722337 0.011691715 -0.14207046 0.07603825 -0.11723696 0.13865954
-0.09945145 0.011848155 -0.16420929 0.16614944 0.025997479 -0.070604704 -0.11779348 0.18930367
-0.1651269 -0.09976905 -0.070669405 -0.015953818 -0.17199223 0.09059342 0.090107165 -0.04226684
-0.05613147 -0.10644814 -0.007803941 -0.100692734 0.115484565 -0.054000475 0.15263629 -0.10495847
0.11304048 -0.20803933 -0.12030958 0.12908053 -0.11861483 -0.09784049 -0.04488734 -0.08943021
-0.16424413 -0.028836975 -0.035795927 -0.045480557 0.15120317 -0.073906675 -0.14713416 -0.099002555
-0.047356006 0.2504311 -0.017805351 0.1020697 0.24242285 -0.008670181 -0.18070592 0.0036214136
-0.1844495 0.15439004 -0.05085877 -0.12105566 0.07281667 0.08611305 -0.12824506 0.052261036
0.06304934 0.023311371 -0.013938183 -0.07167986 0.016912118 -0.008859382 0.037730686 0.15474491
-0.08726482 0.055810414 -0.004503623 0.040973477 -0.008640269 -0.10317794 0.21780497 -0.18078782
-0.039165813 -0.0916433 0.12545234 -0.11243514 -0.1658683 0.26834974 -0.117157295 -0.06777725
0.003996712 0.17512521 -0.06876465 0.09116172 0.0943739 0.08561057 -0.2359744 -0.09860004
0.027955225 -0.04814441 0.1344736 0.099228814 -0.10350492 -0.12875794 0.11848068 0.20880209
0.116422415 0.1373881 -0.09823413 0.09178599 -0.18252361 -0.11713036 -0.14656971 0.004258388
-0.056458794 0.18366483 -0.19889064 0.13665064 -0.054293357 -0.104382396 0.016923819 0.09251642
0.07110848 -0.19661254 0.1959713 0.04074552 -0.11566956 0.06467428 0.05815666 0.108768225
0.029083462 0.15067291 0.069952756 -0.112306856 -0.18870918 0.08906044 0.105551414 -0.026773494
-0.0757602 -0.05703505 0.106153 -0.066580765 0.18611841 0.12209027 -0.06027231 -0.030203884
0.070833184 -0.073355965 0.21152654 0.083808765 -0.06553557 0.12905434 0.26343662 -0.06459378
0.15166704 -0.018512001 0.0039797267 0.18097952 0.04216192 -0.04096457 0.09638011 0.17001425
0.1723819 -0.032310233 -0.065184236 0.108875155 -0.019755064 0.067363985 0.00047840504 -0.17322958
-0.109873325 -0.046817787 0.10082943 -0.2233776 -0.015285721 0.06540968 0.16022615 0.046072975
0.17859048 0.029466163 -0.014852895 0.13019177 0.07391213 0.20667693 -0.047146745 0.020932194
0.1212136 -0.05995718 -0.18897898 -0.10083178 0.15584178 0.16475563 0.129987 0.10831944
-0.1654286 -0.02017796 0.012283782 0.15985139 -0.028116785 -0.1799062 -0.04492397 -0.09849477

cnn_blocks.0.proj_in.bias f4 [16]
00000000: 5d66 a1bb 00a3 3abe e679 30be e2b6 143e
00000010: 7c74 d6bc 9030 11be 7faa 2d3e f9e3 78bd
00000020: 2ef1 56be 6a05 ec3c 8e03 eabd aa74 3f3c
00000030: 3a12 193e 9577 f93c 7018 a8bd 3687 ea3c
-0.0049255327 -0.18226242 -0.17234 0.1452289 -0.026178591 -0.14178681 0.1695957 -0.060764287
-0.2099044 0.028811175 -0.11426459 0.01168553 0.14948359 0.030452529 -0.08207786 0.028628927

cnn_blocks.0.convs.0.weight f4 [16, 16, 3, 3]
00000000: 0908 c13c 22d8 46bd 6159 1cbe 9922 bbbd
00000010: 8579 c1bc 4b29 d23d a4fd 2d3d c8cf 003c
00000020: d1ab cabc 26c4 c63d 776e 703d f096 fe3d
00000030: c769 8cbd 9955 153e 376e 933c f438 8e3b
00000040: f6b3 813b 4266 7abb 4713 abbc 04de 1ebc
00000050: 8684 a1bd 2857 753b be64 a23d 6bb6 8d3c
00000060: df30 6bbd a99f a03d a980 e3bc 0b81 1c3d
00000070: 0246 113d 745c c5bd 31d9 ac3c fb99 99bd
00000080: 582d 323d 77d2 883d ea52 ea3c 9a49 853d
00000090: 2f92 bdbd 7d25 d63d d2ba 39be 8831 313d
000000a0: 1ab5 c0bd 9afe 0c3e 8b83 20bd 59d8 c53b
000000b0: 8577 433c 5006 03bd 5b9a 803d 9d58 bf3d
000000c0: c8f1 32bd c5b8 24bd b59e 26be d5e4 0fbd
000000d0: c93b 13bd 0c0a 103e 66b9 33bd 6984 e3ba
000000e0: d7d2 d93d a502 ea3d 01f3 afba bef3 eebd
000000f0: 9e0b 76bd e267 533d 2931 65bd 4744 1dbe
00000100: 001d 8b3a 71cb 093e ebc0 4b3d 08e6 54be
00000110: c5c3 a23d 6e37 89bd 0c64 3e3d 218b 8fbd
00000120: 0e70 a0bd eaa8 e33c 69cf 043b e782 083d
00000130: 5478 f9bc 1d60 633e 1f6a d3bd a2d1 a9bd
00000140: 5711 2c3d b25f 623d df02 76bc 27d2 0ebd
00000150: 26e9 713d 164e 813c 9d6e 403d 7309 8b3d
00000160: 294a 203d 016a 12bd a88f 0abe 83b4 5a3d
00000170: 4d06 b43b b5d0 8abd 1119 813d 92a1 c43d
00000180: f491 96bd 99c0 8ebc cdb1 e63d 24b3 35bd
00000190: 671d e33c 2919 733d f2c8 2ebd 4217 8a3d
000001a0: 88d3 12be 2c97 e7bd ccb5 0fbe 401c 3c3d
000001b0: cc72 5d3d 3477 1ebd 21e8 97bc 3b52 4cbd
000001c0: 53fe 82bd 54df 173d 270d 37bd 4dff 1abd
000001d0: 120f 8fbd de7a 67bd cbf3 1cbd 81c8 c93c
000001e0: 8e16 e63d cb54 39bc cdce 7dbc 26bf 293d
000001f0: 184c 3f3d 7ce4 a6bd b5aa d93a ee52 323d
00000200: b5e0 07bd 9365 b93c 3d8f 36bd 252a 5e3d
00000210: 5d56 80bc e414 9c3d 4113 46bd a0ab 3e3d
00000220: f831 2fbc fc36 933d 7745 a9bb a02f 84bc
00000230: 7ac2 d5bd 7957 303d 8acb 49bd 4c03 f8bd
00000240: e117 ad3d 857f 1abe 8f19 4dbc c1ff 103e
00000250: 87f9 51bc 23b4 733d b70c af3d b9c7 2f3d
00000260: 8ed4 8abd ddb0 e9bc b73e 04bd cc73 03be
00000270: 121b 09bd 65af d0bd 8a22 fbbc 2c7e 733e
00000280: 50c0 edbd 1119 c5bd c6d4 5abb 0e87 b63d
00000290: 5908 ae3d 11e4 b9bd ccdb f73c f17e e2bd
000002a0: a6d4 bcbc b0cf da3d fdf5 99bc e139 9ebd
000002b0: 73e8 b1bc b3a4 10be 8f83 4b3d c629 2cbd
000002c0: 2e25 2bbd b2c7 45bc f5af a03d e53c ab3c
000002d0: f638 41be b388 2bbd b355 21be d7a3 1a3d
000002e0: 48c8 2abd 2851 3fbc ed3b a83d 8df8 eebd
000002f0: 5b7e ffbc 951c 173d 4ad2 48bd 239c 023d
00000300: 4bfc 083d 9302 8a3d ddf3 fe3d a8f9 e63d
00000310: 9c01 55bd cc22 efbc 9bee 003e 4e44 1d3d
00000320: 1dcd 073d 0019 863d 7d1d 923a f7c8 abbd
00000330: a03e 413c 7576 043e 3d6e 653d 4fc3 c73c
00000340: bba9 6a3d 174a 8cbd 3db8 0e3c d2d1 90bd
00000350: 26a8 94bd 235a f8bc c3f4 b33d 01b9 a0bd
00000360: b56a 5b3c 43fa 183c 1cd9 57bd d8a3 92bd
00000370: 61f2 60bd 9e54 90bd ee82 0fbe 1b16 843d
00000380: 2ba8 c83d b021 393d a615 873d 2242 843c
00000390: d289 7abd 47be b53d 63f5 55bc b286 35be
000003a0: 1bd6 4bbc bf2a fa3d c935 afbd 4994 bfbc
000003b0: ce0c b63c 2c67 b1bb b43e 353d 9fd1 803c
000003c0: 3fa5 e0bb 7ac3 863c bc44 0b3d 3b49 f2bc
000003d0: ad28 d0bd a8e6 a43c 525d 99bd a4e0 87bc
000003e0: 7c6e 14bd c95e 673d d525 07be 2b4e 9bbd
000003f0: 4230 69bc bee3 a83d 01f3 a33d 83de cf3b
0.023563402 -0.048545964 -0.1526847 -0.09137458 -0.023617515 0.10261782 0.04247822 0.007862039
-0.024740132 0.09705381 0.058699097 0.12431133 -0.06856113 0.14583434 0.01799689 0.0043402854
0.0039582206 -0.0038207923 -0.020883216 -0.009696487 -0.07886605 0.0037435982 0.07929371 0.017298898
-0.057419654 0.07842953 -0.02777131 0.038209002 0.035467155 -0.09636775 0.021099659 -0.075000726
0.043500274 0.06680768 0.02860399 0.06508179 -0.09256398 0.10456369 -0.18137673 0.043260127
-0.094095424 0.13768998 -0.03918795 0.0060377535 0.011930351 -0.031988442 0.06279441 0.093430735
-0.04368761 -0.040215272 -0.1627148 -0.03513034 -0.035945687 0.14066333 -0.04387798 -0.0017358187
0.10635918 0.11426286 -0.0013423861 -0.11667584 -0.060069673 0.051612742 -0.055955086 -0.15358077
0.0010613501 0.13456513 0.049744528 -0.20790875 0.07947496 -0.067000255 0.04648213 -0.070089586
-0.07833873 0.027790505 0.0020265228 0.033327963 -0.030452885 0.22204633 -0.10322975 -0.082919374
0.042008724 0.055267043 -0.015015333 -0.034868386 0.05906024 0.015784305 0.04698049 0.06788912
0.039133225 -0.035745624 -0.13531363 0.053394806 0.005493915 -0.06778089 0.06303609 0.096011296
-0.07352057 -0.017425822 0.112643816 -0.044360295 0.027723981 0.059350166 -0.042672105 0.06742717
-0.14338505 -0.113081306 -0.14034194 0.04592538 0.054064557 -0.0386879 -0.018543305 -0.04988311
-0.06396165 0.037078217 -0.044690277 -0.03784113 -0.06985296 -0.05651366 -0.038318437 0.02463174
0.11234771 -0.01131172 -0.0154912 0.04144206 0.046703428 -0.08149049 0.0016606661 0.04353612
-0.03317328 0.022631442 -0.044570196 0.05423941 -0.015666181 0.07621172 -0.048358206 0.046550393
-0.010693066 0.07188222 -0.0051657516 -0.01613599 -0.10437484 0.04305217 -0.049266376 -0.12110004
0.0845182 -0.15087707 -0.012518301 0.14160062 -0.01281584 0.059497964 0.08547347 0.04291508
-0.06778823 -0.028526718 -0.032286372 -0.12837142 -0.033473082 -0.10189704 -0.030656118 0.237786
-0.11608946 -0.09623922 -0.0033390983 0.089124784 0.08497686 -0.09076703 0.030256175 -0.110593684
-0.023050617 0.106841445 -0.018794054 -0.07725883 -0.021717286 -0.14125328 0.04968601 -0.042032026
-0.041783504 -0.012071537 0.07846061 0.02090306 -0.18869385 -0.041878413 -0.15755348 0.037753906
-0.04169491 -0.011677064 0.08214555 -0.11668501 -0.03118818 0.036892492 -0.049028672 0.031887185
0.03344373 0.06738772 0.12448857 0.11278087 -0.052003488 -0.029191397 0.12591021 0.03839522
0.033154596 0.06547737 0.0011147704 -0.083879404 0.011794716 0.12935813 0.056013335 0.024385123
0.057290774 -0.06850069 0.008710918 -0.0707127 -0.07258634 -0.030316418 0.08786919 -0.07847787
0.01339214 0.009337011 -0.052697286 -0.07160157 -0.05491865 -0.070473894 -0.1401479 0.06449529
0.097977005 0.045198143 0.06595926 0.016144816 -0.061166592 0.08874183 -0.013058993 -0.17727163
-0.012441183 0.122151844 -0.085551806 -0.023386138 0.022222903 -0.0054139104 0.04424925 0.015724955
-0.0068556364 0.016450632 0.034001097 -0.029575935 -0.10164008 0.020129517 -0.074885026 -0.01658661
-0.03623818 0.05648688 -0.13198026 -0.07583269 -0.014232697 0.082465634 0.08005334 0.006343664

cnn_blocks.0.convs.0.bias f4 [16]
00000000: bd34 ffb9 cb8c 31bc 31c8 e5bb e844 db3c
00000010: b554 a43d 8c88 4c3d ce7b 54bb 2dfe 9dbd
00000020: 16f2 8c3c 933e 0cbd c51a 1c3d 6974 193d
00000030: 6eb5 2c3a 7bcb 9abc f3c4 b13d 5b77 a8bd
-0.00048676683 -0.01083679 -0.00701239 0.026766255 0.08023969 0.04993491 -0.0032422426 -0.07714496
0.01720528 -0.034239363 0.038111467 0.037464533 0.00065883144 -0.018895855 0.08680143 -0.0822589

cnn_blocks.0.convs.1.weight f4 [16, 16, 3, 3]
00000000: aca9 943c 0edd a43d 6c2a 22bd 15c3 ddbc
00000010: d7f3 0abe cb9a 38bd 46f9 b3bd dd25 58bd
00000020: a605 91bd 55bd cabc 1240 9a3d 9b39 5abc
00000030: 825e a8bd a59e a23d 0917 2fbe 88b1 13bd
00000040: 6856 983d f579 233d 3cb4 0ebd 812a 64bd
00000050: 478f 913c fa51 0fbd 20d6 40bb 8b6e 0b37
00000060: 8fd8 4dbb 563b a5bd 9468 203d ab25 adbd
00000070: 581b 9cbd 8f5a fe3b 7a26 11bd bd71 89bd
00000080: 6219 33be 7e77 143e d53a 9fbc 5965 81bd
00000090: 1bdf d1bc 48c9 4b3d 1e55 3d3d a8ab 8f3d
000000a0: 0341 ff3d 2e54 113e bdf1 783d fad1 813d
000000b0: 8d19 b43d 0f45 6d3d 5534 49bd 693b e5bc
000000c0: 89aa fbbd 1461 43bd be70 c8bd c7b9 3c3e
000000d0: 50dc d2bc 5038 053d af86 b23d 577c 81bd
000000e0: 71b8 4fbc 2ef9 cf3d 3b06 6ebd c680 84bd
000000f0: bdbd 68bd 37c6 ac3d 63c7 c63d eacf 2fbd
00000100: 785d bebd f1d3 2d3c 4aca 71bc 5331 afbd
00000110: ad99 9a3d 37bf 433d 25bc c8bd 53ef bf3c
00000120: a244 573d c552 cc3d a8dd 633d b276 ba3c
00000130: 3b3d 3abc 3d61 053c 1828 823d 0f0b 2d3b
00000140: b3bd bebd 3f91 b43c 87b4 1d3d 6291 4abd
00000150: 4cfb b23d 100c d23c b89c 4fbd 0175 1f3a
00000160: 3471 6f3c 0b4f 2c3e 2d47 003e e68f c2bc
00000170: 35a8 063d cca5 013c 37f2 1a3e 73ab ac3d
00000180: 2e04 ea3c 0793 37bd 823f b0bc f965 e73d
00000190: 9708 92bd 685e 1cbd 7a29 40bd 52ea 8bbc
000001a0: b205 393c 1251 55bc ed61 fcbd 46fa a0bd
000001b0: 9a20 5fbe ba52 55bd 4fdb fdbd 9277 d1bc
000001c0: 862a 653d 4488 b0bd 7bc5 6d3c 9f4b 123d
000001d0: f96f 0a3e a2f4 563d af03 99bd 71fe a5bd
000001e0: fd5c 023e 2449 a23d 2e68 f6bc 3dac 0a3d
000001f0: 012e c0bc c67c 51bc 6d45 aabd 32bd d33b
00000200: 3d78 033e 60c3 763d 7ef5 d5bc 6a16 2c3d
00000210: 62db edbc b9e0 d33c 0cb9 423e 1714 833d
00000220: 1301 103e 16dc 4abd e246 5bbd f7bd 1fbd
00000230: 63cd 8b3c e5c7 053e 4b92 2db9 44c7 243e
00000240: a4b2 9e3d 5999 a3bd 4bdd afbd bdf7 62bd
00000250: 2fff 0ebe 82b2 9a3d be43 abbd ee82 ccba
00000260: f20d ccbc 2d11 353d b255 0bbe 42c9 c43c
00000270: 7a8e b53d defb f6bb 7129 c33d 48fc 1bbe
00000280: 48b0 27bc 92da 5f3d 851f db3d 7125 b339
00000290: ceae 3e3c bea0 2e3d 8894 a23d 1afe e4bc
000002a0: 2735 973c 8ec1 af3c 9052 a93d aa90 b5bc
000002b0: 1683 a43c 30d5 ad3d b834 0abd b699 ed3d
000002c0: cafb 003d f22f ad3d cdff 71bc ecad 04be
000002d0: 4407 9e3c 9d26 f4bc faec 8bbd eca0 ee3c
000002e0: 7723 e83d 746c 833b 721d 2dbe d2f9 7ebc
000002f0: 3687 f43c 699b 2b3e 2bd4 8a3c ac45 fa3c
00000300: 5cf4 123e b644 cb3a 8e89 a7bc 1557 47bc
00000310: a774 613d 6a94 663d 4de3 27bc dac7 6e3d
00000320: 852d e3bd 5a3e a3bd 0db3 60ba 89cd a2bd
00000330: 9cbd fcbd 2d03 b73b 01bc febc 31f8 23bb
00000340: fcd9 a7bc a4d9 3c3d bbd6 aa3d f20c 36be
00000350: 5c45 e93c a694 203d b3a0 a03d c4cd d6bc
00000360: fa3e 433d f6fe 443c f230 613d 5866 a0bb
00000370: c4eb 4fbc e12e 0ebe bbf0 afbd 32a4 9fbd
00000380: a556 04bd c142 62bb 785b 92bc 2c0e 433d
00000390: a538 0e3d 5180 9ebd e359 9c3c 97a7 223e
000003a0: 022b 32bd f50a c73d e137 5fbd 56b5 bfbd
000003b0: ac56 063e 7bb8 94bd b545 ef3d 968e 603d
000003c0: 66ba 5e3d 663f 843d a92c 5ebe 13fb 09be
000003d0: e93b 54bb e44b 50bd 7c17 883d bb76 75bd
000003e0: a58f 22be 8d64 963d 1291 9dbc 43b8 873d
000003f0: 174c 4b3d 4b6a 6dbd a019 a4bd eaaf d2bd
0.018147312 0.08049975 -0.039591238 -0.027070561 -0.1356958 -0.045069497 -0.087877795 -0.052770484
-0.070811555 -0.024748484 0.07531752 -0.013319398 -0.08221151 0.07940415 -0.17098631 -0.03605798
0.07438356 0.03991123 -0.034839854 -0.055704597 0.017768515 -0.03499029 -0.0029424503 8.310783e-06
-0.0031409597 -0.08067958 0.039162233 -0.0845445 -0.07622403 0.0077622603 -0.035437085 -0.06711147
-0.17490152 0.14498708 -0.019437233 -0.06318159 -0.02561908 0.049752504 0.046223752 0.07015163
0.12463572 0.14192268 0.060777415 0.06338878 0.08793936 0.057927188 -0.049122173 -0.02798243
-0.122883864 -0.047700003 -0.09787129 0.18430243 -0.025739819 0.032524407 0.08717095 -0.06322544
-0.012678252 0.10154949 -0.05811141 -0.06469874 -0.056821574 0.08436244 0.09705999 -0.04292289
-0.092951715 0.010609613 -0.014757702 -0.0855433 0.075488426 0.04778978 -0.09801511 0.023429548
0.052555688 0.099767245 0.05563131 0.022761676 -0.011367138 0.008140859 0.063553035 0.0026404297
-0.09313526 0.022041915 0.038502242 -0.049455054 0.08739337 0.025640517 -0.050686568 0.00060828036
0.014614392 0.16827027 0.12527151 -0.023750257 0.03287526 0.007913064 0.1513146 0.08431139
0.028566446 -0.04481795 -0.021514658 0.112987466 -0.07130545 -0.03817597 -0.046914555 -0.017079506
0.011292862 -0.013019817 -0.12323365 -0.07860236 -0.2178978 -0.052080847 -0.123953454 -0.02556971
0.055948757 -0.086197406 0.014512415 0.03571665 0.13519277 0.052479394 -0.07471406 -0.081051715
0.12730785 0.07924107 -0.030078974 0.033855665 -0.023459436 -0.012786096 -0.08314023 0.006461763
0.12838836 0.060244918 -0.026118036 0.042013563 -0.029035274 0.025863992 0.19015902 0.06400316
0.1406291 -0.049526297 -0.053534396 -0.038999524 0.01706571 0.13064535 -0.00016553064 0.16091639
0.07748917 -0.07988233 -0.0858713 -0.055412043 -0.13964532 0.07553579 -0.0836253 -0.0015602985
-0.024908993 0.044205833 -0.13606909 0.024021748 0.08865066 -0.007537349 0.09529389 -0.15232956
-0.0102349 0.054651804 0.10699371 0.00034169437 0.011638356 0.042633764 0.07938486 -0.027953196
0.018457962 0.021454599 0.08267701 -0.022163708 0.020082038 0.08487928 -0.033741683 0.11601584
0.031490125 0.084564105 -0.01477046 -0.12956971 0.019290574 -0.029803568 -0.06832309 0.029129468
0.113348894 0.0040107314 -0.16905764 -0.0155624915 0.02984963 0.16758503 0.016946873 0.0305508
0.14351028 0.0015508148 -0.020451333 -0.012166758 0.05504289 0.056293882 -0.010247064 0.058296062
-0.110926665 -0.07970877 -0.00085716025 -0.07949359 -0.123408526 0.0055850954 -0.031095507 -0.002501976
-0.020489685 0.046105996 0.08341738 -0.17778376 0.028475456 0.039204262 0.07843151 -0.026221164
0.04766748 0.012023678 0.05497832 -0.004895013 -0.012690488 -0.1388507 -0.085908376 -0.0779499
-0.032309193 -0.0034524652 -0.017865881 0.047620937 0.03472199 -0.07739318 0.01908583 0.15884243
-0.043498047 0.09718887 -0.05449665 -0.09360759 0.13119 -0.07261749 0.116832174 0.05482348
0.054376982 0.06457405 -0.21696724 -0.13474683 -0.0032384342 -0.050853625 0.06645104 -0.059927683
-0.15875109 0.07343397 -0.019234214 0.06626942 0.04963311 -0.057962697 -0.080127 -0.10287459

cnn_blocks.0.convs.1.bias f4 [16]
00000000: dab5 573c 0398 25bd 5be9 b3bc 7c74 a13a
00000010: 6cdc 8ebd 25db 223d 82f5 a3b9 7846 123d
00000020: cfc3 b5bb cf99 39bd 4c05 143d da0b 71bd
00000030: b34f 8a3c 69ab 5abd e390 d03d a413 f93b
0.013165915 -0.040428173 -0.021961858 0.001231804 -0.06975636 0.039759774 -0.000312727 0.035711735
-0.005547024 -0.0453127 0.036137864 -0.058849193 0.016883707 -0.053386126 0.10183885 0.0076012183

cnn_blocks.0.norms.0.weight f4 [16]
00000000: 3fff 773f 050b 7b3f c617 7e3f 6528 653f
00000010: 7db6 8c3f 4dff 733f fe43 813f 1b6d 7b3f
00000020: f137 7f3f c258 873f 57a9 8d3f deb9 793f
00000030: f518 7b3f 70c8 773f 5c0a 7c3f 26ab 833f
0.9687385 0.9806369 0.99255025 0.8951476 1.0993191 0.95311433 1.0098875 0.98213357
0.99694735 1.0573962 1.1067303 0.97549236 0.98084956 0.9679022 0.9845331 1.0286605

cnn_blocks.0.norms.0.bias f4 [16]
00000000: ca1f d0bd 8714 f4bd 5442 6ebd 7387 a4bd
00000010: 1691 50bd c0b9 13bd 4e14 14be d392 a3bd
00000020: 8e51 79bd 3003 10bd c50c 2bbd 891c 40bd
00000030: 39ef 0ebe a221 2bbd 05c8 563c 3aae 83bd
-0.10162313 -0.11917978 -0.058168724 -0.080336474 -0.050919615 -0.036065817 -0.1446087 -0.07986989
-0.060868792 -0.03515929 -0.041760225 -0.046902213 -0.13958444 -0.04178012 0.013109212 -0.064297155

cnn_blocks.0.norms.0.running_mean f4 [16]
00000000: e6a4 7abb 8acc 00bc ad0f e33d 0c4e a9bc
00000010: 3afb b23d fc7c 9f3d 56ef f1bd 5318 62bd
00000020: f0cb b93c c8f8 72bd b57f a43d b8bf 07be
00000030: 21a9 a6bd 42ed 0b3d 44e3 2cbc 9974 c5bd
-0.003824526 -0.007861266 0.11086974 -0.020667098 0.08739324 0.07787511 -0.11813228 -0.05519898
0.022680253 -0.059319288 0.08032171 -0.13256729 -0.081377275 0.034161814 -0.010552231 -0.0964138

cnn_blocks.0.norms.0.running_var f4 [16]
00000000: c0bf 5f3d 9256 203d b06e 423d 9af2 4a3d
00000010: 3ae6 233d 8177 333d 5a7a 453d cba4 473d
00000020: b78d 223d 840b 833d 3d08 3e3d e808 313d
00000030: 755c 373d 9124 3e3d 809f 883d 6b93 4c3d
0.054626226 0.03914506 0.04746884 0.04954777 0.040014483 0.04381514 0.048212387 0.048741143
0.03968593 0.06398681 0.046394575 0.043221384 0.04476591 0.04642159 0.06671047 0.049945276

cnn_blocks.0.norms.1.weight f4 [16]
00000000: 8abd 8e3f 4158 8a3f e978 993f 2fa9 933f
00000010: f1c8 8b3f 18f6 893f fed1 8a3f 9164 833f
00000020: 37b4 8e3f bfc5 963f c6de 893f fce1 8b3f
00000030: 7dc3 923f ae4a 8a3f 3da4 9e3f 6b28 863f
1.1151593 1.0808183 1.1990024 1.1536006 1.0920697 1.0778227 1.0845335 1.0265065
1.1148747 1.1779097 1.077111 1.092834 1.1465908 1.080404 1.2393872 1.0481085

cnn_blocks.0.norms.1.bias f4 [16]
00000000: 3886 3dbd ace3 afbc e98f da3b d2ca 26bc
00000010: 95d6 a43a d1f3 a8bd 2e6e 99bc ba39 893d
00000020: 0790 f03c 57c2 be3d eae1 2abd 5c6f af3c
00000030: 8583 af3b d1e2 263d 1de4 f43d 5765 11bd
-0.04627058 -0.021470867 0.0066699875 -0.010180192 0.0012576157 -0.08249629 -0.018729296 0.067004636
0.029365553 0.09314411 -0.041719355 0.021415405 0.0053562545 0.040743653 0.11957572 -0.035497036

cnn_blocks.0.norms.1.running_mean f4 [16]
00000000: 701c 7c3d 9f05 0dbe a1e1 c7bd 64f9 403e
00000010: 8e8d b9bd 3d16 bf3e 2592 0e3e 17c2 573e
00000020: 7b55 523e 1edb 82bd c5a2 4ebe 8b5e 1f3d
00000030: 4d1f a83e 426d 57bd a80f 883e d252 4fbd
0.061550558 -0.13771676 -0.09759832 0.18845135 -0.090602025 0.37321654 0.13922937 0.21070133
0.2054042 -0.063894495 -0.20179279 0.038908523 0.3283638 -0.05259443 0.26574445 -0.050616093

cnn_blocks.0.norms.1.running_var f4 [16]
00000000: c370 d43d 340f d43d 3377 bc3d b063 063e
00000010: b84e 1c3e e46e da3d 64a8 ef3d 9b3d 083e
00000020: 4772 fe3d d97b e33d 68bc f63d 70c6 d43d
00000030: 7026 e93d 2fa3 253e f47f e63d 792d bf3d
0.1037307 0.10354462 0.09202423 0.13123965 0.15264404 0.10665682 0.1170204 0.1330475
0.124241404 0.111076064 0.120476544 0.103894114 0.113842845 0.16175531 0.11254874 0.09334845
