checkpoints/scratch_d3/best_model.pt (torch, 256405 bytes, 142 tensors)

embedder.feature_projections.0.weight f4 [32, 1]
000000 90 be 36 3f c4 9c d5 3e a5 25 c7 be e1 10 75 3f
       0.71384525 0.41721165 -0.38895908 0.9572888
000010 bf 64 1d bf 4e f6 87 bd 36 70 ba 3d e6 f8 9e bf
       -0.6148185 -0.06638776 0.09103434 -1.2419708
000020 d2 9b 2d bf 82 94 64 bd e6 63 37 3f 0d 06 94 bf
       -0.6781589 -0.05580569 0.7163681 -1.1564347
000030 ff a2 77 bf d3 0b 51 bf 9d 8f 9c be c8 d7 9c 3f
       -0.9673309 -0.8165867 -0.30578318 1.2253351
000040 c1 8c 03 bf ac 6a 53 bf 1a 86 89 bf bc e7 7d 3f
       -0.5138665 -0.82584643 -1.074405 0.99181724
000050 9a fb 96 3e b7 2e 85 3f f9 7b 19 3e 8c b2 09 bf
       0.29488832 1.0404881 0.14988698 -0.53788066
000060 f5 6b ed be 7d 4e d4 bc ac 87 7b bf 7d b5 ed be
       -0.46371427 -0.025916332 -0.98253894 -0.46427527
000070 8b 11 c6 be 29 3e 2a 3f 2d 9b 6f 3f a8 2a 0d bf
       -0.3868526 0.665011 0.93596154 -0.55143213

embedder.feature_projections.0.bias f4 [32]
000000 7e 7d 2a 3f 7a 21 fe 3e 15 1a 15 bf 0c 45 17 bf
       0.66597736 0.49634916 -0.58242923 -0.5908973
000010 15 a3 0a 3f de fb ed 3e 93 d7 8b be 2f f9 06 3f
       0.54155093 0.46481222 -0.27312908 0.52723974
000020 5e 58 48 3f 93 fc 0f bf 8e 3b 90 3c f3 8b db bd
       0.7825984 -0.5624477 0.017606523 -0.107200526
000030 ba c3 1c bf 4e f6 c9 3d 37 73 29 3f c9 4e 95 bd
       -0.61236155 0.09861432 0.6619143 -0.07290418
000040 82 1e b7 3e 6b 9c 15 3f 0f fd 19 3f 1a 11 4e be
       0.35765463 0.584418 0.6015176 -0.20123711
000050 08 72 6e bf db 70 16 bf 73 b6 16 3f 74 e9 5e bf
       -0.9314275 -0.58765954 0.58872145 -0.8707497
000060 ca c6 49 3f dc be 59 3c 26 bd 60 3f ac 50 ea 3e
       0.78818953 0.013290133 0.8778862 0.45764673
000070 30 ba f8 be 92 e1 9d bd ef d2 62 be 37 b2 e3 3e
       -0.4857955 -0.0770904 -0.22150777 0.44471905

embedder.feature_projections.1.weight f4 [32, 1]
000000 07 1e 3b bf a5 77 5a bf 62 78 7c 3f b2 5e e0 3e
       -0.73092693 -0.85338813 0.9862119 0.43822247
000010 d7 67 4a 3f 20 6b 64 3d 44 7b c9 bb b8 93 e8 be
       0.790647 0.055766225 -0.0061487276 -0.454252
000020 92 28 6a 3e 6c c4 97 3e 60 1e 27 bf c0 38 88 3d
       0.22867039 0.29642045 -0.65280724 0.06651449
000030 da c1 36 3e ac 7f 33 3f bd 91 04 be 3e d8 28 3f
       0.17847386 0.70116687 -0.1294622 0.6595496
000040 46 db 3e bf dc f7 b8 3e f0 61 22 bf 92 e2 51 3f
       -0.74553335 0.36126602 -0.6343069 0.81986344
000050 b4 9a 33 3f b9 49 01 3f 50 f2 c2 be 42 e4 e2 be
       0.70157933 0.50503117 -0.38075495 -0.44314772
000060 b2 40 d9 be ad 84 37 3f a0 57 0e 3e e1 e1 f2 be
       -0.4243217 0.7168682 0.13900614 -0.47437957
000070 c1 5c 02 be 91 8f c7 be 6d 0e cf 3e d7 99 50 bf
       -0.12730695 -0.3897672 0.40440693 -0.8148474

embedder.feature_projections.1.bias f4 [32]
000000 cb d0 d1 be 59 6d 25 bf fd 42 4c bf 91 9e 79 3e
       -0.4097961 -0.64619976 -0.79789716 0.24376895
000010 90 5c d1 3e 81 48 da bc 71 b2 89 3d d3 17 63 bf
       0.40890932 -0.0266459 0.06723488 -0.8870823
000020 14 5a 2a bf 49 df 30 bf ed be f2 be a6 81 20 3f
       -0.665437 -0.69090706 -0.4741129 0.6269783
000030 59 d4 43 bf bb 3d 3b 3f 2f d4 67 3f 83 68 00 3f
       -0.7649589 0.7314107 0.9055814 0.5015947
000040 a0 ec 5e 3e 7c 6b d9 be 8c 51 e5 3b fa 96 01 3f
       0.21769953 -0.42464817 0.0069982465 0.50620997
000050 24 78 5f 3f 95 87 1b 3f fe 54 a4 3e 61 0a d1 3e
       0.87292695 0.60753757 0.32096094 0.4082823
000060 63 10 dc 3e 4f e9 98 3e e8 ff 02 3f 70 f3 72 3e
       0.42981252 0.298655 0.5117173 0.23725677
000070 02 69 74 3f b9 38 18 bf 88 56 ac 3e 39 86 0a be
       0.9547273 -0.5946155 0.33659768 -0.13527764

embedder.stabilizer_embedding.weight f4 [8, 32]
000000 a1 5c 90 3f 2b c1 8a bf db 62 8e 3f 0d 3f d5 be
       1.1278268 -1.08402 1.1123918 -0.41649666
000010 60 34 16 40 5b ba 2a 3f 57 c2 c8 3e c0 2d 49 bd
       2.3469467 0.66690606 0.3921077 -0.049115896
000020 dd 96 57 3f 5b ed 7c 3f 8f 87 db 3f c1 a7 35 bf
       0.84214574 0.98799676 1.7150744 -0.709591
000030 6d d6 2f 3e 58 8b af bd 2c 49 dc bf d7 55 86 bf
       0.1717164 -0.085714996 -1.720983 -1.0494946
000040 a8 f7 1a bf 62 e0 e9 bf f8 07 af 3f 17 87 f0 3d
       -0.60534143 -1.8271601 1.3674307 0.11744516
000050 a5 2c 60 be a0 e9 78 bf bb 17 ae bf 75 4c 58 3f
       -0.2189203 -0.97231483 -1.3600992 0.84491664
000060 0d e1 08 bf c2 b2 17 3f 77 9b 20 3e 71 08 f0 3e
       -0.534684 0.5925714 0.15684305 0.4688144
000070 62 78 f3 3e 63 d3 86 bf fd ef f1 3e 5a 46 63 be
       0.47552782 -1.053326 0.4725341 -0.22194806
000080 42 5a 34 bf ec 7d 4d bf 4d aa 22 bf e3 ea 7e bd
       -0.7045022 -0.80270267 -0.6354111 -0.062235724
000090 82 0f ea 3d 7e 00 55 3e 40 b0 97 3f ca ae 3c bf
       0.11428739 0.20800969 1.1850662 -0.73704207
0000a0 04 e8 90 bf ed f2 53 bf 5a 31 76 bf f7 3c 63 bf
       -1.1320806 -0.8279255 -0.96169055 -0.887649
0000b0 e7 76 84 be ef 73 e7 3e e5 21 92 be 6e ff e4 bd
       -0.25871965 0.45205638 -0.28541484 -0.11181532
0000c0 9f da 03 3f 10 30 22 bc 30 b6 25 3f a7 81 c0 be
       0.51505464 -0.009899154 0.6473112 -0.37598917
0000d0 9d 65 55 bf 9c e5 02 40 1b 0d ba 3f b1 a4 4b 3f
       -0.83358175 2.0452642 1.453525 0.79548174
0000e0 fe 78 bb bf c0 0b 12 40 29 ee 32 be 7c 4c 1d bf
       -1.4646299 2.2819672 -0.17473663 -0.6144483
0000f0 a1 ea 5a 3d dc b5 56 3f 72 69 9e 3f 7a 64 01 3f
       0.053446416 0.83871245 1.2375929 0.5054394
000100 72 9b 12 bf 22 d6 1f 3e bb 78 5b 3e 51 6a 82 3e
       -0.5726844 0.15609029 0.21432774 0.25471738
000110 7a 28 e7 3e 05 04 8c bf bf dc 22 3e 5a e4 f3 3e
       0.4514807 -1.0938727 0.1590452 0.47635156
000120 d2 fb 77 bf 2e e0 f8 3e 5e 6d 2d bf a6 21 b4 bf
       -0.9686862 0.48608536 -0.67745006 -1.4072769
000130 8f 93 a8 be 94 f8 51 bf 05 10 6d bf f0 0f 32 3e
       -0.32925078 -0.82019925 -0.9260257 0.17388892
000140 17 71 e8 3f 29 b0 1e bf 72 d6 d8 3f ee 25 10 bf
       1.8159512 -0.6198755 1.6940444 -0.56307876
000150 ae 9a 11 bf 22 4d 6d be 8d 3b 1e bf 13 36 8b 3f
       -0.5687665 -0.23173955 -0.6180962 1.0875877
000160 da 84 6d 3f 68 08 78 3f da bf 9c bf d5 e7 51 3f
       0.9278084 0.96887827 -1.2246048 0.8199437
000170 ed 07 84 3e f1 13 21 3e b3 c0 e5 bf 71 a8 db 3f
       0.25787297 0.15730263 -1.7949432 1.7160779
000180 46 b0 61 bd 0e 5d 11 3d 90 f9 f1 3f 23 0c 1f bf
       -0.055099748 0.035489134 1.8904285 -0.62127894
000190 50 17 13 c0 be f7 26 bf 04 72 33 3f cd cd e3 be
       -2.298298 -0.65221775 0.7009585 -0.4449295
0001a0 70 34 6a 3f e9 6f 3b 3f 97 75 d9 3d ac a1 bf 3f
       0.91486263 0.73217636 0.106181316 1.4971213
0001b0 e0 a4 b1 bf 32 31 36 bf df de 27 3f 9d 01 1c bf
       -1.3878441 -0.71168816 0.6557445 -0.6093996
0001c0 c3 ee 62 40 5b fd 3e 3c b7 45 80 bf c5 2a c4 bf
       3.5458229 0.011657084 -1.0021275 -1.5325552
0001d0 cd 9b 6e be e4 42 ec bf 88 57 6e be 1d eb 09 3f
       -0.23301621 -1.8457913 -0.23275578 0.5387438
0001e0 a9 35 43 3f e4 c2 14 3f 0b a3 58 be eb 9c 62 3d
       0.76253754 0.5810988 -0.21155946 0.05532543
0001f0 6d dd 2d bf fe 98 b3 bf b5 bb 10 be fe ba d5 be
       -0.67915994 -1.4031065 -0.14134105 -0.41744226
000200 4d 96 60 be 85 bb 8e be 8c 5b 49 3e db 9d c2 bf
       -0.21932335 -0.2787744 0.19663829 -1.5204424
000210 27 8f e3 3f 4e 8c d8 be 49 62 01 3f 13 00 55 bf
       1.7778062 -0.42294544 0.50540596 -0.8320324
000220 fc 05 c1 3e 5f 1e 2f 3f 58 65 19 bf 70 5a 80 3d
       0.37699878 0.6840572 -0.59920263 0.062672496
000230 39 1d 84 be 76 d6 d3 be 21 ca 4d 3f f8 c7 1e 3f
       -0.25803545 -0.41374558 0.8038655 0.6202388
000240 7e 48 0b bf 4c b4 47 bf 0c 9c 3c be 0e 21 84 be
       -0.5440749 -0.78009486 -0.18418902 -0.2580647
000250 a6 73 ff bf 59 ee 16 40 85 1e 3d bf ed 7f 2c 3e
       -1.9957168 2.3582976 -0.73874694 0.16845675
000260 72 c3 a9 bf 6b 26 a0 be 9f f6 a1 3e c0 1b 96 3e
       -1.326277 -0.3127931 0.3163347 0.29318047
000270 c9 f3 20 bd b2 44 80 bf 8c 05 0b 3c b1 ed 9e 3e
       -0.03929499 -1.0020964 0.008485209 0.3104072
000280 93 2e c3 be 69 08 bb bf 03 d6 21 bf a5 84 ec bd
       -0.3812147 -1.4611942 -0.6321718 -0.115487374
000290 4c bb bf be 0c 48 95 bc 7f ac 52 3f 6e b2 bf bb
       -0.37447584 -0.018222831 0.8229446 -0.005850128
0002a0 b3 79 95 3f 65 4b 16 3f 19 6e e2 be 6f 8e 27 bf
       1.1677765 0.5870879 -0.44224623 -0.6545171
0002b0 ec cf 04 be b4 ca 21 40 05 3a 49 3d a9 9c 88 bf
       -0.12969941 2.527997 0.049127597 -1.0672809
0002c0 cd 77 04 c0 a8 7a b9 be 75 9a 3a 3f 3b 78 f1 be
       -2.069812 -0.36226392 0.7289193 -0.4716204
0002d0 c7 8c 60 be ed e9 cc be 04 d0 fc bf 57 97 b2 3e
       -0.21928702 -0.4002222 -1.9750981 0.34881088
0002e0 63 7f 1a bf 3b b7 07 40 54 5e 9a 3e 07 2c ea 3f
       -0.60350627 2.1205585 0.30150092 1.8294686
0002f0 e1 39 8b 3d 65 d7 60 3f 7e 6c a2 bf 8a 94 85 3d
       0.06798149 0.87828666 -1.2689359 0.06522472
000300 8d 2c c0 3f 75 5f c8 3e 20 5b c0 bd 8e 0b 36 3f
       1.5013596 0.39135328 -0.09392381 0.7111138
000310 5a b5 cd 3e 7c 8a 6f 3f d9 10 81 3e 2b cf ac 3e
       0.40177423 0.93570685 0.25208166 0.33751807
000320 48 61 ac bd 30 56 33 3e 6d 4f 40 bf 00 70 e6 3f
       -0.084169924 0.17513347 -0.75121194 1.800293
000330 97 64 18 bf c4 4f 15 3f c3 3a b2 3d b5 f9 be 3f
       -0.5952849 0.5832484 0.08702614 1.4919955
000340 06 6a 02 bf 41 27 36 3e bd 89 ba be d6 17 4f 3f
       -0.5094303 0.17788412 -0.3643321 0.80895746
000350 a7 f7 40 bf 3b 3d ac 3e 3c a3 b2 3d b4 64 08 40
       -0.7537789 0.33640465 0.08722541 2.1311464
000360 1a 46 76 be 0d 03 4c 3e e5 d2 31 bf 28 42 0f 3f
       -0.24050179 0.19923039 -0.69462425 0.5596032
000370 ce 64 4d bf 8d d0 40 3f c5 77 3b 3f ca 61 f3 3f
       -0.8023194 0.75318223 0.7322963 1.9014218
000380 27 d1 94 bf b6 ee a2 bd 3e ad 05 bd 62 ce 7b bf
       -1.1626328 -0.07955687 -0.03263592 -0.9836179
000390 2e 0b 19 bf b0 a5 cc bf 68 e7 00 bf ad 74 be 3e
       -0.59782684 -1.5988064 -0.503531 0.37198392
0003a0 49 4f fa bc e7 e1 f9 bf f1 57 77 3d a7 e5 24 bf
       -0.030555384 -1.9522065 0.0603866 -0.6441292
0003b0 1c 7e 50 3d 04 fb 9b bf e7 3c ab be e0 af f1 bf
       0.050901517 -1.2185979 -0.33444902 -1.8881798
0003c0 2a 45 f0 be 40 14 28 bf 7e fc d5 3e cc 82 b2 bf
       -0.46927768 -0.656559 0.417942 -1.3946166
0003d0 81 fd 6e 3f 95 24 5e 3f 2f 9f d1 3c 7c 86 a1 3f
       0.93355566 0.8677457 0.0255886 1.2619166
0003e0 bc 57 a2 bf c8 f8 92 bf e0 d4 0e 40 e0 bf 46 3f
       -1.2683024 -1.1482172 2.2317429 0.7763653
0003f0 1d 95 f1 3e 7a 6e a8 bf 8f 74 c2 3e 1f 29 e0 3f
       0.47184077 -1.3158715 0.37979552 1.7512549

embedder.res_block.0.weight f4 [32]
000000 04 3d 8c 3f c9 82 87 3f 6e e3 7d 3f 94 62 88 3f
       1.095612 1.0586787 0.99175155 1.0655084
000010 8f 26 76 3f 8f ec 72 3f 28 17 73 3f 0d 01 87 3f
       0.96152586 0.9489221 0.9495721 1.0547196
000020 74 49 7d 3f df ac 72 3f 68 0b 88 3f f1 c0 89 3f
       0.98940206 0.9479503 1.0628481 1.0762006
000030 39 f9 75 3f c0 6d 84 3f 98 d1 77 3f 60 d3 84 3f
       0.9608341 1.0345993 0.9680419 1.0377007
000040 7b 47 68 3f c7 5a 84 3f 3a 77 8d 3f 0f 7c 83 3f
       0.9073407 1.0340203 1.105201 1.0272235
000050 79 aa 74 3f 04 94 84 3f f8 45 79 3f 11 b1 83 3f
       0.9557262 1.0357671 0.9737239 1.0288411
000060 00 0d 77 3f df db 65 3f 63 a1 74 3f c0 c7 81 3f
       0.9650421 0.8978862 0.95558757 1.0139084
000070 9a 94 7a 3f 6e 19 8b 3f d9 b1 8c 3f a9 30 6e 3f
       0.97883 1.0867136 1.0991775 0.93043

embedder.res_block.0.bias f4 [32]
000000 f6 c0 bf bc 04 d5 24 bc af dc df 3d 74 67 4f 3b
       -0.02340744 -0.0100605525 0.10930764 0.0031647356
000010 cb 91 2c bd d9 f4 fe bc 1a b8 04 bc 4d c1 1b 3d
       -0.042131227 -0.031122612 -0.008100534 0.038026143
000020 eb 40 a2 3c dd f1 72 3d 19 83 61 3c 2b 90 89 bc
       0.019806346 0.05931269 0.013764166 -0.016792377
000030 29 93 97 3d 7e a0 ac bc ca b6 65 bc 1e a3 5f bd
       0.074011154 -0.021072622 -0.014020631 -0.05459892
000040 3b 0a 11 bb 33 e9 8b 3d 5b 5f 53 3c db c8 8d bc
       -0.0022131342 0.068315886 0.0129011525 -0.01730769
000050 f2 44 9b bc dd 3e c2 bb 23 48 1b bd 56 3f 8d bc
       -0.018953774 -0.005927904 -0.03791059 -0.017242115
000060 c0 fa 8e 3c 16 f1 bd bd ee cf 0f bc 93 84 31 bb
       0.017453551 -0.09274499 -0.008777602 -0.0027087077
000070 ce 6f 11 3c 01 99 98 bc 36 97 32 bc 24 24 46 bc
       0.008876754 -0.018627645 -0.010900309 -0.0120935775

embedder.res_block.1.weight f4 [32, 32]
000000 e8 10 9d bb 14 8f 17 3e 1a 09 16 be 8a 68 09 3e
       -0.004793275 0.14800674 -0.1465191 0.13418785
000010 af 76 34 be a4 43 13 bd 13 72 2a 3e 62 49 10 3e
       -0.17623399 -0.03595318 0.16645078 0.14090493
000020 dd c9 2d be 23 38 7c 3c f0 22 2f be a9 f0 d7 3d
       -0.16971536 0.015394243 -0.17103171 0.10543949
000030 bf e2 f2 3d 2c 20 15 3e f3 bb 27 be cd b3 e7 bd
       0.11859655 0.14563054 -0.1638029 -0.11313591
000040 a2 e0 c0 3d 33 06 08 be df 87 a1 bd 34 ed c0 bc
       0.09417845 -0.13283615 -0.078872435 -0.023550607
000050 53 1b 81 bc e1 64 f3 3d d1 14 b3 3d 77 ab be bd
       -0.0157601 0.118844755 0.08744205 -0.09310048
000060 36 4f 15 be a2 b2 c2 3c b8 8e 20 bd b2 78 d3 bd
       -0.14580998 0.02376682 -0.039198607 -0.10325755
000070 fc 02 21 bd a7 2a bf 3d 11 59 7a bc 42 ac 51 bd
       -0.039309487 0.09334307 -0.015280024 -0.05118967
000080 c4 33 b0 bd 11 8f 61 3a c1 1e fa 3b 1c f6 2b bd
       -0.086036235 0.00086043874 0.0076330607 -0.041982755
000090 70 c8 0f 3d 82 60 0c 3e 65 b9 31 be d6 66 17 3e
       0.03510326 0.1370869 -0.17355879 0.14785323
0000a0 90 41 1c be c7 0a 4a 3e 67 f2 14 3e 5c 8e 21 3e
       -0.15259385 0.19730674 0.14545594 0.15776962
0000b0 3c 1f 5f 3d 2d b6 96 3c 4f d9 c3 3d d8 34 07 3e
       0.054473147 0.018397415 0.09562933 0.13203752
0000c0 66 62 a2 3d c8 97 18 3e d5 c4 6a bc 23 27 f1 bd
       0.07928924 0.1490165 -0.014329155 -0.11775043
0000d0 5a ec 2b 3b a1 13 67 3c 38 28 68 3d dd f8 04 3e
       0.0026233406 0.014103801 0.05667898 0.12985559
0000e0 00 7e 55 3d d9 0e aa 3d 1f 5b 19 be 6b c3 2b be
       0.052122116 0.08303613 -0.14976166 -0.16773765
0000f0 f5 0a b7 3d da 32 8b 3d c3 1f e0 bd 5c 55 de bd
       0.08937637 0.067968085 -0.10943558 -0.10856125
000100 1e 33 38 3c 02 74 66 3e 24 1e 18 be b3 6f 09 be
       0.011242656 0.22505191 -0.14855248 -0.13421516
000110 46 fa a6 3d 73 2c 65 bd 62 48 25 3d 84 c5 a0 3c
       0.081532046 -0.055950593 0.040352233 0.019625433
000120 74 ba 0f bd db 2d 20 bd fa e2 cf 3d 74 8b 9d 3c
       -0.035089925 -0.03910623 0.10150714 0.019231535
000130 94 8c 01 3e 3e 12 70 be 85 c2 6d 3d b2 fb 4c bd
       0.12651283 -0.23444459 0.058046836 -0.050044723
000140 40 8f 50 3e b2 8d f1 bd a5 0a f3 bd f2 4d 05 3d
       0.20367146 -0.11794604 -0.11867265 0.032545038
000150 cc 7e bb 3d ec 2f 68 be 41 de fe 3d 6c 8d 17 3e
       0.09155044 -0.2267453 0.12444735 0.14800042
000160 3c f1 b1 3d c6 b4 0f bd 2b 9d 87 3c 46 17 1c bc
       0.0868859 -0.03508451 0.016554436 -0.009527033
000170 ec a6 63 3d ae 06 9a 3d e0 b4 c3 bb 32 3e ec 3d
       0.05557911 0.07520805 -0.0059724897 0.115353
000180 ed 72 97 be ab 4a 56 be d6 40 12 3e ed a4 78 be
       -0.2957987 -0.20926921 0.14282545 -0.24281664
000190 26 b0 3e 3c 8a 48 5d be 63 bc 04 3c 25 4b e4 bc
       0.011638677 -0.21609703 0.0081015555 -0.027867863
0001a0 bf 6e d0 3c 96 a3 05 3c 98 ac 5b be 62 63 c7 bb
       0.025443433 0.008156678 -0.21452558 -0.0060848454
0001b0 77 23 11 3e c2 2c 05 3e 2b 71 e3 3c ee ee 5c bd
       0.14173685 0.13005355 0.027763924 -0.0539388
0001c0 5f 64 d7 3d 7e 33 8d 3c 6d 96 8e 3d 1e e8 9f bd
       0.10517191 0.017236467 0.06962285 -0.07807945
0001d0 e6 2a f6 bd 61 4a 41 bd 9d d7 cf bd 0c 96 21 3d
       -0.12019901 -0.047190074 -0.10148547 0.039449736
0001e0 77 c6 f8 bd 44 d4 40 bb fc a2 0e bd 8b 88 26 3d
       -0.12147229 -0.0029423395 -0.034823403 0.04065756
0001f0 51 d8 fb 3c a2 f1 ba bd 59 8a 54 bd f0 67 28 3e
       0.030742796 -0.09128119 -0.05188975 0.16445899
000200 4d 51 80 be 0c ff 4e be 8c 6a 2a bd 54 0f 02 be
       -0.25062028 -0.2021448 -0.041605517 -0.1270116
000210 42 8b b8 3d d1 f9 f7 bc e5 7b 01 be da 99 e2 bd
       0.09010936 -0.030270489 -0.12644918 -0.11064501
000220 06 9e fc bd 67 41 09 bd 78 03 fb bc 5b c1 21 3e
       -0.12334828 -0.03350964 -0.030641302 0.15796416
000230 82 21 b7 bc 6b a5 43 3e d6 09 fc 3d b9 6d 30 be
       -0.022354845 0.1910607 0.123065636 -0.17229356
000240 46 54 a0 3d b8 7f ed 3a ec 05 8d 3e b3 84 5f be
       0.07828574 0.0018119728 0.2754358 -0.21827964
000250 15 54 7f bd 14 72 28 be 0c ff 17 be 5f af b6 bc
       -0.062336046 -0.16449767 -0.14843386 -0.02230042
000260 2b d3 36 3e b1 12 df bd b4 2b 5c 3e 1a 98 9b bd
       0.17853992 -0.10892237 0.21501046 -0.075973704
000270 f6 4c a9 3d 2c 40 4d be fb 06 6d be ac e8 1a 3d
       0.08266632 -0.20044011 -0.23147194 0.03781955
000280 3b 4d eb 3d 9e 40 0c be a6 92 86 3d 13 a4 98 3d
       0.1148934 -0.13696525 0.0657094 0.0745317
000290 ed fc 5a 3c 87 e4 4c be 3e 80 8e 3c d4 5b 2f be
       0.013365966 -0.20009051 0.017395135 -0.17124873
0002a0 c7 11 ec 3c 71 1e 3a 3e b7 f8 0d 3e 29 2e ed bd
       0.02881707 0.18175675 0.13864408 -0.1158107
0002b0 a9 ae 29 bd 0f 53 8e 3d 70 b9 37 3b ae a9 8d 3c
       -0.041426335 0.06949436 0.0028034113 0.017292824
0002c0 10 2e a1 3d e4 9e 14 be 1f 23 98 3d 73 87 d0 bc
       0.07870114 -0.14513737 0.07428574 -0.025455212
0002d0 ea cc 0b 3e 66 94 13 3e 29 a1 2b be c4 97 02 bb
       0.13652387 0.14412078 -0.16760696 -0.0019926885
0002e0 17 75 c0 3d fe 02 a1 3d 60 3c ec 3d 8c eb 81 bc
       0.09397333 0.07861899 0.11534953 -0.015859388
0002f0 ac 0e 69 bd 33 1b 06 3e c1 95 09 be 55 a2 6c 3c
       -0.056898758 0.13096313 -0.13436033 0.014443
000300 18 a2 8a bd 2a 53 b1 bd 22 4a 07 be 7a d7 1b 3e
       -0.06769198 -0.086584404 -0.13211873 0.15218917
000310 68 ff 34 3d 1c bb 00 3e dc c5 d1 3d 31 1c ac 3d
       0.044188887 0.12571377 0.10242817 0.084038146
000320 86 4e 28 be 60 99 07 be 4f f9 64 3e f5 31 d6 bd
       -0.16436204 -0.13242102 0.22360729 -0.10458747
000330 dd ce 3f be d9 1f 6d bb 6e 8b 89 bd d9 03 41 3d
       -0.18731256 -0.0036182313 -0.06716047 0.04712281
000340 0a 6d 89 bc 72 7a e8 bd 74 d6 cb bd a6 b9 88 3e
       -0.016775627 -0.113514796 -0.09953013 0.2670414
000350 98 fb b9 bd e0 93 1e 3e 02 dd 91 bd 3d af f4 3c
       -0.09081191 0.15486097 -0.07122232 0.029868716
000360 e3 b6 09 be d2 e7 f0 bd 6b f4 b7 bd b6 3e 7f ba
       -0.13448672 -0.11762966 -0.08982166 -0.00097368227
000370 ad 9c cb bc 3a 16 52 3d 61 31 91 3d 3f 1d d9 3d
       -0.024854982 0.05129073 0.070894964 0.106012814
000380 51 91 22 bd 03 e3 28 3e fb 32 3e 3e 8c f5 44 3d
       -0.039689366 0.16492848 0.18574135 0.048085734
000390 3b 23 90 ba b1 25 50 3d 8b 0f 98 bd 8a 4d a9 3b
       -0.0010996828 0.050817195 -0.074248396 0.005166714
0003a0 90 b0 0b 3d 72 67 0d bd 56 33 06 3e c5 62 a6 3d
       0.03410393 -0.03452248 0.1310552 0.081243075
0003b0 00 b9 39 3e 6e c9 e3 bd a9 6c d7 bd 05 b3 fb 3c
       0.18136978 -0.11122404 -0.10518772 0.030725012
0003c0 fc 68 ec 3d 57 07 78 bd e9 a3 48 3d 74 41 09 3e
       0.11543462 -0.060553875 0.048984442 0.13403875
0003d0 91 9a 88 3d 9f c3 f4 3d 2d 2e 52 be 57 c6 a2 bc
       0.06670106 0.11951374 -0.20525427 -0.019869966
0003e0 01 20 90 3d ca e0 1d be 87 41 d8 bd aa e5 7e bd
       0.07037354 -0.15417781 -0.10559373 -0.062230743
0003f0 b5 50 7f bd ef 04 3e 3e 64 84 d1 3c 6a 0f 26 bc
       -0.062332828 0.1855657 0.025575824 -0.010135511

embedder.res_block.1.bias f4 [32]
000000 9c 07 24 3e 61 9b 97 bb cf 05 5c bd 57 a6 cf 3d
       0.16018528 -0.004626677 -0.053716477 0.10139149
000010 7e 42 ba 3d 9a db ef 3d c3 6c 16 3e 19 ed e7 bd
       0.09094714 0.117118075 0.14689927 -0.1132452
000020 fb fe 3e 3e 6f a8 be 3d 75 ff 18 be 12 a2 1c be
       0.18651955 0.0930947 -0.14941199 -0.152962
000030 63 d7 32 bb 85 a3 75 3c cd 5f a4 bd 40 66 8d bd
       -0.0027289025 0.014992599 -0.08026085 -0.06904268
000040 e7 50 dc bd df 6c e1 bd d8 f6 1e be ba 55 8d bc
       -0.107576184 -0.11007094 -0.15523851 -0.017252792
000050 4b 73 57 bd ae d6 42 be 5a 33 d2 3d e6 9c 35 3e
       -0.052600186 -0.19027206 0.10263701 0.17735633
000060 98 e2 1c be 6c 2c c8 3d 28 5b a4 bd ce 50 28 3e
       -0.15320814 0.09774098 -0.08025199 0.16437075
000070 05 c1 ec 3d 0d 58 37 3e 5c df 2e be ea 49 15 bd
       0.11560253 0.17904682 -0.17077392 -0.036447443

embedder.res_block.3.weight f4 [32, 32]
000000 94 e5 2d 3e 89 0f 0d be a4 4c 62 3d 0f 80 0f be
       0.16982108 -0.13775457 0.05524887 -0.14013694
000010 72 7c 66 be 98 8e 1f 3e 9e 8c 0b 3e 58 52 2a 3e
       -0.2250841 0.15581739 0.1362786 0.16632974
000020 ff 82 15 be c9 06 12 be c4 62 d3 bd ae c1 2f 3e
       -0.14600752 -0.14260401 -0.103215724 0.17163727
000030 2b 58 01 be 37 ac 6e be 09 ca ac bd fa 08 0a bc
       -0.1263129 -0.23307882 -0.08436973 -0.008424992
000040 02 b2 fb 3d fa e2 7e bd 96 bd 8e 3d f7 68 c7 3d
       0.12289812 -0.06222818 0.069697544 0.09736817
000050 27 af 09 be c7 0b f2 bc 34 6b 1f 3e f1 03 2f 3e
       -0.13445722 -0.029546632 0.15568238 0.17091347
000060 be c9 d9 bd e3 93 ef bd c1 ae a4 3d 2f 44 27 3e
       -0.106341824 -0.11698129 0.08041144 0.16334604
000070 d6 8a c9 3c c8 2e 2a be 59 3b 29 3e 42 2c 38 3e
       0.024602335 -0.16619408 0.16526546 0.17985633
000080 78 67 08 3e 46 6b 0a be 8a ca 5b 3d 98 5e 48 3e
       0.1332072 -0.13517484 0.053659953 0.19567335
000090 e2 e5 52 3d 7c 6b a8 bd c0 41 f0 bc d5 e8 a0 bd
       0.051488765 -0.08223626 -0.029328227 -0.07856909
0000a0 7d 7f 24 3d f5 a2 3a 3d 49 81 96 3d 32 f3 a9 3d
       0.040160645 0.045565564 0.07348878 0.08298339
0000b0 ef be be bc 89 1f 10 3d 19 f9 94 3d e0 25 03 3d
       -0.023284404 0.035186324 0.07274074 0.032018542
0000c0 92 b8 0c be 2b 2b db bd e1 11 ba bc 10 25 4b be
       -0.13742283 -0.10701593 -0.022713603 -0.19838357
0000d0 15 f2 87 3d 72 f0 e6 3d de ac ec 3d 19 3b 17 3e
       0.0663797 0.1127633 0.11556409 0.14768638
0000e0 e2 0b 36 3c 87 92 de 3d 58 01 18 3e fb 1c f9 bd
       0.0111112315 0.108677916 0.14844263 -0.12163731
0000f0 35 ee 2a be e9 48 6a bd b3 7b 82 3d 1a f9 e1 bc
       -0.16692431 -0.05719844 0.0637125 -0.027584601
000100 d7 c0 42 bd 2b 8a 63 bd 8b 8e 3e bd ed ee b9 bc
       -0.047547188 -0.05555169 -0.04652266 -0.022696937
000110 1c d0 2f 3e 4a 9e 64 3e 45 48 8d bc ee 7d 9f 3d
       0.17169231 0.22326007 -0.017246375 0.07787691
000120 6b 81 88 bc db 52 12 3e ec ee 5e 3e 83 79 2d 3c
       -0.016663274 0.1428942 0.21770829 0.010588053
000130 83 9f 7c 3e 80 2c c1 3d 2f d4 47 3e 6b 10 95 bd
       0.24670224 0.09432316 0.19514535 -0.07278522
000140 d9 03 de bd 79 9f a2 bd 8c e8 0f 3e 09 7f 38 be
       -0.10840578 -0.07940573 0.14053553 -0.1801721
000150 a2 6d 0e bd 55 b8 7e 3d ac 6d 8c 3d 81 e9 54 bd
       -0.034772523 0.06218751 0.06856856 -0.0519805
000160 fc a5 b5 3d 57 23 b9 3c 9d 6e 1f 3e 4a c6 62 3d
       0.0886955 0.02259986 0.1556954 0.055364884
000170 68 d0 7f bd dd af 75 3d 00 2e 92 3d e1 65 3e 3e
       -0.06245461 0.05998217 0.0713768 0.18593551
000180 3c 56 43 3d d0 82 d2 3d 0d 12 d4 bd b4 41 56 3d
       0.04768966 0.10278857 -0.103550054 0.052308753
000190 a2 c1 ce bc 6d bc 39 3d 78 8d 67 3d e6 c7 33 3d
       -0.025238816 0.045345712 0.0565314 0.04389181
0001a0 0b 13 bb bc 30 68 e7 3c 7e 97 18 3e e7 06 ac 3d
       -0.022836229 0.028247923 0.1490154 0.08399754
0001b0 b1 16 aa bd 59 2a 82 3d eb ad 54 bd b3 7b 16 3d
       -0.08305109 0.063557334 -0.051923674 0.036739063
0001c0 e8 1c a8 bc 75 e8 47 3c f8 f7 27 3d ba b9 e6 3d
       -0.020521596 0.012201418 0.041007966 0.11265893
0001d0 96 57 24 be 0b 1b ef 3c 75 48 07 3e 3f 1c f4 bd
       -0.16049036 0.0291877 0.13211234 -0.1191945
0001e0 d4 6b 20 be 8b 8d 04 3e 27 18 23 bd 30 79 c0 bc
       -0.15666133 0.1294462 -0.039817955 -0.023495287
0001f0 2e 1f f5 bc fe 16 00 3d 30 ca 3f bd 50 a5 30 3e
       -0.029922094 0.031271927 -0.04682368 0.17250562
000200 bd d4 c3 bd 91 51 42 3e 3f dc 2c 3e 6d 2c ab 3d
       -0.09562061 0.18976428 0.16880892 0.08358083
000210 9f 1b 8a bd ea 7f b2 3d b2 55 a3 bd 2b 3e f7 3d
       -0.067435496 0.08715804 -0.079753295 0.120724045
000220 99 60 b0 bd 06 1c 37 be c9 0a 04 be f9 99 ed bd
       -0.086121745 -0.17881784 -0.12894739 -0.116016336
000230 d7 bc 24 3e 57 1a 06 be bb 9d f1 bd d6 60 96 bd
       0.16087662 -0.13095985 -0.11797663 -0.07342689
000240 ac 0f ea 3d a5 cc 6a 3d 4a 96 d2 bd d9 ca f9 bc
       0.114287704 0.05732407 -0.102825716 -0.030492233
000250 7c 20 fb bb 88 78 a7 3d 75 75 81 3c 51 62 52 3d
       -0.0076637845 0.081772864 0.015803078 0.051363293
000260 2e 0e 8d bd 20 cb 15 be 84 d7 d1 3d 6a ab 07 3d
       -0.0688747 -0.14628267 0.102461845 0.033122458
000270 a6 29 ed bc 98 8f 94 3d 4f 1f 0a 3e 2c 0f 1a 3e
       -0.028950524 0.07253951 0.13488506 0.1504485
000280 41 ce 2f 3e 65 ef f7 3d 6f c7 10 3e 76 2c 2b 3d
       0.17168523 0.12106208 0.14138578 0.041790448
000290 34 73 ce 3d 0f 61 14 be 6a 4b 43 bd 03 d9 be 3d
       0.10080567 -0.1449015 -0.047679342 0.093187355
0002a0 d2 78 54 3c 83 34 a8 bd f0 ea 7e 3d d2 29 6d 3e
       0.012968259 -0.08213141 0.062235773 0.23160484
0002b0 09 72 e2 3d 6e 15 a5 3d 91 06 b8 3d a7 27 ef bd
       0.11056907 0.08060728 0.089856274 -0.11677485
0002c0 d9 df 6b 3d 42 55 10 be c5 e6 8b bd 50 c7 0a 3e
       0.057586525 -0.14095023 -0.06831125 0.13552594
0002d0 74 22 fd 3b 37 3b fd 3d 0f 42 83 3d 87 68 b0 bd
       0.0077250544 0.1236481 0.06409084 -0.08613687
0002e0 b3 a4 72 3d df f0 f6 3d 98 a6 29 3d e5 91 b2 bd
       0.0592391 0.12057661 0.04141864 -0.087192334
0002f0 38 11 19 be b7 3b 18 be 3d 1a 49 3d 06 5f e1 bd
       -0.14947975 -0.1486653 0.04909729 -0.110044524
000300 f6 ba c8 3b 90 2d 18 3e d0 77 77 bd 61 31 8e 3d
       0.006125803 0.1486113 -0.060416996 0.06943012
000310 07 ac c8 3c b1 28 85 bd f8 14 22 3d 82 ce e2 bd
       0.024496092 -0.06501902 0.03957078 -0.110745445
000320 21 d5 70 3d 99 c4 6a bd 30 74 c6 3d 3e 66 42 3e
       0.058797006 -0.057316396 0.0969013 0.18984315
000330 28 91 2a bd 57 32 15 be 8d b6 01 3e 3c 47 fd 3d
       -0.041642338 -0.14569984 0.12667294 0.123671025
000340 95 34 da 3c 24 a7 cf bc 50 b2 5e bd 0d a2 2c 3e
       0.026636401 -0.025348254 -0.05436927 0.16858692
000350 43 91 40 3e 7f 73 93 3c 92 9b 07 3e b2 36 0e 3e
       0.18805413 0.017999409 0.13242939 0.13888052
000360 fe 7d 51 3e df 98 bd 3d 4e 50 16 bd 24 a8 43 3e
       0.20458218 0.092576735 -0.03669768 0.1910711
000370 c7 20 d8 3c 1e 09 df bc 8e 47 90 3d ad 7d 90 bd
       0.026382817 -0.027226027 0.07044898 -0.07055221
000380 90 68 d1 bc 54 a9 77 bd d2 21 42 be 36 58 0d 3e
       -0.025562555 -0.06046422 -0.18958214 0.13803181
000390 0b 9e 71 3e 8f 4f ab 3d 98 38 ad bd 91 5c af 3d
       0.23595445 0.08364784 -0.0845806 0.085625775
0003a0 a2 76 2d 3e 60 9e 50 bd e2 f1 9e 3d 6e a8 5f 3d
       0.16939786 -0.05093229 0.07760979 0.054603986
0003b0 43 fd c3 bd ae 43 88 3e 6a 32 0c 3d 6c 9d 12 3e
       -0.0956979 0.26614136 0.034227766 0.14317864
0003c0 c1 31 e4 bd db 03 58 bd ea ee 3b 3c 85 46 a6 be
       -0.11142302 -0.05273805 0.011470536 -0.32475677
0003d0 3e 4e 6b bd 4a 1a aa bc 87 58 20 be d0 89 af bd
       -0.057447664 -0.020764489 -0.1565877 -0.085712075
0003e0 7b 16 02 3c d9 94 b0 bd 65 87 19 3d 0b fd 9b be
       0.00793993 -0.086221404 0.037482638 -0.30466494
0003f0 fa 16 f5 3d 31 13 2a 3e 5a 0b 11 be fb f4 30 bb
       0.11967273 0.16608883 -0.14164487 -0.0027001488

embedder.res_block.3.bias f4 [32]
000000 d9 ad 82 3d b8 c2 b9 3b 37 5c 8b 3c be 7a 4c bd
       0.06380815 0.0056689642 0.017011745 -0.049921744
000010 bc cf 27 bc 05 03 5a 3d cb 50 07 be 83 58 93 3d
       -0.010242399 0.053225536 -0.13214414 0.07194617
000020 19 1d 8f 3d 85 4b 39 3e 51 7a bd bd 69 75 69 3c
       0.06987972 0.18095215 -0.09251846 0.014249184
000030 9d d9 e4 3d 5d ba b0 bd 99 2d 80 3d 99 4f 65 bd
       0.11174319 -0.08629296 0.06258697 -0.055984113
000040 d6 ff a3 bc 7f 89 8a bd b1 fc 8a 3c c2 6e 77 3d
       -0.020019453 -0.067645065 0.016966196 0.06040836
000050 59 47 37 be e2 e7 9e 3d 07 03 3d bd 00 06 8e 3d
       -0.1789831 0.07759072 -0.046145465 0.06934738
000060 b9 f5 8e bd 5b 68 16 be cb 89 da 3d 94 11 4a 3d
       -0.069804616 -0.14688246 0.10670813 0.04933317
000070 97 97 91 bd 7f 41 13 be 3a 7f 1d be 74 26 9f bd
       -0.071089916 -0.14380454 -0.15380564 -0.07771006

cnn_blocks.0.proj_in.weight f4 [16, 32]
000000 64 e4 0c 3d 83 94 e1 bd 13 98 77 3d b6 8a cf bd
       0.034397498 -0.110146545 0.060447764 -0.10133879
000010 42 4f 14 be f0 ae 82 3d c7 25 03 bd a6 c0 34 3d
       -0.1448336 0.06381023 -0.03201845 0.044129036
000020 48 f5 a5 3d fd 04 2d 3b 7f 3b 4c 3d 7b 6c de bd
       0.08103424 0.0026400678 0.049861427 -0.10860535
000030 9f 94 47 3e 07 dc e5 3c 48 c4 1a 3d 62 d9 ff bc
       0.19490288 0.028059019 0.037784845 -0.031231586
000040 cd 40 cc bc cd a2 c7 3d b6 65 f6 3d c0 f3 a8 bc
       -0.024933243 0.09747849 0.120311186 -0.020624042
000050 f0 cb 04 be a0 9f 8c bd a7 10 9e bd b6 f3 e2 3d
       -0.12968421 -0.068663836 -0.0771802 0.110816404
000060 b9 ed 8b bd 01 ca cf bd cf af d1 bd 3f 73 29 3e
       -0.068324514 -0.10145951 -0.10238611 0.16547869
000070 43 02 0f be ad d7 e0 bc 45 30 9e bd fb bb a6 3d
       -0.13965707 -0.027446592 -0.077240504 0.08141323
000080 dd 15 1d 3c 3b a0 4e 3d 17 03 6a 3d 2a 30 f7 3d
       0.009587732 0.050445776 0.057131853 0.120697334
000090 fa 11 4e 3c f9 7b 2e bd ff 9a bb bd da 98 a6 bd
       0.012577528 -0.0425987 -0.091604225 -0.08134623
0000a0 98 e4 31 3e 37 8d 91 bd ce 31 97 bb 1c 0b e4 bd
       0.17372358 -0.07107013 -0.0046140915 -0.111349314
0000b0 62 0e 2a bd fe 70 7b bd be ba 81 bd 48 a6 fc 3d
       -0.041517623 -0.061387055 -0.06334446 0.12336403
0000c0 fd 29 ba bc aa d9 04 be 96 cf 7e 3d 3c d0 88 bb
       -0.0227251 -0.12973657 0.062209688 -0.004175214
0000d0 7d f5 0d be 29 2f 85 bd 8d d1 d8 3d 47 91 c7 bd
       -0.13863178 -0.06503136 0.10586844 -0.09744506
0000e0 4c 2b bd ba ba ba 1f be 6d 56 78 3d c5 13 80 bd
       -0.0014432459 -0.15598574 0.060629297 -0.06253771
0000f0 8c 91 12 3c 1b a0 09 3d 07 04 1d 3e 50 27 a6 bd
       0.008945834 0.033599954 0.15333568 -0.08112967
000100 65 c1 e5 3d c6 85 4c 3a 8e a0 8a bc 6e 34 28 be
       0.11218528 0.0007801916 -0.016922262 -0.1642625
000110 e2 36 8e bd c8 99 a2 bd 07 83 d0 bd 4c d7 c4 bd
       -0.06944062 -0.07939488 -0.101812415 -0.09611377
000120 25 19 1b 3d a5 d8 63 bd 81 bf 6b bd 25 92 54 3d
       0.037865777 -0.05562653 -0.05755568 0.051897187
000130 00 4a 7b 3c 2c 77 e1 bd ba e9 ee 3c f6 8c 57 bd
       0.015337467 -0.11009058 0.029164184 -0.052624665
000140 ba e3 04 be 85 f9 7e 3d 9d 17 4b bc 3b 40 de 3d
       -0.12977496 0.06224968 -0.012395767 0.10852095
000150 89 ac 47 be 56 8a 28 be e7 6f 25 be 86 aa f0 bd
       -0.1949941 -0.16459021 -0.16155969 -0.11751275
000160 83 75 4e be 78 47 83 bd 3a a5 08 3e 22 49 06 be
       -0.20162015 -0.06410116 0.13344279 -0.13113835
000170 48 1c 19 be f3 4e 01 3e 37 fe 1a be b6 3a 94 3d
       -0.14952195 0.12627773 -0.15136038 0.07237761
000180 78 d5 ef bb f9 bc 77 3d b2 b6 4a be 95 eb 4a 3d
       -0.0073191486 0.060482953 -0.19796255 0.049541075
000190 41 32 74 be d6 db 4e 3e 8d 4d ba bd 47 28 d4 bd
       -0.23847295 0.20201048 -0.09096823 -0.10359245
0001a0 87 2d 4f be 54 ea c9 3d 02 2a 3e be 45 aa 4a bd
       -0.20232211 0.09859148 -0.18570712 -0.049478788
0001b0 88 71 c0 3d d4 aa 86 bd af 95 fc bc 9e 08 03 3e
       0.09396654 -0.06575552 -0.030833093 0.12796256
0001c0 d2 35 ab bd 36 38 98 3d eb 86 59 bd 65 72 b9 3d
       -0.08359875 0.074325964 -0.053107183 0.09055022
0001d0 a2 64 6e bd 53 b1 f8 3d eb c0 45 be 39 b7 04 3e
       -0.05820144 0.12143197 -0.19311874 0.12960519
0001e0 c9 4e 08 3e 3d ab 4d be 76 07 d4 ba 6c 66 1f be
       0.13311304 -0.20084853 -0.001617654 -0.15566415
0001f0 2b 62 22 3e fa 2b 42 3c 42 80 f2 3c 3a 36 1a 3d
       0.1585776 0.011851305 0.029602174 0.03764937
000200 c3 c5 98 3d 5d 2e 95 bd 1f 20 48 be c3 b7 af bd
       0.07459595 -0.07284234 -0.19543503 -0.08579972
000210 4c 6f 52 be 67 96 09 3b bf 15 fa bc e7 cd e2 bd
       -0.20550269 0.0020994188 -0.030527947 -0.11074429
000220 bd 64 15 3e 40 42 cb 3d 85 87 4d bd 94 9c 92 bb
       0.1458921 0.099247456 -0.05017807 -0.004474232
000230 50 df 85 3d f2 72 09 3e 5e a2 2a be d1 11 4b 3d
       0.06536734 0.13422754 -0.166635 0.049577538
000240 b1 10 d4 bd 3a d6 d0 3d 64 9c f7 3d 6f c9 bf bc
       -0.10354746 0.101971105 0.12090376 -0.02341148
000250 37 71 21 be 55 12 18 3d e9 d2 03 bd f2 ea 16 3e
       -0.15765844 0.037126858 -0.03218356 0.14738062
000260 20 07 1b 3e 55 66 a0 3c ea 42 bb 3d fa 9b 8b 3c
       0.15139437 0.019580046 0.09143622 0.017042149
000270 33 c2 45 3e c7 25 17 3d 2a 6f de bd ed da 02 be
       0.19312362 0.03690126 -0.108610466 -0.12778826
000280 94 e6 d2 bc a7 8b 2c be df 16 9d 3d 2e 7e 17 bd
       -0.025744714 -0.16850148 0.07670378 -0.03698557
000290 37 db 56 3e bc 2a 56 3d 58 e9 ae bd f6 53 e8 3d
       0.20982061 0.05228685 -0.085406005 0.11344139
0002a0 42 8a 6b be 3d 7a 4a 3e df 8a f9 3d 21 8e 69 be
       -0.2300196 0.19773193 0.12184691 -0.22808124
0002b0 f7 17 4c 3e 36 b8 f8 3c c9 02 83 bd e8 b5 3a 3d
       0.19931017 0.030361276 -0.063970156 0.045583636
0002c0 58 62 44 3d 83 8f 81 3c 02 d7 09 3e 2d 93 15 be
       0.04794535 0.015815502 0.13460925 -0.14606924
0002d0 15 8f e8 bd 8d d4 0f be 98 32 c0 bd dd 78 f3 3c
       -0.11355416 -0.14045925 -0.0938465 0.029720718
0002e0 c8 24 21 3d df e7 05 be 90 79 3f 3d ba 1b f0 bd
       0.039341718 -0.13076733 0.04674679 -0.117240384
0002f0 c5 a9 18 bc c6 f4 be 3d f8 8a 15 bd 31 19 ae bd
       -0.00931782 0.093240306 -0.036509484 -0.08500899
000300 47 10 4d 3e 5f 71 fe 3d 65 f7 7b bd 1a cf ad bc
       0.2002574 0.124239676 -0.06151523 -0.021216918
000310 dc 75 57 bd 48 81 24 be ca c6 13 bd 5b 2b 9e 3d
       -0.052602634 -0.16064942 -0.036078252 0.07723113
000320 69 cd 36 3e 01 84 56 3d cc 3e 0a 3e b4 5c 26 be
       0.17851795 0.052371982 0.13500518 -0.16246301
000330 6e 38 3c be 8b 6f 21 3d 2a f7 e2 3c c5 c8 63 bd
       -0.18380901 0.039413016 0.027705748 -0.05561139
000340 9a 14 17 be f1 34 9e bd 70 98 04 3e cf 84 31 be
       -0.14753953 -0.077249415 0.12948775 -0.17335819
000350 38 04 32 3e 22 69 5f 3d 38 df 3f 3e d2 0c 03 3d
       0.17384422 0.05454362 0.18737495 0.03199465
000360 26 4b c1 3c 71 72 1f be e2 ea c8 bd 35 87 c0 3d
       0.023595404 -0.15571 -0.09810425 0.09400789
000370 12 ea c8 3d cb 61 c1 bd 74 86 0f be 67 f3 96 bd
       0.0981027 -0.09442481 -0.14016134 -0.07370644
000380 59 3a cc 3d bc 08 80 bd ef af bc bd d2 ab 20 bd
       0.099720664 -0.06251666 -0.09213244 -0.03922636
000390 c0 1e 07 be 6a cc bd 3d c2 b7 8e 3d bf 7d 54 3e
       -0.13195324 0.092675045 0.06968643 0.20751093
0003a0 18 d4 1b 3e 48 b8 0d 3e 1c f7 e2 bd 5f eb 88 3c
       0.15217626 0.13839829 -0.110822886 0.016713796
0003b0 5b d0 ae bb d3 8b d5 3d 3a 8c 98 3d c8 dd 06 3e
       -0.0053348965 0.1042706 0.07448621 0.1317054
0003c0 f6 ee 15 3e aa 5f 64 3e 19 85 04 be 5e e6 96 3d
       0.14641938 0.22302118 -0.12941398 0.07368158
0003d0 d4 52 a1 bd ea 54 3c be 8e cc b7 3d 3a ba 61 bc
       -0.07877126 -0.18391767 0.089745626 -0.01377731
0003e0 e9 50 c7 3d 58 2d 46 3d 6a 4c 10 be 31 75 a6 bd
       0.09732229 0.048383087 -0.1409165 -0.08127821
0003f0 db 88 c1 3b 5a a1 b0 bb a1 43 47 bd 77 d6 c6 bd
       0.005906207 -0.0053903284 -0.04864848 -0.09708875

cnn_blocks.0.proj_in.bias f4 [16]
000000 5e 10 13 3e be 26 0a 3e b0 87 d4 3d bb 16 b1 3d
       0.14361712 0.13491341 0.10377443 0.086469136
000010 46 f3 14 be ec 7f 03 be e2 6e 2d be e5 9b 2e be
       -0.14545926 -0.12841767 -0.1693683 -0.17051657
000020 fb 38 52 3d 1b 42 41 3d 21 8b c0 bc c0 18 17 3e
       0.051323872 0.047182184 -0.023503842 0.14755535
000030 7e 3b 09 be 4f 26 05 be 8d f9 e0 3d e9 14 9e 3d
       -0.134016 -0.13002895 0.10985098 0.07718832

cnn_blocks.0.convs.0.weight f4 [16, 16, 3, 3]
000000 31 6a 39 bd ca bc eb bc 4e 1c 01 be 9e f0 c8 bd
       -0.045267288 -0.028776545 -0.12608454 -0.09811519
000010 c8 e0 d3 bc a3 0c 78 bc 71 28 40 3d ae a9 3e 3d
       -0.02586402 -0.015139732 0.046913568 0.046548538
000020 a2 ac b9 bc 1e 71 c8 bb 0b 19 bc 3d bc 1e 0e 3d
       -0.022665326 -0.0061170002 0.09184464 0.03469728
000030 c9 71 4c bd a0 4c b8 bd 79 ed b7 3d 03 79 e3 b9
       -0.0499132 -0.0899899 0.08980841 -0.00043386975
000040 fb 9d 84 bc 6a 76 7b 3c e7 51 55 3c 85 e6 dc bd
       -0.016188612 0.015348056 0.013020015 -0.107861556
000050 98 76 33 bd 69 ec 86 bd ee c9 3b 3d 54 3e cb 3d
       -0.04381427 -0.065880604 0.045846872 0.099239975
000060 78 31 bd 3a 91 75 55 3d 5a 34 91 bd 2e b6 fc 3d
       0.0014434299 0.052114073 -0.070900634 0.123394355
000070 eb 39 aa bc 77 1c aa bc 1b 63 80 3a dd 0f dc 3c
       -0.02077957 -0.020765526 0.0009795161 0.026863033
000080 41 c0 8d bd 77 2b 99 3c 61 a1 1a 3d f6 03 1f 3b
       -0.06921435 0.018697483 0.03775156 0.0024263836
000090 39 91 90 3d 92 06 8e bc d9 3e d7 bd 55 90 d1 bc
       0.07058949 -0.017337117 -0.10510034 -0.025581518
0000a0 12 13 41 bd a8 39 a9 bc 66 f0 7a 3c e6 7f c9 b8
       -0.047137327 -0.020657375 0.0153161045 -9.60825e-05
0000b0 84 29 a2 3d 9e d4 4c bd 55 31 99 bb 15 b6 3b 3e
       0.07918075 -0.050007455 -0.0046750703 0.18331178
0000c0 06 0c 9c 3b 84 71 55 3d fd ca d1 3c bf 2b e7 ba
       0.0047621755 0.05211021 0.025609488 -0.0017636939
0000d0 5f 57 13 bc 5d 42 00 bd e6 fb b3 bc 0b a8 db 3d
       -0.008992999 -0.03131329 -0.0219707 0.10725411
0000e0 08 93 9d bc 16 2e 76 bd cc b5 4f be ae 17 54 3d
       -0.019235149 -0.060102545 -0.20284194 0.051780395
0000f0 7c 76 55 3d 37 da 88 3a cd 99 80 3d ee c4 9e bc
       0.05211495 0.001044101 0.06279335 -0.019381013
000100 de 08 9a bc 6f ab 17 be 60 45 65 bb 56 bd bd 3d
       -0.018803056 -0.1481149 -0.0034983978 0.092646286
000110 47 7b 67 bd a7 b5 85 3d 39 e3 41 3d 4b 39 f2 3d
       -0.05651405 0.06528788 0.047335837 0.11827334
000120 d0 67 d0 bd 6e ad b6 bc f1 75 94 3d d2 bd 17 bd
       -0.10176051 -0.022299495 0.07249058 -0.03704626
000130 6d e6 ce 3b 32 29 a7 bd 6d 7d 16 bd 22 25 99 bd
       0.00631409 -0.08162154 -0.03674071 -0.07477786
000140 20 a0 c3 3c 74 a8 d4 bb 41 b4 2b bd cb 2b e9 bd
       0.023880064 -0.0064898077 -0.04191995 -0.11385306
000150 7f 9d 00 3d 34 c0 23 bd cd 2a e0 bc 9d 8c 57 bd
       0.0314002 -0.03997822 -0.027364159 -0.052624334
000160 35 7c 97 bd e7 a7 98 3c 8a 9c 34 3c db 77 8f 3b
       -0.073967375 0.01863475 0.01102365 0.0043783016
000170 f7 65 c2 3d ee a8 06 3d 2e 33 0d be bf 32 25 3e
       0.094921045 0.032875948 -0.13789055 0.1613264
000180 17 fd 06 bd 5f 38 58 3d 8e cd fd bd 3b fb 50 bd
       -0.03295621 0.052788135 -0.12392722 -0.051020842
000190 3b 73 ea 3d 4d ee b5 3c 6f 63 af bd 3c d1 13 be
       0.1144776 0.022208357 -0.08563887 -0.14435285
0001a0 6a 1c 0a bd 14 16 0e 3c 54 fa c9 3d 3f 81 e0 3d
       -0.033718504 0.008672256 0.098621994 0.10962152
0001b0 9f ed ca bd b8 50 23 bd 36 1a 63 be 11 75 b9 3c
       -0.09908604 -0.0398719 -0.22177967 0.02263883
0001c0 c7 c3 81 3c af 9f 54 bd 06 1d 3f 3c 65 3e 17 bd
       0.015840424 -0.0519101 0.011664635 -0.03692474
0001d0 ef 55 6c 3d 1a cc 16 3d a4 b0 40 3d b7 c8 d5 bd
       0.05769914 0.03681574 0.047043458 -0.10438674
0001e0 8e 17 92 bd 93 1c 02 3e 36 21 27 bb 3b d1 1e bd
       -0.07133399 0.12706213 -0.0025501973 -0.038773756
0001f0 21 03 06 be c6 6c 05 be 38 b0 3d 3d 41 09 f1 bc
       -0.13087131 -0.13029775 0.046310633 -0.029423358
000200 ba 36 3c bd ff c2 b8 3d bb 65 0e 3e dc 3c 1e be
       -0.04595063 0.090215676 0.13905995 -0.15452904
000210 00 e6 98 3d 03 8c 5c bd ed 06 19 bd cb fa a4 3d
       0.07465744 -0.053844463 -0.03736012 0.080556475
000220 ee 46 86 bd 91 29 4e 3d ba 55 8a bd 94 41 e6 3d
       -0.065564975 0.05033261 -0.06754632 0.11242977
000230 a9 15 a6 3d ca 05 ea 3b be 4b a4 3d 46 66 04 be
       0.081096 0.0071418034 0.08022259 -0.12929639
000240 b5 0c d8 3c 6b ce 49 3e 2e 37 4a 3d 22 d5 b3 3c
       0.026373247 0.19707648 0.04936903 0.021952216
000250 d6 8a 9f 3d 32 18 c9 3d ab 7c f7 bc 12 92 81 bb
       0.07790153 0.09819068 -0.030210814 -0.0039541805
000260 f5 d6 2b 3d 15 16 0a 3d 96 35 79 3b 17 3f a1 3c
       0.041953046 0.033712465 0.0038026324 0.019683404
000270 f1 21 84 bd e5 15 3d 3d 2a 89 89 bd 9b b8 b6 bd
       -0.06451786 0.04616346 -0.06715615 -0.089219294
000280 de 40 07 be 04 a1 47 3b 1a 1d 0a 3e ef 2e 6e bd
       -0.13208339 0.0030460963 0.13487664 -0.058150228
000290 5d af 84 3b d1 f5 98 3c 58 05 91 bc 62 4b da bd
       0.0040492252 0.018671902 -0.017702743 -0.106589094
0002a0 56 0b d8 bd 00 a5 09 bd 15 e6 98 bc 31 1e d5 3d
       -0.10549037 -0.033604622 -0.0186644 0.10406149
0002b0 b1 b6 1c 3d 2f 54 2e bd 2f d3 e9 ba 5b 21 0f be
       0.038260166 -0.042560752 -0.0017839427 -0.13977568
0002c0 d4 1a 6d bc 7f 8f ac 3d 58 da 22 3d be 0b 1b bd
       -0.014471728 0.08425807 0.03975901 -0.037852995
0002d0 bd 43 86 3e 06 20 86 bc 91 27 c0 3d f5 df ad bd
       0.26223555 -0.016372692 0.09382547 -0.08489982
0002e0 7c f1 40 bd 0d 66 c9 3c d2 dc 89 bc 5f 8a 06 3d
       -0.047105297 0.024584794 -0.016828928 0.032846805
0002f0 37 ec 73 bd b2 b7 80 bb 83 2b ef bb 1a 67 ea bd
       -0.059551444 -0.003928148 -0.007298888 -0.11445446
000300 da 69 07 be 1f 87 52 bd d5 12 19 bd 56 71 40 bb
       -0.13223973 -0.051398393 -0.037371475 -0.0029364428
000310 64 cf 9f bd df 15 13 3e 54 07 6b bd 26 dc e2 3a
       -0.078032285 0.14363812 -0.057380036 0.0017308041
000320 61 e2 0c bd ec e4 45 bc 29 17 a4 3b 04 47 08 bb
       -0.03439558 -0.012078505 0.0050076437 -0.0020794282
000330 b1 af 36 bd e4 9e 6f bd d5 35 55 3d b6 a6 c2 bc
       -0.044601146 -0.05850114 0.05205329 -0.023761135
000340 d2 24 98 3d e8 50 c0 bd 20 d4 e9 bc e7 95 47 3d
       0.07428898 -0.09390432 -0.028543532 0.048726942
000350 43 cf b3 3d ba 4f 08 3e 85 e0 0c be 0b 36 fb bd
       0.087797664 0.13311663 -0.13757522 -0.12266167
000360 ae f2 e8 3d 3b 08 24 bd e1 10 34 bc e0 07 ef bd
       0.113744125 -0.04004691 -0.010990352 -0.11671424
000370 33 43 b6 3d ca a2 c2 bd ed e0 93 bb ab 80 8b 3d
       0.08899536 -0.09503706 -0.004512897 0.06811651
000380 d9 99 97 3b f2 be c8 3d b8 a4 bf 3c 1c 82 1d bc
       0.0046264944 0.09802045 0.023393974 -0.00961354
000390 d2 be 85 3c fc a2 84 3c f5 39 23 ba 24 c3 02 3d
       0.016326342 0.016190998 -0.0006226593 0.03192438
0003a0 97 44 60 bc 2a e8 80 bd 1a d8 75 bd 70 0b cb 3b
       -0.013688228 -0.06294282 -0.060020544 0.006196432
0003b0 fa 47 9a 3c c7 46 b3 bb f8 66 3d 3d 38 bf 6a 3c
       0.01883315 -0.005471084 0.046240777 0.014327817
0003c0 49 be 00 bd 75 bb c4 3c 67 ce a0 3b 04 d3 fd 3d
       -0.03143147 0.024015168 0.0049074176 0.12393764
0003d0 d5 55 6a 3d 4c 3e ca 3d ed a7 87 bd de c8 6a 3c
       0.057210762 0.098751634 -0.06623826 0.014330117
0003e0 28 de 84 bd ba 58 b4 bd d9 86 a5 bd 8d 8c b8 bc
       -0.064876854 -0.08805986 -0.08082361 -0.022527957
0003f0 ef 6d 33 3e 5d 99 8b 3d 35 ee bd 3d b2 3c 9d bd
       0.17522405 0.06816361 0.0927395 -0.07677592

cnn_blocks.0.convs.0.bias f4 [16]
000000 41 fd c7 3b 81 bd 4a bd e7 76 a6 bd 96 f0 11 3d
       0.0061031883 -0.04949713 -0.081281476 0.03562983
000010 04 d1 22 3d 00 fb 46 3c de 7e c7 bb 59 22 a5 bd
       0.039750114 0.012144804 -0.006088122 -0.08063192
000020 5a b1 74 3d b3 7c 07 bd 40 38 91 b9 5f ca 52 3d
       0.059739448 -0.033077907 -0.00027698465 0.051462527
000030 1c 0a 55 3d d7 5a 12 3d 90 aa a4 3c 61 a6 7b bd
       0.052011594 0.035731163 0.020100862 -0.06143797

cnn_blocks.0.convs.1.weight f4 [16, 16, 3, 3]
000000 12 ca 91 3d 40 2f 18 3e 8e 95 ea 3c ed de 8d 3d
       0.0711862 0.14861774 0.028635766 0.06927285
000010 6f f1 39 bc c7 60 06 3d a1 0d 82 3d 36 f6 01 bc
       -0.011349066 0.032807138 0.06350256 -0.007932236
000020 54 14 c8 bd f8 21 09 3e 2f 09 0b be 4d b5 f3 bb
       -0.09769502 0.13391864 -0.13577722 -0.007437384
000030 13 1e e0 3c 85 9a a5 bd b6 e2 e3 3c ae 70 9e bd
       0.02735809 -0.08086113 0.027818065 -0.07736336
000040 ea 0b 34 bd b8 00 4c ba ac d9 9c bd 10 80 44 bd
       -0.043956675 -0.00077820895 -0.07658705 -0.047973692
000050 36 e3 a4 bd c7 17 4b bc 3c 1c 1e bd 76 44 30 be
       -0.080511495 -0.012395806 -0.038601145 -0.17213616
000060 bb c1 0b be 80 aa c4 bd a9 f9 6b 3c 5b aa b4 bd
       -0.13648121 -0.09602833 0.014402785 -0.08821555
000070 ee 94 93 3d 1b c4 ee bd 79 a7 d2 bd f9 bf 9b bc
       0.072061405 -0.11658498 -0.10285849 -0.019012438
000080 dc 90 ed bd 64 1e b3 bd e4 07 0c be 5f 0b 08 3d
       -0.11599895 -0.08746031 -0.13674885 0.03321397
000090 5d 6b 0b be 4f fc 9f 3d ff 13 85 3c f2 e5 13 3e
       -0.13615175 0.07811796 0.016244886 0.14443186
0000a0 76 a7 4a bd a1 69 73 bd b5 3a b1 bd 85 5e fe bc
       -0.04947611 -0.059426907 -0.086537756 -0.03105093
0000b0 77 6f 5e bb 21 3e dc bc e4 39 80 3c d8 54 0c 3e
       -0.003394095 -0.026885094 0.015652604 0.1370424
0000c0 70 64 94 3d b2 ca 35 bd e8 da eb 3c 4e 20 15 3d
       0.072457194 -0.04438276 0.028790906 0.03640776
0000d0 07 1a 06 bd 60 c6 59 be 43 da 1c 3d ce fb 6a 3c
       -0.032739665 -0.2126708 0.038294088 0.0143422615
0000e0 76 64 01 bd 7f b7 4f bd 6d a6 48 3d 41 97 9d bc
       -0.031589948 -0.050712105 0.04898684 -0.019237163
0000f0 40 1e e2 bd b5 13 94 bd b3 29 ba bd 50 7b 8c bd
       -0.11040926 -0.07230321 -0.09089985 -0.068594575
000100 8c b3 dc bc de f6 b7 bd 10 c7 4c bd 59 93 b1 3d
       -0.026941083 -0.08982633 -0.04999453 0.086706825
000110 e4 c3 0b bd 52 4e 11 be eb f9 f5 bc 90 2e e1 bd
       -0.034122363 -0.14190033 -0.030026397 -0.10995209
000120 ca 30 45 3c bf 14 de bc b6 69 84 bc 6d 6f bb bd
       0.012035558 -0.027109502 -0.016163688 -0.09152112
000130 ce 22 23 bd b7 0e 6b bd cc 6e 1d bc 01 49 cf 3c
       -0.039828114 -0.05738708 -0.009608936 0.025303366
000140 9f 1a 70 3d 3a 91 09 be e4 c7 9d bd c8 e7 6c bd
       0.058619138 -0.13434306 -0.07704142 -0.05783823
000150 55 a6 85 bd ff 6d c9 3c 38 5a 9d bb 82 64 ec 3c
       -0.06525866 0.024588583 -0.0048020147 0.02885652
000160 c5 ca 0b be b7 c4 db bd 83 e3 56 bd a8 8c 56 3c
       -0.13651569 -0.1073088 -0.052463066 0.0130950585
000170 f1 67 56 3d a2 0b ef bd 48 c6 05 3d 37 89 95 3d
       0.05234522 -0.11672141 0.0326598 0.07301562
000180 44 de 2f bd 83 8a 26 3e 93 6b bf 3c e4 06 a2 3d
       -0.04293658 0.16263776 0.023366725 0.079114705
000190 79 1d a1 bd 29 4a d6 3d 69 56 ec 3d 72 d0 87 bc
       -0.078669496 0.10463364 0.11539919 -0.016578887
0001a0 99 02 af bc e9 79 01 bc fc 86 05 3e a8 26 7f bc
       -0.021363543 -0.007902601 0.13039774 -0.015573181
0001b0 23 7b 0d be 53 0c a2 bd 30 7c b2 3d 57 49 3f be
       -0.13816504 -0.07912507 0.08715093 -0.1868032
0001c0 f4 26 7e bb d3 8d a5 3d 84 39 1c 3d 12 23 43 bc
       -0.0038780542 0.080836914 0.03814079 -0.011910217
0001d0 d3 fd 3c bd 6a a8 02 3d 4b 57 d6 3d 2c 3b 3c bd
       -0.046140503 0.031898893 0.104658686 -0.04595487
0001e0 44 95 d2 3d a2 8f cb 3d bd f8 63 bd a3 56 f3 3b
       0.102823764 0.09939505 -0.055657137 0.0074260994
0001f0 59 cc 8f 3d 7a 5a 98 bd 7a 24 a7 bc e3 de da bb
       0.07021398 -0.07439132 -0.020403136 -0.006679402
000200 72 49 03 bb d4 74 48 3d 4b bc d3 bd 5b 5c b6 3d
       -0.002003279 0.04893954 -0.103386484 0.08904334
000210 ab 15 82 3d a4 8c 7f bc 6c 04 68 bd 26 79 38 bd
       0.06351789 -0.015597496 -0.056644842 -0.04503741
000220 77 ef db bd ad d9 f2 3b f2 b2 a6 bd be ec cf ba
       -0.10739034 0.007411203 -0.081396 -0.0015863401
000230 8f 39 46 bc 13 e3 f2 bd a8 46 51 bd df 8c 40 bc
       -0.012098684 -0.11859717 -0.051092774 -0.011752336
000240 f5 de 4b 3a 8c 81 84 bd 18 16 79 3c 24 86 1f bd
       0.00077770586 -0.064700216 0.0152030215 -0.038946286
000250 55 cc 1d 3c 9f a9 9a bd 04 d5 3b 3c 00 53 62 3d
       0.009631236 -0.07551884 0.011464361 0.055254936
000260 ac 2d 9b 3c b2 eb 4d 3d 48 0f 84 3d 5f 4e ca bc
       0.018942676 0.050273605 0.06448227 -0.024695573
000270 dc e8 95 bd f3 1b e4 bd 87 e4 08 3c cd f6 47 3d
       -0.07319805 -0.111381434 0.008355266 0.048819352
000280 02 57 8d bc e3 7c c0 bd ad 66 2e 3e 0b 63 56 bd
       -0.017253403 -0.0939882 0.17031355 -0.05234055
000290 2d 0c d0 3d ef 6a 28 be 3e 32 1a bd ed 6c 38 bd
       0.10158572 -0.16447042 -0.03764557 -0.045025755
0002a0 9a 22 4f bd 91 6d c5 bd 9e 14 77 3d a8 47 86 3c
       -0.050570108 -0.09640039 0.060322396 0.01639159
0002b0 79 b1 03 be a2 34 75 3d 4e 86 6d 3d 7f 37 1a bd
       -0.12860669 0.059864648 0.05798941 -0.03765058
0002c0 aa 8f c6 bd 01 4e 33 bd d8 fb 90 3d af 39 a8 bd
       -0.096953705 -0.043775562 0.070792854 -0.08214127
0002d0 9c 96 a0 3d 43 22 82 bd c1 2b 38 3d e0 70 53 bd
       0.078412265 -0.06354191 0.044963602 -0.051621318
0002e0 9c 52 91 bd 1a 20 01 be 9e 0c 68 bd 44 b9 d9 bd
       -0.070958346 -0.12609902 -0.056652658 -0.1063104
0002f0 11 9f ef bb 74 59 24 3c 20 0c 91 bd 15 dd d0 3b
       -0.0073126634 0.010031093 -0.07082391 0.0063740113
000300 96 53 e9 bd 4c b1 66 3d ac 85 1e 3e ed d6 c9 bd
       -0.11392896 0.056321427 0.1548068 -0.09855447
000310 4d 57 f2 bd 96 80 3c bd ec 1f 99 bd a3 ae 72 3d
       -0.118330576 -0.046021067 -0.07476792 0.059248578
000320 b8 bc ad bd 08 4b 98 3c 11 45 96 bc 86 e7 80 3b
       -0.08483261 0.018590465 -0.01834348 0.0039338497
000330 54 c0 1a 3d 1c 1e 63 bd 37 df 35 bd 6e b8 2e 3d
       0.037781075 -0.055448636 -0.044402327 0.042656355
000340 ac 0c c2 3c df b4 99 bc b8 66 44 3c 32 ba 1f be
       0.023687683 -0.018763004 0.011987381 -0.15598372
000350 1d b6 2a 3d 88 6d 98 bd 27 c6 28 3e bd ad c3 bd
       0.041677583 -0.074427664 0.16481839 -0.09554622
000360 ab 35 12 3e 4e 6e 35 3e ce ba 15 3d 96 8a 13 3d
       0.14278285 0.17717859 0.036555104 0.036020838
000370 86 47 0b bd d2 60 ce bc 61 98 09 bc 6f 70 34 3d
       -0.034003757 -0.025192652 -0.008398146 0.044052538
000380 1c e9 49 bd 4f 72 cc bc d2 2f b7 3d 45 8c 6b bc
       -0.049294576 -0.02495685 0.08944668 -0.014376705
000390 5d de 97 bd 95 6b 1f bd a1 c4 00 bd 70 3d 52 3d
       -0.07415459 -0.038920958 -0.03143752 0.051328123
0003a0 63 17 94 3d 34 c4 ab bc b3 f2 3f bd a6 d3 df 3d
       0.07231023 -0.02096758 -0.046862315 0.109290406
0003b0 db 51 d0 bc 14 39 fc 3d a1 a8 08 be 24 89 58 bb
       -0.025429657 0.12315574 -0.13345577 -0.0033040727
0003c0 85 c0 3d bd 2a b0 71 3d df 6d ad 3d d9 bd 45 bd
       -0.04632618 0.059005894 0.08468222 -0.048276756
0003d0 e6 84 d0 3d 0a ca b4 3d 94 77 28 be 93 64 ad bd
       0.10181598 0.088275984 -0.16451865 -0.08466449
0003e0 b1 f2 6c 3d 22 4c df bb e6 c0 2e 3d b9 15 3a bd
       0.057848636 -0.0068144957 0.04266443 -0.045430873
0003f0 ef 9c e8 3d 86 f1 f1 3c 7a b1 e2 bd 86 d0 53 be
       0.11358058 0.029534113 -0.11069007 -0.20685014
