checkpoints/scratch_d3/best_model.pt (torch, 256405 bytes, 142 tensors)

embedder.feature_projections.0.weight f4 [32, 1]
00000000: 984a 723f 4a6d af3e 240f 68bf 1735 7fbf
00000010: 1df4 5fbf 53c2 a93e e0bb 8cbf f068 483f
00000020: cfdf a43f 7849 073f 36c7 56bf ba0d 79bf
00000030: 40c5 5abe 9a04 7bbf e01d 943f ebf9 7f3e
00000040: 0db0 a7bd be33 44bf 0f5c 95bf e591 89bf
00000050: 05f4 17be 63cb 973f b77d 09bf 37a7 4c3e
00000060: 266f 823f 284e 03bf e5fa 963f 2e3a b4bd
00000070: 9b3c 4d3f 81fc febe 3875 e5be 1a57 3d3e
0.9464507 0.34263068 -0.906481 -0.99690384 -0.8748186 0.3315607 -1.0994835 0.7828512
1.2880801 0.5284648 -0.8389772 -0.9728657 -0.21364307 -0.98053896 1.1571617 0.2499768
-0.08187876 -0.7664145 -1.1668719 -1.0747648 -0.1483918 1.1858944 -0.5370745 0.19985662
1.019017 -0.5129113 1.1795317 -0.088001594 0.801706 -0.4980202 -0.44815993 0.18490258

embedder.feature_projections.0.bias f4 [32]
00000000: 7caf 49bf 8448 5bbd d8e0 543f 9d16 e63e
00000010: e8c7 01bf c6b8 2b3f d129 4dbf 70d3 693f
00000020: 53ec e2be 0d53 0abe f5d0 8c3d 6314 2a3f
00000030: 7fe5 f43e 5efe 94be 0f46 42be f535 2c3f
00000040: 5721 5b3f 643a 23bf b66c 4e3f 8a57 773f
00000050: 4ce9 913e 8dc1 68bc 23df 7dbe 7532 723d
00000060: 8a68 b03e aa94 80be 1da8 f7be 7676 7c3c
00000070: 0540 7fbf a57f 5c3f 798d 59be ec3b cdbe
-0.7878339 -0.053535953 0.83155584 0.44939128 -0.5069566 0.67078817 -0.8014193 0.91338253
-0.44320926 -0.13508244 0.06875793 0.6643736 0.47831342 -0.29100317 -0.18972038 0.6726983
0.8559775 -0.6376097 0.8063463 0.9661795 0.28498304 -0.014206302 -0.24792151 0.05913015
0.34454757 -0.25113422 -0.48370448 0.015409103 -0.9970706 0.8613227 -0.21245374 -0.4008478

embedder.feature_projections.1.weight f4 [32, 1]
00000000: 20f8 36bf b961 1abf a6fc 103f 3037 da3e
00000010: 8fd3 92be 7e67 eebe 36b1 05be 1e8f 963e
00000020: 1372 433f 150e dcbe 6501 5dbf 8784 52be
00000030: 71cf 843f 2008 723f 1fa3 01bf a48c 58bf
00000040: 090f 543e 58ec 703e 6068 4fbf 9e44 56bd
00000050: 46d5 2e3e 1e17 1a3f 97e6 f73d 1620 343f
00000060: f125 8abf dc14 7c3f 4b26 5d3f 5ce7 443e
00000070: a00a a63e 21e5 7abf eca5 063f 8284 11bf
-0.7147236 -0.6030536 0.5663551 0.4262023 -0.2867703 -0.46563333 -0.13055882 0.29406065
0.7634594 -0.42979494 -0.8633025 -0.20558368 1.0375806 0.9454365 -0.5063953 -0.845896
0.2070886 0.23527658 -0.8101864 -0.052311532 0.17073545 0.60191524 0.121045284 0.7036146
-1.0792829 0.9846933 0.86386555 0.19228882 0.3242998 -0.9800587 0.52596927 -0.56842816

embedder.feature_projections.1.bias f4 [32]
00000000: e55f 04be a4c4 4abd f677 65bd 63dd a2be
00000010: 4ae2 4abf 61ae 31be 395c 533f 222e 323f
00000020: efab ddbe 0759 1b3f 68c0 683f 5283 80be
00000030: c72e 743e 476b 66bf 5782 ac3e 3529 013f
00000040: bdd9 b83e 3b22 dd3d 0e5c a6be 4060 fdbd
00000050: 980a 153f c459 31bf c968 b2bd 8327 41bf
00000060: a794 1cbf e78b 163e 7d42 ae3e a6ba 67bf
00000070: 8276 48bf 559b 173f beee f4be 6b9b e63d
-0.12927206 -0.049503937 -0.056022607 -0.3180953 -0.7925154 -0.17351677 0.82562596 0.69601643
-0.43295237 0.6068272 0.9091859 -0.2510019 0.23845969 -0.9000744 0.3369319 0.504535
0.3610362 0.107975446 -0.32492107 -0.12371874 0.5821929 -0.69277596 -0.087113924 -0.75450915
-0.61164325 0.14701806 0.34035102 -0.9051918 -0.7830583 0.5922139 -0.47838396 0.112601124

embedder.stabilizer_embedding.weight f4 [8, 32]
00000000: 4bb2 febc ba11 26bf 5432 04c0 191e 41bf
00000010: 9304 993f d4fe d03d 975a 94be a5eb e43e
00000020: f0b1 77bf 2eec a8bf 7032 0b40 b5ec d93e
00000030: ca4e a9be 1f61 62bf 90d0 17bf 1abe 87bf
00000040: 6373 943f 4f90 49be 4f7b 0640 4498 723f
00000050: 8c67 37bf 4684 763f de9d d73f 902f d1bf
00000060: db32 1cbf 2501 aebf 202e 96be a252 8a3e
00000070: b195 3f40 8099 91bd 55d3 cdbe bda2 acbf
00000080: 69b6 d5bf 0e69 6fbf 40e5 04bf 2f2f 0e3f
00000090: 332b a9be 1dcb 05be 5075 80bf 4f23 79bf
000000a0: 34a0 20be 49cb ba3f cee8 debf 8fc9 55bf
000000b0: 2f25 36be 1fe0 083c 4aa3 0bbe 2836 cb3f
000000c0: 3359 1cbf 2f22 42bf 6588 21be f94e 663f
000000d0: 8896 e43e 003f 953f d658 003f 4264 11c0
000000e0: 6f21 963f d54d 6bbf ea76 82bf c122 f6be
000000f0: 0633 ee3d 0382 8f3f 066e afbd 0b43 063f
00000100: e2ac a5bf daa6 953f 9847 373f 6aae e73e
00000110: 9e74 ddbe b21b 67bf bc6d e8bf 2996 edbf
00000120: 2f49 d23e 1b40 1bbf 273f 83bf 1568 9d3f
00000130: 15a4 423f c7cd d23e b685 803f f8d0 703f
00000140: b08e c23e b5cc d33e e100 843f 7ead e9be
00000150: 6df7 b1bf 8d35 15be 2a7b 81bf 1791 803f
00000160: 408a 873d 4e4d 5abf a692 143e 4636 5f3f
00000170: c2b0 2cbf 522a a13f 9ab5 f6be 1fec 233f
00000180: 498b 6abf fb59 7e3f 7c11 373f 886f b93e
00000190: 587e 92bf c6ca 683f 87b7 99be a806 8fbf
000001a0: 62b9 0cbd bad2 123f 23b3 30bf 7e3b f23e
000001b0: 7939 8fbe 3429 c13e d78d 633f bbac 1dbe
000001c0: 788c e13f ca89 953f 692d 813f aa7a acbf
000001d0: 5966 213f 12ad 78bf 032a b23d 7e7a c3be
000001e0: 9d32 8a3e f3e7 763e 7122 f23d 901b 92bf
000001f0: b82e c8bf e379 623f 4ee0 f53f 18cf f1bf
00000200: 2236 fbbf 2137 a03f 605e 313e 5871 813f
00000210: 92bd ed3e 5722 61bd 4d94 843e 0f3a a6bf
00000220: 76a4 113f 8158 eabe 1059 ac3f 665f 0a3f
00000230: 46fd bd3d 6271 93bf 529d 95bd 2ea7 72bf
00000240: c095 233e 900a 82bf 6805 893f de4b b43d
00000250: 32cb 8f3e 50cc 67be b606 c13f 21bb d7be
00000260: e5e9 8abe db09 56be 5786 2c40 5e17 cabe
00000270: b976 91bf c160 c9bf b0b2 b03e f58a 5cbf
00000280: 15a8 3bbf 9ea6 9ebe 63fc 84be 238b b9bf
00000290: 6940 673f 1462 40be df57 acbc 2c22 28be
000002a0: 5eda b03f 25e2 84be 4c21 513f 8d38 4cbf
000002b0: bc52 b33f 8318 d0be 5735 5f3f 3377 1abf
000002c0: 2fdf 60bd a447 dc3e a7d4 813e 1487 16bf
000002d0: 314a 17be 2ba3 cdbf 4de3 0440 97bd 093f
000002e0: 49c0 873f 3c79 6d3f 2367 20bf 7610 d0be
000002f0: 5d95 a73f c6db d13e ca7b 1abe ca2d 2040
00000300: d260 ff3e 9a93 2bbf 8e19 84bf 239a c93f
00000310: c650 38be 313c 24bf 0a8a f6be e4ca 5c3f
00000320: acb7 d53e eb63 0fc0 0189 193f 1aba a2bf
00000330: fe2e 00c0 a877 97bf b7b2 063e 23e6 523f
00000340: ebb2 2b3e 4075 a53d 709b 473f 4c63 0d3f
00000350: b66e 0dc0 4674 03bf 625c 64bf 4719 3bbe
00000360: 1c6f 133e 004a de3f 49ed 87bf e04c 88bf
00000370: 84ce 463f f257 d4bf 4090 8ebe ba67 a9bf
00000380: f0a6 fcbf 2fc4 373f b4c9 17c0 30df c9be
00000390: 8384 18c0 20be 113f 8515 c13e 2cc3 4abf
000003a0: 2a23 27bf 95a1 993e ba11 fabe faa2 04bf
000003b0: 7804 2040 1432 dbbd c0f6 9e3e f3c1 14bf
000003c0: 7775 d2bf c15b b4bf 33e7 1bbf ddb9 29bc
000003d0: 8d60 dbbd 6625 51c0 a2f0 ce3f 2ac3 6ebf
000003e0: 3d34 be3e 8bb2 0bbe 8edc 053f f81e aebe
000003f0: e141 933f 0c30 5c3f 0626 4d3d 90f4 b3be
-0.031090876 -0.648708 -2.0655718 -0.7543655 1.1954521 0.102048546 -0.28975365 0.44711033
-0.96755886 -1.3197076 2.1749535 0.42563406 -0.33067924 -0.88429445 -0.59302616 -1.0604889
1.1597713 -0.19683956 2.1012762 0.9476359 -0.71642375 0.96295583 1.6845052 -1.634264
-0.610151 -1.3594099 -0.29332066 0.2701617 2.9935114 -0.07109356 -0.40200296 -1.3487164
-1.6696292 -0.93519676 -0.5191231 0.55540746 -0.3304077 -0.13065763 -1.0035801 -0.973195
-0.15686113 1.4593288 -1.7414796 -0.8351068 -0.17787622 0.008354216 -0.13636509 1.5875902
-0.6107361 -0.7583341 -0.15774687 0.8996425 0.44646096 1.1659851 0.5013555 -2.2717443
1.1728953 -0.9191564 -1.019254 -0.4807339 0.11630826 1.1211551 -0.08565907 0.5244605
-1.2943385 1.1691544 0.7159362 0.45250255 -0.43253034 -0.90276635 -1.8158488 -1.856145
0.4107146 -0.6064469 -1.0253648 1.2297388 0.7603162 0.4117262 1.0040805 0.9406886
0.37999487 0.41367117 1.0312768 -0.45640177 -1.3903633 -0.14571209 -1.0115712 1.0044278
0.06618166 -0.8527421 0.14509067 0.8719219 -0.6745721 1.259104 -0.48185426 0.6403217
-0.9161878 0.9935605 0.71511054 0.36217904 -1.1444807 0.9093441 -0.30022833 -1.1173906
-0.034356482 0.57352793 -0.6902334 0.47311014 -0.27973536 0.37726748 0.88888305 -0.15397923
1.7620993 1.1682675 1.0091983 -1.3474934 0.63046795 -0.97139084 0.08699419 -0.38179392
0.2699174 0.24111919 0.118229754 -1.1414661 -1.5639257 0.88467234 1.9209077 -1.8891325
-1.9625895 1.2516824 0.17321157 1.0112715 0.46433693 -0.05496439 0.25894395 -1.2986468
0.5689157 -0.45770648 1.346468 0.54051816 0.09276824 -1.1518977 -0.07305397 -0.94786346
0.15975094 -1.0159473 1.0704775 0.08803533 0.28084713 -0.22636533 1.5080173 -0.42134956
-0.27131572 -0.20902197 2.6956995 -0.39470953 -1.1364356 -1.5732652 0.34511328 -0.8614953
-0.7330335 -0.30986494 -0.25973806 -1.4495586 0.9033266 -0.18787414 -0.021037994 -0.16419286
1.381664 -0.25953785 0.8169143 -0.7977379 1.4009624 -0.406437 0.87190765 -0.60338134
-0.054900344 0.43023407 0.25357553 -0.5879986 -0.14774396 -1.606542 2.0763733 0.53804916
1.0605556 0.92763114 -0.62657374 -0.4063756 1.3092457 0.40987986 -0.15086284 2.5027947
0.49878556 -0.670221 -1.0320299 1.5750164 -0.17999563 -0.64154345 -0.4815219 0.86247087
0.41741693 -2.2404735 0.59974676 -1.2713044 -2.0028682 -1.1833391 0.13154112 0.8238241
0.1676747 0.08079004 0.77971554 0.5522964 -2.2098823 -0.51349294 -0.89203465 -0.18271361
0.14397854 1.7366333 -1.0619289 -1.064846 0.7765887 -1.6589339 -0.2784443 -1.323478
-1.9738445 0.7178373 -2.371686 -0.3942809 -2.3830879 0.5693073 0.3771173 -0.7920406
-0.6528803 0.3000609 -0.4884165 -0.5181118 2.5002728 -0.10702911 0.3104763 -0.58108443
-1.6442097 -1.4090501 -0.60899657 -0.010359255 -0.10711775 -3.2679076 1.6167185 -0.93266547
0.3714923 -0.13642327 0.52289665 -0.34008002 1.150448 0.86010814 0.05008509 -0.35147524

embedder.res_block.0.weight f4 [32]
00000000: b7c4 6c3f 09fa 7d3f c232 873f 6ed2 8b3f
00000010: 7814 783f 3259 873f b364 873f 809d 773f
00000020: 5745 8e3f b917 813f 5fba 853f 74e1 823f
00000030: 8c85 823f 537d 843f e3bc 8d3f 666b 813f
00000040: 23bd 6e3f c8e9 763f 4895 833f 7af3 8a3f
00000050: ba4f 7d3f 4fad 863f 6595 7c3f 5b08 6b3f
00000060: 7c14 943f d650 8a3f 3280 923f 1766 6a3f
00000070: 6d1d 7e3f 4b20 823f 709f 5f3f 3f0a 733f
0.92487663 0.9920965 1.0562365 1.0923593 0.9690623 1.0574095 1.0577606 0.967247
1.1114911 1.0085365 1.0447501 1.0225053 1.0197005 1.0350746 1.1073269 1.01109
0.9325735 0.9645047 1.0279932 1.0855553 0.9894978 1.052164 0.9866546 0.91809624
1.1568751 1.0805919 1.1445372 0.91562027 0.9926365 1.0166105 0.8735266 0.9493751

embedder.res_block.0.bias f4 [32]
00000000: 1838 9c3d fa22 1a3c 9340 253d b437 f1bb
00000010: 83f9 d03c d4b9 29bd c16f 5c3d 51ee c9bc
00000020: 245d 6dbc aa25 673b 9df4 3f3c abc0 aa3b
00000030: a792 d0bc 6626 0b3d 7181 fcbc a23e b4bb
00000040: e983 76bd cbc5 8d3d 546f fbbb 0c0e 773b
00000050: 32e9 d0bb a505 d1bc 8621 28bd bfd7 2b3d
00000060: d706 63bc f239 863c f42e f5bc a98e 613d
00000070: 5c1b 8b3c 4629 dbbc c280 e53d 68bf 5c3d
0.076278865 0.009407753 0.040344786 -0.0073613767 0.025509601 -0.041436985 0.053817514 -0.02464977
-0.0144875385 0.0035270252 0.011716035 0.005210956 -0.025460554 0.033972166 -0.030823441 -0.0055006305
-0.060184393 0.06922492 -0.0076731835 0.0037697582 -0.0063754553 -0.025515387 -0.041047595 0.0419538
-0.013856611 0.016385052 -0.029929616 0.055067692 0.01698082 -0.02675308 0.11206199 0.053893477

embedder.res_block.1.weight f4 [32, 32]
00000000: 267d fbbd a0da 573e b111 eabd f346 55be
00000010: 3c36 143e eacd 043d 3949 123d d23a fc3b
00000020: ea3f f2bb 54ae 89bd e1b4 93bd 66a4 1cbd
00000030: 7d78 233c e1b2 db3d e20c 2a3e 6222 ea3d
00000040: c6d3 183e b91c 29be fdb7 b63c e428 0dbe
00000050: 648b 01be ac88 0abd 4b86 e23d d44f 43bc
00000060: 9de1 693e 415c 2cbd 7039 8c3e 40ff 3f3d
00000070: e2d3 103e 790e 13be 7560 0d3e 2648 26bc
00000080: 93f0 29be 2c1b 9a3d 0353 ccb9 dc7c e53d
00000090: e7f6 9e3d 7146 0abe 6a23 103e a319 703d
000000a0: a735 80bd 6c41 1d3e 680f 49bc f5ba 4f3e
000000b0: d1bb d23c cf86 5a3e cb17 35be 9b4f bcbd
000000c0: db7b 153e 0101 83bd 8400 b53d 5973 2b3e
000000d0: d8f6 35bd a109 38be d841 03be 3e1b bbbd
000000e0: 1a8f 82be 35ec 10be 8c87 a03d 09e2 adbc
000000f0: 43d8 ff3c e524 abbc 7359 1c3c a866 643d
00000100: 0962 febc 9307 833c da2f 243e e1b1 09be
00000110: 4cec a6bd 2a17 cabd 9521 8f3d b386 9fbd
00000120: 524d 06be c5a9 123e 9bf3 253e b27e 0e3d
00000130: 0211 6d3e 179f 483e 5e30 0fbe 8349 c93d
00000140: 7098 fb3c ad9e b63d 2701 1e3d 8e84 113e
00000150: 736c 1d3d 0112 c43d ce9e d8bd b245 12be
00000160: ac10 a6be 303a c93d 1f42 b0bd 6afd 00be
00000170: b932 87bd f6bb 0a3e 7065 9d3d 971f 6f3d
00000180: 597c ef3d f89a 4abc 9644 3d3a 8055 fc3d
00000190: ed91 2d3e 98bc 91bd 157f f73d 0079 1d3e
000001a0: 5545 0bbb 6c53 0ebe 402d 86bd f90a 05be
000001b0: ac7e 8f3d d18f 3f3e eb0a 36be a4c7 a03d
000001c0: a9db 1d3d 5598 4e3e 99ec 65bd f81b 1a3b
000001d0: 5632 313e 5223 febd 040e c8bc dd5c aebd
000001e0: a7a1 f33d 57e6 afbd 2cf0 14be 1a0a 16be
000001f0: a71e 1c3e 8709 aebd 965b b33b fa13 1dbd
00000200: 6f88 58be 6c9a b1bd 376f 5f3e 83ea 2d3e
00000210: ec4c 04be 2f02 31be 98cf d53d 1858 1d3e
00000220: d591 36be 2242 10be 50fb 31be 4fcc c5bd
00000230: ca2f d83d 0905 043e cb42 66be 203c 833d
00000240: c0dc a63d 7c4e e73d 4b5e 773d 6959 563e
00000250: 26b2 d8bd e843 8ebd 11fe 60bd 2a7d c23d
00000260: 56a2 e6bd 9e47 323e 8677 2bbe 56a5 663d
00000270: 0010 8abb 03b3 d43c 1141 e0bd 74b9 083d
00000280: 64c4 3a3e 1f17 85bc 562e d3bd 09f4 f73d
00000290: 3747 e43c 49ec 3dbe 708f 2cbe 87ab c13d
000002a0: 1a12 1c3e 1a0c 533d 21ef 14be d560 50be
000002b0: 24f7 c43c 5bd5 be3d 7e86 883d 074d 4a3d
000002c0: 3ed7 0c3d 2c49 42be f024 b83d 84bb a13c
000002d0: 8e79 f3bc aeba 873e 4739 013d 1abe d0bd
000002e0: 1a86 2bbe d118 193c ffc0 3fbc dce3 acbc
000002f0: 7d8a e13c be38 9dbe 410f 04bd 0065 34be
00000300: 8953 53bc f618 fabc 94c1 83bd 3e5c 12bd
00000310: 6398 8ebd abf7 683d 5b59 23be 8b17 973d
00000320: 3d55 ec3d 543c 1b3e 26d0 69be 6a64 6abe
00000330: e6b2 f6bc a6b5 d7bd 5dfd 993e 2312 633a
00000340: 7cc1 19be 7187 cdbd 95c8 4ebe cb5c cfbd
00000350: 46a3 283e 9b8c e63d 93e9 85bd 01eb 063e
00000360: 48bd e93d db2d 3ebe 6c2f 973e 990e f1bc
00000370: 5bec 18bd e18d 80bd 81e9 a8bd 33b6 5e3e
00000380: 5a81 18bd c990 65bc 135a 69bc 2e51 f93d
00000390: ed56 9abd 3408 11bd 8129 33bc f2d2 963c
000003a0: ec21 033e 6e79 0bbd 85d7 843d 63f8 edbd
000003b0: db42 a03c 29eb c73c 01ea 1abe 9c29 23be
000003c0: 6f93 48bd bbf5 0f3e 4509 d33d db38 8cbc
000003d0: 97e9 3bbe bd29 68bb 0053 53be a856 d3bc
000003e0: 17d7 57be e755 d13c 7bc8 3a3e 0e6c b1bd
000003f0: 5054 86bc e32d 893d 4f40 8cbd c0e1 8e3d
-0.122797295 0.21079493 -0.114291556 -0.20827846 0.14473814 0.032422937 0.03571436 0.0076974416
-0.007392873 -0.067227036 -0.07212234 -0.03824272 0.009977457 0.10727478 0.16606477 0.11432339
0.14924535 -0.16514863 0.02230453 -0.1378513 -0.1265083 -0.033821747 0.110607706 -0.011920888
0.22839971 -0.042080168 0.2738757 0.046874285 0.14143327 -0.1436099 0.13806327 -0.010149037
-0.16595678 0.07524714 -0.0003897176 0.11205456 0.07761937 -0.13503434 0.1407601 0.0586182
-0.06260233 0.15356988 -0.01227174 0.20286162 0.025724323 0.21340488 -0.17684858 -0.09194871
0.14598028 -0.06396676 0.08837989 0.1674322 -0.04442486 -0.17972423 -0.12818086 -0.091360554
-0.25499803 -0.14152606 0.078383535 -0.021225946 0.031231051 -0.020891616 0.009542811 0.055761963
-0.031052606 0.015994823 0.16033879 -0.13446762 -0.08150539 -0.098676994 0.06988827 -0.07789364
-0.13115433 0.14322574 0.1620621 0.034788795 0.23151019 0.19591938 -0.13983294 0.098284744
0.030712336 0.08916984 0.038575318 0.14210722 0.038433503 0.095737465 -0.105771646 -0.14284399
-0.32434595 0.098255515 -0.086063616 -0.1259667 -0.066014715 0.13548264 0.07685363 0.058379736
0.11693639 -0.012366049 0.0007219998 0.12320995 0.16950198 -0.071160495 0.12084786 0.15378189
-0.0021251042 -0.1389901 -0.065515995 -0.12992467 0.070065826 0.18707205 -0.17777602 0.078505784
0.038539562 0.20175298 -0.05613384 0.0023515206 0.17304358 -0.124090806 -0.024420746 -0.08513806
0.11896067 -0.08588856 -0.14544743 -0.14652291 0.15246068 -0.08497911 0.0054735644 -0.03834913
-0.21145795 -0.08672032 0.21819769 0.1698399 -0.12919968 -0.17285989 0.10439986 0.15365636
-0.17829068 -0.14087728 -0.17381024 -0.096581094 0.1055599 0.12892546 -0.22486417 0.06407952
0.081475735 0.112942666 0.06039266 0.20932545 -0.10580854 -0.06946546 -0.054929797 0.094965294
-0.11261432 0.17410132 -0.16744813 0.05631002 -0.004213333 0.025964266 -0.109499104 0.033379987
0.1823898 -0.016246377 -0.10311572 0.12107093 0.02786599 -0.18547167 -0.16851592 0.09456544
0.1524128 0.051525213 -0.14544345 -0.20349438 0.024043627 0.09318038 0.06666277 0.049389865
0.03438496 -0.18973225 0.0899142 0.019742735 -0.029721048 0.26509613 0.031548765 -0.10192509
-0.16750374 0.009344296 -0.011703729 -0.021104746 0.027531857 -0.30707353 -0.03224111 -0.17616653
-0.012898334 -0.03052948 -0.064334065 -0.0357325 -0.06962659 0.05687682 -0.15952055 0.07377537
0.115396954 0.15159732 -0.22833309 -0.22889867 -0.030114602 -0.105326936 0.30076113 0.00086620654
-0.15015215 -0.10035599 -0.20193703 -0.10125121 0.16468534 0.11257287 -0.06538691 0.13175584
0.11413056 -0.1857218 0.29528368 -0.029425906 -0.03733478 -0.06277061 -0.08247662 0.21749191
-0.037232734 -0.01401157 -0.014242667 0.12173687 -0.07536111 -0.035408214 -0.010935188 0.018411133
0.12805909 -0.03405135 0.064864196 -0.11619642 0.01956313 0.024404125 -0.15128328 -0.15933841
-0.04896873 0.14058582 0.103045024 -0.017116955 -0.18350826 -0.0035425269 -0.2063713 -0.025798157
-0.21078144 0.025553657 0.1824054 -0.08663188 -0.016397625 0.06698205 -0.068482034 0.06976652

embedder.res_block.1.bias f4 [32]
00000000: 62b2 35be 8a16 bd3c 3770 913d 7810 03be
00000010: 95e6 c73d 251b 00be a63a 4dbd b62c 2cbe
00000020: f09e 213e 22db 143e f553 a53d 0c6d 35be
00000030: 8194 0ebd 4c18 bd3d 89f7 87bb dc92 03be
00000040: 4a3a adbd 2c54 23be 2017 383e 6a1b e9bd
00000050: 9e3f cbbd 65a0 8d3d 099f 833c 7957 f0bc
00000060: 0526 f03c a3f0 3b3e 618e a63d d103 be3d
00000070: ba51 743d 59e0 1abe dbec a1bd 8ec4 19be
-0.17743829 0.023082037 0.071014814 -0.12799251 0.09760777 -0.12510355 -0.05010476 -0.16813931
0.15783286 0.14536718 0.08072654 -0.1771738 -0.034809593 0.0923315 -0.0041493815 -0.12848991
-0.084583834 -0.15950078 0.17977571 -0.11382182 -0.099242434 0.069153585 0.016067045 -0.029338585
0.029315004 0.18353514 0.08132625 0.09278072 0.059648253 -0.15124644 -0.07906505 -0.15016386

embedder.res_block.3.weight f4 [32, 32]
00000000: 501e 9b3d 0f00 34be 31c0 743d 26f9 2e3e
00000010: 8651 96bd 4679 a4bd 926c d13d f92e 203d
00000020: e626 f5bc b1bd c03c a901 d53d 40e7 a23d
00000030: 7a35 773d 14d0 913c 6cef 893e 88a5 cc3c
00000040: 5041 46be ab92 84bd 88ad 3dbd eddf 1a3d
00000050: f225 20be 1233 353e 665f 15be 1b12 183d
00000060: 5faa f1bd 14de a8bd 99c8 a63d 5b48 743d
00000070: 782f 84bd 040e eb3c 67a2 6cbe 7a4a 443d
00000080: 7777 203d 276d ad3d fa3b 173e acaf c13d
00000090: af18 3a3e 701f d0bd ed76 afbe e357 15bd
000000a0: 747d 343d 57a1 0d3e 8877 c4bd 1dbc 203d
000000b0: c8fb c2bd a01a 143e e91d c33c 051e 22be
000000c0: 4f91 1a3e df09 1abd 209c 0c3e f812 d3bd
000000d0: e611 903d 6bd7 a73c c18c 493d d198 4abe
000000e0: 674a e3bd 9d19 adbd b7f1 6fbd 70d2 033e
000000f0: e4a0 fb3d a431 b33c 3bad 4cbd 925c df3c
00000100: 4954 eeba ae3e 6c3d 1d34 e0bd a1e2 643c
00000110: 2325 abbd 2666 b23c e9b8 8fbd 84d6 9fbc
00000120: 67a6 b0bd e204 d6bd 4d34 183e 4cb3 0fbd
00000130: c8ab fabd c680 7ebd 447b 32be 85ab d13c
00000140: 1fc8 b73c e554 25be fa44 9dbd 241d 3abd
00000150: 1f38 b13c 23d5 283e c847 113e 248c 673d
00000160: 2774 393e ca00 173d dbf5 00bd 4e62 a63d
00000170: 4852 413e 0034 303e 5b21 82be 1f88 073e
00000180: cc52 003e 05c2 b6bc 07d4 36bc 0487 dbbd
00000190: 86a9 293e 22c5 4ebd 9893 7f3c 9445 cf3d
000001a0: cd23 8f3d a5aa a7bd 47af 08be b2e1 de3d
000001b0: 5e20 13bd afef 34be d176 b8bd 206c 323e
000001c0: 7785 1b3e 0e01 ca3d d795 06bb 9a74 e2bd
000001d0: f02f 353e e6c4 92bd e9c0 dc3d c0df 00be
000001e0: f92e 533d 800b c13d 273c 4abe a131 50bd
000001f0: 48d7 183e 7f4e 003e dc3d 0c3d c6b6 223e
00000200: 0c0a 0cbe 6ae1 9ebd 4b98 4cbd f107 8b3d
00000210: 06fe 5b3e 07dd 6e3d 3117 44be 89ab 93bd
00000220: 217b 1b3e 54aa 5b3e ab21 33bd 1cc7 773c
00000230: f9fb ee3d 56cb 98bc 27e7 163e 5767 c83d
00000240: 4ed5 043d 3006 19bd 401c 3fbd 0296 70bd
00000250: dd32 d3bd e469 a53d c694 71ba e482 57bd
00000260: fad6 d13d 5137 ad3d df50 aebb d873 dfbd
00000270: 6309 adbc 17da aebd 3eda f93c 664c 603e
00000280: e12a 30bb 1899 8dbc 9389 4c3d 5e16 ccbd
00000290: 6dc1 a63d 23cb 003e 8a97 6d3d 4e15 3d3d
000002a0: f6f3 2fbe 6391 bc3b 09e4 923d 89d1 89bd
000002b0: 81e0 733d cc5d 43be 825a 2cbe 05dd 0e3d
000002c0: 420e a4bd 2661 023e 76dd c2bc c0d2 44bd
000002d0: 98c2 603d 209b a13b 6390 093c 9202 263c
000002e0: d365 61bd 63ab 86bc def0 93bd 41c3 123d
000002f0: a615 033e d8b8 19be 2fef ebbd 5b6c 30be
00000300: 3d47 cf3d 6ed4 453d ebd5 dc3d 4349 9cbd
00000310: 0fe2 703d 2cf6 c93d bdc1 a2be de8f 323e
00000320: a8bb dd3c f42e 213e e24a debd 1695 96bc
00000330: 2eda 41bc 9d76 a2bc 36dd 323d bed6 0d3e
00000340: 7c79 213d 8371 8fbd 4d3b 48be 7bb5 4dbc
00000350: fee4 f2bc 19fe 51be 6cc1 823d 4d37 d73c
00000360: 953a 6f3e 2bc0 af3d 5671 56be ad3a 25bd
00000370: a7ab fcbd 2936 103e ba5b 1dbd e6d4 ec3d
00000380: 20d4 383c 2486 b13d ac73 ecbd 4f02 cc3c
00000390: 616f 74bb d243 cb3d 255e 42bd b5a4 4e3d
000003a0: 1447 21be a75d c9bc 2aca c33d 0f63 573d
000003b0: 869b 593d 5527 b7bd 6a63 1b3e 8c8e 57be
000003c0: 7e24 c53d fb88 e23d 880b 983e 4e89 89bd
000003d0: 3cb0 c43d 991a edbb 1cc3 46be c937 713d
000003e0: b087 fabd c6b2 8dbd 3ffc b53b 9012 35be
000003f0: 583b e8bb eac3 223e a464 3bbd ad53 163e
0.07574141 -0.17578147 0.0597536 0.1708723 -0.07339768 -0.080309436 0.10225786 0.039107297
-0.029925775 0.023527952 0.10400707 0.07954264 0.060353734 0.017799415 0.26940477 0.024981275
-0.19360852 -0.06473287 -0.04630807 0.03781121 -0.15639475 0.17695263 -0.14587173 0.03712664
-0.11800074 -0.08245483 0.0814373 0.059639316 -0.064543664 0.028693207 -0.23108827 0.04792259
0.03917643 0.08468085 0.14768973 0.09457335 0.18173479 -0.10162246 -0.3427042 -0.03646077
0.044064954 0.13831078 -0.09593111 0.0392419 -0.0952068 0.14463282 0.023817973 -0.15831764
0.15094493 -0.03760707 0.13731432 -0.103063524 0.07034664 0.020488461 0.0492065 -0.19784857
-0.110981755 -0.08452151 -0.058580127 0.12873244 0.12286547 0.021874256 -0.049969893 0.02726582
-0.0018183078 0.057676964 -0.1094744 0.013970048 -0.08356693 0.021777224 -0.07017691 -0.019511469
-0.08625489 -0.1045015 0.14863701 -0.0350831 -0.12239796 -0.062134527 -0.17429835 0.025594482
0.022434292 -0.16145666 -0.07679172 -0.045437947 0.021633206 0.16487555 0.14187539 0.056530133
0.18110715 0.036865987 -0.031484466 0.08124219 0.18879044 0.17207336 -0.25416073 0.1323552
0.12531585 -0.022309313 -0.01115895 -0.107191116 0.16568574 -0.05048097 0.015599154 0.10120693
0.0698925 -0.08186845 -0.13348113 0.10882892 -0.03591954 -0.17669557 -0.090070374 0.17424059
0.15187632 0.098634824 -0.002053609 -0.11057396 0.17694068 -0.07166462 0.10778982 -0.12585354
0.05155847 0.094260216 -0.19749509 -0.05082858 0.14925873 0.12529944 0.03423868 0.15890035
-0.13675708 -0.07757838 -0.049949925 0.06788624 0.21483621 0.058316257 -0.19149472 -0.07210452
0.15183689 0.21451694 -0.04373328 0.015123155 0.11669154 -0.018651646 0.14736615 0.097853355
0.032429986 -0.037359416 -0.0466578 -0.05873681 -0.10312436 0.08076838 -0.00092155894 -0.05261506
0.10246082 0.084578164 -0.005319699 -0.10910767 -0.02112264 -0.08537691 0.030499574 0.21904144
-0.0026881027 -0.017284915 0.04993589 -0.09965204 0.08142362 0.1257749 0.058005847 0.046162896
-0.17182907 0.005754636 0.071724005 -0.06729419 0.059540275 -0.1907875 -0.16831401 0.03487875
-0.08010532 0.12732372 -0.023787241 -0.04805255 0.05487308 0.0049318224 0.008396241 0.010132449
-0.055028748 -0.016439145 -0.07223676 0.03583074 0.12801227 -0.15011919 -0.1152023 -0.17228834
0.101210095 0.04829829 0.10782989 -0.07631161 0.058809336 0.09861407 -0.31788436 0.17437693
0.02706702 0.15740567 -0.108541265 -0.018381637 -0.011831803 -0.01983195 0.043667994 0.13851449
0.039422497 -0.070040725 -0.19553871 -0.012555475 -0.029650208 -0.20507087 0.063845485 0.026271487
0.23362191 0.08581575 -0.20941672 -0.04033916 -0.123374276 0.1408316 -0.038417555 0.11564045
0.011281043 0.086681634 -0.115455 0.024903445 -0.0037297832 0.09925045 -0.047453064 0.050450046
-0.1574977 -0.02458079 0.09560044 0.052584704 0.053126834 -0.08943049 0.15174642 -0.21050471
0.09626101 0.11061283 0.29696298 -0.06715642 0.096039265 -0.0072358367 -0.19410366 0.05889109
-0.122329116 -0.06918864 0.0055537517 -0.17682862 -0.0070871525 0.15895048 -0.045750275 0.14680357

embedder.res_block.3.bias f4 [32]
00000000: 39ce c2bd 55ab 083e 26f8 913d 5327 0c3e
00000010: b6c1 803d 036a 33be c914 9e3c bd97 213e
00000020: 1f81 103e 6e84 f63d a654 3dbe 0668 98bd
00000030: a0b3 c1bd 14dc 7ebc 878a f8bc f7ca 93bd
00000040: afc0 093e 98a3 dfbc 31f3 68bd 69a0 a6bd
00000050: 590e e13d daf3 b3bd 8c81 47be cb10 5a3d
00000060: a7a9 823d 1ee0 e6bd 9070 fdbd 0bb4 d5bd
00000070: 0c7e 173d d47b 013e 2de8 96bc 10f5 0e3b
-0.0951199 0.13346608 0.07127409 0.13686876 0.062869474 -0.17520909 0.01929702 0.1578054
0.14111756 0.12036978 -0.18489322 -0.07441716 -0.09458089 -0.0155554 -0.030339492 -0.07216447
0.13452409 -0.027299687 -0.05687255 -0.081360646 0.10989065 -0.08786745 -0.19483012 0.05323867
0.06380015 -0.11273216 -0.12374985 -0.10434731 0.036985442 0.12644893 -0.018421257 0.002181355

cnn_blocks.0.proj_in.weight f4 [16, 32]
00000000: 04ae 20bd de57 24be 024c a5bc 9769 f9bd
00000010: 0f4c ca3b 3aa2 9dbd 196c 013e 834f b6bd
00000020: 5d1a b2bd f4a1 f93d a914 8cbd 5a2d af3d
00000030: 57e4 cd3d c018 b83d d1b5 d83a 8341 d0bd
00000040: 631c a23d 1d91 c9bc 52c0 493c 4df8 aebd
00000050: 1154 233d b9f0 ebbd 56a8 293d 45e2 6f3e
00000060: de7c 153e a021 e4bd aaa0 43be fc44 37be
00000070: 9fac b03d bae9 083e 1155 213e 1750 09be
00000080: 43b5 edbd 9058 8e3d 184d 58bd f21f 36bd
00000090: cd24 3bbd 6e2c 5c3d ff6d ec3b 53b6 95bc
000000a0: 98e5 b03d bd05 cb3d ebcc d33d 5888 763d
000000b0: a404 5c3d cb64 903d 84cf 1b3c 2dab 633e
000000c0: d662 d83c a960 6cbe 3031 c13d 29dd 2cbe
000000d0: 9b23 3ebe 942d 0ebe 5d06 623d 8761 3e3c
000000e0: 99af 203e e8c5 dfbc bffc 193d 7c76 66bc
000000f0: 6994 003e f818 d1bd c815 cbbd 1fec 9fbd
00000100: b30c 2d3e f9f1 dcbd fb24 fb3d 8f93 12bd
00000110: d136 78bd 7ac0 23bd 49ab 1abe 00f2 2ebe
00000120: 22fc 173e 2298 84bd 4bbb 3bbe c42d cfbd
00000130: 788c 24bd aeca b83b 5014 ac3d bc54 0ebe
00000140: dbcf 2cbe 1fe8 34be c323 0ebe f0bc a23a
00000150: 01b0 6fbc f44f 8cbd bce3 4cbd d63f 893c
00000160: bd13 6b3e 7edc 04be 3fc3 c3bd 0185 e3bd
00000170: 2489 17be 82ca c43d 2828 05be 53c5 1fbd
00000180: bc4e 4a3d 1684 cd3c 5cfd 8fbd 7a9b 8fbc
00000190: fc34 e8bd 653c da3d 83ee a7bd 5620 203e
000001a0: 2b2c 8e3d 800e 9ebb 2c26 cabd 2776 ddbd
000001b0: b1b5 8c3d 05ec 303c 5d77 32be f852 b33d
000001c0: 93e8 c33d 8531 f23d 350e f43c 3951 b9bd
000001d0: db4b 0cbd 16db d73d 0dbc e63b fb1f 8bbd
000001e0: 6a24 eabc 4936 39bd 52af 093e eab1 ebbd
000001f0: b196 1dbe f9e5 2bbd abc4 7f3d 2fac b03d
00000200: 6845 46be 173c 28ba f24b ebbc 9071 133e
00000210: f2ad bc3a 8da0 363e 944d 00be d6f6 cabd
00000220: 8368 1f3d 5196 163e 8685 9c3c 3c0d 20bd
00000230: ad5f 5c3d b807 003e 446e 473d f685 0c3e
00000240: 4cc3 033e 2cfb 0fbd 51dd 04be 6cd7 063e
00000250: 711e ce3d e58a 223e be2c 523d cb14 d13c
00000260: 85e1 08be 8536 debc fa33 fb3c 1c5d b6bd
00000270: 9bda 073e 2707 913d 1ee3 92bd ddd0 a9bc
00000280: 46b4 bc3d cb4d 3d3d 2098 063e f518 623d
00000290: d01e 3e3e 504c 14be d02c 4bbd e826 e33c
000002a0: 85f7 4bbe 99dd 57bd 711b 05be f06c e33d
000002b0: b568 9cbd c40a d7bd 1839 943d a585 163e
000002c0: 359a 843d 599d 843d f54d 76be 06b0 09be
000002d0: 8d77 fdbb c939 fa3d efe3 e93d afb6 32bd
000002e0: aa0d 353e 5802 bbbd b1ed 13bc 5059 b7bd
000002f0: 14b3 193e a717 62bd e3a4 573a 05e9 273e
00000300: f895 923c 3441 cdbb b225 5fbd 05ce 86bd
00000310: 02c1 fbbc 0dc0 9a3d e220 0c3e 1e36 2e3e
00000320: dfb3 183e 499a 083d aa73 24bd 553b 53be
00000330: 7c87 ae3d dd5a 283e 2f9c 3f3d 7c24 603d
00000340: abe2 ed3d 3535 d5bc 8e2d 403e 982e edbd
00000350: 4ecd 363e f4ab f6bd a906 ca3d 1b2b afbd
00000360: 1f21 a43d 9209 d6bd 6c20 13be 0fe8 483d
00000370: 1eb7 df3d 548f 193e 928c 313d 9d66 973d
00000380: 4e0f f03d fe3a c7bd da21 233e d838 fc3c
00000390: 731b 99bd 85b2 4abc 82ca 873d ba18 043e
000003a0: e6ef f43d 2d00 f13d 460a 35bd 781e 40bd
000003b0: bea7 523e e5fb 353d 6814 b7bb 0b09 473e
000003c0: f38c b33d d12f 80bd e081 dc3c 8964 6a3d
000003d0: 0f4a 17be ceb8 2dbc 94ea 19be 3f9a 313d
000003e0: e4f5 2ebd 7910 493d b3d0 b93c 0e0d f03c
000003f0: f84a 323d cf51 513d 4e43 22be b985 8b3d
-0.039228454 -0.16049144 -0.020177845 -0.12178343 0.0061736177 -0.07696958 0.12638892 -0.089018844
-0.08696435 0.12189093 -0.06839878 0.08553572 0.10053318 0.08989096 0.0016533678 -0.10168745
0.079155706 -0.024605328 0.012313919 -0.08543453 0.039875094 -0.115205236 0.041420303 0.23426159
0.14598414 -0.11139226 -0.19104257 -0.17897409 0.08626675 0.1337041 0.15755107 -0.13409458
-0.116068386 0.06950486 -0.052807897 -0.04446406 -0.045689393 0.05375331 0.007215261 -0.018275416
0.086375415 0.09913204 0.103418194 0.06018862 0.053715363 0.07050475 0.009509925 0.22233267
0.026414316 -0.23083748 0.0943321 -0.16881241 -0.1856827 -0.13884574 0.05518185 0.011619932
0.15691985 -0.027316049 0.037594553 -0.014066335 0.12556614 -0.102098405 -0.09916264 -0.078087084
0.16899376 -0.1078834 0.12262913 -0.035785254 -0.060599152 -0.03997848 -0.15104403 -0.17084503
0.14842275 -0.064743295 -0.18333165 -0.10116151 -0.040173024 0.0056393957 0.08402312 -0.13899511
-0.16876166 -0.17666672 -0.1388083 0.0012415927 -0.014629365 -0.06851187 -0.050021872 0.016754072
0.22956748 -0.12974736 -0.095587246 -0.11109353 -0.14798409 0.09608938 -0.130036 -0.039006542
0.049391493 0.025087398 -0.07030746 -0.017530192 -0.11338231 0.106560506 -0.081997894 0.15637335
0.06942018 -0.004823506 -0.09870562 -0.108135514 0.068705924 0.010798459 -0.17428346 0.087560594
0.095658444 0.11825851 0.02979193 -0.09048695 -0.03425203 0.10539834 0.0070414604 -0.06793209
-0.028581817 -0.045217786 0.13445786 -0.11508544 -0.15389515 -0.041967366 0.062443417 0.086265914
-0.19362414 -0.00064176455 -0.028722737 0.1439879 0.0014395101 0.17834683 -0.12529594 -0.099103615
0.03891803 0.14705779 0.019106638 -0.03907512 0.05380218 0.12502944 0.048689142 0.13722977
0.12867469 -0.035151646 -0.1297505 0.13168114 0.100644 0.15873297 0.0513122 0.02552261
-0.13367279 -0.027125606 0.030664433 -0.08904478 0.13266985 0.07081442 -0.071722254 -0.020729477
0.09214072 0.046216767 0.13143969 0.055199582 0.18566442 -0.14482236 -0.049603283 0.027728513
-0.1991864 -0.052701566 -0.1299875 0.111047626 -0.07637159 -0.105001 0.07237452 0.14699419
0.06474725 0.06475324 -0.24053176 -0.13446054 -0.007735199 0.12218053 0.11420428 -0.043631252
0.17680994 -0.091313064 -0.009028838 -0.08952582 0.15009719 -0.055198338 0.0008226169 0.16397484
0.017893776 -0.0062638763 -0.05447931 -0.06582264 -0.030731682 0.07556162 0.13684419 0.17012832
0.14912365 0.033350263 -0.04014937 -0.20628102 0.08521935 0.16440912 0.046779808 0.054722294
0.11615499 -0.026026348 0.18767378 -0.11581153 0.17851755 -0.12044516 0.098645516 -0.085531436
0.0801413 -0.10451044 -0.14367837 0.049049433 0.10923599 0.14996082 0.04334695 0.07392619
0.11721669 -0.09728049 0.15930882 0.030788824 -0.07475939 -0.012371664 0.06630422 0.12900057
0.119598195 0.11767612 -0.04419925 -0.046904057 0.20571801 0.04442968 -0.0055871494 0.19437043
0.08767118 -0.0625912 0.026917398 0.057224784 -0.14774345 -0.010603143 -0.1503089 0.04335999
-0.04271497 0.049087975 0.022682523 0.0293031 0.043528527 0.05110341 -0.15845987 0.06812615

cnn_blocks.0.proj_in.bias f4 [16]
00000000: 51c4 46be 7668 b23d 0064 28be f78c 2ebe
00000010: f4ea 6b3d fb8c 883d 46b3 2a3e 90e0 24be
00000020: dd78 d1bd 6ba2 4b3e 0fac e0bc ec99 26be
00000030: 7e72 93ba 2cc2 af3d 857b f6bd 436f 8c3d
-0.19410826 0.087113306 -0.16444397 -0.17045961 0.057597116 0.06667515 0.1666995 -0.16101289
-0.10228131 0.19886176 -0.027425794 -0.16269654 -0.0011249331 0.08581957 -0.12035278 0.06857159

cnn_blocks.0.convs.0.weight f4 [16, 16, 3, 3]
00000000: 1bcd 87bd 0d4d 97bd acf8 a83d 2070 13bc
00000010: b841 2e3e d816 3a3c 6ba5 ba3d c6fe 67bd
00000020: bb9f 88bd 0a5a 603e 2791 df3d ba1e 9e3d
00000030: 5861 5fbb 790f 9e3d 6ef0 a13d 142d 023e
00000040: 7ebe 3f3e 5d3c c53a d1e1 b3bd e326 873b
00000050: 91c5 19be e6fe 10bd a739 533b 9b09 303d
00000060: 1fb3 6f3a ca5f 463c 9a4a 473d 5b7c 62bd
00000070: bd3a 613c 2b61 ecbb 16da c73c 6924 1abd
00000080: d0e6 4b3d 1327 903d 68f7 69bd f9f4 8fbd
00000090: 9d22 b23c ab94 a93d c3cf ce3d 6069 923d
000000a0: b15b a3bc fd61 f0bc 6343 e13d 8722 2bbc
000000b0: 0fec 2ebd 5008 d33d 1b0a 253d d024 07bd
000000c0: 3b53 00bd 8402 673d 91ff 9abd 75d4 b1bd
000000d0: 5a8f c3bd a2a6 33bc b7bf f73d f75f df3c
000000e0: 68ca 8d3c ac05 a0bd fb42 d1bc c09b 9a3d
000000f0: 21a0 f6bd 614d ecbd b536 783d 41d0 833b
00000100: 9393 9c3d 3334 5ebd a765 cabd 5e44 ba3d
00000110: feb6 b8bd d9e5 a23c 9b3b 0c3e 1845 afbd
00000120: 80e9 20be 36ba 10bd c863 f83b 67b9 65bd
00000130: c3f4 d0bd 43f0 0d3d ec54 a03d 0196 d3bd
00000140: 9733 65bd a6e4 9a3d 6c93 433e c545 e43c
00000150: 5531 843d 4fea 9e3d 9968 57bd 82a2 ae3d
00000160: 46e3 f63d f796 7d3c 0f24 d53c e8dc 0f3c
00000170: ce15 efbd 3abf 253d ff15 35bd 6c5c 27bd
00000180: 633f ab3d d2ce 163c 31d1 933d dcad 7cbc
00000190: 5e28 27bc 153f 00be 8fdd d0bc d093 1dbe
000001a0: d588 62ba b6f0 3f3d 679e bfbd 3650 6e3d
000001b0: 499b ac3d 1010 f1bd d656 033e a665 d73d
000001c0: 1bb5 803d 19af c9bd fb20 093d 0719 243e
000001d0: cc49 813d 6fed 823d a711 9f3d 249b c53d
000001e0: c01e 553d 4553 a73c db78 fb3d f081 7f3d
000001f0: 6606 e5bd 463f 0abe cca9 5b3d 5609 febc
00000200: 2422 723d 91ba 6b3d 1f99 bc3c 0f7c 1c3d
00000210: f151 603c 379d 3dbc fdaf 9bbd b6a4 d43d
00000220: c250 45bd ca12 e43c 81ac 31bd e9fc 01bd
00000230: 26e9 953b 631c a43d 7519 1c3d fda2 edbc
00000240: 6ec7 903d df44 0bbe e7bb 073e b038 8c3d
00000250: f5a9 c23d 83b3 bf3d cbfb f1bd e3d5 b23c
00000260: f847 f63d 81d2 debb b990 a13d 6e89 293b
00000270: 5c6e 853d ba3f c7bd 4f95 93bd e83e c5bb
00000280: 6ce8 ad3d b67a 42be d6db f33d d98b 2bbe
00000290: 90e9 4e3d 57fe c83d f729 48bd 6179 0d3d
000002a0: 4ea9 c23c da2f b23d c5be 97bd 7c87 fb3d
000002b0: ed8a a1bd 9b03 dfbd 9a9d 07bc 7019 253c
000002c0: 15bc a53c 233b a03d d6b6 803d 5d2a 99bb
000002d0: 1110 9c3d 5a49 11bd 704a 393d 3708 daba
000002e0: b265 aebd 3018 563d 4353 f8bd 1cfd 9bbd
000002f0: 569c b2bd f842 06bd 7333 263d e2c3 02be
00000300: 31be da3d cbcb 0c3d 2709 b6bd d012 20bc
00000310: cd15 2cbe d763 bbbd 3d88 cdbd d894 8c3d
00000320: f5a9 ac3c 0b95 8c3c cae6 b2bb da46 46bc
00000330: f850 ac3d bcbd 123d 5691 123d ecca 413c
00000340: 98a1 b4bc f981 fa3d 4f40 3ebd 61eb 9d3c
00000350: bf71 b43c 036f 07bb f5d4 793e 3c21 10be
00000360: 7a18 063e 7442 40bd 8b5e b33d 8ae8 b8bc
00000370: 9cbb 123b bcc6 bd3d 0d0e e33c c562 31bd
00000380: bde3 cfbd 1b43 783d 94f7 60bd c61d b63d
00000390: 882b 683d 8179 c83c 6432 e7bd 98c2 22bb
000003a0: 9938 bb3a 6141 cc3d 1268 91bc 0576 503c
000003b0: 8467 b4bd dee9 9e3d 1bde 033d f117 9b3d
000003c0: 53d7 f83c 4281 a3bd 9b64 ac3d da65 f33c
000003d0: eec8 27bc d87e 853c a25c c0bd f4b6 c3bd
000003e0: 4555 51bd f30e 9e3d c109 ecbb c18b 823d
000003f0: 69e9 453d c0cd 973d cb6c 433b 8653 e5bd
-0.06630918 -0.07387743 0.082505554 -0.008998901 0.17017257 0.011357985 0.09113582 -0.056639455
-0.06671091 0.21909347 0.109163575 0.077207044 -0.003408512 0.07717795 0.079071864 0.12712508
0.18725011 0.0015047897 -0.087833054 0.0041245087 -0.15016772 -0.03539934 0.0032230408 0.04297791
0.00091438176 0.012107799 0.04865513 -0.055294376 0.013746914 -0.0072137318 0.024395984 -0.03763238
0.049780667 0.07038703 -0.05712071 -0.07029147 0.02174502 0.08280309 0.10098221 0.07149005
-0.019941183 -0.0293436 0.10999181 -0.010445244 -0.04270559 0.1030432 0.04029284 -0.03299409
-0.031329375 0.056398883 -0.07568277 -0.08683101 -0.095488265 -0.010965021 0.120971136 0.02726744
0.017308429 -0.07813582 -0.025544634 0.07549238 -0.12042261 -0.11538196 0.060599048 0.0040226285
0.07645335 -0.054249 -0.0988267 0.09095071 -0.09019278 0.01988499 0.13694613 -0.085581005
-0.15714073 -0.035333835 0.007580254 -0.056085017 -0.102029346 0.03465296 0.078286976 -0.10331345
-0.055957403 0.075631425 0.19099206 0.0278653 0.06454722 0.077595346 -0.052589986 0.0852709
0.12055068 0.015477887 0.02601817 0.0087806955 -0.11674081 0.04046557 -0.04421043 -0.040859625
0.083616994 0.009204583 0.072176345 -0.015422311 -0.010202495 -0.12524064 -0.025496272 -0.15388417
-0.00086416054 0.04686042 -0.09356385 0.058181964 0.08428056 -0.11770642 0.12826094 0.10517435
0.06284543 -0.0984785 0.03347872 0.16025172 0.06312904 0.06392943 0.07767039 0.09648731
0.05203128 0.020425448 0.12278911 0.062379777 -0.11182861 -0.135007 0.053628728 -0.031010311
0.05911459 0.05755097 0.023022233 0.03820425 0.013691411 -0.0115731275 -0.076019265 0.103829786
-0.04817272 0.02784099 -0.043377403 -0.031735335 0.0045749126 0.08013227 0.038110215 -0.029008383
0.07069288 -0.13600491 0.13255273 0.0684675 0.09505073 0.09360411 -0.11815604 0.021830505
0.12025446 -0.0067999964 0.07888932 0.0025869268 0.0651519 -0.09728952 -0.07206213 -0.006019462
0.084915966 -0.18992123 0.11907165 -0.16752566 0.05051571 0.098141365 -0.048868146 0.034539584
0.023762371 0.08700533 -0.07409433 0.12281701 -0.07887826 -0.108893596 -0.008277321 0.010076866
0.020231286 0.078237794 0.06284873 -0.0046742395 0.07620252 -0.035470344 0.045237005 -0.0016634528
-0.085154906 0.05226916 -0.12125256 -0.07616636 -0.08721225 -0.03277871 0.04057641 -0.12770036
0.106808074 0.03437404 -0.088884644 -0.00977011 -0.16805191 -0.09149902 -0.10035751 0.06864327
0.021077136 0.017160913 -0.005459641 -0.012101853 0.08413881 0.035825476 0.035783134 0.0118281655
-0.02204971 0.122318216 -0.04644805 0.019277276 0.022026895 -0.0020665533 0.24397643 -0.14075178
0.13095275 -0.046938375 0.08758267 -0.02257182 0.0022389656 0.09266421 0.02771666 -0.043307085
-0.101508595 0.06061087 -0.05492361 0.088923976 0.05668214 0.024472 -0.11288908 -0.0024835225
0.0014283835 0.099734075 -0.01774982 0.012723451 -0.088088065 0.077594504 0.03219424 0.07572926
0.030376112 -0.07983638 0.084176265 0.029711653 -0.010240776 0.016295835 -0.09392668 -0.0955638
-0.05110671 0.07717695 -0.007203311 0.06374312 0.0483183 0.074122906 0.0029819484 -0.111975715

cnn_blocks.0.convs.0.bias f4 [16]
00000000: a269 4d3d af37 a5bd 8c90 67bc 35ab 1dbc
00000010: 5a69 b4bd a19b 663d 2ff1 d7bc a290 1b3d
00000020: 96da ac3d f34a 933c 631f d53c bbd3 11bd
00000030: aeb0 213b 0a55 083c d3dc 6d3d 9f26 9c3d
0.050149567 -0.080672614 -0.014133584 -0.0096233385 -0.08809157 0.056300763 -0.026360122 0.03797973
0.084401295 0.017980075 0.026015943 -0.035602313 0.002467196 0.008321056 0.058071923 0.07624554

cnn_blocks.0.convs.1.weight f4 [16, 16, 3, 3]
00000000: 45da 85bd f0a0 61bc 93c3 dd3a eb6c 80bd
00000010: 881f 7b3d 9e2e 013e 42ed 203c 62a5 2b3d
00000020: 9c98 7b3e f73a 6b3d 91e5 91bc 35e2 9d3d
00000030: e288 013d a89c 2f3d 5652 1e3d e0c5 28be
00000040: 614e ecbc 1366 5e3b ce3a f8bd e930 3ebd
00000050: bf16 38bd 0cd6 713d ee10 063c af0f 3b3e
00000060: 9a0c e8bb 624f c7bd 5640 cb3d 4bdc cf3b
00000070: 1973 a9bd 5cb4 9c3d 0beb 2dbd 964b 583c
00000080: c52e d73c af7d 60bc c1ad 053d 68e2 32bd
00000090: 427e 1ebd 0dca 2f3d 9c4a 70bd 6659 aebc
000000a0: 1f83 073d fc53 b13d c43b d53c 223b e63d
000000b0: 8ec9 a13d c991 913b 282b 633d 20f9 17bd
000000c0: b8cd 8d3d 2d8d 0d3b d45a 303d a9b6 88bd
000000d0: f623 d2bd 7f45 973c 5878 6a3d 19cd c23d
000000e0: 8ebe 9f3d 6989 fdbd 8e2e fb3c de1d 53bd
000000f0: ee0d 70bc 7255 bebd 76f7 2ebe 6982 573d
00000100: 599f 9fbc 3b44 e8bc 4203 9d3c 4b0c 053b
00000110: 05c9 34bc f7bd 9cbd 76c9 6ebb 71d8 583d
00000120: 3193 b7bb 3f4f e6bd 2490 a83c d29a 113d
00000130: a273 13be ccd3 da3b e644 f8bc ba16 4e3c
00000140: 0d15 d53b e3a0 d2bd 04d1 c5bd 24ae a93c
00000150: c399 86bd 3140 913c 0d96 98b9 da8f 83bc
00000160: 4af3 a53d 68dc 50bd 3f70 1f3e b237 79bc
00000170: 1d83 aabd 6288 003d 66d3 ec3d 54fb ab3b
00000180: 93ff 0c3e 9068 2e3e 06c2 e2bc b1cf b7bd
00000190: f9f0 d2bc 9131 fc3d 8d5a 56bd 7fbf 803d
000001a0: 75b3 413d e51c 0ebe fe36 bf3c 179f 153c
000001b0: 2e66 2b3d 4d95 0ebd 248e f13d 5719 61bc
000001c0: 0e42 1fbd b2b8 9b3d a4f4 71bd d2ec 54bd
000001d0: bc55 1b3b 24b9 253d 135f c0bd 6201 c7bc
000001e0: 389a d7bc 6511 94bd 2646 65bd 3f9f f23c
000001f0: c4db eb3d a3a8 e6bd f149 173e da3c a33d
00000200: 511f d33c 5ae3 be3d 2e31 06bd 0ac4 ec3d
00000210: f1dc 2abe 53f6 cc3d 2f4c f43d a64c 21bb
00000220: 5bec b23b 80c6 b3bb 9dcf b33b b978 83bd
00000230: ed81 a4bc 4fc4 4ebd 58d7 5c3a 5d48 d0bd
00000240: 2d1f c9bc 4d8f c6bd 72ec afbc 558e d7bd
00000250: fba2 dbbd 44a1 3fbd aa19 14bb e506 02be
00000260: fb13 663d 476c f0b9 d4a1 b13d dc7e 3fbd
00000270: b6ce cc3d e80a 11be 0f25 a53c a09e d83c
00000280: c52a 6fbd 06b5 9c3c b02e 383d bb8e fbbd
00000290: 506a 52bd 53e1 f3bc ac40 4dbd c38c ebbd
000002a0: 9f49 6e3c 2407 1ebe 372d 9fbb d00b 1c3d
000002b0: 3b62 a83c 2dc0 033c 6253 a53d fbfc c63c
000002c0: 9948 70bd 525b 1bbc 9de2 5fbc 34a2 8c3d
000002d0: 2eaf 673d 2b0d e9bd f375 9ebc a6a8 133c
000002e0: 583b 3abd 1c4b 1fbd 927c 20be 2f5a 02bd
000002f0: 75cf 90bb c158 ea3d 641c 323d f240 46bc
00000300: 234e 22bd 7cf1 0bbe 2249 45bd 5edc 213c
00000310: 1184 dfbd fd49 c83b 02c1 7dbe 63e8 a2bd
00000320: 15f9 823d c5c8 a93d fd31 143d c86b babd
00000330: b9d3 6bbd 9123 dabc fbd8 7a3d 398c 6d3d
00000340: e2c8 e03d e751 d33d 95d0 bf3d e3d8 8ebd
00000350: c5a0 c7bd a6ed 383e c770 233d d3db 50bd
00000360: a230 3cbd 3f95 f1bd 6e1d ae3d be44 0c3d
00000370: 6ab3 d33d 618c 96bd 5a55 753d 75f8 b7bb
00000380: e70e 1f3d 0d91 903d 0e79 933d 1804 00bd
00000390: 47ae af3d 138b 5d3c 93a1 7fbd 775f 81bd
000003a0: f872 243d 440e 9dbd 3895 093c c287 ef3c
000003b0: 69e7 84bd 0e10 c0bd f8d0 15bc bfe1 a53d
000003c0: 26f0 2e3d 83c9 b43c 4f9d 89ba 6c11 763d
000003d0: 20cd 81bc cbf2 cc3c 8ebb ab3d 2a72 9dbc
000003e0: d9c7 173d 8e76 be3d 1586 6f3c 9dc9 93bd
000003f0: c544 ddbd d797 8d3c 2587 fc3d bdab 67bd
-0.06535772 -0.013771281 0.0016919248 -0.062707745 0.061309367 0.1261544 0.009822192 0.04190577
0.24569935 0.05742928 -0.017809661 0.07709161 0.031624682 0.04287401 0.03865274 -0.16481733
-0.028845968 0.0033935353 -0.12120591 -0.046433363 -0.044943567 0.05904202 0.008182747 0.18267702
-0.0070815803 -0.09731938 0.099243805 0.0063433996 -0.08273906 0.07651588 -0.042460483 0.013201615
0.026267419 -0.01370184 0.032636408 -0.04367295 -0.038694628 0.0429173 -0.058664903 -0.021282863
0.03308403 0.08658597 0.026029475 0.112417474 0.07899772 0.004442428 0.05546108 -0.03710282
0.06924003 0.002159904 0.04305537 -0.06675465 -0.10260765 0.018465756 0.057243675 0.095117755
0.07800017 -0.123797245 0.030661847 -0.051542155 -0.014651759 -0.09293641 -0.17086586 0.052614603
-0.019485163 -0.028352847 0.019166593 0.0020301517 -0.011034255 -0.076534204 -0.0036435998 0.05294079
-0.0056022634 -0.11245584 0.020576544 0.03554804 -0.14399579 0.00667808 -0.03030629 0.012578661
0.0065027536 -0.10284593 -0.09659007 0.02071292 -0.065722965 0.017730804 -0.00029103496 -0.016059805
0.08103044 -0.050991446 0.15570162 -0.015211033 -0.08325789 0.031380065 0.115637586 0.0052484665
0.13769369 0.17032075 -0.027680408 -0.08975161 -0.02574967 0.123141415 -0.05233245 0.06286525
0.047290284 -0.1387821 0.023341652 0.009132168 0.041845493 -0.034810353 0.11794689 -0.013738952
-0.038881354 0.07603587 -0.059071198 -0.051983662 0.0023702225 0.040459767 -0.09393134 -0.024292652
-0.026318654 -0.0722988 -0.055975102 0.02961695 0.11516526 -0.11262634 0.147743 0.07970591
0.025771769 0.093207076 -0.032761745 0.11560829 -0.16685845 0.1000792 0.11928593 -0.0024612336
0.0054603047 -0.0054863095 0.005487396 -0.064195104 -0.020081485 -0.050480183 0.00084244227 -0.10170052
-0.024550999 -0.09695301 -0.02147505 -0.105251946 -0.107244454 -0.046784654 -0.0022598305 -0.12697943
0.0561714 -0.0004585704 0.086734444 -0.046751842 0.100003645 -0.14164317 0.020159272 0.026442826
-0.058390398 0.019129287 0.0449664 -0.12283083 -0.05137092 -0.029770529 -0.050110504 -0.115014575
0.01454392 -0.15432411 -0.004857685 0.038097203 0.020554652 0.008041424 0.08072545 0.024290552
-0.058662985 -0.009482222 -0.013664869 0.06866875 0.05656355 -0.11379465 -0.019343352 0.009012377
-0.04546675 -0.03888999 -0.1567252 -0.031824287 -0.004419262 0.1144271 0.043484107 -0.012100445
-0.0396253 -0.13666338 -0.048165448 0.0098792 -0.109138615 0.0061123357 -0.24780658 -0.079544805
0.06395165 0.08290247 0.036180485 -0.09102589 -0.05757496 -0.026628288 0.061242085 0.057995055
0.10975815 0.10318356 0.09365956 -0.069749616 -0.09747461 0.18059406 0.039902475 -0.05099089
-0.045944817 -0.117960446 0.08501707 0.034245245 0.10336955 -0.07350994 0.05989585 -0.005614335
0.03883257 0.07058916 0.07200824 -0.031253904 0.08578163 0.013521927 -0.06240995 -0.063170366
0.040148705 -0.076687366 0.008397393 0.029239539 -0.064894505 -0.09378062 -0.00914406 0.08099698
0.042709492 0.022068745 -0.0010499152 0.06007521 -0.015844882 0.025018116 0.083853826 -0.019219477
0.037055824 0.09299956 0.01461937 -0.07216189 -0.10804132 0.017284317 0.12330464 -0.056560267

cnn_blocks.0.convs.1.bias f4 [16]
00000000: fce3 853d 9530 aebd ce97 b43c ab84 75bd
00000010: 02d7 423d 2161 413d 11f1 42bd 0051 753d
00000020: 38e7 893d 4d56 a63d 9aa8 89bd 84f1 31bd
00000030: 1e67 733d ffbe 883d b0a0 0fbc 3910 633d
0.06537625 -0.0850536 0.022045042 -0.059940975 0.04756833 0.04721177 -0.04759318 0.0598917
0.067335546 0.08121929 -0.06721611 -0.043443218 0.059424512 0.066770546 -0.008766338 0.055435393

cnn_blocks.0.norms.0.weight f4 [16]
00000000: ca3c 7d3f 8acb 743f 005d 803f 2ad3 763f
00000010: 69d9 813f 6d3b 813f dedd 843f e5b8 7a3f
00000020: 7bf2 7a3f ef1f 8a3f 50be 8a3f 4ca5 743f
00000030: 4a9b 773f a469 783f 8408 753f 5050 6f3f
0.9892088 0.95623076 1.0028381 0.9641596 1.0144473 1.009626 1.0380208 0.97938377
0.98026246 1.0790995 1.0839329 0.95564723 0.9672133 0.97036195 0.9571612 0.9348192

cnn_blocks.0.norms.0.bias f4 [16]
00000000: 8061 7cbd 4eb7 97bd b5db 76bd d8a0 f1bd
00000010: 6c73 02bc afdc fdbd 975c f9bd 018f 94bd
00000020: f76b e1bd fdbe 423d 7b99 1ebe f812 6cbd
00000030: 8c98 a8bd 330b 90bd 574b 66bd 289d 47bd
-0.06161642 -0.074080095 -0.060268123 -0.11798257 -0.007962089 -0.12395608 -0.12175863 -0.07253838
-0.11006921 0.047545422 -0.15488236 -0.057635278 -0.08232221 -0.07033386 -0.056224193 -0.04873386

cnn_blocks.0.norms.0.running_mean f4 [16]
00000000: 0968 71be 1280 b9bd 15f1 7abe 8f1b 6dbe
00000010: f6e4 8cba c4e8 573e ce47 ddbb fdf1 d9bc
00000020: f8f3 b8bd 5deb 983d a11b 5d3c 60a7 56bd
00000030: 5f30 703d c35e 333e 57fd bb3d 5e96 943e
-0.23574843 -0.090576306 -0.24506028 -0.23155044 -0.0010749388 0.21084887 -0.0067529446 -0.026604647
-0.09030908 0.07466767 0.013495357 -0.052405715 0.05863988 0.17516617 0.0917918 0.2902097

cnn_blocks.0.norms.0.running_var f4 [16]
00000000: 0393 143e d048 6f3d bc23 f53d d2ae b03d
00000010: 9d0a 813d 3bff 9b3d 0404 c23d cd36 db3d
00000020: 20b7 b83d 8049 c43d f489 9c3d d42c e93d
00000030: 37a1 b93d 483f bf3d 3b96 a93d e092 ce3d
0.14509206 0.05841905 0.119697064 0.08627094 0.063008524 0.07617041 0.09473422 0.10703812
0.09019303 0.095843315 0.076435 0.113855034 0.090639524 0.09338242 0.08280607 0.10086608

cnn_blocks.0.norms.1.weight f4 [16]
00000000: 322c 833f c1b3 893f 342e 853f e9c2 883f
00000010: 4d97 8d3f d824 8f3f a408 8d3f 208e 8e3f
00000020: bb1d 8c3f 7f4e 843f f359 893f 8417 7c3f
00000030: 9839 8d3f 70c0 933f 1491 823f 9796 8b3f
1.0247862 1.0757982 1.0404725 1.0684482 1.1061798 1.1183119 1.1018262 1.1137123
1.0946573 1.0336455 1.0730575 0.9847338 1.1033201 1.1543102 1.0200524 1.0905331

cnn_blocks.0.norms.1.bias f4 [16]
00000000: daaf 4cbc 123e d13c 9905 d0bc 9934 a8bc
00000010: a0e6 203d 4bcb 59bd 78c9 14bd 4aeb 723c
00000020: 5a22 0abd f4b0 ca3b 6587 aebc fdd1 74bd
00000030: 1e58 c0bd b2d3 c23c d756 83bd c9cc 24bc
-0.012493098 0.025542293 -0.025393294 -0.020532893 0.03928244 -0.05317239 -0.036324948 0.014826605
-0.033724166 0.0061856452 -0.021304796 -0.059770573 -0.09391807 0.023782585 -0.06413048 -0.01005859

cnn_blocks.0.norms.1.running_mean f4 [16]
00000000: 52af 613d 65d3 7ebe e7b6 08be a510 d13c
00000010: 4212 bc3d 51a0 4d3d a251 9f3d 300d ee3b
00000020: 4e7e 98bd 30fe 993e eade 3ebe 449c ce3b
00000030: d9f1 1e3e 798c 32be afc5 0b3d 36be a0bd
0.05509884 -0.24885328 -0.13351022 0.025520632 0.0918317 0.050201718 0.07779242 0.0072647557
-0.07445966 0.30076742 -0.18639722 0.0063052494 0.15521945 -0.17436399 0.034124073 -0.0784878

cnn_blocks.0.norms.1.running_var f4 [16]
00000000: 3ae5 183e ad05 803e 0ae2 de3d 2554 f53d
00000010: 5c89 6a3e 4a14 e93d 4da3 153e bd26 db3d
00000020: f509 443e 5347 1f3e d070 fa3d 6d9c 123e
00000030: 4f30 1f3e a85f 5e3e b6b1 d83d 123d 4c3e
0.14931193 0.2500433 0.10882957 0.1197894 0.22903961 0.11380823 0.14613076 0.10700748
0.19144423 0.15554552 0.122285485 0.14317484 0.15545772 0.21716177 0.10580771 0.19945171
