checkpoints/scratch_d3/final_model.pt (torch, 86002 bytes, 50 tensors)

embedder.feature_projections.0.weight f4 [32, 1]
0	0xbce03920	-0.02737099
1	0xbf6e261b	-0.93026894
2	0x3f8aa767	1.0832337
3	0x3de964b9	0.113961644
4	0xbe1690a7	-0.14703618
5	0xbf0c065a	-0.5469719
6	0x3f351bf5	0.70745784
7	0xbf9bfed7	-1.2187146
8	0xbf40c25f	-0.75296587
9	0x3f8781c8	1.0586481
10	0xbebd01e2	-0.369155
11	0xbf89e36b	-1.0772527
12	0xbf7b313f	-0.9812202
13	0x3f31526d	0.69266397
14	0x3f6570cf	0.8962526
15	0x3f683d7a	0.90718806
16	0xbec7463b	-0.3892077
17	0xbf42a6e6	-0.76035917
18	0xbe323195	-0.17401727
19	0xbf98920d	-1.1919571
20	0xbea03816	-0.3129279
21	0xbf9270e5	-1.1440703
22	0xbe25664a	-0.16152301
23	0xbd948055	-0.0725104
24	0x3d0dbbef	0.034603056
25	0x3f41cc83	0.75702685
26	0x3e3fee26	0.1874319
27	0x3f7a5c21	0.9779683
28	0xbf5d7b0b	-0.86515874
29	0xbee39901	-0.4445267
30	0x3f9d6675	1.2296892
31	0xbeed7889	-0.46381024

embedder.feature_projections.0.bias f4 [32]
0	0xbdeb076b	-0.11476024
1	0xbef8748f	-0.48526427
2	0xbe6e9618	-0.23299444
3	0x3f3375ec	0.7010181
4	0xbe7c38e0	-0.24631071
5	0x3b127c4e	0.0022351923
6	0xbe9a7d5c	-0.30173767
7	0x3d2d3a14	0.042291716
8	0xbee1bdaf	-0.4409003
9	0xbda295d2	-0.07938732
10	0x3e31f295	0.17377694
11	0xbcbfa280	-0.023392916
12	0x3eb3581d	0.35028163
13	0xbf760413	-0.96099967
14	0xbe3ed697	-0.18636547
15	0x3f41de66	0.7572998
16	0x3f5e7de6	0.86910856
17	0x3f636614	0.88827634
18	0x3e73c658	0.23806131
19	0x3f4bc155	0.79591876
20	0xbf00f748	-0.5037732
21	0x3f4e97e5	0.8070052
22	0x3f2420f8	0.64112806
23	0xbdc8c497	-0.098031215
24	0xbf0ce4d4	-0.55036664
25	0xbf244eae	-0.64182556
26	0x3d2ed076	0.042679273
27	0x3e875e18	0.26438975
28	0x3f466358	0.77495337
29	0x3f0843ec	0.5322864
30	0x3f03cdbf	0.5148582
31	0xbf474bab	-0.77849835

embedder.feature_projections.1.weight f4 [32, 1]
0	0xbdae5194	-0.085116535
1	0xbe9addf3	-0.3024746
2	0xbf20de46	-0.6283916
3	0xbe9ba21d	-0.3039712
4	0xbe2610cd	-0.16217346
5	0x3f3052d9	0.68876415
6	0xbf6a2a5a	-0.91470873
7	0xbf539060	-0.82642174
8	0xbf56be16	-0.838838
9	0xbf42fa64	-0.76163316
10	0x3f088bb0	0.53338146
11	0xbf0d4417	-0.5518202
12	0xbf34fde4	-0.70699906
13	0x3f1cf8de	0.6131724
14	0xbf5a8346	-0.8535656
15	0x3f14de47	0.5815167
16	0xbf0752b9	-0.528606
17	0x3e443a8c	0.19162959
18	0x3e49aa15	0.19693787
19	0xbf731204	-0.94949365
20	0x3f3b5bac	0.73186755
21	0xbdab3f5b	-0.083616935
22	0xbea6fb4b	-0.32613596
23	0xbf2ed646	-0.68295705
24	0x3e9747dc	0.29547012
25	0x3f3a5110	0.7277994
26	0x3f4b109d	0.79322225
27	0xbe078a1d	-0.1323628
28	0x3edf5c0a	0.43624908
29	0xbd526f14	-0.051375464
30	0x3f50786c	0.8143375
31	0xbecb5acb	-0.39717707

embedder.feature_projections.1.bias f4 [32]
0	0xbd26db65	-0.040736575
1	0x3f3b9d24	0.7328665
2	0x3ea4af62	0.32165056
3	0x3e44aa24	0.19205528
4	0x3f0d5de1	0.5522137
5	0xbf052afb	-0.5201871
6	0x3d274ebf	0.040846583
7	0x3f082348	0.53178835
8	0xbda19703	-0.07890131
9	0xbb6231b6	-0.0034514493
10	0xbf4ae2ac	-0.79252124
11	0xbf1d80a1	-0.615244
12	0x3e41a8bc	0.18912023
13	0xbe95c291	-0.29250005
14	0xbe05174d	-0.1299717
15	0x3f47a5e0	0.7798748
16	0xbf68c788	-0.9092946
17	0x3e0b3d02	0.13597491
18	0x3f61599d	0.88027364
19	0xbc88604e	-0.016647484
20	0xbf5a6189	-0.85305077
21	0x3f26efad	0.65209466
22	0x3ecc22a6	0.39870185
23	0x3f4680e0	0.775404
24	0xbecadca3	-0.39621457
25	0xbe021ac6	-0.12705526
26	0x3f3f3f45	0.74705917
27	0xbede9eee	-0.4348063
28	0xbec9d9d5	-0.39424005
29	0xbf18614a	-0.5952345
30	0xbeb16517	-0.34647438
31	0x3db68937	0.089128904

embedder.stabilizer_embedding.weight f4 [8, 32]
0	0xbfe1a217	-1.7627591
1	0x3f1d7c48	0.61517763
2	0x3e812182	0.25220877
3	0x3f876a09	1.0579234
4	0xbfcf5243	-1.6196979
5	0xbf847c14	-1.0350366
6	0xbfa158df	-1.2605246
7	0xbfc56dc0	-1.5424118
8	0x3ed56d3f	0.4168491
9	0x3ef640ec	0.48096406
10	0x4002a094	2.041051
11	0x3f06d127	0.5266289
12	0xbf7f27a7	-0.9966988
13	0x3ed1e962	0.4099837
14	0x3cf3314d	0.029686594
15	0xbea54f11	-0.32286885
16	0xbfa864bb	-1.315574
17	0x3f14c891	0.5811854
18	0x3eef73c0	0.46767998
19	0xbf0956e0	-0.53648186
20	0x3e4e5ad2	0.20151833
21	0x3f95c19c	1.169971
22	0x3bf8dd88	0.007594768
23	0x3f48ce40	0.7843971
24	0x3eecc678	0.4624517
25	0x3e8e5bfa	0.27804548
26	0xbe05b0af	-0.1305568
27	0x3f3d45c9	0.7393461
28	0xbf10c4d3	-0.5655033
29	0x3efde730	0.49590445
30	0x3f7da9f4	0.9908745
31	0x3e53480f	0.20632957
32	0x3f267945	0.6502879
33	0xbf94da93	-1.1629204
34	0xbecb1c11	-0.3966985
35	0xbf422953	-0.75844306
36	0x3f85efe1	1.046383
37	0x3fd80199	1.6875488
38	0xbff5a17d	-1.9189907
39	0x3f7914af	0.97297186
40	0x3edc2db6	0.43003625
41	0x3f47a978	0.77992964
42	0x3fab8518	1.3399992
43	0xbf2adecc	-0.6674621
44	0x3e1672bf	0.1469221
45	0xbf63c013	-0.88964957
46	0xbf9751ad	-1.18218
47	0x3f89d0de	1.0766866
48	0x3ff58bab	1.9183248
49	0xbe882332	-0.26589352
50	0x3eec996e	0.46210808
51	0xbf3ace11	-0.7297068
52	0xbd5af8c9	-0.053459916
53	0xbf6ef9ba	-0.933498
54	0xbedb7bbe	-0.42867845
55	0xbf00a383	-0.502495
56	0xbf0a5d91	-0.5404902
57	0x3fcb4877	1.588149
58	0xbd971ecd	-0.07378922
59	0x3f5c6b45	0.8610118
60	0x3f7d094a	0.988423
61	0xbf063307	-0.5242161
62	0xbe76ba8e	-0.24094602
63	0x3ea75d25	0.3268825
64	0x3f9b60b3	1.2138885
65	0x3f4ff8d1	0.8123904
66	0xbf284e14	-0.6574414
67	0xbfea3f70	-1.830061
68	0xbfe7cd92	-1.810961
69	0x3f33da31	0.7025481
70	0x3e9cac6d	0.306003
71	0xbec8db36	-0.39229745
72	0xbe36a3ed	-0.1783597
73	0x3f68426b	0.90726346
74	0x3eb8f9be	0.36128038
75	0x3f81810c	1.0117507
76	0x3e6f5b4b	0.23374669
77	0x3f8986b2	1.0744231
78	0xbff85766	-1.9401672
79	0xbc683daf	-0.014174863
80	0xbedb3acf	-0.42818305
81	0xbe98cfcb	-0.29846033
82	0x3f4d77a2	0.8026067
83	0x3faee3eb	1.3663305
84	0x3fbaab36	1.45835
85	0xbf215191	-0.63015085
86	0x3e3b4a90	0.18290162
87	0xbf137475	-0.57599574
88	0xbdd674ef	-0.10471522
89	0xbf61808a	-0.8808676
90	0x3e489054	0.19586307
91	0xbf3fb45c	-0.7488458
92	0xbf9e3709	-1.2360545
93	0x3f138452	0.5762378
94	0xbf86a2bb	-1.0518411
95	0x3f0a4be5	0.54022056
96	0xbcdd6d49	-0.02702965
97	0xbf0f4b71	-0.5597449
98	0x3fff4103	1.9941715
99	0xbd36e21a	-0.04464922
100	0x3fcb5f78	1.588851
101	0x3e9618f1	0.29315904
102	0x3f30de20	0.69088936
103	0xbedf4253	-0.4360529
104	0xbfa2be24	-1.2714276
105	0x3efb4dc6	0.49082774
106	0x3e573bbc	0.2101888
107	0x3f83cba0	1.0296516
108	0xbf6a79a0	-0.91591835
109	0x3eb243bc	0.34817302
110	0x3e6ce9b5	0.23136027
111	0x3ef30d16	0.4747092
112	0x3f77488c	0.9659507
113	0xbf353f78	-0.7079997
114	0x3faf8f05	1.3715521
115	0x3f017dac	0.50582385
116	0xbf01ab84	-0.5065234
117	0x3f4cc7d1	0.79992396
118	0x3edf4905	0.43610397
119	0xbf441793	-0.7659847
120	0x3fc6d072	1.5532362
121	0xbeeee316	-0.46657628
122	0x3fef824b	1.8711637
123	0xbfb63062	-1.4233515
124	0x3e77889e	0.24173209
125	0xbed06df8	-0.407089
126	0x3f24eb50	0.6442156
127	0x3d0fa111	0.035065714
128	0xbf68d1d5	-0.9094518
129	0xbf9c7a78	-1.2224874
130	0x3ebaeed0	0.36510324
131	0x3f85357f	1.0406951
132	0xbfc2bbb6	-1.5213535
133	0xbf808d6e	-1.0043161
134	0x3e42de70	0.19030166
135	0x3f540775	0.8282388
136	0xbdba6f35	-0.09103242
137	0xbd30b1c0	-0.043138266
138	0xbe6acc28	-0.22929442
139	0x3f9905d4	1.1954904
140	0x3f649c29	0.8930078
141	0xbf30393e	-0.68837345
142	0xbd0600d7	-0.032715645
143	0xbfb96fcc	-1.4487243
144	0x3f68baef	0.9091024
145	0x3f910ff5	1.1332995
146	0x3e58a66d	0.21157236
147	0xbf22afed	-0.6354969
148	0x3f247536	0.6424135
149	0x3f731b24	0.9496329
150	0x3f1a27b1	0.60216814
151	0xbee8074c	-0.45318067
152	0x40139f6b	2.306605
153	0x3f9c121c	1.2193027
154	0x3dd30bc9	0.10304982
155	0xbe177e31	-0.14794232
156	0xbfd6e160	-1.6787529
157	0x3e9855cf	0.29752967
158	0x3efabe31	0.4897323
159	0x3f9dd5ce	1.2330873
160	0x3f88a327	1.067479
161	0x3f40d26b	0.7532107
162	0x3f07667c	0.52890754
163	0x3ec57283	0.38563928
164	0x3f4170dc	0.75562835
165	0xbdbec5c4	-0.093150645
166	0x3e0dc869	0.13845982
167	0xbed6d8e5	-0.41962352
168	0xbeff438e	-0.49856228
169	0x3f1ff2e9	0.62480026
170	0xbe8f638e	-0.28005642
171	0x3e545e32	0.20739058
172	0x3f7634f0	0.96174526
173	0xbe840016	-0.25781316
174	0x3f929fa2	1.1454966
175	0x3f682174	0.90676045
176	0xbe8a07de	-0.26959127
177	0x3d831eec	0.06402382
178	0xbd1c41cf	-0.038148697
179	0x3f4edb52	0.80803406
180	0xbfa0e5d7	-1.2570142
181	0xbf8d0208	-1.1016245
182	0xbf95f6b9	-1.1715919
183	0xbe2d7fa1	-0.16943218
184	0xbd1074d7	-0.035267677
185	0xbbd42814	-0.0064745042
186	0xbd9a770b	-0.07542237
187	0xbe11fa55	-0.1425565
188	0x3eb6144e	0.35562366
189	0x3fc877aa	1.5661519
190	0xbfb4a06e	-1.4111459
191	0xbe9ecc5b	-0.31015286
192	0x3f670fad	0.90258294
193	0xbd91d3f1	-0.07120503
194	0x4003b4b3	2.057904
195	0x3f0ecf28	0.55784845
196	0x3e7a7424	0.24458367
197	0xbf92df1e	-1.147434
198	0x3dfdb2a7	0.12387591
199	0xbff02b4e	-1.8763216
200	0x3f0818e3	0.53162974
201	0xbf9630ff	-1.1733702
202	0x3f65b8e9	0.89735276
203	0x3f52f396	0.8240293
204	0x3f7d7665	0.9900878
205	0xbf1ba5a0	-0.607996
206	0xbfca3217	-1.5796536
207	0x3fe7c5fb	1.8107294
208	0xbf405726	-0.7513298
209	0xbe9140ee	-0.2836985
210	0x3f15b4f5	0.58479244
211	0xbf10444f	-0.5635423
212	0x3f0b7631	0.5447722
213	0xbe4afa6e	-0.19822094
214	0xbe6aa11c	-0.22913021
215	0x3fcd03d5	1.6016794
216	0xbf910044	-1.1328206
217	0x3f358b13	0.70915335
218	0x3f0e8588	0.556725
219	0x3f95ba8f	1.1697558
220	0xbf4e9783	-0.8069994
221	0xbf5759b8	-0.84121275
222	0x3e8cd180	0.27503586
223	0x3c86496d	0.016392434
224	0x3f36d255	0.7141469
225	0x3deae415	0.114692844
226	0x3ebcb485	0.36856475
227	0xbe6659a3	-0.22495131
228	0xbff4e4fc	-1.913238
229	0x3d8ac76d	0.06776319
230	0x3fae78c1	1.3630601
231	0x3f085d95	0.53267795
232	0xbefb28f9	-0.49054697
233	0x3f8ef395	1.1168085
234	0xbf853aba	-1.0408547
235	0xbf14a21e	-0.5805987
236	0xbf2536e4	-0.6453688
237	0xbf6e731e	-0.93144405
238	0xbf8abb63	-1.0838436
239	0x3fb13c2b	1.3846487
240	0x3fac4255	1.3457743
241	0xbec303b9	-0.38088778
242	0x3f7dcb1a	0.99138033
243	0xbf721b07	-0.9457249
244	0x3f427450	0.7595873
245	0xbe2574b3	-0.16157798
246	0xbe1377d5	-0.14401181
247	0x3f4f949e	0.81086147
248	0xbf6aaaa9	-0.91666657
249	0x3e03e6e7	0.12881051
250	0x3f7da6b4	0.99082494
251	0x3f17a030	0.592288
252	0x3f13cc13	0.5773327
253	0x3f9b7513	1.2145103
254	0xbf702c34	-0.9381745
255	0xbe804e44	-0.25059712

embedder.res_block.0.weight f4 [32]
0	0x3f75c135	0.95997936
1	0x3f7db906	0.9911045
2	0x3f830311	1.0235311
3	0x3f735932	0.95057976
4	0x3f7b4c04	0.98162866
5	0x3f7dfa24	0.9920981
6	0x3f97bd37	1.1854619
7	0x3f8c6371	1.0967847
8	0x3f815630	1.0104427
9	0x3f9b0d56	1.2113445
10	0x3f7da4cc	0.99079585
11	0x3f734bc5	0.9503749
12	0x3f9757bf	1.1823653
13	0x3f788fd4	0.97094464
14	0x3f84a31c	1.0362277
15	0x3f731cc7	0.94965786
16	0x3f856f9d	1.0424687
17	0x3f8a7f33	1.0820068
18	0x3f6bf278	0.9216685
19	0x3f873732	1.0563719
20	0x3f6b19a4	0.91836
21	0x3f9072da	1.128505
22	0x3f7fd6e8	0.99937296
23	0x3f6e987d	0.9320143
24	0x3f7eff25	0.9960807
25	0x3f851d83	1.0399631
26	0x3f7e2207	0.9927067
27	0x3f774ff7	0.9660639
28	0x3f91a3c5	1.1378103
29	0x3f83bd49	1.029214
30	0x3f8840bb	1.0644754
31	0x3f801a50	1.000803

embedder.res_block.0.bias f4 [32]
0	0xbca746c1	-0.02041948
1	0x3d50cbcd	0.05097561
2	0xbd49720a	-0.04918102
3	0xbd0c636a	-0.034274496
4	0x3cbb1652	0.022837792
5	0x3bd9f0da	0.006651026
6	0x3bdcc1cd	0.00673697
7	0x3d14feea	0.036375917
8	0x3d64f914	0.055901602
9	0xbcceb90c	-0.025234722
10	0x3d4d6b77	0.050151315
11	0x3d6e1f0e	0.058135085
12	0x3c8ed133	0.017433738
13	0x3d8caa21	0.06868387
14	0x3cd98875	0.026554326
15	0xbda1fe0c	-0.07909784
16	0x3bffbccc	0.0078044888
17	0xbbe8c709	-0.007103805
18	0xbd9330d1	-0.07187045
19	0x3c2ef7a1	0.0106791565
20	0x3d8ac78e	0.06776343
21	0xbc771b12	-0.015082138
22	0xbd05f572	-0.032704778
23	0xbd2ebb7f	-0.04265928
24	0x3b9f8b63	0.004868911
25	0x3c433841	0.011915267
26	0xbd1010c5	-0.035172243
27	0x3b75e3ce	0.0037519815
28	0xbc457051	-0.012050704
29	0x3b9ec36e	0.0048450744
30	0xbc57a20e	-0.013161195
31	0x3d0f2fa3	0.03495754

embedder.res_block.1.weight f4 [32, 32]
0	0xbd29f817	-0.041496363
1	0xbd859bd2	-0.06523861
2	0x3e58df59	0.2117895
3	0x3d142f00	0.036177635
4	0xbe0104d6	-0.12599501
5	0xbd6ee76d	-0.058326174
6	0x3e8924e5	0.2678596
7	0xbe1940d2	-0.14966133
8	0xbe573671	-0.21016861
9	0x3e5d4a9a	0.2161049
10	0x3c02375e	0.007947771
11	0xbe03f230	-0.12885356
12	0xbee00a52	-0.43757874
13	0x3e1c2ac6	0.15250692
14	0x3e657031	0.22406079
15	0x3e3960e5	0.18103369
16	0xbea8b02d	-0.3294691
17	0xbe9afa65	-0.3026916
18	0x3de15d64	0.11004141
19	0xbd402513	-0.046910357
20	0x3e0e23ad	0.13880797
21	0xbe85db34	-0.261438
22	0xbe8ebdff	-0.2787933
23	0xbb9c62c9	-0.0047725183
24	0x3e425ccf	0.18980716
25	0x3dd51f7a	0.10406394
26	0x3e1e9d7d	0.15489765
27	0x3de919ee	0.11381899
28	0xbdd768da	-0.10518046
29	0x3d11029f	0.03540289
30	0x3cbbbf94	0.0229185
31	0xbd85ee68	-0.06539613
32	0xbd971480	-0.07376957
33	0x3e3a127a	0.18171111
34	0x3cd64f1f	0.026160775
35	0xbe14a481	-0.14515878
36	0x3af6b895	0.001882332
37	0x3d1914a1	0.03737319
38	0xbe1327b0	-0.14370608
39	0x3e076a71	0.13224198
40	0xbc731b5f	-0.014838069
41	0xbdedc59f	-0.11609959
42	0x3c62fbc2	0.013853969
43	0xbbebb292	-0.007192918
44	0xbd6ad869	-0.05733529
45	0xbc24fd85	-0.010070209
46	0x3d3a6e6e	0.04551547
47	0xbd02e27e	-0.03195428
48	0xbce9cbfb	-0.028539648
49	0xbdeff045	-0.1171575
50	0xbe0a85e3	-0.13527636
51	0x3dfae3ff	0.12250518
52	0x3dba380b	0.090927206
53	0x3da0c476	0.07849972
54	0x3d94bffb	0.0726318
55	0xbe19742c	-0.14985722
56	0x3da152e4	0.07877138
57	0x3dde2641	0.1084714
58	0x3d0089d3	0.03138144
59	0x3d824ff6	0.063629076
60	0x3c66dea7	0.01409117
61	0x3dafb6a1	0.085797556
62	0x3d3add0a	0.045620956
63	0x3d2ecb05	0.042674083
64	0x3dd96e90	0.10616791
65	0xbdf5cca9	-0.120019265
66	0x3d094eee	0.03352254
67	0xbd77c716	-0.060492598
68	0x3ddd8b06	0.10817532
69	0x3d7be00d	0.06149297
70	0x3e1eaaf7	0.15494905
71	0xbdbd36da	-0.09238978
72	0x3d3ab4ad	0.045582462
73	0x3dcfcec7	0.101468615
74	0x3bf4c569	0.007469822
75	0x3e2d9264	0.16950375
76	0x3d645a8d	0.05575042
77	0xbe000d11	-0.12504984
78	0xbe06b6a6	-0.13155612
79	0xbde1de78	-0.11028761
80	0xbd2d0e52	-0.042249985
81	0x3dab5ca2	0.08367278
82	0xbcac6332	-0.021043394
83	0x3ce35da5	0.027754614
84	0x3d9e2217	0.07721346
85	0xbcc38baf	-0.023870317
86	0x3e0a2857	0.13491951
87	0x3ce5681c	0.028003745
88	0x3ddb06f3	0.10694685
89	0xbcfe321d	-0.031029755
90	0xbdb77ab5	-0.089589514
91	0x3c87b07e	0.01656365
92	0x3e49c731	0.19704892
93	0xbda2956f	-0.079386584
94	0xbe0f32d4	-0.13984233
95	0x3e31401c	0.17309612
96	0x3d712e35	0.058881957
97	0xbd24859f	-0.040166494
98	0x3e776bae	0.2416217
99	0x3d003ea8	0.031309754
100	0xbc6d4f6d	-0.014484269
101	0xbd892e93	-0.066983365
102	0x3e2992eb	0.16559951
103	0xbe4ce0e4	-0.20007664
104	0x3bff8d3f	0.0077988203
105	0x3e486d62	0.19572976
106	0x3d9ccfbe	0.07656811
107	0xbe0bf793	-0.13668661
108	0x3d6b3622	0.057424672
109	0xbd4138d4	-0.047173336
110	0x3b80bba9	0.003928621
111	0x3d497693	0.049185347
112	0xbd82a862	-0.06379773
113	0x3db67d48	0.08910614
114	0xbd7721d4	-0.060334995
115	0xbe0a7c61	-0.1352401
116	0x3d593aab	0.053034466
117	0xbe31ac63	-0.17350917
118	0x3e091b03	0.1338921
119	0x3e1d5548	0.15364563
120	0x3de5669e	0.11201213
121	0x3da9b859	0.08287115
122	0xbbfc8cee	-0.00770723
123	0xbd8ef6cb	-0.06980666
124	0xbe1cd59f	-0.15315865
125	0x3cf1260b	0.029437086
126	0xbc67c6b9	-0.0141465
127	0x3ced0d1d	0.028936917
128	0x3d5c95ad	0.05385368
129	0xbda6bfbf	-0.081420414
130	0x3d0f1f0d	0.03494172
131	0x3de3ffae	0.111327514
132	0x3be425ac	0.0069624986
133	0x3e4b22cd	0.19837494
134	0xbe65e312	-0.22449902
135	0x3e02d0d8	0.1277498
136	0x3db6a5b9	0.08918328
137	0x3dc043c2	0.09387924
138	0xbb6199c0	-0.0034423918
139	0xbe13b744	-0.14425379
140	0x3cb50a74	0.022099711
141	0xbddbbc6c	-0.10729298
142	0x3d8dd31a	0.0692503
143	0xbdc4ed68	-0.09615594
144	0x3daeec06	0.08541112
145	0x3dcfb380	0.10141659
146	0x3e2aaac7	0.16666709
147	0x3e161349	0.14655794
148	0xbdf67f80	-0.120360374
149	0x3e251d1c	0.16124386
150	0xbe203fca	-0.15649334
151	0x3d397851	0.04528076
152	0xbdc866ae	-0.097852096
153	0xbe760251	-0.24024321
154	0x3d0577d0	0.032584965
155	0xbe8760b9	-0.2644098
156	0x3e74ad27	0.23894177
157	0x3e53a24a	0.20667377
158	0xbdfe3a45	-0.12413458
159	0xbdeb74c3	-0.1149688
160	0xbdd40e75	-0.1035432
161	0xbe333fec	-0.17504853
162	0x3df50797	0.11964338
163	0x3df58bfa	0.11989589
164	0x3e3c4a1f	0.1838765
165	0x3e331f93	0.17492513
166	0xbde61eea	-0.11236365
167	0xbdacb6bd	-0.08433292
168	0x3e443c6f	0.19163679
169	0x3e00a6f2	0.12563685
170	0xbcb4545d	-0.022012884
171	0x3d824a29	0.06361801
172	0x3d0bf8f3	0.034172963
173	0xbda1410d	-0.078737356
174	0xbe1f1159	-0.15533961
175	0x3e362949	0.17789187
176	0x3d8c4547	0.06849151
177	0xbe3bab7e	-0.18327138
178	0xbb89ef75	-0.0042094537
179	0xbe2bec2b	-0.1678931
180	0x3da5a9a0	0.08088994
181	0x3d901014	0.07034317
182	0x3d1ca756	0.03824552
183	0xbc8523ff	-0.016252516
184	0x3cc4e1b5	0.024033407
185	0xbd8e59c6	-0.06950717
186	0x3ddab2c7	0.1067863
187	0xbd61aeb1	-0.05509824
188	0x3c989eb7	0.018630369
189	0xbde3bd33	-0.11120071
190	0xbd558907	-0.052132633
191	0xbd2356b9	-0.039877627
192	0x3d8ab719	0.06773204
193	0x3db0d761	0.0863483
194	0xbe10e6d9	-0.14150561
195	0x3e1008f2	0.14065912
196	0x3d6bd378	0.05757472
197	0x3de3c1d8	0.11120957
198	0x3cb55337	0.022134406
199	0x3de3e87b	0.111283265
200	0x3d1dc250	0.03851539
201	0x3e0adbda	0.13560429
202	0xbdec6860	-0.115433455
203	0x3c138f4c	0.009006333
204	0xbde3993c	-0.111132115
205	0x3d4f483f	0.05060601
206	0xbcc2dda7	-0.023787333
207	0xbd40ffd3	-0.047118973
208	0xbe27a9fd	-0.16373439
209	0x3c806835	0.01567469
210	0x3dd52869	0.10408098
211	0xbda9bd2a	-0.08288033
212	0x3e551e6b	0.20812385
213	0x3ddf3c9c	0.10900232
214	0x3dedaf04	0.11605647
215	0xbce365b4	-0.027758457
216	0x3da20c15	0.07912461
217	0x3e3b9f28	0.18322432
218	0x3dffacf0	0.12484157
219	0xbd279d4c	-0.040921494
220	0xbdf4f3db	-0.11960574
221	0xbd132ef2	-0.035933442
222	0x3d3df1be	0.04637312
223	0x3c480a82	0.0122095365
224	0x3cf89a9d	0.030347163
225	0x3e44214a	0.19153324
226	0xbddbd425	-0.10733823
227	0x3e2cdea0	0.168818
228	0xbd9ed226	-0.077549264
229	0x3cab16d5	0.02088491
230	0x3de29d8a	0.110652044
231	0x3dbff45c	0.0937278
232	0x3d5656e5	0.052328963
233	0x3b411f08	0.002946796
234	0xbe4dfffe	-0.20117185
235	0xbe3867d6	-0.1800836
236	0x3e19a913	0.15005903
237	0x3de551fb	0.11197277
238	0xbd9eb2b4	-0.07748929
239	0xbcbdc032	-0.023162935
240	0xbc9f9285	-0.019479046
241	0x3e0ac819	0.13552894
242	0xbd241321	-0.040057305
243	0x3d716214	0.058931425
244	0x3d63f710	0.05565554
245	0x3e37ec07	0.17961131
246	0xbe487e23	-0.19579367
247	0xbdc460d5	-0.09588782
248	0xbc521fd3	-0.01282497
249	0x3c979633	0.018504238
250	0xbcd0e873	-0.025501465
251	0xbd393391	-0.045215193
252	0x3e623c95	0.22093423
253	0x3db0d8c2	0.08635093
254	0xbe637a1b	-0.22214548
255	0xbdb6a509	-0.08918197

embedder.res_block.1.bias f4 [32]
0	0xbdcd75b3	-0.10032215
1	0x3d70a9d0	0.058755696
2	0x3d549c04	0.0519066
3	0xbe1e670c	-0.15468997
4	0x3e26de55	0.1629575
5	0xbe401877	-0.18759333
6	0x3e1effdc	0.1552729
7	0x3d9cfc60	0.07665324
8	0xbe15f626	-0.1464468
9	0x3c649739	0.01395207
10	0xbda3fb63	-0.080069326
11	0x3da5c197	0.08093565
12	0x3e38483b	0.17996304
13	0x3d7fe8e4	0.06247796
14	0xbd50ba3c	-0.050958857
15	0x3de94b8b	0.11391362
16	0xbe17ccc0	-0.148242
17	0x3d3fd7f0	0.046836793
18	0xbe0d144b	-0.13777272
19	0xbdc4e38f	-0.09613716
20	0xb8be8af1	-9.085786e-05
21	0xbd44a701	-0.04801083
22	0xbe1f4c17	-0.1555637
23	0x3e0466d0	0.12929845
24	0x3d3c2942	0.045937784
25	0xbe4a1d2e	-0.19737694
26	0x3dee5e54	0.116390854
27	0xbe1433ca	-0.14472881
28	0xbd69e43b	-0.057102423
29	0x3df0f9c8	0.11766392
30	0xbdeef07a	-0.11666961
31	0x3d8ab6e4	0.06773165

embedder.res_block.3.weight f4 [32, 32]
0	0xbd914bcf	-0.070945375
1	0xbe19f24c	-0.15033835
2	0xbe1b4b1b	-0.15165369
3	0xbe0769e5	-0.1322399
4	0xbd7c4553	-0.06158955
5	0xbe3f7319	-0.1869625
6	0xbe0ea7d3	-0.13931207
7	0x3dc391c2	0.095492855
8	0x3d1ef16c	0.038804457
9	0x3e5b9313	0.21442823
10	0xbd28db97	-0.041225042
11	0xbe56afa1	-0.20965435
12	0x3d9131d3	0.07089581
13	0xbc89f834	-0.016841985
14	0xbd9d979d	-0.076949336
15	0xbe62a73b	-0.22134106
16	0xbe5f8bda	-0.21830693
17	0x3dd683eb	0.1047438
18	0x3ca346a3	0.019931143
19	0x3a07baef	0.00051776966
20	0x3c5a312b	0.013317387
21	0xbdfc8303	-0.12329676
22	0xbc91d389	-0.017801063
23	0xbaec7c9e	-0.001804251
24	0xbdf7ded8	-0.12103051
25	0x3e82802c	0.25488412
26	0x3e35e95b	0.177648
27	0x3e221668	0.1582886
28	0xbd75c5a1	-0.060002927
29	0x3cb60f53	0.022224104
30	0x3def00a6	0.116700456
31	0xbdff5083	-0.12466528
32	0xbe1a2397	-0.15052639
33	0x3e0e428a	0.1389257
34	0x3dd6b571	0.10483826
35	0xbd55b738	-0.052176684
36	0x3e065ece	0.13122103
37	0x3d9d786e	0.07688986
38	0x3e24411b	0.16040461
39	0xbd76b70e	-0.06023317
40	0xbc116c41	-0.008875907
41	0x3df69145	0.12039427
42	0xbdd3624c	-0.10321483
43	0x3e1a4e14	0.15068847
44	0xbba3f888	-0.0050039925
45	0xbe668530	-0.22511744
46	0x3e642bbb	0.22282307
47	0xbe36f993	-0.17868643
48	0x3c726ae9	0.014795997
49	0xbd217ca2	-0.0394255
50	0xbc70b260	-0.014690965
51	0x3d6699d1	0.056299035
52	0x3d8ef4bd	0.06980274
53	0xbd248b99	-0.040172193
54	0x3e098c6b	0.13432471
55	0x3dc57137	0.09640735
56	0xbe265b16	-0.16245684
57	0x3e2a18f7	0.16611086
58	0xbd92a55a	-0.071604446
59	0x3e2550ca	0.161441
60	0x3ea0b5ad	0.31388608
61	0x3d46211c	0.04837142
62	0x3dc47c59	0.0959403
63	0xbce35f5b	-0.02775543
64	0xbdb43ae0	-0.08800292
65	0x3d877572	0.06614198
66	0xbd8e82d4	-0.06958547
67	0x3daab602	0.083354965
68	0x3db5c4a0	0.08875394
69	0x3be32ded	0.006932965
70	0xbdf80914	-0.121111065
71	0xbd97b113	-0.07406821
72	0x3d7603c6	0.060062192
73	0x3d0ff78d	0.035148192
74	0x3cc5f23d	0.02416336
75	0xbd84081f	-0.064468615
76	0xbe0dbda8	-0.1384188
77	0xbe34dd90	-0.17662644
78	0xbe24d135	-0.16095431
79	0x3bcefd18	0.006316792
80	0x3c10f3a0	0.008847147
81	0x3db119e6	0.08647518
82	0xbcc8f7fc	-0.02453231
83	0xbcff06ee	-0.031131234
84	0xbd6509b5	-0.05591746
85	0xbd007d65	-0.031369586
86	0xbe06e3e8	-0.13172877
87	0xbd0f95e4	-0.035055056
88	0x3e0d7f4f	0.13818096
89	0xbde66b09	-0.11250884
90	0xbde92ec0	-0.1138587
91	0xbe50e418	-0.20399511
92	0xbde9a053	-0.114075325
93	0xbd611872	-0.054954953
94	0xbd288298	-0.04114017
95	0xbccea3df	-0.025224624
96	0xbd045025	-0.032302994
97	0xbda7f16e	-0.08200346
98	0xbdcab128	-0.09897071
99	0x3e14cb48	0.1453067
100	0x3e334aec	0.17509049
101	0xbe23b118	-0.15985525
102	0xbd5f0f35	-0.054457862
103	0xbb631efd	-0.0034655922
104	0x3d9f6b62	0.077841535
105	0xbc8c589a	-0.017132092
106	0x3d1c74bf	0.038197275
107	0x3e315500	0.17317581
108	0x3cbe3ee4	0.023223348
109	0xbd055dc0	-0.03256011
110	0x3dd6d25f	0.10489344
111	0xbe81f7b9	-0.2538431
112	0xbe57a0e6	-0.21057472
113	0xbccb5a77	-0.02482341
114	0xbddb3c20	-0.10704827
115	0x3a0c9ecf	0.00053642405
116	0xbd23793e	-0.039910547
117	0xbe1f86a6	-0.15578708
118	0xbe628f70	-0.2212503
119	0xbd3eef61	-0.04661501
120	0xbe15a223	-0.14612631
121	0x3ea993ed	0.3312067
122	0xbd5e2226	-0.054231785
123	0x3e72a2d7	0.23694931
124	0x3d1cb4a3	0.038258206
125	0x3e5e4ee4	0.21709782
126	0xbd82d0b2	-0.06387462
127	0xbde5d7a7	-0.11222773
128	0xbd949af7	-0.0725612
129	0x3e167493	0.14692907
130	0xbd8ec2f9	-0.06970782
131	0x3c620eac	0.013797443
132	0xbd05eb90	-0.032695353
133	0x3e436c66	0.1908432
134	0xbdbec51f	-0.093149416
135	0x3d2126e6	0.039343737
136	0x3d9be4c2	0.076119915
137	0x3ce23e7e	0.02761769
138	0x3ddf89ce	0.10914956
139	0x3cfa1d12	0.03053144
140	0xbd485658	-0.04891047
141	0xbd449165	-0.04799022
142	0x3e13a001	0.14416505
143	0x3cc1f64f	0.02367702
144	0x3dd2bbf1	0.10289753
145	0x3c572cba	0.013133222
146	0xbe04fa55	-0.12986119
147	0x3daa7da7	0.083247475
148	0x3ded1b13	0.115774296
149	0x3de7dd6d	0.113215305
150	0x3d087ff2	0.033325143
151	0x3d9a515a	0.07535048
152	0x3d070187	0.03296044
153	0x3e924a6b	0.285724
154	0x3e142122	0.14465764
155	0x3dc4a25d	0.09601281
156	0xbd6bb69d	-0.0575472
157	0x3e2e6145	0.17029293
158	0x3e1c3da2	0.15257886
159	0xbddd7cf2	-0.10814847
160	0xbdfb38c5	-0.12266687
161	0x3c2140ca	0.009842107
162	0xbdf03a69	-0.11729891
163	0xbd2205d2	-0.039556332
164	0x3e0a7443	0.13520913
165	0x3e26c61a	0.16286507
166	0xbdba08b8	-0.09083694
167	0xbd5a1ddf	-0.053251144
168	0x3ab733ec	0.0013977266
169	0xbe1ca74f	-0.15298198
170	0x3d79e351	0.0610078
171	0x3e4b3b22	0.19846776
172	0x3cb187e5	0.021671245
173	0xbe024788	-0.127226
174	0x3d17d2a4	0.037066117
175	0x3de3d813	0.11125197
176	0x3e224353	0.15845995
177	0xbd4c74bb	-0.04991601
178	0xbe518c49	-0.20463671
179	0x3dee9e3c	0.116512746
180	0xbdb86d9a	-0.0900528
181	0xbb2d7da9	-0.0026472604
182	0x3dd00dd2	0.10158886
183	0xbe20e09b	-0.1571068
184	0xbd8d4c8b	-0.06899365
185	0x3d8c5ae8	0.068532765
186	0x3eb2bfcc	0.34911954
187	0x3dd58d43	0.10427334
188	0x3dd7148f	0.10501968
189	0x3e368b83	0.17826657
190	0xbd604271	-0.054750863
191	0xbbfd60c0	-0.0077324808
192	0x3da5e7fe	0.081008896
193	0xbb6630c9	-0.0035124293
194	0x3d9d33d3	0.076759
195	0x3da60f9a	0.081084445
196	0xbe017245	-0.12641247
197	0xbdeb263c	-0.11481902
198	0xbe05cf9f	-0.13067482
199	0x3e298738	0.16555488
200	0x3debd883	0.11515906
201	0xbdd583b3	-0.1042551
202	0x3ddec702	0.108778015
203	0x3ca64183	0.02029491
204	0xbd692260	-0.05691755
205	0xbdaf01c1	-0.085452564
206	0xbda4e63a	-0.08051725
207	0xbe1e9aba	-0.15488711
208	0x3e3db89c	0.18527454
209	0xbe2e3285	-0.17011459
210	0x3e2c0103	0.16797261
211	0xbdf8eede	-0.12154935
212	0xbdcb8e13	-0.09939208
213	0x3c090813	0.008363741
214	0xbdb3fc83	-0.08788397
215	0x3c113e33	0.008864927
216	0xbe36a56c	-0.17836541
217	0xbd0349b6	-0.032052718
218	0xbe1dbb09	-0.1540338
219	0x3cd27113	0.025688684
220	0xbdc8094e	-0.097674
221	0xbcb2125a	-0.021737266
222	0xbe0aabaf	-0.13542055
223	0xbe4bc39f	-0.19898842
224	0xbe2d5387	-0.16926394
225	0x3e16470c	0.1467554
226	0xbe264d8f	-0.16240524
227	0xbe045292	-0.12922123
228	0x3e3d62f3	0.18494777
229	0x3d8d370b	0.06895264
230	0xbddfa58d	-0.10920248
231	0x3e9518b9	0.29120424
232	0x3e2c49e8	0.16825068
233	0x3ea09b8e	0.3136868
234	0x3d9166fc	0.07099721
235	0x3c36fca0	0.011168629
236	0x3d47c62d	0.04877298
237	0xbdb4b505	-0.08823589
238	0x3e1f050f	0.15529273
239	0xbe935fee	-0.28784126
240	0xbeb8986f	-0.36053798
241	0xbe2ecb9f	-0.17069863
242	0x3e373bc1	0.17893888
243	0xbdc361e1	-0.09540153
244	0xbdb455ba	-0.088054135
245	0x3d874de4	0.06606653
246	0x3df9d25b	0.12198325
247	0xbe104cdf	-0.14091824
248	0xb7fd97f2	-3.0230705e-05
249	0xbc85f6b8	-0.016352996
250	0x3e371753	0.17879991
251	0xbde48b74	-0.11159411
252	0x3e643e62	0.22289422
253	0x3e3b8781	0.1831341
254	0x3d41fd09	0.047360454
255	0xbd953e47	-0.07287269

embedder.res_block.3.bias f4 [32]
0	0xbda0f966	-0.07860069
1	0xbdb07a8a	-0.086171225
2	0x3d6dec96	0.058086954
3	0x3d9f7506	0.07785992
4	0x3dc98940	0.098406315
5	0x3d8b44f7	0.068002634
6	0xbc2fd489	-0.010731825
7	0x3c2778bf	0.010221659
8	0x3c9c1de4	0.019057222
9	0xbd38a49a	-0.04507885
10	0xbd8ccd00	-0.06875038
11	0x3d8f66bb	0.07002016
12	0xbdd01a56	-0.10161273
13	0x3d6ca32e	0.057772808
14	0x3df624b4	0.12018719
15	0xbe35ca50	-0.17752957
16	0xbb90af9c	-0.0044154655
17	0x3c1129c2	0.0088600535
18	0x3cf6f6db	0.030147007
19	0x3e28f970	0.16501403
20	0x3d34735a	0.04405532
21	0x3c05b7bb	0.008161481
22	0x3d724257	0.059145298
23	0xbd1ff625	-0.0390531
24	0xbd314a01	-0.043283466
25	0x3c1db381	0.009625317
26	0xbdec876b	-0.115492664
27	0xbcf544ec	-0.029940091
28	0x3de46ade	0.11153196
29	0x3de884ab	0.113534294
30	0x3cdc74ae	0.026911106
31	0x3d8f610e	0.070009336

cnn_blocks.0.proj_in.weight f4 [16, 32]
0	0xbd6dad0d	-0.058026362
1	0x3da0b964	0.078478605
2	0xbe38ea19	-0.18058051
3	0x3d86e276	0.06586163
4	0x3d602f8a	0.054732837
5	0xbe3150fa	-0.17316046
6	0xbe34f469	-0.1767136
7	0xbd79cf6d	-0.060988832
8	0x3ca5c8ec	0.020237409
9	0xbd97c47e	-0.07410525
10	0xbd9ef81b	-0.07762166
11	0x3e15fe47	0.1464778
12	0xbe0a0590	-0.13478684
13	0xbdcd8a9e	-0.10036205
14	0xbc837096	-0.016044896
15	0x3db70d29	0.08938057
16	0xbdb5244b	-0.08844813
17	0xbdb9a1c7	-0.0906406
18	0x3d3d9b49	0.04629067
19	0xbe257036	-0.16156086
20	0xbdb0f228	-0.08639938
21	0xbe314a8d	-0.17313595
22	0xbd85df81	-0.065367706
23	0xbcbe104f	-0.023201136
24	0x3e2aa200	0.1666336
25	0x3dc5d208	0.09659201
26	0xbe3cc32f	-0.18433832
27	0x3d7e40fc	0.062073693
28	0xbda06933	-0.07832565
29	0x3e4a2778	0.19741619
30	0xbd5e1c97	-0.054226484
31	0x3e167d05	0.14696129
32	0x3e294f41	0.16534139
33	0xbe4c2d68	-0.19939196
34	0xbd5867cb	-0.05283336
35	0xbdd23855	-0.10264651
36	0xbe6d7401	-0.23188783
37	0xbde4516e	-0.11148344
38	0xbc977d84	-0.018492468
39	0xbc09c6fd	-0.008409259
40	0xbe44f4dc	-0.19234031
41	0xbb540cff	-0.003235638
42	0x3daaa58d	0.083323576
43	0xbe03e020	-0.12878466
44	0xbdf111d0	-0.117709756
45	0xbd947dea	-0.07250579
46	0xbe20b23c	-0.15692991
47	0xbe3bb67f	-0.18331335
48	0x3e20650f	0.15663551
49	0x3d869de1	0.06573082
50	0xbe3534cf	-0.17695926
51	0x3df43382	0.11923887
52	0x3e15f07f	0.14642523
53	0x3d461072	0.048355527
54	0xbda5806f	-0.080811374
55	0xbe1a6e0b	-0.1508104
56	0xbdd28568	-0.102793515
57	0xbd36e19d	-0.044648755
58	0x3e091435	0.13386615
59	0x3c8fbd84	0.017546423
60	0xbd9bc9c7	-0.07606845
61	0xbe368197	-0.17822872
62	0x3dc6af22	0.09701373
63	0xbd827c4e	-0.063713655
64	0x3e30056f	0.17189573
65	0xbdd4262d	-0.10358844
66	0xbe050669	-0.12990727
67	0x3d7fcc5a	0.062450744
68	0x3e478353	0.1948369
69	0xbca80ac2	-0.020512942
70	0x3cdb7529	0.026789265
71	0x3dd6b49a	0.10483666
72	0xbe05bb1d	-0.1305966
73	0x3b9b82e5	0.0047458285
74	0x3e1b4f2a	0.15166917
75	0xbe434270	-0.19068313
76	0xbc1e6831	-0.009668396
77	0xbe32420f	-0.17408012
78	0x3deb5557	0.11490887
79	0x3ce734e8	0.02822347
80	0xbdba9de8	-0.091121495
81	0xbe7539a4	-0.2394777
82	0x3e147927	0.14499341
83	0x3dbcd666	0.09220581
84	0xbdca7584	-0.098856956
85	0xbe167fa3	-0.14697127
86	0xbdbd2564	-0.09235647
87	0xbd1b7e48	-0.037962228
88	0xbe118782	-0.14211848
89	0x3dc990b2	0.098420516
90	0xbdff0182	-0.124514595
91	0xbd84ff56	-0.06494014
92	0xbe0bd004	-0.1365357
93	0xbb05a286	-0.002039106
94	0xbe127f5f	-0.143064
95	0xbe0abfd8	-0.13549745
96	0xbe338b32	-0.17533568
97	0x3d3e1dfa	0.046415307
98	0x3e60b748	0.21944916
99	0xbd8f8086	-0.07006936
100	0xbc8257a1	-0.015910925
101	0xbda62ba6	-0.08113794
102	0x39f5d997	0.0004689216
103	0xbdc63fe8	-0.09680158
104	0x3e33daa6	0.17563877
105	0x3d754572	0.05988068
106	0x3e276743	0.16347985
107	0xbd740ed0	-0.05958444
108	0x3db30685	0.08741478
109	0xbd22a4a8	-0.03970781
110	0xbd98a787	-0.07453828
111	0xbe33ea20	-0.1756978
112	0xb9ee733d	-0.00045480757
113	0x3ddd846b	0.10816272
114	0x3d981687	0.07426172
115	0x3c09e51c	0.00841644
116	0x3e0a57ab	0.13510005
117	0xbda520ef	-0.08062922
118	0x3d2238ab	0.039604824
119	0xbd83cb1f	-0.06435227
120	0x3d9980ee	0.074952945
121	0xbdb7f8ce	-0.089830026
122	0x3d837fff	0.06420898
123	0x3d162035	0.03665181
124	0x3dd0f523	0.10203006
125	0x3cbfdddb	0.023421219
126	0x3dd95191	0.10611261
127	0xbd6bf0b6	-0.057602607
128	0xbe19b1ea	-0.15009275
129	0xbde9204a	-0.11383112
130	0x3dadda95	0.08488957
131	0xbde6800a	-0.1125489
132	0xbdc473e3	-0.09592416
133	0xbdc5ae8a	-0.09652431
134	0xbceb3d0c	-0.028715633
135	0x3e40abbd	0.18815513
136	0x3dafdaf4	0.08586684
137	0xbd58834f	-0.0528596
138	0x3e28411e	0.1643109
139	0xbdde4bbb	-0.10854288
140	0x3dd78dcc	0.105250925
141	0xbd4e3ff1	-0.050353948
142	0x3d66e528	0.056370884
143	0x3d997abc	0.07494113
144	0xbe4eac22	-0.20182851
145	0xbbddd8c7	-0.0067702266
146	0x3e4473a3	0.19184737
147	0x3dc026ee	0.09382425
148	0x3e21a8b7	0.15787016
149	0xbe3d6778	-0.18496501
150	0xbd3f5280	-0.046709538
151	0x3e07f454	0.13276798
152	0xbc254a08	-0.010088451
153	0x3b126059	0.002233526
154	0xbce45fd6	-0.02787773
155	0xbe0e6dbf	-0.13909052
156	0xbd6e3339	-0.05815432
157	0xbe428fb7	-0.19000135
158	0xbd573abf	-0.05254626
159	0xbde1fff2	-0.11035146
160	0xbd6f19ae	-0.0583741
161	0xbd9df43a	-0.07712598
162	0xbd890255	-0.06689898
163	0x3da6b662	0.081402555
164	0x3dd184cd	0.10230408
165	0xbde3fdbb	-0.111323796
166	0xbe03fcfc	-0.12889475
167	0xbd92e229	-0.07172043
168	0x3decb0db	0.1155717
169	0x3d64f74b	0.0558999
170	0x3dfb88c0	0.12281942
171	0x3e13a64d	0.14418907
172	0xbd1a2701	-0.037634853
173	0xbdb3cdc3	-0.0877948
174	0x3e07e19c	0.13269657
175	0x3da31fe2	0.079650655
176	0xbbb6f7fd	-0.0055837617
177	0x3ccaa67f	0.024737595
178	0x3e5155bb	0.2044286
179	0xbe0c77d1	-0.13717581
180	0xbd7a4980	-0.06110525
181	0x3e57909c	0.21051258
182	0xbd2c25be	-0.04202818
183	0xbe02a758	-0.12759149
184	0xbbe5c7d3	-0.0070123463
185	0x3c75fbae	0.015013618
186	0xbe5022bb	-0.20325749
187	0xbe261f4c	-0.16222876
188	0xbe3b03c8	-0.18263161
189	0xbe03c50d	-0.12868138
190	0x3d52ed77	0.051495995
191	0x3dd871a3	0.105685495
192	0x3e099cd5	0.13438733
193	0xbbf225c9	-0.0073897582
194	0x3d07b7bb	0.033134203
195	0x3e0ce549	0.1375934
196	0xbd68037e	-0.056643955
197	0xbd462f22	-0.048384793
198	0x3de8b689	0.11362941
199	0x3be55223	0.006998317
200	0xbd705c4e	-0.05868178
201	0x3ba0b5a0	0.004904464
202	0xbd81f123	-0.06344821
203	0x3e368e4a	0.17827716
204	0xbe1a5f37	-0.15075384
205	0x3de63abc	0.112416714
206	0x3e239e5a	0.15978375
207	0x3d5f19cf	0.054467972
208	0x3e04e2aa	0.1297709
209	0xbd827579	-0.063700624
210	0x3cb81944	0.022472985
211	0xbe553dd8	-0.20824373
212	0xbdee457f	-0.11634349
213	0xbe383688	-0.17989552
214	0x3d0aa278	0.03384635
215	0xbdec8487	-0.11548715
216	0x3e0dda57	0.13852821
217	0xbd809f2a	-0.06280358
218	0xbd517b89	-0.051143203
219	0x3e7799e6	0.24179801
220	0xbe1206a1	-0.14260341
221	0xbe2063fb	-0.1566314
222	0x3cd67ced	0.026182616
223	0xbe48a192	-0.19592884
224	0xbd835590	-0.06412804
225	0xbe0bece3	-0.13664584
226	0xbda5c826	-0.08094816
227	0x3e1d898a	0.15384498
228	0xbe1f48e8	-0.15555155
229	0x3b394197	0.0028267854
230	0x3e269cdd	0.16270776
231	0xbc958daf	-0.018256037
232	0xbd818f2d	-0.06326137
233	0xbc504584	-0.012711886
234	0x3bff17f4	0.007784838
235	0x3d51233f	0.051059004
236	0x3d8acb87	0.06777101
237	0x3e293e0e	0.16527578
238	0x3e203ea1	0.15648891
239	0x3d8375cb	0.064189516
240	0xbe41c5c2	-0.18923095
241	0xbdfe5541	-0.12418605
242	0xbb93619f	-0.0044977213
243	0xbd9590ee	-0.07303034
244	0x3badd14b	0.0053044907
245	0x3d1fb887	0.03899434
246	0x3d993d25	0.074823655
247	0x3e22e65f	0.15908192
248	0x3c3afd97	0.011413
249	0x3d0e5ee5	0.034758467
250	0x3d567da2	0.052365907
251	0xba90bd80	-0.0011042804
252	0xbd8b17e8	-0.06791669
253	0xbdabcbc0	-0.083884716
254	0x3d7b1e07	0.061307933
255	0xbdfe58df	-0.124192946

cnn_blocks.0.proj_in.bias f4 [16]
0	0xbe5e0f9e	-0.21685645
1	0x3de91ba6	0.11382227
2	0x3dd314ee	0.103067264
3	0xbe0658d8	-0.13119829
4	0xbe0e0075	-0.13867362
5	0xbdc07161	-0.09396625
6	0xbba1297e	-0.0049182763
7	0x3dcb087f	0.0991373
8	0xbd29318d	-0.04130702
9	0xbd124078	-0.035706013
10	0x3cb9a62b	0.022662243
11	0x3df5591b	0.11979886
12	0x3e291227	0.16510831
13	0xbdc47e6a	-0.09594424
14	0xbc5bd2be	-0.013416944
15	0xbe56b878	-0.20968807

cnn_blocks.0.convs.0.weight f4 [16, 16, 3, 3]
0	0xbc8fb4c6	-0.017542254
1	0x3dfe105e	0.124054655
2	0x3bff93ba	0.007799593
3	0x3d8b2490	0.06794083
4	0xbdea655d	-0.11445115
5	0xbe18bfcb	-0.14916913
6	0xbe1bae12	-0.15203121
7	0x3d6bdfcd	0.05758648
8	0xbe00ba84	-0.1257115
9	0xbdb90c20	-0.09035516
10	0xbdc78d7b	-0.09743782
11	0x3c0b4bcf	0.008501961
12	0xbbd4e758	-0.006497305
13	0xbcba1ce5	-0.022718856
14	0x3d8b7d6a	0.0681103
15	0x3dbc813f	0.09204339
16	0xbd0ab6de	-0.033865802
17	0xbdadb87d	-0.08482454
18	0xbccc65a7	-0.024950815
19	0xbda717fb	-0.08158871
20	0x3def045a	0.11670752
21	0xbc00a9ea	-0.007853011
22	0x3d867724	0.06565693
23	0xbd69b8e9	-0.05706111
24	0xbd81efc7	-0.06344562
25	0xbc9d70b3	-0.019218778
26	0x3d8ef9ba	0.06981225
27	0xbd4f2157	-0.050568905
28	0xbce6e9fc	-0.028187744
29	0xbd6257a0	-0.055259347
30	0xbd0878bb	-0.033318263
31	0x3e01817e	0.12647054
32	0x3d1984f3	0.037480306
33	0x3d1e5bd5	0.038661797
34	0xbceffb51	-0.029294642
35	0xbbc4da4a	-0.0060074674
36	0xbd705a05	-0.0586796
37	0xbbbbc4ff	-0.005730271
38	0x3d400e4e	0.046888642
39	0x3d408149	0.046998296
40	0xbda1bdd0	-0.07897532
41	0x3e0279d4	0.12741786
42	0xbc0dbdb3	-0.008651185
43	0xbd42fb87	-0.047603156
44	0xbd9da1e6	-0.07696895
45	0xbd34aabd	-0.04410814
46	0xbcface49	-0.030615943
47	0xbd78fa41	-0.060785536
48	0x3e14a7bb	0.14517109
49	0xbd9c6fe6	-0.076385304
50	0x3d4dc1b0	0.050233543
51	0xbbd2f400	-0.0064377785
52	0xbcaacb1c	-0.020848803
53	0xbd4cc4aa	-0.04999224
54	0xbe0f4b68	-0.13993609
55	0x3cf9e011	0.030502351
56	0x3d44dde1	0.048063163
57	0x3de06b5e	0.10957979
58	0xbd9588ca	-0.07301481
59	0xbd87abe6	-0.06624584
60	0xbcd9240e	-0.02650645
61	0x3cb1444a	0.021639008
62	0xbce4ce52	-0.027930412
63	0xbd26e4bc	-0.04074548
64	0x3d586bab	0.052837055
65	0xbd3d44c3	-0.046208154
66	0xbdaf2137	-0.08551257
67	0x3d266aa7	0.040629055
68	0xbd09ddb6	-0.033658706
69	0x3d840188	0.064456046
70	0x3d9181f5	0.071048655
71	0x3da253a2	0.07926108
72	0xbd4c05bc	-0.049810156
73	0x3da4a7ad	0.08039794
74	0x3b750a36	0.003739012
75	0x3d4f599f	0.05062258
76	0xbdea0f47	-0.11428695
77	0xbd9304e1	-0.07178665
78	0xbd9e992d	-0.0774406
79	0xbd1b4759	-0.03790984
80	0xbe591799	-0.21200408
81	0x3c916ef0	0.017753094
82	0x3cfcdc34	0.03086672
83	0xbce8ac4e	-0.028402474
84	0x3db44246	0.08801703
85	0xbdbb3dff	-0.09142684
86	0x3d87800b	0.06616219
87	0x3d958a3d	0.073017575
88	0x3d845d09	0.064630575
89	0x3ceda521	0.029009404
90	0xbc036577	-0.008019797
91	0xbd965b32	-0.07341613
92	0x3e048f6a	0.12945333
93	0x3c758bc5	0.014986937
94	0xbd648479	-0.0557904
95	0xbddc1e3b	-0.107479535
96	0x3d583e4c	0.052793786
97	0x3d5bf4aa	0.053700127
98	0x3d5e643a	0.054294802
99	0x3d5ab622	0.05339635
100	0x3d0c3ef9	0.034239743
101	0x3da1c2e7	0.07898503
102	0xbd9a57c4	-0.07536271
103	0x3d2f8895	0.042854864
104	0xbbefabb1	-0.0073141684
105	0x3d811c14	0.063041836
106	0x3d4dbcaf	0.05022877
107	0x3dae5d27	0.08513861
108	0xbdc6c297	-0.09705084
109	0x3d65ba9e	0.056086175
110	0x39a29195	0.00031007515
111	0x3e036d4e	0.12834665
112	0x3c22b912	0.0099318195
113	0x3d81cf5e	0.0633838
114	0x3dbe4f41	0.0929246
115	0xbd9c9fd3	-0.076476716
116	0x3da4d8b3	0.080491446
117	0x3d72288d	0.059120703
118	0x3da9dca9	0.08294041
119	0x3d15878d	0.036506224
120	0x3d9a3c54	0.07531038
121	0xbcabbd41	-0.020964267
122	0x3c2cf5cc	0.010556649
123	0x3d495fc1	0.049163584
124	0xbd5c2282	-0.053743847
125	0x3e2ecbc6	0.17069921
126	0xbdcdb2bf	-0.10043859
127	0x3a43151d	0.0007441806
128	0x3d57a69a	0.052649118
129	0x3d0ab73f	0.033866163
130	0xbc7cc6b3	-0.015428233
131	0x3e4d0c4f	0.20024227
132	0xbb4d1e0e	-0.0031298432
133	0x3d9737c3	0.073836826
134	0x3d9fe1f4	0.07806769
135	0xbcc5213e	-0.024063703
136	0x3caf5c4e	0.021406319
137	0x3dc2f5f3	0.09519567
138	0xbcddcaa5	-0.027074168
139	0x3b424e3c	0.0029648682
140	0xbda1a6bb	-0.078931294
141	0xbda00f4a	-0.07815416
142	0xbdb1bcb7	-0.086785726
143	0xba8dadd4	-0.0010809251
144	0x3dee306b	0.11630329
145	0x3d406d38	0.04697916
146	0x3c3d13bd	0.0115403505
147	0xbd971696	-0.07377355
148	0x3dac60c2	0.084168926
149	0xbe25c3c5	-0.16187961
150	0xbb9d14a6	-0.0047937213
151	0x39caf840	0.00038713403
152	0x3d33ae0d	0.04386716
153	0x3dabaee1	0.08382965
154	0x3ce6c920	0.028172076
155	0x3c03ea08	0.008051403
156	0x3cb85fad	0.02250656
157	0xbe071a63	-0.1319366
158	0x3d5082c6	0.050905965
159	0x3c932c13	0.017965352
160	0xbaa32779	-0.0012447677
161	0xbe5159ca	-0.20444408
162	0xbd6a7a60	-0.057245612
163	0x3d84db75	0.064871706
164	0xbd32cc44	-0.043651834
165	0xbb3befbb	-0.0028676826
166	0xbd56446e	-0.052311353
167	0xbd68f60c	-0.056875274
168	0xbd3f4a36	-0.046701632
169	0xbe3689cf	-0.17826007
170	0x3d161e4f	0.03665
171	0xbda881ef	-0.08227908
172	0xbc3543c1	-0.011063517
173	0xbc8bd786	-0.017070543
174	0x3df5fbbc	0.12010905
175	0xbe10641d	-0.1410069
176	0x3ceb72fb	0.02874135
177	0x3d25a621	0.040441636
178	0xbd80e33c	-0.062933415
179	0xbd95ead3	-0.0732018
180	0xbd2903d1	-0.041263405
181	0xbe047801	-0.12936403
182	0x3de56f5d	0.112028815
183	0xbcdc9ddd	-0.026930744
184	0x3da20a65	0.07912139
185	0x3d979108	0.074007094
186	0xbc51fa53	-0.01281603
187	0xbd836edf	-0.06417631
188	0xbd3f969a	-0.046774484
189	0x3cafe91c	0.02147346
190	0xbcf0d9d0	-0.029400736
191	0x3d64e4e0	0.055882335
192	0x3cd5d167	0.026100827
193	0x3c8a5a07	0.016888632
194	0xbd91dfb2	-0.071227446
195	0x3d56d566	0.052449606
196	0x3dbc6f4f	0.09200918
197	0xbbd85d6d	-0.006602934
198	0x3b2141cf	0.0024605875
199	0xbcefd67e	-0.029277083
200	0xbdc6f629	-0.0971492
201	0x3e1ab593	0.15108328
202	0xbb248b33	-0.0025107383
203	0x3da01ef8	0.07818407
204	0xbd8f8398	-0.070075214
205	0xbd2adbdd	-0.041713584
206	0xbdd41fc8	-0.10357624
207	0x3dd559b8	0.10417503
208	0xbd39725d	-0.04527508
209	0x3dc1c082	0.09460546
210	0x3c16a4b3	0.009194541
211	0xbca431f5	-0.020043353
212	0xbbc6f9da	-0.006072265
213	0x3cadf2b9	0.021233903
214	0xbc80a934	-0.015705682
215	0xbd2e6084	-0.042572513
216	0x3e0ef4fd	0.13960643
217	0xbdce763c	-0.10081145
218	0x39d795d2	0.0004111962
219	0xbdaf6392	-0.085639134
220	0xbdbf1af8	-0.09331316
221	0x3cfd6767	0.030933095
222	0x3d4e3c2d	0.050350357
223	0x3c95bea0	0.018279374
224	0xbd3a52e4	-0.045489207
225	0x3d216400	0.039402008
226	0x3d855166	0.06509666
227	0x3db97feb	0.090576015
228	0xbda0134b	-0.0781618
229	0x3da0bed8	0.078489006
230	0xba363fa2	-0.0006952231
231	0x3db26cf9	0.08712191
232	0x3d9bd7e2	0.07609536
233	0x3c793379	0.015210026
234	0xbe05aa25	-0.13053186
235	0x3ca213a7	0.019784762
236	0xbc36d166	-0.011158323
237	0x3cc5003b	0.024047961
238	0x3ca99c98	0.020704553
239	0xbd169ef1	-0.036772672
240	0x3d8427d8	0.06452912
241	0x3d01814e	0.031617455
242	0xbd80d224	-0.06290081
243	0x3bfc53e2	0.0077004293
244	0x3da044d9	0.07825632
245	0x3e2a5741	0.16634847
246	0xbdfe4ced	-0.12417016
247	0xbd07ee3c	-0.033186182
248	0xbd0eb339	-0.03483889
249	0x3ddf2316	0.10895364
250	0xbd92dbc9	-0.07170827
251	0x3daae013	0.0834352
252	0x3d475b2c	0.048670933
253	0xbb4306c4	-0.0029758671
254	0x3bae9d67	0.0053288224
255	0xbdbab3ae	-0.091163024

cnn_blocks.0.convs.0.bias f4 [16]
0	0x3cb2b92d	0.021816814
1	0x3dd136f2	0.10215558
2	0x3d7cda27	0.061731484
3	0x3d57e25e	0.052706115
4	0xbacf7cf4	-0.0015830086
5	0xbc9f117a	-0.019417513
6	0xbda78a36	-0.081806585
7	0x3d4c6bec	0.04990761
8	0x3d51190a	0.05104927
9	0x3c8b1560	0.016977966
10	0x3d108ec3	0.0352924
11	0x3dbdfe4a	0.092770174
12	0x3da44c10	0.0802232
13	0x3d88338d	0.066504575
14	0xbb80cc8d	-0.0039306344
15	0x3d5e9bbc	0.05434774

cnn_blocks.0.convs.1.weight f4 [16, 16, 3, 3]
0	0x3d549af2	0.05190558
1	0x3cfcd769	0.030864434
2	0x3d7edbb6	0.06222125
3	0xbce5b8c1	-0.0280422
4	0x3d3928ec	0.04520504
5	0xbc93090e	-0.017948654
6	0xbde15bde	-0.110038504
7	0xbd96326f	-0.07333838
8	0x3cfdb5ce	0.03097048
9	0x3dbf6ad2	0.09346546
10	0xbbc6cfa8	-0.006067235
11	0x3d68daf3	0.05684943
12	0xbd1a0e23	-0.037611138
13	0x3d19d95c	0.037560806
14	0xbd27a625	-0.040929932
15	0x3cbb6312	0.022874389
16	0x3c450afa	0.012026543
17	0x3d5f3e8f	0.05450302
18	0x3d6ec019	0.058288667
19	0x3bd28d65	0.006425547
20	0x3d2d3a6b	0.04229204
21	0x3cfc0f06	0.030768882
22	0xbd71e2dc	-0.05905424
23	0xbd0e5c87	-0.03475621
24	0xbd744a71	-0.059641305
25	0xbd69c612	-0.05707366
26	0xbdd30942	-0.103045
27	0xbd915f89	-0.070983
28	0x3b8c64ad	0.0042844624
29	0x3d813aca	0.06310041
30	0xbdbb08a1	-0.09132505
31	0xbda36b01	-0.07979394
32	0x3d339300	0.043841362
33	0x3c52deda	0.012870515
34	0x3d99663a	0.07490201
35	0x3d80b763	0.06284978
36	0x3d8c1fdf	0.068420164
37	0x3da0e70f	0.07856571
38	0x3d337da9	0.04382101
39	0x3d41bacd	0.047297288
40	0x3d1fb376	0.038989507
41	0x3d8ab04b	0.067719065
42	0xbd33038d	-0.04370456
43	0xbd94d8ce	-0.07267915
44	0x3dacec34	0.0844349
45	0x3dc1a873	0.09455957
46	0x3dbbe0bb	0.09173723
47	0x3da55ea5	0.08074693
48	0x3c993655	0.018702665
49	0xbdc1b301	-0.094579704
50	0xbd53ce30	-0.051710308
51	0xbcee0047	-0.029052867
52	0x3cd96601	0.026537897
53	0xbc6ed788	-0.014577754
54	0xbd1326b6	-0.03592559
55	0x3d18f794	0.037345484
56	0x3c9aa3f4	0.018877007
57	0x3de2b1e2	0.11069085
58	0xbc2e04bd	-0.010621247
59	0xbd689c8a	-0.056789912
60	0x3df15aff	0.11784934
61	0xbd5a1082	-0.0532384
62	0xbd924262	-0.07141568
63	0xbc1c4e08	-0.0095400885
64	0x3d30edb4	0.04319544
65	0x3c3e596e	0.011618001
66	0xbc937a84	-0.018002756
67	0x3d470c57	0.048595753
68	0xbe00a71a	-0.12563744
69	0xbd8b928e	-0.068150625
70	0xbcb1ad93	-0.021689212
71	0x3e1e0a8e	0.15433714
72	0x3cd34317	0.025788827
73	0x3d157c82	0.036495693
74	0x3dbe3656	0.092877075
75	0xbbbd7fb3	-0.005783045
76	0x3dca5b1e	0.098806605
77	0xbe0c65d0	-0.13710713
78	0x3dbf75db	0.09348651
79	0xbbc89011	-0.0061206897
80	0xbe202a29	-0.15641083
81	0x3de7dc42	0.11321308
82	0xbb003799	-0.0019564389
83	0x3cd6dd88	0.026228681
84	0xbd45318c	-0.048142955
85	0xbe1304bd	-0.14357276
86	0x3dac6cd3	0.08419194
87	0xbbf41bfd	-0.0074496255
88	0x3b84f6a3	0.0040577217
89	0x3d1155ad	0.035482097
90	0x3c7ab6d9	0.015302383
91	0x3dca4a95	0.09877507
92	0x3c35e8df	0.011102884
93	0x3de7dee4	0.1132181
94	0x3d6ab191	0.057298247
95	0x3e060a42	0.1308985
96	0xbd891ae1	-0.0669458
97	0x3da0e5f7	0.07856362
98	0xbcc4e7d9	-0.024036335
99	0xbd8ff380	-0.07028866
100	0xbd68c277	-0.05682608
101	0xbbf883bd	-0.007584064
102	0xbd70fdb1	-0.05883569
103	0xbd604630	-0.054754436
104	0x3cf4fb7d	0.029905075
105	0xbd63fa01	-0.055658344
106	0x3d2dfec3	0.042479288
107	0x3d6eb2c3	0.05827595
108	0xbd3f3687	-0.04668286
109	0xbe11313d	-0.14178939
110	0xbd062733	-0.032752227
111	0xbc1ccc7d	-0.009570238
112	0xbe49150b	-0.19636934
113	0xbd9b2b68	-0.075766385
114	0xbb5c09b8	-0.0033575129
115	0xbcaa9478	-0.020822749
116	0xbd600134	-0.054688647
117	0xbdadb967	-0.08482628
118	0x3cd0c80e	0.025486019
119	0x3b5ececb	0.003399777
120	0x3cfe4b93	0.031041896
121	0x3e2100da	0.15722981
122	0x3d9fb9d3	0.07799115
123	0xbbcf60c6	-0.006328675
124	0xbc2ec4a9	-0.010667005
125	0xbd5b6606	-0.053564094
126	0x3d4bb8f5	0.049736936
127	0xbdbfee4e	-0.09371625
128	0xbc39ff29	-0.011352339
129	0x3e15c173	0.14624576
130	0x3d1c3570	0.0381369
131	0xbd963c1f	-0.07335686
132	0x3d821519	0.0635168
133	0xbd160034	-0.036621287
134	0x3d9e820f	0.077396505
135	0x3d7b7202	0.061388023
136	0x3c4fd952	0.012686091
137	0x3c9cc8d8	0.019138739
138	0xbd91fd81	-0.0712843
139	0xbba7066b	-0.0050972006
140	0x3d8dfcc8	0.0693298
141	0xbc88fdc7	-0.016722573
142	0x3dff745e	0.12473367
143	0x3dcec48d	0.10096083
144	0xbc244c51	-0.010027961
145	0x3c97c5f4	0.018527009
146	0x3c53a600	0.012917995
147	0xbdb9a13f	-0.090639584
148	0xbe175064	-0.1477676
149	0xbe1d6a99	-0.15372695
150	0x3c1f121f	0.00970891
151	0x3d7e8b31	0.062144462
152	0x3df13e6b	0.117794834
153	0x3d83a90d	0.06428728
154	0x3d5425e2	0.05179394
155	0x3d0e4613	0.034734797
156	0xbe18b9f1	-0.14914681
157	0x3d201405	0.039081592
158	0xbca99bfd	-0.020704264
159	0xbdae050f	-0.084970586
160	0xbd8a1081	-0.06741429
161	0xbd0a58ba	-0.033776022
162	0x3c17dd15	0.009269019
163	0x3d8302db	0.06397029
164	0x3d7427f4	0.059608415
165	0xbe14c03b	-0.14526455
166	0x3d84cbb1	0.064841636
167	0x3e25c971	0.16190125
168	0xbcfc6ffc	-0.030815117
169	0xbcc85306	-0.024453651
170	0x3bd4b8dd	0.006491764
171	0xbcbabf94	-0.02279643
172	0xbd8bb03a	-0.06820722
173	0xbd9847ea	-0.074355915
174	0xbc59c209	-0.0132908905
175	0x3d43d7d0	0.047813237
176	0xbc0ce3ae	-0.008599205
177	0x3d191cbf	0.03738093
178	0xbb951978	-0.0045501553
179	0x3e1b1bfc	0.15147394
180	0xbba993e0	-0.005175099
181	0x3d0f5762	0.034995444
182	0xbd2c844f	-0.042118367
183	0x3e06eaa2	0.13175443
184	0xbc8e328d	-0.017358089
185	0x3ca4cd08	0.020117298
186	0x3ad883f1	0.0016518814
187	0xbd757a6e	-0.05993121
188	0x3cc294e7	0.023752643
189	0x3d28e238	0.041231364
190	0x3dc5b78f	0.09654152
191	0x3cc1a129	0.023636417
192	0xbd64975c	-0.05580841
193	0xbdebafe2	-0.11508156
194	0xbd257faa	-0.040404953
195	0x3ab86bbd	0.0014070194
196	0xbd78800d	-0.060668994
197	0x3bbb5546	0.0057169525
198	0xbd1ffee7	-0.039061453
199	0x3cabb6d7	0.020961208
200	0xbd4f68c2	-0.050637014
201	0x3dd0e1c0	0.101993084
202	0x3da8acc4	0.082360774
203	0xbd9faa77	-0.077961855
204	0x3de004be	0.109384045
205	0x3d206ada	0.0391644
206	0xbde244fc	-0.11048314
207	0x3bc10e58	0.0058916025
208	0xbd26a46f	-0.04068416
209	0xbc0f604f	-0.008750989
210	0xbdbc2df6	-0.09188454
211	0xbdaf8b8c	-0.08571538
212	0xbd2f1729	-0.042746697
213	0xbe53d72d	-0.20687552
214	0x3e04a1f1	0.129524
215	0x3c987f6d	0.018615449
216	0x3dbcecfe	0.0922489
217	0xbad60792	-0.001632916
218	0x3d61b5be	0.055104963
219	0x3dac8f78	0.08425802
220	0xbd43437a	-0.047671773
221	0xbdd0d0e1	-0.101960905
222	0x3df58e06	0.119899794
223	0x3e218df7	0.15776812
224	0xbddf25e0	-0.10895896
225	0xbcd526a0	-0.026019394
226	0x3c37971d	0.011205462
227	0x3da8a8fe	0.08235358
228	0xbc512f06	-0.012767559
229	0xbc03677d	-0.008020279
230	0x3bd0b679	0.0063694087
231	0xbd9bba48	-0.0760389
232	0x3cecf45f	0.028925119
233	0xbca64585	-0.020296821
234	0x3aa8b4ea	0.0012871299
235	0x3d82563c	0.06364104
236	0xbcf105dc	-0.02942174
237	0x3de77dcb	0.1130329
238	0xbdf7d7a7	-0.12101679
239	0x3c99d7d0	0.018779665
240	0xbdc8b1b2	-0.09799518
241	0x3cfd5c59	0.030927824
242	0xbe1afa22	-0.1513448
243	0xbd4ad665	-0.04952087
244	0xbdc5a88d	-0.09651289
245	0xbc17fe1b	-0.009276892
246	0x3d9b212b	0.07574686
247	0x3de26205	0.11053852
248	0x3dc0aac5	0.09407572
249	0xbcef9a4a	-0.029248375
250	0x3e0efa3e	0.13962647
251	0xbde2a6a7	-0.11066943
252	0xbd2e0336	-0.04248353
253	0x3c5c5143	0.013447109
254	0xbd41d14d	-0.047318745
255	0x3bead3d5	0.0071663656

cnn_blocks.0.convs.1.bias f4 [16]
0	0x3cd69b09	0.026196973
1	0xbd5299f2	-0.051416345
2	0xbd8e82d3	-0.069585465
3	0xbdb656cb	-0.08903273
4	0xbd3a25ed	-0.045446325
5	0x3c03fb92	0.0080555845
6	0x3d81da67	0.06340485
7	0x3d422d7f	0.04740667
8	0x3d927aa3	0.07152297
9	0x3b318557	0.0027087533
10	0x3a9116c3	0.0011069406
11	0x3c6f0a6b	0.014589886
12	0x3b8758d6	0.004130463
13	0xbc4769dc	-0.012171235
14	0xbd8969ba	-0.06709619
15	0x3d7dafc6	0.06193521

cnn_blocks.0.norms.0.weight f4 [16]
0	0x3f6455c7	0.89193386
1	0x3f790f76	0.97289217
2	0x3f79e23f	0.9761085
3	0x3f7ff1d8	0.999784
4	0x3f80d1ad	1.0063988
5	0x3f7fdf8c	0.9995048
6	0x3f853890	1.0407887
7	0x3f89fae6	1.0779693
8	0x3f855fff	1.0419921
9	0x3f80ca0b	1.0061659
10	0x3f72c340	0.9482918
11	0x3f6a6bf5	0.9157098
12	0x3f8cc670	1.0998058
13	0x3f7f87d9	0.9981666
14	0x3f87e3ee	1.0616434
15	0x3f74f3e2	0.95684636

cnn_blocks.0.norms.0.bias f4 [16]
0	0xbe41ac6d	-0.18913431
1	0xbe038ba8	-0.12846243
2	0xbdc38808	-0.0954743
3	0xbda04699	-0.078259654
4	0xbd3f8163	-0.046754252
5	0xbdadf50f	-0.08494007
6	0x3b8d220a	0.0043070363
7	0xbd2563ef	-0.040378507
8	0x3b9ff317	0.0048812735
9	0xbe0c31d1	-0.13690878
10	0xbda7478e	-0.08167945
11	0xbd1c381d	-0.03813945
12	0xbe007589	-0.12544836
13	0xbe204463	-0.15651087
14	0xbb867a81	-0.004103959
15	0xbd444c29	-0.047924194

cnn_blocks.0.norms.0.running_mean f4 [16]
0	0x3c574110	0.013138071
1	0x3d9740b0	0.07385385
2	0xbd2f0223	-0.042726647
3	0x3e1c6624	0.15273339
4	0xbcb394d4	-0.021921553
5	0xbe1f2d16	-0.15544543
6	0xbe0acd88	-0.13554966
7	0x3e0e3d46	0.13890561
8	0x3e21e235	0.15808947
9	0xbc9dcd51	-0.019262942
10	0xbd7cfad5	-0.06176265
11	0x3e3bf406	0.18354806
12	0x3d89f1bf	0.067355625
13	0x3df56efc	0.11984059
14	0x3c35d083	0.011097076
15	0x3e7148d6	0.23562941

cnn_blocks.0.norms.0.running_var f4 [16]
0	0x3d3475e7	0.044057753
1	0x3d4bbd77	0.049741235
2	0x3d38190d	0.044945765
3	0x3d99c082	0.07507421
4	0x3d943e50	0.07238448
5	0x3da750f4	0.081697375
6	0x3e0d8733	0.13821106
7	0x3d8713c5	0.065955676
8	0x3d2c907d	0.042129982
9	0x3d60bec8	0.054869443
10	0x3d813bf7	0.063102655
11	0x3d534679	0.05158088
12	0x3da922cd	0.08258591
13	0x3d64c269	0.055849466
14	0x3d868b8e	0.06569587
15	0x3db60b06	0.08888821

cnn_blocks.0.norms.1.weight f4 [16]
0	0x3f867085	1.0503088
1	0x3f87b716	1.0602748
2	0x3f880a5c	1.0628161
3	0x3f8498ea	1.0359166
4	0x3f868ba8	1.051137
5	0x3f8be150	1.0928135
6	0x3f863d54	1.0487466
7	0x3f9529ae	1.1653345
8	0x3f937bbe	1.1522138
9	0x3f90a0b6	1.1299045
10	0x3f84f54c	1.0387359
11	0x3f8da8b9	1.1067115
12	0x3f8ecdec	1.1156592
13	0x3f89e0c5	1.0771719
14	0x3f84fd67	1.0389832
15	0x3f916b2f	1.1360835
